exec 'nq' 'scripts/exp_dgd.sh'

WARNING: Logging before InitGoogleLogging() is written to STDERR
I0418 05:36:38.076975 16138 net.cpp:47] Initializing net from parameters: 
name: "JSTL"
input: "data"
input_dim: 1
input_dim: 3
input_dim: 144
input_dim: 56
state {
  phase: TEST
}
richness: 1000
layer {
  name: "conv1"
  type: "Convolution"
  bottom: "data"
  top: "conv1"
  param {
    lr_mult: 1
    decay_mult: 1
  }
  param {
    lr_mult: 2
    decay_mult: 0
  }
  convolution_param {
    num_output: 32
    pad: 1
    kernel_size: 3
    stride: 1
    weight_filler {
      type: "xavier"
    }
    bias_filler {
      type: "constant"
      value: 0.2
    }
  }
}
layer {
  name: "conv1_bn"
  type: "BN"
  bottom: "conv1"
  top: "conv1_bn"
  param {
    lr_mult: 1
    decay_mult: 0
  }
  param {
    lr_mult: 1
    decay_mult: 0
  }
  bn_param {
    slope_filler {
      type: "constant"
      value: 1
    }
    bias_filler {
      type: "constant"
      value: 0
    }
  }
}
layer {
  name: "relu1"
  type: "ReLU"
  bottom: "conv1_bn"
  top: "conv1_bn"
}
layer {
  name: "conv2"
  type: "Convolution"
  bottom: "conv1_bn"
  top: "conv2"
  param {
    lr_mult: 1
    decay_mult: 1
  }
  param {
    lr_mult: 2
    decay_mult: 0
  }
  convolution_param {
    num_output: 32
    pad: 1
    kernel_size: 3
    stride: 1
    weight_filler {
      type: "xavier"
    }
    bias_filler {
      type: "constant"
      value: 0.2
    }
  }
}
layer {
  name: "conv2_bn"
  type: "BN"
  bottom: "conv2"
  top: "conv2_bn"
  param {
    lr_mult: 1
    decay_mult: 0
  }
  param {
    lr_mult: 1
    decay_mult: 0
  }
  bn_param {
    slope_filler {
      type: "constant"
      value: 1
    }
    bias_filler {
      type: "constant"
      value: 0
    }
  }
}
layer {
  name: "relu2"
  type: "ReLU"
  bottom: "conv2_bn"
  top: "conv2_bn"
}
layer {
  name: "conv3"
  type: "Convolution"
  bottom: "conv2_bn"
  top: "conv3"
  param {
    lr_mult: 1
    decay_mult: 1
  }
  param {
    lr_mult: 2
    decay_mult: 0
  }
  convolution_param {
    num_output: 32
    pad: 1
    kernel_size: 3
    stride: 1
    weight_filler {
      type: "xavier"
    }
    bias_filler {
      type: "constant"
      value: 0.2
    }
  }
}
layer {
  name: "conv3_bn"
  type: "BN"
  bottom: "conv3"
  top: "conv3_bn"
  param {
    lr_mult: 1
    decay_mult: 0
  }
  param {
    lr_mult: 1
    decay_mult: 0
  }
  bn_param {
    slope_filler {
      type: "constant"
      value: 1
    }
    bias_filler {
      type: "constant"
      value: 0
    }
  }
}
layer {
  name: "relu3"
  type: "ReLU"
  bottom: "conv3_bn"
  top: "conv3_bn"
}
layer {
  name: "pool1"
  type: "Pooling"
  bottom: "conv3_bn"
  top: "pool1"
  pooling_param {
    pool: MAX
    kernel_size: 2
    stride: 2
  }
}
layer {
  name: "inception_1a/1x1"
  type: "Convolution"
  bottom: "pool1"
  top: "inception_1a/1x1"
  param {
    lr_mult: 1
    decay_mult: 1
  }
  param {
    lr_mult: 2
    decay_mult: 0
  }
  convolution_param {
    num_output: 64
    kernel_size: 1
    weight_filler {
      type: "xavier"
    }
    bias_filler {
      type: "constant"
      value: 0.2
    }
  }
}
layer {
  name: "inception_1a/1x1_bn"
  type: "BN"
  bottom: "inception_1a/1x1"
  top: "inception_1a/1x1_bn"
  param {
    lr_mult: 1
    decay_mult: 0
  }
  param {
    lr_mult: 1
    decay_mult: 0
  }
  bn_param {
    slope_filler {
      type: "constant"
      value: 1
    }
    bias_filler {
      type: "constant"
      value: 0
    }
  }
}
layer {
  name: "inception_1a/relu_1x1"
  type: "ReLU"
  bottom: "inception_1a/1x1_bn"
  top: "inception_1a/1x1_bn"
}
layer {
  name: "inception_1a/3x3_reduce"
  type: "Convolution"
  bottom: "pool1"
  top: "inception_1a/3x3_reduce"
  param {
    lr_mult: 1
    decay_mult: 1
  }
  param {
    lr_mult: 2
    decay_mult: 0
  }
  convolution_param {
    num_output: 64
    kernel_size: 1
    weight_filler {
      type: "xavier"
    }
    bias_filler {
      type: "constant"
      value: 0.2
    }
  }
}
layer {
  name: "inception_1a/3x3_reduce_bn"
  type: "BN"
  bottom: "inception_1a/3x3_reduce"
  top: "inception_1a/3x3_reduce_bn"
  param {
    lr_mult: 1
    decay_mult: 0
  }
  param {
    lr_mult: 1
    decay_mult: 0
  }
  bn_param {
    slope_filler {
      type: "constant"
      value: 1
    }
    bias_filler {
      type: "constant"
      value: 0
    }
  }
}
layer {
  name: "inception_1a/relu_3x3_reduce"
  type: "ReLU"
  bottom: "inception_1a/3x3_reduce_bn"
  top: "inception_1a/3x3_reduce_bn"
}
layer {
  name: "inception_1a/3x3"
  type: "Convolution"
  bottom: "inception_1a/3x3_reduce_bn"
  top: "inception_1a/3x3"
  param {
    lr_mult: 1
    decay_mult: 1
  }
  param {
    lr_mult: 2
    decay_mult: 0
  }
  convolution_param {
    num_output: 64
    pad: 1
    kernel_size: 3
    weight_filler {
      type: "xavier"
    }
    bias_filler {
      type: "constant"
      value: 0.2
    }
  }
}
layer {
  name: "inception_1a/3x3_bn"
  type: "BN"
  bottom: "inception_1a/3x3"
  top: "inception_1a/3x3_bn"
  param {
    lr_mult: 1
    decay_mult: 0
  }
  param {
    lr_mult: 1
    decay_mult: 0
  }
  bn_param {
    slope_filler {
      type: "constant"
      value: 1
    }
    bias_filler {
      type: "constant"
      value: 0
    }
  }
}
layer {
  name: "inception_1a/relu_3x3"
  type: "ReLU"
  bottom: "inception_1a/3x3_bn"
  top: "inception_1a/3x3_bn"
}
layer {
  name: "inception_1a/double_3x3_reduce"
  type: "Convolution"
  bottom: "pool1"
  top: "inception_1a/double_3x3_reduce"
  param {
    lr_mult: 1
    decay_mult: 1
  }
  param {
    lr_mult: 2
    decay_mult: 0
  }
  convolution_param {
    num_output: 64
    kernel_size: 1
    weight_filler {
      type: "xavier"
    }
    bias_filler {
      type: "constant"
      value: 0.2
    }
  }
}
layer {
  name: "inception_1a/double_3x3_reduce_bn"
  type: "BN"
  bottom: "inception_1a/double_3x3_reduce"
  top: "inception_1a/double_3x3_reduce_bn"
  param {
    lr_mult: 1
    decay_mult: 0
  }
  param {
    lr_mult: 1
    decay_mult: 0
  }
  bn_param {
    slope_filler {
      type: "constant"
      value: 1
    }
    bias_filler {
      type: "constant"
      value: 0
    }
  }
}
layer {
  name: "inception_1a/relu_double_3x3_reduce"
  type: "ReLU"
  bottom: "inception_1a/double_3x3_reduce_bn"
  top: "inception_1a/double_3x3_reduce_bn"
}
layer {
  name: "inception_1a/double_3x3_1"
  type: "Convolution"
  bottom: "inception_1a/double_3x3_reduce_bn"
  top: "inception_1a/double_3x3_1"
  param {
    lr_mult: 1
    decay_mult: 1
  }
  param {
    lr_mult: 2
    decay_mult: 0
  }
  convolution_param {
    num_output: 64
    pad: 1
    kernel_size: 3
    weight_filler {
      type: "xavier"
    }
    bias_filler {
      type: "constant"
      value: 0.2
    }
  }
}
layer {
  name: "inception_1a/double_3x3_1_bn"
  type: "BN"
  bottom: "inception_1a/double_3x3_1"
  top: "inception_1a/double_3x3_1_bn"
  param {
    lr_mult: 1
    decay_mult: 0
  }
  param {
    lr_mult: 1
    decay_mult: 0
  }
  bn_param {
    slope_filler {
      type: "constant"
      value: 1
    }
    bias_filler {
      type: "constant"
      value: 0
    }
  }
}
layer {
  name: "inception_1a/relu_double_3x3_1"
  type: "ReLU"
  bottom: "inception_1a/double_3x3_1_bn"
  top: "inception_1a/double_3x3_1_bn"
}
layer {
  name: "inception_1a/double_3x3_2"
  type: "Convolution"
  bottom: "inception_1a/double_3x3_1_bn"
  top: "inception_1a/double_3x3_2"
  param {
    lr_mult: 1
    decay_mult: 1
  }
  param {
    lr_mult: 2
    decay_mult: 0
  }
  convolution_param {
    num_output: 64
    pad: 1
    kernel_size: 3
    weight_filler {
      type: "xavier"
    }
    bias_filler {
      type: "constant"
      value: 0.2
    }
  }
}
layer {
  name: "inception_1a/double_3x3_2_bn"
  type: "BN"
  bottom: "inception_1a/double_3x3_2"
  top: "inception_1a/double_3x3_2_bn"
  param {
    lr_mult: 1
    decay_mult: 0
  }
  param {
    lr_mult: 1
    decay_mult: 0
  }
  bn_param {
    slope_filler {
      type: "constant"
      value: 1
    }
    bias_filler {
      type: "constant"
      value: 0
    }
  }
}
layer {
  name: "inception_1a/relu_double_3x3_2"
  type: "ReLU"
  bottom: "inception_1a/double_3x3_2_bn"
  top: "inception_1a/double_3x3_2_bn"
}
layer {
  name: "inception_1a/pool"
  type: "Pooling"
  bottom: "pool1"
  top: "inception_1a/pool"
  pooling_param {
    pool: AVE
    kernel_size: 3
    stride: 1
    pad: 1
  }
}
layer {
  name: "inception_1a/pool_proj"
  type: "Convolution"
  bottom: "inception_1a/pool"
  top: "inception_1a/pool_proj"
  param {
    lr_mult: 1
    decay_mult: 1
  }
  param {
    lr_mult: 2
    decay_mult: 0
  }
  convolution_param {
    num_output: 64
    kernel_size: 1
    weight_filler {
      type: "xavier"
    }
    bias_filler {
      type: "constant"
      value: 0.2
    }
  }
}
layer {
  name: "inception_1a/pool_proj_bn"
  type: "BN"
  bottom: "inception_1a/pool_proj"
  top: "inception_1a/pool_proj_bn"
  param {
    lr_mult: 1
    decay_mult: 0
  }
  param {
    lr_mult: 1
    decay_mult: 0
  }
  bn_param {
    slope_filler {
      type: "constant"
      value: 1
    }
    bias_filler {
      type: "constant"
      value: 0
    }
  }
}
layer {
  name: "inception_1a/relu_pool_proj"
  type: "ReLU"
  bottom: "inception_1a/pool_proj_bn"
  top: "inception_1a/pool_proj_bn"
}
layer {
  name: "inception_1a/output"
  type: "Concat"
  bottom: "inception_1a/1x1_bn"
  bottom: "inception_1a/3x3_bn"
  bottom: "inception_1a/double_3x3_2_bn"
  bottom: "inception_1a/pool_proj_bn"
  top: "inception_1a/output"
}
layer {
  name: "inception_1b/3x3_reduce"
  type: "Convolution"
  bottom: "inception_1a/output"
  top: "inception_1b/3x3_reduce"
  param {
    lr_mult: 1
    decay_mult: 1
  }
  param {
    lr_mult: 2
    decay_mult: 0
  }
  convolution_param {
    num_output: 64
    kernel_size: 1
    weight_filler {
      type: "xavier"
    }
    bias_filler {
      type: "constant"
      value: 0.2
    }
  }
}
layer {
  name: "inception_1b/3x3_reduce_bn"
  type: "BN"
  bottom: "inception_1b/3x3_reduce"
  top: "inception_1b/3x3_reduce_bn"
  param {
    lr_mult: 1
    decay_mult: 0
  }
  param {
    lr_mult: 1
    decay_mult: 0
  }
  bn_param {
    slope_filler {
      type: "constant"
      value: 1
    }
    bias_filler {
      type: "constant"
      value: 0
    }
  }
}
layer {
  name: "inception_1b/relu_3x3_reduce"
  type: "ReLU"
  bottom: "inception_1b/3x3_reduce_bn"
  top: "inception_1b/3x3_reduce_bn"
}
layer {
  name: "inception_1b/3x3"
  type: "Convolution"
  bottom: "inception_1b/3x3_reduce_bn"
  top: "inception_1b/3x3"
  param {
    lr_mult: 1
    decay_mult: 1
  }
  param {
    lr_mult: 2
    decay_mult: 0
  }
  convolution_param {
    num_output: 64
    pad: 1
    kernel_size: 3
    stride: 2
    weight_filler {
      type: "xavier"
    }
    bias_filler {
      type: "constant"
      value: 0.2
    }
  }
}
layer {
  name: "inception_1b/3x3_bn"
  type: "BN"
  bottom: "inception_1b/3x3"
  top: "inception_1b/3x3_bn"
  param {
    lr_mult: 1
    decay_mult: 0
  }
  param {
    lr_mult: 1
    decay_mult: 0
  }
  bn_param {
    slope_filler {
      type: "constant"
      value: 1
    }
    bias_filler {
      type: "constant"
      value: 0
    }
  }
}
layer {
  name: "inception_1b/relu_3x3"
  type: "ReLU"
  bottom: "inception_1b/3x3_bn"
  top: "inception_1b/3x3_bn"
}
layer {
  name: "inception_1b/double_3x3_reduce"
  type: "Convolution"
  bottom: "inception_1a/output"
  top: "inception_1b/double_3x3_reduce"
  param {
    lr_mult: 1
    decay_mult: 1
  }
  param {
    lr_mult: 2
    decay_mult: 0
  }
  convolution_param {
    num_output: 64
    kernel_size: 1
    weight_filler {
      type: "xavier"
    }
    bias_filler {
      type: "constant"
      value: 0.2
    }
  }
}
layer {
  name: "inception_1b/double_3x3_reduce_bn"
  type: "BN"
  bottom: "inception_1b/double_3x3_reduce"
  top: "inception_1b/double_3x3_reduce_bn"
  param {
    lr_mult: 1
    decay_mult: 0
  }
  param {
    lr_mult: 1
    decay_mult: 0
  }
  bn_param {
    slope_filler {
      type: "constant"
      value: 1
    }
    bias_filler {
      type: "constant"
      value: 0
    }
  }
}
layer {
  name: "inception_1b/relu_double_3x3_reduce"
  type: "ReLU"
  bottom: "inception_1b/double_3x3_reduce_bn"
  top: "inception_1b/double_3x3_reduce_bn"
}
layer {
  name: "inception_1b/double_3x3_1"
  type: "Convolution"
  bottom: "inception_1b/double_3x3_reduce_bn"
  top: "inception_1b/double_3x3_1"
  param {
    lr_mult: 1
    decay_mult: 1
  }
  param {
    lr_mult: 2
    decay_mult: 0
  }
  convolution_param {
    num_output: 64
    pad: 1
    kernel_size: 3
    weight_filler {
      type: "xavier"
    }
    bias_filler {
      type: "constant"
      value: 0.2
    }
  }
}
layer {
  name: "inception_1b/double_3x3_1_bn"
  type: "BN"
  bottom: "inception_1b/double_3x3_1"
  top: "inception_1b/double_3x3_1_bn"
  param {
    lr_mult: 1
    decay_mult: 0
  }
  param {
    lr_mult: 1
    decay_mult: 0
  }
  bn_param {
    slope_filler {
      type: "constant"
      value: 1
    }
    bias_filler {
      type: "constant"
      value: 0
    }
  }
}
layer {
  name: "inception_1b/relu_double_3x3_1"
  type: "ReLU"
  bottom: "inception_1b/double_3x3_1_bn"
  top: "inception_1b/double_3x3_1_bn"
}
layer {
  name: "inception_1b/double_3x3_2"
  type: "Convolution"
  bottom: "inception_1b/double_3x3_1_bn"
  top: "inception_1b/double_3x3_2"
  param {
    lr_mult: 1
    decay_mult: 1
  }
  param {
    lr_mult: 2
    decay_mult: 0
  }
  convolution_param {
    num_output: 64
    pad: 1
    kernel_size: 3
    stride: 2
    weight_filler {
      type: "xavier"
    }
    bias_filler {
      type: "constant"
      value: 0.2
    }
  }
}
layer {
  name: "inception_1b/double_3x3_2_bn"
  type: "BN"
  bottom: "inception_1b/double_3x3_2"
  top: "inception_1b/double_3x3_2_bn"
  param {
    lr_mult: 1
    decay_mult: 0
  }
  param {
    lr_mult: 1
    decay_mult: 0
  }
  bn_param {
    slope_filler {
      type: "constant"
      value: 1
    }
    bias_filler {
      type: "constant"
      value: 0
    }
  }
}
layer {
  name: "inception_1b/relu_double_3x3_2"
  type: "ReLU"
  bottom: "inception_1b/double_3x3_2_bn"
  top: "inception_1b/double_3x3_2_bn"
}
layer {
  name: "inception_1b/pool"
  type: "Pooling"
  bottom: "inception_1a/output"
  top: "inception_1b/pool"
  pooling_param {
    pool: MAX
    kernel_size: 3
    stride: 2
  }
}
layer {
  name: "inception_1b/output"
  type: "Concat"
  bottom: "inception_1b/3x3_bn"
  bottom: "inception_1b/double_3x3_2_bn"
  bottom: "inception_1b/pool"
  top: "inception_1b/output"
}
layer {
  name: "inception_2a/1x1"
  type: "Convolution"
  bottom: "inception_1b/output"
  top: "inception_2a/1x1"
  param {
    lr_mult: 1
    decay_mult: 1
  }
  param {
    lr_mult: 2
    decay_mult: 0
  }
  convolution_param {
    num_output: 128
    kernel_size: 1
    weight_filler {
      type: "xavier"
    }
    bias_filler {
      type: "constant"
      value: 0.2
    }
  }
}
layer {
  name: "inception_2a/1x1_bn"
  type: "BN"
  bottom: "inception_2a/1x1"
  top: "inception_2a/1x1_bn"
  param {
    lr_mult: 1
    decay_mult: 0
  }
  param {
    lr_mult: 1
    decay_mult: 0
  }
  bn_param {
    slope_filler {
      type: "constant"
      value: 1
    }
    bias_filler {
      type: "constant"
      value: 0
    }
  }
}
layer {
  name: "inception_2a/relu_1x1"
  type: "ReLU"
  bottom: "inception_2a/1x1_bn"
  top: "inception_2a/1x1_bn"
}
layer {
  name: "inception_2a/3x3_reduce"
  type: "Convolution"
  bottom: "inception_1b/output"
  top: "inception_2a/3x3_reduce"
  param {
    lr_mult: 1
    decay_mult: 1
  }
  param {
    lr_mult: 2
    decay_mult: 0
  }
  convolution_param {
    num_output: 128
    kernel_size: 1
    weight_filler {
      type: "xavier"
    }
    bias_filler {
      type: "constant"
      value: 0.2
    }
  }
}
layer {
  name: "inception_2a/3x3_reduce_bn"
  type: "BN"
  bottom: "inception_2a/3x3_reduce"
  top: "inception_2a/3x3_reduce_bn"
  param {
    lr_mult: 1
    decay_mult: 0
  }
  param {
    lr_mult: 1
    decay_mult: 0
  }
  bn_param {
    slope_filler {
      type: "constant"
      value: 1
    }
    bias_filler {
      type: "constant"
      value: 0
    }
  }
}
layer {
  name: "inception_2a/relu_3x3_reduce"
  type: "ReLU"
  bottom: "inception_2a/3x3_reduce_bn"
  top: "inception_2a/3x3_reduce_bn"
}
layer {
  name: "inception_2a/3x3"
  type: "Convolution"
  bottom: "inception_2a/3x3_reduce_bn"
  top: "inception_2a/3x3"
  param {
    lr_mult: 1
    decay_mult: 1
  }
  param {
    lr_mult: 2
    decay_mult: 0
  }
  convolution_param {
    num_output: 128
    pad: 1
    kernel_size: 3
    weight_filler {
      type: "xavier"
    }
    bias_filler {
      type: "constant"
      value: 0.2
    }
  }
}
layer {
  name: "inception_2a/3x3_bn"
  type: "BN"
  bottom: "inception_2a/3x3"
  top: "inception_2a/3x3_bn"
  param {
    lr_mult: 1
    decay_mult: 0
  }
  param {
    lr_mult: 1
    decay_mult: 0
  }
  bn_param {
    slope_filler {
      type: "constant"
      value: 1
    }
    bias_filler {
      type: "constant"
      value: 0
    }
  }
}
layer {
  name: "inception_2a/relu_3x3"
  type: "ReLU"
  bottom: "inception_2a/3x3_bn"
  top: "inception_2a/3x3_bn"
}
layer {
  name: "inception_2a/double_3x3_reduce"
  type: "Convolution"
  bottom: "inception_1b/output"
  top: "inception_2a/double_3x3_reduce"
  param {
    lr_mult: 1
    decay_mult: 1
  }
  param {
    lr_mult: 2
    decay_mult: 0
  }
  convolution_param {
    num_output: 128
    kernel_size: 1
    weight_filler {
      type: "xavier"
    }
    bias_filler {
      type: "constant"
      value: 0.2
    }
  }
}
layer {
  name: "inception_2a/double_3x3_reduce_bn"
  type: "BN"
  bottom: "inception_2a/double_3x3_reduce"
  top: "inception_2a/double_3x3_reduce_bn"
  param {
    lr_mult: 1
    decay_mult: 0
  }
  param {
    lr_mult: 1
    decay_mult: 0
  }
  bn_param {
    slope_filler {
      type: "constant"
      value: 1
    }
    bias_filler {
      type: "constant"
      value: 0
    }
  }
}
layer {
  name: "inception_2a/relu_double_3x3_reduce"
  type: "ReLU"
  bottom: "inception_2a/double_3x3_reduce_bn"
  top: "inception_2a/double_3x3_reduce_bn"
}
layer {
  name: "inception_2a/double_3x3_1"
  type: "Convolution"
  bottom: "inception_2a/double_3x3_reduce_bn"
  top: "inception_2a/double_3x3_1"
  param {
    lr_mult: 1
    decay_mult: 1
  }
  param {
    lr_mult: 2
    decay_mult: 0
  }
  convolution_param {
    num_output: 128
    pad: 1
    kernel_size: 3
    weight_filler {
      type: "xavier"
    }
    bias_filler {
      type: "constant"
      value: 0.2
    }
  }
}
layer {
  name: "inception_2a/double_3x3_1_bn"
  type: "BN"
  bottom: "inception_2a/double_3x3_1"
  top: "inception_2a/double_3x3_1_bn"
  param {
    lr_mult: 1
    decay_mult: 0
  }
  param {
    lr_mult: 1
    decay_mult: 0
  }
  bn_param {
    slope_filler {
      type: "constant"
      value: 1
    }
    bias_filler {
      type: "constant"
      value: 0
    }
  }
}
layer {
  name: "inception_2a/relu_double_3x3_1"
  type: "ReLU"
  bottom: "inception_2a/double_3x3_1_bn"
  top: "inception_2a/double_3x3_1_bn"
}
layer {
  name: "inception_2a/double_3x3_2"
  type: "Convolution"
  bottom: "inception_2a/double_3x3_1_bn"
  top: "inception_2a/double_3x3_2"
  param {
    lr_mult: 1
    decay_mult: 1
  }
  param {
    lr_mult: 2
    decay_mult: 0
  }
  convolution_param {
    num_output: 128
    pad: 1
    kernel_size: 3
    weight_filler {
      type: "xavier"
    }
    bias_filler {
      type: "constant"
      value: 0.2
    }
  }
}
layer {
  name: "inception_2a/double_3x3_2_bn"
  type: "BN"
  bottom: "inception_2a/double_3x3_2"
  top: "inception_2a/double_3x3_2_bn"
  param {
    lr_mult: 1
    decay_mult: 0
  }
  param {
    lr_mult: 1
    decay_mult: 0
  }
  bn_param {
    slope_filler {
      type: "constant"
      value: 1
    }
    bias_filler {
      type: "constant"
      value: 0
    }
  }
}
layer {
  name: "inception_2a/relu_double_3x3_2"
  type: "ReLU"
  bottom: "inception_2a/double_3x3_2_bn"
  top: "inception_2a/double_3x3_2_bn"
}
layer {
  name: "inception_2a/pool"
  type: "Pooling"
  bottom: "inception_1b/output"
  top: "inception_2a/pool"
  pooling_param {
    pool: AVE
    kernel_size: 3
    stride: 1
    pad: 1
  }
}
layer {
  name: "inception_2a/pool_proj"
  type: "Convolution"
  bottom: "inception_2a/pool"
  top: "inception_2a/pool_proj"
  param {
    lr_mult: 1
    decay_mult: 1
  }
  param {
    lr_mult: 2
    decay_mult: 0
  }
  convolution_param {
    num_output: 128
    kernel_size: 1
    weight_filler {
      type: "xavier"
    }
    bias_filler {
      type: "constant"
      value: 0.2
    }
  }
}
layer {
  name: "inception_2a/pool_proj_bn"
  type: "BN"
  bottom: "inception_2a/pool_proj"
  top: "inception_2a/pool_proj_bn"
  param {
    lr_mult: 1
    decay_mult: 0
  }
  param {
    lr_mult: 1
    decay_mult: 0
  }
  bn_param {
    slope_filler {
      type: "constant"
      value: 1
    }
    bias_filler {
      type: "constant"
      value: 0
    }
  }
}
layer {
  name: "inception_2a/relu_pool_proj"
  type: "ReLU"
  bottom: "inception_2a/pool_proj_bn"
  top: "inception_2a/pool_proj_bn"
}
layer {
  name: "inception_2a/output"
  type: "Concat"
  bottom: "inception_2a/1x1_bn"
  bottom: "inception_2a/3x3_bn"
  bottom: "inception_2a/double_3x3_2_bn"
  bottom: "inception_2a/pool_proj_bn"
  top: "inception_2a/output"
}
layer {
  name: "inception_2b/3x3_reduce"
  type: "Convolution"
  bottom: "inception_2a/output"
  top: "inception_2b/3x3_reduce"
  param {
    lr_mult: 1
    decay_mult: 1
  }
  param {
    lr_mult: 2
    decay_mult: 0
  }
  convolution_param {
    num_output: 128
    kernel_size: 1
    weight_filler {
      type: "xavier"
    }
    bias_filler {
      type: "constant"
      value: 0.2
    }
  }
}
layer {
  name: "inception_2b/3x3_reduce_bn"
  type: "BN"
  bottom: "inception_2b/3x3_reduce"
  top: "inception_2b/3x3_reduce_bn"
  param {
    lr_mult: 1
    decay_mult: 0
  }
  param {
    lr_mult: 1
    decay_mult: 0
  }
  bn_param {
    slope_filler {
      type: "constant"
      value: 1
    }
    bias_filler {
      type: "constant"
      value: 0
    }
  }
}
layer {
  name: "inception_2b/relu_3x3_reduce"
  type: "ReLU"
  bottom: "inception_2b/3x3_reduce_bn"
  top: "inception_2b/3x3_reduce_bn"
}
layer {
  name: "inception_2b/3x3"
  type: "Convolution"
  bottom: "inception_2b/3x3_reduce_bn"
  top: "inception_2b/3x3"
  param {
    lr_mult: 1
    decay_mult: 1
  }
  param {
    lr_mult: 2
    decay_mult: 0
  }
  convolution_param {
    num_output: 128
    pad: 1
    kernel_size: 3
    stride: 2
    weight_filler {
      type: "xavier"
    }
    bias_filler {
      type: "constant"
      value: 0.2
    }
  }
}
layer {
  name: "inception_2b/3x3_bn"
  type: "BN"
  bottom: "inception_2b/3x3"
  top: "inception_2b/3x3_bn"
  param {
    lr_mult: 1
    decay_mult: 0
  }
  param {
    lr_mult: 1
    decay_mult: 0
  }
  bn_param {
    slope_filler {
      type: "constant"
      value: 1
    }
    bias_filler {
      type: "constant"
      value: 0
    }
  }
}
layer {
  name: "inception_2b/relu_3x3"
  type: "ReLU"
  bottom: "inception_2b/3x3_bn"
  top: "inception_2b/3x3_bn"
}
layer {
  name: "inception_2b/double_3x3_reduce"
  type: "Convolution"
  bottom: "inception_2a/output"
  top: "inception_2b/double_3x3_reduce"
  param {
    lr_mult: 1
    decay_mult: 1
  }
  param {
    lr_mult: 2
    decay_mult: 0
  }
  convolution_param {
    num_output: 128
    kernel_size: 1
    weight_filler {
      type: "xavier"
    }
    bias_filler {
      type: "constant"
      value: 0.2
    }
  }
}
layer {
  name: "inception_2b/double_3x3_reduce_bn"
  type: "BN"
  bottom: "inception_2b/double_3x3_reduce"
  top: "inception_2b/double_3x3_reduce_bn"
  param {
    lr_mult: 1
    decay_mult: 0
  }
  param {
    lr_mult: 1
    decay_mult: 0
  }
  bn_param {
    slope_filler {
      type: "constant"
      value: 1
    }
    bias_filler {
      type: "constant"
      value: 0
    }
  }
}
layer {
  name: "inception_2b/relu_double_3x3_reduce"
  type: "ReLU"
  bottom: "inception_2b/double_3x3_reduce_bn"
  top: "inception_2b/double_3x3_reduce_bn"
}
layer {
  name: "inception_2b/double_3x3_1"
  type: "Convolution"
  bottom: "inception_2b/double_3x3_reduce_bn"
  top: "inception_2b/double_3x3_1"
  param {
    lr_mult: 1
    decay_mult: 1
  }
  param {
    lr_mult: 2
    decay_mult: 0
  }
  convolution_param {
    num_output: 128
    pad: 1
    kernel_size: 3
    weight_filler {
      type: "xavier"
    }
    bias_filler {
      type: "constant"
      value: 0.2
    }
  }
}
layer {
  name: "inception_2b/double_3x3_1_bn"
  type: "BN"
  bottom: "inception_2b/double_3x3_1"
  top: "inception_2b/double_3x3_1_bn"
  param {
    lr_mult: 1
    decay_mult: 0
  }
  param {
    lr_mult: 1
    decay_mult: 0
  }
  bn_param {
    slope_filler {
      type: "constant"
      value: 1
    }
    bias_filler {
      type: "constant"
      value: 0
    }
  }
}
layer {
  name: "inception_2b/relu_double_3x3_1"
  type: "ReLU"
  bottom: "inception_2b/double_3x3_1_bn"
  top: "inception_2b/double_3x3_1_bn"
}
layer {
  name: "inception_2b/double_3x3_2"
  type: "Convolution"
  bottom: "inception_2b/double_3x3_1_bn"
  top: "inception_2b/double_3x3_2"
  param {
    lr_mult: 1
    decay_mult: 1
  }
  param {
    lr_mult: 2
    decay_mult: 0
  }
  convolution_param {
    num_output: 128
    pad: 1
    kernel_size: 3
    stride: 2
    weight_filler {
      type: "xavier"
    }
    bias_filler {
      type: "constant"
      value: 0.2
    }
  }
}
layer {
  name: "inception_2b/double_3x3_2_bn"
  type: "BN"
  bottom: "inception_2b/double_3x3_2"
  top: "inception_2b/double_3x3_2_bn"
  param {
    lr_mult: 1
    decay_mult: 0
  }
  param {
    lr_mult: 1
    decay_mult: 0
  }
  bn_param {
    slope_filler {
      type: "constant"
      value: 1
    }
    bias_filler {
      type: "constant"
      value: 0
    }
  }
}
layer {
  name: "inception_2b/relu_double_3x3_2"
  type: "ReLU"
  bottom: "inception_2b/double_3x3_2_bn"
  top: "inception_2b/double_3x3_2_bn"
}
layer {
  name: "inception_2b/pool"
  type: "Pooling"
  bottom: "inception_2a/output"
  top: "inception_2b/pool"
  pooling_param {
    pool: MAX
    kernel_size: 3
    stride: 2
  }
}
layer {
  name: "inception_2b/output"
  type: "Concat"
  bottom: "inception_2b/3x3_bn"
  bottom: "inception_2b/double_3x3_2_bn"
  bottom: "inception_2b/pool"
  top: "inception_2b/output"
}
layer {
  name: "inception_3a/1x1"
  type: "Convolution"
  bottom: "inception_2b/output"
  top: "inception_3a/1x1"
  param {
    lr_mult: 1
    decay_mult: 1
  }
  param {
    lr_mult: 2
    decay_mult: 0
  }
  convolution_param {
    num_output: 256
    kernel_size: 1
    weight_filler {
      type: "xavier"
    }
    bias_filler {
      type: "constant"
      value: 0.2
    }
  }
}
layer {
  name: "inception_3a/1x1_bn"
  type: "BN"
  bottom: "inception_3a/1x1"
  top: "inception_3a/1x1_bn"
  param {
    lr_mult: 1
    decay_mult: 0
  }
  param {
    lr_mult: 1
    decay_mult: 0
  }
  bn_param {
    slope_filler {
      type: "constant"
      value: 1
    }
    bias_filler {
      type: "constant"
      value: 0
    }
  }
}
layer {
  name: "inception_3a/relu_1x1"
  type: "ReLU"
  bottom: "inception_3a/1x1_bn"
  top: "inception_3a/1x1_bn"
}
layer {
  name: "inception_3a/3x3_reduce"
  type: "Convolution"
  bottom: "inception_2b/output"
  top: "inception_3a/3x3_reduce"
  param {
    lr_mult: 1
    decay_mult: 1
  }
  param {
    lr_mult: 2
    decay_mult: 0
  }
  convolution_param {
    num_output: 256
    kernel_size: 1
    weight_filler {
      type: "xavier"
    }
    bias_filler {
      type: "constant"
      value: 0.2
    }
  }
}
layer {
  name: "inception_3a/3x3_reduce_bn"
  type: "BN"
  bottom: "inception_3a/3x3_reduce"
  top: "inception_3a/3x3_reduce_bn"
  param {
    lr_mult: 1
    decay_mult: 0
  }
  param {
    lr_mult: 1
    decay_mult: 0
  }
  bn_param {
    slope_filler {
      type: "constant"
      value: 1
    }
    bias_filler {
      type: "constant"
      value: 0
    }
  }
}
layer {
  name: "inception_3a/relu_3x3_reduce"
  type: "ReLU"
  bottom: "inception_3a/3x3_reduce_bn"
  top: "inception_3a/3x3_reduce_bn"
}
layer {
  name: "inception_3a/3x3"
  type: "Convolution"
  bottom: "inception_3a/3x3_reduce_bn"
  top: "inception_3a/3x3"
  param {
    lr_mult: 1
    decay_mult: 1
  }
  param {
    lr_mult: 2
    decay_mult: 0
  }
  convolution_param {
    num_output: 256
    pad: 1
    kernel_size: 3
    weight_filler {
      type: "xavier"
    }
    bias_filler {
      type: "constant"
      value: 0.2
    }
  }
}
layer {
  name: "inception_3a/3x3_bn"
  type: "BN"
  bottom: "inception_3a/3x3"
  top: "inception_3a/3x3_bn"
  param {
    lr_mult: 1
    decay_mult: 0
  }
  param {
    lr_mult: 1
    decay_mult: 0
  }
  bn_param {
    slope_filler {
      type: "constant"
      value: 1
    }
    bias_filler {
      type: "constant"
      value: 0
    }
  }
}
layer {
  name: "inception_3a/relu_3x3"
  type: "ReLU"
  bottom: "inception_3a/3x3_bn"
  top: "inception_3a/3x3_bn"
}
layer {
  name: "inception_3a/double_3x3_reduce"
  type: "Convolution"
  bottom: "inception_2b/output"
  top: "inception_3a/double_3x3_reduce"
  param {
    lr_mult: 1
    decay_mult: 1
  }
  param {
    lr_mult: 2
    decay_mult: 0
  }
  convolution_param {
    num_output: 256
    kernel_size: 1
    weight_filler {
      type: "xavier"
    }
    bias_filler {
      type: "constant"
      value: 0.2
    }
  }
}
layer {
  name: "inception_3a/double_3x3_reduce_bn"
  type: "BN"
  bottom: "inception_3a/double_3x3_reduce"
  top: "inception_3a/double_3x3_reduce_bn"
  param {
    lr_mult: 1
    decay_mult: 0
  }
  param {
    lr_mult: 1
    decay_mult: 0
  }
  bn_param {
    slope_filler {
      type: "constant"
      value: 1
    }
    bias_filler {
      type: "constant"
      value: 0
    }
  }
}
layer {
  name: "inception_3a/relu_double_3x3_reduce"
  type: "ReLU"
  bottom: "inception_3a/double_3x3_reduce_bn"
  top: "inception_3a/double_3x3_reduce_bn"
}
layer {
  name: "inception_3a/double_3x3_1"
  type: "Convolution"
  bottom: "inception_3a/double_3x3_reduce_bn"
  top: "incep
I0418 05:36:38.981896 16138 net.cpp:413] Input 0 -> data
I0418 05:36:38.981940 16138 layer_factory.hpp:74] Creating layer conv1
I0418 05:36:38.981951 16138 net.cpp:133] Creating Layer conv1
I0418 05:36:38.981955 16138 net.cpp:453] conv1 <- data
I0418 05:36:38.981958 16138 net.cpp:411] conv1 -> conv1
I0418 05:36:38.981966 16138 net.cpp:163] Setting up conv1
I0418 05:36:39.077941 16138 net.cpp:170] Top shape: 1 32 144 56 (258048)
I0418 05:36:39.077970 16138 layer_factory.hpp:74] Creating layer conv1_bn
I0418 05:36:39.077980 16138 layer_factory.cpp:191] Layer conv1_bn is using CAFFE engine.
I0418 05:36:39.077988 16138 net.cpp:133] Creating Layer conv1_bn
I0418 05:36:39.077992 16138 net.cpp:453] conv1_bn <- conv1
I0418 05:36:39.077997 16138 net.cpp:411] conv1_bn -> conv1_bn
I0418 05:36:39.078006 16138 net.cpp:163] Setting up conv1_bn
I0418 05:36:39.078018 16138 net.cpp:170] Top shape: 1 32 144 56 (258048)
I0418 05:36:39.078025 16138 layer_factory.hpp:74] Creating layer relu1
I0418 05:36:39.078030 16138 net.cpp:133] Creating Layer relu1
I0418 05:36:39.078033 16138 net.cpp:453] relu1 <- conv1_bn
I0418 05:36:39.078037 16138 net.cpp:400] relu1 -> conv1_bn (in-place)
I0418 05:36:39.078039 16138 net.cpp:163] Setting up relu1
I0418 05:36:39.078132 16138 net.cpp:170] Top shape: 1 32 144 56 (258048)
I0418 05:36:39.078137 16138 layer_factory.hpp:74] Creating layer conv2
I0418 05:36:39.078143 16138 net.cpp:133] Creating Layer conv2
I0418 05:36:39.078145 16138 net.cpp:453] conv2 <- conv1_bn
I0418 05:36:39.078148 16138 net.cpp:411] conv2 -> conv2
I0418 05:36:39.078152 16138 net.cpp:163] Setting up conv2
I0418 05:36:39.130620 16138 net.cpp:170] Top shape: 1 32 144 56 (258048)
I0418 05:36:39.130631 16138 layer_factory.hpp:74] Creating layer conv2_bn
I0418 05:36:39.130635 16138 layer_factory.cpp:191] Layer conv2_bn is using CAFFE engine.
I0418 05:36:39.130640 16138 net.cpp:133] Creating Layer conv2_bn
I0418 05:36:39.130642 16138 net.cpp:453] conv2_bn <- conv2
I0418 05:36:39.130646 16138 net.cpp:411] conv2_bn -> conv2_bn
I0418 05:36:39.130651 16138 net.cpp:163] Setting up conv2_bn
I0418 05:36:39.130671 16138 net.cpp:170] Top shape: 1 32 144 56 (258048)
I0418 05:36:39.130677 16138 layer_factory.hpp:74] Creating layer relu2
I0418 05:36:39.130681 16138 net.cpp:133] Creating Layer relu2
I0418 05:36:39.130683 16138 net.cpp:453] relu2 <- conv2_bn
I0418 05:36:39.130686 16138 net.cpp:400] relu2 -> conv2_bn (in-place)
I0418 05:36:39.130689 16138 net.cpp:163] Setting up relu2
I0418 05:36:39.130862 16138 net.cpp:170] Top shape: 1 32 144 56 (258048)
I0418 05:36:39.130869 16138 layer_factory.hpp:74] Creating layer conv3
I0418 05:36:39.130874 16138 net.cpp:133] Creating Layer conv3
I0418 05:36:39.130882 16138 net.cpp:453] conv3 <- conv2_bn
I0418 05:36:39.130887 16138 net.cpp:411] conv3 -> conv3
I0418 05:36:39.130892 16138 net.cpp:163] Setting up conv3
I0418 05:36:39.183370 16138 net.cpp:170] Top shape: 1 32 144 56 (258048)
I0418 05:36:39.183382 16138 layer_factory.hpp:74] Creating layer conv3_bn
I0418 05:36:39.183384 16138 layer_factory.cpp:191] Layer conv3_bn is using CAFFE engine.
I0418 05:36:39.183388 16138 net.cpp:133] Creating Layer conv3_bn
I0418 05:36:39.183392 16138 net.cpp:453] conv3_bn <- conv3
I0418 05:36:39.183395 16138 net.cpp:411] conv3_bn -> conv3_bn
I0418 05:36:39.183399 16138 net.cpp:163] Setting up conv3_bn
I0418 05:36:39.183416 16138 net.cpp:170] Top shape: 1 32 144 56 (258048)
I0418 05:36:39.183423 16138 layer_factory.hpp:74] Creating layer relu3
I0418 05:36:39.183428 16138 net.cpp:133] Creating Layer relu3
I0418 05:36:39.183429 16138 net.cpp:453] relu3 <- conv3_bn
I0418 05:36:39.183432 16138 net.cpp:400] relu3 -> conv3_bn (in-place)
I0418 05:36:39.183435 16138 net.cpp:163] Setting up relu3
I0418 05:36:39.183536 16138 net.cpp:170] Top shape: 1 32 144 56 (258048)
I0418 05:36:39.183542 16138 layer_factory.hpp:74] Creating layer pool1
I0418 05:36:39.183545 16138 net.cpp:133] Creating Layer pool1
I0418 05:36:39.183548 16138 net.cpp:453] pool1 <- conv3_bn
I0418 05:36:39.183552 16138 net.cpp:411] pool1 -> pool1
I0418 05:36:39.183555 16138 net.cpp:163] Setting up pool1
I0418 05:36:39.183723 16138 net.cpp:170] Top shape: 1 32 72 28 (64512)
I0418 05:36:39.183730 16138 layer_factory.hpp:74] Creating layer pool1_pool1_0_split
I0418 05:36:39.183735 16138 net.cpp:133] Creating Layer pool1_pool1_0_split
I0418 05:36:39.183737 16138 net.cpp:453] pool1_pool1_0_split <- pool1
I0418 05:36:39.183740 16138 net.cpp:411] pool1_pool1_0_split -> pool1_pool1_0_split_0
I0418 05:36:39.183746 16138 net.cpp:411] pool1_pool1_0_split -> pool1_pool1_0_split_1
I0418 05:36:39.183750 16138 net.cpp:411] pool1_pool1_0_split -> pool1_pool1_0_split_2
I0418 05:36:39.183754 16138 net.cpp:411] pool1_pool1_0_split -> pool1_pool1_0_split_3
I0418 05:36:39.183758 16138 net.cpp:163] Setting up pool1_pool1_0_split
I0418 05:36:39.183763 16138 net.cpp:170] Top shape: 1 32 72 28 (64512)
I0418 05:36:39.183764 16138 net.cpp:170] Top shape: 1 32 72 28 (64512)
I0418 05:36:39.183768 16138 net.cpp:170] Top shape: 1 32 72 28 (64512)
I0418 05:36:39.183769 16138 net.cpp:170] Top shape: 1 32 72 28 (64512)
I0418 05:36:39.183771 16138 layer_factory.hpp:74] Creating layer inception_1a/1x1
I0418 05:36:39.183775 16138 net.cpp:133] Creating Layer inception_1a/1x1
I0418 05:36:39.183779 16138 net.cpp:453] inception_1a/1x1 <- pool1_pool1_0_split_0
I0418 05:36:39.183782 16138 net.cpp:411] inception_1a/1x1 -> inception_1a/1x1
I0418 05:36:39.183786 16138 net.cpp:163] Setting up inception_1a/1x1
I0418 05:36:39.210954 16138 net.cpp:170] Top shape: 1 64 72 28 (129024)
I0418 05:36:39.210965 16138 layer_factory.hpp:74] Creating layer inception_1a/1x1_bn
I0418 05:36:39.210968 16138 layer_factory.cpp:191] Layer inception_1a/1x1_bn is using CAFFE engine.
I0418 05:36:39.210973 16138 net.cpp:133] Creating Layer inception_1a/1x1_bn
I0418 05:36:39.210975 16138 net.cpp:453] inception_1a/1x1_bn <- inception_1a/1x1
I0418 05:36:39.210979 16138 net.cpp:411] inception_1a/1x1_bn -> inception_1a/1x1_bn
I0418 05:36:39.210984 16138 net.cpp:163] Setting up inception_1a/1x1_bn
I0418 05:36:39.210995 16138 net.cpp:170] Top shape: 1 64 72 28 (129024)
I0418 05:36:39.211000 16138 layer_factory.hpp:74] Creating layer inception_1a/relu_1x1
I0418 05:36:39.211004 16138 net.cpp:133] Creating Layer inception_1a/relu_1x1
I0418 05:36:39.211006 16138 net.cpp:453] inception_1a/relu_1x1 <- inception_1a/1x1_bn
I0418 05:36:39.211009 16138 net.cpp:400] inception_1a/relu_1x1 -> inception_1a/1x1_bn (in-place)
I0418 05:36:39.211012 16138 net.cpp:163] Setting up inception_1a/relu_1x1
I0418 05:36:39.211185 16138 net.cpp:170] Top shape: 1 64 72 28 (129024)
I0418 05:36:39.211191 16138 layer_factory.hpp:74] Creating layer inception_1a/3x3_reduce
I0418 05:36:39.211197 16138 net.cpp:133] Creating Layer inception_1a/3x3_reduce
I0418 05:36:39.211204 16138 net.cpp:453] inception_1a/3x3_reduce <- pool1_pool1_0_split_1
I0418 05:36:39.211210 16138 net.cpp:411] inception_1a/3x3_reduce -> inception_1a/3x3_reduce
I0418 05:36:39.211215 16138 net.cpp:163] Setting up inception_1a/3x3_reduce
I0418 05:36:39.238522 16138 net.cpp:170] Top shape: 1 64 72 28 (129024)
I0418 05:36:39.238533 16138 layer_factory.hpp:74] Creating layer inception_1a/3x3_reduce_bn
I0418 05:36:39.238536 16138 layer_factory.cpp:191] Layer inception_1a/3x3_reduce_bn is using CAFFE engine.
I0418 05:36:39.238540 16138 net.cpp:133] Creating Layer inception_1a/3x3_reduce_bn
I0418 05:36:39.238543 16138 net.cpp:453] inception_1a/3x3_reduce_bn <- inception_1a/3x3_reduce
I0418 05:36:39.238548 16138 net.cpp:411] inception_1a/3x3_reduce_bn -> inception_1a/3x3_reduce_bn
I0418 05:36:39.238553 16138 net.cpp:163] Setting up inception_1a/3x3_reduce_bn
I0418 05:36:39.238564 16138 net.cpp:170] Top shape: 1 64 72 28 (129024)
I0418 05:36:39.238569 16138 layer_factory.hpp:74] Creating layer inception_1a/relu_3x3_reduce
I0418 05:36:39.238574 16138 net.cpp:133] Creating Layer inception_1a/relu_3x3_reduce
I0418 05:36:39.238576 16138 net.cpp:453] inception_1a/relu_3x3_reduce <- inception_1a/3x3_reduce_bn
I0418 05:36:39.238579 16138 net.cpp:400] inception_1a/relu_3x3_reduce -> inception_1a/3x3_reduce_bn (in-place)
I0418 05:36:39.238582 16138 net.cpp:163] Setting up inception_1a/relu_3x3_reduce
I0418 05:36:39.238682 16138 net.cpp:170] Top shape: 1 64 72 28 (129024)
I0418 05:36:39.238687 16138 layer_factory.hpp:74] Creating layer inception_1a/3x3
I0418 05:36:39.238692 16138 net.cpp:133] Creating Layer inception_1a/3x3
I0418 05:36:39.238693 16138 net.cpp:453] inception_1a/3x3 <- inception_1a/3x3_reduce_bn
I0418 05:36:39.238698 16138 net.cpp:411] inception_1a/3x3 -> inception_1a/3x3
I0418 05:36:39.238704 16138 net.cpp:163] Setting up inception_1a/3x3
I0418 05:36:39.286798 16138 net.cpp:170] Top shape: 1 64 72 28 (129024)
I0418 05:36:39.286808 16138 layer_factory.hpp:74] Creating layer inception_1a/3x3_bn
I0418 05:36:39.286811 16138 layer_factory.cpp:191] Layer inception_1a/3x3_bn is using CAFFE engine.
I0418 05:36:39.286816 16138 net.cpp:133] Creating Layer inception_1a/3x3_bn
I0418 05:36:39.286818 16138 net.cpp:453] inception_1a/3x3_bn <- inception_1a/3x3
I0418 05:36:39.286823 16138 net.cpp:411] inception_1a/3x3_bn -> inception_1a/3x3_bn
I0418 05:36:39.286828 16138 net.cpp:163] Setting up inception_1a/3x3_bn
I0418 05:36:39.286840 16138 net.cpp:170] Top shape: 1 64 72 28 (129024)
I0418 05:36:39.286847 16138 layer_factory.hpp:74] Creating layer inception_1a/relu_3x3
I0418 05:36:39.286851 16138 net.cpp:133] Creating Layer inception_1a/relu_3x3
I0418 05:36:39.286854 16138 net.cpp:453] inception_1a/relu_3x3 <- inception_1a/3x3_bn
I0418 05:36:39.286856 16138 net.cpp:400] inception_1a/relu_3x3 -> inception_1a/3x3_bn (in-place)
I0418 05:36:39.286859 16138 net.cpp:163] Setting up inception_1a/relu_3x3
I0418 05:36:39.287032 16138 net.cpp:170] Top shape: 1 64 72 28 (129024)
I0418 05:36:39.287039 16138 layer_factory.hpp:74] Creating layer inception_1a/double_3x3_reduce
I0418 05:36:39.287045 16138 net.cpp:133] Creating Layer inception_1a/double_3x3_reduce
I0418 05:36:39.287047 16138 net.cpp:453] inception_1a/double_3x3_reduce <- pool1_pool1_0_split_2
I0418 05:36:39.287052 16138 net.cpp:411] inception_1a/double_3x3_reduce -> inception_1a/double_3x3_reduce
I0418 05:36:39.287056 16138 net.cpp:163] Setting up inception_1a/double_3x3_reduce
I0418 05:36:39.313351 16138 net.cpp:170] Top shape: 1 64 72 28 (129024)
I0418 05:36:39.313362 16138 layer_factory.hpp:74] Creating layer inception_1a/double_3x3_reduce_bn
I0418 05:36:39.313366 16138 layer_factory.cpp:191] Layer inception_1a/double_3x3_reduce_bn is using CAFFE engine.
I0418 05:36:39.313371 16138 net.cpp:133] Creating Layer inception_1a/double_3x3_reduce_bn
I0418 05:36:39.313374 16138 net.cpp:453] inception_1a/double_3x3_reduce_bn <- inception_1a/double_3x3_reduce
I0418 05:36:39.313379 16138 net.cpp:411] inception_1a/double_3x3_reduce_bn -> inception_1a/double_3x3_reduce_bn
I0418 05:36:39.313386 16138 net.cpp:163] Setting up inception_1a/double_3x3_reduce_bn
I0418 05:36:39.313397 16138 net.cpp:170] Top shape: 1 64 72 28 (129024)
I0418 05:36:39.313402 16138 layer_factory.hpp:74] Creating layer inception_1a/relu_double_3x3_reduce
I0418 05:36:39.313406 16138 net.cpp:133] Creating Layer inception_1a/relu_double_3x3_reduce
I0418 05:36:39.313408 16138 net.cpp:453] inception_1a/relu_double_3x3_reduce <- inception_1a/double_3x3_reduce_bn
I0418 05:36:39.313411 16138 net.cpp:400] inception_1a/relu_double_3x3_reduce -> inception_1a/double_3x3_reduce_bn (in-place)
I0418 05:36:39.313415 16138 net.cpp:163] Setting up inception_1a/relu_double_3x3_reduce
I0418 05:36:39.313594 16138 net.cpp:170] Top shape: 1 64 72 28 (129024)
I0418 05:36:39.313601 16138 layer_factory.hpp:74] Creating layer inception_1a/double_3x3_1
I0418 05:36:39.313607 16138 net.cpp:133] Creating Layer inception_1a/double_3x3_1
I0418 05:36:39.313611 16138 net.cpp:453] inception_1a/double_3x3_1 <- inception_1a/double_3x3_reduce_bn
I0418 05:36:39.313616 16138 net.cpp:411] inception_1a/double_3x3_1 -> inception_1a/double_3x3_1
I0418 05:36:39.313621 16138 net.cpp:163] Setting up inception_1a/double_3x3_1
I0418 05:36:39.361582 16138 net.cpp:170] Top shape: 1 64 72 28 (129024)
I0418 05:36:39.361593 16138 layer_factory.hpp:74] Creating layer inception_1a/double_3x3_1_bn
I0418 05:36:39.361595 16138 layer_factory.cpp:191] Layer inception_1a/double_3x3_1_bn is using CAFFE engine.
I0418 05:36:39.361600 16138 net.cpp:133] Creating Layer inception_1a/double_3x3_1_bn
I0418 05:36:39.361603 16138 net.cpp:453] inception_1a/double_3x3_1_bn <- inception_1a/double_3x3_1
I0418 05:36:39.361608 16138 net.cpp:411] inception_1a/double_3x3_1_bn -> inception_1a/double_3x3_1_bn
I0418 05:36:39.361613 16138 net.cpp:163] Setting up inception_1a/double_3x3_1_bn
I0418 05:36:39.361624 16138 net.cpp:170] Top shape: 1 64 72 28 (129024)
I0418 05:36:39.361629 16138 layer_factory.hpp:74] Creating layer inception_1a/relu_double_3x3_1
I0418 05:36:39.361631 16138 net.cpp:133] Creating Layer inception_1a/relu_double_3x3_1
I0418 05:36:39.361634 16138 net.cpp:453] inception_1a/relu_double_3x3_1 <- inception_1a/double_3x3_1_bn
I0418 05:36:39.361637 16138 net.cpp:400] inception_1a/relu_double_3x3_1 -> inception_1a/double_3x3_1_bn (in-place)
I0418 05:36:39.361640 16138 net.cpp:163] Setting up inception_1a/relu_double_3x3_1
I0418 05:36:39.361743 16138 net.cpp:170] Top shape: 1 64 72 28 (129024)
I0418 05:36:39.361748 16138 layer_factory.hpp:74] Creating layer inception_1a/double_3x3_2
I0418 05:36:39.361753 16138 net.cpp:133] Creating Layer inception_1a/double_3x3_2
I0418 05:36:39.361757 16138 net.cpp:453] inception_1a/double_3x3_2 <- inception_1a/double_3x3_1_bn
I0418 05:36:39.361760 16138 net.cpp:411] inception_1a/double_3x3_2 -> inception_1a/double_3x3_2
I0418 05:36:39.361764 16138 net.cpp:163] Setting up inception_1a/double_3x3_2
I0418 05:36:39.409639 16138 net.cpp:170] Top shape: 1 64 72 28 (129024)
I0418 05:36:39.409651 16138 layer_factory.hpp:74] Creating layer inception_1a/double_3x3_2_bn
I0418 05:36:39.409653 16138 layer_factory.cpp:191] Layer inception_1a/double_3x3_2_bn is using CAFFE engine.
I0418 05:36:39.409658 16138 net.cpp:133] Creating Layer inception_1a/double_3x3_2_bn
I0418 05:36:39.409662 16138 net.cpp:453] inception_1a/double_3x3_2_bn <- inception_1a/double_3x3_2
I0418 05:36:39.409667 16138 net.cpp:411] inception_1a/double_3x3_2_bn -> inception_1a/double_3x3_2_bn
I0418 05:36:39.409672 16138 net.cpp:163] Setting up inception_1a/double_3x3_2_bn
I0418 05:36:39.409682 16138 net.cpp:170] Top shape: 1 64 72 28 (129024)
I0418 05:36:39.409694 16138 layer_factory.hpp:74] Creating layer inception_1a/relu_double_3x3_2
I0418 05:36:39.409698 16138 net.cpp:133] Creating Layer inception_1a/relu_double_3x3_2
I0418 05:36:39.409700 16138 net.cpp:453] inception_1a/relu_double_3x3_2 <- inception_1a/double_3x3_2_bn
I0418 05:36:39.409703 16138 net.cpp:400] inception_1a/relu_double_3x3_2 -> inception_1a/double_3x3_2_bn (in-place)
I0418 05:36:39.409708 16138 net.cpp:163] Setting up inception_1a/relu_double_3x3_2
I0418 05:36:39.409885 16138 net.cpp:170] Top shape: 1 64 72 28 (129024)
I0418 05:36:39.409893 16138 layer_factory.hpp:74] Creating layer inception_1a/pool
I0418 05:36:39.409895 16138 layer_factory.cpp:64] CUDNN does not support padding or multiple tops. Using Caffe's own pooling layer.
I0418 05:36:39.409899 16138 net.cpp:133] Creating Layer inception_1a/pool
I0418 05:36:39.409901 16138 net.cpp:453] inception_1a/pool <- pool1_pool1_0_split_3
I0418 05:36:39.409905 16138 net.cpp:411] inception_1a/pool -> inception_1a/pool
I0418 05:36:39.409909 16138 net.cpp:163] Setting up inception_1a/pool
I0418 05:36:39.409914 16138 net.cpp:170] Top shape: 1 32 72 28 (64512)
I0418 05:36:39.409916 16138 layer_factory.hpp:74] Creating layer inception_1a/pool_proj
I0418 05:36:39.409920 16138 net.cpp:133] Creating Layer inception_1a/pool_proj
I0418 05:36:39.409924 16138 net.cpp:453] inception_1a/pool_proj <- inception_1a/pool
I0418 05:36:39.409927 16138 net.cpp:411] inception_1a/pool_proj -> inception_1a/pool_proj
I0418 05:36:39.409931 16138 net.cpp:163] Setting up inception_1a/pool_proj
I0418 05:36:39.435639 16138 net.cpp:170] Top shape: 1 64 72 28 (129024)
I0418 05:36:39.435650 16138 layer_factory.hpp:74] Creating layer inception_1a/pool_proj_bn
I0418 05:36:39.435653 16138 layer_factory.cpp:191] Layer inception_1a/pool_proj_bn is using CAFFE engine.
I0418 05:36:39.435658 16138 net.cpp:133] Creating Layer inception_1a/pool_proj_bn
I0418 05:36:39.435660 16138 net.cpp:453] inception_1a/pool_proj_bn <- inception_1a/pool_proj
I0418 05:36:39.435665 16138 net.cpp:411] inception_1a/pool_proj_bn -> inception_1a/pool_proj_bn
I0418 05:36:39.435670 16138 net.cpp:163] Setting up inception_1a/pool_proj_bn
I0418 05:36:39.435681 16138 net.cpp:170] Top shape: 1 64 72 28 (129024)
I0418 05:36:39.435685 16138 layer_factory.hpp:74] Creating layer inception_1a/relu_pool_proj
I0418 05:36:39.435693 16138 net.cpp:133] Creating Layer inception_1a/relu_pool_proj
I0418 05:36:39.435695 16138 net.cpp:453] inception_1a/relu_pool_proj <- inception_1a/pool_proj_bn
I0418 05:36:39.435698 16138 net.cpp:400] inception_1a/relu_pool_proj -> inception_1a/pool_proj_bn (in-place)
I0418 05:36:39.435701 16138 net.cpp:163] Setting up inception_1a/relu_pool_proj
I0418 05:36:39.435875 16138 net.cpp:170] Top shape: 1 64 72 28 (129024)
I0418 05:36:39.435883 16138 layer_factory.hpp:74] Creating layer inception_1a/output
I0418 05:36:39.435886 16138 net.cpp:133] Creating Layer inception_1a/output
I0418 05:36:39.435889 16138 net.cpp:453] inception_1a/output <- inception_1a/1x1_bn
I0418 05:36:39.435892 16138 net.cpp:453] inception_1a/output <- inception_1a/3x3_bn
I0418 05:36:39.435894 16138 net.cpp:453] inception_1a/output <- inception_1a/double_3x3_2_bn
I0418 05:36:39.435897 16138 net.cpp:453] inception_1a/output <- inception_1a/pool_proj_bn
I0418 05:36:39.435900 16138 net.cpp:411] inception_1a/output -> inception_1a/output
I0418 05:36:39.435905 16138 net.cpp:163] Setting up inception_1a/output
I0418 05:36:39.435910 16138 net.cpp:170] Top shape: 1 256 72 28 (516096)
I0418 05:36:39.435912 16138 layer_factory.hpp:74] Creating layer inception_1a/output_inception_1a/output_0_split
I0418 05:36:39.435916 16138 net.cpp:133] Creating Layer inception_1a/output_inception_1a/output_0_split
I0418 05:36:39.435919 16138 net.cpp:453] inception_1a/output_inception_1a/output_0_split <- inception_1a/output
I0418 05:36:39.435922 16138 net.cpp:411] inception_1a/output_inception_1a/output_0_split -> inception_1a/output_inception_1a/output_0_split_0
I0418 05:36:39.435926 16138 net.cpp:411] inception_1a/output_inception_1a/output_0_split -> inception_1a/output_inception_1a/output_0_split_1
I0418 05:36:39.435930 16138 net.cpp:411] inception_1a/output_inception_1a/output_0_split -> inception_1a/output_inception_1a/output_0_split_2
I0418 05:36:39.435932 16138 net.cpp:163] Setting up inception_1a/output_inception_1a/output_0_split
I0418 05:36:39.435936 16138 net.cpp:170] Top shape: 1 256 72 28 (516096)
I0418 05:36:39.435940 16138 net.cpp:170] Top shape: 1 256 72 28 (516096)
I0418 05:36:39.435945 16138 net.cpp:170] Top shape: 1 256 72 28 (516096)
I0418 05:36:39.435946 16138 layer_factory.hpp:74] Creating layer inception_1b/3x3_reduce
I0418 05:36:39.435952 16138 net.cpp:133] Creating Layer inception_1b/3x3_reduce
I0418 05:36:39.435955 16138 net.cpp:453] inception_1b/3x3_reduce <- inception_1a/output_inception_1a/output_0_split_0
I0418 05:36:39.435958 16138 net.cpp:411] inception_1b/3x3_reduce -> inception_1b/3x3_reduce
I0418 05:36:39.435962 16138 net.cpp:163] Setting up inception_1b/3x3_reduce
I0418 05:36:39.605945 16138 net.cpp:170] Top shape: 1 64 72 28 (129024)
I0418 05:36:39.605957 16138 layer_factory.hpp:74] Creating layer inception_1b/3x3_reduce_bn
I0418 05:36:39.605959 16138 layer_factory.cpp:191] Layer inception_1b/3x3_reduce_bn is using CAFFE engine.
I0418 05:36:39.605964 16138 net.cpp:133] Creating Layer inception_1b/3x3_reduce_bn
I0418 05:36:39.605967 16138 net.cpp:453] inception_1b/3x3_reduce_bn <- inception_1b/3x3_reduce
I0418 05:36:39.605972 16138 net.cpp:411] inception_1b/3x3_reduce_bn -> inception_1b/3x3_reduce_bn
I0418 05:36:39.605979 16138 net.cpp:163] Setting up inception_1b/3x3_reduce_bn
I0418 05:36:39.605991 16138 net.cpp:170] Top shape: 1 64 72 28 (129024)
I0418 05:36:39.606001 16138 layer_factory.hpp:74] Creating layer inception_1b/relu_3x3_reduce
I0418 05:36:39.606005 16138 net.cpp:133] Creating Layer inception_1b/relu_3x3_reduce
I0418 05:36:39.606008 16138 net.cpp:453] inception_1b/relu_3x3_reduce <- inception_1b/3x3_reduce_bn
I0418 05:36:39.606010 16138 net.cpp:400] inception_1b/relu_3x3_reduce -> inception_1b/3x3_reduce_bn (in-place)
I0418 05:36:39.606014 16138 net.cpp:163] Setting up inception_1b/relu_3x3_reduce
I0418 05:36:39.606117 16138 net.cpp:170] Top shape: 1 64 72 28 (129024)
I0418 05:36:39.606122 16138 layer_factory.hpp:74] Creating layer inception_1b/3x3
I0418 05:36:39.606127 16138 net.cpp:133] Creating Layer inception_1b/3x3
I0418 05:36:39.606129 16138 net.cpp:453] inception_1b/3x3 <- inception_1b/3x3_reduce_bn
I0418 05:36:39.606133 16138 net.cpp:411] inception_1b/3x3 -> inception_1b/3x3
I0418 05:36:39.606137 16138 net.cpp:163] Setting up inception_1b/3x3
I0418 05:36:39.610088 16138 net.cpp:170] Top shape: 1 64 36 14 (32256)
I0418 05:36:39.610100 16138 layer_factory.hpp:74] Creating layer inception_1b/3x3_bn
I0418 05:36:39.610101 16138 layer_factory.cpp:191] Layer inception_1b/3x3_bn is using CAFFE engine.
I0418 05:36:39.610106 16138 net.cpp:133] Creating Layer inception_1b/3x3_bn
I0418 05:36:39.610110 16138 net.cpp:453] inception_1b/3x3_bn <- inception_1b/3x3
I0418 05:36:39.610113 16138 net.cpp:411] inception_1b/3x3_bn -> inception_1b/3x3_bn
I0418 05:36:39.610118 16138 net.cpp:163] Setting up inception_1b/3x3_bn
I0418 05:36:39.610128 16138 net.cpp:170] Top shape: 1 64 36 14 (32256)
I0418 05:36:39.610133 16138 layer_factory.hpp:74] Creating layer inception_1b/relu_3x3
I0418 05:36:39.610136 16138 net.cpp:133] Creating Layer inception_1b/relu_3x3
I0418 05:36:39.610139 16138 net.cpp:453] inception_1b/relu_3x3 <- inception_1b/3x3_bn
I0418 05:36:39.610142 16138 net.cpp:400] inception_1b/relu_3x3 -> inception_1b/3x3_bn (in-place)
I0418 05:36:39.610146 16138 net.cpp:163] Setting up inception_1b/relu_3x3
I0418 05:36:39.610321 16138 net.cpp:170] Top shape: 1 64 36 14 (32256)
I0418 05:36:39.610327 16138 layer_factory.hpp:74] Creating layer inception_1b/double_3x3_reduce
I0418 05:36:39.610332 16138 net.cpp:133] Creating Layer inception_1b/double_3x3_reduce
I0418 05:36:39.610335 16138 net.cpp:453] inception_1b/double_3x3_reduce <- inception_1a/output_inception_1a/output_0_split_1
I0418 05:36:39.610339 16138 net.cpp:411] inception_1b/double_3x3_reduce -> inception_1b/double_3x3_reduce
I0418 05:36:39.610343 16138 net.cpp:163] Setting up inception_1b/double_3x3_reduce
I0418 05:36:39.779031 16138 net.cpp:170] Top shape: 1 64 72 28 (129024)
I0418 05:36:39.779042 16138 layer_factory.hpp:74] Creating layer inception_1b/double_3x3_reduce_bn
I0418 05:36:39.779045 16138 layer_factory.cpp:191] Layer inception_1b/double_3x3_reduce_bn is using CAFFE engine.
I0418 05:36:39.779050 16138 net.cpp:133] Creating Layer inception_1b/double_3x3_reduce_bn
I0418 05:36:39.779057 16138 net.cpp:453] inception_1b/double_3x3_reduce_bn <- inception_1b/double_3x3_reduce
I0418 05:36:39.779062 16138 net.cpp:411] inception_1b/double_3x3_reduce_bn -> inception_1b/double_3x3_reduce_bn
I0418 05:36:39.779067 16138 net.cpp:163] Setting up inception_1b/double_3x3_reduce_bn
I0418 05:36:39.779078 16138 net.cpp:170] Top shape: 1 64 72 28 (129024)
I0418 05:36:39.779083 16138 layer_factory.hpp:74] Creating layer inception_1b/relu_double_3x3_reduce
I0418 05:36:39.779085 16138 net.cpp:133] Creating Layer inception_1b/relu_double_3x3_reduce
I0418 05:36:39.779088 16138 net.cpp:453] inception_1b/relu_double_3x3_reduce <- inception_1b/double_3x3_reduce_bn
I0418 05:36:39.779091 16138 net.cpp:400] inception_1b/relu_double_3x3_reduce -> inception_1b/double_3x3_reduce_bn (in-place)
I0418 05:36:39.779094 16138 net.cpp:163] Setting up inception_1b/relu_double_3x3_reduce
I0418 05:36:39.779270 16138 net.cpp:170] Top shape: 1 64 72 28 (129024)
I0418 05:36:39.779278 16138 layer_factory.hpp:74] Creating layer inception_1b/double_3x3_1
I0418 05:36:39.779284 16138 net.cpp:133] Creating Layer inception_1b/double_3x3_1
I0418 05:36:39.779285 16138 net.cpp:453] inception_1b/double_3x3_1 <- inception_1b/double_3x3_reduce_bn
I0418 05:36:39.779290 16138 net.cpp:411] inception_1b/double_3x3_1 -> inception_1b/double_3x3_1
I0418 05:36:39.779295 16138 net.cpp:163] Setting up inception_1b/double_3x3_1
I0418 05:36:39.826705 16138 net.cpp:170] Top shape: 1 64 72 28 (129024)
I0418 05:36:39.826716 16138 layer_factory.hpp:74] Creating layer inception_1b/double_3x3_1_bn
I0418 05:36:39.826719 16138 layer_factory.cpp:191] Layer inception_1b/double_3x3_1_bn is using CAFFE engine.
I0418 05:36:39.826725 16138 net.cpp:133] Creating Layer inception_1b/double_3x3_1_bn
I0418 05:36:39.826727 16138 net.cpp:453] inception_1b/double_3x3_1_bn <- inception_1b/double_3x3_1
I0418 05:36:39.826731 16138 net.cpp:411] inception_1b/double_3x3_1_bn -> inception_1b/double_3x3_1_bn
I0418 05:36:39.826736 16138 net.cpp:163] Setting up inception_1b/double_3x3_1_bn
I0418 05:36:39.826747 16138 net.cpp:170] Top shape: 1 64 72 28 (129024)
I0418 05:36:39.826751 16138 layer_factory.hpp:74] Creating layer inception_1b/relu_double_3x3_1
I0418 05:36:39.826756 16138 net.cpp:133] Creating Layer inception_1b/relu_double_3x3_1
I0418 05:36:39.826758 16138 net.cpp:453] inception_1b/relu_double_3x3_1 <- inception_1b/double_3x3_1_bn
I0418 05:36:39.826761 16138 net.cpp:400] inception_1b/relu_double_3x3_1 -> inception_1b/double_3x3_1_bn (in-place)
I0418 05:36:39.826764 16138 net.cpp:163] Setting up inception_1b/relu_double_3x3_1
I0418 05:36:39.826867 16138 net.cpp:170] Top shape: 1 64 72 28 (129024)
I0418 05:36:39.826871 16138 layer_factory.hpp:74] Creating layer inception_1b/double_3x3_2
I0418 05:36:39.826877 16138 net.cpp:133] Creating Layer inception_1b/double_3x3_2
I0418 05:36:39.826879 16138 net.cpp:453] inception_1b/double_3x3_2 <- inception_1b/double_3x3_1_bn
I0418 05:36:39.826882 16138 net.cpp:411] inception_1b/double_3x3_2 -> inception_1b/double_3x3_2
I0418 05:36:39.826889 16138 net.cpp:163] Setting up inception_1b/double_3x3_2
I0418 05:36:39.830812 16138 net.cpp:170] Top shape: 1 64 36 14 (32256)
I0418 05:36:39.830823 16138 layer_factory.hpp:74] Creating layer inception_1b/double_3x3_2_bn
I0418 05:36:39.830826 16138 layer_factory.cpp:191] Layer inception_1b/double_3x3_2_bn is using CAFFE engine.
I0418 05:36:39.830832 16138 net.cpp:133] Creating Layer inception_1b/double_3x3_2_bn
I0418 05:36:39.830834 16138 net.cpp:453] inception_1b/double_3x3_2_bn <- inception_1b/double_3x3_2
I0418 05:36:39.830838 16138 net.cpp:411] inception_1b/double_3x3_2_bn -> inception_1b/double_3x3_2_bn
I0418 05:36:39.830843 16138 net.cpp:163] Setting up inception_1b/double_3x3_2_bn
I0418 05:36:39.830853 16138 net.cpp:170] Top shape: 1 64 36 14 (32256)
I0418 05:36:39.830857 16138 layer_factory.hpp:74] Creating layer inception_1b/relu_double_3x3_2
I0418 05:36:39.830862 16138 net.cpp:133] Creating Layer inception_1b/relu_double_3x3_2
I0418 05:36:39.830867 16138 net.cpp:453] inception_1b/relu_double_3x3_2 <- inception_1b/double_3x3_2_bn
I0418 05:36:39.830870 16138 net.cpp:400] inception_1b/relu_double_3x3_2 -> inception_1b/double_3x3_2_bn (in-place)
I0418 05:36:39.830873 16138 net.cpp:163] Setting up inception_1b/relu_double_3x3_2
I0418 05:36:39.831049 16138 net.cpp:170] Top shape: 1 64 36 14 (32256)
I0418 05:36:39.831056 16138 layer_factory.hpp:74] Creating layer inception_1b/pool
I0418 05:36:39.831063 16138 net.cpp:133] Creating Layer inception_1b/pool
I0418 05:36:39.831065 16138 net.cpp:453] inception_1b/pool <- inception_1a/output_inception_1a/output_0_split_2
I0418 05:36:39.831069 16138 net.cpp:411] inception_1b/pool -> inception_1b/pool
I0418 05:36:39.831073 16138 net.cpp:163] Setting up inception_1b/pool
I0418 05:36:39.831171 16138 net.cpp:170] Top shape: 1 256 36 14 (129024)
I0418 05:36:39.831176 16138 layer_factory.hpp:74] Creating layer inception_1b/output
I0418 05:36:39.831179 16138 net.cpp:133] Creating Layer inception_1b/output
I0418 05:36:39.831182 16138 net.cpp:453] inception_1b/output <- inception_1b/3x3_bn
I0418 05:36:39.831184 16138 net.cpp:453] inception_1b/output <- inception_1b/double_3x3_2_bn
I0418 05:36:39.831187 16138 net.cpp:453] inception_1b/output <- inception_1b/pool
I0418 05:36:39.831190 16138 net.cpp:411] inception_1b/output -> inception_1b/output
I0418 05:36:39.831195 16138 net.cpp:163] Setting up inception_1b/output
I0418 05:36:39.831199 16138 net.cpp:170] Top shape: 1 384 36 14 (193536)
I0418 05:36:39.831202 16138 layer_factory.hpp:74] Creating layer inception_1b/output_inception_1b/output_0_split
I0418 05:36:39.831205 16138 net.cpp:133] Creating Layer inception_1b/output_inception_1b/output_0_split
I0418 05:36:39.831207 16138 net.cpp:453] inception_1b/output_inception_1b/output_0_split <- inception_1b/output
I0418 05:36:39.831210 16138 net.cpp:411] inception_1b/output_inception_1b/output_0_split -> inception_1b/output_inception_1b/output_0_split_0
I0418 05:36:39.831215 16138 net.cpp:411] inception_1b/output_inception_1b/output_0_split -> inception_1b/output_inception_1b/output_0_split_1
I0418 05:36:39.831218 16138 net.cpp:411] inception_1b/output_inception_1b/output_0_split -> inception_1b/output_inception_1b/output_0_split_2
I0418 05:36:39.831223 16138 net.cpp:411] inception_1b/output_inception_1b/output_0_split -> inception_1b/output_inception_1b/output_0_split_3
I0418 05:36:39.831225 16138 net.cpp:163] Setting up inception_1b/output_inception_1b/output_0_split
I0418 05:36:39.831229 16138 net.cpp:170] Top shape: 1 384 36 14 (193536)
I0418 05:36:39.831231 16138 net.cpp:170] Top shape: 1 384 36 14 (193536)
I0418 05:36:39.831234 16138 net.cpp:170] Top shape: 1 384 36 14 (193536)
I0418 05:36:39.831236 16138 net.cpp:170] Top shape: 1 384 36 14 (193536)
I0418 05:36:39.831238 16138 layer_factory.hpp:74] Creating layer inception_2a/1x1
I0418 05:36:39.831244 16138 net.cpp:133] Creating Layer inception_2a/1x1
I0418 05:36:39.831246 16138 net.cpp:453] inception_2a/1x1 <- inception_1b/output_inception_1b/output_0_split_0
I0418 05:36:39.831250 16138 net.cpp:411] inception_2a/1x1 -> inception_2a/1x1
I0418 05:36:39.831254 16138 net.cpp:163] Setting up inception_2a/1x1
I0418 05:36:39.911392 16138 net.cpp:170] Top shape: 1 128 36 14 (64512)
I0418 05:36:39.911404 16138 layer_factory.hpp:74] Creating layer inception_2a/1x1_bn
I0418 05:36:39.911407 16138 layer_factory.cpp:191] Layer inception_2a/1x1_bn is using CAFFE engine.
I0418 05:36:39.911412 16138 net.cpp:133] Creating Layer inception_2a/1x1_bn
I0418 05:36:39.911414 16138 net.cpp:453] inception_2a/1x1_bn <- inception_2a/1x1
I0418 05:36:39.911418 16138 net.cpp:411] inception_2a/1x1_bn -> inception_2a/1x1_bn
I0418 05:36:39.911423 16138 net.cpp:163] Setting up inception_2a/1x1_bn
I0418 05:36:39.911433 16138 net.cpp:170] Top shape: 1 128 36 14 (64512)
I0418 05:36:39.911437 16138 layer_factory.hpp:74] Creating layer inception_2a/relu_1x1
I0418 05:36:39.911440 16138 net.cpp:133] Creating Layer inception_2a/relu_1x1
I0418 05:36:39.911443 16138 net.cpp:453] inception_2a/relu_1x1 <- inception_2a/1x1_bn
I0418 05:36:39.911448 16138 net.cpp:400] inception_2a/relu_1x1 -> inception_2a/1x1_bn (in-place)
I0418 05:36:39.911453 16138 net.cpp:163] Setting up inception_2a/relu_1x1
I0418 05:36:39.911556 16138 net.cpp:170] Top shape: 1 128 36 14 (64512)
I0418 05:36:39.911561 16138 layer_factory.hpp:74] Creating layer inception_2a/3x3_reduce
I0418 05:36:39.911567 16138 net.cpp:133] Creating Layer inception_2a/3x3_reduce
I0418 05:36:39.911569 16138 net.cpp:453] inception_2a/3x3_reduce <- inception_1b/output_inception_1b/output_0_split_1
I0418 05:36:39.911573 16138 net.cpp:411] inception_2a/3x3_reduce -> inception_2a/3x3_reduce
I0418 05:36:39.911577 16138 net.cpp:163] Setting up inception_2a/3x3_reduce
I0418 05:36:39.991730 16138 net.cpp:170] Top shape: 1 128 36 14 (64512)
I0418 05:36:39.991741 16138 layer_factory.hpp:74] Creating layer inception_2a/3x3_reduce_bn
I0418 05:36:39.991744 16138 layer_factory.cpp:191] Layer inception_2a/3x3_reduce_bn is using CAFFE engine.
I0418 05:36:39.991750 16138 net.cpp:133] Creating Layer inception_2a/3x3_reduce_bn
I0418 05:36:39.991752 16138 net.cpp:453] inception_2a/3x3_reduce_bn <- inception_2a/3x3_reduce
I0418 05:36:39.991756 16138 net.cpp:411] inception_2a/3x3_reduce_bn -> inception_2a/3x3_reduce_bn
I0418 05:36:39.991761 16138 net.cpp:163] Setting up inception_2a/3x3_reduce_bn
I0418 05:36:39.991771 16138 net.cpp:170] Top shape: 1 128 36 14 (64512)
I0418 05:36:39.991775 16138 layer_factory.hpp:74] Creating layer inception_2a/relu_3x3_reduce
I0418 05:36:39.991780 16138 net.cpp:133] Creating Layer inception_2a/relu_3x3_reduce
I0418 05:36:39.991782 16138 net.cpp:453] inception_2a/relu_3x3_reduce <- inception_2a/3x3_reduce_bn
I0418 05:36:39.991786 16138 net.cpp:400] inception_2a/relu_3x3_reduce -> inception_2a/3x3_reduce_bn (in-place)
I0418 05:36:39.991789 16138 net.cpp:163] Setting up inception_2a/relu_3x3_reduce
I0418 05:36:39.991966 16138 net.cpp:170] Top shape: 1 128 36 14 (64512)
I0418 05:36:39.991973 16138 layer_factory.hpp:74] Creating layer inception_2a/3x3
I0418 05:36:39.991978 16138 net.cpp:133] Creating Layer inception_2a/3x3
I0418 05:36:39.991981 16138 net.cpp:453] inception_2a/3x3 <- inception_2a/3x3_reduce_bn
I0418 05:36:39.991986 16138 net.cpp:411] inception_2a/3x3 -> inception_2a/3x3
I0418 05:36:39.991991 16138 net.cpp:163] Setting up inception_2a/3x3
I0418 05:36:40.023697 16138 net.cpp:170] Top shape: 1 128 36 14 (64512)
I0418 05:36:40.023710 16138 layer_factory.hpp:74] Creating layer inception_2a/3x3_bn
I0418 05:36:40.023712 16138 layer_factory.cpp:191] Layer inception_2a/3x3_bn is using CAFFE engine.
I0418 05:36:40.023716 16138 net.cpp:133] Creating Layer inception_2a/3x3_bn
I0418 05:36:40.023720 16138 net.cpp:453] inception_2a/3x3_bn <- inception_2a/3x3
I0418 05:36:40.023725 16138 net.cpp:411] inception_2a/3x3_bn -> inception_2a/3x3_bn
I0418 05:36:40.023728 16138 net.cpp:163] Setting up inception_2a/3x3_bn
I0418 05:36:40.023738 16138 net.cpp:170] Top shape: 1 128 36 14 (64512)
I0418 05:36:40.023743 16138 layer_factory.hpp:74] Creating layer inception_2a/relu_3x3
I0418 05:36:40.023747 16138 net.cpp:133] Creating Layer inception_2a/relu_3x3
I0418 05:36:40.023749 16138 net.cpp:453] inception_2a/relu_3x3 <- inception_2a/3x3_bn
I0418 05:36:40.023752 16138 net.cpp:400] inception_2a/relu_3x3 -> inception_2a/3x3_bn (in-place)
I0418 05:36:40.023756 16138 net.cpp:163] Setting up inception_2a/relu_3x3
I0418 05:36:40.023860 16138 net.cpp:170] Top shape: 1 128 36 14 (64512)
I0418 05:36:40.023865 16138 layer_factory.hpp:74] Creating layer inception_2a/double_3x3_reduce
I0418 05:36:40.023870 16138 net.cpp:133] Creating Layer inception_2a/double_3x3_reduce
I0418 05:36:40.023874 16138 net.cpp:453] inception_2a/double_3x3_reduce <- inception_1b/output_inception_1b/output_0_split_2
I0418 05:36:40.023877 16138 net.cpp:411] inception_2a/double_3x3_reduce -> inception_2a/double_3x3_reduce
I0418 05:36:40.023883 16138 net.cpp:163] Setting up inception_2a/double_3x3_reduce
I0418 05:36:40.103970 16138 net.cpp:170] Top shape: 1 128 36 14 (64512)
I0418 05:36:40.103981 16138 layer_factory.hpp:74] Creating layer inception_2a/double_3x3_reduce_bn
I0418 05:36:40.103987 16138 layer_factory.cpp:191] Layer inception_2a/double_3x3_reduce_bn is using CAFFE engine.
I0418 05:36:40.103992 16138 net.cpp:133] Creating Layer inception_2a/double_3x3_reduce_bn
I0418 05:36:40.103996 16138 net.cpp:453] inception_2a/double_3x3_reduce_bn <- inception_2a/double_3x3_reduce
I0418 05:36:40.103999 16138 net.cpp:411] inception_2a/double_3x3_reduce_bn -> inception_2a/double_3x3_reduce_bn
I0418 05:36:40.104004 16138 net.cpp:163] Setting up inception_2a/double_3x3_reduce_bn
I0418 05:36:40.104014 16138 net.cpp:170] Top shape: 1 128 36 14 (64512)
I0418 05:36:40.104019 16138 layer_factory.hpp:74] Creating layer inception_2a/relu_double_3x3_reduce
I0418 05:36:40.104029 16138 net.cpp:133] Creating Layer inception_2a/relu_double_3x3_reduce
I0418 05:36:40.104032 16138 net.cpp:453] inception_2a/relu_double_3x3_reduce <- inception_2a/double_3x3_reduce_bn
I0418 05:36:40.104035 16138 net.cpp:400] inception_2a/relu_double_3x3_reduce -> inception_2a/double_3x3_reduce_bn (in-place)
I0418 05:36:40.104038 16138 net.cpp:163] Setting up inception_2a/relu_double_3x3_reduce
I0418 05:36:40.104141 16138 net.cpp:170] Top shape: 1 128 36 14 (64512)
I0418 05:36:40.104146 16138 layer_factory.hpp:74] Creating layer inception_2a/double_3x3_1
I0418 05:36:40.104151 16138 net.cpp:133] Creating Layer inception_2a/double_3x3_1
I0418 05:36:40.104153 16138 net.cpp:453] inception_2a/double_3x3_1 <- inception_2a/double_3x3_reduce_bn
I0418 05:36:40.104158 16138 net.cpp:411] inception_2a/double_3x3_1 -> inception_2a/double_3x3_1
I0418 05:36:40.104162 16138 net.cpp:163] Setting up inception_2a/double_3x3_1
I0418 05:36:40.135887 16138 net.cpp:170] Top shape: 1 128 36 14 (64512)
I0418 05:36:40.135898 16138 layer_factory.hpp:74] Creating layer inception_2a/double_3x3_1_bn
I0418 05:36:40.135901 16138 layer_factory.cpp:191] Layer inception_2a/double_3x3_1_bn is using CAFFE engine.
I0418 05:36:40.135906 16138 net.cpp:133] Creating Layer inception_2a/double_3x3_1_bn
I0418 05:36:40.135910 16138 net.cpp:453] inception_2a/double_3x3_1_bn <- inception_2a/double_3x3_1
I0418 05:36:40.135913 16138 net.cpp:411] inception_2a/double_3x3_1_bn -> inception_2a/double_3x3_1_bn
I0418 05:36:40.135918 16138 net.cpp:163] Setting up inception_2a/double_3x3_1_bn
I0418 05:36:40.135928 16138 net.cpp:170] Top shape: 1 128 36 14 (64512)
I0418 05:36:40.135933 16138 layer_factory.hpp:74] Creating layer inception_2a/relu_double_3x3_1
I0418 05:36:40.135936 16138 net.cpp:133] Creating Layer inception_2a/relu_double_3x3_1
I0418 05:36:40.135938 16138 net.cpp:453] inception_2a/relu_double_3x3_1 <- inception_2a/double_3x3_1_bn
I0418 05:36:40.135942 16138 net.cpp:400] inception_2a/relu_double_3x3_1 -> inception_2a/double_3x3_1_bn (in-place)
I0418 05:36:40.135946 16138 net.cpp:163] Setting up inception_2a/relu_double_3x3_1
I0418 05:36:40.136124 16138 net.cpp:170] Top shape: 1 128 36 14 (64512)
I0418 05:36:40.136132 16138 layer_factory.hpp:74] Creating layer inception_2a/double_3x3_2
I0418 05:36:40.136137 16138 net.cpp:133] Creating Layer inception_2a/double_3x3_2
I0418 05:36:40.136139 16138 net.cpp:453] inception_2a/double_3x3_2 <- inception_2a/double_3x3_1_bn
I0418 05:36:40.136143 16138 net.cpp:411] inception_2a/double_3x3_2 -> inception_2a/double_3x3_2
I0418 05:36:40.136148 16138 net.cpp:163] Setting up inception_2a/double_3x3_2
I0418 05:36:40.167909 16138 net.cpp:170] Top shape: 1 128 36 14 (64512)
I0418 05:36:40.167920 16138 layer_factory.hpp:74] Creating layer inception_2a/double_3x3_2_bn
I0418 05:36:40.167923 16138 layer_factory.cpp:191] Layer inception_2a/double_3x3_2_bn is using CAFFE engine.
I0418 05:36:40.167927 16138 net.cpp:133] Creating Layer inception_2a/double_3x3_2_bn
I0418 05:36:40.167930 16138 net.cpp:453] inception_2a/double_3x3_2_bn <- inception_2a/double_3x3_2
I0418 05:36:40.167935 16138 net.cpp:411] inception_2a/double_3x3_2_bn -> inception_2a/double_3x3_2_bn
I0418 05:36:40.167940 16138 net.cpp:163] Setting up inception_2a/double_3x3_2_bn
I0418 05:36:40.167950 16138 net.cpp:170] Top shape: 1 128 36 14 (64512)
I0418 05:36:40.167958 16138 layer_factory.hpp:74] Creating layer inception_2a/relu_double_3x3_2
I0418 05:36:40.167961 16138 net.cpp:133] Creating Layer inception_2a/relu_double_3x3_2
I0418 05:36:40.167964 16138 net.cpp:453] inception_2a/relu_double_3x3_2 <- inception_2a/double_3x3_2_bn
I0418 05:36:40.167968 16138 net.cpp:400] inception_2a/relu_double_3x3_2 -> inception_2a/double_3x3_2_bn (in-place)
I0418 05:36:40.167971 16138 net.cpp:163] Setting up inception_2a/relu_double_3x3_2
I0418 05:36:40.168074 16138 net.cpp:170] Top shape: 1 128 36 14 (64512)
I0418 05:36:40.168079 16138 layer_factory.hpp:74] Creating layer inception_2a/pool
I0418 05:36:40.168081 16138 layer_factory.cpp:64] CUDNN does not support padding or multiple tops. Using Caffe's own pooling layer.
I0418 05:36:40.168086 16138 net.cpp:133] Creating Layer inception_2a/pool
I0418 05:36:40.168088 16138 net.cpp:453] inception_2a/pool <- inception_1b/output_inception_1b/output_0_split_3
I0418 05:36:40.168092 16138 net.cpp:411] inception_2a/pool -> inception_2a/pool
I0418 05:36:40.168095 16138 net.cpp:163] Setting up inception_2a/pool
I0418 05:36:40.168099 16138 net.cpp:170] Top shape: 1 384 36 14 (193536)
I0418 05:36:40.168102 16138 layer_factory.hpp:74] Creating layer inception_2a/pool_proj
I0418 05:36:40.168107 16138 net.cpp:133] Creating Layer inception_2a/pool_proj
I0418 05:36:40.168109 16138 net.cpp:453] inception_2a/pool_proj <- inception_2a/pool
I0418 05:36:40.168113 16138 net.cpp:411] inception_2a/pool_proj -> inception_2a/pool_proj
I0418 05:36:40.168118 16138 net.cpp:163] Setting up inception_2a/pool_proj
I0418 05:36:40.248143 16138 net.cpp:170] Top shape: 1 128 36 14 (64512)
I0418 05:36:40.248154 16138 layer_factory.hpp:74] Creating layer inception_2a/pool_proj_bn
I0418 05:36:40.248157 16138 layer_factory.cpp:191] Layer inception_2a/pool_proj_bn is using CAFFE engine.
I0418 05:36:40.248162 16138 net.cpp:133] Creating Layer inception_2a/pool_proj_bn
I0418 05:36:40.248165 16138 net.cpp:453] inception_2a/pool_proj_bn <- inception_2a/pool_proj
I0418 05:36:40.248169 16138 net.cpp:411] inception_2a/pool_proj_bn -> inception_2a/pool_proj_bn
I0418 05:36:40.248174 16138 net.cpp:163] Setting up inception_2a/pool_proj_bn
I0418 05:36:40.248184 16138 net.cpp:170] Top shape: 1 128 36 14 (64512)
I0418 05:36:40.248196 16138 layer_factory.hpp:74] Creating layer inception_2a/relu_pool_proj
I0418 05:36:40.248200 16138 net.cpp:133] Creating Layer inception_2a/relu_pool_proj
I0418 05:36:40.248203 16138 net.cpp:453] inception_2a/relu_pool_proj <- inception_2a/pool_proj_bn
I0418 05:36:40.248206 16138 net.cpp:400] inception_2a/relu_pool_proj -> inception_2a/pool_proj_bn (in-place)
I0418 05:36:40.248210 16138 net.cpp:163] Setting up inception_2a/relu_pool_proj
I0418 05:36:40.248314 16138 net.cpp:170] Top shape: 1 128 36 14 (64512)
I0418 05:36:40.248319 16138 layer_factory.hpp:74] Creating layer inception_2a/output
I0418 05:36:40.248324 16138 net.cpp:133] Creating Layer inception_2a/output
I0418 05:36:40.248327 16138 net.cpp:453] inception_2a/output <- inception_2a/1x1_bn
I0418 05:36:40.248329 16138 net.cpp:453] inception_2a/output <- inception_2a/3x3_bn
I0418 05:36:40.248332 16138 net.cpp:453] inception_2a/output <- inception_2a/double_3x3_2_bn
I0418 05:36:40.248334 16138 net.cpp:453] inception_2a/output <- inception_2a/pool_proj_bn
I0418 05:36:40.248337 16138 net.cpp:411] inception_2a/output -> inception_2a/output
I0418 05:36:40.248342 16138 net.cpp:163] Setting up inception_2a/output
I0418 05:36:40.248347 16138 net.cpp:170] Top shape: 1 512 36 14 (258048)
I0418 05:36:40.248348 16138 layer_factory.hpp:74] Creating layer inception_2a/output_inception_2a/output_0_split
I0418 05:36:40.248353 16138 net.cpp:133] Creating Layer inception_2a/output_inception_2a/output_0_split
I0418 05:36:40.248354 16138 net.cpp:453] inception_2a/output_inception_2a/output_0_split <- inception_2a/output
I0418 05:36:40.248358 16138 net.cpp:411] inception_2a/output_inception_2a/output_0_split -> inception_2a/output_inception_2a/output_0_split_0
I0418 05:36:40.248361 16138 net.cpp:411] inception_2a/output_inception_2a/output_0_split -> inception_2a/output_inception_2a/output_0_split_1
I0418 05:36:40.248375 16138 net.cpp:411] inception_2a/output_inception_2a/output_0_split -> inception_2a/output_inception_2a/output_0_split_2
I0418 05:36:40.248379 16138 net.cpp:163] Setting up inception_2a/output_inception_2a/output_0_split
I0418 05:36:40.248383 16138 net.cpp:170] Top shape: 1 512 36 14 (258048)
I0418 05:36:40.248386 16138 net.cpp:170] Top shape: 1 512 36 14 (258048)
I0418 05:36:40.248389 16138 net.cpp:170] Top shape: 1 512 36 14 (258048)
I0418 05:36:40.248390 16138 layer_factory.hpp:74] Creating layer inception_2b/3x3_reduce
I0418 05:36:40.248395 16138 net.cpp:133] Creating Layer inception_2b/3x3_reduce
I0418 05:36:40.248397 16138 net.cpp:453] inception_2b/3x3_reduce <- inception_2a/output_inception_2a/output_0_split_0
I0418 05:36:40.248400 16138 net.cpp:411] inception_2b/3x3_reduce -> inception_2b/3x3_reduce
I0418 05:36:40.248404 16138 net.cpp:163] Setting up inception_2b/3x3_reduce
I0418 05:36:40.353756 16138 net.cpp:170] Top shape: 1 128 36 14 (64512)
I0418 05:36:40.353768 16138 layer_factory.hpp:74] Creating layer inception_2b/3x3_reduce_bn
I0418 05:36:40.353772 16138 layer_factory.cpp:191] Layer inception_2b/3x3_reduce_bn is using CAFFE engine.
I0418 05:36:40.353776 16138 net.cpp:133] Creating Layer inception_2b/3x3_reduce_bn
I0418 05:36:40.353780 16138 net.cpp:453] inception_2b/3x3_reduce_bn <- inception_2b/3x3_reduce
I0418 05:36:40.353783 16138 net.cpp:411] inception_2b/3x3_reduce_bn -> inception_2b/3x3_reduce_bn
I0418 05:36:40.353788 16138 net.cpp:163] Setting up inception_2b/3x3_reduce_bn
I0418 05:36:40.353798 16138 net.cpp:170] Top shape: 1 128 36 14 (64512)
I0418 05:36:40.353803 16138 layer_factory.hpp:74] Creating layer inception_2b/relu_3x3_reduce
I0418 05:36:40.353806 16138 net.cpp:133] Creating Layer inception_2b/relu_3x3_reduce
I0418 05:36:40.353808 16138 net.cpp:453] inception_2b/relu_3x3_reduce <- inception_2b/3x3_reduce_bn
I0418 05:36:40.353812 16138 net.cpp:400] inception_2b/relu_3x3_reduce -> inception_2b/3x3_reduce_bn (in-place)
I0418 05:36:40.353816 16138 net.cpp:163] Setting up inception_2b/relu_3x3_reduce
I0418 05:36:40.353996 16138 net.cpp:170] Top shape: 1 128 36 14 (64512)
I0418 05:36:40.354002 16138 layer_factory.hpp:74] Creating layer inception_2b/3x3
I0418 05:36:40.354007 16138 net.cpp:133] Creating Layer inception_2b/3x3
I0418 05:36:40.354010 16138 net.cpp:453] inception_2b/3x3 <- inception_2b/3x3_reduce_bn
I0418 05:36:40.354015 16138 net.cpp:411] inception_2b/3x3 -> inception_2b/3x3
I0418 05:36:40.354019 16138 net.cpp:163] Setting up inception_2b/3x3
I0418 05:36:40.358284 16138 net.cpp:170] Top shape: 1 128 18 7 (16128)
I0418 05:36:40.358295 16138 layer_factory.hpp:74] Creating layer inception_2b/3x3_bn
I0418 05:36:40.358299 16138 layer_factory.cpp:191] Layer inception_2b/3x3_bn is using CAFFE engine.
I0418 05:36:40.358304 16138 net.cpp:133] Creating Layer inception_2b/3x3_bn
I0418 05:36:40.358306 16138 net.cpp:453] inception_2b/3x3_bn <- inception_2b/3x3
I0418 05:36:40.358311 16138 net.cpp:411] inception_2b/3x3_bn -> inception_2b/3x3_bn
I0418 05:36:40.358316 16138 net.cpp:163] Setting up inception_2b/3x3_bn
I0418 05:36:40.358325 16138 net.cpp:170] Top shape: 1 128 18 7 (16128)
I0418 05:36:40.358330 16138 layer_factory.hpp:74] Creating layer inception_2b/relu_3x3
I0418 05:36:40.358333 16138 net.cpp:133] Creating Layer inception_2b/relu_3x3
I0418 05:36:40.358335 16138 net.cpp:453] inception_2b/relu_3x3 <- inception_2b/3x3_bn
I0418 05:36:40.358340 16138 net.cpp:400] inception_2b/relu_3x3 -> inception_2b/3x3_bn (in-place)
I0418 05:36:40.358342 16138 net.cpp:163] Setting up inception_2b/relu_3x3
I0418 05:36:40.358448 16138 net.cpp:170] Top shape: 1 128 18 7 (16128)
I0418 05:36:40.358453 16138 layer_factory.hpp:74] Creating layer inception_2b/double_3x3_reduce
I0418 05:36:40.358458 16138 net.cpp:133] Creating Layer inception_2b/double_3x3_reduce
I0418 05:36:40.358460 16138 net.cpp:453] inception_2b/double_3x3_reduce <- inception_2a/output_inception_2a/output_0_split_1
I0418 05:36:40.358467 16138 net.cpp:411] inception_2b/double_3x3_reduce -> inception_2b/double_3x3_reduce
I0418 05:36:40.358472 16138 net.cpp:163] Setting up inception_2b/double_3x3_reduce
I0418 05:36:40.463644 16138 net.cpp:170] Top shape: 1 128 36 14 (64512)
I0418 05:36:40.463656 16138 layer_factory.hpp:74] Creating layer inception_2b/double_3x3_reduce_bn
I0418 05:36:40.463660 16138 layer_factory.cpp:191] Layer inception_2b/double_3x3_reduce_bn is using CAFFE engine.
I0418 05:36:40.463665 16138 net.cpp:133] Creating Layer inception_2b/double_3x3_reduce_bn
I0418 05:36:40.463667 16138 net.cpp:453] inception_2b/double_3x3_reduce_bn <- inception_2b/double_3x3_reduce
I0418 05:36:40.463671 16138 net.cpp:411] inception_2b/double_3x3_reduce_bn -> inception_2b/double_3x3_reduce_bn
I0418 05:36:40.463677 16138 net.cpp:163] Setting up inception_2b/double_3x3_reduce_bn
I0418 05:36:40.463686 16138 net.cpp:170] Top shape: 1 128 36 14 (64512)
I0418 05:36:40.463691 16138 layer_factory.hpp:74] Creating layer inception_2b/relu_double_3x3_reduce
I0418 05:36:40.463696 16138 net.cpp:133] Creating Layer inception_2b/relu_double_3x3_reduce
I0418 05:36:40.463697 16138 net.cpp:453] inception_2b/relu_double_3x3_reduce <- inception_2b/double_3x3_reduce_bn
I0418 05:36:40.463701 16138 net.cpp:400] inception_2b/relu_double_3x3_reduce -> inception_2b/double_3x3_reduce_bn (in-place)
I0418 05:36:40.463704 16138 net.cpp:163] Setting up inception_2b/relu_double_3x3_reduce
I0418 05:36:40.463809 16138 net.cpp:170] Top shape: 1 128 36 14 (64512)
I0418 05:36:40.463814 16138 layer_factory.hpp:74] Creating layer inception_2b/double_3x3_1
I0418 05:36:40.463819 16138 net.cpp:133] Creating Layer inception_2b/double_3x3_1
I0418 05:36:40.463821 16138 net.cpp:453] inception_2b/double_3x3_1 <- inception_2b/double_3x3_reduce_bn
I0418 05:36:40.463826 16138 net.cpp:411] inception_2b/double_3x3_1 -> inception_2b/double_3x3_1
I0418 05:36:40.463830 16138 net.cpp:163] Setting up inception_2b/double_3x3_1
I0418 05:36:40.495556 16138 net.cpp:170] Top shape: 1 128 36 14 (64512)
I0418 05:36:40.495568 16138 layer_factory.hpp:74] Creating layer inception_2b/double_3x3_1_bn
I0418 05:36:40.495570 16138 layer_factory.cpp:191] Layer inception_2b/double_3x3_1_bn is using CAFFE engine.
I0418 05:36:40.495575 16138 net.cpp:133] Creating Layer inception_2b/double_3x3_1_bn
I0418 05:36:40.495579 16138 net.cpp:453] inception_2b/double_3x3_1_bn <- inception_2b/double_3x3_1
I0418 05:36:40.495582 16138 net.cpp:411] inception_2b/double_3x3_1_bn -> inception_2b/double_3x3_1_bn
I0418 05:36:40.495587 16138 net.cpp:163] Setting up inception_2b/double_3x3_1_bn
I0418 05:36:40.495597 16138 net.cpp:170] Top shape: 1 128 36 14 (64512)
I0418 05:36:40.495602 16138 layer_factory.hpp:74] Creating layer inception_2b/relu_double_3x3_1
I0418 05:36:40.495605 16138 net.cpp:133] Creating Layer inception_2b/relu_double_3x3_1
I0418 05:36:40.495609 16138 net.cpp:453] inception_2b/relu_double_3x3_1 <- inception_2b/double_3x3_1_bn
I0418 05:36:40.495611 16138 net.cpp:400] inception_2b/relu_double_3x3_1 -> inception_2b/double_3x3_1_bn (in-place)
I0418 05:36:40.495615 16138 net.cpp:163] Setting up inception_2b/relu_double_3x3_1
I0418 05:36:40.495795 16138 net.cpp:170] Top shape: 1 128 36 14 (64512)
I0418 05:36:40.495802 16138 layer_factory.hpp:74] Creating layer inception_2b/double_3x3_2
I0418 05:36:40.495808 16138 net.cpp:133] Creating Layer inception_2b/double_3x3_2
I0418 05:36:40.495810 16138 net.cpp:453] inception_2b/double_3x3_2 <- inception_2b/double_3x3_1_bn
I0418 05:36:40.495815 16138 net.cpp:411] inception_2b/double_3x3_2 -> inception_2b/double_3x3_2
I0418 05:36:40.495820 16138 net.cpp:163] Setting up inception_2b/double_3x3_2
I0418 05:36:40.500085 16138 net.cpp:170] Top shape: 1 128 18 7 (16128)
I0418 05:36:40.500097 16138 layer_factory.hpp:74] Creating layer inception_2b/double_3x3_2_bn
I0418 05:36:40.500099 16138 layer_factory.cpp:191] Layer inception_2b/double_3x3_2_bn is using CAFFE engine.
I0418 05:36:40.500103 16138 net.cpp:133] Creating Layer inception_2b/double_3x3_2_bn
I0418 05:36:40.500107 16138 net.cpp:453] inception_2b/double_3x3_2_bn <- inception_2b/double_3x3_2
I0418 05:36:40.500113 16138 net.cpp:411] inception_2b/double_3x3_2_bn -> inception_2b/double_3x3_2_bn
I0418 05:36:40.500119 16138 net.cpp:163] Setting up inception_2b/double_3x3_2_bn
I0418 05:36:40.500128 16138 net.cpp:170] Top shape: 1 128 18 7 (16128)
I0418 05:36:40.500133 16138 layer_factory.hpp:74] Creating layer inception_2b/relu_double_3x3_2
I0418 05:36:40.500138 16138 net.cpp:133] Creating Layer inception_2b/relu_double_3x3_2
I0418 05:36:40.500139 16138 net.cpp:453] inception_2b/relu_double_3x3_2 <- inception_2b/double_3x3_2_bn
I0418 05:36:40.500143 16138 net.cpp:400] inception_2b/relu_double_3x3_2 -> inception_2b/double_3x3_2_bn (in-place)
I0418 05:36:40.500145 16138 net.cpp:163] Setting up inception_2b/relu_double_3x3_2
I0418 05:36:40.500253 16138 net.cpp:170] Top shape: 1 128 18 7 (16128)
I0418 05:36:40.500258 16138 layer_factory.hpp:74] Creating layer inception_2b/pool
I0418 05:36:40.500262 16138 net.cpp:133] Creating Layer inception_2b/pool
I0418 05:36:40.500265 16138 net.cpp:453] inception_2b/pool <- inception_2a/output_inception_2a/output_0_split_2
I0418 05:36:40.500269 16138 net.cpp:411] inception_2b/pool -> inception_2b/pool
I0418 05:36:40.500273 16138 net.cpp:163] Setting up inception_2b/pool
I0418 05:36:40.500452 16138 net.cpp:170] Top shape: 1 512 18 7 (64512)
I0418 05:36:40.500458 16138 layer_factory.hpp:74] Creating layer inception_2b/output
I0418 05:36:40.500463 16138 net.cpp:133] Creating Layer inception_2b/output
I0418 05:36:40.500465 16138 net.cpp:453] inception_2b/output <- inception_2b/3x3_bn
I0418 05:36:40.500468 16138 net.cpp:453] inception_2b/output <- inception_2b/double_3x3_2_bn
I0418 05:36:40.500470 16138 net.cpp:453] inception_2b/output <- inception_2b/pool
I0418 05:36:40.500473 16138 net.cpp:411] inception_2b/output -> inception_2b/output
I0418 05:36:40.500478 16138 net.cpp:163] Setting up inception_2b/output
I0418 05:36:40.500481 16138 net.cpp:170] Top shape: 1 768 18 7 (96768)
I0418 05:36:40.500484 16138 layer_factory.hpp:74] Creating layer inception_2b/output_inception_2b/output_0_split
I0418 05:36:40.500488 16138 net.cpp:133] Creating Layer inception_2b/output_inception_2b/output_0_split
I0418 05:36:40.500490 16138 net.cpp:453] inception_2b/output_inception_2b/output_0_split <- inception_2b/output
I0418 05:36:40.500494 16138 net.cpp:411] inception_2b/output_inception_2b/output_0_split -> inception_2b/output_inception_2b/output_0_split_0
I0418 05:36:40.500499 16138 net.cpp:411] inception_2b/output_inception_2b/output_0_split -> inception_2b/output_inception_2b/output_0_split_1
I0418 05:36:40.500504 16138 net.cpp:411] inception_2b/output_inception_2b/output_0_split -> inception_2b/output_inception_2b/output_0_split_2
I0418 05:36:40.500507 16138 net.cpp:411] inception_2b/output_inception_2b/output_0_split -> inception_2b/output_inception_2b/output_0_split_3
I0418 05:36:40.500510 16138 net.cpp:163] Setting up inception_2b/output_inception_2b/output_0_split
I0418 05:36:40.500514 16138 net.cpp:170] Top shape: 1 768 18 7 (96768)
I0418 05:36:40.500516 16138 net.cpp:170] Top shape: 1 768 18 7 (96768)
I0418 05:36:40.500519 16138 net.cpp:170] Top shape: 1 768 18 7 (96768)
I0418 05:36:40.500520 16138 net.cpp:170] Top shape: 1 768 18 7 (96768)
I0418 05:36:40.500524 16138 layer_factory.hpp:74] Creating layer inception_3a/1x1
I0418 05:36:40.500529 16138 net.cpp:133] Creating Layer inception_3a/1x1
I0418 05:36:40.500530 16138 net.cpp:453] inception_3a/1x1 <- inception_2b/output_inception_2b/output_0_split_0
I0418 05:36:40.500535 16138 net.cpp:411] inception_3a/1x1 -> inception_3a/1x1
I0418 05:36:40.500538 16138 net.cpp:163] Setting up inception_3a/1x1
I0418 05:36:40.599602 16138 net.cpp:170] Top shape: 1 256 18 7 (32256)
I0418 05:36:40.599613 16138 layer_factory.hpp:74] Creating layer inception_3a/1x1_bn
I0418 05:36:40.599617 16138 layer_factory.cpp:191] Layer inception_3a/1x1_bn is using CAFFE engine.
I0418 05:36:40.599622 16138 net.cpp:133] Creating Layer inception_3a/1x1_bn
I0418 05:36:40.599624 16138 net.cpp:453] inception_3a/1x1_bn <- inception_3a/1x1
I0418 05:36:40.599632 16138 net.cpp:411] inception_3a/1x1_bn -> inception_3a/1x1_bn
I0418 05:36:40.599637 16138 net.cpp:163] Setting up inception_3a/1x1_bn
I0418 05:36:40.599647 16138 net.cpp:170] Top shape: 1 256 18 7 (32256)
I0418 05:36:40.599653 16138 layer_factory.hpp:74] Creating layer inception_3a/relu_1x1
I0418 05:36:40.599655 16138 net.cpp:133] Creating Layer inception_3a/relu_1x1
I0418 05:36:40.599658 16138 net.cpp:453] inception_3a/relu_1x1 <- inception_3a/1x1_bn
I0418 05:36:40.599661 16138 net.cpp:400] inception_3a/relu_1x1 -> inception_3a/1x1_bn (in-place)
I0418 05:36:40.599664 16138 net.cpp:163] Setting up inception_3a/relu_1x1
I0418 05:36:40.599848 16138 net.cpp:170] Top shape: 1 256 18 7 (32256)
I0418 05:36:40.599855 16138 layer_factory.hpp:74] Creating layer inception_3a/3x3_reduce
I0418 05:36:40.599860 16138 net.cpp:133] Creating Layer inception_3a/3x3_reduce
I0418 05:36:40.599864 16138 net.cpp:453] inception_3a/3x3_reduce <- inception_2b/output_inception_2b/output_0_split_1
I0418 05:36:40.599867 16138 net.cpp:411] inception_3a/3x3_reduce -> inception_3a/3x3_reduce
I0418 05:36:40.599872 16138 net.cpp:163] Setting up inception_3a/3x3_reduce
I0418 05:36:40.698843 16138 net.cpp:170] Top shape: 1 256 18 7 (32256)
I0418 05:36:40.698854 16138 layer_factory.hpp:74] Creating layer inception_3a/3x3_reduce_bn
I0418 05:36:40.698858 16138 layer_factory.cpp:191] Layer inception_3a/3x3_reduce_bn is using CAFFE engine.
I0418 05:36:40.698863 16138 net.cpp:133] Creating Layer inception_3a/3x3_reduce_bn
I0418 05:36:40.698865 16138 net.cpp:453] inception_3a/3x3_reduce_bn <- inception_3a/3x3_reduce
I0418 05:36:40.698869 16138 net.cpp:411] inception_3a/3x3_reduce_bn -> inception_3a/3x3_reduce_bn
I0418 05:36:40.698874 16138 net.cpp:163] Setting up inception_3a/3x3_reduce_bn
I0418 05:36:40.698884 16138 net.cpp:170] Top shape: 1 256 18 7 (32256)
I0418 05:36:40.698889 16138 layer_factory.hpp:74] Creating layer inception_3a/relu_3x3_reduce
I0418 05:36:40.698894 16138 net.cpp:133] Creating Layer inception_3a/relu_3x3_reduce
I0418 05:36:40.698895 16138 net.cpp:453] inception_3a/relu_3x3_reduce <- inception_3a/3x3_reduce_bn
I0418 05:36:40.698899 16138 net.cpp:400] inception_3a/relu_3x3_reduce -> inception_3a/3x3_reduce_bn (in-place)
I0418 05:36:40.698902 16138 net.cpp:163] Setting up inception_3a/relu_3x3_reduce
I0418 05:36:40.699009 16138 net.cpp:170] Top shape: 1 256 18 7 (32256)
I0418 05:36:40.699014 16138 layer_factory.hpp:74] Creating layer inception_3a/3x3
I0418 05:36:40.699019 16138 net.cpp:133] Creating Layer inception_3a/3x3
I0418 05:36:40.699021 16138 net.cpp:453] inception_3a/3x3 <- inception_3a/3x3_reduce_bn
I0418 05:36:40.699025 16138 net.cpp:411] inception_3a/3x3 -> inception_3a/3x3
I0418 05:36:40.699031 16138 net.cpp:163] Setting up inception_3a/3x3
I0418 05:36:40.739831 16138 net.cpp:170] Top shape: 1 256 18 7 (32256)
I0418 05:36:40.739842 16138 layer_factory.hpp:74] Creating layer inception_3a/3x3_bn
I0418 05:36:40.739845 16138 layer_factory.cpp:191] Layer inception_3a/3x3_bn is using CAFFE engine.
I0418 05:36:40.739850 16138 net.cpp:133] Creating Layer inception_3a/3x3_bn
I0418 05:36:40.739852 16138 net.cpp:453] inception_3a/3x3_bn <- inception_3a/3x3
I0418 05:36:40.739857 16138 net.cpp:411] inception_3a/3x3_bn -> inception_3a/3x3_bn
I0418 05:36:40.739862 16138 net.cpp:163] Setting up inception_3a/3x3_bn
I0418 05:36:40.739872 16138 net.cpp:170] Top shape: 1 256 18 7 (32256)
I0418 05:36:40.739877 16138 layer_factory.hpp:74] Creating layer inception_3a/relu_3x3
I0418 05:36:40.739881 16138 net.cpp:133] Creating Layer inception_3a/relu_3x3
I0418 05:36:40.739882 16138 net.cpp:453] inception_3a/relu_3x3 <- inception_3a/3x3_bn
I0418 05:36:40.739886 16138 net.cpp:400] inception_3a/relu_3x3 -> inception_3a/3x3_bn (in-place)
I0418 05:36:40.739888 16138 net.cpp:163] Setting up inception_3a/relu_3x3
I0418 05:36:40.740072 16138 net.cpp:170] Top shape: 1 256 18 7 (32256)
I0418 05:36:40.740079 16138 layer_factory.hpp:74] Creating layer inception_3a/double_3x3_reduce
I0418 05:36:40.740084 16138 net.cpp:133] Creating Layer inception_3a/double_3x3_reduce
I0418 05:36:40.740089 16138 net.cpp:453] inception_3a/double_3x3_reduce <- inception_2b/output_inception_2b/output_0_split_2
I0418 05:36:40.740094 16138 net.cpp:411] inception_3a/double_3x3_reduce -> inception_3a/double_3x3_reduce
I0418 05:36:40.740099 16138 net.cpp:163] Setting up inception_3a/double_3x3_reduce
I0418 05:36:40.838902 16138 net.cpp:170] Top shape: 1 256 18 7 (32256)
I0418 05:36:40.838913 16138 layer_factory.hpp:74] Creating layer inception_3a/double_3x3_reduce_bn
I0418 05:36:40.838917 16138 layer_factory.cpp:191] Layer inception_3a/double_3x3_reduce_bn is using CAFFE engine.
I0418 05:36:40.838922 16138 net.cpp:133] Creating Layer inception_3a/double_3x3_reduce_bn
I0418 05:36:40.838924 16138 net.cpp:453] inception_3a/double_3x3_reduce_bn <- inception_3a/double_3x3_reduce
I0418 05:36:40.838929 16138 net.cpp:411] inception_3a/double_3x3_reduce_bn -> inception_3a/double_3x3_reduce_bn
I0418 05:36:40.838934 16138 net.cpp:163] Setting up inception_3a/double_3x3_reduce_bn
I0418 05:36:40.838945 16138 net.cpp:170] Top shape: 1 256 18 7 (32256)
I0418 05:36:40.838949 16138 layer_factory.hpp:74] Creating layer inception_3a/relu_double_3x3_reduce
I0418 05:36:40.838953 16138 net.cpp:133] Creating Layer inception_3a/relu_double_3x3_reduce
I0418 05:36:40.838955 16138 net.cpp:453] inception_3a/relu_double_3x3_reduce <- inception_3a/double_3x3_reduce_bn
I0418 05:36:40.838959 16138 net.cpp:400] inception_3a/relu_double_3x3_reduce -> inception_3a/double_3x3_reduce_bn (in-place)
I0418 05:36:40.838963 16138 net.cpp:163] Setting up inception_3a/relu_double_3x3_reduce
I0418 05:36:40.839140 16138 net.cpp:170] Top shape: 1 256 18 7 (32256)
I0418 05:36:40.839148 16138 layer_factory.hpp:74] Creating layer inception_3a/double_3x3_1
I0418 05:36:40.839154 16138 net.cpp:133] Creating Layer inception_3a/double_3x3_1
I0418 05:36:40.839155 16138 net.cpp:453] inception_3a/double_3x3_1 <- inception_3a/double_3x3_reduce_bn
I0418 05:36:40.839160 16138 net.cpp:411] inception_3a/double_3x3_1 -> inception_3a/double_3x3_1
I0418 05:36:40.839165 16138 net.cpp:163] Setting up inception_3a/double_3x3_1
I0418 05:36:40.880028 16138 net.cpp:170] Top shape: 1 256 18 7 (32256)
I0418 05:36:40.880038 16138 layer_factory.hpp:74] Creating layer inception_3a/double_3x3_1_bn
I0418 05:36:40.880041 16138 layer_factory.cpp:191] Layer inception_3a/double_3x3_1_bn is using CAFFE engine.
I0418 05:36:40.880046 16138 net.cpp:133] Creating Layer inception_3a/double_3x3_1_bn
I0418 05:36:40.880049 16138 net.cpp:453] inception_3a/double_3x3_1_bn <- inception_3a/double_3x3_1
I0418 05:36:40.880053 16138 net.cpp:411] inception_3a/double_3x3_1_bn -> inception_3a/double_3x3_1_bn
I0418 05:36:40.880059 16138 net.cpp:163] Setting up inception_3a/double_3x3_1_bn
I0418 05:36:40.880069 16138 net.cpp:170] Top shape: 1 256 18 7 (32256)
I0418 05:36:40.880074 16138 layer_factory.hpp:74] Creating layer inception_3a/relu_double_3x3_1
I0418 05:36:40.880079 16138 net.cpp:133] Creating Layer inception_3a/relu_double_3x3_1
I0418 05:36:40.880080 16138 net.cpp:453] inception_3a/relu_double_3x3_1 <- inception_3a/double_3x3_1_bn
I0418 05:36:40.880084 16138 net.cpp:400] inception_3a/relu_double_3x3_1 -> inception_3a/double_3x3_1_bn (in-place)
I0418 05:36:40.880087 16138 net.cpp:163] Setting up inception_3a/relu_double_3x3_1
I0418 05:36:40.880195 16138 net.cpp:170] Top shape: 1 256 18 7 (32256)
I0418 05:36:40.880199 16138 layer_factory.hpp:74] Creating layer inception_3a/double_3x3_2
I0418 05:36:40.880204 16138 net.cpp:133] Creating Layer inception_3a/double_3x3_2
I0418 05:36:40.880208 16138 net.cpp:453] inception_3a/double_3x3_2 <- inception_3a/double_3x3_1_bn
I0418 05:36:40.880211 16138 net.cpp:411] inception_3a/double_3x3_2 -> inception_3a/double_3x3_2
I0418 05:36:40.880216 16138 net.cpp:163] Setting up inception_3a/double_3x3_2
I0418 05:36:40.921036 16138 net.cpp:170] Top shape: 1 256 18 7 (32256)
I0418 05:36:40.921046 16138 layer_factory.hpp:74] Creating layer inception_3a/double_3x3_2_bn
I0418 05:36:40.921049 16138 layer_factory.cpp:191] Layer inception_3a/double_3x3_2_bn is using CAFFE engine.
I0418 05:36:40.921056 16138 net.cpp:133] Creating Layer inception_3a/double_3x3_2_bn
I0418 05:36:40.921061 16138 net.cpp:453] inception_3a/double_3x3_2_bn <- inception_3a/double_3x3_2
I0418 05:36:40.921064 16138 net.cpp:411] inception_3a/double_3x3_2_bn -> inception_3a/double_3x3_2_bn
I0418 05:36:40.921069 16138 net.cpp:163] Setting up inception_3a/double_3x3_2_bn
I0418 05:36:40.921080 16138 net.cpp:170] Top shape: 1 256 18 7 (32256)
I0418 05:36:40.921085 16138 layer_factory.hpp:74] Creating layer inception_3a/relu_double_3x3_2
I0418 05:36:40.921089 16138 net.cpp:133] Creating Layer inception_3a/relu_double_3x3_2
I0418 05:36:40.921092 16138 net.cpp:453] inception_3a/relu_double_3x3_2 <- inception_3a/double_3x3_2_bn
I0418 05:36:40.921094 16138 net.cpp:400] inception_3a/relu_double_3x3_2 -> inception_3a/double_3x3_2_bn (in-place)
I0418 05:36:40.921098 16138 net.cpp:163] Setting up inception_3a/relu_double_3x3_2
I0418 05:36:40.921282 16138 net.cpp:170] Top shape: 1 256 18 7 (32256)
I0418 05:36:40.921288 16138 layer_factory.hpp:74] Creating layer inception_3a/pool
I0418 05:36:40.921291 16138 layer_factory.cpp:64] CUDNN does not support padding or multiple tops. Using Caffe's own pooling layer.
I0418 05:36:40.921295 16138 net.cpp:133] Creating Layer inception_3a/pool
I0418 05:36:40.921298 16138 net.cpp:453] inception_3a/pool <- inception_2b/output_inception_2b/output_0_split_3
I0418 05:36:40.921301 16138 net.cpp:411] inception_3a/pool -> inception_3a/pool
I0418 05:36:40.921305 16138 net.cpp:163] Setting up inception_3a/pool
I0418 05:36:40.921309 16138 net.cpp:170] Top shape: 1 768 18 7 (96768)
I0418 05:36:40.921313 16138 layer_factory.hpp:74] Creating layer inception_3a/pool_proj
I0418 05:36:40.921316 16138 net.cpp:133] Creating Layer inception_3a/pool_proj
I0418 05:36:40.921319 16138 net.cpp:453] inception_3a/pool_proj <- inception_3a/pool
I0418 05:36:40.921324 16138 net.cpp:411] inception_3a/pool_proj -> inception_3a/pool_proj
I0418 05:36:40.921327 16138 net.cpp:163] Setting up inception_3a/pool_proj
I0418 05:36:41.020360 16138 net.cpp:170] Top shape: 1 256 18 7 (32256)
I0418 05:36:41.020371 16138 layer_factory.hpp:74] Creating layer inception_3a/pool_proj_bn
I0418 05:36:41.020375 16138 layer_factory.cpp:191] Layer inception_3a/pool_proj_bn is using CAFFE engine.
I0418 05:36:41.020380 16138 net.cpp:133] Creating Layer inception_3a/pool_proj_bn
I0418 05:36:41.020382 16138 net.cpp:453] inception_3a/pool_proj_bn <- inception_3a/pool_proj
I0418 05:36:41.020386 16138 net.cpp:411] inception_3a/pool_proj_bn -> inception_3a/pool_proj_bn
I0418 05:36:41.020391 16138 net.cpp:163] Setting up inception_3a/pool_proj_bn
I0418 05:36:41.020401 16138 net.cpp:170] Top shape: 1 256 18 7 (32256)
I0418 05:36:41.020406 16138 layer_factory.hpp:74] Creating layer inception_3a/relu_pool_proj
I0418 05:36:41.020411 16138 net.cpp:133] Creating Layer inception_3a/relu_pool_proj
I0418 05:36:41.020413 16138 net.cpp:453] inception_3a/relu_pool_proj <- inception_3a/pool_proj_bn
I0418 05:36:41.020416 16138 net.cpp:400] inception_3a/relu_pool_proj -> inception_3a/pool_proj_bn (in-place)
I0418 05:36:41.020419 16138 net.cpp:163] Setting up inception_3a/relu_pool_proj
I0418 05:36:41.020601 16138 net.cpp:170] Top shape: 1 256 18 7 (32256)
I0418 05:36:41.020607 16138 layer_factory.hpp:74] Creating layer inception_3a/output
I0418 05:36:41.020612 16138 net.cpp:133] Creating Layer inception_3a/output
I0418 05:36:41.020615 16138 net.cpp:453] inception_3a/output <- inception_3a/1x1_bn
I0418 05:36:41.020618 16138 net.cpp:453] inception_3a/output <- inception_3a/3x3_bn
I0418 05:36:41.020620 16138 net.cpp:453] inception_3a/output <- inception_3a/double_3x3_2_bn
I0418 05:36:41.020623 16138 net.cpp:453] inception_3a/output <- inception_3a/pool_proj_bn
I0418 05:36:41.020627 16138 net.cpp:411] inception_3a/output -> inception_3a/output
I0418 05:36:41.020630 16138 net.cpp:163] Setting up inception_3a/output
I0418 05:36:41.020634 16138 net.cpp:170] Top shape: 1 1024 18 7 (129024)
I0418 05:36:41.020637 16138 layer_factory.hpp:74] Creating layer inception_3a/output_inception_3a/output_0_split
I0418 05:36:41.020643 16138 net.cpp:133] Creating Layer inception_3a/output_inception_3a/output_0_split
I0418 05:36:41.020645 16138 net.cpp:453] inception_3a/output_inception_3a/output_0_split <- inception_3a/output
I0418 05:36:41.020649 16138 net.cpp:411] inception_3a/output_inception_3a/output_0_split -> inception_3a/output_inception_3a/output_0_split_0
I0418 05:36:41.020653 16138 net.cpp:411] inception_3a/output_inception_3a/output_0_split -> inception_3a/output_inception_3a/output_0_split_1
I0418 05:36:41.020658 16138 net.cpp:411] inception_3a/output_inception_3a/output_0_split -> inception_3a/output_inception_3a/output_0_split_2
I0418 05:36:41.020661 16138 net.cpp:163] Setting up inception_3a/output_inception_3a/output_0_split
I0418 05:36:41.020665 16138 net.cpp:170] Top shape: 1 1024 18 7 (129024)
I0418 05:36:41.020668 16138 net.cpp:170] Top shape: 1 1024 18 7 (129024)
I0418 05:36:41.020670 16138 net.cpp:170] Top shape: 1 1024 18 7 (129024)
I0418 05:36:41.020673 16138 layer_factory.hpp:74] Creating layer inception_3b/3x3_reduce
I0418 05:36:41.020678 16138 net.cpp:133] Creating Layer inception_3b/3x3_reduce
I0418 05:36:41.020679 16138 net.cpp:453] inception_3b/3x3_reduce <- inception_3a/output_inception_3a/output_0_split_0
I0418 05:36:41.020684 16138 net.cpp:411] inception_3b/3x3_reduce -> inception_3b/3x3_reduce
I0418 05:36:41.020687 16138 net.cpp:163] Setting up inception_3b/3x3_reduce
I0418 05:36:41.154024 16138 net.cpp:170] Top shape: 1 256 18 7 (32256)
I0418 05:36:41.154036 16138 layer_factory.hpp:74] Creating layer inception_3b/3x3_reduce_bn
I0418 05:36:41.154038 16138 layer_factory.cpp:191] Layer inception_3b/3x3_reduce_bn is using CAFFE engine.
I0418 05:36:41.154043 16138 net.cpp:133] Creating Layer inception_3b/3x3_reduce_bn
I0418 05:36:41.154047 16138 net.cpp:453] inception_3b/3x3_reduce_bn <- inception_3b/3x3_reduce
I0418 05:36:41.154050 16138 net.cpp:411] inception_3b/3x3_reduce_bn -> inception_3b/3x3_reduce_bn
I0418 05:36:41.154055 16138 net.cpp:163] Setting up inception_3b/3x3_reduce_bn
I0418 05:36:41.154065 16138 net.cpp:170] Top shape: 1 256 18 7 (32256)
I0418 05:36:41.154070 16138 layer_factory.hpp:74] Creating layer inception_3b/relu_3x3_reduce
I0418 05:36:41.154074 16138 net.cpp:133] Creating Layer inception_3b/relu_3x3_reduce
I0418 05:36:41.154077 16138 net.cpp:453] inception_3b/relu_3x3_reduce <- inception_3b/3x3_reduce_bn
I0418 05:36:41.154079 16138 net.cpp:400] inception_3b/relu_3x3_reduce -> inception_3b/3x3_reduce_bn (in-place)
I0418 05:36:41.154083 16138 net.cpp:163] Setting up inception_3b/relu_3x3_reduce
I0418 05:36:41.154191 16138 net.cpp:170] Top shape: 1 256 18 7 (32256)
I0418 05:36:41.154196 16138 layer_factory.hpp:74] Creating layer inception_3b/3x3
I0418 05:36:41.154201 16138 net.cpp:133] Creating Layer inception_3b/3x3
I0418 05:36:41.154204 16138 net.cpp:453] inception_3b/3x3 <- inception_3b/3x3_reduce_bn
I0418 05:36:41.154207 16138 net.cpp:411] inception_3b/3x3 -> inception_3b/3x3
I0418 05:36:41.154212 16138 net.cpp:163] Setting up inception_3b/3x3
I0418 05:36:41.161579 16138 net.cpp:170] Top shape: 1 256 9 4 (9216)
I0418 05:36:41.161591 16138 layer_factory.hpp:74] Creating layer inception_3b/3x3_bn
I0418 05:36:41.161593 16138 layer_factory.cpp:191] Layer inception_3b/3x3_bn is using CAFFE engine.
I0418 05:36:41.161597 16138 net.cpp:133] Creating Layer inception_3b/3x3_bn
I0418 05:36:41.161600 16138 net.cpp:453] inception_3b/3x3_bn <- inception_3b/3x3
I0418 05:36:41.161604 16138 net.cpp:411] inception_3b/3x3_bn -> inception_3b/3x3_bn
I0418 05:36:41.161610 16138 net.cpp:163] Setting up inception_3b/3x3_bn
I0418 05:36:41.161620 16138 net.cpp:170] Top shape: 1 256 9 4 (9216)
I0418 05:36:41.161624 16138 layer_factory.hpp:74] Creating layer inception_3b/relu_3x3
I0418 05:36:41.161628 16138 net.cpp:133] Creating Layer inception_3b/relu_3x3
I0418 05:36:41.161630 16138 net.cpp:453] inception_3b/relu_3x3 <- inception_3b/3x3_bn
I0418 05:36:41.161633 16138 net.cpp:400] inception_3b/relu_3x3 -> inception_3b/3x3_bn (in-place)
I0418 05:36:41.161639 16138 net.cpp:163] Setting up inception_3b/relu_3x3
I0418 05:36:41.161824 16138 net.cpp:170] Top shape: 1 256 9 4 (9216)
I0418 05:36:41.161830 16138 layer_factory.hpp:74] Creating layer inception_3b/double_3x3_reduce
I0418 05:36:41.161836 16138 net.cpp:133] Creating Layer inception_3b/double_3x3_reduce
I0418 05:36:41.161839 16138 net.cpp:453] inception_3b/double_3x3_reduce <- inception_3a/output_inception_3a/output_0_split_1
I0418 05:36:41.161844 16138 net.cpp:411] inception_3b/double_3x3_reduce -> inception_3b/double_3x3_reduce
I0418 05:36:41.161849 16138 net.cpp:163] Setting up inception_3b/double_3x3_reduce
I0418 05:36:41.294618 16138 net.cpp:170] Top shape: 1 256 18 7 (32256)
I0418 05:36:41.294630 16138 layer_factory.hpp:74] Creating layer inception_3b/double_3x3_reduce_bn
I0418 05:36:41.294632 16138 layer_factory.cpp:191] Layer inception_3b/double_3x3_reduce_bn is using CAFFE engine.
I0418 05:36:41.294637 16138 net.cpp:133] Creating Layer inception_3b/double_3x3_reduce_bn
I0418 05:36:41.294639 16138 net.cpp:453] inception_3b/double_3x3_reduce_bn <- inception_3b/double_3x3_reduce
I0418 05:36:41.294644 16138 net.cpp:411] inception_3b/double_3x3_reduce_bn -> inception_3b/double_3x3_reduce_bn
I0418 05:36:41.294649 16138 net.cpp:163] Setting up inception_3b/double_3x3_reduce_bn
I0418 05:36:41.294661 16138 net.cpp:170] Top shape: 1 256 18 7 (32256)
I0418 05:36:41.294666 16138 layer_factory.hpp:74] Creating layer inception_3b/relu_double_3x3_reduce
I0418 05:36:41.294669 16138 net.cpp:133] Creating Layer inception_3b/relu_double_3x3_reduce
I0418 05:36:41.294672 16138 net.cpp:453] inception_3b/relu_double_3x3_reduce <- inception_3b/double_3x3_reduce_bn
I0418 05:36:41.294674 16138 net.cpp:400] inception_3b/relu_double_3x3_reduce -> inception_3b/double_3x3_reduce_bn (in-place)
I0418 05:36:41.294678 16138 net.cpp:163] Setting up inception_3b/relu_double_3x3_reduce
I0418 05:36:41.294857 16138 net.cpp:170] Top shape: 1 256 18 7 (32256)
I0418 05:36:41.294865 16138 layer_factory.hpp:74] Creating layer inception_3b/double_3x3_1
I0418 05:36:41.294886 16138 net.cpp:133] Creating Layer inception_3b/double_3x3_1
I0418 05:36:41.294889 16138 net.cpp:453] inception_3b/double_3x3_1 <- inception_3b/double_3x3_reduce_bn
I0418 05:36:41.294893 16138 net.cpp:411] inception_3b/double_3x3_1 -> inception_3b/double_3x3_1
I0418 05:36:41.294898 16138 net.cpp:163] Setting up inception_3b/double_3x3_1
I0418 05:36:41.335677 16138 net.cpp:170] Top shape: 1 256 18 7 (32256)
I0418 05:36:41.335688 16138 layer_factory.hpp:74] Creating layer inception_3b/double_3x3_1_bn
I0418 05:36:41.335691 16138 layer_factory.cpp:191] Layer inception_3b/double_3x3_1_bn is using CAFFE engine.
I0418 05:36:41.335696 16138 net.cpp:133] Creating Layer inception_3b/double_3x3_1_bn
I0418 05:36:41.335700 16138 net.cpp:453] inception_3b/double_3x3_1_bn <- inception_3b/double_3x3_1
I0418 05:36:41.335703 16138 net.cpp:411] inception_3b/double_3x3_1_bn -> inception_3b/double_3x3_1_bn
I0418 05:36:41.335708 16138 net.cpp:163] Setting up inception_3b/double_3x3_1_bn
I0418 05:36:41.335718 16138 net.cpp:170] Top shape: 1 256 18 7 (32256)
I0418 05:36:41.335723 16138 layer_factory.hpp:74] Creating layer inception_3b/relu_double_3x3_1
I0418 05:36:41.335726 16138 net.cpp:133] Creating Layer inception_3b/relu_double_3x3_1
I0418 05:36:41.335728 16138 net.cpp:453] inception_3b/relu_double_3x3_1 <- inception_3b/double_3x3_1_bn
I0418 05:36:41.335732 16138 net.cpp:400] inception_3b/relu_double_3x3_1 -> inception_3b/double_3x3_1_bn (in-place)
I0418 05:36:41.335736 16138 net.cpp:163] Setting up inception_3b/relu_double_3x3_1
I0418 05:36:41.335842 16138 net.cpp:170] Top shape: 1 256 18 7 (32256)
I0418 05:36:41.335847 16138 layer_factory.hpp:74] Creating layer inception_3b/double_3x3_2
I0418 05:36:41.335852 16138 net.cpp:133] Creating Layer inception_3b/double_3x3_2
I0418 05:36:41.335855 16138 net.cpp:453] inception_3b/double_3x3_2 <- inception_3b/double_3x3_1_bn
I0418 05:36:41.335860 16138 net.cpp:411] inception_3b/double_3x3_2 -> inception_3b/double_3x3_2
I0418 05:36:41.335863 16138 net.cpp:163] Setting up inception_3b/double_3x3_2
I0418 05:36:41.343163 16138 net.cpp:170] Top shape: 1 256 9 4 (9216)
I0418 05:36:41.343173 16138 layer_factory.hpp:74] Creating layer inception_3b/double_3x3_2_bn
I0418 05:36:41.343178 16138 layer_factory.cpp:191] Layer inception_3b/double_3x3_2_bn is using CAFFE engine.
I0418 05:36:41.343181 16138 net.cpp:133] Creating Layer inception_3b/double_3x3_2_bn
I0418 05:36:41.343184 16138 net.cpp:453] inception_3b/double_3x3_2_bn <- inception_3b/double_3x3_2
I0418 05:36:41.343189 16138 net.cpp:411] inception_3b/double_3x3_2_bn -> inception_3b/double_3x3_2_bn
I0418 05:36:41.343194 16138 net.cpp:163] Setting up inception_3b/double_3x3_2_bn
I0418 05:36:41.343205 16138 net.cpp:170] Top shape: 1 256 9 4 (9216)
I0418 05:36:41.343209 16138 layer_factory.hpp:74] Creating layer inception_3b/relu_double_3x3_2
I0418 05:36:41.343214 16138 net.cpp:133] Creating Layer inception_3b/relu_double_3x3_2
I0418 05:36:41.343215 16138 net.cpp:453] inception_3b/relu_double_3x3_2 <- inception_3b/double_3x3_2_bn
I0418 05:36:41.343219 16138 net.cpp:400] inception_3b/relu_double_3x3_2 -> inception_3b/double_3x3_2_bn (in-place)
I0418 05:36:41.343222 16138 net.cpp:163] Setting up inception_3b/relu_double_3x3_2
I0418 05:36:41.343405 16138 net.cpp:170] Top shape: 1 256 9 4 (9216)
I0418 05:36:41.343410 16138 layer_factory.hpp:74] Creating layer inception_3b/pool
I0418 05:36:41.343413 16138 layer_factory.cpp:64] CUDNN does not support padding or multiple tops. Using Caffe's own pooling layer.
I0418 05:36:41.343417 16138 net.cpp:133] Creating Layer inception_3b/pool
I0418 05:36:41.343420 16138 net.cpp:453] inception_3b/pool <- inception_3a/output_inception_3a/output_0_split_2
I0418 05:36:41.343425 16138 net.cpp:411] inception_3b/pool -> inception_3b/pool
I0418 05:36:41.343428 16138 net.cpp:163] Setting up inception_3b/pool
I0418 05:36:41.343435 16138 net.cpp:170] Top shape: 1 1024 9 4 (36864)
I0418 05:36:41.343436 16138 layer_factory.hpp:74] Creating layer inception_3b/output
I0418 05:36:41.343439 16138 net.cpp:133] Creating Layer inception_3b/output
I0418 05:36:41.343442 16138 net.cpp:453] inception_3b/output <- inception_3b/3x3_bn
I0418 05:36:41.343444 16138 net.cpp:453] inception_3b/output <- inception_3b/double_3x3_2_bn
I0418 05:36:41.343447 16138 net.cpp:453] inception_3b/output <- inception_3b/pool
I0418 05:36:41.343451 16138 net.cpp:411] inception_3b/output -> inception_3b/output
I0418 05:36:41.343456 16138 net.cpp:163] Setting up inception_3b/output
I0418 05:36:41.343459 16138 net.cpp:170] Top shape: 1 1536 9 4 (55296)
I0418 05:36:41.343461 16138 layer_factory.hpp:74] Creating layer global_pool
I0418 05:36:41.343466 16138 net.cpp:133] Creating Layer global_pool
I0418 05:36:41.343467 16138 net.cpp:453] global_pool <- inception_3b/output
I0418 05:36:41.343471 16138 net.cpp:411] global_pool -> global_pool
I0418 05:36:41.343474 16138 net.cpp:163] Setting up global_pool
I0418 05:36:41.343649 16138 net.cpp:170] Top shape: 1 1536 1 1 (1536)
I0418 05:36:41.343657 16138 layer_factory.hpp:74] Creating layer fc7
I0418 05:36:41.343662 16138 net.cpp:133] Creating Layer fc7
I0418 05:36:41.343664 16138 net.cpp:453] fc7 <- global_pool
I0418 05:36:41.343668 16138 net.cpp:411] fc7 -> fc7
I0418 05:36:41.343672 16138 net.cpp:163] Setting up fc7
I0418 05:36:41.345206 16138 net.cpp:170] Top shape: 1 256 (256)
I0418 05:36:41.345212 16138 layer_factory.hpp:74] Creating layer fc7_bn
I0418 05:36:41.345214 16138 layer_factory.cpp:191] Layer fc7_bn is using CAFFE engine.
I0418 05:36:41.345218 16138 net.cpp:133] Creating Layer fc7_bn
I0418 05:36:41.345221 16138 net.cpp:453] fc7_bn <- fc7
I0418 05:36:41.345226 16138 net.cpp:411] fc7_bn -> fc7_bn
I0418 05:36:41.345229 16138 net.cpp:163] Setting up fc7_bn
I0418 05:36:41.345237 16138 net.cpp:170] Top shape: 1 256 (256)
I0418 05:36:41.345242 16138 layer_factory.hpp:74] Creating layer relu7
I0418 05:36:41.345245 16138 net.cpp:133] Creating Layer relu7
I0418 05:36:41.345247 16138 net.cpp:453] relu7 <- fc7_bn
I0418 05:36:41.345250 16138 net.cpp:400] relu7 -> fc7_bn (in-place)
I0418 05:36:41.345253 16138 net.cpp:163] Setting up relu7
I0418 05:36:41.345439 16138 net.cpp:170] Top shape: 1 256 (256)
I0418 05:36:41.345445 16138 layer_factory.hpp:74] Creating layer drop7
I0418 05:36:41.345450 16138 net.cpp:133] Creating Layer drop7
I0418 05:36:41.345453 16138 net.cpp:453] drop7 <- fc7_bn
I0418 05:36:41.345458 16138 net.cpp:400] drop7 -> fc7_bn (in-place)
I0418 05:36:41.345460 16138 net.cpp:163] Setting up drop7
I0418 05:36:41.345464 16138 net.cpp:170] Top shape: 1 256 (256)
I0418 05:36:41.345468 16138 layer_factory.hpp:74] Creating layer fc8_jstl
I0418 05:36:41.345470 16138 net.cpp:133] Creating Layer fc8_jstl
I0418 05:36:41.345473 16138 net.cpp:453] fc8_jstl <- fc7_bn
I0418 05:36:41.345476 16138 net.cpp:411] fc8_jstl -> fc8_jstl
I0418 05:36:41.345480 16138 net.cpp:163] Setting up fc8_jstl
I0418 05:36:41.349848 16138 net.cpp:170] Top shape: 1 2629 (2629)
I0418 05:36:41.349854 16138 net.cpp:237] fc8_jstl does not need backward computation.
I0418 05:36:41.349856 16138 net.cpp:237] drop7 does not need backward computation.
I0418 05:36:41.349858 16138 net.cpp:237] relu7 does not need backward computation.
I0418 05:36:41.349860 16138 net.cpp:237] fc7_bn does not need backward computation.
I0418 05:36:41.349863 16138 net.cpp:237] fc7 does not need backward computation.
…
I0418 05:36:41.350184 16138 net.cpp:237] conv1_bn does not need backward computation.
I0418 05:36:41.350188 16138 net.cpp:237] conv1 does not need backward computation.
I0418 05:36:41.350189 16138 net.cpp:278] This network produces output fc8_jstl
I0418 05:36:41.350253 16138 net.cpp:290] Network initialization done.
I0418 05:36:41.350255 16138 net.cpp:291] Memory required for data: 61896980
I0418 05:36:41.404650 16138 net.cpp:47] Initializing net from parameters: 
name: "JSTL"
input: "data"
input_dim: 1
input_dim: 3
input_dim: 144
input_dim: 56
state {
  phase: TEST
}
richness: 1000
layer {
  name: "conv1"
  type: "Convolution"
  bottom: "data"
  top: "conv1"
  param {
    lr_mult: 1
    decay_mult: 1
  }
  param {
    lr_mult: 2
    decay_mult: 0
  }
  convolution_param {
    num_output: 32
    pad: 1
    kernel_size: 3
    stride: 1
    weight_filler {
      type: "xavier"
    }
    bias_filler {
      type: "constant"
      value: 0.2
    }
  }
}
layer {
  name: "relu1"
  type: "ReLU"
  bottom: "conv1"
  top: "conv1"
}
layer {
  name: "conv2"
  type: "Convolution"
  bottom: "conv1"
  top: "conv2"
  param {
    lr_mult: 1
    decay_mult: 1
  }
  param {
    lr_mult: 2
    decay_mult: 0
  }
  convolution_param {
    num_output: 32
    pad: 1
    kernel_size: 3
    stride: 1
    weight_filler {
      type: "xavier"
    }
    bias_filler {
      type: "constant"
      value: 0.2
    }
  }
}
layer {
  name: "relu2"
  type: "ReLU"
  bottom: "conv2"
  top: "conv2"
}
layer {
  name: "conv3"
  type: "Convolution"
  bottom: "conv2"
  top: "conv3"
  param {
    lr_mult: 1
    decay_mult: 1
  }
  param {
    lr_mult: 2
    decay_mult: 0
  }
  convolution_param {
    num_output: 32
    pad: 1
    kernel_size: 3
    stride: 1
    weight_filler {
      type: "xavier"
    }
    bias_filler {
      type: "constant"
      value: 0.2
    }
  }
}
layer {
  name: "relu3"
  type: "ReLU"
  bottom: "conv3"
  top: "conv3"
}
layer {
  name: "pool1"
  type: "Pooling"
  bottom: "conv3"
  top: "pool1"
  pooling_param {
    pool: MAX
    kernel_size: 2
    stride: 2
  }
}
layer {
  name: "inception_1a/1x1"
  type: "Convolution"
  bottom: "pool1"
  top: "inception_1a/1x1"
  param {
    lr_mult: 1
    decay_mult: 1
  }
  param {
    lr_mult: 2
    decay_mult: 0
  }
  convolution_param {
    num_output: 64
    kernel_size: 1
    weight_filler {
      type: "xavier"
    }
    bias_filler {
      type: "constant"
      value: 0.2
    }
  }
}
layer {
  name: "inception_1a/relu_1x1"
  type: "ReLU"
  bottom: "inception_1a/1x1"
  top: "inception_1a/1x1"
}
layer {
  name: "inception_1a/3x3_reduce"
  type: "Convolution"
  bottom: "pool1"
  top: "inception_1a/3x3_reduce"
  param {
    lr_mult: 1
    decay_mult: 1
  }
  param {
    lr_mult: 2
    decay_mult: 0
  }
  convolution_param {
    num_output: 64
    kernel_size: 1
    weight_filler {
      type: "xavier"
    }
    bias_filler {
      type: "constant"
      value: 0.2
    }
  }
}
layer {
  name: "inception_1a/relu_3x3_reduce"
  type: "ReLU"
  bottom: "inception_1a/3x3_reduce"
  top: "inception_1a/3x3_reduce"
}
layer {
  name: "inception_1a/3x3"
  type: "Convolution"
  bottom: "inception_1a/3x3_reduce"
  top: "inception_1a/3x3"
  param {
    lr_mult: 1
    decay_mult: 1
  }
  param {
    lr_mult: 2
    decay_mult: 0
  }
  convolution_param {
    num_output: 64
    pad: 1
    kernel_size: 3
    weight_filler {
      type: "xavier"
    }
    bias_filler {
      type: "constant"
      value: 0.2
    }
  }
}
layer {
  name: "inception_1a/relu_3x3"
  type: "ReLU"
  bottom: "inception_1a/3x3"
  top: "inception_1a/3x3"
}
layer {
  name: "inception_1a/double_3x3_reduce"
  type: "Convolution"
  bottom: "pool1"
  top: "inception_1a/double_3x3_reduce"
  param {
    lr_mult: 1
    decay_mult: 1
  }
  param {
    lr_mult: 2
    decay_mult: 0
  }
  convolution_param {
    num_output: 64
    kernel_size: 1
    weight_filler {
      type: "xavier"
    }
    bias_filler {
      type: "constant"
      value: 0.2
    }
  }
}
layer {
  name: "inception_1a/relu_double_3x3_reduce"
  type: "ReLU"
  bottom: "inception_1a/double_3x3_reduce"
  top: "inception_1a/double_3x3_reduce"
}
layer {
  name: "inception_1a/double_3x3_1"
  type: "Convolution"
  bottom: "inception_1a/double_3x3_reduce"
  top: "inception_1a/double_3x3_1"
  param {
    lr_mult: 1
    decay_mult: 1
  }
  param {
    lr_mult: 2
    decay_mult: 0
  }
  convolution_param {
    num_output: 64
    pad: 1
    kernel_size: 3
    weight_filler {
      type: "xavier"
    }
    bias_filler {
      type: "constant"
      value: 0.2
    }
  }
}
layer {
  name: "inception_1a/relu_double_3x3_1"
  type: "ReLU"
  bottom: "inception_1a/double_3x3_1"
  top: "inception_1a/double_3x3_1"
}
layer {
  name: "inception_1a/double_3x3_2"
  type: "Convolution"
  bottom: "inception_1a/double_3x3_1"
  top: "inception_1a/double_3x3_2"
  param {
    lr_mult: 1
    decay_mult: 1
  }
  param {
    lr_mult: 2
    decay_mult: 0
  }
  convolution_param {
    num_output: 64
    pad: 1
    kernel_size: 3
    weight_filler {
      type: "xavier"
    }
    bias_filler {
      type: "constant"
      value: 0.2
    }
  }
}
layer {
  name: "inception_1a/relu_double_3x3_2"
  type: "ReLU"
  bottom: "inception_1a/double_3x3_2"
  top: "inception_1a/double_3x3_2"
}
layer {
  name: "inception_1a/pool"
  type: "Pooling"
  bottom: "pool1"
  top: "inception_1a/pool"
  pooling_param {
    pool: AVE
    kernel_size: 3
    stride: 1
    pad: 1
  }
}
layer {
  name: "inception_1a/pool_proj"
  type: "Convolution"
  bottom: "inception_1a/pool"
  top: "inception_1a/pool_proj"
  param {
    lr_mult: 1
    decay_mult: 1
  }
  param {
    lr_mult: 2
    decay_mult: 0
  }
  convolution_param {
    num_output: 64
    kernel_size: 1
    weight_filler {
      type: "xavier"
    }
    bias_filler {
      type: "constant"
      value: 0.2
    }
  }
}
layer {
  name: "inception_1a/relu_pool_proj"
  type: "ReLU"
  bottom: "inception_1a/pool_proj"
  top: "inception_1a/pool_proj"
}
layer {
  name: "inception_1a/output"
  type: "Concat"
  bottom: "inception_1a/1x1"
  bottom: "inception_1a/3x3"
  bottom: "inception_1a/double_3x3_2"
  bottom: "inception_1a/pool_proj"
  top: "inception_1a/output"
}
layer {
  name: "inception_1b/3x3_reduce"
  type: "Convolution"
  bottom: "inception_1a/output"
  top: "inception_1b/3x3_reduce"
  param {
    lr_mult: 1
    decay_mult: 1
  }
  param {
    lr_mult: 2
    decay_mult: 0
  }
  convolution_param {
    num_output: 64
    kernel_size: 1
    weight_filler {
      type: "xavier"
    }
    bias_filler {
      type: "constant"
      value: 0.2
    }
  }
}
layer {
  name: "inception_1b/relu_3x3_reduce"
  type: "ReLU"
  bottom: "inception_1b/3x3_reduce"
  top: "inception_1b/3x3_reduce"
}
layer {
  name: "inception_1b/3x3"
  type: "Convolution"
  bottom: "inception_1b/3x3_reduce"
  top: "inception_1b/3x3"
  param {
    lr_mult: 1
    decay_mult: 1
  }
  param {
    lr_mult: 2
    decay_mult: 0
  }
  convolution_param {
    num_output: 64
    pad: 1
    kernel_size: 3
    stride: 2
    weight_filler {
      type: "xavier"
    }
    bias_filler {
      type: "constant"
      value: 0.2
    }
  }
}
layer {
  name: "inception_1b/relu_3x3"
  type: "ReLU"
  bottom: "inception_1b/3x3"
  top: "inception_1b/3x3"
}
layer {
  name: "inception_1b/double_3x3_reduce"
  type: "Convolution"
  bottom: "inception_1a/output"
  top: "inception_1b/double_3x3_reduce"
  param {
    lr_mult: 1
    decay_mult: 1
  }
  param {
    lr_mult: 2
    decay_mult: 0
  }
  convolution_param {
    num_output: 64
    kernel_size: 1
    weight_filler {
      type: "xavier"
    }
    bias_filler {
      type: "constant"
      value: 0.2
    }
  }
}
layer {
  name: "inception_1b/relu_double_3x3_reduce"
  type: "ReLU"
  bottom: "inception_1b/double_3x3_reduce"
  top: "inception_1b/double_3x3_reduce"
}
layer {
  name: "inception_1b/double_3x3_1"
  type: "Convolution"
  bottom: "inception_1b/double_3x3_reduce"
  top: "inception_1b/double_3x3_1"
  param {
    lr_mult: 1
    decay_mult: 1
  }
  param {
    lr_mult: 2
    decay_mult: 0
  }
  convolution_param {
    num_output: 64
    pad: 1
    kernel_size: 3
    weight_filler {
      type: "xavier"
    }
    bias_filler {
      type: "constant"
      value: 0.2
    }
  }
}
layer {
  name: "inception_1b/relu_double_3x3_1"
  type: "ReLU"
  bottom: "inception_1b/double_3x3_1"
  top: "inception_1b/double_3x3_1"
}
layer {
  name: "inception_1b/double_3x3_2"
  type: "Convolution"
  bottom: "inception_1b/double_3x3_1"
  top: "inception_1b/double_3x3_2"
  param {
    lr_mult: 1
    decay_mult: 1
  }
  param {
    lr_mult: 2
    decay_mult: 0
  }
  convolution_param {
    num_output: 64
    pad: 1
    kernel_size: 3
    stride: 2
    weight_filler {
      type: "xavier"
    }
    bias_filler {
      type: "constant"
      value: 0.2
    }
  }
}
layer {
  name: "inception_1b/relu_double_3x3_2"
  type: "ReLU"
  bottom: "inception_1b/double_3x3_2"
  top: "inception_1b/double_3x3_2"
}
layer {
  name: "inception_1b/pool"
  type: "Pooling"
  bottom: "inception_1a/output"
  top: "inception_1b/pool"
  pooling_param {
    pool: MAX
    kernel_size: 3
    stride: 2
  }
}
layer {
  name: "inception_1b/output"
  type: "Concat"
  bottom: "inception_1b/3x3"
  bottom: "inception_1b/double_3x3_2"
  bottom: "inception_1b/pool"
  top: "inception_1b/output"
}
layer {
  name: "inception_2a/1x1"
  type: "Convolution"
  bottom: "inception_1b/output"
  top: "inception_2a/1x1"
  param {
    lr_mult: 1
    decay_mult: 1
  }
  param {
    lr_mult: 2
    decay_mult: 0
  }
  convolution_param {
    num_output: 128
    kernel_size: 1
    weight_filler {
      type: "xavier"
    }
    bias_filler {
      type: "constant"
      value: 0.2
    }
  }
}
layer {
  name: "inception_2a/relu_1x1"
  type: "ReLU"
  bottom: "inception_2a/1x1"
  top: "inception_2a/1x1"
}
layer {
  name: "inception_2a/3x3_reduce"
  type: "Convolution"
  bottom: "inception_1b/output"
  top: "inception_2a/3x3_reduce"
  param {
    lr_mult: 1
    decay_mult: 1
  }
  param {
    lr_mult: 2
    decay_mult: 0
  }
  convolution_param {
    num_output: 128
    kernel_size: 1
    weight_filler {
      type: "xavier"
    }
    bias_filler {
      type: "constant"
      value: 0.2
    }
  }
}
layer {
  name: "inception_2a/relu_3x3_reduce"
  type: "ReLU"
  bottom: "inception_2a/3x3_reduce"
  top: "inception_2a/3x3_reduce"
}
layer {
  name: "inception_2a/3x3"
  type: "Convolution"
  bottom: "inception_2a/3x3_reduce"
  top: "inception_2a/3x3"
  param {
    lr_mult: 1
    decay_mult: 1
  }
  param {
    lr_mult: 2
    decay_mult: 0
  }
  convolution_param {
    num_output: 128
    pad: 1
    kernel_size: 3
    weight_filler {
      type: "xavier"
    }
    bias_filler {
      type: "constant"
      value: 0.2
    }
  }
}
layer {
  name: "inception_2a/relu_3x3"
  type: "ReLU"
  bottom: "inception_2a/3x3"
  top: "inception_2a/3x3"
}
layer {
  name: "inception_2a/double_3x3_reduce"
  type: "Convolution"
  bottom: "inception_1b/output"
  top: "inception_2a/double_3x3_reduce"
  param {
    lr_mult: 1
    decay_mult: 1
  }
  param {
    lr_mult: 2
    decay_mult: 0
  }
  convolution_param {
    num_output: 128
    kernel_size: 1
    weight_filler {
      type: "xavier"
    }
    bias_filler {
      type: "constant"
      value: 0.2
    }
  }
}
layer {
  name: "inception_2a/relu_double_3x3_reduce"
  type: "ReLU"
  bottom: "inception_2a/double_3x3_reduce"
  top: "inception_2a/double_3x3_reduce"
}
layer {
  name: "inception_2a/double_3x3_1"
  type: "Convolution"
  bottom: "inception_2a/double_3x3_reduce"
  top: "inception_2a/double_3x3_1"
  param {
    lr_mult: 1
    decay_mult: 1
  }
  param {
    lr_mult: 2
    decay_mult: 0
  }
  convolution_param {
    num_output: 128
    pad: 1
    kernel_size: 3
    weight_filler {
      type: "xavier"
    }
    bias_filler {
      type: "constant"
      value: 0.2
    }
  }
}
layer {
  name: "inception_2a/relu_double_3x3_1"
  type: "ReLU"
  bottom: "inception_2a/double_3x3_1"
  top: "inception_2a/double_3x3_1"
}
layer {
  name: "inception_2a/double_3x3_2"
  type: "Convolution"
  bottom: "inception_2a/double_3x3_1"
  top: "inception_2a/double_3x3_2"
  param {
    lr_mult: 1
    decay_mult: 1
  }
  param {
    lr_mult: 2
    decay_mult: 0
  }
  convolution_param {
    num_output: 128
    pad: 1
    kernel_size: 3
    weight_filler {
      type: "xavier"
    }
    bias_filler {
      type: "constant"
      value: 0.2
    }
  }
}
layer {
  name: "inception_2a/relu_double_3x3_2"
  type: "ReLU"
  bottom: "inception_2a/double_3x3_2"
  top: "inception_2a/double_3x3_2"
}
layer {
  name: "inception_2a/pool"
  type: "Pooling"
  bottom: "inception_1b/output"
  top: "inception_2a/pool"
  pooling_param {
    pool: AVE
    kernel_size: 3
    stride: 1
    pad: 1
  }
}
layer {
  name: "inception_2a/pool_proj"
  type: "Convolution"
  bottom: "inception_2a/pool"
  top: "inception_2a/pool_proj"
  param {
    lr_mult: 1
    decay_mult: 1
  }
  param {
    lr_mult: 2
    decay_mult: 0
  }
  convolution_param {
    num_output: 128
    kernel_size: 1
    weight_filler {
      type: "xavier"
    }
    bias_filler {
      type: "constant"
      value: 0.2
    }
  }
}
layer {
  name: "inception_2a/relu_pool_proj"
  type: "ReLU"
  bottom: "inception_2a/pool_proj"
  top: "inception_2a/pool_proj"
}
layer {
  name: "inception_2a/output"
  type: "Concat"
  bottom: "inception_2a/1x1"
  bottom: "inception_2a/3x3"
  bottom: "inception_2a/double_3x3_2"
  bottom: "inception_2a/pool_proj"
  top: "inception_2a/output"
}
layer {
  name: "inception_2b/3x3_reduce"
  type: "Convolution"
  bottom: "inception_2a/output"
  top: "inception_2b/3x3_reduce"
  param {
    lr_mult: 1
    decay_mult: 1
  }
  param {
    lr_mult: 2
    decay_mult: 0
  }
  convolution_param {
    num_output: 128
    kernel_size: 1
    weight_filler {
      type: "xavier"
    }
    bias_filler {
      type: "constant"
      value: 0.2
    }
  }
}
layer {
  name: "inception_2b/relu_3x3_reduce"
  type: "ReLU"
  bottom: "inception_2b/3x3_reduce"
  top: "inception_2b/3x3_reduce"
}
layer {
  name: "inception_2b/3x3"
  type: "Convolution"
  bottom: "inception_2b/3x3_reduce"
  top: "inception_2b/3x3"
  param {
    lr_mult: 1
    decay_mult: 1
  }
  param {
    lr_mult: 2
    decay_mult: 0
  }
  convolution_param {
    num_output: 128
    pad: 1
    kernel_size: 3
    stride: 2
    weight_filler {
      type: "xavier"
    }
    bias_filler {
      type: "constant"
      value: 0.2
    }
  }
}
layer {
  name: "inception_2b/relu_3x3"
  type: "ReLU"
  bottom: "inception_2b/3x3"
  top: "inception_2b/3x3"
}
layer {
  name: "inception_2b/double_3x3_reduce"
  type: "Convolution"
  bottom: "inception_2a/output"
  top: "inception_2b/double_3x3_reduce"
  param {
    lr_mult: 1
    decay_mult: 1
  }
  param {
    lr_mult: 2
    decay_mult: 0
  }
  convolution_param {
    num_output: 128
    kernel_size: 1
    weight_filler {
      type: "xavier"
    }
    bias_filler {
      type: "constant"
      value: 0.2
    }
  }
}
layer {
  name: "inception_2b/relu_double_3x3_reduce"
  type: "ReLU"
  bottom: "inception_2b/double_3x3_reduce"
  top: "inception_2b/double_3x3_reduce"
}
layer {
  name: "inception_2b/double_3x3_1"
  type: "Convolution"
  bottom: "inception_2b/double_3x3_reduce"
  top: "inception_2b/double_3x3_1"
  param {
    lr_mult: 1
    decay_mult: 1
  }
  param {
    lr_mult: 2
    decay_mult: 0
  }
  convolution_param {
    num_output: 128
    pad: 1
    kernel_size: 3
    weight_filler {
      type: "xavier"
    }
    bias_filler {
      type: "constant"
      value: 0.2
    }
  }
}
layer {
  name: "inception_2b/relu_double_3x3_1"
  type: "ReLU"
  bottom: "inception_2b/double_3x3_1"
  top: "inception_2b/double_3x3_1"
}
layer {
  name: "inception_2b/double_3x3_2"
  type: "Convolution"
  bottom: "inception_2b/double_3x3_1"
  top: "inception_2b/double_3x3_2"
  param {
    lr_mult: 1
    decay_mult: 1
  }
  param {
    lr_mult: 2
    decay_mult: 0
  }
  convolution_param {
    num_output: 128
    pad: 1
    kernel_size: 3
    stride: 2
    weight_filler {
      type: "xavier"
    }
    bias_filler {
      type: "constant"
      value: 0.2
    }
  }
}
layer {
  name: "inception_2b/relu_double_3x3_2"
  type: "ReLU"
  bottom: "inception_2b/double_3x3_2"
  top: "inception_2b/double_3x3_2"
}
layer {
  name: "inception_2b/pool"
  type: "Pooling"
  bottom: "inception_2a/output"
  top: "inception_2b/pool"
  pooling_param {
    pool: MAX
    kernel_size: 3
    stride: 2
  }
}
layer {
  name: "inception_2b/output"
  type: "Concat"
  bottom: "inception_2b/3x3"
  bottom: "inception_2b/double_3x3_2"
  bottom: "inception_2b/pool"
  top: "inception_2b/output"
}
layer {
  name: "inception_3a/1x1"
  type: "Convolution"
  bottom: "inception_2b/output"
  top: "inception_3a/1x1"
  param {
    lr_mult: 1
    decay_mult: 1
  }
  param {
    lr_mult: 2
    decay_mult: 0
  }
  convolution_param {
    num_output: 256
    kernel_size: 1
    weight_filler {
      type: "xavier"
    }
    bias_filler {
      type: "constant"
      value: 0.2
    }
  }
}
layer {
  name: "inception_3a/relu_1x1"
  type: "ReLU"
  bottom: "inception_3a/1x1"
  top: "inception_3a/1x1"
}
layer {
  name: "inception_3a/3x3_reduce"
  type: "Convolution"
  bottom: "inception_2b/output"
  top: "inception_3a/3x3_reduce"
  param {
    lr_mult: 1
    decay_mult: 1
  }
  param {
    lr_mult: 2
    decay_mult: 0
  }
  convolution_param {
    num_output: 256
    kernel_size: 1
    weight_filler {
      type: "xavier"
    }
    bias_filler {
      type: "constant"
      value: 0.2
    }
  }
}
layer {
  name: "inception_3a/relu_3x3_reduce"
  type: "ReLU"
  bottom: "inception_3a/3x3_reduce"
  top: "inception_3a/3x3_reduce"
}
layer {
  name: "inception_3a/3x3"
  type: "Convolution"
  bottom: "inception_3a/3x3_reduce"
  top: "inception_3a/3x3"
  param {
    lr_mult: 1
    decay_mult: 1
  }
  param {
    lr_mult: 2
    decay_mult: 0
  }
  convolution_param {
    num_output: 256
    pad: 1
    kernel_size: 3
    weight_filler {
      type: "xavier"
    }
    bias_filler {
      type: "constant"
      value: 0.2
    }
  }
}
layer {
  name: "inception_3a/relu_3x3"
  type: "ReLU"
  bottom: "inception_3a/3x3"
  top: "inception_3a/3x3"
}
layer {
  name: "inception_3a/double_3x3_reduce"
  type: "Convolution"
  bottom: "inception_2b/output"
  top: "inception_3a/double_3x3_reduce"
  param {
    lr_mult: 1
    decay_mult: 1
  }
  param {
    lr_mult: 2
    decay_mult: 0
  }
  convolution_param {
    num_output: 256
    kernel_size: 1
    weight_filler {
      type: "xavier"
    }
    bias_filler {
      type: "constant"
      value: 0.2
    }
  }
}
layer {
  name: "inception_3a/relu_double_3x3_reduce"
  type: "ReLU"
  bottom: "inception_3a/double_3x3_reduce"
  top: "inception_3a/double_3x3_reduce"
}
layer {
  name: "inception_3a/double_3x3_1"
  type: "Convolution"
  bottom: "inception_3a/double_3x3_reduce"
  top: "inception_3a/double_3x3_1"
  param {
    lr_mult: 1
    decay_mult: 1
  }
  param {
    lr_mult: 2
    decay_mult: 0
  }
  convolution_param {
    num_output: 256
    pad: 1
    kernel_size: 3
    weight_filler {
      type: "xavier"
    }
    bias_filler {
      type: "constant"
      value: 0.2
    }
  }
}
layer {
  name: "inception_3a/relu_double_3x3_1"
  type: "ReLU"
  bottom: "inception_3a/double_3x3_1"
  top: "inception_3a/double_3x3_1"
}
layer {
  name: "inception_3a/double_3x3_2"
  type: "Convolution"
  bottom: "inception_3a/double_3x3_1"
  top: "inception_3a/double_3x3_2"
  param {
    lr_mult: 1
    decay_mult: 1
  }
  param {
    lr_mult: 2
    decay_mult: 0
  }
  convolution_param {
    num_output: 256
    pad: 1
    kernel_size: 3
    weight_filler {
      type: "xavier"
    }
    bias_filler {
      type: "constant"
      value: 0.2
    }
  }
}
layer {
  name: "inception_3a/relu_double_3x3_2"
  type: "ReLU"
  bottom: "inception_3a/double_3x3_2"
  top: "inception_3a/double_3x3_2"
}
layer {
  name: "inception_3a/pool"
  type: "Pooling"
  bottom: "inception_2b/output"
  top: "inception_3a/pool"
  pooling_param {
    pool: AVE
    kernel_size: 3
    stride: 1
    pad: 1
  }
}
layer {
  name: "inception_3a/pool_proj"
  type: "Convolution"
  bottom: "inception_3a/pool"
  top: "inception_3a/pool_proj"
  param {
    lr_mult: 1
    decay_mult: 1
  }
  param {
    lr_mult: 2
    decay_mult: 0
  }
  convolution_param {
    num_output: 256
    kernel_size: 1
    weight_filler {
      type: "xavier"
    }
    bias_filler {
      type: "constant"
      value: 0.2
    }
  }
}
layer {
  name: "inception_3a/relu_pool_proj"
  type: "ReLU"
  bottom: "inception_3a/pool_proj"
  top: "inception_3a/pool_proj"
}
layer {
  name: "inception_3a/output"
  type: "Concat"
  bottom: "inception_3a/1x1"
  bottom: "inception_3a/3x3"
  bottom: "inception_3a/double_3x3_2"
  bottom: "inception_3a/pool_proj"
  top: "inception_3a/output"
}
layer {
  name: "inception_3b/3x3_reduce"
  type: "Convolution"
  bottom: "inception_3a/output"
  top: "inception_3b/3x3_reduce"
  param {
    lr_mult: 1
    decay_mult: 1
  }
  param {
    lr_mult: 2
    decay_mult: 0
  }
  convolution_param {
    num_output: 256
    kernel_size: 1
    weight_filler {
      type: "xavier"
    }
    bias_filler {
      type: "constant"
      value: 0.2
    }
  }
}
layer {
  name: "inception_3b/relu_3x3_reduce"
  type: "ReLU"
  bottom: "inception_3b/3x3_reduce"
  top: "inception_3b/3x3_reduce"
}
layer {
  name: "inception_3b/3x3"
  type: "Convolution"
  bottom: "inception_3b/3x3_reduce"
  top: "inception_3b/3x3"
  param {
    lr_mult: 1
    decay_mult: 1
  }
  param {
    lr_mult: 2
    decay_mult: 0
  }
  convolution_param {
    num_output: 256
    pad: 1
    kernel_size: 3
    stride: 2
    weight_filler {
      type: "xavier"
    }
    bias_filler {
      type: "constant"
      value: 0.2
    }
  }
}
layer {
  name: "inception_3b/relu_3x3"
  type: "ReLU"
  bottom: "inception_3b/3x3"
  top: "inception_3b/3x3"
}
layer {
  name: "inception_3b/double_3x3_reduce"
  type: "Convolution"
  bottom: "inception_3a/output"
  top: "inception_3b/double_3x3_reduce"
  param {
    lr_mult: 1
    decay_mult: 1
  }
  param {
    lr_mult: 2
    decay_mult: 0
  }
  convolution_param {
    num_output: 256
    kernel_size: 1
    weight_filler {
      type: "xavier"
    }
    bias_filler {
      type: "constant"
      value: 0.2
    }
  }
}
layer {
  name: "inception_3b/relu_double_3x3_reduce"
  type: "ReLU"
  bottom: "inception_3b/double_3x3_reduce"
  top: "inception_3b/double_3x3_reduce"
}
layer {
  name: "inception_3b/double_3x3_1"
  type: "Convolution"
  bottom: "inception_3b/double_3x3_reduce"
  top: "inception_3b/double_3x3_1"
  param {
    lr_mult: 1
    decay_mult: 1
  }
  param {
    lr_mult: 2
    decay_mult: 0
  }
  convolution_param {
    num_output: 256
    pad: 1
    kernel_size: 3
    weight_filler {
      type: "xavier"
    }
    bias_filler {
      type: "constant"
      value: 0.2
    }
  }
}
layer {
  name: "inception_3b/relu_double_3x3_1"
  type: "ReLU"
  bottom: "inception_3b/double_3x3_1"
  top: "inception_3b/double_3x3_1"
}
layer {
  name: "inception_3b/double_3x3_2"
  type: "Convolution"
  bottom: "inception_3b/double_3x3_1"
  top: "inception_3b/double_3x3_2"
  param {
    lr_mult: 1
    decay_mult: 1
  }
  param {
    lr_mult: 2
    decay_mult: 0
  }
  convolution_param {
    num_output: 256
    pad: 1
    kernel_size: 3
    stride: 2
    weight_filler {
      type: "xavier"
    }
    bias_filler {
      type: "constant"
      value: 0.2
    }
  }
}
layer {
  name: "inception_3b/relu_double_3x3_2"
  type: "ReLU"
  bottom: "inception_3b/double_3x3_2"
  top: "inception_3b/double_3x3_2"
}
layer {
  name: "inception_3b/pool"
  type: "Pooling"
  bottom: "inception_3a/output"
  top: "inception_3b/pool"
  pooling_param {
    pool: MAX
    kernel_size: 3
    stride: 2
    pad_h: 0
    pad_w: 1
  }
}
layer {
  name: "inception_3b/output"
  type: "Concat"
  bottom: "inception_3b/3x3"
  bottom: "inception_3b/double_3x3_2"
  bottom: "inception_3b/pool"
  top: "inception_3b/output"
}
layer {
  name: "global_pool"
  type: "Pooling"
  bottom: "inception_3b/output"
  top: "global_pool"
  pooling_param {
    pool: AVE
    stride: 1
    kernel_h: 9
    kernel_w: 4
  }
}
layer {
  name: "fc7"
  type: "InnerProduct"
  bottom: "global_pool"
  top: "fc7"
  param {
    lr_mult: 1
    decay_mult: 1
  }
  param {
    lr_mult: 2
    decay_mult: 0
  }
  inner_product_param {
    num_output: 256
    weight_filler {
      type: "xavier"
    }
    bias_filler {
      type: "constant"
      value: 0
    }
  }
}
layer {
  name: "relu7"
  type: "ReLU"
  bottom: "fc7"
  top: "fc7"
}
layer {
  name: "drop7"
  type: "Dropout"
  bottom: "fc7"
  top: "fc7"
  dropout_param {
    dropout_ratio: 0.5
  }
}
layer {
  name: "fc8_jstl"
  type: "InnerProduct"
  bottom: "fc7"
  top: "fc8_jstl"
  param {
    lr_mult: 1
    decay_mult: 1
  }
  param {
    lr_mult: 2
    decay_mult: 0
  }
  inner_product_param {
    num_output: 2629
    weight_filler {
      type: "gaussian"
      std: 0.001
    }
    bias_filler {
      type: "constant"
      value: 0
    }
  }
}
I0418 05:36:41.404867 16138 net.cpp:413] Input 0 -> data
I0418 05:36:41.404886 16138 layer_factory.hpp:74] Creating layer conv1
I0418 05:36:41.404891 16138 net.cpp:133] Creating Layer conv1
I0418 05:36:41.404893 16138 net.cpp:453] conv1 <- data
I0418 05:36:41.404897 16138 net.cpp:411] conv1 -> conv1
I0418 05:36:41.404902 16138 net.cpp:163] Setting up conv1
I0418 05:36:41.421331 16138 net.cpp:170] Top shape: 1 32 144 56 (258048)
I0418 05:36:41.421344 16138 layer_factory.hpp:74] Creating layer relu1
I0418 05:36:41.421350 16138 net.cpp:133] Creating Layer relu1
I0418 05:36:41.421352 16138 net.cpp:453] relu1 <- conv1
I0418 05:36:41.421355 16138 net.cpp:400] relu1 -> conv1 (in-place)
I0418 05:36:41.421360 16138 net.cpp:163] Setting up relu1
I0418 05:36:41.421465 16138 net.cpp:170] Top shape: 1 32 144 56 (258048)
I0418 05:36:41.421473 16138 layer_factory.hpp:74] Creating layer conv2
I0418 05:36:41.421478 16138 net.cpp:133] Creating Layer conv2
I0418 05:36:41.421481 16138 net.cpp:453] conv2 <- conv1
I0418 05:36:41.421484 16138 net.cpp:411] conv2 -> conv2
I0418 05:36:41.421489 16138 net.cpp:163] Setting up conv2
I0418 05:36:41.471019 16138 net.cpp:170] Top shape: 1 32 144 56 (258048)
I0418 05:36:41.471030 16138 layer_factory.hpp:74] Creating layer relu2
I0418 05:36:41.471035 16138 net.cpp:133] Creating Layer relu2
I0418 05:36:41.471037 16138 net.cpp:453] relu2 <- conv2
I0418 05:36:41.471040 16138 net.cpp:400] relu2 -> conv2 (in-place)
I0418 05:36:41.471043 16138 net.cpp:163] Setting up relu2
I0418 05:36:41.471148 16138 net.cpp:170] Top shape: 1 32 144 56 (258048)
I0418 05:36:41.471153 16138 layer_factory.hpp:74] Creating layer conv3
I0418 05:36:41.471158 16138 net.cpp:133] Creating Layer conv3
I0418 05:36:41.471159 16138 net.cpp:453] conv3 <- conv2
I0418 05:36:41.471163 16138 net.cpp:411] conv3 -> conv3
I0418 05:36:41.471168 16138 net.cpp:163] Setting up conv3
I0418 05:36:41.520483 16138 net.cpp:170] Top shape: 1 32 144 56 (258048)
I0418 05:36:41.520495 16138 layer_factory.hpp:74] Creating layer relu3
I0418 05:36:41.520499 16138 net.cpp:133] Creating Layer relu3
I0418 05:36:41.520503 16138 net.cpp:453] relu3 <- conv3
I0418 05:36:41.520505 16138 net.cpp:400] relu3 -> conv3 (in-place)
I0418 05:36:41.520509 16138 net.cpp:163] Setting up relu3
I0418 05:36:41.520689 16138 net.cpp:170] Top shape: 1 32 144 56 (258048)
I0418 05:36:41.520695 16138 layer_factory.hpp:74] Creating layer pool1
I0418 05:36:41.520699 16138 net.cpp:133] Creating Layer pool1
I0418 05:36:41.520702 16138 net.cpp:453] pool1 <- conv3
I0418 05:36:41.520705 16138 net.cpp:411] pool1 -> pool1
I0418 05:36:41.520709 16138 net.cpp:163] Setting up pool1
I0418 05:36:41.520805 16138 net.cpp:170] Top shape: 1 32 72 28 (64512)
I0418 05:36:41.520809 16138 layer_factory.hpp:74] Creating layer pool1_pool1_0_split
I0418 05:36:41.520813 16138 net.cpp:133] Creating Layer pool1_pool1_0_split
I0418 05:36:41.520815 16138 net.cpp:453] pool1_pool1_0_split <- pool1
I0418 05:36:41.520818 16138 net.cpp:411] pool1_pool1_0_split -> pool1_pool1_0_split_0
I0418 05:36:41.520823 16138 net.cpp:411] pool1_pool1_0_split -> pool1_pool1_0_split_1
I0418 05:36:41.520826 16138 net.cpp:411] pool1_pool1_0_split -> pool1_pool1_0_split_2
I0418 05:36:41.520829 16138 net.cpp:411] pool1_pool1_0_split -> pool1_pool1_0_split_3
I0418 05:36:41.520833 16138 net.cpp:163] Setting up pool1_pool1_0_split
I0418 05:36:41.520838 16138 net.cpp:170] Top shape: 1 32 72 28 (64512)
I0418 05:36:41.520840 16138 net.cpp:170] Top shape: 1 32 72 28 (64512)
I0418 05:36:41.520843 16138 net.cpp:170] Top shape: 1 32 72 28 (64512)
I0418 05:36:41.520845 16138 net.cpp:170] Top shape: 1 32 72 28 (64512)
I0418 05:36:41.520848 16138 layer_factory.hpp:74] Creating layer inception_1a/1x1
I0418 05:36:41.520853 16138 net.cpp:133] Creating Layer inception_1a/1x1
I0418 05:36:41.520854 16138 net.cpp:453] inception_1a/1x1 <- pool1_pool1_0_split_0
I0418 05:36:41.520858 16138 net.cpp:411] inception_1a/1x1 -> inception_1a/1x1
I0418 05:36:41.520861 16138 net.cpp:163] Setting up inception_1a/1x1
I0418 05:36:41.546483 16138 net.cpp:170] Top shape: 1 64 72 28 (129024)
I0418 05:36:41.546494 16138 layer_factory.hpp:74] Creating layer inception_1a/relu_1x1
I0418 05:36:41.546499 16138 net.cpp:133] Creating Layer inception_1a/relu_1x1
I0418 05:36:41.546501 16138 net.cpp:453] inception_1a/relu_1x1 <- inception_1a/1x1
I0418 05:36:41.546505 16138 net.cpp:400] inception_1a/relu_1x1 -> inception_1a/1x1 (in-place)
I0418 05:36:41.546509 16138 net.cpp:163] Setting up inception_1a/relu_1x1
I0418 05:36:41.546689 16138 net.cpp:170] Top shape: 1 64 72 28 (129024)
I0418 05:36:41.546694 16138 layer_factory.hpp:74] Creating layer inception_1a/3x3_reduce
I0418 05:36:41.546700 16138 net.cpp:133] Creating Layer inception_1a/3x3_reduce
I0418 05:36:41.546702 16138 net.cpp:453] inception_1a/3x3_reduce <- pool1_pool1_0_split_1
I0418 05:36:41.546705 16138 net.cpp:411] inception_1a/3x3_reduce -> inception_1a/3x3_reduce
I0418 05:36:41.546715 16138 net.cpp:163] Setting up inception_1a/3x3_reduce
I0418 05:36:41.572022 16138 net.cpp:170] Top shape: 1 64 72 28 (129024)
I0418 05:36:41.572034 16138 layer_factory.hpp:74] Creating layer inception_1a/relu_3x3_reduce
I0418 05:36:41.572038 16138 net.cpp:133] Creating Layer inception_1a/relu_3x3_reduce
I0418 05:36:41.572041 16138 net.cpp:453] inception_1a/relu_3x3_reduce <- inception_1a/3x3_reduce
I0418 05:36:41.572044 16138 net.cpp:400] inception_1a/relu_3x3_reduce -> inception_1a/3x3_reduce (in-place)
I0418 05:36:41.572048 16138 net.cpp:163] Setting up inception_1a/relu_3x3_reduce
I0418 05:36:41.572228 16138 net.cpp:170] Top shape: 1 64 72 28 (129024)
I0418 05:36:41.572234 16138 layer_factory.hpp:74] Creating layer inception_1a/3x3
I0418 05:36:41.572239 16138 net.cpp:133] Creating Layer inception_1a/3x3
I0418 05:36:41.572242 16138 net.cpp:453] inception_1a/3x3 <- inception_1a/3x3_reduce
I0418 05:36:41.572245 16138 net.cpp:411] inception_1a/3x3 -> inception_1a/3x3
I0418 05:36:41.572249 16138 net.cpp:163] Setting up inception_1a/3x3
I0418 05:36:41.620110 16138 net.cpp:170] Top shape: 1 64 72 28 (129024)
I0418 05:36:41.620121 16138 layer_factory.hpp:74] Creating layer inception_1a/relu_3x3
I0418 05:36:41.620126 16138 net.cpp:133] Creating Layer inception_1a/relu_3x3
I0418 05:36:41.620127 16138 net.cpp:453] inception_1a/relu_3x3 <- inception_1a/3x3
I0418 05:36:41.620131 16138 net.cpp:400] inception_1a/relu_3x3 -> inception_1a/3x3 (in-place)
I0418 05:36:41.620136 16138 net.cpp:163] Setting up inception_1a/relu_3x3
I0418 05:36:41.620239 16138 net.cpp:170] Top shape: 1 64 72 28 (129024)
I0418 05:36:41.620244 16138 layer_factory.hpp:74] Creating layer inception_1a/double_3x3_reduce
I0418 05:36:41.620249 16138 net.cpp:133] Creating Layer inception_1a/double_3x3_reduce
I0418 05:36:41.620251 16138 net.cpp:453] inception_1a/double_3x3_reduce <- pool1_pool1_0_split_2
I0418 05:36:41.620255 16138 net.cpp:411] inception_1a/double_3x3_reduce -> inception_1a/double_3x3_reduce
I0418 05:36:41.620260 16138 net.cpp:163] Setting up inception_1a/double_3x3_reduce
I0418 05:36:41.646107 16138 net.cpp:170] Top shape: 1 64 72 28 (129024)
I0418 05:36:41.646118 16138 layer_factory.hpp:74] Creating layer inception_1a/relu_double_3x3_reduce
I0418 05:36:41.646122 16138 net.cpp:133] Creating Layer inception_1a/relu_double_3x3_reduce
I0418 05:36:41.646126 16138 net.cpp:453] inception_1a/relu_double_3x3_reduce <- inception_1a/double_3x3_reduce
I0418 05:36:41.646128 16138 net.cpp:400] inception_1a/relu_double_3x3_reduce -> inception_1a/double_3x3_reduce (in-place)
I0418 05:36:41.646132 16138 net.cpp:163] Setting up inception_1a/relu_double_3x3_reduce
I0418 05:36:41.646313 16138 net.cpp:170] Top shape: 1 64 72 28 (129024)
I0418 05:36:41.646320 16138 layer_factory.hpp:74] Creating layer inception_1a/double_3x3_1
I0418 05:36:41.646327 16138 net.cpp:133] Creating Layer inception_1a/double_3x3_1
I0418 05:36:41.646329 16138 net.cpp:453] inception_1a/double_3x3_1 <- inception_1a/double_3x3_reduce
I0418 05:36:41.646333 16138 net.cpp:411] inception_1a/double_3x3_1 -> inception_1a/double_3x3_1
I0418 05:36:41.646337 16138 net.cpp:163] Setting up inception_1a/double_3x3_1
I0418 05:36:41.693440 16138 net.cpp:170] Top shape: 1 64 72 28 (129024)
I0418 05:36:41.693451 16138 layer_factory.hpp:74] Creating layer inception_1a/relu_double_3x3_1
I0418 05:36:41.693455 16138 net.cpp:133] Creating Layer inception_1a/relu_double_3x3_1
I0418 05:36:41.693457 16138 net.cpp:453] inception_1a/relu_double_3x3_1 <- inception_1a/double_3x3_1
I0418 05:36:41.693461 16138 net.cpp:400] inception_1a/relu_double_3x3_1 -> inception_1a/double_3x3_1 (in-place)
I0418 05:36:41.693465 16138 net.cpp:163] Setting up inception_1a/relu_double_3x3_1
I0418 05:36:41.693647 16138 net.cpp:170] Top shape: 1 64 72 28 (129024)
I0418 05:36:41.693653 16138 layer_factory.hpp:74] Creating layer inception_1a/double_3x3_2
I0418 05:36:41.693658 16138 net.cpp:133] Creating Layer inception_1a/double_3x3_2
I0418 05:36:41.693660 16138 net.cpp:453] inception_1a/double_3x3_2 <- inception_1a/double_3x3_1
I0418 05:36:41.693667 16138 net.cpp:411] inception_1a/double_3x3_2 -> inception_1a/double_3x3_2
I0418 05:36:41.693672 16138 net.cpp:163] Setting up inception_1a/double_3x3_2
I0418 05:36:41.740880 16138 net.cpp:170] Top shape: 1 64 72 28 (129024)
I0418 05:36:41.740892 16138 layer_factory.hpp:74] Creating layer inception_1a/relu_double_3x3_2
I0418 05:36:41.740897 16138 net.cpp:133] Creating Layer inception_1a/relu_double_3x3_2
I0418 05:36:41.740900 16138 net.cpp:453] inception_1a/relu_double_3x3_2 <- inception_1a/double_3x3_2
I0418 05:36:41.740903 16138 net.cpp:400] inception_1a/relu_double_3x3_2 -> inception_1a/double_3x3_2 (in-place)
I0418 05:36:41.740907 16138 net.cpp:163] Setting up inception_1a/relu_double_3x3_2
I0418 05:36:41.741011 16138 net.cpp:170] Top shape: 1 64 72 28 (129024)
I0418 05:36:41.741016 16138 layer_factory.hpp:74] Creating layer inception_1a/pool
I0418 05:36:41.741019 16138 layer_factory.cpp:64] CUDNN does not support padding or multiple tops. Using Caffe's own pooling layer.
I0418 05:36:41.741022 16138 net.cpp:133] Creating Layer inception_1a/pool
I0418 05:36:41.741024 16138 net.cpp:453] inception_1a/pool <- pool1_pool1_0_split_3
I0418 05:36:41.741027 16138 net.cpp:411] inception_1a/pool -> inception_1a/pool
I0418 05:36:41.741031 16138 net.cpp:163] Setting up inception_1a/pool
I0418 05:36:41.741035 16138 net.cpp:170] Top shape: 1 32 72 28 (64512)
I0418 05:36:41.741037 16138 layer_factory.hpp:74] Creating layer inception_1a/pool_proj
I0418 05:36:41.741041 16138 net.cpp:133] Creating Layer inception_1a/pool_proj
I0418 05:36:41.741044 16138 net.cpp:453] inception_1a/pool_proj <- inception_1a/pool
I0418 05:36:41.741047 16138 net.cpp:411] inception_1a/pool_proj -> inception_1a/pool_proj
I0418 05:36:41.741052 16138 net.cpp:163] Setting up inception_1a/pool_proj
I0418 05:36:41.766777 16138 net.cpp:170] Top shape: 1 64 72 28 (129024)
I0418 05:36:41.766788 16138 layer_factory.hpp:74] Creating layer inception_1a/relu_pool_proj
I0418 05:36:41.766791 16138 net.cpp:133] Creating Layer inception_1a/relu_pool_proj
I0418 05:36:41.766794 16138 net.cpp:453] inception_1a/relu_pool_proj <- inception_1a/pool_proj
I0418 05:36:41.766798 16138 net.cpp:400] inception_1a/relu_pool_proj -> inception_1a/pool_proj (in-place)
I0418 05:36:41.766801 16138 net.cpp:163] Setting up inception_1a/relu_pool_proj
I0418 05:36:41.766981 16138 net.cpp:170] Top shape: 1 64 72 28 (129024)
I0418 05:36:41.766988 16138 layer_factory.hpp:74] Creating layer inception_1a/output
I0418 05:36:41.766991 16138 net.cpp:133] Creating Layer inception_1a/output
I0418 05:36:41.766994 16138 net.cpp:453] inception_1a/output <- inception_1a/1x1
I0418 05:36:41.766998 16138 net.cpp:453] inception_1a/output <- inception_1a/3x3
I0418 05:36:41.766999 16138 net.cpp:453] inception_1a/output <- inception_1a/double_3x3_2
I0418 05:36:41.767001 16138 net.cpp:453] inception_1a/output <- inception_1a/pool_proj
I0418 05:36:41.767005 16138 net.cpp:411] inception_1a/output -> inception_1a/output
I0418 05:36:41.767009 16138 net.cpp:163] Setting up inception_1a/output
I0418 05:36:41.767014 16138 net.cpp:170] Top shape: 1 256 72 28 (516096)
I0418 05:36:41.767015 16138 layer_factory.hpp:74] Creating layer inception_1a/output_inception_1a/output_0_split
I0418 05:36:41.767019 16138 net.cpp:133] Creating Layer inception_1a/output_inception_1a/output_0_split
I0418 05:36:41.767021 16138 net.cpp:453] inception_1a/output_inception_1a/output_0_split <- inception_1a/output
I0418 05:36:41.767024 16138 net.cpp:411] inception_1a/output_inception_1a/output_0_split -> inception_1a/output_inception_1a/output_0_split_0
I0418 05:36:41.767027 16138 net.cpp:411] inception_1a/output_inception_1a/output_0_split -> inception_1a/output_inception_1a/output_0_split_1
I0418 05:36:41.767031 16138 net.cpp:411] inception_1a/output_inception_1a/output_0_split -> inception_1a/output_inception_1a/output_0_split_2
I0418 05:36:41.767035 16138 net.cpp:163] Setting up inception_1a/output_inception_1a/output_0_split
…
I0418 05:56:10.991967  4361 layer_factory.hpp:74] Creating layer inception_2a/double_3x3_reduce_bn
I0418 05:56:10.991971  4361 layer_factory.cpp:191] Layer inception_2a/double_3x3_reduce_bn is using CAFFE engine.
I0418 05:56:10.991974  4361 net.cpp:133] Creating Layer inception_2a/double_3x3_reduce_bn
I0418 05:56:10.991977  4361 net.cpp:453] inception_2a/double_3x3_reduce_bn <- inception_2a/double_3x3_reduce
I0418 05:56:10.991981  4361 net.cpp:411] inception_2a/double_3x3_reduce_bn -> inception_2a/double_3x3_reduce_bn
I0418 05:56:10.991986  4361 net.cpp:163] Setting up inception_2a/double_3x3_reduce_bn
I0418 05:56:10.991994  4361 net.cpp:170] Top shape: 10 128 36 14 (645120)
I0418 05:56:10.991999  4361 layer_factory.hpp:74] Creating layer inception_2a/relu_double_3x3_reduce
I0418 05:56:10.992002  4361 net.cpp:133] Creating Layer inception_2a/relu_double_3x3_reduce
I0418 05:56:10.992004  4361 net.cpp:453] inception_2a/relu_double_3x3_reduce <- inception_2a/double_3x3_reduce_bn
I0418 05:56:10.992007  4361 net.cpp:400] inception_2a/relu_double_3x3_reduce -> inception_2a/double_3x3_reduce_bn (in-place)
I0418 05:56:10.992010  4361 net.cpp:163] Setting up inception_2a/relu_double_3x3_reduce
I0418 05:56:10.992211  4361 net.cpp:170] Top shape: 10 128 36 14 (645120)
I0418 05:56:10.992218  4361 layer_factory.hpp:74] Creating layer inception_2a/double_3x3_1
I0418 05:56:10.992223  4361 net.cpp:133] Creating Layer inception_2a/double_3x3_1
I0418 05:56:10.992225  4361 net.cpp:453] inception_2a/double_3x3_1 <- inception_2a/double_3x3_reduce_bn
I0418 05:56:10.992229  4361 net.cpp:411] inception_2a/double_3x3_1 -> inception_2a/double_3x3_1
I0418 05:56:10.992233  4361 net.cpp:163] Setting up inception_2a/double_3x3_1
I0418 05:56:11.037438  4361 net.cpp:170] Top shape: 10 128 36 14 (645120)
I0418 05:56:11.037447  4361 layer_factory.hpp:74] Creating layer inception_2a/double_3x3_1_bn
I0418 05:56:11.037451  4361 layer_factory.cpp:191] Layer inception_2a/double_3x3_1_bn is using CAFFE engine.
I0418 05:56:11.037454  4361 net.cpp:133] Creating Layer inception_2a/double_3x3_1_bn
I0418 05:56:11.037457  4361 net.cpp:453] inception_2a/double_3x3_1_bn <- inception_2a/double_3x3_1
I0418 05:56:11.037461  4361 net.cpp:411] inception_2a/double_3x3_1_bn -> inception_2a/double_3x3_1_bn
I0418 05:56:11.037466  4361 net.cpp:163] Setting up inception_2a/double_3x3_1_bn
I0418 05:56:11.037474  4361 net.cpp:170] Top shape: 10 128 36 14 (645120)
I0418 05:56:11.037493  4361 layer_factory.hpp:74] Creating layer inception_2a/relu_double_3x3_1
I0418 05:56:11.037497  4361 net.cpp:133] Creating Layer inception_2a/relu_double_3x3_1
I0418 05:56:11.037499  4361 net.cpp:453] inception_2a/relu_double_3x3_1 <- inception_2a/double_3x3_1_bn
I0418 05:56:11.037502  4361 net.cpp:400] inception_2a/relu_double_3x3_1 -> inception_2a/double_3x3_1_bn (in-place)
I0418 05:56:11.037504  4361 net.cpp:163] Setting up inception_2a/relu_double_3x3_1
I0418 05:56:11.037691  4361 net.cpp:170] Top shape: 10 128 36 14 (645120)
I0418 05:56:11.037698  4361 layer_factory.hpp:74] Creating layer inception_2a/double_3x3_2
I0418 05:56:11.037703  4361 net.cpp:133] Creating Layer inception_2a/double_3x3_2
I0418 05:56:11.037705  4361 net.cpp:453] inception_2a/double_3x3_2 <- inception_2a/double_3x3_1_bn
I0418 05:56:11.037709  4361 net.cpp:411] inception_2a/double_3x3_2 -> inception_2a/double_3x3_2
I0418 05:56:11.037713  4361 net.cpp:163] Setting up inception_2a/double_3x3_2
I0418 05:56:11.082684  4361 net.cpp:170] Top shape: 10 128 36 14 (645120)
I0418 05:56:11.082693  4361 layer_factory.hpp:74] Creating layer inception_2a/double_3x3_2_bn
I0418 05:56:11.082695  4361 layer_factory.cpp:191] Layer inception_2a/double_3x3_2_bn is using CAFFE engine.
I0418 05:56:11.082700  4361 net.cpp:133] Creating Layer inception_2a/double_3x3_2_bn
I0418 05:56:11.082701  4361 net.cpp:453] inception_2a/double_3x3_2_bn <- inception_2a/double_3x3_2
I0418 05:56:11.082705  4361 net.cpp:411] inception_2a/double_3x3_2_bn -> inception_2a/double_3x3_2_bn
I0418 05:56:11.082710  4361 net.cpp:163] Setting up inception_2a/double_3x3_2_bn
I0418 05:56:11.082721  4361 net.cpp:170] Top shape: 10 128 36 14 (645120)
I0418 05:56:11.082726  4361 layer_factory.hpp:74] Creating layer inception_2a/relu_double_3x3_2
I0418 05:56:11.082728  4361 net.cpp:133] Creating Layer inception_2a/relu_double_3x3_2
I0418 05:56:11.082731  4361 net.cpp:453] inception_2a/relu_double_3x3_2 <- inception_2a/double_3x3_2_bn
I0418 05:56:11.082733  4361 net.cpp:400] inception_2a/relu_double_3x3_2 -> inception_2a/double_3x3_2_bn (in-place)
I0418 05:56:11.082736  4361 net.cpp:163] Setting up inception_2a/relu_double_3x3_2
I0418 05:56:11.082849  4361 net.cpp:170] Top shape: 10 128 36 14 (645120)
I0418 05:56:11.082852  4361 layer_factory.hpp:74] Creating layer inception_2a/pool
I0418 05:56:11.082855  4361 layer_factory.cpp:64] CUDNN does not support padding or multiple tops. Using Caffe's own pooling layer.
I0418 05:56:11.082859  4361 net.cpp:133] Creating Layer inception_2a/pool
I0418 05:56:11.082860  4361 net.cpp:453] inception_2a/pool <- inception_1b/output_inception_1b/output_0_split_3
I0418 05:56:11.082864  4361 net.cpp:411] inception_2a/pool -> inception_2a/pool
I0418 05:56:11.082867  4361 net.cpp:163] Setting up inception_2a/pool
I0418 05:56:11.082870  4361 net.cpp:170] Top shape: 10 384 36 14 (1935360)
I0418 05:56:11.082872  4361 layer_factory.hpp:74] Creating layer inception_2a/pool_proj
I0418 05:56:11.082876  4361 net.cpp:133] Creating Layer inception_2a/pool_proj
I0418 05:56:11.082878  4361 net.cpp:453] inception_2a/pool_proj <- inception_2a/pool
I0418 05:56:11.082881  4361 net.cpp:411] inception_2a/pool_proj -> inception_2a/pool_proj
I0418 05:56:11.082895  4361 net.cpp:163] Setting up inception_2a/pool_proj
I0418 05:56:11.178866  4361 net.cpp:170] Top shape: 10 128 36 14 (645120)
I0418 05:56:11.178877  4361 layer_factory.hpp:74] Creating layer inception_2a/pool_proj_bn
I0418 05:56:11.178879  4361 layer_factory.cpp:191] Layer inception_2a/pool_proj_bn is using CAFFE engine.
I0418 05:56:11.178884  4361 net.cpp:133] Creating Layer inception_2a/pool_proj_bn
I0418 05:56:11.178885  4361 net.cpp:453] inception_2a/pool_proj_bn <- inception_2a/pool_proj
I0418 05:56:11.178889  4361 net.cpp:411] inception_2a/pool_proj_bn -> inception_2a/pool_proj_bn
I0418 05:56:11.178894  4361 net.cpp:163] Setting up inception_2a/pool_proj_bn
I0418 05:56:11.178905  4361 net.cpp:170] Top shape: 10 128 36 14 (645120)
I0418 05:56:11.178921  4361 layer_factory.hpp:74] Creating layer inception_2a/relu_pool_proj
I0418 05:56:11.178925  4361 net.cpp:133] Creating Layer inception_2a/relu_pool_proj
I0418 05:56:11.178926  4361 net.cpp:453] inception_2a/relu_pool_proj <- inception_2a/pool_proj_bn
I0418 05:56:11.178930  4361 net.cpp:400] inception_2a/relu_pool_proj -> inception_2a/pool_proj_bn (in-place)
I0418 05:56:11.178932  4361 net.cpp:163] Setting up inception_2a/relu_pool_proj
I0418 05:56:11.179122  4361 net.cpp:170] Top shape: 10 128 36 14 (645120)
I0418 05:56:11.179128  4361 layer_factory.hpp:74] Creating layer inception_2a/output
I0418 05:56:11.179132  4361 net.cpp:133] Creating Layer inception_2a/output
I0418 05:56:11.179134  4361 net.cpp:453] inception_2a/output <- inception_2a/1x1_bn
I0418 05:56:11.179136  4361 net.cpp:453] inception_2a/output <- inception_2a/3x3_bn
I0418 05:56:11.179139  4361 net.cpp:453] inception_2a/output <- inception_2a/double_3x3_2_bn
I0418 05:56:11.179141  4361 net.cpp:453] inception_2a/output <- inception_2a/pool_proj_bn
I0418 05:56:11.179144  4361 net.cpp:411] inception_2a/output -> inception_2a/output
I0418 05:56:11.179148  4361 net.cpp:163] Setting up inception_2a/output
I0418 05:56:11.179152  4361 net.cpp:170] Top shape: 10 512 36 14 (2580480)
I0418 05:56:11.179153  4361 layer_factory.hpp:74] Creating layer inception_2a/output_inception_2a/output_0_split
I0418 05:56:11.179157  4361 net.cpp:133] Creating Layer inception_2a/output_inception_2a/output_0_split
I0418 05:56:11.179158  4361 net.cpp:453] inception_2a/output_inception_2a/output_0_split <- inception_2a/output
I0418 05:56:11.179162  4361 net.cpp:411] inception_2a/output_inception_2a/output_0_split -> inception_2a/output_inception_2a/output_0_split_0
I0418 05:56:11.179165  4361 net.cpp:411] inception_2a/output_inception_2a/output_0_split -> inception_2a/output_inception_2a/output_0_split_1
I0418 05:56:11.179168  4361 net.cpp:411] inception_2a/output_inception_2a/output_0_split -> inception_2a/output_inception_2a/output_0_split_2
I0418 05:56:11.179170  4361 net.cpp:163] Setting up inception_2a/output_inception_2a/output_0_split
I0418 05:56:11.179173  4361 net.cpp:170] Top shape: 10 512 36 14 (2580480)
I0418 05:56:11.179175  4361 net.cpp:170] Top shape: 10 512 36 14 (2580480)
I0418 05:56:11.179177  4361 net.cpp:170] Top shape: 10 512 36 14 (2580480)
I0418 05:56:11.179179  4361 layer_factory.hpp:74] Creating layer inception_2b/3x3_reduce
I0418 05:56:11.179183  4361 net.cpp:133] Creating Layer inception_2b/3x3_reduce
I0418 05:56:11.179185  4361 net.cpp:453] inception_2b/3x3_reduce <- inception_2a/output_inception_2a/output_0_split_0
I0418 05:56:11.179188  4361 net.cpp:411] inception_2b/3x3_reduce -> inception_2b/3x3_reduce
I0418 05:56:11.179191  4361 net.cpp:163] Setting up inception_2b/3x3_reduce
I0418 05:56:11.305438  4361 net.cpp:170] Top shape: 10 128 36 14 (645120)
I0418 05:56:11.305449  4361 layer_factory.hpp:74] Creating layer inception_2b/3x3_reduce_bn
I0418 05:56:11.305451  4361 layer_factory.cpp:191] Layer inception_2b/3x3_reduce_bn is using CAFFE engine.
I0418 05:56:11.305455  4361 net.cpp:133] Creating Layer inception_2b/3x3_reduce_bn
I0418 05:56:11.305457  4361 net.cpp:453] inception_2b/3x3_reduce_bn <- inception_2b/3x3_reduce
I0418 05:56:11.305461  4361 net.cpp:411] inception_2b/3x3_reduce_bn -> inception_2b/3x3_reduce_bn
I0418 05:56:11.305466  4361 net.cpp:163] Setting up inception_2b/3x3_reduce_bn
I0418 05:56:11.305476  4361 net.cpp:170] Top shape: 10 128 36 14 (645120)
I0418 05:56:11.305482  4361 layer_factory.hpp:74] Creating layer inception_2b/relu_3x3_reduce
I0418 05:56:11.305485  4361 net.cpp:133] Creating Layer inception_2b/relu_3x3_reduce
I0418 05:56:11.305486  4361 net.cpp:453] inception_2b/relu_3x3_reduce <- inception_2b/3x3_reduce_bn
I0418 05:56:11.305490  4361 net.cpp:400] inception_2b/relu_3x3_reduce -> inception_2b/3x3_reduce_bn (in-place)
I0418 05:56:11.305493  4361 net.cpp:163] Setting up inception_2b/relu_3x3_reduce
I0418 05:56:11.305898  4361 net.cpp:170] Top shape: 10 128 36 14 (645120)
I0418 05:56:11.305905  4361 layer_factory.hpp:74] Creating layer inception_2b/3x3
I0418 05:56:11.305912  4361 net.cpp:133] Creating Layer inception_2b/3x3
I0418 05:56:11.305913  4361 net.cpp:453] inception_2b/3x3 <- inception_2b/3x3_reduce_bn
I0418 05:56:11.305917  4361 net.cpp:411] inception_2b/3x3 -> inception_2b/3x3
I0418 05:56:11.305922  4361 net.cpp:163] Setting up inception_2b/3x3
I0418 05:56:11.313251  4361 net.cpp:170] Top shape: 10 128 18 7 (161280)
I0418 05:56:11.313259  4361 layer_factory.hpp:74] Creating layer inception_2b/3x3_bn
I0418 05:56:11.313261  4361 layer_factory.cpp:191] Layer inception_2b/3x3_bn is using CAFFE engine.
I0418 05:56:11.313266  4361 net.cpp:133] Creating Layer inception_2b/3x3_bn
I0418 05:56:11.313268  4361 net.cpp:453] inception_2b/3x3_bn <- inception_2b/3x3
I0418 05:56:11.313271  4361 net.cpp:411] inception_2b/3x3_bn -> inception_2b/3x3_bn
I0418 05:56:11.313277  4361 net.cpp:163] Setting up inception_2b/3x3_bn
I0418 05:56:11.313285  4361 net.cpp:170] Top shape: 10 128 18 7 (161280)
I0418 05:56:11.313290  4361 layer_factory.hpp:74] Creating layer inception_2b/relu_3x3
I0418 05:56:11.313293  4361 net.cpp:133] Creating Layer inception_2b/relu_3x3
I0418 05:56:11.313295  4361 net.cpp:453] inception_2b/relu_3x3 <- inception_2b/3x3_bn
I0418 05:56:11.313298  4361 net.cpp:400] inception_2b/relu_3x3 -> inception_2b/3x3_bn (in-place)
I0418 05:56:11.313302  4361 net.cpp:163] Setting up inception_2b/relu_3x3
I0418 05:56:11.313410  4361 net.cpp:170] Top shape: 10 128 18 7 (161280)
I0418 05:56:11.313415  4361 layer_factory.hpp:74] Creating layer inception_2b/double_3x3_reduce
I0418 05:56:11.313419  4361 net.cpp:133] Creating Layer inception_2b/double_3x3_reduce
I0418 05:56:11.313421  4361 net.cpp:453] inception_2b/double_3x3_reduce <- inception_2a/output_inception_2a/output_0_split_1
I0418 05:56:11.313426  4361 net.cpp:411] inception_2b/double_3x3_reduce -> inception_2b/double_3x3_reduce
I0418 05:56:11.313429  4361 net.cpp:163] Setting up inception_2b/double_3x3_reduce
I0418 05:56:11.439465  4361 net.cpp:170] Top shape: 10 128 36 14 (645120)
I0418 05:56:11.439474  4361 layer_factory.hpp:74] Creating layer inception_2b/double_3x3_reduce_bn
I0418 05:56:11.439477  4361 layer_factory.cpp:191] Layer inception_2b/double_3x3_reduce_bn is using CAFFE engine.
I0418 05:56:11.439481  4361 net.cpp:133] Creating Layer inception_2b/double_3x3_reduce_bn
I0418 05:56:11.439483  4361 net.cpp:453] inception_2b/double_3x3_reduce_bn <- inception_2b/double_3x3_reduce
I0418 05:56:11.439487  4361 net.cpp:411] inception_2b/double_3x3_reduce_bn -> inception_2b/double_3x3_reduce_bn
I0418 05:56:11.439491  4361 net.cpp:163] Setting up inception_2b/double_3x3_reduce_bn
I0418 05:56:11.439502  4361 net.cpp:170] Top shape: 10 128 36 14 (645120)
I0418 05:56:11.439507  4361 layer_factory.hpp:74] Creating layer inception_2b/relu_double_3x3_reduce
I0418 05:56:11.439510  4361 net.cpp:133] Creating Layer inception_2b/relu_double_3x3_reduce
I0418 05:56:11.439512  4361 net.cpp:453] inception_2b/relu_double_3x3_reduce <- inception_2b/double_3x3_reduce_bn
I0418 05:56:11.439514  4361 net.cpp:400] inception_2b/relu_double_3x3_reduce -> inception_2b/double_3x3_reduce_bn (in-place)
I0418 05:56:11.439517  4361 net.cpp:163] Setting up inception_2b/relu_double_3x3_reduce
I0418 05:56:11.439716  4361 net.cpp:170] Top shape: 10 128 36 14 (645120)
I0418 05:56:11.439723  4361 layer_factory.hpp:74] Creating layer inception_2b/double_3x3_1
I0418 05:56:11.439728  4361 net.cpp:133] Creating Layer inception_2b/double_3x3_1
I0418 05:56:11.439730  4361 net.cpp:453] inception_2b/double_3x3_1 <- inception_2b/double_3x3_reduce_bn
I0418 05:56:11.439734  4361 net.cpp:411] inception_2b/double_3x3_1 -> inception_2b/double_3x3_1
I0418 05:56:11.439738  4361 net.cpp:163] Setting up inception_2b/double_3x3_1
I0418 05:56:11.484315  4361 net.cpp:170] Top shape: 10 128 36 14 (645120)
I0418 05:56:11.484325  4361 layer_factory.hpp:74] Creating layer inception_2b/double_3x3_1_bn
I0418 05:56:11.484328  4361 layer_factory.cpp:191] Layer inception_2b/double_3x3_1_bn is using CAFFE engine.
I0418 05:56:11.484333  4361 net.cpp:133] Creating Layer inception_2b/double_3x3_1_bn
I0418 05:56:11.484334  4361 net.cpp:453] inception_2b/double_3x3_1_bn <- inception_2b/double_3x3_1
I0418 05:56:11.484338  4361 net.cpp:411] inception_2b/double_3x3_1_bn -> inception_2b/double_3x3_1_bn
I0418 05:56:11.484343  4361 net.cpp:163] Setting up inception_2b/double_3x3_1_bn
I0418 05:56:11.484355  4361 net.cpp:170] Top shape: 10 128 36 14 (645120)
I0418 05:56:11.484364  4361 layer_factory.hpp:74] Creating layer inception_2b/relu_double_3x3_1
I0418 05:56:11.484367  4361 net.cpp:133] Creating Layer inception_2b/relu_double_3x3_1
I0418 05:56:11.484369  4361 net.cpp:453] inception_2b/relu_double_3x3_1 <- inception_2b/double_3x3_1_bn
I0418 05:56:11.484372  4361 net.cpp:400] inception_2b/relu_double_3x3_1 -> inception_2b/double_3x3_1_bn (in-place)
I0418 05:56:11.484375  4361 net.cpp:163] Setting up inception_2b/relu_double_3x3_1
I0418 05:56:11.484567  4361 net.cpp:170] Top shape: 10 128 36 14 (645120)
I0418 05:56:11.484573  4361 layer_factory.hpp:74] Creating layer inception_2b/double_3x3_2
I0418 05:56:11.484578  4361 net.cpp:133] Creating Layer inception_2b/double_3x3_2
I0418 05:56:11.484580  4361 net.cpp:453] inception_2b/double_3x3_2 <- inception_2b/double_3x3_1_bn
I0418 05:56:11.484585  4361 net.cpp:411] inception_2b/double_3x3_2 -> inception_2b/double_3x3_2
I0418 05:56:11.484588  4361 net.cpp:163] Setting up inception_2b/double_3x3_2
I0418 05:56:11.491699  4361 net.cpp:170] Top shape: 10 128 18 7 (161280)
I0418 05:56:11.491708  4361 layer_factory.hpp:74] Creating layer inception_2b/double_3x3_2_bn
I0418 05:56:11.491711  4361 layer_factory.cpp:191] Layer inception_2b/double_3x3_2_bn is using CAFFE engine.
I0418 05:56:11.491715  4361 net.cpp:133] Creating Layer inception_2b/double_3x3_2_bn
I0418 05:56:11.491717  4361 net.cpp:453] inception_2b/double_3x3_2_bn <- inception_2b/double_3x3_2
I0418 05:56:11.491720  4361 net.cpp:411] inception_2b/double_3x3_2_bn -> inception_2b/double_3x3_2_bn
I0418 05:56:11.491725  4361 net.cpp:163] Setting up inception_2b/double_3x3_2_bn
I0418 05:56:11.491734  4361 net.cpp:170] Top shape: 10 128 18 7 (161280)
I0418 05:56:11.491737  4361 layer_factory.hpp:74] Creating layer inception_2b/relu_double_3x3_2
I0418 05:56:11.491740  4361 net.cpp:133] Creating Layer inception_2b/relu_double_3x3_2
I0418 05:56:11.491742  4361 net.cpp:453] inception_2b/relu_double_3x3_2 <- inception_2b/double_3x3_2_bn
I0418 05:56:11.491744  4361 net.cpp:400] inception_2b/relu_double_3x3_2 -> inception_2b/double_3x3_2_bn (in-place)
I0418 05:56:11.491749  4361 net.cpp:163] Setting up inception_2b/relu_double_3x3_2
I0418 05:56:11.491861  4361 net.cpp:170] Top shape: 10 128 18 7 (161280)
I0418 05:56:11.491865  4361 layer_factory.hpp:74] Creating layer inception_2b/pool
I0418 05:56:11.491869  4361 net.cpp:133] Creating Layer inception_2b/pool
I0418 05:56:11.491871  4361 net.cpp:453] inception_2b/pool <- inception_2a/output_inception_2a/output_0_split_2
I0418 05:56:11.491875  4361 net.cpp:411] inception_2b/pool -> inception_2b/pool
I0418 05:56:11.491878  4361 net.cpp:163] Setting up inception_2b/pool
I0418 05:56:11.492065  4361 net.cpp:170] Top shape: 10 512 18 7 (645120)
I0418 05:56:11.492071  4361 layer_factory.hpp:74] Creating layer inception_2b/output
I0418 05:56:11.492075  4361 net.cpp:133] Creating Layer inception_2b/output
I0418 05:56:11.492077  4361 net.cpp:453] inception_2b/output <- inception_2b/3x3_bn
I0418 05:56:11.492080  4361 net.cpp:453] inception_2b/output <- inception_2b/double_3x3_2_bn
I0418 05:56:11.492082  4361 net.cpp:453] inception_2b/output <- inception_2b/pool
I0418 05:56:11.492085  4361 net.cpp:411] inception_2b/output -> inception_2b/output
I0418 05:56:11.492089  4361 net.cpp:163] Setting up inception_2b/output
I0418 05:56:11.492094  4361 net.cpp:170] Top shape: 10 768 18 7 (967680)
I0418 05:56:11.492094  4361 layer_factory.hpp:74] Creating layer inception_2b/output_inception_2b/output_0_split
I0418 05:56:11.492097  4361 net.cpp:133] Creating Layer inception_2b/output_inception_2b/output_0_split
I0418 05:56:11.492100  4361 net.cpp:453] inception_2b/output_inception_2b/output_0_split <- inception_2b/output
I0418 05:56:11.492102  4361 net.cpp:411] inception_2b/output_inception_2b/output_0_split -> inception_2b/output_inception_2b/output_0_split_0
I0418 05:56:11.492106  4361 net.cpp:411] inception_2b/output_inception_2b/output_0_split -> inception_2b/output_inception_2b/output_0_split_1
I0418 05:56:11.492110  4361 net.cpp:411] inception_2b/output_inception_2b/output_0_split -> inception_2b/output_inception_2b/output_0_split_2
I0418 05:56:11.492112  4361 net.cpp:411] inception_2b/output_inception_2b/output_0_split -> inception_2b/output_inception_2b/output_0_split_3
I0418 05:56:11.492115  4361 net.cpp:163] Setting up inception_2b/output_inception_2b/output_0_split
I0418 05:56:11.492118  4361 net.cpp:170] Top shape: 10 768 18 7 (967680)
I0418 05:56:11.492120  4361 net.cpp:170] Top shape: 10 768 18 7 (967680)
I0418 05:56:11.492122  4361 net.cpp:170] Top shape: 10 768 18 7 (967680)
I0418 05:56:11.492125  4361 net.cpp:170] Top shape: 10 768 18 7 (967680)
I0418 05:56:11.492125  4361 layer_factory.hpp:74] Creating layer inception_3a/1x1
I0418 05:56:11.492130  4361 net.cpp:133] Creating Layer inception_3a/1x1
I0418 05:56:11.492131  4361 net.cpp:453] inception_3a/1x1 <- inception_2b/output_inception_2b/output_0_split_0
I0418 05:56:11.492135  4361 net.cpp:411] inception_3a/1x1 -> inception_3a/1x1
I0418 05:56:11.492137  4361 net.cpp:163] Setting up inception_3a/1x1
I0418 05:56:11.604367  4361 net.cpp:170] Top shape: 10 256 18 7 (322560)
I0418 05:56:11.604377  4361 layer_factory.hpp:74] Creating layer inception_3a/1x1_bn
I0418 05:56:11.604380  4361 layer_factory.cpp:191] Layer inception_3a/1x1_bn is using CAFFE engine.
I0418 05:56:11.604384  4361 net.cpp:133] Creating Layer inception_3a/1x1_bn
I0418 05:56:11.604387  4361 net.cpp:453] inception_3a/1x1_bn <- inception_3a/1x1
I0418 05:56:11.604390  4361 net.cpp:411] inception_3a/1x1_bn -> inception_3a/1x1_bn
I0418 05:56:11.604394  4361 net.cpp:163] Setting up inception_3a/1x1_bn
I0418 05:56:11.604403  4361 net.cpp:170] Top shape: 10 256 18 7 (322560)
I0418 05:56:11.604408  4361 layer_factory.hpp:74] Creating layer inception_3a/relu_1x1
I0418 05:56:11.604411  4361 net.cpp:133] Creating Layer inception_3a/relu_1x1
I0418 05:56:11.604413  4361 net.cpp:453] inception_3a/relu_1x1 <- inception_3a/1x1_bn
I0418 05:56:11.604416  4361 net.cpp:400] inception_3a/relu_1x1 -> inception_3a/1x1_bn (in-place)
I0418 05:56:11.604419  4361 net.cpp:163] Setting up inception_3a/relu_1x1
I0418 05:56:11.604534  4361 net.cpp:170] Top shape: 10 256 18 7 (322560)
I0418 05:56:11.604538  4361 layer_factory.hpp:74] Creating layer inception_3a/3x3_reduce
I0418 05:56:11.604543  4361 net.cpp:133] Creating Layer inception_3a/3x3_reduce
I0418 05:56:11.604545  4361 net.cpp:453] inception_3a/3x3_reduce <- inception_2b/output_inception_2b/output_0_split_1
I0418 05:56:11.604550  4361 net.cpp:411] inception_3a/3x3_reduce -> inception_3a/3x3_reduce
I0418 05:56:11.604554  4361 net.cpp:163] Setting up inception_3a/3x3_reduce
I0418 05:56:11.717108  4361 net.cpp:170] Top shape: 10 256 18 7 (322560)
I0418 05:56:11.717118  4361 layer_factory.hpp:74] Creating layer inception_3a/3x3_reduce_bn
I0418 05:56:11.717121  4361 layer_factory.cpp:191] Layer inception_3a/3x3_reduce_bn is using CAFFE engine.
I0418 05:56:11.717125  4361 net.cpp:133] Creating Layer inception_3a/3x3_reduce_bn
I0418 05:56:11.717128  4361 net.cpp:453] inception_3a/3x3_reduce_bn <- inception_3a/3x3_reduce
I0418 05:56:11.717131  4361 net.cpp:411] inception_3a/3x3_reduce_bn -> inception_3a/3x3_reduce_bn
I0418 05:56:11.717136  4361 net.cpp:163] Setting up inception_3a/3x3_reduce_bn
I0418 05:56:11.717147  4361 net.cpp:170] Top shape: 10 256 18 7 (322560)
I0418 05:56:11.717155  4361 layer_factory.hpp:74] Creating layer inception_3a/relu_3x3_reduce
I0418 05:56:11.717159  4361 net.cpp:133] Creating Layer inception_3a/relu_3x3_reduce
I0418 05:56:11.717162  4361 net.cpp:453] inception_3a/relu_3x3_reduce <- inception_3a/3x3_reduce_bn
I0418 05:56:11.717166  4361 net.cpp:400] inception_3a/relu_3x3_reduce -> inception_3a/3x3_reduce_bn (in-place)
I0418 05:56:11.717170  4361 net.cpp:163] Setting up inception_3a/relu_3x3_reduce
I0418 05:56:11.717375  4361 net.cpp:170] Top shape: 10 256 18 7 (322560)
I0418 05:56:11.717382  4361 layer_factory.hpp:74] Creating layer inception_3a/3x3
I0418 05:56:11.717387  4361 net.cpp:133] Creating Layer inception_3a/3x3
I0418 05:56:11.717389  4361 net.cpp:453] inception_3a/3x3 <- inception_3a/3x3_reduce_bn
I0418 05:56:11.717393  4361 net.cpp:411] inception_3a/3x3 -> inception_3a/3x3
I0418 05:56:11.717397  4361 net.cpp:163] Setting up inception_3a/3x3
I0418 05:56:11.767513  4361 net.cpp:170] Top shape: 10 256 18 7 (322560)
I0418 05:56:11.767523  4361 layer_factory.hpp:74] Creating layer inception_3a/3x3_bn
I0418 05:56:11.767525  4361 layer_factory.cpp:191] Layer inception_3a/3x3_bn is using CAFFE engine.
I0418 05:56:11.767529  4361 net.cpp:133] Creating Layer inception_3a/3x3_bn
I0418 05:56:11.767532  4361 net.cpp:453] inception_3a/3x3_bn <- inception_3a/3x3
I0418 05:56:11.767535  4361 net.cpp:411] inception_3a/3x3_bn -> inception_3a/3x3_bn
I0418 05:56:11.767540  4361 net.cpp:163] Setting up inception_3a/3x3_bn
I0418 05:56:11.767551  4361 net.cpp:170] Top shape: 10 256 18 7 (322560)
I0418 05:56:11.767556  4361 layer_factory.hpp:74] Creating layer inception_3a/relu_3x3
I0418 05:56:11.767560  4361 net.cpp:133] Creating Layer inception_3a/relu_3x3
I0418 05:56:11.767561  4361 net.cpp:453] inception_3a/relu_3x3 <- inception_3a/3x3_bn
I0418 05:56:11.767565  4361 net.cpp:400] inception_3a/relu_3x3 -> inception_3a/3x3_bn (in-place)
I0418 05:56:11.767567  4361 net.cpp:163] Setting up inception_3a/relu_3x3
I0418 05:56:11.767762  4361 net.cpp:170] Top shape: 10 256 18 7 (322560)
I0418 05:56:11.767768  4361 layer_factory.hpp:74] Creating layer inception_3a/double_3x3_reduce
I0418 05:56:11.767773  4361 net.cpp:133] Creating Layer inception_3a/double_3x3_reduce
I0418 05:56:11.767776  4361 net.cpp:453] inception_3a/double_3x3_reduce <- inception_2b/output_inception_2b/output_0_split_2
I0418 05:56:11.767779  4361 net.cpp:411] inception_3a/double_3x3_reduce -> inception_3a/double_3x3_reduce
I0418 05:56:11.767783  4361 net.cpp:163] Setting up inception_3a/double_3x3_reduce
I0418 05:56:11.880587  4361 net.cpp:170] Top shape: 10 256 18 7 (322560)
I0418 05:56:11.880597  4361 layer_factory.hpp:74] Creating layer inception_3a/double_3x3_reduce_bn
I0418 05:56:11.880599  4361 layer_factory.cpp:191] Layer inception_3a/double_3x3_reduce_bn is using CAFFE engine.
I0418 05:56:11.880604  4361 net.cpp:133] Creating Layer inception_3a/double_3x3_reduce_bn
I0418 05:56:11.880606  4361 net.cpp:453] inception_3a/double_3x3_reduce_bn <- inception_3a/double_3x3_reduce
I0418 05:56:11.880610  4361 net.cpp:411] inception_3a/double_3x3_reduce_bn -> inception_3a/double_3x3_reduce_bn
I0418 05:56:11.880614  4361 net.cpp:163] Setting up inception_3a/double_3x3_reduce_bn
I0418 05:56:11.880625  4361 net.cpp:170] Top shape: 10 256 18 7 (322560)
I0418 05:56:11.880630  4361 layer_factory.hpp:74] Creating layer inception_3a/relu_double_3x3_reduce
I0418 05:56:11.880632  4361 net.cpp:133] Creating Layer inception_3a/relu_double_3x3_reduce
I0418 05:56:11.880635  4361 net.cpp:453] inception_3a/relu_double_3x3_reduce <- inception_3a/double_3x3_reduce_bn
I0418 05:56:11.880636  4361 net.cpp:400] inception_3a/relu_double_3x3_reduce -> inception_3a/double_3x3_reduce_bn (in-place)
I0418 05:56:11.880640  4361 net.cpp:163] Setting up inception_3a/relu_double_3x3_reduce
I0418 05:56:11.880755  4361 net.cpp:170] Top shape: 10 256 18 7 (322560)
I0418 05:56:11.880760  4361 layer_factory.hpp:74] Creating layer inception_3a/double_3x3_1
I0418 05:56:11.880765  4361 net.cpp:133] Creating Layer inception_3a/double_3x3_1
I0418 05:56:11.880767  4361 net.cpp:453] inception_3a/double_3x3_1 <- inception_3a/double_3x3_reduce_bn
I0418 05:56:11.880771  4361 net.cpp:411] inception_3a/double_3x3_1 -> inception_3a/double_3x3_1
I0418 05:56:11.880774  4361 net.cpp:163] Setting up inception_3a/double_3x3_1
I0418 05:56:11.931236  4361 net.cpp:170] Top shape: 10 256 18 7 (322560)
I0418 05:56:11.931246  4361 layer_factory.hpp:74] Creating layer inception_3a/double_3x3_1_bn
I0418 05:56:11.931248  4361 layer_factory.cpp:191] Layer inception_3a/double_3x3_1_bn is using CAFFE engine.
I0418 05:56:11.931252  4361 net.cpp:133] Creating Layer inception_3a/double_3x3_1_bn
I0418 05:56:11.931255  4361 net.cpp:453] inception_3a/double_3x3_1_bn <- inception_3a/double_3x3_1
I0418 05:56:11.931259  4361 net.cpp:411] inception_3a/double_3x3_1_bn -> inception_3a/double_3x3_1_bn
I0418 05:56:11.931263  4361 net.cpp:163] Setting up inception_3a/double_3x3_1_bn
I0418 05:56:11.931273  4361 net.cpp:170] Top shape: 10 256 18 7 (322560)
I0418 05:56:11.931278  4361 layer_factory.hpp:74] Creating layer inception_3a/relu_double_3x3_1
I0418 05:56:11.931282  4361 net.cpp:133] Creating Layer inception_3a/relu_double_3x3_1
I0418 05:56:11.931283  4361 net.cpp:453] inception_3a/relu_double_3x3_1 <- inception_3a/double_3x3_1_bn
I0418 05:56:11.931285  4361 net.cpp:400] inception_3a/relu_double_3x3_1 -> inception_3a/double_3x3_1_bn (in-place)
I0418 05:56:11.931288  4361 net.cpp:163] Setting up inception_3a/relu_double_3x3_1
I0418 05:56:11.931495  4361 net.cpp:170] Top shape: 10 256 18 7 (322560)
I0418 05:56:11.931501  4361 layer_factory.hpp:74] Creating layer inception_3a/double_3x3_2
I0418 05:56:11.931507  4361 net.cpp:133] Creating Layer inception_3a/double_3x3_2
I0418 05:56:11.931509  4361 net.cpp:453] inception_3a/double_3x3_2 <- inception_3a/double_3x3_1_bn
I0418 05:56:11.931514  4361 net.cpp:411] inception_3a/double_3x3_2 -> inception_3a/double_3x3_2
I0418 05:56:11.931517  4361 net.cpp:163] Setting up inception_3a/double_3x3_2
I0418 05:56:11.981459  4361 net.cpp:170] Top shape: 10 256 18 7 (322560)
I0418 05:56:11.981469  4361 layer_factory.hpp:74] Creating layer inception_3a/double_3x3_2_bn
I0418 05:56:11.981472  4361 layer_factory.cpp:191] Layer inception_3a/double_3x3_2_bn is using CAFFE engine.
I0418 05:56:11.981477  4361 net.cpp:133] Creating Layer inception_3a/double_3x3_2_bn
I0418 05:56:11.981478  4361 net.cpp:453] inception_3a/double_3x3_2_bn <- inception_3a/double_3x3_2
I0418 05:56:11.981482  4361 net.cpp:411] inception_3a/double_3x3_2_bn -> inception_3a/double_3x3_2_bn
I0418 05:56:11.981487  4361 net.cpp:163] Setting up inception_3a/double_3x3_2_bn
I0418 05:56:11.981498  4361 net.cpp:170] Top shape: 10 256 18 7 (322560)
I0418 05:56:11.981503  4361 layer_factory.hpp:74] Creating layer inception_3a/relu_double_3x3_2
I0418 05:56:11.981508  4361 net.cpp:133] Creating Layer inception_3a/relu_double_3x3_2
I0418 05:56:11.981509  4361 net.cpp:453] inception_3a/relu_double_3x3_2 <- inception_3a/double_3x3_2_bn
I0418 05:56:11.981513  4361 net.cpp:400] inception_3a/relu_double_3x3_2 -> inception_3a/double_3x3_2_bn (in-place)
I0418 05:56:11.981514  4361 net.cpp:163] Setting up inception_3a/relu_double_3x3_2
I0418 05:56:11.981724  4361 net.cpp:170] Top shape: 10 256 18 7 (322560)
I0418 05:56:11.981731  4361 layer_factory.hpp:74] Creating layer inception_3a/pool
I0418 05:56:11.981734  4361 layer_factory.cpp:64] CUDNN does not support padding or multiple tops. Using Caffe's own pooling layer.
I0418 05:56:11.981736  4361 net.cpp:133] Creating Layer inception_3a/pool
I0418 05:56:11.981739  4361 net.cpp:453] inception_3a/pool <- inception_2b/output_inception_2b/output_0_split_3
I0418 05:56:11.981744  4361 net.cpp:411] inception_3a/pool -> inception_3a/pool
I0418 05:56:11.981746  4361 net.cpp:163] Setting up inception_3a/pool
I0418 05:56:11.981750  4361 net.cpp:170] Top shape: 10 768 18 7 (967680)
I0418 05:56:11.981752  4361 layer_factory.hpp:74] Creating layer inception_3a/pool_proj
I0418 05:56:11.981756  4361 net.cpp:133] Creating Layer inception_3a/pool_proj
I0418 05:56:11.981758  4361 net.cpp:453] inception_3a/pool_proj <- inception_3a/pool
I0418 05:56:11.981761  4361 net.cpp:411] inception_3a/pool_proj -> inception_3a/pool_proj
I0418 05:56:11.981765  4361 net.cpp:163] Setting up inception_3a/pool_proj
I0418 05:56:12.094812  4361 net.cpp:170] Top shape: 10 256 18 7 (322560)
I0418 05:56:12.094822  4361 layer_factory.hpp:74] Creating layer inception_3a/pool_proj_bn
I0418 05:56:12.094825  4361 layer_factory.cpp:191] Layer inception_3a/pool_proj_bn is using CAFFE engine.
I0418 05:56:12.094830  4361 net.cpp:133] Creating Layer inception_3a/pool_proj_bn
I0418 05:56:12.094832  4361 net.cpp:453] inception_3a/pool_proj_bn <- inception_3a/pool_proj
I0418 05:56:12.094835  4361 net.cpp:411] inception_3a/pool_proj_bn -> inception_3a/pool_proj_bn
I0418 05:56:12.094841  4361 net.cpp:163] Setting up inception_3a/pool_proj_bn
I0418 05:56:12.094851  4361 net.cpp:170] Top shape: 10 256 18 7 (322560)
I0418 05:56:12.094856  4361 layer_factory.hpp:74] Creating layer inception_3a/relu_pool_proj
I0418 05:56:12.094859  4361 net.cpp:133] Creating Layer inception_3a/relu_pool_proj
I0418 05:56:12.094861  4361 net.cpp:453] inception_3a/relu_pool_proj <- inception_3a/pool_proj_bn
I0418 05:56:12.094863  4361 net.cpp:400] inception_3a/relu_pool_proj -> inception_3a/pool_proj_bn (in-place)
I0418 05:56:12.094866  4361 net.cpp:163] Setting up inception_3a/relu_pool_proj
I0418 05:56:12.094981  4361 net.cpp:170] Top shape: 10 256 18 7 (322560)
I0418 05:56:12.094985  4361 layer_factory.hpp:74] Creating layer inception_3a/output
I0418 05:56:12.094990  4361 net.cpp:133] Creating Layer inception_3a/output
I0418 05:56:12.094992  4361 net.cpp:453] inception_3a/output <- inception_3a/1x1_bn
I0418 05:56:12.094995  4361 net.cpp:453] inception_3a/output <- inception_3a/3x3_bn
I0418 05:56:12.094996  4361 net.cpp:453] inception_3a/output <- inception_3a/double_3x3_2_bn
I0418 05:56:12.094998  4361 net.cpp:453] inception_3a/output <- inception_3a/pool_proj_bn
I0418 05:56:12.095001  4361 net.cpp:411] inception_3a/output -> inception_3a/output
I0418 05:56:12.095005  4361 net.cpp:163] Setting up inception_3a/output
I0418 05:56:12.095010  4361 net.cpp:170] Top shape: 10 1024 18 7 (1290240)
I0418 05:56:12.095011  4361 layer_factory.hpp:74] Creating layer inception_3a/output_inception_3a/output_0_split
I0418 05:56:12.095015  4361 net.cpp:133] Creating Layer inception_3a/output_inception_3a/output_0_split
I0418 05:56:12.095016  4361 net.cpp:453] inception_3a/output_inception_3a/output_0_split <- inception_3a/output
I0418 05:56:12.095018  4361 net.cpp:411] inception_3a/output_inception_3a/output_0_split -> inception_3a/output_inception_3a/output_0_split_0
I0418 05:56:12.095021  4361 net.cpp:411] inception_3a/output_inception_3a/output_0_split -> inception_3a/output_inception_3a/output_0_split_1
I0418 05:56:12.095026  4361 net.cpp:411] inception_3a/output_inception_3a/output_0_split -> inception_3a/output_inception_3a/output_0_split_2
I0418 05:56:12.095028  4361 net.cpp:163] Setting up inception_3a/output_inception_3a/output_0_split
I0418 05:56:12.095031  4361 net.cpp:170] Top shape: 10 1024 18 7 (1290240)
I0418 05:56:12.095032  4361 net.cpp:170] Top shape: 10 1024 18 7 (1290240)
I0418 05:56:12.095034  4361 net.cpp:170] Top shape: 10 1024 18 7 (1290240)
I0418 05:56:12.095036  4361 layer_factory.hpp:74] Creating layer inception_3b/3x3_reduce
I0418 05:56:12.095041  4361 net.cpp:133] Creating Layer inception_3b/3x3_reduce
I0418 05:56:12.095042  4361 net.cpp:453] inception_3b/3x3_reduce <- inception_3a/output_inception_3a/output_0_split_0
I0418 05:56:12.095046  4361 net.cpp:411] inception_3b/3x3_reduce -> inception_3b/3x3_reduce
I0418 05:56:12.095049  4361 net.cpp:163] Setting up inception_3b/3x3_reduce
I0418 05:56:12.245663  4361 net.cpp:170] Top shape: 10 256 18 7 (322560)
I0418 05:56:12.245673  4361 layer_factory.hpp:74] Creating layer inception_3b/3x3_reduce_bn
I0418 05:56:12.245676  4361 layer_factory.cpp:191] Layer inception_3b/3x3_reduce_bn is using CAFFE engine.
I0418 05:56:12.245681  4361 net.cpp:133] Creating Layer inception_3b/3x3_reduce_bn
I0418 05:56:12.245682  4361 net.cpp:453] inception_3b/3x3_reduce_bn <- inception_3b/3x3_reduce
I0418 05:56:12.245687  4361 net.cpp:411] inception_3b/3x3_reduce_bn -> inception_3b/3x3_reduce_bn
I0418 05:56:12.245690  4361 net.cpp:163] Setting up inception_3b/3x3_reduce_bn
I0418 05:56:12.245702  4361 net.cpp:170] Top shape: 10 256 18 7 (322560)
I0418 05:56:12.245707  4361 layer_factory.hpp:74] Creating layer inception_3b/relu_3x3_reduce
I0418 05:56:12.245709  4361 net.cpp:133] Creating Layer inception_3b/relu_3x3_reduce
I0418 05:56:12.245712  4361 net.cpp:453] inception_3b/relu_3x3_reduce <- inception_3b/3x3_reduce_bn
I0418 05:56:12.245714  4361 net.cpp:400] inception_3b/relu_3x3_reduce -> inception_3b/3x3_reduce_bn (in-place)
I0418 05:56:12.245718  4361 net.cpp:163] Setting up inception_3b/relu_3x3_reduce
I0418 05:56:12.245918  4361 net.cpp:170] Top shape: 10 256 18 7 (322560)
I0418 05:56:12.245925  4361 layer_factory.hpp:74] Creating layer inception_3b/3x3
I0418 05:56:12.245930  4361 net.cpp:133] Creating Layer inception_3b/3x3
I0418 05:56:12.245932  4361 net.cpp:453] inception_3b/3x3 <- inception_3b/3x3_reduce_bn
I0418 05:56:12.245935  4361 net.cpp:411] inception_3b/3x3 -> inception_3b/3x3
I0418 05:56:12.245940  4361 net.cpp:163] Setting up inception_3b/3x3
I0418 05:56:12.257153  4361 net.cpp:170] Top shape: 10 256 9 4 (92160)
I0418 05:56:12.257163  4361 layer_factory.hpp:74] Creating layer inception_3b/3x3_bn
I0418 05:56:12.257164  4361 layer_factory.cpp:191] Layer inception_3b/3x3_bn is using CAFFE engine.
I0418 05:56:12.257169  4361 net.cpp:133] Creating Layer inception_3b/3x3_bn
I0418 05:56:12.257171  4361 net.cpp:453] inception_3b/3x3_bn <- inception_3b/3x3
I0418 05:56:12.257175  4361 net.cpp:411] inception_3b/3x3_bn -> inception_3b/3x3_bn
I0418 05:56:12.257179  4361 net.cpp:163] Setting up inception_3b/3x3_bn
I0418 05:56:12.257189  4361 net.cpp:170] Top shape: 10 256 9 4 (92160)
I0418 05:56:12.257194  4361 layer_factory.hpp:74] Creating layer inception_3b/relu_3x3
I0418 05:56:12.257200  4361 net.cpp:133] Creating Layer inception_3b/relu_3x3
I0418 05:56:12.257201  4361 net.cpp:453] inception_3b/relu_3x3 <- inception_3b/3x3_bn
I0418 05:56:12.257203  4361 net.cpp:400] inception_3b/relu_3x3 -> inception_3b/3x3_bn (in-place)
I0418 05:56:12.257206  4361 net.cpp:163] Setting up inception_3b/relu_3x3
I0418 05:56:12.257402  4361 net.cpp:170] Top shape: 10 256 9 4 (92160)
I0418 05:56:12.257408  4361 layer_factory.hpp:74] Creating layer inception_3b/double_3x3_reduce
I0418 05:56:12.257432  4361 net.cpp:133] Creating Layer inception_3b/double_3x3_reduce
I0418 05:56:12.257436  4361 net.cpp:453] inception_3b/double_3x3_reduce <- inception_3a/output_inception_3a/output_0_split_1
I0418 05:56:12.257441  4361 net.cpp:411] inception_3b/double_3x3_reduce -> inception_3b/double_3x3_reduce
I0418 05:56:12.257444  4361 net.cpp:163] Setting up inception_3b/double_3x3_reduce
I0418 05:56:12.408710  4361 net.cpp:170] Top shape: 10 256 18 7 (322560)
I0418 05:56:12.408721  4361 layer_factory.hpp:74] Creating layer inception_3b/double_3x3_reduce_bn
I0418 05:56:12.408723  4361 layer_factory.cpp:191] Layer inception_3b/double_3x3_reduce_bn is using CAFFE engine.
I0418 05:56:12.408727  4361 net.cpp:133] Creating Layer inception_3b/double_3x3_reduce_bn
I0418 05:56:12.408730  4361 net.cpp:453] inception_3b/double_3x3_reduce_bn <- inception_3b/double_3x3_reduce
I0418 05:56:12.408735  4361 net.cpp:411] inception_3b/double_3x3_reduce_bn -> inception_3b/double_3x3_reduce_bn
I0418 05:56:12.408738  4361 net.cpp:163] Setting up inception_3b/double_3x3_reduce_bn
I0418 05:56:12.408748  4361 net.cpp:170] Top shape: 10 256 18 7 (322560)
I0418 05:56:12.408753  4361 layer_factory.hpp:74] Creating layer inception_3b/relu_double_3x3_reduce
I0418 05:56:12.408756  4361 net.cpp:133] Creating Layer inception_3b/relu_double_3x3_reduce
I0418 05:56:12.408758  4361 net.cpp:453] inception_3b/relu_double_3x3_reduce <- inception_3b/double_3x3_reduce_bn
I0418 05:56:12.408761  4361 net.cpp:400] inception_3b/relu_double_3x3_reduce -> inception_3b/double_3x3_reduce_bn (in-place)
I0418 05:56:12.408763  4361 net.cpp:163] Setting up inception_3b/relu_double_3x3_reduce
I0418 05:56:12.408879  4361 net.cpp:170] Top shape: 10 256 18 7 (322560)
I0418 05:56:12.408885  4361 layer_factory.hpp:74] Creating layer inception_3b/double_3x3_1
I0418 05:56:12.408890  4361 net.cpp:133] Creating Layer inception_3b/double_3x3_1
I0418 05:56:12.408892  4361 net.cpp:453] inception_3b/double_3x3_1 <- inception_3b/double_3x3_reduce_bn
I0418 05:56:12.408896  4361 net.cpp:411] inception_3b/double_3x3_1 -> inception_3b/double_3x3_1
I0418 05:56:12.408900  4361 net.cpp:163] Setting up inception_3b/double_3x3_1
I0418 05:56:12.459236  4361 net.cpp:170] Top shape: 10 256 18 7 (322560)
I0418 05:56:12.459249  4361 layer_factory.hpp:74] Creating layer inception_3b/double_3x3_1_bn
I0418 05:56:12.459250  4361 layer_factory.cpp:191] Layer inception_3b/double_3x3_1_bn is using CAFFE engine.
I0418 05:56:12.459255  4361 net.cpp:133] Creating Layer inception_3b/double_3x3_1_bn
I0418 05:56:12.459257  4361 net.cpp:453] inception_3b/double_3x3_1_bn <- inception_3b/double_3x3_1
I0418 05:56:12.459261  4361 net.cpp:411] inception_3b/double_3x3_1_bn -> inception_3b/double_3x3_1_bn
I0418 05:56:12.459266  4361 net.cpp:163] Setting up inception_3b/double_3x3_1_bn
I0418 05:56:12.459276  4361 net.cpp:170] Top shape: 10 256 18 7 (322560)
I0418 05:56:12.459282  4361 layer_factory.hpp:74] Creating layer inception_3b/relu_double_3x3_1
I0418 05:56:12.459285  4361 net.cpp:133] Creating Layer inception_3b/relu_double_3x3_1
I0418 05:56:12.459287  4361 net.cpp:453] inception_3b/relu_double_3x3_1 <- inception_3b/double_3x3_1_bn
I0418 05:56:12.459290  4361 net.cpp:400] inception_3b/relu_double_3x3_1 -> inception_3b/double_3x3_1_bn (in-place)
I0418 05:56:12.459293  4361 net.cpp:163] Setting up inception_3b/relu_double_3x3_1
I0418 05:56:12.459491  4361 net.cpp:170] Top shape: 10 256 18 7 (322560)
I0418 05:56:12.459498  4361 layer_factory.hpp:74] Creating layer inception_3b/double_3x3_2
I0418 05:56:12.459506  4361 net.cpp:133] Creating Layer inception_3b/double_3x3_2
I0418 05:56:12.459509  4361 net.cpp:453] inception_3b/double_3x3_2 <- inception_3b/double_3x3_1_bn
I0418 05:56:12.459513  4361 net.cpp:411] inception_3b/double_3x3_2 -> inception_3b/double_3x3_2
I0418 05:56:12.459518  4361 net.cpp:163] Setting up inception_3b/double_3x3_2
I0418 05:56:12.470577  4361 net.cpp:170] Top shape: 10 256 9 4 (92160)
I0418 05:56:12.470590  4361 layer_factory.hpp:74] Creating layer inception_3b/double_3x3_2_bn
I0418 05:56:12.470593  4361 layer_factory.cpp:191] Layer inception_3b/double_3x3_2_bn is using CAFFE engine.
I0418 05:56:12.470598  4361 net.cpp:133] Creating Layer inception_3b/double_3x3_2_bn
I0418 05:56:12.470602  4361 net.cpp:453] inception_3b/double_3x3_2_bn <- inception_3b/double_3x3_2
I0418 05:56:12.470607  4361 net.cpp:411] inception_3b/double_3x3_2_bn -> inception_3b/double_3x3_2_bn
I0418 05:56:12.470612  4361 net.cpp:163] Setting up inception_3b/double_3x3_2_bn
I0418 05:56:12.470623  4361 net.cpp:170] Top shape: 10 256 9 4 (92160)
I0418 05:56:12.470626  4361 layer_factory.hpp:74] Creating layer inception_3b/relu_double_3x3_2
I0418 05:56:12.470629  4361 net.cpp:133] Creating Layer inception_3b/relu_double_3x3_2
I0418 05:56:12.470631  4361 net.cpp:453] inception_3b/relu_double_3x3_2 <- inception_3b/double_3x3_2_bn
I0418 05:56:12.470634  4361 net.cpp:400] inception_3b/relu_double_3x3_2 -> inception_3b/double_3x3_2_bn (in-place)
I0418 05:56:12.470638  4361 net.cpp:163] Setting up inception_3b/relu_double_3x3_2
I0418 05:56:12.470844  4361 net.cpp:170] Top shape: 10 256 9 4 (92160)
I0418 05:56:12.470850  4361 layer_factory.hpp:74] Creating layer inception_3b/pool
I0418 05:56:12.470852  4361 layer_factory.cpp:64] CUDNN does not support padding or multiple tops. Using Caffe's own pooling layer.
I0418 05:56:12.470855  4361 net.cpp:133] Creating Layer inception_3b/pool
I0418 05:56:12.470857  4361 net.cpp:453] inception_3b/pool <- inception_3a/output_inception_3a/output_0_split_2
I0418 05:56:12.470862  4361 net.cpp:411] inception_3b/pool -> inception_3b/pool
I0418 05:56:12.470865  4361 net.cpp:163] Setting up inception_3b/pool
I0418 05:56:12.470870  4361 net.cpp:170] Top shape: 10 1024 9 4 (368640)
I0418 05:56:12.470871  4361 layer_factory.hpp:74] Creating layer inception_3b/output
I0418 05:56:12.470875  4361 net.cpp:133] Creating Layer inception_3b/output
I0418 05:56:12.470877  4361 net.cpp:453] inception_3b/output <- inception_3b/3x3_bn
I0418 05:56:12.470880  4361 net.cpp:453] inception_3b/output <- inception_3b/double_3x3_2_bn
I0418 05:56:12.470881  4361 net.cpp:453] inception_3b/output <- inception_3b/pool
I0418 05:56:12.470885  4361 net.cpp:411] inception_3b/output -> inception_3b/output
I0418 05:56:12.470887  4361 net.cpp:163] Setting up inception_3b/output
I0418 05:56:12.470890  4361 net.cpp:170] Top shape: 10 1536 9 4 (552960)
I0418 05:56:12.470891  4361 layer_factory.hpp:74] Creating layer global_pool
I0418 05:56:12.470895  4361 net.cpp:133] Creating Layer global_pool
I0418 05:56:12.470896  4361 net.cpp:453] global_pool <- inception_3b/output
I0418 05:56:12.470899  4361 net.cpp:411] global_pool -> global_pool
I0418 05:56:12.470902  4361 net.cpp:163] Setting up global_pool
I0418 05:56:12.471009  4361 net.cpp:170] Top shape: 10 1536 1 1 (15360)
I0418 05:56:12.471014  4361 layer_factory.hpp:74] Creating layer gather_global_pool_to_fc7
I0418 05:56:12.471017  4361 net.cpp:133] Creating Layer gather_global_pool_to_fc7
I0418 05:56:12.471019  4361 net.cpp:453] gather_global_pool_to_fc7 <- global_pool
I0418 05:56:12.471021  4361 net.cpp:411] gather_global_pool_to_fc7 -> gathered_global_pool
I0418 05:56:12.471024  4361 net.cpp:163] Setting up gather_global_pool_to_fc7
I0418 05:56:12.471027  4361 net.cpp:170] Top shape: 20 1536 1 1 (30720)
I0418 05:56:12.471029  4361 layer_factory.hpp:74] Creating layer fc7
I0418 05:56:12.471035  4361 net.cpp:133] Creating Layer fc7
I0418 05:56:12.471035  4361 net.cpp:453] fc7 <- gathered_global_pool
I0418 05:56:12.471038  4361 net.cpp:411] fc7 -> fc7
I0418 05:56:12.471042  4361 net.cpp:163] Setting up fc7
I0418 05:56:12.472570  4361 net.cpp:170] Top shape: 20 256 (5120)
I0418 05:56:12.472576  4361 layer_factory.hpp:74] Creating layer fc7_bn
I0418 05:56:12.472579  4361 layer_factory.cpp:191] Layer fc7_bn is using CAFFE engine.
I0418 05:56:12.472581  4361 net.cpp:133] Creating Layer fc7_bn
I0418 05:56:12.472584  4361 net.cpp:453] fc7_bn <- fc7
I0418 05:56:12.472587  4361 net.cpp:411] fc7_bn -> fc7_bn
I0418 05:56:12.472590  4361 net.cpp:163] Setting up fc7_bn
I0418 05:56:12.472599  4361 net.cpp:170] Top shape: 20 256 (5120)
I0418 05:56:12.472602  4361 layer_factory.hpp:74] Creating layer relu7
I0418 05:56:12.472604  4361 net.cpp:133] Creating Layer relu7
I0418 05:56:12.472607  4361 net.cpp:453] relu7 <- fc7_bn
I0418 05:56:12.472609  4361 net.cpp:400] relu7 -> fc7_bn (in-place)
I0418 05:56:12.472611  4361 net.cpp:163] Setting up relu7
I0418 05:56:12.472802  4361 net.cpp:170] Top shape: 20 256 (5120)
I0418 05:56:12.472807  4361 layer_factory.hpp:74] Creating layer gather_guidance_to_guided_drop7
I0418 05:56:12.472810  4361 net.cpp:133] Creating Layer gather_guidance_to_guided_drop7
I0418 05:56:12.472812  4361 net.cpp:453] gather_guidance_to_guided_drop7 <- guidance
I0418 05:56:12.472816  4361 net.cpp:411] gather_guidance_to_guided_drop7 -> gathered_guidance
I0418 05:56:12.472820  4361 net.cpp:163] Setting up gather_guidance_to_guided_drop7
I0418 05:56:12.472822  4361 net.cpp:170] Top shape: 20 256 1 1 (5120)
I0418 05:56:12.472825  4361 layer_factory.hpp:74] Creating layer guided_drop7
I0418 05:56:12.472827  4361 net.cpp:133] Creating Layer guided_drop7
I0418 05:56:12.472828  4361 net.cpp:453] guided_drop7 <- fc7_bn
I0418 05:56:12.472831  4361 net.cpp:453] guided_drop7 <- gathered_guidance
I0418 05:56:12.472834  4361 net.cpp:400] guided_drop7 -> fc7_bn (in-place)
I0418 05:56:12.472837  4361 net.cpp:163] Setting up guided_drop7
I0418 05:56:12.472841  4361 net.cpp:170] Top shape: 20 256 (5120)
I0418 05:56:12.472841  4361 layer_factory.hpp:74] Creating layer fc8_jstl
I0418 05:56:12.472844  4361 net.cpp:133] Creating Layer fc8_jstl
I0418 05:56:12.472846  4361 net.cpp:453] fc8_jstl <- fc7_bn
I0418 05:56:12.472849  4361 net.cpp:411] fc8_jstl -> fc8_jstl
I0418 05:56:12.472852  4361 net.cpp:163] Setting up fc8_jstl
I0418 05:56:12.477413  4361 net.cpp:170] Top shape: 20 2629 (52580)
I0418 05:56:12.477419  4361 layer_factory.hpp:74] Creating layer fc8_jstl_fc8_jstl_0_split
I0418 05:56:12.477422  4361 net.cpp:133] Creating Layer fc8_jstl_fc8_jstl_0_split
I0418 05:56:12.477424  4361 net.cpp:453] fc8_jstl_fc8_jstl_0_split <- fc8_jstl
I0418 05:56:12.477428  4361 net.cpp:411] fc8_jstl_fc8_jstl_0_split -> fc8_jstl_fc8_jstl_0_split_0
I0418 05:56:12.477432  4361 net.cpp:411] fc8_jstl_fc8_jstl_0_split -> fc8_jstl_fc8_jstl_0_split_1
I0418 05:56:12.477434  4361 net.cpp:163] Setting up fc8_jstl_fc8_jstl_0_split
I0418 05:56:12.477437  4361 net.cpp:170] Top shape: 20 2629 (52580)
I0418 05:56:12.477439  4361 net.cpp:170] Top shape: 20 2629 (52580)
I0418 05:56:12.477440  4361 layer_factory.hpp:74] Creating layer gather_label_data_1_split_to_loss
I0418 05:56:12.477443  4361 net.cpp:133] Creating Layer gather_label_data_1_split_to_loss
I0418 05:56:12.477445  4361 net.cpp:453] gather_label_data_1_split_to_loss <- label_data_1_split_0
I0418 05:56:12.477447  4361 net.cpp:411] gather_label_data_1_split_to_loss -> gathered_label_data_1_split_0
I0418 05:56:12.477450  4361 net.cpp:163] Setting up gather_label_data_1_split_to_loss
I0418 05:56:12.477452  4361 net.cpp:170] Top shape: 20 (20)
I0418 05:56:12.477454  4361 layer_factory.hpp:74] Creating layer loss
I0418 05:56:12.477457  4361 net.cpp:133] Creating Layer loss
I0418 05:56:12.477458  4361 net.cpp:453] loss <- fc8_jstl_fc8_jstl_0_split_0
I0418 05:56:12.477460  4361 net.cpp:453] loss <- gathered_label_data_1_split_0
I0418 05:56:12.477463  4361 net.cpp:411] loss -> loss
I0418 05:56:12.477466  4361 net.cpp:163] Setting up loss
I0418 05:56:12.477469  4361 layer_factory.hpp:74] Creating layer loss
I0418 05:56:12.477634  4361 net.cpp:170] Top shape: (1)
I0418 05:56:12.477638  4361 net.cpp:172]     with loss weight 1
I0418 05:56:12.477643  4361 layer_factory.hpp:74] Creating layer gather_label_data_1_split_to_accuracy
I0418 05:56:12.477648  4361 net.cpp:133] Creating Layer gather_label_data_1_split_to_accuracy
I0418 05:56:12.477649  4361 net.cpp:453] gather_label_data_1_split_to_accuracy <- label_data_1_split_1
I0418 05:56:12.477653  4361 net.cpp:411] gather_label_data_1_split_to_accuracy -> gathered_label_data_1_split_1
I0418 05:56:12.477655  4361 net.cpp:163] Setting up gather_label_data_1_split_to_accuracy
I0418 05:56:12.477658  4361 net.cpp:170] Top shape: 20 (20)
I0418 05:56:12.477660  4361 layer_factory.hpp:74] Creating layer accuracy
I0418 05:56:12.477663  4361 net.cpp:133] Creating Layer accuracy
I0418 05:56:12.477664  4361 net.cpp:453] accuracy <- fc8_jstl_fc8_jstl_0_split_1
I0418 05:56:12.477666  4361 net.cpp:453] accuracy <- gathered_label_data_1_split_1
I0418 05:56:12.477669  4361 net.cpp:411] accuracy -> accuracy
I0418 05:56:12.477689  4361 net.cpp:163] Setting up accuracy
…
