exec 'nq' 'scripts/exp_ft_dgd.sh'

WARNING: Logging before InitGoogleLogging() is written to STDERR
I0418 10:06:26.720571 31154 net.cpp:47] Initializing net from parameters: 
name: "JSTL"
input: "data"
input_dim: 1
input_dim: 3
input_dim: 144
input_dim: 56
state {
  phase: TEST
}
richness: 1000
layer {
  name: "conv1"
  type: "Convolution"
  bottom: "data"
  top: "conv1"
  param {
    lr_mult: 1
    decay_mult: 1
  }
  param {
    lr_mult: 2
    decay_mult: 0
  }
  convolution_param {
    num_output: 32
    pad: 1
    kernel_size: 3
    stride: 1
    weight_filler {
      type: "xavier"
    }
    bias_filler {
      type: "constant"
      value: 0.2
    }
  }
}
layer {
  name: "conv1_bn"
  type: "BN"
  bottom: "conv1"
  top: "conv1_bn"
  param {
    lr_mult: 1
    decay_mult: 0
  }
  param {
    lr_mult: 1
    decay_mult: 0
  }
  bn_param {
    slope_filler {
      type: "constant"
      value: 1
    }
    bias_filler {
      type: "constant"
      value: 0
    }
  }
}
layer {
  name: "relu1"
  type: "ReLU"
  bottom: "conv1_bn"
  top: "conv1_bn"
}
layer {
  name: "conv2"
  type: "Convolution"
  bottom: "conv1_bn"
  top: "conv2"
  param {
    lr_mult: 1
    decay_mult: 1
  }
  param {
    lr_mult: 2
    decay_mult: 0
  }
  convolution_param {
    num_output: 32
    pad: 1
    kernel_size: 3
    stride: 1
    weight_filler {
      type: "xavier"
    }
    bias_filler {
      type: "constant"
      value: 0.2
    }
  }
}
layer {
  name: "conv2_bn"
  type: "BN"
  bottom: "conv2"
  top: "conv2_bn"
  param {
    lr_mult: 1
    decay_mult: 0
  }
  param {
    lr_mult: 1
    decay_mult: 0
  }
  bn_param {
    slope_filler {
      type: "constant"
      value: 1
    }
    bias_filler {
      type: "constant"
      value: 0
    }
  }
}
layer {
  name: "relu2"
  type: "ReLU"
  bottom: "conv2_bn"
  top: "conv2_bn"
}
layer {
  name: "conv3"
  type: "Convolution"
  bottom: "conv2_bn"
  top: "conv3"
  param {
    lr_mult: 1
    decay_mult: 1
  }
  param {
    lr_mult: 2
    decay_mult: 0
  }
  convolution_param {
    num_output: 32
    pad: 1
    kernel_size: 3
    stride: 1
    weight_filler {
      type: "xavier"
    }
    bias_filler {
      type: "constant"
      value: 0.2
    }
  }
}
layer {
  name: "conv3_bn"
  type: "BN"
  bottom: "conv3"
  top: "conv3_bn"
  param {
    lr_mult: 1
    decay_mult: 0
  }
  param {
    lr_mult: 1
    decay_mult: 0
  }
  bn_param {
    slope_filler {
      type: "constant"
      value: 1
    }
    bias_filler {
      type: "constant"
      value: 0
    }
  }
}
layer {
  name: "relu3"
  type: "ReLU"
  bottom: "conv3_bn"
  top: "conv3_bn"
}
layer {
  name: "pool1"
  type: "Pooling"
  bottom: "conv3_bn"
  top: "pool1"
  pooling_param {
    pool: MAX
    kernel_size: 2
    stride: 2
  }
}
layer {
  name: "inception_1a/1x1"
  type: "Convolution"
  bottom: "pool1"
  top: "inception_1a/1x1"
  param {
    lr_mult: 1
    decay_mult: 1
  }
  param {
    lr_mult: 2
    decay_mult: 0
  }
  convolution_param {
    num_output: 64
    kernel_size: 1
    weight_filler {
      type: "xavier"
    }
    bias_filler {
      type: "constant"
      value: 0.2
    }
  }
}
layer {
  name: "inception_1a/1x1_bn"
  type: "BN"
  bottom: "inception_1a/1x1"
  top: "inception_1a/1x1_bn"
  param {
    lr_mult: 1
    decay_mult: 0
  }
  param {
    lr_mult: 1
    decay_mult: 0
  }
  bn_param {
    slope_filler {
      type: "constant"
      value: 1
    }
    bias_filler {
      type: "constant"
      value: 0
    }
  }
}
layer {
  name: "inception_1a/relu_1x1"
  type: "ReLU"
  bottom: "inception_1a/1x1_bn"
  top: "inception_1a/1x1_bn"
}
layer {
  name: "inception_1a/3x3_reduce"
  type: "Convolution"
  bottom: "pool1"
  top: "inception_1a/3x3_reduce"
  param {
    lr_mult: 1
    decay_mult: 1
  }
  param {
    lr_mult: 2
    decay_mult: 0
  }
  convolution_param {
    num_output: 64
    kernel_size: 1
    weight_filler {
      type: "xavier"
    }
    bias_filler {
      type: "constant"
      value: 0.2
    }
  }
}
layer {
  name: "inception_1a/3x3_reduce_bn"
  type: "BN"
  bottom: "inception_1a/3x3_reduce"
  top: "inception_1a/3x3_reduce_bn"
  param {
    lr_mult: 1
    decay_mult: 0
  }
  param {
    lr_mult: 1
    decay_mult: 0
  }
  bn_param {
    slope_filler {
      type: "constant"
      value: 1
    }
    bias_filler {
      type: "constant"
      value: 0
    }
  }
}
layer {
  name: "inception_1a/relu_3x3_reduce"
  type: "ReLU"
  bottom: "inception_1a/3x3_reduce_bn"
  top: "inception_1a/3x3_reduce_bn"
}
layer {
  name: "inception_1a/3x3"
  type: "Convolution"
  bottom: "inception_1a/3x3_reduce_bn"
  top: "inception_1a/3x3"
  param {
    lr_mult: 1
    decay_mult: 1
  }
  param {
    lr_mult: 2
    decay_mult: 0
  }
  convolution_param {
    num_output: 64
    pad: 1
    kernel_size: 3
    weight_filler {
      type: "xavier"
    }
    bias_filler {
      type: "constant"
      value: 0.2
    }
  }
}
layer {
  name: "inception_1a/3x3_bn"
  type: "BN"
  bottom: "inception_1a/3x3"
  top: "inception_1a/3x3_bn"
  param {
    lr_mult: 1
    decay_mult: 0
  }
  param {
    lr_mult: 1
    decay_mult: 0
  }
  bn_param {
    slope_filler {
      type: "constant"
      value: 1
    }
    bias_filler {
      type: "constant"
      value: 0
    }
  }
}
layer {
  name: "inception_1a/relu_3x3"
  type: "ReLU"
  bottom: "inception_1a/3x3_bn"
  top: "inception_1a/3x3_bn"
}
layer {
  name: "inception_1a/double_3x3_reduce"
  type: "Convolution"
  bottom: "pool1"
  top: "inception_1a/double_3x3_reduce"
  param {
    lr_mult: 1
    decay_mult: 1
  }
  param {
    lr_mult: 2
    decay_mult: 0
  }
  convolution_param {
    num_output: 64
    kernel_size: 1
    weight_filler {
      type: "xavier"
    }
    bias_filler {
      type: "constant"
      value: 0.2
    }
  }
}
layer {
  name: "inception_1a/double_3x3_reduce_bn"
  type: "BN"
  bottom: "inception_1a/double_3x3_reduce"
  top: "inception_1a/double_3x3_reduce_bn"
  param {
    lr_mult: 1
    decay_mult: 0
  }
  param {
    lr_mult: 1
    decay_mult: 0
  }
  bn_param {
    slope_filler {
      type: "constant"
      value: 1
    }
    bias_filler {
      type: "constant"
      value: 0
    }
  }
}
layer {
  name: "inception_1a/relu_double_3x3_reduce"
  type: "ReLU"
  bottom: "inception_1a/double_3x3_reduce_bn"
  top: "inception_1a/double_3x3_reduce_bn"
}
layer {
  name: "inception_1a/double_3x3_1"
  type: "Convolution"
  bottom: "inception_1a/double_3x3_reduce_bn"
  top: "inception_1a/double_3x3_1"
  param {
    lr_mult: 1
    decay_mult: 1
  }
  param {
    lr_mult: 2
    decay_mult: 0
  }
  convolution_param {
    num_output: 64
    pad: 1
    kernel_size: 3
    weight_filler {
      type: "xavier"
    }
    bias_filler {
      type: "constant"
      value: 0.2
    }
  }
}
layer {
  name: "inception_1a/double_3x3_1_bn"
  type: "BN"
  bottom: "inception_1a/double_3x3_1"
  top: "inception_1a/double_3x3_1_bn"
  param {
    lr_mult: 1
    decay_mult: 0
  }
  param {
    lr_mult: 1
    decay_mult: 0
  }
  bn_param {
    slope_filler {
      type: "constant"
      value: 1
    }
    bias_filler {
      type: "constant"
      value: 0
    }
  }
}
layer {
  name: "inception_1a/relu_double_3x3_1"
  type: "ReLU"
  bottom: "inception_1a/double_3x3_1_bn"
  top: "inception_1a/double_3x3_1_bn"
}
layer {
  name: "inception_1a/double_3x3_2"
  type: "Convolution"
  bottom: "inception_1a/double_3x3_1_bn"
  top: "inception_1a/double_3x3_2"
  param {
    lr_mult: 1
    decay_mult: 1
  }
  param {
    lr_mult: 2
    decay_mult: 0
  }
  convolution_param {
    num_output: 64
    pad: 1
    kernel_size: 3
    weight_filler {
      type: "xavier"
    }
    bias_filler {
      type: "constant"
      value: 0.2
    }
  }
}
layer {
  name: "inception_1a/double_3x3_2_bn"
  type: "BN"
  bottom: "inception_1a/double_3x3_2"
  top: "inception_1a/double_3x3_2_bn"
  param {
    lr_mult: 1
    decay_mult: 0
  }
  param {
    lr_mult: 1
    decay_mult: 0
  }
  bn_param {
    slope_filler {
      type: "constant"
      value: 1
    }
    bias_filler {
      type: "constant"
      value: 0
    }
  }
}
layer {
  name: "inception_1a/relu_double_3x3_2"
  type: "ReLU"
  bottom: "inception_1a/double_3x3_2_bn"
  top: "inception_1a/double_3x3_2_bn"
}
layer {
  name: "inception_1a/pool"
  type: "Pooling"
  bottom: "pool1"
  top: "inception_1a/pool"
  pooling_param {
    pool: AVE
    kernel_size: 3
    stride: 1
    pad: 1
  }
}
layer {
  name: "inception_1a/pool_proj"
  type: "Convolution"
  bottom: "inception_1a/pool"
  top: "inception_1a/pool_proj"
  param {
    lr_mult: 1
    decay_mult: 1
  }
  param {
    lr_mult: 2
    decay_mult: 0
  }
  convolution_param {
    num_output: 64
    kernel_size: 1
    weight_filler {
      type: "xavier"
    }
    bias_filler {
      type: "constant"
      value: 0.2
    }
  }
}
layer {
  name: "inception_1a/pool_proj_bn"
  type: "BN"
  bottom: "inception_1a/pool_proj"
  top: "inception_1a/pool_proj_bn"
  param {
    lr_mult: 1
    decay_mult: 0
  }
  param {
    lr_mult: 1
    decay_mult: 0
  }
  bn_param {
    slope_filler {
      type: "constant"
      value: 1
    }
    bias_filler {
      type: "constant"
      value: 0
    }
  }
}
layer {
  name: "inception_1a/relu_pool_proj"
  type: "ReLU"
  bottom: "inception_1a/pool_proj_bn"
  top: "inception_1a/pool_proj_bn"
}
layer {
  name: "inception_1a/output"
  type: "Concat"
  bottom: "inception_1a/1x1_bn"
  bottom: "inception_1a/3x3_bn"
  bottom: "inception_1a/double_3x3_2_bn"
  bottom: "inception_1a/pool_proj_bn"
  top: "inception_1a/output"
}
layer {
  name: "inception_1b/3x3_reduce"
  type: "Convolution"
  bottom: "inception_1a/output"
  top: "inception_1b/3x3_reduce"
  param {
    lr_mult: 1
    decay_mult: 1
  }
  param {
    lr_mult: 2
    decay_mult: 0
  }
  convolution_param {
    num_output: 64
    kernel_size: 1
    weight_filler {
      type: "xavier"
    }
    bias_filler {
      type: "constant"
      value: 0.2
    }
  }
}
layer {
  name: "inception_1b/3x3_reduce_bn"
  type: "BN"
  bottom: "inception_1b/3x3_reduce"
  top: "inception_1b/3x3_reduce_bn"
  param {
    lr_mult: 1
    decay_mult: 0
  }
  param {
    lr_mult: 1
    decay_mult: 0
  }
  bn_param {
    slope_filler {
      type: "constant"
      value: 1
    }
    bias_filler {
      type: "constant"
      value: 0
    }
  }
}
layer {
  name: "inception_1b/relu_3x3_reduce"
  type: "ReLU"
  bottom: "inception_1b/3x3_reduce_bn"
  top: "inception_1b/3x3_reduce_bn"
}
layer {
  name: "inception_1b/3x3"
  type: "Convolution"
  bottom: "inception_1b/3x3_reduce_bn"
  top: "inception_1b/3x3"
  param {
    lr_mult: 1
    decay_mult: 1
  }
  param {
    lr_mult: 2
    decay_mult: 0
  }
  convolution_param {
    num_output: 64
    pad: 1
    kernel_size: 3
    stride: 2
    weight_filler {
      type: "xavier"
    }
    bias_filler {
      type: "constant"
      value: 0.2
    }
  }
}
layer {
  name: "inception_1b/3x3_bn"
  type: "BN"
  bottom: "inception_1b/3x3"
  top: "inception_1b/3x3_bn"
  param {
    lr_mult: 1
    decay_mult: 0
  }
  param {
    lr_mult: 1
    decay_mult: 0
  }
  bn_param {
    slope_filler {
      type: "constant"
      value: 1
    }
    bias_filler {
      type: "constant"
      value: 0
    }
  }
}
layer {
  name: "inception_1b/relu_3x3"
  type: "ReLU"
  bottom: "inception_1b/3x3_bn"
  top: "inception_1b/3x3_bn"
}
layer {
  name: "inception_1b/double_3x3_reduce"
  type: "Convolution"
  bottom: "inception_1a/output"
  top: "inception_1b/double_3x3_reduce"
  param {
    lr_mult: 1
    decay_mult: 1
  }
  param {
    lr_mult: 2
    decay_mult: 0
  }
  convolution_param {
    num_output: 64
    kernel_size: 1
    weight_filler {
      type: "xavier"
    }
    bias_filler {
      type: "constant"
      value: 0.2
    }
  }
}
layer {
  name: "inception_1b/double_3x3_reduce_bn"
  type: "BN"
  bottom: "inception_1b/double_3x3_reduce"
  top: "inception_1b/double_3x3_reduce_bn"
  param {
    lr_mult: 1
    decay_mult: 0
  }
  param {
    lr_mult: 1
    decay_mult: 0
  }
  bn_param {
    slope_filler {
      type: "constant"
      value: 1
    }
    bias_filler {
      type: "constant"
      value: 0
    }
  }
}
layer {
  name: "inception_1b/relu_double_3x3_reduce"
  type: "ReLU"
  bottom: "inception_1b/double_3x3_reduce_bn"
  top: "inception_1b/double_3x3_reduce_bn"
}
layer {
  name: "inception_1b/double_3x3_1"
  type: "Convolution"
  bottom: "inception_1b/double_3x3_reduce_bn"
  top: "inception_1b/double_3x3_1"
  param {
    lr_mult: 1
    decay_mult: 1
  }
  param {
    lr_mult: 2
    decay_mult: 0
  }
  convolution_param {
    num_output: 64
    pad: 1
    kernel_size: 3
    weight_filler {
      type: "xavier"
    }
    bias_filler {
      type: "constant"
      value: 0.2
    }
  }
}
layer {
  name: "inception_1b/double_3x3_1_bn"
  type: "BN"
  bottom: "inception_1b/double_3x3_1"
  top: "inception_1b/double_3x3_1_bn"
  param {
    lr_mult: 1
    decay_mult: 0
  }
  param {
    lr_mult: 1
    decay_mult: 0
  }
  bn_param {
    slope_filler {
      type: "constant"
      value: 1
    }
    bias_filler {
      type: "constant"
      value: 0
    }
  }
}
layer {
  name: "inception_1b/relu_double_3x3_1"
  type: "ReLU"
  bottom: "inception_1b/double_3x3_1_bn"
  top: "inception_1b/double_3x3_1_bn"
}
layer {
  name: "inception_1b/double_3x3_2"
  type: "Convolution"
  bottom: "inception_1b/double_3x3_1_bn"
  top: "inception_1b/double_3x3_2"
  param {
    lr_mult: 1
    decay_mult: 1
  }
  param {
    lr_mult: 2
    decay_mult: 0
  }
  convolution_param {
    num_output: 64
    pad: 1
    kernel_size: 3
    stride: 2
    weight_filler {
      type: "xavier"
    }
    bias_filler {
      type: "constant"
      value: 0.2
    }
  }
}
layer {
  name: "inception_1b/double_3x3_2_bn"
  type: "BN"
  bottom: "inception_1b/double_3x3_2"
  top: "inception_1b/double_3x3_2_bn"
  param {
    lr_mult: 1
    decay_mult: 0
  }
  param {
    lr_mult: 1
    decay_mult: 0
  }
  bn_param {
    slope_filler {
      type: "constant"
      value: 1
    }
    bias_filler {
      type: "constant"
      value: 0
    }
  }
}
layer {
  name: "inception_1b/relu_double_3x3_2"
  type: "ReLU"
  bottom: "inception_1b/double_3x3_2_bn"
  top: "inception_1b/double_3x3_2_bn"
}
layer {
  name: "inception_1b/pool"
  type: "Pooling"
  bottom: "inception_1a/output"
  top: "inception_1b/pool"
  pooling_param {
    pool: MAX
    kernel_size: 3
    stride: 2
  }
}
layer {
  name: "inception_1b/output"
  type: "Concat"
  bottom: "inception_1b/3x3_bn"
  bottom: "inception_1b/double_3x3_2_bn"
  bottom: "inception_1b/pool"
  top: "inception_1b/output"
}
layer {
  name: "inception_2a/1x1"
  type: "Convolution"
  bottom: "inception_1b/output"
  top: "inception_2a/1x1"
  param {
    lr_mult: 1
    decay_mult: 1
  }
  param {
    lr_mult: 2
    decay_mult: 0
  }
  convolution_param {
    num_output: 128
    kernel_size: 1
    weight_filler {
      type: "xavier"
    }
    bias_filler {
      type: "constant"
      value: 0.2
    }
  }
}
layer {
  name: "inception_2a/1x1_bn"
  type: "BN"
  bottom: "inception_2a/1x1"
  top: "inception_2a/1x1_bn"
  param {
    lr_mult: 1
    decay_mult: 0
  }
  param {
    lr_mult: 1
    decay_mult: 0
  }
  bn_param {
    slope_filler {
      type: "constant"
      value: 1
    }
    bias_filler {
      type: "constant"
      value: 0
    }
  }
}
layer {
  name: "inception_2a/relu_1x1"
  type: "ReLU"
  bottom: "inception_2a/1x1_bn"
  top: "inception_2a/1x1_bn"
}
layer {
  name: "inception_2a/3x3_reduce"
  type: "Convolution"
  bottom: "inception_1b/output"
  top: "inception_2a/3x3_reduce"
  param {
    lr_mult: 1
    decay_mult: 1
  }
  param {
    lr_mult: 2
    decay_mult: 0
  }
  convolution_param {
    num_output: 128
    kernel_size: 1
    weight_filler {
      type: "xavier"
    }
    bias_filler {
      type: "constant"
      value: 0.2
    }
  }
}
layer {
  name: "inception_2a/3x3_reduce_bn"
  type: "BN"
  bottom: "inception_2a/3x3_reduce"
  top: "inception_2a/3x3_reduce_bn"
  param {
    lr_mult: 1
    decay_mult: 0
  }
  param {
    lr_mult: 1
    decay_mult: 0
  }
  bn_param {
    slope_filler {
      type: "constant"
      value: 1
    }
    bias_filler {
      type: "constant"
      value: 0
    }
  }
}
layer {
  name: "inception_2a/relu_3x3_reduce"
  type: "ReLU"
  bottom: "inception_2a/3x3_reduce_bn"
  top: "inception_2a/3x3_reduce_bn"
}
layer {
  name: "inception_2a/3x3"
  type: "Convolution"
  bottom: "inception_2a/3x3_reduce_bn"
  top: "inception_2a/3x3"
  param {
    lr_mult: 1
    decay_mult: 1
  }
  param {
    lr_mult: 2
    decay_mult: 0
  }
  convolution_param {
    num_output: 128
    pad: 1
    kernel_size: 3
    weight_filler {
      type: "xavier"
    }
    bias_filler {
      type: "constant"
      value: 0.2
    }
  }
}
layer {
  name: "inception_2a/3x3_bn"
  type: "BN"
  bottom: "inception_2a/3x3"
  top: "inception_2a/3x3_bn"
  param {
    lr_mult: 1
    decay_mult: 0
  }
  param {
    lr_mult: 1
    decay_mult: 0
  }
  bn_param {
    slope_filler {
      type: "constant"
      value: 1
    }
    bias_filler {
      type: "constant"
      value: 0
    }
  }
}
layer {
  name: "inception_2a/relu_3x3"
  type: "ReLU"
  bottom: "inception_2a/3x3_bn"
  top: "inception_2a/3x3_bn"
}
layer {
  name: "inception_2a/double_3x3_reduce"
  type: "Convolution"
  bottom: "inception_1b/output"
  top: "inception_2a/double_3x3_reduce"
  param {
    lr_mult: 1
    decay_mult: 1
  }
  param {
    lr_mult: 2
    decay_mult: 0
  }
  convolution_param {
    num_output: 128
    kernel_size: 1
    weight_filler {
      type: "xavier"
    }
    bias_filler {
      type: "constant"
      value: 0.2
    }
  }
}
layer {
  name: "inception_2a/double_3x3_reduce_bn"
  type: "BN"
  bottom: "inception_2a/double_3x3_reduce"
  top: "inception_2a/double_3x3_reduce_bn"
  param {
    lr_mult: 1
    decay_mult: 0
  }
  param {
    lr_mult: 1
    decay_mult: 0
  }
  bn_param {
    slope_filler {
      type: "constant"
      value: 1
    }
    bias_filler {
      type: "constant"
      value: 0
    }
  }
}
layer {
  name: "inception_2a/relu_double_3x3_reduce"
  type: "ReLU"
  bottom: "inception_2a/double_3x3_reduce_bn"
  top: "inception_2a/double_3x3_reduce_bn"
}
layer {
  name: "inception_2a/double_3x3_1"
  type: "Convolution"
  bottom: "inception_2a/double_3x3_reduce_bn"
  top: "inception_2a/double_3x3_1"
  param {
    lr_mult: 1
    decay_mult: 1
  }
  param {
    lr_mult: 2
    decay_mult: 0
  }
  convolution_param {
    num_output: 128
    pad: 1
    kernel_size: 3
    weight_filler {
      type: "xavier"
    }
    bias_filler {
      type: "constant"
      value: 0.2
    }
  }
}
layer {
  name: "inception_2a/double_3x3_1_bn"
  type: "BN"
  bottom: "inception_2a/double_3x3_1"
  top: "inception_2a/double_3x3_1_bn"
  param {
    lr_mult: 1
    decay_mult: 0
  }
  param {
    lr_mult: 1
    decay_mult: 0
  }
  bn_param {
    slope_filler {
      type: "constant"
      value: 1
    }
    bias_filler {
      type: "constant"
      value: 0
    }
  }
}
layer {
  name: "inception_2a/relu_double_3x3_1"
  type: "ReLU"
  bottom: "inception_2a/double_3x3_1_bn"
  top: "inception_2a/double_3x3_1_bn"
}
layer {
  name: "inception_2a/double_3x3_2"
  type: "Convolution"
  bottom: "inception_2a/double_3x3_1_bn"
  top: "inception_2a/double_3x3_2"
  param {
    lr_mult: 1
    decay_mult: 1
  }
  param {
    lr_mult: 2
    decay_mult: 0
  }
  convolution_param {
    num_output: 128
    pad: 1
    kernel_size: 3
    weight_filler {
      type: "xavier"
    }
    bias_filler {
      type: "constant"
      value: 0.2
    }
  }
}
layer {
  name: "inception_2a/double_3x3_2_bn"
  type: "BN"
  bottom: "inception_2a/double_3x3_2"
  top: "inception_2a/double_3x3_2_bn"
  param {
    lr_mult: 1
    decay_mult: 0
  }
  param {
    lr_mult: 1
    decay_mult: 0
  }
  bn_param {
    slope_filler {
      type: "constant"
      value: 1
    }
    bias_filler {
      type: "constant"
      value: 0
    }
  }
}
layer {
  name: "inception_2a/relu_double_3x3_2"
  type: "ReLU"
  bottom: "inception_2a/double_3x3_2_bn"
  top: "inception_2a/double_3x3_2_bn"
}
layer {
  name: "inception_2a/pool"
  type: "Pooling"
  bottom: "inception_1b/output"
  top: "inception_2a/pool"
  pooling_param {
    pool: AVE
    kernel_size: 3
    stride: 1
    pad: 1
  }
}
layer {
  name: "inception_2a/pool_proj"
  type: "Convolution"
  bottom: "inception_2a/pool"
  top: "inception_2a/pool_proj"
  param {
    lr_mult: 1
    decay_mult: 1
  }
  param {
    lr_mult: 2
    decay_mult: 0
  }
  convolution_param {
    num_output: 128
    kernel_size: 1
    weight_filler {
      type: "xavier"
    }
    bias_filler {
      type: "constant"
      value: 0.2
    }
  }
}
layer {
  name: "inception_2a/pool_proj_bn"
  type: "BN"
  bottom: "inception_2a/pool_proj"
  top: "inception_2a/pool_proj_bn"
  param {
    lr_mult: 1
    decay_mult: 0
  }
  param {
    lr_mult: 1
    decay_mult: 0
  }
  bn_param {
    slope_filler {
      type: "constant"
      value: 1
    }
    bias_filler {
      type: "constant"
      value: 0
    }
  }
}
layer {
  name: "inception_2a/relu_pool_proj"
  type: "ReLU"
  bottom: "inception_2a/pool_proj_bn"
  top: "inception_2a/pool_proj_bn"
}
layer {
  name: "inception_2a/output"
  type: "Concat"
  bottom: "inception_2a/1x1_bn"
  bottom: "inception_2a/3x3_bn"
  bottom: "inception_2a/double_3x3_2_bn"
  bottom: "inception_2a/pool_proj_bn"
  top: "inception_2a/output"
}
layer {
  name: "inception_2b/3x3_reduce"
  type: "Convolution"
  bottom: "inception_2a/output"
  top: "inception_2b/3x3_reduce"
  param {
    lr_mult: 1
    decay_mult: 1
  }
  param {
    lr_mult: 2
    decay_mult: 0
  }
  convolution_param {
    num_output: 128
    kernel_size: 1
    weight_filler {
      type: "xavier"
    }
    bias_filler {
      type: "constant"
      value: 0.2
    }
  }
}
layer {
  name: "inception_2b/3x3_reduce_bn"
  type: "BN"
  bottom: "inception_2b/3x3_reduce"
  top: "inception_2b/3x3_reduce_bn"
  param {
    lr_mult: 1
    decay_mult: 0
  }
  param {
    lr_mult: 1
    decay_mult: 0
  }
  bn_param {
    slope_filler {
      type: "constant"
      value: 1
    }
    bias_filler {
      type: "constant"
      value: 0
    }
  }
}
layer {
  name: "inception_2b/relu_3x3_reduce"
  type: "ReLU"
  bottom: "inception_2b/3x3_reduce_bn"
  top: "inception_2b/3x3_reduce_bn"
}
layer {
  name: "inception_2b/3x3"
  type: "Convolution"
  bottom: "inception_2b/3x3_reduce_bn"
  top: "inception_2b/3x3"
  param {
    lr_mult: 1
    decay_mult: 1
  }
  param {
    lr_mult: 2
    decay_mult: 0
  }
  convolution_param {
    num_output: 128
    pad: 1
    kernel_size: 3
    stride: 2
    weight_filler {
      type: "xavier"
    }
    bias_filler {
      type: "constant"
      value: 0.2
    }
  }
}
layer {
  name: "inception_2b/3x3_bn"
  type: "BN"
  bottom: "inception_2b/3x3"
  top: "inception_2b/3x3_bn"
  param {
    lr_mult: 1
    decay_mult: 0
  }
  param {
    lr_mult: 1
    decay_mult: 0
  }
  bn_param {
    slope_filler {
      type: "constant"
      value: 1
    }
    bias_filler {
      type: "constant"
      value: 0
    }
  }
}
layer {
  name: "inception_2b/relu_3x3"
  type: "ReLU"
  bottom: "inception_2b/3x3_bn"
  top: "inception_2b/3x3_bn"
}
layer {
  name: "inception_2b/double_3x3_reduce"
  type: "Convolution"
  bottom: "inception_2a/output"
  top: "inception_2b/double_3x3_reduce"
  param {
    lr_mult: 1
    decay_mult: 1
  }
  param {
    lr_mult: 2
    decay_mult: 0
  }
  convolution_param {
    num_output: 128
    kernel_size: 1
    weight_filler {
      type: "xavier"
    }
    bias_filler {
      type: "constant"
      value: 0.2
    }
  }
}
layer {
  name: "inception_2b/double_3x3_reduce_bn"
  type: "BN"
  bottom: "inception_2b/double_3x3_reduce"
  top: "inception_2b/double_3x3_reduce_bn"
  param {
    lr_mult: 1
    decay_mult: 0
  }
  param {
    lr_mult: 1
    decay_mult: 0
  }
  bn_param {
    slope_filler {
      type: "constant"
      value: 1
    }
    bias_filler {
      type: "constant"
      value: 0
    }
  }
}
layer {
  name: "inception_2b/relu_double_3x3_reduce"
  type: "ReLU"
  bottom: "inception_2b/double_3x3_reduce_bn"
  top: "inception_2b/double_3x3_reduce_bn"
}
layer {
  name: "inception_2b/double_3x3_1"
  type: "Convolution"
  bottom: "inception_2b/double_3x3_reduce_bn"
  top: "inception_2b/double_3x3_1"
  param {
    lr_mult: 1
    decay_mult: 1
  }
  param {
    lr_mult: 2
    decay_mult: 0
  }
  convolution_param {
    num_output: 128
    pad: 1
    kernel_size: 3
    weight_filler {
      type: "xavier"
    }
    bias_filler {
      type: "constant"
      value: 0.2
    }
  }
}
layer {
  name: "inception_2b/double_3x3_1_bn"
  type: "BN"
  bottom: "inception_2b/double_3x3_1"
  top: "inception_2b/double_3x3_1_bn"
  param {
    lr_mult: 1
    decay_mult: 0
  }
  param {
    lr_mult: 1
    decay_mult: 0
  }
  bn_param {
    slope_filler {
      type: "constant"
      value: 1
    }
    bias_filler {
      type: "constant"
      value: 0
    }
  }
}
layer {
  name: "inception_2b/relu_double_3x3_1"
  type: "ReLU"
  bottom: "inception_2b/double_3x3_1_bn"
  top: "inception_2b/double_3x3_1_bn"
}
layer {
  name: "inception_2b/double_3x3_2"
  type: "Convolution"
  bottom: "inception_2b/double_3x3_1_bn"
  top: "inception_2b/double_3x3_2"
  param {
    lr_mult: 1
    decay_mult: 1
  }
  param {
    lr_mult: 2
    decay_mult: 0
  }
  convolution_param {
    num_output: 128
    pad: 1
    kernel_size: 3
    stride: 2
    weight_filler {
      type: "xavier"
    }
    bias_filler {
      type: "constant"
      value: 0.2
    }
  }
}
layer {
  name: "inception_2b/double_3x3_2_bn"
  type: "BN"
  bottom: "inception_2b/double_3x3_2"
  top: "inception_2b/double_3x3_2_bn"
  param {
    lr_mult: 1
    decay_mult: 0
  }
  param {
    lr_mult: 1
    decay_mult: 0
  }
  bn_param {
    slope_filler {
      type: "constant"
      value: 1
    }
    bias_filler {
      type: "constant"
      value: 0
    }
  }
}
layer {
  name: "inception_2b/relu_double_3x3_2"
  type: "ReLU"
  bottom: "inception_2b/double_3x3_2_bn"
  top: "inception_2b/double_3x3_2_bn"
}
layer {
  name: "inception_2b/pool"
  type: "Pooling"
  bottom: "inception_2a/output"
  top: "inception_2b/pool"
  pooling_param {
    pool: MAX
    kernel_size: 3
    stride: 2
  }
}
layer {
  name: "inception_2b/output"
  type: "Concat"
  bottom: "inception_2b/3x3_bn"
  bottom: "inception_2b/double_3x3_2_bn"
  bottom: "inception_2b/pool"
  top: "inception_2b/output"
}
layer {
  name: "inception_3a/1x1"
  type: "Convolution"
  bottom: "inception_2b/output"
  top: "inception_3a/1x1"
  param {
    lr_mult: 1
    decay_mult: 1
  }
  param {
    lr_mult: 2
    decay_mult: 0
  }
  convolution_param {
    num_output: 256
    kernel_size: 1
    weight_filler {
      type: "xavier"
    }
    bias_filler {
      type: "constant"
      value: 0.2
    }
  }
}
layer {
  name: "inception_3a/1x1_bn"
  type: "BN"
  bottom: "inception_3a/1x1"
  top: "inception_3a/1x1_bn"
  param {
    lr_mult: 1
    decay_mult: 0
  }
  param {
    lr_mult: 1
    decay_mult: 0
  }
  bn_param {
    slope_filler {
      type: "constant"
      value: 1
    }
    bias_filler {
      type: "constant"
      value: 0
    }
  }
}
layer {
  name: "inception_3a/relu_1x1"
  type: "ReLU"
  bottom: "inception_3a/1x1_bn"
  top: "inception_3a/1x1_bn"
}
layer {
  name: "inception_3a/3x3_reduce"
  type: "Convolution"
  bottom: "inception_2b/output"
  top: "inception_3a/3x3_reduce"
  param {
    lr_mult: 1
    decay_mult: 1
  }
  param {
    lr_mult: 2
    decay_mult: 0
  }
  convolution_param {
    num_output: 256
    kernel_size: 1
    weight_filler {
      type: "xavier"
    }
    bias_filler {
      type: "constant"
      value: 0.2
    }
  }
}
layer {
  name: "inception_3a/3x3_reduce_bn"
  type: "BN"
  bottom: "inception_3a/3x3_reduce"
  top: "inception_3a/3x3_reduce_bn"
  param {
    lr_mult: 1
    decay_mult: 0
  }
  param {
    lr_mult: 1
    decay_mult: 0
  }
  bn_param {
    slope_filler {
      type: "constant"
      value: 1
    }
    bias_filler {
      type: "constant"
      value: 0
    }
  }
}
layer {
  name: "inception_3a/relu_3x3_reduce"
  type: "ReLU"
  bottom: "inception_3a/3x3_reduce_bn"
  top: "inception_3a/3x3_reduce_bn"
}
layer {
  name: "inception_3a/3x3"
  type: "Convolution"
  bottom: "inception_3a/3x3_reduce_bn"
  top: "inception_3a/3x3"
  param {
    lr_mult: 1
    decay_mult: 1
  }
  param {
    lr_mult: 2
    decay_mult: 0
  }
  convolution_param {
    num_output: 256
    pad: 1
    kernel_size: 3
    weight_filler {
      type: "xavier"
    }
    bias_filler {
      type: "constant"
      value: 0.2
    }
  }
}
layer {
  name: "inception_3a/3x3_bn"
  type: "BN"
  bottom: "inception_3a/3x3"
  top: "inception_3a/3x3_bn"
  param {
    lr_mult: 1
    decay_mult: 0
  }
  param {
    lr_mult: 1
    decay_mult: 0
  }
  bn_param {
    slope_filler {
      type: "constant"
      value: 1
    }
    bias_filler {
      type: "constant"
      value: 0
    }
  }
}
layer {
  name: "inception_3a/relu_3x3"
  type: "ReLU"
  bottom: "inception_3a/3x3_bn"
  top: "inception_3a/3x3_bn"
}
layer {
  name: "inception_3a/double_3x3_reduce"
  type: "Convolution"
  bottom: "inception_2b/output"
  top: "inception_3a/double_3x3_reduce"
  param {
    lr_mult: 1
    decay_mult: 1
  }
  param {
    lr_mult: 2
    decay_mult: 0
  }
  convolution_param {
    num_output: 256
    kernel_size: 1
    weight_filler {
      type: "xavier"
    }
    bias_filler {
      type: "constant"
      value: 0.2
    }
  }
}
layer {
  name: "inception_3a/double_3x3_reduce_bn"
  type: "BN"
  bottom: "inception_3a/double_3x3_reduce"
  top: "inception_3a/double_3x3_reduce_bn"
  param {
    lr_mult: 1
    decay_mult: 0
  }
  param {
    lr_mult: 1
    decay_mult: 0
  }
  bn_param {
    slope_filler {
      type: "constant"
      value: 1
    }
    bias_filler {
      type: "constant"
      value: 0
    }
  }
}
layer {
  name: "inception_3a/relu_double_3x3_reduce"
  type: "ReLU"
  bottom: "inception_3a/double_3x3_reduce_bn"
  top: "inception_3a/double_3x3_reduce_bn"
}
layer {
  name: "inception_3a/double_3x3_1"
  type: "Convolution"
  bottom: "inception_3a/double_3x3_reduce_bn"
  top: "incep
I0418 10:06:27.625502 31154 net.cpp:413] Input 0 -> data
I0418 10:06:27.625547 31154 layer_factory.hpp:74] Creating layer conv1
I0418 10:06:27.625560 31154 net.cpp:133] Creating Layer conv1
I0418 10:06:27.625562 31154 net.cpp:453] conv1 <- data
I0418 10:06:27.625566 31154 net.cpp:411] conv1 -> conv1
I0418 10:06:27.625572 31154 net.cpp:163] Setting up conv1
I0418 10:06:27.721621 31154 net.cpp:170] Top shape: 1 32 144 56 (258048)
I0418 10:06:27.721652 31154 layer_factory.hpp:74] Creating layer conv1_bn
I0418 10:06:27.721657 31154 layer_factory.cpp:191] Layer conv1_bn is using CAFFE engine.
I0418 10:06:27.721664 31154 net.cpp:133] Creating Layer conv1_bn
I0418 10:06:27.721668 31154 net.cpp:453] conv1_bn <- conv1
I0418 10:06:27.721671 31154 net.cpp:411] conv1_bn -> conv1_bn
I0418 10:06:27.721679 31154 net.cpp:163] Setting up conv1_bn
I0418 10:06:27.721694 31154 net.cpp:170] Top shape: 1 32 144 56 (258048)
I0418 10:06:27.721700 31154 layer_factory.hpp:74] Creating layer relu1
I0418 10:06:27.721704 31154 net.cpp:133] Creating Layer relu1
I0418 10:06:27.721706 31154 net.cpp:453] relu1 <- conv1_bn
I0418 10:06:27.721709 31154 net.cpp:400] relu1 -> conv1_bn (in-place)
I0418 10:06:27.721712 31154 net.cpp:163] Setting up relu1
I0418 10:06:27.721807 31154 net.cpp:170] Top shape: 1 32 144 56 (258048)
I0418 10:06:27.721812 31154 layer_factory.hpp:74] Creating layer conv2
I0418 10:06:27.721818 31154 net.cpp:133] Creating Layer conv2
I0418 10:06:27.721820 31154 net.cpp:453] conv2 <- conv1_bn
I0418 10:06:27.721824 31154 net.cpp:411] conv2 -> conv2
I0418 10:06:27.721828 31154 net.cpp:163] Setting up conv2
I0418 10:06:27.774304 31154 net.cpp:170] Top shape: 1 32 144 56 (258048)
I0418 10:06:27.774315 31154 layer_factory.hpp:74] Creating layer conv2_bn
I0418 10:06:27.774318 31154 layer_factory.cpp:191] Layer conv2_bn is using CAFFE engine.
I0418 10:06:27.774323 31154 net.cpp:133] Creating Layer conv2_bn
I0418 10:06:27.774325 31154 net.cpp:453] conv2_bn <- conv2
I0418 10:06:27.774329 31154 net.cpp:411] conv2_bn -> conv2_bn
I0418 10:06:27.774334 31154 net.cpp:163] Setting up conv2_bn
I0418 10:06:27.774353 31154 net.cpp:170] Top shape: 1 32 144 56 (258048)
I0418 10:06:27.774358 31154 layer_factory.hpp:74] Creating layer relu2
I0418 10:06:27.774363 31154 net.cpp:133] Creating Layer relu2
I0418 10:06:27.774365 31154 net.cpp:453] relu2 <- conv2_bn
I0418 10:06:27.774369 31154 net.cpp:400] relu2 -> conv2_bn (in-place)
I0418 10:06:27.774371 31154 net.cpp:163] Setting up relu2
I0418 10:06:27.774543 31154 net.cpp:170] Top shape: 1 32 144 56 (258048)
I0418 10:06:27.774549 31154 layer_factory.hpp:74] Creating layer conv3
I0418 10:06:27.774555 31154 net.cpp:133] Creating Layer conv3
I0418 10:06:27.774562 31154 net.cpp:453] conv3 <- conv2_bn
I0418 10:06:27.774567 31154 net.cpp:411] conv3 -> conv3
I0418 10:06:27.774571 31154 net.cpp:163] Setting up conv3
I0418 10:06:27.826920 31154 net.cpp:170] Top shape: 1 32 144 56 (258048)
I0418 10:06:27.826930 31154 layer_factory.hpp:74] Creating layer conv3_bn
I0418 10:06:27.826933 31154 layer_factory.cpp:191] Layer conv3_bn is using CAFFE engine.
I0418 10:06:27.826937 31154 net.cpp:133] Creating Layer conv3_bn
I0418 10:06:27.826941 31154 net.cpp:453] conv3_bn <- conv3
I0418 10:06:27.826944 31154 net.cpp:411] conv3_bn -> conv3_bn
I0418 10:06:27.826948 31154 net.cpp:163] Setting up conv3_bn
I0418 10:06:27.826964 31154 net.cpp:170] Top shape: 1 32 144 56 (258048)
I0418 10:06:27.826972 31154 layer_factory.hpp:74] Creating layer relu3
I0418 10:06:27.826977 31154 net.cpp:133] Creating Layer relu3
I0418 10:06:27.826978 31154 net.cpp:453] relu3 <- conv3_bn
I0418 10:06:27.826982 31154 net.cpp:400] relu3 -> conv3_bn (in-place)
I0418 10:06:27.826984 31154 net.cpp:163] Setting up relu3
I0418 10:06:27.827083 31154 net.cpp:170] Top shape: 1 32 144 56 (258048)
I0418 10:06:27.827088 31154 layer_factory.hpp:74] Creating layer pool1
I0418 10:06:27.827093 31154 net.cpp:133] Creating Layer pool1
I0418 10:06:27.827095 31154 net.cpp:453] pool1 <- conv3_bn
I0418 10:06:27.827098 31154 net.cpp:411] pool1 -> pool1
I0418 10:06:27.827103 31154 net.cpp:163] Setting up pool1
I0418 10:06:27.827268 31154 net.cpp:170] Top shape: 1 32 72 28 (64512)
I0418 10:06:27.827275 31154 layer_factory.hpp:74] Creating layer pool1_pool1_0_split
I0418 10:06:27.827280 31154 net.cpp:133] Creating Layer pool1_pool1_0_split
I0418 10:06:27.827282 31154 net.cpp:453] pool1_pool1_0_split <- pool1
I0418 10:06:27.827286 31154 net.cpp:411] pool1_pool1_0_split -> pool1_pool1_0_split_0
I0418 10:06:27.827291 31154 net.cpp:411] pool1_pool1_0_split -> pool1_pool1_0_split_1
I0418 10:06:27.827296 31154 net.cpp:411] pool1_pool1_0_split -> pool1_pool1_0_split_2
I0418 10:06:27.827298 31154 net.cpp:411] pool1_pool1_0_split -> pool1_pool1_0_split_3
I0418 10:06:27.827301 31154 net.cpp:163] Setting up pool1_pool1_0_split
I0418 10:06:27.827306 31154 net.cpp:170] Top shape: 1 32 72 28 (64512)
I0418 10:06:27.827308 31154 net.cpp:170] Top shape: 1 32 72 28 (64512)
I0418 10:06:27.827311 31154 net.cpp:170] Top shape: 1 32 72 28 (64512)
I0418 10:06:27.827313 31154 net.cpp:170] Top shape: 1 32 72 28 (64512)
I0418 10:06:27.827316 31154 layer_factory.hpp:74] Creating layer inception_1a/1x1
I0418 10:06:27.827321 31154 net.cpp:133] Creating Layer inception_1a/1x1
I0418 10:06:27.827322 31154 net.cpp:453] inception_1a/1x1 <- pool1_pool1_0_split_0
I0418 10:06:27.827327 31154 net.cpp:411] inception_1a/1x1 -> inception_1a/1x1
I0418 10:06:27.827332 31154 net.cpp:163] Setting up inception_1a/1x1
I0418 10:06:27.854552 31154 net.cpp:170] Top shape: 1 64 72 28 (129024)
I0418 10:06:27.854563 31154 layer_factory.hpp:74] Creating layer inception_1a/1x1_bn
I0418 10:06:27.854567 31154 layer_factory.cpp:191] Layer inception_1a/1x1_bn is using CAFFE engine.
I0418 10:06:27.854571 31154 net.cpp:133] Creating Layer inception_1a/1x1_bn
I0418 10:06:27.854573 31154 net.cpp:453] inception_1a/1x1_bn <- inception_1a/1x1
I0418 10:06:27.854578 31154 net.cpp:411] inception_1a/1x1_bn -> inception_1a/1x1_bn
I0418 10:06:27.854583 31154 net.cpp:163] Setting up inception_1a/1x1_bn
I0418 10:06:27.854593 31154 net.cpp:170] Top shape: 1 64 72 28 (129024)
I0418 10:06:27.854599 31154 layer_factory.hpp:74] Creating layer inception_1a/relu_1x1
I0418 10:06:27.854603 31154 net.cpp:133] Creating Layer inception_1a/relu_1x1
I0418 10:06:27.854604 31154 net.cpp:453] inception_1a/relu_1x1 <- inception_1a/1x1_bn
I0418 10:06:27.854609 31154 net.cpp:400] inception_1a/relu_1x1 -> inception_1a/1x1_bn (in-place)
I0418 10:06:27.854611 31154 net.cpp:163] Setting up inception_1a/relu_1x1
I0418 10:06:27.854790 31154 net.cpp:170] Top shape: 1 64 72 28 (129024)
I0418 10:06:27.854797 31154 layer_factory.hpp:74] Creating layer inception_1a/3x3_reduce
I0418 10:06:27.854804 31154 net.cpp:133] Creating Layer inception_1a/3x3_reduce
I0418 10:06:27.854809 31154 net.cpp:453] inception_1a/3x3_reduce <- pool1_pool1_0_split_1
I0418 10:06:27.854815 31154 net.cpp:411] inception_1a/3x3_reduce -> inception_1a/3x3_reduce
I0418 10:06:27.854820 31154 net.cpp:163] Setting up inception_1a/3x3_reduce
I0418 10:06:27.881989 31154 net.cpp:170] Top shape: 1 64 72 28 (129024)
I0418 10:06:27.882000 31154 layer_factory.hpp:74] Creating layer inception_1a/3x3_reduce_bn
I0418 10:06:27.882004 31154 layer_factory.cpp:191] Layer inception_1a/3x3_reduce_bn is using CAFFE engine.
I0418 10:06:27.882009 31154 net.cpp:133] Creating Layer inception_1a/3x3_reduce_bn
I0418 10:06:27.882011 31154 net.cpp:453] inception_1a/3x3_reduce_bn <- inception_1a/3x3_reduce
I0418 10:06:27.882015 31154 net.cpp:411] inception_1a/3x3_reduce_bn -> inception_1a/3x3_reduce_bn
I0418 10:06:27.882019 31154 net.cpp:163] Setting up inception_1a/3x3_reduce_bn
I0418 10:06:27.882030 31154 net.cpp:170] Top shape: 1 64 72 28 (129024)
I0418 10:06:27.882035 31154 layer_factory.hpp:74] Creating layer inception_1a/relu_3x3_reduce
I0418 10:06:27.882040 31154 net.cpp:133] Creating Layer inception_1a/relu_3x3_reduce
I0418 10:06:27.882042 31154 net.cpp:453] inception_1a/relu_3x3_reduce <- inception_1a/3x3_reduce_bn
I0418 10:06:27.882045 31154 net.cpp:400] inception_1a/relu_3x3_reduce -> inception_1a/3x3_reduce_bn (in-place)
I0418 10:06:27.882050 31154 net.cpp:163] Setting up inception_1a/relu_3x3_reduce
I0418 10:06:27.882148 31154 net.cpp:170] Top shape: 1 64 72 28 (129024)
I0418 10:06:27.882153 31154 layer_factory.hpp:74] Creating layer inception_1a/3x3
I0418 10:06:27.882158 31154 net.cpp:133] Creating Layer inception_1a/3x3
I0418 10:06:27.882161 31154 net.cpp:453] inception_1a/3x3 <- inception_1a/3x3_reduce_bn
I0418 10:06:27.882165 31154 net.cpp:411] inception_1a/3x3 -> inception_1a/3x3
I0418 10:06:27.882171 31154 net.cpp:163] Setting up inception_1a/3x3
I0418 10:06:27.930430 31154 net.cpp:170] Top shape: 1 64 72 28 (129024)
I0418 10:06:27.930441 31154 layer_factory.hpp:74] Creating layer inception_1a/3x3_bn
I0418 10:06:27.930444 31154 layer_factory.cpp:191] Layer inception_1a/3x3_bn is using CAFFE engine.
I0418 10:06:27.930449 31154 net.cpp:133] Creating Layer inception_1a/3x3_bn
I0418 10:06:27.930451 31154 net.cpp:453] inception_1a/3x3_bn <- inception_1a/3x3
I0418 10:06:27.930456 31154 net.cpp:411] inception_1a/3x3_bn -> inception_1a/3x3_bn
I0418 10:06:27.930461 31154 net.cpp:163] Setting up inception_1a/3x3_bn
I0418 10:06:27.930474 31154 net.cpp:170] Top shape: 1 64 72 28 (129024)
I0418 10:06:27.930481 31154 layer_factory.hpp:74] Creating layer inception_1a/relu_3x3
I0418 10:06:27.930485 31154 net.cpp:133] Creating Layer inception_1a/relu_3x3
I0418 10:06:27.930487 31154 net.cpp:453] inception_1a/relu_3x3 <- inception_1a/3x3_bn
I0418 10:06:27.930490 31154 net.cpp:400] inception_1a/relu_3x3 -> inception_1a/3x3_bn (in-place)
I0418 10:06:27.930493 31154 net.cpp:163] Setting up inception_1a/relu_3x3
I0418 10:06:27.930666 31154 net.cpp:170] Top shape: 1 64 72 28 (129024)
I0418 10:06:27.930673 31154 layer_factory.hpp:74] Creating layer inception_1a/double_3x3_reduce
I0418 10:06:27.930678 31154 net.cpp:133] Creating Layer inception_1a/double_3x3_reduce
I0418 10:06:27.930681 31154 net.cpp:453] inception_1a/double_3x3_reduce <- pool1_pool1_0_split_2
I0418 10:06:27.930685 31154 net.cpp:411] inception_1a/double_3x3_reduce -> inception_1a/double_3x3_reduce
I0418 10:06:27.930691 31154 net.cpp:163] Setting up inception_1a/double_3x3_reduce
I0418 10:06:27.957147 31154 net.cpp:170] Top shape: 1 64 72 28 (129024)
I0418 10:06:27.957159 31154 layer_factory.hpp:74] Creating layer inception_1a/double_3x3_reduce_bn
I0418 10:06:27.957161 31154 layer_factory.cpp:191] Layer inception_1a/double_3x3_reduce_bn is using CAFFE engine.
I0418 10:06:27.957166 31154 net.cpp:133] Creating Layer inception_1a/double_3x3_reduce_bn
I0418 10:06:27.957168 31154 net.cpp:453] inception_1a/double_3x3_reduce_bn <- inception_1a/double_3x3_reduce
I0418 10:06:27.957173 31154 net.cpp:411] inception_1a/double_3x3_reduce_bn -> inception_1a/double_3x3_reduce_bn
I0418 10:06:27.957181 31154 net.cpp:163] Setting up inception_1a/double_3x3_reduce_bn
I0418 10:06:27.957192 31154 net.cpp:170] Top shape: 1 64 72 28 (129024)
I0418 10:06:27.957197 31154 layer_factory.hpp:74] Creating layer inception_1a/relu_double_3x3_reduce
I0418 10:06:27.957201 31154 net.cpp:133] Creating Layer inception_1a/relu_double_3x3_reduce
I0418 10:06:27.957203 31154 net.cpp:453] inception_1a/relu_double_3x3_reduce <- inception_1a/double_3x3_reduce_bn
I0418 10:06:27.957207 31154 net.cpp:400] inception_1a/relu_double_3x3_reduce -> inception_1a/double_3x3_reduce_bn (in-place)
I0418 10:06:27.957211 31154 net.cpp:163] Setting up inception_1a/relu_double_3x3_reduce
I0418 10:06:27.957387 31154 net.cpp:170] Top shape: 1 64 72 28 (129024)
I0418 10:06:27.957394 31154 layer_factory.hpp:74] Creating layer inception_1a/double_3x3_1
I0418 10:06:27.957401 31154 net.cpp:133] Creating Layer inception_1a/double_3x3_1
I0418 10:06:27.957403 31154 net.cpp:453] inception_1a/double_3x3_1 <- inception_1a/double_3x3_reduce_bn
I0418 10:06:27.957407 31154 net.cpp:411] inception_1a/double_3x3_1 -> inception_1a/double_3x3_1
I0418 10:06:27.957412 31154 net.cpp:163] Setting up inception_1a/double_3x3_1
I0418 10:06:28.005208 31154 net.cpp:170] Top shape: 1 64 72 28 (129024)
I0418 10:06:28.005219 31154 layer_factory.hpp:74] Creating layer inception_1a/double_3x3_1_bn
I0418 10:06:28.005223 31154 layer_factory.cpp:191] Layer inception_1a/double_3x3_1_bn is using CAFFE engine.
I0418 10:06:28.005228 31154 net.cpp:133] Creating Layer inception_1a/double_3x3_1_bn
I0418 10:06:28.005229 31154 net.cpp:453] inception_1a/double_3x3_1_bn <- inception_1a/double_3x3_1
I0418 10:06:28.005234 31154 net.cpp:411] inception_1a/double_3x3_1_bn -> inception_1a/double_3x3_1_bn
I0418 10:06:28.005239 31154 net.cpp:163] Setting up inception_1a/double_3x3_1_bn
I0418 10:06:28.005251 31154 net.cpp:170] Top shape: 1 64 72 28 (129024)
I0418 10:06:28.005255 31154 layer_factory.hpp:74] Creating layer inception_1a/relu_double_3x3_1
I0418 10:06:28.005259 31154 net.cpp:133] Creating Layer inception_1a/relu_double_3x3_1
I0418 10:06:28.005261 31154 net.cpp:453] inception_1a/relu_double_3x3_1 <- inception_1a/double_3x3_1_bn
I0418 10:06:28.005264 31154 net.cpp:400] inception_1a/relu_double_3x3_1 -> inception_1a/double_3x3_1_bn (in-place)
I0418 10:06:28.005267 31154 net.cpp:163] Setting up inception_1a/relu_double_3x3_1
I0418 10:06:28.005370 31154 net.cpp:170] Top shape: 1 64 72 28 (129024)
I0418 10:06:28.005375 31154 layer_factory.hpp:74] Creating layer inception_1a/double_3x3_2
I0418 10:06:28.005380 31154 net.cpp:133] Creating Layer inception_1a/double_3x3_2
I0418 10:06:28.005383 31154 net.cpp:453] inception_1a/double_3x3_2 <- inception_1a/double_3x3_1_bn
I0418 10:06:28.005388 31154 net.cpp:411] inception_1a/double_3x3_2 -> inception_1a/double_3x3_2
I0418 10:06:28.005391 31154 net.cpp:163] Setting up inception_1a/double_3x3_2
I0418 10:06:28.052798 31154 net.cpp:170] Top shape: 1 64 72 28 (129024)
I0418 10:06:28.052809 31154 layer_factory.hpp:74] Creating layer inception_1a/double_3x3_2_bn
I0418 10:06:28.052812 31154 layer_factory.cpp:191] Layer inception_1a/double_3x3_2_bn is using CAFFE engine.
I0418 10:06:28.052817 31154 net.cpp:133] Creating Layer inception_1a/double_3x3_2_bn
I0418 10:06:28.052820 31154 net.cpp:453] inception_1a/double_3x3_2_bn <- inception_1a/double_3x3_2
I0418 10:06:28.052824 31154 net.cpp:411] inception_1a/double_3x3_2_bn -> inception_1a/double_3x3_2_bn
I0418 10:06:28.052829 31154 net.cpp:163] Setting up inception_1a/double_3x3_2_bn
I0418 10:06:28.052840 31154 net.cpp:170] Top shape: 1 64 72 28 (129024)
I0418 10:06:28.052846 31154 layer_factory.hpp:74] Creating layer inception_1a/relu_double_3x3_2
I0418 10:06:28.052850 31154 net.cpp:133] Creating Layer inception_1a/relu_double_3x3_2
I0418 10:06:28.052852 31154 net.cpp:453] inception_1a/relu_double_3x3_2 <- inception_1a/double_3x3_2_bn
I0418 10:06:28.052855 31154 net.cpp:400] inception_1a/relu_double_3x3_2 -> inception_1a/double_3x3_2_bn (in-place)
I0418 10:06:28.052860 31154 net.cpp:163] Setting up inception_1a/relu_double_3x3_2
I0418 10:06:28.053035 31154 net.cpp:170] Top shape: 1 64 72 28 (129024)
I0418 10:06:28.053043 31154 layer_factory.hpp:74] Creating layer inception_1a/pool
I0418 10:06:28.053046 31154 layer_factory.cpp:64] CUDNN does not support padding or multiple tops. Using Caffe's own pooling layer.
I0418 10:06:28.053050 31154 net.cpp:133] Creating Layer inception_1a/pool
I0418 10:06:28.053052 31154 net.cpp:453] inception_1a/pool <- pool1_pool1_0_split_3
I0418 10:06:28.053056 31154 net.cpp:411] inception_1a/pool -> inception_1a/pool
I0418 10:06:28.053061 31154 net.cpp:163] Setting up inception_1a/pool
I0418 10:06:28.053064 31154 net.cpp:170] Top shape: 1 32 72 28 (64512)
I0418 10:06:28.053066 31154 layer_factory.hpp:74] Creating layer inception_1a/pool_proj
I0418 10:06:28.053072 31154 net.cpp:133] Creating Layer inception_1a/pool_proj
I0418 10:06:28.053074 31154 net.cpp:453] inception_1a/pool_proj <- inception_1a/pool
I0418 10:06:28.053077 31154 net.cpp:411] inception_1a/pool_proj -> inception_1a/pool_proj
I0418 10:06:28.053082 31154 net.cpp:163] Setting up inception_1a/pool_proj
I0418 10:06:28.078454 31154 net.cpp:170] Top shape: 1 64 72 28 (129024)
I0418 10:06:28.078465 31154 layer_factory.hpp:74] Creating layer inception_1a/pool_proj_bn
I0418 10:06:28.078469 31154 layer_factory.cpp:191] Layer inception_1a/pool_proj_bn is using CAFFE engine.
I0418 10:06:28.078474 31154 net.cpp:133] Creating Layer inception_1a/pool_proj_bn
I0418 10:06:28.078476 31154 net.cpp:453] inception_1a/pool_proj_bn <- inception_1a/pool_proj
I0418 10:06:28.078480 31154 net.cpp:411] inception_1a/pool_proj_bn -> inception_1a/pool_proj_bn
I0418 10:06:28.078485 31154 net.cpp:163] Setting up inception_1a/pool_proj_bn
I0418 10:06:28.078496 31154 net.cpp:170] Top shape: 1 64 72 28 (129024)
I0418 10:06:28.078500 31154 layer_factory.hpp:74] Creating layer inception_1a/relu_pool_proj
I0418 10:06:28.078507 31154 net.cpp:133] Creating Layer inception_1a/relu_pool_proj
I0418 10:06:28.078510 31154 net.cpp:453] inception_1a/relu_pool_proj <- inception_1a/pool_proj_bn
I0418 10:06:28.078512 31154 net.cpp:400] inception_1a/relu_pool_proj -> inception_1a/pool_proj_bn (in-place)
I0418 10:06:28.078516 31154 net.cpp:163] Setting up inception_1a/relu_pool_proj
I0418 10:06:28.078690 31154 net.cpp:170] Top shape: 1 64 72 28 (129024)
I0418 10:06:28.078696 31154 layer_factory.hpp:74] Creating layer inception_1a/output
I0418 10:06:28.078701 31154 net.cpp:133] Creating Layer inception_1a/output
I0418 10:06:28.078703 31154 net.cpp:453] inception_1a/output <- inception_1a/1x1_bn
I0418 10:06:28.078706 31154 net.cpp:453] inception_1a/output <- inception_1a/3x3_bn
I0418 10:06:28.078709 31154 net.cpp:453] inception_1a/output <- inception_1a/double_3x3_2_bn
I0418 10:06:28.078712 31154 net.cpp:453] inception_1a/output <- inception_1a/pool_proj_bn
I0418 10:06:28.078716 31154 net.cpp:411] inception_1a/output -> inception_1a/output
I0418 10:06:28.078719 31154 net.cpp:163] Setting up inception_1a/output
I0418 10:06:28.078723 31154 net.cpp:170] Top shape: 1 256 72 28 (516096)
I0418 10:06:28.078727 31154 layer_factory.hpp:74] Creating layer inception_1a/output_inception_1a/output_0_split
I0418 10:06:28.078729 31154 net.cpp:133] Creating Layer inception_1a/output_inception_1a/output_0_split
I0418 10:06:28.078732 31154 net.cpp:453] inception_1a/output_inception_1a/output_0_split <- inception_1a/output
I0418 10:06:28.078737 31154 net.cpp:411] inception_1a/output_inception_1a/output_0_split -> inception_1a/output_inception_1a/output_0_split_0
I0418 10:06:28.078739 31154 net.cpp:411] inception_1a/output_inception_1a/output_0_split -> inception_1a/output_inception_1a/output_0_split_1
I0418 10:06:28.078744 31154 net.cpp:411] inception_1a/output_inception_1a/output_0_split -> inception_1a/output_inception_1a/output_0_split_2
I0418 10:06:28.078747 31154 net.cpp:163] Setting up inception_1a/output_inception_1a/output_0_split
I0418 10:06:28.078752 31154 net.cpp:170] Top shape: 1 256 72 28 (516096)
I0418 10:06:28.078753 31154 net.cpp:170] Top shape: 1 256 72 28 (516096)
I0418 10:06:28.078758 31154 net.cpp:170] Top shape: 1 256 72 28 (516096)
I0418 10:06:28.078760 31154 layer_factory.hpp:74] Creating layer inception_1b/3x3_reduce
I0418 10:06:28.078765 31154 net.cpp:133] Creating Layer inception_1b/3x3_reduce
I0418 10:06:28.078768 31154 net.cpp:453] inception_1b/3x3_reduce <- inception_1a/output_inception_1a/output_0_split_0
I0418 10:06:28.078771 31154 net.cpp:411] inception_1b/3x3_reduce -> inception_1b/3x3_reduce
I0418 10:06:28.078776 31154 net.cpp:163] Setting up inception_1b/3x3_reduce
I0418 10:06:28.246465 31154 net.cpp:170] Top shape: 1 64 72 28 (129024)
I0418 10:06:28.246476 31154 layer_factory.hpp:74] Creating layer inception_1b/3x3_reduce_bn
I0418 10:06:28.246479 31154 layer_factory.cpp:191] Layer inception_1b/3x3_reduce_bn is using CAFFE engine.
I0418 10:06:28.246484 31154 net.cpp:133] Creating Layer inception_1b/3x3_reduce_bn
I0418 10:06:28.246486 31154 net.cpp:453] inception_1b/3x3_reduce_bn <- inception_1b/3x3_reduce
I0418 10:06:28.246491 31154 net.cpp:411] inception_1b/3x3_reduce_bn -> inception_1b/3x3_reduce_bn
I0418 10:06:28.246500 31154 net.cpp:163] Setting up inception_1b/3x3_reduce_bn
I0418 10:06:28.246511 31154 net.cpp:170] Top shape: 1 64 72 28 (129024)
I0418 10:06:28.246520 31154 layer_factory.hpp:74] Creating layer inception_1b/relu_3x3_reduce
I0418 10:06:28.246526 31154 net.cpp:133] Creating Layer inception_1b/relu_3x3_reduce
I0418 10:06:28.246527 31154 net.cpp:453] inception_1b/relu_3x3_reduce <- inception_1b/3x3_reduce_bn
I0418 10:06:28.246531 31154 net.cpp:400] inception_1b/relu_3x3_reduce -> inception_1b/3x3_reduce_bn (in-place)
I0418 10:06:28.246533 31154 net.cpp:163] Setting up inception_1b/relu_3x3_reduce
I0418 10:06:28.246634 31154 net.cpp:170] Top shape: 1 64 72 28 (129024)
I0418 10:06:28.246639 31154 layer_factory.hpp:74] Creating layer inception_1b/3x3
I0418 10:06:28.246644 31154 net.cpp:133] Creating Layer inception_1b/3x3
I0418 10:06:28.246646 31154 net.cpp:453] inception_1b/3x3 <- inception_1b/3x3_reduce_bn
I0418 10:06:28.246650 31154 net.cpp:411] inception_1b/3x3 -> inception_1b/3x3
I0418 10:06:28.246654 31154 net.cpp:163] Setting up inception_1b/3x3
I0418 10:06:28.250579 31154 net.cpp:170] Top shape: 1 64 36 14 (32256)
I0418 10:06:28.250591 31154 layer_factory.hpp:74] Creating layer inception_1b/3x3_bn
I0418 10:06:28.250593 31154 layer_factory.cpp:191] Layer inception_1b/3x3_bn is using CAFFE engine.
I0418 10:06:28.250597 31154 net.cpp:133] Creating Layer inception_1b/3x3_bn
I0418 10:06:28.250600 31154 net.cpp:453] inception_1b/3x3_bn <- inception_1b/3x3
I0418 10:06:28.250604 31154 net.cpp:411] inception_1b/3x3_bn -> inception_1b/3x3_bn
I0418 10:06:28.250609 31154 net.cpp:163] Setting up inception_1b/3x3_bn
I0418 10:06:28.250619 31154 net.cpp:170] Top shape: 1 64 36 14 (32256)
I0418 10:06:28.250623 31154 layer_factory.hpp:74] Creating layer inception_1b/relu_3x3
I0418 10:06:28.250627 31154 net.cpp:133] Creating Layer inception_1b/relu_3x3
I0418 10:06:28.250629 31154 net.cpp:453] inception_1b/relu_3x3 <- inception_1b/3x3_bn
I0418 10:06:28.250633 31154 net.cpp:400] inception_1b/relu_3x3 -> inception_1b/3x3_bn (in-place)
I0418 10:06:28.250636 31154 net.cpp:163] Setting up inception_1b/relu_3x3
I0418 10:06:28.250810 31154 net.cpp:170] Top shape: 1 64 36 14 (32256)
I0418 10:06:28.250818 31154 layer_factory.hpp:74] Creating layer inception_1b/double_3x3_reduce
I0418 10:06:28.250823 31154 net.cpp:133] Creating Layer inception_1b/double_3x3_reduce
I0418 10:06:28.250826 31154 net.cpp:453] inception_1b/double_3x3_reduce <- inception_1a/output_inception_1a/output_0_split_1
I0418 10:06:28.250830 31154 net.cpp:411] inception_1b/double_3x3_reduce -> inception_1b/double_3x3_reduce
I0418 10:06:28.250835 31154 net.cpp:163] Setting up inception_1b/double_3x3_reduce
I0418 10:06:28.420336 31154 net.cpp:170] Top shape: 1 64 72 28 (129024)
I0418 10:06:28.420346 31154 layer_factory.hpp:74] Creating layer inception_1b/double_3x3_reduce_bn
I0418 10:06:28.420349 31154 layer_factory.cpp:191] Layer inception_1b/double_3x3_reduce_bn is using CAFFE engine.
I0418 10:06:28.420353 31154 net.cpp:133] Creating Layer inception_1b/double_3x3_reduce_bn
I0418 10:06:28.420359 31154 net.cpp:453] inception_1b/double_3x3_reduce_bn <- inception_1b/double_3x3_reduce
I0418 10:06:28.420363 31154 net.cpp:411] inception_1b/double_3x3_reduce_bn -> inception_1b/double_3x3_reduce_bn
I0418 10:06:28.420368 31154 net.cpp:163] Setting up inception_1b/double_3x3_reduce_bn
I0418 10:06:28.420380 31154 net.cpp:170] Top shape: 1 64 72 28 (129024)
I0418 10:06:28.420385 31154 layer_factory.hpp:74] Creating layer inception_1b/relu_double_3x3_reduce
I0418 10:06:28.420388 31154 net.cpp:133] Creating Layer inception_1b/relu_double_3x3_reduce
I0418 10:06:28.420390 31154 net.cpp:453] inception_1b/relu_double_3x3_reduce <- inception_1b/double_3x3_reduce_bn
I0418 10:06:28.420394 31154 net.cpp:400] inception_1b/relu_double_3x3_reduce -> inception_1b/double_3x3_reduce_bn (in-place)
I0418 10:06:28.420397 31154 net.cpp:163] Setting up inception_1b/relu_double_3x3_reduce
I0418 10:06:28.420573 31154 net.cpp:170] Top shape: 1 64 72 28 (129024)
I0418 10:06:28.420579 31154 layer_factory.hpp:74] Creating layer inception_1b/double_3x3_1
I0418 10:06:28.420586 31154 net.cpp:133] Creating Layer inception_1b/double_3x3_1
I0418 10:06:28.420588 31154 net.cpp:453] inception_1b/double_3x3_1 <- inception_1b/double_3x3_reduce_bn
I0418 10:06:28.420593 31154 net.cpp:411] inception_1b/double_3x3_1 -> inception_1b/double_3x3_1
I0418 10:06:28.420598 31154 net.cpp:163] Setting up inception_1b/double_3x3_1
I0418 10:06:28.468634 31154 net.cpp:170] Top shape: 1 64 72 28 (129024)
I0418 10:06:28.468646 31154 layer_factory.hpp:74] Creating layer inception_1b/double_3x3_1_bn
I0418 10:06:28.468648 31154 layer_factory.cpp:191] Layer inception_1b/double_3x3_1_bn is using CAFFE engine.
I0418 10:06:28.468653 31154 net.cpp:133] Creating Layer inception_1b/double_3x3_1_bn
I0418 10:06:28.468655 31154 net.cpp:453] inception_1b/double_3x3_1_bn <- inception_1b/double_3x3_1
I0418 10:06:28.468660 31154 net.cpp:411] inception_1b/double_3x3_1_bn -> inception_1b/double_3x3_1_bn
I0418 10:06:28.468665 31154 net.cpp:163] Setting up inception_1b/double_3x3_1_bn
I0418 10:06:28.468677 31154 net.cpp:170] Top shape: 1 64 72 28 (129024)
I0418 10:06:28.468680 31154 layer_factory.hpp:74] Creating layer inception_1b/relu_double_3x3_1
I0418 10:06:28.468684 31154 net.cpp:133] Creating Layer inception_1b/relu_double_3x3_1
I0418 10:06:28.468686 31154 net.cpp:453] inception_1b/relu_double_3x3_1 <- inception_1b/double_3x3_1_bn
I0418 10:06:28.468689 31154 net.cpp:400] inception_1b/relu_double_3x3_1 -> inception_1b/double_3x3_1_bn (in-place)
I0418 10:06:28.468693 31154 net.cpp:163] Setting up inception_1b/relu_double_3x3_1
I0418 10:06:28.468794 31154 net.cpp:170] Top shape: 1 64 72 28 (129024)
I0418 10:06:28.468799 31154 layer_factory.hpp:74] Creating layer inception_1b/double_3x3_2
I0418 10:06:28.468806 31154 net.cpp:133] Creating Layer inception_1b/double_3x3_2
I0418 10:06:28.468807 31154 net.cpp:453] inception_1b/double_3x3_2 <- inception_1b/double_3x3_1_bn
I0418 10:06:28.468812 31154 net.cpp:411] inception_1b/double_3x3_2 -> inception_1b/double_3x3_2
I0418 10:06:28.468816 31154 net.cpp:163] Setting up inception_1b/double_3x3_2
I0418 10:06:28.472798 31154 net.cpp:170] Top shape: 1 64 36 14 (32256)
I0418 10:06:28.472810 31154 layer_factory.hpp:74] Creating layer inception_1b/double_3x3_2_bn
I0418 10:06:28.472812 31154 layer_factory.cpp:191] Layer inception_1b/double_3x3_2_bn is using CAFFE engine.
I0418 10:06:28.472817 31154 net.cpp:133] Creating Layer inception_1b/double_3x3_2_bn
I0418 10:06:28.472820 31154 net.cpp:453] inception_1b/double_3x3_2_bn <- inception_1b/double_3x3_2
I0418 10:06:28.472825 31154 net.cpp:411] inception_1b/double_3x3_2_bn -> inception_1b/double_3x3_2_bn
I0418 10:06:28.472829 31154 net.cpp:163] Setting up inception_1b/double_3x3_2_bn
I0418 10:06:28.472838 31154 net.cpp:170] Top shape: 1 64 36 14 (32256)
I0418 10:06:28.472843 31154 layer_factory.hpp:74] Creating layer inception_1b/relu_double_3x3_2
I0418 10:06:28.472846 31154 net.cpp:133] Creating Layer inception_1b/relu_double_3x3_2
I0418 10:06:28.472851 31154 net.cpp:453] inception_1b/relu_double_3x3_2 <- inception_1b/double_3x3_2_bn
I0418 10:06:28.472856 31154 net.cpp:400] inception_1b/relu_double_3x3_2 -> inception_1b/double_3x3_2_bn (in-place)
I0418 10:06:28.472858 31154 net.cpp:163] Setting up inception_1b/relu_double_3x3_2
I0418 10:06:28.473040 31154 net.cpp:170] Top shape: 1 64 36 14 (32256)
I0418 10:06:28.473047 31154 layer_factory.hpp:74] Creating layer inception_1b/pool
I0418 10:06:28.473052 31154 net.cpp:133] Creating Layer inception_1b/pool
I0418 10:06:28.473054 31154 net.cpp:453] inception_1b/pool <- inception_1a/output_inception_1a/output_0_split_2
I0418 10:06:28.473059 31154 net.cpp:411] inception_1b/pool -> inception_1b/pool
I0418 10:06:28.473063 31154 net.cpp:163] Setting up inception_1b/pool
I0418 10:06:28.473160 31154 net.cpp:170] Top shape: 1 256 36 14 (129024)
I0418 10:06:28.473165 31154 layer_factory.hpp:74] Creating layer inception_1b/output
I0418 10:06:28.473170 31154 net.cpp:133] Creating Layer inception_1b/output
I0418 10:06:28.473171 31154 net.cpp:453] inception_1b/output <- inception_1b/3x3_bn
I0418 10:06:28.473175 31154 net.cpp:453] inception_1b/output <- inception_1b/double_3x3_2_bn
I0418 10:06:28.473176 31154 net.cpp:453] inception_1b/output <- inception_1b/pool
I0418 10:06:28.473181 31154 net.cpp:411] inception_1b/output -> inception_1b/output
I0418 10:06:28.473184 31154 net.cpp:163] Setting up inception_1b/output
I0418 10:06:28.473188 31154 net.cpp:170] Top shape: 1 384 36 14 (193536)
I0418 10:06:28.473191 31154 layer_factory.hpp:74] Creating layer inception_1b/output_inception_1b/output_0_split
I0418 10:06:28.473193 31154 net.cpp:133] Creating Layer inception_1b/output_inception_1b/output_0_split
I0418 10:06:28.473196 31154 net.cpp:453] inception_1b/output_inception_1b/output_0_split <- inception_1b/output
I0418 10:06:28.473199 31154 net.cpp:411] inception_1b/output_inception_1b/output_0_split -> inception_1b/output_inception_1b/output_0_split_0
I0418 10:06:28.473203 31154 net.cpp:411] inception_1b/output_inception_1b/output_0_split -> inception_1b/output_inception_1b/output_0_split_1
I0418 10:06:28.473207 31154 net.cpp:411] inception_1b/output_inception_1b/output_0_split -> inception_1b/output_inception_1b/output_0_split_2
I0418 10:06:28.473212 31154 net.cpp:411] inception_1b/output_inception_1b/output_0_split -> inception_1b/output_inception_1b/output_0_split_3
I0418 10:06:28.473214 31154 net.cpp:163] Setting up inception_1b/output_inception_1b/output_0_split
I0418 10:06:28.473218 31154 net.cpp:170] Top shape: 1 384 36 14 (193536)
I0418 10:06:28.473220 31154 net.cpp:170] Top shape: 1 384 36 14 (193536)
I0418 10:06:28.473222 31154 net.cpp:170] Top shape: 1 384 36 14 (193536)
I0418 10:06:28.473225 31154 net.cpp:170] Top shape: 1 384 36 14 (193536)
I0418 10:06:28.473227 31154 layer_factory.hpp:74] Creating layer inception_2a/1x1
I0418 10:06:28.473232 31154 net.cpp:133] Creating Layer inception_2a/1x1
I0418 10:06:28.473234 31154 net.cpp:453] inception_2a/1x1 <- inception_1b/output_inception_1b/output_0_split_0
I0418 10:06:28.473237 31154 net.cpp:411] inception_2a/1x1 -> inception_2a/1x1
I0418 10:06:28.473242 31154 net.cpp:163] Setting up inception_2a/1x1
I0418 10:06:28.553520 31154 net.cpp:170] Top shape: 1 128 36 14 (64512)
I0418 10:06:28.553531 31154 layer_factory.hpp:74] Creating layer inception_2a/1x1_bn
I0418 10:06:28.553534 31154 layer_factory.cpp:191] Layer inception_2a/1x1_bn is using CAFFE engine.
I0418 10:06:28.553539 31154 net.cpp:133] Creating Layer inception_2a/1x1_bn
I0418 10:06:28.553541 31154 net.cpp:453] inception_2a/1x1_bn <- inception_2a/1x1
I0418 10:06:28.553545 31154 net.cpp:411] inception_2a/1x1_bn -> inception_2a/1x1_bn
I0418 10:06:28.553550 31154 net.cpp:163] Setting up inception_2a/1x1_bn
I0418 10:06:28.553560 31154 net.cpp:170] Top shape: 1 128 36 14 (64512)
I0418 10:06:28.553565 31154 layer_factory.hpp:74] Creating layer inception_2a/relu_1x1
I0418 10:06:28.553568 31154 net.cpp:133] Creating Layer inception_2a/relu_1x1
I0418 10:06:28.553570 31154 net.cpp:453] inception_2a/relu_1x1 <- inception_2a/1x1_bn
I0418 10:06:28.553576 31154 net.cpp:400] inception_2a/relu_1x1 -> inception_2a/1x1_bn (in-place)
I0418 10:06:28.553580 31154 net.cpp:163] Setting up inception_2a/relu_1x1
I0418 10:06:28.553684 31154 net.cpp:170] Top shape: 1 128 36 14 (64512)
I0418 10:06:28.553689 31154 layer_factory.hpp:74] Creating layer inception_2a/3x3_reduce
I0418 10:06:28.553694 31154 net.cpp:133] Creating Layer inception_2a/3x3_reduce
I0418 10:06:28.553697 31154 net.cpp:453] inception_2a/3x3_reduce <- inception_1b/output_inception_1b/output_0_split_1
I0418 10:06:28.553700 31154 net.cpp:411] inception_2a/3x3_reduce -> inception_2a/3x3_reduce
I0418 10:06:28.553704 31154 net.cpp:163] Setting up inception_2a/3x3_reduce
I0418 10:06:28.633767 31154 net.cpp:170] Top shape: 1 128 36 14 (64512)
I0418 10:06:28.633777 31154 layer_factory.hpp:74] Creating layer inception_2a/3x3_reduce_bn
I0418 10:06:28.633781 31154 layer_factory.cpp:191] Layer inception_2a/3x3_reduce_bn is using CAFFE engine.
I0418 10:06:28.633785 31154 net.cpp:133] Creating Layer inception_2a/3x3_reduce_bn
I0418 10:06:28.633788 31154 net.cpp:453] inception_2a/3x3_reduce_bn <- inception_2a/3x3_reduce
I0418 10:06:28.633792 31154 net.cpp:411] inception_2a/3x3_reduce_bn -> inception_2a/3x3_reduce_bn
I0418 10:06:28.633797 31154 net.cpp:163] Setting up inception_2a/3x3_reduce_bn
I0418 10:06:28.633807 31154 net.cpp:170] Top shape: 1 128 36 14 (64512)
I0418 10:06:28.633812 31154 layer_factory.hpp:74] Creating layer inception_2a/relu_3x3_reduce
I0418 10:06:28.633816 31154 net.cpp:133] Creating Layer inception_2a/relu_3x3_reduce
I0418 10:06:28.633818 31154 net.cpp:453] inception_2a/relu_3x3_reduce <- inception_2a/3x3_reduce_bn
I0418 10:06:28.633821 31154 net.cpp:400] inception_2a/relu_3x3_reduce -> inception_2a/3x3_reduce_bn (in-place)
I0418 10:06:28.633826 31154 net.cpp:163] Setting up inception_2a/relu_3x3_reduce
I0418 10:06:28.634001 31154 net.cpp:170] Top shape: 1 128 36 14 (64512)
I0418 10:06:28.634007 31154 layer_factory.hpp:74] Creating layer inception_2a/3x3
I0418 10:06:28.634013 31154 net.cpp:133] Creating Layer inception_2a/3x3
I0418 10:06:28.634016 31154 net.cpp:453] inception_2a/3x3 <- inception_2a/3x3_reduce_bn
I0418 10:06:28.634021 31154 net.cpp:411] inception_2a/3x3 -> inception_2a/3x3
I0418 10:06:28.634026 31154 net.cpp:163] Setting up inception_2a/3x3
I0418 10:06:28.665849 31154 net.cpp:170] Top shape: 1 128 36 14 (64512)
I0418 10:06:28.665860 31154 layer_factory.hpp:74] Creating layer inception_2a/3x3_bn
I0418 10:06:28.665863 31154 layer_factory.cpp:191] Layer inception_2a/3x3_bn is using CAFFE engine.
I0418 10:06:28.665868 31154 net.cpp:133] Creating Layer inception_2a/3x3_bn
I0418 10:06:28.665870 31154 net.cpp:453] inception_2a/3x3_bn <- inception_2a/3x3
I0418 10:06:28.665875 31154 net.cpp:411] inception_2a/3x3_bn -> inception_2a/3x3_bn
I0418 10:06:28.665879 31154 net.cpp:163] Setting up inception_2a/3x3_bn
I0418 10:06:28.665889 31154 net.cpp:170] Top shape: 1 128 36 14 (64512)
I0418 10:06:28.665894 31154 layer_factory.hpp:74] Creating layer inception_2a/relu_3x3
I0418 10:06:28.665897 31154 net.cpp:133] Creating Layer inception_2a/relu_3x3
I0418 10:06:28.665900 31154 net.cpp:453] inception_2a/relu_3x3 <- inception_2a/3x3_bn
I0418 10:06:28.665904 31154 net.cpp:400] inception_2a/relu_3x3 -> inception_2a/3x3_bn (in-place)
I0418 10:06:28.665906 31154 net.cpp:163] Setting up inception_2a/relu_3x3
I0418 10:06:28.666009 31154 net.cpp:170] Top shape: 1 128 36 14 (64512)
I0418 10:06:28.666014 31154 layer_factory.hpp:74] Creating layer inception_2a/double_3x3_reduce
I0418 10:06:28.666019 31154 net.cpp:133] Creating Layer inception_2a/double_3x3_reduce
I0418 10:06:28.666023 31154 net.cpp:453] inception_2a/double_3x3_reduce <- inception_1b/output_inception_1b/output_0_split_2
I0418 10:06:28.666026 31154 net.cpp:411] inception_2a/double_3x3_reduce -> inception_2a/double_3x3_reduce
I0418 10:06:28.666031 31154 net.cpp:163] Setting up inception_2a/double_3x3_reduce
I0418 10:06:28.746062 31154 net.cpp:170] Top shape: 1 128 36 14 (64512)
I0418 10:06:28.746073 31154 layer_factory.hpp:74] Creating layer inception_2a/double_3x3_reduce_bn
I0418 10:06:28.746079 31154 layer_factory.cpp:191] Layer inception_2a/double_3x3_reduce_bn is using CAFFE engine.
I0418 10:06:28.746084 31154 net.cpp:133] Creating Layer inception_2a/double_3x3_reduce_bn
I0418 10:06:28.746088 31154 net.cpp:453] inception_2a/double_3x3_reduce_bn <- inception_2a/double_3x3_reduce
I0418 10:06:28.746091 31154 net.cpp:411] inception_2a/double_3x3_reduce_bn -> inception_2a/double_3x3_reduce_bn
I0418 10:06:28.746096 31154 net.cpp:163] Setting up inception_2a/double_3x3_reduce_bn
I0418 10:06:28.746106 31154 net.cpp:170] Top shape: 1 128 36 14 (64512)
I0418 10:06:28.746110 31154 layer_factory.hpp:74] Creating layer inception_2a/relu_double_3x3_reduce
I0418 10:06:28.746120 31154 net.cpp:133] Creating Layer inception_2a/relu_double_3x3_reduce
I0418 10:06:28.746124 31154 net.cpp:453] inception_2a/relu_double_3x3_reduce <- inception_2a/double_3x3_reduce_bn
I0418 10:06:28.746126 31154 net.cpp:400] inception_2a/relu_double_3x3_reduce -> inception_2a/double_3x3_reduce_bn (in-place)
I0418 10:06:28.746129 31154 net.cpp:163] Setting up inception_2a/relu_double_3x3_reduce
I0418 10:06:28.746232 31154 net.cpp:170] Top shape: 1 128 36 14 (64512)
I0418 10:06:28.746237 31154 layer_factory.hpp:74] Creating layer inception_2a/double_3x3_1
I0418 10:06:28.746243 31154 net.cpp:133] Creating Layer inception_2a/double_3x3_1
I0418 10:06:28.746245 31154 net.cpp:453] inception_2a/double_3x3_1 <- inception_2a/double_3x3_reduce_bn
I0418 10:06:28.746249 31154 net.cpp:411] inception_2a/double_3x3_1 -> inception_2a/double_3x3_1
I0418 10:06:28.746253 31154 net.cpp:163] Setting up inception_2a/double_3x3_1
I0418 10:06:28.777969 31154 net.cpp:170] Top shape: 1 128 36 14 (64512)
I0418 10:06:28.777979 31154 layer_factory.hpp:74] Creating layer inception_2a/double_3x3_1_bn
I0418 10:06:28.777982 31154 layer_factory.cpp:191] Layer inception_2a/double_3x3_1_bn is using CAFFE engine.
I0418 10:06:28.777987 31154 net.cpp:133] Creating Layer inception_2a/double_3x3_1_bn
I0418 10:06:28.777990 31154 net.cpp:453] inception_2a/double_3x3_1_bn <- inception_2a/double_3x3_1
I0418 10:06:28.777994 31154 net.cpp:411] inception_2a/double_3x3_1_bn -> inception_2a/double_3x3_1_bn
I0418 10:06:28.777999 31154 net.cpp:163] Setting up inception_2a/double_3x3_1_bn
I0418 10:06:28.778009 31154 net.cpp:170] Top shape: 1 128 36 14 (64512)
I0418 10:06:28.778014 31154 layer_factory.hpp:74] Creating layer inception_2a/relu_double_3x3_1
I0418 10:06:28.778017 31154 net.cpp:133] Creating Layer inception_2a/relu_double_3x3_1
I0418 10:06:28.778019 31154 net.cpp:453] inception_2a/relu_double_3x3_1 <- inception_2a/double_3x3_1_bn
I0418 10:06:28.778023 31154 net.cpp:400] inception_2a/relu_double_3x3_1 -> inception_2a/double_3x3_1_bn (in-place)
I0418 10:06:28.778026 31154 net.cpp:163] Setting up inception_2a/relu_double_3x3_1
I0418 10:06:28.778211 31154 net.cpp:170] Top shape: 1 128 36 14 (64512)
I0418 10:06:28.778218 31154 layer_factory.hpp:74] Creating layer inception_2a/double_3x3_2
I0418 10:06:28.778223 31154 net.cpp:133] Creating Layer inception_2a/double_3x3_2
I0418 10:06:28.778226 31154 net.cpp:453] inception_2a/double_3x3_2 <- inception_2a/double_3x3_1_bn
I0418 10:06:28.778230 31154 net.cpp:411] inception_2a/double_3x3_2 -> inception_2a/double_3x3_2
I0418 10:06:28.778235 31154 net.cpp:163] Setting up inception_2a/double_3x3_2
I0418 10:06:28.809986 31154 net.cpp:170] Top shape: 1 128 36 14 (64512)
I0418 10:06:28.809999 31154 layer_factory.hpp:74] Creating layer inception_2a/double_3x3_2_bn
I0418 10:06:28.810003 31154 layer_factory.cpp:191] Layer inception_2a/double_3x3_2_bn is using CAFFE engine.
I0418 10:06:28.810008 31154 net.cpp:133] Creating Layer inception_2a/double_3x3_2_bn
I0418 10:06:28.810012 31154 net.cpp:453] inception_2a/double_3x3_2_bn <- inception_2a/double_3x3_2
I0418 10:06:28.810016 31154 net.cpp:411] inception_2a/double_3x3_2_bn -> inception_2a/double_3x3_2_bn
I0418 10:06:28.810021 31154 net.cpp:163] Setting up inception_2a/double_3x3_2_bn
I0418 10:06:28.810031 31154 net.cpp:170] Top shape: 1 128 36 14 (64512)
I0418 10:06:28.810039 31154 layer_factory.hpp:74] Creating layer inception_2a/relu_double_3x3_2
I0418 10:06:28.810042 31154 net.cpp:133] Creating Layer inception_2a/relu_double_3x3_2
I0418 10:06:28.810045 31154 net.cpp:453] inception_2a/relu_double_3x3_2 <- inception_2a/double_3x3_2_bn
I0418 10:06:28.810047 31154 net.cpp:400] inception_2a/relu_double_3x3_2 -> inception_2a/double_3x3_2_bn (in-place)
I0418 10:06:28.810051 31154 net.cpp:163] Setting up inception_2a/relu_double_3x3_2
I0418 10:06:28.810154 31154 net.cpp:170] Top shape: 1 128 36 14 (64512)
I0418 10:06:28.810160 31154 layer_factory.hpp:74] Creating layer inception_2a/pool
I0418 10:06:28.810163 31154 layer_factory.cpp:64] CUDNN does not support padding or multiple tops. Using Caffe's own pooling layer.
I0418 10:06:28.810166 31154 net.cpp:133] Creating Layer inception_2a/pool
I0418 10:06:28.810169 31154 net.cpp:453] inception_2a/pool <- inception_1b/output_inception_1b/output_0_split_3
I0418 10:06:28.810173 31154 net.cpp:411] inception_2a/pool -> inception_2a/pool
I0418 10:06:28.810178 31154 net.cpp:163] Setting up inception_2a/pool
I0418 10:06:28.810181 31154 net.cpp:170] Top shape: 1 384 36 14 (193536)
I0418 10:06:28.810184 31154 layer_factory.hpp:74] Creating layer inception_2a/pool_proj
I0418 10:06:28.810189 31154 net.cpp:133] Creating Layer inception_2a/pool_proj
I0418 10:06:28.810191 31154 net.cpp:453] inception_2a/pool_proj <- inception_2a/pool
I0418 10:06:28.810195 31154 net.cpp:411] inception_2a/pool_proj -> inception_2a/pool_proj
I0418 10:06:28.810199 31154 net.cpp:163] Setting up inception_2a/pool_proj
I0418 10:06:28.890333 31154 net.cpp:170] Top shape: 1 128 36 14 (64512)
I0418 10:06:28.890346 31154 layer_factory.hpp:74] Creating layer inception_2a/pool_proj_bn
I0418 10:06:28.890348 31154 layer_factory.cpp:191] Layer inception_2a/pool_proj_bn is using CAFFE engine.
I0418 10:06:28.890353 31154 net.cpp:133] Creating Layer inception_2a/pool_proj_bn
I0418 10:06:28.890357 31154 net.cpp:453] inception_2a/pool_proj_bn <- inception_2a/pool_proj
I0418 10:06:28.890360 31154 net.cpp:411] inception_2a/pool_proj_bn -> inception_2a/pool_proj_bn
I0418 10:06:28.890365 31154 net.cpp:163] Setting up inception_2a/pool_proj_bn
I0418 10:06:28.890375 31154 net.cpp:170] Top shape: 1 128 36 14 (64512)
I0418 10:06:28.890389 31154 layer_factory.hpp:74] Creating layer inception_2a/relu_pool_proj
I0418 10:06:28.890393 31154 net.cpp:133] Creating Layer inception_2a/relu_pool_proj
I0418 10:06:28.890395 31154 net.cpp:453] inception_2a/relu_pool_proj <- inception_2a/pool_proj_bn
I0418 10:06:28.890398 31154 net.cpp:400] inception_2a/relu_pool_proj -> inception_2a/pool_proj_bn (in-place)
I0418 10:06:28.890403 31154 net.cpp:163] Setting up inception_2a/relu_pool_proj
I0418 10:06:28.890504 31154 net.cpp:170] Top shape: 1 128 36 14 (64512)
I0418 10:06:28.890511 31154 layer_factory.hpp:74] Creating layer inception_2a/output
I0418 10:06:28.890513 31154 net.cpp:133] Creating Layer inception_2a/output
I0418 10:06:28.890516 31154 net.cpp:453] inception_2a/output <- inception_2a/1x1_bn
I0418 10:06:28.890519 31154 net.cpp:453] inception_2a/output <- inception_2a/3x3_bn
I0418 10:06:28.890522 31154 net.cpp:453] inception_2a/output <- inception_2a/double_3x3_2_bn
I0418 10:06:28.890524 31154 net.cpp:453] inception_2a/output <- inception_2a/pool_proj_bn
I0418 10:06:28.890527 31154 net.cpp:411] inception_2a/output -> inception_2a/output
I0418 10:06:28.890532 31154 net.cpp:163] Setting up inception_2a/output
I0418 10:06:28.890537 31154 net.cpp:170] Top shape: 1 512 36 14 (258048)
I0418 10:06:28.890538 31154 layer_factory.hpp:74] Creating layer inception_2a/output_inception_2a/output_0_split
I0418 10:06:28.890542 31154 net.cpp:133] Creating Layer inception_2a/output_inception_2a/output_0_split
I0418 10:06:28.890543 31154 net.cpp:453] inception_2a/output_inception_2a/output_0_split <- inception_2a/output
I0418 10:06:28.890547 31154 net.cpp:411] inception_2a/output_inception_2a/output_0_split -> inception_2a/output_inception_2a/output_0_split_0
I0418 10:06:28.890552 31154 net.cpp:411] inception_2a/output_inception_2a/output_0_split -> inception_2a/output_inception_2a/output_0_split_1
I0418 10:06:28.890564 31154 net.cpp:411] inception_2a/output_inception_2a/output_0_split -> inception_2a/output_inception_2a/output_0_split_2
I0418 10:06:28.890568 31154 net.cpp:163] Setting up inception_2a/output_inception_2a/output_0_split
I0418 10:06:28.890573 31154 net.cpp:170] Top shape: 1 512 36 14 (258048)
I0418 10:06:28.890574 31154 net.cpp:170] Top shape: 1 512 36 14 (258048)
I0418 10:06:28.890578 31154 net.cpp:170] Top shape: 1 512 36 14 (258048)
I0418 10:06:28.890579 31154 layer_factory.hpp:74] Creating layer inception_2b/3x3_reduce
I0418 10:06:28.890584 31154 net.cpp:133] Creating Layer inception_2b/3x3_reduce
I0418 10:06:28.890586 31154 net.cpp:453] inception_2b/3x3_reduce <- inception_2a/output_inception_2a/output_0_split_0
I0418 10:06:28.890589 31154 net.cpp:411] inception_2b/3x3_reduce -> inception_2b/3x3_reduce
I0418 10:06:28.890594 31154 net.cpp:163] Setting up inception_2b/3x3_reduce
I0418 10:06:28.995952 31154 net.cpp:170] Top shape: 1 128 36 14 (64512)
I0418 10:06:28.995965 31154 layer_factory.hpp:74] Creating layer inception_2b/3x3_reduce_bn
I0418 10:06:28.995967 31154 layer_factory.cpp:191] Layer inception_2b/3x3_reduce_bn is using CAFFE engine.
I0418 10:06:28.995972 31154 net.cpp:133] Creating Layer inception_2b/3x3_reduce_bn
I0418 10:06:28.995975 31154 net.cpp:453] inception_2b/3x3_reduce_bn <- inception_2b/3x3_reduce
I0418 10:06:28.995980 31154 net.cpp:411] inception_2b/3x3_reduce_bn -> inception_2b/3x3_reduce_bn
I0418 10:06:28.995985 31154 net.cpp:163] Setting up inception_2b/3x3_reduce_bn
I0418 10:06:28.995993 31154 net.cpp:170] Top shape: 1 128 36 14 (64512)
I0418 10:06:28.995998 31154 layer_factory.hpp:74] Creating layer inception_2b/relu_3x3_reduce
I0418 10:06:28.996001 31154 net.cpp:133] Creating Layer inception_2b/relu_3x3_reduce
I0418 10:06:28.996003 31154 net.cpp:453] inception_2b/relu_3x3_reduce <- inception_2b/3x3_reduce_bn
I0418 10:06:28.996006 31154 net.cpp:400] inception_2b/relu_3x3_reduce -> inception_2b/3x3_reduce_bn (in-place)
I0418 10:06:28.996009 31154 net.cpp:163] Setting up inception_2b/relu_3x3_reduce
I0418 10:06:28.996191 31154 net.cpp:170] Top shape: 1 128 36 14 (64512)
I0418 10:06:28.996196 31154 layer_factory.hpp:74] Creating layer inception_2b/3x3
I0418 10:06:28.996201 31154 net.cpp:133] Creating Layer inception_2b/3x3
I0418 10:06:28.996204 31154 net.cpp:453] inception_2b/3x3 <- inception_2b/3x3_reduce_bn
I0418 10:06:28.996208 31154 net.cpp:411] inception_2b/3x3 -> inception_2b/3x3
I0418 10:06:28.996213 31154 net.cpp:163] Setting up inception_2b/3x3
I0418 10:06:29.000470 31154 net.cpp:170] Top shape: 1 128 18 7 (16128)
I0418 10:06:29.000481 31154 layer_factory.hpp:74] Creating layer inception_2b/3x3_bn
I0418 10:06:29.000484 31154 layer_factory.cpp:191] Layer inception_2b/3x3_bn is using CAFFE engine.
I0418 10:06:29.000489 31154 net.cpp:133] Creating Layer inception_2b/3x3_bn
I0418 10:06:29.000491 31154 net.cpp:453] inception_2b/3x3_bn <- inception_2b/3x3
I0418 10:06:29.000496 31154 net.cpp:411] inception_2b/3x3_bn -> inception_2b/3x3_bn
I0418 10:06:29.000500 31154 net.cpp:163] Setting up inception_2b/3x3_bn
I0418 10:06:29.000510 31154 net.cpp:170] Top shape: 1 128 18 7 (16128)
I0418 10:06:29.000514 31154 layer_factory.hpp:74] Creating layer inception_2b/relu_3x3
I0418 10:06:29.000519 31154 net.cpp:133] Creating Layer inception_2b/relu_3x3
I0418 10:06:29.000520 31154 net.cpp:453] inception_2b/relu_3x3 <- inception_2b/3x3_bn
I0418 10:06:29.000524 31154 net.cpp:400] inception_2b/relu_3x3 -> inception_2b/3x3_bn (in-place)
I0418 10:06:29.000526 31154 net.cpp:163] Setting up inception_2b/relu_3x3
I0418 10:06:29.000633 31154 net.cpp:170] Top shape: 1 128 18 7 (16128)
I0418 10:06:29.000638 31154 layer_factory.hpp:74] Creating layer inception_2b/double_3x3_reduce
I0418 10:06:29.000643 31154 net.cpp:133] Creating Layer inception_2b/double_3x3_reduce
I0418 10:06:29.000646 31154 net.cpp:453] inception_2b/double_3x3_reduce <- inception_2a/output_inception_2a/output_0_split_1
I0418 10:06:29.000655 31154 net.cpp:411] inception_2b/double_3x3_reduce -> inception_2b/double_3x3_reduce
I0418 10:06:29.000660 31154 net.cpp:163] Setting up inception_2b/double_3x3_reduce
I0418 10:06:29.106175 31154 net.cpp:170] Top shape: 1 128 36 14 (64512)
I0418 10:06:29.106186 31154 layer_factory.hpp:74] Creating layer inception_2b/double_3x3_reduce_bn
I0418 10:06:29.106189 31154 layer_factory.cpp:191] Layer inception_2b/double_3x3_reduce_bn is using CAFFE engine.
I0418 10:06:29.106194 31154 net.cpp:133] Creating Layer inception_2b/double_3x3_reduce_bn
I0418 10:06:29.106196 31154 net.cpp:453] inception_2b/double_3x3_reduce_bn <- inception_2b/double_3x3_reduce
I0418 10:06:29.106201 31154 net.cpp:411] inception_2b/double_3x3_reduce_bn -> inception_2b/double_3x3_reduce_bn
I0418 10:06:29.106206 31154 net.cpp:163] Setting up inception_2b/double_3x3_reduce_bn
I0418 10:06:29.106215 31154 net.cpp:170] Top shape: 1 128 36 14 (64512)
I0418 10:06:29.106220 31154 layer_factory.hpp:74] Creating layer inception_2b/relu_double_3x3_reduce
I0418 10:06:29.106225 31154 net.cpp:133] Creating Layer inception_2b/relu_double_3x3_reduce
I0418 10:06:29.106226 31154 net.cpp:453] inception_2b/relu_double_3x3_reduce <- inception_2b/double_3x3_reduce_bn
I0418 10:06:29.106230 31154 net.cpp:400] inception_2b/relu_double_3x3_reduce -> inception_2b/double_3x3_reduce_bn (in-place)
I0418 10:06:29.106232 31154 net.cpp:163] Setting up inception_2b/relu_double_3x3_reduce
I0418 10:06:29.106336 31154 net.cpp:170] Top shape: 1 128 36 14 (64512)
I0418 10:06:29.106343 31154 layer_factory.hpp:74] Creating layer inception_2b/double_3x3_1
I0418 10:06:29.106348 31154 net.cpp:133] Creating Layer inception_2b/double_3x3_1
I0418 10:06:29.106350 31154 net.cpp:453] inception_2b/double_3x3_1 <- inception_2b/double_3x3_reduce_bn
I0418 10:06:29.106354 31154 net.cpp:411] inception_2b/double_3x3_1 -> inception_2b/double_3x3_1
I0418 10:06:29.106359 31154 net.cpp:163] Setting up inception_2b/double_3x3_1
I0418 10:06:29.138085 31154 net.cpp:170] Top shape: 1 128 36 14 (64512)
I0418 10:06:29.138097 31154 layer_factory.hpp:74] Creating layer inception_2b/double_3x3_1_bn
I0418 10:06:29.138099 31154 layer_factory.cpp:191] Layer inception_2b/double_3x3_1_bn is using CAFFE engine.
I0418 10:06:29.138104 31154 net.cpp:133] Creating Layer inception_2b/double_3x3_1_bn
I0418 10:06:29.138106 31154 net.cpp:453] inception_2b/double_3x3_1_bn <- inception_2b/double_3x3_1
I0418 10:06:29.138111 31154 net.cpp:411] inception_2b/double_3x3_1_bn -> inception_2b/double_3x3_1_bn
I0418 10:06:29.138115 31154 net.cpp:163] Setting up inception_2b/double_3x3_1_bn
I0418 10:06:29.138128 31154 net.cpp:170] Top shape: 1 128 36 14 (64512)
I0418 10:06:29.138133 31154 layer_factory.hpp:74] Creating layer inception_2b/relu_double_3x3_1
I0418 10:06:29.138135 31154 net.cpp:133] Creating Layer inception_2b/relu_double_3x3_1
I0418 10:06:29.138137 31154 net.cpp:453] inception_2b/relu_double_3x3_1 <- inception_2b/double_3x3_1_bn
I0418 10:06:29.138140 31154 net.cpp:400] inception_2b/relu_double_3x3_1 -> inception_2b/double_3x3_1_bn (in-place)
I0418 10:06:29.138144 31154 net.cpp:163] Setting up inception_2b/relu_double_3x3_1
I0418 10:06:29.138325 31154 net.cpp:170] Top shape: 1 128 36 14 (64512)
I0418 10:06:29.138332 31154 layer_factory.hpp:74] Creating layer inception_2b/double_3x3_2
I0418 10:06:29.138337 31154 net.cpp:133] Creating Layer inception_2b/double_3x3_2
I0418 10:06:29.138340 31154 net.cpp:453] inception_2b/double_3x3_2 <- inception_2b/double_3x3_1_bn
I0418 10:06:29.138345 31154 net.cpp:411] inception_2b/double_3x3_2 -> inception_2b/double_3x3_2
I0418 10:06:29.138348 31154 net.cpp:163] Setting up inception_2b/double_3x3_2
I0418 10:06:29.142531 31154 net.cpp:170] Top shape: 1 128 18 7 (16128)
I0418 10:06:29.142544 31154 layer_factory.hpp:74] Creating layer inception_2b/double_3x3_2_bn
I0418 10:06:29.142546 31154 layer_factory.cpp:191] Layer inception_2b/double_3x3_2_bn is using CAFFE engine.
I0418 10:06:29.142550 31154 net.cpp:133] Creating Layer inception_2b/double_3x3_2_bn
I0418 10:06:29.142554 31154 net.cpp:453] inception_2b/double_3x3_2_bn <- inception_2b/double_3x3_2
I0418 10:06:29.142560 31154 net.cpp:411] inception_2b/double_3x3_2_bn -> inception_2b/double_3x3_2_bn
I0418 10:06:29.142565 31154 net.cpp:163] Setting up inception_2b/double_3x3_2_bn
I0418 10:06:29.142575 31154 net.cpp:170] Top shape: 1 128 18 7 (16128)
I0418 10:06:29.142580 31154 layer_factory.hpp:74] Creating layer inception_2b/relu_double_3x3_2
I0418 10:06:29.142582 31154 net.cpp:133] Creating Layer inception_2b/relu_double_3x3_2
I0418 10:06:29.142585 31154 net.cpp:453] inception_2b/relu_double_3x3_2 <- inception_2b/double_3x3_2_bn
I0418 10:06:29.142588 31154 net.cpp:400] inception_2b/relu_double_3x3_2 -> inception_2b/double_3x3_2_bn (in-place)
I0418 10:06:29.142591 31154 net.cpp:163] Setting up inception_2b/relu_double_3x3_2
I0418 10:06:29.142698 31154 net.cpp:170] Top shape: 1 128 18 7 (16128)
I0418 10:06:29.142702 31154 layer_factory.hpp:74] Creating layer inception_2b/pool
I0418 10:06:29.142707 31154 net.cpp:133] Creating Layer inception_2b/pool
I0418 10:06:29.142710 31154 net.cpp:453] inception_2b/pool <- inception_2a/output_inception_2a/output_0_split_2
I0418 10:06:29.142714 31154 net.cpp:411] inception_2b/pool -> inception_2b/pool
I0418 10:06:29.142719 31154 net.cpp:163] Setting up inception_2b/pool
I0418 10:06:29.142894 31154 net.cpp:170] Top shape: 1 512 18 7 (64512)
I0418 10:06:29.142902 31154 layer_factory.hpp:74] Creating layer inception_2b/output
I0418 10:06:29.142906 31154 net.cpp:133] Creating Layer inception_2b/output
I0418 10:06:29.142909 31154 net.cpp:453] inception_2b/output <- inception_2b/3x3_bn
I0418 10:06:29.142912 31154 net.cpp:453] inception_2b/output <- inception_2b/double_3x3_2_bn
I0418 10:06:29.142915 31154 net.cpp:453] inception_2b/output <- inception_2b/pool
I0418 10:06:29.142918 31154 net.cpp:411] inception_2b/output -> inception_2b/output
I0418 10:06:29.142922 31154 net.cpp:163] Setting up inception_2b/output
I0418 10:06:29.142926 31154 net.cpp:170] Top shape: 1 768 18 7 (96768)
I0418 10:06:29.142930 31154 layer_factory.hpp:74] Creating layer inception_2b/output_inception_2b/output_0_split
I0418 10:06:29.142932 31154 net.cpp:133] Creating Layer inception_2b/output_inception_2b/output_0_split
I0418 10:06:29.142935 31154 net.cpp:453] inception_2b/output_inception_2b/output_0_split <- inception_2b/output
I0418 10:06:29.142940 31154 net.cpp:411] inception_2b/output_inception_2b/output_0_split -> inception_2b/output_inception_2b/output_0_split_0
I0418 10:06:29.142943 31154 net.cpp:411] inception_2b/output_inception_2b/output_0_split -> inception_2b/output_inception_2b/output_0_split_1
I0418 10:06:29.142946 31154 net.cpp:411] inception_2b/output_inception_2b/output_0_split -> inception_2b/output_inception_2b/output_0_split_2
I0418 10:06:29.142951 31154 net.cpp:411] inception_2b/output_inception_2b/output_0_split -> inception_2b/output_inception_2b/output_0_split_3
I0418 10:06:29.142954 31154 net.cpp:163] Setting up inception_2b/output_inception_2b/output_0_split
I0418 10:06:29.142957 31154 net.cpp:170] Top shape: 1 768 18 7 (96768)
I0418 10:06:29.142961 31154 net.cpp:170] Top shape: 1 768 18 7 (96768)
I0418 10:06:29.142962 31154 net.cpp:170] Top shape: 1 768 18 7 (96768)
I0418 10:06:29.142966 31154 net.cpp:170] Top shape: 1 768 18 7 (96768)
I0418 10:06:29.142967 31154 layer_factory.hpp:74] Creating layer inception_3a/1x1
I0418 10:06:29.142971 31154 net.cpp:133] Creating Layer inception_3a/1x1
I0418 10:06:29.142973 31154 net.cpp:453] inception_3a/1x1 <- inception_2b/output_inception_2b/output_0_split_0
I0418 10:06:29.142977 31154 net.cpp:411] inception_3a/1x1 -> inception_3a/1x1
I0418 10:06:29.142982 31154 net.cpp:163] Setting up inception_3a/1x1
I0418 10:06:29.242099 31154 net.cpp:170] Top shape: 1 256 18 7 (32256)
I0418 10:06:29.242110 31154 layer_factory.hpp:74] Creating layer inception_3a/1x1_bn
I0418 10:06:29.242112 31154 layer_factory.cpp:191] Layer inception_3a/1x1_bn is using CAFFE engine.
I0418 10:06:29.242117 31154 net.cpp:133] Creating Layer inception_3a/1x1_bn
I0418 10:06:29.242120 31154 net.cpp:453] inception_3a/1x1_bn <- inception_3a/1x1
I0418 10:06:29.242126 31154 net.cpp:411] inception_3a/1x1_bn -> inception_3a/1x1_bn
I0418 10:06:29.242131 31154 net.cpp:163] Setting up inception_3a/1x1_bn
I0418 10:06:29.242141 31154 net.cpp:170] Top shape: 1 256 18 7 (32256)
I0418 10:06:29.242146 31154 layer_factory.hpp:74] Creating layer inception_3a/relu_1x1
I0418 10:06:29.242151 31154 net.cpp:133] Creating Layer inception_3a/relu_1x1
I0418 10:06:29.242152 31154 net.cpp:453] inception_3a/relu_1x1 <- inception_3a/1x1_bn
I0418 10:06:29.242156 31154 net.cpp:400] inception_3a/relu_1x1 -> inception_3a/1x1_bn (in-place)
I0418 10:06:29.242158 31154 net.cpp:163] Setting up inception_3a/relu_1x1
I0418 10:06:29.242337 31154 net.cpp:170] Top shape: 1 256 18 7 (32256)
I0418 10:06:29.242343 31154 layer_factory.hpp:74] Creating layer inception_3a/3x3_reduce
I0418 10:06:29.242349 31154 net.cpp:133] Creating Layer inception_3a/3x3_reduce
I0418 10:06:29.242352 31154 net.cpp:453] inception_3a/3x3_reduce <- inception_2b/output_inception_2b/output_0_split_1
I0418 10:06:29.242357 31154 net.cpp:411] inception_3a/3x3_reduce -> inception_3a/3x3_reduce
I0418 10:06:29.242362 31154 net.cpp:163] Setting up inception_3a/3x3_reduce
I0418 10:06:29.341354 31154 net.cpp:170] Top shape: 1 256 18 7 (32256)
I0418 10:06:29.341366 31154 layer_factory.hpp:74] Creating layer inception_3a/3x3_reduce_bn
I0418 10:06:29.341368 31154 layer_factory.cpp:191] Layer inception_3a/3x3_reduce_bn is using CAFFE engine.
I0418 10:06:29.341372 31154 net.cpp:133] Creating Layer inception_3a/3x3_reduce_bn
I0418 10:06:29.341375 31154 net.cpp:453] inception_3a/3x3_reduce_bn <- inception_3a/3x3_reduce
I0418 10:06:29.341380 31154 net.cpp:411] inception_3a/3x3_reduce_bn -> inception_3a/3x3_reduce_bn
I0418 10:06:29.341384 31154 net.cpp:163] Setting up inception_3a/3x3_reduce_bn
I0418 10:06:29.341395 31154 net.cpp:170] Top shape: 1 256 18 7 (32256)
I0418 10:06:29.341405 31154 layer_factory.hpp:74] Creating layer inception_3a/relu_3x3_reduce
I0418 10:06:29.341409 31154 net.cpp:133] Creating Layer inception_3a/relu_3x3_reduce
I0418 10:06:29.341413 31154 net.cpp:453] inception_3a/relu_3x3_reduce <- inception_3a/3x3_reduce_bn
I0418 10:06:29.341415 31154 net.cpp:400] inception_3a/relu_3x3_reduce -> inception_3a/3x3_reduce_bn (in-place)
I0418 10:06:29.341419 31154 net.cpp:163] Setting up inception_3a/relu_3x3_reduce
I0418 10:06:29.341526 31154 net.cpp:170] Top shape: 1 256 18 7 (32256)
I0418 10:06:29.341532 31154 layer_factory.hpp:74] Creating layer inception_3a/3x3
I0418 10:06:29.341537 31154 net.cpp:133] Creating Layer inception_3a/3x3
I0418 10:06:29.341539 31154 net.cpp:453] inception_3a/3x3 <- inception_3a/3x3_reduce_bn
I0418 10:06:29.341543 31154 net.cpp:411] inception_3a/3x3 -> inception_3a/3x3
I0418 10:06:29.341548 31154 net.cpp:163] Setting up inception_3a/3x3
I0418 10:06:29.382342 31154 net.cpp:170] Top shape: 1 256 18 7 (32256)
I0418 10:06:29.382354 31154 layer_factory.hpp:74] Creating layer inception_3a/3x3_bn
I0418 10:06:29.382356 31154 layer_factory.cpp:191] Layer inception_3a/3x3_bn is using CAFFE engine.
I0418 10:06:29.382361 31154 net.cpp:133] Creating Layer inception_3a/3x3_bn
I0418 10:06:29.382364 31154 net.cpp:453] inception_3a/3x3_bn <- inception_3a/3x3
I0418 10:06:29.382369 31154 net.cpp:411] inception_3a/3x3_bn -> inception_3a/3x3_bn
I0418 10:06:29.382374 31154 net.cpp:163] Setting up inception_3a/3x3_bn
I0418 10:06:29.382383 31154 net.cpp:170] Top shape: 1 256 18 7 (32256)
I0418 10:06:29.382388 31154 layer_factory.hpp:74] Creating layer inception_3a/relu_3x3
I0418 10:06:29.382391 31154 net.cpp:133] Creating Layer inception_3a/relu_3x3
I0418 10:06:29.382393 31154 net.cpp:453] inception_3a/relu_3x3 <- inception_3a/3x3_bn
I0418 10:06:29.382397 31154 net.cpp:400] inception_3a/relu_3x3 -> inception_3a/3x3_bn (in-place)
I0418 10:06:29.382400 31154 net.cpp:163] Setting up inception_3a/relu_3x3
I0418 10:06:29.382583 31154 net.cpp:170] Top shape: 1 256 18 7 (32256)
I0418 10:06:29.382591 31154 layer_factory.hpp:74] Creating layer inception_3a/double_3x3_reduce
I0418 10:06:29.382596 31154 net.cpp:133] Creating Layer inception_3a/double_3x3_reduce
I0418 10:06:29.382601 31154 net.cpp:453] inception_3a/double_3x3_reduce <- inception_2b/output_inception_2b/output_0_split_2
I0418 10:06:29.382606 31154 net.cpp:411] inception_3a/double_3x3_reduce -> inception_3a/double_3x3_reduce
I0418 10:06:29.382611 31154 net.cpp:163] Setting up inception_3a/double_3x3_reduce
I0418 10:06:29.481464 31154 net.cpp:170] Top shape: 1 256 18 7 (32256)
I0418 10:06:29.481475 31154 layer_factory.hpp:74] Creating layer inception_3a/double_3x3_reduce_bn
I0418 10:06:29.481478 31154 layer_factory.cpp:191] Layer inception_3a/double_3x3_reduce_bn is using CAFFE engine.
I0418 10:06:29.481483 31154 net.cpp:133] Creating Layer inception_3a/double_3x3_reduce_bn
I0418 10:06:29.481485 31154 net.cpp:453] inception_3a/double_3x3_reduce_bn <- inception_3a/double_3x3_reduce
I0418 10:06:29.481490 31154 net.cpp:411] inception_3a/double_3x3_reduce_bn -> inception_3a/double_3x3_reduce_bn
I0418 10:06:29.481495 31154 net.cpp:163] Setting up inception_3a/double_3x3_reduce_bn
I0418 10:06:29.481505 31154 net.cpp:170] Top shape: 1 256 18 7 (32256)
I0418 10:06:29.481510 31154 layer_factory.hpp:74] Creating layer inception_3a/relu_double_3x3_reduce
I0418 10:06:29.481513 31154 net.cpp:133] Creating Layer inception_3a/relu_double_3x3_reduce
I0418 10:06:29.481515 31154 net.cpp:453] inception_3a/relu_double_3x3_reduce <- inception_3a/double_3x3_reduce_bn
I0418 10:06:29.481518 31154 net.cpp:400] inception_3a/relu_double_3x3_reduce -> inception_3a/double_3x3_reduce_bn (in-place)
I0418 10:06:29.481523 31154 net.cpp:163] Setting up inception_3a/relu_double_3x3_reduce
I0418 10:06:29.481700 31154 net.cpp:170] Top shape: 1 256 18 7 (32256)
I0418 10:06:29.481708 31154 layer_factory.hpp:74] Creating layer inception_3a/double_3x3_1
I0418 10:06:29.481712 31154 net.cpp:133] Creating Layer inception_3a/double_3x3_1
I0418 10:06:29.481715 31154 net.cpp:453] inception_3a/double_3x3_1 <- inception_3a/double_3x3_reduce_bn
I0418 10:06:29.481720 31154 net.cpp:411] inception_3a/double_3x3_1 -> inception_3a/double_3x3_1
I0418 10:06:29.481724 31154 net.cpp:163] Setting up inception_3a/double_3x3_1
I0418 10:06:29.522524 31154 net.cpp:170] Top shape: 1 256 18 7 (32256)
I0418 10:06:29.522536 31154 layer_factory.hpp:74] Creating layer inception_3a/double_3x3_1_bn
I0418 10:06:29.522538 31154 layer_factory.cpp:191] Layer inception_3a/double_3x3_1_bn is using CAFFE engine.
I0418 10:06:29.522543 31154 net.cpp:133] Creating Layer inception_3a/double_3x3_1_bn
I0418 10:06:29.522547 31154 net.cpp:453] inception_3a/double_3x3_1_bn <- inception_3a/double_3x3_1
I0418 10:06:29.522550 31154 net.cpp:411] inception_3a/double_3x3_1_bn -> inception_3a/double_3x3_1_bn
I0418 10:06:29.522555 31154 net.cpp:163] Setting up inception_3a/double_3x3_1_bn
I0418 10:06:29.522565 31154 net.cpp:170] Top shape: 1 256 18 7 (32256)
I0418 10:06:29.522570 31154 layer_factory.hpp:74] Creating layer inception_3a/relu_double_3x3_1
I0418 10:06:29.522573 31154 net.cpp:133] Creating Layer inception_3a/relu_double_3x3_1
I0418 10:06:29.522575 31154 net.cpp:453] inception_3a/relu_double_3x3_1 <- inception_3a/double_3x3_1_bn
I0418 10:06:29.522579 31154 net.cpp:400] inception_3a/relu_double_3x3_1 -> inception_3a/double_3x3_1_bn (in-place)
I0418 10:06:29.522583 31154 net.cpp:163] Setting up inception_3a/relu_double_3x3_1
I0418 10:06:29.522689 31154 net.cpp:170] Top shape: 1 256 18 7 (32256)
I0418 10:06:29.522696 31154 layer_factory.hpp:74] Creating layer inception_3a/double_3x3_2
I0418 10:06:29.522701 31154 net.cpp:133] Creating Layer inception_3a/double_3x3_2
I0418 10:06:29.522703 31154 net.cpp:453] inception_3a/double_3x3_2 <- inception_3a/double_3x3_1_bn
I0418 10:06:29.522707 31154 net.cpp:411] inception_3a/double_3x3_2 -> inception_3a/double_3x3_2
I0418 10:06:29.522711 31154 net.cpp:163] Setting up inception_3a/double_3x3_2
I0418 10:06:29.563289 31154 net.cpp:170] Top shape: 1 256 18 7 (32256)
I0418 10:06:29.563300 31154 layer_factory.hpp:74] Creating layer inception_3a/double_3x3_2_bn
I0418 10:06:29.563303 31154 layer_factory.cpp:191] Layer inception_3a/double_3x3_2_bn is using CAFFE engine.
I0418 10:06:29.563313 31154 net.cpp:133] Creating Layer inception_3a/double_3x3_2_bn
I0418 10:06:29.563315 31154 net.cpp:453] inception_3a/double_3x3_2_bn <- inception_3a/double_3x3_2
I0418 10:06:29.563320 31154 net.cpp:411] inception_3a/double_3x3_2_bn -> inception_3a/double_3x3_2_bn
I0418 10:06:29.563324 31154 net.cpp:163] Setting up inception_3a/double_3x3_2_bn
I0418 10:06:29.563334 31154 net.cpp:170] Top shape: 1 256 18 7 (32256)
I0418 10:06:29.563340 31154 layer_factory.hpp:74] Creating layer inception_3a/relu_double_3x3_2
I0418 10:06:29.563344 31154 net.cpp:133] Creating Layer inception_3a/relu_double_3x3_2
I0418 10:06:29.563346 31154 net.cpp:453] inception_3a/relu_double_3x3_2 <- inception_3a/double_3x3_2_bn
I0418 10:06:29.563349 31154 net.cpp:400] inception_3a/relu_double_3x3_2 -> inception_3a/double_3x3_2_bn (in-place)
I0418 10:06:29.563354 31154 net.cpp:163] Setting up inception_3a/relu_double_3x3_2
I0418 10:06:29.563534 31154 net.cpp:170] Top shape: 1 256 18 7 (32256)
I0418 10:06:29.563540 31154 layer_factory.hpp:74] Creating layer inception_3a/pool
I0418 10:06:29.563544 31154 layer_factory.cpp:64] CUDNN does not support padding or multiple tops. Using Caffe's own pooling layer.
I0418 10:06:29.563547 31154 net.cpp:133] Creating Layer inception_3a/pool
I0418 10:06:29.563549 31154 net.cpp:453] inception_3a/pool <- inception_2b/output_inception_2b/output_0_split_3
I0418 10:06:29.563555 31154 net.cpp:411] inception_3a/pool -> inception_3a/pool
I0418 10:06:29.563558 31154 net.cpp:163] Setting up inception_3a/pool
I0418 10:06:29.563563 31154 net.cpp:170] Top shape: 1 768 18 7 (96768)
I0418 10:06:29.563565 31154 layer_factory.hpp:74] Creating layer inception_3a/pool_proj
I0418 10:06:29.563570 31154 net.cpp:133] Creating Layer inception_3a/pool_proj
I0418 10:06:29.563572 31154 net.cpp:453] inception_3a/pool_proj <- inception_3a/pool
I0418 10:06:29.563576 31154 net.cpp:411] inception_3a/pool_proj -> inception_3a/pool_proj
I0418 10:06:29.563581 31154 net.cpp:163] Setting up inception_3a/pool_proj
I0418 10:06:29.663067 31154 net.cpp:170] Top shape: 1 256 18 7 (32256)
I0418 10:06:29.663079 31154 layer_factory.hpp:74] Creating layer inception_3a/pool_proj_bn
I0418 10:06:29.663081 31154 layer_factory.cpp:191] Layer inception_3a/pool_proj_bn is using CAFFE engine.
I0418 10:06:29.663086 31154 net.cpp:133] Creating Layer inception_3a/pool_proj_bn
I0418 10:06:29.663089 31154 net.cpp:453] inception_3a/pool_proj_bn <- inception_3a/pool_proj
I0418 10:06:29.663094 31154 net.cpp:411] inception_3a/pool_proj_bn -> inception_3a/pool_proj_bn
I0418 10:06:29.663099 31154 net.cpp:163] Setting up inception_3a/pool_proj_bn
I0418 10:06:29.663108 31154 net.cpp:170] Top shape: 1 256 18 7 (32256)
I0418 10:06:29.663113 31154 layer_factory.hpp:74] Creating layer inception_3a/relu_pool_proj
I0418 10:06:29.663116 31154 net.cpp:133] Creating Layer inception_3a/relu_pool_proj
I0418 10:06:29.663120 31154 net.cpp:453] inception_3a/relu_pool_proj <- inception_3a/pool_proj_bn
I0418 10:06:29.663122 31154 net.cpp:400] inception_3a/relu_pool_proj -> inception_3a/pool_proj_bn (in-place)
I0418 10:06:29.663125 31154 net.cpp:163] Setting up inception_3a/relu_pool_proj
I0418 10:06:29.663305 31154 net.cpp:170] Top shape: 1 256 18 7 (32256)
I0418 10:06:29.663313 31154 layer_factory.hpp:74] Creating layer inception_3a/output
I0418 10:06:29.663317 31154 net.cpp:133] Creating Layer inception_3a/output
I0418 10:06:29.663321 31154 net.cpp:453] inception_3a/output <- inception_3a/1x1_bn
I0418 10:06:29.663323 31154 net.cpp:453] inception_3a/output <- inception_3a/3x3_bn
I0418 10:06:29.663326 31154 net.cpp:453] inception_3a/output <- inception_3a/double_3x3_2_bn
I0418 10:06:29.663328 31154 net.cpp:453] inception_3a/output <- inception_3a/pool_proj_bn
I0418 10:06:29.663332 31154 net.cpp:411] inception_3a/output -> inception_3a/output
I0418 10:06:29.663336 31154 net.cpp:163] Setting up inception_3a/output
I0418 10:06:29.663341 31154 net.cpp:170] Top shape: 1 1024 18 7 (129024)
I0418 10:06:29.663343 31154 layer_factory.hpp:74] Creating layer inception_3a/output_inception_3a/output_0_split
I0418 10:06:29.663349 31154 net.cpp:133] Creating Layer inception_3a/output_inception_3a/output_0_split
I0418 10:06:29.663352 31154 net.cpp:453] inception_3a/output_inception_3a/output_0_split <- inception_3a/output
I0418 10:06:29.663357 31154 net.cpp:411] inception_3a/output_inception_3a/output_0_split -> inception_3a/output_inception_3a/output_0_split_0
I0418 10:06:29.663360 31154 net.cpp:411] inception_3a/output_inception_3a/output_0_split -> inception_3a/output_inception_3a/output_0_split_1
I0418 10:06:29.663363 31154 net.cpp:411] inception_3a/output_inception_3a/output_0_split -> inception_3a/output_inception_3a/output_0_split_2
I0418 10:06:29.663367 31154 net.cpp:163] Setting up inception_3a/output_inception_3a/output_0_split
I0418 10:06:29.663372 31154 net.cpp:170] Top shape: 1 1024 18 7 (129024)
I0418 10:06:29.663374 31154 net.cpp:170] Top shape: 1 1024 18 7 (129024)
I0418 10:06:29.663377 31154 net.cpp:170] Top shape: 1 1024 18 7 (129024)
I0418 10:06:29.663378 31154 layer_factory.hpp:74] Creating layer inception_3b/3x3_reduce
I0418 10:06:29.663383 31154 net.cpp:133] Creating Layer inception_3b/3x3_reduce
I0418 10:06:29.663385 31154 net.cpp:453] inception_3b/3x3_reduce <- inception_3a/output_inception_3a/output_0_split_0
I0418 10:06:29.663389 31154 net.cpp:411] inception_3b/3x3_reduce -> inception_3b/3x3_reduce
I0418 10:06:29.663393 31154 net.cpp:163] Setting up inception_3b/3x3_reduce
I0418 10:06:29.795238 31154 net.cpp:170] Top shape: 1 256 18 7 (32256)
I0418 10:06:29.795249 31154 layer_factory.hpp:74] Creating layer inception_3b/3x3_reduce_bn
I0418 10:06:29.795253 31154 layer_factory.cpp:191] Layer inception_3b/3x3_reduce_bn is using CAFFE engine.
I0418 10:06:29.795258 31154 net.cpp:133] Creating Layer inception_3b/3x3_reduce_bn
I0418 10:06:29.795259 31154 net.cpp:453] inception_3b/3x3_reduce_bn <- inception_3b/3x3_reduce
I0418 10:06:29.795264 31154 net.cpp:411] inception_3b/3x3_reduce_bn -> inception_3b/3x3_reduce_bn
I0418 10:06:29.795269 31154 net.cpp:163] Setting up inception_3b/3x3_reduce_bn
I0418 10:06:29.795279 31154 net.cpp:170] Top shape: 1 256 18 7 (32256)
I0418 10:06:29.795284 31154 layer_factory.hpp:74] Creating layer inception_3b/relu_3x3_reduce
I0418 10:06:29.795287 31154 net.cpp:133] Creating Layer inception_3b/relu_3x3_reduce
I0418 10:06:29.795290 31154 net.cpp:453] inception_3b/relu_3x3_reduce <- inception_3b/3x3_reduce_bn
I0418 10:06:29.795294 31154 net.cpp:400] inception_3b/relu_3x3_reduce -> inception_3b/3x3_reduce_bn (in-place)
I0418 10:06:29.795296 31154 net.cpp:163] Setting up inception_3b/relu_3x3_reduce
I0418 10:06:29.795405 31154 net.cpp:170] Top shape: 1 256 18 7 (32256)
I0418 10:06:29.795411 31154 layer_factory.hpp:74] Creating layer inception_3b/3x3
I0418 10:06:29.795416 31154 net.cpp:133] Creating Layer inception_3b/3x3
I0418 10:06:29.795419 31154 net.cpp:453] inception_3b/3x3 <- inception_3b/3x3_reduce_bn
I0418 10:06:29.795423 31154 net.cpp:411] inception_3b/3x3 -> inception_3b/3x3
I0418 10:06:29.795428 31154 net.cpp:163] Setting up inception_3b/3x3
I0418 10:06:29.802817 31154 net.cpp:170] Top shape: 1 256 9 4 (9216)
I0418 10:06:29.802829 31154 layer_factory.hpp:74] Creating layer inception_3b/3x3_bn
I0418 10:06:29.802831 31154 layer_factory.cpp:191] Layer inception_3b/3x3_bn is using CAFFE engine.
I0418 10:06:29.802835 31154 net.cpp:133] Creating Layer inception_3b/3x3_bn
I0418 10:06:29.802839 31154 net.cpp:453] inception_3b/3x3_bn <- inception_3b/3x3
I0418 10:06:29.802842 31154 net.cpp:411] inception_3b/3x3_bn -> inception_3b/3x3_bn
I0418 10:06:29.802847 31154 net.cpp:163] Setting up inception_3b/3x3_bn
I0418 10:06:29.802857 31154 net.cpp:170] Top shape: 1 256 9 4 (9216)
I0418 10:06:29.802861 31154 layer_factory.hpp:74] Creating layer inception_3b/relu_3x3
I0418 10:06:29.802865 31154 net.cpp:133] Creating Layer inception_3b/relu_3x3
I0418 10:06:29.802868 31154 net.cpp:453] inception_3b/relu_3x3 <- inception_3b/3x3_bn
I0418 10:06:29.802870 31154 net.cpp:400] inception_3b/relu_3x3 -> inception_3b/3x3_bn (in-place)
I0418 10:06:29.802877 31154 net.cpp:163] Setting up inception_3b/relu_3x3
I0418 10:06:29.803062 31154 net.cpp:170] Top shape: 1 256 9 4 (9216)
I0418 10:06:29.803069 31154 layer_factory.hpp:74] Creating layer inception_3b/double_3x3_reduce
I0418 10:06:29.803076 31154 net.cpp:133] Creating Layer inception_3b/double_3x3_reduce
I0418 10:06:29.803078 31154 net.cpp:453] inception_3b/double_3x3_reduce <- inception_3a/output_inception_3a/output_0_split_1
I0418 10:06:29.803082 31154 net.cpp:411] inception_3b/double_3x3_reduce -> inception_3b/double_3x3_reduce
I0418 10:06:29.803087 31154 net.cpp:163] Setting up inception_3b/double_3x3_reduce
I0418 10:06:29.935312 31154 net.cpp:170] Top shape: 1 256 18 7 (32256)
I0418 10:06:29.935323 31154 layer_factory.hpp:74] Creating layer inception_3b/double_3x3_reduce_bn
I0418 10:06:29.935327 31154 layer_factory.cpp:191] Layer inception_3b/double_3x3_reduce_bn is using CAFFE engine.
I0418 10:06:29.935331 31154 net.cpp:133] Creating Layer inception_3b/double_3x3_reduce_bn
I0418 10:06:29.935334 31154 net.cpp:453] inception_3b/double_3x3_reduce_bn <- inception_3b/double_3x3_reduce
I0418 10:06:29.935338 31154 net.cpp:411] inception_3b/double_3x3_reduce_bn -> inception_3b/double_3x3_reduce_bn
I0418 10:06:29.935343 31154 net.cpp:163] Setting up inception_3b/double_3x3_reduce_bn
I0418 10:06:29.935353 31154 net.cpp:170] Top shape: 1 256 18 7 (32256)
I0418 10:06:29.935359 31154 layer_factory.hpp:74] Creating layer inception_3b/relu_double_3x3_reduce
I0418 10:06:29.935362 31154 net.cpp:133] Creating Layer inception_3b/relu_double_3x3_reduce
I0418 10:06:29.935364 31154 net.cpp:453] inception_3b/relu_double_3x3_reduce <- inception_3b/double_3x3_reduce_bn
I0418 10:06:29.935367 31154 net.cpp:400] inception_3b/relu_double_3x3_reduce -> inception_3b/double_3x3_reduce_bn (in-place)
I0418 10:06:29.935370 31154 net.cpp:163] Setting up inception_3b/relu_double_3x3_reduce
I0418 10:06:29.935554 31154 net.cpp:170] Top shape: 1 256 18 7 (32256)
I0418 10:06:29.935559 31154 layer_factory.hpp:74] Creating layer inception_3b/double_3x3_1
I0418 10:06:29.935585 31154 net.cpp:133] Creating Layer inception_3b/double_3x3_1
I0418 10:06:29.935586 31154 net.cpp:453] inception_3b/double_3x3_1 <- inception_3b/double_3x3_reduce_bn
I0418 10:06:29.935590 31154 net.cpp:411] inception_3b/double_3x3_1 -> inception_3b/double_3x3_1
I0418 10:06:29.935595 31154 net.cpp:163] Setting up inception_3b/double_3x3_1
I0418 10:06:29.976044 31154 net.cpp:170] Top shape: 1 256 18 7 (32256)
I0418 10:06:29.976055 31154 layer_factory.hpp:74] Creating layer inception_3b/double_3x3_1_bn
I0418 10:06:29.976058 31154 layer_factory.cpp:191] Layer inception_3b/double_3x3_1_bn is using CAFFE engine.
I0418 10:06:29.976064 31154 net.cpp:133] Creating Layer inception_3b/double_3x3_1_bn
I0418 10:06:29.976066 31154 net.cpp:453] inception_3b/double_3x3_1_bn <- inception_3b/double_3x3_1
I0418 10:06:29.976071 31154 net.cpp:411] inception_3b/double_3x3_1_bn -> inception_3b/double_3x3_1_bn
I0418 10:06:29.976075 31154 net.cpp:163] Setting up inception_3b/double_3x3_1_bn
I0418 10:06:29.976085 31154 net.cpp:170] Top shape: 1 256 18 7 (32256)
I0418 10:06:29.976090 31154 layer_factory.hpp:74] Creating layer inception_3b/relu_double_3x3_1
I0418 10:06:29.976094 31154 net.cpp:133] Creating Layer inception_3b/relu_double_3x3_1
I0418 10:06:29.976096 31154 net.cpp:453] inception_3b/relu_double_3x3_1 <- inception_3b/double_3x3_1_bn
I0418 10:06:29.976099 31154 net.cpp:400] inception_3b/relu_double_3x3_1 -> inception_3b/double_3x3_1_bn (in-place)
I0418 10:06:29.976102 31154 net.cpp:163] Setting up inception_3b/relu_double_3x3_1
I0418 10:06:29.976209 31154 net.cpp:170] Top shape: 1 256 18 7 (32256)
I0418 10:06:29.976215 31154 layer_factory.hpp:74] Creating layer inception_3b/double_3x3_2
I0418 10:06:29.976220 31154 net.cpp:133] Creating Layer inception_3b/double_3x3_2
I0418 10:06:29.976223 31154 net.cpp:453] inception_3b/double_3x3_2 <- inception_3b/double_3x3_1_bn
I0418 10:06:29.976227 31154 net.cpp:411] inception_3b/double_3x3_2 -> inception_3b/double_3x3_2
I0418 10:06:29.976230 31154 net.cpp:163] Setting up inception_3b/double_3x3_2
I0418 10:06:29.983245 31154 net.cpp:170] Top shape: 1 256 9 4 (9216)
I0418 10:06:29.983256 31154 layer_factory.hpp:74] Creating layer inception_3b/double_3x3_2_bn
I0418 10:06:29.983259 31154 layer_factory.cpp:191] Layer inception_3b/double_3x3_2_bn is using CAFFE engine.
I0418 10:06:29.983264 31154 net.cpp:133] Creating Layer inception_3b/double_3x3_2_bn
I0418 10:06:29.983268 31154 net.cpp:453] inception_3b/double_3x3_2_bn <- inception_3b/double_3x3_2
I0418 10:06:29.983271 31154 net.cpp:411] inception_3b/double_3x3_2_bn -> inception_3b/double_3x3_2_bn
I0418 10:06:29.983276 31154 net.cpp:163] Setting up inception_3b/double_3x3_2_bn
I0418 10:06:29.983288 31154 net.cpp:170] Top shape: 1 256 9 4 (9216)
I0418 10:06:29.983292 31154 layer_factory.hpp:74] Creating layer inception_3b/relu_double_3x3_2
I0418 10:06:29.983296 31154 net.cpp:133] Creating Layer inception_3b/relu_double_3x3_2
I0418 10:06:29.983299 31154 net.cpp:453] inception_3b/relu_double_3x3_2 <- inception_3b/double_3x3_2_bn
I0418 10:06:29.983301 31154 net.cpp:400] inception_3b/relu_double_3x3_2 -> inception_3b/double_3x3_2_bn (in-place)
I0418 10:06:29.983304 31154 net.cpp:163] Setting up inception_3b/relu_double_3x3_2
I0418 10:06:29.983484 31154 net.cpp:170] Top shape: 1 256 9 4 (9216)
I0418 10:06:29.983491 31154 layer_factory.hpp:74] Creating layer inception_3b/pool
I0418 10:06:29.983494 31154 layer_factory.cpp:64] CUDNN does not support padding or multiple tops. Using Caffe's own pooling layer.
I0418 10:06:29.983500 31154 net.cpp:133] Creating Layer inception_3b/pool
I0418 10:06:29.983501 31154 net.cpp:453] inception_3b/pool <- inception_3a/output_inception_3a/output_0_split_2
I0418 10:06:29.983505 31154 net.cpp:411] inception_3b/pool -> inception_3b/pool
I0418 10:06:29.983510 31154 net.cpp:163] Setting up inception_3b/pool
I0418 10:06:29.983515 31154 net.cpp:170] Top shape: 1 1024 9 4 (36864)
I0418 10:06:29.983517 31154 layer_factory.hpp:74] Creating layer inception_3b/output
I0418 10:06:29.983521 31154 net.cpp:133] Creating Layer inception_3b/output
I0418 10:06:29.983525 31154 net.cpp:453] inception_3b/output <- inception_3b/3x3_bn
I0418 10:06:29.983527 31154 net.cpp:453] inception_3b/output <- inception_3b/double_3x3_2_bn
I0418 10:06:29.983530 31154 net.cpp:453] inception_3b/output <- inception_3b/pool
I0418 10:06:29.983532 31154 net.cpp:411] inception_3b/output -> inception_3b/output
I0418 10:06:29.983536 31154 net.cpp:163] Setting up inception_3b/output
I0418 10:06:29.983541 31154 net.cpp:170] Top shape: 1 1536 9 4 (55296)
I0418 10:06:29.983542 31154 layer_factory.hpp:74] Creating layer global_pool
I0418 10:06:29.983546 31154 net.cpp:133] Creating Layer global_pool
I0418 10:06:29.983548 31154 net.cpp:453] global_pool <- inception_3b/output
I0418 10:06:29.983552 31154 net.cpp:411] global_pool -> global_pool
I0418 10:06:29.983556 31154 net.cpp:163] Setting up global_pool
I0418 10:06:29.983731 31154 net.cpp:170] Top shape: 1 1536 1 1 (1536)
I0418 10:06:29.983736 31154 layer_factory.hpp:74] Creating layer fc7
I0418 10:06:29.983741 31154 net.cpp:133] Creating Layer fc7
I0418 10:06:29.983744 31154 net.cpp:453] fc7 <- global_pool
I0418 10:06:29.983748 31154 net.cpp:411] fc7 -> fc7
I0418 10:06:29.983752 31154 net.cpp:163] Setting up fc7
I0418 10:06:29.985287 31154 net.cpp:170] Top shape: 1 256 (256)
I0418 10:06:29.985294 31154 layer_factory.hpp:74] Creating layer fc7_bn
I0418 10:06:29.985296 31154 layer_factory.cpp:191] Layer fc7_bn is using CAFFE engine.
I0418 10:06:29.985301 31154 net.cpp:133] Creating Layer fc7_bn
I0418 10:06:29.985302 31154 net.cpp:453] fc7_bn <- fc7
I0418 10:06:29.985306 31154 net.cpp:411] fc7_bn -> fc7_bn
I0418 10:06:29.985311 31154 net.cpp:163] Setting up fc7_bn
I0418 10:06:29.985319 31154 net.cpp:170] Top shape: 1 256 (256)
I0418 10:06:29.985323 31154 layer_factory.hpp:74] Creating layer relu7
I0418 10:06:29.985327 31154 net.cpp:133] Creating Layer relu7
I0418 10:06:29.985329 31154 net.cpp:453] relu7 <- fc7_bn
I0418 10:06:29.985332 31154 net.cpp:400] relu7 -> fc7_bn (in-place)
I0418 10:06:29.985334 31154 net.cpp:163] Setting up relu7
I0418 10:06:29.985520 31154 net.cpp:170] Top shape: 1 256 (256)
I0418 10:06:29.985527 31154 layer_factory.hpp:74] Creating layer drop7
I0418 10:06:29.985532 31154 net.cpp:133] Creating Layer drop7
I0418 10:06:29.985534 31154 net.cpp:453] drop7 <- fc7_bn
I0418 10:06:29.985538 31154 net.cpp:400] drop7 -> fc7_bn (in-place)
I0418 10:06:29.985541 31154 net.cpp:163] Setting up drop7
I0418 10:06:29.985545 31154 net.cpp:170] Top shape: 1 256 (256)
I0418 10:06:29.985548 31154 layer_factory.hpp:74] Creating layer fc8_jstl
I0418 10:06:29.985551 31154 net.cpp:133] Creating Layer fc8_jstl
I0418 10:06:29.985553 31154 net.cpp:453] fc8_jstl <- fc7_bn
I0418 10:06:29.985556 31154 net.cpp:411] fc8_jstl -> fc8_jstl
I0418 10:06:29.985560 31154 net.cpp:163] Setting up fc8_jstl
I0418 10:06:29.990118 31154 net.cpp:170] Top shape: 1 2629 (2629)
I0418 10:06:29.990124 31154 net.cpp:237] fc8_jstl does not need backward computation.
I0418 10:06:29.990126 31154 net.cpp:237] drop7 does not need backward computation.
I0418 10:06:29.990128 31154 net.cpp:237] relu7 does not need backward computation.
I0418 10:06:29.990130 31154 net.cpp:237] fc7_bn does not need backward computation.
I0418 10:06:29.990133 31154 net.cpp:237] fc7 does not need backward computation.
…
I0418 10:06:29.990465 31154 net.cpp:237] conv1_bn does not need backward computation.
I0418 10:06:29.990468 31154 net.cpp:237] conv1 does not need backward computation.
I0418 10:06:29.990470 31154 net.cpp:278] This network produces output fc8_jstl
I0418 10:06:29.990535 31154 net.cpp:290] Network initialization done.
I0418 10:06:29.990537 31154 net.cpp:291] Memory required for data: 61896980
I0418 10:06:30.044687 31154 net.cpp:47] Initializing net from parameters: 
name: "JSTL"
input: "data"
input_dim: 1
input_dim: 3
input_dim: 144
input_dim: 56
state {
  phase: TEST
}
richness: 1000
layer {
  name: "conv1"
  type: "Convolution"
  bottom: "data"
  top: "conv1"
  param {
    lr_mult: 1
    decay_mult: 1
  }
  param {
    lr_mult: 2
    decay_mult: 0
  }
  convolution_param {
    num_output: 32
    pad: 1
    kernel_size: 3
    stride: 1
    weight_filler {
      type: "xavier"
    }
    bias_filler {
      type: "constant"
      value: 0.2
    }
  }
}
layer {
  name: "relu1"
  type: "ReLU"
  bottom: "conv1"
  top: "conv1"
}
layer {
  name: "conv2"
  type: "Convolution"
  bottom: "conv1"
  top: "conv2"
  param {
    lr_mult: 1
    decay_mult: 1
  }
  param {
    lr_mult: 2
    decay_mult: 0
  }
  convolution_param {
    num_output: 32
    pad: 1
    kernel_size: 3
    stride: 1
    weight_filler {
      type: "xavier"
    }
    bias_filler {
      type: "constant"
      value: 0.2
    }
  }
}
layer {
  name: "relu2"
  type: "ReLU"
  bottom: "conv2"
  top: "conv2"
}
layer {
  name: "conv3"
  type: "Convolution"
  bottom: "conv2"
  top: "conv3"
  param {
    lr_mult: 1
    decay_mult: 1
  }
  param {
    lr_mult: 2
    decay_mult: 0
  }
  convolution_param {
    num_output: 32
    pad: 1
    kernel_size: 3
    stride: 1
    weight_filler {
      type: "xavier"
    }
    bias_filler {
      type: "constant"
      value: 0.2
    }
  }
}
layer {
  name: "relu3"
  type: "ReLU"
  bottom: "conv3"
  top: "conv3"
}
layer {
  name: "pool1"
  type: "Pooling"
  bottom: "conv3"
  top: "pool1"
  pooling_param {
    pool: MAX
    kernel_size: 2
    stride: 2
  }
}
layer {
  name: "inception_1a/1x1"
  type: "Convolution"
  bottom: "pool1"
  top: "inception_1a/1x1"
  param {
    lr_mult: 1
    decay_mult: 1
  }
  param {
    lr_mult: 2
    decay_mult: 0
  }
  convolution_param {
    num_output: 64
    kernel_size: 1
    weight_filler {
      type: "xavier"
    }
    bias_filler {
      type: "constant"
      value: 0.2
    }
  }
}
layer {
  name: "inception_1a/relu_1x1"
  type: "ReLU"
  bottom: "inception_1a/1x1"
  top: "inception_1a/1x1"
}
layer {
  name: "inception_1a/3x3_reduce"
  type: "Convolution"
  bottom: "pool1"
  top: "inception_1a/3x3_reduce"
  param {
    lr_mult: 1
    decay_mult: 1
  }
  param {
    lr_mult: 2
    decay_mult: 0
  }
  convolution_param {
    num_output: 64
    kernel_size: 1
    weight_filler {
      type: "xavier"
    }
    bias_filler {
      type: "constant"
      value: 0.2
    }
  }
}
layer {
  name: "inception_1a/relu_3x3_reduce"
  type: "ReLU"
  bottom: "inception_1a/3x3_reduce"
  top: "inception_1a/3x3_reduce"
}
layer {
  name: "inception_1a/3x3"
  type: "Convolution"
  bottom: "inception_1a/3x3_reduce"
  top: "inception_1a/3x3"
  param {
    lr_mult: 1
    decay_mult: 1
  }
  param {
    lr_mult: 2
    decay_mult: 0
  }
  convolution_param {
    num_output: 64
    pad: 1
    kernel_size: 3
    weight_filler {
      type: "xavier"
    }
    bias_filler {
      type: "constant"
      value: 0.2
    }
  }
}
layer {
  name: "inception_1a/relu_3x3"
  type: "ReLU"
  bottom: "inception_1a/3x3"
  top: "inception_1a/3x3"
}
layer {
  name: "inception_1a/double_3x3_reduce"
  type: "Convolution"
  bottom: "pool1"
  top: "inception_1a/double_3x3_reduce"
  param {
    lr_mult: 1
    decay_mult: 1
  }
  param {
    lr_mult: 2
    decay_mult: 0
  }
  convolution_param {
    num_output: 64
    kernel_size: 1
    weight_filler {
      type: "xavier"
    }
    bias_filler {
      type: "constant"
      value: 0.2
    }
  }
}
layer {
  name: "inception_1a/relu_double_3x3_reduce"
  type: "ReLU"
  bottom: "inception_1a/double_3x3_reduce"
  top: "inception_1a/double_3x3_reduce"
}
layer {
  name: "inception_1a/double_3x3_1"
  type: "Convolution"
  bottom: "inception_1a/double_3x3_reduce"
  top: "inception_1a/double_3x3_1"
  param {
    lr_mult: 1
    decay_mult: 1
  }
  param {
    lr_mult: 2
    decay_mult: 0
  }
  convolution_param {
    num_output: 64
    pad: 1
    kernel_size: 3
    weight_filler {
      type: "xavier"
    }
    bias_filler {
      type: "constant"
      value: 0.2
    }
  }
}
layer {
  name: "inception_1a/relu_double_3x3_1"
  type: "ReLU"
  bottom: "inception_1a/double_3x3_1"
  top: "inception_1a/double_3x3_1"
}
layer {
  name: "inception_1a/double_3x3_2"
  type: "Convolution"
  bottom: "inception_1a/double_3x3_1"
  top: "inception_1a/double_3x3_2"
  param {
    lr_mult: 1
    decay_mult: 1
  }
  param {
    lr_mult: 2
    decay_mult: 0
  }
  convolution_param {
    num_output: 64
    pad: 1
    kernel_size: 3
    weight_filler {
      type: "xavier"
    }
    bias_filler {
      type: "constant"
      value: 0.2
    }
  }
}
layer {
  name: "inception_1a/relu_double_3x3_2"
  type: "ReLU"
  bottom: "inception_1a/double_3x3_2"
  top: "inception_1a/double_3x3_2"
}
layer {
  name: "inception_1a/pool"
  type: "Pooling"
  bottom: "pool1"
  top: "inception_1a/pool"
  pooling_param {
    pool: AVE
    kernel_size: 3
    stride: 1
    pad: 1
  }
}
layer {
  name: "inception_1a/pool_proj"
  type: "Convolution"
  bottom: "inception_1a/pool"
  top: "inception_1a/pool_proj"
  param {
    lr_mult: 1
    decay_mult: 1
  }
  param {
    lr_mult: 2
    decay_mult: 0
  }
  convolution_param {
    num_output: 64
    kernel_size: 1
    weight_filler {
      type: "xavier"
    }
    bias_filler {
      type: "constant"
      value: 0.2
    }
  }
}
layer {
  name: "inception_1a/relu_pool_proj"
  type: "ReLU"
  bottom: "inception_1a/pool_proj"
  top: "inception_1a/pool_proj"
}
layer {
  name: "inception_1a/output"
  type: "Concat"
  bottom: "inception_1a/1x1"
  bottom: "inception_1a/3x3"
  bottom: "inception_1a/double_3x3_2"
  bottom: "inception_1a/pool_proj"
  top: "inception_1a/output"
}
layer {
  name: "inception_1b/3x3_reduce"
  type: "Convolution"
  bottom: "inception_1a/output"
  top: "inception_1b/3x3_reduce"
  param {
    lr_mult: 1
    decay_mult: 1
  }
  param {
    lr_mult: 2
    decay_mult: 0
  }
  convolution_param {
    num_output: 64
    kernel_size: 1
    weight_filler {
      type: "xavier"
    }
    bias_filler {
      type: "constant"
      value: 0.2
    }
  }
}
layer {
  name: "inception_1b/relu_3x3_reduce"
  type: "ReLU"
  bottom: "inception_1b/3x3_reduce"
  top: "inception_1b/3x3_reduce"
}
layer {
  name: "inception_1b/3x3"
  type: "Convolution"
  bottom: "inception_1b/3x3_reduce"
  top: "inception_1b/3x3"
  param {
    lr_mult: 1
    decay_mult: 1
  }
  param {
    lr_mult: 2
    decay_mult: 0
  }
  convolution_param {
    num_output: 64
    pad: 1
    kernel_size: 3
    stride: 2
    weight_filler {
      type: "xavier"
    }
    bias_filler {
      type: "constant"
      value: 0.2
    }
  }
}
layer {
  name: "inception_1b/relu_3x3"
  type: "ReLU"
  bottom: "inception_1b/3x3"
  top: "inception_1b/3x3"
}
layer {
  name: "inception_1b/double_3x3_reduce"
  type: "Convolution"
  bottom: "inception_1a/output"
  top: "inception_1b/double_3x3_reduce"
  param {
    lr_mult: 1
    decay_mult: 1
  }
  param {
    lr_mult: 2
    decay_mult: 0
  }
  convolution_param {
    num_output: 64
    kernel_size: 1
    weight_filler {
      type: "xavier"
    }
    bias_filler {
      type: "constant"
      value: 0.2
    }
  }
}
layer {
  name: "inception_1b/relu_double_3x3_reduce"
  type: "ReLU"
  bottom: "inception_1b/double_3x3_reduce"
  top: "inception_1b/double_3x3_reduce"
}
layer {
  name: "inception_1b/double_3x3_1"
  type: "Convolution"
  bottom: "inception_1b/double_3x3_reduce"
  top: "inception_1b/double_3x3_1"
  param {
    lr_mult: 1
    decay_mult: 1
  }
  param {
    lr_mult: 2
    decay_mult: 0
  }
  convolution_param {
    num_output: 64
    pad: 1
    kernel_size: 3
    weight_filler {
      type: "xavier"
    }
    bias_filler {
      type: "constant"
      value: 0.2
    }
  }
}
layer {
  name: "inception_1b/relu_double_3x3_1"
  type: "ReLU"
  bottom: "inception_1b/double_3x3_1"
  top: "inception_1b/double_3x3_1"
}
layer {
  name: "inception_1b/double_3x3_2"
  type: "Convolution"
  bottom: "inception_1b/double_3x3_1"
  top: "inception_1b/double_3x3_2"
  param {
    lr_mult: 1
    decay_mult: 1
  }
  param {
    lr_mult: 2
    decay_mult: 0
  }
  convolution_param {
    num_output: 64
    pad: 1
    kernel_size: 3
    stride: 2
    weight_filler {
      type: "xavier"
    }
    bias_filler {
      type: "constant"
      value: 0.2
    }
  }
}
layer {
  name: "inception_1b/relu_double_3x3_2"
  type: "ReLU"
  bottom: "inception_1b/double_3x3_2"
  top: "inception_1b/double_3x3_2"
}
layer {
  name: "inception_1b/pool"
  type: "Pooling"
  bottom: "inception_1a/output"
  top: "inception_1b/pool"
  pooling_param {
    pool: MAX
    kernel_size: 3
    stride: 2
  }
}
layer {
  name: "inception_1b/output"
  type: "Concat"
  bottom: "inception_1b/3x3"
  bottom: "inception_1b/double_3x3_2"
  bottom: "inception_1b/pool"
  top: "inception_1b/output"
}
layer {
  name: "inception_2a/1x1"
  type: "Convolution"
  bottom: "inception_1b/output"
  top: "inception_2a/1x1"
  param {
    lr_mult: 1
    decay_mult: 1
  }
  param {
    lr_mult: 2
    decay_mult: 0
  }
  convolution_param {
    num_output: 128
    kernel_size: 1
    weight_filler {
      type: "xavier"
    }
    bias_filler {
      type: "constant"
      value: 0.2
    }
  }
}
layer {
  name: "inception_2a/relu_1x1"
  type: "ReLU"
  bottom: "inception_2a/1x1"
  top: "inception_2a/1x1"
}
layer {
  name: "inception_2a/3x3_reduce"
  type: "Convolution"
  bottom: "inception_1b/output"
  top: "inception_2a/3x3_reduce"
  param {
    lr_mult: 1
    decay_mult: 1
  }
  param {
    lr_mult: 2
    decay_mult: 0
  }
  convolution_param {
    num_output: 128
    kernel_size: 1
    weight_filler {
      type: "xavier"
    }
    bias_filler {
      type: "constant"
      value: 0.2
    }
  }
}
layer {
  name: "inception_2a/relu_3x3_reduce"
  type: "ReLU"
  bottom: "inception_2a/3x3_reduce"
  top: "inception_2a/3x3_reduce"
}
layer {
  name: "inception_2a/3x3"
  type: "Convolution"
  bottom: "inception_2a/3x3_reduce"
  top: "inception_2a/3x3"
  param {
    lr_mult: 1
    decay_mult: 1
  }
  param {
    lr_mult: 2
    decay_mult: 0
  }
  convolution_param {
    num_output: 128
    pad: 1
    kernel_size: 3
    weight_filler {
      type: "xavier"
    }
    bias_filler {
      type: "constant"
      value: 0.2
    }
  }
}
layer {
  name: "inception_2a/relu_3x3"
  type: "ReLU"
  bottom: "inception_2a/3x3"
  top: "inception_2a/3x3"
}
layer {
  name: "inception_2a/double_3x3_reduce"
  type: "Convolution"
  bottom: "inception_1b/output"
  top: "inception_2a/double_3x3_reduce"
  param {
    lr_mult: 1
    decay_mult: 1
  }
  param {
    lr_mult: 2
    decay_mult: 0
  }
  convolution_param {
    num_output: 128
    kernel_size: 1
    weight_filler {
      type: "xavier"
    }
    bias_filler {
      type: "constant"
      value: 0.2
    }
  }
}
layer {
  name: "inception_2a/relu_double_3x3_reduce"
  type: "ReLU"
  bottom: "inception_2a/double_3x3_reduce"
  top: "inception_2a/double_3x3_reduce"
}
layer {
  name: "inception_2a/double_3x3_1"
  type: "Convolution"
  bottom: "inception_2a/double_3x3_reduce"
  top: "inception_2a/double_3x3_1"
  param {
    lr_mult: 1
    decay_mult: 1
  }
  param {
    lr_mult: 2
    decay_mult: 0
  }
  convolution_param {
    num_output: 128
    pad: 1
    kernel_size: 3
    weight_filler {
      type: "xavier"
    }
    bias_filler {
      type: "constant"
      value: 0.2
    }
  }
}
layer {
  name: "inception_2a/relu_double_3x3_1"
  type: "ReLU"
  bottom: "inception_2a/double_3x3_1"
  top: "inception_2a/double_3x3_1"
}
layer {
  name: "inception_2a/double_3x3_2"
  type: "Convolution"
  bottom: "inception_2a/double_3x3_1"
  top: "inception_2a/double_3x3_2"
  param {
    lr_mult: 1
    decay_mult: 1
  }
  param {
    lr_mult: 2
    decay_mult: 0
  }
  convolution_param {
    num_output: 128
    pad: 1
    kernel_size: 3
    weight_filler {
      type: "xavier"
    }
    bias_filler {
      type: "constant"
      value: 0.2
    }
  }
}
layer {
  name: "inception_2a/relu_double_3x3_2"
  type: "ReLU"
  bottom: "inception_2a/double_3x3_2"
  top: "inception_2a/double_3x3_2"
}
layer {
  name: "inception_2a/pool"
  type: "Pooling"
  bottom: "inception_1b/output"
  top: "inception_2a/pool"
  pooling_param {
    pool: AVE
    kernel_size: 3
    stride: 1
    pad: 1
  }
}
layer {
  name: "inception_2a/pool_proj"
  type: "Convolution"
  bottom: "inception_2a/pool"
  top: "inception_2a/pool_proj"
  param {
    lr_mult: 1
    decay_mult: 1
  }
  param {
    lr_mult: 2
    decay_mult: 0
  }
  convolution_param {
    num_output: 128
    kernel_size: 1
    weight_filler {
      type: "xavier"
    }
    bias_filler {
      type: "constant"
      value: 0.2
    }
  }
}
layer {
  name: "inception_2a/relu_pool_proj"
  type: "ReLU"
  bottom: "inception_2a/pool_proj"
  top: "inception_2a/pool_proj"
}
layer {
  name: "inception_2a/output"
  type: "Concat"
  bottom: "inception_2a/1x1"
  bottom: "inception_2a/3x3"
  bottom: "inception_2a/double_3x3_2"
  bottom: "inception_2a/pool_proj"
  top: "inception_2a/output"
}
layer {
  name: "inception_2b/3x3_reduce"
  type: "Convolution"
  bottom: "inception_2a/output"
  top: "inception_2b/3x3_reduce"
  param {
    lr_mult: 1
    decay_mult: 1
  }
  param {
    lr_mult: 2
    decay_mult: 0
  }
  convolution_param {
    num_output: 128
    kernel_size: 1
    weight_filler {
      type: "xavier"
    }
    bias_filler {
      type: "constant"
      value: 0.2
    }
  }
}
layer {
  name: "inception_2b/relu_3x3_reduce"
  type: "ReLU"
  bottom: "inception_2b/3x3_reduce"
  top: "inception_2b/3x3_reduce"
}
layer {
  name: "inception_2b/3x3"
  type: "Convolution"
  bottom: "inception_2b/3x3_reduce"
  top: "inception_2b/3x3"
  param {
    lr_mult: 1
    decay_mult: 1
  }
  param {
    lr_mult: 2
    decay_mult: 0
  }
  convolution_param {
    num_output: 128
    pad: 1
    kernel_size: 3
    stride: 2
    weight_filler {
      type: "xavier"
    }
    bias_filler {
      type: "constant"
      value: 0.2
    }
  }
}
layer {
  name: "inception_2b/relu_3x3"
  type: "ReLU"
  bottom: "inception_2b/3x3"
  top: "inception_2b/3x3"
}
layer {
  name: "inception_2b/double_3x3_reduce"
  type: "Convolution"
  bottom: "inception_2a/output"
  top: "inception_2b/double_3x3_reduce"
  param {
    lr_mult: 1
    decay_mult: 1
  }
  param {
    lr_mult: 2
    decay_mult: 0
  }
  convolution_param {
    num_output: 128
    kernel_size: 1
    weight_filler {
      type: "xavier"
    }
    bias_filler {
      type: "constant"
      value: 0.2
    }
  }
}
layer {
  name: "inception_2b/relu_double_3x3_reduce"
  type: "ReLU"
  bottom: "inception_2b/double_3x3_reduce"
  top: "inception_2b/double_3x3_reduce"
}
layer {
  name: "inception_2b/double_3x3_1"
  type: "Convolution"
  bottom: "inception_2b/double_3x3_reduce"
  top: "inception_2b/double_3x3_1"
  param {
    lr_mult: 1
    decay_mult: 1
  }
  param {
    lr_mult: 2
    decay_mult: 0
  }
  convolution_param {
    num_output: 128
    pad: 1
    kernel_size: 3
    weight_filler {
      type: "xavier"
    }
    bias_filler {
      type: "constant"
      value: 0.2
    }
  }
}
layer {
  name: "inception_2b/relu_double_3x3_1"
  type: "ReLU"
  bottom: "inception_2b/double_3x3_1"
  top: "inception_2b/double_3x3_1"
}
layer {
  name: "inception_2b/double_3x3_2"
  type: "Convolution"
  bottom: "inception_2b/double_3x3_1"
  top: "inception_2b/double_3x3_2"
  param {
    lr_mult: 1
    decay_mult: 1
  }
  param {
    lr_mult: 2
    decay_mult: 0
  }
  convolution_param {
    num_output: 128
    pad: 1
    kernel_size: 3
    stride: 2
    weight_filler {
      type: "xavier"
    }
    bias_filler {
      type: "constant"
      value: 0.2
    }
  }
}
layer {
  name: "inception_2b/relu_double_3x3_2"
  type: "ReLU"
  bottom: "inception_2b/double_3x3_2"
  top: "inception_2b/double_3x3_2"
}
layer {
  name: "inception_2b/pool"
  type: "Pooling"
  bottom: "inception_2a/output"
  top: "inception_2b/pool"
  pooling_param {
    pool: MAX
    kernel_size: 3
    stride: 2
  }
}
layer {
  name: "inception_2b/output"
  type: "Concat"
  bottom: "inception_2b/3x3"
  bottom: "inception_2b/double_3x3_2"
  bottom: "inception_2b/pool"
  top: "inception_2b/output"
}
layer {
  name: "inception_3a/1x1"
  type: "Convolution"
  bottom: "inception_2b/output"
  top: "inception_3a/1x1"
  param {
    lr_mult: 1
    decay_mult: 1
  }
  param {
    lr_mult: 2
    decay_mult: 0
  }
  convolution_param {
    num_output: 256
    kernel_size: 1
    weight_filler {
      type: "xavier"
    }
    bias_filler {
      type: "constant"
      value: 0.2
    }
  }
}
layer {
  name: "inception_3a/relu_1x1"
  type: "ReLU"
  bottom: "inception_3a/1x1"
  top: "inception_3a/1x1"
}
layer {
  name: "inception_3a/3x3_reduce"
  type: "Convolution"
  bottom: "inception_2b/output"
  top: "inception_3a/3x3_reduce"
  param {
    lr_mult: 1
    decay_mult: 1
  }
  param {
    lr_mult: 2
    decay_mult: 0
  }
  convolution_param {
    num_output: 256
    kernel_size: 1
    weight_filler {
      type: "xavier"
    }
    bias_filler {
      type: "constant"
      value: 0.2
    }
  }
}
layer {
  name: "inception_3a/relu_3x3_reduce"
  type: "ReLU"
  bottom: "inception_3a/3x3_reduce"
  top: "inception_3a/3x3_reduce"
}
layer {
  name: "inception_3a/3x3"
  type: "Convolution"
  bottom: "inception_3a/3x3_reduce"
  top: "inception_3a/3x3"
  param {
    lr_mult: 1
    decay_mult: 1
  }
  param {
    lr_mult: 2
    decay_mult: 0
  }
  convolution_param {
    num_output: 256
    pad: 1
    kernel_size: 3
    weight_filler {
      type: "xavier"
    }
    bias_filler {
      type: "constant"
      value: 0.2
    }
  }
}
layer {
  name: "inception_3a/relu_3x3"
  type: "ReLU"
  bottom: "inception_3a/3x3"
  top: "inception_3a/3x3"
}
layer {
  name: "inception_3a/double_3x3_reduce"
  type: "Convolution"
  bottom: "inception_2b/output"
  top: "inception_3a/double_3x3_reduce"
  param {
    lr_mult: 1
    decay_mult: 1
  }
  param {
    lr_mult: 2
    decay_mult: 0
  }
  convolution_param {
    num_output: 256
    kernel_size: 1
    weight_filler {
      type: "xavier"
    }
    bias_filler {
      type: "constant"
      value: 0.2
    }
  }
}
layer {
  name: "inception_3a/relu_double_3x3_reduce"
  type: "ReLU"
  bottom: "inception_3a/double_3x3_reduce"
  top: "inception_3a/double_3x3_reduce"
}
layer {
  name: "inception_3a/double_3x3_1"
  type: "Convolution"
  bottom: "inception_3a/double_3x3_reduce"
  top: "inception_3a/double_3x3_1"
  param {
    lr_mult: 1
    decay_mult: 1
  }
  param {
    lr_mult: 2
    decay_mult: 0
  }
  convolution_param {
    num_output: 256
    pad: 1
    kernel_size: 3
    weight_filler {
      type: "xavier"
    }
    bias_filler {
      type: "constant"
      value: 0.2
    }
  }
}
layer {
  name: "inception_3a/relu_double_3x3_1"
  type: "ReLU"
  bottom: "inception_3a/double_3x3_1"
  top: "inception_3a/double_3x3_1"
}
layer {
  name: "inception_3a/double_3x3_2"
  type: "Convolution"
  bottom: "inception_3a/double_3x3_1"
  top: "inception_3a/double_3x3_2"
  param {
    lr_mult: 1
    decay_mult: 1
  }
  param {
    lr_mult: 2
    decay_mult: 0
  }
  convolution_param {
    num_output: 256
    pad: 1
    kernel_size: 3
    weight_filler {
      type: "xavier"
    }
    bias_filler {
      type: "constant"
      value: 0.2
    }
  }
}
layer {
  name: "inception_3a/relu_double_3x3_2"
  type: "ReLU"
  bottom: "inception_3a/double_3x3_2"
  top: "inception_3a/double_3x3_2"
}
layer {
  name: "inception_3a/pool"
  type: "Pooling"
  bottom: "inception_2b/output"
  top: "inception_3a/pool"
  pooling_param {
    pool: AVE
    kernel_size: 3
    stride: 1
    pad: 1
  }
}
layer {
  name: "inception_3a/pool_proj"
  type: "Convolution"
  bottom: "inception_3a/pool"
  top: "inception_3a/pool_proj"
  param {
    lr_mult: 1
    decay_mult: 1
  }
  param {
    lr_mult: 2
    decay_mult: 0
  }
  convolution_param {
    num_output: 256
    kernel_size: 1
    weight_filler {
      type: "xavier"
    }
    bias_filler {
      type: "constant"
      value: 0.2
    }
  }
}
layer {
  name: "inception_3a/relu_pool_proj"
  type: "ReLU"
  bottom: "inception_3a/pool_proj"
  top: "inception_3a/pool_proj"
}
layer {
  name: "inception_3a/output"
  type: "Concat"
  bottom: "inception_3a/1x1"
  bottom: "inception_3a/3x3"
  bottom: "inception_3a/double_3x3_2"
  bottom: "inception_3a/pool_proj"
  top: "inception_3a/output"
}
layer {
  name: "inception_3b/3x3_reduce"
  type: "Convolution"
  bottom: "inception_3a/output"
  top: "inception_3b/3x3_reduce"
  param {
    lr_mult: 1
    decay_mult: 1
  }
  param {
    lr_mult: 2
    decay_mult: 0
  }
  convolution_param {
    num_output: 256
    kernel_size: 1
    weight_filler {
      type: "xavier"
    }
    bias_filler {
      type: "constant"
      value: 0.2
    }
  }
}
layer {
  name: "inception_3b/relu_3x3_reduce"
  type: "ReLU"
  bottom: "inception_3b/3x3_reduce"
  top: "inception_3b/3x3_reduce"
}
layer {
  name: "inception_3b/3x3"
  type: "Convolution"
  bottom: "inception_3b/3x3_reduce"
  top: "inception_3b/3x3"
  param {
    lr_mult: 1
    decay_mult: 1
  }
  param {
    lr_mult: 2
    decay_mult: 0
  }
  convolution_param {
    num_output: 256
    pad: 1
    kernel_size: 3
    stride: 2
    weight_filler {
      type: "xavier"
    }
    bias_filler {
      type: "constant"
      value: 0.2
    }
  }
}
layer {
  name: "inception_3b/relu_3x3"
  type: "ReLU"
  bottom: "inception_3b/3x3"
  top: "inception_3b/3x3"
}
layer {
  name: "inception_3b/double_3x3_reduce"
  type: "Convolution"
  bottom: "inception_3a/output"
  top: "inception_3b/double_3x3_reduce"
  param {
    lr_mult: 1
    decay_mult: 1
  }
  param {
    lr_mult: 2
    decay_mult: 0
  }
  convolution_param {
    num_output: 256
    kernel_size: 1
    weight_filler {
      type: "xavier"
    }
    bias_filler {
      type: "constant"
      value: 0.2
    }
  }
}
layer {
  name: "inception_3b/relu_double_3x3_reduce"
  type: "ReLU"
  bottom: "inception_3b/double_3x3_reduce"
  top: "inception_3b/double_3x3_reduce"
}
layer {
  name: "inception_3b/double_3x3_1"
  type: "Convolution"
  bottom: "inception_3b/double_3x3_reduce"
  top: "inception_3b/double_3x3_1"
  param {
    lr_mult: 1
    decay_mult: 1
  }
  param {
    lr_mult: 2
    decay_mult: 0
  }
  convolution_param {
    num_output: 256
    pad: 1
    kernel_size: 3
    weight_filler {
      type: "xavier"
    }
    bias_filler {
      type: "constant"
      value: 0.2
    }
  }
}
layer {
  name: "inception_3b/relu_double_3x3_1"
  type: "ReLU"
  bottom: "inception_3b/double_3x3_1"
  top: "inception_3b/double_3x3_1"
}
layer {
  name: "inception_3b/double_3x3_2"
  type: "Convolution"
  bottom: "inception_3b/double_3x3_1"
  top: "inception_3b/double_3x3_2"
  param {
    lr_mult: 1
    decay_mult: 1
  }
  param {
    lr_mult: 2
    decay_mult: 0
  }
  convolution_param {
    num_output: 256
    pad: 1
    kernel_size: 3
    stride: 2
    weight_filler {
      type: "xavier"
    }
    bias_filler {
      type: "constant"
      value: 0.2
    }
  }
}
layer {
  name: "inception_3b/relu_double_3x3_2"
  type: "ReLU"
  bottom: "inception_3b/double_3x3_2"
  top: "inception_3b/double_3x3_2"
}
layer {
  name: "inception_3b/pool"
  type: "Pooling"
  bottom: "inception_3a/output"
  top: "inception_3b/pool"
  pooling_param {
    pool: MAX
    kernel_size: 3
    stride: 2
    pad_h: 0
    pad_w: 1
  }
}
layer {
  name: "inception_3b/output"
  type: "Concat"
  bottom: "inception_3b/3x3"
  bottom: "inception_3b/double_3x3_2"
  bottom: "inception_3b/pool"
  top: "inception_3b/output"
}
layer {
  name: "global_pool"
  type: "Pooling"
  bottom: "inception_3b/output"
  top: "global_pool"
  pooling_param {
    pool: AVE
    stride: 1
    kernel_h: 9
    kernel_w: 4
  }
}
layer {
  name: "fc7"
  type: "InnerProduct"
  bottom: "global_pool"
  top: "fc7"
  param {
    lr_mult: 1
    decay_mult: 1
  }
  param {
    lr_mult: 2
    decay_mult: 0
  }
  inner_product_param {
    num_output: 256
    weight_filler {
      type: "xavier"
    }
    bias_filler {
      type: "constant"
      value: 0
    }
  }
}
layer {
  name: "relu7"
  type: "ReLU"
  bottom: "fc7"
  top: "fc7"
}
layer {
  name: "drop7"
  type: "Dropout"
  bottom: "fc7"
  top: "fc7"
  dropout_param {
    dropout_ratio: 0.5
  }
}
layer {
  name: "fc8_jstl"
  type: "InnerProduct"
  bottom: "fc7"
  top: "fc8_jstl"
  param {
    lr_mult: 1
    decay_mult: 1
  }
  param {
    lr_mult: 2
    decay_mult: 0
  }
  inner_product_param {
    num_output: 2629
    weight_filler {
      type: "gaussian"
      std: 0.001
    }
    bias_filler {
      type: "constant"
      value: 0
    }
  }
}
I0418 10:06:30.044915 31154 net.cpp:413] Input 0 -> data
I0418 10:06:30.044934 31154 layer_factory.hpp:74] Creating layer conv1
I0418 10:06:30.044939 31154 net.cpp:133] Creating Layer conv1
I0418 10:06:30.044942 31154 net.cpp:453] conv1 <- data
I0418 10:06:30.044946 31154 net.cpp:411] conv1 -> conv1
I0418 10:06:30.044951 31154 net.cpp:163] Setting up conv1
I0418 10:06:30.061468 31154 net.cpp:170] Top shape: 1 32 144 56 (258048)
I0418 10:06:30.061482 31154 layer_factory.hpp:74] Creating layer relu1
I0418 10:06:30.061488 31154 net.cpp:133] Creating Layer relu1
I0418 10:06:30.061491 31154 net.cpp:453] relu1 <- conv1
I0418 10:06:30.061493 31154 net.cpp:400] relu1 -> conv1 (in-place)
I0418 10:06:30.061497 31154 net.cpp:163] Setting up relu1
I0418 10:06:30.061602 31154 net.cpp:170] Top shape: 1 32 144 56 (258048)
I0418 10:06:30.061610 31154 layer_factory.hpp:74] Creating layer conv2
I0418 10:06:30.061616 31154 net.cpp:133] Creating Layer conv2
I0418 10:06:30.061619 31154 net.cpp:453] conv2 <- conv1
I0418 10:06:30.061621 31154 net.cpp:411] conv2 -> conv2
I0418 10:06:30.061626 31154 net.cpp:163] Setting up conv2
I0418 10:06:30.111129 31154 net.cpp:170] Top shape: 1 32 144 56 (258048)
I0418 10:06:30.111140 31154 layer_factory.hpp:74] Creating layer relu2
I0418 10:06:30.111145 31154 net.cpp:133] Creating Layer relu2
I0418 10:06:30.111147 31154 net.cpp:453] relu2 <- conv2
I0418 10:06:30.111150 31154 net.cpp:400] relu2 -> conv2 (in-place)
I0418 10:06:30.111155 31154 net.cpp:163] Setting up relu2
I0418 10:06:30.111258 31154 net.cpp:170] Top shape: 1 32 144 56 (258048)
I0418 10:06:30.111263 31154 layer_factory.hpp:74] Creating layer conv3
I0418 10:06:30.111268 31154 net.cpp:133] Creating Layer conv3
I0418 10:06:30.111269 31154 net.cpp:453] conv3 <- conv2
I0418 10:06:30.111274 31154 net.cpp:411] conv3 -> conv3
I0418 10:06:30.111276 31154 net.cpp:163] Setting up conv3
I0418 10:06:30.160666 31154 net.cpp:170] Top shape: 1 32 144 56 (258048)
I0418 10:06:30.160678 31154 layer_factory.hpp:74] Creating layer relu3
I0418 10:06:30.160682 31154 net.cpp:133] Creating Layer relu3
I0418 10:06:30.160684 31154 net.cpp:453] relu3 <- conv3
I0418 10:06:30.160687 31154 net.cpp:400] relu3 -> conv3 (in-place)
I0418 10:06:30.160691 31154 net.cpp:163] Setting up relu3
I0418 10:06:30.160871 31154 net.cpp:170] Top shape: 1 32 144 56 (258048)
I0418 10:06:30.160876 31154 layer_factory.hpp:74] Creating layer pool1
I0418 10:06:30.160881 31154 net.cpp:133] Creating Layer pool1
I0418 10:06:30.160883 31154 net.cpp:453] pool1 <- conv3
I0418 10:06:30.160887 31154 net.cpp:411] pool1 -> pool1
I0418 10:06:30.160892 31154 net.cpp:163] Setting up pool1
I0418 10:06:30.160986 31154 net.cpp:170] Top shape: 1 32 72 28 (64512)
I0418 10:06:30.160991 31154 layer_factory.hpp:74] Creating layer pool1_pool1_0_split
I0418 10:06:30.160995 31154 net.cpp:133] Creating Layer pool1_pool1_0_split
I0418 10:06:30.160997 31154 net.cpp:453] pool1_pool1_0_split <- pool1
I0418 10:06:30.161000 31154 net.cpp:411] pool1_pool1_0_split -> pool1_pool1_0_split_0
I0418 10:06:30.161005 31154 net.cpp:411] pool1_pool1_0_split -> pool1_pool1_0_split_1
I0418 10:06:30.161007 31154 net.cpp:411] pool1_pool1_0_split -> pool1_pool1_0_split_2
I0418 10:06:30.161011 31154 net.cpp:411] pool1_pool1_0_split -> pool1_pool1_0_split_3
I0418 10:06:30.161015 31154 net.cpp:163] Setting up pool1_pool1_0_split
I0418 10:06:30.161018 31154 net.cpp:170] Top shape: 1 32 72 28 (64512)
I0418 10:06:30.161021 31154 net.cpp:170] Top shape: 1 32 72 28 (64512)
I0418 10:06:30.161023 31154 net.cpp:170] Top shape: 1 32 72 28 (64512)
I0418 10:06:30.161026 31154 net.cpp:170] Top shape: 1 32 72 28 (64512)
I0418 10:06:30.161028 31154 layer_factory.hpp:74] Creating layer inception_1a/1x1
I0418 10:06:30.161033 31154 net.cpp:133] Creating Layer inception_1a/1x1
I0418 10:06:30.161036 31154 net.cpp:453] inception_1a/1x1 <- pool1_pool1_0_split_0
I0418 10:06:30.161038 31154 net.cpp:411] inception_1a/1x1 -> inception_1a/1x1
I0418 10:06:30.161042 31154 net.cpp:163] Setting up inception_1a/1x1
I0418 10:06:30.186933 31154 net.cpp:170] Top shape: 1 64 72 28 (129024)
I0418 10:06:30.186944 31154 layer_factory.hpp:74] Creating layer inception_1a/relu_1x1
I0418 10:06:30.186947 31154 net.cpp:133] Creating Layer inception_1a/relu_1x1
I0418 10:06:30.186950 31154 net.cpp:453] inception_1a/relu_1x1 <- inception_1a/1x1
I0418 10:06:30.186954 31154 net.cpp:400] inception_1a/relu_1x1 -> inception_1a/1x1 (in-place)
I0418 10:06:30.186957 31154 net.cpp:163] Setting up inception_1a/relu_1x1
I0418 10:06:30.187137 31154 net.cpp:170] Top shape: 1 64 72 28 (129024)
I0418 10:06:30.187144 31154 layer_factory.hpp:74] Creating layer inception_1a/3x3_reduce
I0418 10:06:30.187150 31154 net.cpp:133] Creating Layer inception_1a/3x3_reduce
I0418 10:06:30.187151 31154 net.cpp:453] inception_1a/3x3_reduce <- pool1_pool1_0_split_1
I0418 10:06:30.187155 31154 net.cpp:411] inception_1a/3x3_reduce -> inception_1a/3x3_reduce
I0418 10:06:30.187162 31154 net.cpp:163] Setting up inception_1a/3x3_reduce
I0418 10:06:30.212999 31154 net.cpp:170] Top shape: 1 64 72 28 (129024)
I0418 10:06:30.213011 31154 layer_factory.hpp:74] Creating layer inception_1a/relu_3x3_reduce
I0418 10:06:30.213016 31154 net.cpp:133] Creating Layer inception_1a/relu_3x3_reduce
I0418 10:06:30.213018 31154 net.cpp:453] inception_1a/relu_3x3_reduce <- inception_1a/3x3_reduce
I0418 10:06:30.213022 31154 net.cpp:400] inception_1a/relu_3x3_reduce -> inception_1a/3x3_reduce (in-place)
I0418 10:06:30.213026 31154 net.cpp:163] Setting up inception_1a/relu_3x3_reduce
I0418 10:06:30.213203 31154 net.cpp:170] Top shape: 1 64 72 28 (129024)
I0418 10:06:30.213210 31154 layer_factory.hpp:74] Creating layer inception_1a/3x3
I0418 10:06:30.213215 31154 net.cpp:133] Creating Layer inception_1a/3x3
I0418 10:06:30.213217 31154 net.cpp:453] inception_1a/3x3 <- inception_1a/3x3_reduce
I0418 10:06:30.213222 31154 net.cpp:411] inception_1a/3x3 -> inception_1a/3x3
I0418 10:06:30.213225 31154 net.cpp:163] Setting up inception_1a/3x3
I0418 10:06:30.260172 31154 net.cpp:170] Top shape: 1 64 72 28 (129024)
I0418 10:06:30.260184 31154 layer_factory.hpp:74] Creating layer inception_1a/relu_3x3
I0418 10:06:30.260187 31154 net.cpp:133] Creating Layer inception_1a/relu_3x3
I0418 10:06:30.260190 31154 net.cpp:453] inception_1a/relu_3x3 <- inception_1a/3x3
I0418 10:06:30.260193 31154 net.cpp:400] inception_1a/relu_3x3 -> inception_1a/3x3 (in-place)
I0418 10:06:30.260197 31154 net.cpp:163] Setting up inception_1a/relu_3x3
I0418 10:06:30.260301 31154 net.cpp:170] Top shape: 1 64 72 28 (129024)
I0418 10:06:30.260306 31154 layer_factory.hpp:74] Creating layer inception_1a/double_3x3_reduce
I0418 10:06:30.260310 31154 net.cpp:133] Creating Layer inception_1a/double_3x3_reduce
I0418 10:06:30.260313 31154 net.cpp:453] inception_1a/double_3x3_reduce <- pool1_pool1_0_split_2
I0418 10:06:30.260316 31154 net.cpp:411] inception_1a/double_3x3_reduce -> inception_1a/double_3x3_reduce
I0418 10:06:30.260320 31154 net.cpp:163] Setting up inception_1a/double_3x3_reduce
I0418 10:06:30.286033 31154 net.cpp:170] Top shape: 1 64 72 28 (129024)
I0418 10:06:30.286043 31154 layer_factory.hpp:74] Creating layer inception_1a/relu_double_3x3_reduce
I0418 10:06:30.286048 31154 net.cpp:133] Creating Layer inception_1a/relu_double_3x3_reduce
I0418 10:06:30.286051 31154 net.cpp:453] inception_1a/relu_double_3x3_reduce <- inception_1a/double_3x3_reduce
I0418 10:06:30.286054 31154 net.cpp:400] inception_1a/relu_double_3x3_reduce -> inception_1a/double_3x3_reduce (in-place)
I0418 10:06:30.286058 31154 net.cpp:163] Setting up inception_1a/relu_double_3x3_reduce
I0418 10:06:30.286237 31154 net.cpp:170] Top shape: 1 64 72 28 (129024)
I0418 10:06:30.286243 31154 layer_factory.hpp:74] Creating layer inception_1a/double_3x3_1
I0418 10:06:30.286250 31154 net.cpp:133] Creating Layer inception_1a/double_3x3_1
I0418 10:06:30.286252 31154 net.cpp:453] inception_1a/double_3x3_1 <- inception_1a/double_3x3_reduce
I0418 10:06:30.286257 31154 net.cpp:411] inception_1a/double_3x3_1 -> inception_1a/double_3x3_1
I0418 10:06:30.286262 31154 net.cpp:163] Setting up inception_1a/double_3x3_1
I0418 10:06:30.333433 31154 net.cpp:170] Top shape: 1 64 72 28 (129024)
I0418 10:06:30.333443 31154 layer_factory.hpp:74] Creating layer inception_1a/relu_double_3x3_1
I0418 10:06:30.333447 31154 net.cpp:133] Creating Layer inception_1a/relu_double_3x3_1
I0418 10:06:30.333451 31154 net.cpp:453] inception_1a/relu_double_3x3_1 <- inception_1a/double_3x3_1
I0418 10:06:30.333454 31154 net.cpp:400] inception_1a/relu_double_3x3_1 -> inception_1a/double_3x3_1 (in-place)
I0418 10:06:30.333458 31154 net.cpp:163] Setting up inception_1a/relu_double_3x3_1
I0418 10:06:30.333641 31154 net.cpp:170] Top shape: 1 64 72 28 (129024)
I0418 10:06:30.333647 31154 layer_factory.hpp:74] Creating layer inception_1a/double_3x3_2
I0418 10:06:30.333652 31154 net.cpp:133] Creating Layer inception_1a/double_3x3_2
I0418 10:06:30.333654 31154 net.cpp:453] inception_1a/double_3x3_2 <- inception_1a/double_3x3_1
I0418 10:06:30.333662 31154 net.cpp:411] inception_1a/double_3x3_2 -> inception_1a/double_3x3_2
I0418 10:06:30.333667 31154 net.cpp:163] Setting up inception_1a/double_3x3_2
I0418 10:06:30.380929 31154 net.cpp:170] Top shape: 1 64 72 28 (129024)
I0418 10:06:30.380942 31154 layer_factory.hpp:74] Creating layer inception_1a/relu_double_3x3_2
I0418 10:06:30.380946 31154 net.cpp:133] Creating Layer inception_1a/relu_double_3x3_2
I0418 10:06:30.380949 31154 net.cpp:453] inception_1a/relu_double_3x3_2 <- inception_1a/double_3x3_2
I0418 10:06:30.380954 31154 net.cpp:400] inception_1a/relu_double_3x3_2 -> inception_1a/double_3x3_2 (in-place)
I0418 10:06:30.380956 31154 net.cpp:163] Setting up inception_1a/relu_double_3x3_2
I0418 10:06:30.381062 31154 net.cpp:170] Top shape: 1 64 72 28 (129024)
I0418 10:06:30.381067 31154 layer_factory.hpp:74] Creating layer inception_1a/pool
I0418 10:06:30.381070 31154 layer_factory.cpp:64] CUDNN does not support padding or multiple tops. Using Caffe's own pooling layer.
I0418 10:06:30.381073 31154 net.cpp:133] Creating Layer inception_1a/pool
I0418 10:06:30.381075 31154 net.cpp:453] inception_1a/pool <- pool1_pool1_0_split_3
I0418 10:06:30.381079 31154 net.cpp:411] inception_1a/pool -> inception_1a/pool
I0418 10:06:30.381083 31154 net.cpp:163] Setting up inception_1a/pool
I0418 10:06:30.381086 31154 net.cpp:170] Top shape: 1 32 72 28 (64512)
I0418 10:06:30.381088 31154 layer_factory.hpp:74] Creating layer inception_1a/pool_proj
I0418 10:06:30.381093 31154 net.cpp:133] Creating Layer inception_1a/pool_proj
I0418 10:06:30.381095 31154 net.cpp:453] inception_1a/pool_proj <- inception_1a/pool
I0418 10:06:30.381098 31154 net.cpp:411] inception_1a/pool_proj -> inception_1a/pool_proj
I0418 10:06:30.381103 31154 net.cpp:163] Setting up inception_1a/pool_proj
I0418 10:06:30.406849 31154 net.cpp:170] Top shape: 1 64 72 28 (129024)
I0418 10:06:30.406860 31154 layer_factory.hpp:74] Creating layer inception_1a/relu_pool_proj
I0418 10:06:30.406864 31154 net.cpp:133] Creating Layer inception_1a/relu_pool_proj
I0418 10:06:30.406867 31154 net.cpp:453] inception_1a/relu_pool_proj <- inception_1a/pool_proj
I0418 10:06:30.406870 31154 net.cpp:400] inception_1a/relu_pool_proj -> inception_1a/pool_proj (in-place)
I0418 10:06:30.406874 31154 net.cpp:163] Setting up inception_1a/relu_pool_proj
I0418 10:06:30.407055 31154 net.cpp:170] Top shape: 1 64 72 28 (129024)
I0418 10:06:30.407061 31154 layer_factory.hpp:74] Creating layer inception_1a/output
I0418 10:06:30.407065 31154 net.cpp:133] Creating Layer inception_1a/output
I0418 10:06:30.407068 31154 net.cpp:453] inception_1a/output <- inception_1a/1x1
I0418 10:06:30.407070 31154 net.cpp:453] inception_1a/output <- inception_1a/3x3
I0418 10:06:30.407073 31154 net.cpp:453] inception_1a/output <- inception_1a/double_3x3_2
I0418 10:06:30.407075 31154 net.cpp:453] inception_1a/output <- inception_1a/pool_proj
I0418 10:06:30.407079 31154 net.cpp:411] inception_1a/output -> inception_1a/output
I0418 10:06:30.407083 31154 net.cpp:163] Setting up inception_1a/output
I0418 10:06:30.407088 31154 net.cpp:170] Top shape: 1 256 72 28 (516096)
I0418 10:06:30.407089 31154 layer_factory.hpp:74] Creating layer inception_1a/output_inception_1a/output_0_split
I0418 10:06:30.407093 31154 net.cpp:133] Creating Layer inception_1a/output_inception_1a/output_0_split
I0418 10:06:30.407094 31154 net.cpp:453] inception_1a/output_inception_1a/output_0_split <- inception_1a/output
I0418 10:06:30.407097 31154 net.cpp:411] inception_1a/output_inception_1a/output_0_split -> inception_1a/output_inception_1a/output_0_split_0
I0418 10:06:30.407101 31154 net.cpp:411] inception_1a/output_inception_1a/output_0_split -> inception_1a/output_inception_1a/output_0_split_1
I0418 10:06:30.407105 31154 net.cpp:411] inception_1a/output_inception_1a/output_0_split -> inception_1a/output_inception_1a/output_0_split_2
I0418 10:06:30.407109 31154 net.cpp:163] Setting up inception_1a/output_inception_1a/output_0_split
…
I0418 12:09:51.384129  6901 layer_factory.hpp:74] Creating layer inception_2a/double_3x3_reduce_bn
I0418 12:09:51.384131  6901 layer_factory.cpp:191] Layer inception_2a/double_3x3_reduce_bn is using CAFFE engine.
I0418 12:09:51.384135  6901 net.cpp:133] Creating Layer inception_2a/double_3x3_reduce_bn
I0418 12:09:51.384138  6901 net.cpp:453] inception_2a/double_3x3_reduce_bn <- inception_2a/double_3x3_reduce
I0418 12:09:51.384141  6901 net.cpp:411] inception_2a/double_3x3_reduce_bn -> inception_2a/double_3x3_reduce_bn
I0418 12:09:51.384146  6901 net.cpp:163] Setting up inception_2a/double_3x3_reduce_bn
I0418 12:09:51.384155  6901 net.cpp:170] Top shape: 10 128 36 14 (645120)
I0418 12:09:51.384161  6901 layer_factory.hpp:74] Creating layer inception_2a/relu_double_3x3_reduce
I0418 12:09:51.384165  6901 net.cpp:133] Creating Layer inception_2a/relu_double_3x3_reduce
I0418 12:09:51.384166  6901 net.cpp:453] inception_2a/relu_double_3x3_reduce <- inception_2a/double_3x3_reduce_bn
I0418 12:09:51.384169  6901 net.cpp:400] inception_2a/relu_double_3x3_reduce -> inception_2a/double_3x3_reduce_bn (in-place)
I0418 12:09:51.384171  6901 net.cpp:163] Setting up inception_2a/relu_double_3x3_reduce
I0418 12:09:51.384363  6901 net.cpp:170] Top shape: 10 128 36 14 (645120)
I0418 12:09:51.384369  6901 layer_factory.hpp:74] Creating layer inception_2a/double_3x3_1
I0418 12:09:51.384373  6901 net.cpp:133] Creating Layer inception_2a/double_3x3_1
I0418 12:09:51.384377  6901 net.cpp:453] inception_2a/double_3x3_1 <- inception_2a/double_3x3_reduce_bn
I0418 12:09:51.384380  6901 net.cpp:411] inception_2a/double_3x3_1 -> inception_2a/double_3x3_1
I0418 12:09:51.384383  6901 net.cpp:163] Setting up inception_2a/double_3x3_1
I0418 12:09:51.434204  6901 net.cpp:170] Top shape: 10 128 36 14 (645120)
I0418 12:09:51.434214  6901 layer_factory.hpp:74] Creating layer inception_2a/double_3x3_1_bn
I0418 12:09:51.434217  6901 layer_factory.cpp:191] Layer inception_2a/double_3x3_1_bn is using CAFFE engine.
I0418 12:09:51.434221  6901 net.cpp:133] Creating Layer inception_2a/double_3x3_1_bn
I0418 12:09:51.434223  6901 net.cpp:453] inception_2a/double_3x3_1_bn <- inception_2a/double_3x3_1
I0418 12:09:51.434227  6901 net.cpp:411] inception_2a/double_3x3_1_bn -> inception_2a/double_3x3_1_bn
I0418 12:09:51.434231  6901 net.cpp:163] Setting up inception_2a/double_3x3_1_bn
I0418 12:09:51.434240  6901 net.cpp:170] Top shape: 10 128 36 14 (645120)
I0418 12:09:51.434247  6901 layer_factory.hpp:74] Creating layer inception_2a/relu_double_3x3_1
I0418 12:09:51.434249  6901 net.cpp:133] Creating Layer inception_2a/relu_double_3x3_1
I0418 12:09:51.434250  6901 net.cpp:453] inception_2a/relu_double_3x3_1 <- inception_2a/double_3x3_1_bn
I0418 12:09:51.434253  6901 net.cpp:400] inception_2a/relu_double_3x3_1 -> inception_2a/double_3x3_1_bn (in-place)
I0418 12:09:51.434257  6901 net.cpp:163] Setting up inception_2a/relu_double_3x3_1
I0418 12:09:51.434443  6901 net.cpp:170] Top shape: 10 128 36 14 (645120)
I0418 12:09:51.434449  6901 layer_factory.hpp:74] Creating layer inception_2a/double_3x3_2
I0418 12:09:51.434454  6901 net.cpp:133] Creating Layer inception_2a/double_3x3_2
I0418 12:09:51.434458  6901 net.cpp:453] inception_2a/double_3x3_2 <- inception_2a/double_3x3_1_bn
I0418 12:09:51.434461  6901 net.cpp:411] inception_2a/double_3x3_2 -> inception_2a/double_3x3_2
I0418 12:09:51.434465  6901 net.cpp:163] Setting up inception_2a/double_3x3_2
I0418 12:09:51.484354  6901 net.cpp:170] Top shape: 10 128 36 14 (645120)
I0418 12:09:51.484364  6901 layer_factory.hpp:74] Creating layer inception_2a/double_3x3_2_bn
I0418 12:09:51.484365  6901 layer_factory.cpp:191] Layer inception_2a/double_3x3_2_bn is using CAFFE engine.
I0418 12:09:51.484369  6901 net.cpp:133] Creating Layer inception_2a/double_3x3_2_bn
I0418 12:09:51.484371  6901 net.cpp:453] inception_2a/double_3x3_2_bn <- inception_2a/double_3x3_2
I0418 12:09:51.484376  6901 net.cpp:411] inception_2a/double_3x3_2_bn -> inception_2a/double_3x3_2_bn
I0418 12:09:51.484380  6901 net.cpp:163] Setting up inception_2a/double_3x3_2_bn
I0418 12:09:51.484390  6901 net.cpp:170] Top shape: 10 128 36 14 (645120)
I0418 12:09:51.484395  6901 layer_factory.hpp:74] Creating layer inception_2a/relu_double_3x3_2
I0418 12:09:51.484398  6901 net.cpp:133] Creating Layer inception_2a/relu_double_3x3_2
I0418 12:09:51.484400  6901 net.cpp:453] inception_2a/relu_double_3x3_2 <- inception_2a/double_3x3_2_bn
I0418 12:09:51.484402  6901 net.cpp:400] inception_2a/relu_double_3x3_2 -> inception_2a/double_3x3_2_bn (in-place)
I0418 12:09:51.484405  6901 net.cpp:163] Setting up inception_2a/relu_double_3x3_2
I0418 12:09:51.484519  6901 net.cpp:170] Top shape: 10 128 36 14 (645120)
I0418 12:09:51.484524  6901 layer_factory.hpp:74] Creating layer inception_2a/pool
I0418 12:09:51.484525  6901 layer_factory.cpp:64] CUDNN does not support padding or multiple tops. Using Caffe's own pooling layer.
I0418 12:09:51.484529  6901 net.cpp:133] Creating Layer inception_2a/pool
I0418 12:09:51.484530  6901 net.cpp:453] inception_2a/pool <- inception_1b/output_inception_1b/output_0_split_3
I0418 12:09:51.484534  6901 net.cpp:411] inception_2a/pool -> inception_2a/pool
I0418 12:09:51.484537  6901 net.cpp:163] Setting up inception_2a/pool
I0418 12:09:51.484541  6901 net.cpp:170] Top shape: 10 384 36 14 (1935360)
I0418 12:09:51.484542  6901 layer_factory.hpp:74] Creating layer inception_2a/pool_proj
I0418 12:09:51.484546  6901 net.cpp:133] Creating Layer inception_2a/pool_proj
I0418 12:09:51.484549  6901 net.cpp:453] inception_2a/pool_proj <- inception_2a/pool
I0418 12:09:51.484551  6901 net.cpp:411] inception_2a/pool_proj -> inception_2a/pool_proj
I0418 12:09:51.484562  6901 net.cpp:163] Setting up inception_2a/pool_proj
I0418 12:09:51.591879  6901 net.cpp:170] Top shape: 10 128 36 14 (645120)
I0418 12:09:51.591889  6901 layer_factory.hpp:74] Creating layer inception_2a/pool_proj_bn
I0418 12:09:51.591892  6901 layer_factory.cpp:191] Layer inception_2a/pool_proj_bn is using CAFFE engine.
I0418 12:09:51.591895  6901 net.cpp:133] Creating Layer inception_2a/pool_proj_bn
I0418 12:09:51.591898  6901 net.cpp:453] inception_2a/pool_proj_bn <- inception_2a/pool_proj
I0418 12:09:51.591902  6901 net.cpp:411] inception_2a/pool_proj_bn -> inception_2a/pool_proj_bn
I0418 12:09:51.591907  6901 net.cpp:163] Setting up inception_2a/pool_proj_bn
I0418 12:09:51.591915  6901 net.cpp:170] Top shape: 10 128 36 14 (645120)
I0418 12:09:51.591929  6901 layer_factory.hpp:74] Creating layer inception_2a/relu_pool_proj
I0418 12:09:51.591933  6901 net.cpp:133] Creating Layer inception_2a/relu_pool_proj
I0418 12:09:51.591933  6901 net.cpp:453] inception_2a/relu_pool_proj <- inception_2a/pool_proj_bn
I0418 12:09:51.591938  6901 net.cpp:400] inception_2a/relu_pool_proj -> inception_2a/pool_proj_bn (in-place)
I0418 12:09:51.591940  6901 net.cpp:163] Setting up inception_2a/relu_pool_proj
I0418 12:09:51.592131  6901 net.cpp:170] Top shape: 10 128 36 14 (645120)
I0418 12:09:51.592138  6901 layer_factory.hpp:74] Creating layer inception_2a/output
I0418 12:09:51.592141  6901 net.cpp:133] Creating Layer inception_2a/output
I0418 12:09:51.592144  6901 net.cpp:453] inception_2a/output <- inception_2a/1x1_bn
I0418 12:09:51.592146  6901 net.cpp:453] inception_2a/output <- inception_2a/3x3_bn
I0418 12:09:51.592149  6901 net.cpp:453] inception_2a/output <- inception_2a/double_3x3_2_bn
I0418 12:09:51.592150  6901 net.cpp:453] inception_2a/output <- inception_2a/pool_proj_bn
I0418 12:09:51.592154  6901 net.cpp:411] inception_2a/output -> inception_2a/output
I0418 12:09:51.592156  6901 net.cpp:163] Setting up inception_2a/output
I0418 12:09:51.592160  6901 net.cpp:170] Top shape: 10 512 36 14 (2580480)
I0418 12:09:51.592162  6901 layer_factory.hpp:74] Creating layer inception_2a/output_inception_2a/output_0_split
I0418 12:09:51.592165  6901 net.cpp:133] Creating Layer inception_2a/output_inception_2a/output_0_split
I0418 12:09:51.592169  6901 net.cpp:453] inception_2a/output_inception_2a/output_0_split <- inception_2a/output
I0418 12:09:51.592171  6901 net.cpp:411] inception_2a/output_inception_2a/output_0_split -> inception_2a/output_inception_2a/output_0_split_0
I0418 12:09:51.592175  6901 net.cpp:411] inception_2a/output_inception_2a/output_0_split -> inception_2a/output_inception_2a/output_0_split_1
I0418 12:09:51.592178  6901 net.cpp:411] inception_2a/output_inception_2a/output_0_split -> inception_2a/output_inception_2a/output_0_split_2
I0418 12:09:51.592181  6901 net.cpp:163] Setting up inception_2a/output_inception_2a/output_0_split
I0418 12:09:51.592185  6901 net.cpp:170] Top shape: 10 512 36 14 (2580480)
I0418 12:09:51.592186  6901 net.cpp:170] Top shape: 10 512 36 14 (2580480)
I0418 12:09:51.592188  6901 net.cpp:170] Top shape: 10 512 36 14 (2580480)
I0418 12:09:51.592190  6901 layer_factory.hpp:74] Creating layer inception_2b/3x3_reduce
I0418 12:09:51.592195  6901 net.cpp:133] Creating Layer inception_2b/3x3_reduce
I0418 12:09:51.592196  6901 net.cpp:453] inception_2b/3x3_reduce <- inception_2a/output_inception_2a/output_0_split_0
I0418 12:09:51.592200  6901 net.cpp:411] inception_2b/3x3_reduce -> inception_2b/3x3_reduce
I0418 12:09:51.592203  6901 net.cpp:163] Setting up inception_2b/3x3_reduce
I0418 12:09:51.733130  6901 net.cpp:170] Top shape: 10 128 36 14 (645120)
I0418 12:09:51.733142  6901 layer_factory.hpp:74] Creating layer inception_2b/3x3_reduce_bn
I0418 12:09:51.733144  6901 layer_factory.cpp:191] Layer inception_2b/3x3_reduce_bn is using CAFFE engine.
I0418 12:09:51.733150  6901 net.cpp:133] Creating Layer inception_2b/3x3_reduce_bn
I0418 12:09:51.733151  6901 net.cpp:453] inception_2b/3x3_reduce_bn <- inception_2b/3x3_reduce
I0418 12:09:51.733155  6901 net.cpp:411] inception_2b/3x3_reduce_bn -> inception_2b/3x3_reduce_bn
I0418 12:09:51.733160  6901 net.cpp:163] Setting up inception_2b/3x3_reduce_bn
I0418 12:09:51.733168  6901 net.cpp:170] Top shape: 10 128 36 14 (645120)
I0418 12:09:51.733173  6901 layer_factory.hpp:74] Creating layer inception_2b/relu_3x3_reduce
I0418 12:09:51.733176  6901 net.cpp:133] Creating Layer inception_2b/relu_3x3_reduce
I0418 12:09:51.733178  6901 net.cpp:453] inception_2b/relu_3x3_reduce <- inception_2b/3x3_reduce_bn
I0418 12:09:51.733180  6901 net.cpp:400] inception_2b/relu_3x3_reduce -> inception_2b/3x3_reduce_bn (in-place)
I0418 12:09:51.733185  6901 net.cpp:163] Setting up inception_2b/relu_3x3_reduce
I0418 12:09:51.733441  6901 net.cpp:170] Top shape: 10 128 36 14 (645120)
I0418 12:09:51.733448  6901 layer_factory.hpp:74] Creating layer inception_2b/3x3
I0418 12:09:51.733453  6901 net.cpp:133] Creating Layer inception_2b/3x3
I0418 12:09:51.733455  6901 net.cpp:453] inception_2b/3x3 <- inception_2b/3x3_reduce_bn
I0418 12:09:51.733459  6901 net.cpp:411] inception_2b/3x3 -> inception_2b/3x3
I0418 12:09:51.733464  6901 net.cpp:163] Setting up inception_2b/3x3
I0418 12:09:51.741477  6901 net.cpp:170] Top shape: 10 128 18 7 (161280)
I0418 12:09:51.741487  6901 layer_factory.hpp:74] Creating layer inception_2b/3x3_bn
I0418 12:09:51.741489  6901 layer_factory.cpp:191] Layer inception_2b/3x3_bn is using CAFFE engine.
I0418 12:09:51.741493  6901 net.cpp:133] Creating Layer inception_2b/3x3_bn
I0418 12:09:51.741497  6901 net.cpp:453] inception_2b/3x3_bn <- inception_2b/3x3
I0418 12:09:51.741499  6901 net.cpp:411] inception_2b/3x3_bn -> inception_2b/3x3_bn
I0418 12:09:51.741504  6901 net.cpp:163] Setting up inception_2b/3x3_bn
I0418 12:09:51.741513  6901 net.cpp:170] Top shape: 10 128 18 7 (161280)
I0418 12:09:51.741518  6901 layer_factory.hpp:74] Creating layer inception_2b/relu_3x3
I0418 12:09:51.741521  6901 net.cpp:133] Creating Layer inception_2b/relu_3x3
I0418 12:09:51.741523  6901 net.cpp:453] inception_2b/relu_3x3 <- inception_2b/3x3_bn
I0418 12:09:51.741525  6901 net.cpp:400] inception_2b/relu_3x3 -> inception_2b/3x3_bn (in-place)
I0418 12:09:51.741528  6901 net.cpp:163] Setting up inception_2b/relu_3x3
I0418 12:09:51.741641  6901 net.cpp:170] Top shape: 10 128 18 7 (161280)
I0418 12:09:51.741646  6901 layer_factory.hpp:74] Creating layer inception_2b/double_3x3_reduce
I0418 12:09:51.741650  6901 net.cpp:133] Creating Layer inception_2b/double_3x3_reduce
I0418 12:09:51.741652  6901 net.cpp:453] inception_2b/double_3x3_reduce <- inception_2a/output_inception_2a/output_0_split_1
I0418 12:09:51.741655  6901 net.cpp:411] inception_2b/double_3x3_reduce -> inception_2b/double_3x3_reduce
I0418 12:09:51.741660  6901 net.cpp:163] Setting up inception_2b/double_3x3_reduce
I0418 12:09:51.882860  6901 net.cpp:170] Top shape: 10 128 36 14 (645120)
I0418 12:09:51.882871  6901 layer_factory.hpp:74] Creating layer inception_2b/double_3x3_reduce_bn
I0418 12:09:51.882874  6901 layer_factory.cpp:191] Layer inception_2b/double_3x3_reduce_bn is using CAFFE engine.
I0418 12:09:51.882879  6901 net.cpp:133] Creating Layer inception_2b/double_3x3_reduce_bn
I0418 12:09:51.882881  6901 net.cpp:453] inception_2b/double_3x3_reduce_bn <- inception_2b/double_3x3_reduce
I0418 12:09:51.882884  6901 net.cpp:411] inception_2b/double_3x3_reduce_bn -> inception_2b/double_3x3_reduce_bn
I0418 12:09:51.882889  6901 net.cpp:163] Setting up inception_2b/double_3x3_reduce_bn
I0418 12:09:51.882899  6901 net.cpp:170] Top shape: 10 128 36 14 (645120)
I0418 12:09:51.882904  6901 layer_factory.hpp:74] Creating layer inception_2b/relu_double_3x3_reduce
I0418 12:09:51.882906  6901 net.cpp:133] Creating Layer inception_2b/relu_double_3x3_reduce
I0418 12:09:51.882908  6901 net.cpp:453] inception_2b/relu_double_3x3_reduce <- inception_2b/double_3x3_reduce_bn
I0418 12:09:51.882910  6901 net.cpp:400] inception_2b/relu_double_3x3_reduce -> inception_2b/double_3x3_reduce_bn (in-place)
I0418 12:09:51.882913  6901 net.cpp:163] Setting up inception_2b/relu_double_3x3_reduce
I0418 12:09:51.883106  6901 net.cpp:170] Top shape: 10 128 36 14 (645120)
I0418 12:09:51.883112  6901 layer_factory.hpp:74] Creating layer inception_2b/double_3x3_1
I0418 12:09:51.883117  6901 net.cpp:133] Creating Layer inception_2b/double_3x3_1
I0418 12:09:51.883119  6901 net.cpp:453] inception_2b/double_3x3_1 <- inception_2b/double_3x3_reduce_bn
I0418 12:09:51.883123  6901 net.cpp:411] inception_2b/double_3x3_1 -> inception_2b/double_3x3_1
I0418 12:09:51.883128  6901 net.cpp:163] Setting up inception_2b/double_3x3_1
I0418 12:09:51.933401  6901 net.cpp:170] Top shape: 10 128 36 14 (645120)
I0418 12:09:51.933411  6901 layer_factory.hpp:74] Creating layer inception_2b/double_3x3_1_bn
I0418 12:09:51.933413  6901 layer_factory.cpp:191] Layer inception_2b/double_3x3_1_bn is using CAFFE engine.
I0418 12:09:51.933418  6901 net.cpp:133] Creating Layer inception_2b/double_3x3_1_bn
I0418 12:09:51.933420  6901 net.cpp:453] inception_2b/double_3x3_1_bn <- inception_2b/double_3x3_1
I0418 12:09:51.933424  6901 net.cpp:411] inception_2b/double_3x3_1_bn -> inception_2b/double_3x3_1_bn
I0418 12:09:51.933429  6901 net.cpp:163] Setting up inception_2b/double_3x3_1_bn
I0418 12:09:51.933437  6901 net.cpp:170] Top shape: 10 128 36 14 (645120)
I0418 12:09:51.933444  6901 layer_factory.hpp:74] Creating layer inception_2b/relu_double_3x3_1
I0418 12:09:51.933446  6901 net.cpp:133] Creating Layer inception_2b/relu_double_3x3_1
I0418 12:09:51.933449  6901 net.cpp:453] inception_2b/relu_double_3x3_1 <- inception_2b/double_3x3_1_bn
I0418 12:09:51.933451  6901 net.cpp:400] inception_2b/relu_double_3x3_1 -> inception_2b/double_3x3_1_bn (in-place)
I0418 12:09:51.933454  6901 net.cpp:163] Setting up inception_2b/relu_double_3x3_1
I0418 12:09:51.933645  6901 net.cpp:170] Top shape: 10 128 36 14 (645120)
I0418 12:09:51.933650  6901 layer_factory.hpp:74] Creating layer inception_2b/double_3x3_2
I0418 12:09:51.933655  6901 net.cpp:133] Creating Layer inception_2b/double_3x3_2
I0418 12:09:51.933657  6901 net.cpp:453] inception_2b/double_3x3_2 <- inception_2b/double_3x3_1_bn
I0418 12:09:51.933661  6901 net.cpp:411] inception_2b/double_3x3_2 -> inception_2b/double_3x3_2
I0418 12:09:51.933665  6901 net.cpp:163] Setting up inception_2b/double_3x3_2
I0418 12:09:51.941987  6901 net.cpp:170] Top shape: 10 128 18 7 (161280)
I0418 12:09:51.941995  6901 layer_factory.hpp:74] Creating layer inception_2b/double_3x3_2_bn
I0418 12:09:51.941998  6901 layer_factory.cpp:191] Layer inception_2b/double_3x3_2_bn is using CAFFE engine.
I0418 12:09:51.942003  6901 net.cpp:133] Creating Layer inception_2b/double_3x3_2_bn
I0418 12:09:51.942004  6901 net.cpp:453] inception_2b/double_3x3_2_bn <- inception_2b/double_3x3_2
I0418 12:09:51.942008  6901 net.cpp:411] inception_2b/double_3x3_2_bn -> inception_2b/double_3x3_2_bn
I0418 12:09:51.942013  6901 net.cpp:163] Setting up inception_2b/double_3x3_2_bn
I0418 12:09:51.942021  6901 net.cpp:170] Top shape: 10 128 18 7 (161280)
I0418 12:09:51.942026  6901 layer_factory.hpp:74] Creating layer inception_2b/relu_double_3x3_2
I0418 12:09:51.942030  6901 net.cpp:133] Creating Layer inception_2b/relu_double_3x3_2
I0418 12:09:51.942033  6901 net.cpp:453] inception_2b/relu_double_3x3_2 <- inception_2b/double_3x3_2_bn
I0418 12:09:51.942034  6901 net.cpp:400] inception_2b/relu_double_3x3_2 -> inception_2b/double_3x3_2_bn (in-place)
I0418 12:09:51.942037  6901 net.cpp:163] Setting up inception_2b/relu_double_3x3_2
I0418 12:09:51.942154  6901 net.cpp:170] Top shape: 10 128 18 7 (161280)
I0418 12:09:51.942158  6901 layer_factory.hpp:74] Creating layer inception_2b/pool
I0418 12:09:51.942162  6901 net.cpp:133] Creating Layer inception_2b/pool
I0418 12:09:51.942164  6901 net.cpp:453] inception_2b/pool <- inception_2a/output_inception_2a/output_0_split_2
I0418 12:09:51.942168  6901 net.cpp:411] inception_2b/pool -> inception_2b/pool
I0418 12:09:51.942173  6901 net.cpp:163] Setting up inception_2b/pool
I0418 12:09:51.942359  6901 net.cpp:170] Top shape: 10 512 18 7 (645120)
I0418 12:09:51.942365  6901 layer_factory.hpp:74] Creating layer inception_2b/output
I0418 12:09:51.942370  6901 net.cpp:133] Creating Layer inception_2b/output
I0418 12:09:51.942373  6901 net.cpp:453] inception_2b/output <- inception_2b/3x3_bn
I0418 12:09:51.942375  6901 net.cpp:453] inception_2b/output <- inception_2b/double_3x3_2_bn
I0418 12:09:51.942378  6901 net.cpp:453] inception_2b/output <- inception_2b/pool
I0418 12:09:51.942380  6901 net.cpp:411] inception_2b/output -> inception_2b/output
I0418 12:09:51.942384  6901 net.cpp:163] Setting up inception_2b/output
I0418 12:09:51.942387  6901 net.cpp:170] Top shape: 10 768 18 7 (967680)
I0418 12:09:51.942389  6901 layer_factory.hpp:74] Creating layer inception_2b/output_inception_2b/output_0_split
I0418 12:09:51.942392  6901 net.cpp:133] Creating Layer inception_2b/output_inception_2b/output_0_split
I0418 12:09:51.942394  6901 net.cpp:453] inception_2b/output_inception_2b/output_0_split <- inception_2b/output
I0418 12:09:51.942396  6901 net.cpp:411] inception_2b/output_inception_2b/output_0_split -> inception_2b/output_inception_2b/output_0_split_0
I0418 12:09:51.942400  6901 net.cpp:411] inception_2b/output_inception_2b/output_0_split -> inception_2b/output_inception_2b/output_0_split_1
I0418 12:09:51.942404  6901 net.cpp:411] inception_2b/output_inception_2b/output_0_split -> inception_2b/output_inception_2b/output_0_split_2
I0418 12:09:51.942407  6901 net.cpp:411] inception_2b/output_inception_2b/output_0_split -> inception_2b/output_inception_2b/output_0_split_3
I0418 12:09:51.942410  6901 net.cpp:163] Setting up inception_2b/output_inception_2b/output_0_split
I0418 12:09:51.942414  6901 net.cpp:170] Top shape: 10 768 18 7 (967680)
I0418 12:09:51.942415  6901 net.cpp:170] Top shape: 10 768 18 7 (967680)
I0418 12:09:51.942417  6901 net.cpp:170] Top shape: 10 768 18 7 (967680)
I0418 12:09:51.942419  6901 net.cpp:170] Top shape: 10 768 18 7 (967680)
I0418 12:09:51.942420  6901 layer_factory.hpp:74] Creating layer inception_3a/1x1
I0418 12:09:51.942425  6901 net.cpp:133] Creating Layer inception_3a/1x1
I0418 12:09:51.942427  6901 net.cpp:453] inception_3a/1x1 <- inception_2b/output_inception_2b/output_0_split_0
I0418 12:09:51.942431  6901 net.cpp:411] inception_3a/1x1 -> inception_3a/1x1
I0418 12:09:51.942435  6901 net.cpp:163] Setting up inception_3a/1x1
I0418 12:09:52.073755  6901 net.cpp:170] Top shape: 10 256 18 7 (322560)
I0418 12:09:52.073765  6901 layer_factory.hpp:74] Creating layer inception_3a/1x1_bn
I0418 12:09:52.073768  6901 layer_factory.cpp:191] Layer inception_3a/1x1_bn is using CAFFE engine.
I0418 12:09:52.073772  6901 net.cpp:133] Creating Layer inception_3a/1x1_bn
I0418 12:09:52.073776  6901 net.cpp:453] inception_3a/1x1_bn <- inception_3a/1x1
I0418 12:09:52.073779  6901 net.cpp:411] inception_3a/1x1_bn -> inception_3a/1x1_bn
I0418 12:09:52.073783  6901 net.cpp:163] Setting up inception_3a/1x1_bn
I0418 12:09:52.073793  6901 net.cpp:170] Top shape: 10 256 18 7 (322560)
I0418 12:09:52.073798  6901 layer_factory.hpp:74] Creating layer inception_3a/relu_1x1
I0418 12:09:52.073801  6901 net.cpp:133] Creating Layer inception_3a/relu_1x1
I0418 12:09:52.073802  6901 net.cpp:453] inception_3a/relu_1x1 <- inception_3a/1x1_bn
I0418 12:09:52.073804  6901 net.cpp:400] inception_3a/relu_1x1 -> inception_3a/1x1_bn (in-place)
I0418 12:09:52.073807  6901 net.cpp:163] Setting up inception_3a/relu_1x1
I0418 12:09:52.073925  6901 net.cpp:170] Top shape: 10 256 18 7 (322560)
I0418 12:09:52.073930  6901 layer_factory.hpp:74] Creating layer inception_3a/3x3_reduce
I0418 12:09:52.073935  6901 net.cpp:133] Creating Layer inception_3a/3x3_reduce
I0418 12:09:52.073937  6901 net.cpp:453] inception_3a/3x3_reduce <- inception_2b/output_inception_2b/output_0_split_1
I0418 12:09:52.073941  6901 net.cpp:411] inception_3a/3x3_reduce -> inception_3a/3x3_reduce
I0418 12:09:52.073945  6901 net.cpp:163] Setting up inception_3a/3x3_reduce
I0418 12:09:52.205494  6901 net.cpp:170] Top shape: 10 256 18 7 (322560)
I0418 12:09:52.205505  6901 layer_factory.hpp:74] Creating layer inception_3a/3x3_reduce_bn
I0418 12:09:52.205508  6901 layer_factory.cpp:191] Layer inception_3a/3x3_reduce_bn is using CAFFE engine.
I0418 12:09:52.205513  6901 net.cpp:133] Creating Layer inception_3a/3x3_reduce_bn
I0418 12:09:52.205514  6901 net.cpp:453] inception_3a/3x3_reduce_bn <- inception_3a/3x3_reduce
I0418 12:09:52.205518  6901 net.cpp:411] inception_3a/3x3_reduce_bn -> inception_3a/3x3_reduce_bn
I0418 12:09:52.205523  6901 net.cpp:163] Setting up inception_3a/3x3_reduce_bn
I0418 12:09:52.205533  6901 net.cpp:170] Top shape: 10 256 18 7 (322560)
I0418 12:09:52.205536  6901 layer_factory.hpp:74] Creating layer inception_3a/relu_3x3_reduce
I0418 12:09:52.205540  6901 net.cpp:133] Creating Layer inception_3a/relu_3x3_reduce
I0418 12:09:52.205541  6901 net.cpp:453] inception_3a/relu_3x3_reduce <- inception_3a/3x3_reduce_bn
I0418 12:09:52.205544  6901 net.cpp:400] inception_3a/relu_3x3_reduce -> inception_3a/3x3_reduce_bn (in-place)
I0418 12:09:52.205546  6901 net.cpp:163] Setting up inception_3a/relu_3x3_reduce
I0418 12:09:52.205747  6901 net.cpp:170] Top shape: 10 256 18 7 (322560)
I0418 12:09:52.205754  6901 layer_factory.hpp:74] Creating layer inception_3a/3x3
I0418 12:09:52.205759  6901 net.cpp:133] Creating Layer inception_3a/3x3
I0418 12:09:52.205760  6901 net.cpp:453] inception_3a/3x3 <- inception_3a/3x3_reduce_bn
I0418 12:09:52.205765  6901 net.cpp:411] inception_3a/3x3 -> inception_3a/3x3
I0418 12:09:52.205768  6901 net.cpp:163] Setting up inception_3a/3x3
I0418 12:09:52.264117  6901 net.cpp:170] Top shape: 10 256 18 7 (322560)
I0418 12:09:52.264127  6901 layer_factory.hpp:74] Creating layer inception_3a/3x3_bn
I0418 12:09:52.264129  6901 layer_factory.cpp:191] Layer inception_3a/3x3_bn is using CAFFE engine.
I0418 12:09:52.264133  6901 net.cpp:133] Creating Layer inception_3a/3x3_bn
I0418 12:09:52.264137  6901 net.cpp:453] inception_3a/3x3_bn <- inception_3a/3x3
I0418 12:09:52.264139  6901 net.cpp:411] inception_3a/3x3_bn -> inception_3a/3x3_bn
I0418 12:09:52.264144  6901 net.cpp:163] Setting up inception_3a/3x3_bn
I0418 12:09:52.264153  6901 net.cpp:170] Top shape: 10 256 18 7 (322560)
I0418 12:09:52.264158  6901 layer_factory.hpp:74] Creating layer inception_3a/relu_3x3
I0418 12:09:52.264163  6901 net.cpp:133] Creating Layer inception_3a/relu_3x3
I0418 12:09:52.264164  6901 net.cpp:453] inception_3a/relu_3x3 <- inception_3a/3x3_bn
I0418 12:09:52.264166  6901 net.cpp:400] inception_3a/relu_3x3 -> inception_3a/3x3_bn (in-place)
I0418 12:09:52.264169  6901 net.cpp:163] Setting up inception_3a/relu_3x3
I0418 12:09:52.264364  6901 net.cpp:170] Top shape: 10 256 18 7 (322560)
I0418 12:09:52.264371  6901 layer_factory.hpp:74] Creating layer inception_3a/double_3x3_reduce
I0418 12:09:52.264376  6901 net.cpp:133] Creating Layer inception_3a/double_3x3_reduce
I0418 12:09:52.264379  6901 net.cpp:453] inception_3a/double_3x3_reduce <- inception_2b/output_inception_2b/output_0_split_2
I0418 12:09:52.264382  6901 net.cpp:411] inception_3a/double_3x3_reduce -> inception_3a/double_3x3_reduce
I0418 12:09:52.264386  6901 net.cpp:163] Setting up inception_3a/double_3x3_reduce
I0418 12:09:52.396795  6901 net.cpp:170] Top shape: 10 256 18 7 (322560)
I0418 12:09:52.396805  6901 layer_factory.hpp:74] Creating layer inception_3a/double_3x3_reduce_bn
I0418 12:09:52.396806  6901 layer_factory.cpp:191] Layer inception_3a/double_3x3_reduce_bn is using CAFFE engine.
I0418 12:09:52.396811  6901 net.cpp:133] Creating Layer inception_3a/double_3x3_reduce_bn
I0418 12:09:52.396813  6901 net.cpp:453] inception_3a/double_3x3_reduce_bn <- inception_3a/double_3x3_reduce
I0418 12:09:52.396817  6901 net.cpp:411] inception_3a/double_3x3_reduce_bn -> inception_3a/double_3x3_reduce_bn
I0418 12:09:52.396821  6901 net.cpp:163] Setting up inception_3a/double_3x3_reduce_bn
I0418 12:09:52.396831  6901 net.cpp:170] Top shape: 10 256 18 7 (322560)
I0418 12:09:52.396836  6901 layer_factory.hpp:74] Creating layer inception_3a/relu_double_3x3_reduce
I0418 12:09:52.396839  6901 net.cpp:133] Creating Layer inception_3a/relu_double_3x3_reduce
I0418 12:09:52.396842  6901 net.cpp:453] inception_3a/relu_double_3x3_reduce <- inception_3a/double_3x3_reduce_bn
I0418 12:09:52.396843  6901 net.cpp:400] inception_3a/relu_double_3x3_reduce -> inception_3a/double_3x3_reduce_bn (in-place)
I0418 12:09:52.396847  6901 net.cpp:163] Setting up inception_3a/relu_double_3x3_reduce
I0418 12:09:52.396966  6901 net.cpp:170] Top shape: 10 256 18 7 (322560)
I0418 12:09:52.396971  6901 layer_factory.hpp:74] Creating layer inception_3a/double_3x3_1
I0418 12:09:52.396976  6901 net.cpp:133] Creating Layer inception_3a/double_3x3_1
I0418 12:09:52.396978  6901 net.cpp:453] inception_3a/double_3x3_1 <- inception_3a/double_3x3_reduce_bn
I0418 12:09:52.396982  6901 net.cpp:411] inception_3a/double_3x3_1 -> inception_3a/double_3x3_1
I0418 12:09:52.396986  6901 net.cpp:163] Setting up inception_3a/double_3x3_1
I0418 12:09:52.455114  6901 net.cpp:170] Top shape: 10 256 18 7 (322560)
I0418 12:09:52.455124  6901 layer_factory.hpp:74] Creating layer inception_3a/double_3x3_1_bn
I0418 12:09:52.455127  6901 layer_factory.cpp:191] Layer inception_3a/double_3x3_1_bn is using CAFFE engine.
I0418 12:09:52.455132  6901 net.cpp:133] Creating Layer inception_3a/double_3x3_1_bn
I0418 12:09:52.455133  6901 net.cpp:453] inception_3a/double_3x3_1_bn <- inception_3a/double_3x3_1
I0418 12:09:52.455137  6901 net.cpp:411] inception_3a/double_3x3_1_bn -> inception_3a/double_3x3_1_bn
I0418 12:09:52.455142  6901 net.cpp:163] Setting up inception_3a/double_3x3_1_bn
I0418 12:09:52.455152  6901 net.cpp:170] Top shape: 10 256 18 7 (322560)
I0418 12:09:52.455157  6901 layer_factory.hpp:74] Creating layer inception_3a/relu_double_3x3_1
I0418 12:09:52.455160  6901 net.cpp:133] Creating Layer inception_3a/relu_double_3x3_1
I0418 12:09:52.455162  6901 net.cpp:453] inception_3a/relu_double_3x3_1 <- inception_3a/double_3x3_1_bn
I0418 12:09:52.455164  6901 net.cpp:400] inception_3a/relu_double_3x3_1 -> inception_3a/double_3x3_1_bn (in-place)
I0418 12:09:52.455168  6901 net.cpp:163] Setting up inception_3a/relu_double_3x3_1
I0418 12:09:52.455361  6901 net.cpp:170] Top shape: 10 256 18 7 (322560)
I0418 12:09:52.455368  6901 layer_factory.hpp:74] Creating layer inception_3a/double_3x3_2
I0418 12:09:52.455374  6901 net.cpp:133] Creating Layer inception_3a/double_3x3_2
I0418 12:09:52.455375  6901 net.cpp:453] inception_3a/double_3x3_2 <- inception_3a/double_3x3_1_bn
I0418 12:09:52.455379  6901 net.cpp:411] inception_3a/double_3x3_2 -> inception_3a/double_3x3_2
I0418 12:09:52.455384  6901 net.cpp:163] Setting up inception_3a/double_3x3_2
I0418 12:09:52.513635  6901 net.cpp:170] Top shape: 10 256 18 7 (322560)
I0418 12:09:52.513645  6901 layer_factory.hpp:74] Creating layer inception_3a/double_3x3_2_bn
I0418 12:09:52.513648  6901 layer_factory.cpp:191] Layer inception_3a/double_3x3_2_bn is using CAFFE engine.
I0418 12:09:52.513651  6901 net.cpp:133] Creating Layer inception_3a/double_3x3_2_bn
I0418 12:09:52.513654  6901 net.cpp:453] inception_3a/double_3x3_2_bn <- inception_3a/double_3x3_2
I0418 12:09:52.513659  6901 net.cpp:411] inception_3a/double_3x3_2_bn -> inception_3a/double_3x3_2_bn
I0418 12:09:52.513662  6901 net.cpp:163] Setting up inception_3a/double_3x3_2_bn
I0418 12:09:52.513672  6901 net.cpp:170] Top shape: 10 256 18 7 (322560)
I0418 12:09:52.513677  6901 layer_factory.hpp:74] Creating layer inception_3a/relu_double_3x3_2
I0418 12:09:52.513680  6901 net.cpp:133] Creating Layer inception_3a/relu_double_3x3_2
I0418 12:09:52.513682  6901 net.cpp:453] inception_3a/relu_double_3x3_2 <- inception_3a/double_3x3_2_bn
I0418 12:09:52.513685  6901 net.cpp:400] inception_3a/relu_double_3x3_2 -> inception_3a/double_3x3_2_bn (in-place)
I0418 12:09:52.513687  6901 net.cpp:163] Setting up inception_3a/relu_double_3x3_2
I0418 12:09:52.513900  6901 net.cpp:170] Top shape: 10 256 18 7 (322560)
I0418 12:09:52.513906  6901 layer_factory.hpp:74] Creating layer inception_3a/pool
I0418 12:09:52.513907  6901 layer_factory.cpp:64] CUDNN does not support padding or multiple tops. Using Caffe's own pooling layer.
I0418 12:09:52.513911  6901 net.cpp:133] Creating Layer inception_3a/pool
I0418 12:09:52.513913  6901 net.cpp:453] inception_3a/pool <- inception_2b/output_inception_2b/output_0_split_3
I0418 12:09:52.513917  6901 net.cpp:411] inception_3a/pool -> inception_3a/pool
I0418 12:09:52.513921  6901 net.cpp:163] Setting up inception_3a/pool
I0418 12:09:52.513924  6901 net.cpp:170] Top shape: 10 768 18 7 (967680)
I0418 12:09:52.513926  6901 layer_factory.hpp:74] Creating layer inception_3a/pool_proj
I0418 12:09:52.513931  6901 net.cpp:133] Creating Layer inception_3a/pool_proj
I0418 12:09:52.513933  6901 net.cpp:453] inception_3a/pool_proj <- inception_3a/pool
I0418 12:09:52.513937  6901 net.cpp:411] inception_3a/pool_proj -> inception_3a/pool_proj
I0418 12:09:52.513942  6901 net.cpp:163] Setting up inception_3a/pool_proj
I0418 12:09:52.646301  6901 net.cpp:170] Top shape: 10 256 18 7 (322560)
I0418 12:09:52.646311  6901 layer_factory.hpp:74] Creating layer inception_3a/pool_proj_bn
I0418 12:09:52.646312  6901 layer_factory.cpp:191] Layer inception_3a/pool_proj_bn is using CAFFE engine.
I0418 12:09:52.646317  6901 net.cpp:133] Creating Layer inception_3a/pool_proj_bn
I0418 12:09:52.646319  6901 net.cpp:453] inception_3a/pool_proj_bn <- inception_3a/pool_proj
I0418 12:09:52.646322  6901 net.cpp:411] inception_3a/pool_proj_bn -> inception_3a/pool_proj_bn
I0418 12:09:52.646327  6901 net.cpp:163] Setting up inception_3a/pool_proj_bn
I0418 12:09:52.646337  6901 net.cpp:170] Top shape: 10 256 18 7 (322560)
I0418 12:09:52.646342  6901 layer_factory.hpp:74] Creating layer inception_3a/relu_pool_proj
I0418 12:09:52.646344  6901 net.cpp:133] Creating Layer inception_3a/relu_pool_proj
I0418 12:09:52.646347  6901 net.cpp:453] inception_3a/relu_pool_proj <- inception_3a/pool_proj_bn
I0418 12:09:52.646349  6901 net.cpp:400] inception_3a/relu_pool_proj -> inception_3a/pool_proj_bn (in-place)
I0418 12:09:52.646352  6901 net.cpp:163] Setting up inception_3a/relu_pool_proj
I0418 12:09:52.646468  6901 net.cpp:170] Top shape: 10 256 18 7 (322560)
I0418 12:09:52.646473  6901 layer_factory.hpp:74] Creating layer inception_3a/output
I0418 12:09:52.646476  6901 net.cpp:133] Creating Layer inception_3a/output
I0418 12:09:52.646478  6901 net.cpp:453] inception_3a/output <- inception_3a/1x1_bn
I0418 12:09:52.646482  6901 net.cpp:453] inception_3a/output <- inception_3a/3x3_bn
I0418 12:09:52.646486  6901 net.cpp:453] inception_3a/output <- inception_3a/double_3x3_2_bn
I0418 12:09:52.646487  6901 net.cpp:453] inception_3a/output <- inception_3a/pool_proj_bn
I0418 12:09:52.646491  6901 net.cpp:411] inception_3a/output -> inception_3a/output
I0418 12:09:52.646493  6901 net.cpp:163] Setting up inception_3a/output
I0418 12:09:52.646497  6901 net.cpp:170] Top shape: 10 1024 18 7 (1290240)
I0418 12:09:52.646498  6901 layer_factory.hpp:74] Creating layer inception_3a/output_inception_3a/output_0_split
I0418 12:09:52.646502  6901 net.cpp:133] Creating Layer inception_3a/output_inception_3a/output_0_split
I0418 12:09:52.646503  6901 net.cpp:453] inception_3a/output_inception_3a/output_0_split <- inception_3a/output
I0418 12:09:52.646507  6901 net.cpp:411] inception_3a/output_inception_3a/output_0_split -> inception_3a/output_inception_3a/output_0_split_0
I0418 12:09:52.646510  6901 net.cpp:411] inception_3a/output_inception_3a/output_0_split -> inception_3a/output_inception_3a/output_0_split_1
I0418 12:09:52.646513  6901 net.cpp:411] inception_3a/output_inception_3a/output_0_split -> inception_3a/output_inception_3a/output_0_split_2
I0418 12:09:52.646517  6901 net.cpp:163] Setting up inception_3a/output_inception_3a/output_0_split
I0418 12:09:52.646519  6901 net.cpp:170] Top shape: 10 1024 18 7 (1290240)
I0418 12:09:52.646522  6901 net.cpp:170] Top shape: 10 1024 18 7 (1290240)
I0418 12:09:52.646523  6901 net.cpp:170] Top shape: 10 1024 18 7 (1290240)
I0418 12:09:52.646525  6901 layer_factory.hpp:74] Creating layer inception_3b/3x3_reduce
I0418 12:09:52.646529  6901 net.cpp:133] Creating Layer inception_3b/3x3_reduce
I0418 12:09:52.646530  6901 net.cpp:453] inception_3b/3x3_reduce <- inception_3a/output_inception_3a/output_0_split_0
I0418 12:09:52.646534  6901 net.cpp:411] inception_3b/3x3_reduce -> inception_3b/3x3_reduce
I0418 12:09:52.646538  6901 net.cpp:163] Setting up inception_3b/3x3_reduce
I0418 12:09:52.822882  6901 net.cpp:170] Top shape: 10 256 18 7 (322560)
I0418 12:09:52.822892  6901 layer_factory.hpp:74] Creating layer inception_3b/3x3_reduce_bn
I0418 12:09:52.822896  6901 layer_factory.cpp:191] Layer inception_3b/3x3_reduce_bn is using CAFFE engine.
I0418 12:09:52.822899  6901 net.cpp:133] Creating Layer inception_3b/3x3_reduce_bn
I0418 12:09:52.822901  6901 net.cpp:453] inception_3b/3x3_reduce_bn <- inception_3b/3x3_reduce
I0418 12:09:52.822906  6901 net.cpp:411] inception_3b/3x3_reduce_bn -> inception_3b/3x3_reduce_bn
I0418 12:09:52.822911  6901 net.cpp:163] Setting up inception_3b/3x3_reduce_bn
I0418 12:09:52.822919  6901 net.cpp:170] Top shape: 10 256 18 7 (322560)
I0418 12:09:52.822924  6901 layer_factory.hpp:74] Creating layer inception_3b/relu_3x3_reduce
I0418 12:09:52.822928  6901 net.cpp:133] Creating Layer inception_3b/relu_3x3_reduce
I0418 12:09:52.822931  6901 net.cpp:453] inception_3b/relu_3x3_reduce <- inception_3b/3x3_reduce_bn
I0418 12:09:52.822932  6901 net.cpp:400] inception_3b/relu_3x3_reduce -> inception_3b/3x3_reduce_bn (in-place)
I0418 12:09:52.822935  6901 net.cpp:163] Setting up inception_3b/relu_3x3_reduce
I0418 12:09:52.823138  6901 net.cpp:170] Top shape: 10 256 18 7 (322560)
I0418 12:09:52.823144  6901 layer_factory.hpp:74] Creating layer inception_3b/3x3
I0418 12:09:52.823149  6901 net.cpp:133] Creating Layer inception_3b/3x3
I0418 12:09:52.823151  6901 net.cpp:453] inception_3b/3x3 <- inception_3b/3x3_reduce_bn
I0418 12:09:52.823155  6901 net.cpp:411] inception_3b/3x3 -> inception_3b/3x3
I0418 12:09:52.823159  6901 net.cpp:163] Setting up inception_3b/3x3
I0418 12:09:52.834975  6901 net.cpp:170] Top shape: 10 256 9 4 (92160)
I0418 12:09:52.834985  6901 layer_factory.hpp:74] Creating layer inception_3b/3x3_bn
I0418 12:09:52.834988  6901 layer_factory.cpp:191] Layer inception_3b/3x3_bn is using CAFFE engine.
I0418 12:09:52.834992  6901 net.cpp:133] Creating Layer inception_3b/3x3_bn
I0418 12:09:52.834995  6901 net.cpp:453] inception_3b/3x3_bn <- inception_3b/3x3
I0418 12:09:52.834998  6901 net.cpp:411] inception_3b/3x3_bn -> inception_3b/3x3_bn
I0418 12:09:52.835003  6901 net.cpp:163] Setting up inception_3b/3x3_bn
I0418 12:09:52.835011  6901 net.cpp:170] Top shape: 10 256 9 4 (92160)
I0418 12:09:52.835016  6901 layer_factory.hpp:74] Creating layer inception_3b/relu_3x3
I0418 12:09:52.835019  6901 net.cpp:133] Creating Layer inception_3b/relu_3x3
I0418 12:09:52.835021  6901 net.cpp:453] inception_3b/relu_3x3 <- inception_3b/3x3_bn
I0418 12:09:52.835024  6901 net.cpp:400] inception_3b/relu_3x3 -> inception_3b/3x3_bn (in-place)
I0418 12:09:52.835027  6901 net.cpp:163] Setting up inception_3b/relu_3x3
I0418 12:09:52.835223  6901 net.cpp:170] Top shape: 10 256 9 4 (92160)
I0418 12:09:52.835230  6901 layer_factory.hpp:74] Creating layer inception_3b/double_3x3_reduce
I0418 12:09:52.835256  6901 net.cpp:133] Creating Layer inception_3b/double_3x3_reduce
I0418 12:09:52.835259  6901 net.cpp:453] inception_3b/double_3x3_reduce <- inception_3a/output_inception_3a/output_0_split_1
I0418 12:09:52.835263  6901 net.cpp:411] inception_3b/double_3x3_reduce -> inception_3b/double_3x3_reduce
I0418 12:09:52.835268  6901 net.cpp:163] Setting up inception_3b/double_3x3_reduce
I0418 12:09:53.011416  6901 net.cpp:170] Top shape: 10 256 18 7 (322560)
I0418 12:09:53.011426  6901 layer_factory.hpp:74] Creating layer inception_3b/double_3x3_reduce_bn
I0418 12:09:53.011430  6901 layer_factory.cpp:191] Layer inception_3b/double_3x3_reduce_bn is using CAFFE engine.
I0418 12:09:53.011435  6901 net.cpp:133] Creating Layer inception_3b/double_3x3_reduce_bn
I0418 12:09:53.011436  6901 net.cpp:453] inception_3b/double_3x3_reduce_bn <- inception_3b/double_3x3_reduce
I0418 12:09:53.011440  6901 net.cpp:411] inception_3b/double_3x3_reduce_bn -> inception_3b/double_3x3_reduce_bn
I0418 12:09:53.011445  6901 net.cpp:163] Setting up inception_3b/double_3x3_reduce_bn
I0418 12:09:53.011454  6901 net.cpp:170] Top shape: 10 256 18 7 (322560)
I0418 12:09:53.011459  6901 layer_factory.hpp:74] Creating layer inception_3b/relu_double_3x3_reduce
I0418 12:09:53.011462  6901 net.cpp:133] Creating Layer inception_3b/relu_double_3x3_reduce
I0418 12:09:53.011464  6901 net.cpp:453] inception_3b/relu_double_3x3_reduce <- inception_3b/double_3x3_reduce_bn
I0418 12:09:53.011467  6901 net.cpp:400] inception_3b/relu_double_3x3_reduce -> inception_3b/double_3x3_reduce_bn (in-place)
I0418 12:09:53.011471  6901 net.cpp:163] Setting up inception_3b/relu_double_3x3_reduce
I0418 12:09:53.011587  6901 net.cpp:170] Top shape: 10 256 18 7 (322560)
I0418 12:09:53.011592  6901 layer_factory.hpp:74] Creating layer inception_3b/double_3x3_1
I0418 12:09:53.011596  6901 net.cpp:133] Creating Layer inception_3b/double_3x3_1
I0418 12:09:53.011598  6901 net.cpp:453] inception_3b/double_3x3_1 <- inception_3b/double_3x3_reduce_bn
I0418 12:09:53.011602  6901 net.cpp:411] inception_3b/double_3x3_1 -> inception_3b/double_3x3_1
I0418 12:09:53.011606  6901 net.cpp:163] Setting up inception_3b/double_3x3_1
I0418 12:09:53.069409  6901 net.cpp:170] Top shape: 10 256 18 7 (322560)
I0418 12:09:53.069419  6901 layer_factory.hpp:74] Creating layer inception_3b/double_3x3_1_bn
I0418 12:09:53.069422  6901 layer_factory.cpp:191] Layer inception_3b/double_3x3_1_bn is using CAFFE engine.
I0418 12:09:53.069427  6901 net.cpp:133] Creating Layer inception_3b/double_3x3_1_bn
I0418 12:09:53.069428  6901 net.cpp:453] inception_3b/double_3x3_1_bn <- inception_3b/double_3x3_1
I0418 12:09:53.069432  6901 net.cpp:411] inception_3b/double_3x3_1_bn -> inception_3b/double_3x3_1_bn
I0418 12:09:53.069437  6901 net.cpp:163] Setting up inception_3b/double_3x3_1_bn
I0418 12:09:53.069447  6901 net.cpp:170] Top shape: 10 256 18 7 (322560)
I0418 12:09:53.069453  6901 layer_factory.hpp:74] Creating layer inception_3b/relu_double_3x3_1
I0418 12:09:53.069455  6901 net.cpp:133] Creating Layer inception_3b/relu_double_3x3_1
I0418 12:09:53.069458  6901 net.cpp:453] inception_3b/relu_double_3x3_1 <- inception_3b/double_3x3_1_bn
I0418 12:09:53.069459  6901 net.cpp:400] inception_3b/relu_double_3x3_1 -> inception_3b/double_3x3_1_bn (in-place)
I0418 12:09:53.069463  6901 net.cpp:163] Setting up inception_3b/relu_double_3x3_1
I0418 12:09:53.069659  6901 net.cpp:170] Top shape: 10 256 18 7 (322560)
I0418 12:09:53.069665  6901 layer_factory.hpp:74] Creating layer inception_3b/double_3x3_2
I0418 12:09:53.069670  6901 net.cpp:133] Creating Layer inception_3b/double_3x3_2
I0418 12:09:53.069672  6901 net.cpp:453] inception_3b/double_3x3_2 <- inception_3b/double_3x3_1_bn
I0418 12:09:53.069676  6901 net.cpp:411] inception_3b/double_3x3_2 -> inception_3b/double_3x3_2
I0418 12:09:53.069680  6901 net.cpp:163] Setting up inception_3b/double_3x3_2
I0418 12:09:53.081568  6901 net.cpp:170] Top shape: 10 256 9 4 (92160)
I0418 12:09:53.081578  6901 layer_factory.hpp:74] Creating layer inception_3b/double_3x3_2_bn
I0418 12:09:53.081581  6901 layer_factory.cpp:191] Layer inception_3b/double_3x3_2_bn is using CAFFE engine.
I0418 12:09:53.081585  6901 net.cpp:133] Creating Layer inception_3b/double_3x3_2_bn
I0418 12:09:53.081588  6901 net.cpp:453] inception_3b/double_3x3_2_bn <- inception_3b/double_3x3_2
I0418 12:09:53.081591  6901 net.cpp:411] inception_3b/double_3x3_2_bn -> inception_3b/double_3x3_2_bn
I0418 12:09:53.081596  6901 net.cpp:163] Setting up inception_3b/double_3x3_2_bn
I0418 12:09:53.081606  6901 net.cpp:170] Top shape: 10 256 9 4 (92160)
I0418 12:09:53.081611  6901 layer_factory.hpp:74] Creating layer inception_3b/relu_double_3x3_2
I0418 12:09:53.081614  6901 net.cpp:133] Creating Layer inception_3b/relu_double_3x3_2
I0418 12:09:53.081616  6901 net.cpp:453] inception_3b/relu_double_3x3_2 <- inception_3b/double_3x3_2_bn
I0418 12:09:53.081619  6901 net.cpp:400] inception_3b/relu_double_3x3_2 -> inception_3b/double_3x3_2_bn (in-place)
I0418 12:09:53.081622  6901 net.cpp:163] Setting up inception_3b/relu_double_3x3_2
I0418 12:09:53.081821  6901 net.cpp:170] Top shape: 10 256 9 4 (92160)
I0418 12:09:53.081827  6901 layer_factory.hpp:74] Creating layer inception_3b/pool
I0418 12:09:53.081830  6901 layer_factory.cpp:64] CUDNN does not support padding or multiple tops. Using Caffe's own pooling layer.
I0418 12:09:53.081832  6901 net.cpp:133] Creating Layer inception_3b/pool
I0418 12:09:53.081835  6901 net.cpp:453] inception_3b/pool <- inception_3a/output_inception_3a/output_0_split_2
I0418 12:09:53.081840  6901 net.cpp:411] inception_3b/pool -> inception_3b/pool
I0418 12:09:53.081843  6901 net.cpp:163] Setting up inception_3b/pool
I0418 12:09:53.081847  6901 net.cpp:170] Top shape: 10 1024 9 4 (368640)
I0418 12:09:53.081850  6901 layer_factory.hpp:74] Creating layer inception_3b/output
I0418 12:09:53.081852  6901 net.cpp:133] Creating Layer inception_3b/output
I0418 12:09:53.081854  6901 net.cpp:453] inception_3b/output <- inception_3b/3x3_bn
I0418 12:09:53.081856  6901 net.cpp:453] inception_3b/output <- inception_3b/double_3x3_2_bn
I0418 12:09:53.081858  6901 net.cpp:453] inception_3b/output <- inception_3b/pool
I0418 12:09:53.081862  6901 net.cpp:411] inception_3b/output -> inception_3b/output
I0418 12:09:53.081866  6901 net.cpp:163] Setting up inception_3b/output
I0418 12:09:53.081868  6901 net.cpp:170] Top shape: 10 1536 9 4 (552960)
I0418 12:09:53.081871  6901 layer_factory.hpp:74] Creating layer global_pool
I0418 12:09:53.081873  6901 net.cpp:133] Creating Layer global_pool
I0418 12:09:53.081874  6901 net.cpp:453] global_pool <- inception_3b/output
I0418 12:09:53.081877  6901 net.cpp:411] global_pool -> global_pool
I0418 12:09:53.081881  6901 net.cpp:163] Setting up global_pool
I0418 12:09:53.081989  6901 net.cpp:170] Top shape: 10 1536 1 1 (15360)
I0418 12:09:53.081993  6901 layer_factory.hpp:74] Creating layer gather_global_pool_to_fc7
I0418 12:09:53.081996  6901 net.cpp:133] Creating Layer gather_global_pool_to_fc7
I0418 12:09:53.081998  6901 net.cpp:453] gather_global_pool_to_fc7 <- global_pool
I0418 12:09:53.082001  6901 net.cpp:411] gather_global_pool_to_fc7 -> gathered_global_pool
I0418 12:09:53.082005  6901 net.cpp:163] Setting up gather_global_pool_to_fc7
I0418 12:09:53.082007  6901 net.cpp:170] Top shape: 20 1536 1 1 (30720)
I0418 12:09:53.082010  6901 layer_factory.hpp:74] Creating layer fc7
I0418 12:09:53.082015  6901 net.cpp:133] Creating Layer fc7
I0418 12:09:53.082015  6901 net.cpp:453] fc7 <- gathered_global_pool
I0418 12:09:53.082018  6901 net.cpp:411] fc7 -> fc7
I0418 12:09:53.082021  6901 net.cpp:163] Setting up fc7
I0418 12:09:53.083561  6901 net.cpp:170] Top shape: 20 256 (5120)
I0418 12:09:53.083566  6901 layer_factory.hpp:74] Creating layer fc7_bn
I0418 12:09:53.083569  6901 layer_factory.cpp:191] Layer fc7_bn is using CAFFE engine.
I0418 12:09:53.083572  6901 net.cpp:133] Creating Layer fc7_bn
I0418 12:09:53.083573  6901 net.cpp:453] fc7_bn <- fc7
I0418 12:09:53.083577  6901 net.cpp:411] fc7_bn -> fc7_bn
I0418 12:09:53.083580  6901 net.cpp:163] Setting up fc7_bn
I0418 12:09:53.083590  6901 net.cpp:170] Top shape: 20 256 (5120)
I0418 12:09:53.083592  6901 layer_factory.hpp:74] Creating layer relu7
I0418 12:09:53.083595  6901 net.cpp:133] Creating Layer relu7
I0418 12:09:53.083596  6901 net.cpp:453] relu7 <- fc7_bn
I0418 12:09:53.083600  6901 net.cpp:400] relu7 -> fc7_bn (in-place)
I0418 12:09:53.083601  6901 net.cpp:163] Setting up relu7
I0418 12:09:53.083793  6901 net.cpp:170] Top shape: 20 256 (5120)
I0418 12:09:53.083799  6901 layer_factory.hpp:74] Creating layer gather_guidance_to_guided_drop7
I0418 12:09:53.083802  6901 net.cpp:133] Creating Layer gather_guidance_to_guided_drop7
I0418 12:09:53.083804  6901 net.cpp:453] gather_guidance_to_guided_drop7 <- guidance
I0418 12:09:53.083807  6901 net.cpp:411] gather_guidance_to_guided_drop7 -> gathered_guidance
I0418 12:09:53.083811  6901 net.cpp:163] Setting up gather_guidance_to_guided_drop7
I0418 12:09:53.083814  6901 net.cpp:170] Top shape: 20 256 1 1 (5120)
I0418 12:09:53.083817  6901 layer_factory.hpp:74] Creating layer guided_drop7
I0418 12:09:53.083819  6901 net.cpp:133] Creating Layer guided_drop7
I0418 12:09:53.083822  6901 net.cpp:453] guided_drop7 <- fc7_bn
I0418 12:09:53.083823  6901 net.cpp:453] guided_drop7 <- gathered_guidance
I0418 12:09:53.083827  6901 net.cpp:400] guided_drop7 -> fc7_bn (in-place)
I0418 12:09:53.083830  6901 net.cpp:163] Setting up guided_drop7
I0418 12:09:53.083834  6901 net.cpp:170] Top shape: 20 256 (5120)
I0418 12:09:53.083837  6901 layer_factory.hpp:74] Creating layer fc8_ilids
I0418 12:09:53.083839  6901 net.cpp:133] Creating Layer fc8_ilids
I0418 12:09:53.083840  6901 net.cpp:453] fc8_ilids <- fc7_bn
I0418 12:09:53.083843  6901 net.cpp:411] fc8_ilids -> fc8_ilids
I0418 12:09:53.083847  6901 net.cpp:163] Setting up fc8_ilids
I0418 12:09:53.084066  6901 net.cpp:170] Top shape: 20 119 (2380)
I0418 12:09:53.084072  6901 layer_factory.hpp:74] Creating layer fc8_ilids_fc8_ilids_0_split
I0418 12:09:53.084076  6901 net.cpp:133] Creating Layer fc8_ilids_fc8_ilids_0_split
I0418 12:09:53.084079  6901 net.cpp:453] fc8_ilids_fc8_ilids_0_split <- fc8_ilids
I0418 12:09:53.084081  6901 net.cpp:411] fc8_ilids_fc8_ilids_0_split -> fc8_ilids_fc8_ilids_0_split_0
I0418 12:09:53.084085  6901 net.cpp:411] fc8_ilids_fc8_ilids_0_split -> fc8_ilids_fc8_ilids_0_split_1
I0418 12:09:53.084087  6901 net.cpp:163] Setting up fc8_ilids_fc8_ilids_0_split
I0418 12:09:53.084090  6901 net.cpp:170] Top shape: 20 119 (2380)
I0418 12:09:53.084092  6901 net.cpp:170] Top shape: 20 119 (2380)
I0418 12:09:53.084094  6901 layer_factory.hpp:74] Creating layer gather_label_data_1_split_to_loss
I0418 12:09:53.084096  6901 net.cpp:133] Creating Layer gather_label_data_1_split_to_loss
I0418 12:09:53.084098  6901 net.cpp:453] gather_label_data_1_split_to_loss <- label_data_1_split_0
I0418 12:09:53.084101  6901 net.cpp:411] gather_label_data_1_split_to_loss -> gathered_label_data_1_split_0
I0418 12:09:53.084103  6901 net.cpp:163] Setting up gather_label_data_1_split_to_loss
I0418 12:09:53.084106  6901 net.cpp:170] Top shape: 20 (20)
I0418 12:09:53.084107  6901 layer_factory.hpp:74] Creating layer loss
I0418 12:09:53.084110  6901 net.cpp:133] Creating Layer loss
I0418 12:09:53.084112  6901 net.cpp:453] loss <- fc8_ilids_fc8_ilids_0_split_0
I0418 12:09:53.084115  6901 net.cpp:453] loss <- gathered_label_data_1_split_0
I0418 12:09:53.084117  6901 net.cpp:411] loss -> loss
I0418 12:09:53.084120  6901 net.cpp:163] Setting up loss
I0418 12:09:53.084122  6901 layer_factory.hpp:74] Creating layer loss
I0418 12:09:53.084239  6901 net.cpp:170] Top shape: (1)
I0418 12:09:53.084242  6901 net.cpp:172]     with loss weight 1
I0418 12:09:53.084250  6901 layer_factory.hpp:74] Creating layer gather_label_data_1_split_to_accuracy
I0418 12:09:53.084254  6901 net.cpp:133] Creating Layer gather_label_data_1_split_to_accuracy
I0418 12:09:53.084254  6901 net.cpp:453] gather_label_data_1_split_to_accuracy <- label_data_1_split_1
I0418 12:09:53.084259  6901 net.cpp:411] gather_label_data_1_split_to_accuracy -> gathered_label_data_1_split_1
I0418 12:09:53.084262  6901 net.cpp:163] Setting up gather_label_data_1_split_to_accuracy
I0418 12:09:53.084264  6901 net.cpp:170] Top shape: 20 (20)
I0418 12:09:53.084265  6901 layer_factory.hpp:74] Creating layer accuracy
I0418 12:09:53.084270  6901 net.cpp:133] Creating Layer accuracy
I0418 12:09:53.084271  6901 net.cpp:453] accuracy <- fc8_ilids_fc8_ilids_0_split_1
I0418 12:09:53.084273  6901 net.cpp:453] accuracy <- gathered_label_data_1_split_1
I0418 12:09:53.084276  6901 net.cpp:411] accuracy -> accuracy
I0418 12:09:53.084297  6901 net.cpp:163] Setting up accuracy
…
