…
I0417 14:39:53.582823  7299 net.cpp:330] The NetState phase (0) differed from the phase (1) specified by a rule in layer accuracy
I0417 14:39:53.583432  7299 net.cpp:47] Initializing net from parameters: 
name: "PRID"
state {
  phase: TRAIN
}
richness: 1000
layer {
  name: "data"
  type: "Data"
  top: "data"
  top: "label"
  include {
    phase: TRAIN
  }
  transform_param {
    mirror: true
    mean_value: 102
    mean_value: 102
    mean_value: 101
    crop_height: 144
    crop_width: 56
  }
  data_param {
    source: "external/exp/db/prid/train_lmdb"
    batch_size: 50
    backend: LMDB
    shuffle_pool_size: 10
  }
}
layer {
  name: "conv1"
  type: "Convolution"
  bottom: "data"
  top: "conv1"
  param {
    lr_mult: 1
    decay_mult: 1
  }
  param {
    lr_mult: 2
    decay_mult: 0
  }
  convolution_param {
    num_output: 32
    pad: 1
    kernel_size: 3
    stride: 1
    weight_filler {
      type: "xavier"
    }
    bias_filler {
      type: "constant"
      value: 0.2
    }
  }
}
layer {
  name: "conv1_bn"
  type: "BN"
  bottom: "conv1"
  top: "conv1_bn"
  param {
    lr_mult: 1
    decay_mult: 0
  }
  param {
    lr_mult: 1
    decay_mult: 0
  }
  bn_param {
    slope_filler {
      type: "constant"
      value: 1
    }
    bias_filler {
      type: "constant"
      value: 0
    }
  }
}
layer {
  name: "relu1"
  type: "ReLU"
  bottom: "conv1_bn"
  top: "conv1_bn"
}
layer {
  name: "conv2"
  type: "Convolution"
  bottom: "conv1_bn"
  top: "conv2"
  param {
    lr_mult: 1
    decay_mult: 1
  }
  param {
    lr_mult: 2
    decay_mult: 0
  }
  convolution_param {
    num_output: 32
    pad: 1
    kernel_size: 3
    stride: 1
    weight_filler {
      type: "xavier"
    }
    bias_filler {
      type: "constant"
      value: 0.2
    }
  }
}
layer {
  name: "conv2_bn"
  type: "BN"
  bottom: "conv2"
  top: "conv2_bn"
  param {
    lr_mult: 1
    decay_mult: 0
  }
  param {
    lr_mult: 1
    decay_mult: 0
  }
  bn_param {
    slope_filler {
      type: "constant"
      value: 1
    }
    bias_filler {
      type: "constant"
      value: 0
    }
  }
}
layer {
  name: "relu2"
  type: "ReLU"
  bottom: "conv2_bn"
  top: "conv2_bn"
}
layer {
  name: "conv3"
  type: "Convolution"
  bottom: "conv2_bn"
  top: "conv3"
  param {
    lr_mult: 1
    decay_mult: 1
  }
  param {
    lr_mult: 2
    decay_mult: 0
  }
  convolution_param {
    num_output: 32
    pad: 1
    kernel_size: 3
    stride: 1
    weight_filler {
      type: "xavier"
    }
    bias_filler {
      type: "constant"
      value: 0.2
    }
  }
}
layer {
  name: "conv3_bn"
  type: "BN"
  bottom: "conv3"
  top: "conv3_bn"
  param {
    lr_mult: 1
    decay_mult: 0
  }
  param {
    lr_mult: 1
    decay_mult: 0
  }
  bn_param {
    slope_filler {
      type: "constant"
      value: 1
    }
    bias_filler {
      type: "constant"
      value: 0
    }
  }
}
layer {
  name: "relu3"
  type: "ReLU"
  bottom: "conv3_bn"
  top: "conv3_bn"
}
layer {
  name: "pool1"
  type: "Pooling"
  bottom: "conv3_bn"
  top: "pool1"
  pooling_param {
    pool: MAX
    kernel_size: 2
    stride: 2
  }
}
layer {
  name: "inception_1a/1x1"
  type: "Convolution"
  bottom: "pool1"
  top: "inception_1a/1x1"
  param {
    lr_mult: 1
    decay_mult: 1
  }
  param {
    lr_mult: 2
    decay_mult: 0
  }
  convolution_param {
    num_output: 64
    kernel_size: 1
    weight_filler {
      type: "xavier"
    }
    bias_filler {
      type: "constant"
      value: 0.2
    }
  }
}
layer {
  name: "inception_1a/1x1_bn"
  type: "BN"
  bottom: "inception_1a/1x1"
  top: "inception_1a/1x1_bn"
  param {
    lr_mult: 1
    decay_mult: 0
  }
  param {
    lr_mult: 1
    decay_mult: 0
  }
  bn_param {
    slope_filler {
      type: "constant"
      value: 1
    }
    bias_filler {
      type: "constant"
      value: 0
    }
  }
}
layer {
  name: "inception_1a/relu_1x1"
  type: "ReLU"
  bottom: "inception_1a/1x1_bn"
  top: "inception_1a/1x1_bn"
}
layer {
  name: "inception_1a/3x3_reduce"
  type: "Convolution"
  bottom: "pool1"
  top: "inception_1a/3x3_reduce"
  param {
    lr_mult: 1
    decay_mult: 1
  }
  param {
    lr_mult: 2
    decay_mult: 0
  }
  convolution_param {
    num_output: 64
    kernel_size: 1
    weight_filler {
      type: "xavier"
    }
    bias_filler {
      type: "constant"
      value: 0.2
    }
  }
}
layer {
  name: "inception_1a/3x3_reduce_bn"
  type: "BN"
  bottom: "inception_1a/3x3_reduce"
  top: "inception_1a/3x3_reduce_bn"
  param {
    lr_mult: 1
    decay_mult: 0
  }
  param {
    lr_mult: 1
    decay_mult: 0
  }
  bn_param {
    slope_filler {
      type: "constant"
      value: 1
    }
    bias_filler {
      type: "constant"
      value: 0
    }
  }
}
layer {
  name: "inception_1a/relu_3x3_reduce"
  type: "ReLU"
  bottom: "inception_1a/3x3_reduce_bn"
  top: "inception_1a/3x3_reduce_bn"
}
layer {
  name: "inception_1a/3x3"
  type: "Convolution"
  bottom: "inception_1a/3x3_reduce_bn"
  top: "inception_1a/3x3"
  param {
    lr_mult: 1
    decay_mult: 1
  }
  param {
    lr_mult: 2
    decay_mult: 0
  }
  convolution_param {
    num_output: 64
    pad: 1
    kernel_size: 3
    weight_filler {
      type: "xavier"
    }
    bias_filler {
      type: "constant"
      value: 0.2
    }
  }
}
layer {
  name: "inception_1a/3x3_bn"
  type: "BN"
  bottom: "inception_1a/3x3"
  top: "inception_1a/3x3_bn"
  param {
    lr_mult: 1
    decay_mult: 0
  }
  param {
    lr_mult: 1
    decay_mult: 0
  }
  bn_param {
    slope_filler {
      type: "constant"
      value: 1
    }
    bias_filler {
      type: "constant"
      value: 0
    }
  }
}
layer {
  name: "inception_1a/relu_3x3"
  type: "ReLU"
  bottom: "inception_1a/3x3_bn"
  top: "inception_1a/3x3_bn"
}
layer {
  name: "inception_1a/double_3x3_reduce"
  type: "Convolution"
  bottom: "pool1"
  top: "inception_1a/double_3x3_reduce"
  param {
    lr_mult: 1
    decay_mult: 1
  }
  param {
    lr_mult: 2
    decay_mult: 0
  }
  convolution_param {
    num_output: 64
    kernel_size: 1
    weight_filler {
      type: "xavier"
    }
    bias_filler {
      type: "constant"
      value: 0.2
    }
  }
}
layer {
  name: "inception_1a/double_3x3_reduce_bn"
  type: "BN"
  bottom: "inception_1a/double_3x3_reduce"
  top: "inception_1a/double_3x3_reduce_bn"
  param {
    lr_mult: 1
    decay_mult: 0
  }
  param {
    lr_mult: 1
    decay_mult: 0
  }
  bn_param {
    slope_filler {
      type: "constant"
      value: 1
    }
    bias_filler {
      type: "constant"
      value: 0
    }
  }
}
layer {
  name: "inception_1a/relu_double_3x3_reduce"
  type: "ReLU"
  bottom: "inception_1a/double_3x3_reduce_bn"
  top: "inception_1a/double_3x3_reduce_bn"
}
layer {
  name: "inception_1a/double_3x3_1"
  type: "Convolution"
  bottom: "inception_1a/double_3x3_reduce_bn"
  top: "inception_1a/double_3x3_1"
  param {
    lr_mult: 1
    decay_mult: 1
  }
  param {
    lr_mult: 2
    decay_mult: 0
  }
  convolution_param {
    num_output: 64
    pad: 1
    kernel_size: 3
    weight_filler {
      type: "xavier"
    }
    bias_filler {
      type: "constant"
      value: 0.2
    }
  }
}
layer {
  name: "inception_1a/double_3x3_1_bn"
  type: "BN"
  bottom: "inception_1a/double_3x3_1"
  top: "inception_1a/double_3x3_1_bn"
  param {
    lr_mult: 1
    decay_mult: 0
  }
  param {
    lr_mult: 1
    decay_mult: 0
  }
  bn_param {
    slope_filler {
      type: "constant"
      value: 1
    }
    bias_filler {
      type: "constant"
      value: 0
    }
  }
}
layer {
  name: "inception_1a/relu_double_3x3_1"
  type: "ReLU"
  bottom: "inception_1a/double_3x3_1_bn"
  top: "inception_1a/double_3x3_1_bn"
}
layer {
  name: "inception_1a/double_3x3_2"
  type: "Convolution"
  bottom: "inception_1a/double_3x3_1_bn"
  top: "inception_1a/double_3x3_2"
  param {
    lr_mult: 1
    decay_mult: 1
  }
  param {
    lr_mult: 2
    decay_mult: 0
  }
  convolution_param {
    num_output: 64
    pad: 1
    kernel_size: 3
    weight_filler {
      type: "xavier"
    }
    bias_filler {
      type: "constant"
      value: 0.2
    }
  }
}
layer {
  name: "inception_1a/double_3x3_2_bn"
  type: "BN"
  bottom: "inception_1a/double_3x3_2"
  top: "inception_1a/double_3x3_2_bn"
  param {
    lr_mult: 1
    decay_mult: 0
  }
  param {
    lr_mult: 1
    decay_mult: 0
  }
  bn_param {
    slope_filler {
      type: "constant"
      value: 1
    }
    bias_filler {
      type: "constant"
      value: 0
    }
  }
}
layer {
  name: "inception_1a/relu_double_3x3_2"
  type: "ReLU"
  bottom: "inception_1a/double_3x3_2_bn"
  top: "inception_1a/double_3x3_2_bn"
}
layer {
  name: "inception_1a/pool"
  type: "Pooling"
  bottom: "pool1"
  top: "inception_1a/pool"
  pooling_param {
    pool: AVE
    kernel_size: 3
    stride: 1
    pad: 1
  }
}
layer {
  name: "inception_1a/pool_proj"
  type: "Convolution"
  bottom: "inception_1a/pool"
  top: "inception_1a/pool_proj"
  param {
    lr_mult: 1
    decay_mult: 1
  }
  param {
    lr_mult: 2
    decay_mult: 0
  }
  convolution_param {
    num_output: 64
    kernel_size: 1
    weight_filler {
      type: "xavier"
    }
    bias_filler {
      type: "constant"
      value: 0.2
    }
  }
}
layer {
  name: "inception_1a/pool_proj_bn"
  type: "BN"
  bottom: "inception_1a/pool_proj"
  top: "inception_1a/pool_proj_bn"
  param {
    lr_mult: 1
    decay_mult: 0
  }
  param {
    lr_mult: 1
    decay_mult: 0
  }
  bn_param {
    slope_filler {
      type: "constant"
      value: 1
    }
    bias_filler {
      type: "constant"
      value: 0
    }
  }
}
layer {
  name: "inception_1a/relu_pool_proj"
  type: "ReLU"
  bottom: "inception_1a/pool_proj_bn"
  top: "inception_1a/pool_proj_bn"
}
layer {
  name: "inception_1a/output"
  type: "Concat"
  bottom: "inception_1a/1x1_bn"
  bottom: "inception_1a/3x3_bn"
  bottom: "inception_1a/double_3x3_2_bn"
  bottom: "inception_1a/pool_proj_bn"
  top: "inception_1a/output"
}
layer {
  name: "inception_1b/3x3_reduce"
  type: "Convolution"
  bottom: "inception_1a/output"
  top: "inception_1b/3x3_reduce"
  param {
    lr_mult: 1
    decay_mult: 1
  }
  param {
    lr_mult: 2
    decay_mult: 0
  }
  convolution_param {
    num_output: 64
    kernel_size: 1
    weight_filler {
      type: "xavier"
    }
    bias_filler {
      type: "constant"
      value: 0.2
    }
  }
}
layer {
  name: "inception_1b/3x3_reduce_bn"
  type: "BN"
  bottom: "inception_1b/3x3_reduce"
  top: "inception_1b/3x3_reduce_bn"
  param {
    lr_mult: 1
    decay_mult: 0
  }
  param {
    lr_mult: 1
    decay_mult: 0
  }
  bn_param {
    slope_filler {
      type: "constant"
      value: 1
    }
    bias_filler {
      type: "constant"
      value: 0
    }
  }
}
layer {
  name: "inception_1b/relu_3x3_reduce"
  type: "ReLU"
  bottom: "inception_1b/3x3_reduce_bn"
  top: "inception_1b/3x3_reduce_bn"
}
layer {
  name: "inception_1b/3x3"
  type: "Convolution"
  bottom: "inception_1b/3x3_reduce_bn"
  top: "inception_1b/3x3"
  param {
    lr_mult: 1
    decay_mult: 1
  }
  param {
    lr_mult: 2
    decay_mult: 0
  }
  convolution_param {
    num_output: 64
    pad: 1
    kernel_size: 3
    stride: 2
    weight_filler {
      type: "xavier"
    }
    bias_filler {
      type: "constant"
      value: 0.2
    }
  }
}
layer {
  name: "inception_1b/3x3_bn"
  type: "BN"
  bottom: "inception_1b/3x3"
  top: "inception_1b/3x3_bn"
  param {
    lr_mult: 1
    decay_mult: 0
  }
  param {
    lr_mult: 1
    decay_mult: 0
  }
  bn_param {
    slope_filler {
      type: "constant"
      value: 1
    }
    bias_filler {
      type: "constant"
      value: 0
    }
  }
}
layer {
  name: "inception_1b/relu_3x3"
  type: "ReLU"
  bottom: "inception_1b/3x3_bn"
  top: "inception_1b/3x3_bn"
}
layer {
  name: "inception_1b/double_3x3_reduce"
  type: "Convolution"
  bottom: "inception_1a/output"
  top: "inception_1b/double_3x3_reduce"
  param {
    lr_mult: 1
    decay_mult: 1
  }
  param {
    lr_mult: 2
    decay_mult: 0
  }
  convolution_param {
    num_output: 64
    kernel_size: 1
    weight_filler {
      type: "xavier"
    }
    bias_filler {
      type: "constant"
      value: 0.2
    }
  }
}
layer {
  name: "inception_1b/double_3x3_reduce_bn"
  type: "BN"
  bottom: "inception_1b/double_3x3_reduce"
  top: "inception_1b/double_3x3_reduce_bn"
  param {
    lr_mult: 1
    decay_mult: 0
  }
  param {
    lr_mult: 1
    decay_mult: 0
  }
  bn_param {
    slope_filler {
      type: "constant"
      value: 1
    }
    bias_filler {
      type: "constant"
      value: 0
    }
  }
}
layer {
  name: "inception_1b/relu_double_3x3_reduce"
  type: "ReLU"
  bottom: "inception_1b/double_3x3_reduce_bn"
  top: "inception_1b/double_3x3_reduce_bn"
}
layer {
  name: "inception_1b/double_3x3_1"
  type: "Convolution"
  bottom: "inception_1b/double_3x3_reduce_bn"
  top: "inception_1b/double_3x3_1"
  param {
    lr_mult: 1
    decay_mult: 1
  }
  param {
    lr_mult: 2
    decay_mult: 0
  }
  convolution_param {
    num_output: 64
    pad: 1
    kernel_size: 3
    weight_filler {
      type: "xavier"
    }
    bias_filler {
      type: "constant"
      value: 0.2
    }
  }
}
layer {
  name: "inception_1b/double_3x3_1_bn"
  type: "BN"
  bottom: "inception_1b/double_3x3_1"
  top: "inception_1b/double_3x3_1_bn"
  param {
    lr_mult: 1
    decay_mult: 0
  }
  param {
    lr_mult: 1
    decay_mult: 0
  }
  bn_param {
    slope_filler {
      type: "constant"
      value: 1
    }
    bias_filler {
      type: "constant"
      value: 0
    }
  }
}
layer {
  name: "inception_1b/relu_double_3x3_1"
  type: "ReLU"
  bottom: "inception_1b/double_3x3_1_bn"
  top: "inception_1b/double_3x3_1_bn"
}
layer {
  name: "inception_1b/double_3x3_2"
  type: "Convolution"
  bottom: "inception_1b/double_3x3_1_bn"
  top: "inception_1b/double_3x3_2"
  param {
    lr_mult: 1
    decay_mult: 1
  }
  param {
    lr_mult: 2
    decay_mult: 0
  }
  convolution_param {
    num_output: 64
    pad: 1
    kernel_size: 3
    stride: 2
    weight_filler {
      type: "xavier"
    }
    bias_filler {
      type: "constant"
      value: 0.2
    }
  }
}
layer {
  name: "inception_1b/double_3x3_2_bn"
  type: "BN"
  bottom: "inception_1b/double_3x3_2"
  top: "inception_1b/double_3x3_2_bn"
  param {
    lr_mult: 1
    decay_mult: 0
  }
  param {
    lr_mult: 1
    decay_mult: 0
  }
  bn_param {
    slope_filler {
      type: "constant"
      value: 1
    }
    bias_filler {
      type: "constant"
      value: 0
    }
  }
}
layer {
  name: "inception_1b/relu_double_3x3_2"
  type: "ReLU"
  bottom: "inception_1b/double_3x3_2_bn"
  top: "inception_1b/double_3x3_2_bn"
}
layer {
  name: "inception_1b/pool"
  type: "Pooling"
  bottom: "inception_1a/output"
  top: "inception_1b/pool"
  pooling_param {
    pool: MAX
    kernel_size: 3
    stride: 2
  }
}
layer {
  name: "inception_1b/output"
  type: "Concat"
  bottom: "inception_1b/3x3_bn"
  bottom: "inception_1b/double_3x3_2_bn"
  bottom: "inception_1b/pool"
  top: "inception_1b/output"
}
layer {
  name: "inception_2a/1x1"
  type: "Convolution"
  bottom: "inception_1b/output"
  top: "inception_2a/1x1"
  param {
    lr_mult: 1
    decay_mult: 1
  }
  param {
    lr_mult: 2
    decay_mult: 0
  }
  convolution_param {
    num_output: 128
    kernel_size: 1
    weight_filler {
      type: "xavier"
    }
    bias_filler {
      type: "constant"
      value: 0.2
    }
  }
}
layer {
  name: "inception_2a/1x1_bn"
  type: "BN"
  bottom: "inception_2a/1x1"
  top: "inception_2a/1x1_bn"
  param {
    lr_mult: 1
    decay_mult: 0
  }
  param {
    lr_mult: 1
    decay_mult: 0
  }
  bn_param {
    slope_filler {
      type: "constant"
      value: 1
    }
    bias_filler {
      type: "constant"
      value: 0
    }
  }
}
layer {
  name: "inception_2a/relu_1x1"
  type: "ReLU"
  bottom: "inception_2a/1x1_bn"
  top: "inception_2a/1x1_bn"
}
layer {
  name: "inception_2a/3x3_reduce"
  type: "Convolution"
  bottom: "inception_1b/output"
  top: "inception_2a/3x3_reduce"
  param {
    lr_mult: 1
    decay_mult: 1
  }
  param {
    lr_mult: 2
    decay_mult: 0
  }
  convolution_param {
    num_output: 128
    kernel_size: 1
    weight_filler {
      type: "xavier"
    }
    bias_filler {
      type: "constant"
      value: 0.2
    }
  }
}
layer {
  name: "inception_2a/3x3_reduce_bn"
  type: "BN"
  bottom: "inception_2a/3x3_reduce"
  top: "inception_2a/3x3_reduce_bn"
  param {
    lr_mult: 1
    decay_mult: 0
  }
  param {
    lr_mult: 1
    decay_mult: 0
  }
  bn_param {
    slope_filler {
      type: "constant"
      value: 1
    }
    bias_filler {
      type: "constant"
      value: 0
    }
  }
}
layer {
  name: "inception_2a/relu_3x3_reduce"
  type: "ReLU"
  bottom: "inception_2a/3x3_reduce_bn"
  top: "inception_2a/3x3_reduce_bn"
}
layer {
  name: "inception_2a/3x3"
  type: "Convolution"
  bottom: "inception_2a/3x3_reduce_bn"
  top: "inception_2a/3x3"
  param {
    lr_mult: 1
    decay_mult: 1
  }
  param {
    lr_mult: 2
    decay_mult: 0
  }
  convolution_param {
    num_output: 128
    pad: 1
    kernel_size: 3
    weight_filler {
      type: "xavier"
    }
    bias_filler {
      type: "constant"
      value: 0.2
    }
  }
}
layer {
  name: "inception_2a/3x3_bn"
  type: "BN"
  bottom: "inception_2a/3x3"
  top: "inception_2a/3x3_bn"
  param {
    lr_mult: 1
    decay_mult: 0
  }
  param {
    lr_mult: 1
    decay_mult: 0
  }
  bn_param {
    slope_filler {
      type: "constant"
      value: 1
    }
    bias_filler {
      type: "constant"
      value: 0
    }
  }
}
layer {
  name: "inception_2a/relu_3x3"
  type: "ReLU"
  bottom: "inception_2a/3x3_bn"
  top: "inception_2a/3x3_bn"
}
layer {
  name: "inception_2a/double_3x3_reduce"
  type: "Convolution"
  bottom: "inception_1b/output"
  top: "inception_2a/double_3x3_reduce"
  param {
    lr_mult: 1
    decay_mult: 1
  }
  param {
    lr_mult: 2
    decay_mult: 0
  }
  convolution_param {
    num_output: 128
    kernel_size: 1
    weight_filler {
      type: "xavier"
    }
    bias_filler {
      type: "constant"
      value: 0.2
    }
  }
}
layer {
  name: "inception_2a/double_3x3_reduce_bn"
  type: "BN"
  bottom: "inception_2a/double_3x3_reduce"
  top: "inception_2a/double_3x3_reduce_bn"
  param {
    lr_mult: 1
    decay_mult: 0
  }
  param {
    lr_mult: 1
    decay_mult: 0
  }
  bn_param {
    slope_filler {
      type: "constant"
      value: 1
    }
    bias_filler {
      type: "constant"
      value: 0
    }
  }
}
layer {
  name: "inception_2a/relu_double_3x3_reduce"
  type: "ReLU"
  bottom: "inception_2a/double_3x3_reduce_bn"
  top: "inception_2a/double_3x3_reduce_bn"
}
layer {
  name: "inception_2a/double_3x3_1"
  type: "Convolution"
  bottom: "inception_2a/double_3x3_reduce_bn"
  top: "inception_2a/double_3x3_1"
  param {
    lr_mult: 1
    decay_mult: 1
  }
  param {
    lr_mult: 2
    decay_mult: 0
  }
  convolution_param {
    num_output: 128
    pad: 1
    kernel_size: 3
    weight_filler {
      type: "xavier"
    }
    bias_filler {
      type: "constant"
      value: 0.2
    }
  }
}
layer {
  name: "inception_2a/double_3x3_1_bn"
  type: "BN"
  bottom: "inception_2a/double_3x3_1"
  top: "inception_2a/double_3x3_1_bn"
  param {
    lr_mult: 1
    decay_mult: 0
  }
  param {
    lr_mult: 1
    decay_mult: 0
  }
  bn_param {
    slope_filler {
      type: "constant"
      value: 1
    }
    bias_filler {
      type: "constant"
      value: 0
    }
  }
}
layer {
  name: "inception_2a/relu_double_3x3_1"
  type: "ReLU"
  bottom: "inception_2a/double_3x3_1_bn"
  top: "inception_2a/double_3x3_1_bn"
}
layer {
  name: "inception_2a/double_3x3_2"
  type: "Convolution"
  bottom: "inception_2a/double_3x3_1_bn"
  top: "inception_2a/double_3x3_2"
  param {
    lr_mult: 1
    decay_mult: 1
  }
  param {
    lr_mult: 2
    decay_mult: 0
  }
  convolution_param {
    num_output: 128
    pad: 1
    kernel_size: 3
    weight_filler {
      type: "xavier"
    }
    bias_filler {
      type: "constant"
      value: 0.2
    }
  }
}
layer {
  name: "inception_2a/double_3x3_2_bn"
  type: "BN"
  bottom: "inception_2a/double_3x3_2"
  top: "inception_2a/double_3x3_2_bn"
  param {
    lr_mult: 1
    decay_mult: 0
  }
  param {
    lr_mult: 1
    decay_mult: 0
  }
  bn_param {
    slope_filler {
      type: "constant"
      value: 1
    }
    bias_filler {
      type: "constant"
      value: 0
    }
  }
}
layer {
  name: "inception_2a/relu_double_3x3_2"
  type: "ReLU"
  bottom: "inception_2a/double_3x3_2_bn"
  top: "inception_2a/double_3x3_2_bn"
}
layer {
  name: "inception_2a/pool"
  type: "Pooling"
  bottom: "inception_1b/output"
  top: "inception_2a/pool"
  pooling_param {
    pool: AVE
    kernel_size: 3
    stride: 1
    pad: 1
  }
}
layer {
  name: "inception_2a/pool_proj"
  type: "Convolution"
  bottom: "inception_2a/pool"
  top: "inception_2a/pool_proj"
  param {
    lr_mult: 1
    decay_mult: 1
  }
  param {
    lr_mult: 2
    decay_mult: 0
  }
  convolution_param {
    num_output: 128
    kernel_size: 1
    weight_filler {
      type: "xavier"
    }
    bias_filler {
      type: "constant"
      value: 0.2
    }
  }
}
layer {
  name: "inception_2a/pool_proj_bn"
  type: "BN"
  bottom: "inception_2a/pool_proj"
  top: "inception_2a/pool_proj_bn"
  param {
    lr_mult: 1
    decay_mult: 0
  }
  param {
    lr_mult: 1
    decay_mult: 0
  }
  bn_param {
    slope_filler {
      type: "constant"
      value: 1
    }
    bias_filler {
      type: "constant"
      value: 0
    }
  }
}
layer {
  name: "inception_2a/relu_pool_proj"
  type: "ReLU"
  bottom: "inception_2a/pool_proj_bn"
  top: "inception_2a/pool_proj_bn"
}
layer {
  name: "inception_2a/output"
  type: "Concat"
  bottom: "inception_2a/1x1_bn"
  bottom: "inception_2a/3x3_bn"
  bottom: "inception_2a/double_3x3_2_bn"
  bottom: "inception_2a/pool_proj_bn"
  top: "inception_2a/output"
}
layer {
  name: "inception_2b/3x3_reduce"
  type: "Convolution"
  bottom: "inception_2a/output"
  top: "inception_2b/3x3_reduce"
  param {
    lr_mult: 1
    decay_mult: 1
  }
  param {
    lr_mult: 2
    decay_mult: 0
  }
  convolution_param {
    num_output: 128
    kernel_size: 1
    weight_filler {
      type: "xavier"
    }
    bias_filler {
      type: "constant"
      value: 0.2
    }
  }
}
layer {
  name: "inception_2b/3x3_reduce_bn"
  type: "BN"
  bottom: "inception_2b/3x3_reduce"
  top: "inception_2b/3x3_reduce_bn"
  param {
    lr_mult: 1
    decay_mult: 0
  }
  param {
    lr_mult: 1
    decay_mult: 0
  }
  bn_param {
    slope_filler {
      type: "constant"
      value: 1
    }
    bias_filler {
      type: "constant"
      value: 0
    }
  }
}
layer {
  name: "inception_2b/relu_3x3_reduce"
  type: "ReLU"
  bottom: "inception_2b/3x3_reduce_bn"
  top: "inception_2b/3x3_reduce_bn"
}
layer {
  name: "inception_2b/3x3"
  type: "Convolution"
  bottom: "inception_2b/3x3_reduce_bn"
  top: "inception_2b/3x3"
  param {
    lr_mult: 1
    decay_mult: 1
  }
  param {
    lr_mult: 2
    decay_mult: 0
  }
  convolution_param {
    num_output: 128
    pad: 1
    kernel_size: 3
    stride: 2
    weight_filler {
      type: "xavier"
    }
    bias_filler {
      type: "constant"
      value: 0.2
    }
  }
}
layer {
  name: "inception_2b/3x3_bn"
  type: "BN"
  bottom: "inception_2b/3x3"
  top: "inception_2b/3x3_bn"
  param {
    lr_mult: 1
    decay_mult: 0
  }
  param {
    lr_mult: 1
    decay_mult: 0
  }
  bn_param {
    slope_filler {
      type: "constant"
      value: 1
    }
    bias_filler {
      type: "constant"
      value: 0
    }
  }
}
layer {
  name: "inception_2b/relu_3x3"
  type: "ReLU"
  bottom: "inception_2b/3x3_bn"
  top: "inception_2b/3x3_bn"
}
layer {
  name: "inception_2b/double_3x3_reduce"
  type: "Convolution"
  bottom: "inception_2a/output"
  top: "inception_2b/double_3x3_reduce"
  param {
    lr_mult: 1
    decay_mult: 1
  }
  param {
    lr_mult: 2
    decay_mult: 0
  }
  convolution_param {
    num_output: 128
    kernel_size: 1
    weight_filler {
      type: "xavier"
    }
    bias_filler {
      type: "constant"
      value: 0.2
    }
  }
}
layer {
  name: "inception_2b/double_3x3_reduce_bn"
  type: "BN"
  bottom: "inception_2b/double_3x3_reduce"
  top: "inception_2b/double_3x3_reduce_bn"
  param {
    lr_mult: 1
    decay_mult: 0
  }
  param {
    lr_mult: 1
    decay_mult: 0
  }
  bn_param {
    slope_filler {
      type: "constant"
      value: 1
    }
    bias_filler {
      type: "constant"
      value: 0
    }
  }
}
layer {
  name: "inception_2b/relu_double_3x3_reduce"
  type: "ReLU"
  bottom: "inception_2b/double_3x3_reduce_bn"
  top: "inception_2b/double_3x3_reduce_bn"
}
layer {
  name: "inception_2b/double_3x3_1"
  type: "Convolution"
  bottom: "inception_2b/double_3x3_reduce_bn"
  top: "inception_2b/double_3x3_1"
  param {
    lr_mult: 1
    decay_mult: 1
  }
  param {
    lr_mult: 2
    decay_mult: 0
  }
  convolution_param {
    num_output: 128
    pad: 1
    kernel_size: 3
    weight_filler {
      type: "xavier"
    }
    bias_filler {
      type: "constant"
      value: 0.2
    }
  }
}
layer {
  name: "inception_2b/double_3x3_1_bn"
  type: "BN"
  bottom: "inception_2b/double_3x3_1"
  top: "inception_2b/double_3x3_1_bn"
  param {
    lr_mult: 1
    decay_mult: 0
  }
  param {
    lr_mult: 1
    decay_mult: 0
  }
  bn_param {
    slope_filler {
      type: "constant"
      value: 1
    }
    bias_filler {
      type: "constant"
      value: 0
    }
  }
}
layer {
  name: "inception_2b/relu_double_3x3_1"
  type: "ReLU"
  bottom: "inception_2b/double_3x3_1_bn"
  top: "inception_2b/double_3x3_1_bn"
}
layer {
  name: "inception_2b/double_3x3_2"
  type: "Convolution"
  bottom: "inception_2b/double_3x3_1_bn"
  top: "inception_2b/double_3x3_2"
  param {
    lr_mult: 1
    decay_mult: 1
  }
  param {
    lr_mult: 2
    decay_mult: 0
  }
  convolution_param {
    num_output: 128
    pad: 1
    kernel_size: 3
    stride: 2
    weight_filler {
      type: "xavier"
    }
    bias_filler {
      type: "constant"
      value: 0.2
    }
  }
}
layer {
  name: "inception_2b/double_3x3_2_bn"
  type: "BN"
  bottom: "inception_2b/double_3x3_2"
  top: "inception_2b/double_3x3_2_bn"
  param {
    lr_mult: 1
    decay_mult: 0
  }
  param {
    lr_mult: 1
    decay_mult: 0
  }
  bn_param {
    slope_filler {
      type: "constant"
      value: 1
    }
    bias_filler {
      type: "constant"
      value: 0
    }
  }
}
layer {
  name: "inception_2b/relu_double_3x3_2"
  type: "ReLU"
  bottom: "inception_2b/double_3x3_2_bn"
  top: "inception_2b/double_3x3_2_bn"
}
layer {
  name: "inception_2b/pool"
  type: "Pooling"
  bottom: "inception_2a/output"
  top: "inception_2b/pool"
  pooling_param {
    pool: MAX
    kernel_size: 3
    stride: 2
  }
}
layer {
  name: "inception_2b/output"
  type: "Concat"
  bottom: "inception_2b/3x3_bn"
  bottom: "inception_2b/double_3x3_2_bn"
  bottom: "inception_2b/pool"
  top: "inception_2b/output"
}
layer {
  name: "inception_3a/1x1"
  type: "Convolution"
  bottom: "inception_2b/output"
  top: "inception_3a/1x1"
  param {
    lr_mult: 1
    decay_mult: 1
  }
  param {
    lr_mult: 2
    decay_mult: 0
  }
  convolution_param {
    num_output: 256
    kernel_size: 1
    weight_filler {
      type: "xavier"
    }
    bias_filler {
      type: "constant"
      value: 0.2
    }
  }
}
layer {
  name: "inception_3a/1x1_bn"
  type: "BN"
  bottom: "inception_3a/1x1"
  top: "inception_3a/1x1_bn"
  param {
    lr_mult: 1
    decay_mult: 0
  }
  param {
    lr_mult: 1
    decay_mult: 0
  }
  bn_param {
    slope_filler {
      type: "constant"
      value: 1
    }
    bias_filler {
      type: "constant"
      value: 0
    }
  }
}
layer {
  name: "inception_3a/relu_1x1"
  type: "ReLU"
  bottom: "inception_3a/1x1_bn"
  top: "inception_3a/1x1_bn"
}
layer {
  name: "inception_3a/3x3_reduce"
  type: "Convolution"
  bottom: "inception_2b/output"
  top: "inception_3a/3x3_reduce"
  param {
    lr_mult: 1
    decay_mult: 1
  }
  param {
    lr_mult: 2
    decay_mult: 0
  }
  convolution_param {
    num_output: 256
    kernel_size: 1
    weight_filler {
      type: "xavier"
    }
    bias_filler {
      type: "constant"
      value: 0.2
    }
  }
}
layer {
  name: "inception_3a/3x3_reduce_bn"
  type: "BN"
  bottom: "inception_3a/3x3_reduce"
  top: "inception_3a/3x3_reduce_bn"
  param {
    lr_mult: 1
    decay_mult: 0
  }
  param {
    lr_mult: 1
    decay_mult: 0
  }
  bn_param {
    slope_filler {
      type: "constant"
      value: 1
    }
    bias_filler {
      type: "constant"
      value: 0
    }
  }
}
layer {
  name: "inception_3a/relu_3x3_reduce"
  type: "ReLU"
  bottom: "inception_3a/3x3_reduce_bn"
  top: "inception_3a/3x3_reduce_bn"
}
layer {
  name: "inception_3a/3x3"
  type: "Convolution"
  bottom: "inception_3a/3x3_reduce_bn"
  top: "inception_3a/3x3"
  param {
    lr_mult: 1
    decay_mult: 1
  }
  param {
    lr_mult: 2
    decay_mult: 0
  }
  convolution_param {
    num_output: 256
    pad: 1
    kernel_size: 3
    weight_filler {
      type: "xavier"
    }
    bias_filler {
      type: "constant"
      value: 0.2
    }
  }
}
layer {
  name: "inception_3a/3x3_bn"
  type: "BN"
  bottom: "inception_3a/3x3"
  top: "inception_3a/3x3_bn"
  param {
    lr_mult: 1
    decay_mult: 0
  }
  param {
    lr_mult: 1
    decay_mult: 0
  }
  bn_param {
    slope_filler {
      type: "constant"
      value: 1
    }
    bias_filler {
      type: "constant"
      value: 0
    }
  }
}
layer {
  name: "inception_3a/relu_3x3"
  type: "ReLU"
  bottom: "inception_3a/3x3_bn"
  top: "inception_3a/3x3_bn"
}
layer {
  name: "inception_3a/double_3x3_reduce"
  type: "Convolution"
  bottom: "inception_2b/output"
  top: "inception_3a/double_3x3_reduce"
  param {
    lr_mult: 1
    decay_mult: 1
  }
  param {
    lr_mult: 2
    decay_mult: 0
  }
  convolution_param {
    num_output: 256
    kernel_size: 1
    weight_filler {
      type: "xavier"
    }
    bias_filler {
      type: "constant"
      value: 0.2
    }
  }
}
layer {
  name: "inception_3a/double_3x3_reduce_bn"
  type: "BN"
  bottom: "inception_3a/double_3x3_reduce"
  top: "inception_3a/double_3x3_reduce_bn"
  param {
    lr_mult: 1
    decay_mult: 0
  }
  param {
    lr_mult: 1
    decay_mult: 0
  }
  bn_param {
    slope_filler {
      type: "constant"
      value: 1
    }
    bias_filler {
      type: "constant"
      val
I0417 14:39:53.585461  7299 layer_factory.hpp:74] Creating layer data
I0417 14:39:53.585489  7299 net.cpp:133] Creating Layer data
I0417 14:39:53.585494  7299 net.cpp:411] data -> data
I0417 14:39:53.585503  7299 net.cpp:411] data -> label
I0417 14:39:53.585510  7299 net.cpp:163] Setting up data
I0417 14:39:53.585815  7299 db_lmdb.cpp:22] Opened lmdb external/exp/db/prid/train_lmdb
I0417 14:39:53.585886  7299 data_layer.cpp:55] Skipping first 0 data points.
I0417 14:39:53.585907  7299 data_layer.cpp:100] output data size: 25,3,144,56
I0417 14:39:53.586050  7299 net.cpp:170] Top shape: 25 3 144 56 (604800)
I0417 14:39:53.586056  7299 net.cpp:170] Top shape: 25 (25)
I0417 14:39:53.586061  7299 layer_factory.hpp:74] Creating layer conv1
I0417 14:39:53.586068  7299 net.cpp:133] Creating Layer conv1
I0417 14:39:53.586071  7299 net.cpp:453] conv1 <- data
I0417 14:39:53.586081  7299 net.cpp:411] conv1 -> conv1
I0417 14:39:53.586087  7299 net.cpp:163] Setting up conv1
I0417 14:39:53.750222  7299 net.cpp:170] Top shape: 25 32 144 56 (6451200)
I0417 14:39:53.750258  7299 layer_factory.hpp:74] Creating layer conv1_bn
I0417 14:39:53.750262  7299 layer_factory.cpp:191] Layer conv1_bn is using CAFFE engine.
I0417 14:39:53.750272  7299 net.cpp:133] Creating Layer conv1_bn
I0417 14:39:53.750274  7299 net.cpp:453] conv1_bn <- conv1
I0417 14:39:53.750278  7299 net.cpp:411] conv1_bn -> conv1_bn
I0417 14:39:53.750285  7299 net.cpp:163] Setting up conv1_bn
I0417 14:39:53.750308  7299 net.cpp:170] Top shape: 25 32 144 56 (6451200)
I0417 14:39:53.750313  7299 layer_factory.hpp:74] Creating layer relu1
I0417 14:39:53.750316  7299 net.cpp:133] Creating Layer relu1
I0417 14:39:53.750319  7299 net.cpp:453] relu1 <- conv1_bn
I0417 14:39:53.750321  7299 net.cpp:400] relu1 -> conv1_bn (in-place)
I0417 14:39:53.750326  7299 net.cpp:163] Setting up relu1
I0417 14:39:53.750442  7299 net.cpp:170] Top shape: 25 32 144 56 (6451200)
I0417 14:39:53.750445  7299 layer_factory.hpp:74] Creating layer conv2
I0417 14:39:53.750452  7299 net.cpp:133] Creating Layer conv2
I0417 14:39:53.750453  7299 net.cpp:453] conv2 <- conv1_bn
I0417 14:39:53.750457  7299 net.cpp:411] conv2 -> conv2
I0417 14:39:53.750460  7299 net.cpp:163] Setting up conv2
I0417 14:39:53.913908  7299 net.cpp:170] Top shape: 25 32 144 56 (6451200)
I0417 14:39:53.913924  7299 layer_factory.hpp:74] Creating layer conv2_bn
I0417 14:39:53.913928  7299 layer_factory.cpp:191] Layer conv2_bn is using CAFFE engine.
I0417 14:39:53.913933  7299 net.cpp:133] Creating Layer conv2_bn
I0417 14:39:53.913935  7299 net.cpp:453] conv2_bn <- conv2
I0417 14:39:53.913940  7299 net.cpp:411] conv2_bn -> conv2_bn
I0417 14:39:53.913945  7299 net.cpp:163] Setting up conv2_bn
I0417 14:39:53.913959  7299 net.cpp:170] Top shape: 25 32 144 56 (6451200)
I0417 14:39:53.913966  7299 layer_factory.hpp:74] Creating layer relu2
I0417 14:39:53.913970  7299 net.cpp:133] Creating Layer relu2
I0417 14:39:53.913972  7299 net.cpp:453] relu2 <- conv2_bn
I0417 14:39:53.913975  7299 net.cpp:400] relu2 -> conv2_bn (in-place)
I0417 14:39:53.913977  7299 net.cpp:163] Setting up relu2
I0417 14:39:53.914155  7299 net.cpp:170] Top shape: 25 32 144 56 (6451200)
I0417 14:39:53.914161  7299 layer_factory.hpp:74] Creating layer conv3
I0417 14:39:53.914165  7299 net.cpp:133] Creating Layer conv3
I0417 14:39:53.914167  7299 net.cpp:453] conv3 <- conv2_bn
I0417 14:39:53.914171  7299 net.cpp:411] conv3 -> conv3
I0417 14:39:53.914175  7299 net.cpp:163] Setting up conv3
I0417 14:39:54.070871  7299 net.cpp:170] Top shape: 25 32 144 56 (6451200)
I0417 14:39:54.070881  7299 layer_factory.hpp:74] Creating layer conv3_bn
I0417 14:39:54.070884  7299 layer_factory.cpp:191] Layer conv3_bn is using CAFFE engine.
I0417 14:39:54.070889  7299 net.cpp:133] Creating Layer conv3_bn
I0417 14:39:54.070891  7299 net.cpp:453] conv3_bn <- conv3
I0417 14:39:54.070895  7299 net.cpp:411] conv3_bn -> conv3_bn
I0417 14:39:54.070899  7299 net.cpp:163] Setting up conv3_bn
I0417 14:39:54.070914  7299 net.cpp:170] Top shape: 25 32 144 56 (6451200)
I0417 14:39:54.070920  7299 layer_factory.hpp:74] Creating layer relu3
I0417 14:39:54.070924  7299 net.cpp:133] Creating Layer relu3
I0417 14:39:54.070924  7299 net.cpp:453] relu3 <- conv3_bn
I0417 14:39:54.070927  7299 net.cpp:400] relu3 -> conv3_bn (in-place)
I0417 14:39:54.070930  7299 net.cpp:163] Setting up relu3
I0417 14:39:54.071029  7299 net.cpp:170] Top shape: 25 32 144 56 (6451200)
I0417 14:39:54.071033  7299 layer_factory.hpp:74] Creating layer pool1
I0417 14:39:54.071038  7299 net.cpp:133] Creating Layer pool1
I0417 14:39:54.071040  7299 net.cpp:453] pool1 <- conv3_bn
I0417 14:39:54.071044  7299 net.cpp:411] pool1 -> pool1
I0417 14:39:54.071048  7299 net.cpp:163] Setting up pool1
I0417 14:39:54.071226  7299 net.cpp:170] Top shape: 25 32 72 28 (1612800)
I0417 14:39:54.071233  7299 layer_factory.hpp:74] Creating layer pool1_pool1_0_split
I0417 14:39:54.071238  7299 net.cpp:133] Creating Layer pool1_pool1_0_split
I0417 14:39:54.071238  7299 net.cpp:453] pool1_pool1_0_split <- pool1
I0417 14:39:54.071243  7299 net.cpp:411] pool1_pool1_0_split -> pool1_pool1_0_split_0
I0417 14:39:54.071246  7299 net.cpp:411] pool1_pool1_0_split -> pool1_pool1_0_split_1
I0417 14:39:54.071249  7299 net.cpp:411] pool1_pool1_0_split -> pool1_pool1_0_split_2
I0417 14:39:54.071252  7299 net.cpp:411] pool1_pool1_0_split -> pool1_pool1_0_split_3
I0417 14:39:54.071255  7299 net.cpp:163] Setting up pool1_pool1_0_split
I0417 14:39:54.071259  7299 net.cpp:170] Top shape: 25 32 72 28 (1612800)
I0417 14:39:54.071260  7299 net.cpp:170] Top shape: 25 32 72 28 (1612800)
I0417 14:39:54.071262  7299 net.cpp:170] Top shape: 25 32 72 28 (1612800)
I0417 14:39:54.071264  7299 net.cpp:170] Top shape: 25 32 72 28 (1612800)
I0417 14:39:54.071266  7299 layer_factory.hpp:74] Creating layer inception_1a/1x1
I0417 14:39:54.071270  7299 net.cpp:133] Creating Layer inception_1a/1x1
I0417 14:39:54.071272  7299 net.cpp:453] inception_1a/1x1 <- pool1_pool1_0_split_0
I0417 14:39:54.071276  7299 net.cpp:411] inception_1a/1x1 -> inception_1a/1x1
I0417 14:39:54.071280  7299 net.cpp:163] Setting up inception_1a/1x1
I0417 14:39:54.126055  7299 net.cpp:170] Top shape: 25 64 72 28 (3225600)
I0417 14:39:54.126065  7299 layer_factory.hpp:74] Creating layer inception_1a/1x1_bn
I0417 14:39:54.126067  7299 layer_factory.cpp:191] Layer inception_1a/1x1_bn is using CAFFE engine.
I0417 14:39:54.126071  7299 net.cpp:133] Creating Layer inception_1a/1x1_bn
I0417 14:39:54.126073  7299 net.cpp:453] inception_1a/1x1_bn <- inception_1a/1x1
I0417 14:39:54.126077  7299 net.cpp:411] inception_1a/1x1_bn -> inception_1a/1x1_bn
I0417 14:39:54.126081  7299 net.cpp:163] Setting up inception_1a/1x1_bn
I0417 14:39:54.126092  7299 net.cpp:170] Top shape: 25 64 72 28 (3225600)
I0417 14:39:54.126097  7299 layer_factory.hpp:74] Creating layer inception_1a/relu_1x1
I0417 14:39:54.126101  7299 net.cpp:133] Creating Layer inception_1a/relu_1x1
I0417 14:39:54.126102  7299 net.cpp:453] inception_1a/relu_1x1 <- inception_1a/1x1_bn
I0417 14:39:54.126106  7299 net.cpp:400] inception_1a/relu_1x1 -> inception_1a/1x1_bn (in-place)
I0417 14:39:54.126107  7299 net.cpp:163] Setting up inception_1a/relu_1x1
I0417 14:39:54.126281  7299 net.cpp:170] Top shape: 25 64 72 28 (3225600)
I0417 14:39:54.126286  7299 layer_factory.hpp:74] Creating layer inception_1a/3x3_reduce
I0417 14:39:54.126291  7299 net.cpp:133] Creating Layer inception_1a/3x3_reduce
I0417 14:39:54.126292  7299 net.cpp:453] inception_1a/3x3_reduce <- pool1_pool1_0_split_1
I0417 14:39:54.126296  7299 net.cpp:411] inception_1a/3x3_reduce -> inception_1a/3x3_reduce
I0417 14:39:54.126301  7299 net.cpp:163] Setting up inception_1a/3x3_reduce
I0417 14:39:54.179834  7299 net.cpp:170] Top shape: 25 64 72 28 (3225600)
I0417 14:39:54.179844  7299 layer_factory.hpp:74] Creating layer inception_1a/3x3_reduce_bn
I0417 14:39:54.179847  7299 layer_factory.cpp:191] Layer inception_1a/3x3_reduce_bn is using CAFFE engine.
I0417 14:39:54.179852  7299 net.cpp:133] Creating Layer inception_1a/3x3_reduce_bn
I0417 14:39:54.179854  7299 net.cpp:453] inception_1a/3x3_reduce_bn <- inception_1a/3x3_reduce
I0417 14:39:54.179858  7299 net.cpp:411] inception_1a/3x3_reduce_bn -> inception_1a/3x3_reduce_bn
I0417 14:39:54.179864  7299 net.cpp:163] Setting up inception_1a/3x3_reduce_bn
I0417 14:39:54.179875  7299 net.cpp:170] Top shape: 25 64 72 28 (3225600)
I0417 14:39:54.179879  7299 layer_factory.hpp:74] Creating layer inception_1a/relu_3x3_reduce
I0417 14:39:54.179883  7299 net.cpp:133] Creating Layer inception_1a/relu_3x3_reduce
I0417 14:39:54.179884  7299 net.cpp:453] inception_1a/relu_3x3_reduce <- inception_1a/3x3_reduce_bn
I0417 14:39:54.179888  7299 net.cpp:400] inception_1a/relu_3x3_reduce -> inception_1a/3x3_reduce_bn (in-place)
I0417 14:39:54.179890  7299 net.cpp:163] Setting up inception_1a/relu_3x3_reduce
I0417 14:39:54.179991  7299 net.cpp:170] Top shape: 25 64 72 28 (3225600)
I0417 14:39:54.179996  7299 layer_factory.hpp:74] Creating layer inception_1a/3x3
I0417 14:39:54.179999  7299 net.cpp:133] Creating Layer inception_1a/3x3
I0417 14:39:54.180001  7299 net.cpp:453] inception_1a/3x3 <- inception_1a/3x3_reduce_bn
I0417 14:39:54.180006  7299 net.cpp:411] inception_1a/3x3 -> inception_1a/3x3
I0417 14:39:54.180009  7299 net.cpp:163] Setting up inception_1a/3x3
I0417 14:39:54.293380  7299 net.cpp:170] Top shape: 25 64 72 28 (3225600)
I0417 14:39:54.293390  7299 layer_factory.hpp:74] Creating layer inception_1a/3x3_bn
I0417 14:39:54.293393  7299 layer_factory.cpp:191] Layer inception_1a/3x3_bn is using CAFFE engine.
I0417 14:39:54.293397  7299 net.cpp:133] Creating Layer inception_1a/3x3_bn
I0417 14:39:54.293400  7299 net.cpp:453] inception_1a/3x3_bn <- inception_1a/3x3
I0417 14:39:54.293403  7299 net.cpp:411] inception_1a/3x3_bn -> inception_1a/3x3_bn
I0417 14:39:54.293407  7299 net.cpp:163] Setting up inception_1a/3x3_bn
I0417 14:39:54.293418  7299 net.cpp:170] Top shape: 25 64 72 28 (3225600)
I0417 14:39:54.293426  7299 layer_factory.hpp:74] Creating layer inception_1a/relu_3x3
I0417 14:39:54.293429  7299 net.cpp:133] Creating Layer inception_1a/relu_3x3
I0417 14:39:54.293431  7299 net.cpp:453] inception_1a/relu_3x3 <- inception_1a/3x3_bn
I0417 14:39:54.293433  7299 net.cpp:400] inception_1a/relu_3x3 -> inception_1a/3x3_bn (in-place)
I0417 14:39:54.293437  7299 net.cpp:163] Setting up inception_1a/relu_3x3
I0417 14:39:54.293608  7299 net.cpp:170] Top shape: 25 64 72 28 (3225600)
I0417 14:39:54.293614  7299 layer_factory.hpp:74] Creating layer inception_1a/double_3x3_reduce
I0417 14:39:54.293619  7299 net.cpp:133] Creating Layer inception_1a/double_3x3_reduce
I0417 14:39:54.293622  7299 net.cpp:453] inception_1a/double_3x3_reduce <- pool1_pool1_0_split_2
I0417 14:39:54.293625  7299 net.cpp:411] inception_1a/double_3x3_reduce -> inception_1a/double_3x3_reduce
I0417 14:39:54.293629  7299 net.cpp:163] Setting up inception_1a/double_3x3_reduce
I0417 14:39:54.347432  7299 net.cpp:170] Top shape: 25 64 72 28 (3225600)
I0417 14:39:54.347441  7299 layer_factory.hpp:74] Creating layer inception_1a/double_3x3_reduce_bn
I0417 14:39:54.347445  7299 layer_factory.cpp:191] Layer inception_1a/double_3x3_reduce_bn is using CAFFE engine.
I0417 14:39:54.347448  7299 net.cpp:133] Creating Layer inception_1a/double_3x3_reduce_bn
I0417 14:39:54.347450  7299 net.cpp:453] inception_1a/double_3x3_reduce_bn <- inception_1a/double_3x3_reduce
I0417 14:39:54.347455  7299 net.cpp:411] inception_1a/double_3x3_reduce_bn -> inception_1a/double_3x3_reduce_bn
I0417 14:39:54.347458  7299 net.cpp:163] Setting up inception_1a/double_3x3_reduce_bn
I0417 14:39:54.347468  7299 net.cpp:170] Top shape: 25 64 72 28 (3225600)
I0417 14:39:54.347473  7299 layer_factory.hpp:74] Creating layer inception_1a/relu_double_3x3_reduce
I0417 14:39:54.347476  7299 net.cpp:133] Creating Layer inception_1a/relu_double_3x3_reduce
I0417 14:39:54.347478  7299 net.cpp:453] inception_1a/relu_double_3x3_reduce <- inception_1a/double_3x3_reduce_bn
I0417 14:39:54.347481  7299 net.cpp:400] inception_1a/relu_double_3x3_reduce -> inception_1a/double_3x3_reduce_bn (in-place)
I0417 14:39:54.347484  7299 net.cpp:163] Setting up inception_1a/relu_double_3x3_reduce
I0417 14:39:54.347661  7299 net.cpp:170] Top shape: 25 64 72 28 (3225600)
I0417 14:39:54.347666  7299 layer_factory.hpp:74] Creating layer inception_1a/double_3x3_1
I0417 14:39:54.347671  7299 net.cpp:133] Creating Layer inception_1a/double_3x3_1
I0417 14:39:54.347673  7299 net.cpp:453] inception_1a/double_3x3_1 <- inception_1a/double_3x3_reduce_bn
I0417 14:39:54.347677  7299 net.cpp:411] inception_1a/double_3x3_1 -> inception_1a/double_3x3_1
I0417 14:39:54.347681  7299 net.cpp:163] Setting up inception_1a/double_3x3_1
I0417 14:39:54.461180  7299 net.cpp:170] Top shape: 25 64 72 28 (3225600)
I0417 14:39:54.461190  7299 layer_factory.hpp:74] Creating layer inception_1a/double_3x3_1_bn
I0417 14:39:54.461192  7299 layer_factory.cpp:191] Layer inception_1a/double_3x3_1_bn is using CAFFE engine.
I0417 14:39:54.461196  7299 net.cpp:133] Creating Layer inception_1a/double_3x3_1_bn
I0417 14:39:54.461199  7299 net.cpp:453] inception_1a/double_3x3_1_bn <- inception_1a/double_3x3_1
I0417 14:39:54.461204  7299 net.cpp:411] inception_1a/double_3x3_1_bn -> inception_1a/double_3x3_1_bn
I0417 14:39:54.461207  7299 net.cpp:163] Setting up inception_1a/double_3x3_1_bn
I0417 14:39:54.461217  7299 net.cpp:170] Top shape: 25 64 72 28 (3225600)
I0417 14:39:54.461222  7299 layer_factory.hpp:74] Creating layer inception_1a/relu_double_3x3_1
I0417 14:39:54.461225  7299 net.cpp:133] Creating Layer inception_1a/relu_double_3x3_1
I0417 14:39:54.461227  7299 net.cpp:453] inception_1a/relu_double_3x3_1 <- inception_1a/double_3x3_1_bn
I0417 14:39:54.461230  7299 net.cpp:400] inception_1a/relu_double_3x3_1 -> inception_1a/double_3x3_1_bn (in-place)
I0417 14:39:54.461232  7299 net.cpp:163] Setting up inception_1a/relu_double_3x3_1
I0417 14:39:54.461334  7299 net.cpp:170] Top shape: 25 64 72 28 (3225600)
I0417 14:39:54.461338  7299 layer_factory.hpp:74] Creating layer inception_1a/double_3x3_2
I0417 14:39:54.461344  7299 net.cpp:133] Creating Layer inception_1a/double_3x3_2
I0417 14:39:54.461345  7299 net.cpp:453] inception_1a/double_3x3_2 <- inception_1a/double_3x3_1_bn
I0417 14:39:54.461349  7299 net.cpp:411] inception_1a/double_3x3_2 -> inception_1a/double_3x3_2
I0417 14:39:54.461352  7299 net.cpp:163] Setting up inception_1a/double_3x3_2
I0417 14:39:54.575305  7299 net.cpp:170] Top shape: 25 64 72 28 (3225600)
I0417 14:39:54.575314  7299 layer_factory.hpp:74] Creating layer inception_1a/double_3x3_2_bn
I0417 14:39:54.575317  7299 layer_factory.cpp:191] Layer inception_1a/double_3x3_2_bn is using CAFFE engine.
I0417 14:39:54.575321  7299 net.cpp:133] Creating Layer inception_1a/double_3x3_2_bn
I0417 14:39:54.575323  7299 net.cpp:453] inception_1a/double_3x3_2_bn <- inception_1a/double_3x3_2
I0417 14:39:54.575327  7299 net.cpp:411] inception_1a/double_3x3_2_bn -> inception_1a/double_3x3_2_bn
I0417 14:39:54.575331  7299 net.cpp:163] Setting up inception_1a/double_3x3_2_bn
I0417 14:39:54.575341  7299 net.cpp:170] Top shape: 25 64 72 28 (3225600)
I0417 14:39:54.575346  7299 layer_factory.hpp:74] Creating layer inception_1a/relu_double_3x3_2
I0417 14:39:54.575350  7299 net.cpp:133] Creating Layer inception_1a/relu_double_3x3_2
I0417 14:39:54.575351  7299 net.cpp:453] inception_1a/relu_double_3x3_2 <- inception_1a/double_3x3_2_bn
I0417 14:39:54.575355  7299 net.cpp:400] inception_1a/relu_double_3x3_2 -> inception_1a/double_3x3_2_bn (in-place)
I0417 14:39:54.575357  7299 net.cpp:163] Setting up inception_1a/relu_double_3x3_2
I0417 14:39:54.575531  7299 net.cpp:170] Top shape: 25 64 72 28 (3225600)
I0417 14:39:54.575536  7299 layer_factory.hpp:74] Creating layer inception_1a/pool
I0417 14:39:54.575538  7299 layer_factory.cpp:64] CUDNN does not support padding or multiple tops. Using Caffe's own pooling layer.
I0417 14:39:54.575542  7299 net.cpp:133] Creating Layer inception_1a/pool
I0417 14:39:54.575544  7299 net.cpp:453] inception_1a/pool <- pool1_pool1_0_split_3
I0417 14:39:54.575547  7299 net.cpp:411] inception_1a/pool -> inception_1a/pool
I0417 14:39:54.575551  7299 net.cpp:163] Setting up inception_1a/pool
I0417 14:39:54.575554  7299 net.cpp:170] Top shape: 25 32 72 28 (1612800)
I0417 14:39:54.575556  7299 layer_factory.hpp:74] Creating layer inception_1a/pool_proj
I0417 14:39:54.575561  7299 net.cpp:133] Creating Layer inception_1a/pool_proj
I0417 14:39:54.575562  7299 net.cpp:453] inception_1a/pool_proj <- inception_1a/pool
I0417 14:39:54.575565  7299 net.cpp:411] inception_1a/pool_proj -> inception_1a/pool_proj
I0417 14:39:54.575568  7299 net.cpp:163] Setting up inception_1a/pool_proj
I0417 14:39:54.628799  7299 net.cpp:170] Top shape: 25 64 72 28 (3225600)
I0417 14:39:54.628808  7299 layer_factory.hpp:74] Creating layer inception_1a/pool_proj_bn
I0417 14:39:54.628811  7299 layer_factory.cpp:191] Layer inception_1a/pool_proj_bn is using CAFFE engine.
I0417 14:39:54.628820  7299 net.cpp:133] Creating Layer inception_1a/pool_proj_bn
I0417 14:39:54.628823  7299 net.cpp:453] inception_1a/pool_proj_bn <- inception_1a/pool_proj
I0417 14:39:54.628826  7299 net.cpp:411] inception_1a/pool_proj_bn -> inception_1a/pool_proj_bn
I0417 14:39:54.628830  7299 net.cpp:163] Setting up inception_1a/pool_proj_bn
I0417 14:39:54.628840  7299 net.cpp:170] Top shape: 25 64 72 28 (3225600)
I0417 14:39:54.628845  7299 layer_factory.hpp:74] Creating layer inception_1a/relu_pool_proj
I0417 14:39:54.628849  7299 net.cpp:133] Creating Layer inception_1a/relu_pool_proj
I0417 14:39:54.628850  7299 net.cpp:453] inception_1a/relu_pool_proj <- inception_1a/pool_proj_bn
I0417 14:39:54.628854  7299 net.cpp:400] inception_1a/relu_pool_proj -> inception_1a/pool_proj_bn (in-place)
I0417 14:39:54.628856  7299 net.cpp:163] Setting up inception_1a/relu_pool_proj
I0417 14:39:54.629030  7299 net.cpp:170] Top shape: 25 64 72 28 (3225600)
I0417 14:39:54.629036  7299 layer_factory.hpp:74] Creating layer inception_1a/output
I0417 14:39:54.629041  7299 net.cpp:133] Creating Layer inception_1a/output
I0417 14:39:54.629042  7299 net.cpp:453] inception_1a/output <- inception_1a/1x1_bn
I0417 14:39:54.629045  7299 net.cpp:453] inception_1a/output <- inception_1a/3x3_bn
I0417 14:39:54.629047  7299 net.cpp:453] inception_1a/output <- inception_1a/double_3x3_2_bn
I0417 14:39:54.629050  7299 net.cpp:453] inception_1a/output <- inception_1a/pool_proj_bn
I0417 14:39:54.629052  7299 net.cpp:411] inception_1a/output -> inception_1a/output
I0417 14:39:54.629056  7299 net.cpp:163] Setting up inception_1a/output
I0417 14:39:54.629060  7299 net.cpp:170] Top shape: 25 256 72 28 (12902400)
I0417 14:39:54.629061  7299 layer_factory.hpp:74] Creating layer inception_1a/output_inception_1a/output_0_split
I0417 14:39:54.629065  7299 net.cpp:133] Creating Layer inception_1a/output_inception_1a/output_0_split
I0417 14:39:54.629066  7299 net.cpp:453] inception_1a/output_inception_1a/output_0_split <- inception_1a/output
I0417 14:39:54.629068  7299 net.cpp:411] inception_1a/output_inception_1a/output_0_split -> inception_1a/output_inception_1a/output_0_split_0
I0417 14:39:54.629075  7299 net.cpp:411] inception_1a/output_inception_1a/output_0_split -> inception_1a/output_inception_1a/output_0_split_1
I0417 14:39:54.629079  7299 net.cpp:411] inception_1a/output_inception_1a/output_0_split -> inception_1a/output_inception_1a/output_0_split_2
I0417 14:39:54.629081  7299 net.cpp:163] Setting up inception_1a/output_inception_1a/output_0_split
I0417 14:39:54.629084  7299 net.cpp:170] Top shape: 25 256 72 28 (12902400)
I0417 14:39:54.629086  7299 net.cpp:170] Top shape: 25 256 72 28 (12902400)
I0417 14:39:54.629088  7299 net.cpp:170] Top shape: 25 256 72 28 (12902400)
I0417 14:39:54.629091  7299 layer_factory.hpp:74] Creating layer inception_1b/3x3_reduce
I0417 14:39:54.629094  7299 net.cpp:133] Creating Layer inception_1b/3x3_reduce
I0417 14:39:54.629096  7299 net.cpp:453] inception_1b/3x3_reduce <- inception_1a/output_inception_1a/output_0_split_0
I0417 14:39:54.629099  7299 net.cpp:411] inception_1b/3x3_reduce -> inception_1b/3x3_reduce
I0417 14:39:54.629106  7299 net.cpp:163] Setting up inception_1b/3x3_reduce
I0417 14:39:54.924389  7299 net.cpp:170] Top shape: 25 64 72 28 (3225600)
I0417 14:39:54.924398  7299 layer_factory.hpp:74] Creating layer inception_1b/3x3_reduce_bn
I0417 14:39:54.924401  7299 layer_factory.cpp:191] Layer inception_1b/3x3_reduce_bn is using CAFFE engine.
I0417 14:39:54.924406  7299 net.cpp:133] Creating Layer inception_1b/3x3_reduce_bn
I0417 14:39:54.924407  7299 net.cpp:453] inception_1b/3x3_reduce_bn <- inception_1b/3x3_reduce
I0417 14:39:54.924412  7299 net.cpp:411] inception_1b/3x3_reduce_bn -> inception_1b/3x3_reduce_bn
I0417 14:39:54.924415  7299 net.cpp:163] Setting up inception_1b/3x3_reduce_bn
I0417 14:39:54.924425  7299 net.cpp:170] Top shape: 25 64 72 28 (3225600)
I0417 14:39:54.924435  7299 layer_factory.hpp:74] Creating layer inception_1b/relu_3x3_reduce
I0417 14:39:54.924439  7299 net.cpp:133] Creating Layer inception_1b/relu_3x3_reduce
I0417 14:39:54.924442  7299 net.cpp:453] inception_1b/relu_3x3_reduce <- inception_1b/3x3_reduce_bn
I0417 14:39:54.924443  7299 net.cpp:400] inception_1b/relu_3x3_reduce -> inception_1b/3x3_reduce_bn (in-place)
I0417 14:39:54.924446  7299 net.cpp:163] Setting up inception_1b/relu_3x3_reduce
I0417 14:39:54.924551  7299 net.cpp:170] Top shape: 25 64 72 28 (3225600)
I0417 14:39:54.924556  7299 layer_factory.hpp:74] Creating layer inception_1b/3x3
I0417 14:39:54.924561  7299 net.cpp:133] Creating Layer inception_1b/3x3
I0417 14:39:54.924562  7299 net.cpp:453] inception_1b/3x3 <- inception_1b/3x3_reduce_bn
I0417 14:39:54.924566  7299 net.cpp:411] inception_1b/3x3 -> inception_1b/3x3
I0417 14:39:54.924571  7299 net.cpp:163] Setting up inception_1b/3x3
I0417 14:39:54.944674  7299 net.cpp:170] Top shape: 25 64 36 14 (806400)
I0417 14:39:54.944684  7299 layer_factory.hpp:74] Creating layer inception_1b/3x3_bn
I0417 14:39:54.944686  7299 layer_factory.cpp:191] Layer inception_1b/3x3_bn is using CAFFE engine.
I0417 14:39:54.944690  7299 net.cpp:133] Creating Layer inception_1b/3x3_bn
I0417 14:39:54.944692  7299 net.cpp:453] inception_1b/3x3_bn <- inception_1b/3x3
I0417 14:39:54.944696  7299 net.cpp:411] inception_1b/3x3_bn -> inception_1b/3x3_bn
I0417 14:39:54.944700  7299 net.cpp:163] Setting up inception_1b/3x3_bn
I0417 14:39:54.944710  7299 net.cpp:170] Top shape: 25 64 36 14 (806400)
I0417 14:39:54.944715  7299 layer_factory.hpp:74] Creating layer inception_1b/relu_3x3
I0417 14:39:54.944716  7299 net.cpp:133] Creating Layer inception_1b/relu_3x3
I0417 14:39:54.944718  7299 net.cpp:453] inception_1b/relu_3x3 <- inception_1b/3x3_bn
I0417 14:39:54.944721  7299 net.cpp:400] inception_1b/relu_3x3 -> inception_1b/3x3_bn (in-place)
I0417 14:39:54.944723  7299 net.cpp:163] Setting up inception_1b/relu_3x3
I0417 14:39:54.944900  7299 net.cpp:170] Top shape: 25 64 36 14 (806400)
I0417 14:39:54.944905  7299 layer_factory.hpp:74] Creating layer inception_1b/double_3x3_reduce
I0417 14:39:54.944911  7299 net.cpp:133] Creating Layer inception_1b/double_3x3_reduce
I0417 14:39:54.944912  7299 net.cpp:453] inception_1b/double_3x3_reduce <- inception_1a/output_inception_1a/output_0_split_1
I0417 14:39:54.944916  7299 net.cpp:411] inception_1b/double_3x3_reduce -> inception_1b/double_3x3_reduce
I0417 14:39:54.944921  7299 net.cpp:163] Setting up inception_1b/double_3x3_reduce
I0417 14:39:55.242255  7299 net.cpp:170] Top shape: 25 64 72 28 (3225600)
I0417 14:39:55.242265  7299 layer_factory.hpp:74] Creating layer inception_1b/double_3x3_reduce_bn
I0417 14:39:55.242267  7299 layer_factory.cpp:191] Layer inception_1b/double_3x3_reduce_bn is using CAFFE engine.
I0417 14:39:55.242272  7299 net.cpp:133] Creating Layer inception_1b/double_3x3_reduce_bn
I0417 14:39:55.242274  7299 net.cpp:453] inception_1b/double_3x3_reduce_bn <- inception_1b/double_3x3_reduce
I0417 14:39:55.242279  7299 net.cpp:411] inception_1b/double_3x3_reduce_bn -> inception_1b/double_3x3_reduce_bn
I0417 14:39:55.242282  7299 net.cpp:163] Setting up inception_1b/double_3x3_reduce_bn
I0417 14:39:55.242292  7299 net.cpp:170] Top shape: 25 64 72 28 (3225600)
I0417 14:39:55.242297  7299 layer_factory.hpp:74] Creating layer inception_1b/relu_double_3x3_reduce
I0417 14:39:55.242300  7299 net.cpp:133] Creating Layer inception_1b/relu_double_3x3_reduce
I0417 14:39:55.242302  7299 net.cpp:453] inception_1b/relu_double_3x3_reduce <- inception_1b/double_3x3_reduce_bn
I0417 14:39:55.242305  7299 net.cpp:400] inception_1b/relu_double_3x3_reduce -> inception_1b/double_3x3_reduce_bn (in-place)
I0417 14:39:55.242308  7299 net.cpp:163] Setting up inception_1b/relu_double_3x3_reduce
I0417 14:39:55.242486  7299 net.cpp:170] Top shape: 25 64 72 28 (3225600)
I0417 14:39:55.242492  7299 layer_factory.hpp:74] Creating layer inception_1b/double_3x3_1
I0417 14:39:55.242497  7299 net.cpp:133] Creating Layer inception_1b/double_3x3_1
I0417 14:39:55.242499  7299 net.cpp:453] inception_1b/double_3x3_1 <- inception_1b/double_3x3_reduce_bn
I0417 14:39:55.242503  7299 net.cpp:411] inception_1b/double_3x3_1 -> inception_1b/double_3x3_1
I0417 14:39:55.242507  7299 net.cpp:163] Setting up inception_1b/double_3x3_1
I0417 14:39:55.355260  7299 net.cpp:170] Top shape: 25 64 72 28 (3225600)
I0417 14:39:55.355269  7299 layer_factory.hpp:74] Creating layer inception_1b/double_3x3_1_bn
I0417 14:39:55.355273  7299 layer_factory.cpp:191] Layer inception_1b/double_3x3_1_bn is using CAFFE engine.
I0417 14:39:55.355276  7299 net.cpp:133] Creating Layer inception_1b/double_3x3_1_bn
I0417 14:39:55.355279  7299 net.cpp:453] inception_1b/double_3x3_1_bn <- inception_1b/double_3x3_1
I0417 14:39:55.355283  7299 net.cpp:411] inception_1b/double_3x3_1_bn -> inception_1b/double_3x3_1_bn
I0417 14:39:55.355286  7299 net.cpp:163] Setting up inception_1b/double_3x3_1_bn
I0417 14:39:55.355298  7299 net.cpp:170] Top shape: 25 64 72 28 (3225600)
I0417 14:39:55.355304  7299 layer_factory.hpp:74] Creating layer inception_1b/relu_double_3x3_1
I0417 14:39:55.355306  7299 net.cpp:133] Creating Layer inception_1b/relu_double_3x3_1
I0417 14:39:55.355307  7299 net.cpp:453] inception_1b/relu_double_3x3_1 <- inception_1b/double_3x3_1_bn
I0417 14:39:55.355310  7299 net.cpp:400] inception_1b/relu_double_3x3_1 -> inception_1b/double_3x3_1_bn (in-place)
I0417 14:39:55.355312  7299 net.cpp:163] Setting up inception_1b/relu_double_3x3_1
I0417 14:39:55.355417  7299 net.cpp:170] Top shape: 25 64 72 28 (3225600)
I0417 14:39:55.355422  7299 layer_factory.hpp:74] Creating layer inception_1b/double_3x3_2
I0417 14:39:55.355427  7299 net.cpp:133] Creating Layer inception_1b/double_3x3_2
I0417 14:39:55.355429  7299 net.cpp:453] inception_1b/double_3x3_2 <- inception_1b/double_3x3_1_bn
I0417 14:39:55.355432  7299 net.cpp:411] inception_1b/double_3x3_2 -> inception_1b/double_3x3_2
I0417 14:39:55.355437  7299 net.cpp:163] Setting up inception_1b/double_3x3_2
I0417 14:39:55.375952  7299 net.cpp:170] Top shape: 25 64 36 14 (806400)
I0417 14:39:55.375962  7299 layer_factory.hpp:74] Creating layer inception_1b/double_3x3_2_bn
I0417 14:39:55.375964  7299 layer_factory.cpp:191] Layer inception_1b/double_3x3_2_bn is using CAFFE engine.
I0417 14:39:55.375967  7299 net.cpp:133] Creating Layer inception_1b/double_3x3_2_bn
I0417 14:39:55.375970  7299 net.cpp:453] inception_1b/double_3x3_2_bn <- inception_1b/double_3x3_2
I0417 14:39:55.375974  7299 net.cpp:411] inception_1b/double_3x3_2_bn -> inception_1b/double_3x3_2_bn
I0417 14:39:55.375978  7299 net.cpp:163] Setting up inception_1b/double_3x3_2_bn
I0417 14:39:55.375988  7299 net.cpp:170] Top shape: 25 64 36 14 (806400)
I0417 14:39:55.375993  7299 layer_factory.hpp:74] Creating layer inception_1b/relu_double_3x3_2
I0417 14:39:55.375995  7299 net.cpp:133] Creating Layer inception_1b/relu_double_3x3_2
I0417 14:39:55.375998  7299 net.cpp:453] inception_1b/relu_double_3x3_2 <- inception_1b/double_3x3_2_bn
I0417 14:39:55.376001  7299 net.cpp:400] inception_1b/relu_double_3x3_2 -> inception_1b/double_3x3_2_bn (in-place)
I0417 14:39:55.376003  7299 net.cpp:163] Setting up inception_1b/relu_double_3x3_2
I0417 14:39:55.376181  7299 net.cpp:170] Top shape: 25 64 36 14 (806400)
I0417 14:39:55.376186  7299 layer_factory.hpp:74] Creating layer inception_1b/pool
I0417 14:39:55.376190  7299 net.cpp:133] Creating Layer inception_1b/pool
I0417 14:39:55.376193  7299 net.cpp:453] inception_1b/pool <- inception_1a/output_inception_1a/output_0_split_2
I0417 14:39:55.376196  7299 net.cpp:411] inception_1b/pool -> inception_1b/pool
I0417 14:39:55.376200  7299 net.cpp:163] Setting up inception_1b/pool
I0417 14:39:55.376299  7299 net.cpp:170] Top shape: 25 256 36 14 (3225600)
I0417 14:39:55.376303  7299 layer_factory.hpp:74] Creating layer inception_1b/output
I0417 14:39:55.376307  7299 net.cpp:133] Creating Layer inception_1b/output
I0417 14:39:55.376308  7299 net.cpp:453] inception_1b/output <- inception_1b/3x3_bn
I0417 14:39:55.376310  7299 net.cpp:453] inception_1b/output <- inception_1b/double_3x3_2_bn
I0417 14:39:55.376312  7299 net.cpp:453] inception_1b/output <- inception_1b/pool
I0417 14:39:55.376315  7299 net.cpp:411] inception_1b/output -> inception_1b/output
I0417 14:39:55.376319  7299 net.cpp:163] Setting up inception_1b/output
I0417 14:39:55.376322  7299 net.cpp:170] Top shape: 25 384 36 14 (4838400)
I0417 14:39:55.376323  7299 layer_factory.hpp:74] Creating layer inception_1b/output_inception_1b/output_0_split
I0417 14:39:55.376327  7299 net.cpp:133] Creating Layer inception_1b/output_inception_1b/output_0_split
I0417 14:39:55.376328  7299 net.cpp:453] inception_1b/output_inception_1b/output_0_split <- inception_1b/output
I0417 14:39:55.376332  7299 net.cpp:411] inception_1b/output_inception_1b/output_0_split -> inception_1b/output_inception_1b/output_0_split_0
I0417 14:39:55.376334  7299 net.cpp:411] inception_1b/output_inception_1b/output_0_split -> inception_1b/output_inception_1b/output_0_split_1
I0417 14:39:55.376338  7299 net.cpp:411] inception_1b/output_inception_1b/output_0_split -> inception_1b/output_inception_1b/output_0_split_2
I0417 14:39:55.376341  7299 net.cpp:411] inception_1b/output_inception_1b/output_0_split -> inception_1b/output_inception_1b/output_0_split_3
I0417 14:39:55.376343  7299 net.cpp:163] Setting up inception_1b/output_inception_1b/output_0_split
I0417 14:39:55.376346  7299 net.cpp:170] Top shape: 25 384 36 14 (4838400)
I0417 14:39:55.376349  7299 net.cpp:170] Top shape: 25 384 36 14 (4838400)
I0417 14:39:55.376350  7299 net.cpp:170] Top shape: 25 384 36 14 (4838400)
I0417 14:39:55.376353  7299 net.cpp:170] Top shape: 25 384 36 14 (4838400)
I0417 14:39:55.376354  7299 layer_factory.hpp:74] Creating layer inception_2a/1x1
I0417 14:39:55.376358  7299 net.cpp:133] Creating Layer inception_2a/1x1
I0417 14:39:55.376359  7299 net.cpp:453] inception_2a/1x1 <- inception_1b/output_inception_1b/output_0_split_0
I0417 14:39:55.376363  7299 net.cpp:411] inception_2a/1x1 -> inception_2a/1x1
I0417 14:39:55.376365  7299 net.cpp:163] Setting up inception_2a/1x1
I0417 14:39:55.533190  7299 net.cpp:170] Top shape: 25 128 36 14 (1612800)
I0417 14:39:55.533236  7299 layer_factory.hpp:74] Creating layer inception_2a/1x1_bn
I0417 14:39:55.533243  7299 layer_factory.cpp:191] Layer inception_2a/1x1_bn is using CAFFE engine.
I0417 14:39:55.533257  7299 net.cpp:133] Creating Layer inception_2a/1x1_bn
I0417 14:39:55.533263  7299 net.cpp:453] inception_2a/1x1_bn <- inception_2a/1x1
I0417 14:39:55.533273  7299 net.cpp:411] inception_2a/1x1_bn -> inception_2a/1x1_bn
I0417 14:39:55.533284  7299 net.cpp:163] Setting up inception_2a/1x1_bn
I0417 14:39:55.533310  7299 net.cpp:170] Top shape: 25 128 36 14 (1612800)
I0417 14:39:55.533318  7299 layer_factory.hpp:74] Creating layer inception_2a/relu_1x1
I0417 14:39:55.533323  7299 net.cpp:133] Creating Layer inception_2a/relu_1x1
I0417 14:39:55.533324  7299 net.cpp:453] inception_2a/relu_1x1 <- inception_2a/1x1_bn
I0417 14:39:55.533327  7299 net.cpp:400] inception_2a/relu_1x1 -> inception_2a/1x1_bn (in-place)
I0417 14:39:55.533330  7299 net.cpp:163] Setting up inception_2a/relu_1x1
I0417 14:39:55.533471  7299 net.cpp:170] Top shape: 25 128 36 14 (1612800)
I0417 14:39:55.533476  7299 layer_factory.hpp:74] Creating layer inception_2a/3x3_reduce
I0417 14:39:55.533483  7299 net.cpp:133] Creating Layer inception_2a/3x3_reduce
I0417 14:39:55.533484  7299 net.cpp:453] inception_2a/3x3_reduce <- inception_1b/output_inception_1b/output_0_split_1
I0417 14:39:55.533488  7299 net.cpp:411] inception_2a/3x3_reduce -> inception_2a/3x3_reduce
I0417 14:39:55.533493  7299 net.cpp:163] Setting up inception_2a/3x3_reduce
I0417 14:39:55.690251  7299 net.cpp:170] Top shape: 25 128 36 14 (1612800)
I0417 14:39:55.690261  7299 layer_factory.hpp:74] Creating layer inception_2a/3x3_reduce_bn
I0417 14:39:55.690264  7299 layer_factory.cpp:191] Layer inception_2a/3x3_reduce_bn is using CAFFE engine.
I0417 14:39:55.690268  7299 net.cpp:133] Creating Layer inception_2a/3x3_reduce_bn
I0417 14:39:55.690270  7299 net.cpp:453] inception_2a/3x3_reduce_bn <- inception_2a/3x3_reduce
I0417 14:39:55.690274  7299 net.cpp:411] inception_2a/3x3_reduce_bn -> inception_2a/3x3_reduce_bn
I0417 14:39:55.690279  7299 net.cpp:163] Setting up inception_2a/3x3_reduce_bn
I0417 14:39:55.690289  7299 net.cpp:170] Top shape: 25 128 36 14 (1612800)
I0417 14:39:55.690294  7299 layer_factory.hpp:74] Creating layer inception_2a/relu_3x3_reduce
I0417 14:39:55.690296  7299 net.cpp:133] Creating Layer inception_2a/relu_3x3_reduce
I0417 14:39:55.690297  7299 net.cpp:453] inception_2a/relu_3x3_reduce <- inception_2a/3x3_reduce_bn
I0417 14:39:55.690300  7299 net.cpp:400] inception_2a/relu_3x3_reduce -> inception_2a/3x3_reduce_bn (in-place)
I0417 14:39:55.690304  7299 net.cpp:163] Setting up inception_2a/relu_3x3_reduce
I0417 14:39:55.690482  7299 net.cpp:170] Top shape: 25 128 36 14 (1612800)
I0417 14:39:55.690488  7299 layer_factory.hpp:74] Creating layer inception_2a/3x3
I0417 14:39:55.690493  7299 net.cpp:133] Creating Layer inception_2a/3x3
I0417 14:39:55.690495  7299 net.cpp:453] inception_2a/3x3 <- inception_2a/3x3_reduce_bn
I0417 14:39:55.690500  7299 net.cpp:411] inception_2a/3x3 -> inception_2a/3x3
I0417 14:39:55.690503  7299 net.cpp:163] Setting up inception_2a/3x3
I0417 14:39:55.763075  7299 net.cpp:170] Top shape: 25 128 36 14 (1612800)
I0417 14:39:55.763085  7299 layer_factory.hpp:74] Creating layer inception_2a/3x3_bn
I0417 14:39:55.763087  7299 layer_factory.cpp:191] Layer inception_2a/3x3_bn is using CAFFE engine.
I0417 14:39:55.763092  7299 net.cpp:133] Creating Layer inception_2a/3x3_bn
I0417 14:39:55.763094  7299 net.cpp:453] inception_2a/3x3_bn <- inception_2a/3x3
I0417 14:39:55.763098  7299 net.cpp:411] inception_2a/3x3_bn -> inception_2a/3x3_bn
I0417 14:39:55.763103  7299 net.cpp:163] Setting up inception_2a/3x3_bn
I0417 14:39:55.763111  7299 net.cpp:170] Top shape: 25 128 36 14 (1612800)
I0417 14:39:55.763118  7299 layer_factory.hpp:74] Creating layer inception_2a/relu_3x3
I0417 14:39:55.763119  7299 net.cpp:133] Creating Layer inception_2a/relu_3x3
I0417 14:39:55.763121  7299 net.cpp:453] inception_2a/relu_3x3 <- inception_2a/3x3_bn
I0417 14:39:55.763124  7299 net.cpp:400] inception_2a/relu_3x3 -> inception_2a/3x3_bn (in-place)
I0417 14:39:55.763128  7299 net.cpp:163] Setting up inception_2a/relu_3x3
I0417 14:39:55.763232  7299 net.cpp:170] Top shape: 25 128 36 14 (1612800)
I0417 14:39:55.763237  7299 layer_factory.hpp:74] Creating layer inception_2a/double_3x3_reduce
I0417 14:39:55.763242  7299 net.cpp:133] Creating Layer inception_2a/double_3x3_reduce
I0417 14:39:55.763243  7299 net.cpp:453] inception_2a/double_3x3_reduce <- inception_1b/output_inception_1b/output_0_split_2
I0417 14:39:55.763247  7299 net.cpp:411] inception_2a/double_3x3_reduce -> inception_2a/double_3x3_reduce
I0417 14:39:55.763252  7299 net.cpp:163] Setting up inception_2a/double_3x3_reduce
I0417 14:39:55.919253  7299 net.cpp:170] Top shape: 25 128 36 14 (1612800)
I0417 14:39:55.919263  7299 layer_factory.hpp:74] Creating layer inception_2a/double_3x3_reduce_bn
I0417 14:39:55.919266  7299 layer_factory.cpp:191] Layer inception_2a/double_3x3_reduce_bn is using CAFFE engine.
I0417 14:39:55.919282  7299 net.cpp:133] Creating Layer inception_2a/double_3x3_reduce_bn
I0417 14:39:55.919284  7299 net.cpp:453] inception_2a/double_3x3_reduce_bn <- inception_2a/double_3x3_reduce
I0417 14:39:55.919289  7299 net.cpp:411] inception_2a/double_3x3_reduce_bn -> inception_2a/double_3x3_reduce_bn
I0417 14:39:55.919293  7299 net.cpp:163] Setting up inception_2a/double_3x3_reduce_bn
I0417 14:39:55.919302  7299 net.cpp:170] Top shape: 25 128 36 14 (1612800)
I0417 14:39:55.919307  7299 layer_factory.hpp:74] Creating layer inception_2a/relu_double_3x3_reduce
I0417 14:39:55.919311  7299 net.cpp:133] Creating Layer inception_2a/relu_double_3x3_reduce
I0417 14:39:55.919312  7299 net.cpp:453] inception_2a/relu_double_3x3_reduce <- inception_2a/double_3x3_reduce_bn
I0417 14:39:55.919315  7299 net.cpp:400] inception_2a/relu_double_3x3_reduce -> inception_2a/double_3x3_reduce_bn (in-place)
I0417 14:39:55.919318  7299 net.cpp:163] Setting up inception_2a/relu_double_3x3_reduce
I0417 14:39:55.919422  7299 net.cpp:170] Top shape: 25 128 36 14 (1612800)
I0417 14:39:55.919426  7299 layer_factory.hpp:74] Creating layer inception_2a/double_3x3_1
I0417 14:39:55.919431  7299 net.cpp:133] Creating Layer inception_2a/double_3x3_1
I0417 14:39:55.919433  7299 net.cpp:453] inception_2a/double_3x3_1 <- inception_2a/double_3x3_reduce_bn
I0417 14:39:55.919437  7299 net.cpp:411] inception_2a/double_3x3_1 -> inception_2a/double_3x3_1
I0417 14:39:55.919440  7299 net.cpp:163] Setting up inception_2a/double_3x3_1
I0417 14:39:55.992972  7299 net.cpp:170] Top shape: 25 128 36 14 (1612800)
I0417 14:39:55.992982  7299 layer_factory.hpp:74] Creating layer inception_2a/double_3x3_1_bn
I0417 14:39:55.992985  7299 layer_factory.cpp:191] Layer inception_2a/double_3x3_1_bn is using CAFFE engine.
I0417 14:39:55.992988  7299 net.cpp:133] Creating Layer inception_2a/double_3x3_1_bn
I0417 14:39:55.992991  7299 net.cpp:453] inception_2a/double_3x3_1_bn <- inception_2a/double_3x3_1
I0417 14:39:55.992995  7299 net.cpp:411] inception_2a/double_3x3_1_bn -> inception_2a/double_3x3_1_bn
I0417 14:39:55.993000  7299 net.cpp:163] Setting up inception_2a/double_3x3_1_bn
I0417 14:39:55.993010  7299 net.cpp:170] Top shape: 25 128 36 14 (1612800)
I0417 14:39:55.993015  7299 layer_factory.hpp:74] Creating layer inception_2a/relu_double_3x3_1
I0417 14:39:55.993017  7299 net.cpp:133] Creating Layer inception_2a/relu_double_3x3_1
I0417 14:39:55.993019  7299 net.cpp:453] inception_2a/relu_double_3x3_1 <- inception_2a/double_3x3_1_bn
I0417 14:39:55.993021  7299 net.cpp:400] inception_2a/relu_double_3x3_1 -> inception_2a/double_3x3_1_bn (in-place)
I0417 14:39:55.993026  7299 net.cpp:163] Setting up inception_2a/relu_double_3x3_1
I0417 14:39:55.993204  7299 net.cpp:170] Top shape: 25 128 36 14 (1612800)
I0417 14:39:55.993209  7299 layer_factory.hpp:74] Creating layer inception_2a/double_3x3_2
I0417 14:39:55.993214  7299 net.cpp:133] Creating Layer inception_2a/double_3x3_2
I0417 14:39:55.993217  7299 net.cpp:453] inception_2a/double_3x3_2 <- inception_2a/double_3x3_1_bn
I0417 14:39:55.993221  7299 net.cpp:411] inception_2a/double_3x3_2 -> inception_2a/double_3x3_2
I0417 14:39:55.993226  7299 net.cpp:163] Setting up inception_2a/double_3x3_2
I0417 14:39:56.066135  7299 net.cpp:170] Top shape: 25 128 36 14 (1612800)
I0417 14:39:56.066145  7299 layer_factory.hpp:74] Creating layer inception_2a/double_3x3_2_bn
I0417 14:39:56.066148  7299 layer_factory.cpp:191] Layer inception_2a/double_3x3_2_bn is using CAFFE engine.
I0417 14:39:56.066153  7299 net.cpp:133] Creating Layer inception_2a/double_3x3_2_bn
I0417 14:39:56.066154  7299 net.cpp:453] inception_2a/double_3x3_2_bn <- inception_2a/double_3x3_2
I0417 14:39:56.066159  7299 net.cpp:411] inception_2a/double_3x3_2_bn -> inception_2a/double_3x3_2_bn
I0417 14:39:56.066164  7299 net.cpp:163] Setting up inception_2a/double_3x3_2_bn
I0417 14:39:56.066172  7299 net.cpp:170] Top shape: 25 128 36 14 (1612800)
I0417 14:39:56.066177  7299 layer_factory.hpp:74] Creating layer inception_2a/relu_double_3x3_2
I0417 14:39:56.066180  7299 net.cpp:133] Creating Layer inception_2a/relu_double_3x3_2
I0417 14:39:56.066182  7299 net.cpp:453] inception_2a/relu_double_3x3_2 <- inception_2a/double_3x3_2_bn
I0417 14:39:56.066185  7299 net.cpp:400] inception_2a/relu_double_3x3_2 -> inception_2a/double_3x3_2_bn (in-place)
I0417 14:39:56.066187  7299 net.cpp:163] Setting up inception_2a/relu_double_3x3_2
I0417 14:39:56.066293  7299 net.cpp:170] Top shape: 25 128 36 14 (1612800)
I0417 14:39:56.066296  7299 layer_factory.hpp:74] Creating layer inception_2a/pool
I0417 14:39:56.066299  7299 layer_factory.cpp:64] CUDNN does not support padding or multiple tops. Using Caffe's own pooling layer.
I0417 14:39:56.066303  7299 net.cpp:133] Creating Layer inception_2a/pool
I0417 14:39:56.066304  7299 net.cpp:453] inception_2a/pool <- inception_1b/output_inception_1b/output_0_split_3
I0417 14:39:56.066308  7299 net.cpp:411] inception_2a/pool -> inception_2a/pool
I0417 14:39:56.066311  7299 net.cpp:163] Setting up inception_2a/pool
I0417 14:39:56.066315  7299 net.cpp:170] Top shape: 25 384 36 14 (4838400)
I0417 14:39:56.066318  7299 layer_factory.hpp:74] Creating layer inception_2a/pool_proj
I0417 14:39:56.066323  7299 net.cpp:133] Creating Layer inception_2a/pool_proj
I0417 14:39:56.066325  7299 net.cpp:453] inception_2a/pool_proj <- inception_2a/pool
I0417 14:39:56.066329  7299 net.cpp:411] inception_2a/pool_proj -> inception_2a/pool_proj
I0417 14:39:56.066332  7299 net.cpp:163] Setting up inception_2a/pool_proj
I0417 14:39:56.222046  7299 net.cpp:170] Top shape: 25 128 36 14 (1612800)
I0417 14:39:56.222056  7299 layer_factory.hpp:74] Creating layer inception_2a/pool_proj_bn
I0417 14:39:56.222059  7299 layer_factory.cpp:191] Layer inception_2a/pool_proj_bn is using CAFFE engine.
I0417 14:39:56.222064  7299 net.cpp:133] Creating Layer inception_2a/pool_proj_bn
I0417 14:39:56.222066  7299 net.cpp:453] inception_2a/pool_proj_bn <- inception_2a/pool_proj
I0417 14:39:56.222069  7299 net.cpp:411] inception_2a/pool_proj_bn -> inception_2a/pool_proj_bn
I0417 14:39:56.222074  7299 net.cpp:163] Setting up inception_2a/pool_proj_bn
I0417 14:39:56.222084  7299 net.cpp:170] Top shape: 25 128 36 14 (1612800)
I0417 14:39:56.222097  7299 layer_factory.hpp:74] Creating layer inception_2a/relu_pool_proj
I0417 14:39:56.222101  7299 net.cpp:133] Creating Layer inception_2a/relu_pool_proj
I0417 14:39:56.222102  7299 net.cpp:453] inception_2a/relu_pool_proj <- inception_2a/pool_proj_bn
I0417 14:39:56.222105  7299 net.cpp:400] inception_2a/relu_pool_proj -> inception_2a/pool_proj_bn (in-place)
I0417 14:39:56.222108  7299 net.cpp:163] Setting up inception_2a/relu_pool_proj
I0417 14:39:56.222213  7299 net.cpp:170] Top shape: 25 128 36 14 (1612800)
I0417 14:39:56.222218  7299 layer_factory.hpp:74] Creating layer inception_2a/output
I0417 14:39:56.222223  7299 net.cpp:133] Creating Layer inception_2a/output
I0417 14:39:56.222224  7299 net.cpp:453] inception_2a/output <- inception_2a/1x1_bn
I0417 14:39:56.222226  7299 net.cpp:453] inception_2a/output <- inception_2a/3x3_bn
I0417 14:39:56.222229  7299 net.cpp:453] inception_2a/output <- inception_2a/double_3x3_2_bn
I0417 14:39:56.222230  7299 net.cpp:453] inception_2a/output <- inception_2a/pool_proj_bn
I0417 14:39:56.222234  7299 net.cpp:411] inception_2a/output -> inception_2a/output
I0417 14:39:56.222237  7299 net.cpp:163] Setting up inception_2a/output
I0417 14:39:56.222241  7299 net.cpp:170] Top shape: 25 512 36 14 (6451200)
I0417 14:39:56.222242  7299 layer_factory.hpp:74] Creating layer inception_2a/output_inception_2a/output_0_split
I0417 14:39:56.222246  7299 net.cpp:133] Creating Layer inception_2a/output_inception_2a/output_0_split
I0417 14:39:56.222247  7299 net.cpp:453] inception_2a/output_inception_2a/output_0_split <- inception_2a/output
I0417 14:39:56.222250  7299 net.cpp:411] inception_2a/output_inception_2a/output_0_split -> inception_2a/output_inception_2a/output_0_split_0
I0417 14:39:56.222262  7299 net.cpp:411] inception_2a/output_inception_2a/output_0_split -> inception_2a/output_inception_2a/output_0_split_1
I0417 14:39:56.222266  7299 net.cpp:411] inception_2a/output_inception_2a/output_0_split -> inception_2a/output_inception_2a/output_0_split_2
I0417 14:39:56.222270  7299 net.cpp:163] Setting up inception_2a/output_inception_2a/output_0_split
I0417 14:39:56.222272  7299 net.cpp:170] Top shape: 25 512 36 14 (6451200)
I0417 14:39:56.222275  7299 net.cpp:170] Top shape: 25 512 36 14 (6451200)
I0417 14:39:56.222276  7299 net.cpp:170] Top shape: 25 512 36 14 (6451200)
I0417 14:39:56.222278  7299 layer_factory.hpp:74] Creating layer inception_2b/3x3_reduce
I0417 14:39:56.222282  7299 net.cpp:133] Creating Layer inception_2b/3x3_reduce
I0417 14:39:56.222283  7299 net.cpp:453] inception_2b/3x3_reduce <- inception_2a/output_inception_2a/output_0_split_0
I0417 14:39:56.222287  7299 net.cpp:411] inception_2b/3x3_reduce -> inception_2b/3x3_reduce
I0417 14:39:56.222290  7299 net.cpp:163] Setting up inception_2b/3x3_reduce
I0417 14:39:56.422904  7299 net.cpp:170] Top shape: 25 128 36 14 (1612800)
I0417 14:39:56.422914  7299 layer_factory.hpp:74] Creating layer inception_2b/3x3_reduce_bn
I0417 14:39:56.422916  7299 layer_factory.cpp:191] Layer inception_2b/3x3_reduce_bn is using CAFFE engine.
I0417 14:39:56.422920  7299 net.cpp:133] Creating Layer inception_2b/3x3_reduce_bn
I0417 14:39:56.422922  7299 net.cpp:453] inception_2b/3x3_reduce_bn <- inception_2b/3x3_reduce
I0417 14:39:56.422926  7299 net.cpp:411] inception_2b/3x3_reduce_bn -> inception_2b/3x3_reduce_bn
I0417 14:39:56.422930  7299 net.cpp:163] Setting up inception_2b/3x3_reduce_bn
I0417 14:39:56.422940  7299 net.cpp:170] Top shape: 25 128 36 14 (1612800)
I0417 14:39:56.422945  7299 layer_factory.hpp:74] Creating layer inception_2b/relu_3x3_reduce
I0417 14:39:56.422947  7299 net.cpp:133] Creating Layer inception_2b/relu_3x3_reduce
I0417 14:39:56.422950  7299 net.cpp:453] inception_2b/relu_3x3_reduce <- inception_2b/3x3_reduce_bn
I0417 14:39:56.422952  7299 net.cpp:400] inception_2b/relu_3x3_reduce -> inception_2b/3x3_reduce_bn (in-place)
I0417 14:39:56.422955  7299 net.cpp:163] Setting up inception_2b/relu_3x3_reduce
I0417 14:39:56.423137  7299 net.cpp:170] Top shape: 25 128 36 14 (1612800)
I0417 14:39:56.423143  7299 layer_factory.hpp:74] Creating layer inception_2b/3x3
I0417 14:39:56.423147  7299 net.cpp:133] Creating Layer inception_2b/3x3
I0417 14:39:56.423149  7299 net.cpp:453] inception_2b/3x3 <- inception_2b/3x3_reduce_bn
I0417 14:39:56.423154  7299 net.cpp:411] inception_2b/3x3 -> inception_2b/3x3
I0417 14:39:56.423157  7299 net.cpp:163] Setting up inception_2b/3x3
I0417 14:39:56.435926  7299 net.cpp:170] Top shape: 25 128 18 7 (403200)
I0417 14:39:56.435936  7299 layer_factory.hpp:74] Creating layer inception_2b/3x3_bn
I0417 14:39:56.435940  7299 layer_factory.cpp:191] Layer inception_2b/3x3_bn is using CAFFE engine.
I0417 14:39:56.435943  7299 net.cpp:133] Creating Layer inception_2b/3x3_bn
I0417 14:39:56.435945  7299 net.cpp:453] inception_2b/3x3_bn <- inception_2b/3x3
I0417 14:39:56.435950  7299 net.cpp:411] inception_2b/3x3_bn -> inception_2b/3x3_bn
I0417 14:39:56.435955  7299 net.cpp:163] Setting up inception_2b/3x3_bn
I0417 14:39:56.435962  7299 net.cpp:170] Top shape: 25 128 18 7 (403200)
I0417 14:39:56.435967  7299 layer_factory.hpp:74] Creating layer inception_2b/relu_3x3
I0417 14:39:56.435971  7299 net.cpp:133] Creating Layer inception_2b/relu_3x3
I0417 14:39:56.435971  7299 net.cpp:453] inception_2b/relu_3x3 <- inception_2b/3x3_bn
I0417 14:39:56.435976  7299 net.cpp:400] inception_2b/relu_3x3 -> inception_2b/3x3_bn (in-place)
I0417 14:39:56.435978  7299 net.cpp:163] Setting up inception_2b/relu_3x3
I0417 14:39:56.436084  7299 net.cpp:170] Top shape: 25 128 18 7 (403200)
I0417 14:39:56.436089  7299 layer_factory.hpp:74] Creating layer inception_2b/double_3x3_reduce
I0417 14:39:56.436094  7299 net.cpp:133] Creating Layer inception_2b/double_3x3_reduce
I0417 14:39:56.436096  7299 net.cpp:453] inception_2b/double_3x3_reduce <- inception_2a/output_inception_2a/output_0_split_1
I0417 14:39:56.436100  7299 net.cpp:411] inception_2b/double_3x3_reduce -> inception_2b/double_3x3_reduce
I0417 14:39:56.436105  7299 net.cpp:163] Setting up inception_2b/double_3x3_reduce
I0417 14:39:56.637758  7299 net.cpp:170] Top shape: 25 128 36 14 (1612800)
I0417 14:39:56.637768  7299 layer_factory.hpp:74] Creating layer inception_2b/double_3x3_reduce_bn
I0417 14:39:56.637770  7299 layer_factory.cpp:191] Layer inception_2b/double_3x3_reduce_bn is using CAFFE engine.
I0417 14:39:56.637774  7299 net.cpp:133] Creating Layer inception_2b/double_3x3_reduce_bn
I0417 14:39:56.637778  7299 net.cpp:453] inception_2b/double_3x3_reduce_bn <- inception_2b/double_3x3_reduce
I0417 14:39:56.637780  7299 net.cpp:411] inception_2b/double_3x3_reduce_bn -> inception_2b/double_3x3_reduce_bn
I0417 14:39:56.637785  7299 net.cpp:163] Setting up inception_2b/double_3x3_reduce_bn
I0417 14:39:56.637795  7299 net.cpp:170] Top shape: 25 128 36 14 (1612800)
I0417 14:39:56.637800  7299 layer_factory.hpp:74] Creating layer inception_2b/relu_double_3x3_reduce
I0417 14:39:56.637804  7299 net.cpp:133] Creating Layer inception_2b/relu_double_3x3_reduce
I0417 14:39:56.637804  7299 net.cpp:453] inception_2b/relu_double_3x3_reduce <- inception_2b/double_3x3_reduce_bn
I0417 14:39:56.637809  7299 net.cpp:400] inception_2b/relu_double_3x3_reduce -> inception_2b/double_3x3_reduce_bn (in-place)
I0417 14:39:56.637811  7299 net.cpp:163] Setting up inception_2b/relu_double_3x3_reduce
I0417 14:39:56.637917  7299 net.cpp:170] Top shape: 25 128 36 14 (1612800)
I0417 14:39:56.637923  7299 layer_factory.hpp:74] Creating layer inception_2b/double_3x3_1
I0417 14:39:56.637928  7299 net.cpp:133] Creating Layer inception_2b/double_3x3_1
I0417 14:39:56.637929  7299 net.cpp:453] inception_2b/double_3x3_1 <- inception_2b/double_3x3_reduce_bn
I0417 14:39:56.637933  7299 net.cpp:411] inception_2b/double_3x3_1 -> inception_2b/double_3x3_1
I0417 14:39:56.637938  7299 net.cpp:163] Setting up inception_2b/double_3x3_1
I0417 14:39:56.710904  7299 net.cpp:170] Top shape: 25 128 36 14 (1612800)
I0417 14:39:56.710914  7299 layer_factory.hpp:74] Creating layer inception_2b/double_3x3_1_bn
I0417 14:39:56.710916  7299 layer_factory.cpp:191] Layer inception_2b/double_3x3_1_bn is using CAFFE engine.
I0417 14:39:56.710922  7299 net.cpp:133] Creating Layer inception_2b/double_3x3_1_bn
I0417 14:39:56.710923  7299 net.cpp:453] inception_2b/double_3x3_1_bn <- inception_2b/double_3x3_1
I0417 14:39:56.710927  7299 net.cpp:411] inception_2b/double_3x3_1_bn -> inception_2b/double_3x3_1_bn
I0417 14:39:56.710932  7299 net.cpp:163] Setting up inception_2b/double_3x3_1_bn
I0417 14:39:56.710940  7299 net.cpp:170] Top shape: 25 128 36 14 (1612800)
I0417 14:39:56.710947  7299 layer_factory.hpp:74] Creating layer inception_2b/relu_double_3x3_1
I0417 14:39:56.710949  7299 net.cpp:133] Creating Layer inception_2b/relu_double_3x3_1
I0417 14:39:56.710950  7299 net.cpp:453] inception_2b/relu_double_3x3_1 <- inception_2b/double_3x3_1_bn
I0417 14:39:56.710953  7299 net.cpp:400] inception_2b/relu_double_3x3_1 -> inception_2b/double_3x3_1_bn (in-place)
I0417 14:39:56.710957  7299 net.cpp:163] Setting up inception_2b/relu_double_3x3_1
I0417 14:39:56.711138  7299 net.cpp:170] Top shape: 25 128 36 14 (1612800)
I0417 14:39:56.711143  7299 layer_factory.hpp:74] Creating layer inception_2b/double_3x3_2
I0417 14:39:56.711148  7299 net.cpp:133] Creating Layer inception_2b/double_3x3_2
I0417 14:39:56.711150  7299 net.cpp:453] inception_2b/double_3x3_2 <- inception_2b/double_3x3_1_bn
I0417 14:39:56.711154  7299 net.cpp:411] inception_2b/double_3x3_2 -> inception_2b/double_3x3_2
I0417 14:39:56.711158  7299 net.cpp:163] Setting up inception_2b/double_3x3_2
I0417 14:39:56.723433  7299 net.cpp:170] Top shape: 25 128 18 7 (403200)
I0417 14:39:56.723443  7299 layer_factory.hpp:74] Creating layer inception_2b/double_3x3_2_bn
I0417 14:39:56.723444  7299 layer_factory.cpp:191] Layer inception_2b/double_3x3_2_bn is using CAFFE engine.
I0417 14:39:56.723449  7299 net.cpp:133] Creating Layer inception_2b/double_3x3_2_bn
I0417 14:39:56.723451  7299 net.cpp:453] inception_2b/double_3x3_2_bn <- inception_2b/double_3x3_2
I0417 14:39:56.723455  7299 net.cpp:411] inception_2b/double_3x3_2_bn -> inception_2b/double_3x3_2_bn
I0417 14:39:56.723459  7299 net.cpp:163] Setting up inception_2b/double_3x3_2_bn
I0417 14:39:56.723469  7299 net.cpp:170] Top shape: 25 128 18 7 (403200)
I0417 14:39:56.723474  7299 layer_factory.hpp:74] Creating layer inception_2b/relu_double_3x3_2
I0417 14:39:56.723476  7299 net.cpp:133] Creating Layer inception_2b/relu_double_3x3_2
I0417 14:39:56.723477  7299 net.cpp:453] inception_2b/relu_double_3x3_2 <- inception_2b/double_3x3_2_bn
I0417 14:39:56.723480  7299 net.cpp:400] inception_2b/relu_double_3x3_2 -> inception_2b/double_3x3_2_bn (in-place)
I0417 14:39:56.723484  7299 net.cpp:163] Setting up inception_2b/relu_double_3x3_2
I0417 14:39:56.723588  7299 net.cpp:170] Top shape: 25 128 18 7 (403200)
I0417 14:39:56.723593  7299 layer_factory.hpp:74] Creating layer inception_2b/pool
I0417 14:39:56.723598  7299 net.cpp:133] Creating Layer inception_2b/pool
I0417 14:39:56.723599  7299 net.cpp:453] inception_2b/pool <- inception_2a/output_inception_2a/output_0_split_2
I0417 14:39:56.723603  7299 net.cpp:411] inception_2b/pool -> inception_2b/pool
I0417 14:39:56.723606  7299 net.cpp:163] Setting up inception_2b/pool
I0417 14:39:56.723783  7299 net.cpp:170] Top shape: 25 512 18 7 (1612800)
I0417 14:39:56.723788  7299 layer_factory.hpp:74] Creating layer inception_2b/output
I0417 14:39:56.723793  7299 net.cpp:133] Creating Layer inception_2b/output
I0417 14:39:56.723793  7299 net.cpp:453] inception_2b/output <- inception_2b/3x3_bn
I0417 14:39:56.723796  7299 net.cpp:453] inception_2b/output <- inception_2b/double_3x3_2_bn
I0417 14:39:56.723798  7299 net.cpp:453] inception_2b/output <- inception_2b/pool
I0417 14:39:56.723801  7299 net.cpp:411] inception_2b/output -> inception_2b/output
I0417 14:39:56.723805  7299 net.cpp:163] Setting up inception_2b/output
I0417 14:39:56.723809  7299 net.cpp:170] Top shape: 25 768 18 7 (2419200)
I0417 14:39:56.723810  7299 layer_factory.hpp:74] Creating layer inception_2b/output_inception_2b/output_0_split
I0417 14:39:56.723814  7299 net.cpp:133] Creating Layer inception_2b/output_inception_2b/output_0_split
I0417 14:39:56.723815  7299 net.cpp:453] inception_2b/output_inception_2b/output_0_split <- inception_2b/output
I0417 14:39:56.723819  7299 net.cpp:411] inception_2b/output_inception_2b/output_0_split -> inception_2b/output_inception_2b/output_0_split_0
I0417 14:39:56.723821  7299 net.cpp:411] inception_2b/output_inception_2b/output_0_split -> inception_2b/output_inception_2b/output_0_split_1
I0417 14:39:56.723825  7299 net.cpp:411] inception_2b/output_inception_2b/output_0_split -> inception_2b/output_inception_2b/output_0_split_2
I0417 14:39:56.723829  7299 net.cpp:411] inception_2b/output_inception_2b/output_0_split -> inception_2b/output_inception_2b/output_0_split_3
I0417 14:39:56.723831  7299 net.cpp:163] Setting up inception_2b/output_inception_2b/output_0_split
I0417 14:39:56.723834  7299 net.cpp:170] Top shape: 25 768 18 7 (2419200)
I0417 14:39:56.723836  7299 net.cpp:170] Top shape: 25 768 18 7 (2419200)
I0417 14:39:56.723839  7299 net.cpp:170] Top shape: 25 768 18 7 (2419200)
I0417 14:39:56.723840  7299 net.cpp:170] Top shape: 25 768 18 7 (2419200)
I0417 14:39:56.723841  7299 layer_factory.hpp:74] Creating layer inception_3a/1x1
I0417 14:39:56.723845  7299 net.cpp:133] Creating Layer inception_3a/1x1
I0417 14:39:56.723847  7299 net.cpp:453] inception_3a/1x1 <- inception_2b/output_inception_2b/output_0_split_0
I0417 14:39:56.723850  7299 net.cpp:411] inception_3a/1x1 -> inception_3a/1x1
I0417 14:39:56.723853  7299 net.cpp:163] Setting up inception_3a/1x1
I0417 14:39:56.879945  7299 net.cpp:170] Top shape: 25 256 18 7 (806400)
I0417 14:39:56.879956  7299 layer_factory.hpp:74] Creating layer inception_3a/1x1_bn
I0417 14:39:56.879958  7299 layer_factory.cpp:191] Layer inception_3a/1x1_bn is using CAFFE engine.
I0417 14:39:56.879962  7299 net.cpp:133] Creating Layer inception_3a/1x1_bn
I0417 14:39:56.879966  7299 net.cpp:453] inception_3a/1x1_bn <- inception_3a/1x1
I0417 14:39:56.879969  7299 net.cpp:411] inception_3a/1x1_bn -> inception_3a/1x1_bn
I0417 14:39:56.879974  7299 net.cpp:163] Setting up inception_3a/1x1_bn
I0417 14:39:56.879984  7299 net.cpp:170] Top shape: 25 256 18 7 (806400)
I0417 14:39:56.879989  7299 layer_factory.hpp:74] Creating layer inception_3a/relu_1x1
I0417 14:39:56.879994  7299 net.cpp:133] Creating Layer inception_3a/relu_1x1
I0417 14:39:56.879995  7299 net.cpp:453] inception_3a/relu_1x1 <- inception_3a/1x1_bn
I0417 14:39:56.879998  7299 net.cpp:400] inception_3a/relu_1x1 -> inception_3a/1x1_bn (in-place)
I0417 14:39:56.880002  7299 net.cpp:163] Setting up inception_3a/relu_1x1
I0417 14:39:56.880185  7299 net.cpp:170] Top shape: 25 256 18 7 (806400)
I0417 14:39:56.880192  7299 layer_factory.hpp:74] Creating layer inception_3a/3x3_reduce
I0417 14:39:56.880197  7299 net.cpp:133] Creating Layer inception_3a/3x3_reduce
I0417 14:39:56.880199  7299 net.cpp:453] inception_3a/3x3_reduce <- inception_2b/output_inception_2b/output_0_split_1
I0417 14:39:56.880203  7299 net.cpp:411] inception_3a/3x3_reduce -> inception_3a/3x3_reduce
I0417 14:39:56.880208  7299 net.cpp:163] Setting up inception_3a/3x3_reduce
I0417 14:39:57.037114  7299 net.cpp:170] Top shape: 25 256 18 7 (806400)
I0417 14:39:57.037125  7299 layer_factory.hpp:74] Creating layer inception_3a/3x3_reduce_bn
I0417 14:39:57.037127  7299 layer_factory.cpp:191] Layer inception_3a/3x3_reduce_bn is using CAFFE engine.
I0417 14:39:57.037132  7299 net.cpp:133] Creating Layer inception_3a/3x3_reduce_bn
I0417 14:39:57.037134  7299 net.cpp:453] inception_3a/3x3_reduce_bn <- inception_3a/3x3_reduce
I0417 14:39:57.037138  7299 net.cpp:411] inception_3a/3x3_reduce_bn -> inception_3a/3x3_reduce_bn
I0417 14:39:57.037143  7299 net.cpp:163] Setting up inception_3a/3x3_reduce_bn
I0417 14:39:57.037153  7299 net.cpp:170] Top shape: 25 256 18 7 (806400)
I0417 14:39:57.037158  7299 layer_factory.hpp:74] Creating layer inception_3a/relu_3x3_reduce
I0417 14:39:57.037160  7299 net.cpp:133] Creating Layer inception_3a/relu_3x3_reduce
I0417 14:39:57.037163  7299 net.cpp:453] inception_3a/relu_3x3_reduce <- inception_3a/3x3_reduce_bn
I0417 14:39:57.037165  7299 net.cpp:400] inception_3a/relu_3x3_reduce -> inception_3a/3x3_reduce_bn (in-place)
I0417 14:39:57.037168  7299 net.cpp:163] Setting up inception_3a/relu_3x3_reduce
I0417 14:39:57.037274  7299 net.cpp:170] Top shape: 25 256 18 7 (806400)
I0417 14:39:57.037278  7299 layer_factory.hpp:74] Creating layer inception_3a/3x3
I0417 14:39:57.037284  7299 net.cpp:133] Creating Layer inception_3a/3x3
I0417 14:39:57.037286  7299 net.cpp:453] inception_3a/3x3 <- inception_3a/3x3_reduce_bn
I0417 14:39:57.037292  7299 net.cpp:411] inception_3a/3x3 -> inception_3a/3x3
I0417 14:39:57.037294  7299 net.cpp:163] Setting up inception_3a/3x3
I0417 14:39:57.115079  7299 net.cpp:170] Top shape: 25 256 18 7 (806400)
I0417 14:39:57.115089  7299 layer_factory.hpp:74] Creating layer inception_3a/3x3_bn
I0417 14:39:57.115092  7299 layer_factory.cpp:191] Layer inception_3a/3x3_bn is using CAFFE engine.
I0417 14:39:57.115097  7299 net.cpp:133] Creating Layer inception_3a/3x3_bn
I0417 14:39:57.115098  7299 net.cpp:453] inception_3a/3x3_bn <- inception_3a/3x3
I0417 14:39:57.115103  7299 net.cpp:411] inception_3a/3x3_bn -> inception_3a/3x3_bn
I0417 14:39:57.115106  7299 net.cpp:163] Setting up inception_3a/3x3_bn
I0417 14:39:57.115116  7299 net.cpp:170] Top shape: 25 256 18 7 (806400)
I0417 14:39:57.115121  7299 layer_factory.hpp:74] Creating layer inception_3a/relu_3x3
I0417 14:39:57.115124  7299 net.cpp:133] Creating Layer inception_3a/relu_3x3
I0417 14:39:57.115126  7299 net.cpp:453] inception_3a/relu_3x3 <- inception_3a/3x3_bn
I0417 14:39:57.115129  7299 net.cpp:400] inception_3a/relu_3x3 -> inception_3a/3x3_bn (in-place)
I0417 14:39:57.115133  7299 net.cpp:163] Setting up inception_3a/relu_3x3
I0417 14:39:57.115314  7299 net.cpp:170] Top shape: 25 256 18 7 (806400)
I0417 14:39:57.115321  7299 layer_factory.hpp:74] Creating layer inception_3a/double_3x3_reduce
I0417 14:39:57.115326  7299 net.cpp:133] Creating Layer inception_3a/double_3x3_reduce
I0417 14:39:57.115329  7299 net.cpp:453] inception_3a/double_3x3_reduce <- inception_2b/output_inception_2b/output_0_split_2
I0417 14:39:57.115332  7299 net.cpp:411] inception_3a/double_3x3_reduce -> inception_3a/double_3x3_reduce
I0417 14:39:57.115336  7299 net.cpp:163] Setting up inception_3a/double_3x3_reduce
I0417 14:39:57.272733  7299 net.cpp:170] Top shape: 25 256 18 7 (806400)
I0417 14:39:57.272744  7299 layer_factory.hpp:74] Creating layer inception_3a/double_3x3_reduce_bn
I0417 14:39:57.272747  7299 layer_factory.cpp:191] Layer inception_3a/double_3x3_reduce_bn is using CAFFE engine.
I0417 14:39:57.272752  7299 net.cpp:133] Creating Layer inception_3a/double_3x3_reduce_bn
I0417 14:39:57.272754  7299 net.cpp:453] inception_3a/double_3x3_reduce_bn <- inception_3a/double_3x3_reduce
I0417 14:39:57.272758  7299 net.cpp:411] inception_3a/double_3x3_reduce_bn -> inception_3a/double_3x3_reduce_bn
I0417 14:39:57.272763  7299 net.cpp:163] Setting up inception_3a/double_3x3_reduce_bn
I0417 14:39:57.272773  7299 net.cpp:170] Top shape: 25 256 18 7 (806400)
I0417 14:39:57.272778  7299 layer_factory.hpp:74] Creating layer inception_3a/relu_double_3x3_reduce
I0417 14:39:57.272781  7299 net.cpp:133] Creating Layer inception_3a/relu_double_3x3_reduce
I0417 14:39:57.272783  7299 net.cpp:453] inception_3a/relu_double_3x3_reduce <- inception_3a/double_3x3_reduce_bn
I0417 14:39:57.272786  7299 net.cpp:400] inception_3a/relu_double_3x3_reduce -> inception_3a/double_3x3_reduce_bn (in-place)
I0417 14:39:57.272789  7299 net.cpp:163] Setting up inception_3a/relu_double_3x3_reduce
I0417 14:39:57.272970  7299 net.cpp:170] Top shape: 25 256 18 7 (806400)
I0417 14:39:57.272976  7299 layer_factory.hpp:74] Creating layer inception_3a/double_3x3_1
I0417 14:39:57.272981  7299 net.cpp:133] Creating Layer inception_3a/double_3x3_1
I0417 14:39:57.272984  7299 net.cpp:453] inception_3a/double_3x3_1 <- inception_3a/double_3x3_reduce_bn
I0417 14:39:57.272989  7299 net.cpp:411] inception_3a/double_3x3_1 -> inception_3a/double_3x3_1
I0417 14:39:57.272992  7299 net.cpp:163] Setting up inception_3a/double_3x3_1
I0417 14:39:57.350517  7299 net.cpp:170] Top shape: 25 256 18 7 (806400)
I0417 14:39:57.350528  7299 layer_factory.hpp:74] Creating layer inception_3a/double_3x3_1_bn
I0417 14:39:57.350530  7299 layer_factory.cpp:191] Layer inception_3a/double_3x3_1_bn is using CAFFE engine.
I0417 14:39:57.350534  7299 net.cpp:133] Creating Layer inception_3a/double_3x3_1_bn
I0417 14:39:57.350538  7299 net.cpp:453] inception_3a/double_3x3_1_bn <- inception_3a/double_3x3_1
I0417 14:39:57.350541  7299 net.cpp:411] inception_3a/double_3x3_1_bn -> inception_3a/double_3x3_1_bn
I0417 14:39:57.350545  7299 net.cpp:163] Setting up inception_3a/double_3x3_1_bn
I0417 14:39:57.350555  7299 net.cpp:170] Top shape: 25 256 18 7 (806400)
I0417 14:39:57.350560  7299 layer_factory.hpp:74] Creating layer inception_3a/relu_double_3x3_1
I0417 14:39:57.350564  7299 net.cpp:133] Creating Layer inception_3a/relu_double_3x3_1
I0417 14:39:57.350565  7299 net.cpp:453] inception_3a/relu_double_3x3_1 <- inception_3a/double_3x3_1_bn
I0417 14:39:57.350569  7299 net.cpp:400] inception_3a/relu_double_3x3_1 -> inception_3a/double_3x3_1_bn (in-place)
I0417 14:39:57.350570  7299 net.cpp:163] Setting up inception_3a/relu_double_3x3_1
I0417 14:39:57.350677  7299 net.cpp:170] Top shape: 25 256 18 7 (806400)
I0417 14:39:57.350682  7299 layer_factory.hpp:74] Creating layer inception_3a/double_3x3_2
I0417 14:39:57.350687  7299 net.cpp:133] Creating Layer inception_3a/double_3x3_2
I0417 14:39:57.350689  7299 net.cpp:453] inception_3a/double_3x3_2 <- inception_3a/double_3x3_1_bn
I0417 14:39:57.350693  7299 net.cpp:411] inception_3a/double_3x3_2 -> inception_3a/double_3x3_2
I0417 14:39:57.350697  7299 net.cpp:163] Setting up inception_3a/double_3x3_2
I0417 14:39:57.428478  7299 net.cpp:170] Top shape: 25 256 18 7 (806400)
I0417 14:39:57.428488  7299 layer_factory.hpp:74] Creating layer inception_3a/double_3x3_2_bn
I0417 14:39:57.428490  7299 layer_factory.cpp:191] Layer inception_3a/double_3x3_2_bn is using CAFFE engine.
I0417 14:39:57.428494  7299 net.cpp:133] Creating Layer inception_3a/double_3x3_2_bn
I0417 14:39:57.428496  7299 net.cpp:453] inception_3a/double_3x3_2_bn <- inception_3a/double_3x3_2
I0417 14:39:57.428500  7299 net.cpp:411] inception_3a/double_3x3_2_bn -> inception_3a/double_3x3_2_bn
I0417 14:39:57.428505  7299 net.cpp:163] Setting up inception_3a/double_3x3_2_bn
I0417 14:39:57.428514  7299 net.cpp:170] Top shape: 25 256 18 7 (806400)
I0417 14:39:57.428520  7299 layer_factory.hpp:74] Creating layer inception_3a/relu_double_3x3_2
I0417 14:39:57.428524  7299 net.cpp:133] Creating Layer inception_3a/relu_double_3x3_2
I0417 14:39:57.428525  7299 net.cpp:453] inception_3a/relu_double_3x3_2 <- inception_3a/double_3x3_2_bn
I0417 14:39:57.428527  7299 net.cpp:400] inception_3a/relu_double_3x3_2 -> inception_3a/double_3x3_2_bn (in-place)
I0417 14:39:57.428530  7299 net.cpp:163] Setting up inception_3a/relu_double_3x3_2
I0417 14:39:57.428715  7299 net.cpp:170] Top shape: 25 256 18 7 (806400)
I0417 14:39:57.428721  7299 layer_factory.hpp:74] Creating layer inception_3a/pool
I0417 14:39:57.428725  7299 layer_factory.cpp:64] CUDNN does not support padding or multiple tops. Using Caffe's own pooling layer.
I0417 14:39:57.428727  7299 net.cpp:133] Creating Layer inception_3a/pool
I0417 14:39:57.428730  7299 net.cpp:453] inception_3a/pool <- inception_2b/output_inception_2b/output_0_split_3
I0417 14:39:57.428733  7299 net.cpp:411] inception_3a/pool -> inception_3a/pool
I0417 14:39:57.428737  7299 net.cpp:163] Setting up inception_3a/pool
I0417 14:39:57.428741  7299 net.cpp:170] Top shape: 25 768 18 7 (2419200)
I0417 14:39:57.428743  7299 layer_factory.hpp:74] Creating layer inception_3a/pool_proj
I0417 14:39:57.428748  7299 net.cpp:133] Creating Layer inception_3a/pool_proj
I0417 14:39:57.428751  7299 net.cpp:453] inception_3a/pool_proj <- inception_3a/pool
I0417 14:39:57.428755  7299 net.cpp:411] inception_3a/pool_proj -> inception_3a/pool_proj
I0417 14:39:57.428758  7299 net.cpp:163] Setting up inception_3a/pool_proj
I0417 14:39:57.586558  7299 net.cpp:170] Top shape: 25 256 18 7 (806400)
I0417 14:39:57.586568  7299 layer_factory.hpp:74] Creating layer inception_3a/pool_proj_bn
I0417 14:39:57.586571  7299 layer_factory.cpp:191] Layer inception_3a/pool_proj_bn is using CAFFE engine.
I0417 14:39:57.586576  7299 net.cpp:133] Creating Layer inception_3a/pool_proj_bn
I0417 14:39:57.586578  7299 net.cpp:453] inception_3a/pool_proj_bn <- inception_3a/pool_proj
I0417 14:39:57.586582  7299 net.cpp:411] inception_3a/pool_proj_bn -> inception_3a/pool_proj_bn
I0417 14:39:57.586586  7299 net.cpp:163] Setting up inception_3a/pool_proj_bn
I0417 14:39:57.586596  7299 net.cpp:170] Top shape: 25 256 18 7 (806400)
I0417 14:39:57.586601  7299 layer_factory.hpp:74] Creating layer inception_3a/relu_pool_proj
I0417 14:39:57.586604  7299 net.cpp:133] Creating Layer inception_3a/relu_pool_proj
I0417 14:39:57.586606  7299 net.cpp:453] inception_3a/relu_pool_proj <- inception_3a/pool_proj_bn
I0417 14:39:57.586611  7299 net.cpp:400] inception_3a/relu_pool_proj -> inception_3a/pool_proj_bn (in-place)
I0417 14:39:57.586616  7299 net.cpp:163] Setting up inception_3a/relu_pool_proj
I0417 14:39:57.586807  7299 net.cpp:170] Top shape: 25 256 18 7 (806400)
I0417 14:39:57.586813  7299 layer_factory.hpp:74] Creating layer inception_3a/output
I0417 14:39:57.586817  7299 net.cpp:133] Creating Layer inception_3a/output
I0417 14:39:57.586819  7299 net.cpp:453] inception_3a/output <- inception_3a/1x1_bn
I0417 14:39:57.586822  7299 net.cpp:453] inception_3a/output <- inception_3a/3x3_bn
I0417 14:39:57.586824  7299 net.cpp:453] inception_3a/output <- inception_3a/double_3x3_2_bn
I0417 14:39:57.586827  7299 net.cpp:453] inception_3a/output <- inception_3a/pool_proj_bn
I0417 14:39:57.586830  7299 net.cpp:411] inception_3a/output -> inception_3a/output
I0417 14:39:57.586833  7299 net.cpp:163] Setting up inception_3a/output
I0417 14:39:57.586838  7299 net.cpp:170] Top shape: 25 1024 18 7 (3225600)
I0417 14:39:57.586839  7299 layer_factory.hpp:74] Creating layer inception_3a/output_inception_3a/output_0_split
I0417 14:39:57.586843  7299 net.cpp:133] Creating Layer inception_3a/output_inception_3a/output_0_split
I0417 14:39:57.586844  7299 net.cpp:453] inception_3a/output_inception_3a/output_0_split <- inception_3a/output
I0417 14:39:57.586848  7299 net.cpp:411] inception_3a/output_inception_3a/output_0_split -> inception_3a/output_inception_3a/output_0_split_0
I0417 14:39:57.586853  7299 net.cpp:411] inception_3a/output_inception_3a/output_0_split -> inception_3a/output_inception_3a/output_0_split_1
I0417 14:39:57.586855  7299 net.cpp:411] inception_3a/output_inception_3a/output_0_split -> inception_3a/output_inception_3a/output_0_split_2
I0417 14:39:57.586858  7299 net.cpp:163] Setting up inception_3a/output_inception_3a/output_0_split
I0417 14:39:57.586861  7299 net.cpp:170] Top shape: 25 1024 18 7 (3225600)
I0417 14:39:57.586864  7299 net.cpp:170] Top shape: 25 1024 18 7 (3225600)
I0417 14:39:57.586866  7299 net.cpp:170] Top shape: 25 1024 18 7 (3225600)
I0417 14:39:57.586868  7299 layer_factory.hpp:74] Creating layer inception_3b/3x3_reduce
I0417 14:39:57.586871  7299 net.cpp:133] Creating Layer inception_3b/3x3_reduce
I0417 14:39:57.586874  7299 net.cpp:453] inception_3b/3x3_reduce <- inception_3a/output_inception_3a/output_0_split_0
I0417 14:39:57.586877  7299 net.cpp:411] inception_3b/3x3_reduce -> inception_3b/3x3_reduce
I0417 14:39:57.586880  7299 net.cpp:163] Setting up inception_3b/3x3_reduce
I0417 14:39:57.797930  7299 net.cpp:170] Top shape: 25 256 18 7 (806400)
I0417 14:39:57.797940  7299 layer_factory.hpp:74] Creating layer inception_3b/3x3_reduce_bn
I0417 14:39:57.797943  7299 layer_factory.cpp:191] Layer inception_3b/3x3_reduce_bn is using CAFFE engine.
I0417 14:39:57.797947  7299 net.cpp:133] Creating Layer inception_3b/3x3_reduce_bn
I0417 14:39:57.797950  7299 net.cpp:453] inception_3b/3x3_reduce_bn <- inception_3b/3x3_reduce
I0417 14:39:57.797953  7299 net.cpp:411] inception_3b/3x3_reduce_bn -> inception_3b/3x3_reduce_bn
I0417 14:39:57.797958  7299 net.cpp:163] Setting up inception_3b/3x3_reduce_bn
I0417 14:39:57.797967  7299 net.cpp:170] Top shape: 25 256 18 7 (806400)
I0417 14:39:57.797972  7299 layer_factory.hpp:74] Creating layer inception_3b/relu_3x3_reduce
I0417 14:39:57.797976  7299 net.cpp:133] Creating Layer inception_3b/relu_3x3_reduce
I0417 14:39:57.797977  7299 net.cpp:453] inception_3b/relu_3x3_reduce <- inception_3b/3x3_reduce_bn
I0417 14:39:57.797981  7299 net.cpp:400] inception_3b/relu_3x3_reduce -> inception_3b/3x3_reduce_bn (in-place)
I0417 14:39:57.797983  7299 net.cpp:163] Setting up inception_3b/relu_3x3_reduce
I0417 14:39:57.798094  7299 net.cpp:170] Top shape: 25 256 18 7 (806400)
I0417 14:39:57.798099  7299 layer_factory.hpp:74] Creating layer inception_3b/3x3
I0417 14:39:57.798102  7299 net.cpp:133] Creating Layer inception_3b/3x3
I0417 14:39:57.798105  7299 net.cpp:453] inception_3b/3x3 <- inception_3b/3x3_reduce_bn
I0417 14:39:57.798108  7299 net.cpp:411] inception_3b/3x3 -> inception_3b/3x3
I0417 14:39:57.798112  7299 net.cpp:163] Setting up inception_3b/3x3
I0417 14:39:57.817910  7299 net.cpp:170] Top shape: 25 256 9 4 (230400)
I0417 14:39:57.817920  7299 layer_factory.hpp:74] Creating layer inception_3b/3x3_bn
I0417 14:39:57.817924  7299 layer_factory.cpp:191] Layer inception_3b/3x3_bn is using CAFFE engine.
I0417 14:39:57.817927  7299 net.cpp:133] Creating Layer inception_3b/3x3_bn
I0417 14:39:57.817929  7299 net.cpp:453] inception_3b/3x3_bn <- inception_3b/3x3
I0417 14:39:57.817932  7299 net.cpp:411] inception_3b/3x3_bn -> inception_3b/3x3_bn
I0417 14:39:57.817937  7299 net.cpp:163] Setting up inception_3b/3x3_bn
I0417 14:39:57.817946  7299 net.cpp:170] Top shape: 25 256 9 4 (230400)
I0417 14:39:57.817951  7299 layer_factory.hpp:74] Creating layer inception_3b/relu_3x3
I0417 14:39:57.817955  7299 net.cpp:133] Creating Layer inception_3b/relu_3x3
I0417 14:39:57.817956  7299 net.cpp:453] inception_3b/relu_3x3 <- inception_3b/3x3_bn
I0417 14:39:57.817958  7299 net.cpp:400] inception_3b/relu_3x3 -> inception_3b/3x3_bn (in-place)
I0417 14:39:57.817961  7299 net.cpp:163] Setting up inception_3b/relu_3x3
I0417 14:39:57.818146  7299 net.cpp:170] Top shape: 25 256 9 4 (230400)
I0417 14:39:57.818153  7299 layer_factory.hpp:74] Creating layer inception_3b/double_3x3_reduce
I0417 14:39:57.818158  7299 net.cpp:133] Creating Layer inception_3b/double_3x3_reduce
I0417 14:39:57.818161  7299 net.cpp:453] inception_3b/double_3x3_reduce <- inception_3a/output_inception_3a/output_0_split_1
I0417 14:39:57.818164  7299 net.cpp:411] inception_3b/double_3x3_reduce -> inception_3b/double_3x3_reduce
I0417 14:39:57.818168  7299 net.cpp:163] Setting up inception_3b/double_3x3_reduce
I0417 14:39:58.028786  7299 net.cpp:170] Top shape: 25 256 18 7 (806400)
I0417 14:39:58.028797  7299 layer_factory.hpp:74] Creating layer inception_3b/double_3x3_reduce_bn
I0417 14:39:58.028800  7299 layer_factory.cpp:191] Layer inception_3b/double_3x3_reduce_bn is using CAFFE engine.
I0417 14:39:58.028805  7299 net.cpp:133] Creating Layer inception_3b/double_3x3_reduce_bn
I0417 14:39:58.028808  7299 net.cpp:453] inception_3b/double_3x3_reduce_bn <- inception_3b/double_3x3_reduce
I0417 14:39:58.028812  7299 net.cpp:411] inception_3b/double_3x3_reduce_bn -> inception_3b/double_3x3_reduce_bn
I0417 14:39:58.028817  7299 net.cpp:163] Setting up inception_3b/double_3x3_reduce_bn
I0417 14:39:58.028827  7299 net.cpp:170] Top shape: 25 256 18 7 (806400)
I0417 14:39:58.028832  7299 layer_factory.hpp:74] Creating layer inception_3b/relu_double_3x3_reduce
I0417 14:39:58.028856  7299 net.cpp:133] Creating Layer inception_3b/relu_double_3x3_reduce
I0417 14:39:58.028859  7299 net.cpp:453] inception_3b/relu_double_3x3_reduce <- inception_3b/double_3x3_reduce_bn
I0417 14:39:58.028862  7299 net.cpp:400] inception_3b/relu_double_3x3_reduce -> inception_3b/double_3x3_reduce_bn (in-place)
I0417 14:39:58.028866  7299 net.cpp:163] Setting up inception_3b/relu_double_3x3_reduce
I0417 14:39:58.029067  7299 net.cpp:170] Top shape: 25 256 18 7 (806400)
I0417 14:39:58.029073  7299 layer_factory.hpp:74] Creating layer inception_3b/double_3x3_1
I0417 14:39:58.029078  7299 net.cpp:133] Creating Layer inception_3b/double_3x3_1
I0417 14:39:58.029080  7299 net.cpp:453] inception_3b/double_3x3_1 <- inception_3b/double_3x3_reduce_bn
I0417 14:39:58.029084  7299 net.cpp:411] inception_3b/double_3x3_1 -> inception_3b/double_3x3_1
I0417 14:39:58.029088  7299 net.cpp:163] Setting up inception_3b/double_3x3_1
I0417 14:39:58.106739  7299 net.cpp:170] Top shape: 25 256 18 7 (806400)
I0417 14:39:58.106748  7299 layer_factory.hpp:74] Creating layer inception_3b/double_3x3_1_bn
I0417 14:39:58.106751  7299 layer_factory.cpp:191] Layer inception_3b/double_3x3_1_bn is using CAFFE engine.
I0417 14:39:58.106755  7299 net.cpp:133] Creating Layer inception_3b/double_3x3_1_bn
I0417 14:39:58.106757  7299 net.cpp:453] inception_3b/double_3x3_1_bn <- inception_3b/double_3x3_1
I0417 14:39:58.106761  7299 net.cpp:411] inception_3b/double_3x3_1_bn -> inception_3b/double_3x3_1_bn
I0417 14:39:58.106766  7299 net.cpp:163] Setting up inception_3b/double_3x3_1_bn
I0417 14:39:58.106776  7299 net.cpp:170] Top shape: 25 256 18 7 (806400)
I0417 14:39:58.106781  7299 layer_factory.hpp:74] Creating layer inception_3b/relu_double_3x3_1
I0417 14:39:58.106784  7299 net.cpp:133] Creating Layer inception_3b/relu_double_3x3_1
I0417 14:39:58.106786  7299 net.cpp:453] inception_3b/relu_double_3x3_1 <- inception_3b/double_3x3_1_bn
I0417 14:39:58.106788  7299 net.cpp:400] inception_3b/relu_double_3x3_1 -> inception_3b/double_3x3_1_bn (in-place)
I0417 14:39:58.106791  7299 net.cpp:163] Setting up inception_3b/relu_double_3x3_1
I0417 14:39:58.106900  7299 net.cpp:170] Top shape: 25 256 18 7 (806400)
I0417 14:39:58.106905  7299 layer_factory.hpp:74] Creating layer inception_3b/double_3x3_2
I0417 14:39:58.106910  7299 net.cpp:133] Creating Layer inception_3b/double_3x3_2
I0417 14:39:58.106912  7299 net.cpp:453] inception_3b/double_3x3_2 <- inception_3b/double_3x3_1_bn
I0417 14:39:58.106916  7299 net.cpp:411] inception_3b/double_3x3_2 -> inception_3b/double_3x3_2
I0417 14:39:58.106920  7299 net.cpp:163] Setting up inception_3b/double_3x3_2
I0417 14:39:58.126000  7299 net.cpp:170] Top shape: 25 256 9 4 (230400)
I0417 14:39:58.126010  7299 layer_factory.hpp:74] Creating layer inception_3b/double_3x3_2_bn
I0417 14:39:58.126013  7299 layer_factory.cpp:191] Layer inception_3b/double_3x3_2_bn is using CAFFE engine.
I0417 14:39:58.126018  7299 net.cpp:133] Creating Layer inception_3b/double_3x3_2_bn
I0417 14:39:58.126019  7299 net.cpp:453] inception_3b/double_3x3_2_bn <- inception_3b/double_3x3_2
I0417 14:39:58.126024  7299 net.cpp:411] inception_3b/double_3x3_2_bn -> inception_3b/double_3x3_2_bn
I0417 14:39:58.126029  7299 net.cpp:163] Setting up inception_3b/double_3x3_2_bn
I0417 14:39:58.126037  7299 net.cpp:170] Top shape: 25 256 9 4 (230400)
I0417 14:39:58.126042  7299 layer_factory.hpp:74] Creating layer inception_3b/relu_double_3x3_2
I0417 14:39:58.126045  7299 net.cpp:133] Creating Layer inception_3b/relu_double_3x3_2
I0417 14:39:58.126047  7299 net.cpp:453] inception_3b/relu_double_3x3_2 <- inception_3b/double_3x3_2_bn
I0417 14:39:58.126050  7299 net.cpp:400] inception_3b/relu_double_3x3_2 -> inception_3b/double_3x3_2_bn (in-place)
I0417 14:39:58.126054  7299 net.cpp:163] Setting up inception_3b/relu_double_3x3_2
I0417 14:39:58.126237  7299 net.cpp:170] Top shape: 25 256 9 4 (230400)
I0417 14:39:58.126243  7299 layer_factory.hpp:74] Creating layer inception_3b/pool
I0417 14:39:58.126245  7299 layer_factory.cpp:64] CUDNN does not support padding or multiple tops. Using Caffe's own pooling layer.
I0417 14:39:58.126248  7299 net.cpp:133] Creating Layer inception_3b/pool
I0417 14:39:58.126251  7299 net.cpp:453] inception_3b/pool <- inception_3a/output_inception_3a/output_0_split_2
I0417 14:39:58.126255  7299 net.cpp:411] inception_3b/pool -> inception_3b/pool
I0417 14:39:58.126258  7299 net.cpp:163] Setting up inception_3b/pool
I0417 14:39:58.126263  7299 net.cpp:170] Top shape: 25 1024 9 4 (921600)
I0417 14:39:58.126266  7299 layer_factory.hpp:74] Creating layer inception_3b/output
I0417 14:39:58.126268  7299 net.cpp:133] Creating Layer inception_3b/output
I0417 14:39:58.126271  7299 net.cpp:453] inception_3b/output <- inception_3b/3x3_bn
I0417 14:39:58.126272  7299 net.cpp:453] inception_3b/output <- inception_3b/double_3x3_2_bn
I0417 14:39:58.126274  7299 net.cpp:453] inception_3b/output <- inception_3b/pool
I0417 14:39:58.126276  7299 net.cpp:411] inception_3b/output -> inception_3b/output
I0417 14:39:58.126281  7299 net.cpp:163] Setting up inception_3b/output
I0417 14:39:58.126283  7299 net.cpp:170] Top shape: 25 1536 9 4 (1382400)
I0417 14:39:58.126286  7299 layer_factory.hpp:74] Creating layer global_pool
I0417 14:39:58.126287  7299 net.cpp:133] Creating Layer global_pool
I0417 14:39:58.126289  7299 net.cpp:453] global_pool <- inception_3b/output
I0417 14:39:58.126291  7299 net.cpp:411] global_pool -> global_pool
I0417 14:39:58.126294  7299 net.cpp:163] Setting up global_pool
I0417 14:39:58.126467  7299 net.cpp:170] Top shape: 25 1536 1 1 (38400)
I0417 14:39:58.126473  7299 layer_factory.hpp:74] Creating layer gather_global_pool_to_fc7
I0417 14:39:58.126477  7299 net.cpp:133] Creating Layer gather_global_pool_to_fc7
I0417 14:39:58.126478  7299 net.cpp:453] gather_global_pool_to_fc7 <- global_pool
I0417 14:39:58.126482  7299 net.cpp:411] gather_global_pool_to_fc7 -> gathered_global_pool
I0417 14:39:58.126485  7299 net.cpp:163] Setting up gather_global_pool_to_fc7
I0417 14:39:58.126488  7299 net.cpp:170] Top shape: 50 1536 1 1 (76800)
I0417 14:39:58.126490  7299 layer_factory.hpp:74] Creating layer fc7
I0417 14:39:58.126494  7299 net.cpp:133] Creating Layer fc7
I0417 14:39:58.126495  7299 net.cpp:453] fc7 <- gathered_global_pool
I0417 14:39:58.126498  7299 net.cpp:411] fc7 -> fc7
I0417 14:39:58.126502  7299 net.cpp:163] Setting up fc7
I0417 14:39:58.128068  7299 net.cpp:170] Top shape: 50 256 (12800)
I0417 14:39:58.128075  7299 layer_factory.hpp:74] Creating layer fc7_bn
I0417 14:39:58.128077  7299 layer_factory.cpp:191] Layer fc7_bn is using CAFFE engine.
I0417 14:39:58.128082  7299 net.cpp:133] Creating Layer fc7_bn
I0417 14:39:58.128083  7299 net.cpp:453] fc7_bn <- fc7
I0417 14:39:58.128087  7299 net.cpp:411] fc7_bn -> fc7_bn
I0417 14:39:58.128090  7299 net.cpp:163] Setting up fc7_bn
I0417 14:39:58.128098  7299 net.cpp:170] Top shape: 50 256 (12800)
I0417 14:39:58.128103  7299 layer_factory.hpp:74] Creating layer relu7
I0417 14:39:58.128105  7299 net.cpp:133] Creating Layer relu7
I0417 14:39:58.128106  7299 net.cpp:453] relu7 <- fc7_bn
I0417 14:39:58.128108  7299 net.cpp:400] relu7 -> fc7_bn (in-place)
I0417 14:39:58.128111  7299 net.cpp:163] Setting up relu7
I0417 14:39:58.128298  7299 net.cpp:170] Top shape: 50 256 (12800)
I0417 14:39:58.128304  7299 layer_factory.hpp:74] Creating layer drop7
I0417 14:39:58.128309  7299 net.cpp:133] Creating Layer drop7
I0417 14:39:58.128311  7299 net.cpp:453] drop7 <- fc7_bn
I0417 14:39:58.128314  7299 net.cpp:400] drop7 -> fc7_bn (in-place)
I0417 14:39:58.128316  7299 net.cpp:163] Setting up drop7
I0417 14:39:58.128322  7299 net.cpp:170] Top shape: 50 256 (12800)
I0417 14:39:58.128324  7299 layer_factory.hpp:74] Creating layer fc8_prid
I0417 14:39:58.128326  7299 net.cpp:133] Creating Layer fc8_prid
I0417 14:39:58.128329  7299 net.cpp:453] fc8_prid <- fc7_bn
I0417 14:39:58.128331  7299 net.cpp:411] fc8_prid -> fc8_prid
I0417 14:39:58.128335  7299 net.cpp:163] Setting up fc8_prid
I0417 14:39:58.129025  7299 net.cpp:170] Top shape: 50 385 (19250)
I0417 14:39:58.129030  7299 layer_factory.hpp:74] Creating layer gather_data_to_loss
I0417 14:39:58.129034  7299 net.cpp:133] Creating Layer gather_data_to_loss
I0417 14:39:58.129036  7299 net.cpp:453] gather_data_to_loss <- label
I0417 14:39:58.129040  7299 net.cpp:411] gather_data_to_loss -> gathered_label
I0417 14:39:58.129042  7299 net.cpp:163] Setting up gather_data_to_loss
I0417 14:39:58.129045  7299 net.cpp:170] Top shape: 50 (50)
I0417 14:39:58.129047  7299 layer_factory.hpp:74] Creating layer loss
I0417 14:39:58.129050  7299 net.cpp:133] Creating Layer loss
I0417 14:39:58.129051  7299 net.cpp:453] loss <- fc8_prid
I0417 14:39:58.129053  7299 net.cpp:453] loss <- gathered_label
I0417 14:39:58.129056  7299 net.cpp:411] loss -> loss
I0417 14:39:58.129060  7299 net.cpp:163] Setting up loss
I0417 14:39:58.129062  7299 layer_factory.hpp:74] Creating layer loss
…
I0417 14:39:58.258252  7299 net.cpp:330] The NetState phase (1) differed from the phase (0) specified by a rule in layer data
I0417 14:39:58.258891  7299 net.cpp:47] Initializing net from parameters: 
name: "PRID"
state {
  phase: TEST
}
richness: 1000
layer {
  name: "data"
  type: "Data"
  top: "data"
  top: "label"
  include {
    phase: TEST
  }
  transform_param {
    mirror: false
    mean_value: 102
    mean_value: 102
    mean_value: 101
    crop_height: 144
    crop_width: 56
  }
  data_param {
    source: "external/exp/db/prid/val_lmdb"
    batch_size: 20
    backend: LMDB
  }
}
layer {
  name: "conv1"
  type: "Convolution"
  bottom: "data"
  top: "conv1"
  param {
    lr_mult: 1
    decay_mult: 1
  }
  param {
    lr_mult: 2
    decay_mult: 0
  }
  convolution_param {
    num_output: 32
    pad: 1
    kernel_size: 3
    stride: 1
    weight_filler {
      type: "xavier"
    }
    bias_filler {
      type: "constant"
      value: 0.2
    }
  }
}
layer {
  name: "conv1_bn"
  type: "BN"
  bottom: "conv1"
  top: "conv1_bn"
  param {
    lr_mult: 1
    decay_mult: 0
  }
  param {
    lr_mult: 1
    decay_mult: 0
  }
  bn_param {
    slope_filler {
      type: "constant"
      value: 1
    }
    bias_filler {
      type: "constant"
      value: 0
    }
  }
}
layer {
  name: "relu1"
  type: "ReLU"
  bottom: "conv1_bn"
  top: "conv1_bn"
}
layer {
  name: "conv2"
  type: "Convolution"
  bottom: "conv1_bn"
  top: "conv2"
  param {
    lr_mult: 1
    decay_mult: 1
  }
  param {
    lr_mult: 2
    decay_mult: 0
  }
  convolution_param {
    num_output: 32
    pad: 1
    kernel_size: 3
    stride: 1
    weight_filler {
      type: "xavier"
    }
    bias_filler {
      type: "constant"
      value: 0.2
    }
  }
}
layer {
  name: "conv2_bn"
  type: "BN"
  bottom: "conv2"
  top: "conv2_bn"
  param {
    lr_mult: 1
    decay_mult: 0
  }
  param {
    lr_mult: 1
    decay_mult: 0
  }
  bn_param {
    slope_filler {
      type: "constant"
      value: 1
    }
    bias_filler {
      type: "constant"
      value: 0
    }
  }
}
layer {
  name: "relu2"
  type: "ReLU"
  bottom: "conv2_bn"
  top: "conv2_bn"
}
layer {
  name: "conv3"
  type: "Convolution"
  bottom: "conv2_bn"
  top: "conv3"
  param {
    lr_mult: 1
    decay_mult: 1
  }
  param {
    lr_mult: 2
    decay_mult: 0
  }
  convolution_param {
    num_output: 32
    pad: 1
    kernel_size: 3
    stride: 1
    weight_filler {
      type: "xavier"
    }
    bias_filler {
      type: "constant"
      value: 0.2
    }
  }
}
layer {
  name: "conv3_bn"
  type: "BN"
  bottom: "conv3"
  top: "conv3_bn"
  param {
    lr_mult: 1
    decay_mult: 0
  }
  param {
    lr_mult: 1
    decay_mult: 0
  }
  bn_param {
    slope_filler {
      type: "constant"
      value: 1
    }
    bias_filler {
      type: "constant"
      value: 0
    }
  }
}
layer {
  name: "relu3"
  type: "ReLU"
  bottom: "conv3_bn"
  top: "conv3_bn"
}
layer {
  name: "pool1"
  type: "Pooling"
  bottom: "conv3_bn"
  top: "pool1"
  pooling_param {
    pool: MAX
    kernel_size: 2
    stride: 2
  }
}
layer {
  name: "inception_1a/1x1"
  type: "Convolution"
  bottom: "pool1"
  top: "inception_1a/1x1"
  param {
    lr_mult: 1
    decay_mult: 1
  }
  param {
    lr_mult: 2
    decay_mult: 0
  }
  convolution_param {
    num_output: 64
    kernel_size: 1
    weight_filler {
      type: "xavier"
    }
    bias_filler {
      type: "constant"
      value: 0.2
    }
  }
}
layer {
  name: "inception_1a/1x1_bn"
  type: "BN"
  bottom: "inception_1a/1x1"
  top: "inception_1a/1x1_bn"
  param {
    lr_mult: 1
    decay_mult: 0
  }
  param {
    lr_mult: 1
    decay_mult: 0
  }
  bn_param {
    slope_filler {
      type: "constant"
      value: 1
    }
    bias_filler {
      type: "constant"
      value: 0
    }
  }
}
layer {
  name: "inception_1a/relu_1x1"
  type: "ReLU"
  bottom: "inception_1a/1x1_bn"
  top: "inception_1a/1x1_bn"
}
layer {
  name: "inception_1a/3x3_reduce"
  type: "Convolution"
  bottom: "pool1"
  top: "inception_1a/3x3_reduce"
  param {
    lr_mult: 1
    decay_mult: 1
  }
  param {
    lr_mult: 2
    decay_mult: 0
  }
  convolution_param {
    num_output: 64
    kernel_size: 1
    weight_filler {
      type: "xavier"
    }
    bias_filler {
      type: "constant"
      value: 0.2
    }
  }
}
layer {
  name: "inception_1a/3x3_reduce_bn"
  type: "BN"
  bottom: "inception_1a/3x3_reduce"
  top: "inception_1a/3x3_reduce_bn"
  param {
    lr_mult: 1
    decay_mult: 0
  }
  param {
    lr_mult: 1
    decay_mult: 0
  }
  bn_param {
    slope_filler {
      type: "constant"
      value: 1
    }
    bias_filler {
      type: "constant"
      value: 0
    }
  }
}
layer {
  name: "inception_1a/relu_3x3_reduce"
  type: "ReLU"
  bottom: "inception_1a/3x3_reduce_bn"
  top: "inception_1a/3x3_reduce_bn"
}
layer {
  name: "inception_1a/3x3"
  type: "Convolution"
  bottom: "inception_1a/3x3_reduce_bn"
  top: "inception_1a/3x3"
  param {
    lr_mult: 1
    decay_mult: 1
  }
  param {
    lr_mult: 2
    decay_mult: 0
  }
  convolution_param {
    num_output: 64
    pad: 1
    kernel_size: 3
    weight_filler {
      type: "xavier"
    }
    bias_filler {
      type: "constant"
      value: 0.2
    }
  }
}
layer {
  name: "inception_1a/3x3_bn"
  type: "BN"
  bottom: "inception_1a/3x3"
  top: "inception_1a/3x3_bn"
  param {
    lr_mult: 1
    decay_mult: 0
  }
  param {
    lr_mult: 1
    decay_mult: 0
  }
  bn_param {
    slope_filler {
      type: "constant"
      value: 1
    }
    bias_filler {
      type: "constant"
      value: 0
    }
  }
}
layer {
  name: "inception_1a/relu_3x3"
  type: "ReLU"
  bottom: "inception_1a/3x3_bn"
  top: "inception_1a/3x3_bn"
}
layer {
  name: "inception_1a/double_3x3_reduce"
  type: "Convolution"
  bottom: "pool1"
  top: "inception_1a/double_3x3_reduce"
  param {
    lr_mult: 1
    decay_mult: 1
  }
  param {
    lr_mult: 2
    decay_mult: 0
  }
  convolution_param {
    num_output: 64
    kernel_size: 1
    weight_filler {
      type: "xavier"
    }
    bias_filler {
      type: "constant"
      value: 0.2
    }
  }
}
layer {
  name: "inception_1a/double_3x3_reduce_bn"
  type: "BN"
  bottom: "inception_1a/double_3x3_reduce"
  top: "inception_1a/double_3x3_reduce_bn"
  param {
    lr_mult: 1
    decay_mult: 0
  }
  param {
    lr_mult: 1
    decay_mult: 0
  }
  bn_param {
    slope_filler {
      type: "constant"
      value: 1
    }
    bias_filler {
      type: "constant"
      value: 0
    }
  }
}
layer {
  name: "inception_1a/relu_double_3x3_reduce"
  type: "ReLU"
  bottom: "inception_1a/double_3x3_reduce_bn"
  top: "inception_1a/double_3x3_reduce_bn"
}
layer {
  name: "inception_1a/double_3x3_1"
  type: "Convolution"
  bottom: "inception_1a/double_3x3_reduce_bn"
  top: "inception_1a/double_3x3_1"
  param {
    lr_mult: 1
    decay_mult: 1
  }
  param {
    lr_mult: 2
    decay_mult: 0
  }
  convolution_param {
    num_output: 64
    pad: 1
    kernel_size: 3
    weight_filler {
      type: "xavier"
    }
    bias_filler {
      type: "constant"
      value: 0.2
    }
  }
}
layer {
  name: "inception_1a/double_3x3_1_bn"
  type: "BN"
  bottom: "inception_1a/double_3x3_1"
  top: "inception_1a/double_3x3_1_bn"
  param {
    lr_mult: 1
    decay_mult: 0
  }
  param {
    lr_mult: 1
    decay_mult: 0
  }
  bn_param {
    slope_filler {
      type: "constant"
      value: 1
    }
    bias_filler {
      type: "constant"
      value: 0
    }
  }
}
layer {
  name: "inception_1a/relu_double_3x3_1"
  type: "ReLU"
  bottom: "inception_1a/double_3x3_1_bn"
  top: "inception_1a/double_3x3_1_bn"
}
layer {
  name: "inception_1a/double_3x3_2"
  type: "Convolution"
  bottom: "inception_1a/double_3x3_1_bn"
  top: "inception_1a/double_3x3_2"
  param {
    lr_mult: 1
    decay_mult: 1
  }
  param {
    lr_mult: 2
    decay_mult: 0
  }
  convolution_param {
    num_output: 64
    pad: 1
    kernel_size: 3
    weight_filler {
      type: "xavier"
    }
    bias_filler {
      type: "constant"
      value: 0.2
    }
  }
}
layer {
  name: "inception_1a/double_3x3_2_bn"
  type: "BN"
  bottom: "inception_1a/double_3x3_2"
  top: "inception_1a/double_3x3_2_bn"
  param {
    lr_mult: 1
    decay_mult: 0
  }
  param {
    lr_mult: 1
    decay_mult: 0
  }
  bn_param {
    slope_filler {
      type: "constant"
      value: 1
    }
    bias_filler {
      type: "constant"
      value: 0
    }
  }
}
layer {
  name: "inception_1a/relu_double_3x3_2"
  type: "ReLU"
  bottom: "inception_1a/double_3x3_2_bn"
  top: "inception_1a/double_3x3_2_bn"
}
layer {
  name: "inception_1a/pool"
  type: "Pooling"
  bottom: "pool1"
  top: "inception_1a/pool"
  pooling_param {
    pool: AVE
    kernel_size: 3
    stride: 1
    pad: 1
  }
}
layer {
  name: "inception_1a/pool_proj"
  type: "Convolution"
  bottom: "inception_1a/pool"
  top: "inception_1a/pool_proj"
  param {
    lr_mult: 1
    decay_mult: 1
  }
  param {
    lr_mult: 2
    decay_mult: 0
  }
  convolution_param {
    num_output: 64
    kernel_size: 1
    weight_filler {
      type: "xavier"
    }
    bias_filler {
      type: "constant"
      value: 0.2
    }
  }
}
layer {
  name: "inception_1a/pool_proj_bn"
  type: "BN"
  bottom: "inception_1a/pool_proj"
  top: "inception_1a/pool_proj_bn"
  param {
    lr_mult: 1
    decay_mult: 0
  }
  param {
    lr_mult: 1
    decay_mult: 0
  }
  bn_param {
    slope_filler {
      type: "constant"
      value: 1
    }
    bias_filler {
      type: "constant"
      value: 0
    }
  }
}
layer {
  name: "inception_1a/relu_pool_proj"
  type: "ReLU"
  bottom: "inception_1a/pool_proj_bn"
  top: "inception_1a/pool_proj_bn"
}
layer {
  name: "inception_1a/output"
  type: "Concat"
  bottom: "inception_1a/1x1_bn"
  bottom: "inception_1a/3x3_bn"
  bottom: "inception_1a/double_3x3_2_bn"
  bottom: "inception_1a/pool_proj_bn"
  top: "inception_1a/output"
}
layer {
  name: "inception_1b/3x3_reduce"
  type: "Convolution"
  bottom: "inception_1a/output"
  top: "inception_1b/3x3_reduce"
  param {
    lr_mult: 1
    decay_mult: 1
  }
  param {
    lr_mult: 2
    decay_mult: 0
  }
  convolution_param {
    num_output: 64
    kernel_size: 1
    weight_filler {
      type: "xavier"
    }
    bias_filler {
      type: "constant"
      value: 0.2
    }
  }
}
layer {
  name: "inception_1b/3x3_reduce_bn"
  type: "BN"
  bottom: "inception_1b/3x3_reduce"
  top: "inception_1b/3x3_reduce_bn"
  param {
    lr_mult: 1
    decay_mult: 0
  }
  param {
    lr_mult: 1
    decay_mult: 0
  }
  bn_param {
    slope_filler {
      type: "constant"
      value: 1
    }
    bias_filler {
      type: "constant"
      value: 0
    }
  }
}
layer {
  name: "inception_1b/relu_3x3_reduce"
  type: "ReLU"
  bottom: "inception_1b/3x3_reduce_bn"
  top: "inception_1b/3x3_reduce_bn"
}
layer {
  name: "inception_1b/3x3"
  type: "Convolution"
  bottom: "inception_1b/3x3_reduce_bn"
  top: "inception_1b/3x3"
  param {
    lr_mult: 1
    decay_mult: 1
  }
  param {
    lr_mult: 2
    decay_mult: 0
  }
  convolution_param {
    num_output: 64
    pad: 1
    kernel_size: 3
    stride: 2
    weight_filler {
      type: "xavier"
    }
    bias_filler {
      type: "constant"
      value: 0.2
    }
  }
}
layer {
  name: "inception_1b/3x3_bn"
  type: "BN"
  bottom: "inception_1b/3x3"
  top: "inception_1b/3x3_bn"
  param {
    lr_mult: 1
    decay_mult: 0
  }
  param {
    lr_mult: 1
    decay_mult: 0
  }
  bn_param {
    slope_filler {
      type: "constant"
      value: 1
    }
    bias_filler {
      type: "constant"
      value: 0
    }
  }
}
layer {
  name: "inception_1b/relu_3x3"
  type: "ReLU"
  bottom: "inception_1b/3x3_bn"
  top: "inception_1b/3x3_bn"
}
layer {
  name: "inception_1b/double_3x3_reduce"
  type: "Convolution"
  bottom: "inception_1a/output"
  top: "inception_1b/double_3x3_reduce"
  param {
    lr_mult: 1
    decay_mult: 1
  }
  param {
    lr_mult: 2
    decay_mult: 0
  }
  convolution_param {
    num_output: 64
    kernel_size: 1
    weight_filler {
      type: "xavier"
    }
    bias_filler {
      type: "constant"
      value: 0.2
    }
  }
}
layer {
  name: "inception_1b/double_3x3_reduce_bn"
  type: "BN"
  bottom: "inception_1b/double_3x3_reduce"
  top: "inception_1b/double_3x3_reduce_bn"
  param {
    lr_mult: 1
    decay_mult: 0
  }
  param {
    lr_mult: 1
    decay_mult: 0
  }
  bn_param {
    slope_filler {
      type: "constant"
      value: 1
    }
    bias_filler {
      type: "constant"
      value: 0
    }
  }
}
layer {
  name: "inception_1b/relu_double_3x3_reduce"
  type: "ReLU"
  bottom: "inception_1b/double_3x3_reduce_bn"
  top: "inception_1b/double_3x3_reduce_bn"
}
layer {
  name: "inception_1b/double_3x3_1"
  type: "Convolution"
  bottom: "inception_1b/double_3x3_reduce_bn"
  top: "inception_1b/double_3x3_1"
  param {
    lr_mult: 1
    decay_mult: 1
  }
  param {
    lr_mult: 2
    decay_mult: 0
  }
  convolution_param {
    num_output: 64
    pad: 1
    kernel_size: 3
    weight_filler {
      type: "xavier"
    }
    bias_filler {
      type: "constant"
      value: 0.2
    }
  }
}
layer {
  name: "inception_1b/double_3x3_1_bn"
  type: "BN"
  bottom: "inception_1b/double_3x3_1"
  top: "inception_1b/double_3x3_1_bn"
  param {
    lr_mult: 1
    decay_mult: 0
  }
  param {
    lr_mult: 1
    decay_mult: 0
  }
  bn_param {
    slope_filler {
      type: "constant"
      value: 1
    }
    bias_filler {
      type: "constant"
      value: 0
    }
  }
}
layer {
  name: "inception_1b/relu_double_3x3_1"
  type: "ReLU"
  bottom: "inception_1b/double_3x3_1_bn"
  top: "inception_1b/double_3x3_1_bn"
}
layer {
  name: "inception_1b/double_3x3_2"
  type: "Convolution"
  bottom: "inception_1b/double_3x3_1_bn"
  top: "inception_1b/double_3x3_2"
  param {
    lr_mult: 1
    decay_mult: 1
  }
  param {
    lr_mult: 2
    decay_mult: 0
  }
  convolution_param {
    num_output: 64
    pad: 1
    kernel_size: 3
    stride: 2
    weight_filler {
      type: "xavier"
    }
    bias_filler {
      type: "constant"
      value: 0.2
    }
  }
}
layer {
  name: "inception_1b/double_3x3_2_bn"
  type: "BN"
  bottom: "inception_1b/double_3x3_2"
  top: "inception_1b/double_3x3_2_bn"
  param {
    lr_mult: 1
    decay_mult: 0
  }
  param {
    lr_mult: 1
    decay_mult: 0
  }
  bn_param {
    slope_filler {
      type: "constant"
      value: 1
    }
    bias_filler {
      type: "constant"
      value: 0
    }
  }
}
layer {
  name: "inception_1b/relu_double_3x3_2"
  type: "ReLU"
  bottom: "inception_1b/double_3x3_2_bn"
  top: "inception_1b/double_3x3_2_bn"
}
layer {
  name: "inception_1b/pool"
  type: "Pooling"
  bottom: "inception_1a/output"
  top: "inception_1b/pool"
  pooling_param {
    pool: MAX
    kernel_size: 3
    stride: 2
  }
}
layer {
  name: "inception_1b/output"
  type: "Concat"
  bottom: "inception_1b/3x3_bn"
  bottom: "inception_1b/double_3x3_2_bn"
  bottom: "inception_1b/pool"
  top: "inception_1b/output"
}
layer {
  name: "inception_2a/1x1"
  type: "Convolution"
  bottom: "inception_1b/output"
  top: "inception_2a/1x1"
  param {
    lr_mult: 1
    decay_mult: 1
  }
  param {
    lr_mult: 2
    decay_mult: 0
  }
  convolution_param {
    num_output: 128
    kernel_size: 1
    weight_filler {
      type: "xavier"
    }
    bias_filler {
      type: "constant"
      value: 0.2
    }
  }
}
layer {
  name: "inception_2a/1x1_bn"
  type: "BN"
  bottom: "inception_2a/1x1"
  top: "inception_2a/1x1_bn"
  param {
    lr_mult: 1
    decay_mult: 0
  }
  param {
    lr_mult: 1
    decay_mult: 0
  }
  bn_param {
    slope_filler {
      type: "constant"
      value: 1
    }
    bias_filler {
      type: "constant"
      value: 0
    }
  }
}
layer {
  name: "inception_2a/relu_1x1"
  type: "ReLU"
  bottom: "inception_2a/1x1_bn"
  top: "inception_2a/1x1_bn"
}
layer {
  name: "inception_2a/3x3_reduce"
  type: "Convolution"
  bottom: "inception_1b/output"
  top: "inception_2a/3x3_reduce"
  param {
    lr_mult: 1
    decay_mult: 1
  }
  param {
    lr_mult: 2
    decay_mult: 0
  }
  convolution_param {
    num_output: 128
    kernel_size: 1
    weight_filler {
      type: "xavier"
    }
    bias_filler {
      type: "constant"
      value: 0.2
    }
  }
}
layer {
  name: "inception_2a/3x3_reduce_bn"
  type: "BN"
  bottom: "inception_2a/3x3_reduce"
  top: "inception_2a/3x3_reduce_bn"
  param {
    lr_mult: 1
    decay_mult: 0
  }
  param {
    lr_mult: 1
    decay_mult: 0
  }
  bn_param {
    slope_filler {
      type: "constant"
      value: 1
    }
    bias_filler {
      type: "constant"
      value: 0
    }
  }
}
layer {
  name: "inception_2a/relu_3x3_reduce"
  type: "ReLU"
  bottom: "inception_2a/3x3_reduce_bn"
  top: "inception_2a/3x3_reduce_bn"
}
layer {
  name: "inception_2a/3x3"
  type: "Convolution"
  bottom: "inception_2a/3x3_reduce_bn"
  top: "inception_2a/3x3"
  param {
    lr_mult: 1
    decay_mult: 1
  }
  param {
    lr_mult: 2
    decay_mult: 0
  }
  convolution_param {
    num_output: 128
    pad: 1
    kernel_size: 3
    weight_filler {
      type: "xavier"
    }
    bias_filler {
      type: "constant"
      value: 0.2
    }
  }
}
layer {
  name: "inception_2a/3x3_bn"
  type: "BN"
  bottom: "inception_2a/3x3"
  top: "inception_2a/3x3_bn"
  param {
    lr_mult: 1
    decay_mult: 0
  }
  param {
    lr_mult: 1
    decay_mult: 0
  }
  bn_param {
    slope_filler {
      type: "constant"
      value: 1
    }
    bias_filler {
      type: "constant"
      value: 0
    }
  }
}
layer {
  name: "inception_2a/relu_3x3"
  type: "ReLU"
  bottom: "inception_2a/3x3_bn"
  top: "inception_2a/3x3_bn"
}
layer {
  name: "inception_2a/double_3x3_reduce"
  type: "Convolution"
  bottom: "inception_1b/output"
  top: "inception_2a/double_3x3_reduce"
  param {
    lr_mult: 1
    decay_mult: 1
  }
  param {
    lr_mult: 2
    decay_mult: 0
  }
  convolution_param {
    num_output: 128
    kernel_size: 1
    weight_filler {
      type: "xavier"
    }
    bias_filler {
      type: "constant"
      value: 0.2
    }
  }
}
layer {
  name: "inception_2a/double_3x3_reduce_bn"
  type: "BN"
  bottom: "inception_2a/double_3x3_reduce"
  top: "inception_2a/double_3x3_reduce_bn"
  param {
    lr_mult: 1
    decay_mult: 0
  }
  param {
    lr_mult: 1
    decay_mult: 0
  }
  bn_param {
    slope_filler {
      type: "constant"
      value: 1
    }
    bias_filler {
      type: "constant"
      value: 0
    }
  }
}
layer {
  name: "inception_2a/relu_double_3x3_reduce"
  type: "ReLU"
  bottom: "inception_2a/double_3x3_reduce_bn"
  top: "inception_2a/double_3x3_reduce_bn"
}
layer {
  name: "inception_2a/double_3x3_1"
  type: "Convolution"
  bottom: "inception_2a/double_3x3_reduce_bn"
  top: "inception_2a/double_3x3_1"
  param {
    lr_mult: 1
    decay_mult: 1
  }
  param {
    lr_mult: 2
    decay_mult: 0
  }
  convolution_param {
    num_output: 128
    pad: 1
    kernel_size: 3
    weight_filler {
      type: "xavier"
    }
    bias_filler {
      type: "constant"
      value: 0.2
    }
  }
}
layer {
  name: "inception_2a/double_3x3_1_bn"
  type: "BN"
  bottom: "inception_2a/double_3x3_1"
  top: "inception_2a/double_3x3_1_bn"
  param {
    lr_mult: 1
    decay_mult: 0
  }
  param {
    lr_mult: 1
    decay_mult: 0
  }
  bn_param {
    slope_filler {
      type: "constant"
      value: 1
    }
    bias_filler {
      type: "constant"
      value: 0
    }
  }
}
layer {
  name: "inception_2a/relu_double_3x3_1"
  type: "ReLU"
  bottom: "inception_2a/double_3x3_1_bn"
  top: "inception_2a/double_3x3_1_bn"
}
layer {
  name: "inception_2a/double_3x3_2"
  type: "Convolution"
  bottom: "inception_2a/double_3x3_1_bn"
  top: "inception_2a/double_3x3_2"
  param {
    lr_mult: 1
    decay_mult: 1
  }
  param {
    lr_mult: 2
    decay_mult: 0
  }
  convolution_param {
    num_output: 128
    pad: 1
    kernel_size: 3
    weight_filler {
      type: "xavier"
    }
    bias_filler {
      type: "constant"
      value: 0.2
    }
  }
}
layer {
  name: "inception_2a/double_3x3_2_bn"
  type: "BN"
  bottom: "inception_2a/double_3x3_2"
  top: "inception_2a/double_3x3_2_bn"
  param {
    lr_mult: 1
    decay_mult: 0
  }
  param {
    lr_mult: 1
    decay_mult: 0
  }
  bn_param {
    slope_filler {
      type: "constant"
      value: 1
    }
    bias_filler {
      type: "constant"
      value: 0
    }
  }
}
layer {
  name: "inception_2a/relu_double_3x3_2"
  type: "ReLU"
  bottom: "inception_2a/double_3x3_2_bn"
  top: "inception_2a/double_3x3_2_bn"
}
layer {
  name: "inception_2a/pool"
  type: "Pooling"
  bottom: "inception_1b/output"
  top: "inception_2a/pool"
  pooling_param {
    pool: AVE
    kernel_size: 3
    stride: 1
    pad: 1
  }
}
layer {
  name: "inception_2a/pool_proj"
  type: "Convolution"
  bottom: "inception_2a/pool"
  top: "inception_2a/pool_proj"
  param {
    lr_mult: 1
    decay_mult: 1
  }
  param {
    lr_mult: 2
    decay_mult: 0
  }
  convolution_param {
    num_output: 128
    kernel_size: 1
    weight_filler {
      type: "xavier"
    }
    bias_filler {
      type: "constant"
      value: 0.2
    }
  }
}
layer {
  name: "inception_2a/pool_proj_bn"
  type: "BN"
  bottom: "inception_2a/pool_proj"
  top: "inception_2a/pool_proj_bn"
  param {
    lr_mult: 1
    decay_mult: 0
  }
  param {
    lr_mult: 1
    decay_mult: 0
  }
  bn_param {
    slope_filler {
      type: "constant"
      value: 1
    }
    bias_filler {
      type: "constant"
      value: 0
    }
  }
}
layer {
  name: "inception_2a/relu_pool_proj"
  type: "ReLU"
  bottom: "inception_2a/pool_proj_bn"
  top: "inception_2a/pool_proj_bn"
}
layer {
  name: "inception_2a/output"
  type: "Concat"
  bottom: "inception_2a/1x1_bn"
  bottom: "inception_2a/3x3_bn"
  bottom: "inception_2a/double_3x3_2_bn"
  bottom: "inception_2a/pool_proj_bn"
  top: "inception_2a/output"
}
layer {
  name: "inception_2b/3x3_reduce"
  type: "Convolution"
  bottom: "inception_2a/output"
  top: "inception_2b/3x3_reduce"
  param {
    lr_mult: 1
    decay_mult: 1
  }
  param {
    lr_mult: 2
    decay_mult: 0
  }
  convolution_param {
    num_output: 128
    kernel_size: 1
    weight_filler {
      type: "xavier"
    }
    bias_filler {
      type: "constant"
      value: 0.2
    }
  }
}
layer {
  name: "inception_2b/3x3_reduce_bn"
  type: "BN"
  bottom: "inception_2b/3x3_reduce"
  top: "inception_2b/3x3_reduce_bn"
  param {
    lr_mult: 1
    decay_mult: 0
  }
  param {
    lr_mult: 1
    decay_mult: 0
  }
  bn_param {
    slope_filler {
      type: "constant"
      value: 1
    }
    bias_filler {
      type: "constant"
      value: 0
    }
  }
}
layer {
  name: "inception_2b/relu_3x3_reduce"
  type: "ReLU"
  bottom: "inception_2b/3x3_reduce_bn"
  top: "inception_2b/3x3_reduce_bn"
}
layer {
  name: "inception_2b/3x3"
  type: "Convolution"
  bottom: "inception_2b/3x3_reduce_bn"
  top: "inception_2b/3x3"
  param {
    lr_mult: 1
    decay_mult: 1
  }
  param {
    lr_mult: 2
    decay_mult: 0
  }
  convolution_param {
    num_output: 128
    pad: 1
    kernel_size: 3
    stride: 2
    weight_filler {
      type: "xavier"
    }
    bias_filler {
      type: "constant"
      value: 0.2
    }
  }
}
layer {
  name: "inception_2b/3x3_bn"
  type: "BN"
  bottom: "inception_2b/3x3"
  top: "inception_2b/3x3_bn"
  param {
    lr_mult: 1
    decay_mult: 0
  }
  param {
    lr_mult: 1
    decay_mult: 0
  }
  bn_param {
    slope_filler {
      type: "constant"
      value: 1
    }
    bias_filler {
      type: "constant"
      value: 0
    }
  }
}
layer {
  name: "inception_2b/relu_3x3"
  type: "ReLU"
  bottom: "inception_2b/3x3_bn"
  top: "inception_2b/3x3_bn"
}
layer {
  name: "inception_2b/double_3x3_reduce"
  type: "Convolution"
  bottom: "inception_2a/output"
  top: "inception_2b/double_3x3_reduce"
  param {
    lr_mult: 1
    decay_mult: 1
  }
  param {
    lr_mult: 2
    decay_mult: 0
  }
  convolution_param {
    num_output: 128
    kernel_size: 1
    weight_filler {
      type: "xavier"
    }
    bias_filler {
      type: "constant"
      value: 0.2
    }
  }
}
layer {
  name: "inception_2b/double_3x3_reduce_bn"
  type: "BN"
  bottom: "inception_2b/double_3x3_reduce"
  top: "inception_2b/double_3x3_reduce_bn"
  param {
    lr_mult: 1
    decay_mult: 0
  }
  param {
    lr_mult: 1
    decay_mult: 0
  }
  bn_param {
    slope_filler {
      type: "constant"
      value: 1
    }
    bias_filler {
      type: "constant"
      value: 0
    }
  }
}
layer {
  name: "inception_2b/relu_double_3x3_reduce"
  type: "ReLU"
  bottom: "inception_2b/double_3x3_reduce_bn"
  top: "inception_2b/double_3x3_reduce_bn"
}
layer {
  name: "inception_2b/double_3x3_1"
  type: "Convolution"
  bottom: "inception_2b/double_3x3_reduce_bn"
  top: "inception_2b/double_3x3_1"
  param {
    lr_mult: 1
    decay_mult: 1
  }
  param {
    lr_mult: 2
    decay_mult: 0
  }
  convolution_param {
    num_output: 128
    pad: 1
    kernel_size: 3
    weight_filler {
      type: "xavier"
    }
    bias_filler {
      type: "constant"
      value: 0.2
    }
  }
}
layer {
  name: "inception_2b/double_3x3_1_bn"
  type: "BN"
  bottom: "inception_2b/double_3x3_1"
  top: "inception_2b/double_3x3_1_bn"
  param {
    lr_mult: 1
    decay_mult: 0
  }
  param {
    lr_mult: 1
    decay_mult: 0
  }
  bn_param {
    slope_filler {
      type: "constant"
      value: 1
    }
    bias_filler {
      type: "constant"
      value: 0
    }
  }
}
layer {
  name: "inception_2b/relu_double_3x3_1"
  type: "ReLU"
  bottom: "inception_2b/double_3x3_1_bn"
  top: "inception_2b/double_3x3_1_bn"
}
layer {
  name: "inception_2b/double_3x3_2"
  type: "Convolution"
  bottom: "inception_2b/double_3x3_1_bn"
  top: "inception_2b/double_3x3_2"
  param {
    lr_mult: 1
    decay_mult: 1
  }
  param {
    lr_mult: 2
    decay_mult: 0
  }
  convolution_param {
    num_output: 128
    pad: 1
    kernel_size: 3
    stride: 2
    weight_filler {
      type: "xavier"
    }
    bias_filler {
      type: "constant"
      value: 0.2
    }
  }
}
layer {
  name: "inception_2b/double_3x3_2_bn"
  type: "BN"
  bottom: "inception_2b/double_3x3_2"
  top: "inception_2b/double_3x3_2_bn"
  param {
    lr_mult: 1
    decay_mult: 0
  }
  param {
    lr_mult: 1
    decay_mult: 0
  }
  bn_param {
    slope_filler {
      type: "constant"
      value: 1
    }
    bias_filler {
      type: "constant"
      value: 0
    }
  }
}
layer {
  name: "inception_2b/relu_double_3x3_2"
  type: "ReLU"
  bottom: "inception_2b/double_3x3_2_bn"
  top: "inception_2b/double_3x3_2_bn"
}
layer {
  name: "inception_2b/pool"
  type: "Pooling"
  bottom: "inception_2a/output"
  top: "inception_2b/pool"
  pooling_param {
    pool: MAX
    kernel_size: 3
    stride: 2
  }
}
layer {
  name: "inception_2b/output"
  type: "Concat"
  bottom: "inception_2b/3x3_bn"
  bottom: "inception_2b/double_3x3_2_bn"
  bottom: "inception_2b/pool"
  top: "inception_2b/output"
}
layer {
  name: "inception_3a/1x1"
  type: "Convolution"
  bottom: "inception_2b/output"
  top: "inception_3a/1x1"
  param {
    lr_mult: 1
    decay_mult: 1
  }
  param {
    lr_mult: 2
    decay_mult: 0
  }
  convolution_param {
    num_output: 256
    kernel_size: 1
    weight_filler {
      type: "xavier"
    }
    bias_filler {
      type: "constant"
      value: 0.2
    }
  }
}
layer {
  name: "inception_3a/1x1_bn"
  type: "BN"
  bottom: "inception_3a/1x1"
  top: "inception_3a/1x1_bn"
  param {
    lr_mult: 1
    decay_mult: 0
  }
  param {
    lr_mult: 1
    decay_mult: 0
  }
  bn_param {
    slope_filler {
      type: "constant"
      value: 1
    }
    bias_filler {
      type: "constant"
      value: 0
    }
  }
}
layer {
  name: "inception_3a/relu_1x1"
  type: "ReLU"
  bottom: "inception_3a/1x1_bn"
  top: "inception_3a/1x1_bn"
}
layer {
  name: "inception_3a/3x3_reduce"
  type: "Convolution"
  bottom: "inception_2b/output"
  top: "inception_3a/3x3_reduce"
  param {
    lr_mult: 1
    decay_mult: 1
  }
  param {
    lr_mult: 2
    decay_mult: 0
  }
  convolution_param {
    num_output: 256
    kernel_size: 1
    weight_filler {
      type: "xavier"
    }
    bias_filler {
      type: "constant"
      value: 0.2
    }
  }
}
layer {
  name: "inception_3a/3x3_reduce_bn"
  type: "BN"
  bottom: "inception_3a/3x3_reduce"
  top: "inception_3a/3x3_reduce_bn"
  param {
    lr_mult: 1
    decay_mult: 0
  }
  param {
    lr_mult: 1
    decay_mult: 0
  }
  bn_param {
    slope_filler {
      type: "constant"
      value: 1
    }
    bias_filler {
      type: "constant"
      value: 0
    }
  }
}
layer {
  name: "inception_3a/relu_3x3_reduce"
  type: "ReLU"
  bottom: "inception_3a/3x3_reduce_bn"
  top: "inception_3a/3x3_reduce_bn"
}
layer {
  name: "inception_3a/3x3"
  type: "Convolution"
  bottom: "inception_3a/3x3_reduce_bn"
  top: "inception_3a/3x3"
  param {
    lr_mult: 1
    decay_mult: 1
  }
  param {
    lr_mult: 2
    decay_mult: 0
  }
  convolution_param {
    num_output: 256
    pad: 1
    kernel_size: 3
    weight_filler {
      type: "xavier"
    }
    bias_filler {
      type: "constant"
      value: 0.2
    }
  }
}
layer {
  name: "inception_3a/3x3_bn"
  type: "BN"
  bottom: "inception_3a/3x3"
  top: "inception_3a/3x3_bn"
  param {
    lr_mult: 1
    decay_mult: 0
  }
  param {
    lr_mult: 1
    decay_mult: 0
  }
  bn_param {
    slope_filler {
      type: "constant"
      value: 1
    }
    bias_filler {
      type: "constant"
      value: 0
    }
  }
}
layer {
  name: "inception_3a/relu_3x3"
  type: "ReLU"
  bottom: "inception_3a/3x3_bn"
  top: "inception_3a/3x3_bn"
}
layer {
  name: "inception_3a/double_3x3_reduce"
  type: "Convolution"
  bottom: "inception_2b/output"
  top: "inception_3a/double_3x3_reduce"
  param {
    lr_mult: 1
    decay_mult: 1
  }
  param {
    lr_mult: 2
    decay_mult: 0
  }
  convolution_param {
    num_output: 256
    kernel_size: 1
    weight_filler {
      type: "xavier"
    }
    bias_filler {
      type: "constant"
      value: 0.2
    }
  }
}
layer {
  name: "inception_3a/double_3x3_reduce_bn"
  type: "BN"
  bottom: "inception_3a/double_3x3_reduce"
  top: "inception_3a/double_3x3_reduce_bn"
  param {
    lr_mult: 1
    decay_mult: 0
  }
  param {
    lr_mult: 1
    decay_mult: 0
  }
  bn_param {
    slope_filler {
      type: "constant"
      value: 1
    }
    bias_filler {
      type: "constant"
      value: 0
    }
  }
}
layer {
  n
I0417 14:39:58.259722  7299 layer_factory.hpp:74] Creating layer data
I0417 14:39:58.259732  7299 net.cpp:133] Creating Layer data
I0417 14:39:58.259734  7299 net.cpp:411] data -> data
I0417 14:39:58.259738  7299 net.cpp:411] data -> label
I0417 14:39:58.259742  7299 net.cpp:163] Setting up data
I0417 14:39:58.259814  7299 db_lmdb.cpp:22] Opened lmdb external/exp/db/prid/val_lmdb
I0417 14:39:58.259835  7299 data_layer.cpp:55] Skipping first 0 data points.
I0417 14:39:58.259846  7299 data_layer.cpp:100] output data size: 10,3,144,56
I0417 14:39:58.259886  7299 net.cpp:170] Top shape: 10 3 144 56 (241920)
I0417 14:39:58.259891  7299 net.cpp:170] Top shape: 10 (10)
I0417 14:39:58.259894  7299 layer_factory.hpp:74] Creating layer label_data_1_split
I0417 14:39:58.259901  7299 net.cpp:133] Creating Layer label_data_1_split
I0417 14:39:58.259902  7299 net.cpp:453] label_data_1_split <- label
I0417 14:39:58.259907  7299 net.cpp:411] label_data_1_split -> label_data_1_split_0
I0417 14:39:58.259913  7299 net.cpp:411] label_data_1_split -> label_data_1_split_1
I0417 14:39:58.259918  7299 net.cpp:163] Setting up label_data_1_split
I0417 14:39:58.259927  7299 net.cpp:170] Top shape: 10 (10)
I0417 14:39:58.259929  7299 net.cpp:170] Top shape: 10 (10)
I0417 14:39:58.259932  7299 layer_factory.hpp:74] Creating layer conv1
I0417 14:39:58.259939  7299 net.cpp:133] Creating Layer conv1
I0417 14:39:58.259943  7299 net.cpp:453] conv1 <- data
I0417 14:39:58.259948  7299 net.cpp:411] conv1 -> conv1
I0417 14:39:58.259955  7299 net.cpp:163] Setting up conv1
I0417 14:39:58.291544  7299 net.cpp:170] Top shape: 10 32 144 56 (2580480)
I0417 14:39:58.291556  7299 layer_factory.hpp:74] Creating layer conv1_bn
I0417 14:39:58.291559  7299 layer_factory.cpp:191] Layer conv1_bn is using CAFFE engine.
I0417 14:39:58.291564  7299 net.cpp:133] Creating Layer conv1_bn
I0417 14:39:58.291565  7299 net.cpp:453] conv1_bn <- conv1
I0417 14:39:58.291569  7299 net.cpp:411] conv1_bn -> conv1_bn
I0417 14:39:58.291574  7299 net.cpp:163] Setting up conv1_bn
I0417 14:39:58.291589  7299 net.cpp:170] Top shape: 10 32 144 56 (2580480)
I0417 14:39:58.291594  7299 layer_factory.hpp:74] Creating layer relu1
I0417 14:39:58.291599  7299 net.cpp:133] Creating Layer relu1
I0417 14:39:58.291599  7299 net.cpp:453] relu1 <- conv1_bn
I0417 14:39:58.291602  7299 net.cpp:400] relu1 -> conv1_bn (in-place)
I0417 14:39:58.291604  7299 net.cpp:163] Setting up relu1
I0417 14:39:58.291815  7299 net.cpp:170] Top shape: 10 32 144 56 (2580480)
I0417 14:39:58.291821  7299 layer_factory.hpp:74] Creating layer conv2
I0417 14:39:58.291826  7299 net.cpp:133] Creating Layer conv2
I0417 14:39:58.291827  7299 net.cpp:453] conv2 <- conv1_bn
I0417 14:39:58.291832  7299 net.cpp:411] conv2 -> conv2
I0417 14:39:58.291836  7299 net.cpp:163] Setting up conv2
I0417 14:39:58.375916  7299 net.cpp:170] Top shape: 10 32 144 56 (2580480)
I0417 14:39:58.375926  7299 layer_factory.hpp:74] Creating layer conv2_bn
I0417 14:39:58.375928  7299 layer_factory.cpp:191] Layer conv2_bn is using CAFFE engine.
I0417 14:39:58.375932  7299 net.cpp:133] Creating Layer conv2_bn
I0417 14:39:58.375934  7299 net.cpp:453] conv2_bn <- conv2
I0417 14:39:58.375937  7299 net.cpp:411] conv2_bn -> conv2_bn
I0417 14:39:58.375942  7299 net.cpp:163] Setting up conv2_bn
I0417 14:39:58.375957  7299 net.cpp:170] Top shape: 10 32 144 56 (2580480)
I0417 14:39:58.375964  7299 layer_factory.hpp:74] Creating layer relu2
I0417 14:39:58.375967  7299 net.cpp:133] Creating Layer relu2
I0417 14:39:58.375968  7299 net.cpp:453] relu2 <- conv2_bn
I0417 14:39:58.375972  7299 net.cpp:400] relu2 -> conv2_bn (in-place)
I0417 14:39:58.375974  7299 net.cpp:163] Setting up relu2
I0417 14:39:58.376174  7299 net.cpp:170] Top shape: 10 32 144 56 (2580480)
I0417 14:39:58.376180  7299 layer_factory.hpp:74] Creating layer conv3
I0417 14:39:58.376185  7299 net.cpp:133] Creating Layer conv3
I0417 14:39:58.376188  7299 net.cpp:453] conv3 <- conv2_bn
I0417 14:39:58.376193  7299 net.cpp:411] conv3 -> conv3
I0417 14:39:58.376196  7299 net.cpp:163] Setting up conv3
I0417 14:39:58.459648  7299 net.cpp:170] Top shape: 10 32 144 56 (2580480)
I0417 14:39:58.459658  7299 layer_factory.hpp:74] Creating layer conv3_bn
I0417 14:39:58.459661  7299 layer_factory.cpp:191] Layer conv3_bn is using CAFFE engine.
I0417 14:39:58.459664  7299 net.cpp:133] Creating Layer conv3_bn
I0417 14:39:58.459666  7299 net.cpp:453] conv3_bn <- conv3
I0417 14:39:58.459669  7299 net.cpp:411] conv3_bn -> conv3_bn
I0417 14:39:58.459673  7299 net.cpp:163] Setting up conv3_bn
I0417 14:39:58.459692  7299 net.cpp:170] Top shape: 10 32 144 56 (2580480)
I0417 14:39:58.459698  7299 layer_factory.hpp:74] Creating layer relu3
I0417 14:39:58.459702  7299 net.cpp:133] Creating Layer relu3
I0417 14:39:58.459703  7299 net.cpp:453] relu3 <- conv3_bn
I0417 14:39:58.459705  7299 net.cpp:400] relu3 -> conv3_bn (in-place)
I0417 14:39:58.459708  7299 net.cpp:163] Setting up relu3
I0417 14:39:58.459820  7299 net.cpp:170] Top shape: 10 32 144 56 (2580480)
I0417 14:39:58.459825  7299 layer_factory.hpp:74] Creating layer pool1
I0417 14:39:58.459830  7299 net.cpp:133] Creating Layer pool1
I0417 14:39:58.459831  7299 net.cpp:453] pool1 <- conv3_bn
I0417 14:39:58.459835  7299 net.cpp:411] pool1 -> pool1
I0417 14:39:58.459836  7299 net.cpp:163] Setting up pool1
I0417 14:39:58.460034  7299 net.cpp:170] Top shape: 10 32 72 28 (645120)
I0417 14:39:58.460041  7299 layer_factory.hpp:74] Creating layer pool1_pool1_0_split
I0417 14:39:58.460044  7299 net.cpp:133] Creating Layer pool1_pool1_0_split
I0417 14:39:58.460046  7299 net.cpp:453] pool1_pool1_0_split <- pool1
I0417 14:39:58.460050  7299 net.cpp:411] pool1_pool1_0_split -> pool1_pool1_0_split_0
I0417 14:39:58.460053  7299 net.cpp:411] pool1_pool1_0_split -> pool1_pool1_0_split_1
I0417 14:39:58.460057  7299 net.cpp:411] pool1_pool1_0_split -> pool1_pool1_0_split_2
I0417 14:39:58.460059  7299 net.cpp:411] pool1_pool1_0_split -> pool1_pool1_0_split_3
…
I0417 14:39:59.595708  7299 net.cpp:170] Top shape: 10 128 36 14 (645120)
I0417 14:39:59.595713  7299 layer_factory.hpp:74] Creating layer inception_2a/double_3x3_reduce
I0417 14:39:59.595726  7299 net.cpp:133] Creating Layer inception_2a/double_3x3_reduce
I0417 14:39:59.595727  7299 net.cpp:453] inception_2a/double_3x3_reduce <- inception_1b/output_inception_1b/output_0_split_2
I0417 14:39:59.595731  7299 net.cpp:411] inception_2a/double_3x3_reduce -> inception_2a/double_3x3_reduce
I0417 14:39:59.595736  7299 net.cpp:163] Setting up inception_2a/double_3x3_reduce
I0417 14:39:59.699781  7299 net.cpp:170] Top shape: 10 128 36 14 (645120)
I0417 14:39:59.699791  7299 layer_factory.hpp:74] Creating layer inception_2a/double_3x3_reduce_bn
I0417 14:39:59.699795  7299 layer_factory.cpp:191] Layer inception_2a/double_3x3_reduce_bn is using CAFFE engine.
I0417 14:39:59.699800  7299 net.cpp:133] Creating Layer inception_2a/double_3x3_reduce_bn
I0417 14:39:59.699801  7299 net.cpp:453] inception_2a/double_3x3_reduce_bn <- inception_2a/double_3x3_reduce
I0417 14:39:59.699805  7299 net.cpp:411] inception_2a/double_3x3_reduce_bn -> inception_2a/double_3x3_reduce_bn
I0417 14:39:59.699810  7299 net.cpp:163] Setting up inception_2a/double_3x3_reduce_bn
I0417 14:39:59.699820  7299 net.cpp:170] Top shape: 10 128 36 14 (645120)
I0417 14:39:59.699825  7299 layer_factory.hpp:74] Creating layer inception_2a/relu_double_3x3_reduce
I0417 14:39:59.699827  7299 net.cpp:133] Creating Layer inception_2a/relu_double_3x3_reduce
I0417 14:39:59.699829  7299 net.cpp:453] inception_2a/relu_double_3x3_reduce <- inception_2a/double_3x3_reduce_bn
I0417 14:39:59.699832  7299 net.cpp:400] inception_2a/relu_double_3x3_reduce -> inception_2a/double_3x3_reduce_bn (in-place)
I0417 14:39:59.699834  7299 net.cpp:163] Setting up inception_2a/relu_double_3x3_reduce
I0417 14:39:59.700034  7299 net.cpp:170] Top shape: 10 128 36 14 (645120)
I0417 14:39:59.700040  7299 layer_factory.hpp:74] Creating layer inception_2a/double_3x3_1
I0417 14:39:59.700045  7299 net.cpp:133] Creating Layer inception_2a/double_3x3_1
I0417 14:39:59.700047  7299 net.cpp:453] inception_2a/double_3x3_1 <- inception_2a/double_3x3_reduce_bn
I0417 14:39:59.700052  7299 net.cpp:411] inception_2a/double_3x3_1 -> inception_2a/double_3x3_1
I0417 14:39:59.700055  7299 net.cpp:163] Setting up inception_2a/double_3x3_1
I0417 14:39:59.748498  7299 net.cpp:170] Top shape: 10 128 36 14 (645120)
I0417 14:39:59.748507  7299 layer_factory.hpp:74] Creating layer inception_2a/double_3x3_1_bn
I0417 14:39:59.748510  7299 layer_factory.cpp:191] Layer inception_2a/double_3x3_1_bn is using CAFFE engine.
I0417 14:39:59.748514  7299 net.cpp:133] Creating Layer inception_2a/double_3x3_1_bn
I0417 14:39:59.748517  7299 net.cpp:453] inception_2a/double_3x3_1_bn <- inception_2a/double_3x3_1
I0417 14:39:59.748520  7299 net.cpp:411] inception_2a/double_3x3_1_bn -> inception_2a/double_3x3_1_bn
I0417 14:39:59.748525  7299 net.cpp:163] Setting up inception_2a/double_3x3_1_bn
I0417 14:39:59.748534  7299 net.cpp:170] Top shape: 10 128 36 14 (645120)
I0417 14:39:59.748539  7299 layer_factory.hpp:74] Creating layer inception_2a/relu_double_3x3_1
I0417 14:39:59.748543  7299 net.cpp:133] Creating Layer inception_2a/relu_double_3x3_1
I0417 14:39:59.748544  7299 net.cpp:453] inception_2a/relu_double_3x3_1 <- inception_2a/double_3x3_1_bn
I0417 14:39:59.748546  7299 net.cpp:400] inception_2a/relu_double_3x3_1 -> inception_2a/double_3x3_1_bn (in-place)
I0417 14:39:59.748550  7299 net.cpp:163] Setting up inception_2a/relu_double_3x3_1
I0417 14:39:59.748738  7299 net.cpp:170] Top shape: 10 128 36 14 (645120)
I0417 14:39:59.748744  7299 layer_factory.hpp:74] Creating layer inception_2a/double_3x3_2
I0417 14:39:59.748749  7299 net.cpp:133] Creating Layer inception_2a/double_3x3_2
I0417 14:39:59.748750  7299 net.cpp:453] inception_2a/double_3x3_2 <- inception_2a/double_3x3_1_bn
I0417 14:39:59.748754  7299 net.cpp:411] inception_2a/double_3x3_2 -> inception_2a/double_3x3_2
I0417 14:39:59.748759  7299 net.cpp:163] Setting up inception_2a/double_3x3_2
I0417 14:39:59.797159  7299 net.cpp:170] Top shape: 10 128 36 14 (645120)
I0417 14:39:59.797169  7299 layer_factory.hpp:74] Creating layer inception_2a/double_3x3_2_bn
I0417 14:39:59.797171  7299 layer_factory.cpp:191] Layer inception_2a/double_3x3_2_bn is using CAFFE engine.
I0417 14:39:59.797175  7299 net.cpp:133] Creating Layer inception_2a/double_3x3_2_bn
I0417 14:39:59.797178  7299 net.cpp:453] inception_2a/double_3x3_2_bn <- inception_2a/double_3x3_2
I0417 14:39:59.797181  7299 net.cpp:411] inception_2a/double_3x3_2_bn -> inception_2a/double_3x3_2_bn
I0417 14:39:59.797186  7299 net.cpp:163] Setting up inception_2a/double_3x3_2_bn
I0417 14:39:59.797194  7299 net.cpp:170] Top shape: 10 128 36 14 (645120)
I0417 14:39:59.797200  7299 layer_factory.hpp:74] Creating layer inception_2a/relu_double_3x3_2
I0417 14:39:59.797204  7299 net.cpp:133] Creating Layer inception_2a/relu_double_3x3_2
I0417 14:39:59.797205  7299 net.cpp:453] inception_2a/relu_double_3x3_2 <- inception_2a/double_3x3_2_bn
I0417 14:39:59.797207  7299 net.cpp:400] inception_2a/relu_double_3x3_2 -> inception_2a/double_3x3_2_bn (in-place)
I0417 14:39:59.797210  7299 net.cpp:163] Setting up inception_2a/relu_double_3x3_2
I0417 14:39:59.797327  7299 net.cpp:170] Top shape: 10 128 36 14 (645120)
I0417 14:39:59.797332  7299 layer_factory.hpp:74] Creating layer inception_2a/pool
I0417 14:39:59.797333  7299 layer_factory.cpp:64] CUDNN does not support padding or multiple tops. Using Caffe's own pooling layer.
I0417 14:39:59.797336  7299 net.cpp:133] Creating Layer inception_2a/pool
I0417 14:39:59.797338  7299 net.cpp:453] inception_2a/pool <- inception_1b/output_inception_1b/output_0_split_3
I0417 14:39:59.797343  7299 net.cpp:411] inception_2a/pool -> inception_2a/pool
I0417 14:39:59.797345  7299 net.cpp:163] Setting up inception_2a/pool
I0417 14:39:59.797349  7299 net.cpp:170] Top shape: 10 384 36 14 (1935360)
I0417 14:39:59.797350  7299 layer_factory.hpp:74] Creating layer inception_2a/pool_proj
I0417 14:39:59.797354  7299 net.cpp:133] Creating Layer inception_2a/pool_proj
I0417 14:39:59.797356  7299 net.cpp:453] inception_2a/pool_proj <- inception_2a/pool
I0417 14:39:59.797359  7299 net.cpp:411] inception_2a/pool_proj -> inception_2a/pool_proj
I0417 14:39:59.797363  7299 net.cpp:163] Setting up inception_2a/pool_proj
I0417 14:39:59.901134  7299 net.cpp:170] Top shape: 10 128 36 14 (645120)
I0417 14:39:59.901144  7299 layer_factory.hpp:74] Creating layer inception_2a/pool_proj_bn
I0417 14:39:59.901146  7299 layer_factory.cpp:191] Layer inception_2a/pool_proj_bn is using CAFFE engine.
I0417 14:39:59.901151  7299 net.cpp:133] Creating Layer inception_2a/pool_proj_bn
I0417 14:39:59.901154  7299 net.cpp:453] inception_2a/pool_proj_bn <- inception_2a/pool_proj
I0417 14:39:59.901157  7299 net.cpp:411] inception_2a/pool_proj_bn -> inception_2a/pool_proj_bn
I0417 14:39:59.901170  7299 net.cpp:163] Setting up inception_2a/pool_proj_bn
I0417 14:39:59.901180  7299 net.cpp:170] Top shape: 10 128 36 14 (645120)
I0417 14:39:59.901192  7299 layer_factory.hpp:74] Creating layer inception_2a/relu_pool_proj
I0417 14:39:59.901196  7299 net.cpp:133] Creating Layer inception_2a/relu_pool_proj
I0417 14:39:59.901197  7299 net.cpp:453] inception_2a/relu_pool_proj <- inception_2a/pool_proj_bn
I0417 14:39:59.901201  7299 net.cpp:400] inception_2a/relu_pool_proj -> inception_2a/pool_proj_bn (in-place)
I0417 14:39:59.901203  7299 net.cpp:163] Setting up inception_2a/relu_pool_proj
I0417 14:39:59.901396  7299 net.cpp:170] Top shape: 10 128 36 14 (645120)
I0417 14:39:59.901401  7299 layer_factory.hpp:74] Creating layer inception_2a/output
I0417 14:39:59.901407  7299 net.cpp:133] Creating Layer inception_2a/output
I0417 14:39:59.901408  7299 net.cpp:453] inception_2a/output <- inception_2a/1x1_bn
I0417 14:39:59.901410  7299 net.cpp:453] inception_2a/output <- inception_2a/3x3_bn
I0417 14:39:59.901413  7299 net.cpp:453] inception_2a/output <- inception_2a/double_3x3_2_bn
I0417 14:39:59.901415  7299 net.cpp:453] inception_2a/output <- inception_2a/pool_proj_bn
I0417 14:39:59.901417  7299 net.cpp:411] inception_2a/output -> inception_2a/output
I0417 14:39:59.901422  7299 net.cpp:163] Setting up inception_2a/output
I0417 14:39:59.901424  7299 net.cpp:170] Top shape: 10 512 36 14 (2580480)
I0417 14:39:59.901427  7299 layer_factory.hpp:74] Creating layer inception_2a/output_inception_2a/output_0_split
I0417 14:39:59.901429  7299 net.cpp:133] Creating Layer inception_2a/output_inception_2a/output_0_split
I0417 14:39:59.901430  7299 net.cpp:453] inception_2a/output_inception_2a/output_0_split <- inception_2a/output
I0417 14:39:59.901434  7299 net.cpp:411] inception_2a/output_inception_2a/output_0_split -> inception_2a/output_inception_2a/output_0_split_0
I0417 14:39:59.901437  7299 net.cpp:411] inception_2a/output_inception_2a/output_0_split -> inception_2a/output_inception_2a/output_0_split_1
I0417 14:39:59.901440  7299 net.cpp:411] inception_2a/output_inception_2a/output_0_split -> inception_2a/output_inception_2a/output_0_split_2
I0417 14:39:59.901443  7299 net.cpp:163] Setting up inception_2a/output_inception_2a/output_0_split
I0417 14:39:59.901446  7299 net.cpp:170] Top shape: 10 512 36 14 (2580480)
I0417 14:39:59.901448  7299 net.cpp:170] Top shape: 10 512 36 14 (2580480)
I0417 14:39:59.901450  7299 net.cpp:170] Top shape: 10 512 36 14 (2580480)
I0417 14:39:59.901453  7299 layer_factory.hpp:74] Creating layer inception_2b/3x3_reduce
I0417 14:39:59.901458  7299 net.cpp:133] Creating Layer inception_2b/3x3_reduce
I0417 14:39:59.901458  7299 net.cpp:453] inception_2b/3x3_reduce <- inception_2a/output_inception_2a/output_0_split_0
I0417 14:39:59.901461  7299 net.cpp:411] inception_2b/3x3_reduce -> inception_2b/3x3_reduce
I0417 14:39:59.901464  7299 net.cpp:163] Setting up inception_2b/3x3_reduce
I0417 14:40:00.037669  7299 net.cpp:170] Top shape: 10 128 36 14 (645120)
I0417 14:40:00.037681  7299 layer_factory.hpp:74] Creating layer inception_2b/3x3_reduce_bn
I0417 14:40:00.037683  7299 layer_factory.cpp:191] Layer inception_2b/3x3_reduce_bn is using CAFFE engine.
I0417 14:40:00.037688  7299 net.cpp:133] Creating Layer inception_2b/3x3_reduce_bn
I0417 14:40:00.037690  7299 net.cpp:453] inception_2b/3x3_reduce_bn <- inception_2b/3x3_reduce
I0417 14:40:00.037694  7299 net.cpp:411] inception_2b/3x3_reduce_bn -> inception_2b/3x3_reduce_bn
I0417 14:40:00.037698  7299 net.cpp:163] Setting up inception_2b/3x3_reduce_bn
I0417 14:40:00.037708  7299 net.cpp:170] Top shape: 10 128 36 14 (645120)
I0417 14:40:00.037714  7299 layer_factory.hpp:74] Creating layer inception_2b/relu_3x3_reduce
I0417 14:40:00.037716  7299 net.cpp:133] Creating Layer inception_2b/relu_3x3_reduce
I0417 14:40:00.037719  7299 net.cpp:453] inception_2b/relu_3x3_reduce <- inception_2b/3x3_reduce_bn
I0417 14:40:00.037720  7299 net.cpp:400] inception_2b/relu_3x3_reduce -> inception_2b/3x3_reduce_bn (in-place)
I0417 14:40:00.037724  7299 net.cpp:163] Setting up inception_2b/relu_3x3_reduce
I0417 14:40:00.037986  7299 net.cpp:170] Top shape: 10 128 36 14 (645120)
I0417 14:40:00.037991  7299 layer_factory.hpp:74] Creating layer inception_2b/3x3
I0417 14:40:00.037995  7299 net.cpp:133] Creating Layer inception_2b/3x3
I0417 14:40:00.037998  7299 net.cpp:453] inception_2b/3x3 <- inception_2b/3x3_reduce_bn
I0417 14:40:00.038002  7299 net.cpp:411] inception_2b/3x3 -> inception_2b/3x3
I0417 14:40:00.038007  7299 net.cpp:163] Setting up inception_2b/3x3
I0417 14:40:00.045833  7299 net.cpp:170] Top shape: 10 128 18 7 (161280)
I0417 14:40:00.045842  7299 layer_factory.hpp:74] Creating layer inception_2b/3x3_bn
I0417 14:40:00.045845  7299 layer_factory.cpp:191] Layer inception_2b/3x3_bn is using CAFFE engine.
I0417 14:40:00.045850  7299 net.cpp:133] Creating Layer inception_2b/3x3_bn
I0417 14:40:00.045851  7299 net.cpp:453] inception_2b/3x3_bn <- inception_2b/3x3
I0417 14:40:00.045855  7299 net.cpp:411] inception_2b/3x3_bn -> inception_2b/3x3_bn
I0417 14:40:00.045860  7299 net.cpp:163] Setting up inception_2b/3x3_bn
I0417 14:40:00.045868  7299 net.cpp:170] Top shape: 10 128 18 7 (161280)
I0417 14:40:00.045873  7299 layer_factory.hpp:74] Creating layer inception_2b/relu_3x3
I0417 14:40:00.045878  7299 net.cpp:133] Creating Layer inception_2b/relu_3x3
I0417 14:40:00.045881  7299 net.cpp:453] inception_2b/relu_3x3 <- inception_2b/3x3_bn
I0417 14:40:00.045883  7299 net.cpp:400] inception_2b/relu_3x3 -> inception_2b/3x3_bn (in-place)
I0417 14:40:00.045886  7299 net.cpp:163] Setting up inception_2b/relu_3x3
I0417 14:40:00.046001  7299 net.cpp:170] Top shape: 10 128 18 7 (161280)
I0417 14:40:00.046005  7299 layer_factory.hpp:74] Creating layer inception_2b/double_3x3_reduce
I0417 14:40:00.046010  7299 net.cpp:133] Creating Layer inception_2b/double_3x3_reduce
I0417 14:40:00.046012  7299 net.cpp:453] inception_2b/double_3x3_reduce <- inception_2a/output_inception_2a/output_0_split_1
I0417 14:40:00.046016  7299 net.cpp:411] inception_2b/double_3x3_reduce -> inception_2b/double_3x3_reduce
I0417 14:40:00.046021  7299 net.cpp:163] Setting up inception_2b/double_3x3_reduce
I0417 14:40:00.182734  7299 net.cpp:170] Top shape: 10 128 36 14 (645120)
I0417 14:40:00.182744  7299 layer_factory.hpp:74] Creating layer inception_2b/double_3x3_reduce_bn
I0417 14:40:00.182747  7299 layer_factory.cpp:191] Layer inception_2b/double_3x3_reduce_bn is using CAFFE engine.
I0417 14:40:00.182751  7299 net.cpp:133] Creating Layer inception_2b/double_3x3_reduce_bn
I0417 14:40:00.182754  7299 net.cpp:453] inception_2b/double_3x3_reduce_bn <- inception_2b/double_3x3_reduce
I0417 14:40:00.182759  7299 net.cpp:411] inception_2b/double_3x3_reduce_bn -> inception_2b/double_3x3_reduce_bn
I0417 14:40:00.182763  7299 net.cpp:163] Setting up inception_2b/double_3x3_reduce_bn
I0417 14:40:00.182772  7299 net.cpp:170] Top shape: 10 128 36 14 (645120)
I0417 14:40:00.182777  7299 layer_factory.hpp:74] Creating layer inception_2b/relu_double_3x3_reduce
I0417 14:40:00.182781  7299 net.cpp:133] Creating Layer inception_2b/relu_double_3x3_reduce
I0417 14:40:00.182782  7299 net.cpp:453] inception_2b/relu_double_3x3_reduce <- inception_2b/double_3x3_reduce_bn
I0417 14:40:00.182785  7299 net.cpp:400] inception_2b/relu_double_3x3_reduce -> inception_2b/double_3x3_reduce_bn (in-place)
I0417 14:40:00.182788  7299 net.cpp:163] Setting up inception_2b/relu_double_3x3_reduce
I0417 14:40:00.182986  7299 net.cpp:170] Top shape: 10 128 36 14 (645120)
I0417 14:40:00.182992  7299 layer_factory.hpp:74] Creating layer inception_2b/double_3x3_1
I0417 14:40:00.182997  7299 net.cpp:133] Creating Layer inception_2b/double_3x3_1
I0417 14:40:00.182999  7299 net.cpp:453] inception_2b/double_3x3_1 <- inception_2b/double_3x3_reduce_bn
I0417 14:40:00.183003  7299 net.cpp:411] inception_2b/double_3x3_1 -> inception_2b/double_3x3_1
I0417 14:40:00.183007  7299 net.cpp:163] Setting up inception_2b/double_3x3_1
I0417 14:40:00.231487  7299 net.cpp:170] Top shape: 10 128 36 14 (645120)
I0417 14:40:00.231497  7299 layer_factory.hpp:74] Creating layer inception_2b/double_3x3_1_bn
I0417 14:40:00.231499  7299 layer_factory.cpp:191] Layer inception_2b/double_3x3_1_bn is using CAFFE engine.
I0417 14:40:00.231503  7299 net.cpp:133] Creating Layer inception_2b/double_3x3_1_bn
I0417 14:40:00.231506  7299 net.cpp:453] inception_2b/double_3x3_1_bn <- inception_2b/double_3x3_1
I0417 14:40:00.231509  7299 net.cpp:411] inception_2b/double_3x3_1_bn -> inception_2b/double_3x3_1_bn
I0417 14:40:00.231514  7299 net.cpp:163] Setting up inception_2b/double_3x3_1_bn
I0417 14:40:00.231524  7299 net.cpp:170] Top shape: 10 128 36 14 (645120)
I0417 14:40:00.231529  7299 layer_factory.hpp:74] Creating layer inception_2b/relu_double_3x3_1
I0417 14:40:00.231533  7299 net.cpp:133] Creating Layer inception_2b/relu_double_3x3_1
I0417 14:40:00.231534  7299 net.cpp:453] inception_2b/relu_double_3x3_1 <- inception_2b/double_3x3_1_bn
I0417 14:40:00.231536  7299 net.cpp:400] inception_2b/relu_double_3x3_1 -> inception_2b/double_3x3_1_bn (in-place)
I0417 14:40:00.231539  7299 net.cpp:163] Setting up inception_2b/relu_double_3x3_1
I0417 14:40:00.231739  7299 net.cpp:170] Top shape: 10 128 36 14 (645120)
I0417 14:40:00.231745  7299 layer_factory.hpp:74] Creating layer inception_2b/double_3x3_2
I0417 14:40:00.231750  7299 net.cpp:133] Creating Layer inception_2b/double_3x3_2
I0417 14:40:00.231751  7299 net.cpp:453] inception_2b/double_3x3_2 <- inception_2b/double_3x3_1_bn
I0417 14:40:00.231755  7299 net.cpp:411] inception_2b/double_3x3_2 -> inception_2b/double_3x3_2
I0417 14:40:00.231760  7299 net.cpp:163] Setting up inception_2b/double_3x3_2
I0417 14:40:00.239490  7299 net.cpp:170] Top shape: 10 128 18 7 (161280)
I0417 14:40:00.239500  7299 layer_factory.hpp:74] Creating layer inception_2b/double_3x3_2_bn
I0417 14:40:00.239502  7299 layer_factory.cpp:191] Layer inception_2b/double_3x3_2_bn is using CAFFE engine.
I0417 14:40:00.239506  7299 net.cpp:133] Creating Layer inception_2b/double_3x3_2_bn
I0417 14:40:00.239509  7299 net.cpp:453] inception_2b/double_3x3_2_bn <- inception_2b/double_3x3_2
I0417 14:40:00.239512  7299 net.cpp:411] inception_2b/double_3x3_2_bn -> inception_2b/double_3x3_2_bn
I0417 14:40:00.239517  7299 net.cpp:163] Setting up inception_2b/double_3x3_2_bn
I0417 14:40:00.239526  7299 net.cpp:170] Top shape: 10 128 18 7 (161280)
I0417 14:40:00.239531  7299 layer_factory.hpp:74] Creating layer inception_2b/relu_double_3x3_2
I0417 14:40:00.239533  7299 net.cpp:133] Creating Layer inception_2b/relu_double_3x3_2
I0417 14:40:00.239536  7299 net.cpp:453] inception_2b/relu_double_3x3_2 <- inception_2b/double_3x3_2_bn
I0417 14:40:00.239537  7299 net.cpp:400] inception_2b/relu_double_3x3_2 -> inception_2b/double_3x3_2_bn (in-place)
I0417 14:40:00.239540  7299 net.cpp:163] Setting up inception_2b/relu_double_3x3_2
I0417 14:40:00.239656  7299 net.cpp:170] Top shape: 10 128 18 7 (161280)
I0417 14:40:00.239660  7299 layer_factory.hpp:74] Creating layer inception_2b/pool
I0417 14:40:00.239665  7299 net.cpp:133] Creating Layer inception_2b/pool
I0417 14:40:00.239667  7299 net.cpp:453] inception_2b/pool <- inception_2a/output_inception_2a/output_0_split_2
I0417 14:40:00.239670  7299 net.cpp:411] inception_2b/pool -> inception_2b/pool
I0417 14:40:00.239675  7299 net.cpp:163] Setting up inception_2b/pool
I0417 14:40:00.239863  7299 net.cpp:170] Top shape: 10 512 18 7 (645120)
I0417 14:40:00.239871  7299 layer_factory.hpp:74] Creating layer inception_2b/output
I0417 14:40:00.239874  7299 net.cpp:133] Creating Layer inception_2b/output
I0417 14:40:00.239876  7299 net.cpp:453] inception_2b/output <- inception_2b/3x3_bn
I0417 14:40:00.239878  7299 net.cpp:453] inception_2b/output <- inception_2b/double_3x3_2_bn
I0417 14:40:00.239881  7299 net.cpp:453] inception_2b/output <- inception_2b/pool
I0417 14:40:00.239884  7299 net.cpp:411] inception_2b/output -> inception_2b/output
I0417 14:40:00.239888  7299 net.cpp:163] Setting up inception_2b/output
I0417 14:40:00.239892  7299 net.cpp:170] Top shape: 10 768 18 7 (967680)
I0417 14:40:00.239892  7299 layer_factory.hpp:74] Creating layer inception_2b/output_inception_2b/output_0_split
I0417 14:40:00.239897  7299 net.cpp:133] Creating Layer inception_2b/output_inception_2b/output_0_split
I0417 14:40:00.239897  7299 net.cpp:453] inception_2b/output_inception_2b/output_0_split <- inception_2b/output
I0417 14:40:00.239900  7299 net.cpp:411] inception_2b/output_inception_2b/output_0_split -> inception_2b/output_inception_2b/output_0_split_0
I0417 14:40:00.239904  7299 net.cpp:411] inception_2b/output_inception_2b/output_0_split -> inception_2b/output_inception_2b/output_0_split_1
I0417 14:40:00.239908  7299 net.cpp:411] inception_2b/output_inception_2b/output_0_split -> inception_2b/output_inception_2b/output_0_split_2
I0417 14:40:00.239912  7299 net.cpp:411] inception_2b/output_inception_2b/output_0_split -> inception_2b/output_inception_2b/output_0_split_3
I0417 14:40:00.239913  7299 net.cpp:163] Setting up inception_2b/output_inception_2b/output_0_split
I0417 14:40:00.239917  7299 net.cpp:170] Top shape: 10 768 18 7 (967680)
I0417 14:40:00.239919  7299 net.cpp:170] Top shape: 10 768 18 7 (967680)
I0417 14:40:00.239920  7299 net.cpp:170] Top shape: 10 768 18 7 (967680)
I0417 14:40:00.239923  7299 net.cpp:170] Top shape: 10 768 18 7 (967680)
I0417 14:40:00.239924  7299 layer_factory.hpp:74] Creating layer inception_3a/1x1
I0417 14:40:00.239928  7299 net.cpp:133] Creating Layer inception_3a/1x1
I0417 14:40:00.239930  7299 net.cpp:453] inception_3a/1x1 <- inception_2b/output_inception_2b/output_0_split_0
I0417 14:40:00.239933  7299 net.cpp:411] inception_3a/1x1 -> inception_3a/1x1
I0417 14:40:00.239936  7299 net.cpp:163] Setting up inception_3a/1x1
I0417 14:40:00.365641  7299 net.cpp:170] Top shape: 10 256 18 7 (322560)
I0417 14:40:00.365651  7299 layer_factory.hpp:74] Creating layer inception_3a/1x1_bn
I0417 14:40:00.365654  7299 layer_factory.cpp:191] Layer inception_3a/1x1_bn is using CAFFE engine.
I0417 14:40:00.365658  7299 net.cpp:133] Creating Layer inception_3a/1x1_bn
I0417 14:40:00.365660  7299 net.cpp:453] inception_3a/1x1_bn <- inception_3a/1x1
I0417 14:40:00.365664  7299 net.cpp:411] inception_3a/1x1_bn -> inception_3a/1x1_bn
I0417 14:40:00.365669  7299 net.cpp:163] Setting up inception_3a/1x1_bn
I0417 14:40:00.365679  7299 net.cpp:170] Top shape: 10 256 18 7 (322560)
I0417 14:40:00.365684  7299 layer_factory.hpp:74] Creating layer inception_3a/relu_1x1
I0417 14:40:00.365687  7299 net.cpp:133] Creating Layer inception_3a/relu_1x1
I0417 14:40:00.365689  7299 net.cpp:453] inception_3a/relu_1x1 <- inception_3a/1x1_bn
I0417 14:40:00.365692  7299 net.cpp:400] inception_3a/relu_1x1 -> inception_3a/1x1_bn (in-place)
I0417 14:40:00.365695  7299 net.cpp:163] Setting up inception_3a/relu_1x1
I0417 14:40:00.365811  7299 net.cpp:170] Top shape: 10 256 18 7 (322560)
I0417 14:40:00.365816  7299 layer_factory.hpp:74] Creating layer inception_3a/3x3_reduce
I0417 14:40:00.365821  7299 net.cpp:133] Creating Layer inception_3a/3x3_reduce
I0417 14:40:00.365823  7299 net.cpp:453] inception_3a/3x3_reduce <- inception_2b/output_inception_2b/output_0_split_1
I0417 14:40:00.365828  7299 net.cpp:411] inception_3a/3x3_reduce -> inception_3a/3x3_reduce
I0417 14:40:00.365831  7299 net.cpp:163] Setting up inception_3a/3x3_reduce
I0417 14:40:00.491147  7299 net.cpp:170] Top shape: 10 256 18 7 (322560)
I0417 14:40:00.491159  7299 layer_factory.hpp:74] Creating layer inception_3a/3x3_reduce_bn
I0417 14:40:00.491161  7299 layer_factory.cpp:191] Layer inception_3a/3x3_reduce_bn is using CAFFE engine.
I0417 14:40:00.491166  7299 net.cpp:133] Creating Layer inception_3a/3x3_reduce_bn
I0417 14:40:00.491169  7299 net.cpp:453] inception_3a/3x3_reduce_bn <- inception_3a/3x3_reduce
I0417 14:40:00.491174  7299 net.cpp:411] inception_3a/3x3_reduce_bn -> inception_3a/3x3_reduce_bn
I0417 14:40:00.491179  7299 net.cpp:163] Setting up inception_3a/3x3_reduce_bn
I0417 14:40:00.491189  7299 net.cpp:170] Top shape: 10 256 18 7 (322560)
I0417 14:40:00.491195  7299 layer_factory.hpp:74] Creating layer inception_3a/relu_3x3_reduce
I0417 14:40:00.491199  7299 net.cpp:133] Creating Layer inception_3a/relu_3x3_reduce
I0417 14:40:00.491200  7299 net.cpp:453] inception_3a/relu_3x3_reduce <- inception_3a/3x3_reduce_bn
I0417 14:40:00.491204  7299 net.cpp:400] inception_3a/relu_3x3_reduce -> inception_3a/3x3_reduce_bn (in-place)
I0417 14:40:00.491206  7299 net.cpp:163] Setting up inception_3a/relu_3x3_reduce
I0417 14:40:00.491416  7299 net.cpp:170] Top shape: 10 256 18 7 (322560)
I0417 14:40:00.491422  7299 layer_factory.hpp:74] Creating layer inception_3a/3x3
I0417 14:40:00.491428  7299 net.cpp:133] Creating Layer inception_3a/3x3
I0417 14:40:00.491430  7299 net.cpp:453] inception_3a/3x3 <- inception_3a/3x3_reduce_bn
I0417 14:40:00.491435  7299 net.cpp:411] inception_3a/3x3 -> inception_3a/3x3
I0417 14:40:00.491438  7299 net.cpp:163] Setting up inception_3a/3x3
I0417 14:40:00.547265  7299 net.cpp:170] Top shape: 10 256 18 7 (322560)
I0417 14:40:00.547276  7299 layer_factory.hpp:74] Creating layer inception_3a/3x3_bn
I0417 14:40:00.547278  7299 layer_factory.cpp:191] Layer inception_3a/3x3_bn is using CAFFE engine.
I0417 14:40:00.547282  7299 net.cpp:133] Creating Layer inception_3a/3x3_bn
I0417 14:40:00.547284  7299 net.cpp:453] inception_3a/3x3_bn <- inception_3a/3x3
I0417 14:40:00.547288  7299 net.cpp:411] inception_3a/3x3_bn -> inception_3a/3x3_bn
I0417 14:40:00.547293  7299 net.cpp:163] Setting up inception_3a/3x3_bn
I0417 14:40:00.547302  7299 net.cpp:170] Top shape: 10 256 18 7 (322560)
I0417 14:40:00.547307  7299 layer_factory.hpp:74] Creating layer inception_3a/relu_3x3
I0417 14:40:00.547310  7299 net.cpp:133] Creating Layer inception_3a/relu_3x3
I0417 14:40:00.547314  7299 net.cpp:453] inception_3a/relu_3x3 <- inception_3a/3x3_bn
I0417 14:40:00.547317  7299 net.cpp:400] inception_3a/relu_3x3 -> inception_3a/3x3_bn (in-place)
I0417 14:40:00.547319  7299 net.cpp:163] Setting up inception_3a/relu_3x3
I0417 14:40:00.547525  7299 net.cpp:170] Top shape: 10 256 18 7 (322560)
I0417 14:40:00.547531  7299 layer_factory.hpp:74] Creating layer inception_3a/double_3x3_reduce
I0417 14:40:00.547536  7299 net.cpp:133] Creating Layer inception_3a/double_3x3_reduce
I0417 14:40:00.547538  7299 net.cpp:453] inception_3a/double_3x3_reduce <- inception_2b/output_inception_2b/output_0_split_2
I0417 14:40:00.547544  7299 net.cpp:411] inception_3a/double_3x3_reduce -> inception_3a/double_3x3_reduce
I0417 14:40:00.547547  7299 net.cpp:163] Setting up inception_3a/double_3x3_reduce
I0417 14:40:00.673249  7299 net.cpp:170] Top shape: 10 256 18 7 (322560)
I0417 14:40:00.673259  7299 layer_factory.hpp:74] Creating layer inception_3a/double_3x3_reduce_bn
I0417 14:40:00.673261  7299 layer_factory.cpp:191] Layer inception_3a/double_3x3_reduce_bn is using CAFFE engine.
I0417 14:40:00.673266  7299 net.cpp:133] Creating Layer inception_3a/double_3x3_reduce_bn
I0417 14:40:00.673269  7299 net.cpp:453] inception_3a/double_3x3_reduce_bn <- inception_3a/double_3x3_reduce
I0417 14:40:00.673272  7299 net.cpp:411] inception_3a/double_3x3_reduce_bn -> inception_3a/double_3x3_reduce_bn
I0417 14:40:00.673277  7299 net.cpp:163] Setting up inception_3a/double_3x3_reduce_bn
I0417 14:40:00.673286  7299 net.cpp:170] Top shape: 10 256 18 7 (322560)
I0417 14:40:00.673291  7299 layer_factory.hpp:74] Creating layer inception_3a/relu_double_3x3_reduce
I0417 14:40:00.673295  7299 net.cpp:133] Creating Layer inception_3a/relu_double_3x3_reduce
I0417 14:40:00.673297  7299 net.cpp:453] inception_3a/relu_double_3x3_reduce <- inception_3a/double_3x3_reduce_bn
I0417 14:40:00.673300  7299 net.cpp:400] inception_3a/relu_double_3x3_reduce -> inception_3a/double_3x3_reduce_bn (in-place)
I0417 14:40:00.673302  7299 net.cpp:163] Setting up inception_3a/relu_double_3x3_reduce
I0417 14:40:00.673423  7299 net.cpp:170] Top shape: 10 256 18 7 (322560)
I0417 14:40:00.673427  7299 layer_factory.hpp:74] Creating layer inception_3a/double_3x3_1
I0417 14:40:00.673432  7299 net.cpp:133] Creating Layer inception_3a/double_3x3_1
I0417 14:40:00.673434  7299 net.cpp:453] inception_3a/double_3x3_1 <- inception_3a/double_3x3_reduce_bn
I0417 14:40:00.673439  7299 net.cpp:411] inception_3a/double_3x3_1 -> inception_3a/double_3x3_1
I0417 14:40:00.673442  7299 net.cpp:163] Setting up inception_3a/double_3x3_1
I0417 14:40:00.729341  7299 net.cpp:170] Top shape: 10 256 18 7 (322560)
I0417 14:40:00.729351  7299 layer_factory.hpp:74] Creating layer inception_3a/double_3x3_1_bn
I0417 14:40:00.729353  7299 layer_factory.cpp:191] Layer inception_3a/double_3x3_1_bn is using CAFFE engine.
I0417 14:40:00.729357  7299 net.cpp:133] Creating Layer inception_3a/double_3x3_1_bn
I0417 14:40:00.729360  7299 net.cpp:453] inception_3a/double_3x3_1_bn <- inception_3a/double_3x3_1
I0417 14:40:00.729364  7299 net.cpp:411] inception_3a/double_3x3_1_bn -> inception_3a/double_3x3_1_bn
I0417 14:40:00.729368  7299 net.cpp:163] Setting up inception_3a/double_3x3_1_bn
I0417 14:40:00.729379  7299 net.cpp:170] Top shape: 10 256 18 7 (322560)
I0417 14:40:00.729384  7299 layer_factory.hpp:74] Creating layer inception_3a/relu_double_3x3_1
I0417 14:40:00.729387  7299 net.cpp:133] Creating Layer inception_3a/relu_double_3x3_1
I0417 14:40:00.729389  7299 net.cpp:453] inception_3a/relu_double_3x3_1 <- inception_3a/double_3x3_1_bn
I0417 14:40:00.729392  7299 net.cpp:400] inception_3a/relu_double_3x3_1 -> inception_3a/double_3x3_1_bn (in-place)
I0417 14:40:00.729394  7299 net.cpp:163] Setting up inception_3a/relu_double_3x3_1
I0417 14:40:00.729591  7299 net.cpp:170] Top shape: 10 256 18 7 (322560)
I0417 14:40:00.729598  7299 layer_factory.hpp:74] Creating layer inception_3a/double_3x3_2
I0417 14:40:00.729603  7299 net.cpp:133] Creating Layer inception_3a/double_3x3_2
I0417 14:40:00.729605  7299 net.cpp:453] inception_3a/double_3x3_2 <- inception_3a/double_3x3_1_bn
I0417 14:40:00.729609  7299 net.cpp:411] inception_3a/double_3x3_2 -> inception_3a/double_3x3_2
I0417 14:40:00.729612  7299 net.cpp:163] Setting up inception_3a/double_3x3_2
I0417 14:40:00.786240  7299 net.cpp:170] Top shape: 10 256 18 7 (322560)
I0417 14:40:00.786252  7299 layer_factory.hpp:74] Creating layer inception_3a/double_3x3_2_bn
I0417 14:40:00.786253  7299 layer_factory.cpp:191] Layer inception_3a/double_3x3_2_bn is using CAFFE engine.
I0417 14:40:00.786257  7299 net.cpp:133] Creating Layer inception_3a/double_3x3_2_bn
I0417 14:40:00.786260  7299 net.cpp:453] inception_3a/double_3x3_2_bn <- inception_3a/double_3x3_2
I0417 14:40:00.786264  7299 net.cpp:411] inception_3a/double_3x3_2_bn -> inception_3a/double_3x3_2_bn
I0417 14:40:00.786268  7299 net.cpp:163] Setting up inception_3a/double_3x3_2_bn
I0417 14:40:00.786278  7299 net.cpp:170] Top shape: 10 256 18 7 (322560)
I0417 14:40:00.786283  7299 layer_factory.hpp:74] Creating layer inception_3a/relu_double_3x3_2
I0417 14:40:00.786288  7299 net.cpp:133] Creating Layer inception_3a/relu_double_3x3_2
I0417 14:40:00.786289  7299 net.cpp:453] inception_3a/relu_double_3x3_2 <- inception_3a/double_3x3_2_bn
I0417 14:40:00.786291  7299 net.cpp:400] inception_3a/relu_double_3x3_2 -> inception_3a/double_3x3_2_bn (in-place)
I0417 14:40:00.786294  7299 net.cpp:163] Setting up inception_3a/relu_double_3x3_2
I0417 14:40:00.786507  7299 net.cpp:170] Top shape: 10 256 18 7 (322560)
I0417 14:40:00.786514  7299 layer_factory.hpp:74] Creating layer inception_3a/pool
I0417 14:40:00.786515  7299 layer_factory.cpp:64] CUDNN does not support padding or multiple tops. Using Caffe's own pooling layer.
I0417 14:40:00.786520  7299 net.cpp:133] Creating Layer inception_3a/pool
I0417 14:40:00.786521  7299 net.cpp:453] inception_3a/pool <- inception_2b/output_inception_2b/output_0_split_3
I0417 14:40:00.786525  7299 net.cpp:411] inception_3a/pool -> inception_3a/pool
I0417 14:40:00.786528  7299 net.cpp:163] Setting up inception_3a/pool
I0417 14:40:00.786532  7299 net.cpp:170] Top shape: 10 768 18 7 (967680)
I0417 14:40:00.786535  7299 layer_factory.hpp:74] Creating layer inception_3a/pool_proj
I0417 14:40:00.786538  7299 net.cpp:133] Creating Layer inception_3a/pool_proj
I0417 14:40:00.786541  7299 net.cpp:453] inception_3a/pool_proj <- inception_3a/pool
I0417 14:40:00.786545  7299 net.cpp:411] inception_3a/pool_proj -> inception_3a/pool_proj
I0417 14:40:00.786550  7299 net.cpp:163] Setting up inception_3a/pool_proj
I0417 14:40:00.912840  7299 net.cpp:170] Top shape: 10 256 18 7 (322560)
I0417 14:40:00.912850  7299 layer_factory.hpp:74] Creating layer inception_3a/pool_proj_bn
I0417 14:40:00.912853  7299 layer_factory.cpp:191] Layer inception_3a/pool_proj_bn is using CAFFE engine.
I0417 14:40:00.912858  7299 net.cpp:133] Creating Layer inception_3a/pool_proj_bn
I0417 14:40:00.912860  7299 net.cpp:453] inception_3a/pool_proj_bn <- inception_3a/pool_proj
I0417 14:40:00.912863  7299 net.cpp:411] inception_3a/pool_proj_bn -> inception_3a/pool_proj_bn
I0417 14:40:00.912868  7299 net.cpp:163] Setting up inception_3a/pool_proj_bn
I0417 14:40:00.912878  7299 net.cpp:170] Top shape: 10 256 18 7 (322560)
I0417 14:40:00.912883  7299 layer_factory.hpp:74] Creating layer inception_3a/relu_pool_proj
I0417 14:40:00.912886  7299 net.cpp:133] Creating Layer inception_3a/relu_pool_proj
I0417 14:40:00.912888  7299 net.cpp:453] inception_3a/relu_pool_proj <- inception_3a/pool_proj_bn
I0417 14:40:00.912890  7299 net.cpp:400] inception_3a/relu_pool_proj -> inception_3a/pool_proj_bn (in-place)
I0417 14:40:00.912892  7299 net.cpp:163] Setting up inception_3a/relu_pool_proj
I0417 14:40:00.913012  7299 net.cpp:170] Top shape: 10 256 18 7 (322560)
I0417 14:40:00.913017  7299 layer_factory.hpp:74] Creating layer inception_3a/output
I0417 14:40:00.913022  7299 net.cpp:133] Creating Layer inception_3a/output
I0417 14:40:00.913023  7299 net.cpp:453] inception_3a/output <- inception_3a/1x1_bn
I0417 14:40:00.913025  7299 net.cpp:453] inception_3a/output <- inception_3a/3x3_bn
I0417 14:40:00.913028  7299 net.cpp:453] inception_3a/output <- inception_3a/double_3x3_2_bn
I0417 14:40:00.913030  7299 net.cpp:453] inception_3a/output <- inception_3a/pool_proj_bn
I0417 14:40:00.913033  7299 net.cpp:411] inception_3a/output -> inception_3a/output
I0417 14:40:00.913036  7299 net.cpp:163] Setting up inception_3a/output
I0417 14:40:00.913040  7299 net.cpp:170] Top shape: 10 1024 18 7 (1290240)
I0417 14:40:00.913043  7299 layer_factory.hpp:74] Creating layer inception_3a/output_inception_3a/output_0_split
I0417 14:40:00.913045  7299 net.cpp:133] Creating Layer inception_3a/output_inception_3a/output_0_split
I0417 14:40:00.913046  7299 net.cpp:453] inception_3a/output_inception_3a/output_0_split <- inception_3a/output
I0417 14:40:00.913050  7299 net.cpp:411] inception_3a/output_inception_3a/output_0_split -> inception_3a/output_inception_3a/output_0_split_0
I0417 14:40:00.913053  7299 net.cpp:411] inception_3a/output_inception_3a/output_0_split -> inception_3a/output_inception_3a/output_0_split_1
I0417 14:40:00.913056  7299 net.cpp:411] inception_3a/output_inception_3a/output_0_split -> inception_3a/output_inception_3a/output_0_split_2
I0417 14:40:00.913060  7299 net.cpp:163] Setting up inception_3a/output_inception_3a/output_0_split
I0417 14:40:00.913063  7299 net.cpp:170] Top shape: 10 1024 18 7 (1290240)
I0417 14:40:00.913065  7299 net.cpp:170] Top shape: 10 1024 18 7 (1290240)
I0417 14:40:00.913066  7299 net.cpp:170] Top shape: 10 1024 18 7 (1290240)
I0417 14:40:00.913069  7299 layer_factory.hpp:74] Creating layer inception_3b/3x3_reduce
I0417 14:40:00.913072  7299 net.cpp:133] Creating Layer inception_3b/3x3_reduce
I0417 14:40:00.913074  7299 net.cpp:453] inception_3b/3x3_reduce <- inception_3a/output_inception_3a/output_0_split_0
I0417 14:40:00.913077  7299 net.cpp:411] inception_3b/3x3_reduce -> inception_3b/3x3_reduce
I0417 14:40:00.913080  7299 net.cpp:163] Setting up inception_3b/3x3_reduce
I0417 14:40:01.081960  7299 net.cpp:170] Top shape: 10 256 18 7 (322560)
I0417 14:40:01.081971  7299 layer_factory.hpp:74] Creating layer inception_3b/3x3_reduce_bn
I0417 14:40:01.081974  7299 layer_factory.cpp:191] Layer inception_3b/3x3_reduce_bn is using CAFFE engine.
I0417 14:40:01.081979  7299 net.cpp:133] Creating Layer inception_3b/3x3_reduce_bn
I0417 14:40:01.081980  7299 net.cpp:453] inception_3b/3x3_reduce_bn <- inception_3b/3x3_reduce
I0417 14:40:01.081984  7299 net.cpp:411] inception_3b/3x3_reduce_bn -> inception_3b/3x3_reduce_bn
I0417 14:40:01.081989  7299 net.cpp:163] Setting up inception_3b/3x3_reduce_bn
I0417 14:40:01.081998  7299 net.cpp:170] Top shape: 10 256 18 7 (322560)
I0417 14:40:01.082003  7299 layer_factory.hpp:74] Creating layer inception_3b/relu_3x3_reduce
I0417 14:40:01.082006  7299 net.cpp:133] Creating Layer inception_3b/relu_3x3_reduce
I0417 14:40:01.082008  7299 net.cpp:453] inception_3b/relu_3x3_reduce <- inception_3b/3x3_reduce_bn
I0417 14:40:01.082011  7299 net.cpp:400] inception_3b/relu_3x3_reduce -> inception_3b/3x3_reduce_bn (in-place)
I0417 14:40:01.082013  7299 net.cpp:163] Setting up inception_3b/relu_3x3_reduce
I0417 14:40:01.082216  7299 net.cpp:170] Top shape: 10 256 18 7 (322560)
I0417 14:40:01.082223  7299 layer_factory.hpp:74] Creating layer inception_3b/3x3
I0417 14:40:01.082228  7299 net.cpp:133] Creating Layer inception_3b/3x3
I0417 14:40:01.082231  7299 net.cpp:453] inception_3b/3x3 <- inception_3b/3x3_reduce_bn
I0417 14:40:01.082234  7299 net.cpp:411] inception_3b/3x3 -> inception_3b/3x3
I0417 14:40:01.082238  7299 net.cpp:163] Setting up inception_3b/3x3
I0417 14:40:01.094213  7299 net.cpp:170] Top shape: 10 256 9 4 (92160)
I0417 14:40:01.094223  7299 layer_factory.hpp:74] Creating layer inception_3b/3x3_bn
I0417 14:40:01.094226  7299 layer_factory.cpp:191] Layer inception_3b/3x3_bn is using CAFFE engine.
I0417 14:40:01.094230  7299 net.cpp:133] Creating Layer inception_3b/3x3_bn
I0417 14:40:01.094233  7299 net.cpp:453] inception_3b/3x3_bn <- inception_3b/3x3
I0417 14:40:01.094236  7299 net.cpp:411] inception_3b/3x3_bn -> inception_3b/3x3_bn
I0417 14:40:01.094241  7299 net.cpp:163] Setting up inception_3b/3x3_bn
I0417 14:40:01.094249  7299 net.cpp:170] Top shape: 10 256 9 4 (92160)
I0417 14:40:01.094254  7299 layer_factory.hpp:74] Creating layer inception_3b/relu_3x3
I0417 14:40:01.094257  7299 net.cpp:133] Creating Layer inception_3b/relu_3x3
I0417 14:40:01.094259  7299 net.cpp:453] inception_3b/relu_3x3 <- inception_3b/3x3_bn
I0417 14:40:01.094262  7299 net.cpp:400] inception_3b/relu_3x3 -> inception_3b/3x3_bn (in-place)
I0417 14:40:01.094264  7299 net.cpp:163] Setting up inception_3b/relu_3x3
I0417 14:40:01.094465  7299 net.cpp:170] Top shape: 10 256 9 4 (92160)
I0417 14:40:01.094471  7299 layer_factory.hpp:74] Creating layer inception_3b/double_3x3_reduce
I0417 14:40:01.094476  7299 net.cpp:133] Creating Layer inception_3b/double_3x3_reduce
I0417 14:40:01.094478  7299 net.cpp:453] inception_3b/double_3x3_reduce <- inception_3a/output_inception_3a/output_0_split_1
I0417 14:40:01.094482  7299 net.cpp:411] inception_3b/double_3x3_reduce -> inception_3b/double_3x3_reduce
I0417 14:40:01.094487  7299 net.cpp:163] Setting up inception_3b/double_3x3_reduce
I0417 14:40:01.263255  7299 net.cpp:170] Top shape: 10 256 18 7 (322560)
I0417 14:40:01.263268  7299 layer_factory.hpp:74] Creating layer inception_3b/double_3x3_reduce_bn
I0417 14:40:01.263273  7299 layer_factory.cpp:191] Layer inception_3b/double_3x3_reduce_bn is using CAFFE engine.
I0417 14:40:01.263299  7299 net.cpp:133] Creating Layer inception_3b/double_3x3_reduce_bn
I0417 14:40:01.263303  7299 net.cpp:453] inception_3b/double_3x3_reduce_bn <- inception_3b/double_3x3_reduce
I0417 14:40:01.263309  7299 net.cpp:411] inception_3b/double_3x3_reduce_bn -> inception_3b/double_3x3_reduce_bn
I0417 14:40:01.263314  7299 net.cpp:163] Setting up inception_3b/double_3x3_reduce_bn
I0417 14:40:01.263324  7299 net.cpp:170] Top shape: 10 256 18 7 (322560)
I0417 14:40:01.263329  7299 layer_factory.hpp:74] Creating layer inception_3b/relu_double_3x3_reduce
I0417 14:40:01.263331  7299 net.cpp:133] Creating Layer inception_3b/relu_double_3x3_reduce
I0417 14:40:01.263334  7299 net.cpp:453] inception_3b/relu_double_3x3_reduce <- inception_3b/double_3x3_reduce_bn
I0417 14:40:01.263336  7299 net.cpp:400] inception_3b/relu_double_3x3_reduce -> inception_3b/double_3x3_reduce_bn (in-place)
I0417 14:40:01.263339  7299 net.cpp:163] Setting up inception_3b/relu_double_3x3_reduce
I0417 14:40:01.263464  7299 net.cpp:170] Top shape: 10 256 18 7 (322560)
I0417 14:40:01.263469  7299 layer_factory.hpp:74] Creating layer inception_3b/double_3x3_1
I0417 14:40:01.263474  7299 net.cpp:133] Creating Layer inception_3b/double_3x3_1
I0417 14:40:01.263476  7299 net.cpp:453] inception_3b/double_3x3_1 <- inception_3b/double_3x3_reduce_bn
I0417 14:40:01.263480  7299 net.cpp:411] inception_3b/double_3x3_1 -> inception_3b/double_3x3_1
I0417 14:40:01.263484  7299 net.cpp:163] Setting up inception_3b/double_3x3_1
I0417 14:40:01.319176  7299 net.cpp:170] Top shape: 10 256 18 7 (322560)
I0417 14:40:01.319186  7299 layer_factory.hpp:74] Creating layer inception_3b/double_3x3_1_bn
I0417 14:40:01.319190  7299 layer_factory.cpp:191] Layer inception_3b/double_3x3_1_bn is using CAFFE engine.
I0417 14:40:01.319193  7299 net.cpp:133] Creating Layer inception_3b/double_3x3_1_bn
I0417 14:40:01.319196  7299 net.cpp:453] inception_3b/double_3x3_1_bn <- inception_3b/double_3x3_1
I0417 14:40:01.319200  7299 net.cpp:411] inception_3b/double_3x3_1_bn -> inception_3b/double_3x3_1_bn
I0417 14:40:01.319205  7299 net.cpp:163] Setting up inception_3b/double_3x3_1_bn
I0417 14:40:01.319214  7299 net.cpp:170] Top shape: 10 256 18 7 (322560)
I0417 14:40:01.319219  7299 layer_factory.hpp:74] Creating layer inception_3b/relu_double_3x3_1
I0417 14:40:01.319222  7299 net.cpp:133] Creating Layer inception_3b/relu_double_3x3_1
I0417 14:40:01.319224  7299 net.cpp:453] inception_3b/relu_double_3x3_1 <- inception_3b/double_3x3_1_bn
I0417 14:40:01.319226  7299 net.cpp:400] inception_3b/relu_double_3x3_1 -> inception_3b/double_3x3_1_bn (in-place)
I0417 14:40:01.319229  7299 net.cpp:163] Setting up inception_3b/relu_double_3x3_1
I0417 14:40:01.319429  7299 net.cpp:170] Top shape: 10 256 18 7 (322560)
I0417 14:40:01.319435  7299 layer_factory.hpp:74] Creating layer inception_3b/double_3x3_2
I0417 14:40:01.319442  7299 net.cpp:133] Creating Layer inception_3b/double_3x3_2
I0417 14:40:01.319443  7299 net.cpp:453] inception_3b/double_3x3_2 <- inception_3b/double_3x3_1_bn
I0417 14:40:01.319447  7299 net.cpp:411] inception_3b/double_3x3_2 -> inception_3b/double_3x3_2
I0417 14:40:01.319452  7299 net.cpp:163] Setting up inception_3b/double_3x3_2
I0417 14:40:01.331285  7299 net.cpp:170] Top shape: 10 256 9 4 (92160)
I0417 14:40:01.331296  7299 layer_factory.hpp:74] Creating layer inception_3b/double_3x3_2_bn
I0417 14:40:01.331298  7299 layer_factory.cpp:191] Layer inception_3b/double_3x3_2_bn is using CAFFE engine.
I0417 14:40:01.331302  7299 net.cpp:133] Creating Layer inception_3b/double_3x3_2_bn
I0417 14:40:01.331305  7299 net.cpp:453] inception_3b/double_3x3_2_bn <- inception_3b/double_3x3_2
I0417 14:40:01.331308  7299 net.cpp:411] inception_3b/double_3x3_2_bn -> inception_3b/double_3x3_2_bn
I0417 14:40:01.331313  7299 net.cpp:163] Setting up inception_3b/double_3x3_2_bn
I0417 14:40:01.331322  7299 net.cpp:170] Top shape: 10 256 9 4 (92160)
I0417 14:40:01.331327  7299 layer_factory.hpp:74] Creating layer inception_3b/relu_double_3x3_2
I0417 14:40:01.331331  7299 net.cpp:133] Creating Layer inception_3b/relu_double_3x3_2
I0417 14:40:01.331333  7299 net.cpp:453] inception_3b/relu_double_3x3_2 <- inception_3b/double_3x3_2_bn
I0417 14:40:01.331336  7299 net.cpp:400] inception_3b/relu_double_3x3_2 -> inception_3b/double_3x3_2_bn (in-place)
I0417 14:40:01.331338  7299 net.cpp:163] Setting up inception_3b/relu_double_3x3_2
I0417 14:40:01.331542  7299 net.cpp:170] Top shape: 10 256 9 4 (92160)
I0417 14:40:01.331547  7299 layer_factory.hpp:74] Creating layer inception_3b/pool
I0417 14:40:01.331549  7299 layer_factory.cpp:64] CUDNN does not support padding or multiple tops. Using Caffe's own pooling layer.
I0417 14:40:01.331553  7299 net.cpp:133] Creating Layer inception_3b/pool
I0417 14:40:01.331557  7299 net.cpp:453] inception_3b/pool <- inception_3a/output_inception_3a/output_0_split_2
I0417 14:40:01.331559  7299 net.cpp:411] inception_3b/pool -> inception_3b/pool
I0417 14:40:01.331564  7299 net.cpp:163] Setting up inception_3b/pool
I0417 14:40:01.331568  7299 net.cpp:170] Top shape: 10 1024 9 4 (368640)
I0417 14:40:01.331570  7299 layer_factory.hpp:74] Creating layer inception_3b/output
I0417 14:40:01.331573  7299 net.cpp:133] Creating Layer inception_3b/output
I0417 14:40:01.331574  7299 net.cpp:453] inception_3b/output <- inception_3b/3x3_bn
I0417 14:40:01.331576  7299 net.cpp:453] inception_3b/output <- inception_3b/double_3x3_2_bn
I0417 14:40:01.331579  7299 net.cpp:453] inception_3b/output <- inception_3b/pool
I0417 14:40:01.331581  7299 net.cpp:411] inception_3b/output -> inception_3b/output
I0417 14:40:01.331584  7299 net.cpp:163] Setting up inception_3b/output
I0417 14:40:01.331588  7299 net.cpp:170] Top shape: 10 1536 9 4 (552960)
I0417 14:40:01.331589  7299 layer_factory.hpp:74] Creating layer global_pool
I0417 14:40:01.331593  7299 net.cpp:133] Creating Layer global_pool
I0417 14:40:01.331594  7299 net.cpp:453] global_pool <- inception_3b/output
I0417 14:40:01.331596  7299 net.cpp:411] global_pool -> global_pool
I0417 14:40:01.331599  7299 net.cpp:163] Setting up global_pool
I0417 14:40:01.331709  7299 net.cpp:170] Top shape: 10 1536 1 1 (15360)
I0417 14:40:01.331713  7299 layer_factory.hpp:74] Creating layer gather_global_pool_to_fc7
I0417 14:40:01.331717  7299 net.cpp:133] Creating Layer gather_global_pool_to_fc7
I0417 14:40:01.331719  7299 net.cpp:453] gather_global_pool_to_fc7 <- global_pool
I0417 14:40:01.331722  7299 net.cpp:411] gather_global_pool_to_fc7 -> gathered_global_pool
I0417 14:40:01.331725  7299 net.cpp:163] Setting up gather_global_pool_to_fc7
I0417 14:40:01.331728  7299 net.cpp:170] Top shape: 20 1536 1 1 (30720)
I0417 14:40:01.331734  7299 layer_factory.hpp:74] Creating layer fc7
I0417 14:40:01.331738  7299 net.cpp:133] Creating Layer fc7
I0417 14:40:01.331740  7299 net.cpp:453] fc7 <- gathered_global_pool
I0417 14:40:01.331743  7299 net.cpp:411] fc7 -> fc7
I0417 14:40:01.331748  7299 net.cpp:163] Setting up fc7
I0417 14:40:01.333277  7299 net.cpp:170] Top shape: 20 256 (5120)
I0417 14:40:01.333283  7299 layer_factory.hpp:74] Creating layer fc7_bn
I0417 14:40:01.333286  7299 layer_factory.cpp:191] Layer fc7_bn is using CAFFE engine.
I0417 14:40:01.333289  7299 net.cpp:133] Creating Layer fc7_bn
I0417 14:40:01.333292  7299 net.cpp:453] fc7_bn <- fc7
I0417 14:40:01.333293  7299 net.cpp:411] fc7_bn -> fc7_bn
I0417 14:40:01.333297  7299 net.cpp:163] Setting up fc7_bn
I0417 14:40:01.333307  7299 net.cpp:170] Top shape: 20 256 (5120)
I0417 14:40:01.333309  7299 layer_factory.hpp:74] Creating layer relu7
I0417 14:40:01.333312  7299 net.cpp:133] Creating Layer relu7
I0417 14:40:01.333313  7299 net.cpp:453] relu7 <- fc7_bn
I0417 14:40:01.333317  7299 net.cpp:400] relu7 -> fc7_bn (in-place)
I0417 14:40:01.333318  7299 net.cpp:163] Setting up relu7
I0417 14:40:01.333513  7299 net.cpp:170] Top shape: 20 256 (5120)
I0417 14:40:01.333519  7299 layer_factory.hpp:74] Creating layer drop7
I0417 14:40:01.333523  7299 net.cpp:133] Creating Layer drop7
I0417 14:40:01.333525  7299 net.cpp:453] drop7 <- fc7_bn
I0417 14:40:01.333528  7299 net.cpp:400] drop7 -> fc7_bn (in-place)
I0417 14:40:01.333530  7299 net.cpp:163] Setting up drop7
I0417 14:40:01.333534  7299 net.cpp:170] Top shape: 20 256 (5120)
I0417 14:40:01.333535  7299 layer_factory.hpp:74] Creating layer fc8_prid
I0417 14:40:01.333539  7299 net.cpp:133] Creating Layer fc8_prid
I0417 14:40:01.333540  7299 net.cpp:453] fc8_prid <- fc7_bn
I0417 14:40:01.333544  7299 net.cpp:411] fc8_prid -> fc8_prid
I0417 14:40:01.333547  7299 net.cpp:163] Setting up fc8_prid
I0417 14:40:01.334221  7299 net.cpp:170] Top shape: 20 385 (7700)
I0417 14:40:01.334226  7299 layer_factory.hpp:74] Creating layer fc8_prid_fc8_prid_0_split
I0417 14:40:01.334230  7299 net.cpp:133] Creating Layer fc8_prid_fc8_prid_0_split
I0417 14:40:01.334231  7299 net.cpp:453] fc8_prid_fc8_prid_0_split <- fc8_prid
I0417 14:40:01.334234  7299 net.cpp:411] fc8_prid_fc8_prid_0_split -> fc8_prid_fc8_prid_0_split_0
I0417 14:40:01.334239  7299 net.cpp:411] fc8_prid_fc8_prid_0_split -> fc8_prid_fc8_prid_0_split_1
I0417 14:40:01.334241  7299 net.cpp:163] Setting up fc8_prid_fc8_prid_0_split
I0417 14:40:01.334244  7299 net.cpp:170] Top shape: 20 385 (7700)
I0417 14:40:01.334245  7299 net.cpp:170] Top shape: 20 385 (7700)
I0417 14:40:01.334246  7299 layer_factory.hpp:74] Creating layer gather_label_data_1_split_to_loss
I0417 14:40:01.334249  7299 net.cpp:133] Creating Layer gather_label_data_1_split_to_loss
I0417 14:40:01.334251  7299 net.cpp:453] gather_label_data_1_split_to_loss <- label_data_1_split_0
I0417 14:40:01.334254  7299 net.cpp:411] gather_label_data_1_split_to_loss -> gathered_label_data_1_split_0
I0417 14:40:01.334257  7299 net.cpp:163] Setting up gather_label_data_1_split_to_loss
I0417 14:40:01.334259  7299 net.cpp:170] Top shape: 20 (20)
I0417 14:40:01.334261  7299 layer_factory.hpp:74] Creating layer loss
I0417 14:40:01.334264  7299 net.cpp:133] Creating Layer loss
I0417 14:40:01.334266  7299 net.cpp:453] loss <- fc8_prid_fc8_prid_0_split_0
I0417 14:40:01.334269  7299 net.cpp:453] loss <- gathered_label_data_1_split_0
I0417 14:40:01.334270  7299 net.cpp:411] loss -> loss
I0417 14:40:01.334273  7299 net.cpp:163] Setting up loss
I0417 14:40:01.334275  7299 layer_factory.hpp:74] Creating layer loss
I0417 14:40:01.334399  7299 net.cpp:170] Top shape: (1)
I0417 14:40:01.334404  7299 net.cpp:172]     with loss weight 1
I0417 14:40:01.334408  7299 layer_factory.hpp:74] Creating layer gather_label_data_1_split_to_accuracy
I0417 14:40:01.334411  7299 net.cpp:133] Creating Layer gather_label_data_1_split_to_accuracy
I0417 14:40:01.334414  7299 net.cpp:453] gather_label_data_1_split_to_accuracy <- label_data_1_split_1
I0417 14:40:01.334416  7299 net.cpp:411] gather_label_data_1_split_to_accuracy -> gathered_label_data_1_split_1
I0417 14:40:01.334419  7299 net.cpp:163] Setting up gather_label_data_1_split_to_accuracy
I0417 14:40:01.334422  7299 net.cpp:170] Top shape: 20 (20)
I0417 14:40:01.334424  7299 layer_factory.hpp:74] Creating layer accuracy
I0417 14:40:01.334427  7299 net.cpp:133] Creating Layer accuracy
I0417 14:40:01.334429  7299 net.cpp:453] accuracy <- fc8_prid_fc8_prid_0_split_1
I0417 14:40:01.334431  7299 net.cpp:453] accuracy <- gathered_label_data_1_split_1
I0417 14:40:01.334434  7299 net.cpp:411] accuracy -> accuracy
I0417 14:40:01.334436  7299 net.cpp:163] Setting up accuracy
…
