…
I0417 13:36:09.303737 15134 net.cpp:330] The NetState phase (0) differed from the phase (1) specified by a rule in layer accuracy
I0417 13:36:09.304831 15134 net.cpp:47] Initializing net from parameters: 
name: "CUHK01"
state {
  phase: TRAIN
}
richness: 1000
layer {
  name: "data"
  type: "Data"
  top: "data"
  top: "label"
  include {
    phase: TRAIN
  }
  transform_param {
    mirror: true
    mean_value: 102
    mean_value: 102
    mean_value: 101
    crop_height: 144
    crop_width: 56
  }
  data_param {
    source: "external/exp/db/cuhk01/train_lmdb"
    batch_size: 50
    backend: LMDB
    shuffle_pool_size: 10
  }
}
layer {
  name: "conv1"
  type: "Convolution"
  bottom: "data"
  top: "conv1"
  param {
    lr_mult: 1
    decay_mult: 1
  }
  param {
    lr_mult: 2
    decay_mult: 0
  }
  convolution_param {
    num_output: 32
    pad: 1
    kernel_size: 3
    stride: 1
    weight_filler {
      type: "xavier"
    }
    bias_filler {
      type: "constant"
      value: 0.2
    }
  }
}
layer {
  name: "conv1_bn"
  type: "BN"
  bottom: "conv1"
  top: "conv1_bn"
  param {
    lr_mult: 1
    decay_mult: 0
  }
  param {
    lr_mult: 1
    decay_mult: 0
  }
  bn_param {
    slope_filler {
      type: "constant"
      value: 1
    }
    bias_filler {
      type: "constant"
      value: 0
    }
  }
}
layer {
  name: "relu1"
  type: "ReLU"
  bottom: "conv1_bn"
  top: "conv1_bn"
}
layer {
  name: "conv2"
  type: "Convolution"
  bottom: "conv1_bn"
  top: "conv2"
  param {
    lr_mult: 1
    decay_mult: 1
  }
  param {
    lr_mult: 2
    decay_mult: 0
  }
  convolution_param {
    num_output: 32
    pad: 1
    kernel_size: 3
    stride: 1
    weight_filler {
      type: "xavier"
    }
    bias_filler {
      type: "constant"
      value: 0.2
    }
  }
}
layer {
  name: "conv2_bn"
  type: "BN"
  bottom: "conv2"
  top: "conv2_bn"
  param {
    lr_mult: 1
    decay_mult: 0
  }
  param {
    lr_mult: 1
    decay_mult: 0
  }
  bn_param {
    slope_filler {
      type: "constant"
      value: 1
    }
    bias_filler {
      type: "constant"
      value: 0
    }
  }
}
layer {
  name: "relu2"
  type: "ReLU"
  bottom: "conv2_bn"
  top: "conv2_bn"
}
layer {
  name: "conv3"
  type: "Convolution"
  bottom: "conv2_bn"
  top: "conv3"
  param {
    lr_mult: 1
    decay_mult: 1
  }
  param {
    lr_mult: 2
    decay_mult: 0
  }
  convolution_param {
    num_output: 32
    pad: 1
    kernel_size: 3
    stride: 1
    weight_filler {
      type: "xavier"
    }
    bias_filler {
      type: "constant"
      value: 0.2
    }
  }
}
layer {
  name: "conv3_bn"
  type: "BN"
  bottom: "conv3"
  top: "conv3_bn"
  param {
    lr_mult: 1
    decay_mult: 0
  }
  param {
    lr_mult: 1
    decay_mult: 0
  }
  bn_param {
    slope_filler {
      type: "constant"
      value: 1
    }
    bias_filler {
      type: "constant"
      value: 0
    }
  }
}
layer {
  name: "relu3"
  type: "ReLU"
  bottom: "conv3_bn"
  top: "conv3_bn"
}
layer {
  name: "pool1"
  type: "Pooling"
  bottom: "conv3_bn"
  top: "pool1"
  pooling_param {
    pool: MAX
    kernel_size: 2
    stride: 2
  }
}
layer {
  name: "inception_1a/1x1"
  type: "Convolution"
  bottom: "pool1"
  top: "inception_1a/1x1"
  param {
    lr_mult: 1
    decay_mult: 1
  }
  param {
    lr_mult: 2
    decay_mult: 0
  }
  convolution_param {
    num_output: 64
    kernel_size: 1
    weight_filler {
      type: "xavier"
    }
    bias_filler {
      type: "constant"
      value: 0.2
    }
  }
}
layer {
  name: "inception_1a/1x1_bn"
  type: "BN"
  bottom: "inception_1a/1x1"
  top: "inception_1a/1x1_bn"
  param {
    lr_mult: 1
    decay_mult: 0
  }
  param {
    lr_mult: 1
    decay_mult: 0
  }
  bn_param {
    slope_filler {
      type: "constant"
      value: 1
    }
    bias_filler {
      type: "constant"
      value: 0
    }
  }
}
layer {
  name: "inception_1a/relu_1x1"
  type: "ReLU"
  bottom: "inception_1a/1x1_bn"
  top: "inception_1a/1x1_bn"
}
layer {
  name: "inception_1a/3x3_reduce"
  type: "Convolution"
  bottom: "pool1"
  top: "inception_1a/3x3_reduce"
  param {
    lr_mult: 1
    decay_mult: 1
  }
  param {
    lr_mult: 2
    decay_mult: 0
  }
  convolution_param {
    num_output: 64
    kernel_size: 1
    weight_filler {
      type: "xavier"
    }
    bias_filler {
      type: "constant"
      value: 0.2
    }
  }
}
layer {
  name: "inception_1a/3x3_reduce_bn"
  type: "BN"
  bottom: "inception_1a/3x3_reduce"
  top: "inception_1a/3x3_reduce_bn"
  param {
    lr_mult: 1
    decay_mult: 0
  }
  param {
    lr_mult: 1
    decay_mult: 0
  }
  bn_param {
    slope_filler {
      type: "constant"
      value: 1
    }
    bias_filler {
      type: "constant"
      value: 0
    }
  }
}
layer {
  name: "inception_1a/relu_3x3_reduce"
  type: "ReLU"
  bottom: "inception_1a/3x3_reduce_bn"
  top: "inception_1a/3x3_reduce_bn"
}
layer {
  name: "inception_1a/3x3"
  type: "Convolution"
  bottom: "inception_1a/3x3_reduce_bn"
  top: "inception_1a/3x3"
  param {
    lr_mult: 1
    decay_mult: 1
  }
  param {
    lr_mult: 2
    decay_mult: 0
  }
  convolution_param {
    num_output: 64
    pad: 1
    kernel_size: 3
    weight_filler {
      type: "xavier"
    }
    bias_filler {
      type: "constant"
      value: 0.2
    }
  }
}
layer {
  name: "inception_1a/3x3_bn"
  type: "BN"
  bottom: "inception_1a/3x3"
  top: "inception_1a/3x3_bn"
  param {
    lr_mult: 1
    decay_mult: 0
  }
  param {
    lr_mult: 1
    decay_mult: 0
  }
  bn_param {
    slope_filler {
      type: "constant"
      value: 1
    }
    bias_filler {
      type: "constant"
      value: 0
    }
  }
}
layer {
  name: "inception_1a/relu_3x3"
  type: "ReLU"
  bottom: "inception_1a/3x3_bn"
  top: "inception_1a/3x3_bn"
}
layer {
  name: "inception_1a/double_3x3_reduce"
  type: "Convolution"
  bottom: "pool1"
  top: "inception_1a/double_3x3_reduce"
  param {
    lr_mult: 1
    decay_mult: 1
  }
  param {
    lr_mult: 2
    decay_mult: 0
  }
  convolution_param {
    num_output: 64
    kernel_size: 1
    weight_filler {
      type: "xavier"
    }
    bias_filler {
      type: "constant"
      value: 0.2
    }
  }
}
layer {
  name: "inception_1a/double_3x3_reduce_bn"
  type: "BN"
  bottom: "inception_1a/double_3x3_reduce"
  top: "inception_1a/double_3x3_reduce_bn"
  param {
    lr_mult: 1
    decay_mult: 0
  }
  param {
    lr_mult: 1
    decay_mult: 0
  }
  bn_param {
    slope_filler {
      type: "constant"
      value: 1
    }
    bias_filler {
      type: "constant"
      value: 0
    }
  }
}
layer {
  name: "inception_1a/relu_double_3x3_reduce"
  type: "ReLU"
  bottom: "inception_1a/double_3x3_reduce_bn"
  top: "inception_1a/double_3x3_reduce_bn"
}
layer {
  name: "inception_1a/double_3x3_1"
  type: "Convolution"
  bottom: "inception_1a/double_3x3_reduce_bn"
  top: "inception_1a/double_3x3_1"
  param {
    lr_mult: 1
    decay_mult: 1
  }
  param {
    lr_mult: 2
    decay_mult: 0
  }
  convolution_param {
    num_output: 64
    pad: 1
    kernel_size: 3
    weight_filler {
      type: "xavier"
    }
    bias_filler {
      type: "constant"
      value: 0.2
    }
  }
}
layer {
  name: "inception_1a/double_3x3_1_bn"
  type: "BN"
  bottom: "inception_1a/double_3x3_1"
  top: "inception_1a/double_3x3_1_bn"
  param {
    lr_mult: 1
    decay_mult: 0
  }
  param {
    lr_mult: 1
    decay_mult: 0
  }
  bn_param {
    slope_filler {
      type: "constant"
      value: 1
    }
    bias_filler {
      type: "constant"
      value: 0
    }
  }
}
layer {
  name: "inception_1a/relu_double_3x3_1"
  type: "ReLU"
  bottom: "inception_1a/double_3x3_1_bn"
  top: "inception_1a/double_3x3_1_bn"
}
layer {
  name: "inception_1a/double_3x3_2"
  type: "Convolution"
  bottom: "inception_1a/double_3x3_1_bn"
  top: "inception_1a/double_3x3_2"
  param {
    lr_mult: 1
    decay_mult: 1
  }
  param {
    lr_mult: 2
    decay_mult: 0
  }
  convolution_param {
    num_output: 64
    pad: 1
    kernel_size: 3
    weight_filler {
      type: "xavier"
    }
    bias_filler {
      type: "constant"
      value: 0.2
    }
  }
}
layer {
  name: "inception_1a/double_3x3_2_bn"
  type: "BN"
  bottom: "inception_1a/double_3x3_2"
  top: "inception_1a/double_3x3_2_bn"
  param {
    lr_mult: 1
    decay_mult: 0
  }
  param {
    lr_mult: 1
    decay_mult: 0
  }
  bn_param {
    slope_filler {
      type: "constant"
      value: 1
    }
    bias_filler {
      type: "constant"
      value: 0
    }
  }
}
layer {
  name: "inception_1a/relu_double_3x3_2"
  type: "ReLU"
  bottom: "inception_1a/double_3x3_2_bn"
  top: "inception_1a/double_3x3_2_bn"
}
layer {
  name: "inception_1a/pool"
  type: "Pooling"
  bottom: "pool1"
  top: "inception_1a/pool"
  pooling_param {
    pool: AVE
    kernel_size: 3
    stride: 1
    pad: 1
  }
}
layer {
  name: "inception_1a/pool_proj"
  type: "Convolution"
  bottom: "inception_1a/pool"
  top: "inception_1a/pool_proj"
  param {
    lr_mult: 1
    decay_mult: 1
  }
  param {
    lr_mult: 2
    decay_mult: 0
  }
  convolution_param {
    num_output: 64
    kernel_size: 1
    weight_filler {
      type: "xavier"
    }
    bias_filler {
      type: "constant"
      value: 0.2
    }
  }
}
layer {
  name: "inception_1a/pool_proj_bn"
  type: "BN"
  bottom: "inception_1a/pool_proj"
  top: "inception_1a/pool_proj_bn"
  param {
    lr_mult: 1
    decay_mult: 0
  }
  param {
    lr_mult: 1
    decay_mult: 0
  }
  bn_param {
    slope_filler {
      type: "constant"
      value: 1
    }
    bias_filler {
      type: "constant"
      value: 0
    }
  }
}
layer {
  name: "inception_1a/relu_pool_proj"
  type: "ReLU"
  bottom: "inception_1a/pool_proj_bn"
  top: "inception_1a/pool_proj_bn"
}
layer {
  name: "inception_1a/output"
  type: "Concat"
  bottom: "inception_1a/1x1_bn"
  bottom: "inception_1a/3x3_bn"
  bottom: "inception_1a/double_3x3_2_bn"
  bottom: "inception_1a/pool_proj_bn"
  top: "inception_1a/output"
}
layer {
  name: "inception_1b/3x3_reduce"
  type: "Convolution"
  bottom: "inception_1a/output"
  top: "inception_1b/3x3_reduce"
  param {
    lr_mult: 1
    decay_mult: 1
  }
  param {
    lr_mult: 2
    decay_mult: 0
  }
  convolution_param {
    num_output: 64
    kernel_size: 1
    weight_filler {
      type: "xavier"
    }
    bias_filler {
      type: "constant"
      value: 0.2
    }
  }
}
layer {
  name: "inception_1b/3x3_reduce_bn"
  type: "BN"
  bottom: "inception_1b/3x3_reduce"
  top: "inception_1b/3x3_reduce_bn"
  param {
    lr_mult: 1
    decay_mult: 0
  }
  param {
    lr_mult: 1
    decay_mult: 0
  }
  bn_param {
    slope_filler {
      type: "constant"
      value: 1
    }
    bias_filler {
      type: "constant"
      value: 0
    }
  }
}
layer {
  name: "inception_1b/relu_3x3_reduce"
  type: "ReLU"
  bottom: "inception_1b/3x3_reduce_bn"
  top: "inception_1b/3x3_reduce_bn"
}
layer {
  name: "inception_1b/3x3"
  type: "Convolution"
  bottom: "inception_1b/3x3_reduce_bn"
  top: "inception_1b/3x3"
  param {
    lr_mult: 1
    decay_mult: 1
  }
  param {
    lr_mult: 2
    decay_mult: 0
  }
  convolution_param {
    num_output: 64
    pad: 1
    kernel_size: 3
    stride: 2
    weight_filler {
      type: "xavier"
    }
    bias_filler {
      type: "constant"
      value: 0.2
    }
  }
}
layer {
  name: "inception_1b/3x3_bn"
  type: "BN"
  bottom: "inception_1b/3x3"
  top: "inception_1b/3x3_bn"
  param {
    lr_mult: 1
    decay_mult: 0
  }
  param {
    lr_mult: 1
    decay_mult: 0
  }
  bn_param {
    slope_filler {
      type: "constant"
      value: 1
    }
    bias_filler {
      type: "constant"
      value: 0
    }
  }
}
layer {
  name: "inception_1b/relu_3x3"
  type: "ReLU"
  bottom: "inception_1b/3x3_bn"
  top: "inception_1b/3x3_bn"
}
layer {
  name: "inception_1b/double_3x3_reduce"
  type: "Convolution"
  bottom: "inception_1a/output"
  top: "inception_1b/double_3x3_reduce"
  param {
    lr_mult: 1
    decay_mult: 1
  }
  param {
    lr_mult: 2
    decay_mult: 0
  }
  convolution_param {
    num_output: 64
    kernel_size: 1
    weight_filler {
      type: "xavier"
    }
    bias_filler {
      type: "constant"
      value: 0.2
    }
  }
}
layer {
  name: "inception_1b/double_3x3_reduce_bn"
  type: "BN"
  bottom: "inception_1b/double_3x3_reduce"
  top: "inception_1b/double_3x3_reduce_bn"
  param {
    lr_mult: 1
    decay_mult: 0
  }
  param {
    lr_mult: 1
    decay_mult: 0
  }
  bn_param {
    slope_filler {
      type: "constant"
      value: 1
    }
    bias_filler {
      type: "constant"
      value: 0
    }
  }
}
layer {
  name: "inception_1b/relu_double_3x3_reduce"
  type: "ReLU"
  bottom: "inception_1b/double_3x3_reduce_bn"
  top: "inception_1b/double_3x3_reduce_bn"
}
layer {
  name: "inception_1b/double_3x3_1"
  type: "Convolution"
  bottom: "inception_1b/double_3x3_reduce_bn"
  top: "inception_1b/double_3x3_1"
  param {
    lr_mult: 1
    decay_mult: 1
  }
  param {
    lr_mult: 2
    decay_mult: 0
  }
  convolution_param {
    num_output: 64
    pad: 1
    kernel_size: 3
    weight_filler {
      type: "xavier"
    }
    bias_filler {
      type: "constant"
      value: 0.2
    }
  }
}
layer {
  name: "inception_1b/double_3x3_1_bn"
  type: "BN"
  bottom: "inception_1b/double_3x3_1"
  top: "inception_1b/double_3x3_1_bn"
  param {
    lr_mult: 1
    decay_mult: 0
  }
  param {
    lr_mult: 1
    decay_mult: 0
  }
  bn_param {
    slope_filler {
      type: "constant"
      value: 1
    }
    bias_filler {
      type: "constant"
      value: 0
    }
  }
}
layer {
  name: "inception_1b/relu_double_3x3_1"
  type: "ReLU"
  bottom: "inception_1b/double_3x3_1_bn"
  top: "inception_1b/double_3x3_1_bn"
}
layer {
  name: "inception_1b/double_3x3_2"
  type: "Convolution"
  bottom: "inception_1b/double_3x3_1_bn"
  top: "inception_1b/double_3x3_2"
  param {
    lr_mult: 1
    decay_mult: 1
  }
  param {
    lr_mult: 2
    decay_mult: 0
  }
  convolution_param {
    num_output: 64
    pad: 1
    kernel_size: 3
    stride: 2
    weight_filler {
      type: "xavier"
    }
    bias_filler {
      type: "constant"
      value: 0.2
    }
  }
}
layer {
  name: "inception_1b/double_3x3_2_bn"
  type: "BN"
  bottom: "inception_1b/double_3x3_2"
  top: "inception_1b/double_3x3_2_bn"
  param {
    lr_mult: 1
    decay_mult: 0
  }
  param {
    lr_mult: 1
    decay_mult: 0
  }
  bn_param {
    slope_filler {
      type: "constant"
      value: 1
    }
    bias_filler {
      type: "constant"
      value: 0
    }
  }
}
layer {
  name: "inception_1b/relu_double_3x3_2"
  type: "ReLU"
  bottom: "inception_1b/double_3x3_2_bn"
  top: "inception_1b/double_3x3_2_bn"
}
layer {
  name: "inception_1b/pool"
  type: "Pooling"
  bottom: "inception_1a/output"
  top: "inception_1b/pool"
  pooling_param {
    pool: MAX
    kernel_size: 3
    stride: 2
  }
}
layer {
  name: "inception_1b/output"
  type: "Concat"
  bottom: "inception_1b/3x3_bn"
  bottom: "inception_1b/double_3x3_2_bn"
  bottom: "inception_1b/pool"
  top: "inception_1b/output"
}
layer {
  name: "inception_2a/1x1"
  type: "Convolution"
  bottom: "inception_1b/output"
  top: "inception_2a/1x1"
  param {
    lr_mult: 1
    decay_mult: 1
  }
  param {
    lr_mult: 2
    decay_mult: 0
  }
  convolution_param {
    num_output: 128
    kernel_size: 1
    weight_filler {
      type: "xavier"
    }
    bias_filler {
      type: "constant"
      value: 0.2
    }
  }
}
layer {
  name: "inception_2a/1x1_bn"
  type: "BN"
  bottom: "inception_2a/1x1"
  top: "inception_2a/1x1_bn"
  param {
    lr_mult: 1
    decay_mult: 0
  }
  param {
    lr_mult: 1
    decay_mult: 0
  }
  bn_param {
    slope_filler {
      type: "constant"
      value: 1
    }
    bias_filler {
      type: "constant"
      value: 0
    }
  }
}
layer {
  name: "inception_2a/relu_1x1"
  type: "ReLU"
  bottom: "inception_2a/1x1_bn"
  top: "inception_2a/1x1_bn"
}
layer {
  name: "inception_2a/3x3_reduce"
  type: "Convolution"
  bottom: "inception_1b/output"
  top: "inception_2a/3x3_reduce"
  param {
    lr_mult: 1
    decay_mult: 1
  }
  param {
    lr_mult: 2
    decay_mult: 0
  }
  convolution_param {
    num_output: 128
    kernel_size: 1
    weight_filler {
      type: "xavier"
    }
    bias_filler {
      type: "constant"
      value: 0.2
    }
  }
}
layer {
  name: "inception_2a/3x3_reduce_bn"
  type: "BN"
  bottom: "inception_2a/3x3_reduce"
  top: "inception_2a/3x3_reduce_bn"
  param {
    lr_mult: 1
    decay_mult: 0
  }
  param {
    lr_mult: 1
    decay_mult: 0
  }
  bn_param {
    slope_filler {
      type: "constant"
      value: 1
    }
    bias_filler {
      type: "constant"
      value: 0
    }
  }
}
layer {
  name: "inception_2a/relu_3x3_reduce"
  type: "ReLU"
  bottom: "inception_2a/3x3_reduce_bn"
  top: "inception_2a/3x3_reduce_bn"
}
layer {
  name: "inception_2a/3x3"
  type: "Convolution"
  bottom: "inception_2a/3x3_reduce_bn"
  top: "inception_2a/3x3"
  param {
    lr_mult: 1
    decay_mult: 1
  }
  param {
    lr_mult: 2
    decay_mult: 0
  }
  convolution_param {
    num_output: 128
    pad: 1
    kernel_size: 3
    weight_filler {
      type: "xavier"
    }
    bias_filler {
      type: "constant"
      value: 0.2
    }
  }
}
layer {
  name: "inception_2a/3x3_bn"
  type: "BN"
  bottom: "inception_2a/3x3"
  top: "inception_2a/3x3_bn"
  param {
    lr_mult: 1
    decay_mult: 0
  }
  param {
    lr_mult: 1
    decay_mult: 0
  }
  bn_param {
    slope_filler {
      type: "constant"
      value: 1
    }
    bias_filler {
      type: "constant"
      value: 0
    }
  }
}
layer {
  name: "inception_2a/relu_3x3"
  type: "ReLU"
  bottom: "inception_2a/3x3_bn"
  top: "inception_2a/3x3_bn"
}
layer {
  name: "inception_2a/double_3x3_reduce"
  type: "Convolution"
  bottom: "inception_1b/output"
  top: "inception_2a/double_3x3_reduce"
  param {
    lr_mult: 1
    decay_mult: 1
  }
  param {
    lr_mult: 2
    decay_mult: 0
  }
  convolution_param {
    num_output: 128
    kernel_size: 1
    weight_filler {
      type: "xavier"
    }
    bias_filler {
      type: "constant"
      value: 0.2
    }
  }
}
layer {
  name: "inception_2a/double_3x3_reduce_bn"
  type: "BN"
  bottom: "inception_2a/double_3x3_reduce"
  top: "inception_2a/double_3x3_reduce_bn"
  param {
    lr_mult: 1
    decay_mult: 0
  }
  param {
    lr_mult: 1
    decay_mult: 0
  }
  bn_param {
    slope_filler {
      type: "constant"
      value: 1
    }
    bias_filler {
      type: "constant"
      value: 0
    }
  }
}
layer {
  name: "inception_2a/relu_double_3x3_reduce"
  type: "ReLU"
  bottom: "inception_2a/double_3x3_reduce_bn"
  top: "inception_2a/double_3x3_reduce_bn"
}
layer {
  name: "inception_2a/double_3x3_1"
  type: "Convolution"
  bottom: "inception_2a/double_3x3_reduce_bn"
  top: "inception_2a/double_3x3_1"
  param {
    lr_mult: 1
    decay_mult: 1
  }
  param {
    lr_mult: 2
    decay_mult: 0
  }
  convolution_param {
    num_output: 128
    pad: 1
    kernel_size: 3
    weight_filler {
      type: "xavier"
    }
    bias_filler {
      type: "constant"
      value: 0.2
    }
  }
}
layer {
  name: "inception_2a/double_3x3_1_bn"
  type: "BN"
  bottom: "inception_2a/double_3x3_1"
  top: "inception_2a/double_3x3_1_bn"
  param {
    lr_mult: 1
    decay_mult: 0
  }
  param {
    lr_mult: 1
    decay_mult: 0
  }
  bn_param {
    slope_filler {
      type: "constant"
      value: 1
    }
    bias_filler {
      type: "constant"
      value: 0
    }
  }
}
layer {
  name: "inception_2a/relu_double_3x3_1"
  type: "ReLU"
  bottom: "inception_2a/double_3x3_1_bn"
  top: "inception_2a/double_3x3_1_bn"
}
layer {
  name: "inception_2a/double_3x3_2"
  type: "Convolution"
  bottom: "inception_2a/double_3x3_1_bn"
  top: "inception_2a/double_3x3_2"
  param {
    lr_mult: 1
    decay_mult: 1
  }
  param {
    lr_mult: 2
    decay_mult: 0
  }
  convolution_param {
    num_output: 128
    pad: 1
    kernel_size: 3
    weight_filler {
      type: "xavier"
    }
    bias_filler {
      type: "constant"
      value: 0.2
    }
  }
}
layer {
  name: "inception_2a/double_3x3_2_bn"
  type: "BN"
  bottom: "inception_2a/double_3x3_2"
  top: "inception_2a/double_3x3_2_bn"
  param {
    lr_mult: 1
    decay_mult: 0
  }
  param {
    lr_mult: 1
    decay_mult: 0
  }
  bn_param {
    slope_filler {
      type: "constant"
      value: 1
    }
    bias_filler {
      type: "constant"
      value: 0
    }
  }
}
layer {
  name: "inception_2a/relu_double_3x3_2"
  type: "ReLU"
  bottom: "inception_2a/double_3x3_2_bn"
  top: "inception_2a/double_3x3_2_bn"
}
layer {
  name: "inception_2a/pool"
  type: "Pooling"
  bottom: "inception_1b/output"
  top: "inception_2a/pool"
  pooling_param {
    pool: AVE
    kernel_size: 3
    stride: 1
    pad: 1
  }
}
layer {
  name: "inception_2a/pool_proj"
  type: "Convolution"
  bottom: "inception_2a/pool"
  top: "inception_2a/pool_proj"
  param {
    lr_mult: 1
    decay_mult: 1
  }
  param {
    lr_mult: 2
    decay_mult: 0
  }
  convolution_param {
    num_output: 128
    kernel_size: 1
    weight_filler {
      type: "xavier"
    }
    bias_filler {
      type: "constant"
      value: 0.2
    }
  }
}
layer {
  name: "inception_2a/pool_proj_bn"
  type: "BN"
  bottom: "inception_2a/pool_proj"
  top: "inception_2a/pool_proj_bn"
  param {
    lr_mult: 1
    decay_mult: 0
  }
  param {
    lr_mult: 1
    decay_mult: 0
  }
  bn_param {
    slope_filler {
      type: "constant"
      value: 1
    }
    bias_filler {
      type: "constant"
      value: 0
    }
  }
}
layer {
  name: "inception_2a/relu_pool_proj"
  type: "ReLU"
  bottom: "inception_2a/pool_proj_bn"
  top: "inception_2a/pool_proj_bn"
}
layer {
  name: "inception_2a/output"
  type: "Concat"
  bottom: "inception_2a/1x1_bn"
  bottom: "inception_2a/3x3_bn"
  bottom: "inception_2a/double_3x3_2_bn"
  bottom: "inception_2a/pool_proj_bn"
  top: "inception_2a/output"
}
layer {
  name: "inception_2b/3x3_reduce"
  type: "Convolution"
  bottom: "inception_2a/output"
  top: "inception_2b/3x3_reduce"
  param {
    lr_mult: 1
    decay_mult: 1
  }
  param {
    lr_mult: 2
    decay_mult: 0
  }
  convolution_param {
    num_output: 128
    kernel_size: 1
    weight_filler {
      type: "xavier"
    }
    bias_filler {
      type: "constant"
      value: 0.2
    }
  }
}
layer {
  name: "inception_2b/3x3_reduce_bn"
  type: "BN"
  bottom: "inception_2b/3x3_reduce"
  top: "inception_2b/3x3_reduce_bn"
  param {
    lr_mult: 1
    decay_mult: 0
  }
  param {
    lr_mult: 1
    decay_mult: 0
  }
  bn_param {
    slope_filler {
      type: "constant"
      value: 1
    }
    bias_filler {
      type: "constant"
      value: 0
    }
  }
}
layer {
  name: "inception_2b/relu_3x3_reduce"
  type: "ReLU"
  bottom: "inception_2b/3x3_reduce_bn"
  top: "inception_2b/3x3_reduce_bn"
}
layer {
  name: "inception_2b/3x3"
  type: "Convolution"
  bottom: "inception_2b/3x3_reduce_bn"
  top: "inception_2b/3x3"
  param {
    lr_mult: 1
    decay_mult: 1
  }
  param {
    lr_mult: 2
    decay_mult: 0
  }
  convolution_param {
    num_output: 128
    pad: 1
    kernel_size: 3
    stride: 2
    weight_filler {
      type: "xavier"
    }
    bias_filler {
      type: "constant"
      value: 0.2
    }
  }
}
layer {
  name: "inception_2b/3x3_bn"
  type: "BN"
  bottom: "inception_2b/3x3"
  top: "inception_2b/3x3_bn"
  param {
    lr_mult: 1
    decay_mult: 0
  }
  param {
    lr_mult: 1
    decay_mult: 0
  }
  bn_param {
    slope_filler {
      type: "constant"
      value: 1
    }
    bias_filler {
      type: "constant"
      value: 0
    }
  }
}
layer {
  name: "inception_2b/relu_3x3"
  type: "ReLU"
  bottom: "inception_2b/3x3_bn"
  top: "inception_2b/3x3_bn"
}
layer {
  name: "inception_2b/double_3x3_reduce"
  type: "Convolution"
  bottom: "inception_2a/output"
  top: "inception_2b/double_3x3_reduce"
  param {
    lr_mult: 1
    decay_mult: 1
  }
  param {
    lr_mult: 2
    decay_mult: 0
  }
  convolution_param {
    num_output: 128
    kernel_size: 1
    weight_filler {
      type: "xavier"
    }
    bias_filler {
      type: "constant"
      value: 0.2
    }
  }
}
layer {
  name: "inception_2b/double_3x3_reduce_bn"
  type: "BN"
  bottom: "inception_2b/double_3x3_reduce"
  top: "inception_2b/double_3x3_reduce_bn"
  param {
    lr_mult: 1
    decay_mult: 0
  }
  param {
    lr_mult: 1
    decay_mult: 0
  }
  bn_param {
    slope_filler {
      type: "constant"
      value: 1
    }
    bias_filler {
      type: "constant"
      value: 0
    }
  }
}
layer {
  name: "inception_2b/relu_double_3x3_reduce"
  type: "ReLU"
  bottom: "inception_2b/double_3x3_reduce_bn"
  top: "inception_2b/double_3x3_reduce_bn"
}
layer {
  name: "inception_2b/double_3x3_1"
  type: "Convolution"
  bottom: "inception_2b/double_3x3_reduce_bn"
  top: "inception_2b/double_3x3_1"
  param {
    lr_mult: 1
    decay_mult: 1
  }
  param {
    lr_mult: 2
    decay_mult: 0
  }
  convolution_param {
    num_output: 128
    pad: 1
    kernel_size: 3
    weight_filler {
      type: "xavier"
    }
    bias_filler {
      type: "constant"
      value: 0.2
    }
  }
}
layer {
  name: "inception_2b/double_3x3_1_bn"
  type: "BN"
  bottom: "inception_2b/double_3x3_1"
  top: "inception_2b/double_3x3_1_bn"
  param {
    lr_mult: 1
    decay_mult: 0
  }
  param {
    lr_mult: 1
    decay_mult: 0
  }
  bn_param {
    slope_filler {
      type: "constant"
      value: 1
    }
    bias_filler {
      type: "constant"
      value: 0
    }
  }
}
layer {
  name: "inception_2b/relu_double_3x3_1"
  type: "ReLU"
  bottom: "inception_2b/double_3x3_1_bn"
  top: "inception_2b/double_3x3_1_bn"
}
layer {
  name: "inception_2b/double_3x3_2"
  type: "Convolution"
  bottom: "inception_2b/double_3x3_1_bn"
  top: "inception_2b/double_3x3_2"
  param {
    lr_mult: 1
    decay_mult: 1
  }
  param {
    lr_mult: 2
    decay_mult: 0
  }
  convolution_param {
    num_output: 128
    pad: 1
    kernel_size: 3
    stride: 2
    weight_filler {
      type: "xavier"
    }
    bias_filler {
      type: "constant"
      value: 0.2
    }
  }
}
layer {
  name: "inception_2b/double_3x3_2_bn"
  type: "BN"
  bottom: "inception_2b/double_3x3_2"
  top: "inception_2b/double_3x3_2_bn"
  param {
    lr_mult: 1
    decay_mult: 0
  }
  param {
    lr_mult: 1
    decay_mult: 0
  }
  bn_param {
    slope_filler {
      type: "constant"
      value: 1
    }
    bias_filler {
      type: "constant"
      value: 0
    }
  }
}
layer {
  name: "inception_2b/relu_double_3x3_2"
  type: "ReLU"
  bottom: "inception_2b/double_3x3_2_bn"
  top: "inception_2b/double_3x3_2_bn"
}
layer {
  name: "inception_2b/pool"
  type: "Pooling"
  bottom: "inception_2a/output"
  top: "inception_2b/pool"
  pooling_param {
    pool: MAX
    kernel_size: 3
    stride: 2
  }
}
layer {
  name: "inception_2b/output"
  type: "Concat"
  bottom: "inception_2b/3x3_bn"
  bottom: "inception_2b/double_3x3_2_bn"
  bottom: "inception_2b/pool"
  top: "inception_2b/output"
}
layer {
  name: "inception_3a/1x1"
  type: "Convolution"
  bottom: "inception_2b/output"
  top: "inception_3a/1x1"
  param {
    lr_mult: 1
    decay_mult: 1
  }
  param {
    lr_mult: 2
    decay_mult: 0
  }
  convolution_param {
    num_output: 256
    kernel_size: 1
    weight_filler {
      type: "xavier"
    }
    bias_filler {
      type: "constant"
      value: 0.2
    }
  }
}
layer {
  name: "inception_3a/1x1_bn"
  type: "BN"
  bottom: "inception_3a/1x1"
  top: "inception_3a/1x1_bn"
  param {
    lr_mult: 1
    decay_mult: 0
  }
  param {
    lr_mult: 1
    decay_mult: 0
  }
  bn_param {
    slope_filler {
      type: "constant"
      value: 1
    }
    bias_filler {
      type: "constant"
      value: 0
    }
  }
}
layer {
  name: "inception_3a/relu_1x1"
  type: "ReLU"
  bottom: "inception_3a/1x1_bn"
  top: "inception_3a/1x1_bn"
}
layer {
  name: "inception_3a/3x3_reduce"
  type: "Convolution"
  bottom: "inception_2b/output"
  top: "inception_3a/3x3_reduce"
  param {
    lr_mult: 1
    decay_mult: 1
  }
  param {
    lr_mult: 2
    decay_mult: 0
  }
  convolution_param {
    num_output: 256
    kernel_size: 1
    weight_filler {
      type: "xavier"
    }
    bias_filler {
      type: "constant"
      value: 0.2
    }
  }
}
layer {
  name: "inception_3a/3x3_reduce_bn"
  type: "BN"
  bottom: "inception_3a/3x3_reduce"
  top: "inception_3a/3x3_reduce_bn"
  param {
    lr_mult: 1
    decay_mult: 0
  }
  param {
    lr_mult: 1
    decay_mult: 0
  }
  bn_param {
    slope_filler {
      type: "constant"
      value: 1
    }
    bias_filler {
      type: "constant"
      value: 0
    }
  }
}
layer {
  name: "inception_3a/relu_3x3_reduce"
  type: "ReLU"
  bottom: "inception_3a/3x3_reduce_bn"
  top: "inception_3a/3x3_reduce_bn"
}
layer {
  name: "inception_3a/3x3"
  type: "Convolution"
  bottom: "inception_3a/3x3_reduce_bn"
  top: "inception_3a/3x3"
  param {
    lr_mult: 1
    decay_mult: 1
  }
  param {
    lr_mult: 2
    decay_mult: 0
  }
  convolution_param {
    num_output: 256
    pad: 1
    kernel_size: 3
    weight_filler {
      type: "xavier"
    }
    bias_filler {
      type: "constant"
      value: 0.2
    }
  }
}
layer {
  name: "inception_3a/3x3_bn"
  type: "BN"
  bottom: "inception_3a/3x3"
  top: "inception_3a/3x3_bn"
  param {
    lr_mult: 1
    decay_mult: 0
  }
  param {
    lr_mult: 1
    decay_mult: 0
  }
  bn_param {
    slope_filler {
      type: "constant"
      value: 1
    }
    bias_filler {
      type: "constant"
      value: 0
    }
  }
}
layer {
  name: "inception_3a/relu_3x3"
  type: "ReLU"
  bottom: "inception_3a/3x3_bn"
  top: "inception_3a/3x3_bn"
}
layer {
  name: "inception_3a/double_3x3_reduce"
  type: "Convolution"
  bottom: "inception_2b/output"
  top: "inception_3a/double_3x3_reduce"
  param {
    lr_mult: 1
    decay_mult: 1
  }
  param {
    lr_mult: 2
    decay_mult: 0
  }
  convolution_param {
    num_output: 256
    kernel_size: 1
    weight_filler {
      type: "xavier"
    }
    bias_filler {
      type: "constant"
      value: 0.2
    }
  }
}
layer {
  name: "inception_3a/double_3x3_reduce_bn"
  type: "BN"
  bottom: "inception_3a/double_3x3_reduce"
  top: "inception_3a/double_3x3_reduce_bn"
  param {
    lr_mult: 1
    decay_mult: 0
  }
  param {
    lr_mult: 1
    decay_mult: 0
  }
  bn_param {
    slope_filler {
      type: "constant"
      value: 1
    }
    bias_filler {
      type: "constant"
     
I0417 13:36:09.306373 15134 layer_factory.hpp:74] Creating layer data
I0417 13:36:09.306401 15134 net.cpp:133] Creating Layer data
I0417 13:36:09.306406 15134 net.cpp:411] data -> data
I0417 13:36:09.306416 15134 net.cpp:411] data -> label
I0417 13:36:09.306421 15134 net.cpp:163] Setting up data
I0417 13:36:09.306728 15134 db_lmdb.cpp:22] Opened lmdb external/exp/db/cuhk01/train_lmdb
I0417 13:36:09.306798 15134 data_layer.cpp:55] Skipping first 0 data points.
I0417 13:36:09.306818 15134 data_layer.cpp:100] output data size: 25,3,144,56
I0417 13:36:09.306879 15134 net.cpp:170] Top shape: 25 3 144 56 (604800)
I0417 13:36:09.307368 15134 net.cpp:170] Top shape: 25 (25)
I0417 13:36:09.307382 15134 layer_factory.hpp:74] Creating layer conv1
I0417 13:36:09.307396 15134 net.cpp:133] Creating Layer conv1
I0417 13:36:09.307402 15134 net.cpp:453] conv1 <- data
I0417 13:36:09.307415 15134 net.cpp:411] conv1 -> conv1
I0417 13:36:09.307425 15134 net.cpp:163] Setting up conv1
I0417 13:36:09.472014 15134 net.cpp:170] Top shape: 25 32 144 56 (6451200)
I0417 13:36:09.472054 15134 layer_factory.hpp:74] Creating layer conv1_bn
I0417 13:36:09.472059 15134 layer_factory.cpp:191] Layer conv1_bn is using CAFFE engine.
I0417 13:36:09.472069 15134 net.cpp:133] Creating Layer conv1_bn
I0417 13:36:09.472072 15134 net.cpp:453] conv1_bn <- conv1
I0417 13:36:09.472079 15134 net.cpp:411] conv1_bn -> conv1_bn
I0417 13:36:09.472085 15134 net.cpp:163] Setting up conv1_bn
I0417 13:36:09.472110 15134 net.cpp:170] Top shape: 25 32 144 56 (6451200)
I0417 13:36:09.472134 15134 layer_factory.hpp:74] Creating layer relu1
I0417 13:36:09.472139 15134 net.cpp:133] Creating Layer relu1
I0417 13:36:09.472141 15134 net.cpp:453] relu1 <- conv1_bn
I0417 13:36:09.472144 15134 net.cpp:400] relu1 -> conv1_bn (in-place)
I0417 13:36:09.472151 15134 net.cpp:163] Setting up relu1
I0417 13:36:09.472290 15134 net.cpp:170] Top shape: 25 32 144 56 (6451200)
I0417 13:36:09.472298 15134 layer_factory.hpp:74] Creating layer conv2
I0417 13:36:09.472307 15134 net.cpp:133] Creating Layer conv2
I0417 13:36:09.472311 15134 net.cpp:453] conv2 <- conv1_bn
I0417 13:36:09.472316 15134 net.cpp:411] conv2 -> conv2
I0417 13:36:09.472322 15134 net.cpp:163] Setting up conv2
I0417 13:36:09.636467 15134 net.cpp:170] Top shape: 25 32 144 56 (6451200)
I0417 13:36:09.636484 15134 layer_factory.hpp:74] Creating layer conv2_bn
I0417 13:36:09.636487 15134 layer_factory.cpp:191] Layer conv2_bn is using CAFFE engine.
I0417 13:36:09.636492 15134 net.cpp:133] Creating Layer conv2_bn
I0417 13:36:09.636495 15134 net.cpp:453] conv2_bn <- conv2
I0417 13:36:09.636500 15134 net.cpp:411] conv2_bn -> conv2_bn
I0417 13:36:09.636505 15134 net.cpp:163] Setting up conv2_bn
I0417 13:36:09.636519 15134 net.cpp:170] Top shape: 25 32 144 56 (6451200)
I0417 13:36:09.636526 15134 layer_factory.hpp:74] Creating layer relu2
I0417 13:36:09.636530 15134 net.cpp:133] Creating Layer relu2
I0417 13:36:09.636531 15134 net.cpp:453] relu2 <- conv2_bn
I0417 13:36:09.636534 15134 net.cpp:400] relu2 -> conv2_bn (in-place)
I0417 13:36:09.636538 15134 net.cpp:163] Setting up relu2
I0417 13:36:09.636718 15134 net.cpp:170] Top shape: 25 32 144 56 (6451200)
I0417 13:36:09.636723 15134 layer_factory.hpp:74] Creating layer conv3
I0417 13:36:09.636729 15134 net.cpp:133] Creating Layer conv3
I0417 13:36:09.636730 15134 net.cpp:453] conv3 <- conv2_bn
I0417 13:36:09.636734 15134 net.cpp:411] conv3 -> conv3
I0417 13:36:09.636737 15134 net.cpp:163] Setting up conv3
I0417 13:36:09.793366 15134 net.cpp:170] Top shape: 25 32 144 56 (6451200)
I0417 13:36:09.793377 15134 layer_factory.hpp:74] Creating layer conv3_bn
I0417 13:36:09.793380 15134 layer_factory.cpp:191] Layer conv3_bn is using CAFFE engine.
I0417 13:36:09.793385 15134 net.cpp:133] Creating Layer conv3_bn
I0417 13:36:09.793386 15134 net.cpp:453] conv3_bn <- conv3
I0417 13:36:09.793390 15134 net.cpp:411] conv3_bn -> conv3_bn
I0417 13:36:09.793395 15134 net.cpp:163] Setting up conv3_bn
I0417 13:36:09.793413 15134 net.cpp:170] Top shape: 25 32 144 56 (6451200)
I0417 13:36:09.793421 15134 layer_factory.hpp:74] Creating layer relu3
I0417 13:36:09.793424 15134 net.cpp:133] Creating Layer relu3
I0417 13:36:09.793426 15134 net.cpp:453] relu3 <- conv3_bn
I0417 13:36:09.793429 15134 net.cpp:400] relu3 -> conv3_bn (in-place)
I0417 13:36:09.793431 15134 net.cpp:163] Setting up relu3
I0417 13:36:09.793534 15134 net.cpp:170] Top shape: 25 32 144 56 (6451200)
I0417 13:36:09.793539 15134 layer_factory.hpp:74] Creating layer pool1
I0417 13:36:09.793543 15134 net.cpp:133] Creating Layer pool1
I0417 13:36:09.793545 15134 net.cpp:453] pool1 <- conv3_bn
I0417 13:36:09.793548 15134 net.cpp:411] pool1 -> pool1
I0417 13:36:09.793552 15134 net.cpp:163] Setting up pool1
I0417 13:36:09.793735 15134 net.cpp:170] Top shape: 25 32 72 28 (1612800)
I0417 13:36:09.793741 15134 layer_factory.hpp:74] Creating layer pool1_pool1_0_split
I0417 13:36:09.793745 15134 net.cpp:133] Creating Layer pool1_pool1_0_split
I0417 13:36:09.793747 15134 net.cpp:453] pool1_pool1_0_split <- pool1
I0417 13:36:09.793751 15134 net.cpp:411] pool1_pool1_0_split -> pool1_pool1_0_split_0
I0417 13:36:09.793756 15134 net.cpp:411] pool1_pool1_0_split -> pool1_pool1_0_split_1
I0417 13:36:09.793759 15134 net.cpp:411] pool1_pool1_0_split -> pool1_pool1_0_split_2
I0417 13:36:09.793762 15134 net.cpp:411] pool1_pool1_0_split -> pool1_pool1_0_split_3
I0417 13:36:09.793766 15134 net.cpp:163] Setting up pool1_pool1_0_split
I0417 13:36:09.793768 15134 net.cpp:170] Top shape: 25 32 72 28 (1612800)
I0417 13:36:09.793771 15134 net.cpp:170] Top shape: 25 32 72 28 (1612800)
I0417 13:36:09.793773 15134 net.cpp:170] Top shape: 25 32 72 28 (1612800)
I0417 13:36:09.793774 15134 net.cpp:170] Top shape: 25 32 72 28 (1612800)
I0417 13:36:09.793776 15134 layer_factory.hpp:74] Creating layer inception_1a/1x1
I0417 13:36:09.793781 15134 net.cpp:133] Creating Layer inception_1a/1x1
I0417 13:36:09.793783 15134 net.cpp:453] inception_1a/1x1 <- pool1_pool1_0_split_0
I0417 13:36:09.793787 15134 net.cpp:411] inception_1a/1x1 -> inception_1a/1x1
I0417 13:36:09.793790 15134 net.cpp:163] Setting up inception_1a/1x1
I0417 13:36:09.849222 15134 net.cpp:170] Top shape: 25 64 72 28 (3225600)
I0417 13:36:09.849232 15134 layer_factory.hpp:74] Creating layer inception_1a/1x1_bn
I0417 13:36:09.849234 15134 layer_factory.cpp:191] Layer inception_1a/1x1_bn is using CAFFE engine.
I0417 13:36:09.849238 15134 net.cpp:133] Creating Layer inception_1a/1x1_bn
I0417 13:36:09.849241 15134 net.cpp:453] inception_1a/1x1_bn <- inception_1a/1x1
I0417 13:36:09.849244 15134 net.cpp:411] inception_1a/1x1_bn -> inception_1a/1x1_bn
I0417 13:36:09.849249 15134 net.cpp:163] Setting up inception_1a/1x1_bn
I0417 13:36:09.849259 15134 net.cpp:170] Top shape: 25 64 72 28 (3225600)
I0417 13:36:09.849264 15134 layer_factory.hpp:74] Creating layer inception_1a/relu_1x1
I0417 13:36:09.849267 15134 net.cpp:133] Creating Layer inception_1a/relu_1x1
I0417 13:36:09.849269 15134 net.cpp:453] inception_1a/relu_1x1 <- inception_1a/1x1_bn
I0417 13:36:09.849272 15134 net.cpp:400] inception_1a/relu_1x1 -> inception_1a/1x1_bn (in-place)
I0417 13:36:09.849275 15134 net.cpp:163] Setting up inception_1a/relu_1x1
I0417 13:36:09.849448 15134 net.cpp:170] Top shape: 25 64 72 28 (3225600)
I0417 13:36:09.849453 15134 layer_factory.hpp:74] Creating layer inception_1a/3x3_reduce
I0417 13:36:09.849460 15134 net.cpp:133] Creating Layer inception_1a/3x3_reduce
I0417 13:36:09.849462 15134 net.cpp:453] inception_1a/3x3_reduce <- pool1_pool1_0_split_1
I0417 13:36:09.849467 15134 net.cpp:411] inception_1a/3x3_reduce -> inception_1a/3x3_reduce
I0417 13:36:09.849470 15134 net.cpp:163] Setting up inception_1a/3x3_reduce
I0417 13:36:09.902683 15134 net.cpp:170] Top shape: 25 64 72 28 (3225600)
I0417 13:36:09.902693 15134 layer_factory.hpp:74] Creating layer inception_1a/3x3_reduce_bn
I0417 13:36:09.902695 15134 layer_factory.cpp:191] Layer inception_1a/3x3_reduce_bn is using CAFFE engine.
I0417 13:36:09.902701 15134 net.cpp:133] Creating Layer inception_1a/3x3_reduce_bn
I0417 13:36:09.902704 15134 net.cpp:453] inception_1a/3x3_reduce_bn <- inception_1a/3x3_reduce
I0417 13:36:09.902707 15134 net.cpp:411] inception_1a/3x3_reduce_bn -> inception_1a/3x3_reduce_bn
I0417 13:36:09.902714 15134 net.cpp:163] Setting up inception_1a/3x3_reduce_bn
I0417 13:36:09.902725 15134 net.cpp:170] Top shape: 25 64 72 28 (3225600)
I0417 13:36:09.902730 15134 layer_factory.hpp:74] Creating layer inception_1a/relu_3x3_reduce
I0417 13:36:09.902734 15134 net.cpp:133] Creating Layer inception_1a/relu_3x3_reduce
I0417 13:36:09.902735 15134 net.cpp:453] inception_1a/relu_3x3_reduce <- inception_1a/3x3_reduce_bn
I0417 13:36:09.902739 15134 net.cpp:400] inception_1a/relu_3x3_reduce -> inception_1a/3x3_reduce_bn (in-place)
I0417 13:36:09.902741 15134 net.cpp:163] Setting up inception_1a/relu_3x3_reduce
I0417 13:36:09.902840 15134 net.cpp:170] Top shape: 25 64 72 28 (3225600)
I0417 13:36:09.902844 15134 layer_factory.hpp:74] Creating layer inception_1a/3x3
I0417 13:36:09.902849 15134 net.cpp:133] Creating Layer inception_1a/3x3
I0417 13:36:09.902851 15134 net.cpp:453] inception_1a/3x3 <- inception_1a/3x3_reduce_bn
I0417 13:36:09.902855 15134 net.cpp:411] inception_1a/3x3 -> inception_1a/3x3
I0417 13:36:09.902858 15134 net.cpp:163] Setting up inception_1a/3x3
I0417 13:36:10.016458 15134 net.cpp:170] Top shape: 25 64 72 28 (3225600)
I0417 13:36:10.016468 15134 layer_factory.hpp:74] Creating layer inception_1a/3x3_bn
I0417 13:36:10.016470 15134 layer_factory.cpp:191] Layer inception_1a/3x3_bn is using CAFFE engine.
I0417 13:36:10.016474 15134 net.cpp:133] Creating Layer inception_1a/3x3_bn
I0417 13:36:10.016476 15134 net.cpp:453] inception_1a/3x3_bn <- inception_1a/3x3
I0417 13:36:10.016480 15134 net.cpp:411] inception_1a/3x3_bn -> inception_1a/3x3_bn
I0417 13:36:10.016484 15134 net.cpp:163] Setting up inception_1a/3x3_bn
I0417 13:36:10.016495 15134 net.cpp:170] Top shape: 25 64 72 28 (3225600)
I0417 13:36:10.016502 15134 layer_factory.hpp:74] Creating layer inception_1a/relu_3x3
I0417 13:36:10.016507 15134 net.cpp:133] Creating Layer inception_1a/relu_3x3
I0417 13:36:10.016508 15134 net.cpp:453] inception_1a/relu_3x3 <- inception_1a/3x3_bn
I0417 13:36:10.016511 15134 net.cpp:400] inception_1a/relu_3x3 -> inception_1a/3x3_bn (in-place)
I0417 13:36:10.016515 15134 net.cpp:163] Setting up inception_1a/relu_3x3
I0417 13:36:10.016688 15134 net.cpp:170] Top shape: 25 64 72 28 (3225600)
I0417 13:36:10.016695 15134 layer_factory.hpp:74] Creating layer inception_1a/double_3x3_reduce
I0417 13:36:10.016700 15134 net.cpp:133] Creating Layer inception_1a/double_3x3_reduce
I0417 13:36:10.016701 15134 net.cpp:453] inception_1a/double_3x3_reduce <- pool1_pool1_0_split_2
I0417 13:36:10.016705 15134 net.cpp:411] inception_1a/double_3x3_reduce -> inception_1a/double_3x3_reduce
I0417 13:36:10.016710 15134 net.cpp:163] Setting up inception_1a/double_3x3_reduce
I0417 13:36:10.070240 15134 net.cpp:170] Top shape: 25 64 72 28 (3225600)
I0417 13:36:10.070250 15134 layer_factory.hpp:74] Creating layer inception_1a/double_3x3_reduce_bn
I0417 13:36:10.070252 15134 layer_factory.cpp:191] Layer inception_1a/double_3x3_reduce_bn is using CAFFE engine.
I0417 13:36:10.070257 15134 net.cpp:133] Creating Layer inception_1a/double_3x3_reduce_bn
I0417 13:36:10.070260 15134 net.cpp:453] inception_1a/double_3x3_reduce_bn <- inception_1a/double_3x3_reduce
I0417 13:36:10.070263 15134 net.cpp:411] inception_1a/double_3x3_reduce_bn -> inception_1a/double_3x3_reduce_bn
I0417 13:36:10.070267 15134 net.cpp:163] Setting up inception_1a/double_3x3_reduce_bn
I0417 13:36:10.070278 15134 net.cpp:170] Top shape: 25 64 72 28 (3225600)
I0417 13:36:10.070283 15134 layer_factory.hpp:74] Creating layer inception_1a/relu_double_3x3_reduce
I0417 13:36:10.070286 15134 net.cpp:133] Creating Layer inception_1a/relu_double_3x3_reduce
I0417 13:36:10.070288 15134 net.cpp:453] inception_1a/relu_double_3x3_reduce <- inception_1a/double_3x3_reduce_bn
I0417 13:36:10.070291 15134 net.cpp:400] inception_1a/relu_double_3x3_reduce -> inception_1a/double_3x3_reduce_bn (in-place)
I0417 13:36:10.070293 15134 net.cpp:163] Setting up inception_1a/relu_double_3x3_reduce
I0417 13:36:10.070471 15134 net.cpp:170] Top shape: 25 64 72 28 (3225600)
I0417 13:36:10.070477 15134 layer_factory.hpp:74] Creating layer inception_1a/double_3x3_1
I0417 13:36:10.070482 15134 net.cpp:133] Creating Layer inception_1a/double_3x3_1
I0417 13:36:10.070483 15134 net.cpp:453] inception_1a/double_3x3_1 <- inception_1a/double_3x3_reduce_bn
I0417 13:36:10.070487 15134 net.cpp:411] inception_1a/double_3x3_1 -> inception_1a/double_3x3_1
I0417 13:36:10.070492 15134 net.cpp:163] Setting up inception_1a/double_3x3_1
I0417 13:36:10.183861 15134 net.cpp:170] Top shape: 25 64 72 28 (3225600)
I0417 13:36:10.183871 15134 layer_factory.hpp:74] Creating layer inception_1a/double_3x3_1_bn
I0417 13:36:10.183872 15134 layer_factory.cpp:191] Layer inception_1a/double_3x3_1_bn is using CAFFE engine.
I0417 13:36:10.183877 15134 net.cpp:133] Creating Layer inception_1a/double_3x3_1_bn
I0417 13:36:10.183879 15134 net.cpp:453] inception_1a/double_3x3_1_bn <- inception_1a/double_3x3_1
I0417 13:36:10.183883 15134 net.cpp:411] inception_1a/double_3x3_1_bn -> inception_1a/double_3x3_1_bn
I0417 13:36:10.183887 15134 net.cpp:163] Setting up inception_1a/double_3x3_1_bn
I0417 13:36:10.183899 15134 net.cpp:170] Top shape: 25 64 72 28 (3225600)
I0417 13:36:10.183904 15134 layer_factory.hpp:74] Creating layer inception_1a/relu_double_3x3_1
I0417 13:36:10.183907 15134 net.cpp:133] Creating Layer inception_1a/relu_double_3x3_1
I0417 13:36:10.183908 15134 net.cpp:453] inception_1a/relu_double_3x3_1 <- inception_1a/double_3x3_1_bn
I0417 13:36:10.183912 15134 net.cpp:400] inception_1a/relu_double_3x3_1 -> inception_1a/double_3x3_1_bn (in-place)
I0417 13:36:10.183913 15134 net.cpp:163] Setting up inception_1a/relu_double_3x3_1
I0417 13:36:10.184017 15134 net.cpp:170] Top shape: 25 64 72 28 (3225600)
I0417 13:36:10.184021 15134 layer_factory.hpp:74] Creating layer inception_1a/double_3x3_2
I0417 13:36:10.184026 15134 net.cpp:133] Creating Layer inception_1a/double_3x3_2
I0417 13:36:10.184028 15134 net.cpp:453] inception_1a/double_3x3_2 <- inception_1a/double_3x3_1_bn
I0417 13:36:10.184031 15134 net.cpp:411] inception_1a/double_3x3_2 -> inception_1a/double_3x3_2
I0417 13:36:10.184036 15134 net.cpp:163] Setting up inception_1a/double_3x3_2
I0417 13:36:10.297003 15134 net.cpp:170] Top shape: 25 64 72 28 (3225600)
I0417 13:36:10.297013 15134 layer_factory.hpp:74] Creating layer inception_1a/double_3x3_2_bn
I0417 13:36:10.297015 15134 layer_factory.cpp:191] Layer inception_1a/double_3x3_2_bn is using CAFFE engine.
I0417 13:36:10.297019 15134 net.cpp:133] Creating Layer inception_1a/double_3x3_2_bn
I0417 13:36:10.297021 15134 net.cpp:453] inception_1a/double_3x3_2_bn <- inception_1a/double_3x3_2
I0417 13:36:10.297025 15134 net.cpp:411] inception_1a/double_3x3_2_bn -> inception_1a/double_3x3_2_bn
I0417 13:36:10.297030 15134 net.cpp:163] Setting up inception_1a/double_3x3_2_bn
I0417 13:36:10.297041 15134 net.cpp:170] Top shape: 25 64 72 28 (3225600)
I0417 13:36:10.297046 15134 layer_factory.hpp:74] Creating layer inception_1a/relu_double_3x3_2
I0417 13:36:10.297049 15134 net.cpp:133] Creating Layer inception_1a/relu_double_3x3_2
I0417 13:36:10.297051 15134 net.cpp:453] inception_1a/relu_double_3x3_2 <- inception_1a/double_3x3_2_bn
I0417 13:36:10.297055 15134 net.cpp:400] inception_1a/relu_double_3x3_2 -> inception_1a/double_3x3_2_bn (in-place)
I0417 13:36:10.297057 15134 net.cpp:163] Setting up inception_1a/relu_double_3x3_2
I0417 13:36:10.297230 15134 net.cpp:170] Top shape: 25 64 72 28 (3225600)
I0417 13:36:10.297236 15134 layer_factory.hpp:74] Creating layer inception_1a/pool
I0417 13:36:10.297238 15134 layer_factory.cpp:64] CUDNN does not support padding or multiple tops. Using Caffe's own pooling layer.
I0417 13:36:10.297241 15134 net.cpp:133] Creating Layer inception_1a/pool
I0417 13:36:10.297243 15134 net.cpp:453] inception_1a/pool <- pool1_pool1_0_split_3
I0417 13:36:10.297247 15134 net.cpp:411] inception_1a/pool -> inception_1a/pool
I0417 13:36:10.297251 15134 net.cpp:163] Setting up inception_1a/pool
I0417 13:36:10.297255 15134 net.cpp:170] Top shape: 25 32 72 28 (1612800)
I0417 13:36:10.297257 15134 layer_factory.hpp:74] Creating layer inception_1a/pool_proj
I0417 13:36:10.297261 15134 net.cpp:133] Creating Layer inception_1a/pool_proj
I0417 13:36:10.297262 15134 net.cpp:453] inception_1a/pool_proj <- inception_1a/pool
I0417 13:36:10.297266 15134 net.cpp:411] inception_1a/pool_proj -> inception_1a/pool_proj
I0417 13:36:10.297268 15134 net.cpp:163] Setting up inception_1a/pool_proj
I0417 13:36:10.350513 15134 net.cpp:170] Top shape: 25 64 72 28 (3225600)
I0417 13:36:10.350523 15134 layer_factory.hpp:74] Creating layer inception_1a/pool_proj_bn
I0417 13:36:10.350525 15134 layer_factory.cpp:191] Layer inception_1a/pool_proj_bn is using CAFFE engine.
I0417 13:36:10.350533 15134 net.cpp:133] Creating Layer inception_1a/pool_proj_bn
I0417 13:36:10.350535 15134 net.cpp:453] inception_1a/pool_proj_bn <- inception_1a/pool_proj
I0417 13:36:10.350539 15134 net.cpp:411] inception_1a/pool_proj_bn -> inception_1a/pool_proj_bn
I0417 13:36:10.350543 15134 net.cpp:163] Setting up inception_1a/pool_proj_bn
I0417 13:36:10.350554 15134 net.cpp:170] Top shape: 25 64 72 28 (3225600)
I0417 13:36:10.350559 15134 layer_factory.hpp:74] Creating layer inception_1a/relu_pool_proj
I0417 13:36:10.350563 15134 net.cpp:133] Creating Layer inception_1a/relu_pool_proj
I0417 13:36:10.350564 15134 net.cpp:453] inception_1a/relu_pool_proj <- inception_1a/pool_proj_bn
I0417 13:36:10.350567 15134 net.cpp:400] inception_1a/relu_pool_proj -> inception_1a/pool_proj_bn (in-place)
I0417 13:36:10.350570 15134 net.cpp:163] Setting up inception_1a/relu_pool_proj
I0417 13:36:10.350744 15134 net.cpp:170] Top shape: 25 64 72 28 (3225600)
I0417 13:36:10.350749 15134 layer_factory.hpp:74] Creating layer inception_1a/output
I0417 13:36:10.350754 15134 net.cpp:133] Creating Layer inception_1a/output
I0417 13:36:10.350755 15134 net.cpp:453] inception_1a/output <- inception_1a/1x1_bn
I0417 13:36:10.350757 15134 net.cpp:453] inception_1a/output <- inception_1a/3x3_bn
I0417 13:36:10.350759 15134 net.cpp:453] inception_1a/output <- inception_1a/double_3x3_2_bn
I0417 13:36:10.350762 15134 net.cpp:453] inception_1a/output <- inception_1a/pool_proj_bn
I0417 13:36:10.350765 15134 net.cpp:411] inception_1a/output -> inception_1a/output
I0417 13:36:10.350769 15134 net.cpp:163] Setting up inception_1a/output
I0417 13:36:10.350772 15134 net.cpp:170] Top shape: 25 256 72 28 (12902400)
I0417 13:36:10.350775 15134 layer_factory.hpp:74] Creating layer inception_1a/output_inception_1a/output_0_split
I0417 13:36:10.350778 15134 net.cpp:133] Creating Layer inception_1a/output_inception_1a/output_0_split
I0417 13:36:10.350780 15134 net.cpp:453] inception_1a/output_inception_1a/output_0_split <- inception_1a/output
I0417 13:36:10.350782 15134 net.cpp:411] inception_1a/output_inception_1a/output_0_split -> inception_1a/output_inception_1a/output_0_split_0
I0417 13:36:10.350786 15134 net.cpp:411] inception_1a/output_inception_1a/output_0_split -> inception_1a/output_inception_1a/output_0_split_1
I0417 13:36:10.350790 15134 net.cpp:411] inception_1a/output_inception_1a/output_0_split -> inception_1a/output_inception_1a/output_0_split_2
I0417 13:36:10.350792 15134 net.cpp:163] Setting up inception_1a/output_inception_1a/output_0_split
I0417 13:36:10.350795 15134 net.cpp:170] Top shape: 25 256 72 28 (12902400)
I0417 13:36:10.350797 15134 net.cpp:170] Top shape: 25 256 72 28 (12902400)
I0417 13:36:10.350800 15134 net.cpp:170] Top shape: 25 256 72 28 (12902400)
I0417 13:36:10.350801 15134 layer_factory.hpp:74] Creating layer inception_1b/3x3_reduce
I0417 13:36:10.350805 15134 net.cpp:133] Creating Layer inception_1b/3x3_reduce
I0417 13:36:10.350806 15134 net.cpp:453] inception_1b/3x3_reduce <- inception_1a/output_inception_1a/output_0_split_0
I0417 13:36:10.350810 15134 net.cpp:411] inception_1b/3x3_reduce -> inception_1b/3x3_reduce
I0417 13:36:10.350816 15134 net.cpp:163] Setting up inception_1b/3x3_reduce
I0417 13:36:10.648242 15134 net.cpp:170] Top shape: 25 64 72 28 (3225600)
I0417 13:36:10.648252 15134 layer_factory.hpp:74] Creating layer inception_1b/3x3_reduce_bn
I0417 13:36:10.648255 15134 layer_factory.cpp:191] Layer inception_1b/3x3_reduce_bn is using CAFFE engine.
I0417 13:36:10.648259 15134 net.cpp:133] Creating Layer inception_1b/3x3_reduce_bn
I0417 13:36:10.648262 15134 net.cpp:453] inception_1b/3x3_reduce_bn <- inception_1b/3x3_reduce
I0417 13:36:10.648265 15134 net.cpp:411] inception_1b/3x3_reduce_bn -> inception_1b/3x3_reduce_bn
I0417 13:36:10.648269 15134 net.cpp:163] Setting up inception_1b/3x3_reduce_bn
I0417 13:36:10.648279 15134 net.cpp:170] Top shape: 25 64 72 28 (3225600)
I0417 13:36:10.648289 15134 layer_factory.hpp:74] Creating layer inception_1b/relu_3x3_reduce
I0417 13:36:10.648293 15134 net.cpp:133] Creating Layer inception_1b/relu_3x3_reduce
I0417 13:36:10.648295 15134 net.cpp:453] inception_1b/relu_3x3_reduce <- inception_1b/3x3_reduce_bn
I0417 13:36:10.648298 15134 net.cpp:400] inception_1b/relu_3x3_reduce -> inception_1b/3x3_reduce_bn (in-place)
I0417 13:36:10.648300 15134 net.cpp:163] Setting up inception_1b/relu_3x3_reduce
I0417 13:36:10.648403 15134 net.cpp:170] Top shape: 25 64 72 28 (3225600)
I0417 13:36:10.648408 15134 layer_factory.hpp:74] Creating layer inception_1b/3x3
I0417 13:36:10.648412 15134 net.cpp:133] Creating Layer inception_1b/3x3
I0417 13:36:10.648414 15134 net.cpp:453] inception_1b/3x3 <- inception_1b/3x3_reduce_bn
I0417 13:36:10.648418 15134 net.cpp:411] inception_1b/3x3 -> inception_1b/3x3
I0417 13:36:10.648422 15134 net.cpp:163] Setting up inception_1b/3x3
I0417 13:36:10.668184 15134 net.cpp:170] Top shape: 25 64 36 14 (806400)
I0417 13:36:10.668195 15134 layer_factory.hpp:74] Creating layer inception_1b/3x3_bn
I0417 13:36:10.668197 15134 layer_factory.cpp:191] Layer inception_1b/3x3_bn is using CAFFE engine.
I0417 13:36:10.668201 15134 net.cpp:133] Creating Layer inception_1b/3x3_bn
I0417 13:36:10.668203 15134 net.cpp:453] inception_1b/3x3_bn <- inception_1b/3x3
I0417 13:36:10.668207 15134 net.cpp:411] inception_1b/3x3_bn -> inception_1b/3x3_bn
I0417 13:36:10.668212 15134 net.cpp:163] Setting up inception_1b/3x3_bn
I0417 13:36:10.668220 15134 net.cpp:170] Top shape: 25 64 36 14 (806400)
I0417 13:36:10.668226 15134 layer_factory.hpp:74] Creating layer inception_1b/relu_3x3
I0417 13:36:10.668228 15134 net.cpp:133] Creating Layer inception_1b/relu_3x3
I0417 13:36:10.668231 15134 net.cpp:453] inception_1b/relu_3x3 <- inception_1b/3x3_bn
I0417 13:36:10.668233 15134 net.cpp:400] inception_1b/relu_3x3 -> inception_1b/3x3_bn (in-place)
I0417 13:36:10.668236 15134 net.cpp:163] Setting up inception_1b/relu_3x3
I0417 13:36:10.668411 15134 net.cpp:170] Top shape: 25 64 36 14 (806400)
I0417 13:36:10.668416 15134 layer_factory.hpp:74] Creating layer inception_1b/double_3x3_reduce
I0417 13:36:10.668421 15134 net.cpp:133] Creating Layer inception_1b/double_3x3_reduce
I0417 13:36:10.668423 15134 net.cpp:453] inception_1b/double_3x3_reduce <- inception_1a/output_inception_1a/output_0_split_1
I0417 13:36:10.668427 15134 net.cpp:411] inception_1b/double_3x3_reduce -> inception_1b/double_3x3_reduce
I0417 13:36:10.668431 15134 net.cpp:163] Setting up inception_1b/double_3x3_reduce
I0417 13:36:10.964087 15134 net.cpp:170] Top shape: 25 64 72 28 (3225600)
I0417 13:36:10.964110 15134 layer_factory.hpp:74] Creating layer inception_1b/double_3x3_reduce_bn
I0417 13:36:10.964113 15134 layer_factory.cpp:191] Layer inception_1b/double_3x3_reduce_bn is using CAFFE engine.
I0417 13:36:10.964123 15134 net.cpp:133] Creating Layer inception_1b/double_3x3_reduce_bn
I0417 13:36:10.964126 15134 net.cpp:453] inception_1b/double_3x3_reduce_bn <- inception_1b/double_3x3_reduce
I0417 13:36:10.964133 15134 net.cpp:411] inception_1b/double_3x3_reduce_bn -> inception_1b/double_3x3_reduce_bn
I0417 13:36:10.964140 15134 net.cpp:163] Setting up inception_1b/double_3x3_reduce_bn
I0417 13:36:10.964156 15134 net.cpp:170] Top shape: 25 64 72 28 (3225600)
I0417 13:36:10.964161 15134 layer_factory.hpp:74] Creating layer inception_1b/relu_double_3x3_reduce
I0417 13:36:10.964165 15134 net.cpp:133] Creating Layer inception_1b/relu_double_3x3_reduce
I0417 13:36:10.964167 15134 net.cpp:453] inception_1b/relu_double_3x3_reduce <- inception_1b/double_3x3_reduce_bn
I0417 13:36:10.964169 15134 net.cpp:400] inception_1b/relu_double_3x3_reduce -> inception_1b/double_3x3_reduce_bn (in-place)
I0417 13:36:10.964174 15134 net.cpp:163] Setting up inception_1b/relu_double_3x3_reduce
I0417 13:36:10.964419 15134 net.cpp:170] Top shape: 25 64 72 28 (3225600)
I0417 13:36:10.964426 15134 layer_factory.hpp:74] Creating layer inception_1b/double_3x3_1
I0417 13:36:10.964433 15134 net.cpp:133] Creating Layer inception_1b/double_3x3_1
I0417 13:36:10.964435 15134 net.cpp:453] inception_1b/double_3x3_1 <- inception_1b/double_3x3_reduce_bn
I0417 13:36:10.964439 15134 net.cpp:411] inception_1b/double_3x3_1 -> inception_1b/double_3x3_1
I0417 13:36:10.964445 15134 net.cpp:163] Setting up inception_1b/double_3x3_1
I0417 13:36:11.077927 15134 net.cpp:170] Top shape: 25 64 72 28 (3225600)
I0417 13:36:11.077944 15134 layer_factory.hpp:74] Creating layer inception_1b/double_3x3_1_bn
I0417 13:36:11.077947 15134 layer_factory.cpp:191] Layer inception_1b/double_3x3_1_bn is using CAFFE engine.
I0417 13:36:11.077952 15134 net.cpp:133] Creating Layer inception_1b/double_3x3_1_bn
I0417 13:36:11.077955 15134 net.cpp:453] inception_1b/double_3x3_1_bn <- inception_1b/double_3x3_1
I0417 13:36:11.077960 15134 net.cpp:411] inception_1b/double_3x3_1_bn -> inception_1b/double_3x3_1_bn
I0417 13:36:11.077966 15134 net.cpp:163] Setting up inception_1b/double_3x3_1_bn
I0417 13:36:11.077981 15134 net.cpp:170] Top shape: 25 64 72 28 (3225600)
I0417 13:36:11.077986 15134 layer_factory.hpp:74] Creating layer inception_1b/relu_double_3x3_1
I0417 13:36:11.077991 15134 net.cpp:133] Creating Layer inception_1b/relu_double_3x3_1
I0417 13:36:11.077992 15134 net.cpp:453] inception_1b/relu_double_3x3_1 <- inception_1b/double_3x3_1_bn
I0417 13:36:11.077996 15134 net.cpp:400] inception_1b/relu_double_3x3_1 -> inception_1b/double_3x3_1_bn (in-place)
I0417 13:36:11.077998 15134 net.cpp:163] Setting up inception_1b/relu_double_3x3_1
I0417 13:36:11.078120 15134 net.cpp:170] Top shape: 25 64 72 28 (3225600)
I0417 13:36:11.078125 15134 layer_factory.hpp:74] Creating layer inception_1b/double_3x3_2
I0417 13:36:11.078130 15134 net.cpp:133] Creating Layer inception_1b/double_3x3_2
I0417 13:36:11.078132 15134 net.cpp:453] inception_1b/double_3x3_2 <- inception_1b/double_3x3_1_bn
I0417 13:36:11.078136 15134 net.cpp:411] inception_1b/double_3x3_2 -> inception_1b/double_3x3_2
I0417 13:36:11.078140 15134 net.cpp:163] Setting up inception_1b/double_3x3_2
I0417 13:36:11.098242 15134 net.cpp:170] Top shape: 25 64 36 14 (806400)
I0417 13:36:11.098251 15134 layer_factory.hpp:74] Creating layer inception_1b/double_3x3_2_bn
I0417 13:36:11.098254 15134 layer_factory.cpp:191] Layer inception_1b/double_3x3_2_bn is using CAFFE engine.
I0417 13:36:11.098258 15134 net.cpp:133] Creating Layer inception_1b/double_3x3_2_bn
I0417 13:36:11.098261 15134 net.cpp:453] inception_1b/double_3x3_2_bn <- inception_1b/double_3x3_2
I0417 13:36:11.098265 15134 net.cpp:411] inception_1b/double_3x3_2_bn -> inception_1b/double_3x3_2_bn
I0417 13:36:11.098270 15134 net.cpp:163] Setting up inception_1b/double_3x3_2_bn
I0417 13:36:11.098279 15134 net.cpp:170] Top shape: 25 64 36 14 (806400)
I0417 13:36:11.098285 15134 layer_factory.hpp:74] Creating layer inception_1b/relu_double_3x3_2
I0417 13:36:11.098289 15134 net.cpp:133] Creating Layer inception_1b/relu_double_3x3_2
I0417 13:36:11.098290 15134 net.cpp:453] inception_1b/relu_double_3x3_2 <- inception_1b/double_3x3_2_bn
I0417 13:36:11.098292 15134 net.cpp:400] inception_1b/relu_double_3x3_2 -> inception_1b/double_3x3_2_bn (in-place)
I0417 13:36:11.098295 15134 net.cpp:163] Setting up inception_1b/relu_double_3x3_2
I0417 13:36:11.098472 15134 net.cpp:170] Top shape: 25 64 36 14 (806400)
I0417 13:36:11.098477 15134 layer_factory.hpp:74] Creating layer inception_1b/pool
I0417 13:36:11.098484 15134 net.cpp:133] Creating Layer inception_1b/pool
I0417 13:36:11.098485 15134 net.cpp:453] inception_1b/pool <- inception_1a/output_inception_1a/output_0_split_2
I0417 13:36:11.098489 15134 net.cpp:411] inception_1b/pool -> inception_1b/pool
I0417 13:36:11.098492 15134 net.cpp:163] Setting up inception_1b/pool
I0417 13:36:11.098592 15134 net.cpp:170] Top shape: 25 256 36 14 (3225600)
I0417 13:36:11.098597 15134 layer_factory.hpp:74] Creating layer inception_1b/output
I0417 13:36:11.098600 15134 net.cpp:133] Creating Layer inception_1b/output
I0417 13:36:11.098603 15134 net.cpp:453] inception_1b/output <- inception_1b/3x3_bn
I0417 13:36:11.098604 15134 net.cpp:453] inception_1b/output <- inception_1b/double_3x3_2_bn
I0417 13:36:11.098606 15134 net.cpp:453] inception_1b/output <- inception_1b/pool
I0417 13:36:11.098609 15134 net.cpp:411] inception_1b/output -> inception_1b/output
I0417 13:36:11.098613 15134 net.cpp:163] Setting up inception_1b/output
I0417 13:36:11.098616 15134 net.cpp:170] Top shape: 25 384 36 14 (4838400)
I0417 13:36:11.098618 15134 layer_factory.hpp:74] Creating layer inception_1b/output_inception_1b/output_0_split
I0417 13:36:11.098621 15134 net.cpp:133] Creating Layer inception_1b/output_inception_1b/output_0_split
I0417 13:36:11.098623 15134 net.cpp:453] inception_1b/output_inception_1b/output_0_split <- inception_1b/output
I0417 13:36:11.098625 15134 net.cpp:411] inception_1b/output_inception_1b/output_0_split -> inception_1b/output_inception_1b/output_0_split_0
I0417 13:36:11.098628 15134 net.cpp:411] inception_1b/output_inception_1b/output_0_split -> inception_1b/output_inception_1b/output_0_split_1
I0417 13:36:11.098633 15134 net.cpp:411] inception_1b/output_inception_1b/output_0_split -> inception_1b/output_inception_1b/output_0_split_2
I0417 13:36:11.098635 15134 net.cpp:411] inception_1b/output_inception_1b/output_0_split -> inception_1b/output_inception_1b/output_0_split_3
I0417 13:36:11.098639 15134 net.cpp:163] Setting up inception_1b/output_inception_1b/output_0_split
I0417 13:36:11.098641 15134 net.cpp:170] Top shape: 25 384 36 14 (4838400)
I0417 13:36:11.098644 15134 net.cpp:170] Top shape: 25 384 36 14 (4838400)
I0417 13:36:11.098645 15134 net.cpp:170] Top shape: 25 384 36 14 (4838400)
I0417 13:36:11.098647 15134 net.cpp:170] Top shape: 25 384 36 14 (4838400)
I0417 13:36:11.098649 15134 layer_factory.hpp:74] Creating layer inception_2a/1x1
I0417 13:36:11.098654 15134 net.cpp:133] Creating Layer inception_2a/1x1
I0417 13:36:11.098655 15134 net.cpp:453] inception_2a/1x1 <- inception_1b/output_inception_1b/output_0_split_0
I0417 13:36:11.098659 15134 net.cpp:411] inception_2a/1x1 -> inception_2a/1x1
I0417 13:36:11.098662 15134 net.cpp:163] Setting up inception_2a/1x1
I0417 13:36:11.253624 15134 net.cpp:170] Top shape: 25 128 36 14 (1612800)
I0417 13:36:11.253634 15134 layer_factory.hpp:74] Creating layer inception_2a/1x1_bn
I0417 13:36:11.253636 15134 layer_factory.cpp:191] Layer inception_2a/1x1_bn is using CAFFE engine.
I0417 13:36:11.253640 15134 net.cpp:133] Creating Layer inception_2a/1x1_bn
I0417 13:36:11.253643 15134 net.cpp:453] inception_2a/1x1_bn <- inception_2a/1x1
I0417 13:36:11.253648 15134 net.cpp:411] inception_2a/1x1_bn -> inception_2a/1x1_bn
I0417 13:36:11.253651 15134 net.cpp:163] Setting up inception_2a/1x1_bn
I0417 13:36:11.253661 15134 net.cpp:170] Top shape: 25 128 36 14 (1612800)
I0417 13:36:11.253667 15134 layer_factory.hpp:74] Creating layer inception_2a/relu_1x1
I0417 13:36:11.253670 15134 net.cpp:133] Creating Layer inception_2a/relu_1x1
I0417 13:36:11.253672 15134 net.cpp:453] inception_2a/relu_1x1 <- inception_2a/1x1_bn
I0417 13:36:11.253674 15134 net.cpp:400] inception_2a/relu_1x1 -> inception_2a/1x1_bn (in-place)
I0417 13:36:11.253679 15134 net.cpp:163] Setting up inception_2a/relu_1x1
I0417 13:36:11.253783 15134 net.cpp:170] Top shape: 25 128 36 14 (1612800)
I0417 13:36:11.253787 15134 layer_factory.hpp:74] Creating layer inception_2a/3x3_reduce
I0417 13:36:11.253793 15134 net.cpp:133] Creating Layer inception_2a/3x3_reduce
I0417 13:36:11.253794 15134 net.cpp:453] inception_2a/3x3_reduce <- inception_1b/output_inception_1b/output_0_split_1
I0417 13:36:11.253798 15134 net.cpp:411] inception_2a/3x3_reduce -> inception_2a/3x3_reduce
I0417 13:36:11.253803 15134 net.cpp:163] Setting up inception_2a/3x3_reduce
I0417 13:36:11.408876 15134 net.cpp:170] Top shape: 25 128 36 14 (1612800)
I0417 13:36:11.408887 15134 layer_factory.hpp:74] Creating layer inception_2a/3x3_reduce_bn
I0417 13:36:11.408890 15134 layer_factory.cpp:191] Layer inception_2a/3x3_reduce_bn is using CAFFE engine.
I0417 13:36:11.408893 15134 net.cpp:133] Creating Layer inception_2a/3x3_reduce_bn
I0417 13:36:11.408895 15134 net.cpp:453] inception_2a/3x3_reduce_bn <- inception_2a/3x3_reduce
I0417 13:36:11.408900 15134 net.cpp:411] inception_2a/3x3_reduce_bn -> inception_2a/3x3_reduce_bn
I0417 13:36:11.408905 15134 net.cpp:163] Setting up inception_2a/3x3_reduce_bn
I0417 13:36:11.408913 15134 net.cpp:170] Top shape: 25 128 36 14 (1612800)
I0417 13:36:11.408918 15134 layer_factory.hpp:74] Creating layer inception_2a/relu_3x3_reduce
I0417 13:36:11.408921 15134 net.cpp:133] Creating Layer inception_2a/relu_3x3_reduce
I0417 13:36:11.408923 15134 net.cpp:453] inception_2a/relu_3x3_reduce <- inception_2a/3x3_reduce_bn
I0417 13:36:11.408926 15134 net.cpp:400] inception_2a/relu_3x3_reduce -> inception_2a/3x3_reduce_bn (in-place)
I0417 13:36:11.408928 15134 net.cpp:163] Setting up inception_2a/relu_3x3_reduce
I0417 13:36:11.409113 15134 net.cpp:170] Top shape: 25 128 36 14 (1612800)
I0417 13:36:11.409118 15134 layer_factory.hpp:74] Creating layer inception_2a/3x3
I0417 13:36:11.409123 15134 net.cpp:133] Creating Layer inception_2a/3x3
I0417 13:36:11.409126 15134 net.cpp:453] inception_2a/3x3 <- inception_2a/3x3_reduce_bn
I0417 13:36:11.409129 15134 net.cpp:411] inception_2a/3x3 -> inception_2a/3x3
I0417 13:36:11.409133 15134 net.cpp:163] Setting up inception_2a/3x3
I0417 13:36:11.481590 15134 net.cpp:170] Top shape: 25 128 36 14 (1612800)
I0417 13:36:11.481600 15134 layer_factory.hpp:74] Creating layer inception_2a/3x3_bn
I0417 13:36:11.481603 15134 layer_factory.cpp:191] Layer inception_2a/3x3_bn is using CAFFE engine.
I0417 13:36:11.481607 15134 net.cpp:133] Creating Layer inception_2a/3x3_bn
I0417 13:36:11.481609 15134 net.cpp:453] inception_2a/3x3_bn <- inception_2a/3x3
I0417 13:36:11.481613 15134 net.cpp:411] inception_2a/3x3_bn -> inception_2a/3x3_bn
I0417 13:36:11.481618 15134 net.cpp:163] Setting up inception_2a/3x3_bn
I0417 13:36:11.481626 15134 net.cpp:170] Top shape: 25 128 36 14 (1612800)
I0417 13:36:11.481632 15134 layer_factory.hpp:74] Creating layer inception_2a/relu_3x3
I0417 13:36:11.481636 15134 net.cpp:133] Creating Layer inception_2a/relu_3x3
I0417 13:36:11.481637 15134 net.cpp:453] inception_2a/relu_3x3 <- inception_2a/3x3_bn
I0417 13:36:11.481639 15134 net.cpp:400] inception_2a/relu_3x3 -> inception_2a/3x3_bn (in-place)
I0417 13:36:11.481642 15134 net.cpp:163] Setting up inception_2a/relu_3x3
I0417 13:36:11.481746 15134 net.cpp:170] Top shape: 25 128 36 14 (1612800)
I0417 13:36:11.481750 15134 layer_factory.hpp:74] Creating layer inception_2a/double_3x3_reduce
I0417 13:36:11.481755 15134 net.cpp:133] Creating Layer inception_2a/double_3x3_reduce
I0417 13:36:11.481757 15134 net.cpp:453] inception_2a/double_3x3_reduce <- inception_1b/output_inception_1b/output_0_split_2
I0417 13:36:11.481760 15134 net.cpp:411] inception_2a/double_3x3_reduce -> inception_2a/double_3x3_reduce
I0417 13:36:11.481765 15134 net.cpp:163] Setting up inception_2a/double_3x3_reduce
I0417 13:36:11.636874 15134 net.cpp:170] Top shape: 25 128 36 14 (1612800)
I0417 13:36:11.636884 15134 layer_factory.hpp:74] Creating layer inception_2a/double_3x3_reduce_bn
I0417 13:36:11.636888 15134 layer_factory.cpp:191] Layer inception_2a/double_3x3_reduce_bn is using CAFFE engine.
I0417 13:36:11.636903 15134 net.cpp:133] Creating Layer inception_2a/double_3x3_reduce_bn
I0417 13:36:11.636905 15134 net.cpp:453] inception_2a/double_3x3_reduce_bn <- inception_2a/double_3x3_reduce
I0417 13:36:11.636909 15134 net.cpp:411] inception_2a/double_3x3_reduce_bn -> inception_2a/double_3x3_reduce_bn
I0417 13:36:11.636914 15134 net.cpp:163] Setting up inception_2a/double_3x3_reduce_bn
I0417 13:36:11.636921 15134 net.cpp:170] Top shape: 25 128 36 14 (1612800)
I0417 13:36:11.636927 15134 layer_factory.hpp:74] Creating layer inception_2a/relu_double_3x3_reduce
I0417 13:36:11.636931 15134 net.cpp:133] Creating Layer inception_2a/relu_double_3x3_reduce
I0417 13:36:11.636932 15134 net.cpp:453] inception_2a/relu_double_3x3_reduce <- inception_2a/double_3x3_reduce_bn
I0417 13:36:11.636935 15134 net.cpp:400] inception_2a/relu_double_3x3_reduce -> inception_2a/double_3x3_reduce_bn (in-place)
I0417 13:36:11.636939 15134 net.cpp:163] Setting up inception_2a/relu_double_3x3_reduce
I0417 13:36:11.637043 15134 net.cpp:170] Top shape: 25 128 36 14 (1612800)
I0417 13:36:11.637048 15134 layer_factory.hpp:74] Creating layer inception_2a/double_3x3_1
I0417 13:36:11.637051 15134 net.cpp:133] Creating Layer inception_2a/double_3x3_1
I0417 13:36:11.637053 15134 net.cpp:453] inception_2a/double_3x3_1 <- inception_2a/double_3x3_reduce_bn
I0417 13:36:11.637058 15134 net.cpp:411] inception_2a/double_3x3_1 -> inception_2a/double_3x3_1
I0417 13:36:11.637061 15134 net.cpp:163] Setting up inception_2a/double_3x3_1
I0417 13:36:11.709383 15134 net.cpp:170] Top shape: 25 128 36 14 (1612800)
I0417 13:36:11.709393 15134 layer_factory.hpp:74] Creating layer inception_2a/double_3x3_1_bn
I0417 13:36:11.709395 15134 layer_factory.cpp:191] Layer inception_2a/double_3x3_1_bn is using CAFFE engine.
I0417 13:36:11.709399 15134 net.cpp:133] Creating Layer inception_2a/double_3x3_1_bn
I0417 13:36:11.709403 15134 net.cpp:453] inception_2a/double_3x3_1_bn <- inception_2a/double_3x3_1
I0417 13:36:11.709406 15134 net.cpp:411] inception_2a/double_3x3_1_bn -> inception_2a/double_3x3_1_bn
I0417 13:36:11.709410 15134 net.cpp:163] Setting up inception_2a/double_3x3_1_bn
I0417 13:36:11.709420 15134 net.cpp:170] Top shape: 25 128 36 14 (1612800)
I0417 13:36:11.709425 15134 layer_factory.hpp:74] Creating layer inception_2a/relu_double_3x3_1
I0417 13:36:11.709429 15134 net.cpp:133] Creating Layer inception_2a/relu_double_3x3_1
I0417 13:36:11.709430 15134 net.cpp:453] inception_2a/relu_double_3x3_1 <- inception_2a/double_3x3_1_bn
I0417 13:36:11.709432 15134 net.cpp:400] inception_2a/relu_double_3x3_1 -> inception_2a/double_3x3_1_bn (in-place)
I0417 13:36:11.709435 15134 net.cpp:163] Setting up inception_2a/relu_double_3x3_1
I0417 13:36:11.709619 15134 net.cpp:170] Top shape: 25 128 36 14 (1612800)
I0417 13:36:11.709625 15134 layer_factory.hpp:74] Creating layer inception_2a/double_3x3_2
I0417 13:36:11.709628 15134 net.cpp:133] Creating Layer inception_2a/double_3x3_2
I0417 13:36:11.709631 15134 net.cpp:453] inception_2a/double_3x3_2 <- inception_2a/double_3x3_1_bn
I0417 13:36:11.709635 15134 net.cpp:411] inception_2a/double_3x3_2 -> inception_2a/double_3x3_2
I0417 13:36:11.709640 15134 net.cpp:163] Setting up inception_2a/double_3x3_2
I0417 13:36:11.781929 15134 net.cpp:170] Top shape: 25 128 36 14 (1612800)
I0417 13:36:11.781939 15134 layer_factory.hpp:74] Creating layer inception_2a/double_3x3_2_bn
I0417 13:36:11.781942 15134 layer_factory.cpp:191] Layer inception_2a/double_3x3_2_bn is using CAFFE engine.
I0417 13:36:11.781946 15134 net.cpp:133] Creating Layer inception_2a/double_3x3_2_bn
I0417 13:36:11.781949 15134 net.cpp:453] inception_2a/double_3x3_2_bn <- inception_2a/double_3x3_2
I0417 13:36:11.781952 15134 net.cpp:411] inception_2a/double_3x3_2_bn -> inception_2a/double_3x3_2_bn
I0417 13:36:11.781956 15134 net.cpp:163] Setting up inception_2a/double_3x3_2_bn
I0417 13:36:11.781965 15134 net.cpp:170] Top shape: 25 128 36 14 (1612800)
I0417 13:36:11.781970 15134 layer_factory.hpp:74] Creating layer inception_2a/relu_double_3x3_2
I0417 13:36:11.781973 15134 net.cpp:133] Creating Layer inception_2a/relu_double_3x3_2
I0417 13:36:11.781975 15134 net.cpp:453] inception_2a/relu_double_3x3_2 <- inception_2a/double_3x3_2_bn
I0417 13:36:11.781977 15134 net.cpp:400] inception_2a/relu_double_3x3_2 -> inception_2a/double_3x3_2_bn (in-place)
I0417 13:36:11.781980 15134 net.cpp:163] Setting up inception_2a/relu_double_3x3_2
I0417 13:36:11.782085 15134 net.cpp:170] Top shape: 25 128 36 14 (1612800)
I0417 13:36:11.782090 15134 layer_factory.hpp:74] Creating layer inception_2a/pool
I0417 13:36:11.782093 15134 layer_factory.cpp:64] CUDNN does not support padding or multiple tops. Using Caffe's own pooling layer.
I0417 13:36:11.782095 15134 net.cpp:133] Creating Layer inception_2a/pool
I0417 13:36:11.782097 15134 net.cpp:453] inception_2a/pool <- inception_1b/output_inception_1b/output_0_split_3
I0417 13:36:11.782101 15134 net.cpp:411] inception_2a/pool -> inception_2a/pool
I0417 13:36:11.782104 15134 net.cpp:163] Setting up inception_2a/pool
I0417 13:36:11.782109 15134 net.cpp:170] Top shape: 25 384 36 14 (4838400)
I0417 13:36:11.782110 15134 layer_factory.hpp:74] Creating layer inception_2a/pool_proj
I0417 13:36:11.782119 15134 net.cpp:133] Creating Layer inception_2a/pool_proj
I0417 13:36:11.782121 15134 net.cpp:453] inception_2a/pool_proj <- inception_2a/pool
I0417 13:36:11.782125 15134 net.cpp:411] inception_2a/pool_proj -> inception_2a/pool_proj
I0417 13:36:11.782130 15134 net.cpp:163] Setting up inception_2a/pool_proj
I0417 13:36:11.937275 15134 net.cpp:170] Top shape: 25 128 36 14 (1612800)
I0417 13:36:11.937286 15134 layer_factory.hpp:74] Creating layer inception_2a/pool_proj_bn
I0417 13:36:11.937288 15134 layer_factory.cpp:191] Layer inception_2a/pool_proj_bn is using CAFFE engine.
I0417 13:36:11.937294 15134 net.cpp:133] Creating Layer inception_2a/pool_proj_bn
I0417 13:36:11.937295 15134 net.cpp:453] inception_2a/pool_proj_bn <- inception_2a/pool_proj
I0417 13:36:11.937299 15134 net.cpp:411] inception_2a/pool_proj_bn -> inception_2a/pool_proj_bn
I0417 13:36:11.937304 15134 net.cpp:163] Setting up inception_2a/pool_proj_bn
I0417 13:36:11.937314 15134 net.cpp:170] Top shape: 25 128 36 14 (1612800)
I0417 13:36:11.937328 15134 layer_factory.hpp:74] Creating layer inception_2a/relu_pool_proj
I0417 13:36:11.937332 15134 net.cpp:133] Creating Layer inception_2a/relu_pool_proj
I0417 13:36:11.937335 15134 net.cpp:453] inception_2a/relu_pool_proj <- inception_2a/pool_proj_bn
I0417 13:36:11.937337 15134 net.cpp:400] inception_2a/relu_pool_proj -> inception_2a/pool_proj_bn (in-place)
I0417 13:36:11.937340 15134 net.cpp:163] Setting up inception_2a/relu_pool_proj
I0417 13:36:11.937448 15134 net.cpp:170] Top shape: 25 128 36 14 (1612800)
I0417 13:36:11.937451 15134 layer_factory.hpp:74] Creating layer inception_2a/output
I0417 13:36:11.937455 15134 net.cpp:133] Creating Layer inception_2a/output
I0417 13:36:11.937458 15134 net.cpp:453] inception_2a/output <- inception_2a/1x1_bn
I0417 13:36:11.937459 15134 net.cpp:453] inception_2a/output <- inception_2a/3x3_bn
I0417 13:36:11.937461 15134 net.cpp:453] inception_2a/output <- inception_2a/double_3x3_2_bn
I0417 13:36:11.937464 15134 net.cpp:453] inception_2a/output <- inception_2a/pool_proj_bn
I0417 13:36:11.937468 15134 net.cpp:411] inception_2a/output -> inception_2a/output
I0417 13:36:11.937470 15134 net.cpp:163] Setting up inception_2a/output
I0417 13:36:11.937474 15134 net.cpp:170] Top shape: 25 512 36 14 (6451200)
I0417 13:36:11.937475 15134 layer_factory.hpp:74] Creating layer inception_2a/output_inception_2a/output_0_split
I0417 13:36:11.937479 15134 net.cpp:133] Creating Layer inception_2a/output_inception_2a/output_0_split
I0417 13:36:11.937480 15134 net.cpp:453] inception_2a/output_inception_2a/output_0_split <- inception_2a/output
I0417 13:36:11.937484 15134 net.cpp:411] inception_2a/output_inception_2a/output_0_split -> inception_2a/output_inception_2a/output_0_split_0
I0417 13:36:11.937496 15134 net.cpp:411] inception_2a/output_inception_2a/output_0_split -> inception_2a/output_inception_2a/output_0_split_1
I0417 13:36:11.937501 15134 net.cpp:411] inception_2a/output_inception_2a/output_0_split -> inception_2a/output_inception_2a/output_0_split_2
I0417 13:36:11.937505 15134 net.cpp:163] Setting up inception_2a/output_inception_2a/output_0_split
I0417 13:36:11.937507 15134 net.cpp:170] Top shape: 25 512 36 14 (6451200)
I0417 13:36:11.937510 15134 net.cpp:170] Top shape: 25 512 36 14 (6451200)
I0417 13:36:11.937511 15134 net.cpp:170] Top shape: 25 512 36 14 (6451200)
I0417 13:36:11.937513 15134 layer_factory.hpp:74] Creating layer inception_2b/3x3_reduce
I0417 13:36:11.937517 15134 net.cpp:133] Creating Layer inception_2b/3x3_reduce
I0417 13:36:11.937520 15134 net.cpp:453] inception_2b/3x3_reduce <- inception_2a/output_inception_2a/output_0_split_0
I0417 13:36:11.937522 15134 net.cpp:411] inception_2b/3x3_reduce -> inception_2b/3x3_reduce
I0417 13:36:11.937525 15134 net.cpp:163] Setting up inception_2b/3x3_reduce
I0417 13:36:12.137785 15134 net.cpp:170] Top shape: 25 128 36 14 (1612800)
I0417 13:36:12.137796 15134 layer_factory.hpp:74] Creating layer inception_2b/3x3_reduce_bn
I0417 13:36:12.137799 15134 layer_factory.cpp:191] Layer inception_2b/3x3_reduce_bn is using CAFFE engine.
I0417 13:36:12.137804 15134 net.cpp:133] Creating Layer inception_2b/3x3_reduce_bn
I0417 13:36:12.137805 15134 net.cpp:453] inception_2b/3x3_reduce_bn <- inception_2b/3x3_reduce
I0417 13:36:12.137809 15134 net.cpp:411] inception_2b/3x3_reduce_bn -> inception_2b/3x3_reduce_bn
I0417 13:36:12.137814 15134 net.cpp:163] Setting up inception_2b/3x3_reduce_bn
I0417 13:36:12.137823 15134 net.cpp:170] Top shape: 25 128 36 14 (1612800)
I0417 13:36:12.137826 15134 layer_factory.hpp:74] Creating layer inception_2b/relu_3x3_reduce
I0417 13:36:12.137830 15134 net.cpp:133] Creating Layer inception_2b/relu_3x3_reduce
I0417 13:36:12.137831 15134 net.cpp:453] inception_2b/relu_3x3_reduce <- inception_2b/3x3_reduce_bn
I0417 13:36:12.137835 15134 net.cpp:400] inception_2b/relu_3x3_reduce -> inception_2b/3x3_reduce_bn (in-place)
I0417 13:36:12.137836 15134 net.cpp:163] Setting up inception_2b/relu_3x3_reduce
I0417 13:36:12.138018 15134 net.cpp:170] Top shape: 25 128 36 14 (1612800)
I0417 13:36:12.138025 15134 layer_factory.hpp:74] Creating layer inception_2b/3x3
I0417 13:36:12.138028 15134 net.cpp:133] Creating Layer inception_2b/3x3
I0417 13:36:12.138031 15134 net.cpp:453] inception_2b/3x3 <- inception_2b/3x3_reduce_bn
I0417 13:36:12.138034 15134 net.cpp:411] inception_2b/3x3 -> inception_2b/3x3
I0417 13:36:12.138038 15134 net.cpp:163] Setting up inception_2b/3x3
I0417 13:36:12.150640 15134 net.cpp:170] Top shape: 25 128 18 7 (403200)
I0417 13:36:12.150648 15134 layer_factory.hpp:74] Creating layer inception_2b/3x3_bn
I0417 13:36:12.150651 15134 layer_factory.cpp:191] Layer inception_2b/3x3_bn is using CAFFE engine.
I0417 13:36:12.150655 15134 net.cpp:133] Creating Layer inception_2b/3x3_bn
I0417 13:36:12.150657 15134 net.cpp:453] inception_2b/3x3_bn <- inception_2b/3x3
I0417 13:36:12.150661 15134 net.cpp:411] inception_2b/3x3_bn -> inception_2b/3x3_bn
I0417 13:36:12.150666 15134 net.cpp:163] Setting up inception_2b/3x3_bn
I0417 13:36:12.150676 15134 net.cpp:170] Top shape: 25 128 18 7 (403200)
I0417 13:36:12.150681 15134 layer_factory.hpp:74] Creating layer inception_2b/relu_3x3
I0417 13:36:12.150683 15134 net.cpp:133] Creating Layer inception_2b/relu_3x3
I0417 13:36:12.150686 15134 net.cpp:453] inception_2b/relu_3x3 <- inception_2b/3x3_bn
I0417 13:36:12.150688 15134 net.cpp:400] inception_2b/relu_3x3 -> inception_2b/3x3_bn (in-place)
I0417 13:36:12.150691 15134 net.cpp:163] Setting up inception_2b/relu_3x3
I0417 13:36:12.150796 15134 net.cpp:170] Top shape: 25 128 18 7 (403200)
I0417 13:36:12.150801 15134 layer_factory.hpp:74] Creating layer inception_2b/double_3x3_reduce
I0417 13:36:12.150806 15134 net.cpp:133] Creating Layer inception_2b/double_3x3_reduce
I0417 13:36:12.150809 15134 net.cpp:453] inception_2b/double_3x3_reduce <- inception_2a/output_inception_2a/output_0_split_1
I0417 13:36:12.150812 15134 net.cpp:411] inception_2b/double_3x3_reduce -> inception_2b/double_3x3_reduce
I0417 13:36:12.150816 15134 net.cpp:163] Setting up inception_2b/double_3x3_reduce
I0417 13:36:12.351757 15134 net.cpp:170] Top shape: 25 128 36 14 (1612800)
I0417 13:36:12.351766 15134 layer_factory.hpp:74] Creating layer inception_2b/double_3x3_reduce_bn
I0417 13:36:12.351769 15134 layer_factory.cpp:191] Layer inception_2b/double_3x3_reduce_bn is using CAFFE engine.
I0417 13:36:12.351773 15134 net.cpp:133] Creating Layer inception_2b/double_3x3_reduce_bn
I0417 13:36:12.351776 15134 net.cpp:453] inception_2b/double_3x3_reduce_bn <- inception_2b/double_3x3_reduce
I0417 13:36:12.351780 15134 net.cpp:411] inception_2b/double_3x3_reduce_bn -> inception_2b/double_3x3_reduce_bn
I0417 13:36:12.351784 15134 net.cpp:163] Setting up inception_2b/double_3x3_reduce_bn
I0417 13:36:12.351794 15134 net.cpp:170] Top shape: 25 128 36 14 (1612800)
I0417 13:36:12.351799 15134 layer_factory.hpp:74] Creating layer inception_2b/relu_double_3x3_reduce
I0417 13:36:12.351802 15134 net.cpp:133] Creating Layer inception_2b/relu_double_3x3_reduce
I0417 13:36:12.351804 15134 net.cpp:453] inception_2b/relu_double_3x3_reduce <- inception_2b/double_3x3_reduce_bn
I0417 13:36:12.351807 15134 net.cpp:400] inception_2b/relu_double_3x3_reduce -> inception_2b/double_3x3_reduce_bn (in-place)
I0417 13:36:12.351810 15134 net.cpp:163] Setting up inception_2b/relu_double_3x3_reduce
I0417 13:36:12.351928 15134 net.cpp:170] Top shape: 25 128 36 14 (1612800)
I0417 13:36:12.351934 15134 layer_factory.hpp:74] Creating layer inception_2b/double_3x3_1
I0417 13:36:12.351939 15134 net.cpp:133] Creating Layer inception_2b/double_3x3_1
I0417 13:36:12.351941 15134 net.cpp:453] inception_2b/double_3x3_1 <- inception_2b/double_3x3_reduce_bn
I0417 13:36:12.351944 15134 net.cpp:411] inception_2b/double_3x3_1 -> inception_2b/double_3x3_1
I0417 13:36:12.351948 15134 net.cpp:163] Setting up inception_2b/double_3x3_1
I0417 13:36:12.424648 15134 net.cpp:170] Top shape: 25 128 36 14 (1612800)
I0417 13:36:12.424657 15134 layer_factory.hpp:74] Creating layer inception_2b/double_3x3_1_bn
I0417 13:36:12.424659 15134 layer_factory.cpp:191] Layer inception_2b/double_3x3_1_bn is using CAFFE engine.
I0417 13:36:12.424664 15134 net.cpp:133] Creating Layer inception_2b/double_3x3_1_bn
I0417 13:36:12.424666 15134 net.cpp:453] inception_2b/double_3x3_1_bn <- inception_2b/double_3x3_1
I0417 13:36:12.424670 15134 net.cpp:411] inception_2b/double_3x3_1_bn -> inception_2b/double_3x3_1_bn
I0417 13:36:12.424674 15134 net.cpp:163] Setting up inception_2b/double_3x3_1_bn
I0417 13:36:12.424685 15134 net.cpp:170] Top shape: 25 128 36 14 (1612800)
I0417 13:36:12.424690 15134 layer_factory.hpp:74] Creating layer inception_2b/relu_double_3x3_1
I0417 13:36:12.424692 15134 net.cpp:133] Creating Layer inception_2b/relu_double_3x3_1
I0417 13:36:12.424695 15134 net.cpp:453] inception_2b/relu_double_3x3_1 <- inception_2b/double_3x3_1_bn
I0417 13:36:12.424697 15134 net.cpp:400] inception_2b/relu_double_3x3_1 -> inception_2b/double_3x3_1_bn (in-place)
I0417 13:36:12.424700 15134 net.cpp:163] Setting up inception_2b/relu_double_3x3_1
I0417 13:36:12.424880 15134 net.cpp:170] Top shape: 25 128 36 14 (1612800)
I0417 13:36:12.424885 15134 layer_factory.hpp:74] Creating layer inception_2b/double_3x3_2
I0417 13:36:12.424890 15134 net.cpp:133] Creating Layer inception_2b/double_3x3_2
I0417 13:36:12.424892 15134 net.cpp:453] inception_2b/double_3x3_2 <- inception_2b/double_3x3_1_bn
I0417 13:36:12.424896 15134 net.cpp:411] inception_2b/double_3x3_2 -> inception_2b/double_3x3_2
I0417 13:36:12.424901 15134 net.cpp:163] Setting up inception_2b/double_3x3_2
I0417 13:36:12.437386 15134 net.cpp:170] Top shape: 25 128 18 7 (403200)
I0417 13:36:12.437397 15134 layer_factory.hpp:74] Creating layer inception_2b/double_3x3_2_bn
I0417 13:36:12.437399 15134 layer_factory.cpp:191] Layer inception_2b/double_3x3_2_bn is using CAFFE engine.
I0417 13:36:12.437404 15134 net.cpp:133] Creating Layer inception_2b/double_3x3_2_bn
I0417 13:36:12.437407 15134 net.cpp:453] inception_2b/double_3x3_2_bn <- inception_2b/double_3x3_2
I0417 13:36:12.437410 15134 net.cpp:411] inception_2b/double_3x3_2_bn -> inception_2b/double_3x3_2_bn
I0417 13:36:12.437414 15134 net.cpp:163] Setting up inception_2b/double_3x3_2_bn
I0417 13:36:12.437422 15134 net.cpp:170] Top shape: 25 128 18 7 (403200)
I0417 13:36:12.437427 15134 layer_factory.hpp:74] Creating layer inception_2b/relu_double_3x3_2
I0417 13:36:12.437432 15134 net.cpp:133] Creating Layer inception_2b/relu_double_3x3_2
I0417 13:36:12.437433 15134 net.cpp:453] inception_2b/relu_double_3x3_2 <- inception_2b/double_3x3_2_bn
I0417 13:36:12.437435 15134 net.cpp:400] inception_2b/relu_double_3x3_2 -> inception_2b/double_3x3_2_bn (in-place)
I0417 13:36:12.437438 15134 net.cpp:163] Setting up inception_2b/relu_double_3x3_2
I0417 13:36:12.437544 15134 net.cpp:170] Top shape: 25 128 18 7 (403200)
I0417 13:36:12.437548 15134 layer_factory.hpp:74] Creating layer inception_2b/pool
I0417 13:36:12.437553 15134 net.cpp:133] Creating Layer inception_2b/pool
I0417 13:36:12.437556 15134 net.cpp:453] inception_2b/pool <- inception_2a/output_inception_2a/output_0_split_2
I0417 13:36:12.437558 15134 net.cpp:411] inception_2b/pool -> inception_2b/pool
I0417 13:36:12.437562 15134 net.cpp:163] Setting up inception_2b/pool
I0417 13:36:12.437737 15134 net.cpp:170] Top shape: 25 512 18 7 (1612800)
I0417 13:36:12.437742 15134 layer_factory.hpp:74] Creating layer inception_2b/output
I0417 13:36:12.437747 15134 net.cpp:133] Creating Layer inception_2b/output
I0417 13:36:12.437749 15134 net.cpp:453] inception_2b/output <- inception_2b/3x3_bn
I0417 13:36:12.437752 15134 net.cpp:453] inception_2b/output <- inception_2b/double_3x3_2_bn
I0417 13:36:12.437753 15134 net.cpp:453] inception_2b/output <- inception_2b/pool
I0417 13:36:12.437757 15134 net.cpp:411] inception_2b/output -> inception_2b/output
I0417 13:36:12.437760 15134 net.cpp:163] Setting up inception_2b/output
I0417 13:36:12.437763 15134 net.cpp:170] Top shape: 25 768 18 7 (2419200)
I0417 13:36:12.437765 15134 layer_factory.hpp:74] Creating layer inception_2b/output_inception_2b/output_0_split
I0417 13:36:12.437768 15134 net.cpp:133] Creating Layer inception_2b/output_inception_2b/output_0_split
I0417 13:36:12.437770 15134 net.cpp:453] inception_2b/output_inception_2b/output_0_split <- inception_2b/output
I0417 13:36:12.437773 15134 net.cpp:411] inception_2b/output_inception_2b/output_0_split -> inception_2b/output_inception_2b/output_0_split_0
I0417 13:36:12.437777 15134 net.cpp:411] inception_2b/output_inception_2b/output_0_split -> inception_2b/output_inception_2b/output_0_split_1
I0417 13:36:12.437780 15134 net.cpp:411] inception_2b/output_inception_2b/output_0_split -> inception_2b/output_inception_2b/output_0_split_2
I0417 13:36:12.437783 15134 net.cpp:411] inception_2b/output_inception_2b/output_0_split -> inception_2b/output_inception_2b/output_0_split_3
I0417 13:36:12.437786 15134 net.cpp:163] Setting up inception_2b/output_inception_2b/output_0_split
I0417 13:36:12.437789 15134 net.cpp:170] Top shape: 25 768 18 7 (2419200)
I0417 13:36:12.437791 15134 net.cpp:170] Top shape: 25 768 18 7 (2419200)
I0417 13:36:12.437793 15134 net.cpp:170] Top shape: 25 768 18 7 (2419200)
I0417 13:36:12.437795 15134 net.cpp:170] Top shape: 25 768 18 7 (2419200)
I0417 13:36:12.437796 15134 layer_factory.hpp:74] Creating layer inception_3a/1x1
I0417 13:36:12.437803 15134 net.cpp:133] Creating Layer inception_3a/1x1
I0417 13:36:12.437804 15134 net.cpp:453] inception_3a/1x1 <- inception_2b/output_inception_2b/output_0_split_0
I0417 13:36:12.437808 15134 net.cpp:411] inception_3a/1x1 -> inception_3a/1x1
I0417 13:36:12.437810 15134 net.cpp:163] Setting up inception_3a/1x1
I0417 13:36:12.593080 15134 net.cpp:170] Top shape: 25 256 18 7 (806400)
I0417 13:36:12.593091 15134 layer_factory.hpp:74] Creating layer inception_3a/1x1_bn
I0417 13:36:12.593093 15134 layer_factory.cpp:191] Layer inception_3a/1x1_bn is using CAFFE engine.
I0417 13:36:12.593097 15134 net.cpp:133] Creating Layer inception_3a/1x1_bn
I0417 13:36:12.593099 15134 net.cpp:453] inception_3a/1x1_bn <- inception_3a/1x1
I0417 13:36:12.593103 15134 net.cpp:411] inception_3a/1x1_bn -> inception_3a/1x1_bn
I0417 13:36:12.593108 15134 net.cpp:163] Setting up inception_3a/1x1_bn
I0417 13:36:12.593117 15134 net.cpp:170] Top shape: 25 256 18 7 (806400)
I0417 13:36:12.593122 15134 layer_factory.hpp:74] Creating layer inception_3a/relu_1x1
I0417 13:36:12.593125 15134 net.cpp:133] Creating Layer inception_3a/relu_1x1
I0417 13:36:12.593127 15134 net.cpp:453] inception_3a/relu_1x1 <- inception_3a/1x1_bn
I0417 13:36:12.593130 15134 net.cpp:400] inception_3a/relu_1x1 -> inception_3a/1x1_bn (in-place)
I0417 13:36:12.593133 15134 net.cpp:163] Setting up inception_3a/relu_1x1
I0417 13:36:12.593315 15134 net.cpp:170] Top shape: 25 256 18 7 (806400)
I0417 13:36:12.593322 15134 layer_factory.hpp:74] Creating layer inception_3a/3x3_reduce
I0417 13:36:12.593327 15134 net.cpp:133] Creating Layer inception_3a/3x3_reduce
I0417 13:36:12.593328 15134 net.cpp:453] inception_3a/3x3_reduce <- inception_2b/output_inception_2b/output_0_split_1
I0417 13:36:12.593332 15134 net.cpp:411] inception_3a/3x3_reduce -> inception_3a/3x3_reduce
I0417 13:36:12.593335 15134 net.cpp:163] Setting up inception_3a/3x3_reduce
I0417 13:36:12.748416 15134 net.cpp:170] Top shape: 25 256 18 7 (806400)
I0417 13:36:12.748427 15134 layer_factory.hpp:74] Creating layer inception_3a/3x3_reduce_bn
I0417 13:36:12.748430 15134 layer_factory.cpp:191] Layer inception_3a/3x3_reduce_bn is using CAFFE engine.
I0417 13:36:12.748433 15134 net.cpp:133] Creating Layer inception_3a/3x3_reduce_bn
I0417 13:36:12.748435 15134 net.cpp:453] inception_3a/3x3_reduce_bn <- inception_3a/3x3_reduce
I0417 13:36:12.748440 15134 net.cpp:411] inception_3a/3x3_reduce_bn -> inception_3a/3x3_reduce_bn
I0417 13:36:12.748445 15134 net.cpp:163] Setting up inception_3a/3x3_reduce_bn
I0417 13:36:12.748455 15134 net.cpp:170] Top shape: 25 256 18 7 (806400)
I0417 13:36:12.748458 15134 layer_factory.hpp:74] Creating layer inception_3a/relu_3x3_reduce
I0417 13:36:12.748462 15134 net.cpp:133] Creating Layer inception_3a/relu_3x3_reduce
I0417 13:36:12.748464 15134 net.cpp:453] inception_3a/relu_3x3_reduce <- inception_3a/3x3_reduce_bn
I0417 13:36:12.748466 15134 net.cpp:400] inception_3a/relu_3x3_reduce -> inception_3a/3x3_reduce_bn (in-place)
I0417 13:36:12.748469 15134 net.cpp:163] Setting up inception_3a/relu_3x3_reduce
I0417 13:36:12.748577 15134 net.cpp:170] Top shape: 25 256 18 7 (806400)
I0417 13:36:12.748581 15134 layer_factory.hpp:74] Creating layer inception_3a/3x3
I0417 13:36:12.748586 15134 net.cpp:133] Creating Layer inception_3a/3x3
I0417 13:36:12.748589 15134 net.cpp:453] inception_3a/3x3 <- inception_3a/3x3_reduce_bn
I0417 13:36:12.748591 15134 net.cpp:411] inception_3a/3x3 -> inception_3a/3x3
I0417 13:36:12.748595 15134 net.cpp:163] Setting up inception_3a/3x3
I0417 13:36:12.825335 15134 net.cpp:170] Top shape: 25 256 18 7 (806400)
I0417 13:36:12.825345 15134 layer_factory.hpp:74] Creating layer inception_3a/3x3_bn
I0417 13:36:12.825347 15134 layer_factory.cpp:191] Layer inception_3a/3x3_bn is using CAFFE engine.
I0417 13:36:12.825352 15134 net.cpp:133] Creating Layer inception_3a/3x3_bn
I0417 13:36:12.825355 15134 net.cpp:453] inception_3a/3x3_bn <- inception_3a/3x3
I0417 13:36:12.825358 15134 net.cpp:411] inception_3a/3x3_bn -> inception_3a/3x3_bn
I0417 13:36:12.825363 15134 net.cpp:163] Setting up inception_3a/3x3_bn
I0417 13:36:12.825373 15134 net.cpp:170] Top shape: 25 256 18 7 (806400)
I0417 13:36:12.825377 15134 layer_factory.hpp:74] Creating layer inception_3a/relu_3x3
I0417 13:36:12.825381 15134 net.cpp:133] Creating Layer inception_3a/relu_3x3
I0417 13:36:12.825382 15134 net.cpp:453] inception_3a/relu_3x3 <- inception_3a/3x3_bn
I0417 13:36:12.825384 15134 net.cpp:400] inception_3a/relu_3x3 -> inception_3a/3x3_bn (in-place)
I0417 13:36:12.825387 15134 net.cpp:163] Setting up inception_3a/relu_3x3
I0417 13:36:12.825577 15134 net.cpp:170] Top shape: 25 256 18 7 (806400)
I0417 13:36:12.825583 15134 layer_factory.hpp:74] Creating layer inception_3a/double_3x3_reduce
I0417 13:36:12.825588 15134 net.cpp:133] Creating Layer inception_3a/double_3x3_reduce
I0417 13:36:12.825590 15134 net.cpp:453] inception_3a/double_3x3_reduce <- inception_2b/output_inception_2b/output_0_split_2
I0417 13:36:12.825594 15134 net.cpp:411] inception_3a/double_3x3_reduce -> inception_3a/double_3x3_reduce
I0417 13:36:12.825598 15134 net.cpp:163] Setting up inception_3a/double_3x3_reduce
I0417 13:36:12.980417 15134 net.cpp:170] Top shape: 25 256 18 7 (806400)
I0417 13:36:12.980427 15134 layer_factory.hpp:74] Creating layer inception_3a/double_3x3_reduce_bn
I0417 13:36:12.980430 15134 layer_factory.cpp:191] Layer inception_3a/double_3x3_reduce_bn is using CAFFE engine.
I0417 13:36:12.980435 15134 net.cpp:133] Creating Layer inception_3a/double_3x3_reduce_bn
I0417 13:36:12.980437 15134 net.cpp:453] inception_3a/double_3x3_reduce_bn <- inception_3a/double_3x3_reduce
I0417 13:36:12.980442 15134 net.cpp:411] inception_3a/double_3x3_reduce_bn -> inception_3a/double_3x3_reduce_bn
I0417 13:36:12.980446 15134 net.cpp:163] Setting up inception_3a/double_3x3_reduce_bn
I0417 13:36:12.980456 15134 net.cpp:170] Top shape: 25 256 18 7 (806400)
I0417 13:36:12.980460 15134 layer_factory.hpp:74] Creating layer inception_3a/relu_double_3x3_reduce
I0417 13:36:12.980463 15134 net.cpp:133] Creating Layer inception_3a/relu_double_3x3_reduce
I0417 13:36:12.980464 15134 net.cpp:453] inception_3a/relu_double_3x3_reduce <- inception_3a/double_3x3_reduce_bn
I0417 13:36:12.980468 15134 net.cpp:400] inception_3a/relu_double_3x3_reduce -> inception_3a/double_3x3_reduce_bn (in-place)
I0417 13:36:12.980470 15134 net.cpp:163] Setting up inception_3a/relu_double_3x3_reduce
I0417 13:36:12.980654 15134 net.cpp:170] Top shape: 25 256 18 7 (806400)
I0417 13:36:12.980659 15134 layer_factory.hpp:74] Creating layer inception_3a/double_3x3_1
I0417 13:36:12.980665 15134 net.cpp:133] Creating Layer inception_3a/double_3x3_1
I0417 13:36:12.980667 15134 net.cpp:453] inception_3a/double_3x3_1 <- inception_3a/double_3x3_reduce_bn
I0417 13:36:12.980671 15134 net.cpp:411] inception_3a/double_3x3_1 -> inception_3a/double_3x3_1
I0417 13:36:12.980675 15134 net.cpp:163] Setting up inception_3a/double_3x3_1
I0417 13:36:13.056679 15134 net.cpp:170] Top shape: 25 256 18 7 (806400)
I0417 13:36:13.056689 15134 layer_factory.hpp:74] Creating layer inception_3a/double_3x3_1_bn
I0417 13:36:13.056692 15134 layer_factory.cpp:191] Layer inception_3a/double_3x3_1_bn is using CAFFE engine.
I0417 13:36:13.056696 15134 net.cpp:133] Creating Layer inception_3a/double_3x3_1_bn
I0417 13:36:13.056699 15134 net.cpp:453] inception_3a/double_3x3_1_bn <- inception_3a/double_3x3_1
I0417 13:36:13.056702 15134 net.cpp:411] inception_3a/double_3x3_1_bn -> inception_3a/double_3x3_1_bn
I0417 13:36:13.056707 15134 net.cpp:163] Setting up inception_3a/double_3x3_1_bn
I0417 13:36:13.056717 15134 net.cpp:170] Top shape: 25 256 18 7 (806400)
I0417 13:36:13.056722 15134 layer_factory.hpp:74] Creating layer inception_3a/relu_double_3x3_1
I0417 13:36:13.056725 15134 net.cpp:133] Creating Layer inception_3a/relu_double_3x3_1
I0417 13:36:13.056727 15134 net.cpp:453] inception_3a/relu_double_3x3_1 <- inception_3a/double_3x3_1_bn
I0417 13:36:13.056730 15134 net.cpp:400] inception_3a/relu_double_3x3_1 -> inception_3a/double_3x3_1_bn (in-place)
I0417 13:36:13.056733 15134 net.cpp:163] Setting up inception_3a/relu_double_3x3_1
I0417 13:36:13.056841 15134 net.cpp:170] Top shape: 25 256 18 7 (806400)
I0417 13:36:13.056845 15134 layer_factory.hpp:74] Creating layer inception_3a/double_3x3_2
I0417 13:36:13.056850 15134 net.cpp:133] Creating Layer inception_3a/double_3x3_2
I0417 13:36:13.056852 15134 net.cpp:453] inception_3a/double_3x3_2 <- inception_3a/double_3x3_1_bn
I0417 13:36:13.056856 15134 net.cpp:411] inception_3a/double_3x3_2 -> inception_3a/double_3x3_2
I0417 13:36:13.056859 15134 net.cpp:163] Setting up inception_3a/double_3x3_2
I0417 13:36:13.133087 15134 net.cpp:170] Top shape: 25 256 18 7 (806400)
I0417 13:36:13.133100 15134 layer_factory.hpp:74] Creating layer inception_3a/double_3x3_2_bn
I0417 13:36:13.133102 15134 layer_factory.cpp:191] Layer inception_3a/double_3x3_2_bn is using CAFFE engine.
I0417 13:36:13.133106 15134 net.cpp:133] Creating Layer inception_3a/double_3x3_2_bn
I0417 13:36:13.133110 15134 net.cpp:453] inception_3a/double_3x3_2_bn <- inception_3a/double_3x3_2
I0417 13:36:13.133113 15134 net.cpp:411] inception_3a/double_3x3_2_bn -> inception_3a/double_3x3_2_bn
I0417 13:36:13.133118 15134 net.cpp:163] Setting up inception_3a/double_3x3_2_bn
I0417 13:36:13.133129 15134 net.cpp:170] Top shape: 25 256 18 7 (806400)
I0417 13:36:13.133134 15134 layer_factory.hpp:74] Creating layer inception_3a/relu_double_3x3_2
I0417 13:36:13.133138 15134 net.cpp:133] Creating Layer inception_3a/relu_double_3x3_2
I0417 13:36:13.133139 15134 net.cpp:453] inception_3a/relu_double_3x3_2 <- inception_3a/double_3x3_2_bn
I0417 13:36:13.133142 15134 net.cpp:400] inception_3a/relu_double_3x3_2 -> inception_3a/double_3x3_2_bn (in-place)
I0417 13:36:13.133144 15134 net.cpp:163] Setting up inception_3a/relu_double_3x3_2
I0417 13:36:13.133333 15134 net.cpp:170] Top shape: 25 256 18 7 (806400)
I0417 13:36:13.133339 15134 layer_factory.hpp:74] Creating layer inception_3a/pool
I0417 13:36:13.133342 15134 layer_factory.cpp:64] CUDNN does not support padding or multiple tops. Using Caffe's own pooling layer.
I0417 13:36:13.133345 15134 net.cpp:133] Creating Layer inception_3a/pool
I0417 13:36:13.133347 15134 net.cpp:453] inception_3a/pool <- inception_2b/output_inception_2b/output_0_split_3
I0417 13:36:13.133350 15134 net.cpp:411] inception_3a/pool -> inception_3a/pool
I0417 13:36:13.133355 15134 net.cpp:163] Setting up inception_3a/pool
I0417 13:36:13.133359 15134 net.cpp:170] Top shape: 25 768 18 7 (2419200)
I0417 13:36:13.133361 15134 layer_factory.hpp:74] Creating layer inception_3a/pool_proj
I0417 13:36:13.133365 15134 net.cpp:133] Creating Layer inception_3a/pool_proj
I0417 13:36:13.133368 15134 net.cpp:453] inception_3a/pool_proj <- inception_3a/pool
I0417 13:36:13.133370 15134 net.cpp:411] inception_3a/pool_proj -> inception_3a/pool_proj
I0417 13:36:13.133373 15134 net.cpp:163] Setting up inception_3a/pool_proj
I0417 13:36:13.287642 15134 net.cpp:170] Top shape: 25 256 18 7 (806400)
I0417 13:36:13.287653 15134 layer_factory.hpp:74] Creating layer inception_3a/pool_proj_bn
I0417 13:36:13.287657 15134 layer_factory.cpp:191] Layer inception_3a/pool_proj_bn is using CAFFE engine.
I0417 13:36:13.287660 15134 net.cpp:133] Creating Layer inception_3a/pool_proj_bn
I0417 13:36:13.287663 15134 net.cpp:453] inception_3a/pool_proj_bn <- inception_3a/pool_proj
I0417 13:36:13.287667 15134 net.cpp:411] inception_3a/pool_proj_bn -> inception_3a/pool_proj_bn
I0417 13:36:13.287672 15134 net.cpp:163] Setting up inception_3a/pool_proj_bn
I0417 13:36:13.287681 15134 net.cpp:170] Top shape: 25 256 18 7 (806400)
I0417 13:36:13.287686 15134 layer_factory.hpp:74] Creating layer inception_3a/relu_pool_proj
I0417 13:36:13.287689 15134 net.cpp:133] Creating Layer inception_3a/relu_pool_proj
I0417 13:36:13.287691 15134 net.cpp:453] inception_3a/relu_pool_proj <- inception_3a/pool_proj_bn
I0417 13:36:13.287694 15134 net.cpp:400] inception_3a/relu_pool_proj -> inception_3a/pool_proj_bn (in-place)
I0417 13:36:13.287696 15134 net.cpp:163] Setting up inception_3a/relu_pool_proj
I0417 13:36:13.287883 15134 net.cpp:170] Top shape: 25 256 18 7 (806400)
I0417 13:36:13.287889 15134 layer_factory.hpp:74] Creating layer inception_3a/output
I0417 13:36:13.287894 15134 net.cpp:133] Creating Layer inception_3a/output
I0417 13:36:13.287895 15134 net.cpp:453] inception_3a/output <- inception_3a/1x1_bn
I0417 13:36:13.287899 15134 net.cpp:453] inception_3a/output <- inception_3a/3x3_bn
I0417 13:36:13.287900 15134 net.cpp:453] inception_3a/output <- inception_3a/double_3x3_2_bn
I0417 13:36:13.287904 15134 net.cpp:453] inception_3a/output <- inception_3a/pool_proj_bn
I0417 13:36:13.287905 15134 net.cpp:411] inception_3a/output -> inception_3a/output
I0417 13:36:13.287910 15134 net.cpp:163] Setting up inception_3a/output
I0417 13:36:13.287914 15134 net.cpp:170] Top shape: 25 1024 18 7 (3225600)
I0417 13:36:13.287916 15134 layer_factory.hpp:74] Creating layer inception_3a/output_inception_3a/output_0_split
I0417 13:36:13.287919 15134 net.cpp:133] Creating Layer inception_3a/output_inception_3a/output_0_split
I0417 13:36:13.287920 15134 net.cpp:453] inception_3a/output_inception_3a/output_0_split <- inception_3a/output
I0417 13:36:13.287924 15134 net.cpp:411] inception_3a/output_inception_3a/output_0_split -> inception_3a/output_inception_3a/output_0_split_0
I0417 13:36:13.287927 15134 net.cpp:411] inception_3a/output_inception_3a/output_0_split -> inception_3a/output_inception_3a/output_0_split_1
I0417 13:36:13.287930 15134 net.cpp:411] inception_3a/output_inception_3a/output_0_split -> inception_3a/output_inception_3a/output_0_split_2
I0417 13:36:13.287933 15134 net.cpp:163] Setting up inception_3a/output_inception_3a/output_0_split
I0417 13:36:13.287936 15134 net.cpp:170] Top shape: 25 1024 18 7 (3225600)
I0417 13:36:13.287938 15134 net.cpp:170] Top shape: 25 1024 18 7 (3225600)
I0417 13:36:13.287940 15134 net.cpp:170] Top shape: 25 1024 18 7 (3225600)
I0417 13:36:13.287941 15134 layer_factory.hpp:74] Creating layer inception_3b/3x3_reduce
I0417 13:36:13.287945 15134 net.cpp:133] Creating Layer inception_3b/3x3_reduce
I0417 13:36:13.287947 15134 net.cpp:453] inception_3b/3x3_reduce <- inception_3a/output_inception_3a/output_0_split_0
I0417 13:36:13.287951 15134 net.cpp:411] inception_3b/3x3_reduce -> inception_3b/3x3_reduce
I0417 13:36:13.287955 15134 net.cpp:163] Setting up inception_3b/3x3_reduce
I0417 13:36:13.495035 15134 net.cpp:170] Top shape: 25 256 18 7 (806400)
I0417 13:36:13.495046 15134 layer_factory.hpp:74] Creating layer inception_3b/3x3_reduce_bn
I0417 13:36:13.495048 15134 layer_factory.cpp:191] Layer inception_3b/3x3_reduce_bn is using CAFFE engine.
I0417 13:36:13.495053 15134 net.cpp:133] Creating Layer inception_3b/3x3_reduce_bn
I0417 13:36:13.495055 15134 net.cpp:453] inception_3b/3x3_reduce_bn <- inception_3b/3x3_reduce
I0417 13:36:13.495059 15134 net.cpp:411] inception_3b/3x3_reduce_bn -> inception_3b/3x3_reduce_bn
I0417 13:36:13.495064 15134 net.cpp:163] Setting up inception_3b/3x3_reduce_bn
I0417 13:36:13.495074 15134 net.cpp:170] Top shape: 25 256 18 7 (806400)
I0417 13:36:13.495077 15134 layer_factory.hpp:74] Creating layer inception_3b/relu_3x3_reduce
I0417 13:36:13.495080 15134 net.cpp:133] Creating Layer inception_3b/relu_3x3_reduce
I0417 13:36:13.495082 15134 net.cpp:453] inception_3b/relu_3x3_reduce <- inception_3b/3x3_reduce_bn
I0417 13:36:13.495085 15134 net.cpp:400] inception_3b/relu_3x3_reduce -> inception_3b/3x3_reduce_bn (in-place)
I0417 13:36:13.495087 15134 net.cpp:163] Setting up inception_3b/relu_3x3_reduce
I0417 13:36:13.495198 15134 net.cpp:170] Top shape: 25 256 18 7 (806400)
I0417 13:36:13.495203 15134 layer_factory.hpp:74] Creating layer inception_3b/3x3
I0417 13:36:13.495208 15134 net.cpp:133] Creating Layer inception_3b/3x3
I0417 13:36:13.495209 15134 net.cpp:453] inception_3b/3x3 <- inception_3b/3x3_reduce_bn
I0417 13:36:13.495213 15134 net.cpp:411] inception_3b/3x3 -> inception_3b/3x3
I0417 13:36:13.495216 15134 net.cpp:163] Setting up inception_3b/3x3
I0417 13:36:13.513695 15134 net.cpp:170] Top shape: 25 256 9 4 (230400)
I0417 13:36:13.513705 15134 layer_factory.hpp:74] Creating layer inception_3b/3x3_bn
I0417 13:36:13.513708 15134 layer_factory.cpp:191] Layer inception_3b/3x3_bn is using CAFFE engine.
I0417 13:36:13.513713 15134 net.cpp:133] Creating Layer inception_3b/3x3_bn
I0417 13:36:13.513715 15134 net.cpp:453] inception_3b/3x3_bn <- inception_3b/3x3
I0417 13:36:13.513718 15134 net.cpp:411] inception_3b/3x3_bn -> inception_3b/3x3_bn
I0417 13:36:13.513723 15134 net.cpp:163] Setting up inception_3b/3x3_bn
I0417 13:36:13.513733 15134 net.cpp:170] Top shape: 25 256 9 4 (230400)
I0417 13:36:13.513738 15134 layer_factory.hpp:74] Creating layer inception_3b/relu_3x3
I0417 13:36:13.513741 15134 net.cpp:133] Creating Layer inception_3b/relu_3x3
I0417 13:36:13.513742 15134 net.cpp:453] inception_3b/relu_3x3 <- inception_3b/3x3_bn
I0417 13:36:13.513746 15134 net.cpp:400] inception_3b/relu_3x3 -> inception_3b/3x3_bn (in-place)
I0417 13:36:13.513749 15134 net.cpp:163] Setting up inception_3b/relu_3x3
I0417 13:36:13.513938 15134 net.cpp:170] Top shape: 25 256 9 4 (230400)
I0417 13:36:13.513944 15134 layer_factory.hpp:74] Creating layer inception_3b/double_3x3_reduce
I0417 13:36:13.513949 15134 net.cpp:133] Creating Layer inception_3b/double_3x3_reduce
I0417 13:36:13.513952 15134 net.cpp:453] inception_3b/double_3x3_reduce <- inception_3a/output_inception_3a/output_0_split_1
I0417 13:36:13.513955 15134 net.cpp:411] inception_3b/double_3x3_reduce -> inception_3b/double_3x3_reduce
I0417 13:36:13.513960 15134 net.cpp:163] Setting up inception_3b/double_3x3_reduce
I0417 13:36:13.721158 15134 net.cpp:170] Top shape: 25 256 18 7 (806400)
I0417 13:36:13.721168 15134 layer_factory.hpp:74] Creating layer inception_3b/double_3x3_reduce_bn
I0417 13:36:13.721171 15134 layer_factory.cpp:191] Layer inception_3b/double_3x3_reduce_bn is using CAFFE engine.
I0417 13:36:13.721175 15134 net.cpp:133] Creating Layer inception_3b/double_3x3_reduce_bn
I0417 13:36:13.721179 15134 net.cpp:453] inception_3b/double_3x3_reduce_bn <- inception_3b/double_3x3_reduce
I0417 13:36:13.721182 15134 net.cpp:411] inception_3b/double_3x3_reduce_bn -> inception_3b/double_3x3_reduce_bn
I0417 13:36:13.721187 15134 net.cpp:163] Setting up inception_3b/double_3x3_reduce_bn
I0417 13:36:13.721197 15134 net.cpp:170] Top shape: 25 256 18 7 (806400)
I0417 13:36:13.721201 15134 layer_factory.hpp:74] Creating layer inception_3b/relu_double_3x3_reduce
I0417 13:36:13.721230 15134 net.cpp:133] Creating Layer inception_3b/relu_double_3x3_reduce
I0417 13:36:13.721232 15134 net.cpp:453] inception_3b/relu_double_3x3_reduce <- inception_3b/double_3x3_reduce_bn
I0417 13:36:13.721235 15134 net.cpp:400] inception_3b/relu_double_3x3_reduce -> inception_3b/double_3x3_reduce_bn (in-place)
I0417 13:36:13.721238 15134 net.cpp:163] Setting up inception_3b/relu_double_3x3_reduce
I0417 13:36:13.721428 15134 net.cpp:170] Top shape: 25 256 18 7 (806400)
I0417 13:36:13.721434 15134 layer_factory.hpp:74] Creating layer inception_3b/double_3x3_1
I0417 13:36:13.721439 15134 net.cpp:133] Creating Layer inception_3b/double_3x3_1
I0417 13:36:13.721441 15134 net.cpp:453] inception_3b/double_3x3_1 <- inception_3b/double_3x3_reduce_bn
I0417 13:36:13.721444 15134 net.cpp:411] inception_3b/double_3x3_1 -> inception_3b/double_3x3_1
I0417 13:36:13.721448 15134 net.cpp:163] Setting up inception_3b/double_3x3_1
I0417 13:36:13.797245 15134 net.cpp:170] Top shape: 25 256 18 7 (806400)
I0417 13:36:13.797256 15134 layer_factory.hpp:74] Creating layer inception_3b/double_3x3_1_bn
I0417 13:36:13.797258 15134 layer_factory.cpp:191] Layer inception_3b/double_3x3_1_bn is using CAFFE engine.
I0417 13:36:13.797262 15134 net.cpp:133] Creating Layer inception_3b/double_3x3_1_bn
I0417 13:36:13.797266 15134 net.cpp:453] inception_3b/double_3x3_1_bn <- inception_3b/double_3x3_1
I0417 13:36:13.797269 15134 net.cpp:411] inception_3b/double_3x3_1_bn -> inception_3b/double_3x3_1_bn
I0417 13:36:13.797274 15134 net.cpp:163] Setting up inception_3b/double_3x3_1_bn
I0417 13:36:13.797283 15134 net.cpp:170] Top shape: 25 256 18 7 (806400)
I0417 13:36:13.797288 15134 layer_factory.hpp:74] Creating layer inception_3b/relu_double_3x3_1
I0417 13:36:13.797292 15134 net.cpp:133] Creating Layer inception_3b/relu_double_3x3_1
I0417 13:36:13.797293 15134 net.cpp:453] inception_3b/relu_double_3x3_1 <- inception_3b/double_3x3_1_bn
I0417 13:36:13.797297 15134 net.cpp:400] inception_3b/relu_double_3x3_1 -> inception_3b/double_3x3_1_bn (in-place)
I0417 13:36:13.797299 15134 net.cpp:163] Setting up inception_3b/relu_double_3x3_1
I0417 13:36:13.797408 15134 net.cpp:170] Top shape: 25 256 18 7 (806400)
I0417 13:36:13.797413 15134 layer_factory.hpp:74] Creating layer inception_3b/double_3x3_2
I0417 13:36:13.797417 15134 net.cpp:133] Creating Layer inception_3b/double_3x3_2
I0417 13:36:13.797420 15134 net.cpp:453] inception_3b/double_3x3_2 <- inception_3b/double_3x3_1_bn
I0417 13:36:13.797423 15134 net.cpp:411] inception_3b/double_3x3_2 -> inception_3b/double_3x3_2
I0417 13:36:13.797427 15134 net.cpp:163] Setting up inception_3b/double_3x3_2
I0417 13:36:13.816030 15134 net.cpp:170] Top shape: 25 256 9 4 (230400)
I0417 13:36:13.816040 15134 layer_factory.hpp:74] Creating layer inception_3b/double_3x3_2_bn
I0417 13:36:13.816042 15134 layer_factory.cpp:191] Layer inception_3b/double_3x3_2_bn is using CAFFE engine.
I0417 13:36:13.816046 15134 net.cpp:133] Creating Layer inception_3b/double_3x3_2_bn
I0417 13:36:13.816048 15134 net.cpp:453] inception_3b/double_3x3_2_bn <- inception_3b/double_3x3_2
I0417 13:36:13.816052 15134 net.cpp:411] inception_3b/double_3x3_2_bn -> inception_3b/double_3x3_2_bn
I0417 13:36:13.816057 15134 net.cpp:163] Setting up inception_3b/double_3x3_2_bn
I0417 13:36:13.816066 15134 net.cpp:170] Top shape: 25 256 9 4 (230400)
I0417 13:36:13.816071 15134 layer_factory.hpp:74] Creating layer inception_3b/relu_double_3x3_2
I0417 13:36:13.816074 15134 net.cpp:133] Creating Layer inception_3b/relu_double_3x3_2
I0417 13:36:13.816076 15134 net.cpp:453] inception_3b/relu_double_3x3_2 <- inception_3b/double_3x3_2_bn
I0417 13:36:13.816078 15134 net.cpp:400] inception_3b/relu_double_3x3_2 -> inception_3b/double_3x3_2_bn (in-place)
I0417 13:36:13.816082 15134 net.cpp:163] Setting up inception_3b/relu_double_3x3_2
I0417 13:36:13.816270 15134 net.cpp:170] Top shape: 25 256 9 4 (230400)
I0417 13:36:13.816277 15134 layer_factory.hpp:74] Creating layer inception_3b/pool
I0417 13:36:13.816279 15134 layer_factory.cpp:64] CUDNN does not support padding or multiple tops. Using Caffe's own pooling layer.
I0417 13:36:13.816282 15134 net.cpp:133] Creating Layer inception_3b/pool
I0417 13:36:13.816284 15134 net.cpp:453] inception_3b/pool <- inception_3a/output_inception_3a/output_0_split_2
I0417 13:36:13.816288 15134 net.cpp:411] inception_3b/pool -> inception_3b/pool
I0417 13:36:13.816292 15134 net.cpp:163] Setting up inception_3b/pool
I0417 13:36:13.816296 15134 net.cpp:170] Top shape: 25 1024 9 4 (921600)
I0417 13:36:13.816298 15134 layer_factory.hpp:74] Creating layer inception_3b/output
I0417 13:36:13.816303 15134 net.cpp:133] Creating Layer inception_3b/output
I0417 13:36:13.816304 15134 net.cpp:453] inception_3b/output <- inception_3b/3x3_bn
I0417 13:36:13.816306 15134 net.cpp:453] inception_3b/output <- inception_3b/double_3x3_2_bn
I0417 13:36:13.816308 15134 net.cpp:453] inception_3b/output <- inception_3b/pool
I0417 13:36:13.816311 15134 net.cpp:411] inception_3b/output -> inception_3b/output
I0417 13:36:13.816313 15134 net.cpp:163] Setting up inception_3b/output
I0417 13:36:13.816318 15134 net.cpp:170] Top shape: 25 1536 9 4 (1382400)
I0417 13:36:13.816318 15134 layer_factory.hpp:74] Creating layer global_pool
I0417 13:36:13.816321 15134 net.cpp:133] Creating Layer global_pool
I0417 13:36:13.816323 15134 net.cpp:453] global_pool <- inception_3b/output
I0417 13:36:13.816326 15134 net.cpp:411] global_pool -> global_pool
I0417 13:36:13.816329 15134 net.cpp:163] Setting up global_pool
I0417 13:36:13.816505 15134 net.cpp:170] Top shape: 25 1536 1 1 (38400)
I0417 13:36:13.816511 15134 layer_factory.hpp:74] Creating layer gather_global_pool_to_fc7
I0417 13:36:13.816515 15134 net.cpp:133] Creating Layer gather_global_pool_to_fc7
I0417 13:36:13.816517 15134 net.cpp:453] gather_global_pool_to_fc7 <- global_pool
I0417 13:36:13.816520 15134 net.cpp:411] gather_global_pool_to_fc7 -> gathered_global_pool
I0417 13:36:13.816524 15134 net.cpp:163] Setting up gather_global_pool_to_fc7
I0417 13:36:13.816526 15134 net.cpp:170] Top shape: 50 1536 1 1 (76800)
I0417 13:36:13.816529 15134 layer_factory.hpp:74] Creating layer fc7
I0417 13:36:13.816534 15134 net.cpp:133] Creating Layer fc7
I0417 13:36:13.816534 15134 net.cpp:453] fc7 <- gathered_global_pool
I0417 13:36:13.816537 15134 net.cpp:411] fc7 -> fc7
I0417 13:36:13.816540 15134 net.cpp:163] Setting up fc7
I0417 13:36:13.818074 15134 net.cpp:170] Top shape: 50 256 (12800)
I0417 13:36:13.818079 15134 layer_factory.hpp:74] Creating layer fc7_bn
I0417 13:36:13.818081 15134 layer_factory.cpp:191] Layer fc7_bn is using CAFFE engine.
I0417 13:36:13.818085 15134 net.cpp:133] Creating Layer fc7_bn
I0417 13:36:13.818087 15134 net.cpp:453] fc7_bn <- fc7
I0417 13:36:13.818090 15134 net.cpp:411] fc7_bn -> fc7_bn
I0417 13:36:13.818094 15134 net.cpp:163] Setting up fc7_bn
I0417 13:36:13.818101 15134 net.cpp:170] Top shape: 50 256 (12800)
I0417 13:36:13.818105 15134 layer_factory.hpp:74] Creating layer relu7
I0417 13:36:13.818109 15134 net.cpp:133] Creating Layer relu7
I0417 13:36:13.818109 15134 net.cpp:453] relu7 <- fc7_bn
I0417 13:36:13.818112 15134 net.cpp:400] relu7 -> fc7_bn (in-place)
I0417 13:36:13.818115 15134 net.cpp:163] Setting up relu7
I0417 13:36:13.818298 15134 net.cpp:170] Top shape: 50 256 (12800)
I0417 13:36:13.818305 15134 layer_factory.hpp:74] Creating layer drop7
I0417 13:36:13.818308 15134 net.cpp:133] Creating Layer drop7
I0417 13:36:13.818310 15134 net.cpp:453] drop7 <- fc7_bn
I0417 13:36:13.818313 15134 net.cpp:400] drop7 -> fc7_bn (in-place)
I0417 13:36:13.818316 15134 net.cpp:163] Setting up drop7
I0417 13:36:13.818321 15134 net.cpp:170] Top shape: 50 256 (12800)
I0417 13:36:13.818323 15134 layer_factory.hpp:74] Creating layer fc8_cuhk01
I0417 13:36:13.818326 15134 net.cpp:133] Creating Layer fc8_cuhk01
I0417 13:36:13.818328 15134 net.cpp:453] fc8_cuhk01 <- fc7_bn
I0417 13:36:13.818331 15134 net.cpp:411] fc8_cuhk01 -> fc8_cuhk01
I0417 13:36:13.818334 15134 net.cpp:163] Setting up fc8_cuhk01
I0417 13:36:13.820049 15134 net.cpp:170] Top shape: 50 971 (48550)
I0417 13:36:13.820055 15134 layer_factory.hpp:74] Creating layer gather_data_to_loss
I0417 13:36:13.820058 15134 net.cpp:133] Creating Layer gather_data_to_loss
I0417 13:36:13.820060 15134 net.cpp:453] gather_data_to_loss <- label
I0417 13:36:13.820062 15134 net.cpp:411] gather_data_to_loss -> gathered_label
I0417 13:36:13.820067 15134 net.cpp:163] Setting up gather_data_to_loss
I0417 13:36:13.820070 15134 net.cpp:170] Top shape: 50 (50)
I0417 13:36:13.820071 15134 layer_factory.hpp:74] Creating layer loss
I0417 13:36:13.820075 15134 net.cpp:133] Creating Layer loss
I0417 13:36:13.820075 15134 net.cpp:453] loss <- fc8_cuhk01
I0417 13:36:13.820078 15134 net.cpp:453] loss <- gathered_label
I0417 13:36:13.820080 15134 net.cpp:411] loss -> loss
I0417 13:36:13.820083 15134 net.cpp:163] Setting up loss
I0417 13:36:13.820087 15134 layer_factory.hpp:74] Creating layer loss
…
I0417 13:36:13.922603 15134 net.cpp:330] The NetState phase (1) differed from the phase (0) specified by a rule in layer data
I0417 13:36:13.923224 15134 net.cpp:47] Initializing net from parameters: 
name: "CUHK01"
state {
  phase: TEST
}
richness: 1000
layer {
  name: "data"
  type: "Data"
  top: "data"
  top: "label"
  include {
    phase: TEST
  }
  transform_param {
    mirror: false
    mean_value: 102
    mean_value: 102
    mean_value: 101
    crop_height: 144
    crop_width: 56
  }
  data_param {
    source: "external/exp/db/cuhk01/val_lmdb"
    batch_size: 20
    backend: LMDB
  }
}
layer {
  name: "conv1"
  type: "Convolution"
  bottom: "data"
  top: "conv1"
  param {
    lr_mult: 1
    decay_mult: 1
  }
  param {
    lr_mult: 2
    decay_mult: 0
  }
  convolution_param {
    num_output: 32
    pad: 1
    kernel_size: 3
    stride: 1
    weight_filler {
      type: "xavier"
    }
    bias_filler {
      type: "constant"
      value: 0.2
    }
  }
}
layer {
  name: "conv1_bn"
  type: "BN"
  bottom: "conv1"
  top: "conv1_bn"
  param {
    lr_mult: 1
    decay_mult: 0
  }
  param {
    lr_mult: 1
    decay_mult: 0
  }
  bn_param {
    slope_filler {
      type: "constant"
      value: 1
    }
    bias_filler {
      type: "constant"
      value: 0
    }
  }
}
layer {
  name: "relu1"
  type: "ReLU"
  bottom: "conv1_bn"
  top: "conv1_bn"
}
layer {
  name: "conv2"
  type: "Convolution"
  bottom: "conv1_bn"
  top: "conv2"
  param {
    lr_mult: 1
    decay_mult: 1
  }
  param {
    lr_mult: 2
    decay_mult: 0
  }
  convolution_param {
    num_output: 32
    pad: 1
    kernel_size: 3
    stride: 1
    weight_filler {
      type: "xavier"
    }
    bias_filler {
      type: "constant"
      value: 0.2
    }
  }
}
layer {
  name: "conv2_bn"
  type: "BN"
  bottom: "conv2"
  top: "conv2_bn"
  param {
    lr_mult: 1
    decay_mult: 0
  }
  param {
    lr_mult: 1
    decay_mult: 0
  }
  bn_param {
    slope_filler {
      type: "constant"
      value: 1
    }
    bias_filler {
      type: "constant"
      value: 0
    }
  }
}
layer {
  name: "relu2"
  type: "ReLU"
  bottom: "conv2_bn"
  top: "conv2_bn"
}
layer {
  name: "conv3"
  type: "Convolution"
  bottom: "conv2_bn"
  top: "conv3"
  param {
    lr_mult: 1
    decay_mult: 1
  }
  param {
    lr_mult: 2
    decay_mult: 0
  }
  convolution_param {
    num_output: 32
    pad: 1
    kernel_size: 3
    stride: 1
    weight_filler {
      type: "xavier"
    }
    bias_filler {
      type: "constant"
      value: 0.2
    }
  }
}
layer {
  name: "conv3_bn"
  type: "BN"
  bottom: "conv3"
  top: "conv3_bn"
  param {
    lr_mult: 1
    decay_mult: 0
  }
  param {
    lr_mult: 1
    decay_mult: 0
  }
  bn_param {
    slope_filler {
      type: "constant"
      value: 1
    }
    bias_filler {
      type: "constant"
      value: 0
    }
  }
}
layer {
  name: "relu3"
  type: "ReLU"
  bottom: "conv3_bn"
  top: "conv3_bn"
}
layer {
  name: "pool1"
  type: "Pooling"
  bottom: "conv3_bn"
  top: "pool1"
  pooling_param {
    pool: MAX
    kernel_size: 2
    stride: 2
  }
}
layer {
  name: "inception_1a/1x1"
  type: "Convolution"
  bottom: "pool1"
  top: "inception_1a/1x1"
  param {
    lr_mult: 1
    decay_mult: 1
  }
  param {
    lr_mult: 2
    decay_mult: 0
  }
  convolution_param {
    num_output: 64
    kernel_size: 1
    weight_filler {
      type: "xavier"
    }
    bias_filler {
      type: "constant"
      value: 0.2
    }
  }
}
layer {
  name: "inception_1a/1x1_bn"
  type: "BN"
  bottom: "inception_1a/1x1"
  top: "inception_1a/1x1_bn"
  param {
    lr_mult: 1
    decay_mult: 0
  }
  param {
    lr_mult: 1
    decay_mult: 0
  }
  bn_param {
    slope_filler {
      type: "constant"
      value: 1
    }
    bias_filler {
      type: "constant"
      value: 0
    }
  }
}
layer {
  name: "inception_1a/relu_1x1"
  type: "ReLU"
  bottom: "inception_1a/1x1_bn"
  top: "inception_1a/1x1_bn"
}
layer {
  name: "inception_1a/3x3_reduce"
  type: "Convolution"
  bottom: "pool1"
  top: "inception_1a/3x3_reduce"
  param {
    lr_mult: 1
    decay_mult: 1
  }
  param {
    lr_mult: 2
    decay_mult: 0
  }
  convolution_param {
    num_output: 64
    kernel_size: 1
    weight_filler {
      type: "xavier"
    }
    bias_filler {
      type: "constant"
      value: 0.2
    }
  }
}
layer {
  name: "inception_1a/3x3_reduce_bn"
  type: "BN"
  bottom: "inception_1a/3x3_reduce"
  top: "inception_1a/3x3_reduce_bn"
  param {
    lr_mult: 1
    decay_mult: 0
  }
  param {
    lr_mult: 1
    decay_mult: 0
  }
  bn_param {
    slope_filler {
      type: "constant"
      value: 1
    }
    bias_filler {
      type: "constant"
      value: 0
    }
  }
}
layer {
  name: "inception_1a/relu_3x3_reduce"
  type: "ReLU"
  bottom: "inception_1a/3x3_reduce_bn"
  top: "inception_1a/3x3_reduce_bn"
}
layer {
  name: "inception_1a/3x3"
  type: "Convolution"
  bottom: "inception_1a/3x3_reduce_bn"
  top: "inception_1a/3x3"
  param {
    lr_mult: 1
    decay_mult: 1
  }
  param {
    lr_mult: 2
    decay_mult: 0
  }
  convolution_param {
    num_output: 64
    pad: 1
    kernel_size: 3
    weight_filler {
      type: "xavier"
    }
    bias_filler {
      type: "constant"
      value: 0.2
    }
  }
}
layer {
  name: "inception_1a/3x3_bn"
  type: "BN"
  bottom: "inception_1a/3x3"
  top: "inception_1a/3x3_bn"
  param {
    lr_mult: 1
    decay_mult: 0
  }
  param {
    lr_mult: 1
    decay_mult: 0
  }
  bn_param {
    slope_filler {
      type: "constant"
      value: 1
    }
    bias_filler {
      type: "constant"
      value: 0
    }
  }
}
layer {
  name: "inception_1a/relu_3x3"
  type: "ReLU"
  bottom: "inception_1a/3x3_bn"
  top: "inception_1a/3x3_bn"
}
layer {
  name: "inception_1a/double_3x3_reduce"
  type: "Convolution"
  bottom: "pool1"
  top: "inception_1a/double_3x3_reduce"
  param {
    lr_mult: 1
    decay_mult: 1
  }
  param {
    lr_mult: 2
    decay_mult: 0
  }
  convolution_param {
    num_output: 64
    kernel_size: 1
    weight_filler {
      type: "xavier"
    }
    bias_filler {
      type: "constant"
      value: 0.2
    }
  }
}
layer {
  name: "inception_1a/double_3x3_reduce_bn"
  type: "BN"
  bottom: "inception_1a/double_3x3_reduce"
  top: "inception_1a/double_3x3_reduce_bn"
  param {
    lr_mult: 1
    decay_mult: 0
  }
  param {
    lr_mult: 1
    decay_mult: 0
  }
  bn_param {
    slope_filler {
      type: "constant"
      value: 1
    }
    bias_filler {
      type: "constant"
      value: 0
    }
  }
}
layer {
  name: "inception_1a/relu_double_3x3_reduce"
  type: "ReLU"
  bottom: "inception_1a/double_3x3_reduce_bn"
  top: "inception_1a/double_3x3_reduce_bn"
}
layer {
  name: "inception_1a/double_3x3_1"
  type: "Convolution"
  bottom: "inception_1a/double_3x3_reduce_bn"
  top: "inception_1a/double_3x3_1"
  param {
    lr_mult: 1
    decay_mult: 1
  }
  param {
    lr_mult: 2
    decay_mult: 0
  }
  convolution_param {
    num_output: 64
    pad: 1
    kernel_size: 3
    weight_filler {
      type: "xavier"
    }
    bias_filler {
      type: "constant"
      value: 0.2
    }
  }
}
layer {
  name: "inception_1a/double_3x3_1_bn"
  type: "BN"
  bottom: "inception_1a/double_3x3_1"
  top: "inception_1a/double_3x3_1_bn"
  param {
    lr_mult: 1
    decay_mult: 0
  }
  param {
    lr_mult: 1
    decay_mult: 0
  }
  bn_param {
    slope_filler {
      type: "constant"
      value: 1
    }
    bias_filler {
      type: "constant"
      value: 0
    }
  }
}
layer {
  name: "inception_1a/relu_double_3x3_1"
  type: "ReLU"
  bottom: "inception_1a/double_3x3_1_bn"
  top: "inception_1a/double_3x3_1_bn"
}
layer {
  name: "inception_1a/double_3x3_2"
  type: "Convolution"
  bottom: "inception_1a/double_3x3_1_bn"
  top: "inception_1a/double_3x3_2"
  param {
    lr_mult: 1
    decay_mult: 1
  }
  param {
    lr_mult: 2
    decay_mult: 0
  }
  convolution_param {
    num_output: 64
    pad: 1
    kernel_size: 3
    weight_filler {
      type: "xavier"
    }
    bias_filler {
      type: "constant"
      value: 0.2
    }
  }
}
layer {
  name: "inception_1a/double_3x3_2_bn"
  type: "BN"
  bottom: "inception_1a/double_3x3_2"
  top: "inception_1a/double_3x3_2_bn"
  param {
    lr_mult: 1
    decay_mult: 0
  }
  param {
    lr_mult: 1
    decay_mult: 0
  }
  bn_param {
    slope_filler {
      type: "constant"
      value: 1
    }
    bias_filler {
      type: "constant"
      value: 0
    }
  }
}
layer {
  name: "inception_1a/relu_double_3x3_2"
  type: "ReLU"
  bottom: "inception_1a/double_3x3_2_bn"
  top: "inception_1a/double_3x3_2_bn"
}
layer {
  name: "inception_1a/pool"
  type: "Pooling"
  bottom: "pool1"
  top: "inception_1a/pool"
  pooling_param {
    pool: AVE
    kernel_size: 3
    stride: 1
    pad: 1
  }
}
layer {
  name: "inception_1a/pool_proj"
  type: "Convolution"
  bottom: "inception_1a/pool"
  top: "inception_1a/pool_proj"
  param {
    lr_mult: 1
    decay_mult: 1
  }
  param {
    lr_mult: 2
    decay_mult: 0
  }
  convolution_param {
    num_output: 64
    kernel_size: 1
    weight_filler {
      type: "xavier"
    }
    bias_filler {
      type: "constant"
      value: 0.2
    }
  }
}
layer {
  name: "inception_1a/pool_proj_bn"
  type: "BN"
  bottom: "inception_1a/pool_proj"
  top: "inception_1a/pool_proj_bn"
  param {
    lr_mult: 1
    decay_mult: 0
  }
  param {
    lr_mult: 1
    decay_mult: 0
  }
  bn_param {
    slope_filler {
      type: "constant"
      value: 1
    }
    bias_filler {
      type: "constant"
      value: 0
    }
  }
}
layer {
  name: "inception_1a/relu_pool_proj"
  type: "ReLU"
  bottom: "inception_1a/pool_proj_bn"
  top: "inception_1a/pool_proj_bn"
}
layer {
  name: "inception_1a/output"
  type: "Concat"
  bottom: "inception_1a/1x1_bn"
  bottom: "inception_1a/3x3_bn"
  bottom: "inception_1a/double_3x3_2_bn"
  bottom: "inception_1a/pool_proj_bn"
  top: "inception_1a/output"
}
layer {
  name: "inception_1b/3x3_reduce"
  type: "Convolution"
  bottom: "inception_1a/output"
  top: "inception_1b/3x3_reduce"
  param {
    lr_mult: 1
    decay_mult: 1
  }
  param {
    lr_mult: 2
    decay_mult: 0
  }
  convolution_param {
    num_output: 64
    kernel_size: 1
    weight_filler {
      type: "xavier"
    }
    bias_filler {
      type: "constant"
      value: 0.2
    }
  }
}
layer {
  name: "inception_1b/3x3_reduce_bn"
  type: "BN"
  bottom: "inception_1b/3x3_reduce"
  top: "inception_1b/3x3_reduce_bn"
  param {
    lr_mult: 1
    decay_mult: 0
  }
  param {
    lr_mult: 1
    decay_mult: 0
  }
  bn_param {
    slope_filler {
      type: "constant"
      value: 1
    }
    bias_filler {
      type: "constant"
      value: 0
    }
  }
}
layer {
  name: "inception_1b/relu_3x3_reduce"
  type: "ReLU"
  bottom: "inception_1b/3x3_reduce_bn"
  top: "inception_1b/3x3_reduce_bn"
}
layer {
  name: "inception_1b/3x3"
  type: "Convolution"
  bottom: "inception_1b/3x3_reduce_bn"
  top: "inception_1b/3x3"
  param {
    lr_mult: 1
    decay_mult: 1
  }
  param {
    lr_mult: 2
    decay_mult: 0
  }
  convolution_param {
    num_output: 64
    pad: 1
    kernel_size: 3
    stride: 2
    weight_filler {
      type: "xavier"
    }
    bias_filler {
      type: "constant"
      value: 0.2
    }
  }
}
layer {
  name: "inception_1b/3x3_bn"
  type: "BN"
  bottom: "inception_1b/3x3"
  top: "inception_1b/3x3_bn"
  param {
    lr_mult: 1
    decay_mult: 0
  }
  param {
    lr_mult: 1
    decay_mult: 0
  }
  bn_param {
    slope_filler {
      type: "constant"
      value: 1
    }
    bias_filler {
      type: "constant"
      value: 0
    }
  }
}
layer {
  name: "inception_1b/relu_3x3"
  type: "ReLU"
  bottom: "inception_1b/3x3_bn"
  top: "inception_1b/3x3_bn"
}
layer {
  name: "inception_1b/double_3x3_reduce"
  type: "Convolution"
  bottom: "inception_1a/output"
  top: "inception_1b/double_3x3_reduce"
  param {
    lr_mult: 1
    decay_mult: 1
  }
  param {
    lr_mult: 2
    decay_mult: 0
  }
  convolution_param {
    num_output: 64
    kernel_size: 1
    weight_filler {
      type: "xavier"
    }
    bias_filler {
      type: "constant"
      value: 0.2
    }
  }
}
layer {
  name: "inception_1b/double_3x3_reduce_bn"
  type: "BN"
  bottom: "inception_1b/double_3x3_reduce"
  top: "inception_1b/double_3x3_reduce_bn"
  param {
    lr_mult: 1
    decay_mult: 0
  }
  param {
    lr_mult: 1
    decay_mult: 0
  }
  bn_param {
    slope_filler {
      type: "constant"
      value: 1
    }
    bias_filler {
      type: "constant"
      value: 0
    }
  }
}
layer {
  name: "inception_1b/relu_double_3x3_reduce"
  type: "ReLU"
  bottom: "inception_1b/double_3x3_reduce_bn"
  top: "inception_1b/double_3x3_reduce_bn"
}
layer {
  name: "inception_1b/double_3x3_1"
  type: "Convolution"
  bottom: "inception_1b/double_3x3_reduce_bn"
  top: "inception_1b/double_3x3_1"
  param {
    lr_mult: 1
    decay_mult: 1
  }
  param {
    lr_mult: 2
    decay_mult: 0
  }
  convolution_param {
    num_output: 64
    pad: 1
    kernel_size: 3
    weight_filler {
      type: "xavier"
    }
    bias_filler {
      type: "constant"
      value: 0.2
    }
  }
}
layer {
  name: "inception_1b/double_3x3_1_bn"
  type: "BN"
  bottom: "inception_1b/double_3x3_1"
  top: "inception_1b/double_3x3_1_bn"
  param {
    lr_mult: 1
    decay_mult: 0
  }
  param {
    lr_mult: 1
    decay_mult: 0
  }
  bn_param {
    slope_filler {
      type: "constant"
      value: 1
    }
    bias_filler {
      type: "constant"
      value: 0
    }
  }
}
layer {
  name: "inception_1b/relu_double_3x3_1"
  type: "ReLU"
  bottom: "inception_1b/double_3x3_1_bn"
  top: "inception_1b/double_3x3_1_bn"
}
layer {
  name: "inception_1b/double_3x3_2"
  type: "Convolution"
  bottom: "inception_1b/double_3x3_1_bn"
  top: "inception_1b/double_3x3_2"
  param {
    lr_mult: 1
    decay_mult: 1
  }
  param {
    lr_mult: 2
    decay_mult: 0
  }
  convolution_param {
    num_output: 64
    pad: 1
    kernel_size: 3
    stride: 2
    weight_filler {
      type: "xavier"
    }
    bias_filler {
      type: "constant"
      value: 0.2
    }
  }
}
layer {
  name: "inception_1b/double_3x3_2_bn"
  type: "BN"
  bottom: "inception_1b/double_3x3_2"
  top: "inception_1b/double_3x3_2_bn"
  param {
    lr_mult: 1
    decay_mult: 0
  }
  param {
    lr_mult: 1
    decay_mult: 0
  }
  bn_param {
    slope_filler {
      type: "constant"
      value: 1
    }
    bias_filler {
      type: "constant"
      value: 0
    }
  }
}
layer {
  name: "inception_1b/relu_double_3x3_2"
  type: "ReLU"
  bottom: "inception_1b/double_3x3_2_bn"
  top: "inception_1b/double_3x3_2_bn"
}
layer {
  name: "inception_1b/pool"
  type: "Pooling"
  bottom: "inception_1a/output"
  top: "inception_1b/pool"
  pooling_param {
    pool: MAX
    kernel_size: 3
    stride: 2
  }
}
layer {
  name: "inception_1b/output"
  type: "Concat"
  bottom: "inception_1b/3x3_bn"
  bottom: "inception_1b/double_3x3_2_bn"
  bottom: "inception_1b/pool"
  top: "inception_1b/output"
}
layer {
  name: "inception_2a/1x1"
  type: "Convolution"
  bottom: "inception_1b/output"
  top: "inception_2a/1x1"
  param {
    lr_mult: 1
    decay_mult: 1
  }
  param {
    lr_mult: 2
    decay_mult: 0
  }
  convolution_param {
    num_output: 128
    kernel_size: 1
    weight_filler {
      type: "xavier"
    }
    bias_filler {
      type: "constant"
      value: 0.2
    }
  }
}
layer {
  name: "inception_2a/1x1_bn"
  type: "BN"
  bottom: "inception_2a/1x1"
  top: "inception_2a/1x1_bn"
  param {
    lr_mult: 1
    decay_mult: 0
  }
  param {
    lr_mult: 1
    decay_mult: 0
  }
  bn_param {
    slope_filler {
      type: "constant"
      value: 1
    }
    bias_filler {
      type: "constant"
      value: 0
    }
  }
}
layer {
  name: "inception_2a/relu_1x1"
  type: "ReLU"
  bottom: "inception_2a/1x1_bn"
  top: "inception_2a/1x1_bn"
}
layer {
  name: "inception_2a/3x3_reduce"
  type: "Convolution"
  bottom: "inception_1b/output"
  top: "inception_2a/3x3_reduce"
  param {
    lr_mult: 1
    decay_mult: 1
  }
  param {
    lr_mult: 2
    decay_mult: 0
  }
  convolution_param {
    num_output: 128
    kernel_size: 1
    weight_filler {
      type: "xavier"
    }
    bias_filler {
      type: "constant"
      value: 0.2
    }
  }
}
layer {
  name: "inception_2a/3x3_reduce_bn"
  type: "BN"
  bottom: "inception_2a/3x3_reduce"
  top: "inception_2a/3x3_reduce_bn"
  param {
    lr_mult: 1
    decay_mult: 0
  }
  param {
    lr_mult: 1
    decay_mult: 0
  }
  bn_param {
    slope_filler {
      type: "constant"
      value: 1
    }
    bias_filler {
      type: "constant"
      value: 0
    }
  }
}
layer {
  name: "inception_2a/relu_3x3_reduce"
  type: "ReLU"
  bottom: "inception_2a/3x3_reduce_bn"
  top: "inception_2a/3x3_reduce_bn"
}
layer {
  name: "inception_2a/3x3"
  type: "Convolution"
  bottom: "inception_2a/3x3_reduce_bn"
  top: "inception_2a/3x3"
  param {
    lr_mult: 1
    decay_mult: 1
  }
  param {
    lr_mult: 2
    decay_mult: 0
  }
  convolution_param {
    num_output: 128
    pad: 1
    kernel_size: 3
    weight_filler {
      type: "xavier"
    }
    bias_filler {
      type: "constant"
      value: 0.2
    }
  }
}
layer {
  name: "inception_2a/3x3_bn"
  type: "BN"
  bottom: "inception_2a/3x3"
  top: "inception_2a/3x3_bn"
  param {
    lr_mult: 1
    decay_mult: 0
  }
  param {
    lr_mult: 1
    decay_mult: 0
  }
  bn_param {
    slope_filler {
      type: "constant"
      value: 1
    }
    bias_filler {
      type: "constant"
      value: 0
    }
  }
}
layer {
  name: "inception_2a/relu_3x3"
  type: "ReLU"
  bottom: "inception_2a/3x3_bn"
  top: "inception_2a/3x3_bn"
}
layer {
  name: "inception_2a/double_3x3_reduce"
  type: "Convolution"
  bottom: "inception_1b/output"
  top: "inception_2a/double_3x3_reduce"
  param {
    lr_mult: 1
    decay_mult: 1
  }
  param {
    lr_mult: 2
    decay_mult: 0
  }
  convolution_param {
    num_output: 128
    kernel_size: 1
    weight_filler {
      type: "xavier"
    }
    bias_filler {
      type: "constant"
      value: 0.2
    }
  }
}
layer {
  name: "inception_2a/double_3x3_reduce_bn"
  type: "BN"
  bottom: "inception_2a/double_3x3_reduce"
  top: "inception_2a/double_3x3_reduce_bn"
  param {
    lr_mult: 1
    decay_mult: 0
  }
  param {
    lr_mult: 1
    decay_mult: 0
  }
  bn_param {
    slope_filler {
      type: "constant"
      value: 1
    }
    bias_filler {
      type: "constant"
      value: 0
    }
  }
}
layer {
  name: "inception_2a/relu_double_3x3_reduce"
  type: "ReLU"
  bottom: "inception_2a/double_3x3_reduce_bn"
  top: "inception_2a/double_3x3_reduce_bn"
}
layer {
  name: "inception_2a/double_3x3_1"
  type: "Convolution"
  bottom: "inception_2a/double_3x3_reduce_bn"
  top: "inception_2a/double_3x3_1"
  param {
    lr_mult: 1
    decay_mult: 1
  }
  param {
    lr_mult: 2
    decay_mult: 0
  }
  convolution_param {
    num_output: 128
    pad: 1
    kernel_size: 3
    weight_filler {
      type: "xavier"
    }
    bias_filler {
      type: "constant"
      value: 0.2
    }
  }
}
layer {
  name: "inception_2a/double_3x3_1_bn"
  type: "BN"
  bottom: "inception_2a/double_3x3_1"
  top: "inception_2a/double_3x3_1_bn"
  param {
    lr_mult: 1
    decay_mult: 0
  }
  param {
    lr_mult: 1
    decay_mult: 0
  }
  bn_param {
    slope_filler {
      type: "constant"
      value: 1
    }
    bias_filler {
      type: "constant"
      value: 0
    }
  }
}
layer {
  name: "inception_2a/relu_double_3x3_1"
  type: "ReLU"
  bottom: "inception_2a/double_3x3_1_bn"
  top: "inception_2a/double_3x3_1_bn"
}
layer {
  name: "inception_2a/double_3x3_2"
  type: "Convolution"
  bottom: "inception_2a/double_3x3_1_bn"
  top: "inception_2a/double_3x3_2"
  param {
    lr_mult: 1
    decay_mult: 1
  }
  param {
    lr_mult: 2
    decay_mult: 0
  }
  convolution_param {
    num_output: 128
    pad: 1
    kernel_size: 3
    weight_filler {
      type: "xavier"
    }
    bias_filler {
      type: "constant"
      value: 0.2
    }
  }
}
layer {
  name: "inception_2a/double_3x3_2_bn"
  type: "BN"
  bottom: "inception_2a/double_3x3_2"
  top: "inception_2a/double_3x3_2_bn"
  param {
    lr_mult: 1
    decay_mult: 0
  }
  param {
    lr_mult: 1
    decay_mult: 0
  }
  bn_param {
    slope_filler {
      type: "constant"
      value: 1
    }
    bias_filler {
      type: "constant"
      value: 0
    }
  }
}
layer {
  name: "inception_2a/relu_double_3x3_2"
  type: "ReLU"
  bottom: "inception_2a/double_3x3_2_bn"
  top: "inception_2a/double_3x3_2_bn"
}
layer {
  name: "inception_2a/pool"
  type: "Pooling"
  bottom: "inception_1b/output"
  top: "inception_2a/pool"
  pooling_param {
    pool: AVE
    kernel_size: 3
    stride: 1
    pad: 1
  }
}
layer {
  name: "inception_2a/pool_proj"
  type: "Convolution"
  bottom: "inception_2a/pool"
  top: "inception_2a/pool_proj"
  param {
    lr_mult: 1
    decay_mult: 1
  }
  param {
    lr_mult: 2
    decay_mult: 0
  }
  convolution_param {
    num_output: 128
    kernel_size: 1
    weight_filler {
      type: "xavier"
    }
    bias_filler {
      type: "constant"
      value: 0.2
    }
  }
}
layer {
  name: "inception_2a/pool_proj_bn"
  type: "BN"
  bottom: "inception_2a/pool_proj"
  top: "inception_2a/pool_proj_bn"
  param {
    lr_mult: 1
    decay_mult: 0
  }
  param {
    lr_mult: 1
    decay_mult: 0
  }
  bn_param {
    slope_filler {
      type: "constant"
      value: 1
    }
    bias_filler {
      type: "constant"
      value: 0
    }
  }
}
layer {
  name: "inception_2a/relu_pool_proj"
  type: "ReLU"
  bottom: "inception_2a/pool_proj_bn"
  top: "inception_2a/pool_proj_bn"
}
layer {
  name: "inception_2a/output"
  type: "Concat"
  bottom: "inception_2a/1x1_bn"
  bottom: "inception_2a/3x3_bn"
  bottom: "inception_2a/double_3x3_2_bn"
  bottom: "inception_2a/pool_proj_bn"
  top: "inception_2a/output"
}
layer {
  name: "inception_2b/3x3_reduce"
  type: "Convolution"
  bottom: "inception_2a/output"
  top: "inception_2b/3x3_reduce"
  param {
    lr_mult: 1
    decay_mult: 1
  }
  param {
    lr_mult: 2
    decay_mult: 0
  }
  convolution_param {
    num_output: 128
    kernel_size: 1
    weight_filler {
      type: "xavier"
    }
    bias_filler {
      type: "constant"
      value: 0.2
    }
  }
}
layer {
  name: "inception_2b/3x3_reduce_bn"
  type: "BN"
  bottom: "inception_2b/3x3_reduce"
  top: "inception_2b/3x3_reduce_bn"
  param {
    lr_mult: 1
    decay_mult: 0
  }
  param {
    lr_mult: 1
    decay_mult: 0
  }
  bn_param {
    slope_filler {
      type: "constant"
      value: 1
    }
    bias_filler {
      type: "constant"
      value: 0
    }
  }
}
layer {
  name: "inception_2b/relu_3x3_reduce"
  type: "ReLU"
  bottom: "inception_2b/3x3_reduce_bn"
  top: "inception_2b/3x3_reduce_bn"
}
layer {
  name: "inception_2b/3x3"
  type: "Convolution"
  bottom: "inception_2b/3x3_reduce_bn"
  top: "inception_2b/3x3"
  param {
    lr_mult: 1
    decay_mult: 1
  }
  param {
    lr_mult: 2
    decay_mult: 0
  }
  convolution_param {
    num_output: 128
    pad: 1
    kernel_size: 3
    stride: 2
    weight_filler {
      type: "xavier"
    }
    bias_filler {
      type: "constant"
      value: 0.2
    }
  }
}
layer {
  name: "inception_2b/3x3_bn"
  type: "BN"
  bottom: "inception_2b/3x3"
  top: "inception_2b/3x3_bn"
  param {
    lr_mult: 1
    decay_mult: 0
  }
  param {
    lr_mult: 1
    decay_mult: 0
  }
  bn_param {
    slope_filler {
      type: "constant"
      value: 1
    }
    bias_filler {
      type: "constant"
      value: 0
    }
  }
}
layer {
  name: "inception_2b/relu_3x3"
  type: "ReLU"
  bottom: "inception_2b/3x3_bn"
  top: "inception_2b/3x3_bn"
}
layer {
  name: "inception_2b/double_3x3_reduce"
  type: "Convolution"
  bottom: "inception_2a/output"
  top: "inception_2b/double_3x3_reduce"
  param {
    lr_mult: 1
    decay_mult: 1
  }
  param {
    lr_mult: 2
    decay_mult: 0
  }
  convolution_param {
    num_output: 128
    kernel_size: 1
    weight_filler {
      type: "xavier"
    }
    bias_filler {
      type: "constant"
      value: 0.2
    }
  }
}
layer {
  name: "inception_2b/double_3x3_reduce_bn"
  type: "BN"
  bottom: "inception_2b/double_3x3_reduce"
  top: "inception_2b/double_3x3_reduce_bn"
  param {
    lr_mult: 1
    decay_mult: 0
  }
  param {
    lr_mult: 1
    decay_mult: 0
  }
  bn_param {
    slope_filler {
      type: "constant"
      value: 1
    }
    bias_filler {
      type: "constant"
      value: 0
    }
  }
}
layer {
  name: "inception_2b/relu_double_3x3_reduce"
  type: "ReLU"
  bottom: "inception_2b/double_3x3_reduce_bn"
  top: "inception_2b/double_3x3_reduce_bn"
}
layer {
  name: "inception_2b/double_3x3_1"
  type: "Convolution"
  bottom: "inception_2b/double_3x3_reduce_bn"
  top: "inception_2b/double_3x3_1"
  param {
    lr_mult: 1
    decay_mult: 1
  }
  param {
    lr_mult: 2
    decay_mult: 0
  }
  convolution_param {
    num_output: 128
    pad: 1
    kernel_size: 3
    weight_filler {
      type: "xavier"
    }
    bias_filler {
      type: "constant"
      value: 0.2
    }
  }
}
layer {
  name: "inception_2b/double_3x3_1_bn"
  type: "BN"
  bottom: "inception_2b/double_3x3_1"
  top: "inception_2b/double_3x3_1_bn"
  param {
    lr_mult: 1
    decay_mult: 0
  }
  param {
    lr_mult: 1
    decay_mult: 0
  }
  bn_param {
    slope_filler {
      type: "constant"
      value: 1
    }
    bias_filler {
      type: "constant"
      value: 0
    }
  }
}
layer {
  name: "inception_2b/relu_double_3x3_1"
  type: "ReLU"
  bottom: "inception_2b/double_3x3_1_bn"
  top: "inception_2b/double_3x3_1_bn"
}
layer {
  name: "inception_2b/double_3x3_2"
  type: "Convolution"
  bottom: "inception_2b/double_3x3_1_bn"
  top: "inception_2b/double_3x3_2"
  param {
    lr_mult: 1
    decay_mult: 1
  }
  param {
    lr_mult: 2
    decay_mult: 0
  }
  convolution_param {
    num_output: 128
    pad: 1
    kernel_size: 3
    stride: 2
    weight_filler {
      type: "xavier"
    }
    bias_filler {
      type: "constant"
      value: 0.2
    }
  }
}
layer {
  name: "inception_2b/double_3x3_2_bn"
  type: "BN"
  bottom: "inception_2b/double_3x3_2"
  top: "inception_2b/double_3x3_2_bn"
  param {
    lr_mult: 1
    decay_mult: 0
  }
  param {
    lr_mult: 1
    decay_mult: 0
  }
  bn_param {
    slope_filler {
      type: "constant"
      value: 1
    }
    bias_filler {
      type: "constant"
      value: 0
    }
  }
}
layer {
  name: "inception_2b/relu_double_3x3_2"
  type: "ReLU"
  bottom: "inception_2b/double_3x3_2_bn"
  top: "inception_2b/double_3x3_2_bn"
}
layer {
  name: "inception_2b/pool"
  type: "Pooling"
  bottom: "inception_2a/output"
  top: "inception_2b/pool"
  pooling_param {
    pool: MAX
    kernel_size: 3
    stride: 2
  }
}
layer {
  name: "inception_2b/output"
  type: "Concat"
  bottom: "inception_2b/3x3_bn"
  bottom: "inception_2b/double_3x3_2_bn"
  bottom: "inception_2b/pool"
  top: "inception_2b/output"
}
layer {
  name: "inception_3a/1x1"
  type: "Convolution"
  bottom: "inception_2b/output"
  top: "inception_3a/1x1"
  param {
    lr_mult: 1
    decay_mult: 1
  }
  param {
    lr_mult: 2
    decay_mult: 0
  }
  convolution_param {
    num_output: 256
    kernel_size: 1
    weight_filler {
      type: "xavier"
    }
    bias_filler {
      type: "constant"
      value: 0.2
    }
  }
}
layer {
  name: "inception_3a/1x1_bn"
  type: "BN"
  bottom: "inception_3a/1x1"
  top: "inception_3a/1x1_bn"
  param {
    lr_mult: 1
    decay_mult: 0
  }
  param {
    lr_mult: 1
    decay_mult: 0
  }
  bn_param {
    slope_filler {
      type: "constant"
      value: 1
    }
    bias_filler {
      type: "constant"
      value: 0
    }
  }
}
layer {
  name: "inception_3a/relu_1x1"
  type: "ReLU"
  bottom: "inception_3a/1x1_bn"
  top: "inception_3a/1x1_bn"
}
layer {
  name: "inception_3a/3x3_reduce"
  type: "Convolution"
  bottom: "inception_2b/output"
  top: "inception_3a/3x3_reduce"
  param {
    lr_mult: 1
    decay_mult: 1
  }
  param {
    lr_mult: 2
    decay_mult: 0
  }
  convolution_param {
    num_output: 256
    kernel_size: 1
    weight_filler {
      type: "xavier"
    }
    bias_filler {
      type: "constant"
      value: 0.2
    }
  }
}
layer {
  name: "inception_3a/3x3_reduce_bn"
  type: "BN"
  bottom: "inception_3a/3x3_reduce"
  top: "inception_3a/3x3_reduce_bn"
  param {
    lr_mult: 1
    decay_mult: 0
  }
  param {
    lr_mult: 1
    decay_mult: 0
  }
  bn_param {
    slope_filler {
      type: "constant"
      value: 1
    }
    bias_filler {
      type: "constant"
      value: 0
    }
  }
}
layer {
  name: "inception_3a/relu_3x3_reduce"
  type: "ReLU"
  bottom: "inception_3a/3x3_reduce_bn"
  top: "inception_3a/3x3_reduce_bn"
}
layer {
  name: "inception_3a/3x3"
  type: "Convolution"
  bottom: "inception_3a/3x3_reduce_bn"
  top: "inception_3a/3x3"
  param {
    lr_mult: 1
    decay_mult: 1
  }
  param {
    lr_mult: 2
    decay_mult: 0
  }
  convolution_param {
    num_output: 256
    pad: 1
    kernel_size: 3
    weight_filler {
      type: "xavier"
    }
    bias_filler {
      type: "constant"
      value: 0.2
    }
  }
}
layer {
  name: "inception_3a/3x3_bn"
  type: "BN"
  bottom: "inception_3a/3x3"
  top: "inception_3a/3x3_bn"
  param {
    lr_mult: 1
    decay_mult: 0
  }
  param {
    lr_mult: 1
    decay_mult: 0
  }
  bn_param {
    slope_filler {
      type: "constant"
      value: 1
    }
    bias_filler {
      type: "constant"
      value: 0
    }
  }
}
layer {
  name: "inception_3a/relu_3x3"
  type: "ReLU"
  bottom: "inception_3a/3x3_bn"
  top: "inception_3a/3x3_bn"
}
layer {
  name: "inception_3a/double_3x3_reduce"
  type: "Convolution"
  bottom: "inception_2b/output"
  top: "inception_3a/double_3x3_reduce"
  param {
    lr_mult: 1
    decay_mult: 1
  }
  param {
    lr_mult: 2
    decay_mult: 0
  }
  convolution_param {
    num_output: 256
    kernel_size: 1
    weight_filler {
      type: "xavier"
    }
    bias_filler {
      type: "constant"
      value: 0.2
    }
  }
}
layer {
  name: "inception_3a/double_3x3_reduce_bn"
  type: "BN"
  bottom: "inception_3a/double_3x3_reduce"
  top: "inception_3a/double_3x3_reduce_bn"
  param {
    lr_mult: 1
    decay_mult: 0
  }
  param {
    lr_mult: 1
    decay_mult: 0
  }
  bn_param {
    slope_filler {
      type: "constant"
      value: 1
    }
    bias_filler {
      type: "constant"
      value: 0
    }
  }
}
layer {
I0417 13:36:13.924062 15134 layer_factory.hpp:74] Creating layer data
I0417 13:36:13.924072 15134 net.cpp:133] Creating Layer data
I0417 13:36:13.924075 15134 net.cpp:411] data -> data
I0417 13:36:13.924079 15134 net.cpp:411] data -> label
I0417 13:36:13.924082 15134 net.cpp:163] Setting up data
I0417 13:36:13.924124 15134 db_lmdb.cpp:22] Opened lmdb external/exp/db/cuhk01/val_lmdb
I0417 13:36:13.924135 15134 data_layer.cpp:55] Skipping first 0 data points.
I0417 13:36:13.924147 15134 data_layer.cpp:100] output data size: 10,3,144,56
I0417 13:36:13.924182 15134 net.cpp:170] Top shape: 10 3 144 56 (241920)
I0417 13:36:13.924187 15134 net.cpp:170] Top shape: 10 (10)
I0417 13:36:13.924190 15134 layer_factory.hpp:74] Creating layer label_data_1_split
I0417 13:36:13.924196 15134 net.cpp:133] Creating Layer label_data_1_split
I0417 13:36:13.924198 15134 net.cpp:453] label_data_1_split <- label
I0417 13:36:13.924203 15134 net.cpp:411] label_data_1_split -> label_data_1_split_0
I0417 13:36:13.924209 15134 net.cpp:411] label_data_1_split -> label_data_1_split_1
I0417 13:36:13.924213 15134 net.cpp:163] Setting up label_data_1_split
I0417 13:36:13.924218 15134 net.cpp:170] Top shape: 10 (10)
I0417 13:36:13.924221 15134 net.cpp:170] Top shape: 10 (10)
I0417 13:36:13.924224 15134 layer_factory.hpp:74] Creating layer conv1
I0417 13:36:13.924232 15134 net.cpp:133] Creating Layer conv1
I0417 13:36:13.924235 15134 net.cpp:453] conv1 <- data
I0417 13:36:13.924240 15134 net.cpp:411] conv1 -> conv1
I0417 13:36:13.924247 15134 net.cpp:163] Setting up conv1
I0417 13:36:13.954982 15134 net.cpp:170] Top shape: 10 32 144 56 (2580480)
I0417 13:36:13.954994 15134 layer_factory.hpp:74] Creating layer conv1_bn
I0417 13:36:13.954998 15134 layer_factory.cpp:191] Layer conv1_bn is using CAFFE engine.
I0417 13:36:13.955003 15134 net.cpp:133] Creating Layer conv1_bn
I0417 13:36:13.955003 15134 net.cpp:453] conv1_bn <- conv1
I0417 13:36:13.955006 15134 net.cpp:411] conv1_bn -> conv1_bn
I0417 13:36:13.955011 15134 net.cpp:163] Setting up conv1_bn
I0417 13:36:13.955027 15134 net.cpp:170] Top shape: 10 32 144 56 (2580480)
I0417 13:36:13.955034 15134 layer_factory.hpp:74] Creating layer relu1
I0417 13:36:13.955037 15134 net.cpp:133] Creating Layer relu1
I0417 13:36:13.955039 15134 net.cpp:453] relu1 <- conv1_bn
I0417 13:36:13.955041 15134 net.cpp:400] relu1 -> conv1_bn (in-place)
I0417 13:36:13.955044 15134 net.cpp:163] Setting up relu1
I0417 13:36:13.955245 15134 net.cpp:170] Top shape: 10 32 144 56 (2580480)
I0417 13:36:13.955250 15134 layer_factory.hpp:74] Creating layer conv2
I0417 13:36:13.955256 15134 net.cpp:133] Creating Layer conv2
I0417 13:36:13.955260 15134 net.cpp:453] conv2 <- conv1_bn
I0417 13:36:13.955263 15134 net.cpp:411] conv2 -> conv2
I0417 13:36:13.955266 15134 net.cpp:163] Setting up conv2
I0417 13:36:14.038123 15134 net.cpp:170] Top shape: 10 32 144 56 (2580480)
I0417 13:36:14.038133 15134 layer_factory.hpp:74] Creating layer conv2_bn
I0417 13:36:14.038136 15134 layer_factory.cpp:191] Layer conv2_bn is using CAFFE engine.
I0417 13:36:14.038141 15134 net.cpp:133] Creating Layer conv2_bn
I0417 13:36:14.038142 15134 net.cpp:453] conv2_bn <- conv2
I0417 13:36:14.038146 15134 net.cpp:411] conv2_bn -> conv2_bn
I0417 13:36:14.038151 15134 net.cpp:163] Setting up conv2_bn
I0417 13:36:14.038166 15134 net.cpp:170] Top shape: 10 32 144 56 (2580480)
I0417 13:36:14.038172 15134 layer_factory.hpp:74] Creating layer relu2
I0417 13:36:14.038175 15134 net.cpp:133] Creating Layer relu2
I0417 13:36:14.038177 15134 net.cpp:453] relu2 <- conv2_bn
I0417 13:36:14.038180 15134 net.cpp:400] relu2 -> conv2_bn (in-place)
I0417 13:36:14.038183 15134 net.cpp:163] Setting up relu2
I0417 13:36:14.038380 15134 net.cpp:170] Top shape: 10 32 144 56 (2580480)
I0417 13:36:14.038386 15134 layer_factory.hpp:74] Creating layer conv3
I0417 13:36:14.038393 15134 net.cpp:133] Creating Layer conv3
I0417 13:36:14.038395 15134 net.cpp:453] conv3 <- conv2_bn
I0417 13:36:14.038399 15134 net.cpp:411] conv3 -> conv3
I0417 13:36:14.038403 15134 net.cpp:163] Setting up conv3
I0417 13:36:14.120609 15134 net.cpp:170] Top shape: 10 32 144 56 (2580480)
I0417 13:36:14.120618 15134 layer_factory.hpp:74] Creating layer conv3_bn
I0417 13:36:14.120621 15134 layer_factory.cpp:191] Layer conv3_bn is using CAFFE engine.
I0417 13:36:14.120625 15134 net.cpp:133] Creating Layer conv3_bn
I0417 13:36:14.120626 15134 net.cpp:453] conv3_bn <- conv3
I0417 13:36:14.120630 15134 net.cpp:411] conv3_bn -> conv3_bn
I0417 13:36:14.120635 15134 net.cpp:163] Setting up conv3_bn
I0417 13:36:14.120651 15134 net.cpp:170] Top shape: 10 32 144 56 (2580480)
I0417 13:36:14.120661 15134 layer_factory.hpp:74] Creating layer relu3
I0417 13:36:14.120663 15134 net.cpp:133] Creating Layer relu3
I0417 13:36:14.120666 15134 net.cpp:453] relu3 <- conv3_bn
I0417 13:36:14.120667 15134 net.cpp:400] relu3 -> conv3_bn (in-place)
I0417 13:36:14.120671 15134 net.cpp:163] Setting up relu3
I0417 13:36:14.120781 15134 net.cpp:170] Top shape: 10 32 144 56 (2580480)
I0417 13:36:14.120785 15134 layer_factory.hpp:74] Creating layer pool1
I0417 13:36:14.120790 15134 net.cpp:133] Creating Layer pool1
I0417 13:36:14.120791 15134 net.cpp:453] pool1 <- conv3_bn
I0417 13:36:14.120795 15134 net.cpp:411] pool1 -> pool1
I0417 13:36:14.120797 15134 net.cpp:163] Setting up pool1
I0417 13:36:14.120980 15134 net.cpp:170] Top shape: 10 32 72 28 (645120)
I0417 13:36:14.120986 15134 layer_factory.hpp:74] Creating layer pool1_pool1_0_split
I0417 13:36:14.120990 15134 net.cpp:133] Creating Layer pool1_pool1_0_split
I0417 13:36:14.120992 15134 net.cpp:453] pool1_pool1_0_split <- pool1
I0417 13:36:14.120995 15134 net.cpp:411] pool1_pool1_0_split -> pool1_pool1_0_split_0
I0417 13:36:14.121000 15134 net.cpp:411] pool1_pool1_0_split -> pool1_pool1_0_split_1
I0417 13:36:14.121003 15134 net.cpp:411] pool1_pool1_0_split -> pool1_pool1_0_split_2
…
I0417 13:36:15.208122 15134 layer_factory.hpp:74] Creating layer inception_2a/double_3x3_reduce
I0417 13:36:15.208135 15134 net.cpp:133] Creating Layer inception_2a/double_3x3_reduce
I0417 13:36:15.208137 15134 net.cpp:453] inception_2a/double_3x3_reduce <- inception_1b/output_inception_1b/output_0_split_2
I0417 13:36:15.208140 15134 net.cpp:411] inception_2a/double_3x3_reduce -> inception_2a/double_3x3_reduce
I0417 13:36:15.208144 15134 net.cpp:163] Setting up inception_2a/double_3x3_reduce
I0417 13:36:15.303154 15134 net.cpp:170] Top shape: 10 128 36 14 (645120)
I0417 13:36:15.303164 15134 layer_factory.hpp:74] Creating layer inception_2a/double_3x3_reduce_bn
I0417 13:36:15.303166 15134 layer_factory.cpp:191] Layer inception_2a/double_3x3_reduce_bn is using CAFFE engine.
I0417 13:36:15.303171 15134 net.cpp:133] Creating Layer inception_2a/double_3x3_reduce_bn
I0417 13:36:15.303174 15134 net.cpp:453] inception_2a/double_3x3_reduce_bn <- inception_2a/double_3x3_reduce
I0417 13:36:15.303177 15134 net.cpp:411] inception_2a/double_3x3_reduce_bn -> inception_2a/double_3x3_reduce_bn
I0417 13:36:15.303181 15134 net.cpp:163] Setting up inception_2a/double_3x3_reduce_bn
I0417 13:36:15.303191 15134 net.cpp:170] Top shape: 10 128 36 14 (645120)
I0417 13:36:15.303196 15134 layer_factory.hpp:74] Creating layer inception_2a/relu_double_3x3_reduce
I0417 13:36:15.303200 15134 net.cpp:133] Creating Layer inception_2a/relu_double_3x3_reduce
I0417 13:36:15.303201 15134 net.cpp:453] inception_2a/relu_double_3x3_reduce <- inception_2a/double_3x3_reduce_bn
I0417 13:36:15.303205 15134 net.cpp:400] inception_2a/relu_double_3x3_reduce -> inception_2a/double_3x3_reduce_bn (in-place)
I0417 13:36:15.303207 15134 net.cpp:163] Setting up inception_2a/relu_double_3x3_reduce
I0417 13:36:15.303400 15134 net.cpp:170] Top shape: 10 128 36 14 (645120)
I0417 13:36:15.303406 15134 layer_factory.hpp:74] Creating layer inception_2a/double_3x3_1
I0417 13:36:15.303411 15134 net.cpp:133] Creating Layer inception_2a/double_3x3_1
I0417 13:36:15.303413 15134 net.cpp:453] inception_2a/double_3x3_1 <- inception_2a/double_3x3_reduce_bn
I0417 13:36:15.303416 15134 net.cpp:411] inception_2a/double_3x3_1 -> inception_2a/double_3x3_1
I0417 13:36:15.303421 15134 net.cpp:163] Setting up inception_2a/double_3x3_1
I0417 13:36:15.347190 15134 net.cpp:170] Top shape: 10 128 36 14 (645120)
I0417 13:36:15.347200 15134 layer_factory.hpp:74] Creating layer inception_2a/double_3x3_1_bn
I0417 13:36:15.347203 15134 layer_factory.cpp:191] Layer inception_2a/double_3x3_1_bn is using CAFFE engine.
I0417 13:36:15.347208 15134 net.cpp:133] Creating Layer inception_2a/double_3x3_1_bn
I0417 13:36:15.347209 15134 net.cpp:453] inception_2a/double_3x3_1_bn <- inception_2a/double_3x3_1
I0417 13:36:15.347213 15134 net.cpp:411] inception_2a/double_3x3_1_bn -> inception_2a/double_3x3_1_bn
I0417 13:36:15.347218 15134 net.cpp:163] Setting up inception_2a/double_3x3_1_bn
I0417 13:36:15.347228 15134 net.cpp:170] Top shape: 10 128 36 14 (645120)
I0417 13:36:15.347232 15134 layer_factory.hpp:74] Creating layer inception_2a/relu_double_3x3_1
I0417 13:36:15.347235 15134 net.cpp:133] Creating Layer inception_2a/relu_double_3x3_1
I0417 13:36:15.347236 15134 net.cpp:453] inception_2a/relu_double_3x3_1 <- inception_2a/double_3x3_1_bn
I0417 13:36:15.347239 15134 net.cpp:400] inception_2a/relu_double_3x3_1 -> inception_2a/double_3x3_1_bn (in-place)
I0417 13:36:15.347241 15134 net.cpp:163] Setting up inception_2a/relu_double_3x3_1
I0417 13:36:15.347431 15134 net.cpp:170] Top shape: 10 128 36 14 (645120)
I0417 13:36:15.347436 15134 layer_factory.hpp:74] Creating layer inception_2a/double_3x3_2
I0417 13:36:15.347441 15134 net.cpp:133] Creating Layer inception_2a/double_3x3_2
I0417 13:36:15.347443 15134 net.cpp:453] inception_2a/double_3x3_2 <- inception_2a/double_3x3_1_bn
I0417 13:36:15.347447 15134 net.cpp:411] inception_2a/double_3x3_2 -> inception_2a/double_3x3_2
I0417 13:36:15.347452 15134 net.cpp:163] Setting up inception_2a/double_3x3_2
I0417 13:36:15.391268 15134 net.cpp:170] Top shape: 10 128 36 14 (645120)
I0417 13:36:15.391278 15134 layer_factory.hpp:74] Creating layer inception_2a/double_3x3_2_bn
I0417 13:36:15.391280 15134 layer_factory.cpp:191] Layer inception_2a/double_3x3_2_bn is using CAFFE engine.
I0417 13:36:15.391284 15134 net.cpp:133] Creating Layer inception_2a/double_3x3_2_bn
I0417 13:36:15.391286 15134 net.cpp:453] inception_2a/double_3x3_2_bn <- inception_2a/double_3x3_2
I0417 13:36:15.391290 15134 net.cpp:411] inception_2a/double_3x3_2_bn -> inception_2a/double_3x3_2_bn
I0417 13:36:15.391294 15134 net.cpp:163] Setting up inception_2a/double_3x3_2_bn
I0417 13:36:15.391304 15134 net.cpp:170] Top shape: 10 128 36 14 (645120)
I0417 13:36:15.391309 15134 layer_factory.hpp:74] Creating layer inception_2a/relu_double_3x3_2
I0417 13:36:15.391314 15134 net.cpp:133] Creating Layer inception_2a/relu_double_3x3_2
I0417 13:36:15.391314 15134 net.cpp:453] inception_2a/relu_double_3x3_2 <- inception_2a/double_3x3_2_bn
I0417 13:36:15.391317 15134 net.cpp:400] inception_2a/relu_double_3x3_2 -> inception_2a/double_3x3_2_bn (in-place)
I0417 13:36:15.391319 15134 net.cpp:163] Setting up inception_2a/relu_double_3x3_2
I0417 13:36:15.391434 15134 net.cpp:170] Top shape: 10 128 36 14 (645120)
I0417 13:36:15.391439 15134 layer_factory.hpp:74] Creating layer inception_2a/pool
I0417 13:36:15.391441 15134 layer_factory.cpp:64] CUDNN does not support padding or multiple tops. Using Caffe's own pooling layer.
I0417 13:36:15.391444 15134 net.cpp:133] Creating Layer inception_2a/pool
I0417 13:36:15.391446 15134 net.cpp:453] inception_2a/pool <- inception_1b/output_inception_1b/output_0_split_3
I0417 13:36:15.391450 15134 net.cpp:411] inception_2a/pool -> inception_2a/pool
I0417 13:36:15.391454 15134 net.cpp:163] Setting up inception_2a/pool
I0417 13:36:15.391458 15134 net.cpp:170] Top shape: 10 384 36 14 (1935360)
I0417 13:36:15.391459 15134 layer_factory.hpp:74] Creating layer inception_2a/pool_proj
I0417 13:36:15.391463 15134 net.cpp:133] Creating Layer inception_2a/pool_proj
I0417 13:36:15.391465 15134 net.cpp:453] inception_2a/pool_proj <- inception_2a/pool
I0417 13:36:15.391469 15134 net.cpp:411] inception_2a/pool_proj -> inception_2a/pool_proj
I0417 13:36:15.391471 15134 net.cpp:163] Setting up inception_2a/pool_proj
I0417 13:36:15.486295 15134 net.cpp:170] Top shape: 10 128 36 14 (645120)
I0417 13:36:15.486305 15134 layer_factory.hpp:74] Creating layer inception_2a/pool_proj_bn
I0417 13:36:15.486309 15134 layer_factory.cpp:191] Layer inception_2a/pool_proj_bn is using CAFFE engine.
I0417 13:36:15.486312 15134 net.cpp:133] Creating Layer inception_2a/pool_proj_bn
I0417 13:36:15.486315 15134 net.cpp:453] inception_2a/pool_proj_bn <- inception_2a/pool_proj
I0417 13:36:15.486318 15134 net.cpp:411] inception_2a/pool_proj_bn -> inception_2a/pool_proj_bn
I0417 13:36:15.486331 15134 net.cpp:163] Setting up inception_2a/pool_proj_bn
I0417 13:36:15.486341 15134 net.cpp:170] Top shape: 10 128 36 14 (645120)
I0417 13:36:15.486356 15134 layer_factory.hpp:74] Creating layer inception_2a/relu_pool_proj
I0417 13:36:15.486358 15134 net.cpp:133] Creating Layer inception_2a/relu_pool_proj
I0417 13:36:15.486361 15134 net.cpp:453] inception_2a/relu_pool_proj <- inception_2a/pool_proj_bn
I0417 13:36:15.486363 15134 net.cpp:400] inception_2a/relu_pool_proj -> inception_2a/pool_proj_bn (in-place)
I0417 13:36:15.486366 15134 net.cpp:163] Setting up inception_2a/relu_pool_proj
I0417 13:36:15.486557 15134 net.cpp:170] Top shape: 10 128 36 14 (645120)
I0417 13:36:15.486563 15134 layer_factory.hpp:74] Creating layer inception_2a/output
I0417 13:36:15.486567 15134 net.cpp:133] Creating Layer inception_2a/output
I0417 13:36:15.486569 15134 net.cpp:453] inception_2a/output <- inception_2a/1x1_bn
I0417 13:36:15.486572 15134 net.cpp:453] inception_2a/output <- inception_2a/3x3_bn
I0417 13:36:15.486574 15134 net.cpp:453] inception_2a/output <- inception_2a/double_3x3_2_bn
I0417 13:36:15.486577 15134 net.cpp:453] inception_2a/output <- inception_2a/pool_proj_bn
I0417 13:36:15.486579 15134 net.cpp:411] inception_2a/output -> inception_2a/output
I0417 13:36:15.486583 15134 net.cpp:163] Setting up inception_2a/output
I0417 13:36:15.486587 15134 net.cpp:170] Top shape: 10 512 36 14 (2580480)
I0417 13:36:15.486588 15134 layer_factory.hpp:74] Creating layer inception_2a/output_inception_2a/output_0_split
I0417 13:36:15.486593 15134 net.cpp:133] Creating Layer inception_2a/output_inception_2a/output_0_split
I0417 13:36:15.486593 15134 net.cpp:453] inception_2a/output_inception_2a/output_0_split <- inception_2a/output
I0417 13:36:15.486596 15134 net.cpp:411] inception_2a/output_inception_2a/output_0_split -> inception_2a/output_inception_2a/output_0_split_0
I0417 13:36:15.486600 15134 net.cpp:411] inception_2a/output_inception_2a/output_0_split -> inception_2a/output_inception_2a/output_0_split_1
I0417 13:36:15.486603 15134 net.cpp:411] inception_2a/output_inception_2a/output_0_split -> inception_2a/output_inception_2a/output_0_split_2
I0417 13:36:15.486606 15134 net.cpp:163] Setting up inception_2a/output_inception_2a/output_0_split
I0417 13:36:15.486609 15134 net.cpp:170] Top shape: 10 512 36 14 (2580480)
I0417 13:36:15.486613 15134 net.cpp:170] Top shape: 10 512 36 14 (2580480)
I0417 13:36:15.486613 15134 net.cpp:170] Top shape: 10 512 36 14 (2580480)
I0417 13:36:15.486615 15134 layer_factory.hpp:74] Creating layer inception_2b/3x3_reduce
I0417 13:36:15.486619 15134 net.cpp:133] Creating Layer inception_2b/3x3_reduce
I0417 13:36:15.486621 15134 net.cpp:453] inception_2b/3x3_reduce <- inception_2a/output_inception_2a/output_0_split_0
I0417 13:36:15.486624 15134 net.cpp:411] inception_2b/3x3_reduce -> inception_2b/3x3_reduce
I0417 13:36:15.486627 15134 net.cpp:163] Setting up inception_2b/3x3_reduce
I0417 13:36:15.611037 15134 net.cpp:170] Top shape: 10 128 36 14 (645120)
I0417 13:36:15.611047 15134 layer_factory.hpp:74] Creating layer inception_2b/3x3_reduce_bn
I0417 13:36:15.611050 15134 layer_factory.cpp:191] Layer inception_2b/3x3_reduce_bn is using CAFFE engine.
I0417 13:36:15.611054 15134 net.cpp:133] Creating Layer inception_2b/3x3_reduce_bn
I0417 13:36:15.611057 15134 net.cpp:453] inception_2b/3x3_reduce_bn <- inception_2b/3x3_reduce
I0417 13:36:15.611060 15134 net.cpp:411] inception_2b/3x3_reduce_bn -> inception_2b/3x3_reduce_bn
I0417 13:36:15.611064 15134 net.cpp:163] Setting up inception_2b/3x3_reduce_bn
I0417 13:36:15.611073 15134 net.cpp:170] Top shape: 10 128 36 14 (645120)
I0417 13:36:15.611079 15134 layer_factory.hpp:74] Creating layer inception_2b/relu_3x3_reduce
I0417 13:36:15.611083 15134 net.cpp:133] Creating Layer inception_2b/relu_3x3_reduce
I0417 13:36:15.611083 15134 net.cpp:453] inception_2b/relu_3x3_reduce <- inception_2b/3x3_reduce_bn
I0417 13:36:15.611086 15134 net.cpp:400] inception_2b/relu_3x3_reduce -> inception_2b/3x3_reduce_bn (in-place)
I0417 13:36:15.611088 15134 net.cpp:163] Setting up inception_2b/relu_3x3_reduce
I0417 13:36:15.611345 15134 net.cpp:170] Top shape: 10 128 36 14 (645120)
I0417 13:36:15.611351 15134 layer_factory.hpp:74] Creating layer inception_2b/3x3
I0417 13:36:15.611356 15134 net.cpp:133] Creating Layer inception_2b/3x3
I0417 13:36:15.611357 15134 net.cpp:453] inception_2b/3x3 <- inception_2b/3x3_reduce_bn
I0417 13:36:15.611361 15134 net.cpp:411] inception_2b/3x3 -> inception_2b/3x3
I0417 13:36:15.611366 15134 net.cpp:163] Setting up inception_2b/3x3
I0417 13:36:15.619011 15134 net.cpp:170] Top shape: 10 128 18 7 (161280)
I0417 13:36:15.619020 15134 layer_factory.hpp:74] Creating layer inception_2b/3x3_bn
I0417 13:36:15.619024 15134 layer_factory.cpp:191] Layer inception_2b/3x3_bn is using CAFFE engine.
I0417 13:36:15.619027 15134 net.cpp:133] Creating Layer inception_2b/3x3_bn
I0417 13:36:15.619029 15134 net.cpp:453] inception_2b/3x3_bn <- inception_2b/3x3
I0417 13:36:15.619034 15134 net.cpp:411] inception_2b/3x3_bn -> inception_2b/3x3_bn
I0417 13:36:15.619037 15134 net.cpp:163] Setting up inception_2b/3x3_bn
I0417 13:36:15.619046 15134 net.cpp:170] Top shape: 10 128 18 7 (161280)
I0417 13:36:15.619051 15134 layer_factory.hpp:74] Creating layer inception_2b/relu_3x3
I0417 13:36:15.619055 15134 net.cpp:133] Creating Layer inception_2b/relu_3x3
I0417 13:36:15.619056 15134 net.cpp:453] inception_2b/relu_3x3 <- inception_2b/3x3_bn
I0417 13:36:15.619060 15134 net.cpp:400] inception_2b/relu_3x3 -> inception_2b/3x3_bn (in-place)
I0417 13:36:15.619062 15134 net.cpp:163] Setting up inception_2b/relu_3x3
I0417 13:36:15.619176 15134 net.cpp:170] Top shape: 10 128 18 7 (161280)
I0417 13:36:15.619181 15134 layer_factory.hpp:74] Creating layer inception_2b/double_3x3_reduce
I0417 13:36:15.619185 15134 net.cpp:133] Creating Layer inception_2b/double_3x3_reduce
I0417 13:36:15.619187 15134 net.cpp:453] inception_2b/double_3x3_reduce <- inception_2a/output_inception_2a/output_0_split_1
I0417 13:36:15.619191 15134 net.cpp:411] inception_2b/double_3x3_reduce -> inception_2b/double_3x3_reduce
I0417 13:36:15.619195 15134 net.cpp:163] Setting up inception_2b/double_3x3_reduce
I0417 13:36:15.743654 15134 net.cpp:170] Top shape: 10 128 36 14 (645120)
I0417 13:36:15.743662 15134 layer_factory.hpp:74] Creating layer inception_2b/double_3x3_reduce_bn
I0417 13:36:15.743665 15134 layer_factory.cpp:191] Layer inception_2b/double_3x3_reduce_bn is using CAFFE engine.
I0417 13:36:15.743669 15134 net.cpp:133] Creating Layer inception_2b/double_3x3_reduce_bn
I0417 13:36:15.743672 15134 net.cpp:453] inception_2b/double_3x3_reduce_bn <- inception_2b/double_3x3_reduce
I0417 13:36:15.743676 15134 net.cpp:411] inception_2b/double_3x3_reduce_bn -> inception_2b/double_3x3_reduce_bn
I0417 13:36:15.743680 15134 net.cpp:163] Setting up inception_2b/double_3x3_reduce_bn
I0417 13:36:15.743690 15134 net.cpp:170] Top shape: 10 128 36 14 (645120)
I0417 13:36:15.743695 15134 layer_factory.hpp:74] Creating layer inception_2b/relu_double_3x3_reduce
I0417 13:36:15.743698 15134 net.cpp:133] Creating Layer inception_2b/relu_double_3x3_reduce
I0417 13:36:15.743700 15134 net.cpp:453] inception_2b/relu_double_3x3_reduce <- inception_2b/double_3x3_reduce_bn
I0417 13:36:15.743702 15134 net.cpp:400] inception_2b/relu_double_3x3_reduce -> inception_2b/double_3x3_reduce_bn (in-place)
I0417 13:36:15.743705 15134 net.cpp:163] Setting up inception_2b/relu_double_3x3_reduce
I0417 13:36:15.743898 15134 net.cpp:170] Top shape: 10 128 36 14 (645120)
I0417 13:36:15.743903 15134 layer_factory.hpp:74] Creating layer inception_2b/double_3x3_1
I0417 13:36:15.743908 15134 net.cpp:133] Creating Layer inception_2b/double_3x3_1
I0417 13:36:15.743911 15134 net.cpp:453] inception_2b/double_3x3_1 <- inception_2b/double_3x3_reduce_bn
I0417 13:36:15.743914 15134 net.cpp:411] inception_2b/double_3x3_1 -> inception_2b/double_3x3_1
I0417 13:36:15.743918 15134 net.cpp:163] Setting up inception_2b/double_3x3_1
I0417 13:36:15.787767 15134 net.cpp:170] Top shape: 10 128 36 14 (645120)
I0417 13:36:15.787776 15134 layer_factory.hpp:74] Creating layer inception_2b/double_3x3_1_bn
I0417 13:36:15.787780 15134 layer_factory.cpp:191] Layer inception_2b/double_3x3_1_bn is using CAFFE engine.
I0417 13:36:15.787783 15134 net.cpp:133] Creating Layer inception_2b/double_3x3_1_bn
I0417 13:36:15.787786 15134 net.cpp:453] inception_2b/double_3x3_1_bn <- inception_2b/double_3x3_1
I0417 13:36:15.787789 15134 net.cpp:411] inception_2b/double_3x3_1_bn -> inception_2b/double_3x3_1_bn
I0417 13:36:15.787794 15134 net.cpp:163] Setting up inception_2b/double_3x3_1_bn
I0417 13:36:15.787804 15134 net.cpp:170] Top shape: 10 128 36 14 (645120)
I0417 13:36:15.787809 15134 layer_factory.hpp:74] Creating layer inception_2b/relu_double_3x3_1
I0417 13:36:15.787812 15134 net.cpp:133] Creating Layer inception_2b/relu_double_3x3_1
I0417 13:36:15.787814 15134 net.cpp:453] inception_2b/relu_double_3x3_1 <- inception_2b/double_3x3_1_bn
I0417 13:36:15.787817 15134 net.cpp:400] inception_2b/relu_double_3x3_1 -> inception_2b/double_3x3_1_bn (in-place)
I0417 13:36:15.787819 15134 net.cpp:163] Setting up inception_2b/relu_double_3x3_1
I0417 13:36:15.788012 15134 net.cpp:170] Top shape: 10 128 36 14 (645120)
I0417 13:36:15.788017 15134 layer_factory.hpp:74] Creating layer inception_2b/double_3x3_2
I0417 13:36:15.788022 15134 net.cpp:133] Creating Layer inception_2b/double_3x3_2
I0417 13:36:15.788023 15134 net.cpp:453] inception_2b/double_3x3_2 <- inception_2b/double_3x3_1_bn
I0417 13:36:15.788027 15134 net.cpp:411] inception_2b/double_3x3_2 -> inception_2b/double_3x3_2
I0417 13:36:15.788030 15134 net.cpp:163] Setting up inception_2b/double_3x3_2
I0417 13:36:15.795454 15134 net.cpp:170] Top shape: 10 128 18 7 (161280)
I0417 13:36:15.795464 15134 layer_factory.hpp:74] Creating layer inception_2b/double_3x3_2_bn
I0417 13:36:15.795466 15134 layer_factory.cpp:191] Layer inception_2b/double_3x3_2_bn is using CAFFE engine.
I0417 13:36:15.795470 15134 net.cpp:133] Creating Layer inception_2b/double_3x3_2_bn
I0417 13:36:15.795472 15134 net.cpp:453] inception_2b/double_3x3_2_bn <- inception_2b/double_3x3_2
I0417 13:36:15.795476 15134 net.cpp:411] inception_2b/double_3x3_2_bn -> inception_2b/double_3x3_2_bn
I0417 13:36:15.795481 15134 net.cpp:163] Setting up inception_2b/double_3x3_2_bn
I0417 13:36:15.795488 15134 net.cpp:170] Top shape: 10 128 18 7 (161280)
I0417 13:36:15.795493 15134 layer_factory.hpp:74] Creating layer inception_2b/relu_double_3x3_2
I0417 13:36:15.795497 15134 net.cpp:133] Creating Layer inception_2b/relu_double_3x3_2
I0417 13:36:15.795498 15134 net.cpp:453] inception_2b/relu_double_3x3_2 <- inception_2b/double_3x3_2_bn
I0417 13:36:15.795501 15134 net.cpp:400] inception_2b/relu_double_3x3_2 -> inception_2b/double_3x3_2_bn (in-place)
I0417 13:36:15.795505 15134 net.cpp:163] Setting up inception_2b/relu_double_3x3_2
I0417 13:36:15.795621 15134 net.cpp:170] Top shape: 10 128 18 7 (161280)
I0417 13:36:15.795625 15134 layer_factory.hpp:74] Creating layer inception_2b/pool
I0417 13:36:15.795630 15134 net.cpp:133] Creating Layer inception_2b/pool
I0417 13:36:15.795632 15134 net.cpp:453] inception_2b/pool <- inception_2a/output_inception_2a/output_0_split_2
I0417 13:36:15.795635 15134 net.cpp:411] inception_2b/pool -> inception_2b/pool
I0417 13:36:15.795640 15134 net.cpp:163] Setting up inception_2b/pool
I0417 13:36:15.795843 15134 net.cpp:170] Top shape: 10 512 18 7 (645120)
I0417 13:36:15.795850 15134 layer_factory.hpp:74] Creating layer inception_2b/output
I0417 13:36:15.795853 15134 net.cpp:133] Creating Layer inception_2b/output
I0417 13:36:15.795855 15134 net.cpp:453] inception_2b/output <- inception_2b/3x3_bn
I0417 13:36:15.795858 15134 net.cpp:453] inception_2b/output <- inception_2b/double_3x3_2_bn
I0417 13:36:15.795861 15134 net.cpp:453] inception_2b/output <- inception_2b/pool
I0417 13:36:15.795864 15134 net.cpp:411] inception_2b/output -> inception_2b/output
I0417 13:36:15.795867 15134 net.cpp:163] Setting up inception_2b/output
I0417 13:36:15.795871 15134 net.cpp:170] Top shape: 10 768 18 7 (967680)
I0417 13:36:15.795872 15134 layer_factory.hpp:74] Creating layer inception_2b/output_inception_2b/output_0_split
I0417 13:36:15.795876 15134 net.cpp:133] Creating Layer inception_2b/output_inception_2b/output_0_split
I0417 13:36:15.795877 15134 net.cpp:453] inception_2b/output_inception_2b/output_0_split <- inception_2b/output
I0417 13:36:15.795881 15134 net.cpp:411] inception_2b/output_inception_2b/output_0_split -> inception_2b/output_inception_2b/output_0_split_0
I0417 13:36:15.795883 15134 net.cpp:411] inception_2b/output_inception_2b/output_0_split -> inception_2b/output_inception_2b/output_0_split_1
I0417 13:36:15.795887 15134 net.cpp:411] inception_2b/output_inception_2b/output_0_split -> inception_2b/output_inception_2b/output_0_split_2
I0417 13:36:15.795891 15134 net.cpp:411] inception_2b/output_inception_2b/output_0_split -> inception_2b/output_inception_2b/output_0_split_3
I0417 13:36:15.795893 15134 net.cpp:163] Setting up inception_2b/output_inception_2b/output_0_split
I0417 13:36:15.795897 15134 net.cpp:170] Top shape: 10 768 18 7 (967680)
I0417 13:36:15.795898 15134 net.cpp:170] Top shape: 10 768 18 7 (967680)
I0417 13:36:15.795900 15134 net.cpp:170] Top shape: 10 768 18 7 (967680)
I0417 13:36:15.795902 15134 net.cpp:170] Top shape: 10 768 18 7 (967680)
I0417 13:36:15.795903 15134 layer_factory.hpp:74] Creating layer inception_3a/1x1
I0417 13:36:15.795907 15134 net.cpp:133] Creating Layer inception_3a/1x1
I0417 13:36:15.795909 15134 net.cpp:453] inception_3a/1x1 <- inception_2b/output_inception_2b/output_0_split_0
I0417 13:36:15.795912 15134 net.cpp:411] inception_3a/1x1 -> inception_3a/1x1
I0417 13:36:15.795915 15134 net.cpp:163] Setting up inception_3a/1x1
I0417 13:36:15.906381 15134 net.cpp:170] Top shape: 10 256 18 7 (322560)
I0417 13:36:15.906391 15134 layer_factory.hpp:74] Creating layer inception_3a/1x1_bn
I0417 13:36:15.906394 15134 layer_factory.cpp:191] Layer inception_3a/1x1_bn is using CAFFE engine.
I0417 13:36:15.906397 15134 net.cpp:133] Creating Layer inception_3a/1x1_bn
I0417 13:36:15.906399 15134 net.cpp:453] inception_3a/1x1_bn <- inception_3a/1x1
I0417 13:36:15.906404 15134 net.cpp:411] inception_3a/1x1_bn -> inception_3a/1x1_bn
I0417 13:36:15.906407 15134 net.cpp:163] Setting up inception_3a/1x1_bn
I0417 13:36:15.906417 15134 net.cpp:170] Top shape: 10 256 18 7 (322560)
I0417 13:36:15.906424 15134 layer_factory.hpp:74] Creating layer inception_3a/relu_1x1
I0417 13:36:15.906425 15134 net.cpp:133] Creating Layer inception_3a/relu_1x1
I0417 13:36:15.906427 15134 net.cpp:453] inception_3a/relu_1x1 <- inception_3a/1x1_bn
I0417 13:36:15.906430 15134 net.cpp:400] inception_3a/relu_1x1 -> inception_3a/1x1_bn (in-place)
I0417 13:36:15.906432 15134 net.cpp:163] Setting up inception_3a/relu_1x1
I0417 13:36:15.906548 15134 net.cpp:170] Top shape: 10 256 18 7 (322560)
I0417 13:36:15.906553 15134 layer_factory.hpp:74] Creating layer inception_3a/3x3_reduce
I0417 13:36:15.906558 15134 net.cpp:133] Creating Layer inception_3a/3x3_reduce
I0417 13:36:15.906560 15134 net.cpp:453] inception_3a/3x3_reduce <- inception_2b/output_inception_2b/output_0_split_1
I0417 13:36:15.906563 15134 net.cpp:411] inception_3a/3x3_reduce -> inception_3a/3x3_reduce
I0417 13:36:15.906570 15134 net.cpp:163] Setting up inception_3a/3x3_reduce
I0417 13:36:16.016798 15134 net.cpp:170] Top shape: 10 256 18 7 (322560)
I0417 13:36:16.016809 15134 layer_factory.hpp:74] Creating layer inception_3a/3x3_reduce_bn
I0417 13:36:16.016811 15134 layer_factory.cpp:191] Layer inception_3a/3x3_reduce_bn is using CAFFE engine.
I0417 13:36:16.016815 15134 net.cpp:133] Creating Layer inception_3a/3x3_reduce_bn
I0417 13:36:16.016818 15134 net.cpp:453] inception_3a/3x3_reduce_bn <- inception_3a/3x3_reduce
I0417 13:36:16.016821 15134 net.cpp:411] inception_3a/3x3_reduce_bn -> inception_3a/3x3_reduce_bn
I0417 13:36:16.016826 15134 net.cpp:163] Setting up inception_3a/3x3_reduce_bn
I0417 13:36:16.016835 15134 net.cpp:170] Top shape: 10 256 18 7 (322560)
I0417 13:36:16.016840 15134 layer_factory.hpp:74] Creating layer inception_3a/relu_3x3_reduce
I0417 13:36:16.016844 15134 net.cpp:133] Creating Layer inception_3a/relu_3x3_reduce
I0417 13:36:16.016845 15134 net.cpp:453] inception_3a/relu_3x3_reduce <- inception_3a/3x3_reduce_bn
I0417 13:36:16.016849 15134 net.cpp:400] inception_3a/relu_3x3_reduce -> inception_3a/3x3_reduce_bn (in-place)
I0417 13:36:16.016851 15134 net.cpp:163] Setting up inception_3a/relu_3x3_reduce
I0417 13:36:16.017047 15134 net.cpp:170] Top shape: 10 256 18 7 (322560)
I0417 13:36:16.017052 15134 layer_factory.hpp:74] Creating layer inception_3a/3x3
I0417 13:36:16.017057 15134 net.cpp:133] Creating Layer inception_3a/3x3
I0417 13:36:16.017060 15134 net.cpp:453] inception_3a/3x3 <- inception_3a/3x3_reduce_bn
I0417 13:36:16.017065 15134 net.cpp:411] inception_3a/3x3 -> inception_3a/3x3
I0417 13:36:16.017068 15134 net.cpp:163] Setting up inception_3a/3x3
I0417 13:36:16.066857 15134 net.cpp:170] Top shape: 10 256 18 7 (322560)
I0417 13:36:16.066869 15134 layer_factory.hpp:74] Creating layer inception_3a/3x3_bn
I0417 13:36:16.066872 15134 layer_factory.cpp:191] Layer inception_3a/3x3_bn is using CAFFE engine.
I0417 13:36:16.066876 15134 net.cpp:133] Creating Layer inception_3a/3x3_bn
I0417 13:36:16.066879 15134 net.cpp:453] inception_3a/3x3_bn <- inception_3a/3x3
I0417 13:36:16.066882 15134 net.cpp:411] inception_3a/3x3_bn -> inception_3a/3x3_bn
I0417 13:36:16.066887 15134 net.cpp:163] Setting up inception_3a/3x3_bn
I0417 13:36:16.066897 15134 net.cpp:170] Top shape: 10 256 18 7 (322560)
I0417 13:36:16.066901 15134 layer_factory.hpp:74] Creating layer inception_3a/relu_3x3
I0417 13:36:16.066905 15134 net.cpp:133] Creating Layer inception_3a/relu_3x3
I0417 13:36:16.066906 15134 net.cpp:453] inception_3a/relu_3x3 <- inception_3a/3x3_bn
I0417 13:36:16.066910 15134 net.cpp:400] inception_3a/relu_3x3 -> inception_3a/3x3_bn (in-place)
I0417 13:36:16.066912 15134 net.cpp:163] Setting up inception_3a/relu_3x3
I0417 13:36:16.067112 15134 net.cpp:170] Top shape: 10 256 18 7 (322560)
I0417 13:36:16.067119 15134 layer_factory.hpp:74] Creating layer inception_3a/double_3x3_reduce
I0417 13:36:16.067124 15134 net.cpp:133] Creating Layer inception_3a/double_3x3_reduce
I0417 13:36:16.067126 15134 net.cpp:453] inception_3a/double_3x3_reduce <- inception_2b/output_inception_2b/output_0_split_2
I0417 13:36:16.067131 15134 net.cpp:411] inception_3a/double_3x3_reduce -> inception_3a/double_3x3_reduce
I0417 13:36:16.067134 15134 net.cpp:163] Setting up inception_3a/double_3x3_reduce
I0417 13:36:16.177417 15134 net.cpp:170] Top shape: 10 256 18 7 (322560)
I0417 13:36:16.177425 15134 layer_factory.hpp:74] Creating layer inception_3a/double_3x3_reduce_bn
I0417 13:36:16.177428 15134 layer_factory.cpp:191] Layer inception_3a/double_3x3_reduce_bn is using CAFFE engine.
I0417 13:36:16.177433 15134 net.cpp:133] Creating Layer inception_3a/double_3x3_reduce_bn
I0417 13:36:16.177434 15134 net.cpp:453] inception_3a/double_3x3_reduce_bn <- inception_3a/double_3x3_reduce
I0417 13:36:16.177438 15134 net.cpp:411] inception_3a/double_3x3_reduce_bn -> inception_3a/double_3x3_reduce_bn
I0417 13:36:16.177443 15134 net.cpp:163] Setting up inception_3a/double_3x3_reduce_bn
I0417 13:36:16.177453 15134 net.cpp:170] Top shape: 10 256 18 7 (322560)
I0417 13:36:16.177459 15134 layer_factory.hpp:74] Creating layer inception_3a/relu_double_3x3_reduce
I0417 13:36:16.177461 15134 net.cpp:133] Creating Layer inception_3a/relu_double_3x3_reduce
I0417 13:36:16.177464 15134 net.cpp:453] inception_3a/relu_double_3x3_reduce <- inception_3a/double_3x3_reduce_bn
I0417 13:36:16.177465 15134 net.cpp:400] inception_3a/relu_double_3x3_reduce -> inception_3a/double_3x3_reduce_bn (in-place)
I0417 13:36:16.177469 15134 net.cpp:163] Setting up inception_3a/relu_double_3x3_reduce
I0417 13:36:16.177589 15134 net.cpp:170] Top shape: 10 256 18 7 (322560)
I0417 13:36:16.177593 15134 layer_factory.hpp:74] Creating layer inception_3a/double_3x3_1
I0417 13:36:16.177598 15134 net.cpp:133] Creating Layer inception_3a/double_3x3_1
I0417 13:36:16.177600 15134 net.cpp:453] inception_3a/double_3x3_1 <- inception_3a/double_3x3_reduce_bn
I0417 13:36:16.177604 15134 net.cpp:411] inception_3a/double_3x3_1 -> inception_3a/double_3x3_1
I0417 13:36:16.177608 15134 net.cpp:163] Setting up inception_3a/double_3x3_1
I0417 13:36:16.227313 15134 net.cpp:170] Top shape: 10 256 18 7 (322560)
I0417 13:36:16.227325 15134 layer_factory.hpp:74] Creating layer inception_3a/double_3x3_1_bn
I0417 13:36:16.227327 15134 layer_factory.cpp:191] Layer inception_3a/double_3x3_1_bn is using CAFFE engine.
I0417 13:36:16.227331 15134 net.cpp:133] Creating Layer inception_3a/double_3x3_1_bn
I0417 13:36:16.227334 15134 net.cpp:453] inception_3a/double_3x3_1_bn <- inception_3a/double_3x3_1
I0417 13:36:16.227339 15134 net.cpp:411] inception_3a/double_3x3_1_bn -> inception_3a/double_3x3_1_bn
I0417 13:36:16.227342 15134 net.cpp:163] Setting up inception_3a/double_3x3_1_bn
I0417 13:36:16.227352 15134 net.cpp:170] Top shape: 10 256 18 7 (322560)
I0417 13:36:16.227356 15134 layer_factory.hpp:74] Creating layer inception_3a/relu_double_3x3_1
I0417 13:36:16.227360 15134 net.cpp:133] Creating Layer inception_3a/relu_double_3x3_1
I0417 13:36:16.227361 15134 net.cpp:453] inception_3a/relu_double_3x3_1 <- inception_3a/double_3x3_1_bn
I0417 13:36:16.227365 15134 net.cpp:400] inception_3a/relu_double_3x3_1 -> inception_3a/double_3x3_1_bn (in-place)
I0417 13:36:16.227366 15134 net.cpp:163] Setting up inception_3a/relu_double_3x3_1
I0417 13:36:16.227563 15134 net.cpp:170] Top shape: 10 256 18 7 (322560)
I0417 13:36:16.227569 15134 layer_factory.hpp:74] Creating layer inception_3a/double_3x3_2
I0417 13:36:16.227574 15134 net.cpp:133] Creating Layer inception_3a/double_3x3_2
I0417 13:36:16.227576 15134 net.cpp:453] inception_3a/double_3x3_2 <- inception_3a/double_3x3_1_bn
I0417 13:36:16.227581 15134 net.cpp:411] inception_3a/double_3x3_2 -> inception_3a/double_3x3_2
I0417 13:36:16.227584 15134 net.cpp:163] Setting up inception_3a/double_3x3_2
I0417 13:36:16.277338 15134 net.cpp:170] Top shape: 10 256 18 7 (322560)
I0417 13:36:16.277348 15134 layer_factory.hpp:74] Creating layer inception_3a/double_3x3_2_bn
I0417 13:36:16.277350 15134 layer_factory.cpp:191] Layer inception_3a/double_3x3_2_bn is using CAFFE engine.
I0417 13:36:16.277354 15134 net.cpp:133] Creating Layer inception_3a/double_3x3_2_bn
I0417 13:36:16.277357 15134 net.cpp:453] inception_3a/double_3x3_2_bn <- inception_3a/double_3x3_2
I0417 13:36:16.277361 15134 net.cpp:411] inception_3a/double_3x3_2_bn -> inception_3a/double_3x3_2_bn
I0417 13:36:16.277366 15134 net.cpp:163] Setting up inception_3a/double_3x3_2_bn
I0417 13:36:16.277375 15134 net.cpp:170] Top shape: 10 256 18 7 (322560)
I0417 13:36:16.277379 15134 layer_factory.hpp:74] Creating layer inception_3a/relu_double_3x3_2
I0417 13:36:16.277382 15134 net.cpp:133] Creating Layer inception_3a/relu_double_3x3_2
I0417 13:36:16.277385 15134 net.cpp:453] inception_3a/relu_double_3x3_2 <- inception_3a/double_3x3_2_bn
I0417 13:36:16.277387 15134 net.cpp:400] inception_3a/relu_double_3x3_2 -> inception_3a/double_3x3_2_bn (in-place)
I0417 13:36:16.277390 15134 net.cpp:163] Setting up inception_3a/relu_double_3x3_2
I0417 13:36:16.277606 15134 net.cpp:170] Top shape: 10 256 18 7 (322560)
I0417 13:36:16.277611 15134 layer_factory.hpp:74] Creating layer inception_3a/pool
I0417 13:36:16.277614 15134 layer_factory.cpp:64] CUDNN does not support padding or multiple tops. Using Caffe's own pooling layer.
I0417 13:36:16.277618 15134 net.cpp:133] Creating Layer inception_3a/pool
I0417 13:36:16.277621 15134 net.cpp:453] inception_3a/pool <- inception_2b/output_inception_2b/output_0_split_3
I0417 13:36:16.277624 15134 net.cpp:411] inception_3a/pool -> inception_3a/pool
I0417 13:36:16.277627 15134 net.cpp:163] Setting up inception_3a/pool
I0417 13:36:16.277631 15134 net.cpp:170] Top shape: 10 768 18 7 (967680)
I0417 13:36:16.277633 15134 layer_factory.hpp:74] Creating layer inception_3a/pool_proj
I0417 13:36:16.277638 15134 net.cpp:133] Creating Layer inception_3a/pool_proj
I0417 13:36:16.277639 15134 net.cpp:453] inception_3a/pool_proj <- inception_3a/pool
I0417 13:36:16.277643 15134 net.cpp:411] inception_3a/pool_proj -> inception_3a/pool_proj
I0417 13:36:16.277647 15134 net.cpp:163] Setting up inception_3a/pool_proj
I0417 13:36:16.388221 15134 net.cpp:170] Top shape: 10 256 18 7 (322560)
I0417 13:36:16.388231 15134 layer_factory.hpp:74] Creating layer inception_3a/pool_proj_bn
I0417 13:36:16.388233 15134 layer_factory.cpp:191] Layer inception_3a/pool_proj_bn is using CAFFE engine.
I0417 13:36:16.388237 15134 net.cpp:133] Creating Layer inception_3a/pool_proj_bn
I0417 13:36:16.388241 15134 net.cpp:453] inception_3a/pool_proj_bn <- inception_3a/pool_proj
I0417 13:36:16.388243 15134 net.cpp:411] inception_3a/pool_proj_bn -> inception_3a/pool_proj_bn
I0417 13:36:16.388247 15134 net.cpp:163] Setting up inception_3a/pool_proj_bn
I0417 13:36:16.388257 15134 net.cpp:170] Top shape: 10 256 18 7 (322560)
I0417 13:36:16.388263 15134 layer_factory.hpp:74] Creating layer inception_3a/relu_pool_proj
I0417 13:36:16.388267 15134 net.cpp:133] Creating Layer inception_3a/relu_pool_proj
I0417 13:36:16.388267 15134 net.cpp:453] inception_3a/relu_pool_proj <- inception_3a/pool_proj_bn
I0417 13:36:16.388270 15134 net.cpp:400] inception_3a/relu_pool_proj -> inception_3a/pool_proj_bn (in-place)
I0417 13:36:16.388273 15134 net.cpp:163] Setting up inception_3a/relu_pool_proj
I0417 13:36:16.388392 15134 net.cpp:170] Top shape: 10 256 18 7 (322560)
I0417 13:36:16.388396 15134 layer_factory.hpp:74] Creating layer inception_3a/output
I0417 13:36:16.388401 15134 net.cpp:133] Creating Layer inception_3a/output
I0417 13:36:16.388402 15134 net.cpp:453] inception_3a/output <- inception_3a/1x1_bn
I0417 13:36:16.388406 15134 net.cpp:453] inception_3a/output <- inception_3a/3x3_bn
I0417 13:36:16.388407 15134 net.cpp:453] inception_3a/output <- inception_3a/double_3x3_2_bn
I0417 13:36:16.388409 15134 net.cpp:453] inception_3a/output <- inception_3a/pool_proj_bn
I0417 13:36:16.388413 15134 net.cpp:411] inception_3a/output -> inception_3a/output
I0417 13:36:16.388417 15134 net.cpp:163] Setting up inception_3a/output
I0417 13:36:16.388420 15134 net.cpp:170] Top shape: 10 1024 18 7 (1290240)
I0417 13:36:16.388422 15134 layer_factory.hpp:74] Creating layer inception_3a/output_inception_3a/output_0_split
I0417 13:36:16.388425 15134 net.cpp:133] Creating Layer inception_3a/output_inception_3a/output_0_split
I0417 13:36:16.388427 15134 net.cpp:453] inception_3a/output_inception_3a/output_0_split <- inception_3a/output
I0417 13:36:16.388429 15134 net.cpp:411] inception_3a/output_inception_3a/output_0_split -> inception_3a/output_inception_3a/output_0_split_0
I0417 13:36:16.388433 15134 net.cpp:411] inception_3a/output_inception_3a/output_0_split -> inception_3a/output_inception_3a/output_0_split_1
I0417 13:36:16.388437 15134 net.cpp:411] inception_3a/output_inception_3a/output_0_split -> inception_3a/output_inception_3a/output_0_split_2
I0417 13:36:16.388439 15134 net.cpp:163] Setting up inception_3a/output_inception_3a/output_0_split
I0417 13:36:16.388442 15134 net.cpp:170] Top shape: 10 1024 18 7 (1290240)
I0417 13:36:16.388444 15134 net.cpp:170] Top shape: 10 1024 18 7 (1290240)
I0417 13:36:16.388447 15134 net.cpp:170] Top shape: 10 1024 18 7 (1290240)
I0417 13:36:16.388447 15134 layer_factory.hpp:74] Creating layer inception_3b/3x3_reduce
I0417 13:36:16.388453 15134 net.cpp:133] Creating Layer inception_3b/3x3_reduce
I0417 13:36:16.388454 15134 net.cpp:453] inception_3b/3x3_reduce <- inception_3a/output_inception_3a/output_0_split_0
I0417 13:36:16.388458 15134 net.cpp:411] inception_3b/3x3_reduce -> inception_3b/3x3_reduce
I0417 13:36:16.388460 15134 net.cpp:163] Setting up inception_3b/3x3_reduce
I0417 13:36:16.535768 15134 net.cpp:170] Top shape: 10 256 18 7 (322560)
I0417 13:36:16.535778 15134 layer_factory.hpp:74] Creating layer inception_3b/3x3_reduce_bn
I0417 13:36:16.535780 15134 layer_factory.cpp:191] Layer inception_3b/3x3_reduce_bn is using CAFFE engine.
I0417 13:36:16.535784 15134 net.cpp:133] Creating Layer inception_3b/3x3_reduce_bn
I0417 13:36:16.535786 15134 net.cpp:453] inception_3b/3x3_reduce_bn <- inception_3b/3x3_reduce
I0417 13:36:16.535790 15134 net.cpp:411] inception_3b/3x3_reduce_bn -> inception_3b/3x3_reduce_bn
I0417 13:36:16.535795 15134 net.cpp:163] Setting up inception_3b/3x3_reduce_bn
I0417 13:36:16.535804 15134 net.cpp:170] Top shape: 10 256 18 7 (322560)
I0417 13:36:16.535809 15134 layer_factory.hpp:74] Creating layer inception_3b/relu_3x3_reduce
I0417 13:36:16.535812 15134 net.cpp:133] Creating Layer inception_3b/relu_3x3_reduce
I0417 13:36:16.535815 15134 net.cpp:453] inception_3b/relu_3x3_reduce <- inception_3b/3x3_reduce_bn
I0417 13:36:16.535817 15134 net.cpp:400] inception_3b/relu_3x3_reduce -> inception_3b/3x3_reduce_bn (in-place)
I0417 13:36:16.535820 15134 net.cpp:163] Setting up inception_3b/relu_3x3_reduce
I0417 13:36:16.536018 15134 net.cpp:170] Top shape: 10 256 18 7 (322560)
I0417 13:36:16.536025 15134 layer_factory.hpp:74] Creating layer inception_3b/3x3
I0417 13:36:16.536029 15134 net.cpp:133] Creating Layer inception_3b/3x3
I0417 13:36:16.536031 15134 net.cpp:453] inception_3b/3x3 <- inception_3b/3x3_reduce_bn
I0417 13:36:16.536036 15134 net.cpp:411] inception_3b/3x3 -> inception_3b/3x3
I0417 13:36:16.536039 15134 net.cpp:163] Setting up inception_3b/3x3
I0417 13:36:16.547260 15134 net.cpp:170] Top shape: 10 256 9 4 (92160)
I0417 13:36:16.547271 15134 layer_factory.hpp:74] Creating layer inception_3b/3x3_bn
I0417 13:36:16.547273 15134 layer_factory.cpp:191] Layer inception_3b/3x3_bn is using CAFFE engine.
I0417 13:36:16.547277 15134 net.cpp:133] Creating Layer inception_3b/3x3_bn
I0417 13:36:16.547279 15134 net.cpp:453] inception_3b/3x3_bn <- inception_3b/3x3
I0417 13:36:16.547283 15134 net.cpp:411] inception_3b/3x3_bn -> inception_3b/3x3_bn
I0417 13:36:16.547288 15134 net.cpp:163] Setting up inception_3b/3x3_bn
I0417 13:36:16.547297 15134 net.cpp:170] Top shape: 10 256 9 4 (92160)
I0417 13:36:16.547302 15134 layer_factory.hpp:74] Creating layer inception_3b/relu_3x3
I0417 13:36:16.547305 15134 net.cpp:133] Creating Layer inception_3b/relu_3x3
I0417 13:36:16.547307 15134 net.cpp:453] inception_3b/relu_3x3 <- inception_3b/3x3_bn
I0417 13:36:16.547309 15134 net.cpp:400] inception_3b/relu_3x3 -> inception_3b/3x3_bn (in-place)
I0417 13:36:16.547312 15134 net.cpp:163] Setting up inception_3b/relu_3x3
I0417 13:36:16.547525 15134 net.cpp:170] Top shape: 10 256 9 4 (92160)
I0417 13:36:16.547531 15134 layer_factory.hpp:74] Creating layer inception_3b/double_3x3_reduce
I0417 13:36:16.547535 15134 net.cpp:133] Creating Layer inception_3b/double_3x3_reduce
I0417 13:36:16.547538 15134 net.cpp:453] inception_3b/double_3x3_reduce <- inception_3a/output_inception_3a/output_0_split_1
I0417 13:36:16.547541 15134 net.cpp:411] inception_3b/double_3x3_reduce -> inception_3b/double_3x3_reduce
I0417 13:36:16.547546 15134 net.cpp:163] Setting up inception_3b/double_3x3_reduce
I0417 13:36:16.695370 15134 net.cpp:170] Top shape: 10 256 18 7 (322560)
I0417 13:36:16.695380 15134 layer_factory.hpp:74] Creating layer inception_3b/double_3x3_reduce_bn
I0417 13:36:16.695384 15134 layer_factory.cpp:191] Layer inception_3b/double_3x3_reduce_bn is using CAFFE engine.
I0417 13:36:16.695410 15134 net.cpp:133] Creating Layer inception_3b/double_3x3_reduce_bn
I0417 13:36:16.695413 15134 net.cpp:453] inception_3b/double_3x3_reduce_bn <- inception_3b/double_3x3_reduce
I0417 13:36:16.695417 15134 net.cpp:411] inception_3b/double_3x3_reduce_bn -> inception_3b/double_3x3_reduce_bn
I0417 13:36:16.695422 15134 net.cpp:163] Setting up inception_3b/double_3x3_reduce_bn
I0417 13:36:16.695430 15134 net.cpp:170] Top shape: 10 256 18 7 (322560)
I0417 13:36:16.695436 15134 layer_factory.hpp:74] Creating layer inception_3b/relu_double_3x3_reduce
I0417 13:36:16.695438 15134 net.cpp:133] Creating Layer inception_3b/relu_double_3x3_reduce
I0417 13:36:16.695441 15134 net.cpp:453] inception_3b/relu_double_3x3_reduce <- inception_3b/double_3x3_reduce_bn
I0417 13:36:16.695443 15134 net.cpp:400] inception_3b/relu_double_3x3_reduce -> inception_3b/double_3x3_reduce_bn (in-place)
I0417 13:36:16.695451 15134 net.cpp:163] Setting up inception_3b/relu_double_3x3_reduce
I0417 13:36:16.695571 15134 net.cpp:170] Top shape: 10 256 18 7 (322560)
I0417 13:36:16.695576 15134 layer_factory.hpp:74] Creating layer inception_3b/double_3x3_1
I0417 13:36:16.695581 15134 net.cpp:133] Creating Layer inception_3b/double_3x3_1
I0417 13:36:16.695582 15134 net.cpp:453] inception_3b/double_3x3_1 <- inception_3b/double_3x3_reduce_bn
I0417 13:36:16.695586 15134 net.cpp:411] inception_3b/double_3x3_1 -> inception_3b/double_3x3_1
I0417 13:36:16.695590 15134 net.cpp:163] Setting up inception_3b/double_3x3_1
I0417 13:36:16.745014 15134 net.cpp:170] Top shape: 10 256 18 7 (322560)
I0417 13:36:16.745025 15134 layer_factory.hpp:74] Creating layer inception_3b/double_3x3_1_bn
I0417 13:36:16.745028 15134 layer_factory.cpp:191] Layer inception_3b/double_3x3_1_bn is using CAFFE engine.
I0417 13:36:16.745033 15134 net.cpp:133] Creating Layer inception_3b/double_3x3_1_bn
I0417 13:36:16.745035 15134 net.cpp:453] inception_3b/double_3x3_1_bn <- inception_3b/double_3x3_1
I0417 13:36:16.745039 15134 net.cpp:411] inception_3b/double_3x3_1_bn -> inception_3b/double_3x3_1_bn
I0417 13:36:16.745043 15134 net.cpp:163] Setting up inception_3b/double_3x3_1_bn
I0417 13:36:16.745054 15134 net.cpp:170] Top shape: 10 256 18 7 (322560)
I0417 13:36:16.745059 15134 layer_factory.hpp:74] Creating layer inception_3b/relu_double_3x3_1
I0417 13:36:16.745062 15134 net.cpp:133] Creating Layer inception_3b/relu_double_3x3_1
I0417 13:36:16.745064 15134 net.cpp:453] inception_3b/relu_double_3x3_1 <- inception_3b/double_3x3_1_bn
I0417 13:36:16.745066 15134 net.cpp:400] inception_3b/relu_double_3x3_1 -> inception_3b/double_3x3_1_bn (in-place)
I0417 13:36:16.745069 15134 net.cpp:163] Setting up inception_3b/relu_double_3x3_1
I0417 13:36:16.745271 15134 net.cpp:170] Top shape: 10 256 18 7 (322560)
I0417 13:36:16.745276 15134 layer_factory.hpp:74] Creating layer inception_3b/double_3x3_2
I0417 13:36:16.745281 15134 net.cpp:133] Creating Layer inception_3b/double_3x3_2
I0417 13:36:16.745285 15134 net.cpp:453] inception_3b/double_3x3_2 <- inception_3b/double_3x3_1_bn
I0417 13:36:16.745288 15134 net.cpp:411] inception_3b/double_3x3_2 -> inception_3b/double_3x3_2
I0417 13:36:16.745291 15134 net.cpp:163] Setting up inception_3b/double_3x3_2
I0417 13:36:16.756661 15134 net.cpp:170] Top shape: 10 256 9 4 (92160)
I0417 13:36:16.756672 15134 layer_factory.hpp:74] Creating layer inception_3b/double_3x3_2_bn
I0417 13:36:16.756675 15134 layer_factory.cpp:191] Layer inception_3b/double_3x3_2_bn is using CAFFE engine.
I0417 13:36:16.756678 15134 net.cpp:133] Creating Layer inception_3b/double_3x3_2_bn
I0417 13:36:16.756681 15134 net.cpp:453] inception_3b/double_3x3_2_bn <- inception_3b/double_3x3_2
I0417 13:36:16.756685 15134 net.cpp:411] inception_3b/double_3x3_2_bn -> inception_3b/double_3x3_2_bn
I0417 13:36:16.756690 15134 net.cpp:163] Setting up inception_3b/double_3x3_2_bn
I0417 13:36:16.756700 15134 net.cpp:170] Top shape: 10 256 9 4 (92160)
I0417 13:36:16.756705 15134 layer_factory.hpp:74] Creating layer inception_3b/relu_double_3x3_2
I0417 13:36:16.756708 15134 net.cpp:133] Creating Layer inception_3b/relu_double_3x3_2
I0417 13:36:16.756711 15134 net.cpp:453] inception_3b/relu_double_3x3_2 <- inception_3b/double_3x3_2_bn
I0417 13:36:16.756712 15134 net.cpp:400] inception_3b/relu_double_3x3_2 -> inception_3b/double_3x3_2_bn (in-place)
I0417 13:36:16.756716 15134 net.cpp:163] Setting up inception_3b/relu_double_3x3_2
I0417 13:36:16.756927 15134 net.cpp:170] Top shape: 10 256 9 4 (92160)
I0417 13:36:16.756932 15134 layer_factory.hpp:74] Creating layer inception_3b/pool
I0417 13:36:16.756935 15134 layer_factory.cpp:64] CUDNN does not support padding or multiple tops. Using Caffe's own pooling layer.
I0417 13:36:16.756939 15134 net.cpp:133] Creating Layer inception_3b/pool
I0417 13:36:16.756942 15134 net.cpp:453] inception_3b/pool <- inception_3a/output_inception_3a/output_0_split_2
I0417 13:36:16.756947 15134 net.cpp:411] inception_3b/pool -> inception_3b/pool
I0417 13:36:16.756953 15134 net.cpp:163] Setting up inception_3b/pool
I0417 13:36:16.756959 15134 net.cpp:170] Top shape: 10 1024 9 4 (368640)
I0417 13:36:16.756961 15134 layer_factory.hpp:74] Creating layer inception_3b/output
I0417 13:36:16.756965 15134 net.cpp:133] Creating Layer inception_3b/output
I0417 13:36:16.756968 15134 net.cpp:453] inception_3b/output <- inception_3b/3x3_bn
I0417 13:36:16.756969 15134 net.cpp:453] inception_3b/output <- inception_3b/double_3x3_2_bn
I0417 13:36:16.756971 15134 net.cpp:453] inception_3b/output <- inception_3b/pool
I0417 13:36:16.756974 15134 net.cpp:411] inception_3b/output -> inception_3b/output
I0417 13:36:16.756978 15134 net.cpp:163] Setting up inception_3b/output
I0417 13:36:16.756980 15134 net.cpp:170] Top shape: 10 1536 9 4 (552960)
I0417 13:36:16.756981 15134 layer_factory.hpp:74] Creating layer global_pool
I0417 13:36:16.756985 15134 net.cpp:133] Creating Layer global_pool
I0417 13:36:16.756988 15134 net.cpp:453] global_pool <- inception_3b/output
I0417 13:36:16.756990 15134 net.cpp:411] global_pool -> global_pool
I0417 13:36:16.756994 15134 net.cpp:163] Setting up global_pool
I0417 13:36:16.757105 15134 net.cpp:170] Top shape: 10 1536 1 1 (15360)
I0417 13:36:16.757109 15134 layer_factory.hpp:74] Creating layer gather_global_pool_to_fc7
I0417 13:36:16.757112 15134 net.cpp:133] Creating Layer gather_global_pool_to_fc7
I0417 13:36:16.757114 15134 net.cpp:453] gather_global_pool_to_fc7 <- global_pool
I0417 13:36:16.757118 15134 net.cpp:411] gather_global_pool_to_fc7 -> gathered_global_pool
I0417 13:36:16.757122 15134 net.cpp:163] Setting up gather_global_pool_to_fc7
I0417 13:36:16.757123 15134 net.cpp:170] Top shape: 20 1536 1 1 (30720)
I0417 13:36:16.757125 15134 layer_factory.hpp:74] Creating layer fc7
I0417 13:36:16.757129 15134 net.cpp:133] Creating Layer fc7
I0417 13:36:16.757130 15134 net.cpp:453] fc7 <- gathered_global_pool
I0417 13:36:16.757133 15134 net.cpp:411] fc7 -> fc7
I0417 13:36:16.757138 15134 net.cpp:163] Setting up fc7
I0417 13:36:16.758702 15134 net.cpp:170] Top shape: 20 256 (5120)
I0417 13:36:16.758708 15134 layer_factory.hpp:74] Creating layer fc7_bn
I0417 13:36:16.758709 15134 layer_factory.cpp:191] Layer fc7_bn is using CAFFE engine.
I0417 13:36:16.758714 15134 net.cpp:133] Creating Layer fc7_bn
I0417 13:36:16.758716 15134 net.cpp:453] fc7_bn <- fc7
I0417 13:36:16.758718 15134 net.cpp:411] fc7_bn -> fc7_bn
I0417 13:36:16.758723 15134 net.cpp:163] Setting up fc7_bn
I0417 13:36:16.758730 15134 net.cpp:170] Top shape: 20 256 (5120)
I0417 13:36:16.758734 15134 layer_factory.hpp:74] Creating layer relu7
I0417 13:36:16.758736 15134 net.cpp:133] Creating Layer relu7
I0417 13:36:16.758738 15134 net.cpp:453] relu7 <- fc7_bn
I0417 13:36:16.758740 15134 net.cpp:400] relu7 -> fc7_bn (in-place)
I0417 13:36:16.758743 15134 net.cpp:163] Setting up relu7
I0417 13:36:16.758955 15134 net.cpp:170] Top shape: 20 256 (5120)
I0417 13:36:16.758960 15134 layer_factory.hpp:74] Creating layer drop7
I0417 13:36:16.758965 15134 net.cpp:133] Creating Layer drop7
I0417 13:36:16.758967 15134 net.cpp:453] drop7 <- fc7_bn
I0417 13:36:16.758970 15134 net.cpp:400] drop7 -> fc7_bn (in-place)
I0417 13:36:16.758973 15134 net.cpp:163] Setting up drop7
I0417 13:36:16.758976 15134 net.cpp:170] Top shape: 20 256 (5120)
I0417 13:36:16.758978 15134 layer_factory.hpp:74] Creating layer fc8_cuhk01
I0417 13:36:16.758982 15134 net.cpp:133] Creating Layer fc8_cuhk01
I0417 13:36:16.758983 15134 net.cpp:453] fc8_cuhk01 <- fc7_bn
I0417 13:36:16.758986 15134 net.cpp:411] fc8_cuhk01 -> fc8_cuhk01
I0417 13:36:16.758991 15134 net.cpp:163] Setting up fc8_cuhk01
I0417 13:36:16.760699 15134 net.cpp:170] Top shape: 20 971 (19420)
I0417 13:36:16.760704 15134 layer_factory.hpp:74] Creating layer fc8_cuhk01_fc8_cuhk01_0_split
I0417 13:36:16.760709 15134 net.cpp:133] Creating Layer fc8_cuhk01_fc8_cuhk01_0_split
I0417 13:36:16.760711 15134 net.cpp:453] fc8_cuhk01_fc8_cuhk01_0_split <- fc8_cuhk01
I0417 13:36:16.760715 15134 net.cpp:411] fc8_cuhk01_fc8_cuhk01_0_split -> fc8_cuhk01_fc8_cuhk01_0_split_0
I0417 13:36:16.760717 15134 net.cpp:411] fc8_cuhk01_fc8_cuhk01_0_split -> fc8_cuhk01_fc8_cuhk01_0_split_1
I0417 13:36:16.760720 15134 net.cpp:163] Setting up fc8_cuhk01_fc8_cuhk01_0_split
I0417 13:36:16.760723 15134 net.cpp:170] Top shape: 20 971 (19420)
I0417 13:36:16.760725 15134 net.cpp:170] Top shape: 20 971 (19420)
I0417 13:36:16.760726 15134 layer_factory.hpp:74] Creating layer gather_label_data_1_split_to_loss
I0417 13:36:16.760730 15134 net.cpp:133] Creating Layer gather_label_data_1_split_to_loss
I0417 13:36:16.760731 15134 net.cpp:453] gather_label_data_1_split_to_loss <- label_data_1_split_0
I0417 13:36:16.760735 15134 net.cpp:411] gather_label_data_1_split_to_loss -> gathered_label_data_1_split_0
I0417 13:36:16.760736 15134 net.cpp:163] Setting up gather_label_data_1_split_to_loss
I0417 13:36:16.760740 15134 net.cpp:170] Top shape: 20 (20)
I0417 13:36:16.760740 15134 layer_factory.hpp:74] Creating layer loss
I0417 13:36:16.760745 15134 net.cpp:133] Creating Layer loss
I0417 13:36:16.760746 15134 net.cpp:453] loss <- fc8_cuhk01_fc8_cuhk01_0_split_0
I0417 13:36:16.760748 15134 net.cpp:453] loss <- gathered_label_data_1_split_0
I0417 13:36:16.760751 15134 net.cpp:411] loss -> loss
I0417 13:36:16.760752 15134 net.cpp:163] Setting up loss
I0417 13:36:16.760756 15134 layer_factory.hpp:74] Creating layer loss
I0417 13:36:16.760898 15134 net.cpp:170] Top shape: (1)
I0417 13:36:16.760902 15134 net.cpp:172]     with loss weight 1
I0417 13:36:16.760910 15134 layer_factory.hpp:74] Creating layer gather_label_data_1_split_to_accuracy
I0417 13:36:16.760912 15134 net.cpp:133] Creating Layer gather_label_data_1_split_to_accuracy
I0417 13:36:16.760915 15134 net.cpp:453] gather_label_data_1_split_to_accuracy <- label_data_1_split_1
I0417 13:36:16.760917 15134 net.cpp:411] gather_label_data_1_split_to_accuracy -> gathered_label_data_1_split_1
I0417 13:36:16.760921 15134 net.cpp:163] Setting up gather_label_data_1_split_to_accuracy
I0417 13:36:16.760923 15134 net.cpp:170] Top shape: 20 (20)
I0417 13:36:16.760926 15134 layer_factory.hpp:74] Creating layer accuracy
I0417 13:36:16.760929 15134 net.cpp:133] Creating Layer accuracy
I0417 13:36:16.760931 15134 net.cpp:453] accuracy <- fc8_cuhk01_fc8_cuhk01_0_split_1
I0417 13:36:16.760933 15134 net.cpp:453] accuracy <- gathered_label_data_1_split_1
I0417 13:36:16.760936 15134 net.cpp:411] accuracy -> accuracy
I0417 13:36:16.760938 15134 net.cpp:163] Setting up accuracy
…
