…
I0417 16:46:28.031888 23546 net.cpp:330] The NetState phase (0) differed from the phase (1) specified by a rule in layer accuracy
I0417 16:46:28.032508 23546 net.cpp:47] Initializing net from parameters: 
name: "VIPeR"
state {
  phase: TRAIN
}
richness: 1000
layer {
  name: "data"
  type: "Data"
  top: "data"
  top: "label"
  include {
    phase: TRAIN
  }
  transform_param {
    mirror: true
    mean_value: 102
    mean_value: 102
    mean_value: 101
    crop_height: 144
    crop_width: 56
  }
  data_param {
    source: "external/exp/db/viper/train_lmdb"
    batch_size: 50
    backend: LMDB
    shuffle_pool_size: 10
  }
}
layer {
  name: "conv1"
  type: "Convolution"
  bottom: "data"
  top: "conv1"
  param {
    lr_mult: 1
    decay_mult: 1
  }
  param {
    lr_mult: 2
    decay_mult: 0
  }
  convolution_param {
    num_output: 32
    pad: 1
    kernel_size: 3
    stride: 1
    weight_filler {
      type: "xavier"
    }
    bias_filler {
      type: "constant"
      value: 0.2
    }
  }
}
layer {
  name: "conv1_bn"
  type: "BN"
  bottom: "conv1"
  top: "conv1_bn"
  param {
    lr_mult: 1
    decay_mult: 0
  }
  param {
    lr_mult: 1
    decay_mult: 0
  }
  bn_param {
    slope_filler {
      type: "constant"
      value: 1
    }
    bias_filler {
      type: "constant"
      value: 0
    }
  }
}
layer {
  name: "relu1"
  type: "ReLU"
  bottom: "conv1_bn"
  top: "conv1_bn"
}
layer {
  name: "conv2"
  type: "Convolution"
  bottom: "conv1_bn"
  top: "conv2"
  param {
    lr_mult: 1
    decay_mult: 1
  }
  param {
    lr_mult: 2
    decay_mult: 0
  }
  convolution_param {
    num_output: 32
    pad: 1
    kernel_size: 3
    stride: 1
    weight_filler {
      type: "xavier"
    }
    bias_filler {
      type: "constant"
      value: 0.2
    }
  }
}
layer {
  name: "conv2_bn"
  type: "BN"
  bottom: "conv2"
  top: "conv2_bn"
  param {
    lr_mult: 1
    decay_mult: 0
  }
  param {
    lr_mult: 1
    decay_mult: 0
  }
  bn_param {
    slope_filler {
      type: "constant"
      value: 1
    }
    bias_filler {
      type: "constant"
      value: 0
    }
  }
}
layer {
  name: "relu2"
  type: "ReLU"
  bottom: "conv2_bn"
  top: "conv2_bn"
}
layer {
  name: "conv3"
  type: "Convolution"
  bottom: "conv2_bn"
  top: "conv3"
  param {
    lr_mult: 1
    decay_mult: 1
  }
  param {
    lr_mult: 2
    decay_mult: 0
  }
  convolution_param {
    num_output: 32
    pad: 1
    kernel_size: 3
    stride: 1
    weight_filler {
      type: "xavier"
    }
    bias_filler {
      type: "constant"
      value: 0.2
    }
  }
}
layer {
  name: "conv3_bn"
  type: "BN"
  bottom: "conv3"
  top: "conv3_bn"
  param {
    lr_mult: 1
    decay_mult: 0
  }
  param {
    lr_mult: 1
    decay_mult: 0
  }
  bn_param {
    slope_filler {
      type: "constant"
      value: 1
    }
    bias_filler {
      type: "constant"
      value: 0
    }
  }
}
layer {
  name: "relu3"
  type: "ReLU"
  bottom: "conv3_bn"
  top: "conv3_bn"
}
layer {
  name: "pool1"
  type: "Pooling"
  bottom: "conv3_bn"
  top: "pool1"
  pooling_param {
    pool: MAX
    kernel_size: 2
    stride: 2
  }
}
layer {
  name: "inception_1a/1x1"
  type: "Convolution"
  bottom: "pool1"
  top: "inception_1a/1x1"
  param {
    lr_mult: 1
    decay_mult: 1
  }
  param {
    lr_mult: 2
    decay_mult: 0
  }
  convolution_param {
    num_output: 64
    kernel_size: 1
    weight_filler {
      type: "xavier"
    }
    bias_filler {
      type: "constant"
      value: 0.2
    }
  }
}
layer {
  name: "inception_1a/1x1_bn"
  type: "BN"
  bottom: "inception_1a/1x1"
  top: "inception_1a/1x1_bn"
  param {
    lr_mult: 1
    decay_mult: 0
  }
  param {
    lr_mult: 1
    decay_mult: 0
  }
  bn_param {
    slope_filler {
      type: "constant"
      value: 1
    }
    bias_filler {
      type: "constant"
      value: 0
    }
  }
}
layer {
  name: "inception_1a/relu_1x1"
  type: "ReLU"
  bottom: "inception_1a/1x1_bn"
  top: "inception_1a/1x1_bn"
}
layer {
  name: "inception_1a/3x3_reduce"
  type: "Convolution"
  bottom: "pool1"
  top: "inception_1a/3x3_reduce"
  param {
    lr_mult: 1
    decay_mult: 1
  }
  param {
    lr_mult: 2
    decay_mult: 0
  }
  convolution_param {
    num_output: 64
    kernel_size: 1
    weight_filler {
      type: "xavier"
    }
    bias_filler {
      type: "constant"
      value: 0.2
    }
  }
}
layer {
  name: "inception_1a/3x3_reduce_bn"
  type: "BN"
  bottom: "inception_1a/3x3_reduce"
  top: "inception_1a/3x3_reduce_bn"
  param {
    lr_mult: 1
    decay_mult: 0
  }
  param {
    lr_mult: 1
    decay_mult: 0
  }
  bn_param {
    slope_filler {
      type: "constant"
      value: 1
    }
    bias_filler {
      type: "constant"
      value: 0
    }
  }
}
layer {
  name: "inception_1a/relu_3x3_reduce"
  type: "ReLU"
  bottom: "inception_1a/3x3_reduce_bn"
  top: "inception_1a/3x3_reduce_bn"
}
layer {
  name: "inception_1a/3x3"
  type: "Convolution"
  bottom: "inception_1a/3x3_reduce_bn"
  top: "inception_1a/3x3"
  param {
    lr_mult: 1
    decay_mult: 1
  }
  param {
    lr_mult: 2
    decay_mult: 0
  }
  convolution_param {
    num_output: 64
    pad: 1
    kernel_size: 3
    weight_filler {
      type: "xavier"
    }
    bias_filler {
      type: "constant"
      value: 0.2
    }
  }
}
layer {
  name: "inception_1a/3x3_bn"
  type: "BN"
  bottom: "inception_1a/3x3"
  top: "inception_1a/3x3_bn"
  param {
    lr_mult: 1
    decay_mult: 0
  }
  param {
    lr_mult: 1
    decay_mult: 0
  }
  bn_param {
    slope_filler {
      type: "constant"
      value: 1
    }
    bias_filler {
      type: "constant"
      value: 0
    }
  }
}
layer {
  name: "inception_1a/relu_3x3"
  type: "ReLU"
  bottom: "inception_1a/3x3_bn"
  top: "inception_1a/3x3_bn"
}
layer {
  name: "inception_1a/double_3x3_reduce"
  type: "Convolution"
  bottom: "pool1"
  top: "inception_1a/double_3x3_reduce"
  param {
    lr_mult: 1
    decay_mult: 1
  }
  param {
    lr_mult: 2
    decay_mult: 0
  }
  convolution_param {
    num_output: 64
    kernel_size: 1
    weight_filler {
      type: "xavier"
    }
    bias_filler {
      type: "constant"
      value: 0.2
    }
  }
}
layer {
  name: "inception_1a/double_3x3_reduce_bn"
  type: "BN"
  bottom: "inception_1a/double_3x3_reduce"
  top: "inception_1a/double_3x3_reduce_bn"
  param {
    lr_mult: 1
    decay_mult: 0
  }
  param {
    lr_mult: 1
    decay_mult: 0
  }
  bn_param {
    slope_filler {
      type: "constant"
      value: 1
    }
    bias_filler {
      type: "constant"
      value: 0
    }
  }
}
layer {
  name: "inception_1a/relu_double_3x3_reduce"
  type: "ReLU"
  bottom: "inception_1a/double_3x3_reduce_bn"
  top: "inception_1a/double_3x3_reduce_bn"
}
layer {
  name: "inception_1a/double_3x3_1"
  type: "Convolution"
  bottom: "inception_1a/double_3x3_reduce_bn"
  top: "inception_1a/double_3x3_1"
  param {
    lr_mult: 1
    decay_mult: 1
  }
  param {
    lr_mult: 2
    decay_mult: 0
  }
  convolution_param {
    num_output: 64
    pad: 1
    kernel_size: 3
    weight_filler {
      type: "xavier"
    }
    bias_filler {
      type: "constant"
      value: 0.2
    }
  }
}
layer {
  name: "inception_1a/double_3x3_1_bn"
  type: "BN"
  bottom: "inception_1a/double_3x3_1"
  top: "inception_1a/double_3x3_1_bn"
  param {
    lr_mult: 1
    decay_mult: 0
  }
  param {
    lr_mult: 1
    decay_mult: 0
  }
  bn_param {
    slope_filler {
      type: "constant"
      value: 1
    }
    bias_filler {
      type: "constant"
      value: 0
    }
  }
}
layer {
  name: "inception_1a/relu_double_3x3_1"
  type: "ReLU"
  bottom: "inception_1a/double_3x3_1_bn"
  top: "inception_1a/double_3x3_1_bn"
}
layer {
  name: "inception_1a/double_3x3_2"
  type: "Convolution"
  bottom: "inception_1a/double_3x3_1_bn"
  top: "inception_1a/double_3x3_2"
  param {
    lr_mult: 1
    decay_mult: 1
  }
  param {
    lr_mult: 2
    decay_mult: 0
  }
  convolution_param {
    num_output: 64
    pad: 1
    kernel_size: 3
    weight_filler {
      type: "xavier"
    }
    bias_filler {
      type: "constant"
      value: 0.2
    }
  }
}
layer {
  name: "inception_1a/double_3x3_2_bn"
  type: "BN"
  bottom: "inception_1a/double_3x3_2"
  top: "inception_1a/double_3x3_2_bn"
  param {
    lr_mult: 1
    decay_mult: 0
  }
  param {
    lr_mult: 1
    decay_mult: 0
  }
  bn_param {
    slope_filler {
      type: "constant"
      value: 1
    }
    bias_filler {
      type: "constant"
      value: 0
    }
  }
}
layer {
  name: "inception_1a/relu_double_3x3_2"
  type: "ReLU"
  bottom: "inception_1a/double_3x3_2_bn"
  top: "inception_1a/double_3x3_2_bn"
}
layer {
  name: "inception_1a/pool"
  type: "Pooling"
  bottom: "pool1"
  top: "inception_1a/pool"
  pooling_param {
    pool: AVE
    kernel_size: 3
    stride: 1
    pad: 1
  }
}
layer {
  name: "inception_1a/pool_proj"
  type: "Convolution"
  bottom: "inception_1a/pool"
  top: "inception_1a/pool_proj"
  param {
    lr_mult: 1
    decay_mult: 1
  }
  param {
    lr_mult: 2
    decay_mult: 0
  }
  convolution_param {
    num_output: 64
    kernel_size: 1
    weight_filler {
      type: "xavier"
    }
    bias_filler {
      type: "constant"
      value: 0.2
    }
  }
}
layer {
  name: "inception_1a/pool_proj_bn"
  type: "BN"
  bottom: "inception_1a/pool_proj"
  top: "inception_1a/pool_proj_bn"
  param {
    lr_mult: 1
    decay_mult: 0
  }
  param {
    lr_mult: 1
    decay_mult: 0
  }
  bn_param {
    slope_filler {
      type: "constant"
      value: 1
    }
    bias_filler {
      type: "constant"
      value: 0
    }
  }
}
layer {
  name: "inception_1a/relu_pool_proj"
  type: "ReLU"
  bottom: "inception_1a/pool_proj_bn"
  top: "inception_1a/pool_proj_bn"
}
layer {
  name: "inception_1a/output"
  type: "Concat"
  bottom: "inception_1a/1x1_bn"
  bottom: "inception_1a/3x3_bn"
  bottom: "inception_1a/double_3x3_2_bn"
  bottom: "inception_1a/pool_proj_bn"
  top: "inception_1a/output"
}
layer {
  name: "inception_1b/3x3_reduce"
  type: "Convolution"
  bottom: "inception_1a/output"
  top: "inception_1b/3x3_reduce"
  param {
    lr_mult: 1
    decay_mult: 1
  }
  param {
    lr_mult: 2
    decay_mult: 0
  }
  convolution_param {
    num_output: 64
    kernel_size: 1
    weight_filler {
      type: "xavier"
    }
    bias_filler {
      type: "constant"
      value: 0.2
    }
  }
}
layer {
  name: "inception_1b/3x3_reduce_bn"
  type: "BN"
  bottom: "inception_1b/3x3_reduce"
  top: "inception_1b/3x3_reduce_bn"
  param {
    lr_mult: 1
    decay_mult: 0
  }
  param {
    lr_mult: 1
    decay_mult: 0
  }
  bn_param {
    slope_filler {
      type: "constant"
      value: 1
    }
    bias_filler {
      type: "constant"
      value: 0
    }
  }
}
layer {
  name: "inception_1b/relu_3x3_reduce"
  type: "ReLU"
  bottom: "inception_1b/3x3_reduce_bn"
  top: "inception_1b/3x3_reduce_bn"
}
layer {
  name: "inception_1b/3x3"
  type: "Convolution"
  bottom: "inception_1b/3x3_reduce_bn"
  top: "inception_1b/3x3"
  param {
    lr_mult: 1
    decay_mult: 1
  }
  param {
    lr_mult: 2
    decay_mult: 0
  }
  convolution_param {
    num_output: 64
    pad: 1
    kernel_size: 3
    stride: 2
    weight_filler {
      type: "xavier"
    }
    bias_filler {
      type: "constant"
      value: 0.2
    }
  }
}
layer {
  name: "inception_1b/3x3_bn"
  type: "BN"
  bottom: "inception_1b/3x3"
  top: "inception_1b/3x3_bn"
  param {
    lr_mult: 1
    decay_mult: 0
  }
  param {
    lr_mult: 1
    decay_mult: 0
  }
  bn_param {
    slope_filler {
      type: "constant"
      value: 1
    }
    bias_filler {
      type: "constant"
      value: 0
    }
  }
}
layer {
  name: "inception_1b/relu_3x3"
  type: "ReLU"
  bottom: "inception_1b/3x3_bn"
  top: "inception_1b/3x3_bn"
}
layer {
  name: "inception_1b/double_3x3_reduce"
  type: "Convolution"
  bottom: "inception_1a/output"
  top: "inception_1b/double_3x3_reduce"
  param {
    lr_mult: 1
    decay_mult: 1
  }
  param {
    lr_mult: 2
    decay_mult: 0
  }
  convolution_param {
    num_output: 64
    kernel_size: 1
    weight_filler {
      type: "xavier"
    }
    bias_filler {
      type: "constant"
      value: 0.2
    }
  }
}
layer {
  name: "inception_1b/double_3x3_reduce_bn"
  type: "BN"
  bottom: "inception_1b/double_3x3_reduce"
  top: "inception_1b/double_3x3_reduce_bn"
  param {
    lr_mult: 1
    decay_mult: 0
  }
  param {
    lr_mult: 1
    decay_mult: 0
  }
  bn_param {
    slope_filler {
      type: "constant"
      value: 1
    }
    bias_filler {
      type: "constant"
      value: 0
    }
  }
}
layer {
  name: "inception_1b/relu_double_3x3_reduce"
  type: "ReLU"
  bottom: "inception_1b/double_3x3_reduce_bn"
  top: "inception_1b/double_3x3_reduce_bn"
}
layer {
  name: "inception_1b/double_3x3_1"
  type: "Convolution"
  bottom: "inception_1b/double_3x3_reduce_bn"
  top: "inception_1b/double_3x3_1"
  param {
    lr_mult: 1
    decay_mult: 1
  }
  param {
    lr_mult: 2
    decay_mult: 0
  }
  convolution_param {
    num_output: 64
    pad: 1
    kernel_size: 3
    weight_filler {
      type: "xavier"
    }
    bias_filler {
      type: "constant"
      value: 0.2
    }
  }
}
layer {
  name: "inception_1b/double_3x3_1_bn"
  type: "BN"
  bottom: "inception_1b/double_3x3_1"
  top: "inception_1b/double_3x3_1_bn"
  param {
    lr_mult: 1
    decay_mult: 0
  }
  param {
    lr_mult: 1
    decay_mult: 0
  }
  bn_param {
    slope_filler {
      type: "constant"
      value: 1
    }
    bias_filler {
      type: "constant"
      value: 0
    }
  }
}
layer {
  name: "inception_1b/relu_double_3x3_1"
  type: "ReLU"
  bottom: "inception_1b/double_3x3_1_bn"
  top: "inception_1b/double_3x3_1_bn"
}
layer {
  name: "inception_1b/double_3x3_2"
  type: "Convolution"
  bottom: "inception_1b/double_3x3_1_bn"
  top: "inception_1b/double_3x3_2"
  param {
    lr_mult: 1
    decay_mult: 1
  }
  param {
    lr_mult: 2
    decay_mult: 0
  }
  convolution_param {
    num_output: 64
    pad: 1
    kernel_size: 3
    stride: 2
    weight_filler {
      type: "xavier"
    }
    bias_filler {
      type: "constant"
      value: 0.2
    }
  }
}
layer {
  name: "inception_1b/double_3x3_2_bn"
  type: "BN"
  bottom: "inception_1b/double_3x3_2"
  top: "inception_1b/double_3x3_2_bn"
  param {
    lr_mult: 1
    decay_mult: 0
  }
  param {
    lr_mult: 1
    decay_mult: 0
  }
  bn_param {
    slope_filler {
      type: "constant"
      value: 1
    }
    bias_filler {
      type: "constant"
      value: 0
    }
  }
}
layer {
  name: "inception_1b/relu_double_3x3_2"
  type: "ReLU"
  bottom: "inception_1b/double_3x3_2_bn"
  top: "inception_1b/double_3x3_2_bn"
}
layer {
  name: "inception_1b/pool"
  type: "Pooling"
  bottom: "inception_1a/output"
  top: "inception_1b/pool"
  pooling_param {
    pool: MAX
    kernel_size: 3
    stride: 2
  }
}
layer {
  name: "inception_1b/output"
  type: "Concat"
  bottom: "inception_1b/3x3_bn"
  bottom: "inception_1b/double_3x3_2_bn"
  bottom: "inception_1b/pool"
  top: "inception_1b/output"
}
layer {
  name: "inception_2a/1x1"
  type: "Convolution"
  bottom: "inception_1b/output"
  top: "inception_2a/1x1"
  param {
    lr_mult: 1
    decay_mult: 1
  }
  param {
    lr_mult: 2
    decay_mult: 0
  }
  convolution_param {
    num_output: 128
    kernel_size: 1
    weight_filler {
      type: "xavier"
    }
    bias_filler {
      type: "constant"
      value: 0.2
    }
  }
}
layer {
  name: "inception_2a/1x1_bn"
  type: "BN"
  bottom: "inception_2a/1x1"
  top: "inception_2a/1x1_bn"
  param {
    lr_mult: 1
    decay_mult: 0
  }
  param {
    lr_mult: 1
    decay_mult: 0
  }
  bn_param {
    slope_filler {
      type: "constant"
      value: 1
    }
    bias_filler {
      type: "constant"
      value: 0
    }
  }
}
layer {
  name: "inception_2a/relu_1x1"
  type: "ReLU"
  bottom: "inception_2a/1x1_bn"
  top: "inception_2a/1x1_bn"
}
layer {
  name: "inception_2a/3x3_reduce"
  type: "Convolution"
  bottom: "inception_1b/output"
  top: "inception_2a/3x3_reduce"
  param {
    lr_mult: 1
    decay_mult: 1
  }
  param {
    lr_mult: 2
    decay_mult: 0
  }
  convolution_param {
    num_output: 128
    kernel_size: 1
    weight_filler {
      type: "xavier"
    }
    bias_filler {
      type: "constant"
      value: 0.2
    }
  }
}
layer {
  name: "inception_2a/3x3_reduce_bn"
  type: "BN"
  bottom: "inception_2a/3x3_reduce"
  top: "inception_2a/3x3_reduce_bn"
  param {
    lr_mult: 1
    decay_mult: 0
  }
  param {
    lr_mult: 1
    decay_mult: 0
  }
  bn_param {
    slope_filler {
      type: "constant"
      value: 1
    }
    bias_filler {
      type: "constant"
      value: 0
    }
  }
}
layer {
  name: "inception_2a/relu_3x3_reduce"
  type: "ReLU"
  bottom: "inception_2a/3x3_reduce_bn"
  top: "inception_2a/3x3_reduce_bn"
}
layer {
  name: "inception_2a/3x3"
  type: "Convolution"
  bottom: "inception_2a/3x3_reduce_bn"
  top: "inception_2a/3x3"
  param {
    lr_mult: 1
    decay_mult: 1
  }
  param {
    lr_mult: 2
    decay_mult: 0
  }
  convolution_param {
    num_output: 128
    pad: 1
    kernel_size: 3
    weight_filler {
      type: "xavier"
    }
    bias_filler {
      type: "constant"
      value: 0.2
    }
  }
}
layer {
  name: "inception_2a/3x3_bn"
  type: "BN"
  bottom: "inception_2a/3x3"
  top: "inception_2a/3x3_bn"
  param {
    lr_mult: 1
    decay_mult: 0
  }
  param {
    lr_mult: 1
    decay_mult: 0
  }
  bn_param {
    slope_filler {
      type: "constant"
      value: 1
    }
    bias_filler {
      type: "constant"
      value: 0
    }
  }
}
layer {
  name: "inception_2a/relu_3x3"
  type: "ReLU"
  bottom: "inception_2a/3x3_bn"
  top: "inception_2a/3x3_bn"
}
layer {
  name: "inception_2a/double_3x3_reduce"
  type: "Convolution"
  bottom: "inception_1b/output"
  top: "inception_2a/double_3x3_reduce"
  param {
    lr_mult: 1
    decay_mult: 1
  }
  param {
    lr_mult: 2
    decay_mult: 0
  }
  convolution_param {
    num_output: 128
    kernel_size: 1
    weight_filler {
      type: "xavier"
    }
    bias_filler {
      type: "constant"
      value: 0.2
    }
  }
}
layer {
  name: "inception_2a/double_3x3_reduce_bn"
  type: "BN"
  bottom: "inception_2a/double_3x3_reduce"
  top: "inception_2a/double_3x3_reduce_bn"
  param {
    lr_mult: 1
    decay_mult: 0
  }
  param {
    lr_mult: 1
    decay_mult: 0
  }
  bn_param {
    slope_filler {
      type: "constant"
      value: 1
    }
    bias_filler {
      type: "constant"
      value: 0
    }
  }
}
layer {
  name: "inception_2a/relu_double_3x3_reduce"
  type: "ReLU"
  bottom: "inception_2a/double_3x3_reduce_bn"
  top: "inception_2a/double_3x3_reduce_bn"
}
layer {
  name: "inception_2a/double_3x3_1"
  type: "Convolution"
  bottom: "inception_2a/double_3x3_reduce_bn"
  top: "inception_2a/double_3x3_1"
  param {
    lr_mult: 1
    decay_mult: 1
  }
  param {
    lr_mult: 2
    decay_mult: 0
  }
  convolution_param {
    num_output: 128
    pad: 1
    kernel_size: 3
    weight_filler {
      type: "xavier"
    }
    bias_filler {
      type: "constant"
      value: 0.2
    }
  }
}
layer {
  name: "inception_2a/double_3x3_1_bn"
  type: "BN"
  bottom: "inception_2a/double_3x3_1"
  top: "inception_2a/double_3x3_1_bn"
  param {
    lr_mult: 1
    decay_mult: 0
  }
  param {
    lr_mult: 1
    decay_mult: 0
  }
  bn_param {
    slope_filler {
      type: "constant"
      value: 1
    }
    bias_filler {
      type: "constant"
      value: 0
    }
  }
}
layer {
  name: "inception_2a/relu_double_3x3_1"
  type: "ReLU"
  bottom: "inception_2a/double_3x3_1_bn"
  top: "inception_2a/double_3x3_1_bn"
}
layer {
  name: "inception_2a/double_3x3_2"
  type: "Convolution"
  bottom: "inception_2a/double_3x3_1_bn"
  top: "inception_2a/double_3x3_2"
  param {
    lr_mult: 1
    decay_mult: 1
  }
  param {
    lr_mult: 2
    decay_mult: 0
  }
  convolution_param {
    num_output: 128
    pad: 1
    kernel_size: 3
    weight_filler {
      type: "xavier"
    }
    bias_filler {
      type: "constant"
      value: 0.2
    }
  }
}
layer {
  name: "inception_2a/double_3x3_2_bn"
  type: "BN"
  bottom: "inception_2a/double_3x3_2"
  top: "inception_2a/double_3x3_2_bn"
  param {
    lr_mult: 1
    decay_mult: 0
  }
  param {
    lr_mult: 1
    decay_mult: 0
  }
  bn_param {
    slope_filler {
      type: "constant"
      value: 1
    }
    bias_filler {
      type: "constant"
      value: 0
    }
  }
}
layer {
  name: "inception_2a/relu_double_3x3_2"
  type: "ReLU"
  bottom: "inception_2a/double_3x3_2_bn"
  top: "inception_2a/double_3x3_2_bn"
}
layer {
  name: "inception_2a/pool"
  type: "Pooling"
  bottom: "inception_1b/output"
  top: "inception_2a/pool"
  pooling_param {
    pool: AVE
    kernel_size: 3
    stride: 1
    pad: 1
  }
}
layer {
  name: "inception_2a/pool_proj"
  type: "Convolution"
  bottom: "inception_2a/pool"
  top: "inception_2a/pool_proj"
  param {
    lr_mult: 1
    decay_mult: 1
  }
  param {
    lr_mult: 2
    decay_mult: 0
  }
  convolution_param {
    num_output: 128
    kernel_size: 1
    weight_filler {
      type: "xavier"
    }
    bias_filler {
      type: "constant"
      value: 0.2
    }
  }
}
layer {
  name: "inception_2a/pool_proj_bn"
  type: "BN"
  bottom: "inception_2a/pool_proj"
  top: "inception_2a/pool_proj_bn"
  param {
    lr_mult: 1
    decay_mult: 0
  }
  param {
    lr_mult: 1
    decay_mult: 0
  }
  bn_param {
    slope_filler {
      type: "constant"
      value: 1
    }
    bias_filler {
      type: "constant"
      value: 0
    }
  }
}
layer {
  name: "inception_2a/relu_pool_proj"
  type: "ReLU"
  bottom: "inception_2a/pool_proj_bn"
  top: "inception_2a/pool_proj_bn"
}
layer {
  name: "inception_2a/output"
  type: "Concat"
  bottom: "inception_2a/1x1_bn"
  bottom: "inception_2a/3x3_bn"
  bottom: "inception_2a/double_3x3_2_bn"
  bottom: "inception_2a/pool_proj_bn"
  top: "inception_2a/output"
}
layer {
  name: "inception_2b/3x3_reduce"
  type: "Convolution"
  bottom: "inception_2a/output"
  top: "inception_2b/3x3_reduce"
  param {
    lr_mult: 1
    decay_mult: 1
  }
  param {
    lr_mult: 2
    decay_mult: 0
  }
  convolution_param {
    num_output: 128
    kernel_size: 1
    weight_filler {
      type: "xavier"
    }
    bias_filler {
      type: "constant"
      value: 0.2
    }
  }
}
layer {
  name: "inception_2b/3x3_reduce_bn"
  type: "BN"
  bottom: "inception_2b/3x3_reduce"
  top: "inception_2b/3x3_reduce_bn"
  param {
    lr_mult: 1
    decay_mult: 0
  }
  param {
    lr_mult: 1
    decay_mult: 0
  }
  bn_param {
    slope_filler {
      type: "constant"
      value: 1
    }
    bias_filler {
      type: "constant"
      value: 0
    }
  }
}
layer {
  name: "inception_2b/relu_3x3_reduce"
  type: "ReLU"
  bottom: "inception_2b/3x3_reduce_bn"
  top: "inception_2b/3x3_reduce_bn"
}
layer {
  name: "inception_2b/3x3"
  type: "Convolution"
  bottom: "inception_2b/3x3_reduce_bn"
  top: "inception_2b/3x3"
  param {
    lr_mult: 1
    decay_mult: 1
  }
  param {
    lr_mult: 2
    decay_mult: 0
  }
  convolution_param {
    num_output: 128
    pad: 1
    kernel_size: 3
    stride: 2
    weight_filler {
      type: "xavier"
    }
    bias_filler {
      type: "constant"
      value: 0.2
    }
  }
}
layer {
  name: "inception_2b/3x3_bn"
  type: "BN"
  bottom: "inception_2b/3x3"
  top: "inception_2b/3x3_bn"
  param {
    lr_mult: 1
    decay_mult: 0
  }
  param {
    lr_mult: 1
    decay_mult: 0
  }
  bn_param {
    slope_filler {
      type: "constant"
      value: 1
    }
    bias_filler {
      type: "constant"
      value: 0
    }
  }
}
layer {
  name: "inception_2b/relu_3x3"
  type: "ReLU"
  bottom: "inception_2b/3x3_bn"
  top: "inception_2b/3x3_bn"
}
layer {
  name: "inception_2b/double_3x3_reduce"
  type: "Convolution"
  bottom: "inception_2a/output"
  top: "inception_2b/double_3x3_reduce"
  param {
    lr_mult: 1
    decay_mult: 1
  }
  param {
    lr_mult: 2
    decay_mult: 0
  }
  convolution_param {
    num_output: 128
    kernel_size: 1
    weight_filler {
      type: "xavier"
    }
    bias_filler {
      type: "constant"
      value: 0.2
    }
  }
}
layer {
  name: "inception_2b/double_3x3_reduce_bn"
  type: "BN"
  bottom: "inception_2b/double_3x3_reduce"
  top: "inception_2b/double_3x3_reduce_bn"
  param {
    lr_mult: 1
    decay_mult: 0
  }
  param {
    lr_mult: 1
    decay_mult: 0
  }
  bn_param {
    slope_filler {
      type: "constant"
      value: 1
    }
    bias_filler {
      type: "constant"
      value: 0
    }
  }
}
layer {
  name: "inception_2b/relu_double_3x3_reduce"
  type: "ReLU"
  bottom: "inception_2b/double_3x3_reduce_bn"
  top: "inception_2b/double_3x3_reduce_bn"
}
layer {
  name: "inception_2b/double_3x3_1"
  type: "Convolution"
  bottom: "inception_2b/double_3x3_reduce_bn"
  top: "inception_2b/double_3x3_1"
  param {
    lr_mult: 1
    decay_mult: 1
  }
  param {
    lr_mult: 2
    decay_mult: 0
  }
  convolution_param {
    num_output: 128
    pad: 1
    kernel_size: 3
    weight_filler {
      type: "xavier"
    }
    bias_filler {
      type: "constant"
      value: 0.2
    }
  }
}
layer {
  name: "inception_2b/double_3x3_1_bn"
  type: "BN"
  bottom: "inception_2b/double_3x3_1"
  top: "inception_2b/double_3x3_1_bn"
  param {
    lr_mult: 1
    decay_mult: 0
  }
  param {
    lr_mult: 1
    decay_mult: 0
  }
  bn_param {
    slope_filler {
      type: "constant"
      value: 1
    }
    bias_filler {
      type: "constant"
      value: 0
    }
  }
}
layer {
  name: "inception_2b/relu_double_3x3_1"
  type: "ReLU"
  bottom: "inception_2b/double_3x3_1_bn"
  top: "inception_2b/double_3x3_1_bn"
}
layer {
  name: "inception_2b/double_3x3_2"
  type: "Convolution"
  bottom: "inception_2b/double_3x3_1_bn"
  top: "inception_2b/double_3x3_2"
  param {
    lr_mult: 1
    decay_mult: 1
  }
  param {
    lr_mult: 2
    decay_mult: 0
  }
  convolution_param {
    num_output: 128
    pad: 1
    kernel_size: 3
    stride: 2
    weight_filler {
      type: "xavier"
    }
    bias_filler {
      type: "constant"
      value: 0.2
    }
  }
}
layer {
  name: "inception_2b/double_3x3_2_bn"
  type: "BN"
  bottom: "inception_2b/double_3x3_2"
  top: "inception_2b/double_3x3_2_bn"
  param {
    lr_mult: 1
    decay_mult: 0
  }
  param {
    lr_mult: 1
    decay_mult: 0
  }
  bn_param {
    slope_filler {
      type: "constant"
      value: 1
    }
    bias_filler {
      type: "constant"
      value: 0
    }
  }
}
layer {
  name: "inception_2b/relu_double_3x3_2"
  type: "ReLU"
  bottom: "inception_2b/double_3x3_2_bn"
  top: "inception_2b/double_3x3_2_bn"
}
layer {
  name: "inception_2b/pool"
  type: "Pooling"
  bottom: "inception_2a/output"
  top: "inception_2b/pool"
  pooling_param {
    pool: MAX
    kernel_size: 3
    stride: 2
  }
}
layer {
  name: "inception_2b/output"
  type: "Concat"
  bottom: "inception_2b/3x3_bn"
  bottom: "inception_2b/double_3x3_2_bn"
  bottom: "inception_2b/pool"
  top: "inception_2b/output"
}
layer {
  name: "inception_3a/1x1"
  type: "Convolution"
  bottom: "inception_2b/output"
  top: "inception_3a/1x1"
  param {
    lr_mult: 1
    decay_mult: 1
  }
  param {
    lr_mult: 2
    decay_mult: 0
  }
  convolution_param {
    num_output: 256
    kernel_size: 1
    weight_filler {
      type: "xavier"
    }
    bias_filler {
      type: "constant"
      value: 0.2
    }
  }
}
layer {
  name: "inception_3a/1x1_bn"
  type: "BN"
  bottom: "inception_3a/1x1"
  top: "inception_3a/1x1_bn"
  param {
    lr_mult: 1
    decay_mult: 0
  }
  param {
    lr_mult: 1
    decay_mult: 0
  }
  bn_param {
    slope_filler {
      type: "constant"
      value: 1
    }
    bias_filler {
      type: "constant"
      value: 0
    }
  }
}
layer {
  name: "inception_3a/relu_1x1"
  type: "ReLU"
  bottom: "inception_3a/1x1_bn"
  top: "inception_3a/1x1_bn"
}
layer {
  name: "inception_3a/3x3_reduce"
  type: "Convolution"
  bottom: "inception_2b/output"
  top: "inception_3a/3x3_reduce"
  param {
    lr_mult: 1
    decay_mult: 1
  }
  param {
    lr_mult: 2
    decay_mult: 0
  }
  convolution_param {
    num_output: 256
    kernel_size: 1
    weight_filler {
      type: "xavier"
    }
    bias_filler {
      type: "constant"
      value: 0.2
    }
  }
}
layer {
  name: "inception_3a/3x3_reduce_bn"
  type: "BN"
  bottom: "inception_3a/3x3_reduce"
  top: "inception_3a/3x3_reduce_bn"
  param {
    lr_mult: 1
    decay_mult: 0
  }
  param {
    lr_mult: 1
    decay_mult: 0
  }
  bn_param {
    slope_filler {
      type: "constant"
      value: 1
    }
    bias_filler {
      type: "constant"
      value: 0
    }
  }
}
layer {
  name: "inception_3a/relu_3x3_reduce"
  type: "ReLU"
  bottom: "inception_3a/3x3_reduce_bn"
  top: "inception_3a/3x3_reduce_bn"
}
layer {
  name: "inception_3a/3x3"
  type: "Convolution"
  bottom: "inception_3a/3x3_reduce_bn"
  top: "inception_3a/3x3"
  param {
    lr_mult: 1
    decay_mult: 1
  }
  param {
    lr_mult: 2
    decay_mult: 0
  }
  convolution_param {
    num_output: 256
    pad: 1
    kernel_size: 3
    weight_filler {
      type: "xavier"
    }
    bias_filler {
      type: "constant"
      value: 0.2
    }
  }
}
layer {
  name: "inception_3a/3x3_bn"
  type: "BN"
  bottom: "inception_3a/3x3"
  top: "inception_3a/3x3_bn"
  param {
    lr_mult: 1
    decay_mult: 0
  }
  param {
    lr_mult: 1
    decay_mult: 0
  }
  bn_param {
    slope_filler {
      type: "constant"
      value: 1
    }
    bias_filler {
      type: "constant"
      value: 0
    }
  }
}
layer {
  name: "inception_3a/relu_3x3"
  type: "ReLU"
  bottom: "inception_3a/3x3_bn"
  top: "inception_3a/3x3_bn"
}
layer {
  name: "inception_3a/double_3x3_reduce"
  type: "Convolution"
  bottom: "inception_2b/output"
  top: "inception_3a/double_3x3_reduce"
  param {
    lr_mult: 1
    decay_mult: 1
  }
  param {
    lr_mult: 2
    decay_mult: 0
  }
  convolution_param {
    num_output: 256
    kernel_size: 1
    weight_filler {
      type: "xavier"
    }
    bias_filler {
      type: "constant"
      value: 0.2
    }
  }
}
layer {
  name: "inception_3a/double_3x3_reduce_bn"
  type: "BN"
  bottom: "inception_3a/double_3x3_reduce"
  top: "inception_3a/double_3x3_reduce_bn"
  param {
    lr_mult: 1
    decay_mult: 0
  }
  param {
    lr_mult: 1
    decay_mult: 0
  }
  bn_param {
    slope_filler {
      type: "constant"
      value: 1
    }
    bias_filler {
      type: "constant"
      v
I0417 16:46:28.034448 23546 layer_factory.hpp:74] Creating layer data
I0417 16:46:28.034482 23546 net.cpp:133] Creating Layer data
I0417 16:46:28.034487 23546 net.cpp:411] data -> data
I0417 16:46:28.034500 23546 net.cpp:411] data -> label
I0417 16:46:28.034512 23546 net.cpp:163] Setting up data
I0417 16:46:28.034845 23546 db_lmdb.cpp:22] Opened lmdb external/exp/db/viper/train_lmdb
I0417 16:46:28.034925 23546 data_layer.cpp:55] Skipping first 0 data points.
I0417 16:46:28.034950 23546 data_layer.cpp:100] output data size: 25,3,144,56
I0417 16:46:28.035004 23546 net.cpp:170] Top shape: 25 3 144 56 (604800)
I0417 16:46:28.035012 23546 net.cpp:170] Top shape: 25 (25)
I0417 16:46:28.035017 23546 layer_factory.hpp:74] Creating layer conv1
I0417 16:46:28.035028 23546 net.cpp:133] Creating Layer conv1
I0417 16:46:28.035033 23546 net.cpp:453] conv1 <- data
I0417 16:46:28.035043 23546 net.cpp:411] conv1 -> conv1
I0417 16:46:28.035053 23546 net.cpp:163] Setting up conv1
I0417 16:46:28.197811 23546 net.cpp:170] Top shape: 25 32 144 56 (6451200)
I0417 16:46:28.197846 23546 layer_factory.hpp:74] Creating layer conv1_bn
I0417 16:46:28.197850 23546 layer_factory.cpp:191] Layer conv1_bn is using CAFFE engine.
I0417 16:46:28.197860 23546 net.cpp:133] Creating Layer conv1_bn
I0417 16:46:28.197861 23546 net.cpp:453] conv1_bn <- conv1
I0417 16:46:28.197866 23546 net.cpp:411] conv1_bn -> conv1_bn
I0417 16:46:28.197873 23546 net.cpp:163] Setting up conv1_bn
I0417 16:46:28.197896 23546 net.cpp:170] Top shape: 25 32 144 56 (6451200)
I0417 16:46:28.197902 23546 layer_factory.hpp:74] Creating layer relu1
I0417 16:46:28.197906 23546 net.cpp:133] Creating Layer relu1
I0417 16:46:28.197908 23546 net.cpp:453] relu1 <- conv1_bn
I0417 16:46:28.197911 23546 net.cpp:400] relu1 -> conv1_bn (in-place)
I0417 16:46:28.197917 23546 net.cpp:163] Setting up relu1
I0417 16:46:28.198034 23546 net.cpp:170] Top shape: 25 32 144 56 (6451200)
I0417 16:46:28.198038 23546 layer_factory.hpp:74] Creating layer conv2
I0417 16:46:28.198045 23546 net.cpp:133] Creating Layer conv2
I0417 16:46:28.198045 23546 net.cpp:453] conv2 <- conv1_bn
I0417 16:46:28.198050 23546 net.cpp:411] conv2 -> conv2
I0417 16:46:28.198053 23546 net.cpp:163] Setting up conv2
I0417 16:46:28.362117 23546 net.cpp:170] Top shape: 25 32 144 56 (6451200)
I0417 16:46:28.362133 23546 layer_factory.hpp:74] Creating layer conv2_bn
I0417 16:46:28.362136 23546 layer_factory.cpp:191] Layer conv2_bn is using CAFFE engine.
I0417 16:46:28.362141 23546 net.cpp:133] Creating Layer conv2_bn
I0417 16:46:28.362143 23546 net.cpp:453] conv2_bn <- conv2
I0417 16:46:28.362149 23546 net.cpp:411] conv2_bn -> conv2_bn
I0417 16:46:28.362154 23546 net.cpp:163] Setting up conv2_bn
I0417 16:46:28.362172 23546 net.cpp:170] Top shape: 25 32 144 56 (6451200)
I0417 16:46:28.362181 23546 layer_factory.hpp:74] Creating layer relu2
I0417 16:46:28.362185 23546 net.cpp:133] Creating Layer relu2
I0417 16:46:28.362186 23546 net.cpp:453] relu2 <- conv2_bn
I0417 16:46:28.362190 23546 net.cpp:400] relu2 -> conv2_bn (in-place)
I0417 16:46:28.362192 23546 net.cpp:163] Setting up relu2
I0417 16:46:28.362377 23546 net.cpp:170] Top shape: 25 32 144 56 (6451200)
I0417 16:46:28.362383 23546 layer_factory.hpp:74] Creating layer conv3
I0417 16:46:28.362387 23546 net.cpp:133] Creating Layer conv3
I0417 16:46:28.362390 23546 net.cpp:453] conv3 <- conv2_bn
I0417 16:46:28.362393 23546 net.cpp:411] conv3 -> conv3
I0417 16:46:28.362397 23546 net.cpp:163] Setting up conv3
I0417 16:46:28.518628 23546 net.cpp:170] Top shape: 25 32 144 56 (6451200)
I0417 16:46:28.518638 23546 layer_factory.hpp:74] Creating layer conv3_bn
I0417 16:46:28.518641 23546 layer_factory.cpp:191] Layer conv3_bn is using CAFFE engine.
I0417 16:46:28.518646 23546 net.cpp:133] Creating Layer conv3_bn
I0417 16:46:28.518648 23546 net.cpp:453] conv3_bn <- conv3
I0417 16:46:28.518652 23546 net.cpp:411] conv3_bn -> conv3_bn
I0417 16:46:28.518656 23546 net.cpp:163] Setting up conv3_bn
I0417 16:46:28.518672 23546 net.cpp:170] Top shape: 25 32 144 56 (6451200)
I0417 16:46:28.518679 23546 layer_factory.hpp:74] Creating layer relu3
I0417 16:46:28.518682 23546 net.cpp:133] Creating Layer relu3
I0417 16:46:28.518684 23546 net.cpp:453] relu3 <- conv3_bn
I0417 16:46:28.518687 23546 net.cpp:400] relu3 -> conv3_bn (in-place)
I0417 16:46:28.518689 23546 net.cpp:163] Setting up relu3
I0417 16:46:28.518790 23546 net.cpp:170] Top shape: 25 32 144 56 (6451200)
I0417 16:46:28.518795 23546 layer_factory.hpp:74] Creating layer pool1
I0417 16:46:28.518800 23546 net.cpp:133] Creating Layer pool1
I0417 16:46:28.518802 23546 net.cpp:453] pool1 <- conv3_bn
I0417 16:46:28.518805 23546 net.cpp:411] pool1 -> pool1
I0417 16:46:28.518810 23546 net.cpp:163] Setting up pool1
I0417 16:46:28.518986 23546 net.cpp:170] Top shape: 25 32 72 28 (1612800)
I0417 16:46:28.518992 23546 layer_factory.hpp:74] Creating layer pool1_pool1_0_split
I0417 16:46:28.518997 23546 net.cpp:133] Creating Layer pool1_pool1_0_split
I0417 16:46:28.518998 23546 net.cpp:453] pool1_pool1_0_split <- pool1
I0417 16:46:28.519002 23546 net.cpp:411] pool1_pool1_0_split -> pool1_pool1_0_split_0
I0417 16:46:28.519006 23546 net.cpp:411] pool1_pool1_0_split -> pool1_pool1_0_split_1
I0417 16:46:28.519011 23546 net.cpp:411] pool1_pool1_0_split -> pool1_pool1_0_split_2
I0417 16:46:28.519013 23546 net.cpp:411] pool1_pool1_0_split -> pool1_pool1_0_split_3
I0417 16:46:28.519016 23546 net.cpp:163] Setting up pool1_pool1_0_split
I0417 16:46:28.519019 23546 net.cpp:170] Top shape: 25 32 72 28 (1612800)
I0417 16:46:28.519022 23546 net.cpp:170] Top shape: 25 32 72 28 (1612800)
I0417 16:46:28.519024 23546 net.cpp:170] Top shape: 25 32 72 28 (1612800)
I0417 16:46:28.519026 23546 net.cpp:170] Top shape: 25 32 72 28 (1612800)
I0417 16:46:28.519028 23546 layer_factory.hpp:74] Creating layer inception_1a/1x1
I0417 16:46:28.519033 23546 net.cpp:133] Creating Layer inception_1a/1x1
I0417 16:46:28.519035 23546 net.cpp:453] inception_1a/1x1 <- pool1_pool1_0_split_0
I0417 16:46:28.519039 23546 net.cpp:411] inception_1a/1x1 -> inception_1a/1x1
I0417 16:46:28.519042 23546 net.cpp:163] Setting up inception_1a/1x1
I0417 16:46:28.573271 23546 net.cpp:170] Top shape: 25 64 72 28 (3225600)
I0417 16:46:28.573282 23546 layer_factory.hpp:74] Creating layer inception_1a/1x1_bn
I0417 16:46:28.573284 23546 layer_factory.cpp:191] Layer inception_1a/1x1_bn is using CAFFE engine.
I0417 16:46:28.573288 23546 net.cpp:133] Creating Layer inception_1a/1x1_bn
I0417 16:46:28.573290 23546 net.cpp:453] inception_1a/1x1_bn <- inception_1a/1x1
I0417 16:46:28.573294 23546 net.cpp:411] inception_1a/1x1_bn -> inception_1a/1x1_bn
I0417 16:46:28.573298 23546 net.cpp:163] Setting up inception_1a/1x1_bn
I0417 16:46:28.573308 23546 net.cpp:170] Top shape: 25 64 72 28 (3225600)
I0417 16:46:28.573313 23546 layer_factory.hpp:74] Creating layer inception_1a/relu_1x1
I0417 16:46:28.573318 23546 net.cpp:133] Creating Layer inception_1a/relu_1x1
I0417 16:46:28.573319 23546 net.cpp:453] inception_1a/relu_1x1 <- inception_1a/1x1_bn
I0417 16:46:28.573321 23546 net.cpp:400] inception_1a/relu_1x1 -> inception_1a/1x1_bn (in-place)
I0417 16:46:28.573324 23546 net.cpp:163] Setting up inception_1a/relu_1x1
I0417 16:46:28.573498 23546 net.cpp:170] Top shape: 25 64 72 28 (3225600)
I0417 16:46:28.573503 23546 layer_factory.hpp:74] Creating layer inception_1a/3x3_reduce
I0417 16:46:28.573508 23546 net.cpp:133] Creating Layer inception_1a/3x3_reduce
I0417 16:46:28.573510 23546 net.cpp:453] inception_1a/3x3_reduce <- pool1_pool1_0_split_1
I0417 16:46:28.573514 23546 net.cpp:411] inception_1a/3x3_reduce -> inception_1a/3x3_reduce
I0417 16:46:28.573519 23546 net.cpp:163] Setting up inception_1a/3x3_reduce
I0417 16:46:28.627481 23546 net.cpp:170] Top shape: 25 64 72 28 (3225600)
I0417 16:46:28.627491 23546 layer_factory.hpp:74] Creating layer inception_1a/3x3_reduce_bn
I0417 16:46:28.627495 23546 layer_factory.cpp:191] Layer inception_1a/3x3_reduce_bn is using CAFFE engine.
I0417 16:46:28.627499 23546 net.cpp:133] Creating Layer inception_1a/3x3_reduce_bn
I0417 16:46:28.627501 23546 net.cpp:453] inception_1a/3x3_reduce_bn <- inception_1a/3x3_reduce
I0417 16:46:28.627506 23546 net.cpp:411] inception_1a/3x3_reduce_bn -> inception_1a/3x3_reduce_bn
I0417 16:46:28.627514 23546 net.cpp:163] Setting up inception_1a/3x3_reduce_bn
I0417 16:46:28.627527 23546 net.cpp:170] Top shape: 25 64 72 28 (3225600)
I0417 16:46:28.627532 23546 layer_factory.hpp:74] Creating layer inception_1a/relu_3x3_reduce
I0417 16:46:28.627535 23546 net.cpp:133] Creating Layer inception_1a/relu_3x3_reduce
I0417 16:46:28.627537 23546 net.cpp:453] inception_1a/relu_3x3_reduce <- inception_1a/3x3_reduce_bn
I0417 16:46:28.627539 23546 net.cpp:400] inception_1a/relu_3x3_reduce -> inception_1a/3x3_reduce_bn (in-place)
I0417 16:46:28.627542 23546 net.cpp:163] Setting up inception_1a/relu_3x3_reduce
I0417 16:46:28.627651 23546 net.cpp:170] Top shape: 25 64 72 28 (3225600)
I0417 16:46:28.627656 23546 layer_factory.hpp:74] Creating layer inception_1a/3x3
I0417 16:46:28.627661 23546 net.cpp:133] Creating Layer inception_1a/3x3
I0417 16:46:28.627663 23546 net.cpp:453] inception_1a/3x3 <- inception_1a/3x3_reduce_bn
I0417 16:46:28.627666 23546 net.cpp:411] inception_1a/3x3 -> inception_1a/3x3
I0417 16:46:28.627671 23546 net.cpp:163] Setting up inception_1a/3x3
I0417 16:46:28.741904 23546 net.cpp:170] Top shape: 25 64 72 28 (3225600)
I0417 16:46:28.741914 23546 layer_factory.hpp:74] Creating layer inception_1a/3x3_bn
I0417 16:46:28.741916 23546 layer_factory.cpp:191] Layer inception_1a/3x3_bn is using CAFFE engine.
I0417 16:46:28.741920 23546 net.cpp:133] Creating Layer inception_1a/3x3_bn
I0417 16:46:28.741922 23546 net.cpp:453] inception_1a/3x3_bn <- inception_1a/3x3
I0417 16:46:28.741926 23546 net.cpp:411] inception_1a/3x3_bn -> inception_1a/3x3_bn
I0417 16:46:28.741930 23546 net.cpp:163] Setting up inception_1a/3x3_bn
I0417 16:46:28.741941 23546 net.cpp:170] Top shape: 25 64 72 28 (3225600)
I0417 16:46:28.741948 23546 layer_factory.hpp:74] Creating layer inception_1a/relu_3x3
I0417 16:46:28.741952 23546 net.cpp:133] Creating Layer inception_1a/relu_3x3
I0417 16:46:28.741955 23546 net.cpp:453] inception_1a/relu_3x3 <- inception_1a/3x3_bn
I0417 16:46:28.741957 23546 net.cpp:400] inception_1a/relu_3x3 -> inception_1a/3x3_bn (in-place)
I0417 16:46:28.741961 23546 net.cpp:163] Setting up inception_1a/relu_3x3
I0417 16:46:28.742135 23546 net.cpp:170] Top shape: 25 64 72 28 (3225600)
I0417 16:46:28.742141 23546 layer_factory.hpp:74] Creating layer inception_1a/double_3x3_reduce
I0417 16:46:28.742146 23546 net.cpp:133] Creating Layer inception_1a/double_3x3_reduce
I0417 16:46:28.742148 23546 net.cpp:453] inception_1a/double_3x3_reduce <- pool1_pool1_0_split_2
I0417 16:46:28.742152 23546 net.cpp:411] inception_1a/double_3x3_reduce -> inception_1a/double_3x3_reduce
I0417 16:46:28.742157 23546 net.cpp:163] Setting up inception_1a/double_3x3_reduce
I0417 16:46:28.796125 23546 net.cpp:170] Top shape: 25 64 72 28 (3225600)
I0417 16:46:28.796135 23546 layer_factory.hpp:74] Creating layer inception_1a/double_3x3_reduce_bn
I0417 16:46:28.796138 23546 layer_factory.cpp:191] Layer inception_1a/double_3x3_reduce_bn is using CAFFE engine.
I0417 16:46:28.796142 23546 net.cpp:133] Creating Layer inception_1a/double_3x3_reduce_bn
I0417 16:46:28.796144 23546 net.cpp:453] inception_1a/double_3x3_reduce_bn <- inception_1a/double_3x3_reduce
I0417 16:46:28.796149 23546 net.cpp:411] inception_1a/double_3x3_reduce_bn -> inception_1a/double_3x3_reduce_bn
I0417 16:46:28.796152 23546 net.cpp:163] Setting up inception_1a/double_3x3_reduce_bn
I0417 16:46:28.796164 23546 net.cpp:170] Top shape: 25 64 72 28 (3225600)
I0417 16:46:28.796169 23546 layer_factory.hpp:74] Creating layer inception_1a/relu_double_3x3_reduce
I0417 16:46:28.796172 23546 net.cpp:133] Creating Layer inception_1a/relu_double_3x3_reduce
I0417 16:46:28.796174 23546 net.cpp:453] inception_1a/relu_double_3x3_reduce <- inception_1a/double_3x3_reduce_bn
I0417 16:46:28.796176 23546 net.cpp:400] inception_1a/relu_double_3x3_reduce -> inception_1a/double_3x3_reduce_bn (in-place)
I0417 16:46:28.796180 23546 net.cpp:163] Setting up inception_1a/relu_double_3x3_reduce
I0417 16:46:28.796357 23546 net.cpp:170] Top shape: 25 64 72 28 (3225600)
I0417 16:46:28.796362 23546 layer_factory.hpp:74] Creating layer inception_1a/double_3x3_1
I0417 16:46:28.796368 23546 net.cpp:133] Creating Layer inception_1a/double_3x3_1
I0417 16:46:28.796370 23546 net.cpp:453] inception_1a/double_3x3_1 <- inception_1a/double_3x3_reduce_bn
I0417 16:46:28.796375 23546 net.cpp:411] inception_1a/double_3x3_1 -> inception_1a/double_3x3_1
I0417 16:46:28.796378 23546 net.cpp:163] Setting up inception_1a/double_3x3_1
I0417 16:46:28.910501 23546 net.cpp:170] Top shape: 25 64 72 28 (3225600)
I0417 16:46:28.910509 23546 layer_factory.hpp:74] Creating layer inception_1a/double_3x3_1_bn
I0417 16:46:28.910512 23546 layer_factory.cpp:191] Layer inception_1a/double_3x3_1_bn is using CAFFE engine.
I0417 16:46:28.910516 23546 net.cpp:133] Creating Layer inception_1a/double_3x3_1_bn
I0417 16:46:28.910519 23546 net.cpp:453] inception_1a/double_3x3_1_bn <- inception_1a/double_3x3_1
I0417 16:46:28.910523 23546 net.cpp:411] inception_1a/double_3x3_1_bn -> inception_1a/double_3x3_1_bn
I0417 16:46:28.910527 23546 net.cpp:163] Setting up inception_1a/double_3x3_1_bn
I0417 16:46:28.910538 23546 net.cpp:170] Top shape: 25 64 72 28 (3225600)
I0417 16:46:28.910543 23546 layer_factory.hpp:74] Creating layer inception_1a/relu_double_3x3_1
I0417 16:46:28.910547 23546 net.cpp:133] Creating Layer inception_1a/relu_double_3x3_1
I0417 16:46:28.910547 23546 net.cpp:453] inception_1a/relu_double_3x3_1 <- inception_1a/double_3x3_1_bn
I0417 16:46:28.910550 23546 net.cpp:400] inception_1a/relu_double_3x3_1 -> inception_1a/double_3x3_1_bn (in-place)
I0417 16:46:28.910553 23546 net.cpp:163] Setting up inception_1a/relu_double_3x3_1
I0417 16:46:28.910660 23546 net.cpp:170] Top shape: 25 64 72 28 (3225600)
I0417 16:46:28.910665 23546 layer_factory.hpp:74] Creating layer inception_1a/double_3x3_2
I0417 16:46:28.910668 23546 net.cpp:133] Creating Layer inception_1a/double_3x3_2
I0417 16:46:28.910670 23546 net.cpp:453] inception_1a/double_3x3_2 <- inception_1a/double_3x3_1_bn
I0417 16:46:28.910675 23546 net.cpp:411] inception_1a/double_3x3_2 -> inception_1a/double_3x3_2
I0417 16:46:28.910678 23546 net.cpp:163] Setting up inception_1a/double_3x3_2
I0417 16:46:29.024874 23546 net.cpp:170] Top shape: 25 64 72 28 (3225600)
I0417 16:46:29.024884 23546 layer_factory.hpp:74] Creating layer inception_1a/double_3x3_2_bn
I0417 16:46:29.024888 23546 layer_factory.cpp:191] Layer inception_1a/double_3x3_2_bn is using CAFFE engine.
I0417 16:46:29.024891 23546 net.cpp:133] Creating Layer inception_1a/double_3x3_2_bn
I0417 16:46:29.024893 23546 net.cpp:453] inception_1a/double_3x3_2_bn <- inception_1a/double_3x3_2
I0417 16:46:29.024898 23546 net.cpp:411] inception_1a/double_3x3_2_bn -> inception_1a/double_3x3_2_bn
I0417 16:46:29.024901 23546 net.cpp:163] Setting up inception_1a/double_3x3_2_bn
I0417 16:46:29.024914 23546 net.cpp:170] Top shape: 25 64 72 28 (3225600)
I0417 16:46:29.024919 23546 layer_factory.hpp:74] Creating layer inception_1a/relu_double_3x3_2
I0417 16:46:29.024922 23546 net.cpp:133] Creating Layer inception_1a/relu_double_3x3_2
I0417 16:46:29.024924 23546 net.cpp:453] inception_1a/relu_double_3x3_2 <- inception_1a/double_3x3_2_bn
I0417 16:46:29.024926 23546 net.cpp:400] inception_1a/relu_double_3x3_2 -> inception_1a/double_3x3_2_bn (in-place)
I0417 16:46:29.024930 23546 net.cpp:163] Setting up inception_1a/relu_double_3x3_2
I0417 16:46:29.025105 23546 net.cpp:170] Top shape: 25 64 72 28 (3225600)
I0417 16:46:29.025111 23546 layer_factory.hpp:74] Creating layer inception_1a/pool
I0417 16:46:29.025115 23546 layer_factory.cpp:64] CUDNN does not support padding or multiple tops. Using Caffe's own pooling layer.
I0417 16:46:29.025117 23546 net.cpp:133] Creating Layer inception_1a/pool
I0417 16:46:29.025120 23546 net.cpp:453] inception_1a/pool <- pool1_pool1_0_split_3
I0417 16:46:29.025122 23546 net.cpp:411] inception_1a/pool -> inception_1a/pool
I0417 16:46:29.025126 23546 net.cpp:163] Setting up inception_1a/pool
I0417 16:46:29.025130 23546 net.cpp:170] Top shape: 25 32 72 28 (1612800)
I0417 16:46:29.025132 23546 layer_factory.hpp:74] Creating layer inception_1a/pool_proj
I0417 16:46:29.025136 23546 net.cpp:133] Creating Layer inception_1a/pool_proj
I0417 16:46:29.025140 23546 net.cpp:453] inception_1a/pool_proj <- inception_1a/pool
I0417 16:46:29.025143 23546 net.cpp:411] inception_1a/pool_proj -> inception_1a/pool_proj
I0417 16:46:29.025147 23546 net.cpp:163] Setting up inception_1a/pool_proj
I0417 16:46:29.079004 23546 net.cpp:170] Top shape: 25 64 72 28 (3225600)
I0417 16:46:29.079013 23546 layer_factory.hpp:74] Creating layer inception_1a/pool_proj_bn
I0417 16:46:29.079015 23546 layer_factory.cpp:191] Layer inception_1a/pool_proj_bn is using CAFFE engine.
I0417 16:46:29.079023 23546 net.cpp:133] Creating Layer inception_1a/pool_proj_bn
I0417 16:46:29.079026 23546 net.cpp:453] inception_1a/pool_proj_bn <- inception_1a/pool_proj
I0417 16:46:29.079030 23546 net.cpp:411] inception_1a/pool_proj_bn -> inception_1a/pool_proj_bn
I0417 16:46:29.079035 23546 net.cpp:163] Setting up inception_1a/pool_proj_bn
I0417 16:46:29.079044 23546 net.cpp:170] Top shape: 25 64 72 28 (3225600)
I0417 16:46:29.079049 23546 layer_factory.hpp:74] Creating layer inception_1a/relu_pool_proj
I0417 16:46:29.079052 23546 net.cpp:133] Creating Layer inception_1a/relu_pool_proj
I0417 16:46:29.079054 23546 net.cpp:453] inception_1a/relu_pool_proj <- inception_1a/pool_proj_bn
I0417 16:46:29.079057 23546 net.cpp:400] inception_1a/relu_pool_proj -> inception_1a/pool_proj_bn (in-place)
I0417 16:46:29.079061 23546 net.cpp:163] Setting up inception_1a/relu_pool_proj
I0417 16:46:29.079236 23546 net.cpp:170] Top shape: 25 64 72 28 (3225600)
I0417 16:46:29.079241 23546 layer_factory.hpp:74] Creating layer inception_1a/output
I0417 16:46:29.079246 23546 net.cpp:133] Creating Layer inception_1a/output
I0417 16:46:29.079247 23546 net.cpp:453] inception_1a/output <- inception_1a/1x1_bn
I0417 16:46:29.079249 23546 net.cpp:453] inception_1a/output <- inception_1a/3x3_bn
I0417 16:46:29.079252 23546 net.cpp:453] inception_1a/output <- inception_1a/double_3x3_2_bn
I0417 16:46:29.079254 23546 net.cpp:453] inception_1a/output <- inception_1a/pool_proj_bn
I0417 16:46:29.079257 23546 net.cpp:411] inception_1a/output -> inception_1a/output
I0417 16:46:29.079262 23546 net.cpp:163] Setting up inception_1a/output
I0417 16:46:29.079265 23546 net.cpp:170] Top shape: 25 256 72 28 (12902400)
I0417 16:46:29.079267 23546 layer_factory.hpp:74] Creating layer inception_1a/output_inception_1a/output_0_split
I0417 16:46:29.079270 23546 net.cpp:133] Creating Layer inception_1a/output_inception_1a/output_0_split
I0417 16:46:29.079272 23546 net.cpp:453] inception_1a/output_inception_1a/output_0_split <- inception_1a/output
I0417 16:46:29.079277 23546 net.cpp:411] inception_1a/output_inception_1a/output_0_split -> inception_1a/output_inception_1a/output_0_split_0
I0417 16:46:29.079282 23546 net.cpp:411] inception_1a/output_inception_1a/output_0_split -> inception_1a/output_inception_1a/output_0_split_1
I0417 16:46:29.079285 23546 net.cpp:411] inception_1a/output_inception_1a/output_0_split -> inception_1a/output_inception_1a/output_0_split_2
I0417 16:46:29.079288 23546 net.cpp:163] Setting up inception_1a/output_inception_1a/output_0_split
I0417 16:46:29.079291 23546 net.cpp:170] Top shape: 25 256 72 28 (12902400)
I0417 16:46:29.079293 23546 net.cpp:170] Top shape: 25 256 72 28 (12902400)
I0417 16:46:29.079295 23546 net.cpp:170] Top shape: 25 256 72 28 (12902400)
I0417 16:46:29.079298 23546 layer_factory.hpp:74] Creating layer inception_1b/3x3_reduce
I0417 16:46:29.079301 23546 net.cpp:133] Creating Layer inception_1b/3x3_reduce
I0417 16:46:29.079303 23546 net.cpp:453] inception_1b/3x3_reduce <- inception_1a/output_inception_1a/output_0_split_0
I0417 16:46:29.079308 23546 net.cpp:411] inception_1b/3x3_reduce -> inception_1b/3x3_reduce
I0417 16:46:29.079314 23546 net.cpp:163] Setting up inception_1b/3x3_reduce
I0417 16:46:29.376641 23546 net.cpp:170] Top shape: 25 64 72 28 (3225600)
I0417 16:46:29.376652 23546 layer_factory.hpp:74] Creating layer inception_1b/3x3_reduce_bn
I0417 16:46:29.376655 23546 layer_factory.cpp:191] Layer inception_1b/3x3_reduce_bn is using CAFFE engine.
I0417 16:46:29.376659 23546 net.cpp:133] Creating Layer inception_1b/3x3_reduce_bn
I0417 16:46:29.376662 23546 net.cpp:453] inception_1b/3x3_reduce_bn <- inception_1b/3x3_reduce
I0417 16:46:29.376665 23546 net.cpp:411] inception_1b/3x3_reduce_bn -> inception_1b/3x3_reduce_bn
I0417 16:46:29.376670 23546 net.cpp:163] Setting up inception_1b/3x3_reduce_bn
I0417 16:46:29.376679 23546 net.cpp:170] Top shape: 25 64 72 28 (3225600)
I0417 16:46:29.376690 23546 layer_factory.hpp:74] Creating layer inception_1b/relu_3x3_reduce
I0417 16:46:29.376694 23546 net.cpp:133] Creating Layer inception_1b/relu_3x3_reduce
I0417 16:46:29.376696 23546 net.cpp:453] inception_1b/relu_3x3_reduce <- inception_1b/3x3_reduce_bn
I0417 16:46:29.376698 23546 net.cpp:400] inception_1b/relu_3x3_reduce -> inception_1b/3x3_reduce_bn (in-place)
I0417 16:46:29.376701 23546 net.cpp:163] Setting up inception_1b/relu_3x3_reduce
I0417 16:46:29.376806 23546 net.cpp:170] Top shape: 25 64 72 28 (3225600)
I0417 16:46:29.376811 23546 layer_factory.hpp:74] Creating layer inception_1b/3x3
I0417 16:46:29.376816 23546 net.cpp:133] Creating Layer inception_1b/3x3
I0417 16:46:29.376816 23546 net.cpp:453] inception_1b/3x3 <- inception_1b/3x3_reduce_bn
I0417 16:46:29.376821 23546 net.cpp:411] inception_1b/3x3 -> inception_1b/3x3
I0417 16:46:29.376824 23546 net.cpp:163] Setting up inception_1b/3x3
I0417 16:46:29.398380 23546 net.cpp:170] Top shape: 25 64 36 14 (806400)
I0417 16:46:29.398388 23546 layer_factory.hpp:74] Creating layer inception_1b/3x3_bn
I0417 16:46:29.398391 23546 layer_factory.cpp:191] Layer inception_1b/3x3_bn is using CAFFE engine.
I0417 16:46:29.398396 23546 net.cpp:133] Creating Layer inception_1b/3x3_bn
I0417 16:46:29.398397 23546 net.cpp:453] inception_1b/3x3_bn <- inception_1b/3x3
I0417 16:46:29.398401 23546 net.cpp:411] inception_1b/3x3_bn -> inception_1b/3x3_bn
I0417 16:46:29.398406 23546 net.cpp:163] Setting up inception_1b/3x3_bn
I0417 16:46:29.398416 23546 net.cpp:170] Top shape: 25 64 36 14 (806400)
I0417 16:46:29.398421 23546 layer_factory.hpp:74] Creating layer inception_1b/relu_3x3
I0417 16:46:29.398423 23546 net.cpp:133] Creating Layer inception_1b/relu_3x3
I0417 16:46:29.398425 23546 net.cpp:453] inception_1b/relu_3x3 <- inception_1b/3x3_bn
I0417 16:46:29.398428 23546 net.cpp:400] inception_1b/relu_3x3 -> inception_1b/3x3_bn (in-place)
I0417 16:46:29.398432 23546 net.cpp:163] Setting up inception_1b/relu_3x3
I0417 16:46:29.398608 23546 net.cpp:170] Top shape: 25 64 36 14 (806400)
I0417 16:46:29.398614 23546 layer_factory.hpp:74] Creating layer inception_1b/double_3x3_reduce
I0417 16:46:29.398619 23546 net.cpp:133] Creating Layer inception_1b/double_3x3_reduce
I0417 16:46:29.398622 23546 net.cpp:453] inception_1b/double_3x3_reduce <- inception_1a/output_inception_1a/output_0_split_1
I0417 16:46:29.398625 23546 net.cpp:411] inception_1b/double_3x3_reduce -> inception_1b/double_3x3_reduce
I0417 16:46:29.398630 23546 net.cpp:163] Setting up inception_1b/double_3x3_reduce
I0417 16:46:29.702570 23546 net.cpp:170] Top shape: 25 64 72 28 (3225600)
I0417 16:46:29.702580 23546 layer_factory.hpp:74] Creating layer inception_1b/double_3x3_reduce_bn
I0417 16:46:29.702582 23546 layer_factory.cpp:191] Layer inception_1b/double_3x3_reduce_bn is using CAFFE engine.
I0417 16:46:29.702587 23546 net.cpp:133] Creating Layer inception_1b/double_3x3_reduce_bn
I0417 16:46:29.702589 23546 net.cpp:453] inception_1b/double_3x3_reduce_bn <- inception_1b/double_3x3_reduce
I0417 16:46:29.702594 23546 net.cpp:411] inception_1b/double_3x3_reduce_bn -> inception_1b/double_3x3_reduce_bn
I0417 16:46:29.702597 23546 net.cpp:163] Setting up inception_1b/double_3x3_reduce_bn
I0417 16:46:29.702608 23546 net.cpp:170] Top shape: 25 64 72 28 (3225600)
I0417 16:46:29.702613 23546 layer_factory.hpp:74] Creating layer inception_1b/relu_double_3x3_reduce
I0417 16:46:29.702617 23546 net.cpp:133] Creating Layer inception_1b/relu_double_3x3_reduce
I0417 16:46:29.702618 23546 net.cpp:453] inception_1b/relu_double_3x3_reduce <- inception_1b/double_3x3_reduce_bn
I0417 16:46:29.702621 23546 net.cpp:400] inception_1b/relu_double_3x3_reduce -> inception_1b/double_3x3_reduce_bn (in-place)
I0417 16:46:29.702625 23546 net.cpp:163] Setting up inception_1b/relu_double_3x3_reduce
I0417 16:46:29.702803 23546 net.cpp:170] Top shape: 25 64 72 28 (3225600)
I0417 16:46:29.702808 23546 layer_factory.hpp:74] Creating layer inception_1b/double_3x3_1
I0417 16:46:29.702816 23546 net.cpp:133] Creating Layer inception_1b/double_3x3_1
I0417 16:46:29.702817 23546 net.cpp:453] inception_1b/double_3x3_1 <- inception_1b/double_3x3_reduce_bn
I0417 16:46:29.702821 23546 net.cpp:411] inception_1b/double_3x3_1 -> inception_1b/double_3x3_1
I0417 16:46:29.702824 23546 net.cpp:163] Setting up inception_1b/double_3x3_1
I0417 16:46:29.822293 23546 net.cpp:170] Top shape: 25 64 72 28 (3225600)
I0417 16:46:29.822302 23546 layer_factory.hpp:74] Creating layer inception_1b/double_3x3_1_bn
I0417 16:46:29.822304 23546 layer_factory.cpp:191] Layer inception_1b/double_3x3_1_bn is using CAFFE engine.
I0417 16:46:29.822309 23546 net.cpp:133] Creating Layer inception_1b/double_3x3_1_bn
I0417 16:46:29.822311 23546 net.cpp:453] inception_1b/double_3x3_1_bn <- inception_1b/double_3x3_1
I0417 16:46:29.822315 23546 net.cpp:411] inception_1b/double_3x3_1_bn -> inception_1b/double_3x3_1_bn
I0417 16:46:29.822319 23546 net.cpp:163] Setting up inception_1b/double_3x3_1_bn
I0417 16:46:29.822330 23546 net.cpp:170] Top shape: 25 64 72 28 (3225600)
I0417 16:46:29.822335 23546 layer_factory.hpp:74] Creating layer inception_1b/relu_double_3x3_1
I0417 16:46:29.822338 23546 net.cpp:133] Creating Layer inception_1b/relu_double_3x3_1
I0417 16:46:29.822340 23546 net.cpp:453] inception_1b/relu_double_3x3_1 <- inception_1b/double_3x3_1_bn
I0417 16:46:29.822342 23546 net.cpp:400] inception_1b/relu_double_3x3_1 -> inception_1b/double_3x3_1_bn (in-place)
I0417 16:46:29.822345 23546 net.cpp:163] Setting up inception_1b/relu_double_3x3_1
I0417 16:46:29.822458 23546 net.cpp:170] Top shape: 25 64 72 28 (3225600)
I0417 16:46:29.822463 23546 layer_factory.hpp:74] Creating layer inception_1b/double_3x3_2
I0417 16:46:29.822468 23546 net.cpp:133] Creating Layer inception_1b/double_3x3_2
I0417 16:46:29.822470 23546 net.cpp:453] inception_1b/double_3x3_2 <- inception_1b/double_3x3_1_bn
I0417 16:46:29.822474 23546 net.cpp:411] inception_1b/double_3x3_2 -> inception_1b/double_3x3_2
I0417 16:46:29.822479 23546 net.cpp:163] Setting up inception_1b/double_3x3_2
I0417 16:46:29.844401 23546 net.cpp:170] Top shape: 25 64 36 14 (806400)
I0417 16:46:29.844410 23546 layer_factory.hpp:74] Creating layer inception_1b/double_3x3_2_bn
I0417 16:46:29.844413 23546 layer_factory.cpp:191] Layer inception_1b/double_3x3_2_bn is using CAFFE engine.
I0417 16:46:29.844418 23546 net.cpp:133] Creating Layer inception_1b/double_3x3_2_bn
I0417 16:46:29.844419 23546 net.cpp:453] inception_1b/double_3x3_2_bn <- inception_1b/double_3x3_2
I0417 16:46:29.844424 23546 net.cpp:411] inception_1b/double_3x3_2_bn -> inception_1b/double_3x3_2_bn
I0417 16:46:29.844429 23546 net.cpp:163] Setting up inception_1b/double_3x3_2_bn
I0417 16:46:29.844439 23546 net.cpp:170] Top shape: 25 64 36 14 (806400)
I0417 16:46:29.844444 23546 layer_factory.hpp:74] Creating layer inception_1b/relu_double_3x3_2
I0417 16:46:29.844446 23546 net.cpp:133] Creating Layer inception_1b/relu_double_3x3_2
I0417 16:46:29.844449 23546 net.cpp:453] inception_1b/relu_double_3x3_2 <- inception_1b/double_3x3_2_bn
I0417 16:46:29.844451 23546 net.cpp:400] inception_1b/relu_double_3x3_2 -> inception_1b/double_3x3_2_bn (in-place)
I0417 16:46:29.844455 23546 net.cpp:163] Setting up inception_1b/relu_double_3x3_2
I0417 16:46:29.844631 23546 net.cpp:170] Top shape: 25 64 36 14 (806400)
I0417 16:46:29.844637 23546 layer_factory.hpp:74] Creating layer inception_1b/pool
I0417 16:46:29.844641 23546 net.cpp:133] Creating Layer inception_1b/pool
I0417 16:46:29.844643 23546 net.cpp:453] inception_1b/pool <- inception_1a/output_inception_1a/output_0_split_2
I0417 16:46:29.844647 23546 net.cpp:411] inception_1b/pool -> inception_1b/pool
I0417 16:46:29.844651 23546 net.cpp:163] Setting up inception_1b/pool
I0417 16:46:29.844748 23546 net.cpp:170] Top shape: 25 256 36 14 (3225600)
I0417 16:46:29.844753 23546 layer_factory.hpp:74] Creating layer inception_1b/output
I0417 16:46:29.844755 23546 net.cpp:133] Creating Layer inception_1b/output
I0417 16:46:29.844758 23546 net.cpp:453] inception_1b/output <- inception_1b/3x3_bn
I0417 16:46:29.844760 23546 net.cpp:453] inception_1b/output <- inception_1b/double_3x3_2_bn
I0417 16:46:29.844763 23546 net.cpp:453] inception_1b/output <- inception_1b/pool
I0417 16:46:29.844766 23546 net.cpp:411] inception_1b/output -> inception_1b/output
I0417 16:46:29.844769 23546 net.cpp:163] Setting up inception_1b/output
I0417 16:46:29.844772 23546 net.cpp:170] Top shape: 25 384 36 14 (4838400)
I0417 16:46:29.844774 23546 layer_factory.hpp:74] Creating layer inception_1b/output_inception_1b/output_0_split
I0417 16:46:29.844779 23546 net.cpp:133] Creating Layer inception_1b/output_inception_1b/output_0_split
I0417 16:46:29.844779 23546 net.cpp:453] inception_1b/output_inception_1b/output_0_split <- inception_1b/output
I0417 16:46:29.844782 23546 net.cpp:411] inception_1b/output_inception_1b/output_0_split -> inception_1b/output_inception_1b/output_0_split_0
I0417 16:46:29.844786 23546 net.cpp:411] inception_1b/output_inception_1b/output_0_split -> inception_1b/output_inception_1b/output_0_split_1
I0417 16:46:29.844790 23546 net.cpp:411] inception_1b/output_inception_1b/output_0_split -> inception_1b/output_inception_1b/output_0_split_2
I0417 16:46:29.844794 23546 net.cpp:411] inception_1b/output_inception_1b/output_0_split -> inception_1b/output_inception_1b/output_0_split_3
I0417 16:46:29.844796 23546 net.cpp:163] Setting up inception_1b/output_inception_1b/output_0_split
I0417 16:46:29.844799 23546 net.cpp:170] Top shape: 25 384 36 14 (4838400)
I0417 16:46:29.844802 23546 net.cpp:170] Top shape: 25 384 36 14 (4838400)
I0417 16:46:29.844805 23546 net.cpp:170] Top shape: 25 384 36 14 (4838400)
I0417 16:46:29.844806 23546 net.cpp:170] Top shape: 25 384 36 14 (4838400)
I0417 16:46:29.844807 23546 layer_factory.hpp:74] Creating layer inception_2a/1x1
I0417 16:46:29.844812 23546 net.cpp:133] Creating Layer inception_2a/1x1
I0417 16:46:29.844815 23546 net.cpp:453] inception_2a/1x1 <- inception_1b/output_inception_1b/output_0_split_0
I0417 16:46:29.844818 23546 net.cpp:411] inception_2a/1x1 -> inception_2a/1x1
I0417 16:46:29.844821 23546 net.cpp:163] Setting up inception_2a/1x1
I0417 16:46:30.014770 23546 net.cpp:170] Top shape: 25 128 36 14 (1612800)
I0417 16:46:30.014781 23546 layer_factory.hpp:74] Creating layer inception_2a/1x1_bn
I0417 16:46:30.014785 23546 layer_factory.cpp:191] Layer inception_2a/1x1_bn is using CAFFE engine.
I0417 16:46:30.014788 23546 net.cpp:133] Creating Layer inception_2a/1x1_bn
I0417 16:46:30.014791 23546 net.cpp:453] inception_2a/1x1_bn <- inception_2a/1x1
I0417 16:46:30.014794 23546 net.cpp:411] inception_2a/1x1_bn -> inception_2a/1x1_bn
I0417 16:46:30.014799 23546 net.cpp:163] Setting up inception_2a/1x1_bn
I0417 16:46:30.014808 23546 net.cpp:170] Top shape: 25 128 36 14 (1612800)
I0417 16:46:30.014813 23546 layer_factory.hpp:74] Creating layer inception_2a/relu_1x1
I0417 16:46:30.014817 23546 net.cpp:133] Creating Layer inception_2a/relu_1x1
I0417 16:46:30.014819 23546 net.cpp:453] inception_2a/relu_1x1 <- inception_2a/1x1_bn
I0417 16:46:30.014822 23546 net.cpp:400] inception_2a/relu_1x1 -> inception_2a/1x1_bn (in-place)
I0417 16:46:30.014824 23546 net.cpp:163] Setting up inception_2a/relu_1x1
I0417 16:46:30.014930 23546 net.cpp:170] Top shape: 25 128 36 14 (1612800)
I0417 16:46:30.014933 23546 layer_factory.hpp:74] Creating layer inception_2a/3x3_reduce
I0417 16:46:30.014938 23546 net.cpp:133] Creating Layer inception_2a/3x3_reduce
I0417 16:46:30.014940 23546 net.cpp:453] inception_2a/3x3_reduce <- inception_1b/output_inception_1b/output_0_split_1
I0417 16:46:30.014945 23546 net.cpp:411] inception_2a/3x3_reduce -> inception_2a/3x3_reduce
I0417 16:46:30.014948 23546 net.cpp:163] Setting up inception_2a/3x3_reduce
I0417 16:46:30.187177 23546 net.cpp:170] Top shape: 25 128 36 14 (1612800)
I0417 16:46:30.187187 23546 layer_factory.hpp:74] Creating layer inception_2a/3x3_reduce_bn
I0417 16:46:30.187191 23546 layer_factory.cpp:191] Layer inception_2a/3x3_reduce_bn is using CAFFE engine.
I0417 16:46:30.187194 23546 net.cpp:133] Creating Layer inception_2a/3x3_reduce_bn
I0417 16:46:30.187196 23546 net.cpp:453] inception_2a/3x3_reduce_bn <- inception_2a/3x3_reduce
I0417 16:46:30.187201 23546 net.cpp:411] inception_2a/3x3_reduce_bn -> inception_2a/3x3_reduce_bn
I0417 16:46:30.187206 23546 net.cpp:163] Setting up inception_2a/3x3_reduce_bn
I0417 16:46:30.187214 23546 net.cpp:170] Top shape: 25 128 36 14 (1612800)
I0417 16:46:30.187221 23546 layer_factory.hpp:74] Creating layer inception_2a/relu_3x3_reduce
I0417 16:46:30.187223 23546 net.cpp:133] Creating Layer inception_2a/relu_3x3_reduce
I0417 16:46:30.187224 23546 net.cpp:453] inception_2a/relu_3x3_reduce <- inception_2a/3x3_reduce_bn
I0417 16:46:30.187227 23546 net.cpp:400] inception_2a/relu_3x3_reduce -> inception_2a/3x3_reduce_bn (in-place)
I0417 16:46:30.187230 23546 net.cpp:163] Setting up inception_2a/relu_3x3_reduce
I0417 16:46:30.187409 23546 net.cpp:170] Top shape: 25 128 36 14 (1612800)
I0417 16:46:30.187415 23546 layer_factory.hpp:74] Creating layer inception_2a/3x3
I0417 16:46:30.187420 23546 net.cpp:133] Creating Layer inception_2a/3x3
I0417 16:46:30.187422 23546 net.cpp:453] inception_2a/3x3 <- inception_2a/3x3_reduce_bn
I0417 16:46:30.187427 23546 net.cpp:411] inception_2a/3x3 -> inception_2a/3x3
I0417 16:46:30.187430 23546 net.cpp:163] Setting up inception_2a/3x3
I0417 16:46:30.270293 23546 net.cpp:170] Top shape: 25 128 36 14 (1612800)
I0417 16:46:30.270303 23546 layer_factory.hpp:74] Creating layer inception_2a/3x3_bn
I0417 16:46:30.270306 23546 layer_factory.cpp:191] Layer inception_2a/3x3_bn is using CAFFE engine.
I0417 16:46:30.270310 23546 net.cpp:133] Creating Layer inception_2a/3x3_bn
I0417 16:46:30.270313 23546 net.cpp:453] inception_2a/3x3_bn <- inception_2a/3x3
I0417 16:46:30.270318 23546 net.cpp:411] inception_2a/3x3_bn -> inception_2a/3x3_bn
I0417 16:46:30.270321 23546 net.cpp:163] Setting up inception_2a/3x3_bn
I0417 16:46:30.270331 23546 net.cpp:170] Top shape: 25 128 36 14 (1612800)
I0417 16:46:30.270336 23546 layer_factory.hpp:74] Creating layer inception_2a/relu_3x3
I0417 16:46:30.270339 23546 net.cpp:133] Creating Layer inception_2a/relu_3x3
I0417 16:46:30.270340 23546 net.cpp:453] inception_2a/relu_3x3 <- inception_2a/3x3_bn
I0417 16:46:30.270344 23546 net.cpp:400] inception_2a/relu_3x3 -> inception_2a/3x3_bn (in-place)
I0417 16:46:30.270346 23546 net.cpp:163] Setting up inception_2a/relu_3x3
I0417 16:46:30.270452 23546 net.cpp:170] Top shape: 25 128 36 14 (1612800)
I0417 16:46:30.270457 23546 layer_factory.hpp:74] Creating layer inception_2a/double_3x3_reduce
I0417 16:46:30.270460 23546 net.cpp:133] Creating Layer inception_2a/double_3x3_reduce
I0417 16:46:30.270462 23546 net.cpp:453] inception_2a/double_3x3_reduce <- inception_1b/output_inception_1b/output_0_split_2
I0417 16:46:30.270467 23546 net.cpp:411] inception_2a/double_3x3_reduce -> inception_2a/double_3x3_reduce
I0417 16:46:30.270470 23546 net.cpp:163] Setting up inception_2a/double_3x3_reduce
I0417 16:46:30.448348 23546 net.cpp:170] Top shape: 25 128 36 14 (1612800)
I0417 16:46:30.448359 23546 layer_factory.hpp:74] Creating layer inception_2a/double_3x3_reduce_bn
I0417 16:46:30.448360 23546 layer_factory.cpp:191] Layer inception_2a/double_3x3_reduce_bn is using CAFFE engine.
I0417 16:46:30.448374 23546 net.cpp:133] Creating Layer inception_2a/double_3x3_reduce_bn
I0417 16:46:30.448377 23546 net.cpp:453] inception_2a/double_3x3_reduce_bn <- inception_2a/double_3x3_reduce
I0417 16:46:30.448380 23546 net.cpp:411] inception_2a/double_3x3_reduce_bn -> inception_2a/double_3x3_reduce_bn
I0417 16:46:30.448385 23546 net.cpp:163] Setting up inception_2a/double_3x3_reduce_bn
I0417 16:46:30.448393 23546 net.cpp:170] Top shape: 25 128 36 14 (1612800)
I0417 16:46:30.448400 23546 layer_factory.hpp:74] Creating layer inception_2a/relu_double_3x3_reduce
I0417 16:46:30.448403 23546 net.cpp:133] Creating Layer inception_2a/relu_double_3x3_reduce
I0417 16:46:30.448405 23546 net.cpp:453] inception_2a/relu_double_3x3_reduce <- inception_2a/double_3x3_reduce_bn
I0417 16:46:30.448407 23546 net.cpp:400] inception_2a/relu_double_3x3_reduce -> inception_2a/double_3x3_reduce_bn (in-place)
I0417 16:46:30.448410 23546 net.cpp:163] Setting up inception_2a/relu_double_3x3_reduce
I0417 16:46:30.448515 23546 net.cpp:170] Top shape: 25 128 36 14 (1612800)
I0417 16:46:30.448519 23546 layer_factory.hpp:74] Creating layer inception_2a/double_3x3_1
I0417 16:46:30.448524 23546 net.cpp:133] Creating Layer inception_2a/double_3x3_1
I0417 16:46:30.448526 23546 net.cpp:453] inception_2a/double_3x3_1 <- inception_2a/double_3x3_reduce_bn
I0417 16:46:30.448530 23546 net.cpp:411] inception_2a/double_3x3_1 -> inception_2a/double_3x3_1
I0417 16:46:30.448534 23546 net.cpp:163] Setting up inception_2a/double_3x3_1
I0417 16:46:30.532768 23546 net.cpp:170] Top shape: 25 128 36 14 (1612800)
I0417 16:46:30.532778 23546 layer_factory.hpp:74] Creating layer inception_2a/double_3x3_1_bn
I0417 16:46:30.532781 23546 layer_factory.cpp:191] Layer inception_2a/double_3x3_1_bn is using CAFFE engine.
I0417 16:46:30.532785 23546 net.cpp:133] Creating Layer inception_2a/double_3x3_1_bn
I0417 16:46:30.532788 23546 net.cpp:453] inception_2a/double_3x3_1_bn <- inception_2a/double_3x3_1
I0417 16:46:30.532793 23546 net.cpp:411] inception_2a/double_3x3_1_bn -> inception_2a/double_3x3_1_bn
I0417 16:46:30.532796 23546 net.cpp:163] Setting up inception_2a/double_3x3_1_bn
I0417 16:46:30.532805 23546 net.cpp:170] Top shape: 25 128 36 14 (1612800)
I0417 16:46:30.532811 23546 layer_factory.hpp:74] Creating layer inception_2a/relu_double_3x3_1
I0417 16:46:30.532814 23546 net.cpp:133] Creating Layer inception_2a/relu_double_3x3_1
I0417 16:46:30.532816 23546 net.cpp:453] inception_2a/relu_double_3x3_1 <- inception_2a/double_3x3_1_bn
I0417 16:46:30.532819 23546 net.cpp:400] inception_2a/relu_double_3x3_1 -> inception_2a/double_3x3_1_bn (in-place)
I0417 16:46:30.532822 23546 net.cpp:163] Setting up inception_2a/relu_double_3x3_1
I0417 16:46:30.533009 23546 net.cpp:170] Top shape: 25 128 36 14 (1612800)
I0417 16:46:30.533015 23546 layer_factory.hpp:74] Creating layer inception_2a/double_3x3_2
I0417 16:46:30.533020 23546 net.cpp:133] Creating Layer inception_2a/double_3x3_2
I0417 16:46:30.533021 23546 net.cpp:453] inception_2a/double_3x3_2 <- inception_2a/double_3x3_1_bn
I0417 16:46:30.533025 23546 net.cpp:411] inception_2a/double_3x3_2 -> inception_2a/double_3x3_2
I0417 16:46:30.533030 23546 net.cpp:163] Setting up inception_2a/double_3x3_2
I0417 16:46:30.616682 23546 net.cpp:170] Top shape: 25 128 36 14 (1612800)
I0417 16:46:30.616691 23546 layer_factory.hpp:74] Creating layer inception_2a/double_3x3_2_bn
I0417 16:46:30.616694 23546 layer_factory.cpp:191] Layer inception_2a/double_3x3_2_bn is using CAFFE engine.
I0417 16:46:30.616698 23546 net.cpp:133] Creating Layer inception_2a/double_3x3_2_bn
I0417 16:46:30.616700 23546 net.cpp:453] inception_2a/double_3x3_2_bn <- inception_2a/double_3x3_2
I0417 16:46:30.616704 23546 net.cpp:411] inception_2a/double_3x3_2_bn -> inception_2a/double_3x3_2_bn
I0417 16:46:30.616709 23546 net.cpp:163] Setting up inception_2a/double_3x3_2_bn
I0417 16:46:30.616719 23546 net.cpp:170] Top shape: 25 128 36 14 (1612800)
I0417 16:46:30.616724 23546 layer_factory.hpp:74] Creating layer inception_2a/relu_double_3x3_2
I0417 16:46:30.616726 23546 net.cpp:133] Creating Layer inception_2a/relu_double_3x3_2
I0417 16:46:30.616729 23546 net.cpp:453] inception_2a/relu_double_3x3_2 <- inception_2a/double_3x3_2_bn
I0417 16:46:30.616731 23546 net.cpp:400] inception_2a/relu_double_3x3_2 -> inception_2a/double_3x3_2_bn (in-place)
I0417 16:46:30.616734 23546 net.cpp:163] Setting up inception_2a/relu_double_3x3_2
I0417 16:46:30.616847 23546 net.cpp:170] Top shape: 25 128 36 14 (1612800)
I0417 16:46:30.616852 23546 layer_factory.hpp:74] Creating layer inception_2a/pool
I0417 16:46:30.616853 23546 layer_factory.cpp:64] CUDNN does not support padding or multiple tops. Using Caffe's own pooling layer.
I0417 16:46:30.616858 23546 net.cpp:133] Creating Layer inception_2a/pool
I0417 16:46:30.616859 23546 net.cpp:453] inception_2a/pool <- inception_1b/output_inception_1b/output_0_split_3
I0417 16:46:30.616863 23546 net.cpp:411] inception_2a/pool -> inception_2a/pool
I0417 16:46:30.616866 23546 net.cpp:163] Setting up inception_2a/pool
I0417 16:46:30.616870 23546 net.cpp:170] Top shape: 25 384 36 14 (4838400)
I0417 16:46:30.616873 23546 layer_factory.hpp:74] Creating layer inception_2a/pool_proj
I0417 16:46:30.616876 23546 net.cpp:133] Creating Layer inception_2a/pool_proj
I0417 16:46:30.616879 23546 net.cpp:453] inception_2a/pool_proj <- inception_2a/pool
I0417 16:46:30.616883 23546 net.cpp:411] inception_2a/pool_proj -> inception_2a/pool_proj
I0417 16:46:30.616888 23546 net.cpp:163] Setting up inception_2a/pool_proj
I0417 16:46:30.793973 23546 net.cpp:170] Top shape: 25 128 36 14 (1612800)
I0417 16:46:30.793983 23546 layer_factory.hpp:74] Creating layer inception_2a/pool_proj_bn
I0417 16:46:30.793987 23546 layer_factory.cpp:191] Layer inception_2a/pool_proj_bn is using CAFFE engine.
I0417 16:46:30.793990 23546 net.cpp:133] Creating Layer inception_2a/pool_proj_bn
I0417 16:46:30.793992 23546 net.cpp:453] inception_2a/pool_proj_bn <- inception_2a/pool_proj
I0417 16:46:30.793997 23546 net.cpp:411] inception_2a/pool_proj_bn -> inception_2a/pool_proj_bn
I0417 16:46:30.794001 23546 net.cpp:163] Setting up inception_2a/pool_proj_bn
I0417 16:46:30.794011 23546 net.cpp:170] Top shape: 25 128 36 14 (1612800)
I0417 16:46:30.794025 23546 layer_factory.hpp:74] Creating layer inception_2a/relu_pool_proj
I0417 16:46:30.794029 23546 net.cpp:133] Creating Layer inception_2a/relu_pool_proj
I0417 16:46:30.794031 23546 net.cpp:453] inception_2a/relu_pool_proj <- inception_2a/pool_proj_bn
I0417 16:46:30.794034 23546 net.cpp:400] inception_2a/relu_pool_proj -> inception_2a/pool_proj_bn (in-place)
I0417 16:46:30.794037 23546 net.cpp:163] Setting up inception_2a/relu_pool_proj
I0417 16:46:30.794143 23546 net.cpp:170] Top shape: 25 128 36 14 (1612800)
I0417 16:46:30.794148 23546 layer_factory.hpp:74] Creating layer inception_2a/output
I0417 16:46:30.794152 23546 net.cpp:133] Creating Layer inception_2a/output
I0417 16:46:30.794154 23546 net.cpp:453] inception_2a/output <- inception_2a/1x1_bn
I0417 16:46:30.794157 23546 net.cpp:453] inception_2a/output <- inception_2a/3x3_bn
I0417 16:46:30.794159 23546 net.cpp:453] inception_2a/output <- inception_2a/double_3x3_2_bn
I0417 16:46:30.794162 23546 net.cpp:453] inception_2a/output <- inception_2a/pool_proj_bn
I0417 16:46:30.794165 23546 net.cpp:411] inception_2a/output -> inception_2a/output
I0417 16:46:30.794168 23546 net.cpp:163] Setting up inception_2a/output
I0417 16:46:30.794173 23546 net.cpp:170] Top shape: 25 512 36 14 (6451200)
I0417 16:46:30.794174 23546 layer_factory.hpp:74] Creating layer inception_2a/output_inception_2a/output_0_split
I0417 16:46:30.794178 23546 net.cpp:133] Creating Layer inception_2a/output_inception_2a/output_0_split
I0417 16:46:30.794179 23546 net.cpp:453] inception_2a/output_inception_2a/output_0_split <- inception_2a/output
I0417 16:46:30.794181 23546 net.cpp:411] inception_2a/output_inception_2a/output_0_split -> inception_2a/output_inception_2a/output_0_split_0
I0417 16:46:30.794195 23546 net.cpp:411] inception_2a/output_inception_2a/output_0_split -> inception_2a/output_inception_2a/output_0_split_1
I0417 16:46:30.794199 23546 net.cpp:411] inception_2a/output_inception_2a/output_0_split -> inception_2a/output_inception_2a/output_0_split_2
I0417 16:46:30.794203 23546 net.cpp:163] Setting up inception_2a/output_inception_2a/output_0_split
I0417 16:46:30.794205 23546 net.cpp:170] Top shape: 25 512 36 14 (6451200)
I0417 16:46:30.794209 23546 net.cpp:170] Top shape: 25 512 36 14 (6451200)
I0417 16:46:30.794210 23546 net.cpp:170] Top shape: 25 512 36 14 (6451200)
I0417 16:46:30.794211 23546 layer_factory.hpp:74] Creating layer inception_2b/3x3_reduce
I0417 16:46:30.794215 23546 net.cpp:133] Creating Layer inception_2b/3x3_reduce
I0417 16:46:30.794217 23546 net.cpp:453] inception_2b/3x3_reduce <- inception_2a/output_inception_2a/output_0_split_0
I0417 16:46:30.794220 23546 net.cpp:411] inception_2b/3x3_reduce -> inception_2b/3x3_reduce
I0417 16:46:30.794224 23546 net.cpp:163] Setting up inception_2b/3x3_reduce
I0417 16:46:31.025473 23546 net.cpp:170] Top shape: 25 128 36 14 (1612800)
I0417 16:46:31.025485 23546 layer_factory.hpp:74] Creating layer inception_2b/3x3_reduce_bn
I0417 16:46:31.025488 23546 layer_factory.cpp:191] Layer inception_2b/3x3_reduce_bn is using CAFFE engine.
I0417 16:46:31.025492 23546 net.cpp:133] Creating Layer inception_2b/3x3_reduce_bn
I0417 16:46:31.025495 23546 net.cpp:453] inception_2b/3x3_reduce_bn <- inception_2b/3x3_reduce
I0417 16:46:31.025499 23546 net.cpp:411] inception_2b/3x3_reduce_bn -> inception_2b/3x3_reduce_bn
I0417 16:46:31.025504 23546 net.cpp:163] Setting up inception_2b/3x3_reduce_bn
I0417 16:46:31.025513 23546 net.cpp:170] Top shape: 25 128 36 14 (1612800)
I0417 16:46:31.025518 23546 layer_factory.hpp:74] Creating layer inception_2b/relu_3x3_reduce
I0417 16:46:31.025521 23546 net.cpp:133] Creating Layer inception_2b/relu_3x3_reduce
I0417 16:46:31.025523 23546 net.cpp:453] inception_2b/relu_3x3_reduce <- inception_2b/3x3_reduce_bn
I0417 16:46:31.025527 23546 net.cpp:400] inception_2b/relu_3x3_reduce -> inception_2b/3x3_reduce_bn (in-place)
I0417 16:46:31.025529 23546 net.cpp:163] Setting up inception_2b/relu_3x3_reduce
I0417 16:46:31.025714 23546 net.cpp:170] Top shape: 25 128 36 14 (1612800)
I0417 16:46:31.025720 23546 layer_factory.hpp:74] Creating layer inception_2b/3x3
I0417 16:46:31.025725 23546 net.cpp:133] Creating Layer inception_2b/3x3
I0417 16:46:31.025727 23546 net.cpp:453] inception_2b/3x3 <- inception_2b/3x3_reduce_bn
I0417 16:46:31.025732 23546 net.cpp:411] inception_2b/3x3 -> inception_2b/3x3
I0417 16:46:31.025735 23546 net.cpp:163] Setting up inception_2b/3x3
I0417 16:46:31.040113 23546 net.cpp:170] Top shape: 25 128 18 7 (403200)
I0417 16:46:31.040123 23546 layer_factory.hpp:74] Creating layer inception_2b/3x3_bn
I0417 16:46:31.040127 23546 layer_factory.cpp:191] Layer inception_2b/3x3_bn is using CAFFE engine.
I0417 16:46:31.040132 23546 net.cpp:133] Creating Layer inception_2b/3x3_bn
I0417 16:46:31.040133 23546 net.cpp:453] inception_2b/3x3_bn <- inception_2b/3x3
I0417 16:46:31.040138 23546 net.cpp:411] inception_2b/3x3_bn -> inception_2b/3x3_bn
I0417 16:46:31.040141 23546 net.cpp:163] Setting up inception_2b/3x3_bn
I0417 16:46:31.040150 23546 net.cpp:170] Top shape: 25 128 18 7 (403200)
I0417 16:46:31.040155 23546 layer_factory.hpp:74] Creating layer inception_2b/relu_3x3
I0417 16:46:31.040158 23546 net.cpp:133] Creating Layer inception_2b/relu_3x3
I0417 16:46:31.040161 23546 net.cpp:453] inception_2b/relu_3x3 <- inception_2b/3x3_bn
I0417 16:46:31.040163 23546 net.cpp:400] inception_2b/relu_3x3 -> inception_2b/3x3_bn (in-place)
I0417 16:46:31.040166 23546 net.cpp:163] Setting up inception_2b/relu_3x3
I0417 16:46:31.040274 23546 net.cpp:170] Top shape: 25 128 18 7 (403200)
I0417 16:46:31.040279 23546 layer_factory.hpp:74] Creating layer inception_2b/double_3x3_reduce
I0417 16:46:31.040283 23546 net.cpp:133] Creating Layer inception_2b/double_3x3_reduce
I0417 16:46:31.040287 23546 net.cpp:453] inception_2b/double_3x3_reduce <- inception_2a/output_inception_2a/output_0_split_1
I0417 16:46:31.040290 23546 net.cpp:411] inception_2b/double_3x3_reduce -> inception_2b/double_3x3_reduce
I0417 16:46:31.040294 23546 net.cpp:163] Setting up inception_2b/double_3x3_reduce
I0417 16:46:31.270737 23546 net.cpp:170] Top shape: 25 128 36 14 (1612800)
I0417 16:46:31.270747 23546 layer_factory.hpp:74] Creating layer inception_2b/double_3x3_reduce_bn
I0417 16:46:31.270750 23546 layer_factory.cpp:191] Layer inception_2b/double_3x3_reduce_bn is using CAFFE engine.
I0417 16:46:31.270755 23546 net.cpp:133] Creating Layer inception_2b/double_3x3_reduce_bn
I0417 16:46:31.270756 23546 net.cpp:453] inception_2b/double_3x3_reduce_bn <- inception_2b/double_3x3_reduce
I0417 16:46:31.270761 23546 net.cpp:411] inception_2b/double_3x3_reduce_bn -> inception_2b/double_3x3_reduce_bn
I0417 16:46:31.270766 23546 net.cpp:163] Setting up inception_2b/double_3x3_reduce_bn
I0417 16:46:31.270776 23546 net.cpp:170] Top shape: 25 128 36 14 (1612800)
I0417 16:46:31.270781 23546 layer_factory.hpp:74] Creating layer inception_2b/relu_double_3x3_reduce
I0417 16:46:31.270783 23546 net.cpp:133] Creating Layer inception_2b/relu_double_3x3_reduce
I0417 16:46:31.270784 23546 net.cpp:453] inception_2b/relu_double_3x3_reduce <- inception_2b/double_3x3_reduce_bn
I0417 16:46:31.270788 23546 net.cpp:400] inception_2b/relu_double_3x3_reduce -> inception_2b/double_3x3_reduce_bn (in-place)
I0417 16:46:31.270792 23546 net.cpp:163] Setting up inception_2b/relu_double_3x3_reduce
I0417 16:46:31.270897 23546 net.cpp:170] Top shape: 25 128 36 14 (1612800)
I0417 16:46:31.270902 23546 layer_factory.hpp:74] Creating layer inception_2b/double_3x3_1
I0417 16:46:31.270907 23546 net.cpp:133] Creating Layer inception_2b/double_3x3_1
I0417 16:46:31.270908 23546 net.cpp:453] inception_2b/double_3x3_1 <- inception_2b/double_3x3_reduce_bn
I0417 16:46:31.270912 23546 net.cpp:411] inception_2b/double_3x3_1 -> inception_2b/double_3x3_1
I0417 16:46:31.270916 23546 net.cpp:163] Setting up inception_2b/double_3x3_1
I0417 16:46:31.354691 23546 net.cpp:170] Top shape: 25 128 36 14 (1612800)
I0417 16:46:31.354701 23546 layer_factory.hpp:74] Creating layer inception_2b/double_3x3_1_bn
I0417 16:46:31.354703 23546 layer_factory.cpp:191] Layer inception_2b/double_3x3_1_bn is using CAFFE engine.
I0417 16:46:31.354707 23546 net.cpp:133] Creating Layer inception_2b/double_3x3_1_bn
I0417 16:46:31.354710 23546 net.cpp:453] inception_2b/double_3x3_1_bn <- inception_2b/double_3x3_1
I0417 16:46:31.354714 23546 net.cpp:411] inception_2b/double_3x3_1_bn -> inception_2b/double_3x3_1_bn
I0417 16:46:31.354719 23546 net.cpp:163] Setting up inception_2b/double_3x3_1_bn
I0417 16:46:31.354727 23546 net.cpp:170] Top shape: 25 128 36 14 (1612800)
I0417 16:46:31.354734 23546 layer_factory.hpp:74] Creating layer inception_2b/relu_double_3x3_1
I0417 16:46:31.354737 23546 net.cpp:133] Creating Layer inception_2b/relu_double_3x3_1
I0417 16:46:31.354738 23546 net.cpp:453] inception_2b/relu_double_3x3_1 <- inception_2b/double_3x3_1_bn
I0417 16:46:31.354742 23546 net.cpp:400] inception_2b/relu_double_3x3_1 -> inception_2b/double_3x3_1_bn (in-place)
I0417 16:46:31.354744 23546 net.cpp:163] Setting up inception_2b/relu_double_3x3_1
I0417 16:46:31.354928 23546 net.cpp:170] Top shape: 25 128 36 14 (1612800)
I0417 16:46:31.354934 23546 layer_factory.hpp:74] Creating layer inception_2b/double_3x3_2
I0417 16:46:31.354939 23546 net.cpp:133] Creating Layer inception_2b/double_3x3_2
I0417 16:46:31.354941 23546 net.cpp:453] inception_2b/double_3x3_2 <- inception_2b/double_3x3_1_bn
I0417 16:46:31.354945 23546 net.cpp:411] inception_2b/double_3x3_2 -> inception_2b/double_3x3_2
I0417 16:46:31.354949 23546 net.cpp:163] Setting up inception_2b/double_3x3_2
I0417 16:46:31.369444 23546 net.cpp:170] Top shape: 25 128 18 7 (403200)
I0417 16:46:31.369453 23546 layer_factory.hpp:74] Creating layer inception_2b/double_3x3_2_bn
I0417 16:46:31.369457 23546 layer_factory.cpp:191] Layer inception_2b/double_3x3_2_bn is using CAFFE engine.
I0417 16:46:31.369460 23546 net.cpp:133] Creating Layer inception_2b/double_3x3_2_bn
I0417 16:46:31.369463 23546 net.cpp:453] inception_2b/double_3x3_2_bn <- inception_2b/double_3x3_2
I0417 16:46:31.369467 23546 net.cpp:411] inception_2b/double_3x3_2_bn -> inception_2b/double_3x3_2_bn
I0417 16:46:31.369472 23546 net.cpp:163] Setting up inception_2b/double_3x3_2_bn
I0417 16:46:31.369480 23546 net.cpp:170] Top shape: 25 128 18 7 (403200)
I0417 16:46:31.369485 23546 layer_factory.hpp:74] Creating layer inception_2b/relu_double_3x3_2
I0417 16:46:31.369489 23546 net.cpp:133] Creating Layer inception_2b/relu_double_3x3_2
I0417 16:46:31.369490 23546 net.cpp:453] inception_2b/relu_double_3x3_2 <- inception_2b/double_3x3_2_bn
I0417 16:46:31.369494 23546 net.cpp:400] inception_2b/relu_double_3x3_2 -> inception_2b/double_3x3_2_bn (in-place)
I0417 16:46:31.369498 23546 net.cpp:163] Setting up inception_2b/relu_double_3x3_2
I0417 16:46:31.369604 23546 net.cpp:170] Top shape: 25 128 18 7 (403200)
I0417 16:46:31.369608 23546 layer_factory.hpp:74] Creating layer inception_2b/pool
I0417 16:46:31.369613 23546 net.cpp:133] Creating Layer inception_2b/pool
I0417 16:46:31.369616 23546 net.cpp:453] inception_2b/pool <- inception_2a/output_inception_2a/output_0_split_2
I0417 16:46:31.369619 23546 net.cpp:411] inception_2b/pool -> inception_2b/pool
I0417 16:46:31.369622 23546 net.cpp:163] Setting up inception_2b/pool
I0417 16:46:31.369797 23546 net.cpp:170] Top shape: 25 512 18 7 (1612800)
I0417 16:46:31.369802 23546 layer_factory.hpp:74] Creating layer inception_2b/output
I0417 16:46:31.369807 23546 net.cpp:133] Creating Layer inception_2b/output
I0417 16:46:31.369808 23546 net.cpp:453] inception_2b/output <- inception_2b/3x3_bn
I0417 16:46:31.369812 23546 net.cpp:453] inception_2b/output <- inception_2b/double_3x3_2_bn
I0417 16:46:31.369813 23546 net.cpp:453] inception_2b/output <- inception_2b/pool
I0417 16:46:31.369817 23546 net.cpp:411] inception_2b/output -> inception_2b/output
I0417 16:46:31.369822 23546 net.cpp:163] Setting up inception_2b/output
I0417 16:46:31.369824 23546 net.cpp:170] Top shape: 25 768 18 7 (2419200)
I0417 16:46:31.369825 23546 layer_factory.hpp:74] Creating layer inception_2b/output_inception_2b/output_0_split
I0417 16:46:31.369829 23546 net.cpp:133] Creating Layer inception_2b/output_inception_2b/output_0_split
I0417 16:46:31.369832 23546 net.cpp:453] inception_2b/output_inception_2b/output_0_split <- inception_2b/output
I0417 16:46:31.369834 23546 net.cpp:411] inception_2b/output_inception_2b/output_0_split -> inception_2b/output_inception_2b/output_0_split_0
I0417 16:46:31.369839 23546 net.cpp:411] inception_2b/output_inception_2b/output_0_split -> inception_2b/output_inception_2b/output_0_split_1
I0417 16:46:31.369843 23546 net.cpp:411] inception_2b/output_inception_2b/output_0_split -> inception_2b/output_inception_2b/output_0_split_2
I0417 16:46:31.369846 23546 net.cpp:411] inception_2b/output_inception_2b/output_0_split -> inception_2b/output_inception_2b/output_0_split_3
I0417 16:46:31.369849 23546 net.cpp:163] Setting up inception_2b/output_inception_2b/output_0_split
I0417 16:46:31.369853 23546 net.cpp:170] Top shape: 25 768 18 7 (2419200)
I0417 16:46:31.369855 23546 net.cpp:170] Top shape: 25 768 18 7 (2419200)
I0417 16:46:31.369858 23546 net.cpp:170] Top shape: 25 768 18 7 (2419200)
I0417 16:46:31.369859 23546 net.cpp:170] Top shape: 25 768 18 7 (2419200)
I0417 16:46:31.369861 23546 layer_factory.hpp:74] Creating layer inception_3a/1x1
I0417 16:46:31.369865 23546 net.cpp:133] Creating Layer inception_3a/1x1
I0417 16:46:31.369868 23546 net.cpp:453] inception_3a/1x1 <- inception_2b/output_inception_2b/output_0_split_0
I0417 16:46:31.369870 23546 net.cpp:411] inception_3a/1x1 -> inception_3a/1x1
I0417 16:46:31.369874 23546 net.cpp:163] Setting up inception_3a/1x1
I0417 16:46:31.556094 23546 net.cpp:170] Top shape: 25 256 18 7 (806400)
I0417 16:46:31.556104 23546 layer_factory.hpp:74] Creating layer inception_3a/1x1_bn
I0417 16:46:31.556107 23546 layer_factory.cpp:191] Layer inception_3a/1x1_bn is using CAFFE engine.
I0417 16:46:31.556112 23546 net.cpp:133] Creating Layer inception_3a/1x1_bn
I0417 16:46:31.556113 23546 net.cpp:453] inception_3a/1x1_bn <- inception_3a/1x1
I0417 16:46:31.556118 23546 net.cpp:411] inception_3a/1x1_bn -> inception_3a/1x1_bn
I0417 16:46:31.556123 23546 net.cpp:163] Setting up inception_3a/1x1_bn
I0417 16:46:31.556133 23546 net.cpp:170] Top shape: 25 256 18 7 (806400)
I0417 16:46:31.556138 23546 layer_factory.hpp:74] Creating layer inception_3a/relu_1x1
I0417 16:46:31.556141 23546 net.cpp:133] Creating Layer inception_3a/relu_1x1
I0417 16:46:31.556143 23546 net.cpp:453] inception_3a/relu_1x1 <- inception_3a/1x1_bn
I0417 16:46:31.556145 23546 net.cpp:400] inception_3a/relu_1x1 -> inception_3a/1x1_bn (in-place)
I0417 16:46:31.556149 23546 net.cpp:163] Setting up inception_3a/relu_1x1
I0417 16:46:31.556329 23546 net.cpp:170] Top shape: 25 256 18 7 (806400)
I0417 16:46:31.556334 23546 layer_factory.hpp:74] Creating layer inception_3a/3x3_reduce
I0417 16:46:31.556339 23546 net.cpp:133] Creating Layer inception_3a/3x3_reduce
I0417 16:46:31.556342 23546 net.cpp:453] inception_3a/3x3_reduce <- inception_2b/output_inception_2b/output_0_split_1
I0417 16:46:31.556346 23546 net.cpp:411] inception_3a/3x3_reduce -> inception_3a/3x3_reduce
I0417 16:46:31.556351 23546 net.cpp:163] Setting up inception_3a/3x3_reduce
I0417 16:46:31.742019 23546 net.cpp:170] Top shape: 25 256 18 7 (806400)
I0417 16:46:31.742033 23546 layer_factory.hpp:74] Creating layer inception_3a/3x3_reduce_bn
I0417 16:46:31.742036 23546 layer_factory.cpp:191] Layer inception_3a/3x3_reduce_bn is using CAFFE engine.
I0417 16:46:31.742041 23546 net.cpp:133] Creating Layer inception_3a/3x3_reduce_bn
I0417 16:46:31.742044 23546 net.cpp:453] inception_3a/3x3_reduce_bn <- inception_3a/3x3_reduce
I0417 16:46:31.742048 23546 net.cpp:411] inception_3a/3x3_reduce_bn -> inception_3a/3x3_reduce_bn
I0417 16:46:31.742053 23546 net.cpp:163] Setting up inception_3a/3x3_reduce_bn
I0417 16:46:31.742063 23546 net.cpp:170] Top shape: 25 256 18 7 (806400)
I0417 16:46:31.742069 23546 layer_factory.hpp:74] Creating layer inception_3a/relu_3x3_reduce
I0417 16:46:31.742072 23546 net.cpp:133] Creating Layer inception_3a/relu_3x3_reduce
I0417 16:46:31.742074 23546 net.cpp:453] inception_3a/relu_3x3_reduce <- inception_3a/3x3_reduce_bn
I0417 16:46:31.742077 23546 net.cpp:400] inception_3a/relu_3x3_reduce -> inception_3a/3x3_reduce_bn (in-place)
I0417 16:46:31.742080 23546 net.cpp:163] Setting up inception_3a/relu_3x3_reduce
I0417 16:46:31.742194 23546 net.cpp:170] Top shape: 25 256 18 7 (806400)
I0417 16:46:31.742198 23546 layer_factory.hpp:74] Creating layer inception_3a/3x3
I0417 16:46:31.742203 23546 net.cpp:133] Creating Layer inception_3a/3x3
I0417 16:46:31.742205 23546 net.cpp:453] inception_3a/3x3 <- inception_3a/3x3_reduce_bn
I0417 16:46:31.742209 23546 net.cpp:411] inception_3a/3x3 -> inception_3a/3x3
I0417 16:46:31.742213 23546 net.cpp:163] Setting up inception_3a/3x3
I0417 16:46:31.832471 23546 net.cpp:170] Top shape: 25 256 18 7 (806400)
I0417 16:46:31.832481 23546 layer_factory.hpp:74] Creating layer inception_3a/3x3_bn
I0417 16:46:31.832484 23546 layer_factory.cpp:191] Layer inception_3a/3x3_bn is using CAFFE engine.
I0417 16:46:31.832489 23546 net.cpp:133] Creating Layer inception_3a/3x3_bn
I0417 16:46:31.832491 23546 net.cpp:453] inception_3a/3x3_bn <- inception_3a/3x3
I0417 16:46:31.832495 23546 net.cpp:411] inception_3a/3x3_bn -> inception_3a/3x3_bn
I0417 16:46:31.832500 23546 net.cpp:163] Setting up inception_3a/3x3_bn
I0417 16:46:31.832509 23546 net.cpp:170] Top shape: 25 256 18 7 (806400)
I0417 16:46:31.832515 23546 layer_factory.hpp:74] Creating layer inception_3a/relu_3x3
I0417 16:46:31.832517 23546 net.cpp:133] Creating Layer inception_3a/relu_3x3
I0417 16:46:31.832520 23546 net.cpp:453] inception_3a/relu_3x3 <- inception_3a/3x3_bn
I0417 16:46:31.832523 23546 net.cpp:400] inception_3a/relu_3x3 -> inception_3a/3x3_bn (in-place)
I0417 16:46:31.832526 23546 net.cpp:163] Setting up inception_3a/relu_3x3
I0417 16:46:31.832710 23546 net.cpp:170] Top shape: 25 256 18 7 (806400)
I0417 16:46:31.832717 23546 layer_factory.hpp:74] Creating layer inception_3a/double_3x3_reduce
I0417 16:46:31.832722 23546 net.cpp:133] Creating Layer inception_3a/double_3x3_reduce
I0417 16:46:31.832725 23546 net.cpp:453] inception_3a/double_3x3_reduce <- inception_2b/output_inception_2b/output_0_split_2
I0417 16:46:31.832729 23546 net.cpp:411] inception_3a/double_3x3_reduce -> inception_3a/double_3x3_reduce
I0417 16:46:31.832733 23546 net.cpp:163] Setting up inception_3a/double_3x3_reduce
I0417 16:46:32.017722 23546 net.cpp:170] Top shape: 25 256 18 7 (806400)
I0417 16:46:32.017736 23546 layer_factory.hpp:74] Creating layer inception_3a/double_3x3_reduce_bn
I0417 16:46:32.017740 23546 layer_factory.cpp:191] Layer inception_3a/double_3x3_reduce_bn is using CAFFE engine.
I0417 16:46:32.017745 23546 net.cpp:133] Creating Layer inception_3a/double_3x3_reduce_bn
I0417 16:46:32.017748 23546 net.cpp:453] inception_3a/double_3x3_reduce_bn <- inception_3a/double_3x3_reduce
I0417 16:46:32.017752 23546 net.cpp:411] inception_3a/double_3x3_reduce_bn -> inception_3a/double_3x3_reduce_bn
I0417 16:46:32.017757 23546 net.cpp:163] Setting up inception_3a/double_3x3_reduce_bn
I0417 16:46:32.017768 23546 net.cpp:170] Top shape: 25 256 18 7 (806400)
I0417 16:46:32.017772 23546 layer_factory.hpp:74] Creating layer inception_3a/relu_double_3x3_reduce
I0417 16:46:32.017776 23546 net.cpp:133] Creating Layer inception_3a/relu_double_3x3_reduce
I0417 16:46:32.017777 23546 net.cpp:453] inception_3a/relu_double_3x3_reduce <- inception_3a/double_3x3_reduce_bn
I0417 16:46:32.017781 23546 net.cpp:400] inception_3a/relu_double_3x3_reduce -> inception_3a/double_3x3_reduce_bn (in-place)
I0417 16:46:32.017784 23546 net.cpp:163] Setting up inception_3a/relu_double_3x3_reduce
I0417 16:46:32.017979 23546 net.cpp:170] Top shape: 25 256 18 7 (806400)
I0417 16:46:32.017985 23546 layer_factory.hpp:74] Creating layer inception_3a/double_3x3_1
I0417 16:46:32.017992 23546 net.cpp:133] Creating Layer inception_3a/double_3x3_1
I0417 16:46:32.017993 23546 net.cpp:453] inception_3a/double_3x3_1 <- inception_3a/double_3x3_reduce_bn
I0417 16:46:32.017997 23546 net.cpp:411] inception_3a/double_3x3_1 -> inception_3a/double_3x3_1
I0417 16:46:32.018002 23546 net.cpp:163] Setting up inception_3a/double_3x3_1
I0417 16:46:32.108548 23546 net.cpp:170] Top shape: 25 256 18 7 (806400)
I0417 16:46:32.108558 23546 layer_factory.hpp:74] Creating layer inception_3a/double_3x3_1_bn
I0417 16:46:32.108561 23546 layer_factory.cpp:191] Layer inception_3a/double_3x3_1_bn is using CAFFE engine.
I0417 16:46:32.108566 23546 net.cpp:133] Creating Layer inception_3a/double_3x3_1_bn
I0417 16:46:32.108567 23546 net.cpp:453] inception_3a/double_3x3_1_bn <- inception_3a/double_3x3_1
I0417 16:46:32.108572 23546 net.cpp:411] inception_3a/double_3x3_1_bn -> inception_3a/double_3x3_1_bn
I0417 16:46:32.108577 23546 net.cpp:163] Setting up inception_3a/double_3x3_1_bn
I0417 16:46:32.108585 23546 net.cpp:170] Top shape: 25 256 18 7 (806400)
I0417 16:46:32.108590 23546 layer_factory.hpp:74] Creating layer inception_3a/relu_double_3x3_1
I0417 16:46:32.108594 23546 net.cpp:133] Creating Layer inception_3a/relu_double_3x3_1
I0417 16:46:32.108597 23546 net.cpp:453] inception_3a/relu_double_3x3_1 <- inception_3a/double_3x3_1_bn
I0417 16:46:32.108598 23546 net.cpp:400] inception_3a/relu_double_3x3_1 -> inception_3a/double_3x3_1_bn (in-place)
I0417 16:46:32.108602 23546 net.cpp:163] Setting up inception_3a/relu_double_3x3_1
I0417 16:46:32.108710 23546 net.cpp:170] Top shape: 25 256 18 7 (806400)
I0417 16:46:32.108714 23546 layer_factory.hpp:74] Creating layer inception_3a/double_3x3_2
I0417 16:46:32.108719 23546 net.cpp:133] Creating Layer inception_3a/double_3x3_2
I0417 16:46:32.108722 23546 net.cpp:453] inception_3a/double_3x3_2 <- inception_3a/double_3x3_1_bn
I0417 16:46:32.108726 23546 net.cpp:411] inception_3a/double_3x3_2 -> inception_3a/double_3x3_2
I0417 16:46:32.108729 23546 net.cpp:163] Setting up inception_3a/double_3x3_2
I0417 16:46:32.198951 23546 net.cpp:170] Top shape: 25 256 18 7 (806400)
I0417 16:46:32.198961 23546 layer_factory.hpp:74] Creating layer inception_3a/double_3x3_2_bn
I0417 16:46:32.198964 23546 layer_factory.cpp:191] Layer inception_3a/double_3x3_2_bn is using CAFFE engine.
I0417 16:46:32.198968 23546 net.cpp:133] Creating Layer inception_3a/double_3x3_2_bn
I0417 16:46:32.198971 23546 net.cpp:453] inception_3a/double_3x3_2_bn <- inception_3a/double_3x3_2
I0417 16:46:32.198976 23546 net.cpp:411] inception_3a/double_3x3_2_bn -> inception_3a/double_3x3_2_bn
I0417 16:46:32.198979 23546 net.cpp:163] Setting up inception_3a/double_3x3_2_bn
I0417 16:46:32.198989 23546 net.cpp:170] Top shape: 25 256 18 7 (806400)
I0417 16:46:32.198994 23546 layer_factory.hpp:74] Creating layer inception_3a/relu_double_3x3_2
I0417 16:46:32.198997 23546 net.cpp:133] Creating Layer inception_3a/relu_double_3x3_2
I0417 16:46:32.198999 23546 net.cpp:453] inception_3a/relu_double_3x3_2 <- inception_3a/double_3x3_2_bn
I0417 16:46:32.199002 23546 net.cpp:400] inception_3a/relu_double_3x3_2 -> inception_3a/double_3x3_2_bn (in-place)
I0417 16:46:32.199005 23546 net.cpp:163] Setting up inception_3a/relu_double_3x3_2
I0417 16:46:32.199189 23546 net.cpp:170] Top shape: 25 256 18 7 (806400)
I0417 16:46:32.199195 23546 layer_factory.hpp:74] Creating layer inception_3a/pool
I0417 16:46:32.199198 23546 layer_factory.cpp:64] CUDNN does not support padding or multiple tops. Using Caffe's own pooling layer.
I0417 16:46:32.199201 23546 net.cpp:133] Creating Layer inception_3a/pool
I0417 16:46:32.199203 23546 net.cpp:453] inception_3a/pool <- inception_2b/output_inception_2b/output_0_split_3
I0417 16:46:32.199208 23546 net.cpp:411] inception_3a/pool -> inception_3a/pool
I0417 16:46:32.199211 23546 net.cpp:163] Setting up inception_3a/pool
I0417 16:46:32.199215 23546 net.cpp:170] Top shape: 25 768 18 7 (2419200)
I0417 16:46:32.199218 23546 layer_factory.hpp:74] Creating layer inception_3a/pool_proj
I0417 16:46:32.199223 23546 net.cpp:133] Creating Layer inception_3a/pool_proj
I0417 16:46:32.199223 23546 net.cpp:453] inception_3a/pool_proj <- inception_3a/pool
I0417 16:46:32.199228 23546 net.cpp:411] inception_3a/pool_proj -> inception_3a/pool_proj
I0417 16:46:32.199231 23546 net.cpp:163] Setting up inception_3a/pool_proj
I0417 16:46:32.384364 23546 net.cpp:170] Top shape: 25 256 18 7 (806400)
I0417 16:46:32.384374 23546 layer_factory.hpp:74] Creating layer inception_3a/pool_proj_bn
I0417 16:46:32.384377 23546 layer_factory.cpp:191] Layer inception_3a/pool_proj_bn is using CAFFE engine.
I0417 16:46:32.384382 23546 net.cpp:133] Creating Layer inception_3a/pool_proj_bn
I0417 16:46:32.384384 23546 net.cpp:453] inception_3a/pool_proj_bn <- inception_3a/pool_proj
I0417 16:46:32.384388 23546 net.cpp:411] inception_3a/pool_proj_bn -> inception_3a/pool_proj_bn
I0417 16:46:32.384393 23546 net.cpp:163] Setting up inception_3a/pool_proj_bn
I0417 16:46:32.384404 23546 net.cpp:170] Top shape: 25 256 18 7 (806400)
I0417 16:46:32.384409 23546 layer_factory.hpp:74] Creating layer inception_3a/relu_pool_proj
I0417 16:46:32.384413 23546 net.cpp:133] Creating Layer inception_3a/relu_pool_proj
I0417 16:46:32.384414 23546 net.cpp:453] inception_3a/relu_pool_proj <- inception_3a/pool_proj_bn
I0417 16:46:32.384418 23546 net.cpp:400] inception_3a/relu_pool_proj -> inception_3a/pool_proj_bn (in-place)
I0417 16:46:32.384420 23546 net.cpp:163] Setting up inception_3a/relu_pool_proj
I0417 16:46:32.384606 23546 net.cpp:170] Top shape: 25 256 18 7 (806400)
I0417 16:46:32.384613 23546 layer_factory.hpp:74] Creating layer inception_3a/output
I0417 16:46:32.384618 23546 net.cpp:133] Creating Layer inception_3a/output
I0417 16:46:32.384619 23546 net.cpp:453] inception_3a/output <- inception_3a/1x1_bn
I0417 16:46:32.384623 23546 net.cpp:453] inception_3a/output <- inception_3a/3x3_bn
I0417 16:46:32.384624 23546 net.cpp:453] inception_3a/output <- inception_3a/double_3x3_2_bn
I0417 16:46:32.384627 23546 net.cpp:453] inception_3a/output <- inception_3a/pool_proj_bn
I0417 16:46:32.384630 23546 net.cpp:411] inception_3a/output -> inception_3a/output
I0417 16:46:32.384634 23546 net.cpp:163] Setting up inception_3a/output
I0417 16:46:32.384637 23546 net.cpp:170] Top shape: 25 1024 18 7 (3225600)
I0417 16:46:32.384641 23546 layer_factory.hpp:74] Creating layer inception_3a/output_inception_3a/output_0_split
I0417 16:46:32.384645 23546 net.cpp:133] Creating Layer inception_3a/output_inception_3a/output_0_split
I0417 16:46:32.384647 23546 net.cpp:453] inception_3a/output_inception_3a/output_0_split <- inception_3a/output
I0417 16:46:32.384650 23546 net.cpp:411] inception_3a/output_inception_3a/output_0_split -> inception_3a/output_inception_3a/output_0_split_0
I0417 16:46:32.384654 23546 net.cpp:411] inception_3a/output_inception_3a/output_0_split -> inception_3a/output_inception_3a/output_0_split_1
I0417 16:46:32.384657 23546 net.cpp:411] inception_3a/output_inception_3a/output_0_split -> inception_3a/output_inception_3a/output_0_split_2
I0417 16:46:32.384660 23546 net.cpp:163] Setting up inception_3a/output_inception_3a/output_0_split
I0417 16:46:32.384663 23546 net.cpp:170] Top shape: 25 1024 18 7 (3225600)
I0417 16:46:32.384666 23546 net.cpp:170] Top shape: 25 1024 18 7 (3225600)
I0417 16:46:32.384668 23546 net.cpp:170] Top shape: 25 1024 18 7 (3225600)
I0417 16:46:32.384670 23546 layer_factory.hpp:74] Creating layer inception_3b/3x3_reduce
I0417 16:46:32.384675 23546 net.cpp:133] Creating Layer inception_3b/3x3_reduce
I0417 16:46:32.384676 23546 net.cpp:453] inception_3b/3x3_reduce <- inception_3a/output_inception_3a/output_0_split_0
I0417 16:46:32.384680 23546 net.cpp:411] inception_3b/3x3_reduce -> inception_3b/3x3_reduce
I0417 16:46:32.384685 23546 net.cpp:163] Setting up inception_3b/3x3_reduce
I0417 16:46:32.632455 23546 net.cpp:170] Top shape: 25 256 18 7 (806400)
I0417 16:46:32.632468 23546 layer_factory.hpp:74] Creating layer inception_3b/3x3_reduce_bn
I0417 16:46:32.632472 23546 layer_factory.cpp:191] Layer inception_3b/3x3_reduce_bn is using CAFFE engine.
I0417 16:46:32.632477 23546 net.cpp:133] Creating Layer inception_3b/3x3_reduce_bn
I0417 16:46:32.632479 23546 net.cpp:453] inception_3b/3x3_reduce_bn <- inception_3b/3x3_reduce
I0417 16:46:32.632484 23546 net.cpp:411] inception_3b/3x3_reduce_bn -> inception_3b/3x3_reduce_bn
I0417 16:46:32.632489 23546 net.cpp:163] Setting up inception_3b/3x3_reduce_bn
I0417 16:46:32.632500 23546 net.cpp:170] Top shape: 25 256 18 7 (806400)
I0417 16:46:32.632505 23546 layer_factory.hpp:74] Creating layer inception_3b/relu_3x3_reduce
I0417 16:46:32.632508 23546 net.cpp:133] Creating Layer inception_3b/relu_3x3_reduce
I0417 16:46:32.632510 23546 net.cpp:453] inception_3b/relu_3x3_reduce <- inception_3b/3x3_reduce_bn
I0417 16:46:32.632513 23546 net.cpp:400] inception_3b/relu_3x3_reduce -> inception_3b/3x3_reduce_bn (in-place)
I0417 16:46:32.632515 23546 net.cpp:163] Setting up inception_3b/relu_3x3_reduce
I0417 16:46:32.632632 23546 net.cpp:170] Top shape: 25 256 18 7 (806400)
I0417 16:46:32.632635 23546 layer_factory.hpp:74] Creating layer inception_3b/3x3
I0417 16:46:32.632642 23546 net.cpp:133] Creating Layer inception_3b/3x3
I0417 16:46:32.632643 23546 net.cpp:453] inception_3b/3x3 <- inception_3b/3x3_reduce_bn
I0417 16:46:32.632648 23546 net.cpp:411] inception_3b/3x3 -> inception_3b/3x3
I0417 16:46:32.632652 23546 net.cpp:163] Setting up inception_3b/3x3
I0417 16:46:32.653430 23546 net.cpp:170] Top shape: 25 256 9 4 (230400)
I0417 16:46:32.653440 23546 layer_factory.hpp:74] Creating layer inception_3b/3x3_bn
I0417 16:46:32.653444 23546 layer_factory.cpp:191] Layer inception_3b/3x3_bn is using CAFFE engine.
I0417 16:46:32.653447 23546 net.cpp:133] Creating Layer inception_3b/3x3_bn
I0417 16:46:32.653450 23546 net.cpp:453] inception_3b/3x3_bn <- inception_3b/3x3
I0417 16:46:32.653453 23546 net.cpp:411] inception_3b/3x3_bn -> inception_3b/3x3_bn
I0417 16:46:32.653458 23546 net.cpp:163] Setting up inception_3b/3x3_bn
I0417 16:46:32.653467 23546 net.cpp:170] Top shape: 25 256 9 4 (230400)
I0417 16:46:32.653472 23546 layer_factory.hpp:74] Creating layer inception_3b/relu_3x3
I0417 16:46:32.653475 23546 net.cpp:133] Creating Layer inception_3b/relu_3x3
I0417 16:46:32.653477 23546 net.cpp:453] inception_3b/relu_3x3 <- inception_3b/3x3_bn
I0417 16:46:32.653481 23546 net.cpp:400] inception_3b/relu_3x3 -> inception_3b/3x3_bn (in-place)
I0417 16:46:32.653483 23546 net.cpp:163] Setting up inception_3b/relu_3x3
I0417 16:46:32.653669 23546 net.cpp:170] Top shape: 25 256 9 4 (230400)
I0417 16:46:32.653676 23546 layer_factory.hpp:74] Creating layer inception_3b/double_3x3_reduce
I0417 16:46:32.653681 23546 net.cpp:133] Creating Layer inception_3b/double_3x3_reduce
I0417 16:46:32.653682 23546 net.cpp:453] inception_3b/double_3x3_reduce <- inception_3a/output_inception_3a/output_0_split_1
I0417 16:46:32.653687 23546 net.cpp:411] inception_3b/double_3x3_reduce -> inception_3b/double_3x3_reduce
I0417 16:46:32.653692 23546 net.cpp:163] Setting up inception_3b/double_3x3_reduce
I0417 16:46:32.900544 23546 net.cpp:170] Top shape: 25 256 18 7 (806400)
I0417 16:46:32.900558 23546 layer_factory.hpp:74] Creating layer inception_3b/double_3x3_reduce_bn
I0417 16:46:32.900563 23546 layer_factory.cpp:191] Layer inception_3b/double_3x3_reduce_bn is using CAFFE engine.
I0417 16:46:32.900568 23546 net.cpp:133] Creating Layer inception_3b/double_3x3_reduce_bn
I0417 16:46:32.900571 23546 net.cpp:453] inception_3b/double_3x3_reduce_bn <- inception_3b/double_3x3_reduce
I0417 16:46:32.900576 23546 net.cpp:411] inception_3b/double_3x3_reduce_bn -> inception_3b/double_3x3_reduce_bn
I0417 16:46:32.900581 23546 net.cpp:163] Setting up inception_3b/double_3x3_reduce_bn
I0417 16:46:32.900593 23546 net.cpp:170] Top shape: 25 256 18 7 (806400)
I0417 16:46:32.900596 23546 layer_factory.hpp:74] Creating layer inception_3b/relu_double_3x3_reduce
I0417 16:46:32.900624 23546 net.cpp:133] Creating Layer inception_3b/relu_double_3x3_reduce
I0417 16:46:32.900627 23546 net.cpp:453] inception_3b/relu_double_3x3_reduce <- inception_3b/double_3x3_reduce_bn
I0417 16:46:32.900630 23546 net.cpp:400] inception_3b/relu_double_3x3_reduce -> inception_3b/double_3x3_reduce_bn (in-place)
I0417 16:46:32.900634 23546 net.cpp:163] Setting up inception_3b/relu_double_3x3_reduce
I0417 16:46:32.900840 23546 net.cpp:170] Top shape: 25 256 18 7 (806400)
I0417 16:46:32.900846 23546 layer_factory.hpp:74] Creating layer inception_3b/double_3x3_1
I0417 16:46:32.900851 23546 net.cpp:133] Creating Layer inception_3b/double_3x3_1
I0417 16:46:32.900853 23546 net.cpp:453] inception_3b/double_3x3_1 <- inception_3b/double_3x3_reduce_bn
I0417 16:46:32.900857 23546 net.cpp:411] inception_3b/double_3x3_1 -> inception_3b/double_3x3_1
I0417 16:46:32.900861 23546 net.cpp:163] Setting up inception_3b/double_3x3_1
I0417 16:46:32.990895 23546 net.cpp:170] Top shape: 25 256 18 7 (806400)
I0417 16:46:32.990906 23546 layer_factory.hpp:74] Creating layer inception_3b/double_3x3_1_bn
I0417 16:46:32.990907 23546 layer_factory.cpp:191] Layer inception_3b/double_3x3_1_bn is using CAFFE engine.
I0417 16:46:32.990912 23546 net.cpp:133] Creating Layer inception_3b/double_3x3_1_bn
I0417 16:46:32.990914 23546 net.cpp:453] inception_3b/double_3x3_1_bn <- inception_3b/double_3x3_1
I0417 16:46:32.990918 23546 net.cpp:411] inception_3b/double_3x3_1_bn -> inception_3b/double_3x3_1_bn
I0417 16:46:32.990923 23546 net.cpp:163] Setting up inception_3b/double_3x3_1_bn
I0417 16:46:32.990933 23546 net.cpp:170] Top shape: 25 256 18 7 (806400)
I0417 16:46:32.990938 23546 layer_factory.hpp:74] Creating layer inception_3b/relu_double_3x3_1
I0417 16:46:32.990942 23546 net.cpp:133] Creating Layer inception_3b/relu_double_3x3_1
I0417 16:46:32.990943 23546 net.cpp:453] inception_3b/relu_double_3x3_1 <- inception_3b/double_3x3_1_bn
I0417 16:46:32.990947 23546 net.cpp:400] inception_3b/relu_double_3x3_1 -> inception_3b/double_3x3_1_bn (in-place)
I0417 16:46:32.990949 23546 net.cpp:163] Setting up inception_3b/relu_double_3x3_1
I0417 16:46:32.991065 23546 net.cpp:170] Top shape: 25 256 18 7 (806400)
I0417 16:46:32.991070 23546 layer_factory.hpp:74] Creating layer inception_3b/double_3x3_2
I0417 16:46:32.991075 23546 net.cpp:133] Creating Layer inception_3b/double_3x3_2
I0417 16:46:32.991076 23546 net.cpp:453] inception_3b/double_3x3_2 <- inception_3b/double_3x3_1_bn
I0417 16:46:32.991080 23546 net.cpp:411] inception_3b/double_3x3_2 -> inception_3b/double_3x3_2
I0417 16:46:32.991085 23546 net.cpp:163] Setting up inception_3b/double_3x3_2
I0417 16:46:33.011701 23546 net.cpp:170] Top shape: 25 256 9 4 (230400)
I0417 16:46:33.011711 23546 layer_factory.hpp:74] Creating layer inception_3b/double_3x3_2_bn
I0417 16:46:33.011713 23546 layer_factory.cpp:191] Layer inception_3b/double_3x3_2_bn is using CAFFE engine.
I0417 16:46:33.011718 23546 net.cpp:133] Creating Layer inception_3b/double_3x3_2_bn
I0417 16:46:33.011720 23546 net.cpp:453] inception_3b/double_3x3_2_bn <- inception_3b/double_3x3_2
I0417 16:46:33.011724 23546 net.cpp:411] inception_3b/double_3x3_2_bn -> inception_3b/double_3x3_2_bn
I0417 16:46:33.011729 23546 net.cpp:163] Setting up inception_3b/double_3x3_2_bn
I0417 16:46:33.011739 23546 net.cpp:170] Top shape: 25 256 9 4 (230400)
I0417 16:46:33.011744 23546 layer_factory.hpp:74] Creating layer inception_3b/relu_double_3x3_2
I0417 16:46:33.011747 23546 net.cpp:133] Creating Layer inception_3b/relu_double_3x3_2
I0417 16:46:33.011749 23546 net.cpp:453] inception_3b/relu_double_3x3_2 <- inception_3b/double_3x3_2_bn
I0417 16:46:33.011752 23546 net.cpp:400] inception_3b/relu_double_3x3_2 -> inception_3b/double_3x3_2_bn (in-place)
I0417 16:46:33.011755 23546 net.cpp:163] Setting up inception_3b/relu_double_3x3_2
I0417 16:46:33.011940 23546 net.cpp:170] Top shape: 25 256 9 4 (230400)
I0417 16:46:33.011945 23546 layer_factory.hpp:74] Creating layer inception_3b/pool
I0417 16:46:33.011948 23546 layer_factory.cpp:64] CUDNN does not support padding or multiple tops. Using Caffe's own pooling layer.
I0417 16:46:33.011951 23546 net.cpp:133] Creating Layer inception_3b/pool
I0417 16:46:33.011953 23546 net.cpp:453] inception_3b/pool <- inception_3a/output_inception_3a/output_0_split_2
I0417 16:46:33.011957 23546 net.cpp:411] inception_3b/pool -> inception_3b/pool
I0417 16:46:33.011961 23546 net.cpp:163] Setting up inception_3b/pool
I0417 16:46:33.011965 23546 net.cpp:170] Top shape: 25 1024 9 4 (921600)
I0417 16:46:33.011967 23546 layer_factory.hpp:74] Creating layer inception_3b/output
I0417 16:46:33.011970 23546 net.cpp:133] Creating Layer inception_3b/output
I0417 16:46:33.011972 23546 net.cpp:453] inception_3b/output <- inception_3b/3x3_bn
I0417 16:46:33.011976 23546 net.cpp:453] inception_3b/output <- inception_3b/double_3x3_2_bn
I0417 16:46:33.011977 23546 net.cpp:453] inception_3b/output <- inception_3b/pool
I0417 16:46:33.011981 23546 net.cpp:411] inception_3b/output -> inception_3b/output
I0417 16:46:33.011983 23546 net.cpp:163] Setting up inception_3b/output
I0417 16:46:33.011987 23546 net.cpp:170] Top shape: 25 1536 9 4 (1382400)
I0417 16:46:33.011989 23546 layer_factory.hpp:74] Creating layer global_pool
I0417 16:46:33.011991 23546 net.cpp:133] Creating Layer global_pool
I0417 16:46:33.011993 23546 net.cpp:453] global_pool <- inception_3b/output
I0417 16:46:33.011996 23546 net.cpp:411] global_pool -> global_pool
I0417 16:46:33.011999 23546 net.cpp:163] Setting up global_pool
I0417 16:46:33.012171 23546 net.cpp:170] Top shape: 25 1536 1 1 (38400)
I0417 16:46:33.012177 23546 layer_factory.hpp:74] Creating layer gather_global_pool_to_fc7
I0417 16:46:33.012181 23546 net.cpp:133] Creating Layer gather_global_pool_to_fc7
I0417 16:46:33.012183 23546 net.cpp:453] gather_global_pool_to_fc7 <- global_pool
I0417 16:46:33.012187 23546 net.cpp:411] gather_global_pool_to_fc7 -> gathered_global_pool
I0417 16:46:33.012190 23546 net.cpp:163] Setting up gather_global_pool_to_fc7
I0417 16:46:33.012193 23546 net.cpp:170] Top shape: 50 1536 1 1 (76800)
I0417 16:46:33.012195 23546 layer_factory.hpp:74] Creating layer fc7
I0417 16:46:33.012199 23546 net.cpp:133] Creating Layer fc7
I0417 16:46:33.012200 23546 net.cpp:453] fc7 <- gathered_global_pool
I0417 16:46:33.012203 23546 net.cpp:411] fc7 -> fc7
I0417 16:46:33.012207 23546 net.cpp:163] Setting up fc7
I0417 16:46:33.013737 23546 net.cpp:170] Top shape: 50 256 (12800)
I0417 16:46:33.013743 23546 layer_factory.hpp:74] Creating layer fc7_bn
I0417 16:46:33.013746 23546 layer_factory.cpp:191] Layer fc7_bn is using CAFFE engine.
I0417 16:46:33.013749 23546 net.cpp:133] Creating Layer fc7_bn
I0417 16:46:33.013751 23546 net.cpp:453] fc7_bn <- fc7
I0417 16:46:33.013754 23546 net.cpp:411] fc7_bn -> fc7_bn
I0417 16:46:33.013757 23546 net.cpp:163] Setting up fc7_bn
I0417 16:46:33.013767 23546 net.cpp:170] Top shape: 50 256 (12800)
I0417 16:46:33.013772 23546 layer_factory.hpp:74] Creating layer relu7
I0417 16:46:33.013774 23546 net.cpp:133] Creating Layer relu7
I0417 16:46:33.013777 23546 net.cpp:453] relu7 <- fc7_bn
I0417 16:46:33.013779 23546 net.cpp:400] relu7 -> fc7_bn (in-place)
I0417 16:46:33.013782 23546 net.cpp:163] Setting up relu7
I0417 16:46:33.013967 23546 net.cpp:170] Top shape: 50 256 (12800)
I0417 16:46:33.013972 23546 layer_factory.hpp:74] Creating layer drop7
I0417 16:46:33.013977 23546 net.cpp:133] Creating Layer drop7
I0417 16:46:33.013978 23546 net.cpp:453] drop7 <- fc7_bn
I0417 16:46:33.013981 23546 net.cpp:400] drop7 -> fc7_bn (in-place)
I0417 16:46:33.013984 23546 net.cpp:163] Setting up drop7
I0417 16:46:33.013989 23546 net.cpp:170] Top shape: 50 256 (12800)
I0417 16:46:33.013991 23546 layer_factory.hpp:74] Creating layer fc8_viper
I0417 16:46:33.013994 23546 net.cpp:133] Creating Layer fc8_viper
I0417 16:46:33.013996 23546 net.cpp:453] fc8_viper <- fc7_bn
I0417 16:46:33.014000 23546 net.cpp:411] fc8_viper -> fc8_viper
I0417 16:46:33.014004 23546 net.cpp:163] Setting up fc8_viper
I0417 16:46:33.015120 23546 net.cpp:170] Top shape: 50 632 (31600)
I0417 16:46:33.015126 23546 layer_factory.hpp:74] Creating layer gather_data_to_loss
I0417 16:46:33.015130 23546 net.cpp:133] Creating Layer gather_data_to_loss
I0417 16:46:33.015131 23546 net.cpp:453] gather_data_to_loss <- label
I0417 16:46:33.015136 23546 net.cpp:411] gather_data_to_loss -> gathered_label
I0417 16:46:33.015138 23546 net.cpp:163] Setting up gather_data_to_loss
I0417 16:46:33.015141 23546 net.cpp:170] Top shape: 50 (50)
I0417 16:46:33.015143 23546 layer_factory.hpp:74] Creating layer loss
I0417 16:46:33.015146 23546 net.cpp:133] Creating Layer loss
I0417 16:46:33.015148 23546 net.cpp:453] loss <- fc8_viper
I0417 16:46:33.015151 23546 net.cpp:453] loss <- gathered_label
I0417 16:46:33.015153 23546 net.cpp:411] loss -> loss
I0417 16:46:33.015156 23546 net.cpp:163] Setting up loss
I0417 16:46:33.015161 23546 layer_factory.hpp:74] Creating layer loss
…
I0417 16:46:33.021188 23546 net.cpp:330] The NetState phase (1) differed from the phase (0) specified by a rule in layer data
I0417 16:46:33.021798 23546 net.cpp:47] Initializing net from parameters: 
name: "VIPeR"
state {
  phase: TEST
}
richness: 1000
layer {
  name: "data"
  type: "Data"
  top: "data"
  top: "label"
  include {
    phase: TEST
  }
  transform_param {
    mirror: false
    mean_value: 102
    mean_value: 102
    mean_value: 101
    crop_height: 144
    crop_width: 56
  }
  data_param {
    source: "external/exp/db/viper/val_lmdb"
    batch_size: 20
    backend: LMDB
  }
}
layer {
  name: "conv1"
  type: "Convolution"
  bottom: "data"
  top: "conv1"
  param {
    lr_mult: 1
    decay_mult: 1
  }
  param {
    lr_mult: 2
    decay_mult: 0
  }
  convolution_param {
    num_output: 32
    pad: 1
    kernel_size: 3
    stride: 1
    weight_filler {
      type: "xavier"
    }
    bias_filler {
      type: "constant"
      value: 0.2
    }
  }
}
layer {
  name: "conv1_bn"
  type: "BN"
  bottom: "conv1"
  top: "conv1_bn"
  param {
    lr_mult: 1
    decay_mult: 0
  }
  param {
    lr_mult: 1
    decay_mult: 0
  }
  bn_param {
    slope_filler {
      type: "constant"
      value: 1
    }
    bias_filler {
      type: "constant"
      value: 0
    }
  }
}
layer {
  name: "relu1"
  type: "ReLU"
  bottom: "conv1_bn"
  top: "conv1_bn"
}
layer {
  name: "conv2"
  type: "Convolution"
  bottom: "conv1_bn"
  top: "conv2"
  param {
    lr_mult: 1
    decay_mult: 1
  }
  param {
    lr_mult: 2
    decay_mult: 0
  }
  convolution_param {
    num_output: 32
    pad: 1
    kernel_size: 3
    stride: 1
    weight_filler {
      type: "xavier"
    }
    bias_filler {
      type: "constant"
      value: 0.2
    }
  }
}
layer {
  name: "conv2_bn"
  type: "BN"
  bottom: "conv2"
  top: "conv2_bn"
  param {
    lr_mult: 1
    decay_mult: 0
  }
  param {
    lr_mult: 1
    decay_mult: 0
  }
  bn_param {
    slope_filler {
      type: "constant"
      value: 1
    }
    bias_filler {
      type: "constant"
      value: 0
    }
  }
}
layer {
  name: "relu2"
  type: "ReLU"
  bottom: "conv2_bn"
  top: "conv2_bn"
}
layer {
  name: "conv3"
  type: "Convolution"
  bottom: "conv2_bn"
  top: "conv3"
  param {
    lr_mult: 1
    decay_mult: 1
  }
  param {
    lr_mult: 2
    decay_mult: 0
  }
  convolution_param {
    num_output: 32
    pad: 1
    kernel_size: 3
    stride: 1
    weight_filler {
      type: "xavier"
    }
    bias_filler {
      type: "constant"
      value: 0.2
    }
  }
}
layer {
  name: "conv3_bn"
  type: "BN"
  bottom: "conv3"
  top: "conv3_bn"
  param {
    lr_mult: 1
    decay_mult: 0
  }
  param {
    lr_mult: 1
    decay_mult: 0
  }
  bn_param {
    slope_filler {
      type: "constant"
      value: 1
    }
    bias_filler {
      type: "constant"
      value: 0
    }
  }
}
layer {
  name: "relu3"
  type: "ReLU"
  bottom: "conv3_bn"
  top: "conv3_bn"
}
layer {
  name: "pool1"
  type: "Pooling"
  bottom: "conv3_bn"
  top: "pool1"
  pooling_param {
    pool: MAX
    kernel_size: 2
    stride: 2
  }
}
layer {
  name: "inception_1a/1x1"
  type: "Convolution"
  bottom: "pool1"
  top: "inception_1a/1x1"
  param {
    lr_mult: 1
    decay_mult: 1
  }
  param {
    lr_mult: 2
    decay_mult: 0
  }
  convolution_param {
    num_output: 64
    kernel_size: 1
    weight_filler {
      type: "xavier"
    }
    bias_filler {
      type: "constant"
      value: 0.2
    }
  }
}
layer {
  name: "inception_1a/1x1_bn"
  type: "BN"
  bottom: "inception_1a/1x1"
  top: "inception_1a/1x1_bn"
  param {
    lr_mult: 1
    decay_mult: 0
  }
  param {
    lr_mult: 1
    decay_mult: 0
  }
  bn_param {
    slope_filler {
      type: "constant"
      value: 1
    }
    bias_filler {
      type: "constant"
      value: 0
    }
  }
}
layer {
  name: "inception_1a/relu_1x1"
  type: "ReLU"
  bottom: "inception_1a/1x1_bn"
  top: "inception_1a/1x1_bn"
}
layer {
  name: "inception_1a/3x3_reduce"
  type: "Convolution"
  bottom: "pool1"
  top: "inception_1a/3x3_reduce"
  param {
    lr_mult: 1
    decay_mult: 1
  }
  param {
    lr_mult: 2
    decay_mult: 0
  }
  convolution_param {
    num_output: 64
    kernel_size: 1
    weight_filler {
      type: "xavier"
    }
    bias_filler {
      type: "constant"
      value: 0.2
    }
  }
}
layer {
  name: "inception_1a/3x3_reduce_bn"
  type: "BN"
  bottom: "inception_1a/3x3_reduce"
  top: "inception_1a/3x3_reduce_bn"
  param {
    lr_mult: 1
    decay_mult: 0
  }
  param {
    lr_mult: 1
    decay_mult: 0
  }
  bn_param {
    slope_filler {
      type: "constant"
      value: 1
    }
    bias_filler {
      type: "constant"
      value: 0
    }
  }
}
layer {
  name: "inception_1a/relu_3x3_reduce"
  type: "ReLU"
  bottom: "inception_1a/3x3_reduce_bn"
  top: "inception_1a/3x3_reduce_bn"
}
layer {
  name: "inception_1a/3x3"
  type: "Convolution"
  bottom: "inception_1a/3x3_reduce_bn"
  top: "inception_1a/3x3"
  param {
    lr_mult: 1
    decay_mult: 1
  }
  param {
    lr_mult: 2
    decay_mult: 0
  }
  convolution_param {
    num_output: 64
    pad: 1
    kernel_size: 3
    weight_filler {
      type: "xavier"
    }
    bias_filler {
      type: "constant"
      value: 0.2
    }
  }
}
layer {
  name: "inception_1a/3x3_bn"
  type: "BN"
  bottom: "inception_1a/3x3"
  top: "inception_1a/3x3_bn"
  param {
    lr_mult: 1
    decay_mult: 0
  }
  param {
    lr_mult: 1
    decay_mult: 0
  }
  bn_param {
    slope_filler {
      type: "constant"
      value: 1
    }
    bias_filler {
      type: "constant"
      value: 0
    }
  }
}
layer {
  name: "inception_1a/relu_3x3"
  type: "ReLU"
  bottom: "inception_1a/3x3_bn"
  top: "inception_1a/3x3_bn"
}
layer {
  name: "inception_1a/double_3x3_reduce"
  type: "Convolution"
  bottom: "pool1"
  top: "inception_1a/double_3x3_reduce"
  param {
    lr_mult: 1
    decay_mult: 1
  }
  param {
    lr_mult: 2
    decay_mult: 0
  }
  convolution_param {
    num_output: 64
    kernel_size: 1
    weight_filler {
      type: "xavier"
    }
    bias_filler {
      type: "constant"
      value: 0.2
    }
  }
}
layer {
  name: "inception_1a/double_3x3_reduce_bn"
  type: "BN"
  bottom: "inception_1a/double_3x3_reduce"
  top: "inception_1a/double_3x3_reduce_bn"
  param {
    lr_mult: 1
    decay_mult: 0
  }
  param {
    lr_mult: 1
    decay_mult: 0
  }
  bn_param {
    slope_filler {
      type: "constant"
      value: 1
    }
    bias_filler {
      type: "constant"
      value: 0
    }
  }
}
layer {
  name: "inception_1a/relu_double_3x3_reduce"
  type: "ReLU"
  bottom: "inception_1a/double_3x3_reduce_bn"
  top: "inception_1a/double_3x3_reduce_bn"
}
layer {
  name: "inception_1a/double_3x3_1"
  type: "Convolution"
  bottom: "inception_1a/double_3x3_reduce_bn"
  top: "inception_1a/double_3x3_1"
  param {
    lr_mult: 1
    decay_mult: 1
  }
  param {
    lr_mult: 2
    decay_mult: 0
  }
  convolution_param {
    num_output: 64
    pad: 1
    kernel_size: 3
    weight_filler {
      type: "xavier"
    }
    bias_filler {
      type: "constant"
      value: 0.2
    }
  }
}
layer {
  name: "inception_1a/double_3x3_1_bn"
  type: "BN"
  bottom: "inception_1a/double_3x3_1"
  top: "inception_1a/double_3x3_1_bn"
  param {
    lr_mult: 1
    decay_mult: 0
  }
  param {
    lr_mult: 1
    decay_mult: 0
  }
  bn_param {
    slope_filler {
      type: "constant"
      value: 1
    }
    bias_filler {
      type: "constant"
      value: 0
    }
  }
}
layer {
  name: "inception_1a/relu_double_3x3_1"
  type: "ReLU"
  bottom: "inception_1a/double_3x3_1_bn"
  top: "inception_1a/double_3x3_1_bn"
}
layer {
  name: "inception_1a/double_3x3_2"
  type: "Convolution"
  bottom: "inception_1a/double_3x3_1_bn"
  top: "inception_1a/double_3x3_2"
  param {
    lr_mult: 1
    decay_mult: 1
  }
  param {
    lr_mult: 2
    decay_mult: 0
  }
  convolution_param {
    num_output: 64
    pad: 1
    kernel_size: 3
    weight_filler {
      type: "xavier"
    }
    bias_filler {
      type: "constant"
      value: 0.2
    }
  }
}
layer {
  name: "inception_1a/double_3x3_2_bn"
  type: "BN"
  bottom: "inception_1a/double_3x3_2"
  top: "inception_1a/double_3x3_2_bn"
  param {
    lr_mult: 1
    decay_mult: 0
  }
  param {
    lr_mult: 1
    decay_mult: 0
  }
  bn_param {
    slope_filler {
      type: "constant"
      value: 1
    }
    bias_filler {
      type: "constant"
      value: 0
    }
  }
}
layer {
  name: "inception_1a/relu_double_3x3_2"
  type: "ReLU"
  bottom: "inception_1a/double_3x3_2_bn"
  top: "inception_1a/double_3x3_2_bn"
}
layer {
  name: "inception_1a/pool"
  type: "Pooling"
  bottom: "pool1"
  top: "inception_1a/pool"
  pooling_param {
    pool: AVE
    kernel_size: 3
    stride: 1
    pad: 1
  }
}
layer {
  name: "inception_1a/pool_proj"
  type: "Convolution"
  bottom: "inception_1a/pool"
  top: "inception_1a/pool_proj"
  param {
    lr_mult: 1
    decay_mult: 1
  }
  param {
    lr_mult: 2
    decay_mult: 0
  }
  convolution_param {
    num_output: 64
    kernel_size: 1
    weight_filler {
      type: "xavier"
    }
    bias_filler {
      type: "constant"
      value: 0.2
    }
  }
}
layer {
  name: "inception_1a/pool_proj_bn"
  type: "BN"
  bottom: "inception_1a/pool_proj"
  top: "inception_1a/pool_proj_bn"
  param {
    lr_mult: 1
    decay_mult: 0
  }
  param {
    lr_mult: 1
    decay_mult: 0
  }
  bn_param {
    slope_filler {
      type: "constant"
      value: 1
    }
    bias_filler {
      type: "constant"
      value: 0
    }
  }
}
layer {
  name: "inception_1a/relu_pool_proj"
  type: "ReLU"
  bottom: "inception_1a/pool_proj_bn"
  top: "inception_1a/pool_proj_bn"
}
layer {
  name: "inception_1a/output"
  type: "Concat"
  bottom: "inception_1a/1x1_bn"
  bottom: "inception_1a/3x3_bn"
  bottom: "inception_1a/double_3x3_2_bn"
  bottom: "inception_1a/pool_proj_bn"
  top: "inception_1a/output"
}
layer {
  name: "inception_1b/3x3_reduce"
  type: "Convolution"
  bottom: "inception_1a/output"
  top: "inception_1b/3x3_reduce"
  param {
    lr_mult: 1
    decay_mult: 1
  }
  param {
    lr_mult: 2
    decay_mult: 0
  }
  convolution_param {
    num_output: 64
    kernel_size: 1
    weight_filler {
      type: "xavier"
    }
    bias_filler {
      type: "constant"
      value: 0.2
    }
  }
}
layer {
  name: "inception_1b/3x3_reduce_bn"
  type: "BN"
  bottom: "inception_1b/3x3_reduce"
  top: "inception_1b/3x3_reduce_bn"
  param {
    lr_mult: 1
    decay_mult: 0
  }
  param {
    lr_mult: 1
    decay_mult: 0
  }
  bn_param {
    slope_filler {
      type: "constant"
      value: 1
    }
    bias_filler {
      type: "constant"
      value: 0
    }
  }
}
layer {
  name: "inception_1b/relu_3x3_reduce"
  type: "ReLU"
  bottom: "inception_1b/3x3_reduce_bn"
  top: "inception_1b/3x3_reduce_bn"
}
layer {
  name: "inception_1b/3x3"
  type: "Convolution"
  bottom: "inception_1b/3x3_reduce_bn"
  top: "inception_1b/3x3"
  param {
    lr_mult: 1
    decay_mult: 1
  }
  param {
    lr_mult: 2
    decay_mult: 0
  }
  convolution_param {
    num_output: 64
    pad: 1
    kernel_size: 3
    stride: 2
    weight_filler {
      type: "xavier"
    }
    bias_filler {
      type: "constant"
      value: 0.2
    }
  }
}
layer {
  name: "inception_1b/3x3_bn"
  type: "BN"
  bottom: "inception_1b/3x3"
  top: "inception_1b/3x3_bn"
  param {
    lr_mult: 1
    decay_mult: 0
  }
  param {
    lr_mult: 1
    decay_mult: 0
  }
  bn_param {
    slope_filler {
      type: "constant"
      value: 1
    }
    bias_filler {
      type: "constant"
      value: 0
    }
  }
}
layer {
  name: "inception_1b/relu_3x3"
  type: "ReLU"
  bottom: "inception_1b/3x3_bn"
  top: "inception_1b/3x3_bn"
}
layer {
  name: "inception_1b/double_3x3_reduce"
  type: "Convolution"
  bottom: "inception_1a/output"
  top: "inception_1b/double_3x3_reduce"
  param {
    lr_mult: 1
    decay_mult: 1
  }
  param {
    lr_mult: 2
    decay_mult: 0
  }
  convolution_param {
    num_output: 64
    kernel_size: 1
    weight_filler {
      type: "xavier"
    }
    bias_filler {
      type: "constant"
      value: 0.2
    }
  }
}
layer {
  name: "inception_1b/double_3x3_reduce_bn"
  type: "BN"
  bottom: "inception_1b/double_3x3_reduce"
  top: "inception_1b/double_3x3_reduce_bn"
  param {
    lr_mult: 1
    decay_mult: 0
  }
  param {
    lr_mult: 1
    decay_mult: 0
  }
  bn_param {
    slope_filler {
      type: "constant"
      value: 1
    }
    bias_filler {
      type: "constant"
      value: 0
    }
  }
}
layer {
  name: "inception_1b/relu_double_3x3_reduce"
  type: "ReLU"
  bottom: "inception_1b/double_3x3_reduce_bn"
  top: "inception_1b/double_3x3_reduce_bn"
}
layer {
  name: "inception_1b/double_3x3_1"
  type: "Convolution"
  bottom: "inception_1b/double_3x3_reduce_bn"
  top: "inception_1b/double_3x3_1"
  param {
    lr_mult: 1
    decay_mult: 1
  }
  param {
    lr_mult: 2
    decay_mult: 0
  }
  convolution_param {
    num_output: 64
    pad: 1
    kernel_size: 3
    weight_filler {
      type: "xavier"
    }
    bias_filler {
      type: "constant"
      value: 0.2
    }
  }
}
layer {
  name: "inception_1b/double_3x3_1_bn"
  type: "BN"
  bottom: "inception_1b/double_3x3_1"
  top: "inception_1b/double_3x3_1_bn"
  param {
    lr_mult: 1
    decay_mult: 0
  }
  param {
    lr_mult: 1
    decay_mult: 0
  }
  bn_param {
    slope_filler {
      type: "constant"
      value: 1
    }
    bias_filler {
      type: "constant"
      value: 0
    }
  }
}
layer {
  name: "inception_1b/relu_double_3x3_1"
  type: "ReLU"
  bottom: "inception_1b/double_3x3_1_bn"
  top: "inception_1b/double_3x3_1_bn"
}
layer {
  name: "inception_1b/double_3x3_2"
  type: "Convolution"
  bottom: "inception_1b/double_3x3_1_bn"
  top: "inception_1b/double_3x3_2"
  param {
    lr_mult: 1
    decay_mult: 1
  }
  param {
    lr_mult: 2
    decay_mult: 0
  }
  convolution_param {
    num_output: 64
    pad: 1
    kernel_size: 3
    stride: 2
    weight_filler {
      type: "xavier"
    }
    bias_filler {
      type: "constant"
      value: 0.2
    }
  }
}
layer {
  name: "inception_1b/double_3x3_2_bn"
  type: "BN"
  bottom: "inception_1b/double_3x3_2"
  top: "inception_1b/double_3x3_2_bn"
  param {
    lr_mult: 1
    decay_mult: 0
  }
  param {
    lr_mult: 1
    decay_mult: 0
  }
  bn_param {
    slope_filler {
      type: "constant"
      value: 1
    }
    bias_filler {
      type: "constant"
      value: 0
    }
  }
}
layer {
  name: "inception_1b/relu_double_3x3_2"
  type: "ReLU"
  bottom: "inception_1b/double_3x3_2_bn"
  top: "inception_1b/double_3x3_2_bn"
}
layer {
  name: "inception_1b/pool"
  type: "Pooling"
  bottom: "inception_1a/output"
  top: "inception_1b/pool"
  pooling_param {
    pool: MAX
    kernel_size: 3
    stride: 2
  }
}
layer {
  name: "inception_1b/output"
  type: "Concat"
  bottom: "inception_1b/3x3_bn"
  bottom: "inception_1b/double_3x3_2_bn"
  bottom: "inception_1b/pool"
  top: "inception_1b/output"
}
layer {
  name: "inception_2a/1x1"
  type: "Convolution"
  bottom: "inception_1b/output"
  top: "inception_2a/1x1"
  param {
    lr_mult: 1
    decay_mult: 1
  }
  param {
    lr_mult: 2
    decay_mult: 0
  }
  convolution_param {
    num_output: 128
    kernel_size: 1
    weight_filler {
      type: "xavier"
    }
    bias_filler {
      type: "constant"
      value: 0.2
    }
  }
}
layer {
  name: "inception_2a/1x1_bn"
  type: "BN"
  bottom: "inception_2a/1x1"
  top: "inception_2a/1x1_bn"
  param {
    lr_mult: 1
    decay_mult: 0
  }
  param {
    lr_mult: 1
    decay_mult: 0
  }
  bn_param {
    slope_filler {
      type: "constant"
      value: 1
    }
    bias_filler {
      type: "constant"
      value: 0
    }
  }
}
layer {
  name: "inception_2a/relu_1x1"
  type: "ReLU"
  bottom: "inception_2a/1x1_bn"
  top: "inception_2a/1x1_bn"
}
layer {
  name: "inception_2a/3x3_reduce"
  type: "Convolution"
  bottom: "inception_1b/output"
  top: "inception_2a/3x3_reduce"
  param {
    lr_mult: 1
    decay_mult: 1
  }
  param {
    lr_mult: 2
    decay_mult: 0
  }
  convolution_param {
    num_output: 128
    kernel_size: 1
    weight_filler {
      type: "xavier"
    }
    bias_filler {
      type: "constant"
      value: 0.2
    }
  }
}
layer {
  name: "inception_2a/3x3_reduce_bn"
  type: "BN"
  bottom: "inception_2a/3x3_reduce"
  top: "inception_2a/3x3_reduce_bn"
  param {
    lr_mult: 1
    decay_mult: 0
  }
  param {
    lr_mult: 1
    decay_mult: 0
  }
  bn_param {
    slope_filler {
      type: "constant"
      value: 1
    }
    bias_filler {
      type: "constant"
      value: 0
    }
  }
}
layer {
  name: "inception_2a/relu_3x3_reduce"
  type: "ReLU"
  bottom: "inception_2a/3x3_reduce_bn"
  top: "inception_2a/3x3_reduce_bn"
}
layer {
  name: "inception_2a/3x3"
  type: "Convolution"
  bottom: "inception_2a/3x3_reduce_bn"
  top: "inception_2a/3x3"
  param {
    lr_mult: 1
    decay_mult: 1
  }
  param {
    lr_mult: 2
    decay_mult: 0
  }
  convolution_param {
    num_output: 128
    pad: 1
    kernel_size: 3
    weight_filler {
      type: "xavier"
    }
    bias_filler {
      type: "constant"
      value: 0.2
    }
  }
}
layer {
  name: "inception_2a/3x3_bn"
  type: "BN"
  bottom: "inception_2a/3x3"
  top: "inception_2a/3x3_bn"
  param {
    lr_mult: 1
    decay_mult: 0
  }
  param {
    lr_mult: 1
    decay_mult: 0
  }
  bn_param {
    slope_filler {
      type: "constant"
      value: 1
    }
    bias_filler {
      type: "constant"
      value: 0
    }
  }
}
layer {
  name: "inception_2a/relu_3x3"
  type: "ReLU"
  bottom: "inception_2a/3x3_bn"
  top: "inception_2a/3x3_bn"
}
layer {
  name: "inception_2a/double_3x3_reduce"
  type: "Convolution"
  bottom: "inception_1b/output"
  top: "inception_2a/double_3x3_reduce"
  param {
    lr_mult: 1
    decay_mult: 1
  }
  param {
    lr_mult: 2
    decay_mult: 0
  }
  convolution_param {
    num_output: 128
    kernel_size: 1
    weight_filler {
      type: "xavier"
    }
    bias_filler {
      type: "constant"
      value: 0.2
    }
  }
}
layer {
  name: "inception_2a/double_3x3_reduce_bn"
  type: "BN"
  bottom: "inception_2a/double_3x3_reduce"
  top: "inception_2a/double_3x3_reduce_bn"
  param {
    lr_mult: 1
    decay_mult: 0
  }
  param {
    lr_mult: 1
    decay_mult: 0
  }
  bn_param {
    slope_filler {
      type: "constant"
      value: 1
    }
    bias_filler {
      type: "constant"
      value: 0
    }
  }
}
layer {
  name: "inception_2a/relu_double_3x3_reduce"
  type: "ReLU"
  bottom: "inception_2a/double_3x3_reduce_bn"
  top: "inception_2a/double_3x3_reduce_bn"
}
layer {
  name: "inception_2a/double_3x3_1"
  type: "Convolution"
  bottom: "inception_2a/double_3x3_reduce_bn"
  top: "inception_2a/double_3x3_1"
  param {
    lr_mult: 1
    decay_mult: 1
  }
  param {
    lr_mult: 2
    decay_mult: 0
  }
  convolution_param {
    num_output: 128
    pad: 1
    kernel_size: 3
    weight_filler {
      type: "xavier"
    }
    bias_filler {
      type: "constant"
      value: 0.2
    }
  }
}
layer {
  name: "inception_2a/double_3x3_1_bn"
  type: "BN"
  bottom: "inception_2a/double_3x3_1"
  top: "inception_2a/double_3x3_1_bn"
  param {
    lr_mult: 1
    decay_mult: 0
  }
  param {
    lr_mult: 1
    decay_mult: 0
  }
  bn_param {
    slope_filler {
      type: "constant"
      value: 1
    }
    bias_filler {
      type: "constant"
      value: 0
    }
  }
}
layer {
  name: "inception_2a/relu_double_3x3_1"
  type: "ReLU"
  bottom: "inception_2a/double_3x3_1_bn"
  top: "inception_2a/double_3x3_1_bn"
}
layer {
  name: "inception_2a/double_3x3_2"
  type: "Convolution"
  bottom: "inception_2a/double_3x3_1_bn"
  top: "inception_2a/double_3x3_2"
  param {
    lr_mult: 1
    decay_mult: 1
  }
  param {
    lr_mult: 2
    decay_mult: 0
  }
  convolution_param {
    num_output: 128
    pad: 1
    kernel_size: 3
    weight_filler {
      type: "xavier"
    }
    bias_filler {
      type: "constant"
      value: 0.2
    }
  }
}
layer {
  name: "inception_2a/double_3x3_2_bn"
  type: "BN"
  bottom: "inception_2a/double_3x3_2"
  top: "inception_2a/double_3x3_2_bn"
  param {
    lr_mult: 1
    decay_mult: 0
  }
  param {
    lr_mult: 1
    decay_mult: 0
  }
  bn_param {
    slope_filler {
      type: "constant"
      value: 1
    }
    bias_filler {
      type: "constant"
      value: 0
    }
  }
}
layer {
  name: "inception_2a/relu_double_3x3_2"
  type: "ReLU"
  bottom: "inception_2a/double_3x3_2_bn"
  top: "inception_2a/double_3x3_2_bn"
}
layer {
  name: "inception_2a/pool"
  type: "Pooling"
  bottom: "inception_1b/output"
  top: "inception_2a/pool"
  pooling_param {
    pool: AVE
    kernel_size: 3
    stride: 1
    pad: 1
  }
}
layer {
  name: "inception_2a/pool_proj"
  type: "Convolution"
  bottom: "inception_2a/pool"
  top: "inception_2a/pool_proj"
  param {
    lr_mult: 1
    decay_mult: 1
  }
  param {
    lr_mult: 2
    decay_mult: 0
  }
  convolution_param {
    num_output: 128
    kernel_size: 1
    weight_filler {
      type: "xavier"
    }
    bias_filler {
      type: "constant"
      value: 0.2
    }
  }
}
layer {
  name: "inception_2a/pool_proj_bn"
  type: "BN"
  bottom: "inception_2a/pool_proj"
  top: "inception_2a/pool_proj_bn"
  param {
    lr_mult: 1
    decay_mult: 0
  }
  param {
    lr_mult: 1
    decay_mult: 0
  }
  bn_param {
    slope_filler {
      type: "constant"
      value: 1
    }
    bias_filler {
      type: "constant"
      value: 0
    }
  }
}
layer {
  name: "inception_2a/relu_pool_proj"
  type: "ReLU"
  bottom: "inception_2a/pool_proj_bn"
  top: "inception_2a/pool_proj_bn"
}
layer {
  name: "inception_2a/output"
  type: "Concat"
  bottom: "inception_2a/1x1_bn"
  bottom: "inception_2a/3x3_bn"
  bottom: "inception_2a/double_3x3_2_bn"
  bottom: "inception_2a/pool_proj_bn"
  top: "inception_2a/output"
}
layer {
  name: "inception_2b/3x3_reduce"
  type: "Convolution"
  bottom: "inception_2a/output"
  top: "inception_2b/3x3_reduce"
  param {
    lr_mult: 1
    decay_mult: 1
  }
  param {
    lr_mult: 2
    decay_mult: 0
  }
  convolution_param {
    num_output: 128
    kernel_size: 1
    weight_filler {
      type: "xavier"
    }
    bias_filler {
      type: "constant"
      value: 0.2
    }
  }
}
layer {
  name: "inception_2b/3x3_reduce_bn"
  type: "BN"
  bottom: "inception_2b/3x3_reduce"
  top: "inception_2b/3x3_reduce_bn"
  param {
    lr_mult: 1
    decay_mult: 0
  }
  param {
    lr_mult: 1
    decay_mult: 0
  }
  bn_param {
    slope_filler {
      type: "constant"
      value: 1
    }
    bias_filler {
      type: "constant"
      value: 0
    }
  }
}
layer {
  name: "inception_2b/relu_3x3_reduce"
  type: "ReLU"
  bottom: "inception_2b/3x3_reduce_bn"
  top: "inception_2b/3x3_reduce_bn"
}
layer {
  name: "inception_2b/3x3"
  type: "Convolution"
  bottom: "inception_2b/3x3_reduce_bn"
  top: "inception_2b/3x3"
  param {
    lr_mult: 1
    decay_mult: 1
  }
  param {
    lr_mult: 2
    decay_mult: 0
  }
  convolution_param {
    num_output: 128
    pad: 1
    kernel_size: 3
    stride: 2
    weight_filler {
      type: "xavier"
    }
    bias_filler {
      type: "constant"
      value: 0.2
    }
  }
}
layer {
  name: "inception_2b/3x3_bn"
  type: "BN"
  bottom: "inception_2b/3x3"
  top: "inception_2b/3x3_bn"
  param {
    lr_mult: 1
    decay_mult: 0
  }
  param {
    lr_mult: 1
    decay_mult: 0
  }
  bn_param {
    slope_filler {
      type: "constant"
      value: 1
    }
    bias_filler {
      type: "constant"
      value: 0
    }
  }
}
layer {
  name: "inception_2b/relu_3x3"
  type: "ReLU"
  bottom: "inception_2b/3x3_bn"
  top: "inception_2b/3x3_bn"
}
layer {
  name: "inception_2b/double_3x3_reduce"
  type: "Convolution"
  bottom: "inception_2a/output"
  top: "inception_2b/double_3x3_reduce"
  param {
    lr_mult: 1
    decay_mult: 1
  }
  param {
    lr_mult: 2
    decay_mult: 0
  }
  convolution_param {
    num_output: 128
    kernel_size: 1
    weight_filler {
      type: "xavier"
    }
    bias_filler {
      type: "constant"
      value: 0.2
    }
  }
}
layer {
  name: "inception_2b/double_3x3_reduce_bn"
  type: "BN"
  bottom: "inception_2b/double_3x3_reduce"
  top: "inception_2b/double_3x3_reduce_bn"
  param {
    lr_mult: 1
    decay_mult: 0
  }
  param {
    lr_mult: 1
    decay_mult: 0
  }
  bn_param {
    slope_filler {
      type: "constant"
      value: 1
    }
    bias_filler {
      type: "constant"
      value: 0
    }
  }
}
layer {
  name: "inception_2b/relu_double_3x3_reduce"
  type: "ReLU"
  bottom: "inception_2b/double_3x3_reduce_bn"
  top: "inception_2b/double_3x3_reduce_bn"
}
layer {
  name: "inception_2b/double_3x3_1"
  type: "Convolution"
  bottom: "inception_2b/double_3x3_reduce_bn"
  top: "inception_2b/double_3x3_1"
  param {
    lr_mult: 1
    decay_mult: 1
  }
  param {
    lr_mult: 2
    decay_mult: 0
  }
  convolution_param {
    num_output: 128
    pad: 1
    kernel_size: 3
    weight_filler {
      type: "xavier"
    }
    bias_filler {
      type: "constant"
      value: 0.2
    }
  }
}
layer {
  name: "inception_2b/double_3x3_1_bn"
  type: "BN"
  bottom: "inception_2b/double_3x3_1"
  top: "inception_2b/double_3x3_1_bn"
  param {
    lr_mult: 1
    decay_mult: 0
  }
  param {
    lr_mult: 1
    decay_mult: 0
  }
  bn_param {
    slope_filler {
      type: "constant"
      value: 1
    }
    bias_filler {
      type: "constant"
      value: 0
    }
  }
}
layer {
  name: "inception_2b/relu_double_3x3_1"
  type: "ReLU"
  bottom: "inception_2b/double_3x3_1_bn"
  top: "inception_2b/double_3x3_1_bn"
}
layer {
  name: "inception_2b/double_3x3_2"
  type: "Convolution"
  bottom: "inception_2b/double_3x3_1_bn"
  top: "inception_2b/double_3x3_2"
  param {
    lr_mult: 1
    decay_mult: 1
  }
  param {
    lr_mult: 2
    decay_mult: 0
  }
  convolution_param {
    num_output: 128
    pad: 1
    kernel_size: 3
    stride: 2
    weight_filler {
      type: "xavier"
    }
    bias_filler {
      type: "constant"
      value: 0.2
    }
  }
}
layer {
  name: "inception_2b/double_3x3_2_bn"
  type: "BN"
  bottom: "inception_2b/double_3x3_2"
  top: "inception_2b/double_3x3_2_bn"
  param {
    lr_mult: 1
    decay_mult: 0
  }
  param {
    lr_mult: 1
    decay_mult: 0
  }
  bn_param {
    slope_filler {
      type: "constant"
      value: 1
    }
    bias_filler {
      type: "constant"
      value: 0
    }
  }
}
layer {
  name: "inception_2b/relu_double_3x3_2"
  type: "ReLU"
  bottom: "inception_2b/double_3x3_2_bn"
  top: "inception_2b/double_3x3_2_bn"
}
layer {
  name: "inception_2b/pool"
  type: "Pooling"
  bottom: "inception_2a/output"
  top: "inception_2b/pool"
  pooling_param {
    pool: MAX
    kernel_size: 3
    stride: 2
  }
}
layer {
  name: "inception_2b/output"
  type: "Concat"
  bottom: "inception_2b/3x3_bn"
  bottom: "inception_2b/double_3x3_2_bn"
  bottom: "inception_2b/pool"
  top: "inception_2b/output"
}
layer {
  name: "inception_3a/1x1"
  type: "Convolution"
  bottom: "inception_2b/output"
  top: "inception_3a/1x1"
  param {
    lr_mult: 1
    decay_mult: 1
  }
  param {
    lr_mult: 2
    decay_mult: 0
  }
  convolution_param {
    num_output: 256
    kernel_size: 1
    weight_filler {
      type: "xavier"
    }
    bias_filler {
      type: "constant"
      value: 0.2
    }
  }
}
layer {
  name: "inception_3a/1x1_bn"
  type: "BN"
  bottom: "inception_3a/1x1"
  top: "inception_3a/1x1_bn"
  param {
    lr_mult: 1
    decay_mult: 0
  }
  param {
    lr_mult: 1
    decay_mult: 0
  }
  bn_param {
    slope_filler {
      type: "constant"
      value: 1
    }
    bias_filler {
      type: "constant"
      value: 0
    }
  }
}
layer {
  name: "inception_3a/relu_1x1"
  type: "ReLU"
  bottom: "inception_3a/1x1_bn"
  top: "inception_3a/1x1_bn"
}
layer {
  name: "inception_3a/3x3_reduce"
  type: "Convolution"
  bottom: "inception_2b/output"
  top: "inception_3a/3x3_reduce"
  param {
    lr_mult: 1
    decay_mult: 1
  }
  param {
    lr_mult: 2
    decay_mult: 0
  }
  convolution_param {
    num_output: 256
    kernel_size: 1
    weight_filler {
      type: "xavier"
    }
    bias_filler {
      type: "constant"
      value: 0.2
    }
  }
}
layer {
  name: "inception_3a/3x3_reduce_bn"
  type: "BN"
  bottom: "inception_3a/3x3_reduce"
  top: "inception_3a/3x3_reduce_bn"
  param {
    lr_mult: 1
    decay_mult: 0
  }
  param {
    lr_mult: 1
    decay_mult: 0
  }
  bn_param {
    slope_filler {
      type: "constant"
      value: 1
    }
    bias_filler {
      type: "constant"
      value: 0
    }
  }
}
layer {
  name: "inception_3a/relu_3x3_reduce"
  type: "ReLU"
  bottom: "inception_3a/3x3_reduce_bn"
  top: "inception_3a/3x3_reduce_bn"
}
layer {
  name: "inception_3a/3x3"
  type: "Convolution"
  bottom: "inception_3a/3x3_reduce_bn"
  top: "inception_3a/3x3"
  param {
    lr_mult: 1
    decay_mult: 1
  }
  param {
    lr_mult: 2
    decay_mult: 0
  }
  convolution_param {
    num_output: 256
    pad: 1
    kernel_size: 3
    weight_filler {
      type: "xavier"
    }
    bias_filler {
      type: "constant"
      value: 0.2
    }
  }
}
layer {
  name: "inception_3a/3x3_bn"
  type: "BN"
  bottom: "inception_3a/3x3"
  top: "inception_3a/3x3_bn"
  param {
    lr_mult: 1
    decay_mult: 0
  }
  param {
    lr_mult: 1
    decay_mult: 0
  }
  bn_param {
    slope_filler {
      type: "constant"
      value: 1
    }
    bias_filler {
      type: "constant"
      value: 0
    }
  }
}
layer {
  name: "inception_3a/relu_3x3"
  type: "ReLU"
  bottom: "inception_3a/3x3_bn"
  top: "inception_3a/3x3_bn"
}
layer {
  name: "inception_3a/double_3x3_reduce"
  type: "Convolution"
  bottom: "inception_2b/output"
  top: "inception_3a/double_3x3_reduce"
  param {
    lr_mult: 1
    decay_mult: 1
  }
  param {
    lr_mult: 2
    decay_mult: 0
  }
  convolution_param {
    num_output: 256
    kernel_size: 1
    weight_filler {
      type: "xavier"
    }
    bias_filler {
      type: "constant"
      value: 0.2
    }
  }
}
layer {
  name: "inception_3a/double_3x3_reduce_bn"
  type: "BN"
  bottom: "inception_3a/double_3x3_reduce"
  top: "inception_3a/double_3x3_reduce_bn"
  param {
    lr_mult: 1
    decay_mult: 0
  }
  param {
    lr_mult: 1
    decay_mult: 0
  }
  bn_param {
    slope_filler {
      type: "constant"
      value: 1
    }
    bias_filler {
      type: "constant"
      value: 0
    }
  }
}
layer {
 
I0417 16:46:33.022639 23546 layer_factory.hpp:74] Creating layer data
I0417 16:46:33.022646 23546 net.cpp:133] Creating Layer data
I0417 16:46:33.022650 23546 net.cpp:411] data -> data
I0417 16:46:33.022657 23546 net.cpp:411] data -> label
I0417 16:46:33.022661 23546 net.cpp:163] Setting up data
I0417 16:46:33.022711 23546 db_lmdb.cpp:22] Opened lmdb external/exp/db/viper/val_lmdb
I0417 16:46:33.022724 23546 data_layer.cpp:55] Skipping first 0 data points.
I0417 16:46:33.022737 23546 data_layer.cpp:100] output data size: 10,3,144,56
I0417 16:46:33.022770 23546 net.cpp:170] Top shape: 10 3 144 56 (241920)
I0417 16:46:33.022776 23546 net.cpp:170] Top shape: 10 (10)
I0417 16:46:33.022779 23546 layer_factory.hpp:74] Creating layer label_data_1_split
I0417 16:46:33.022784 23546 net.cpp:133] Creating Layer label_data_1_split
I0417 16:46:33.022788 23546 net.cpp:453] label_data_1_split <- label
I0417 16:46:33.022792 23546 net.cpp:411] label_data_1_split -> label_data_1_split_0
I0417 16:46:33.022799 23546 net.cpp:411] label_data_1_split -> label_data_1_split_1
I0417 16:46:33.022809 23546 net.cpp:163] Setting up label_data_1_split
I0417 16:46:33.022814 23546 net.cpp:170] Top shape: 10 (10)
I0417 16:46:33.022820 23546 net.cpp:170] Top shape: 10 (10)
I0417 16:46:33.022825 23546 layer_factory.hpp:74] Creating layer conv1
I0417 16:46:33.022830 23546 net.cpp:133] Creating Layer conv1
I0417 16:46:33.022833 23546 net.cpp:453] conv1 <- data
I0417 16:46:33.022840 23546 net.cpp:411] conv1 -> conv1
I0417 16:46:33.022845 23546 net.cpp:163] Setting up conv1
I0417 16:46:33.056203 23546 net.cpp:170] Top shape: 10 32 144 56 (2580480)
I0417 16:46:33.056216 23546 layer_factory.hpp:74] Creating layer conv1_bn
I0417 16:46:33.056218 23546 layer_factory.cpp:191] Layer conv1_bn is using CAFFE engine.
I0417 16:46:33.056223 23546 net.cpp:133] Creating Layer conv1_bn
I0417 16:46:33.056226 23546 net.cpp:453] conv1_bn <- conv1
I0417 16:46:33.056228 23546 net.cpp:411] conv1_bn -> conv1_bn
I0417 16:46:33.056233 23546 net.cpp:163] Setting up conv1_bn
I0417 16:46:33.056249 23546 net.cpp:170] Top shape: 10 32 144 56 (2580480)
I0417 16:46:33.056257 23546 layer_factory.hpp:74] Creating layer relu1
I0417 16:46:33.056260 23546 net.cpp:133] Creating Layer relu1
I0417 16:46:33.056262 23546 net.cpp:453] relu1 <- conv1_bn
I0417 16:46:33.056264 23546 net.cpp:400] relu1 -> conv1_bn (in-place)
I0417 16:46:33.056267 23546 net.cpp:163] Setting up relu1
I0417 16:46:33.056531 23546 net.cpp:170] Top shape: 10 32 144 56 (2580480)
I0417 16:46:33.056540 23546 layer_factory.hpp:74] Creating layer conv2
I0417 16:46:33.056547 23546 net.cpp:133] Creating Layer conv2
I0417 16:46:33.056550 23546 net.cpp:453] conv2 <- conv1_bn
I0417 16:46:33.056555 23546 net.cpp:411] conv2 -> conv2
I0417 16:46:33.056560 23546 net.cpp:163] Setting up conv2
I0417 16:46:33.145431 23546 net.cpp:170] Top shape: 10 32 144 56 (2580480)
I0417 16:46:33.145440 23546 layer_factory.hpp:74] Creating layer conv2_bn
I0417 16:46:33.145443 23546 layer_factory.cpp:191] Layer conv2_bn is using CAFFE engine.
I0417 16:46:33.145449 23546 net.cpp:133] Creating Layer conv2_bn
I0417 16:46:33.145454 23546 net.cpp:453] conv2_bn <- conv2
I0417 16:46:33.145460 23546 net.cpp:411] conv2_bn -> conv2_bn
I0417 16:46:33.145464 23546 net.cpp:163] Setting up conv2_bn
I0417 16:46:33.145483 23546 net.cpp:170] Top shape: 10 32 144 56 (2580480)
I0417 16:46:33.145491 23546 layer_factory.hpp:74] Creating layer relu2
I0417 16:46:33.145494 23546 net.cpp:133] Creating Layer relu2
I0417 16:46:33.145496 23546 net.cpp:453] relu2 <- conv2_bn
I0417 16:46:33.145499 23546 net.cpp:400] relu2 -> conv2_bn (in-place)
I0417 16:46:33.145503 23546 net.cpp:163] Setting up relu2
I0417 16:46:33.145699 23546 net.cpp:170] Top shape: 10 32 144 56 (2580480)
I0417 16:46:33.145706 23546 layer_factory.hpp:74] Creating layer conv3
I0417 16:46:33.145711 23546 net.cpp:133] Creating Layer conv3
I0417 16:46:33.145714 23546 net.cpp:453] conv3 <- conv2_bn
I0417 16:46:33.145717 23546 net.cpp:411] conv3 -> conv3
I0417 16:46:33.145722 23546 net.cpp:163] Setting up conv3
I0417 16:46:33.234743 23546 net.cpp:170] Top shape: 10 32 144 56 (2580480)
I0417 16:46:33.234753 23546 layer_factory.hpp:74] Creating layer conv3_bn
I0417 16:46:33.234756 23546 layer_factory.cpp:191] Layer conv3_bn is using CAFFE engine.
I0417 16:46:33.234760 23546 net.cpp:133] Creating Layer conv3_bn
I0417 16:46:33.234762 23546 net.cpp:453] conv3_bn <- conv3
I0417 16:46:33.234766 23546 net.cpp:411] conv3_bn -> conv3_bn
I0417 16:46:33.234771 23546 net.cpp:163] Setting up conv3_bn
I0417 16:46:33.234792 23546 net.cpp:170] Top shape: 10 32 144 56 (2580480)
I0417 16:46:33.234802 23546 layer_factory.hpp:74] Creating layer relu3
I0417 16:46:33.234805 23546 net.cpp:133] Creating Layer relu3
I0417 16:46:33.234807 23546 net.cpp:453] relu3 <- conv3_bn
I0417 16:46:33.234810 23546 net.cpp:400] relu3 -> conv3_bn (in-place)
I0417 16:46:33.234813 23546 net.cpp:163] Setting up relu3
I0417 16:46:33.234930 23546 net.cpp:170] Top shape: 10 32 144 56 (2580480)
I0417 16:46:33.234935 23546 layer_factory.hpp:74] Creating layer pool1
I0417 16:46:33.234940 23546 net.cpp:133] Creating Layer pool1
I0417 16:46:33.234941 23546 net.cpp:453] pool1 <- conv3_bn
I0417 16:46:33.234944 23546 net.cpp:411] pool1 -> pool1
I0417 16:46:33.234947 23546 net.cpp:163] Setting up pool1
I0417 16:46:33.235134 23546 net.cpp:170] Top shape: 10 32 72 28 (645120)
I0417 16:46:33.235141 23546 layer_factory.hpp:74] Creating layer pool1_pool1_0_split
I0417 16:46:33.235144 23546 net.cpp:133] Creating Layer pool1_pool1_0_split
I0417 16:46:33.235146 23546 net.cpp:453] pool1_pool1_0_split <- pool1
I0417 16:46:33.235151 23546 net.cpp:411] pool1_pool1_0_split -> pool1_pool1_0_split_0
I0417 16:46:33.235154 23546 net.cpp:411] pool1_pool1_0_split -> pool1_pool1_0_split_1
I0417 16:46:33.235157 23546 net.cpp:411] pool1_pool1_0_split -> pool1_pool1_0_split_2
I0417 16:46:33.235160 23546 net.cpp:411] pool1_pool1_0_split -> pool1_pool1_0_split_3
…
I0417 16:46:34.412689 23546 layer_factory.hpp:74] Creating layer inception_2a/double_3x3_reduce
I0417 16:46:34.412705 23546 net.cpp:133] Creating Layer inception_2a/double_3x3_reduce
I0417 16:46:34.412708 23546 net.cpp:453] inception_2a/double_3x3_reduce <- inception_1b/output_inception_1b/output_0_split_2
I0417 16:46:34.412713 23546 net.cpp:411] inception_2a/double_3x3_reduce -> inception_2a/double_3x3_reduce
I0417 16:46:34.412719 23546 net.cpp:163] Setting up inception_2a/double_3x3_reduce
I0417 16:46:34.519886 23546 net.cpp:170] Top shape: 10 128 36 14 (645120)
I0417 16:46:34.519896 23546 layer_factory.hpp:74] Creating layer inception_2a/double_3x3_reduce_bn
I0417 16:46:34.519898 23546 layer_factory.cpp:191] Layer inception_2a/double_3x3_reduce_bn is using CAFFE engine.
I0417 16:46:34.519904 23546 net.cpp:133] Creating Layer inception_2a/double_3x3_reduce_bn
I0417 16:46:34.519911 23546 net.cpp:453] inception_2a/double_3x3_reduce_bn <- inception_2a/double_3x3_reduce
I0417 16:46:34.519917 23546 net.cpp:411] inception_2a/double_3x3_reduce_bn -> inception_2a/double_3x3_reduce_bn
I0417 16:46:34.519924 23546 net.cpp:163] Setting up inception_2a/double_3x3_reduce_bn
I0417 16:46:34.519939 23546 net.cpp:170] Top shape: 10 128 36 14 (645120)
I0417 16:46:34.519947 23546 layer_factory.hpp:74] Creating layer inception_2a/relu_double_3x3_reduce
I0417 16:46:34.519953 23546 net.cpp:133] Creating Layer inception_2a/relu_double_3x3_reduce
I0417 16:46:34.519955 23546 net.cpp:453] inception_2a/relu_double_3x3_reduce <- inception_2a/double_3x3_reduce_bn
I0417 16:46:34.519960 23546 net.cpp:400] inception_2a/relu_double_3x3_reduce -> inception_2a/double_3x3_reduce_bn (in-place)
I0417 16:46:34.519966 23546 net.cpp:163] Setting up inception_2a/relu_double_3x3_reduce
I0417 16:46:34.520166 23546 net.cpp:170] Top shape: 10 128 36 14 (645120)
I0417 16:46:34.520172 23546 layer_factory.hpp:74] Creating layer inception_2a/double_3x3_1
I0417 16:46:34.520179 23546 net.cpp:133] Creating Layer inception_2a/double_3x3_1
I0417 16:46:34.520184 23546 net.cpp:453] inception_2a/double_3x3_1 <- inception_2a/double_3x3_reduce_bn
I0417 16:46:34.520190 23546 net.cpp:411] inception_2a/double_3x3_1 -> inception_2a/double_3x3_1
I0417 16:46:34.520197 23546 net.cpp:163] Setting up inception_2a/double_3x3_1
I0417 16:46:34.570339 23546 net.cpp:170] Top shape: 10 128 36 14 (645120)
I0417 16:46:34.570349 23546 layer_factory.hpp:74] Creating layer inception_2a/double_3x3_1_bn
I0417 16:46:34.570354 23546 layer_factory.cpp:191] Layer inception_2a/double_3x3_1_bn is using CAFFE engine.
I0417 16:46:34.570360 23546 net.cpp:133] Creating Layer inception_2a/double_3x3_1_bn
I0417 16:46:34.570365 23546 net.cpp:453] inception_2a/double_3x3_1_bn <- inception_2a/double_3x3_1
I0417 16:46:34.570372 23546 net.cpp:411] inception_2a/double_3x3_1_bn -> inception_2a/double_3x3_1_bn
I0417 16:46:34.570380 23546 net.cpp:163] Setting up inception_2a/double_3x3_1_bn
I0417 16:46:34.570395 23546 net.cpp:170] Top shape: 10 128 36 14 (645120)
I0417 16:46:34.570401 23546 layer_factory.hpp:74] Creating layer inception_2a/relu_double_3x3_1
I0417 16:46:34.570406 23546 net.cpp:133] Creating Layer inception_2a/relu_double_3x3_1
I0417 16:46:34.570411 23546 net.cpp:453] inception_2a/relu_double_3x3_1 <- inception_2a/double_3x3_1_bn
I0417 16:46:34.570415 23546 net.cpp:400] inception_2a/relu_double_3x3_1 -> inception_2a/double_3x3_1_bn (in-place)
I0417 16:46:34.570421 23546 net.cpp:163] Setting up inception_2a/relu_double_3x3_1
I0417 16:46:34.570648 23546 net.cpp:170] Top shape: 10 128 36 14 (645120)
I0417 16:46:34.570655 23546 layer_factory.hpp:74] Creating layer inception_2a/double_3x3_2
I0417 16:46:34.570663 23546 net.cpp:133] Creating Layer inception_2a/double_3x3_2
I0417 16:46:34.570668 23546 net.cpp:453] inception_2a/double_3x3_2 <- inception_2a/double_3x3_1_bn
I0417 16:46:34.570674 23546 net.cpp:411] inception_2a/double_3x3_2 -> inception_2a/double_3x3_2
I0417 16:46:34.570680 23546 net.cpp:163] Setting up inception_2a/double_3x3_2
I0417 16:46:34.620645 23546 net.cpp:170] Top shape: 10 128 36 14 (645120)
I0417 16:46:34.620656 23546 layer_factory.hpp:74] Creating layer inception_2a/double_3x3_2_bn
I0417 16:46:34.620659 23546 layer_factory.cpp:191] Layer inception_2a/double_3x3_2_bn is using CAFFE engine.
I0417 16:46:34.620666 23546 net.cpp:133] Creating Layer inception_2a/double_3x3_2_bn
I0417 16:46:34.620671 23546 net.cpp:453] inception_2a/double_3x3_2_bn <- inception_2a/double_3x3_2
I0417 16:46:34.620677 23546 net.cpp:411] inception_2a/double_3x3_2_bn -> inception_2a/double_3x3_2_bn
I0417 16:46:34.620685 23546 net.cpp:163] Setting up inception_2a/double_3x3_2_bn
I0417 16:46:34.620702 23546 net.cpp:170] Top shape: 10 128 36 14 (645120)
I0417 16:46:34.620707 23546 layer_factory.hpp:74] Creating layer inception_2a/relu_double_3x3_2
I0417 16:46:34.620710 23546 net.cpp:133] Creating Layer inception_2a/relu_double_3x3_2
I0417 16:46:34.620715 23546 net.cpp:453] inception_2a/relu_double_3x3_2 <- inception_2a/double_3x3_2_bn
I0417 16:46:34.620721 23546 net.cpp:400] inception_2a/relu_double_3x3_2 -> inception_2a/double_3x3_2_bn (in-place)
I0417 16:46:34.620728 23546 net.cpp:163] Setting up inception_2a/relu_double_3x3_2
I0417 16:46:34.620870 23546 net.cpp:170] Top shape: 10 128 36 14 (645120)
I0417 16:46:34.620877 23546 layer_factory.hpp:74] Creating layer inception_2a/pool
I0417 16:46:34.620880 23546 layer_factory.cpp:64] CUDNN does not support padding or multiple tops. Using Caffe's own pooling layer.
I0417 16:46:34.620884 23546 net.cpp:133] Creating Layer inception_2a/pool
I0417 16:46:34.620889 23546 net.cpp:453] inception_2a/pool <- inception_1b/output_inception_1b/output_0_split_3
I0417 16:46:34.620894 23546 net.cpp:411] inception_2a/pool -> inception_2a/pool
I0417 16:46:34.620901 23546 net.cpp:163] Setting up inception_2a/pool
I0417 16:46:34.620908 23546 net.cpp:170] Top shape: 10 384 36 14 (1935360)
I0417 16:46:34.620913 23546 layer_factory.hpp:74] Creating layer inception_2a/pool_proj
I0417 16:46:34.620919 23546 net.cpp:133] Creating Layer inception_2a/pool_proj
I0417 16:46:34.620923 23546 net.cpp:453] inception_2a/pool_proj <- inception_2a/pool
I0417 16:46:34.620929 23546 net.cpp:411] inception_2a/pool_proj -> inception_2a/pool_proj
I0417 16:46:34.620936 23546 net.cpp:163] Setting up inception_2a/pool_proj
I0417 16:46:34.728345 23546 net.cpp:170] Top shape: 10 128 36 14 (645120)
I0417 16:46:34.728355 23546 layer_factory.hpp:74] Creating layer inception_2a/pool_proj_bn
I0417 16:46:34.728358 23546 layer_factory.cpp:191] Layer inception_2a/pool_proj_bn is using CAFFE engine.
I0417 16:46:34.728364 23546 net.cpp:133] Creating Layer inception_2a/pool_proj_bn
I0417 16:46:34.728369 23546 net.cpp:453] inception_2a/pool_proj_bn <- inception_2a/pool_proj
I0417 16:46:34.728376 23546 net.cpp:411] inception_2a/pool_proj_bn -> inception_2a/pool_proj_bn
I0417 16:46:34.728395 23546 net.cpp:163] Setting up inception_2a/pool_proj_bn
I0417 16:46:34.728409 23546 net.cpp:170] Top shape: 10 128 36 14 (645120)
I0417 16:46:34.728426 23546 layer_factory.hpp:74] Creating layer inception_2a/relu_pool_proj
I0417 16:46:34.728431 23546 net.cpp:133] Creating Layer inception_2a/relu_pool_proj
I0417 16:46:34.728433 23546 net.cpp:453] inception_2a/relu_pool_proj <- inception_2a/pool_proj_bn
I0417 16:46:34.728440 23546 net.cpp:400] inception_2a/relu_pool_proj -> inception_2a/pool_proj_bn (in-place)
I0417 16:46:34.728445 23546 net.cpp:163] Setting up inception_2a/relu_pool_proj
I0417 16:46:34.728651 23546 net.cpp:170] Top shape: 10 128 36 14 (645120)
I0417 16:46:34.728657 23546 layer_factory.hpp:74] Creating layer inception_2a/output
I0417 16:46:34.728662 23546 net.cpp:133] Creating Layer inception_2a/output
I0417 16:46:34.728665 23546 net.cpp:453] inception_2a/output <- inception_2a/1x1_bn
I0417 16:46:34.728669 23546 net.cpp:453] inception_2a/output <- inception_2a/3x3_bn
I0417 16:46:34.728675 23546 net.cpp:453] inception_2a/output <- inception_2a/double_3x3_2_bn
I0417 16:46:34.728679 23546 net.cpp:453] inception_2a/output <- inception_2a/pool_proj_bn
I0417 16:46:34.728684 23546 net.cpp:411] inception_2a/output -> inception_2a/output
I0417 16:46:34.728691 23546 net.cpp:163] Setting up inception_2a/output
I0417 16:46:34.728698 23546 net.cpp:170] Top shape: 10 512 36 14 (2580480)
I0417 16:46:34.728703 23546 layer_factory.hpp:74] Creating layer inception_2a/output_inception_2a/output_0_split
I0417 16:46:34.728708 23546 net.cpp:133] Creating Layer inception_2a/output_inception_2a/output_0_split
I0417 16:46:34.728711 23546 net.cpp:453] inception_2a/output_inception_2a/output_0_split <- inception_2a/output
I0417 16:46:34.728716 23546 net.cpp:411] inception_2a/output_inception_2a/output_0_split -> inception_2a/output_inception_2a/output_0_split_0
I0417 16:46:34.728724 23546 net.cpp:411] inception_2a/output_inception_2a/output_0_split -> inception_2a/output_inception_2a/output_0_split_1
I0417 16:46:34.728730 23546 net.cpp:411] inception_2a/output_inception_2a/output_0_split -> inception_2a/output_inception_2a/output_0_split_2
I0417 16:46:34.728737 23546 net.cpp:163] Setting up inception_2a/output_inception_2a/output_0_split
I0417 16:46:34.728744 23546 net.cpp:170] Top shape: 10 512 36 14 (2580480)
I0417 16:46:34.728749 23546 net.cpp:170] Top shape: 10 512 36 14 (2580480)
I0417 16:46:34.728754 23546 net.cpp:170] Top shape: 10 512 36 14 (2580480)
I0417 16:46:34.728756 23546 layer_factory.hpp:74] Creating layer inception_2b/3x3_reduce
I0417 16:46:34.728762 23546 net.cpp:133] Creating Layer inception_2b/3x3_reduce
I0417 16:46:34.728766 23546 net.cpp:453] inception_2b/3x3_reduce <- inception_2a/output_inception_2a/output_0_split_0
I0417 16:46:34.728773 23546 net.cpp:411] inception_2b/3x3_reduce -> inception_2b/3x3_reduce
I0417 16:46:34.728780 23546 net.cpp:163] Setting up inception_2b/3x3_reduce
I0417 16:46:34.869979 23546 net.cpp:170] Top shape: 10 128 36 14 (645120)
I0417 16:46:34.869989 23546 layer_factory.hpp:74] Creating layer inception_2b/3x3_reduce_bn
I0417 16:46:34.869992 23546 layer_factory.cpp:191] Layer inception_2b/3x3_reduce_bn is using CAFFE engine.
I0417 16:46:34.869998 23546 net.cpp:133] Creating Layer inception_2b/3x3_reduce_bn
I0417 16:46:34.870003 23546 net.cpp:453] inception_2b/3x3_reduce_bn <- inception_2b/3x3_reduce
I0417 16:46:34.870010 23546 net.cpp:411] inception_2b/3x3_reduce_bn -> inception_2b/3x3_reduce_bn
I0417 16:46:34.870018 23546 net.cpp:163] Setting up inception_2b/3x3_reduce_bn
I0417 16:46:34.870033 23546 net.cpp:170] Top shape: 10 128 36 14 (645120)
I0417 16:46:34.870038 23546 layer_factory.hpp:74] Creating layer inception_2b/relu_3x3_reduce
I0417 16:46:34.870043 23546 net.cpp:133] Creating Layer inception_2b/relu_3x3_reduce
I0417 16:46:34.870048 23546 net.cpp:453] inception_2b/relu_3x3_reduce <- inception_2b/3x3_reduce_bn
I0417 16:46:34.870053 23546 net.cpp:400] inception_2b/relu_3x3_reduce -> inception_2b/3x3_reduce_bn (in-place)
I0417 16:46:34.870056 23546 net.cpp:163] Setting up inception_2b/relu_3x3_reduce
I0417 16:46:34.870373 23546 net.cpp:170] Top shape: 10 128 36 14 (645120)
I0417 16:46:34.870379 23546 layer_factory.hpp:74] Creating layer inception_2b/3x3
I0417 16:46:34.870386 23546 net.cpp:133] Creating Layer inception_2b/3x3
I0417 16:46:34.870391 23546 net.cpp:453] inception_2b/3x3 <- inception_2b/3x3_reduce_bn
I0417 16:46:34.870399 23546 net.cpp:411] inception_2b/3x3 -> inception_2b/3x3
I0417 16:46:34.870406 23546 net.cpp:163] Setting up inception_2b/3x3
I0417 16:46:34.878744 23546 net.cpp:170] Top shape: 10 128 18 7 (161280)
I0417 16:46:34.878754 23546 layer_factory.hpp:74] Creating layer inception_2b/3x3_bn
I0417 16:46:34.878759 23546 layer_factory.cpp:191] Layer inception_2b/3x3_bn is using CAFFE engine.
I0417 16:46:34.878767 23546 net.cpp:133] Creating Layer inception_2b/3x3_bn
I0417 16:46:34.878772 23546 net.cpp:453] inception_2b/3x3_bn <- inception_2b/3x3
I0417 16:46:34.878777 23546 net.cpp:411] inception_2b/3x3_bn -> inception_2b/3x3_bn
I0417 16:46:34.878784 23546 net.cpp:163] Setting up inception_2b/3x3_bn
I0417 16:46:34.878798 23546 net.cpp:170] Top shape: 10 128 18 7 (161280)
I0417 16:46:34.878804 23546 layer_factory.hpp:74] Creating layer inception_2b/relu_3x3
I0417 16:46:34.878808 23546 net.cpp:133] Creating Layer inception_2b/relu_3x3
I0417 16:46:34.878813 23546 net.cpp:453] inception_2b/relu_3x3 <- inception_2b/3x3_bn
I0417 16:46:34.878816 23546 net.cpp:400] inception_2b/relu_3x3 -> inception_2b/3x3_bn (in-place)
I0417 16:46:34.878823 23546 net.cpp:163] Setting up inception_2b/relu_3x3
I0417 16:46:34.878942 23546 net.cpp:170] Top shape: 10 128 18 7 (161280)
I0417 16:46:34.878947 23546 layer_factory.hpp:74] Creating layer inception_2b/double_3x3_reduce
I0417 16:46:34.878953 23546 net.cpp:133] Creating Layer inception_2b/double_3x3_reduce
I0417 16:46:34.878957 23546 net.cpp:453] inception_2b/double_3x3_reduce <- inception_2a/output_inception_2a/output_0_split_1
I0417 16:46:34.878964 23546 net.cpp:411] inception_2b/double_3x3_reduce -> inception_2b/double_3x3_reduce
I0417 16:46:34.878971 23546 net.cpp:163] Setting up inception_2b/double_3x3_reduce
I0417 16:46:35.020041 23546 net.cpp:170] Top shape: 10 128 36 14 (645120)
I0417 16:46:35.020051 23546 layer_factory.hpp:74] Creating layer inception_2b/double_3x3_reduce_bn
I0417 16:46:35.020056 23546 layer_factory.cpp:191] Layer inception_2b/double_3x3_reduce_bn is using CAFFE engine.
I0417 16:46:35.020061 23546 net.cpp:133] Creating Layer inception_2b/double_3x3_reduce_bn
I0417 16:46:35.020066 23546 net.cpp:453] inception_2b/double_3x3_reduce_bn <- inception_2b/double_3x3_reduce
I0417 16:46:35.020072 23546 net.cpp:411] inception_2b/double_3x3_reduce_bn -> inception_2b/double_3x3_reduce_bn
I0417 16:46:35.020077 23546 net.cpp:163] Setting up inception_2b/double_3x3_reduce_bn
I0417 16:46:35.020090 23546 net.cpp:170] Top shape: 10 128 36 14 (645120)
I0417 16:46:35.020099 23546 layer_factory.hpp:74] Creating layer inception_2b/relu_double_3x3_reduce
I0417 16:46:35.020104 23546 net.cpp:133] Creating Layer inception_2b/relu_double_3x3_reduce
I0417 16:46:35.020107 23546 net.cpp:453] inception_2b/relu_double_3x3_reduce <- inception_2b/double_3x3_reduce_bn
I0417 16:46:35.020108 23546 net.cpp:400] inception_2b/relu_double_3x3_reduce -> inception_2b/double_3x3_reduce_bn (in-place)
I0417 16:46:35.020112 23546 net.cpp:163] Setting up inception_2b/relu_double_3x3_reduce
I0417 16:46:35.020316 23546 net.cpp:170] Top shape: 10 128 36 14 (645120)
I0417 16:46:35.020323 23546 layer_factory.hpp:74] Creating layer inception_2b/double_3x3_1
I0417 16:46:35.020328 23546 net.cpp:133] Creating Layer inception_2b/double_3x3_1
I0417 16:46:35.020330 23546 net.cpp:453] inception_2b/double_3x3_1 <- inception_2b/double_3x3_reduce_bn
I0417 16:46:35.020335 23546 net.cpp:411] inception_2b/double_3x3_1 -> inception_2b/double_3x3_1
I0417 16:46:35.020339 23546 net.cpp:163] Setting up inception_2b/double_3x3_1
I0417 16:46:35.069897 23546 net.cpp:170] Top shape: 10 128 36 14 (645120)
I0417 16:46:35.069907 23546 layer_factory.hpp:74] Creating layer inception_2b/double_3x3_1_bn
I0417 16:46:35.069910 23546 layer_factory.cpp:191] Layer inception_2b/double_3x3_1_bn is using CAFFE engine.
I0417 16:46:35.069914 23546 net.cpp:133] Creating Layer inception_2b/double_3x3_1_bn
I0417 16:46:35.069916 23546 net.cpp:453] inception_2b/double_3x3_1_bn <- inception_2b/double_3x3_1
I0417 16:46:35.069921 23546 net.cpp:411] inception_2b/double_3x3_1_bn -> inception_2b/double_3x3_1_bn
I0417 16:46:35.069924 23546 net.cpp:163] Setting up inception_2b/double_3x3_1_bn
I0417 16:46:35.069937 23546 net.cpp:170] Top shape: 10 128 36 14 (645120)
I0417 16:46:35.069946 23546 layer_factory.hpp:74] Creating layer inception_2b/relu_double_3x3_1
I0417 16:46:35.069949 23546 net.cpp:133] Creating Layer inception_2b/relu_double_3x3_1
I0417 16:46:35.069952 23546 net.cpp:453] inception_2b/relu_double_3x3_1 <- inception_2b/double_3x3_1_bn
I0417 16:46:35.069953 23546 net.cpp:400] inception_2b/relu_double_3x3_1 -> inception_2b/double_3x3_1_bn (in-place)
I0417 16:46:35.069957 23546 net.cpp:163] Setting up inception_2b/relu_double_3x3_1
I0417 16:46:35.070155 23546 net.cpp:170] Top shape: 10 128 36 14 (645120)
I0417 16:46:35.070163 23546 layer_factory.hpp:74] Creating layer inception_2b/double_3x3_2
I0417 16:46:35.070166 23546 net.cpp:133] Creating Layer inception_2b/double_3x3_2
I0417 16:46:35.070168 23546 net.cpp:453] inception_2b/double_3x3_2 <- inception_2b/double_3x3_1_bn
I0417 16:46:35.070173 23546 net.cpp:411] inception_2b/double_3x3_2 -> inception_2b/double_3x3_2
I0417 16:46:35.070176 23546 net.cpp:163] Setting up inception_2b/double_3x3_2
I0417 16:46:35.077970 23546 net.cpp:170] Top shape: 10 128 18 7 (161280)
I0417 16:46:35.077980 23546 layer_factory.hpp:74] Creating layer inception_2b/double_3x3_2_bn
I0417 16:46:35.077982 23546 layer_factory.cpp:191] Layer inception_2b/double_3x3_2_bn is using CAFFE engine.
I0417 16:46:35.077986 23546 net.cpp:133] Creating Layer inception_2b/double_3x3_2_bn
I0417 16:46:35.077989 23546 net.cpp:453] inception_2b/double_3x3_2_bn <- inception_2b/double_3x3_2
I0417 16:46:35.077993 23546 net.cpp:411] inception_2b/double_3x3_2_bn -> inception_2b/double_3x3_2_bn
I0417 16:46:35.077997 23546 net.cpp:163] Setting up inception_2b/double_3x3_2_bn
I0417 16:46:35.078011 23546 net.cpp:170] Top shape: 10 128 18 7 (161280)
I0417 16:46:35.078017 23546 layer_factory.hpp:74] Creating layer inception_2b/relu_double_3x3_2
I0417 16:46:35.078022 23546 net.cpp:133] Creating Layer inception_2b/relu_double_3x3_2
I0417 16:46:35.078023 23546 net.cpp:453] inception_2b/relu_double_3x3_2 <- inception_2b/double_3x3_2_bn
I0417 16:46:35.078027 23546 net.cpp:400] inception_2b/relu_double_3x3_2 -> inception_2b/double_3x3_2_bn (in-place)
I0417 16:46:35.078029 23546 net.cpp:163] Setting up inception_2b/relu_double_3x3_2
I0417 16:46:35.078151 23546 net.cpp:170] Top shape: 10 128 18 7 (161280)
I0417 16:46:35.078156 23546 layer_factory.hpp:74] Creating layer inception_2b/pool
I0417 16:46:35.078161 23546 net.cpp:133] Creating Layer inception_2b/pool
I0417 16:46:35.078163 23546 net.cpp:453] inception_2b/pool <- inception_2a/output_inception_2a/output_0_split_2
I0417 16:46:35.078167 23546 net.cpp:411] inception_2b/pool -> inception_2b/pool
I0417 16:46:35.078171 23546 net.cpp:163] Setting up inception_2b/pool
I0417 16:46:35.078366 23546 net.cpp:170] Top shape: 10 512 18 7 (645120)
I0417 16:46:35.078372 23546 layer_factory.hpp:74] Creating layer inception_2b/output
I0417 16:46:35.078375 23546 net.cpp:133] Creating Layer inception_2b/output
I0417 16:46:35.078377 23546 net.cpp:453] inception_2b/output <- inception_2b/3x3_bn
I0417 16:46:35.078380 23546 net.cpp:453] inception_2b/output <- inception_2b/double_3x3_2_bn
I0417 16:46:35.078382 23546 net.cpp:453] inception_2b/output <- inception_2b/pool
I0417 16:46:35.078387 23546 net.cpp:411] inception_2b/output -> inception_2b/output
I0417 16:46:35.078390 23546 net.cpp:163] Setting up inception_2b/output
I0417 16:46:35.078394 23546 net.cpp:170] Top shape: 10 768 18 7 (967680)
I0417 16:46:35.078397 23546 layer_factory.hpp:74] Creating layer inception_2b/output_inception_2b/output_0_split
I0417 16:46:35.078403 23546 net.cpp:133] Creating Layer inception_2b/output_inception_2b/output_0_split
I0417 16:46:35.078407 23546 net.cpp:453] inception_2b/output_inception_2b/output_0_split <- inception_2b/output
I0417 16:46:35.078413 23546 net.cpp:411] inception_2b/output_inception_2b/output_0_split -> inception_2b/output_inception_2b/output_0_split_0
I0417 16:46:35.078419 23546 net.cpp:411] inception_2b/output_inception_2b/output_0_split -> inception_2b/output_inception_2b/output_0_split_1
I0417 16:46:35.078425 23546 net.cpp:411] inception_2b/output_inception_2b/output_0_split -> inception_2b/output_inception_2b/output_0_split_2
I0417 16:46:35.078431 23546 net.cpp:411] inception_2b/output_inception_2b/output_0_split -> inception_2b/output_inception_2b/output_0_split_3
I0417 16:46:35.078435 23546 net.cpp:163] Setting up inception_2b/output_inception_2b/output_0_split
I0417 16:46:35.078443 23546 net.cpp:170] Top shape: 10 768 18 7 (967680)
I0417 16:46:35.078445 23546 net.cpp:170] Top shape: 10 768 18 7 (967680)
I0417 16:46:35.078449 23546 net.cpp:170] Top shape: 10 768 18 7 (967680)
I0417 16:46:35.078452 23546 net.cpp:170] Top shape: 10 768 18 7 (967680)
I0417 16:46:35.078455 23546 layer_factory.hpp:74] Creating layer inception_3a/1x1
I0417 16:46:35.078462 23546 net.cpp:133] Creating Layer inception_3a/1x1
I0417 16:46:35.078466 23546 net.cpp:453] inception_3a/1x1 <- inception_2b/output_inception_2b/output_0_split_0
I0417 16:46:35.078470 23546 net.cpp:411] inception_3a/1x1 -> inception_3a/1x1
I0417 16:46:35.078474 23546 net.cpp:163] Setting up inception_3a/1x1
I0417 16:46:35.209313 23546 net.cpp:170] Top shape: 10 256 18 7 (322560)
I0417 16:46:35.209326 23546 layer_factory.hpp:74] Creating layer inception_3a/1x1_bn
I0417 16:46:35.209328 23546 layer_factory.cpp:191] Layer inception_3a/1x1_bn is using CAFFE engine.
I0417 16:46:35.209332 23546 net.cpp:133] Creating Layer inception_3a/1x1_bn
I0417 16:46:35.209336 23546 net.cpp:453] inception_3a/1x1_bn <- inception_3a/1x1
I0417 16:46:35.209339 23546 net.cpp:411] inception_3a/1x1_bn -> inception_3a/1x1_bn
I0417 16:46:35.209344 23546 net.cpp:163] Setting up inception_3a/1x1_bn
I0417 16:46:35.209357 23546 net.cpp:170] Top shape: 10 256 18 7 (322560)
I0417 16:46:35.209365 23546 layer_factory.hpp:74] Creating layer inception_3a/relu_1x1
I0417 16:46:35.209372 23546 net.cpp:133] Creating Layer inception_3a/relu_1x1
I0417 16:46:35.209374 23546 net.cpp:453] inception_3a/relu_1x1 <- inception_3a/1x1_bn
I0417 16:46:35.209379 23546 net.cpp:400] inception_3a/relu_1x1 -> inception_3a/1x1_bn (in-place)
I0417 16:46:35.209384 23546 net.cpp:163] Setting up inception_3a/relu_1x1
I0417 16:46:35.209509 23546 net.cpp:170] Top shape: 10 256 18 7 (322560)
I0417 16:46:35.209514 23546 layer_factory.hpp:74] Creating layer inception_3a/3x3_reduce
I0417 16:46:35.209519 23546 net.cpp:133] Creating Layer inception_3a/3x3_reduce
I0417 16:46:35.209522 23546 net.cpp:453] inception_3a/3x3_reduce <- inception_2b/output_inception_2b/output_0_split_1
I0417 16:46:35.209525 23546 net.cpp:411] inception_3a/3x3_reduce -> inception_3a/3x3_reduce
I0417 16:46:35.209529 23546 net.cpp:163] Setting up inception_3a/3x3_reduce
I0417 16:46:35.340447 23546 net.cpp:170] Top shape: 10 256 18 7 (322560)
I0417 16:46:35.340461 23546 layer_factory.hpp:74] Creating layer inception_3a/3x3_reduce_bn
I0417 16:46:35.340464 23546 layer_factory.cpp:191] Layer inception_3a/3x3_reduce_bn is using CAFFE engine.
I0417 16:46:35.340468 23546 net.cpp:133] Creating Layer inception_3a/3x3_reduce_bn
I0417 16:46:35.340471 23546 net.cpp:453] inception_3a/3x3_reduce_bn <- inception_3a/3x3_reduce
I0417 16:46:35.340476 23546 net.cpp:411] inception_3a/3x3_reduce_bn -> inception_3a/3x3_reduce_bn
I0417 16:46:35.340481 23546 net.cpp:163] Setting up inception_3a/3x3_reduce_bn
I0417 16:46:35.340492 23546 net.cpp:170] Top shape: 10 256 18 7 (322560)
I0417 16:46:35.340500 23546 layer_factory.hpp:74] Creating layer inception_3a/relu_3x3_reduce
I0417 16:46:35.340507 23546 net.cpp:133] Creating Layer inception_3a/relu_3x3_reduce
I0417 16:46:35.340509 23546 net.cpp:453] inception_3a/relu_3x3_reduce <- inception_3a/3x3_reduce_bn
I0417 16:46:35.340515 23546 net.cpp:400] inception_3a/relu_3x3_reduce -> inception_3a/3x3_reduce_bn (in-place)
I0417 16:46:35.340522 23546 net.cpp:163] Setting up inception_3a/relu_3x3_reduce
I0417 16:46:35.340739 23546 net.cpp:170] Top shape: 10 256 18 7 (322560)
I0417 16:46:35.340745 23546 layer_factory.hpp:74] Creating layer inception_3a/3x3
I0417 16:46:35.340751 23546 net.cpp:133] Creating Layer inception_3a/3x3
I0417 16:46:35.340754 23546 net.cpp:453] inception_3a/3x3 <- inception_3a/3x3_reduce_bn
I0417 16:46:35.340759 23546 net.cpp:411] inception_3a/3x3 -> inception_3a/3x3
I0417 16:46:35.340762 23546 net.cpp:163] Setting up inception_3a/3x3
I0417 16:46:35.398846 23546 net.cpp:170] Top shape: 10 256 18 7 (322560)
I0417 16:46:35.398857 23546 layer_factory.hpp:74] Creating layer inception_3a/3x3_bn
I0417 16:46:35.398860 23546 layer_factory.cpp:191] Layer inception_3a/3x3_bn is using CAFFE engine.
I0417 16:46:35.398864 23546 net.cpp:133] Creating Layer inception_3a/3x3_bn
I0417 16:46:35.398867 23546 net.cpp:453] inception_3a/3x3_bn <- inception_3a/3x3
I0417 16:46:35.398871 23546 net.cpp:411] inception_3a/3x3_bn -> inception_3a/3x3_bn
I0417 16:46:35.398876 23546 net.cpp:163] Setting up inception_3a/3x3_bn
I0417 16:46:35.398890 23546 net.cpp:170] Top shape: 10 256 18 7 (322560)
I0417 16:46:35.398897 23546 layer_factory.hpp:74] Creating layer inception_3a/relu_3x3
I0417 16:46:35.398901 23546 net.cpp:133] Creating Layer inception_3a/relu_3x3
I0417 16:46:35.398905 23546 net.cpp:453] inception_3a/relu_3x3 <- inception_3a/3x3_bn
I0417 16:46:35.398907 23546 net.cpp:400] inception_3a/relu_3x3 -> inception_3a/3x3_bn (in-place)
I0417 16:46:35.398910 23546 net.cpp:163] Setting up inception_3a/relu_3x3
I0417 16:46:35.399114 23546 net.cpp:170] Top shape: 10 256 18 7 (322560)
I0417 16:46:35.399121 23546 layer_factory.hpp:74] Creating layer inception_3a/double_3x3_reduce
I0417 16:46:35.399126 23546 net.cpp:133] Creating Layer inception_3a/double_3x3_reduce
I0417 16:46:35.399127 23546 net.cpp:453] inception_3a/double_3x3_reduce <- inception_2b/output_inception_2b/output_0_split_2
I0417 16:46:35.399132 23546 net.cpp:411] inception_3a/double_3x3_reduce -> inception_3a/double_3x3_reduce
I0417 16:46:35.399137 23546 net.cpp:163] Setting up inception_3a/double_3x3_reduce
I0417 16:46:35.530417 23546 net.cpp:170] Top shape: 10 256 18 7 (322560)
I0417 16:46:35.530427 23546 layer_factory.hpp:74] Creating layer inception_3a/double_3x3_reduce_bn
I0417 16:46:35.530431 23546 layer_factory.cpp:191] Layer inception_3a/double_3x3_reduce_bn is using CAFFE engine.
I0417 16:46:35.530434 23546 net.cpp:133] Creating Layer inception_3a/double_3x3_reduce_bn
I0417 16:46:35.530437 23546 net.cpp:453] inception_3a/double_3x3_reduce_bn <- inception_3a/double_3x3_reduce
I0417 16:46:35.530441 23546 net.cpp:411] inception_3a/double_3x3_reduce_bn -> inception_3a/double_3x3_reduce_bn
I0417 16:46:35.530446 23546 net.cpp:163] Setting up inception_3a/double_3x3_reduce_bn
I0417 16:46:35.530459 23546 net.cpp:170] Top shape: 10 256 18 7 (322560)
I0417 16:46:35.530467 23546 layer_factory.hpp:74] Creating layer inception_3a/relu_double_3x3_reduce
I0417 16:46:35.530474 23546 net.cpp:133] Creating Layer inception_3a/relu_double_3x3_reduce
I0417 16:46:35.530477 23546 net.cpp:453] inception_3a/relu_double_3x3_reduce <- inception_3a/double_3x3_reduce_bn
I0417 16:46:35.530479 23546 net.cpp:400] inception_3a/relu_double_3x3_reduce -> inception_3a/double_3x3_reduce_bn (in-place)
I0417 16:46:35.530483 23546 net.cpp:163] Setting up inception_3a/relu_double_3x3_reduce
I0417 16:46:35.530606 23546 net.cpp:170] Top shape: 10 256 18 7 (322560)
I0417 16:46:35.530611 23546 layer_factory.hpp:74] Creating layer inception_3a/double_3x3_1
I0417 16:46:35.530616 23546 net.cpp:133] Creating Layer inception_3a/double_3x3_1
I0417 16:46:35.530617 23546 net.cpp:453] inception_3a/double_3x3_1 <- inception_3a/double_3x3_reduce_bn
I0417 16:46:35.530622 23546 net.cpp:411] inception_3a/double_3x3_1 -> inception_3a/double_3x3_1
I0417 16:46:35.530625 23546 net.cpp:163] Setting up inception_3a/double_3x3_1
I0417 16:46:35.589162 23546 net.cpp:170] Top shape: 10 256 18 7 (322560)
I0417 16:46:35.589185 23546 layer_factory.hpp:74] Creating layer inception_3a/double_3x3_1_bn
I0417 16:46:35.589189 23546 layer_factory.cpp:191] Layer inception_3a/double_3x3_1_bn is using CAFFE engine.
I0417 16:46:35.589196 23546 net.cpp:133] Creating Layer inception_3a/double_3x3_1_bn
I0417 16:46:35.589200 23546 net.cpp:453] inception_3a/double_3x3_1_bn <- inception_3a/double_3x3_1
I0417 16:46:35.589205 23546 net.cpp:411] inception_3a/double_3x3_1_bn -> inception_3a/double_3x3_1_bn
I0417 16:46:35.589212 23546 net.cpp:163] Setting up inception_3a/double_3x3_1_bn
I0417 16:46:35.589228 23546 net.cpp:170] Top shape: 10 256 18 7 (322560)
I0417 16:46:35.589236 23546 layer_factory.hpp:74] Creating layer inception_3a/relu_double_3x3_1
I0417 16:46:35.589242 23546 net.cpp:133] Creating Layer inception_3a/relu_double_3x3_1
I0417 16:46:35.589246 23546 net.cpp:453] inception_3a/relu_double_3x3_1 <- inception_3a/double_3x3_1_bn
I0417 16:46:35.589252 23546 net.cpp:400] inception_3a/relu_double_3x3_1 -> inception_3a/double_3x3_1_bn (in-place)
I0417 16:46:35.589258 23546 net.cpp:163] Setting up inception_3a/relu_double_3x3_1
I0417 16:46:35.589509 23546 net.cpp:170] Top shape: 10 256 18 7 (322560)
I0417 16:46:35.589515 23546 layer_factory.hpp:74] Creating layer inception_3a/double_3x3_2
I0417 16:46:35.589521 23546 net.cpp:133] Creating Layer inception_3a/double_3x3_2
I0417 16:46:35.589524 23546 net.cpp:453] inception_3a/double_3x3_2 <- inception_3a/double_3x3_1_bn
I0417 16:46:35.589529 23546 net.cpp:411] inception_3a/double_3x3_2 -> inception_3a/double_3x3_2
I0417 16:46:35.589532 23546 net.cpp:163] Setting up inception_3a/double_3x3_2
I0417 16:46:35.647747 23546 net.cpp:170] Top shape: 10 256 18 7 (322560)
I0417 16:46:35.647756 23546 layer_factory.hpp:74] Creating layer inception_3a/double_3x3_2_bn
I0417 16:46:35.647758 23546 layer_factory.cpp:191] Layer inception_3a/double_3x3_2_bn is using CAFFE engine.
I0417 16:46:35.647763 23546 net.cpp:133] Creating Layer inception_3a/double_3x3_2_bn
I0417 16:46:35.647765 23546 net.cpp:453] inception_3a/double_3x3_2_bn <- inception_3a/double_3x3_2
I0417 16:46:35.647769 23546 net.cpp:411] inception_3a/double_3x3_2_bn -> inception_3a/double_3x3_2_bn
I0417 16:46:35.647774 23546 net.cpp:163] Setting up inception_3a/double_3x3_2_bn
I0417 16:46:35.647788 23546 net.cpp:170] Top shape: 10 256 18 7 (322560)
I0417 16:46:35.647795 23546 layer_factory.hpp:74] Creating layer inception_3a/relu_double_3x3_2
I0417 16:46:35.647799 23546 net.cpp:133] Creating Layer inception_3a/relu_double_3x3_2
I0417 16:46:35.647802 23546 net.cpp:453] inception_3a/relu_double_3x3_2 <- inception_3a/double_3x3_2_bn
I0417 16:46:35.647807 23546 net.cpp:400] inception_3a/relu_double_3x3_2 -> inception_3a/double_3x3_2_bn (in-place)
I0417 16:46:35.647814 23546 net.cpp:163] Setting up inception_3a/relu_double_3x3_2
I0417 16:46:35.648032 23546 net.cpp:170] Top shape: 10 256 18 7 (322560)
I0417 16:46:35.648038 23546 layer_factory.hpp:74] Creating layer inception_3a/pool
I0417 16:46:35.648041 23546 layer_factory.cpp:64] CUDNN does not support padding or multiple tops. Using Caffe's own pooling layer.
I0417 16:46:35.648044 23546 net.cpp:133] Creating Layer inception_3a/pool
I0417 16:46:35.648047 23546 net.cpp:453] inception_3a/pool <- inception_2b/output_inception_2b/output_0_split_3
I0417 16:46:35.648051 23546 net.cpp:411] inception_3a/pool -> inception_3a/pool
I0417 16:46:35.648056 23546 net.cpp:163] Setting up inception_3a/pool
I0417 16:46:35.648059 23546 net.cpp:170] Top shape: 10 768 18 7 (967680)
I0417 16:46:35.648062 23546 layer_factory.hpp:74] Creating layer inception_3a/pool_proj
I0417 16:46:35.648069 23546 net.cpp:133] Creating Layer inception_3a/pool_proj
I0417 16:46:35.648073 23546 net.cpp:453] inception_3a/pool_proj <- inception_3a/pool
I0417 16:46:35.648079 23546 net.cpp:411] inception_3a/pool_proj -> inception_3a/pool_proj
I0417 16:46:35.648082 23546 net.cpp:163] Setting up inception_3a/pool_proj
I0417 16:46:35.779898 23546 net.cpp:170] Top shape: 10 256 18 7 (322560)
I0417 16:46:35.779911 23546 layer_factory.hpp:74] Creating layer inception_3a/pool_proj_bn
I0417 16:46:35.779913 23546 layer_factory.cpp:191] Layer inception_3a/pool_proj_bn is using CAFFE engine.
I0417 16:46:35.779918 23546 net.cpp:133] Creating Layer inception_3a/pool_proj_bn
I0417 16:46:35.779920 23546 net.cpp:453] inception_3a/pool_proj_bn <- inception_3a/pool_proj
I0417 16:46:35.779924 23546 net.cpp:411] inception_3a/pool_proj_bn -> inception_3a/pool_proj_bn
I0417 16:46:35.779929 23546 net.cpp:163] Setting up inception_3a/pool_proj_bn
I0417 16:46:35.779942 23546 net.cpp:170] Top shape: 10 256 18 7 (322560)
I0417 16:46:35.779950 23546 layer_factory.hpp:74] Creating layer inception_3a/relu_pool_proj
I0417 16:46:35.779956 23546 net.cpp:133] Creating Layer inception_3a/relu_pool_proj
I0417 16:46:35.779958 23546 net.cpp:453] inception_3a/relu_pool_proj <- inception_3a/pool_proj_bn
I0417 16:46:35.779963 23546 net.cpp:400] inception_3a/relu_pool_proj -> inception_3a/pool_proj_bn (in-place)
I0417 16:46:35.779969 23546 net.cpp:163] Setting up inception_3a/relu_pool_proj
I0417 16:46:35.780097 23546 net.cpp:170] Top shape: 10 256 18 7 (322560)
I0417 16:46:35.780102 23546 layer_factory.hpp:74] Creating layer inception_3a/output
I0417 16:46:35.780107 23546 net.cpp:133] Creating Layer inception_3a/output
I0417 16:46:35.780109 23546 net.cpp:453] inception_3a/output <- inception_3a/1x1_bn
I0417 16:46:35.780112 23546 net.cpp:453] inception_3a/output <- inception_3a/3x3_bn
I0417 16:46:35.780114 23546 net.cpp:453] inception_3a/output <- inception_3a/double_3x3_2_bn
I0417 16:46:35.780117 23546 net.cpp:453] inception_3a/output <- inception_3a/pool_proj_bn
I0417 16:46:35.780120 23546 net.cpp:411] inception_3a/output -> inception_3a/output
I0417 16:46:35.780124 23546 net.cpp:163] Setting up inception_3a/output
I0417 16:46:35.780130 23546 net.cpp:170] Top shape: 10 1024 18 7 (1290240)
I0417 16:46:35.780134 23546 layer_factory.hpp:74] Creating layer inception_3a/output_inception_3a/output_0_split
I0417 16:46:35.780140 23546 net.cpp:133] Creating Layer inception_3a/output_inception_3a/output_0_split
I0417 16:46:35.780143 23546 net.cpp:453] inception_3a/output_inception_3a/output_0_split <- inception_3a/output
I0417 16:46:35.780150 23546 net.cpp:411] inception_3a/output_inception_3a/output_0_split -> inception_3a/output_inception_3a/output_0_split_0
I0417 16:46:35.780158 23546 net.cpp:411] inception_3a/output_inception_3a/output_0_split -> inception_3a/output_inception_3a/output_0_split_1
I0417 16:46:35.780161 23546 net.cpp:411] inception_3a/output_inception_3a/output_0_split -> inception_3a/output_inception_3a/output_0_split_2
I0417 16:46:35.780164 23546 net.cpp:163] Setting up inception_3a/output_inception_3a/output_0_split
I0417 16:46:35.780169 23546 net.cpp:170] Top shape: 10 1024 18 7 (1290240)
I0417 16:46:35.780172 23546 net.cpp:170] Top shape: 10 1024 18 7 (1290240)
I0417 16:46:35.780175 23546 net.cpp:170] Top shape: 10 1024 18 7 (1290240)
I0417 16:46:35.780179 23546 layer_factory.hpp:74] Creating layer inception_3b/3x3_reduce
I0417 16:46:35.780186 23546 net.cpp:133] Creating Layer inception_3b/3x3_reduce
I0417 16:46:35.780190 23546 net.cpp:453] inception_3b/3x3_reduce <- inception_3a/output_inception_3a/output_0_split_0
I0417 16:46:35.780194 23546 net.cpp:411] inception_3b/3x3_reduce -> inception_3b/3x3_reduce
I0417 16:46:35.780199 23546 net.cpp:163] Setting up inception_3b/3x3_reduce
I0417 16:46:35.956918 23546 net.cpp:170] Top shape: 10 256 18 7 (322560)
I0417 16:46:35.956935 23546 layer_factory.hpp:74] Creating layer inception_3b/3x3_reduce_bn
I0417 16:46:35.956938 23546 layer_factory.cpp:191] Layer inception_3b/3x3_reduce_bn is using CAFFE engine.
I0417 16:46:35.956944 23546 net.cpp:133] Creating Layer inception_3b/3x3_reduce_bn
I0417 16:46:35.956948 23546 net.cpp:453] inception_3b/3x3_reduce_bn <- inception_3b/3x3_reduce
I0417 16:46:35.956953 23546 net.cpp:411] inception_3b/3x3_reduce_bn -> inception_3b/3x3_reduce_bn
I0417 16:46:35.956959 23546 net.cpp:163] Setting up inception_3b/3x3_reduce_bn
I0417 16:46:35.956970 23546 net.cpp:170] Top shape: 10 256 18 7 (322560)
I0417 16:46:35.956977 23546 layer_factory.hpp:74] Creating layer inception_3b/relu_3x3_reduce
I0417 16:46:35.956984 23546 net.cpp:133] Creating Layer inception_3b/relu_3x3_reduce
I0417 16:46:35.956987 23546 net.cpp:453] inception_3b/relu_3x3_reduce <- inception_3b/3x3_reduce_bn
I0417 16:46:35.956992 23546 net.cpp:400] inception_3b/relu_3x3_reduce -> inception_3b/3x3_reduce_bn (in-place)
I0417 16:46:35.956998 23546 net.cpp:163] Setting up inception_3b/relu_3x3_reduce
I0417 16:46:35.957250 23546 net.cpp:170] Top shape: 10 256 18 7 (322560)
I0417 16:46:35.957257 23546 layer_factory.hpp:74] Creating layer inception_3b/3x3
I0417 16:46:35.957263 23546 net.cpp:133] Creating Layer inception_3b/3x3
I0417 16:46:35.957268 23546 net.cpp:453] inception_3b/3x3 <- inception_3b/3x3_reduce_bn
I0417 16:46:35.957274 23546 net.cpp:411] inception_3b/3x3 -> inception_3b/3x3
I0417 16:46:35.957279 23546 net.cpp:163] Setting up inception_3b/3x3
I0417 16:46:35.969301 23546 net.cpp:170] Top shape: 10 256 9 4 (92160)
I0417 16:46:35.969311 23546 layer_factory.hpp:74] Creating layer inception_3b/3x3_bn
I0417 16:46:35.969315 23546 layer_factory.cpp:191] Layer inception_3b/3x3_bn is using CAFFE engine.
I0417 16:46:35.969318 23546 net.cpp:133] Creating Layer inception_3b/3x3_bn
I0417 16:46:35.969321 23546 net.cpp:453] inception_3b/3x3_bn <- inception_3b/3x3
I0417 16:46:35.969324 23546 net.cpp:411] inception_3b/3x3_bn -> inception_3b/3x3_bn
I0417 16:46:35.969329 23546 net.cpp:163] Setting up inception_3b/3x3_bn
I0417 16:46:35.969343 23546 net.cpp:170] Top shape: 10 256 9 4 (92160)
I0417 16:46:35.969352 23546 layer_factory.hpp:74] Creating layer inception_3b/relu_3x3
I0417 16:46:35.969355 23546 net.cpp:133] Creating Layer inception_3b/relu_3x3
I0417 16:46:35.969357 23546 net.cpp:453] inception_3b/relu_3x3 <- inception_3b/3x3_bn
I0417 16:46:35.969360 23546 net.cpp:400] inception_3b/relu_3x3 -> inception_3b/3x3_bn (in-place)
I0417 16:46:35.969363 23546 net.cpp:163] Setting up inception_3b/relu_3x3
I0417 16:46:35.969568 23546 net.cpp:170] Top shape: 10 256 9 4 (92160)
I0417 16:46:35.969574 23546 layer_factory.hpp:74] Creating layer inception_3b/double_3x3_reduce
I0417 16:46:35.969580 23546 net.cpp:133] Creating Layer inception_3b/double_3x3_reduce
I0417 16:46:35.969583 23546 net.cpp:453] inception_3b/double_3x3_reduce <- inception_3a/output_inception_3a/output_0_split_1
I0417 16:46:35.969586 23546 net.cpp:411] inception_3b/double_3x3_reduce -> inception_3b/double_3x3_reduce
I0417 16:46:35.969591 23546 net.cpp:163] Setting up inception_3b/double_3x3_reduce
I0417 16:46:36.145254 23546 net.cpp:170] Top shape: 10 256 18 7 (322560)
I0417 16:46:36.145264 23546 layer_factory.hpp:74] Creating layer inception_3b/double_3x3_reduce_bn
I0417 16:46:36.145267 23546 layer_factory.cpp:191] Layer inception_3b/double_3x3_reduce_bn is using CAFFE engine.
I0417 16:46:36.145294 23546 net.cpp:133] Creating Layer inception_3b/double_3x3_reduce_bn
I0417 16:46:36.145299 23546 net.cpp:453] inception_3b/double_3x3_reduce_bn <- inception_3b/double_3x3_reduce
I0417 16:46:36.145306 23546 net.cpp:411] inception_3b/double_3x3_reduce_bn -> inception_3b/double_3x3_reduce_bn
I0417 16:46:36.145311 23546 net.cpp:163] Setting up inception_3b/double_3x3_reduce_bn
I0417 16:46:36.145320 23546 net.cpp:170] Top shape: 10 256 18 7 (322560)
I0417 16:46:36.145325 23546 layer_factory.hpp:74] Creating layer inception_3b/relu_double_3x3_reduce
I0417 16:46:36.145330 23546 net.cpp:133] Creating Layer inception_3b/relu_double_3x3_reduce
I0417 16:46:36.145335 23546 net.cpp:453] inception_3b/relu_double_3x3_reduce <- inception_3b/double_3x3_reduce_bn
I0417 16:46:36.145339 23546 net.cpp:400] inception_3b/relu_double_3x3_reduce -> inception_3b/double_3x3_reduce_bn (in-place)
I0417 16:46:36.145344 23546 net.cpp:163] Setting up inception_3b/relu_double_3x3_reduce
I0417 16:46:36.145469 23546 net.cpp:170] Top shape: 10 256 18 7 (322560)
I0417 16:46:36.145474 23546 layer_factory.hpp:74] Creating layer inception_3b/double_3x3_1
I0417 16:46:36.145479 23546 net.cpp:133] Creating Layer inception_3b/double_3x3_1
I0417 16:46:36.145481 23546 net.cpp:453] inception_3b/double_3x3_1 <- inception_3b/double_3x3_reduce_bn
I0417 16:46:36.145485 23546 net.cpp:411] inception_3b/double_3x3_1 -> inception_3b/double_3x3_1
I0417 16:46:36.145490 23546 net.cpp:163] Setting up inception_3b/double_3x3_1
I0417 16:46:36.203516 23546 net.cpp:170] Top shape: 10 256 18 7 (322560)
I0417 16:46:36.203526 23546 layer_factory.hpp:74] Creating layer inception_3b/double_3x3_1_bn
I0417 16:46:36.203529 23546 layer_factory.cpp:191] Layer inception_3b/double_3x3_1_bn is using CAFFE engine.
I0417 16:46:36.203533 23546 net.cpp:133] Creating Layer inception_3b/double_3x3_1_bn
I0417 16:46:36.203536 23546 net.cpp:453] inception_3b/double_3x3_1_bn <- inception_3b/double_3x3_1
I0417 16:46:36.203539 23546 net.cpp:411] inception_3b/double_3x3_1_bn -> inception_3b/double_3x3_1_bn
I0417 16:46:36.203544 23546 net.cpp:163] Setting up inception_3b/double_3x3_1_bn
I0417 16:46:36.203560 23546 net.cpp:170] Top shape: 10 256 18 7 (322560)
I0417 16:46:36.203567 23546 layer_factory.hpp:74] Creating layer inception_3b/relu_double_3x3_1
I0417 16:46:36.203570 23546 net.cpp:133] Creating Layer inception_3b/relu_double_3x3_1
I0417 16:46:36.203572 23546 net.cpp:453] inception_3b/relu_double_3x3_1 <- inception_3b/double_3x3_1_bn
I0417 16:46:36.203575 23546 net.cpp:400] inception_3b/relu_double_3x3_1 -> inception_3b/double_3x3_1_bn (in-place)
I0417 16:46:36.203578 23546 net.cpp:163] Setting up inception_3b/relu_double_3x3_1
I0417 16:46:36.203781 23546 net.cpp:170] Top shape: 10 256 18 7 (322560)
I0417 16:46:36.203788 23546 layer_factory.hpp:74] Creating layer inception_3b/double_3x3_2
I0417 16:46:36.203793 23546 net.cpp:133] Creating Layer inception_3b/double_3x3_2
I0417 16:46:36.203794 23546 net.cpp:453] inception_3b/double_3x3_2 <- inception_3b/double_3x3_1_bn
I0417 16:46:36.203799 23546 net.cpp:411] inception_3b/double_3x3_2 -> inception_3b/double_3x3_2
I0417 16:46:36.203804 23546 net.cpp:163] Setting up inception_3b/double_3x3_2
I0417 16:46:36.215853 23546 net.cpp:170] Top shape: 10 256 9 4 (92160)
I0417 16:46:36.215862 23546 layer_factory.hpp:74] Creating layer inception_3b/double_3x3_2_bn
I0417 16:46:36.215865 23546 layer_factory.cpp:191] Layer inception_3b/double_3x3_2_bn is using CAFFE engine.
I0417 16:46:36.215869 23546 net.cpp:133] Creating Layer inception_3b/double_3x3_2_bn
I0417 16:46:36.215873 23546 net.cpp:453] inception_3b/double_3x3_2_bn <- inception_3b/double_3x3_2
I0417 16:46:36.215876 23546 net.cpp:411] inception_3b/double_3x3_2_bn -> inception_3b/double_3x3_2_bn
I0417 16:46:36.215880 23546 net.cpp:163] Setting up inception_3b/double_3x3_2_bn
I0417 16:46:36.215895 23546 net.cpp:170] Top shape: 10 256 9 4 (92160)
I0417 16:46:36.215901 23546 layer_factory.hpp:74] Creating layer inception_3b/relu_double_3x3_2
I0417 16:46:36.215906 23546 net.cpp:133] Creating Layer inception_3b/relu_double_3x3_2
I0417 16:46:36.215909 23546 net.cpp:453] inception_3b/relu_double_3x3_2 <- inception_3b/double_3x3_2_bn
I0417 16:46:36.215911 23546 net.cpp:400] inception_3b/relu_double_3x3_2 -> inception_3b/double_3x3_2_bn (in-place)
I0417 16:46:36.215914 23546 net.cpp:163] Setting up inception_3b/relu_double_3x3_2
I0417 16:46:36.216120 23546 net.cpp:170] Top shape: 10 256 9 4 (92160)
I0417 16:46:36.216126 23546 layer_factory.hpp:74] Creating layer inception_3b/pool
I0417 16:46:36.216130 23546 layer_factory.cpp:64] CUDNN does not support padding or multiple tops. Using Caffe's own pooling layer.
I0417 16:46:36.216133 23546 net.cpp:133] Creating Layer inception_3b/pool
I0417 16:46:36.216135 23546 net.cpp:453] inception_3b/pool <- inception_3a/output_inception_3a/output_0_split_2
I0417 16:46:36.216138 23546 net.cpp:411] inception_3b/pool -> inception_3b/pool
I0417 16:46:36.216142 23546 net.cpp:163] Setting up inception_3b/pool
I0417 16:46:36.216147 23546 net.cpp:170] Top shape: 10 1024 9 4 (368640)
I0417 16:46:36.216151 23546 layer_factory.hpp:74] Creating layer inception_3b/output
I0417 16:46:36.216157 23546 net.cpp:133] Creating Layer inception_3b/output
I0417 16:46:36.216161 23546 net.cpp:453] inception_3b/output <- inception_3b/3x3_bn
I0417 16:46:36.216164 23546 net.cpp:453] inception_3b/output <- inception_3b/double_3x3_2_bn
I0417 16:46:36.216166 23546 net.cpp:453] inception_3b/output <- inception_3b/pool
I0417 16:46:36.216171 23546 net.cpp:411] inception_3b/output -> inception_3b/output
I0417 16:46:36.216173 23546 net.cpp:163] Setting up inception_3b/output
I0417 16:46:36.216178 23546 net.cpp:170] Top shape: 10 1536 9 4 (552960)
I0417 16:46:36.216183 23546 layer_factory.hpp:74] Creating layer global_pool
I0417 16:46:36.216187 23546 net.cpp:133] Creating Layer global_pool
I0417 16:46:36.216189 23546 net.cpp:453] global_pool <- inception_3b/output
I0417 16:46:36.216192 23546 net.cpp:411] global_pool -> global_pool
I0417 16:46:36.216195 23546 net.cpp:163] Setting up global_pool
I0417 16:46:36.216313 23546 net.cpp:170] Top shape: 10 1536 1 1 (15360)
I0417 16:46:36.216318 23546 layer_factory.hpp:74] Creating layer gather_global_pool_to_fc7
I0417 16:46:36.216322 23546 net.cpp:133] Creating Layer gather_global_pool_to_fc7
I0417 16:46:36.216325 23546 net.cpp:453] gather_global_pool_to_fc7 <- global_pool
I0417 16:46:36.216327 23546 net.cpp:411] gather_global_pool_to_fc7 -> gathered_global_pool
I0417 16:46:36.216331 23546 net.cpp:163] Setting up gather_global_pool_to_fc7
I0417 16:46:36.216333 23546 net.cpp:170] Top shape: 20 1536 1 1 (30720)
I0417 16:46:36.216336 23546 layer_factory.hpp:74] Creating layer fc7
I0417 16:46:36.216341 23546 net.cpp:133] Creating Layer fc7
I0417 16:46:36.216342 23546 net.cpp:453] fc7 <- gathered_global_pool
I0417 16:46:36.216348 23546 net.cpp:411] fc7 -> fc7
I0417 16:46:36.216354 23546 net.cpp:163] Setting up fc7
I0417 16:46:36.217890 23546 net.cpp:170] Top shape: 20 256 (5120)
I0417 16:46:36.217897 23546 layer_factory.hpp:74] Creating layer fc7_bn
I0417 16:46:36.217900 23546 layer_factory.cpp:191] Layer fc7_bn is using CAFFE engine.
I0417 16:46:36.217902 23546 net.cpp:133] Creating Layer fc7_bn
I0417 16:46:36.217905 23546 net.cpp:453] fc7_bn <- fc7
I0417 16:46:36.217908 23546 net.cpp:411] fc7_bn -> fc7_bn
I0417 16:46:36.217911 23546 net.cpp:163] Setting up fc7_bn
I0417 16:46:36.217922 23546 net.cpp:170] Top shape: 20 256 (5120)
I0417 16:46:36.217931 23546 layer_factory.hpp:74] Creating layer relu7
I0417 16:46:36.217936 23546 net.cpp:133] Creating Layer relu7
I0417 16:46:36.217939 23546 net.cpp:453] relu7 <- fc7_bn
I0417 16:46:36.217943 23546 net.cpp:400] relu7 -> fc7_bn (in-place)
I0417 16:46:36.217947 23546 net.cpp:163] Setting up relu7
I0417 16:46:36.218147 23546 net.cpp:170] Top shape: 20 256 (5120)
I0417 16:46:36.218152 23546 layer_factory.hpp:74] Creating layer drop7
I0417 16:46:36.218158 23546 net.cpp:133] Creating Layer drop7
I0417 16:46:36.218159 23546 net.cpp:453] drop7 <- fc7_bn
I0417 16:46:36.218163 23546 net.cpp:400] drop7 -> fc7_bn (in-place)
I0417 16:46:36.218165 23546 net.cpp:163] Setting up drop7
I0417 16:46:36.218168 23546 net.cpp:170] Top shape: 20 256 (5120)
I0417 16:46:36.218170 23546 layer_factory.hpp:74] Creating layer fc8_viper
I0417 16:46:36.218174 23546 net.cpp:133] Creating Layer fc8_viper
I0417 16:46:36.218178 23546 net.cpp:453] fc8_viper <- fc7_bn
I0417 16:46:36.218183 23546 net.cpp:411] fc8_viper -> fc8_viper
I0417 16:46:36.218189 23546 net.cpp:163] Setting up fc8_viper
I0417 16:46:36.219296 23546 net.cpp:170] Top shape: 20 632 (12640)
I0417 16:46:36.219302 23546 layer_factory.hpp:74] Creating layer fc8_viper_fc8_viper_0_split
I0417 16:46:36.219306 23546 net.cpp:133] Creating Layer fc8_viper_fc8_viper_0_split
I0417 16:46:36.219308 23546 net.cpp:453] fc8_viper_fc8_viper_0_split <- fc8_viper
I0417 16:46:36.219311 23546 net.cpp:411] fc8_viper_fc8_viper_0_split -> fc8_viper_fc8_viper_0_split_0
I0417 16:46:36.219316 23546 net.cpp:411] fc8_viper_fc8_viper_0_split -> fc8_viper_fc8_viper_0_split_1
I0417 16:46:36.219318 23546 net.cpp:163] Setting up fc8_viper_fc8_viper_0_split
I0417 16:46:36.219321 23546 net.cpp:170] Top shape: 20 632 (12640)
I0417 16:46:36.219323 23546 net.cpp:170] Top shape: 20 632 (12640)
I0417 16:46:36.219326 23546 layer_factory.hpp:74] Creating layer gather_label_data_1_split_to_loss
I0417 16:46:36.219331 23546 net.cpp:133] Creating Layer gather_label_data_1_split_to_loss
I0417 16:46:36.219334 23546 net.cpp:453] gather_label_data_1_split_to_loss <- label_data_1_split_0
I0417 16:46:36.219339 23546 net.cpp:411] gather_label_data_1_split_to_loss -> gathered_label_data_1_split_0
I0417 16:46:36.219346 23546 net.cpp:163] Setting up gather_label_data_1_split_to_loss
I0417 16:46:36.219349 23546 net.cpp:170] Top shape: 20 (20)
I0417 16:46:36.219352 23546 layer_factory.hpp:74] Creating layer loss
I0417 16:46:36.219357 23546 net.cpp:133] Creating Layer loss
I0417 16:46:36.219360 23546 net.cpp:453] loss <- fc8_viper_fc8_viper_0_split_0
I0417 16:46:36.219364 23546 net.cpp:453] loss <- gathered_label_data_1_split_0
I0417 16:46:36.219370 23546 net.cpp:411] loss -> loss
I0417 16:46:36.219375 23546 net.cpp:163] Setting up loss
I0417 16:46:36.219380 23546 layer_factory.hpp:74] Creating layer loss
I0417 16:46:36.219519 23546 net.cpp:170] Top shape: (1)
I0417 16:46:36.219523 23546 net.cpp:172]     with loss weight 1
I0417 16:46:36.219530 23546 layer_factory.hpp:74] Creating layer gather_label_data_1_split_to_accuracy
I0417 16:46:36.219534 23546 net.cpp:133] Creating Layer gather_label_data_1_split_to_accuracy
I0417 16:46:36.219537 23546 net.cpp:453] gather_label_data_1_split_to_accuracy <- label_data_1_split_1
I0417 16:46:36.219539 23546 net.cpp:411] gather_label_data_1_split_to_accuracy -> gathered_label_data_1_split_1
I0417 16:46:36.219543 23546 net.cpp:163] Setting up gather_label_data_1_split_to_accuracy
I0417 16:46:36.219545 23546 net.cpp:170] Top shape: 20 (20)
I0417 16:46:36.219548 23546 layer_factory.hpp:74] Creating layer accuracy
I0417 16:46:36.219554 23546 net.cpp:133] Creating Layer accuracy
I0417 16:46:36.219558 23546 net.cpp:453] accuracy <- fc8_viper_fc8_viper_0_split_1
I0417 16:46:36.219561 23546 net.cpp:453] accuracy <- gathered_label_data_1_split_1
I0417 16:46:36.219565 23546 net.cpp:411] accuracy -> accuracy
I0417 16:46:36.219571 23546 net.cpp:163] Setting up accuracy
…
