…
I0416 11:55:55.162780   977 net.cpp:330] The NetState phase (0) differed from the phase (1) specified by a rule in layer accuracy
I0416 11:55:55.163389   977 net.cpp:47] Initializing net from parameters:
name: "CUHK03"
state {
  phase: TRAIN
}
richness: 1000
layer {
  name: "data"
  type: "Data"
  top: "data"
  top: "label"
  include {
    phase: TRAIN
  }
  transform_param {
    mirror: true
    mean_value: 102
    mean_value: 102
    mean_value: 101
    crop_height: 144
    crop_width: 56
  }
  data_param {
    source: "external/exp/db/cuhk03/train_lmdb"
    batch_size: 50
    backend: LMDB
    shuffle_pool_size: 10
  }
}
layer {
  name: "conv1"
  type: "Convolution"
  bottom: "data"
  top: "conv1"
  param {
    lr_mult: 1
    decay_mult: 1
  }
  param {
    lr_mult: 2
    decay_mult: 0
  }
  convolution_param {
    num_output: 32
    pad: 1
    kernel_size: 3
    stride: 1
    weight_filler {
      type: "xavier"
    }
    bias_filler {
      type: "constant"
      value: 0.2
    }
  }
}
layer {
  name: "conv1_bn"
  type: "BN"
  bottom: "conv1"
  top: "conv1_bn"
  param {
    lr_mult: 1
    decay_mult: 0
  }
  param {
    lr_mult: 1
    decay_mult: 0
  }
  bn_param {
    slope_filler {
      type: "constant"
      value: 1
    }
    bias_filler {
      type: "constant"
      value: 0
    }
  }
}
layer {
  name: "relu1"
  type: "ReLU"
  bottom: "conv1_bn"
  top: "conv1_bn"
}
layer {
  name: "conv2"
  type: "Convolution"
  bottom: "conv1_bn"
  top: "conv2"
  param {
    lr_mult: 1
    decay_mult: 1
  }
  param {
    lr_mult: 2
    decay_mult: 0
  }
  convolution_param {
    num_output: 32
    pad: 1
    kernel_size: 3
    stride: 1
    weight_filler {
      type: "xavier"
    }
    bias_filler {
      type: "constant"
      value: 0.2
    }
  }
}
layer {
  name: "conv2_bn"
  type: "BN"
  bottom: "conv2"
  top: "conv2_bn"
  param {
    lr_mult: 1
    decay_mult: 0
  }
  param {
    lr_mult: 1
    decay_mult: 0
  }
  bn_param {
    slope_filler {
      type: "constant"
      value: 1
    }
    bias_filler {
      type: "constant"
      value: 0
    }
  }
}
layer {
  name: "relu2"
  type: "ReLU"
  bottom: "conv2_bn"
  top: "conv2_bn"
}
layer {
  name: "conv3"
  type: "Convolution"
  bottom: "conv2_bn"
  top: "conv3"
  param {
    lr_mult: 1
    decay_mult: 1
  }
  param {
    lr_mult: 2
    decay_mult: 0
  }
  convolution_param {
    num_output: 32
    pad: 1
    kernel_size: 3
    stride: 1
    weight_filler {
      type: "xavier"
    }
    bias_filler {
      type: "constant"
      value: 0.2
    }
  }
}
layer {
  name: "conv3_bn"
  type: "BN"
  bottom: "conv3"
  top: "conv3_bn"
  param {
    lr_mult: 1
    decay_mult: 0
  }
  param {
    lr_mult: 1
    decay_mult: 0
  }
  bn_param {
    slope_filler {
      type: "constant"
      value: 1
    }
    bias_filler {
      type: "constant"
      value: 0
    }
  }
}
layer {
  name: "relu3"
  type: "ReLU"
  bottom: "conv3_bn"
  top: "conv3_bn"
}
layer {
  name: "pool1"
  type: "Pooling"
  bottom: "conv3_bn"
  top: "pool1"
  pooling_param {
    pool: MAX
    kernel_size: 2
    stride: 2
  }
}
layer {
  name: "inception_1a/1x1"
  type: "Convolution"
  bottom: "pool1"
  top: "inception_1a/1x1"
  param {
    lr_mult: 1
    decay_mult: 1
  }
  param {
    lr_mult: 2
    decay_mult: 0
  }
  convolution_param {
    num_output: 64
    kernel_size: 1
    weight_filler {
      type: "xavier"
    }
    bias_filler {
      type: "constant"
      value: 0.2
    }
  }
}
layer {
  name: "inception_1a/1x1_bn"
  type: "BN"
  bottom: "inception_1a/1x1"
  top: "inception_1a/1x1_bn"
  param {
    lr_mult: 1
    decay_mult: 0
  }
  param {
    lr_mult: 1
    decay_mult: 0
  }
  bn_param {
    slope_filler {
      type: "constant"
      value: 1
    }
    bias_filler {
      type: "constant"
      value: 0
    }
  }
}
layer {
  name: "inception_1a/relu_1x1"
  type: "ReLU"
  bottom: "inception_1a/1x1_bn"
  top: "inception_1a/1x1_bn"
}
layer {
  name: "inception_1a/3x3_reduce"
  type: "Convolution"
  bottom: "pool1"
  top: "inception_1a/3x3_reduce"
  param {
    lr_mult: 1
    decay_mult: 1
  }
  param {
    lr_mult: 2
    decay_mult: 0
  }
  convolution_param {
    num_output: 64
    kernel_size: 1
    weight_filler {
      type: "xavier"
    }
    bias_filler {
      type: "constant"
      value: 0.2
    }
  }
}
layer {
  name: "inception_1a/3x3_reduce_bn"
  type: "BN"
  bottom: "inception_1a/3x3_reduce"
  top: "inception_1a/3x3_reduce_bn"
  param {
    lr_mult: 1
    decay_mult: 0
  }
  param {
    lr_mult: 1
    decay_mult: 0
  }
  bn_param {
    slope_filler {
      type: "constant"
      value: 1
    }
    bias_filler {
      type: "constant"
      value: 0
    }
  }
}
layer {
  name: "inception_1a/relu_3x3_reduce"
  type: "ReLU"
  bottom: "inception_1a/3x3_reduce_bn"
  top: "inception_1a/3x3_reduce_bn"
}
layer {
  name: "inception_1a/3x3"
  type: "Convolution"
  bottom: "inception_1a/3x3_reduce_bn"
  top: "inception_1a/3x3"
  param {
    lr_mult: 1
    decay_mult: 1
  }
  param {
    lr_mult: 2
    decay_mult: 0
  }
  convolution_param {
    num_output: 64
    pad: 1
    kernel_size: 3
    weight_filler {
      type: "xavier"
    }
    bias_filler {
      type: "constant"
      value: 0.2
    }
  }
}
layer {
  name: "inception_1a/3x3_bn"
  type: "BN"
  bottom: "inception_1a/3x3"
  top: "inception_1a/3x3_bn"
  param {
    lr_mult: 1
    decay_mult: 0
  }
  param {
    lr_mult: 1
    decay_mult: 0
  }
  bn_param {
    slope_filler {
      type: "constant"
      value: 1
    }
    bias_filler {
      type: "constant"
      value: 0
    }
  }
}
layer {
  name: "inception_1a/relu_3x3"
  type: "ReLU"
  bottom: "inception_1a/3x3_bn"
  top: "inception_1a/3x3_bn"
}
layer {
  name: "inception_1a/double_3x3_reduce"
  type: "Convolution"
  bottom: "pool1"
  top: "inception_1a/double_3x3_reduce"
  param {
    lr_mult: 1
    decay_mult: 1
  }
  param {
    lr_mult: 2
    decay_mult: 0
  }
  convolution_param {
    num_output: 64
    kernel_size: 1
    weight_filler {
      type: "xavier"
    }
    bias_filler {
      type: "constant"
      value: 0.2
    }
  }
}
layer {
  name: "inception_1a/double_3x3_reduce_bn"
  type: "BN"
  bottom: "inception_1a/double_3x3_reduce"
  top: "inception_1a/double_3x3_reduce_bn"
  param {
    lr_mult: 1
    decay_mult: 0
  }
  param {
    lr_mult: 1
    decay_mult: 0
  }
  bn_param {
    slope_filler {
      type: "constant"
      value: 1
    }
    bias_filler {
      type: "constant"
      value: 0
    }
  }
}
layer {
  name: "inception_1a/relu_double_3x3_reduce"
  type: "ReLU"
  bottom: "inception_1a/double_3x3_reduce_bn"
  top: "inception_1a/double_3x3_reduce_bn"
}
layer {
  name: "inception_1a/double_3x3_1"
  type: "Convolution"
  bottom: "inception_1a/double_3x3_reduce_bn"
  top: "inception_1a/double_3x3_1"
  param {
    lr_mult: 1
    decay_mult: 1
  }
  param {
    lr_mult: 2
    decay_mult: 0
  }
  convolution_param {
    num_output: 64
    pad: 1
    kernel_size: 3
    weight_filler {
      type: "xavier"
    }
    bias_filler {
      type: "constant"
      value: 0.2
    }
  }
}
layer {
  name: "inception_1a/double_3x3_1_bn"
  type: "BN"
  bottom: "inception_1a/double_3x3_1"
  top: "inception_1a/double_3x3_1_bn"
  param {
    lr_mult: 1
    decay_mult: 0
  }
  param {
    lr_mult: 1
    decay_mult: 0
  }
  bn_param {
    slope_filler {
      type: "constant"
      value: 1
    }
    bias_filler {
      type: "constant"
      value: 0
    }
  }
}
layer {
  name: "inception_1a/relu_double_3x3_1"
  type: "ReLU"
  bottom: "inception_1a/double_3x3_1_bn"
  top: "inception_1a/double_3x3_1_bn"
}
layer {
  name: "inception_1a/double_3x3_2"
  type: "Convolution"
  bottom: "inception_1a/double_3x3_1_bn"
  top: "inception_1a/double_3x3_2"
  param {
    lr_mult: 1
    decay_mult: 1
  }
  param {
    lr_mult: 2
    decay_mult: 0
  }
  convolution_param {
    num_output: 64
    pad: 1
    kernel_size: 3
    weight_filler {
      type: "xavier"
    }
    bias_filler {
      type: "constant"
      value: 0.2
    }
  }
}
layer {
  name: "inception_1a/double_3x3_2_bn"
  type: "BN"
  bottom: "inception_1a/double_3x3_2"
  top: "inception_1a/double_3x3_2_bn"
  param {
    lr_mult: 1
    decay_mult: 0
  }
  param {
    lr_mult: 1
    decay_mult: 0
  }
  bn_param {
    slope_filler {
      type: "constant"
      value: 1
    }
    bias_filler {
      type: "constant"
      value: 0
    }
  }
}
layer {
  name: "inception_1a/relu_double_3x3_2"
  type: "ReLU"
  bottom: "inception_1a/double_3x3_2_bn"
  top: "inception_1a/double_3x3_2_bn"
}
layer {
  name: "inception_1a/pool"
  type: "Pooling"
  bottom: "pool1"
  top: "inception_1a/pool"
  pooling_param {
    pool: AVE
    kernel_size: 3
    stride: 1
    pad: 1
  }
}
layer {
  name: "inception_1a/pool_proj"
  type: "Convolution"
  bottom: "inception_1a/pool"
  top: "inception_1a/pool_proj"
  param {
    lr_mult: 1
    decay_mult: 1
  }
  param {
    lr_mult: 2
    decay_mult: 0
  }
  convolution_param {
    num_output: 64
    kernel_size: 1
    weight_filler {
      type: "xavier"
    }
    bias_filler {
      type: "constant"
      value: 0.2
    }
  }
}
layer {
  name: "inception_1a/pool_proj_bn"
  type: "BN"
  bottom: "inception_1a/pool_proj"
  top: "inception_1a/pool_proj_bn"
  param {
    lr_mult: 1
    decay_mult: 0
  }
  param {
    lr_mult: 1
    decay_mult: 0
  }
  bn_param {
    slope_filler {
      type: "constant"
      value: 1
    }
    bias_filler {
      type: "constant"
      value: 0
    }
  }
}
layer {
  name: "inception_1a/relu_pool_proj"
  type: "ReLU"
  bottom: "inception_1a/pool_proj_bn"
  top: "inception_1a/pool_proj_bn"
}
layer {
  name: "inception_1a/output"
  type: "Concat"
  bottom: "inception_1a/1x1_bn"
  bottom: "inception_1a/3x3_bn"
  bottom: "inception_1a/double_3x3_2_bn"
  bottom: "inception_1a/pool_proj_bn"
  top: "inception_1a/output"
}
layer {
  name: "inception_1b/3x3_reduce"
  type: "Convolution"
  bottom: "inception_1a/output"
  top: "inception_1b/3x3_reduce"
  param {
    lr_mult: 1
    decay_mult: 1
  }
  param {
    lr_mult: 2
    decay_mult: 0
  }
  convolution_param {
    num_output: 64
    kernel_size: 1
    weight_filler {
      type: "xavier"
    }
    bias_filler {
      type: "constant"
      value: 0.2
    }
  }
}
layer {
  name: "inception_1b/3x3_reduce_bn"
  type: "BN"
  bottom: "inception_1b/3x3_reduce"
  top: "inception_1b/3x3_reduce_bn"
  param {
    lr_mult: 1
    decay_mult: 0
  }
  param {
    lr_mult: 1
    decay_mult: 0
  }
  bn_param {
    slope_filler {
      type: "constant"
      value: 1
    }
    bias_filler {
      type: "constant"
      value: 0
    }
  }
}
layer {
  name: "inception_1b/relu_3x3_reduce"
  type: "ReLU"
  bottom: "inception_1b/3x3_reduce_bn"
  top: "inception_1b/3x3_reduce_bn"
}
layer {
  name: "inception_1b/3x3"
  type: "Convolution"
  bottom: "inception_1b/3x3_reduce_bn"
  top: "inception_1b/3x3"
  param {
    lr_mult: 1
    decay_mult: 1
  }
  param {
    lr_mult: 2
    decay_mult: 0
  }
  convolution_param {
    num_output: 64
    pad: 1
    kernel_size: 3
    stride: 2
    weight_filler {
      type: "xavier"
    }
    bias_filler {
      type: "constant"
      value: 0.2
    }
  }
}
layer {
  name: "inception_1b/3x3_bn"
  type: "BN"
  bottom: "inception_1b/3x3"
  top: "inception_1b/3x3_bn"
  param {
    lr_mult: 1
    decay_mult: 0
  }
  param {
    lr_mult: 1
    decay_mult: 0
  }
  bn_param {
    slope_filler {
      type: "constant"
      value: 1
    }
    bias_filler {
      type: "constant"
      value: 0
    }
  }
}
layer {
  name: "inception_1b/relu_3x3"
  type: "ReLU"
  bottom: "inception_1b/3x3_bn"
  top: "inception_1b/3x3_bn"
}
layer {
  name: "inception_1b/double_3x3_reduce"
  type: "Convolution"
  bottom: "inception_1a/output"
  top: "inception_1b/double_3x3_reduce"
  param {
    lr_mult: 1
    decay_mult: 1
  }
  param {
    lr_mult: 2
    decay_mult: 0
  }
  convolution_param {
    num_output: 64
    kernel_size: 1
    weight_filler {
      type: "xavier"
    }
    bias_filler {
      type: "constant"
      value: 0.2
    }
  }
}
layer {
  name: "inception_1b/double_3x3_reduce_bn"
  type: "BN"
  bottom: "inception_1b/double_3x3_reduce"
  top: "inception_1b/double_3x3_reduce_bn"
  param {
    lr_mult: 1
    decay_mult: 0
  }
  param {
    lr_mult: 1
    decay_mult: 0
  }
  bn_param {
    slope_filler {
      type: "constant"
      value: 1
    }
    bias_filler {
      type: "constant"
      value: 0
    }
  }
}
layer {
  name: "inception_1b/relu_double_3x3_reduce"
  type: "ReLU"
  bottom: "inception_1b/double_3x3_reduce_bn"
  top: "inception_1b/double_3x3_reduce_bn"
}
layer {
  name: "inception_1b/double_3x3_1"
  type: "Convolution"
  bottom: "inception_1b/double_3x3_reduce_bn"
  top: "inception_1b/double_3x3_1"
  param {
    lr_mult: 1
    decay_mult: 1
  }
  param {
    lr_mult: 2
    decay_mult: 0
  }
  convolution_param {
    num_output: 64
    pad: 1
    kernel_size: 3
    weight_filler {
      type: "xavier"
    }
    bias_filler {
      type: "constant"
      value: 0.2
    }
  }
}
layer {
  name: "inception_1b/double_3x3_1_bn"
  type: "BN"
  bottom: "inception_1b/double_3x3_1"
  top: "inception_1b/double_3x3_1_bn"
  param {
    lr_mult: 1
    decay_mult: 0
  }
  param {
    lr_mult: 1
    decay_mult: 0
  }
  bn_param {
    slope_filler {
      type: "constant"
      value: 1
    }
    bias_filler {
      type: "constant"
      value: 0
    }
  }
}
layer {
  name: "inception_1b/relu_double_3x3_1"
  type: "ReLU"
  bottom: "inception_1b/double_3x3_1_bn"
  top: "inception_1b/double_3x3_1_bn"
}
layer {
  name: "inception_1b/double_3x3_2"
  type: "Convolution"
  bottom: "inception_1b/double_3x3_1_bn"
  top: "inception_1b/double_3x3_2"
  param {
    lr_mult: 1
    decay_mult: 1
  }
  param {
    lr_mult: 2
    decay_mult: 0
  }
  convolution_param {
    num_output: 64
    pad: 1
    kernel_size: 3
    stride: 2
    weight_filler {
      type: "xavier"
    }
    bias_filler {
      type: "constant"
      value: 0.2
    }
  }
}
layer {
  name: "inception_1b/double_3x3_2_bn"
  type: "BN"
  bottom: "inception_1b/double_3x3_2"
  top: "inception_1b/double_3x3_2_bn"
  param {
    lr_mult: 1
    decay_mult: 0
  }
  param {
    lr_mult: 1
    decay_mult: 0
  }
  bn_param {
    slope_filler {
      type: "constant"
      value: 1
    }
    bias_filler {
      type: "constant"
      value: 0
    }
  }
}
layer {
  name: "inception_1b/relu_double_3x3_2"
  type: "ReLU"
  bottom: "inception_1b/double_3x3_2_bn"
  top: "inception_1b/double_3x3_2_bn"
}
layer {
  name: "inception_1b/pool"
  type: "Pooling"
  bottom: "inception_1a/output"
  top: "inception_1b/pool"
  pooling_param {
    pool: MAX
    kernel_size: 3
    stride: 2
  }
}
layer {
  name: "inception_1b/output"
  type: "Concat"
  bottom: "inception_1b/3x3_bn"
  bottom: "inception_1b/double_3x3_2_bn"
  bottom: "inception_1b/pool"
  top: "inception_1b/output"
}
layer {
  name: "inception_2a/1x1"
  type: "Convolution"
  bottom: "inception_1b/output"
  top: "inception_2a/1x1"
  param {
    lr_mult: 1
    decay_mult: 1
  }
  param {
    lr_mult: 2
    decay_mult: 0
  }
  convolution_param {
    num_output: 128
    kernel_size: 1
    weight_filler {
      type: "xavier"
    }
    bias_filler {
      type: "constant"
      value: 0.2
    }
  }
}
layer {
  name: "inception_2a/1x1_bn"
  type: "BN"
  bottom: "inception_2a/1x1"
  top: "inception_2a/1x1_bn"
  param {
    lr_mult: 1
    decay_mult: 0
  }
  param {
    lr_mult: 1
    decay_mult: 0
  }
  bn_param {
    slope_filler {
      type: "constant"
      value: 1
    }
    bias_filler {
      type: "constant"
      value: 0
    }
  }
}
layer {
  name: "inception_2a/relu_1x1"
  type: "ReLU"
  bottom: "inception_2a/1x1_bn"
  top: "inception_2a/1x1_bn"
}
layer {
  name: "inception_2a/3x3_reduce"
  type: "Convolution"
  bottom: "inception_1b/output"
  top: "inception_2a/3x3_reduce"
  param {
    lr_mult: 1
    decay_mult: 1
  }
  param {
    lr_mult: 2
    decay_mult: 0
  }
  convolution_param {
    num_output: 128
    kernel_size: 1
    weight_filler {
      type: "xavier"
    }
    bias_filler {
      type: "constant"
      value: 0.2
    }
  }
}
layer {
  name: "inception_2a/3x3_reduce_bn"
  type: "BN"
  bottom: "inception_2a/3x3_reduce"
  top: "inception_2a/3x3_reduce_bn"
  param {
    lr_mult: 1
    decay_mult: 0
  }
  param {
    lr_mult: 1
    decay_mult: 0
  }
  bn_param {
    slope_filler {
      type: "constant"
      value: 1
    }
    bias_filler {
      type: "constant"
      value: 0
    }
  }
}
layer {
  name: "inception_2a/relu_3x3_reduce"
  type: "ReLU"
  bottom: "inception_2a/3x3_reduce_bn"
  top: "inception_2a/3x3_reduce_bn"
}
layer {
  name: "inception_2a/3x3"
  type: "Convolution"
  bottom: "inception_2a/3x3_reduce_bn"
  top: "inception_2a/3x3"
  param {
    lr_mult: 1
    decay_mult: 1
  }
  param {
    lr_mult: 2
    decay_mult: 0
  }
  convolution_param {
    num_output: 128
    pad: 1
    kernel_size: 3
    weight_filler {
      type: "xavier"
    }
    bias_filler {
      type: "constant"
      value: 0.2
    }
  }
}
layer {
  name: "inception_2a/3x3_bn"
  type: "BN"
  bottom: "inception_2a/3x3"
  top: "inception_2a/3x3_bn"
  param {
    lr_mult: 1
    decay_mult: 0
  }
  param {
    lr_mult: 1
    decay_mult: 0
  }
  bn_param {
    slope_filler {
      type: "constant"
      value: 1
    }
    bias_filler {
      type: "constant"
      value: 0
    }
  }
}
layer {
  name: "inception_2a/relu_3x3"
  type: "ReLU"
  bottom: "inception_2a/3x3_bn"
  top: "inception_2a/3x3_bn"
}
layer {
  name: "inception_2a/double_3x3_reduce"
  type: "Convolution"
  bottom: "inception_1b/output"
  top: "inception_2a/double_3x3_reduce"
  param {
    lr_mult: 1
    decay_mult: 1
  }
  param {
    lr_mult: 2
    decay_mult: 0
  }
  convolution_param {
    num_output: 128
    kernel_size: 1
    weight_filler {
      type: "xavier"
    }
    bias_filler {
      type: "constant"
      value: 0.2
    }
  }
}
layer {
  name: "inception_2a/double_3x3_reduce_bn"
  type: "BN"
  bottom: "inception_2a/double_3x3_reduce"
  top: "inception_2a/double_3x3_reduce_bn"
  param {
    lr_mult: 1
    decay_mult: 0
  }
  param {
    lr_mult: 1
    decay_mult: 0
  }
  bn_param {
    slope_filler {
      type: "constant"
      value: 1
    }
    bias_filler {
      type: "constant"
      value: 0
    }
  }
}
layer {
  name: "inception_2a/relu_double_3x3_reduce"
  type: "ReLU"
  bottom: "inception_2a/double_3x3_reduce_bn"
  top: "inception_2a/double_3x3_reduce_bn"
}
layer {
  name: "inception_2a/double_3x3_1"
  type: "Convolution"
  bottom: "inception_2a/double_3x3_reduce_bn"
  top: "inception_2a/double_3x3_1"
  param {
    lr_mult: 1
    decay_mult: 1
  }
  param {
    lr_mult: 2
    decay_mult: 0
  }
  convolution_param {
    num_output: 128
    pad: 1
    kernel_size: 3
    weight_filler {
      type: "xavier"
    }
    bias_filler {
      type: "constant"
      value: 0.2
    }
  }
}
layer {
  name: "inception_2a/double_3x3_1_bn"
  type: "BN"
  bottom: "inception_2a/double_3x3_1"
  top: "inception_2a/double_3x3_1_bn"
  param {
    lr_mult: 1
    decay_mult: 0
  }
  param {
    lr_mult: 1
    decay_mult: 0
  }
  bn_param {
    slope_filler {
      type: "constant"
      value: 1
    }
    bias_filler {
      type: "constant"
      value: 0
    }
  }
}
layer {
  name: "inception_2a/relu_double_3x3_1"
  type: "ReLU"
  bottom: "inception_2a/double_3x3_1_bn"
  top: "inception_2a/double_3x3_1_bn"
}
layer {
  name: "inception_2a/double_3x3_2"
  type: "Convolution"
  bottom: "inception_2a/double_3x3_1_bn"
  top: "inception_2a/double_3x3_2"
  param {
    lr_mult: 1
    decay_mult: 1
  }
  param {
    lr_mult: 2
    decay_mult: 0
  }
  convolution_param {
    num_output: 128
    pad: 1
    kernel_size: 3
    weight_filler {
      type: "xavier"
    }
    bias_filler {
      type: "constant"
      value: 0.2
    }
  }
}
layer {
  name: "inception_2a/double_3x3_2_bn"
  type: "BN"
  bottom: "inception_2a/double_3x3_2"
  top: "inception_2a/double_3x3_2_bn"
  param {
    lr_mult: 1
    decay_mult: 0
  }
  param {
    lr_mult: 1
    decay_mult: 0
  }
  bn_param {
    slope_filler {
      type: "constant"
      value: 1
    }
    bias_filler {
      type: "constant"
      value: 0
    }
  }
}
layer {
  name: "inception_2a/relu_double_3x3_2"
  type: "ReLU"
  bottom: "inception_2a/double_3x3_2_bn"
  top: "inception_2a/double_3x3_2_bn"
}
layer {
  name: "inception_2a/pool"
  type: "Pooling"
  bottom: "inception_1b/output"
  top: "inception_2a/pool"
  pooling_param {
    pool: AVE
    kernel_size: 3
    stride: 1
    pad: 1
  }
}
layer {
  name: "inception_2a/pool_proj"
  type: "Convolution"
  bottom: "inception_2a/pool"
  top: "inception_2a/pool_proj"
  param {
    lr_mult: 1
    decay_mult: 1
  }
  param {
    lr_mult: 2
    decay_mult: 0
  }
  convolution_param {
    num_output: 128
    kernel_size: 1
    weight_filler {
      type: "xavier"
    }
    bias_filler {
      type: "constant"
      value: 0.2
    }
  }
}
layer {
  name: "inception_2a/pool_proj_bn"
  type: "BN"
  bottom: "inception_2a/pool_proj"
  top: "inception_2a/pool_proj_bn"
  param {
    lr_mult: 1
    decay_mult: 0
  }
  param {
    lr_mult: 1
    decay_mult: 0
  }
  bn_param {
    slope_filler {
      type: "constant"
      value: 1
    }
    bias_filler {
      type: "constant"
      value: 0
    }
  }
}
layer {
  name: "inception_2a/relu_pool_proj"
  type: "ReLU"
  bottom: "inception_2a/pool_proj_bn"
  top: "inception_2a/pool_proj_bn"
}
layer {
  name: "inception_2a/output"
  type: "Concat"
  bottom: "inception_2a/1x1_bn"
  bottom: "inception_2a/3x3_bn"
  bottom: "inception_2a/double_3x3_2_bn"
  bottom: "inception_2a/pool_proj_bn"
  top: "inception_2a/output"
}
layer {
  name: "inception_2b/3x3_reduce"
  type: "Convolution"
  bottom: "inception_2a/output"
  top: "inception_2b/3x3_reduce"
  param {
    lr_mult: 1
    decay_mult: 1
  }
  param {
    lr_mult: 2
    decay_mult: 0
  }
  convolution_param {
    num_output: 128
    kernel_size: 1
    weight_filler {
      type: "xavier"
    }
    bias_filler {
      type: "constant"
      value: 0.2
    }
  }
}
layer {
  name: "inception_2b/3x3_reduce_bn"
  type: "BN"
  bottom: "inception_2b/3x3_reduce"
  top: "inception_2b/3x3_reduce_bn"
  param {
    lr_mult: 1
    decay_mult: 0
  }
  param {
    lr_mult: 1
    decay_mult: 0
  }
  bn_param {
    slope_filler {
      type: "constant"
      value: 1
    }
    bias_filler {
      type: "constant"
      value: 0
    }
  }
}
layer {
  name: "inception_2b/relu_3x3_reduce"
  type: "ReLU"
  bottom: "inception_2b/3x3_reduce_bn"
  top: "inception_2b/3x3_reduce_bn"
}
layer {
  name: "inception_2b/3x3"
  type: "Convolution"
  bottom: "inception_2b/3x3_reduce_bn"
  top: "inception_2b/3x3"
  param {
    lr_mult: 1
    decay_mult: 1
  }
  param {
    lr_mult: 2
    decay_mult: 0
  }
  convolution_param {
    num_output: 128
    pad: 1
    kernel_size: 3
    stride: 2
    weight_filler {
      type: "xavier"
    }
    bias_filler {
      type: "constant"
      value: 0.2
    }
  }
}
layer {
  name: "inception_2b/3x3_bn"
  type: "BN"
  bottom: "inception_2b/3x3"
  top: "inception_2b/3x3_bn"
  param {
    lr_mult: 1
    decay_mult: 0
  }
  param {
    lr_mult: 1
    decay_mult: 0
  }
  bn_param {
    slope_filler {
      type: "constant"
      value: 1
    }
    bias_filler {
      type: "constant"
      value: 0
    }
  }
}
layer {
  name: "inception_2b/relu_3x3"
  type: "ReLU"
  bottom: "inception_2b/3x3_bn"
  top: "inception_2b/3x3_bn"
}
layer {
  name: "inception_2b/double_3x3_reduce"
  type: "Convolution"
  bottom: "inception_2a/output"
  top: "inception_2b/double_3x3_reduce"
  param {
    lr_mult: 1
    decay_mult: 1
  }
  param {
    lr_mult: 2
    decay_mult: 0
  }
  convolution_param {
    num_output: 128
    kernel_size: 1
    weight_filler {
      type: "xavier"
    }
    bias_filler {
      type: "constant"
      value: 0.2
    }
  }
}
layer {
  name: "inception_2b/double_3x3_reduce_bn"
  type: "BN"
  bottom: "inception_2b/double_3x3_reduce"
  top: "inception_2b/double_3x3_reduce_bn"
  param {
    lr_mult: 1
    decay_mult: 0
  }
  param {
    lr_mult: 1
    decay_mult: 0
  }
  bn_param {
    slope_filler {
      type: "constant"
      value: 1
    }
    bias_filler {
      type: "constant"
      value: 0
    }
  }
}
layer {
  name: "inception_2b/relu_double_3x3_reduce"
  type: "ReLU"
  bottom: "inception_2b/double_3x3_reduce_bn"
  top: "inception_2b/double_3x3_reduce_bn"
}
layer {
  name: "inception_2b/double_3x3_1"
  type: "Convolution"
  bottom: "inception_2b/double_3x3_reduce_bn"
  top: "inception_2b/double_3x3_1"
  param {
    lr_mult: 1
    decay_mult: 1
  }
  param {
    lr_mult: 2
    decay_mult: 0
  }
  convolution_param {
    num_output: 128
    pad: 1
    kernel_size: 3
    weight_filler {
      type: "xavier"
    }
    bias_filler {
      type: "constant"
      value: 0.2
    }
  }
}
layer {
  name: "inception_2b/double_3x3_1_bn"
  type: "BN"
  bottom: "inception_2b/double_3x3_1"
  top: "inception_2b/double_3x3_1_bn"
  param {
    lr_mult: 1
    decay_mult: 0
  }
  param {
    lr_mult: 1
    decay_mult: 0
  }
  bn_param {
    slope_filler {
      type: "constant"
      value: 1
    }
    bias_filler {
      type: "constant"
      value: 0
    }
  }
}
layer {
  name: "inception_2b/relu_double_3x3_1"
  type: "ReLU"
  bottom: "inception_2b/double_3x3_1_bn"
  top: "inception_2b/double_3x3_1_bn"
}
layer {
  name: "inception_2b/double_3x3_2"
  type: "Convolution"
  bottom: "inception_2b/double_3x3_1_bn"
  top: "inception_2b/double_3x3_2"
  param {
    lr_mult: 1
    decay_mult: 1
  }
  param {
    lr_mult: 2
    decay_mult: 0
  }
  convolution_param {
    num_output: 128
    pad: 1
    kernel_size: 3
    stride: 2
    weight_filler {
      type: "xavier"
    }
    bias_filler {
      type: "constant"
      value: 0.2
    }
  }
}
layer {
  name: "inception_2b/double_3x3_2_bn"
  type: "BN"
  bottom: "inception_2b/double_3x3_2"
  top: "inception_2b/double_3x3_2_bn"
  param {
    lr_mult: 1
    decay_mult: 0
  }
  param {
    lr_mult: 1
    decay_mult: 0
  }
  bn_param {
    slope_filler {
      type: "constant"
      value: 1
    }
    bias_filler {
      type: "constant"
      value: 0
    }
  }
}
layer {
  name: "inception_2b/relu_double_3x3_2"
  type: "ReLU"
  bottom: "inception_2b/double_3x3_2_bn"
  top: "inception_2b/double_3x3_2_bn"
}
layer {
  name: "inception_2b/pool"
  type: "Pooling"
  bottom: "inception_2a/output"
  top: "inception_2b/pool"
  pooling_param {
    pool: MAX
    kernel_size: 3
    stride: 2
  }
}
layer {
  name: "inception_2b/output"
  type: "Concat"
  bottom: "inception_2b/3x3_bn"
  bottom: "inception_2b/double_3x3_2_bn"
  bottom: "inception_2b/pool"
  top: "inception_2b/output"
}
layer {
  name: "inception_3a/1x1"
  type: "Convolution"
  bottom: "inception_2b/output"
  top: "inception_3a/1x1"
  param {
    lr_mult: 1
    decay_mult: 1
  }
  param {
    lr_mult: 2
    decay_mult: 0
  }
  convolution_param {
    num_output: 256
    kernel_size: 1
    weight_filler {
      type: "xavier"
    }
    bias_filler {
      type: "constant"
      value: 0.2
    }
  }
}
layer {
  name: "inception_3a/1x1_bn"
  type: "BN"
  bottom: "inception_3a/1x1"
  top: "inception_3a/1x1_bn"
  param {
    lr_mult: 1
    decay_mult: 0
  }
  param {
    lr_mult: 1
    decay_mult: 0
  }
  bn_param {
    slope_filler {
      type: "constant"
      value: 1
    }
    bias_filler {
      type: "constant"
      value: 0
    }
  }
}
layer {
  name: "inception_3a/relu_1x1"
  type: "ReLU"
  bottom: "inception_3a/1x1_bn"
  top: "inception_3a/1x1_bn"
}
layer {
  name: "inception_3a/3x3_reduce"
  type: "Convolution"
  bottom: "inception_2b/output"
  top: "inception_3a/3x3_reduce"
  param {
    lr_mult: 1
    decay_mult: 1
  }
  param {
    lr_mult: 2
    decay_mult: 0
  }
  convolution_param {
    num_output: 256
    kernel_size: 1
    weight_filler {
      type: "xavier"
    }
    bias_filler {
      type: "constant"
      value: 0.2
    }
  }
}
layer {
  name: "inception_3a/3x3_reduce_bn"
  type: "BN"
  bottom: "inception_3a/3x3_reduce"
  top: "inception_3a/3x3_reduce_bn"
  param {
    lr_mult: 1
    decay_mult: 0
  }
  param {
    lr_mult: 1
    decay_mult: 0
  }
  bn_param {
    slope_filler {
      type: "constant"
      value: 1
    }
    bias_filler {
      type: "constant"
      value: 0
    }
  }
}
layer {
  name: "inception_3a/relu_3x3_reduce"
  type: "ReLU"
  bottom: "inception_3a/3x3_reduce_bn"
  top: "inception_3a/3x3_reduce_bn"
}
layer {
  name: "inception_3a/3x3"
  type: "Convolution"
  bottom: "inception_3a/3x3_reduce_bn"
  top: "inception_3a/3x3"
  param {
    lr_mult: 1
    decay_mult: 1
  }
  param {
    lr_mult: 2
    decay_mult: 0
  }
  convolution_param {
    num_output: 256
    pad: 1
    kernel_size: 3
    weight_filler {
      type: "xavier"
    }
    bias_filler {
      type: "constant"
      value: 0.2
    }
  }
}
layer {
  name: "inception_3a/3x3_bn"
  type: "BN"
  bottom: "inception_3a/3x3"
  top: "inception_3a/3x3_bn"
  param {
    lr_mult: 1
    decay_mult: 0
  }
  param {
    lr_mult: 1
    decay_mult: 0
  }
  bn_param {
    slope_filler {
      type: "constant"
      value: 1
    }
    bias_filler {
      type: "constant"
      value: 0
    }
  }
}
layer {
  name: "inception_3a/relu_3x3"
  type: "ReLU"
  bottom: "inception_3a/3x3_bn"
  top: "inception_3a/3x3_bn"
}
layer {
  name: "inception_3a/double_3x3_reduce"
  type: "Convolution"
  bottom: "inception_2b/output"
  top: "inception_3a/double_3x3_reduce"
  param {
    lr_mult: 1
    decay_mult: 1
  }
  param {
    lr_mult: 2
    decay_mult: 0
  }
  convolution_param {
    num_output: 256
    kernel_size: 1
    weight_filler {
      type: "xavier"
    }
    bias_filler {
      type: "constant"
      value: 0.2
    }
  }
}
layer {
  name: "inception_3a/double_3x3_reduce_bn"
  type: "BN"
  bottom: "inception_3a/double_3x3_reduce"
  top: "inception_3a/double_3x3_reduce_bn"
  param {
    lr_mult: 1
    decay_mult: 0
  }
  param {
    lr_mult: 1
    decay_mult: 0
  }
  bn_param {
    slope_filler {
      type: "constant"
      value: 1
    }
    bias_filler {
      type: "constant"

I0416 11:55:55.165524   977 layer_factory.hpp:74] Creating layer data
I0416 11:55:55.165550   977 net.cpp:133] Creating Layer data
I0416 11:55:55.165555   977 net.cpp:411] data -> data
I0416 11:55:55.165566   977 net.cpp:411] data -> label
I0416 11:55:55.165575   977 net.cpp:163] Setting up data
I0416 11:55:55.165892   977 db_lmdb.cpp:22] Opened lmdb external/exp/db/cuhk03/train_lmdb
I0416 11:55:55.166014   977 data_layer.cpp:55] Skipping first 0 data points.
I0416 11:55:55.166034   977 data_layer.cpp:100] output data size: 25,3,144,56
I0416 11:55:55.166093   977 net.cpp:170] Top shape: 25 3 144 56 (604800)
I0416 11:55:55.166103   977 net.cpp:170] Top shape: 25 (25)
I0416 11:55:55.166107   977 layer_factory.hpp:74] Creating layer conv1
I0416 11:55:55.166115   977 net.cpp:133] Creating Layer conv1
I0416 11:55:55.166117   977 net.cpp:453] conv1 <- data
I0416 11:55:55.166126   977 net.cpp:411] conv1 -> conv1
I0416 11:55:55.166134   977 net.cpp:163] Setting up conv1
I0416 11:55:55.469202   977 net.cpp:170] Top shape: 25 32 144 56 (6451200)
I0416 11:55:55.469233   977 layer_factory.hpp:74] Creating layer conv1_bn
I0416 11:55:55.469236   977 layer_factory.cpp:191] Layer conv1_bn is using CAFFE engine.
I0416 11:55:55.469257   977 net.cpp:133] Creating Layer conv1_bn
I0416 11:55:55.469261   977 net.cpp:453] conv1_bn <- conv1
I0416 11:55:55.469265   977 net.cpp:411] conv1_bn -> conv1_bn
I0416 11:55:55.469272   977 net.cpp:163] Setting up conv1_bn
I0416 11:55:55.469293   977 net.cpp:170] Top shape: 25 32 144 56 (6451200)
I0416 11:55:55.469300   977 layer_factory.hpp:74] Creating layer relu1
I0416 11:55:55.469305   977 net.cpp:133] Creating Layer relu1
I0416 11:55:55.469305   977 net.cpp:453] relu1 <- conv1_bn
I0416 11:55:55.469308   977 net.cpp:400] relu1 -> conv1_bn (in-place)
I0416 11:55:55.469315   977 net.cpp:163] Setting up relu1
I0416 11:55:55.469425   977 net.cpp:170] Top shape: 25 32 144 56 (6451200)
I0416 11:55:55.469434   977 layer_factory.hpp:74] Creating layer conv2
I0416 11:55:55.469440   977 net.cpp:133] Creating Layer conv2
I0416 11:55:55.469441   977 net.cpp:453] conv2 <- conv1_bn
I0416 11:55:55.469445   977 net.cpp:411] conv2 -> conv2
I0416 11:55:55.469449   977 net.cpp:163] Setting up conv2
I0416 11:55:55.632365   977 net.cpp:170] Top shape: 25 32 144 56 (6451200)
I0416 11:55:55.632375   977 layer_factory.hpp:74] Creating layer conv2_bn
I0416 11:55:55.632377   977 layer_factory.cpp:191] Layer conv2_bn is using CAFFE engine.
I0416 11:55:55.632381   977 net.cpp:133] Creating Layer conv2_bn
I0416 11:55:55.632383   977 net.cpp:453] conv2_bn <- conv2
I0416 11:55:55.632386   977 net.cpp:411] conv2_bn -> conv2_bn
I0416 11:55:55.632390   977 net.cpp:163] Setting up conv2_bn
I0416 11:55:55.632403   977 net.cpp:170] Top shape: 25 32 144 56 (6451200)
I0416 11:55:55.632411   977 layer_factory.hpp:74] Creating layer relu2
I0416 11:55:55.632413   977 net.cpp:133] Creating Layer relu2
I0416 11:55:55.632416   977 net.cpp:453] relu2 <- conv2_bn
I0416 11:55:55.632417   977 net.cpp:400] relu2 -> conv2_bn (in-place)
I0416 11:55:55.632421   977 net.cpp:163] Setting up relu2
I0416 11:55:55.632589   977 net.cpp:170] Top shape: 25 32 144 56 (6451200)
I0416 11:55:55.632596   977 layer_factory.hpp:74] Creating layer conv3
I0416 11:55:55.632599   977 net.cpp:133] Creating Layer conv3
I0416 11:55:55.632601   977 net.cpp:453] conv3 <- conv2_bn
I0416 11:55:55.632604   977 net.cpp:411] conv3 -> conv3
I0416 11:55:55.632608   977 net.cpp:163] Setting up conv3
I0416 11:55:55.787689   977 net.cpp:170] Top shape: 25 32 144 56 (6451200)
I0416 11:55:55.787699   977 layer_factory.hpp:74] Creating layer conv3_bn
I0416 11:55:55.787703   977 layer_factory.cpp:191] Layer conv3_bn is using CAFFE engine.
I0416 11:55:55.787706   977 net.cpp:133] Creating Layer conv3_bn
I0416 11:55:55.787708   977 net.cpp:453] conv3_bn <- conv3
I0416 11:55:55.787713   977 net.cpp:411] conv3_bn -> conv3_bn
I0416 11:55:55.787716   977 net.cpp:163] Setting up conv3_bn
I0416 11:55:55.787734   977 net.cpp:170] Top shape: 25 32 144 56 (6451200)
I0416 11:55:55.787740   977 layer_factory.hpp:74] Creating layer relu3
I0416 11:55:55.787744   977 net.cpp:133] Creating Layer relu3
I0416 11:55:55.787745   977 net.cpp:453] relu3 <- conv3_bn
I0416 11:55:55.787747   977 net.cpp:400] relu3 -> conv3_bn (in-place)
I0416 11:55:55.787750   977 net.cpp:163] Setting up relu3
I0416 11:55:55.787858   977 net.cpp:170] Top shape: 25 32 144 56 (6451200)
I0416 11:55:55.787863   977 layer_factory.hpp:74] Creating layer pool1
I0416 11:55:55.787868   977 net.cpp:133] Creating Layer pool1
I0416 11:55:55.787869   977 net.cpp:453] pool1 <- conv3_bn
I0416 11:55:55.787873   977 net.cpp:411] pool1 -> pool1
I0416 11:55:55.787878   977 net.cpp:163] Setting up pool1
I0416 11:55:55.788065   977 net.cpp:170] Top shape: 25 32 72 28 (1612800)
I0416 11:55:55.788072   977 layer_factory.hpp:74] Creating layer pool1_pool1_0_split
I0416 11:55:55.788076   977 net.cpp:133] Creating Layer pool1_pool1_0_split
I0416 11:55:55.788079   977 net.cpp:453] pool1_pool1_0_split <- pool1
I0416 11:55:55.788082   977 net.cpp:411] pool1_pool1_0_split -> pool1_pool1_0_split_0
I0416 11:55:55.788086   977 net.cpp:411] pool1_pool1_0_split -> pool1_pool1_0_split_1
I0416 11:55:55.788090   977 net.cpp:411] pool1_pool1_0_split -> pool1_pool1_0_split_2
I0416 11:55:55.788092   977 net.cpp:411] pool1_pool1_0_split -> pool1_pool1_0_split_3
I0416 11:55:55.788105   977 net.cpp:163] Setting up pool1_pool1_0_split
I0416 11:55:55.788110   977 net.cpp:170] Top shape: 25 32 72 28 (1612800)
I0416 11:55:55.788113   977 net.cpp:170] Top shape: 25 32 72 28 (1612800)
I0416 11:55:55.788115   977 net.cpp:170] Top shape: 25 32 72 28 (1612800)
I0416 11:55:55.788117   977 net.cpp:170] Top shape: 25 32 72 28 (1612800)
I0416 11:55:55.788118   977 layer_factory.hpp:74] Creating layer inception_1a/1x1
I0416 11:55:55.788123   977 net.cpp:133] Creating Layer inception_1a/1x1
I0416 11:55:55.788125   977 net.cpp:453] inception_1a/1x1 <- pool1_pool1_0_split_0
I0416 11:55:55.788128   977 net.cpp:411] inception_1a/1x1 -> inception_1a/1x1
I0416 11:55:55.788132   977 net.cpp:163] Setting up inception_1a/1x1
I0416 11:55:55.841331   977 net.cpp:170] Top shape: 25 64 72 28 (3225600)
I0416 11:55:55.841341   977 layer_factory.hpp:74] Creating layer inception_1a/1x1_bn
I0416 11:55:55.841343   977 layer_factory.cpp:191] Layer inception_1a/1x1_bn is using CAFFE engine.
I0416 11:55:55.841347   977 net.cpp:133] Creating Layer inception_1a/1x1_bn
I0416 11:55:55.841349   977 net.cpp:453] inception_1a/1x1_bn <- inception_1a/1x1
I0416 11:55:55.841353   977 net.cpp:411] inception_1a/1x1_bn -> inception_1a/1x1_bn
I0416 11:55:55.841363   977 net.cpp:163] Setting up inception_1a/1x1_bn
I0416 11:55:55.841375   977 net.cpp:170] Top shape: 25 64 72 28 (3225600)
I0416 11:55:55.841383   977 layer_factory.hpp:74] Creating layer inception_1a/relu_1x1
I0416 11:55:55.841387   977 net.cpp:133] Creating Layer inception_1a/relu_1x1
I0416 11:55:55.841390   977 net.cpp:453] inception_1a/relu_1x1 <- inception_1a/1x1_bn
I0416 11:55:55.841394   977 net.cpp:400] inception_1a/relu_1x1 -> inception_1a/1x1_bn (in-place)
I0416 11:55:55.841401   977 net.cpp:163] Setting up inception_1a/relu_1x1
I0416 11:55:55.841588   977 net.cpp:170] Top shape: 25 64 72 28 (3225600)
I0416 11:55:55.841595   977 layer_factory.hpp:74] Creating layer inception_1a/3x3_reduce
I0416 11:55:55.841603   977 net.cpp:133] Creating Layer inception_1a/3x3_reduce
I0416 11:55:55.841606   977 net.cpp:453] inception_1a/3x3_reduce <- pool1_pool1_0_split_1
I0416 11:55:55.841612   977 net.cpp:411] inception_1a/3x3_reduce -> inception_1a/3x3_reduce
I0416 11:55:55.841619   977 net.cpp:163] Setting up inception_1a/3x3_reduce
I0416 11:55:55.894856   977 net.cpp:170] Top shape: 25 64 72 28 (3225600)
I0416 11:55:55.894868   977 layer_factory.hpp:74] Creating layer inception_1a/3x3_reduce_bn
I0416 11:55:55.894872   977 layer_factory.cpp:191] Layer inception_1a/3x3_reduce_bn is using CAFFE engine.
I0416 11:55:55.894881   977 net.cpp:133] Creating Layer inception_1a/3x3_reduce_bn
I0416 11:55:55.894884   977 net.cpp:453] inception_1a/3x3_reduce_bn <- inception_1a/3x3_reduce
I0416 11:55:55.894892   977 net.cpp:411] inception_1a/3x3_reduce_bn -> inception_1a/3x3_reduce_bn
I0416 11:55:55.894901   977 net.cpp:163] Setting up inception_1a/3x3_reduce_bn
I0416 11:55:55.894918   977 net.cpp:170] Top shape: 25 64 72 28 (3225600)
I0416 11:55:55.894925   977 layer_factory.hpp:74] Creating layer inception_1a/relu_3x3_reduce
I0416 11:55:55.894932   977 net.cpp:133] Creating Layer inception_1a/relu_3x3_reduce
I0416 11:55:55.894934   977 net.cpp:453] inception_1a/relu_3x3_reduce <- inception_1a/3x3_reduce_bn
I0416 11:55:55.894938   977 net.cpp:400] inception_1a/relu_3x3_reduce -> inception_1a/3x3_reduce_bn (in-place)
I0416 11:55:55.894944   977 net.cpp:163] Setting up inception_1a/relu_3x3_reduce
I0416 11:55:55.895053   977 net.cpp:170] Top shape: 25 64 72 28 (3225600)
I0416 11:55:55.895058   977 layer_factory.hpp:74] Creating layer inception_1a/3x3
I0416 11:55:55.895066   977 net.cpp:133] Creating Layer inception_1a/3x3
I0416 11:55:55.895069   977 net.cpp:453] inception_1a/3x3 <- inception_1a/3x3_reduce_bn
I0416 11:55:55.895076   977 net.cpp:411] inception_1a/3x3 -> inception_1a/3x3
I0416 11:55:55.895084   977 net.cpp:163] Setting up inception_1a/3x3
I0416 11:55:56.008076   977 net.cpp:170] Top shape: 25 64 72 28 (3225600)
I0416 11:55:56.008087   977 layer_factory.hpp:74] Creating layer inception_1a/3x3_bn
I0416 11:55:56.008091   977 layer_factory.cpp:191] Layer inception_1a/3x3_bn is using CAFFE engine.
I0416 11:55:56.008097   977 net.cpp:133] Creating Layer inception_1a/3x3_bn
I0416 11:55:56.008101   977 net.cpp:453] inception_1a/3x3_bn <- inception_1a/3x3
I0416 11:55:56.008107   977 net.cpp:411] inception_1a/3x3_bn -> inception_1a/3x3_bn
I0416 11:55:56.008114   977 net.cpp:163] Setting up inception_1a/3x3_bn
I0416 11:55:56.008132   977 net.cpp:170] Top shape: 25 64 72 28 (3225600)
I0416 11:55:56.008144   977 layer_factory.hpp:74] Creating layer inception_1a/relu_3x3
I0416 11:55:56.008152   977 net.cpp:133] Creating Layer inception_1a/relu_3x3
I0416 11:55:56.008157   977 net.cpp:453] inception_1a/relu_3x3 <- inception_1a/3x3_bn
I0416 11:55:56.008162   977 net.cpp:400] inception_1a/relu_3x3 -> inception_1a/3x3_bn (in-place)
I0416 11:55:56.008167   977 net.cpp:163] Setting up inception_1a/relu_3x3
I0416 11:55:56.008348   977 net.cpp:170] Top shape: 25 64 72 28 (3225600)
I0416 11:55:56.008355   977 layer_factory.hpp:74] Creating layer inception_1a/double_3x3_reduce
I0416 11:55:56.008363   977 net.cpp:133] Creating Layer inception_1a/double_3x3_reduce
I0416 11:55:56.008366   977 net.cpp:453] inception_1a/double_3x3_reduce <- pool1_pool1_0_split_2
I0416 11:55:56.008373   977 net.cpp:411] inception_1a/double_3x3_reduce -> inception_1a/double_3x3_reduce
I0416 11:55:56.008379   977 net.cpp:163] Setting up inception_1a/double_3x3_reduce
I0416 11:55:56.061280   977 net.cpp:170] Top shape: 25 64 72 28 (3225600)
I0416 11:55:56.061291   977 layer_factory.hpp:74] Creating layer inception_1a/double_3x3_reduce_bn
I0416 11:55:56.061295   977 layer_factory.cpp:191] Layer inception_1a/double_3x3_reduce_bn is using CAFFE engine.
I0416 11:55:56.061301   977 net.cpp:133] Creating Layer inception_1a/double_3x3_reduce_bn
I0416 11:55:56.061305   977 net.cpp:453] inception_1a/double_3x3_reduce_bn <- inception_1a/double_3x3_reduce
I0416 11:55:56.061311   977 net.cpp:411] inception_1a/double_3x3_reduce_bn -> inception_1a/double_3x3_reduce_bn
I0416 11:55:56.061318   977 net.cpp:163] Setting up inception_1a/double_3x3_reduce_bn
I0416 11:55:56.061334   977 net.cpp:170] Top shape: 25 64 72 28 (3225600)
I0416 11:55:56.061342   977 layer_factory.hpp:74] Creating layer inception_1a/relu_double_3x3_reduce
I0416 11:55:56.061348   977 net.cpp:133] Creating Layer inception_1a/relu_double_3x3_reduce
I0416 11:55:56.061352   977 net.cpp:453] inception_1a/relu_double_3x3_reduce <- inception_1a/double_3x3_reduce_bn
I0416 11:55:56.061362   977 net.cpp:400] inception_1a/relu_double_3x3_reduce -> inception_1a/double_3x3_reduce_bn (in-place)
I0416 11:55:56.061367   977 net.cpp:163] Setting up inception_1a/relu_double_3x3_reduce
I0416 11:55:56.061563   977 net.cpp:170] Top shape: 25 64 72 28 (3225600)
I0416 11:55:56.061570   977 layer_factory.hpp:74] Creating layer inception_1a/double_3x3_1
I0416 11:55:56.061576   977 net.cpp:133] Creating Layer inception_1a/double_3x3_1
I0416 11:55:56.061581   977 net.cpp:453] inception_1a/double_3x3_1 <- inception_1a/double_3x3_reduce_bn
I0416 11:55:56.061588   977 net.cpp:411] inception_1a/double_3x3_1 -> inception_1a/double_3x3_1
I0416 11:55:56.061594   977 net.cpp:163] Setting up inception_1a/double_3x3_1
I0416 11:55:56.174518   977 net.cpp:170] Top shape: 25 64 72 28 (3225600)
I0416 11:55:56.174530   977 layer_factory.hpp:74] Creating layer inception_1a/double_3x3_1_bn
I0416 11:55:56.174533   977 layer_factory.cpp:191] Layer inception_1a/double_3x3_1_bn is using CAFFE engine.
I0416 11:55:56.174540   977 net.cpp:133] Creating Layer inception_1a/double_3x3_1_bn
I0416 11:55:56.174543   977 net.cpp:453] inception_1a/double_3x3_1_bn <- inception_1a/double_3x3_1
I0416 11:55:56.174549   977 net.cpp:411] inception_1a/double_3x3_1_bn -> inception_1a/double_3x3_1_bn
I0416 11:55:56.174556   977 net.cpp:163] Setting up inception_1a/double_3x3_1_bn
I0416 11:55:56.174571   977 net.cpp:170] Top shape: 25 64 72 28 (3225600)
I0416 11:55:56.174579   977 layer_factory.hpp:74] Creating layer inception_1a/relu_double_3x3_1
I0416 11:55:56.174585   977 net.cpp:133] Creating Layer inception_1a/relu_double_3x3_1
I0416 11:55:56.174588   977 net.cpp:453] inception_1a/relu_double_3x3_1 <- inception_1a/double_3x3_1_bn
I0416 11:55:56.174593   977 net.cpp:400] inception_1a/relu_double_3x3_1 -> inception_1a/double_3x3_1_bn (in-place)
I0416 11:55:56.174597   977 net.cpp:163] Setting up inception_1a/relu_double_3x3_1
I0416 11:55:56.174718   977 net.cpp:170] Top shape: 25 64 72 28 (3225600)
I0416 11:55:56.174724   977 layer_factory.hpp:74] Creating layer inception_1a/double_3x3_2
I0416 11:55:56.174731   977 net.cpp:133] Creating Layer inception_1a/double_3x3_2
I0416 11:55:56.174736   977 net.cpp:453] inception_1a/double_3x3_2 <- inception_1a/double_3x3_1_bn
I0416 11:55:56.174741   977 net.cpp:411] inception_1a/double_3x3_2 -> inception_1a/double_3x3_2
I0416 11:55:56.174747   977 net.cpp:163] Setting up inception_1a/double_3x3_2
I0416 11:55:56.287968   977 net.cpp:170] Top shape: 25 64 72 28 (3225600)
I0416 11:55:56.287981   977 layer_factory.hpp:74] Creating layer inception_1a/double_3x3_2_bn
I0416 11:55:56.287983   977 layer_factory.cpp:191] Layer inception_1a/double_3x3_2_bn is using CAFFE engine.
I0416 11:55:56.287989   977 net.cpp:133] Creating Layer inception_1a/double_3x3_2_bn
I0416 11:55:56.287993   977 net.cpp:453] inception_1a/double_3x3_2_bn <- inception_1a/double_3x3_2
I0416 11:55:56.287999   977 net.cpp:411] inception_1a/double_3x3_2_bn -> inception_1a/double_3x3_2_bn
I0416 11:55:56.288007   977 net.cpp:163] Setting up inception_1a/double_3x3_2_bn
I0416 11:55:56.288029   977 net.cpp:170] Top shape: 25 64 72 28 (3225600)
I0416 11:55:56.288038   977 layer_factory.hpp:74] Creating layer inception_1a/relu_double_3x3_2
I0416 11:55:56.288043   977 net.cpp:133] Creating Layer inception_1a/relu_double_3x3_2
I0416 11:55:56.288045   977 net.cpp:453] inception_1a/relu_double_3x3_2 <- inception_1a/double_3x3_2_bn
I0416 11:55:56.288050   977 net.cpp:400] inception_1a/relu_double_3x3_2 -> inception_1a/double_3x3_2_bn (in-place)
I0416 11:55:56.288056   977 net.cpp:163] Setting up inception_1a/relu_double_3x3_2
I0416 11:55:56.288244   977 net.cpp:170] Top shape: 25 64 72 28 (3225600)
I0416 11:55:56.288250   977 layer_factory.hpp:74] Creating layer inception_1a/pool
I0416 11:55:56.288254   977 layer_factory.cpp:64] CUDNN does not support padding or multiple tops. Using Caffe's own pooling layer.
I0416 11:55:56.288259   977 net.cpp:133] Creating Layer inception_1a/pool
I0416 11:55:56.288262   977 net.cpp:453] inception_1a/pool <- pool1_pool1_0_split_3
I0416 11:55:56.288269   977 net.cpp:411] inception_1a/pool -> inception_1a/pool
I0416 11:55:56.288275   977 net.cpp:163] Setting up inception_1a/pool
I0416 11:55:56.288280   977 net.cpp:170] Top shape: 25 32 72 28 (1612800)
I0416 11:55:56.288283   977 layer_factory.hpp:74] Creating layer inception_1a/pool_proj
I0416 11:55:56.288290   977 net.cpp:133] Creating Layer inception_1a/pool_proj
I0416 11:55:56.288292   977 net.cpp:453] inception_1a/pool_proj <- inception_1a/pool
I0416 11:55:56.288298   977 net.cpp:411] inception_1a/pool_proj -> inception_1a/pool_proj
I0416 11:55:56.288305   977 net.cpp:163] Setting up inception_1a/pool_proj
I0416 11:55:56.341153   977 net.cpp:170] Top shape: 25 64 72 28 (3225600)
I0416 11:55:56.341164   977 layer_factory.hpp:74] Creating layer inception_1a/pool_proj_bn
I0416 11:55:56.341168   977 layer_factory.cpp:191] Layer inception_1a/pool_proj_bn is using CAFFE engine.
I0416 11:55:56.341178   977 net.cpp:133] Creating Layer inception_1a/pool_proj_bn
I0416 11:55:56.341182   977 net.cpp:453] inception_1a/pool_proj_bn <- inception_1a/pool_proj
I0416 11:55:56.341188   977 net.cpp:411] inception_1a/pool_proj_bn -> inception_1a/pool_proj_bn
I0416 11:55:56.341195   977 net.cpp:163] Setting up inception_1a/pool_proj_bn
I0416 11:55:56.341212   977 net.cpp:170] Top shape: 25 64 72 28 (3225600)
I0416 11:55:56.341219   977 layer_factory.hpp:74] Creating layer inception_1a/relu_pool_proj
I0416 11:55:56.341224   977 net.cpp:133] Creating Layer inception_1a/relu_pool_proj
I0416 11:55:56.341228   977 net.cpp:453] inception_1a/relu_pool_proj <- inception_1a/pool_proj_bn
I0416 11:55:56.341234   977 net.cpp:400] inception_1a/relu_pool_proj -> inception_1a/pool_proj_bn (in-place)
I0416 11:55:56.341238   977 net.cpp:163] Setting up inception_1a/relu_pool_proj
I0416 11:55:56.341428   977 net.cpp:170] Top shape: 25 64 72 28 (3225600)
I0416 11:55:56.341435   977 layer_factory.hpp:74] Creating layer inception_1a/output
I0416 11:55:56.341441   977 net.cpp:133] Creating Layer inception_1a/output
I0416 11:55:56.341444   977 net.cpp:453] inception_1a/output <- inception_1a/1x1_bn
I0416 11:55:56.341449   977 net.cpp:453] inception_1a/output <- inception_1a/3x3_bn
I0416 11:55:56.341452   977 net.cpp:453] inception_1a/output <- inception_1a/double_3x3_2_bn
I0416 11:55:56.341456   977 net.cpp:453] inception_1a/output <- inception_1a/pool_proj_bn
I0416 11:55:56.341462   977 net.cpp:411] inception_1a/output -> inception_1a/output
I0416 11:55:56.341469   977 net.cpp:163] Setting up inception_1a/output
I0416 11:55:56.341475   977 net.cpp:170] Top shape: 25 256 72 28 (12902400)
I0416 11:55:56.341477   977 layer_factory.hpp:74] Creating layer inception_1a/output_inception_1a/output_0_split
I0416 11:55:56.341482   977 net.cpp:133] Creating Layer inception_1a/output_inception_1a/output_0_split
I0416 11:55:56.341485   977 net.cpp:453] inception_1a/output_inception_1a/output_0_split <- inception_1a/output
I0416 11:55:56.341491   977 net.cpp:411] inception_1a/output_inception_1a/output_0_split -> inception_1a/output_inception_1a/output_0_split_0
I0416 11:55:56.341497   977 net.cpp:411] inception_1a/output_inception_1a/output_0_split -> inception_1a/output_inception_1a/output_0_split_1
I0416 11:55:56.341503   977 net.cpp:411] inception_1a/output_inception_1a/output_0_split -> inception_1a/output_inception_1a/output_0_split_2
I0416 11:55:56.341508   977 net.cpp:163] Setting up inception_1a/output_inception_1a/output_0_split
I0416 11:55:56.341514   977 net.cpp:170] Top shape: 25 256 72 28 (12902400)
I0416 11:55:56.341518   977 net.cpp:170] Top shape: 25 256 72 28 (12902400)
I0416 11:55:56.341521   977 net.cpp:170] Top shape: 25 256 72 28 (12902400)
I0416 11:55:56.341524   977 layer_factory.hpp:74] Creating layer inception_1b/3x3_reduce
I0416 11:55:56.341531   977 net.cpp:133] Creating Layer inception_1b/3x3_reduce
I0416 11:55:56.341534   977 net.cpp:453] inception_1b/3x3_reduce <- inception_1a/output_inception_1a/output_0_split_0
I0416 11:55:56.341541   977 net.cpp:411] inception_1b/3x3_reduce -> inception_1b/3x3_reduce
I0416 11:55:56.341552   977 net.cpp:163] Setting up inception_1b/3x3_reduce
I0416 11:55:56.636333   977 net.cpp:170] Top shape: 25 64 72 28 (3225600)
I0416 11:55:56.636344   977 layer_factory.hpp:74] Creating layer inception_1b/3x3_reduce_bn
I0416 11:55:56.636348   977 layer_factory.cpp:191] Layer inception_1b/3x3_reduce_bn is using CAFFE engine.
I0416 11:55:56.636355   977 net.cpp:133] Creating Layer inception_1b/3x3_reduce_bn
I0416 11:55:56.636358   977 net.cpp:453] inception_1b/3x3_reduce_bn <- inception_1b/3x3_reduce
I0416 11:55:56.636365   977 net.cpp:411] inception_1b/3x3_reduce_bn -> inception_1b/3x3_reduce_bn
I0416 11:55:56.636373   977 net.cpp:163] Setting up inception_1b/3x3_reduce_bn
I0416 11:55:56.636389   977 net.cpp:170] Top shape: 25 64 72 28 (3225600)
I0416 11:55:56.636404   977 layer_factory.hpp:74] Creating layer inception_1b/relu_3x3_reduce
I0416 11:55:56.636410   977 net.cpp:133] Creating Layer inception_1b/relu_3x3_reduce
I0416 11:55:56.636415   977 net.cpp:453] inception_1b/relu_3x3_reduce <- inception_1b/3x3_reduce_bn
I0416 11:55:56.636420   977 net.cpp:400] inception_1b/relu_3x3_reduce -> inception_1b/3x3_reduce_bn (in-place)
I0416 11:55:56.636425   977 net.cpp:163] Setting up inception_1b/relu_3x3_reduce
I0416 11:55:56.636540   977 net.cpp:170] Top shape: 25 64 72 28 (3225600)
I0416 11:55:56.636545   977 layer_factory.hpp:74] Creating layer inception_1b/3x3
I0416 11:55:56.636553   977 net.cpp:133] Creating Layer inception_1b/3x3
I0416 11:55:56.636556   977 net.cpp:453] inception_1b/3x3 <- inception_1b/3x3_reduce_bn
I0416 11:55:56.636564   977 net.cpp:411] inception_1b/3x3 -> inception_1b/3x3
I0416 11:55:56.636569   977 net.cpp:163] Setting up inception_1b/3x3
I0416 11:55:56.656360   977 net.cpp:170] Top shape: 25 64 36 14 (806400)
I0416 11:55:56.656371   977 layer_factory.hpp:74] Creating layer inception_1b/3x3_bn
I0416 11:55:56.656376   977 layer_factory.cpp:191] Layer inception_1b/3x3_bn is using CAFFE engine.
I0416 11:55:56.656383   977 net.cpp:133] Creating Layer inception_1b/3x3_bn
I0416 11:55:56.656385   977 net.cpp:453] inception_1b/3x3_bn <- inception_1b/3x3
I0416 11:55:56.656391   977 net.cpp:411] inception_1b/3x3_bn -> inception_1b/3x3_bn
I0416 11:55:56.656399   977 net.cpp:163] Setting up inception_1b/3x3_bn
I0416 11:55:56.656414   977 net.cpp:170] Top shape: 25 64 36 14 (806400)
I0416 11:55:56.656421   977 layer_factory.hpp:74] Creating layer inception_1b/relu_3x3
I0416 11:55:56.656426   977 net.cpp:133] Creating Layer inception_1b/relu_3x3
I0416 11:55:56.656430   977 net.cpp:453] inception_1b/relu_3x3 <- inception_1b/3x3_bn
I0416 11:55:56.656435   977 net.cpp:400] inception_1b/relu_3x3 -> inception_1b/3x3_bn (in-place)
I0416 11:55:56.656440   977 net.cpp:163] Setting up inception_1b/relu_3x3
I0416 11:55:56.656626   977 net.cpp:170] Top shape: 25 64 36 14 (806400)
I0416 11:55:56.656633   977 layer_factory.hpp:74] Creating layer inception_1b/double_3x3_reduce
I0416 11:55:56.656641   977 net.cpp:133] Creating Layer inception_1b/double_3x3_reduce
I0416 11:55:56.656644   977 net.cpp:453] inception_1b/double_3x3_reduce <- inception_1a/output_inception_1a/output_0_split_1
I0416 11:55:56.656651   977 net.cpp:411] inception_1b/double_3x3_reduce -> inception_1b/double_3x3_reduce
I0416 11:55:56.656657   977 net.cpp:163] Setting up inception_1b/double_3x3_reduce
I0416 11:55:56.952649   977 net.cpp:170] Top shape: 25 64 72 28 (3225600)
I0416 11:55:56.952661   977 layer_factory.hpp:74] Creating layer inception_1b/double_3x3_reduce_bn
I0416 11:55:56.952664   977 layer_factory.cpp:191] Layer inception_1b/double_3x3_reduce_bn is using CAFFE engine.
I0416 11:55:56.952671   977 net.cpp:133] Creating Layer inception_1b/double_3x3_reduce_bn
I0416 11:55:56.952674   977 net.cpp:453] inception_1b/double_3x3_reduce_bn <- inception_1b/double_3x3_reduce
I0416 11:55:56.952680   977 net.cpp:411] inception_1b/double_3x3_reduce_bn -> inception_1b/double_3x3_reduce_bn
I0416 11:55:56.952687   977 net.cpp:163] Setting up inception_1b/double_3x3_reduce_bn
I0416 11:55:56.952704   977 net.cpp:170] Top shape: 25 64 72 28 (3225600)
I0416 11:55:56.952713   977 layer_factory.hpp:74] Creating layer inception_1b/relu_double_3x3_reduce
I0416 11:55:56.952718   977 net.cpp:133] Creating Layer inception_1b/relu_double_3x3_reduce
I0416 11:55:56.952723   977 net.cpp:453] inception_1b/relu_double_3x3_reduce <- inception_1b/double_3x3_reduce_bn
I0416 11:55:56.952726   977 net.cpp:400] inception_1b/relu_double_3x3_reduce -> inception_1b/double_3x3_reduce_bn (in-place)
I0416 11:55:56.952733   977 net.cpp:163] Setting up inception_1b/relu_double_3x3_reduce
I0416 11:55:56.952921   977 net.cpp:170] Top shape: 25 64 72 28 (3225600)
I0416 11:55:56.952929   977 layer_factory.hpp:74] Creating layer inception_1b/double_3x3_1
I0416 11:55:56.952936   977 net.cpp:133] Creating Layer inception_1b/double_3x3_1
I0416 11:55:56.952940   977 net.cpp:453] inception_1b/double_3x3_1 <- inception_1b/double_3x3_reduce_bn
I0416 11:55:56.952945   977 net.cpp:411] inception_1b/double_3x3_1 -> inception_1b/double_3x3_1
I0416 11:55:56.952952   977 net.cpp:163] Setting up inception_1b/double_3x3_1
I0416 11:55:57.065572   977 net.cpp:170] Top shape: 25 64 72 28 (3225600)
I0416 11:55:57.065583   977 layer_factory.hpp:74] Creating layer inception_1b/double_3x3_1_bn
I0416 11:55:57.065587   977 layer_factory.cpp:191] Layer inception_1b/double_3x3_1_bn is using CAFFE engine.
I0416 11:55:57.065593   977 net.cpp:133] Creating Layer inception_1b/double_3x3_1_bn
I0416 11:55:57.065598   977 net.cpp:453] inception_1b/double_3x3_1_bn <- inception_1b/double_3x3_1
I0416 11:55:57.065603   977 net.cpp:411] inception_1b/double_3x3_1_bn -> inception_1b/double_3x3_1_bn
I0416 11:55:57.065610   977 net.cpp:163] Setting up inception_1b/double_3x3_1_bn
I0416 11:55:57.065629   977 net.cpp:170] Top shape: 25 64 72 28 (3225600)
I0416 11:55:57.065636   977 layer_factory.hpp:74] Creating layer inception_1b/relu_double_3x3_1
I0416 11:55:57.065641   977 net.cpp:133] Creating Layer inception_1b/relu_double_3x3_1
I0416 11:55:57.065644   977 net.cpp:453] inception_1b/relu_double_3x3_1 <- inception_1b/double_3x3_1_bn
I0416 11:55:57.065649   977 net.cpp:400] inception_1b/relu_double_3x3_1 -> inception_1b/double_3x3_1_bn (in-place)
I0416 11:55:57.065654   977 net.cpp:163] Setting up inception_1b/relu_double_3x3_1
I0416 11:55:57.065768   977 net.cpp:170] Top shape: 25 64 72 28 (3225600)
I0416 11:55:57.065773   977 layer_factory.hpp:74] Creating layer inception_1b/double_3x3_2
I0416 11:55:57.065780   977 net.cpp:133] Creating Layer inception_1b/double_3x3_2
I0416 11:55:57.065784   977 net.cpp:453] inception_1b/double_3x3_2 <- inception_1b/double_3x3_1_bn
I0416 11:55:57.065790   977 net.cpp:411] inception_1b/double_3x3_2 -> inception_1b/double_3x3_2
I0416 11:55:57.065798   977 net.cpp:163] Setting up inception_1b/double_3x3_2
I0416 11:55:57.085563   977 net.cpp:170] Top shape: 25 64 36 14 (806400)
I0416 11:55:57.085574   977 layer_factory.hpp:74] Creating layer inception_1b/double_3x3_2_bn
I0416 11:55:57.085577   977 layer_factory.cpp:191] Layer inception_1b/double_3x3_2_bn is using CAFFE engine.
I0416 11:55:57.085584   977 net.cpp:133] Creating Layer inception_1b/double_3x3_2_bn
I0416 11:55:57.085587   977 net.cpp:453] inception_1b/double_3x3_2_bn <- inception_1b/double_3x3_2
I0416 11:55:57.085594   977 net.cpp:411] inception_1b/double_3x3_2_bn -> inception_1b/double_3x3_2_bn
I0416 11:55:57.085603   977 net.cpp:163] Setting up inception_1b/double_3x3_2_bn
I0416 11:55:57.085618   977 net.cpp:170] Top shape: 25 64 36 14 (806400)
I0416 11:55:57.085626   977 layer_factory.hpp:74] Creating layer inception_1b/relu_double_3x3_2
I0416 11:55:57.085631   977 net.cpp:133] Creating Layer inception_1b/relu_double_3x3_2
I0416 11:55:57.085634   977 net.cpp:453] inception_1b/relu_double_3x3_2 <- inception_1b/double_3x3_2_bn
I0416 11:55:57.085641   977 net.cpp:400] inception_1b/relu_double_3x3_2 -> inception_1b/double_3x3_2_bn (in-place)
I0416 11:55:57.085646   977 net.cpp:163] Setting up inception_1b/relu_double_3x3_2
I0416 11:55:57.085834   977 net.cpp:170] Top shape: 25 64 36 14 (806400)
I0416 11:55:57.085840   977 layer_factory.hpp:74] Creating layer inception_1b/pool
I0416 11:55:57.085846   977 net.cpp:133] Creating Layer inception_1b/pool
I0416 11:55:57.085850   977 net.cpp:453] inception_1b/pool <- inception_1a/output_inception_1a/output_0_split_2
I0416 11:55:57.085857   977 net.cpp:411] inception_1b/pool -> inception_1b/pool
I0416 11:55:57.085865   977 net.cpp:163] Setting up inception_1b/pool
I0416 11:55:57.085980   977 net.cpp:170] Top shape: 25 256 36 14 (3225600)
I0416 11:55:57.085986   977 layer_factory.hpp:74] Creating layer inception_1b/output
I0416 11:55:57.085993   977 net.cpp:133] Creating Layer inception_1b/output
I0416 11:55:57.085995   977 net.cpp:453] inception_1b/output <- inception_1b/3x3_bn
I0416 11:55:57.085999   977 net.cpp:453] inception_1b/output <- inception_1b/double_3x3_2_bn
I0416 11:55:57.086004   977 net.cpp:453] inception_1b/output <- inception_1b/pool
I0416 11:55:57.086009   977 net.cpp:411] inception_1b/output -> inception_1b/output
I0416 11:55:57.086015   977 net.cpp:163] Setting up inception_1b/output
I0416 11:55:57.086020   977 net.cpp:170] Top shape: 25 384 36 14 (4838400)
I0416 11:55:57.086024   977 layer_factory.hpp:74] Creating layer inception_1b/output_inception_1b/output_0_split
I0416 11:55:57.086030   977 net.cpp:133] Creating Layer inception_1b/output_inception_1b/output_0_split
I0416 11:55:57.086031   977 net.cpp:453] inception_1b/output_inception_1b/output_0_split <- inception_1b/output
I0416 11:55:57.086037   977 net.cpp:411] inception_1b/output_inception_1b/output_0_split -> inception_1b/output_inception_1b/output_0_split_0
I0416 11:55:57.086043   977 net.cpp:411] inception_1b/output_inception_1b/output_0_split -> inception_1b/output_inception_1b/output_0_split_1
I0416 11:55:57.086050   977 net.cpp:411] inception_1b/output_inception_1b/output_0_split -> inception_1b/output_inception_1b/output_0_split_2
I0416 11:55:57.086055   977 net.cpp:411] inception_1b/output_inception_1b/output_0_split -> inception_1b/output_inception_1b/output_0_split_3
I0416 11:55:57.086061   977 net.cpp:163] Setting up inception_1b/output_inception_1b/output_0_split
I0416 11:55:57.086066   977 net.cpp:170] Top shape: 25 384 36 14 (4838400)
I0416 11:55:57.086069   977 net.cpp:170] Top shape: 25 384 36 14 (4838400)
I0416 11:55:57.086073   977 net.cpp:170] Top shape: 25 384 36 14 (4838400)
I0416 11:55:57.086076   977 net.cpp:170] Top shape: 25 384 36 14 (4838400)
I0416 11:55:57.086079   977 layer_factory.hpp:74] Creating layer inception_2a/1x1
I0416 11:55:57.086086   977 net.cpp:133] Creating Layer inception_2a/1x1
I0416 11:55:57.086091   977 net.cpp:453] inception_2a/1x1 <- inception_1b/output_inception_1b/output_0_split_0
I0416 11:55:57.086097   977 net.cpp:411] inception_2a/1x1 -> inception_2a/1x1
I0416 11:55:57.086103   977 net.cpp:163] Setting up inception_2a/1x1
I0416 11:55:57.241233   977 net.cpp:170] Top shape: 25 128 36 14 (1612800)
I0416 11:55:57.241245   977 layer_factory.hpp:74] Creating layer inception_2a/1x1_bn
I0416 11:55:57.241248   977 layer_factory.cpp:191] Layer inception_2a/1x1_bn is using CAFFE engine.
I0416 11:55:57.241255   977 net.cpp:133] Creating Layer inception_2a/1x1_bn
I0416 11:55:57.241258   977 net.cpp:453] inception_2a/1x1_bn <- inception_2a/1x1
I0416 11:55:57.241264   977 net.cpp:411] inception_2a/1x1_bn -> inception_2a/1x1_bn
I0416 11:55:57.241271   977 net.cpp:163] Setting up inception_2a/1x1_bn
I0416 11:55:57.241286   977 net.cpp:170] Top shape: 25 128 36 14 (1612800)
I0416 11:55:57.241296   977 layer_factory.hpp:74] Creating layer inception_2a/relu_1x1
I0416 11:55:57.241300   977 net.cpp:133] Creating Layer inception_2a/relu_1x1
I0416 11:55:57.241303   977 net.cpp:453] inception_2a/relu_1x1 <- inception_2a/1x1_bn
I0416 11:55:57.241308   977 net.cpp:400] inception_2a/relu_1x1 -> inception_2a/1x1_bn (in-place)
I0416 11:55:57.241313   977 net.cpp:163] Setting up inception_2a/relu_1x1
I0416 11:55:57.241433   977 net.cpp:170] Top shape: 25 128 36 14 (1612800)
I0416 11:55:57.241439   977 layer_factory.hpp:74] Creating layer inception_2a/3x3_reduce
I0416 11:55:57.241447   977 net.cpp:133] Creating Layer inception_2a/3x3_reduce
I0416 11:55:57.241451   977 net.cpp:453] inception_2a/3x3_reduce <- inception_1b/output_inception_1b/output_0_split_1
I0416 11:55:57.241456   977 net.cpp:411] inception_2a/3x3_reduce -> inception_2a/3x3_reduce
I0416 11:55:57.241462   977 net.cpp:163] Setting up inception_2a/3x3_reduce
I0416 11:55:57.396194   977 net.cpp:170] Top shape: 25 128 36 14 (1612800)
I0416 11:55:57.396206   977 layer_factory.hpp:74] Creating layer inception_2a/3x3_reduce_bn
I0416 11:55:57.396210   977 layer_factory.cpp:191] Layer inception_2a/3x3_reduce_bn is using CAFFE engine.
I0416 11:55:57.396216   977 net.cpp:133] Creating Layer inception_2a/3x3_reduce_bn
I0416 11:55:57.396220   977 net.cpp:453] inception_2a/3x3_reduce_bn <- inception_2a/3x3_reduce
I0416 11:55:57.396226   977 net.cpp:411] inception_2a/3x3_reduce_bn -> inception_2a/3x3_reduce_bn
I0416 11:55:57.396235   977 net.cpp:163] Setting up inception_2a/3x3_reduce_bn
I0416 11:55:57.396250   977 net.cpp:170] Top shape: 25 128 36 14 (1612800)
I0416 11:55:57.396258   977 layer_factory.hpp:74] Creating layer inception_2a/relu_3x3_reduce
I0416 11:55:57.396265   977 net.cpp:133] Creating Layer inception_2a/relu_3x3_reduce
I0416 11:55:57.396268   977 net.cpp:453] inception_2a/relu_3x3_reduce <- inception_2a/3x3_reduce_bn
I0416 11:55:57.396272   977 net.cpp:400] inception_2a/relu_3x3_reduce -> inception_2a/3x3_reduce_bn (in-place)
I0416 11:55:57.396276   977 net.cpp:163] Setting up inception_2a/relu_3x3_reduce
I0416 11:55:57.396471   977 net.cpp:170] Top shape: 25 128 36 14 (1612800)
I0416 11:55:57.396477   977 layer_factory.hpp:74] Creating layer inception_2a/3x3
I0416 11:55:57.396486   977 net.cpp:133] Creating Layer inception_2a/3x3
I0416 11:55:57.396489   977 net.cpp:453] inception_2a/3x3 <- inception_2a/3x3_reduce_bn
I0416 11:55:57.396497   977 net.cpp:411] inception_2a/3x3 -> inception_2a/3x3
I0416 11:55:57.396502   977 net.cpp:163] Setting up inception_2a/3x3
I0416 11:55:57.468760   977 net.cpp:170] Top shape: 25 128 36 14 (1612800)
I0416 11:55:57.468770   977 layer_factory.hpp:74] Creating layer inception_2a/3x3_bn
I0416 11:55:57.468775   977 layer_factory.cpp:191] Layer inception_2a/3x3_bn is using CAFFE engine.
I0416 11:55:57.468781   977 net.cpp:133] Creating Layer inception_2a/3x3_bn
I0416 11:55:57.468785   977 net.cpp:453] inception_2a/3x3_bn <- inception_2a/3x3
I0416 11:55:57.468791   977 net.cpp:411] inception_2a/3x3_bn -> inception_2a/3x3_bn
I0416 11:55:57.468798   977 net.cpp:163] Setting up inception_2a/3x3_bn
I0416 11:55:57.468814   977 net.cpp:170] Top shape: 25 128 36 14 (1612800)
I0416 11:55:57.468822   977 layer_factory.hpp:74] Creating layer inception_2a/relu_3x3
I0416 11:55:57.468827   977 net.cpp:133] Creating Layer inception_2a/relu_3x3
I0416 11:55:57.468830   977 net.cpp:453] inception_2a/relu_3x3 <- inception_2a/3x3_bn
I0416 11:55:57.468835   977 net.cpp:400] inception_2a/relu_3x3 -> inception_2a/3x3_bn (in-place)
I0416 11:55:57.468839   977 net.cpp:163] Setting up inception_2a/relu_3x3
I0416 11:55:57.468956   977 net.cpp:170] Top shape: 25 128 36 14 (1612800)
I0416 11:55:57.468964   977 layer_factory.hpp:74] Creating layer inception_2a/double_3x3_reduce
I0416 11:55:57.468971   977 net.cpp:133] Creating Layer inception_2a/double_3x3_reduce
I0416 11:55:57.468973   977 net.cpp:453] inception_2a/double_3x3_reduce <- inception_1b/output_inception_1b/output_0_split_2
I0416 11:55:57.468981   977 net.cpp:411] inception_2a/double_3x3_reduce -> inception_2a/double_3x3_reduce
I0416 11:55:57.468988   977 net.cpp:163] Setting up inception_2a/double_3x3_reduce
I0416 11:55:57.623136   977 net.cpp:170] Top shape: 25 128 36 14 (1612800)
I0416 11:55:57.623147   977 layer_factory.hpp:74] Creating layer inception_2a/double_3x3_reduce_bn
I0416 11:55:57.623152   977 layer_factory.cpp:191] Layer inception_2a/double_3x3_reduce_bn is using CAFFE engine.
I0416 11:55:57.623172   977 net.cpp:133] Creating Layer inception_2a/double_3x3_reduce_bn
I0416 11:55:57.623177   977 net.cpp:453] inception_2a/double_3x3_reduce_bn <- inception_2a/double_3x3_reduce
I0416 11:55:57.623183   977 net.cpp:411] inception_2a/double_3x3_reduce_bn -> inception_2a/double_3x3_reduce_bn
I0416 11:55:57.623189   977 net.cpp:163] Setting up inception_2a/double_3x3_reduce_bn
I0416 11:55:57.623204   977 net.cpp:170] Top shape: 25 128 36 14 (1612800)
I0416 11:55:57.623213   977 layer_factory.hpp:74] Creating layer inception_2a/relu_double_3x3_reduce
I0416 11:55:57.623219   977 net.cpp:133] Creating Layer inception_2a/relu_double_3x3_reduce
I0416 11:55:57.623221   977 net.cpp:453] inception_2a/relu_double_3x3_reduce <- inception_2a/double_3x3_reduce_bn
I0416 11:55:57.623226   977 net.cpp:400] inception_2a/relu_double_3x3_reduce -> inception_2a/double_3x3_reduce_bn (in-place)
I0416 11:55:57.623231   977 net.cpp:163] Setting up inception_2a/relu_double_3x3_reduce
I0416 11:55:57.623350   977 net.cpp:170] Top shape: 25 128 36 14 (1612800)
I0416 11:55:57.623356   977 layer_factory.hpp:74] Creating layer inception_2a/double_3x3_1
I0416 11:55:57.623364   977 net.cpp:133] Creating Layer inception_2a/double_3x3_1
I0416 11:55:57.623368   977 net.cpp:453] inception_2a/double_3x3_1 <- inception_2a/double_3x3_reduce_bn
I0416 11:55:57.623374   977 net.cpp:411] inception_2a/double_3x3_1 -> inception_2a/double_3x3_1
I0416 11:55:57.623380   977 net.cpp:163] Setting up inception_2a/double_3x3_1
I0416 11:55:57.695225   977 net.cpp:170] Top shape: 25 128 36 14 (1612800)
I0416 11:55:57.695236   977 layer_factory.hpp:74] Creating layer inception_2a/double_3x3_1_bn
I0416 11:55:57.695240   977 layer_factory.cpp:191] Layer inception_2a/double_3x3_1_bn is using CAFFE engine.
I0416 11:55:57.695246   977 net.cpp:133] Creating Layer inception_2a/double_3x3_1_bn
I0416 11:55:57.695250   977 net.cpp:453] inception_2a/double_3x3_1_bn <- inception_2a/double_3x3_1
I0416 11:55:57.695256   977 net.cpp:411] inception_2a/double_3x3_1_bn -> inception_2a/double_3x3_1_bn
I0416 11:55:57.695263   977 net.cpp:163] Setting up inception_2a/double_3x3_1_bn
I0416 11:55:57.695278   977 net.cpp:170] Top shape: 25 128 36 14 (1612800)
I0416 11:55:57.695286   977 layer_factory.hpp:74] Creating layer inception_2a/relu_double_3x3_1
I0416 11:55:57.695291   977 net.cpp:133] Creating Layer inception_2a/relu_double_3x3_1
I0416 11:55:57.695294   977 net.cpp:453] inception_2a/relu_double_3x3_1 <- inception_2a/double_3x3_1_bn
I0416 11:55:57.695299   977 net.cpp:400] inception_2a/relu_double_3x3_1 -> inception_2a/double_3x3_1_bn (in-place)
I0416 11:55:57.695305   977 net.cpp:163] Setting up inception_2a/relu_double_3x3_1
I0416 11:55:57.695499   977 net.cpp:170] Top shape: 25 128 36 14 (1612800)
I0416 11:55:57.695505   977 layer_factory.hpp:74] Creating layer inception_2a/double_3x3_2
I0416 11:55:57.695513   977 net.cpp:133] Creating Layer inception_2a/double_3x3_2
I0416 11:55:57.695516   977 net.cpp:453] inception_2a/double_3x3_2 <- inception_2a/double_3x3_1_bn
I0416 11:55:57.695524   977 net.cpp:411] inception_2a/double_3x3_2 -> inception_2a/double_3x3_2
I0416 11:55:57.695530   977 net.cpp:163] Setting up inception_2a/double_3x3_2
I0416 11:55:57.767465   977 net.cpp:170] Top shape: 25 128 36 14 (1612800)
I0416 11:55:57.767477   977 layer_factory.hpp:74] Creating layer inception_2a/double_3x3_2_bn
I0416 11:55:57.767480   977 layer_factory.cpp:191] Layer inception_2a/double_3x3_2_bn is using CAFFE engine.
I0416 11:55:57.767487   977 net.cpp:133] Creating Layer inception_2a/double_3x3_2_bn
I0416 11:55:57.767490   977 net.cpp:453] inception_2a/double_3x3_2_bn <- inception_2a/double_3x3_2
I0416 11:55:57.767496   977 net.cpp:411] inception_2a/double_3x3_2_bn -> inception_2a/double_3x3_2_bn
I0416 11:55:57.767503   977 net.cpp:163] Setting up inception_2a/double_3x3_2_bn
I0416 11:55:57.767519   977 net.cpp:170] Top shape: 25 128 36 14 (1612800)
I0416 11:55:57.767526   977 layer_factory.hpp:74] Creating layer inception_2a/relu_double_3x3_2
I0416 11:55:57.767532   977 net.cpp:133] Creating Layer inception_2a/relu_double_3x3_2
I0416 11:55:57.767535   977 net.cpp:453] inception_2a/relu_double_3x3_2 <- inception_2a/double_3x3_2_bn
I0416 11:55:57.767541   977 net.cpp:400] inception_2a/relu_double_3x3_2 -> inception_2a/double_3x3_2_bn (in-place)
I0416 11:55:57.767545   977 net.cpp:163] Setting up inception_2a/relu_double_3x3_2
I0416 11:55:57.767665   977 net.cpp:170] Top shape: 25 128 36 14 (1612800)
I0416 11:55:57.767673   977 layer_factory.hpp:74] Creating layer inception_2a/pool
I0416 11:55:57.767676   977 layer_factory.cpp:64] CUDNN does not support padding or multiple tops. Using Caffe's own pooling layer.
I0416 11:55:57.767681   977 net.cpp:133] Creating Layer inception_2a/pool
I0416 11:55:57.767684   977 net.cpp:453] inception_2a/pool <- inception_1b/output_inception_1b/output_0_split_3
I0416 11:55:57.767689   977 net.cpp:411] inception_2a/pool -> inception_2a/pool
I0416 11:55:57.767696   977 net.cpp:163] Setting up inception_2a/pool
I0416 11:55:57.767704   977 net.cpp:170] Top shape: 25 384 36 14 (4838400)
I0416 11:55:57.767706   977 layer_factory.hpp:74] Creating layer inception_2a/pool_proj
I0416 11:55:57.767712   977 net.cpp:133] Creating Layer inception_2a/pool_proj
I0416 11:55:57.767715   977 net.cpp:453] inception_2a/pool_proj <- inception_2a/pool
I0416 11:55:57.767722   977 net.cpp:411] inception_2a/pool_proj -> inception_2a/pool_proj
I0416 11:55:57.767727   977 net.cpp:163] Setting up inception_2a/pool_proj
I0416 11:55:57.923708   977 net.cpp:170] Top shape: 25 128 36 14 (1612800)
I0416 11:55:57.923720   977 layer_factory.hpp:74] Creating layer inception_2a/pool_proj_bn
I0416 11:55:57.923723   977 layer_factory.cpp:191] Layer inception_2a/pool_proj_bn is using CAFFE engine.
I0416 11:55:57.923730   977 net.cpp:133] Creating Layer inception_2a/pool_proj_bn
I0416 11:55:57.923734   977 net.cpp:453] inception_2a/pool_proj_bn <- inception_2a/pool_proj
I0416 11:55:57.923740   977 net.cpp:411] inception_2a/pool_proj_bn -> inception_2a/pool_proj_bn
I0416 11:55:57.923748   977 net.cpp:163] Setting up inception_2a/pool_proj_bn
I0416 11:55:57.923763   977 net.cpp:170] Top shape: 25 128 36 14 (1612800)
I0416 11:55:57.923784   977 layer_factory.hpp:74] Creating layer inception_2a/relu_pool_proj
I0416 11:55:57.923789   977 net.cpp:133] Creating Layer inception_2a/relu_pool_proj
I0416 11:55:57.923792   977 net.cpp:453] inception_2a/relu_pool_proj <- inception_2a/pool_proj_bn
I0416 11:55:57.923799   977 net.cpp:400] inception_2a/relu_pool_proj -> inception_2a/pool_proj_bn (in-place)
I0416 11:55:57.923804   977 net.cpp:163] Setting up inception_2a/relu_pool_proj
I0416 11:55:57.923923   977 net.cpp:170] Top shape: 25 128 36 14 (1612800)
I0416 11:55:57.923929   977 layer_factory.hpp:74] Creating layer inception_2a/output
I0416 11:55:57.923935   977 net.cpp:133] Creating Layer inception_2a/output
I0416 11:55:57.923938   977 net.cpp:453] inception_2a/output <- inception_2a/1x1_bn
I0416 11:55:57.923943   977 net.cpp:453] inception_2a/output <- inception_2a/3x3_bn
I0416 11:55:57.923946   977 net.cpp:453] inception_2a/output <- inception_2a/double_3x3_2_bn
I0416 11:55:57.923950   977 net.cpp:453] inception_2a/output <- inception_2a/pool_proj_bn
I0416 11:55:57.923956   977 net.cpp:411] inception_2a/output -> inception_2a/output
I0416 11:55:57.923962   977 net.cpp:163] Setting up inception_2a/output
I0416 11:55:57.923969   977 net.cpp:170] Top shape: 25 512 36 14 (6451200)
I0416 11:55:57.923971   977 layer_factory.hpp:74] Creating layer inception_2a/output_inception_2a/output_0_split
I0416 11:55:57.923976   977 net.cpp:133] Creating Layer inception_2a/output_inception_2a/output_0_split
I0416 11:55:57.923979   977 net.cpp:453] inception_2a/output_inception_2a/output_0_split <- inception_2a/output
I0416 11:55:57.923985   977 net.cpp:411] inception_2a/output_inception_2a/output_0_split -> inception_2a/output_inception_2a/output_0_split_0
I0416 11:55:57.924003   977 net.cpp:411] inception_2a/output_inception_2a/output_0_split -> inception_2a/output_inception_2a/output_0_split_1
I0416 11:55:57.924010   977 net.cpp:411] inception_2a/output_inception_2a/output_0_split -> inception_2a/output_inception_2a/output_0_split_2
I0416 11:55:57.924015   977 net.cpp:163] Setting up inception_2a/output_inception_2a/output_0_split
I0416 11:55:57.924020   977 net.cpp:170] Top shape: 25 512 36 14 (6451200)
I0416 11:55:57.924023   977 net.cpp:170] Top shape: 25 512 36 14 (6451200)
I0416 11:55:57.924026   977 net.cpp:170] Top shape: 25 512 36 14 (6451200)
I0416 11:55:57.924028   977 layer_factory.hpp:74] Creating layer inception_2b/3x3_reduce
I0416 11:55:57.924034   977 net.cpp:133] Creating Layer inception_2b/3x3_reduce
I0416 11:55:57.924037   977 net.cpp:453] inception_2b/3x3_reduce <- inception_2a/output_inception_2a/output_0_split_0
I0416 11:55:57.924043   977 net.cpp:411] inception_2b/3x3_reduce -> inception_2b/3x3_reduce
I0416 11:55:57.924051   977 net.cpp:163] Setting up inception_2b/3x3_reduce
I0416 11:55:58.124349   977 net.cpp:170] Top shape: 25 128 36 14 (1612800)
I0416 11:55:58.124361   977 layer_factory.hpp:74] Creating layer inception_2b/3x3_reduce_bn
I0416 11:55:58.124366   977 layer_factory.cpp:191] Layer inception_2b/3x3_reduce_bn is using CAFFE engine.
I0416 11:55:58.124372   977 net.cpp:133] Creating Layer inception_2b/3x3_reduce_bn
I0416 11:55:58.124374   977 net.cpp:453] inception_2b/3x3_reduce_bn <- inception_2b/3x3_reduce
I0416 11:55:58.124382   977 net.cpp:411] inception_2b/3x3_reduce_bn -> inception_2b/3x3_reduce_bn
I0416 11:55:58.124388   977 net.cpp:163] Setting up inception_2b/3x3_reduce_bn
I0416 11:55:58.124403   977 net.cpp:170] Top shape: 25 128 36 14 (1612800)
I0416 11:55:58.124411   977 layer_factory.hpp:74] Creating layer inception_2b/relu_3x3_reduce
I0416 11:55:58.124418   977 net.cpp:133] Creating Layer inception_2b/relu_3x3_reduce
I0416 11:55:58.124420   977 net.cpp:453] inception_2b/relu_3x3_reduce <- inception_2b/3x3_reduce_bn
I0416 11:55:58.124425   977 net.cpp:400] inception_2b/relu_3x3_reduce -> inception_2b/3x3_reduce_bn (in-place)
I0416 11:55:58.124430   977 net.cpp:163] Setting up inception_2b/relu_3x3_reduce
I0416 11:55:58.124634   977 net.cpp:170] Top shape: 25 128 36 14 (1612800)
I0416 11:55:58.124641   977 layer_factory.hpp:74] Creating layer inception_2b/3x3
I0416 11:55:58.124649   977 net.cpp:133] Creating Layer inception_2b/3x3
I0416 11:55:58.124652   977 net.cpp:453] inception_2b/3x3 <- inception_2b/3x3_reduce_bn
I0416 11:55:58.124660   977 net.cpp:411] inception_2b/3x3 -> inception_2b/3x3
I0416 11:55:58.124665   977 net.cpp:163] Setting up inception_2b/3x3
I0416 11:55:58.137136   977 net.cpp:170] Top shape: 25 128 18 7 (403200)
I0416 11:55:58.137148   977 layer_factory.hpp:74] Creating layer inception_2b/3x3_bn
I0416 11:55:58.137152   977 layer_factory.cpp:191] Layer inception_2b/3x3_bn is using CAFFE engine.
I0416 11:55:58.137158   977 net.cpp:133] Creating Layer inception_2b/3x3_bn
I0416 11:55:58.137162   977 net.cpp:453] inception_2b/3x3_bn <- inception_2b/3x3
I0416 11:55:58.137168   977 net.cpp:411] inception_2b/3x3_bn -> inception_2b/3x3_bn
I0416 11:55:58.137176   977 net.cpp:163] Setting up inception_2b/3x3_bn
I0416 11:55:58.137189   977 net.cpp:170] Top shape: 25 128 18 7 (403200)
I0416 11:55:58.137198   977 layer_factory.hpp:74] Creating layer inception_2b/relu_3x3
I0416 11:55:58.137203   977 net.cpp:133] Creating Layer inception_2b/relu_3x3
I0416 11:55:58.137207   977 net.cpp:453] inception_2b/relu_3x3 <- inception_2b/3x3_bn
I0416 11:55:58.137212   977 net.cpp:400] inception_2b/relu_3x3 -> inception_2b/3x3_bn (in-place)
I0416 11:55:58.137217   977 net.cpp:163] Setting up inception_2b/relu_3x3
I0416 11:55:58.137336   977 net.cpp:170] Top shape: 25 128 18 7 (403200)
I0416 11:55:58.137343   977 layer_factory.hpp:74] Creating layer inception_2b/double_3x3_reduce
I0416 11:55:58.137351   977 net.cpp:133] Creating Layer inception_2b/double_3x3_reduce
I0416 11:55:58.137354   977 net.cpp:453] inception_2b/double_3x3_reduce <- inception_2a/output_inception_2a/output_0_split_1
I0416 11:55:58.137361   977 net.cpp:411] inception_2b/double_3x3_reduce -> inception_2b/double_3x3_reduce
I0416 11:55:58.137368   977 net.cpp:163] Setting up inception_2b/double_3x3_reduce
I0416 11:55:58.337677   977 net.cpp:170] Top shape: 25 128 36 14 (1612800)
I0416 11:55:58.337688   977 layer_factory.hpp:74] Creating layer inception_2b/double_3x3_reduce_bn
I0416 11:55:58.337692   977 layer_factory.cpp:191] Layer inception_2b/double_3x3_reduce_bn is using CAFFE engine.
I0416 11:55:58.337699   977 net.cpp:133] Creating Layer inception_2b/double_3x3_reduce_bn
I0416 11:55:58.337702   977 net.cpp:453] inception_2b/double_3x3_reduce_bn <- inception_2b/double_3x3_reduce
I0416 11:55:58.337709   977 net.cpp:411] inception_2b/double_3x3_reduce_bn -> inception_2b/double_3x3_reduce_bn
I0416 11:55:58.337716   977 net.cpp:163] Setting up inception_2b/double_3x3_reduce_bn
I0416 11:55:58.337731   977 net.cpp:170] Top shape: 25 128 36 14 (1612800)
I0416 11:55:58.337740   977 layer_factory.hpp:74] Creating layer inception_2b/relu_double_3x3_reduce
I0416 11:55:58.337745   977 net.cpp:133] Creating Layer inception_2b/relu_double_3x3_reduce
I0416 11:55:58.337749   977 net.cpp:453] inception_2b/relu_double_3x3_reduce <- inception_2b/double_3x3_reduce_bn
I0416 11:55:58.337754   977 net.cpp:400] inception_2b/relu_double_3x3_reduce -> inception_2b/double_3x3_reduce_bn (in-place)
I0416 11:55:58.337759   977 net.cpp:163] Setting up inception_2b/relu_double_3x3_reduce
I0416 11:55:58.337880   977 net.cpp:170] Top shape: 25 128 36 14 (1612800)
I0416 11:55:58.337885   977 layer_factory.hpp:74] Creating layer inception_2b/double_3x3_1
I0416 11:55:58.337893   977 net.cpp:133] Creating Layer inception_2b/double_3x3_1
I0416 11:55:58.337895   977 net.cpp:453] inception_2b/double_3x3_1 <- inception_2b/double_3x3_reduce_bn
I0416 11:55:58.337903   977 net.cpp:411] inception_2b/double_3x3_1 -> inception_2b/double_3x3_1
I0416 11:55:58.337910   977 net.cpp:163] Setting up inception_2b/double_3x3_1
I0416 11:55:58.409931   977 net.cpp:170] Top shape: 25 128 36 14 (1612800)
I0416 11:55:58.409943   977 layer_factory.hpp:74] Creating layer inception_2b/double_3x3_1_bn
I0416 11:55:58.409947   977 layer_factory.cpp:191] Layer inception_2b/double_3x3_1_bn is using CAFFE engine.
I0416 11:55:58.409953   977 net.cpp:133] Creating Layer inception_2b/double_3x3_1_bn
I0416 11:55:58.409957   977 net.cpp:453] inception_2b/double_3x3_1_bn <- inception_2b/double_3x3_1
I0416 11:55:58.409963   977 net.cpp:411] inception_2b/double_3x3_1_bn -> inception_2b/double_3x3_1_bn
I0416 11:55:58.409970   977 net.cpp:163] Setting up inception_2b/double_3x3_1_bn
I0416 11:55:58.409984   977 net.cpp:170] Top shape: 25 128 36 14 (1612800)
I0416 11:55:58.409992   977 layer_factory.hpp:74] Creating layer inception_2b/relu_double_3x3_1
I0416 11:55:58.409997   977 net.cpp:133] Creating Layer inception_2b/relu_double_3x3_1
I0416 11:55:58.410001   977 net.cpp:453] inception_2b/relu_double_3x3_1 <- inception_2b/double_3x3_1_bn
I0416 11:55:58.410004   977 net.cpp:400] inception_2b/relu_double_3x3_1 -> inception_2b/double_3x3_1_bn (in-place)
I0416 11:55:58.410009   977 net.cpp:163] Setting up inception_2b/relu_double_3x3_1
I0416 11:55:58.410277   977 net.cpp:170] Top shape: 25 128 36 14 (1612800)
I0416 11:55:58.410284   977 layer_factory.hpp:74] Creating layer inception_2b/double_3x3_2
I0416 11:55:58.410291   977 net.cpp:133] Creating Layer inception_2b/double_3x3_2
I0416 11:55:58.410295   977 net.cpp:453] inception_2b/double_3x3_2 <- inception_2b/double_3x3_1_bn
I0416 11:55:58.410302   977 net.cpp:411] inception_2b/double_3x3_2 -> inception_2b/double_3x3_2
I0416 11:55:58.410310   977 net.cpp:163] Setting up inception_2b/double_3x3_2
I0416 11:55:58.422590   977 net.cpp:170] Top shape: 25 128 18 7 (403200)
I0416 11:55:58.422600   977 layer_factory.hpp:74] Creating layer inception_2b/double_3x3_2_bn
I0416 11:55:58.422605   977 layer_factory.cpp:191] Layer inception_2b/double_3x3_2_bn is using CAFFE engine.
I0416 11:55:58.422610   977 net.cpp:133] Creating Layer inception_2b/double_3x3_2_bn
I0416 11:55:58.422615   977 net.cpp:453] inception_2b/double_3x3_2_bn <- inception_2b/double_3x3_2
I0416 11:55:58.422621   977 net.cpp:411] inception_2b/double_3x3_2_bn -> inception_2b/double_3x3_2_bn
I0416 11:55:58.422627   977 net.cpp:163] Setting up inception_2b/double_3x3_2_bn
I0416 11:55:58.422643   977 net.cpp:170] Top shape: 25 128 18 7 (403200)
I0416 11:55:58.422651   977 layer_factory.hpp:74] Creating layer inception_2b/relu_double_3x3_2
I0416 11:55:58.422657   977 net.cpp:133] Creating Layer inception_2b/relu_double_3x3_2
I0416 11:55:58.422659   977 net.cpp:453] inception_2b/relu_double_3x3_2 <- inception_2b/double_3x3_2_bn
I0416 11:55:58.422665   977 net.cpp:400] inception_2b/relu_double_3x3_2 -> inception_2b/double_3x3_2_bn (in-place)
I0416 11:55:58.422669   977 net.cpp:163] Setting up inception_2b/relu_double_3x3_2
I0416 11:55:58.422791   977 net.cpp:170] Top shape: 25 128 18 7 (403200)
I0416 11:55:58.422796   977 layer_factory.hpp:74] Creating layer inception_2b/pool
I0416 11:55:58.422803   977 net.cpp:133] Creating Layer inception_2b/pool
I0416 11:55:58.422806   977 net.cpp:453] inception_2b/pool <- inception_2a/output_inception_2a/output_0_split_2
I0416 11:55:58.422811   977 net.cpp:411] inception_2b/pool -> inception_2b/pool
I0416 11:55:58.422818   977 net.cpp:163] Setting up inception_2b/pool
I0416 11:55:58.423007   977 net.cpp:170] Top shape: 25 512 18 7 (1612800)
I0416 11:55:58.423012   977 layer_factory.hpp:74] Creating layer inception_2b/output
I0416 11:55:58.423018   977 net.cpp:133] Creating Layer inception_2b/output
I0416 11:55:58.423022   977 net.cpp:453] inception_2b/output <- inception_2b/3x3_bn
I0416 11:55:58.423027   977 net.cpp:453] inception_2b/output <- inception_2b/double_3x3_2_bn
I0416 11:55:58.423029   977 net.cpp:453] inception_2b/output <- inception_2b/pool
I0416 11:55:58.423037   977 net.cpp:411] inception_2b/output -> inception_2b/output
I0416 11:55:58.423041   977 net.cpp:163] Setting up inception_2b/output
I0416 11:55:58.423048   977 net.cpp:170] Top shape: 25 768 18 7 (2419200)
I0416 11:55:58.423050   977 layer_factory.hpp:74] Creating layer inception_2b/output_inception_2b/output_0_split
I0416 11:55:58.423056   977 net.cpp:133] Creating Layer inception_2b/output_inception_2b/output_0_split
I0416 11:55:58.423059   977 net.cpp:453] inception_2b/output_inception_2b/output_0_split <- inception_2b/output
I0416 11:55:58.423064   977 net.cpp:411] inception_2b/output_inception_2b/output_0_split -> inception_2b/output_inception_2b/output_0_split_0
I0416 11:55:58.423070   977 net.cpp:411] inception_2b/output_inception_2b/output_0_split -> inception_2b/output_inception_2b/output_0_split_1
I0416 11:55:58.423077   977 net.cpp:411] inception_2b/output_inception_2b/output_0_split -> inception_2b/output_inception_2b/output_0_split_2
I0416 11:55:58.423084   977 net.cpp:411] inception_2b/output_inception_2b/output_0_split -> inception_2b/output_inception_2b/output_0_split_3
I0416 11:55:58.423089   977 net.cpp:163] Setting up inception_2b/output_inception_2b/output_0_split
I0416 11:55:58.423094   977 net.cpp:170] Top shape: 25 768 18 7 (2419200)
I0416 11:55:58.423097   977 net.cpp:170] Top shape: 25 768 18 7 (2419200)
I0416 11:55:58.423100   977 net.cpp:170] Top shape: 25 768 18 7 (2419200)
I0416 11:55:58.423105   977 net.cpp:170] Top shape: 25 768 18 7 (2419200)
I0416 11:55:58.423106   977 layer_factory.hpp:74] Creating layer inception_3a/1x1
I0416 11:55:58.423115   977 net.cpp:133] Creating Layer inception_3a/1x1
I0416 11:55:58.423117   977 net.cpp:453] inception_3a/1x1 <- inception_2b/output_inception_2b/output_0_split_0
I0416 11:55:58.423122   977 net.cpp:411] inception_3a/1x1 -> inception_3a/1x1
I0416 11:55:58.423128   977 net.cpp:163] Setting up inception_3a/1x1
I0416 11:55:58.578413   977 net.cpp:170] Top shape: 25 256 18 7 (806400)
I0416 11:55:58.578425   977 layer_factory.hpp:74] Creating layer inception_3a/1x1_bn
I0416 11:55:58.578429   977 layer_factory.cpp:191] Layer inception_3a/1x1_bn is using CAFFE engine.
I0416 11:55:58.578435   977 net.cpp:133] Creating Layer inception_3a/1x1_bn
I0416 11:55:58.578438   977 net.cpp:453] inception_3a/1x1_bn <- inception_3a/1x1
I0416 11:55:58.578444   977 net.cpp:411] inception_3a/1x1_bn -> inception_3a/1x1_bn
I0416 11:55:58.578451   977 net.cpp:163] Setting up inception_3a/1x1_bn
I0416 11:55:58.578466   977 net.cpp:170] Top shape: 25 256 18 7 (806400)
I0416 11:55:58.578475   977 layer_factory.hpp:74] Creating layer inception_3a/relu_1x1
I0416 11:55:58.578480   977 net.cpp:133] Creating Layer inception_3a/relu_1x1
I0416 11:55:58.578483   977 net.cpp:453] inception_3a/relu_1x1 <- inception_3a/1x1_bn
I0416 11:55:58.578487   977 net.cpp:400] inception_3a/relu_1x1 -> inception_3a/1x1_bn (in-place)
I0416 11:55:58.578492   977 net.cpp:163] Setting up inception_3a/relu_1x1
I0416 11:55:58.578680   977 net.cpp:170] Top shape: 25 256 18 7 (806400)
I0416 11:55:58.578687   977 layer_factory.hpp:74] Creating layer inception_3a/3x3_reduce
I0416 11:55:58.578693   977 net.cpp:133] Creating Layer inception_3a/3x3_reduce
I0416 11:55:58.578697   977 net.cpp:453] inception_3a/3x3_reduce <- inception_2b/output_inception_2b/output_0_split_1
I0416 11:55:58.578704   977 net.cpp:411] inception_3a/3x3_reduce -> inception_3a/3x3_reduce
I0416 11:55:58.578711   977 net.cpp:163] Setting up inception_3a/3x3_reduce
I0416 11:55:58.733022   977 net.cpp:170] Top shape: 25 256 18 7 (806400)
I0416 11:55:58.733034   977 layer_factory.hpp:74] Creating layer inception_3a/3x3_reduce_bn
I0416 11:55:58.733038   977 layer_factory.cpp:191] Layer inception_3a/3x3_reduce_bn is using CAFFE engine.
I0416 11:55:58.733044   977 net.cpp:133] Creating Layer inception_3a/3x3_reduce_bn
I0416 11:55:58.733047   977 net.cpp:453] inception_3a/3x3_reduce_bn <- inception_3a/3x3_reduce
I0416 11:55:58.733054   977 net.cpp:411] inception_3a/3x3_reduce_bn -> inception_3a/3x3_reduce_bn
I0416 11:55:58.733062   977 net.cpp:163] Setting up inception_3a/3x3_reduce_bn
I0416 11:55:58.733078   977 net.cpp:170] Top shape: 25 256 18 7 (806400)
I0416 11:55:58.733085   977 layer_factory.hpp:74] Creating layer inception_3a/relu_3x3_reduce
I0416 11:55:58.733091   977 net.cpp:133] Creating Layer inception_3a/relu_3x3_reduce
I0416 11:55:58.733094   977 net.cpp:453] inception_3a/relu_3x3_reduce <- inception_3a/3x3_reduce_bn
I0416 11:55:58.733099   977 net.cpp:400] inception_3a/relu_3x3_reduce -> inception_3a/3x3_reduce_bn (in-place)
I0416 11:55:58.733104   977 net.cpp:163] Setting up inception_3a/relu_3x3_reduce
I0416 11:55:58.733227   977 net.cpp:170] Top shape: 25 256 18 7 (806400)
I0416 11:55:58.733232   977 layer_factory.hpp:74] Creating layer inception_3a/3x3
I0416 11:55:58.733239   977 net.cpp:133] Creating Layer inception_3a/3x3
I0416 11:55:58.733242   977 net.cpp:453] inception_3a/3x3 <- inception_3a/3x3_reduce_bn
I0416 11:55:58.733248   977 net.cpp:411] inception_3a/3x3 -> inception_3a/3x3
I0416 11:55:58.733254   977 net.cpp:163] Setting up inception_3a/3x3
I0416 11:55:58.809334   977 net.cpp:170] Top shape: 25 256 18 7 (806400)
I0416 11:55:58.809345   977 layer_factory.hpp:74] Creating layer inception_3a/3x3_bn
I0416 11:55:58.809350   977 layer_factory.cpp:191] Layer inception_3a/3x3_bn is using CAFFE engine.
I0416 11:55:58.809356   977 net.cpp:133] Creating Layer inception_3a/3x3_bn
I0416 11:55:58.809360   977 net.cpp:453] inception_3a/3x3_bn <- inception_3a/3x3
I0416 11:55:58.809366   977 net.cpp:411] inception_3a/3x3_bn -> inception_3a/3x3_bn
I0416 11:55:58.809373   977 net.cpp:163] Setting up inception_3a/3x3_bn
I0416 11:55:58.809388   977 net.cpp:170] Top shape: 25 256 18 7 (806400)
I0416 11:55:58.809396   977 layer_factory.hpp:74] Creating layer inception_3a/relu_3x3
I0416 11:55:58.809402   977 net.cpp:133] Creating Layer inception_3a/relu_3x3
I0416 11:55:58.809406   977 net.cpp:453] inception_3a/relu_3x3 <- inception_3a/3x3_bn
I0416 11:55:58.809411   977 net.cpp:400] inception_3a/relu_3x3 -> inception_3a/3x3_bn (in-place)
I0416 11:55:58.809415   977 net.cpp:163] Setting up inception_3a/relu_3x3
I0416 11:55:58.809609   977 net.cpp:170] Top shape: 25 256 18 7 (806400)
I0416 11:55:58.809617   977 layer_factory.hpp:74] Creating layer inception_3a/double_3x3_reduce
I0416 11:55:58.809623   977 net.cpp:133] Creating Layer inception_3a/double_3x3_reduce
I0416 11:55:58.809628   977 net.cpp:453] inception_3a/double_3x3_reduce <- inception_2b/output_inception_2b/output_0_split_2
I0416 11:55:58.809634   977 net.cpp:411] inception_3a/double_3x3_reduce -> inception_3a/double_3x3_reduce
I0416 11:55:58.809640   977 net.cpp:163] Setting up inception_3a/double_3x3_reduce
I0416 11:55:58.963835   977 net.cpp:170] Top shape: 25 256 18 7 (806400)
I0416 11:55:58.963847   977 layer_factory.hpp:74] Creating layer inception_3a/double_3x3_reduce_bn
I0416 11:55:58.963851   977 layer_factory.cpp:191] Layer inception_3a/double_3x3_reduce_bn is using CAFFE engine.
I0416 11:55:58.963857   977 net.cpp:133] Creating Layer inception_3a/double_3x3_reduce_bn
I0416 11:55:58.963861   977 net.cpp:453] inception_3a/double_3x3_reduce_bn <- inception_3a/double_3x3_reduce
I0416 11:55:58.963868   977 net.cpp:411] inception_3a/double_3x3_reduce_bn -> inception_3a/double_3x3_reduce_bn
I0416 11:55:58.963876   977 net.cpp:163] Setting up inception_3a/double_3x3_reduce_bn
I0416 11:55:58.963891   977 net.cpp:170] Top shape: 25 256 18 7 (806400)
I0416 11:55:58.963899   977 layer_factory.hpp:74] Creating layer inception_3a/relu_double_3x3_reduce
I0416 11:55:58.963904   977 net.cpp:133] Creating Layer inception_3a/relu_double_3x3_reduce
I0416 11:55:58.963907   977 net.cpp:453] inception_3a/relu_double_3x3_reduce <- inception_3a/double_3x3_reduce_bn
I0416 11:55:58.963913   977 net.cpp:400] inception_3a/relu_double_3x3_reduce -> inception_3a/double_3x3_reduce_bn (in-place)
I0416 11:55:58.963918   977 net.cpp:163] Setting up inception_3a/relu_double_3x3_reduce
I0416 11:55:58.964110   977 net.cpp:170] Top shape: 25 256 18 7 (806400)
I0416 11:55:58.964118   977 layer_factory.hpp:74] Creating layer inception_3a/double_3x3_1
I0416 11:55:58.964125   977 net.cpp:133] Creating Layer inception_3a/double_3x3_1
I0416 11:55:58.964128   977 net.cpp:453] inception_3a/double_3x3_1 <- inception_3a/double_3x3_reduce_bn
I0416 11:55:58.964134   977 net.cpp:411] inception_3a/double_3x3_1 -> inception_3a/double_3x3_1
I0416 11:55:58.964143   977 net.cpp:163] Setting up inception_3a/double_3x3_1
I0416 11:55:59.040402   977 net.cpp:170] Top shape: 25 256 18 7 (806400)
I0416 11:55:59.040415   977 layer_factory.hpp:74] Creating layer inception_3a/double_3x3_1_bn
I0416 11:55:59.040418   977 layer_factory.cpp:191] Layer inception_3a/double_3x3_1_bn is using CAFFE engine.
I0416 11:55:59.040424   977 net.cpp:133] Creating Layer inception_3a/double_3x3_1_bn
I0416 11:55:59.040429   977 net.cpp:453] inception_3a/double_3x3_1_bn <- inception_3a/double_3x3_1
I0416 11:55:59.040436   977 net.cpp:411] inception_3a/double_3x3_1_bn -> inception_3a/double_3x3_1_bn
I0416 11:55:59.040446   977 net.cpp:163] Setting up inception_3a/double_3x3_1_bn
I0416 11:55:59.040462   977 net.cpp:170] Top shape: 25 256 18 7 (806400)
I0416 11:55:59.040469   977 layer_factory.hpp:74] Creating layer inception_3a/relu_double_3x3_1
I0416 11:55:59.040474   977 net.cpp:133] Creating Layer inception_3a/relu_double_3x3_1
I0416 11:55:59.040477   977 net.cpp:453] inception_3a/relu_double_3x3_1 <- inception_3a/double_3x3_1_bn
I0416 11:55:59.040482   977 net.cpp:400] inception_3a/relu_double_3x3_1 -> inception_3a/double_3x3_1_bn (in-place)
I0416 11:55:59.040488   977 net.cpp:163] Setting up inception_3a/relu_double_3x3_1
I0416 11:55:59.040606   977 net.cpp:170] Top shape: 25 256 18 7 (806400)
I0416 11:55:59.040613   977 layer_factory.hpp:74] Creating layer inception_3a/double_3x3_2
I0416 11:55:59.040621   977 net.cpp:133] Creating Layer inception_3a/double_3x3_2
I0416 11:55:59.040624   977 net.cpp:453] inception_3a/double_3x3_2 <- inception_3a/double_3x3_1_bn
I0416 11:55:59.040629   977 net.cpp:411] inception_3a/double_3x3_2 -> inception_3a/double_3x3_2
I0416 11:55:59.040637   977 net.cpp:163] Setting up inception_3a/double_3x3_2
I0416 11:55:59.117075   977 net.cpp:170] Top shape: 25 256 18 7 (806400)
I0416 11:55:59.117087   977 layer_factory.hpp:74] Creating layer inception_3a/double_3x3_2_bn
I0416 11:55:59.117091   977 layer_factory.cpp:191] Layer inception_3a/double_3x3_2_bn is using CAFFE engine.
I0416 11:55:59.117097   977 net.cpp:133] Creating Layer inception_3a/double_3x3_2_bn
I0416 11:55:59.117101   977 net.cpp:453] inception_3a/double_3x3_2_bn <- inception_3a/double_3x3_2
I0416 11:55:59.117107   977 net.cpp:411] inception_3a/double_3x3_2_bn -> inception_3a/double_3x3_2_bn
I0416 11:55:59.117115   977 net.cpp:163] Setting up inception_3a/double_3x3_2_bn
I0416 11:55:59.117130   977 net.cpp:170] Top shape: 25 256 18 7 (806400)
I0416 11:55:59.117138   977 layer_factory.hpp:74] Creating layer inception_3a/relu_double_3x3_2
I0416 11:55:59.117146   977 net.cpp:133] Creating Layer inception_3a/relu_double_3x3_2
I0416 11:55:59.117148   977 net.cpp:453] inception_3a/relu_double_3x3_2 <- inception_3a/double_3x3_2_bn
I0416 11:55:59.117153   977 net.cpp:400] inception_3a/relu_double_3x3_2 -> inception_3a/double_3x3_2_bn (in-place)
I0416 11:55:59.117158   977 net.cpp:163] Setting up inception_3a/relu_double_3x3_2
I0416 11:55:59.117357   977 net.cpp:170] Top shape: 25 256 18 7 (806400)
I0416 11:55:59.117363   977 layer_factory.hpp:74] Creating layer inception_3a/pool
I0416 11:55:59.117367   977 layer_factory.cpp:64] CUDNN does not support padding or multiple tops. Using Caffe's own pooling layer.
I0416 11:55:59.117372   977 net.cpp:133] Creating Layer inception_3a/pool
I0416 11:55:59.117377   977 net.cpp:453] inception_3a/pool <- inception_2b/output_inception_2b/output_0_split_3
I0416 11:55:59.117382   977 net.cpp:411] inception_3a/pool -> inception_3a/pool
I0416 11:55:59.117388   977 net.cpp:163] Setting up inception_3a/pool
I0416 11:55:59.117395   977 net.cpp:170] Top shape: 25 768 18 7 (2419200)
I0416 11:55:59.117398   977 layer_factory.hpp:74] Creating layer inception_3a/pool_proj
I0416 11:55:59.117404   977 net.cpp:133] Creating Layer inception_3a/pool_proj
I0416 11:55:59.117408   977 net.cpp:453] inception_3a/pool_proj <- inception_3a/pool
I0416 11:55:59.117414   977 net.cpp:411] inception_3a/pool_proj -> inception_3a/pool_proj
I0416 11:55:59.117420   977 net.cpp:163] Setting up inception_3a/pool_proj
I0416 11:55:59.271930   977 net.cpp:170] Top shape: 25 256 18 7 (806400)
I0416 11:55:59.271941   977 layer_factory.hpp:74] Creating layer inception_3a/pool_proj_bn
I0416 11:55:59.271945   977 layer_factory.cpp:191] Layer inception_3a/pool_proj_bn is using CAFFE engine.
I0416 11:55:59.271952   977 net.cpp:133] Creating Layer inception_3a/pool_proj_bn
I0416 11:55:59.271956   977 net.cpp:453] inception_3a/pool_proj_bn <- inception_3a/pool_proj
I0416 11:55:59.271962   977 net.cpp:411] inception_3a/pool_proj_bn -> inception_3a/pool_proj_bn
I0416 11:55:59.271970   977 net.cpp:163] Setting up inception_3a/pool_proj_bn
I0416 11:55:59.271986   977 net.cpp:170] Top shape: 25 256 18 7 (806400)
I0416 11:55:59.271993   977 layer_factory.hpp:74] Creating layer inception_3a/relu_pool_proj
I0416 11:55:59.272001   977 net.cpp:133] Creating Layer inception_3a/relu_pool_proj
I0416 11:55:59.272003   977 net.cpp:453] inception_3a/relu_pool_proj <- inception_3a/pool_proj_bn
I0416 11:55:59.272008   977 net.cpp:400] inception_3a/relu_pool_proj -> inception_3a/pool_proj_bn (in-place)
I0416 11:55:59.272013   977 net.cpp:163] Setting up inception_3a/relu_pool_proj
I0416 11:55:59.272203   977 net.cpp:170] Top shape: 25 256 18 7 (806400)
I0416 11:55:59.272210   977 layer_factory.hpp:74] Creating layer inception_3a/output
I0416 11:55:59.272217   977 net.cpp:133] Creating Layer inception_3a/output
I0416 11:55:59.272220   977 net.cpp:453] inception_3a/output <- inception_3a/1x1_bn
I0416 11:55:59.272224   977 net.cpp:453] inception_3a/output <- inception_3a/3x3_bn
I0416 11:55:59.272228   977 net.cpp:453] inception_3a/output <- inception_3a/double_3x3_2_bn
I0416 11:55:59.272233   977 net.cpp:453] inception_3a/output <- inception_3a/pool_proj_bn
I0416 11:55:59.272238   977 net.cpp:411] inception_3a/output -> inception_3a/output
I0416 11:55:59.272244   977 net.cpp:163] Setting up inception_3a/output
I0416 11:55:59.272250   977 net.cpp:170] Top shape: 25 1024 18 7 (3225600)
I0416 11:55:59.272253   977 layer_factory.hpp:74] Creating layer inception_3a/output_inception_3a/output_0_split
I0416 11:55:59.272258   977 net.cpp:133] Creating Layer inception_3a/output_inception_3a/output_0_split
I0416 11:55:59.272261   977 net.cpp:453] inception_3a/output_inception_3a/output_0_split <- inception_3a/output
I0416 11:55:59.272266   977 net.cpp:411] inception_3a/output_inception_3a/output_0_split -> inception_3a/output_inception_3a/output_0_split_0
I0416 11:55:59.272272   977 net.cpp:411] inception_3a/output_inception_3a/output_0_split -> inception_3a/output_inception_3a/output_0_split_1
I0416 11:55:59.272279   977 net.cpp:411] inception_3a/output_inception_3a/output_0_split -> inception_3a/output_inception_3a/output_0_split_2
I0416 11:55:59.272284   977 net.cpp:163] Setting up inception_3a/output_inception_3a/output_0_split
I0416 11:55:59.272289   977 net.cpp:170] Top shape: 25 1024 18 7 (3225600)
I0416 11:55:59.272294   977 net.cpp:170] Top shape: 25 1024 18 7 (3225600)
I0416 11:55:59.272296   977 net.cpp:170] Top shape: 25 1024 18 7 (3225600)
I0416 11:55:59.272300   977 layer_factory.hpp:74] Creating layer inception_3b/3x3_reduce
I0416 11:55:59.272306   977 net.cpp:133] Creating Layer inception_3b/3x3_reduce
I0416 11:55:59.272310   977 net.cpp:453] inception_3b/3x3_reduce <- inception_3a/output_inception_3a/output_0_split_0
I0416 11:55:59.272316   977 net.cpp:411] inception_3b/3x3_reduce -> inception_3b/3x3_reduce
I0416 11:55:59.272322   977 net.cpp:163] Setting up inception_3b/3x3_reduce
I0416 11:55:59.478793   977 net.cpp:170] Top shape: 25 256 18 7 (806400)
I0416 11:55:59.478806   977 layer_factory.hpp:74] Creating layer inception_3b/3x3_reduce_bn
I0416 11:55:59.478809   977 layer_factory.cpp:191] Layer inception_3b/3x3_reduce_bn is using CAFFE engine.
I0416 11:55:59.478816   977 net.cpp:133] Creating Layer inception_3b/3x3_reduce_bn
I0416 11:55:59.478819   977 net.cpp:453] inception_3b/3x3_reduce_bn <- inception_3b/3x3_reduce
I0416 11:55:59.478826   977 net.cpp:411] inception_3b/3x3_reduce_bn -> inception_3b/3x3_reduce_bn
I0416 11:55:59.478833   977 net.cpp:163] Setting up inception_3b/3x3_reduce_bn
I0416 11:55:59.478849   977 net.cpp:170] Top shape: 25 256 18 7 (806400)
I0416 11:55:59.478857   977 layer_factory.hpp:74] Creating layer inception_3b/relu_3x3_reduce
I0416 11:55:59.478863   977 net.cpp:133] Creating Layer inception_3b/relu_3x3_reduce
I0416 11:55:59.478865   977 net.cpp:453] inception_3b/relu_3x3_reduce <- inception_3b/3x3_reduce_bn
I0416 11:55:59.478871   977 net.cpp:400] inception_3b/relu_3x3_reduce -> inception_3b/3x3_reduce_bn (in-place)
I0416 11:55:59.478876   977 net.cpp:163] Setting up inception_3b/relu_3x3_reduce
I0416 11:55:59.478999   977 net.cpp:170] Top shape: 25 256 18 7 (806400)
I0416 11:55:59.479006   977 layer_factory.hpp:74] Creating layer inception_3b/3x3
I0416 11:55:59.479012   977 net.cpp:133] Creating Layer inception_3b/3x3
I0416 11:55:59.479015   977 net.cpp:453] inception_3b/3x3 <- inception_3b/3x3_reduce_bn
I0416 11:55:59.479022   977 net.cpp:411] inception_3b/3x3 -> inception_3b/3x3
I0416 11:55:59.479029   977 net.cpp:163] Setting up inception_3b/3x3
I0416 11:55:59.497238   977 net.cpp:170] Top shape: 25 256 9 4 (230400)
I0416 11:55:59.497249   977 layer_factory.hpp:74] Creating layer inception_3b/3x3_bn
I0416 11:55:59.497253   977 layer_factory.cpp:191] Layer inception_3b/3x3_bn is using CAFFE engine.
I0416 11:55:59.497259   977 net.cpp:133] Creating Layer inception_3b/3x3_bn
I0416 11:55:59.497263   977 net.cpp:453] inception_3b/3x3_bn <- inception_3b/3x3
I0416 11:55:59.497269   977 net.cpp:411] inception_3b/3x3_bn -> inception_3b/3x3_bn
I0416 11:55:59.497277   977 net.cpp:163] Setting up inception_3b/3x3_bn
I0416 11:55:59.497292   977 net.cpp:170] Top shape: 25 256 9 4 (230400)
I0416 11:55:59.497301   977 layer_factory.hpp:74] Creating layer inception_3b/relu_3x3
I0416 11:55:59.497305   977 net.cpp:133] Creating Layer inception_3b/relu_3x3
I0416 11:55:59.497308   977 net.cpp:453] inception_3b/relu_3x3 <- inception_3b/3x3_bn
I0416 11:55:59.497310   977 net.cpp:400] inception_3b/relu_3x3 -> inception_3b/3x3_bn (in-place)
I0416 11:55:59.497313   977 net.cpp:163] Setting up inception_3b/relu_3x3
I0416 11:55:59.497509   977 net.cpp:170] Top shape: 25 256 9 4 (230400)
I0416 11:55:59.497516   977 layer_factory.hpp:74] Creating layer inception_3b/double_3x3_reduce
I0416 11:55:59.497522   977 net.cpp:133] Creating Layer inception_3b/double_3x3_reduce
I0416 11:55:59.497524   977 net.cpp:453] inception_3b/double_3x3_reduce <- inception_3a/output_inception_3a/output_0_split_1
I0416 11:55:59.497529   977 net.cpp:411] inception_3b/double_3x3_reduce -> inception_3b/double_3x3_reduce
I0416 11:55:59.497534   977 net.cpp:163] Setting up inception_3b/double_3x3_reduce
I0416 11:55:59.704255   977 net.cpp:170] Top shape: 25 256 18 7 (806400)
I0416 11:55:59.704265   977 layer_factory.hpp:74] Creating layer inception_3b/double_3x3_reduce_bn
I0416 11:55:59.704267   977 layer_factory.cpp:191] Layer inception_3b/double_3x3_reduce_bn is using CAFFE engine.
I0416 11:55:59.704272   977 net.cpp:133] Creating Layer inception_3b/double_3x3_reduce_bn
I0416 11:55:59.704274   977 net.cpp:453] inception_3b/double_3x3_reduce_bn <- inception_3b/double_3x3_reduce
I0416 11:55:59.704278   977 net.cpp:411] inception_3b/double_3x3_reduce_bn -> inception_3b/double_3x3_reduce_bn
I0416 11:55:59.704283   977 net.cpp:163] Setting up inception_3b/double_3x3_reduce_bn
I0416 11:55:59.704293   977 net.cpp:170] Top shape: 25 256 18 7 (806400)
I0416 11:55:59.704298   977 layer_factory.hpp:74] Creating layer inception_3b/relu_double_3x3_reduce
I0416 11:55:59.704319   977 net.cpp:133] Creating Layer inception_3b/relu_double_3x3_reduce
I0416 11:55:59.704322   977 net.cpp:453] inception_3b/relu_double_3x3_reduce <- inception_3b/double_3x3_reduce_bn
I0416 11:55:59.704325   977 net.cpp:400] inception_3b/relu_double_3x3_reduce -> inception_3b/double_3x3_reduce_bn (in-place)
I0416 11:55:59.704329   977 net.cpp:163] Setting up inception_3b/relu_double_3x3_reduce
I0416 11:55:59.704519   977 net.cpp:170] Top shape: 25 256 18 7 (806400)
I0416 11:55:59.704524   977 layer_factory.hpp:74] Creating layer inception_3b/double_3x3_1
I0416 11:55:59.704530   977 net.cpp:133] Creating Layer inception_3b/double_3x3_1
I0416 11:55:59.704531   977 net.cpp:453] inception_3b/double_3x3_1 <- inception_3b/double_3x3_reduce_bn
I0416 11:55:59.704535   977 net.cpp:411] inception_3b/double_3x3_1 -> inception_3b/double_3x3_1
I0416 11:55:59.704540   977 net.cpp:163] Setting up inception_3b/double_3x3_1
I0416 11:55:59.780270   977 net.cpp:170] Top shape: 25 256 18 7 (806400)
I0416 11:55:59.780280   977 layer_factory.hpp:74] Creating layer inception_3b/double_3x3_1_bn
I0416 11:55:59.780282   977 layer_factory.cpp:191] Layer inception_3b/double_3x3_1_bn is using CAFFE engine.
I0416 11:55:59.780287   977 net.cpp:133] Creating Layer inception_3b/double_3x3_1_bn
I0416 11:55:59.780289   977 net.cpp:453] inception_3b/double_3x3_1_bn <- inception_3b/double_3x3_1
I0416 11:55:59.780293   977 net.cpp:411] inception_3b/double_3x3_1_bn -> inception_3b/double_3x3_1_bn
I0416 11:55:59.780298   977 net.cpp:163] Setting up inception_3b/double_3x3_1_bn
I0416 11:55:59.780308   977 net.cpp:170] Top shape: 25 256 18 7 (806400)
I0416 11:55:59.780313   977 layer_factory.hpp:74] Creating layer inception_3b/relu_double_3x3_1
I0416 11:55:59.780316   977 net.cpp:133] Creating Layer inception_3b/relu_double_3x3_1
I0416 11:55:59.780318   977 net.cpp:453] inception_3b/relu_double_3x3_1 <- inception_3b/double_3x3_1_bn
I0416 11:55:59.780321   977 net.cpp:400] inception_3b/relu_double_3x3_1 -> inception_3b/double_3x3_1_bn (in-place)
I0416 11:55:59.780324   977 net.cpp:163] Setting up inception_3b/relu_double_3x3_1
I0416 11:55:59.780439   977 net.cpp:170] Top shape: 25 256 18 7 (806400)
I0416 11:55:59.780444   977 layer_factory.hpp:74] Creating layer inception_3b/double_3x3_2
I0416 11:55:59.780449   977 net.cpp:133] Creating Layer inception_3b/double_3x3_2
I0416 11:55:59.780452   977 net.cpp:453] inception_3b/double_3x3_2 <- inception_3b/double_3x3_1_bn
I0416 11:55:59.780455   977 net.cpp:411] inception_3b/double_3x3_2 -> inception_3b/double_3x3_2
I0416 11:55:59.780459   977 net.cpp:163] Setting up inception_3b/double_3x3_2
I0416 11:55:59.798717   977 net.cpp:170] Top shape: 25 256 9 4 (230400)
I0416 11:55:59.798727   977 layer_factory.hpp:74] Creating layer inception_3b/double_3x3_2_bn
I0416 11:55:59.798728   977 layer_factory.cpp:191] Layer inception_3b/double_3x3_2_bn is using CAFFE engine.
I0416 11:55:59.798732   977 net.cpp:133] Creating Layer inception_3b/double_3x3_2_bn
I0416 11:55:59.798735   977 net.cpp:453] inception_3b/double_3x3_2_bn <- inception_3b/double_3x3_2
I0416 11:55:59.798739   977 net.cpp:411] inception_3b/double_3x3_2_bn -> inception_3b/double_3x3_2_bn
I0416 11:55:59.798743   977 net.cpp:163] Setting up inception_3b/double_3x3_2_bn
I0416 11:55:59.798753   977 net.cpp:170] Top shape: 25 256 9 4 (230400)
I0416 11:55:59.798758   977 layer_factory.hpp:74] Creating layer inception_3b/relu_double_3x3_2
I0416 11:55:59.798760   977 net.cpp:133] Creating Layer inception_3b/relu_double_3x3_2
I0416 11:55:59.798763   977 net.cpp:453] inception_3b/relu_double_3x3_2 <- inception_3b/double_3x3_2_bn
I0416 11:55:59.798765   977 net.cpp:400] inception_3b/relu_double_3x3_2 -> inception_3b/double_3x3_2_bn (in-place)
I0416 11:55:59.798768   977 net.cpp:163] Setting up inception_3b/relu_double_3x3_2
I0416 11:55:59.798959   977 net.cpp:170] Top shape: 25 256 9 4 (230400)
I0416 11:55:59.798966   977 layer_factory.hpp:74] Creating layer inception_3b/pool
I0416 11:55:59.798969   977 layer_factory.cpp:64] CUDNN does not support padding or multiple tops. Using Caffe's own pooling layer.
I0416 11:55:59.798972   977 net.cpp:133] Creating Layer inception_3b/pool
I0416 11:55:59.798974   977 net.cpp:453] inception_3b/pool <- inception_3a/output_inception_3a/output_0_split_2
I0416 11:55:59.798979   977 net.cpp:411] inception_3b/pool -> inception_3b/pool
I0416 11:55:59.798982   977 net.cpp:163] Setting up inception_3b/pool
I0416 11:55:59.798986   977 net.cpp:170] Top shape: 25 1024 9 4 (921600)
I0416 11:55:59.798988   977 layer_factory.hpp:74] Creating layer inception_3b/output
I0416 11:55:59.798991   977 net.cpp:133] Creating Layer inception_3b/output
I0416 11:55:59.798992   977 net.cpp:453] inception_3b/output <- inception_3b/3x3_bn
I0416 11:55:59.798995   977 net.cpp:453] inception_3b/output <- inception_3b/double_3x3_2_bn
I0416 11:55:59.798997   977 net.cpp:453] inception_3b/output <- inception_3b/pool
I0416 11:55:59.799000   977 net.cpp:411] inception_3b/output -> inception_3b/output
I0416 11:55:59.799003   977 net.cpp:163] Setting up inception_3b/output
I0416 11:55:59.799006   977 net.cpp:170] Top shape: 25 1536 9 4 (1382400)
I0416 11:55:59.799008   977 layer_factory.hpp:74] Creating layer global_pool
I0416 11:55:59.799010   977 net.cpp:133] Creating Layer global_pool
I0416 11:55:59.799012   977 net.cpp:453] global_pool <- inception_3b/output
I0416 11:55:59.799015   977 net.cpp:411] global_pool -> global_pool
I0416 11:55:59.799018   977 net.cpp:163] Setting up global_pool
I0416 11:55:59.799199   977 net.cpp:170] Top shape: 25 1536 1 1 (38400)
I0416 11:55:59.799206   977 layer_factory.hpp:74] Creating layer gather_global_pool_to_fc7
I0416 11:55:59.799209   977 net.cpp:133] Creating Layer gather_global_pool_to_fc7
I0416 11:55:59.799211   977 net.cpp:453] gather_global_pool_to_fc7 <- global_pool
I0416 11:55:59.799214   977 net.cpp:411] gather_global_pool_to_fc7 -> gathered_global_pool
I0416 11:55:59.799218   977 net.cpp:163] Setting up gather_global_pool_to_fc7
I0416 11:55:59.799221   977 net.cpp:170] Top shape: 50 1536 1 1 (76800)
I0416 11:55:59.799222   977 layer_factory.hpp:74] Creating layer fc7
I0416 11:55:59.799226   977 net.cpp:133] Creating Layer fc7
I0416 11:55:59.799228   977 net.cpp:453] fc7 <- gathered_global_pool
I0416 11:55:59.799232   977 net.cpp:411] fc7 -> fc7
I0416 11:55:59.799234   977 net.cpp:163] Setting up fc7
I0416 11:55:59.800776   977 net.cpp:170] Top shape: 50 256 (12800)
I0416 11:55:59.800782   977 layer_factory.hpp:74] Creating layer fc7_bn
I0416 11:55:59.800784   977 layer_factory.cpp:191] Layer fc7_bn is using CAFFE engine.
I0416 11:55:59.800788   977 net.cpp:133] Creating Layer fc7_bn
I0416 11:55:59.800791   977 net.cpp:453] fc7_bn <- fc7
I0416 11:55:59.800793   977 net.cpp:411] fc7_bn -> fc7_bn
I0416 11:55:59.800797   977 net.cpp:163] Setting up fc7_bn
I0416 11:55:59.800806   977 net.cpp:170] Top shape: 50 256 (12800)
I0416 11:55:59.800809   977 layer_factory.hpp:74] Creating layer relu7
I0416 11:55:59.800812   977 net.cpp:133] Creating Layer relu7
I0416 11:55:59.800813   977 net.cpp:453] relu7 <- fc7_bn
I0416 11:55:59.800817   977 net.cpp:400] relu7 -> fc7_bn (in-place)
I0416 11:55:59.800818   977 net.cpp:163] Setting up relu7
I0416 11:55:59.801012   977 net.cpp:170] Top shape: 50 256 (12800)
I0416 11:55:59.801017   977 layer_factory.hpp:74] Creating layer drop7
I0416 11:55:59.801022   977 net.cpp:133] Creating Layer drop7
I0416 11:55:59.801023   977 net.cpp:453] drop7 <- fc7_bn
I0416 11:55:59.801026   977 net.cpp:400] drop7 -> fc7_bn (in-place)
I0416 11:55:59.801029   977 net.cpp:163] Setting up drop7
I0416 11:55:59.801035   977 net.cpp:170] Top shape: 50 256 (12800)
I0416 11:55:59.801036   977 layer_factory.hpp:74] Creating layer fc8_cuhk03
I0416 11:55:59.801039   977 net.cpp:133] Creating Layer fc8_cuhk03
I0416 11:55:59.801041   977 net.cpp:453] fc8_cuhk03 <- fc7_bn
I0416 11:55:59.801045   977 net.cpp:411] fc8_cuhk03 -> fc8_cuhk03
I0416 11:55:59.801048   977 net.cpp:163] Setting up fc8_cuhk03
I0416 11:55:59.803606   977 net.cpp:170] Top shape: 50 1467 (73350)
I0416 11:55:59.803612   977 layer_factory.hpp:74] Creating layer gather_data_to_loss
I0416 11:55:59.803616   977 net.cpp:133] Creating Layer gather_data_to_loss
I0416 11:55:59.803617   977 net.cpp:453] gather_data_to_loss <- label
I0416 11:55:59.803620   977 net.cpp:411] gather_data_to_loss -> gathered_label
I0416 11:55:59.803623   977 net.cpp:163] Setting up gather_data_to_loss
I0416 11:55:59.803627   977 net.cpp:170] Top shape: 50 (50)
I0416 11:55:59.803628   977 layer_factory.hpp:74] Creating layer loss
I0416 11:55:59.803632   977 net.cpp:133] Creating Layer loss
I0416 11:55:59.803633   977 net.cpp:453] loss <- fc8_cuhk03
I0416 11:55:59.803635   977 net.cpp:453] loss <- gathered_label
I0416 11:55:59.803637   977 net.cpp:411] loss -> loss
I0416 11:55:59.803640   977 net.cpp:163] Setting up loss
I0416 11:55:59.803649   977 layer_factory.hpp:74] Creating layer loss
…
I0416 11:55:59.809829   977 net.cpp:330] The NetState phase (1) differed from the phase (0) specified by a rule in layer data
I0416 11:55:59.810474   977 net.cpp:47] Initializing net from parameters:
name: "CUHK03"
state {
  phase: TEST
}
richness: 1000
layer {
  name: "data"
  type: "Data"
  top: "data"
  top: "label"
  include {
    phase: TEST
  }
  transform_param {
    mirror: false
    mean_value: 102
    mean_value: 102
    mean_value: 101
    crop_height: 144
    crop_width: 56
  }
  data_param {
    source: "external/exp/db/cuhk03/val_lmdb"
    batch_size: 20
    backend: LMDB
  }
}
layer {
  name: "conv1"
  type: "Convolution"
  bottom: "data"
  top: "conv1"
  param {
    lr_mult: 1
    decay_mult: 1
  }
  param {
    lr_mult: 2
    decay_mult: 0
  }
  convolution_param {
    num_output: 32
    pad: 1
    kernel_size: 3
    stride: 1
    weight_filler {
      type: "xavier"
    }
    bias_filler {
      type: "constant"
      value: 0.2
    }
  }
}
layer {
  name: "conv1_bn"
  type: "BN"
  bottom: "conv1"
  top: "conv1_bn"
  param {
    lr_mult: 1
    decay_mult: 0
  }
  param {
    lr_mult: 1
    decay_mult: 0
  }
  bn_param {
    slope_filler {
      type: "constant"
      value: 1
    }
    bias_filler {
      type: "constant"
      value: 0
    }
  }
}
layer {
  name: "relu1"
  type: "ReLU"
  bottom: "conv1_bn"
  top: "conv1_bn"
}
layer {
  name: "conv2"
  type: "Convolution"
  bottom: "conv1_bn"
  top: "conv2"
  param {
    lr_mult: 1
    decay_mult: 1
  }
  param {
    lr_mult: 2
    decay_mult: 0
  }
  convolution_param {
    num_output: 32
    pad: 1
    kernel_size: 3
    stride: 1
    weight_filler {
      type: "xavier"
    }
    bias_filler {
      type: "constant"
      value: 0.2
    }
  }
}
layer {
  name: "conv2_bn"
  type: "BN"
  bottom: "conv2"
  top: "conv2_bn"
  param {
    lr_mult: 1
    decay_mult: 0
  }
  param {
    lr_mult: 1
    decay_mult: 0
  }
  bn_param {
    slope_filler {
      type: "constant"
      value: 1
    }
    bias_filler {
      type: "constant"
      value: 0
    }
  }
}
layer {
  name: "relu2"
  type: "ReLU"
  bottom: "conv2_bn"
  top: "conv2_bn"
}
layer {
  name: "conv3"
  type: "Convolution"
  bottom: "conv2_bn"
  top: "conv3"
  param {
    lr_mult: 1
    decay_mult: 1
  }
  param {
    lr_mult: 2
    decay_mult: 0
  }
  convolution_param {
    num_output: 32
    pad: 1
    kernel_size: 3
    stride: 1
    weight_filler {
      type: "xavier"
    }
    bias_filler {
      type: "constant"
      value: 0.2
    }
  }
}
layer {
  name: "conv3_bn"
  type: "BN"
  bottom: "conv3"
  top: "conv3_bn"
  param {
    lr_mult: 1
    decay_mult: 0
  }
  param {
    lr_mult: 1
    decay_mult: 0
  }
  bn_param {
    slope_filler {
      type: "constant"
      value: 1
    }
    bias_filler {
      type: "constant"
      value: 0
    }
  }
}
layer {
  name: "relu3"
  type: "ReLU"
  bottom: "conv3_bn"
  top: "conv3_bn"
}
layer {
  name: "pool1"
  type: "Pooling"
  bottom: "conv3_bn"
  top: "pool1"
  pooling_param {
    pool: MAX
    kernel_size: 2
    stride: 2
  }
}
layer {
  name: "inception_1a/1x1"
  type: "Convolution"
  bottom: "pool1"
  top: "inception_1a/1x1"
  param {
    lr_mult: 1
    decay_mult: 1
  }
  param {
    lr_mult: 2
    decay_mult: 0
  }
  convolution_param {
    num_output: 64
    kernel_size: 1
    weight_filler {
      type: "xavier"
    }
    bias_filler {
      type: "constant"
      value: 0.2
    }
  }
}
layer {
  name: "inception_1a/1x1_bn"
  type: "BN"
  bottom: "inception_1a/1x1"
  top: "inception_1a/1x1_bn"
  param {
    lr_mult: 1
    decay_mult: 0
  }
  param {
    lr_mult: 1
    decay_mult: 0
  }
  bn_param {
    slope_filler {
      type: "constant"
      value: 1
    }
    bias_filler {
      type: "constant"
      value: 0
    }
  }
}
layer {
  name: "inception_1a/relu_1x1"
  type: "ReLU"
  bottom: "inception_1a/1x1_bn"
  top: "inception_1a/1x1_bn"
}
layer {
  name: "inception_1a/3x3_reduce"
  type: "Convolution"
  bottom: "pool1"
  top: "inception_1a/3x3_reduce"
  param {
    lr_mult: 1
    decay_mult: 1
  }
  param {
    lr_mult: 2
    decay_mult: 0
  }
  convolution_param {
    num_output: 64
    kernel_size: 1
    weight_filler {
      type: "xavier"
    }
    bias_filler {
      type: "constant"
      value: 0.2
    }
  }
}
layer {
  name: "inception_1a/3x3_reduce_bn"
  type: "BN"
  bottom: "inception_1a/3x3_reduce"
  top: "inception_1a/3x3_reduce_bn"
  param {
    lr_mult: 1
    decay_mult: 0
  }
  param {
    lr_mult: 1
    decay_mult: 0
  }
  bn_param {
    slope_filler {
      type: "constant"
      value: 1
    }
    bias_filler {
      type: "constant"
      value: 0
    }
  }
}
layer {
  name: "inception_1a/relu_3x3_reduce"
  type: "ReLU"
  bottom: "inception_1a/3x3_reduce_bn"
  top: "inception_1a/3x3_reduce_bn"
}
layer {
  name: "inception_1a/3x3"
  type: "Convolution"
  bottom: "inception_1a/3x3_reduce_bn"
  top: "inception_1a/3x3"
  param {
    lr_mult: 1
    decay_mult: 1
  }
  param {
    lr_mult: 2
    decay_mult: 0
  }
  convolution_param {
    num_output: 64
    pad: 1
    kernel_size: 3
    weight_filler {
      type: "xavier"
    }
    bias_filler {
      type: "constant"
      value: 0.2
    }
  }
}
layer {
  name: "inception_1a/3x3_bn"
  type: "BN"
  bottom: "inception_1a/3x3"
  top: "inception_1a/3x3_bn"
  param {
    lr_mult: 1
    decay_mult: 0
  }
  param {
    lr_mult: 1
    decay_mult: 0
  }
  bn_param {
    slope_filler {
      type: "constant"
      value: 1
    }
    bias_filler {
      type: "constant"
      value: 0
    }
  }
}
layer {
  name: "inception_1a/relu_3x3"
  type: "ReLU"
  bottom: "inception_1a/3x3_bn"
  top: "inception_1a/3x3_bn"
}
layer {
  name: "inception_1a/double_3x3_reduce"
  type: "Convolution"
  bottom: "pool1"
  top: "inception_1a/double_3x3_reduce"
  param {
    lr_mult: 1
    decay_mult: 1
  }
  param {
    lr_mult: 2
    decay_mult: 0
  }
  convolution_param {
    num_output: 64
    kernel_size: 1
    weight_filler {
      type: "xavier"
    }
    bias_filler {
      type: "constant"
      value: 0.2
    }
  }
}
layer {
  name: "inception_1a/double_3x3_reduce_bn"
  type: "BN"
  bottom: "inception_1a/double_3x3_reduce"
  top: "inception_1a/double_3x3_reduce_bn"
  param {
    lr_mult: 1
    decay_mult: 0
  }
  param {
    lr_mult: 1
    decay_mult: 0
  }
  bn_param {
    slope_filler {
      type: "constant"
      value: 1
    }
    bias_filler {
      type: "constant"
      value: 0
    }
  }
}
layer {
  name: "inception_1a/relu_double_3x3_reduce"
  type: "ReLU"
  bottom: "inception_1a/double_3x3_reduce_bn"
  top: "inception_1a/double_3x3_reduce_bn"
}
layer {
  name: "inception_1a/double_3x3_1"
  type: "Convolution"
  bottom: "inception_1a/double_3x3_reduce_bn"
  top: "inception_1a/double_3x3_1"
  param {
    lr_mult: 1
    decay_mult: 1
  }
  param {
    lr_mult: 2
    decay_mult: 0
  }
  convolution_param {
    num_output: 64
    pad: 1
    kernel_size: 3
    weight_filler {
      type: "xavier"
    }
    bias_filler {
      type: "constant"
      value: 0.2
    }
  }
}
layer {
  name: "inception_1a/double_3x3_1_bn"
  type: "BN"
  bottom: "inception_1a/double_3x3_1"
  top: "inception_1a/double_3x3_1_bn"
  param {
    lr_mult: 1
    decay_mult: 0
  }
  param {
    lr_mult: 1
    decay_mult: 0
  }
  bn_param {
    slope_filler {
      type: "constant"
      value: 1
    }
    bias_filler {
      type: "constant"
      value: 0
    }
  }
}
layer {
  name: "inception_1a/relu_double_3x3_1"
  type: "ReLU"
  bottom: "inception_1a/double_3x3_1_bn"
  top: "inception_1a/double_3x3_1_bn"
}
layer {
  name: "inception_1a/double_3x3_2"
  type: "Convolution"
  bottom: "inception_1a/double_3x3_1_bn"
  top: "inception_1a/double_3x3_2"
  param {
    lr_mult: 1
    decay_mult: 1
  }
  param {
    lr_mult: 2
    decay_mult: 0
  }
  convolution_param {
    num_output: 64
    pad: 1
    kernel_size: 3
    weight_filler {
      type: "xavier"
    }
    bias_filler {
      type: "constant"
      value: 0.2
    }
  }
}
layer {
  name: "inception_1a/double_3x3_2_bn"
  type: "BN"
  bottom: "inception_1a/double_3x3_2"
  top: "inception_1a/double_3x3_2_bn"
  param {
    lr_mult: 1
    decay_mult: 0
  }
  param {
    lr_mult: 1
    decay_mult: 0
  }
  bn_param {
    slope_filler {
      type: "constant"
      value: 1
    }
    bias_filler {
      type: "constant"
      value: 0
    }
  }
}
layer {
  name: "inception_1a/relu_double_3x3_2"
  type: "ReLU"
  bottom: "inception_1a/double_3x3_2_bn"
  top: "inception_1a/double_3x3_2_bn"
}
layer {
  name: "inception_1a/pool"
  type: "Pooling"
  bottom: "pool1"
  top: "inception_1a/pool"
  pooling_param {
    pool: AVE
    kernel_size: 3
    stride: 1
    pad: 1
  }
}
layer {
  name: "inception_1a/pool_proj"
  type: "Convolution"
  bottom: "inception_1a/pool"
  top: "inception_1a/pool_proj"
  param {
    lr_mult: 1
    decay_mult: 1
  }
  param {
    lr_mult: 2
    decay_mult: 0
  }
  convolution_param {
    num_output: 64
    kernel_size: 1
    weight_filler {
      type: "xavier"
    }
    bias_filler {
      type: "constant"
      value: 0.2
    }
  }
}
layer {
  name: "inception_1a/pool_proj_bn"
  type: "BN"
  bottom: "inception_1a/pool_proj"
  top: "inception_1a/pool_proj_bn"
  param {
    lr_mult: 1
    decay_mult: 0
  }
  param {
    lr_mult: 1
    decay_mult: 0
  }
  bn_param {
    slope_filler {
      type: "constant"
      value: 1
    }
    bias_filler {
      type: "constant"
      value: 0
    }
  }
}
layer {
  name: "inception_1a/relu_pool_proj"
  type: "ReLU"
  bottom: "inception_1a/pool_proj_bn"
  top: "inception_1a/pool_proj_bn"
}
layer {
  name: "inception_1a/output"
  type: "Concat"
  bottom: "inception_1a/1x1_bn"
  bottom: "inception_1a/3x3_bn"
  bottom: "inception_1a/double_3x3_2_bn"
  bottom: "inception_1a/pool_proj_bn"
  top: "inception_1a/output"
}
layer {
  name: "inception_1b/3x3_reduce"
  type: "Convolution"
  bottom: "inception_1a/output"
  top: "inception_1b/3x3_reduce"
  param {
    lr_mult: 1
    decay_mult: 1
  }
  param {
    lr_mult: 2
    decay_mult: 0
  }
  convolution_param {
    num_output: 64
    kernel_size: 1
    weight_filler {
      type: "xavier"
    }
    bias_filler {
      type: "constant"
      value: 0.2
    }
  }
}
layer {
  name: "inception_1b/3x3_reduce_bn"
  type: "BN"
  bottom: "inception_1b/3x3_reduce"
  top: "inception_1b/3x3_reduce_bn"
  param {
    lr_mult: 1
    decay_mult: 0
  }
  param {
    lr_mult: 1
    decay_mult: 0
  }
  bn_param {
    slope_filler {
      type: "constant"
      value: 1
    }
    bias_filler {
      type: "constant"
      value: 0
    }
  }
}
layer {
  name: "inception_1b/relu_3x3_reduce"
  type: "ReLU"
  bottom: "inception_1b/3x3_reduce_bn"
  top: "inception_1b/3x3_reduce_bn"
}
layer {
  name: "inception_1b/3x3"
  type: "Convolution"
  bottom: "inception_1b/3x3_reduce_bn"
  top: "inception_1b/3x3"
  param {
    lr_mult: 1
    decay_mult: 1
  }
  param {
    lr_mult: 2
    decay_mult: 0
  }
  convolution_param {
    num_output: 64
    pad: 1
    kernel_size: 3
    stride: 2
    weight_filler {
      type: "xavier"
    }
    bias_filler {
      type: "constant"
      value: 0.2
    }
  }
}
layer {
  name: "inception_1b/3x3_bn"
  type: "BN"
  bottom: "inception_1b/3x3"
  top: "inception_1b/3x3_bn"
  param {
    lr_mult: 1
    decay_mult: 0
  }
  param {
    lr_mult: 1
    decay_mult: 0
  }
  bn_param {
    slope_filler {
      type: "constant"
      value: 1
    }
    bias_filler {
      type: "constant"
      value: 0
    }
  }
}
layer {
  name: "inception_1b/relu_3x3"
  type: "ReLU"
  bottom: "inception_1b/3x3_bn"
  top: "inception_1b/3x3_bn"
}
layer {
  name: "inception_1b/double_3x3_reduce"
  type: "Convolution"
  bottom: "inception_1a/output"
  top: "inception_1b/double_3x3_reduce"
  param {
    lr_mult: 1
    decay_mult: 1
  }
  param {
    lr_mult: 2
    decay_mult: 0
  }
  convolution_param {
    num_output: 64
    kernel_size: 1
    weight_filler {
      type: "xavier"
    }
    bias_filler {
      type: "constant"
      value: 0.2
    }
  }
}
layer {
  name: "inception_1b/double_3x3_reduce_bn"
  type: "BN"
  bottom: "inception_1b/double_3x3_reduce"
  top: "inception_1b/double_3x3_reduce_bn"
  param {
    lr_mult: 1
    decay_mult: 0
  }
  param {
    lr_mult: 1
    decay_mult: 0
  }
  bn_param {
    slope_filler {
      type: "constant"
      value: 1
    }
    bias_filler {
      type: "constant"
      value: 0
    }
  }
}
layer {
  name: "inception_1b/relu_double_3x3_reduce"
  type: "ReLU"
  bottom: "inception_1b/double_3x3_reduce_bn"
  top: "inception_1b/double_3x3_reduce_bn"
}
layer {
  name: "inception_1b/double_3x3_1"
  type: "Convolution"
  bottom: "inception_1b/double_3x3_reduce_bn"
  top: "inception_1b/double_3x3_1"
  param {
    lr_mult: 1
    decay_mult: 1
  }
  param {
    lr_mult: 2
    decay_mult: 0
  }
  convolution_param {
    num_output: 64
    pad: 1
    kernel_size: 3
    weight_filler {
      type: "xavier"
    }
    bias_filler {
      type: "constant"
      value: 0.2
    }
  }
}
layer {
  name: "inception_1b/double_3x3_1_bn"
  type: "BN"
  bottom: "inception_1b/double_3x3_1"
  top: "inception_1b/double_3x3_1_bn"
  param {
    lr_mult: 1
    decay_mult: 0
  }
  param {
    lr_mult: 1
    decay_mult: 0
  }
  bn_param {
    slope_filler {
      type: "constant"
      value: 1
    }
    bias_filler {
      type: "constant"
      value: 0
    }
  }
}
layer {
  name: "inception_1b/relu_double_3x3_1"
  type: "ReLU"
  bottom: "inception_1b/double_3x3_1_bn"
  top: "inception_1b/double_3x3_1_bn"
}
layer {
  name: "inception_1b/double_3x3_2"
  type: "Convolution"
  bottom: "inception_1b/double_3x3_1_bn"
  top: "inception_1b/double_3x3_2"
  param {
    lr_mult: 1
    decay_mult: 1
  }
  param {
    lr_mult: 2
    decay_mult: 0
  }
  convolution_param {
    num_output: 64
    pad: 1
    kernel_size: 3
    stride: 2
    weight_filler {
      type: "xavier"
    }
    bias_filler {
      type: "constant"
      value: 0.2
    }
  }
}
layer {
  name: "inception_1b/double_3x3_2_bn"
  type: "BN"
  bottom: "inception_1b/double_3x3_2"
  top: "inception_1b/double_3x3_2_bn"
  param {
    lr_mult: 1
    decay_mult: 0
  }
  param {
    lr_mult: 1
    decay_mult: 0
  }
  bn_param {
    slope_filler {
      type: "constant"
      value: 1
    }
    bias_filler {
      type: "constant"
      value: 0
    }
  }
}
layer {
  name: "inception_1b/relu_double_3x3_2"
  type: "ReLU"
  bottom: "inception_1b/double_3x3_2_bn"
  top: "inception_1b/double_3x3_2_bn"
}
layer {
  name: "inception_1b/pool"
  type: "Pooling"
  bottom: "inception_1a/output"
  top: "inception_1b/pool"
  pooling_param {
    pool: MAX
    kernel_size: 3
    stride: 2
  }
}
layer {
  name: "inception_1b/output"
  type: "Concat"
  bottom: "inception_1b/3x3_bn"
  bottom: "inception_1b/double_3x3_2_bn"
  bottom: "inception_1b/pool"
  top: "inception_1b/output"
}
layer {
  name: "inception_2a/1x1"
  type: "Convolution"
  bottom: "inception_1b/output"
  top: "inception_2a/1x1"
  param {
    lr_mult: 1
    decay_mult: 1
  }
  param {
    lr_mult: 2
    decay_mult: 0
  }
  convolution_param {
    num_output: 128
    kernel_size: 1
    weight_filler {
      type: "xavier"
    }
    bias_filler {
      type: "constant"
      value: 0.2
    }
  }
}
layer {
  name: "inception_2a/1x1_bn"
  type: "BN"
  bottom: "inception_2a/1x1"
  top: "inception_2a/1x1_bn"
  param {
    lr_mult: 1
    decay_mult: 0
  }
  param {
    lr_mult: 1
    decay_mult: 0
  }
  bn_param {
    slope_filler {
      type: "constant"
      value: 1
    }
    bias_filler {
      type: "constant"
      value: 0
    }
  }
}
layer {
  name: "inception_2a/relu_1x1"
  type: "ReLU"
  bottom: "inception_2a/1x1_bn"
  top: "inception_2a/1x1_bn"
}
layer {
  name: "inception_2a/3x3_reduce"
  type: "Convolution"
  bottom: "inception_1b/output"
  top: "inception_2a/3x3_reduce"
  param {
    lr_mult: 1
    decay_mult: 1
  }
  param {
    lr_mult: 2
    decay_mult: 0
  }
  convolution_param {
    num_output: 128
    kernel_size: 1
    weight_filler {
      type: "xavier"
    }
    bias_filler {
      type: "constant"
      value: 0.2
    }
  }
}
layer {
  name: "inception_2a/3x3_reduce_bn"
  type: "BN"
  bottom: "inception_2a/3x3_reduce"
  top: "inception_2a/3x3_reduce_bn"
  param {
    lr_mult: 1
    decay_mult: 0
  }
  param {
    lr_mult: 1
    decay_mult: 0
  }
  bn_param {
    slope_filler {
      type: "constant"
      value: 1
    }
    bias_filler {
      type: "constant"
      value: 0
    }
  }
}
layer {
  name: "inception_2a/relu_3x3_reduce"
  type: "ReLU"
  bottom: "inception_2a/3x3_reduce_bn"
  top: "inception_2a/3x3_reduce_bn"
}
layer {
  name: "inception_2a/3x3"
  type: "Convolution"
  bottom: "inception_2a/3x3_reduce_bn"
  top: "inception_2a/3x3"
  param {
    lr_mult: 1
    decay_mult: 1
  }
  param {
    lr_mult: 2
    decay_mult: 0
  }
  convolution_param {
    num_output: 128
    pad: 1
    kernel_size: 3
    weight_filler {
      type: "xavier"
    }
    bias_filler {
      type: "constant"
      value: 0.2
    }
  }
}
layer {
  name: "inception_2a/3x3_bn"
  type: "BN"
  bottom: "inception_2a/3x3"
  top: "inception_2a/3x3_bn"
  param {
    lr_mult: 1
    decay_mult: 0
  }
  param {
    lr_mult: 1
    decay_mult: 0
  }
  bn_param {
    slope_filler {
      type: "constant"
      value: 1
    }
    bias_filler {
      type: "constant"
      value: 0
    }
  }
}
layer {
  name: "inception_2a/relu_3x3"
  type: "ReLU"
  bottom: "inception_2a/3x3_bn"
  top: "inception_2a/3x3_bn"
}
layer {
  name: "inception_2a/double_3x3_reduce"
  type: "Convolution"
  bottom: "inception_1b/output"
  top: "inception_2a/double_3x3_reduce"
  param {
    lr_mult: 1
    decay_mult: 1
  }
  param {
    lr_mult: 2
    decay_mult: 0
  }
  convolution_param {
    num_output: 128
    kernel_size: 1
    weight_filler {
      type: "xavier"
    }
    bias_filler {
      type: "constant"
      value: 0.2
    }
  }
}
layer {
  name: "inception_2a/double_3x3_reduce_bn"
  type: "BN"
  bottom: "inception_2a/double_3x3_reduce"
  top: "inception_2a/double_3x3_reduce_bn"
  param {
    lr_mult: 1
    decay_mult: 0
  }
  param {
    lr_mult: 1
    decay_mult: 0
  }
  bn_param {
    slope_filler {
      type: "constant"
      value: 1
    }
    bias_filler {
      type: "constant"
      value: 0
    }
  }
}
layer {
  name: "inception_2a/relu_double_3x3_reduce"
  type: "ReLU"
  bottom: "inception_2a/double_3x3_reduce_bn"
  top: "inception_2a/double_3x3_reduce_bn"
}
layer {
  name: "inception_2a/double_3x3_1"
  type: "Convolution"
  bottom: "inception_2a/double_3x3_reduce_bn"
  top: "inception_2a/double_3x3_1"
  param {
    lr_mult: 1
    decay_mult: 1
  }
  param {
    lr_mult: 2
    decay_mult: 0
  }
  convolution_param {
    num_output: 128
    pad: 1
    kernel_size: 3
    weight_filler {
      type: "xavier"
    }
    bias_filler {
      type: "constant"
      value: 0.2
    }
  }
}
layer {
  name: "inception_2a/double_3x3_1_bn"
  type: "BN"
  bottom: "inception_2a/double_3x3_1"
  top: "inception_2a/double_3x3_1_bn"
  param {
    lr_mult: 1
    decay_mult: 0
  }
  param {
    lr_mult: 1
    decay_mult: 0
  }
  bn_param {
    slope_filler {
      type: "constant"
      value: 1
    }
    bias_filler {
      type: "constant"
      value: 0
    }
  }
}
layer {
  name: "inception_2a/relu_double_3x3_1"
  type: "ReLU"
  bottom: "inception_2a/double_3x3_1_bn"
  top: "inception_2a/double_3x3_1_bn"
}
layer {
  name: "inception_2a/double_3x3_2"
  type: "Convolution"
  bottom: "inception_2a/double_3x3_1_bn"
  top: "inception_2a/double_3x3_2"
  param {
    lr_mult: 1
    decay_mult: 1
  }
  param {
    lr_mult: 2
    decay_mult: 0
  }
  convolution_param {
    num_output: 128
    pad: 1
    kernel_size: 3
    weight_filler {
      type: "xavier"
    }
    bias_filler {
      type: "constant"
      value: 0.2
    }
  }
}
layer {
  name: "inception_2a/double_3x3_2_bn"
  type: "BN"
  bottom: "inception_2a/double_3x3_2"
  top: "inception_2a/double_3x3_2_bn"
  param {
    lr_mult: 1
    decay_mult: 0
  }
  param {
    lr_mult: 1
    decay_mult: 0
  }
  bn_param {
    slope_filler {
      type: "constant"
      value: 1
    }
    bias_filler {
      type: "constant"
      value: 0
    }
  }
}
layer {
  name: "inception_2a/relu_double_3x3_2"
  type: "ReLU"
  bottom: "inception_2a/double_3x3_2_bn"
  top: "inception_2a/double_3x3_2_bn"
}
layer {
  name: "inception_2a/pool"
  type: "Pooling"
  bottom: "inception_1b/output"
  top: "inception_2a/pool"
  pooling_param {
    pool: AVE
    kernel_size: 3
    stride: 1
    pad: 1
  }
}
layer {
  name: "inception_2a/pool_proj"
  type: "Convolution"
  bottom: "inception_2a/pool"
  top: "inception_2a/pool_proj"
  param {
    lr_mult: 1
    decay_mult: 1
  }
  param {
    lr_mult: 2
    decay_mult: 0
  }
  convolution_param {
    num_output: 128
    kernel_size: 1
    weight_filler {
      type: "xavier"
    }
    bias_filler {
      type: "constant"
      value: 0.2
    }
  }
}
layer {
  name: "inception_2a/pool_proj_bn"
  type: "BN"
  bottom: "inception_2a/pool_proj"
  top: "inception_2a/pool_proj_bn"
  param {
    lr_mult: 1
    decay_mult: 0
  }
  param {
    lr_mult: 1
    decay_mult: 0
  }
  bn_param {
    slope_filler {
      type: "constant"
      value: 1
    }
    bias_filler {
      type: "constant"
      value: 0
    }
  }
}
layer {
  name: "inception_2a/relu_pool_proj"
  type: "ReLU"
  bottom: "inception_2a/pool_proj_bn"
  top: "inception_2a/pool_proj_bn"
}
layer {
  name: "inception_2a/output"
  type: "Concat"
  bottom: "inception_2a/1x1_bn"
  bottom: "inception_2a/3x3_bn"
  bottom: "inception_2a/double_3x3_2_bn"
  bottom: "inception_2a/pool_proj_bn"
  top: "inception_2a/output"
}
layer {
  name: "inception_2b/3x3_reduce"
  type: "Convolution"
  bottom: "inception_2a/output"
  top: "inception_2b/3x3_reduce"
  param {
    lr_mult: 1
    decay_mult: 1
  }
  param {
    lr_mult: 2
    decay_mult: 0
  }
  convolution_param {
    num_output: 128
    kernel_size: 1
    weight_filler {
      type: "xavier"
    }
    bias_filler {
      type: "constant"
      value: 0.2
    }
  }
}
layer {
  name: "inception_2b/3x3_reduce_bn"
  type: "BN"
  bottom: "inception_2b/3x3_reduce"
  top: "inception_2b/3x3_reduce_bn"
  param {
    lr_mult: 1
    decay_mult: 0
  }
  param {
    lr_mult: 1
    decay_mult: 0
  }
  bn_param {
    slope_filler {
      type: "constant"
      value: 1
    }
    bias_filler {
      type: "constant"
      value: 0
    }
  }
}
layer {
  name: "inception_2b/relu_3x3_reduce"
  type: "ReLU"
  bottom: "inception_2b/3x3_reduce_bn"
  top: "inception_2b/3x3_reduce_bn"
}
layer {
  name: "inception_2b/3x3"
  type: "Convolution"
  bottom: "inception_2b/3x3_reduce_bn"
  top: "inception_2b/3x3"
  param {
    lr_mult: 1
    decay_mult: 1
  }
  param {
    lr_mult: 2
    decay_mult: 0
  }
  convolution_param {
    num_output: 128
    pad: 1
    kernel_size: 3
    stride: 2
    weight_filler {
      type: "xavier"
    }
    bias_filler {
      type: "constant"
      value: 0.2
    }
  }
}
layer {
  name: "inception_2b/3x3_bn"
  type: "BN"
  bottom: "inception_2b/3x3"
  top: "inception_2b/3x3_bn"
  param {
    lr_mult: 1
    decay_mult: 0
  }
  param {
    lr_mult: 1
    decay_mult: 0
  }
  bn_param {
    slope_filler {
      type: "constant"
      value: 1
    }
    bias_filler {
      type: "constant"
      value: 0
    }
  }
}
layer {
  name: "inception_2b/relu_3x3"
  type: "ReLU"
  bottom: "inception_2b/3x3_bn"
  top: "inception_2b/3x3_bn"
}
layer {
  name: "inception_2b/double_3x3_reduce"
  type: "Convolution"
  bottom: "inception_2a/output"
  top: "inception_2b/double_3x3_reduce"
  param {
    lr_mult: 1
    decay_mult: 1
  }
  param {
    lr_mult: 2
    decay_mult: 0
  }
  convolution_param {
    num_output: 128
    kernel_size: 1
    weight_filler {
      type: "xavier"
    }
    bias_filler {
      type: "constant"
      value: 0.2
    }
  }
}
layer {
  name: "inception_2b/double_3x3_reduce_bn"
  type: "BN"
  bottom: "inception_2b/double_3x3_reduce"
  top: "inception_2b/double_3x3_reduce_bn"
  param {
    lr_mult: 1
    decay_mult: 0
  }
  param {
    lr_mult: 1
    decay_mult: 0
  }
  bn_param {
    slope_filler {
      type: "constant"
      value: 1
    }
    bias_filler {
      type: "constant"
      value: 0
    }
  }
}
layer {
  name: "inception_2b/relu_double_3x3_reduce"
  type: "ReLU"
  bottom: "inception_2b/double_3x3_reduce_bn"
  top: "inception_2b/double_3x3_reduce_bn"
}
layer {
  name: "inception_2b/double_3x3_1"
  type: "Convolution"
  bottom: "inception_2b/double_3x3_reduce_bn"
  top: "inception_2b/double_3x3_1"
  param {
    lr_mult: 1
    decay_mult: 1
  }
  param {
    lr_mult: 2
    decay_mult: 0
  }
  convolution_param {
    num_output: 128
    pad: 1
    kernel_size: 3
    weight_filler {
      type: "xavier"
    }
    bias_filler {
      type: "constant"
      value: 0.2
    }
  }
}
layer {
  name: "inception_2b/double_3x3_1_bn"
  type: "BN"
  bottom: "inception_2b/double_3x3_1"
  top: "inception_2b/double_3x3_1_bn"
  param {
    lr_mult: 1
    decay_mult: 0
  }
  param {
    lr_mult: 1
    decay_mult: 0
  }
  bn_param {
    slope_filler {
      type: "constant"
      value: 1
    }
    bias_filler {
      type: "constant"
      value: 0
    }
  }
}
layer {
  name: "inception_2b/relu_double_3x3_1"
  type: "ReLU"
  bottom: "inception_2b/double_3x3_1_bn"
  top: "inception_2b/double_3x3_1_bn"
}
layer {
  name: "inception_2b/double_3x3_2"
  type: "Convolution"
  bottom: "inception_2b/double_3x3_1_bn"
  top: "inception_2b/double_3x3_2"
  param {
    lr_mult: 1
    decay_mult: 1
  }
  param {
    lr_mult: 2
    decay_mult: 0
  }
  convolution_param {
    num_output: 128
    pad: 1
    kernel_size: 3
    stride: 2
    weight_filler {
      type: "xavier"
    }
    bias_filler {
      type: "constant"
      value: 0.2
    }
  }
}
layer {
  name: "inception_2b/double_3x3_2_bn"
  type: "BN"
  bottom: "inception_2b/double_3x3_2"
  top: "inception_2b/double_3x3_2_bn"
  param {
    lr_mult: 1
    decay_mult: 0
  }
  param {
    lr_mult: 1
    decay_mult: 0
  }
  bn_param {
    slope_filler {
      type: "constant"
      value: 1
    }
    bias_filler {
      type: "constant"
      value: 0
    }
  }
}
layer {
  name: "inception_2b/relu_double_3x3_2"
  type: "ReLU"
  bottom: "inception_2b/double_3x3_2_bn"
  top: "inception_2b/double_3x3_2_bn"
}
layer {
  name: "inception_2b/pool"
  type: "Pooling"
  bottom: "inception_2a/output"
  top: "inception_2b/pool"
  pooling_param {
    pool: MAX
    kernel_size: 3
    stride: 2
  }
}
layer {
  name: "inception_2b/output"
  type: "Concat"
  bottom: "inception_2b/3x3_bn"
  bottom: "inception_2b/double_3x3_2_bn"
  bottom: "inception_2b/pool"
  top: "inception_2b/output"
}
layer {
  name: "inception_3a/1x1"
  type: "Convolution"
  bottom: "inception_2b/output"
  top: "inception_3a/1x1"
  param {
    lr_mult: 1
    decay_mult: 1
  }
  param {
    lr_mult: 2
    decay_mult: 0
  }
  convolution_param {
    num_output: 256
    kernel_size: 1
    weight_filler {
      type: "xavier"
    }
    bias_filler {
      type: "constant"
      value: 0.2
    }
  }
}
layer {
  name: "inception_3a/1x1_bn"
  type: "BN"
  bottom: "inception_3a/1x1"
  top: "inception_3a/1x1_bn"
  param {
    lr_mult: 1
    decay_mult: 0
  }
  param {
    lr_mult: 1
    decay_mult: 0
  }
  bn_param {
    slope_filler {
      type: "constant"
      value: 1
    }
    bias_filler {
      type: "constant"
      value: 0
    }
  }
}
layer {
  name: "inception_3a/relu_1x1"
  type: "ReLU"
  bottom: "inception_3a/1x1_bn"
  top: "inception_3a/1x1_bn"
}
layer {
  name: "inception_3a/3x3_reduce"
  type: "Convolution"
  bottom: "inception_2b/output"
  top: "inception_3a/3x3_reduce"
  param {
    lr_mult: 1
    decay_mult: 1
  }
  param {
    lr_mult: 2
    decay_mult: 0
  }
  convolution_param {
    num_output: 256
    kernel_size: 1
    weight_filler {
      type: "xavier"
    }
    bias_filler {
      type: "constant"
      value: 0.2
    }
  }
}
layer {
  name: "inception_3a/3x3_reduce_bn"
  type: "BN"
  bottom: "inception_3a/3x3_reduce"
  top: "inception_3a/3x3_reduce_bn"
  param {
    lr_mult: 1
    decay_mult: 0
  }
  param {
    lr_mult: 1
    decay_mult: 0
  }
  bn_param {
    slope_filler {
      type: "constant"
      value: 1
    }
    bias_filler {
      type: "constant"
      value: 0
    }
  }
}
layer {
  name: "inception_3a/relu_3x3_reduce"
  type: "ReLU"
  bottom: "inception_3a/3x3_reduce_bn"
  top: "inception_3a/3x3_reduce_bn"
}
layer {
  name: "inception_3a/3x3"
  type: "Convolution"
  bottom: "inception_3a/3x3_reduce_bn"
  top: "inception_3a/3x3"
  param {
    lr_mult: 1
    decay_mult: 1
  }
  param {
    lr_mult: 2
    decay_mult: 0
  }
  convolution_param {
    num_output: 256
    pad: 1
    kernel_size: 3
    weight_filler {
      type: "xavier"
    }
    bias_filler {
      type: "constant"
      value: 0.2
    }
  }
}
layer {
  name: "inception_3a/3x3_bn"
  type: "BN"
  bottom: "inception_3a/3x3"
  top: "inception_3a/3x3_bn"
  param {
    lr_mult: 1
    decay_mult: 0
  }
  param {
    lr_mult: 1
    decay_mult: 0
  }
  bn_param {
    slope_filler {
      type: "constant"
      value: 1
    }
    bias_filler {
      type: "constant"
      value: 0
    }
  }
}
layer {
  name: "inception_3a/relu_3x3"
  type: "ReLU"
  bottom: "inception_3a/3x3_bn"
  top: "inception_3a/3x3_bn"
}
layer {
  name: "inception_3a/double_3x3_reduce"
  type: "Convolution"
  bottom: "inception_2b/output"
  top: "inception_3a/double_3x3_reduce"
  param {
    lr_mult: 1
    decay_mult: 1
  }
  param {
    lr_mult: 2
    decay_mult: 0
  }
  convolution_param {
    num_output: 256
    kernel_size: 1
    weight_filler {
      type: "xavier"
    }
    bias_filler {
      type: "constant"
      value: 0.2
    }
  }
}
layer {
  name: "inception_3a/double_3x3_reduce_bn"
  type: "BN"
  bottom: "inception_3a/double_3x3_reduce"
  top: "inception_3a/double_3x3_reduce_bn"
  param {
    lr_mult: 1
    decay_mult: 0
  }
  param {
    lr_mult: 1
    decay_mult: 0
  }
  bn_param {
    slope_filler {
      type: "constant"
      value: 1
    }
    bias_filler {
      type: "constant"
      value: 0
    }
  }
}
layer {
I0416 11:55:59.811396   977 layer_factory.hpp:74] Creating layer data
I0416 11:55:59.811408   977 net.cpp:133] Creating Layer data
I0416 11:55:59.811410   977 net.cpp:411] data -> data
I0416 11:55:59.811416   977 net.cpp:411] data -> label
I0416 11:55:59.811419   977 net.cpp:163] Setting up data
I0416 11:55:59.811466   977 db_lmdb.cpp:22] Opened lmdb external/exp/db/cuhk03/val_lmdb
I0416 11:55:59.811480   977 data_layer.cpp:55] Skipping first 0 data points.
I0416 11:55:59.811493   977 data_layer.cpp:100] output data size: 10,3,144,56
I0416 11:55:59.811619   977 net.cpp:170] Top shape: 10 3 144 56 (241920)
I0416 11:55:59.811625   977 net.cpp:170] Top shape: 10 (10)
I0416 11:55:59.811628   977 layer_factory.hpp:74] Creating layer label_data_1_split
I0416 11:55:59.811633   977 net.cpp:133] Creating Layer label_data_1_split
I0416 11:55:59.811637   977 net.cpp:453] label_data_1_split <- label
I0416 11:55:59.811642   977 net.cpp:411] label_data_1_split -> label_data_1_split_0
I0416 11:55:59.811648   977 net.cpp:411] label_data_1_split -> label_data_1_split_1
I0416 11:55:59.811653   977 net.cpp:163] Setting up label_data_1_split
I0416 11:55:59.811660   977 net.cpp:170] Top shape: 10 (10)
I0416 11:55:59.811662   977 net.cpp:170] Top shape: 10 (10)
I0416 11:55:59.811666   977 layer_factory.hpp:74] Creating layer conv1
I0416 11:55:59.811672   977 net.cpp:133] Creating Layer conv1
I0416 11:55:59.811676   977 net.cpp:453] conv1 <- data
I0416 11:55:59.811681   977 net.cpp:411] conv1 -> conv1
I0416 11:55:59.811686   977 net.cpp:163] Setting up conv1
I0416 11:55:59.842111   977 net.cpp:170] Top shape: 10 32 144 56 (2580480)
I0416 11:55:59.842124   977 layer_factory.hpp:74] Creating layer conv1_bn
I0416 11:55:59.842128   977 layer_factory.cpp:191] Layer conv1_bn is using CAFFE engine.
I0416 11:55:59.842133   977 net.cpp:133] Creating Layer conv1_bn
I0416 11:55:59.842133   977 net.cpp:453] conv1_bn <- conv1
I0416 11:55:59.842138   977 net.cpp:411] conv1_bn -> conv1_bn
I0416 11:55:59.842141   977 net.cpp:163] Setting up conv1_bn
I0416 11:55:59.842159   977 net.cpp:170] Top shape: 10 32 144 56 (2580480)
I0416 11:55:59.842165   977 layer_factory.hpp:74] Creating layer relu1
I0416 11:55:59.842170   977 net.cpp:133] Creating Layer relu1
I0416 11:55:59.842171   977 net.cpp:453] relu1 <- conv1_bn
I0416 11:55:59.842175   977 net.cpp:400] relu1 -> conv1_bn (in-place)
I0416 11:55:59.842176   977 net.cpp:163] Setting up relu1
I0416 11:55:59.842480   977 net.cpp:170] Top shape: 10 32 144 56 (2580480)
I0416 11:55:59.842486   977 layer_factory.hpp:74] Creating layer conv2
I0416 11:55:59.842490   977 net.cpp:133] Creating Layer conv2
I0416 11:55:59.842492   977 net.cpp:453] conv2 <- conv1_bn
I0416 11:55:59.842496   977 net.cpp:411] conv2 -> conv2
I0416 11:55:59.842500   977 net.cpp:163] Setting up conv2
I0416 11:55:59.925039   977 net.cpp:170] Top shape: 10 32 144 56 (2580480)
I0416 11:55:59.925048   977 layer_factory.hpp:74] Creating layer conv2_bn
I0416 11:55:59.925051   977 layer_factory.cpp:191] Layer conv2_bn is using CAFFE engine.
I0416 11:55:59.925055   977 net.cpp:133] Creating Layer conv2_bn
I0416 11:55:59.925057   977 net.cpp:453] conv2_bn <- conv2
I0416 11:55:59.925061   977 net.cpp:411] conv2_bn -> conv2_bn
I0416 11:55:59.925065   977 net.cpp:163] Setting up conv2_bn
I0416 11:55:59.925082   977 net.cpp:170] Top shape: 10 32 144 56 (2580480)
I0416 11:55:59.925089   977 layer_factory.hpp:74] Creating layer relu2
I0416 11:55:59.925092   977 net.cpp:133] Creating Layer relu2
I0416 11:55:59.925094   977 net.cpp:453] relu2 <- conv2_bn
I0416 11:55:59.925097   977 net.cpp:400] relu2 -> conv2_bn (in-place)
I0416 11:55:59.925101   977 net.cpp:163] Setting up relu2
I0416 11:55:59.925308   977 net.cpp:170] Top shape: 10 32 144 56 (2580480)
I0416 11:55:59.925315   977 layer_factory.hpp:74] Creating layer conv3
I0416 11:55:59.925321   977 net.cpp:133] Creating Layer conv3
I0416 11:55:59.925323   977 net.cpp:453] conv3 <- conv2_bn
I0416 11:55:59.925328   977 net.cpp:411] conv3 -> conv3
I0416 11:55:59.925333   977 net.cpp:163] Setting up conv3
I0416 11:56:00.007834   977 net.cpp:170] Top shape: 10 32 144 56 (2580480)
I0416 11:56:00.007844   977 layer_factory.hpp:74] Creating layer conv3_bn
I0416 11:56:00.007848   977 layer_factory.cpp:191] Layer conv3_bn is using CAFFE engine.
I0416 11:56:00.007851   977 net.cpp:133] Creating Layer conv3_bn
I0416 11:56:00.007853   977 net.cpp:453] conv3_bn <- conv3
I0416 11:56:00.007856   977 net.cpp:411] conv3_bn -> conv3_bn
I0416 11:56:00.007860   977 net.cpp:163] Setting up conv3_bn
I0416 11:56:00.007879   977 net.cpp:170] Top shape: 10 32 144 56 (2580480)
I0416 11:56:00.007886   977 layer_factory.hpp:74] Creating layer relu3
I0416 11:56:00.007891   977 net.cpp:133] Creating Layer relu3
I0416 11:56:00.007894   977 net.cpp:453] relu3 <- conv3_bn
I0416 11:56:00.007895   977 net.cpp:400] relu3 -> conv3_bn (in-place)
I0416 11:56:00.007899   977 net.cpp:163] Setting up relu3
I0416 11:56:00.008026   977 net.cpp:170] Top shape: 10 32 144 56 (2580480)
I0416 11:56:00.008033   977 layer_factory.hpp:74] Creating layer pool1
I0416 11:56:00.008036   977 net.cpp:133] Creating Layer pool1
I0416 11:56:00.008038   977 net.cpp:453] pool1 <- conv3_bn
I0416 11:56:00.008040   977 net.cpp:411] pool1 -> pool1
I0416 11:56:00.008044   977 net.cpp:163] Setting up pool1
I0416 11:56:00.008344   977 net.cpp:170] Top shape: 10 32 72 28 (645120)
I0416 11:56:00.008352   977 layer_factory.hpp:74] Creating layer pool1_pool1_0_split
I0416 11:56:00.008357   977 net.cpp:133] Creating Layer pool1_pool1_0_split
I0416 11:56:00.008358   977 net.cpp:453] pool1_pool1_0_split <- pool1
I0416 11:56:00.008361   977 net.cpp:411] pool1_pool1_0_split -> pool1_pool1_0_split_0
I0416 11:56:00.008366   977 net.cpp:411] pool1_pool1_0_split -> pool1_pool1_0_split_1
I0416 11:56:00.008369   977 net.cpp:411] pool1_pool1_0_split -> pool1_pool1_0_split_2
…
I0416 11:56:01.099628   977 layer_factory.hpp:74] Creating layer inception_2a/double_3x3_reduce
I0416 11:56:01.099642   977 net.cpp:133] Creating Layer inception_2a/double_3x3_reduce
I0416 11:56:01.099643   977 net.cpp:453] inception_2a/double_3x3_reduce <- inception_1b/output_inception_1b/output_0_split_2
I0416 11:56:01.099647   977 net.cpp:411] inception_2a/double_3x3_reduce -> inception_2a/double_3x3_reduce
I0416 11:56:01.099652   977 net.cpp:163] Setting up inception_2a/double_3x3_reduce
I0416 11:56:01.195214   977 net.cpp:170] Top shape: 10 128 36 14 (645120)
I0416 11:56:01.195225   977 layer_factory.hpp:74] Creating layer inception_2a/double_3x3_reduce_bn
I0416 11:56:01.195227   977 layer_factory.cpp:191] Layer inception_2a/double_3x3_reduce_bn is using CAFFE engine.
I0416 11:56:01.195231   977 net.cpp:133] Creating Layer inception_2a/double_3x3_reduce_bn
I0416 11:56:01.195233   977 net.cpp:453] inception_2a/double_3x3_reduce_bn <- inception_2a/double_3x3_reduce
I0416 11:56:01.195238   977 net.cpp:411] inception_2a/double_3x3_reduce_bn -> inception_2a/double_3x3_reduce_bn
I0416 11:56:01.195242   977 net.cpp:163] Setting up inception_2a/double_3x3_reduce_bn
I0416 11:56:01.195251   977 net.cpp:170] Top shape: 10 128 36 14 (645120)
I0416 11:56:01.195257   977 layer_factory.hpp:74] Creating layer inception_2a/relu_double_3x3_reduce
I0416 11:56:01.195261   977 net.cpp:133] Creating Layer inception_2a/relu_double_3x3_reduce
I0416 11:56:01.195262   977 net.cpp:453] inception_2a/relu_double_3x3_reduce <- inception_2a/double_3x3_reduce_bn
I0416 11:56:01.195266   977 net.cpp:400] inception_2a/relu_double_3x3_reduce -> inception_2a/double_3x3_reduce_bn (in-place)
I0416 11:56:01.195269   977 net.cpp:163] Setting up inception_2a/relu_double_3x3_reduce
I0416 11:56:01.195483   977 net.cpp:170] Top shape: 10 128 36 14 (645120)
I0416 11:56:01.195490   977 layer_factory.hpp:74] Creating layer inception_2a/double_3x3_1
I0416 11:56:01.195495   977 net.cpp:133] Creating Layer inception_2a/double_3x3_1
I0416 11:56:01.195497   977 net.cpp:453] inception_2a/double_3x3_1 <- inception_2a/double_3x3_reduce_bn
I0416 11:56:01.195502   977 net.cpp:411] inception_2a/double_3x3_1 -> inception_2a/double_3x3_1
I0416 11:56:01.195507   977 net.cpp:163] Setting up inception_2a/double_3x3_1
I0416 11:56:01.239459   977 net.cpp:170] Top shape: 10 128 36 14 (645120)
I0416 11:56:01.239469   977 layer_factory.hpp:74] Creating layer inception_2a/double_3x3_1_bn
I0416 11:56:01.239470   977 layer_factory.cpp:191] Layer inception_2a/double_3x3_1_bn is using CAFFE engine.
I0416 11:56:01.239475   977 net.cpp:133] Creating Layer inception_2a/double_3x3_1_bn
I0416 11:56:01.239477   977 net.cpp:453] inception_2a/double_3x3_1_bn <- inception_2a/double_3x3_1
I0416 11:56:01.239481   977 net.cpp:411] inception_2a/double_3x3_1_bn -> inception_2a/double_3x3_1_bn
I0416 11:56:01.239485   977 net.cpp:163] Setting up inception_2a/double_3x3_1_bn
I0416 11:56:01.239495   977 net.cpp:170] Top shape: 10 128 36 14 (645120)
I0416 11:56:01.239500   977 layer_factory.hpp:74] Creating layer inception_2a/relu_double_3x3_1
I0416 11:56:01.239503   977 net.cpp:133] Creating Layer inception_2a/relu_double_3x3_1
I0416 11:56:01.239506   977 net.cpp:453] inception_2a/relu_double_3x3_1 <- inception_2a/double_3x3_1_bn
I0416 11:56:01.239508   977 net.cpp:400] inception_2a/relu_double_3x3_1 -> inception_2a/double_3x3_1_bn (in-place)
I0416 11:56:01.239513   977 net.cpp:163] Setting up inception_2a/relu_double_3x3_1
I0416 11:56:01.239717   977 net.cpp:170] Top shape: 10 128 36 14 (645120)
I0416 11:56:01.239724   977 layer_factory.hpp:74] Creating layer inception_2a/double_3x3_2
I0416 11:56:01.239729   977 net.cpp:133] Creating Layer inception_2a/double_3x3_2
I0416 11:56:01.239732   977 net.cpp:453] inception_2a/double_3x3_2 <- inception_2a/double_3x3_1_bn
I0416 11:56:01.239735   977 net.cpp:411] inception_2a/double_3x3_2 -> inception_2a/double_3x3_2
I0416 11:56:01.239739   977 net.cpp:163] Setting up inception_2a/double_3x3_2
I0416 11:56:01.283517   977 net.cpp:170] Top shape: 10 128 36 14 (645120)
I0416 11:56:01.283527   977 layer_factory.hpp:74] Creating layer inception_2a/double_3x3_2_bn
I0416 11:56:01.283530   977 layer_factory.cpp:191] Layer inception_2a/double_3x3_2_bn is using CAFFE engine.
I0416 11:56:01.283535   977 net.cpp:133] Creating Layer inception_2a/double_3x3_2_bn
I0416 11:56:01.283536   977 net.cpp:453] inception_2a/double_3x3_2_bn <- inception_2a/double_3x3_2
I0416 11:56:01.283540   977 net.cpp:411] inception_2a/double_3x3_2_bn -> inception_2a/double_3x3_2_bn
I0416 11:56:01.283545   977 net.cpp:163] Setting up inception_2a/double_3x3_2_bn
I0416 11:56:01.283555   977 net.cpp:170] Top shape: 10 128 36 14 (645120)
I0416 11:56:01.283560   977 layer_factory.hpp:74] Creating layer inception_2a/relu_double_3x3_2
I0416 11:56:01.283563   977 net.cpp:133] Creating Layer inception_2a/relu_double_3x3_2
I0416 11:56:01.283565   977 net.cpp:453] inception_2a/relu_double_3x3_2 <- inception_2a/double_3x3_2_bn
I0416 11:56:01.283568   977 net.cpp:400] inception_2a/relu_double_3x3_2 -> inception_2a/double_3x3_2_bn (in-place)
I0416 11:56:01.283572   977 net.cpp:163] Setting up inception_2a/relu_double_3x3_2
I0416 11:56:01.283706   977 net.cpp:170] Top shape: 10 128 36 14 (645120)
I0416 11:56:01.283711   977 layer_factory.hpp:74] Creating layer inception_2a/pool
I0416 11:56:01.283715   977 layer_factory.cpp:64] CUDNN does not support padding or multiple tops. Using Caffe's own pooling layer.
I0416 11:56:01.283717   977 net.cpp:133] Creating Layer inception_2a/pool
I0416 11:56:01.283720   977 net.cpp:453] inception_2a/pool <- inception_1b/output_inception_1b/output_0_split_3
I0416 11:56:01.283722   977 net.cpp:411] inception_2a/pool -> inception_2a/pool
I0416 11:56:01.283726   977 net.cpp:163] Setting up inception_2a/pool
I0416 11:56:01.283730   977 net.cpp:170] Top shape: 10 384 36 14 (1935360)
I0416 11:56:01.283732   977 layer_factory.hpp:74] Creating layer inception_2a/pool_proj
I0416 11:56:01.283736   977 net.cpp:133] Creating Layer inception_2a/pool_proj
I0416 11:56:01.283738   977 net.cpp:453] inception_2a/pool_proj <- inception_2a/pool
I0416 11:56:01.283741   977 net.cpp:411] inception_2a/pool_proj -> inception_2a/pool_proj
I0416 11:56:01.283745   977 net.cpp:163] Setting up inception_2a/pool_proj
I0416 11:56:01.379276   977 net.cpp:170] Top shape: 10 128 36 14 (645120)
I0416 11:56:01.379286   977 layer_factory.hpp:74] Creating layer inception_2a/pool_proj_bn
I0416 11:56:01.379287   977 layer_factory.cpp:191] Layer inception_2a/pool_proj_bn is using CAFFE engine.
I0416 11:56:01.379292   977 net.cpp:133] Creating Layer inception_2a/pool_proj_bn
I0416 11:56:01.379294   977 net.cpp:453] inception_2a/pool_proj_bn <- inception_2a/pool_proj
I0416 11:56:01.379298   977 net.cpp:411] inception_2a/pool_proj_bn -> inception_2a/pool_proj_bn
I0416 11:56:01.379310   977 net.cpp:163] Setting up inception_2a/pool_proj_bn
I0416 11:56:01.379320   977 net.cpp:170] Top shape: 10 128 36 14 (645120)
I0416 11:56:01.379338   977 layer_factory.hpp:74] Creating layer inception_2a/relu_pool_proj
I0416 11:56:01.379343   977 net.cpp:133] Creating Layer inception_2a/relu_pool_proj
I0416 11:56:01.379348   977 net.cpp:453] inception_2a/relu_pool_proj <- inception_2a/pool_proj_bn
I0416 11:56:01.379354   977 net.cpp:400] inception_2a/relu_pool_proj -> inception_2a/pool_proj_bn (in-place)
I0416 11:56:01.379359   977 net.cpp:163] Setting up inception_2a/relu_pool_proj
I0416 11:56:01.379575   977 net.cpp:170] Top shape: 10 128 36 14 (645120)
I0416 11:56:01.379582   977 layer_factory.hpp:74] Creating layer inception_2a/output
I0416 11:56:01.379587   977 net.cpp:133] Creating Layer inception_2a/output
I0416 11:56:01.379590   977 net.cpp:453] inception_2a/output <- inception_2a/1x1_bn
I0416 11:56:01.379591   977 net.cpp:453] inception_2a/output <- inception_2a/3x3_bn
I0416 11:56:01.379595   977 net.cpp:453] inception_2a/output <- inception_2a/double_3x3_2_bn
I0416 11:56:01.379596   977 net.cpp:453] inception_2a/output <- inception_2a/pool_proj_bn
I0416 11:56:01.379600   977 net.cpp:411] inception_2a/output -> inception_2a/output
I0416 11:56:01.379603   977 net.cpp:163] Setting up inception_2a/output
I0416 11:56:01.379606   977 net.cpp:170] Top shape: 10 512 36 14 (2580480)
I0416 11:56:01.379608   977 layer_factory.hpp:74] Creating layer inception_2a/output_inception_2a/output_0_split
I0416 11:56:01.379611   977 net.cpp:133] Creating Layer inception_2a/output_inception_2a/output_0_split
I0416 11:56:01.379613   977 net.cpp:453] inception_2a/output_inception_2a/output_0_split <- inception_2a/output
I0416 11:56:01.379616   977 net.cpp:411] inception_2a/output_inception_2a/output_0_split -> inception_2a/output_inception_2a/output_0_split_0
I0416 11:56:01.379621   977 net.cpp:411] inception_2a/output_inception_2a/output_0_split -> inception_2a/output_inception_2a/output_0_split_1
I0416 11:56:01.379624   977 net.cpp:411] inception_2a/output_inception_2a/output_0_split -> inception_2a/output_inception_2a/output_0_split_2
I0416 11:56:01.379628   977 net.cpp:163] Setting up inception_2a/output_inception_2a/output_0_split
I0416 11:56:01.379633   977 net.cpp:170] Top shape: 10 512 36 14 (2580480)
I0416 11:56:01.379637   977 net.cpp:170] Top shape: 10 512 36 14 (2580480)
I0416 11:56:01.379642   977 net.cpp:170] Top shape: 10 512 36 14 (2580480)
I0416 11:56:01.379644   977 layer_factory.hpp:74] Creating layer inception_2b/3x3_reduce
I0416 11:56:01.379650   977 net.cpp:133] Creating Layer inception_2b/3x3_reduce
I0416 11:56:01.379654   977 net.cpp:453] inception_2b/3x3_reduce <- inception_2a/output_inception_2a/output_0_split_0
I0416 11:56:01.379662   977 net.cpp:411] inception_2b/3x3_reduce -> inception_2b/3x3_reduce
I0416 11:56:01.379667   977 net.cpp:163] Setting up inception_2b/3x3_reduce
I0416 11:56:01.504815   977 net.cpp:170] Top shape: 10 128 36 14 (645120)
I0416 11:56:01.504825   977 layer_factory.hpp:74] Creating layer inception_2b/3x3_reduce_bn
I0416 11:56:01.504827   977 layer_factory.cpp:191] Layer inception_2b/3x3_reduce_bn is using CAFFE engine.
I0416 11:56:01.504832   977 net.cpp:133] Creating Layer inception_2b/3x3_reduce_bn
I0416 11:56:01.504834   977 net.cpp:453] inception_2b/3x3_reduce_bn <- inception_2b/3x3_reduce
I0416 11:56:01.504840   977 net.cpp:411] inception_2b/3x3_reduce_bn -> inception_2b/3x3_reduce_bn
I0416 11:56:01.504847   977 net.cpp:163] Setting up inception_2b/3x3_reduce_bn
I0416 11:56:01.504863   977 net.cpp:170] Top shape: 10 128 36 14 (645120)
I0416 11:56:01.504873   977 layer_factory.hpp:74] Creating layer inception_2b/relu_3x3_reduce
I0416 11:56:01.504876   977 net.cpp:133] Creating Layer inception_2b/relu_3x3_reduce
I0416 11:56:01.504879   977 net.cpp:453] inception_2b/relu_3x3_reduce <- inception_2b/3x3_reduce_bn
I0416 11:56:01.504884   977 net.cpp:400] inception_2b/relu_3x3_reduce -> inception_2b/3x3_reduce_bn (in-place)
I0416 11:56:01.504889   977 net.cpp:163] Setting up inception_2b/relu_3x3_reduce
I0416 11:56:01.505164   977 net.cpp:170] Top shape: 10 128 36 14 (645120)
I0416 11:56:01.505172   977 layer_factory.hpp:74] Creating layer inception_2b/3x3
I0416 11:56:01.505177   977 net.cpp:133] Creating Layer inception_2b/3x3
I0416 11:56:01.505179   977 net.cpp:453] inception_2b/3x3 <- inception_2b/3x3_reduce_bn
I0416 11:56:01.505185   977 net.cpp:411] inception_2b/3x3 -> inception_2b/3x3
I0416 11:56:01.505192   977 net.cpp:163] Setting up inception_2b/3x3
I0416 11:56:01.512231   977 net.cpp:170] Top shape: 10 128 18 7 (161280)
I0416 11:56:01.512243   977 layer_factory.hpp:74] Creating layer inception_2b/3x3_bn
I0416 11:56:01.512245   977 layer_factory.cpp:191] Layer inception_2b/3x3_bn is using CAFFE engine.
I0416 11:56:01.512250   977 net.cpp:133] Creating Layer inception_2b/3x3_bn
I0416 11:56:01.512254   977 net.cpp:453] inception_2b/3x3_bn <- inception_2b/3x3
I0416 11:56:01.512261   977 net.cpp:411] inception_2b/3x3_bn -> inception_2b/3x3_bn
I0416 11:56:01.512269   977 net.cpp:163] Setting up inception_2b/3x3_bn
I0416 11:56:01.512284   977 net.cpp:170] Top shape: 10 128 18 7 (161280)
I0416 11:56:01.512291   977 layer_factory.hpp:74] Creating layer inception_2b/relu_3x3
I0416 11:56:01.512295   977 net.cpp:133] Creating Layer inception_2b/relu_3x3
I0416 11:56:01.512297   977 net.cpp:453] inception_2b/relu_3x3 <- inception_2b/3x3_bn
I0416 11:56:01.512301   977 net.cpp:400] inception_2b/relu_3x3 -> inception_2b/3x3_bn (in-place)
I0416 11:56:01.512306   977 net.cpp:163] Setting up inception_2b/relu_3x3
I0416 11:56:01.512435   977 net.cpp:170] Top shape: 10 128 18 7 (161280)
I0416 11:56:01.512441   977 layer_factory.hpp:74] Creating layer inception_2b/double_3x3_reduce
I0416 11:56:01.512446   977 net.cpp:133] Creating Layer inception_2b/double_3x3_reduce
I0416 11:56:01.512449   977 net.cpp:453] inception_2b/double_3x3_reduce <- inception_2a/output_inception_2a/output_0_split_1
I0416 11:56:01.512454   977 net.cpp:411] inception_2b/double_3x3_reduce -> inception_2b/double_3x3_reduce
I0416 11:56:01.512460   977 net.cpp:163] Setting up inception_2b/double_3x3_reduce
I0416 11:56:01.636744   977 net.cpp:170] Top shape: 10 128 36 14 (645120)
I0416 11:56:01.636755   977 layer_factory.hpp:74] Creating layer inception_2b/double_3x3_reduce_bn
I0416 11:56:01.636757   977 layer_factory.cpp:191] Layer inception_2b/double_3x3_reduce_bn is using CAFFE engine.
I0416 11:56:01.636762   977 net.cpp:133] Creating Layer inception_2b/double_3x3_reduce_bn
I0416 11:56:01.636766   977 net.cpp:453] inception_2b/double_3x3_reduce_bn <- inception_2b/double_3x3_reduce
I0416 11:56:01.636772   977 net.cpp:411] inception_2b/double_3x3_reduce_bn -> inception_2b/double_3x3_reduce_bn
I0416 11:56:01.636780   977 net.cpp:163] Setting up inception_2b/double_3x3_reduce_bn
I0416 11:56:01.636798   977 net.cpp:170] Top shape: 10 128 36 14 (645120)
I0416 11:56:01.636806   977 layer_factory.hpp:74] Creating layer inception_2b/relu_double_3x3_reduce
I0416 11:56:01.636813   977 net.cpp:133] Creating Layer inception_2b/relu_double_3x3_reduce
I0416 11:56:01.636817   977 net.cpp:453] inception_2b/relu_double_3x3_reduce <- inception_2b/double_3x3_reduce_bn
I0416 11:56:01.636822   977 net.cpp:400] inception_2b/relu_double_3x3_reduce -> inception_2b/double_3x3_reduce_bn (in-place)
I0416 11:56:01.636827   977 net.cpp:163] Setting up inception_2b/relu_double_3x3_reduce
I0416 11:56:01.637037   977 net.cpp:170] Top shape: 10 128 36 14 (645120)
I0416 11:56:01.637043   977 layer_factory.hpp:74] Creating layer inception_2b/double_3x3_1
I0416 11:56:01.637048   977 net.cpp:133] Creating Layer inception_2b/double_3x3_1
I0416 11:56:01.637051   977 net.cpp:453] inception_2b/double_3x3_1 <- inception_2b/double_3x3_reduce_bn
I0416 11:56:01.637058   977 net.cpp:411] inception_2b/double_3x3_1 -> inception_2b/double_3x3_1
I0416 11:56:01.637063   977 net.cpp:163] Setting up inception_2b/double_3x3_1
I0416 11:56:01.680624   977 net.cpp:170] Top shape: 10 128 36 14 (645120)
I0416 11:56:01.680634   977 layer_factory.hpp:74] Creating layer inception_2b/double_3x3_1_bn
I0416 11:56:01.680636   977 layer_factory.cpp:191] Layer inception_2b/double_3x3_1_bn is using CAFFE engine.
I0416 11:56:01.680641   977 net.cpp:133] Creating Layer inception_2b/double_3x3_1_bn
I0416 11:56:01.680645   977 net.cpp:453] inception_2b/double_3x3_1_bn <- inception_2b/double_3x3_1
I0416 11:56:01.680651   977 net.cpp:411] inception_2b/double_3x3_1_bn -> inception_2b/double_3x3_1_bn
I0416 11:56:01.680657   977 net.cpp:163] Setting up inception_2b/double_3x3_1_bn
I0416 11:56:01.680675   977 net.cpp:170] Top shape: 10 128 36 14 (645120)
I0416 11:56:01.680685   977 layer_factory.hpp:74] Creating layer inception_2b/relu_double_3x3_1
I0416 11:56:01.680691   977 net.cpp:133] Creating Layer inception_2b/relu_double_3x3_1
I0416 11:56:01.680693   977 net.cpp:453] inception_2b/relu_double_3x3_1 <- inception_2b/double_3x3_1_bn
I0416 11:56:01.680698   977 net.cpp:400] inception_2b/relu_double_3x3_1 -> inception_2b/double_3x3_1_bn (in-place)
I0416 11:56:01.680703   977 net.cpp:163] Setting up inception_2b/relu_double_3x3_1
I0416 11:56:01.680909   977 net.cpp:170] Top shape: 10 128 36 14 (645120)
I0416 11:56:01.680915   977 layer_factory.hpp:74] Creating layer inception_2b/double_3x3_2
I0416 11:56:01.680919   977 net.cpp:133] Creating Layer inception_2b/double_3x3_2
I0416 11:56:01.680922   977 net.cpp:453] inception_2b/double_3x3_2 <- inception_2b/double_3x3_1_bn
I0416 11:56:01.680927   977 net.cpp:411] inception_2b/double_3x3_2 -> inception_2b/double_3x3_2
I0416 11:56:01.680937   977 net.cpp:163] Setting up inception_2b/double_3x3_2
I0416 11:56:01.688014   977 net.cpp:170] Top shape: 10 128 18 7 (161280)
I0416 11:56:01.688026   977 layer_factory.hpp:74] Creating layer inception_2b/double_3x3_2_bn
I0416 11:56:01.688030   977 layer_factory.cpp:191] Layer inception_2b/double_3x3_2_bn is using CAFFE engine.
I0416 11:56:01.688035   977 net.cpp:133] Creating Layer inception_2b/double_3x3_2_bn
I0416 11:56:01.688040   977 net.cpp:453] inception_2b/double_3x3_2_bn <- inception_2b/double_3x3_2
I0416 11:56:01.688045   977 net.cpp:411] inception_2b/double_3x3_2_bn -> inception_2b/double_3x3_2_bn
I0416 11:56:01.688053   977 net.cpp:163] Setting up inception_2b/double_3x3_2_bn
I0416 11:56:01.688071   977 net.cpp:170] Top shape: 10 128 18 7 (161280)
I0416 11:56:01.688077   977 layer_factory.hpp:74] Creating layer inception_2b/relu_double_3x3_2
I0416 11:56:01.688081   977 net.cpp:133] Creating Layer inception_2b/relu_double_3x3_2
I0416 11:56:01.688083   977 net.cpp:453] inception_2b/relu_double_3x3_2 <- inception_2b/double_3x3_2_bn
I0416 11:56:01.688088   977 net.cpp:400] inception_2b/relu_double_3x3_2 -> inception_2b/double_3x3_2_bn (in-place)
I0416 11:56:01.688096   977 net.cpp:163] Setting up inception_2b/relu_double_3x3_2
I0416 11:56:01.688223   977 net.cpp:170] Top shape: 10 128 18 7 (161280)
I0416 11:56:01.688230   977 layer_factory.hpp:74] Creating layer inception_2b/pool
I0416 11:56:01.688233   977 net.cpp:133] Creating Layer inception_2b/pool
I0416 11:56:01.688235   977 net.cpp:453] inception_2b/pool <- inception_2a/output_inception_2a/output_0_split_2
I0416 11:56:01.688241   977 net.cpp:411] inception_2b/pool -> inception_2b/pool
I0416 11:56:01.688246   977 net.cpp:163] Setting up inception_2b/pool
I0416 11:56:01.688453   977 net.cpp:170] Top shape: 10 512 18 7 (645120)
I0416 11:56:01.688459   977 layer_factory.hpp:74] Creating layer inception_2b/output
I0416 11:56:01.688463   977 net.cpp:133] Creating Layer inception_2b/output
I0416 11:56:01.688465   977 net.cpp:453] inception_2b/output <- inception_2b/3x3_bn
I0416 11:56:01.688468   977 net.cpp:453] inception_2b/output <- inception_2b/double_3x3_2_bn
I0416 11:56:01.688472   977 net.cpp:453] inception_2b/output <- inception_2b/pool
I0416 11:56:01.688478   977 net.cpp:411] inception_2b/output -> inception_2b/output
I0416 11:56:01.688485   977 net.cpp:163] Setting up inception_2b/output
I0416 11:56:01.688491   977 net.cpp:170] Top shape: 10 768 18 7 (967680)
I0416 11:56:01.688495   977 layer_factory.hpp:74] Creating layer inception_2b/output_inception_2b/output_0_split
I0416 11:56:01.688501   977 net.cpp:133] Creating Layer inception_2b/output_inception_2b/output_0_split
I0416 11:56:01.688504   977 net.cpp:453] inception_2b/output_inception_2b/output_0_split <- inception_2b/output
I0416 11:56:01.688510   977 net.cpp:411] inception_2b/output_inception_2b/output_0_split -> inception_2b/output_inception_2b/output_0_split_0
I0416 11:56:01.688516   977 net.cpp:411] inception_2b/output_inception_2b/output_0_split -> inception_2b/output_inception_2b/output_0_split_1
I0416 11:56:01.688524   977 net.cpp:411] inception_2b/output_inception_2b/output_0_split -> inception_2b/output_inception_2b/output_0_split_2
I0416 11:56:01.688532   977 net.cpp:411] inception_2b/output_inception_2b/output_0_split -> inception_2b/output_inception_2b/output_0_split_3
I0416 11:56:01.688539   977 net.cpp:163] Setting up inception_2b/output_inception_2b/output_0_split
I0416 11:56:01.688544   977 net.cpp:170] Top shape: 10 768 18 7 (967680)
I0416 11:56:01.688549   977 net.cpp:170] Top shape: 10 768 18 7 (967680)
I0416 11:56:01.688554   977 net.cpp:170] Top shape: 10 768 18 7 (967680)
I0416 11:56:01.688556   977 net.cpp:170] Top shape: 10 768 18 7 (967680)
I0416 11:56:01.688560   977 layer_factory.hpp:74] Creating layer inception_3a/1x1
I0416 11:56:01.688566   977 net.cpp:133] Creating Layer inception_3a/1x1
I0416 11:56:01.688571   977 net.cpp:453] inception_3a/1x1 <- inception_2b/output_inception_2b/output_0_split_0
I0416 11:56:01.688576   977 net.cpp:411] inception_3a/1x1 -> inception_3a/1x1
I0416 11:56:01.688585   977 net.cpp:163] Setting up inception_3a/1x1
I0416 11:56:01.798647   977 net.cpp:170] Top shape: 10 256 18 7 (322560)
I0416 11:56:01.798658   977 layer_factory.hpp:74] Creating layer inception_3a/1x1_bn
I0416 11:56:01.798660   977 layer_factory.cpp:191] Layer inception_3a/1x1_bn is using CAFFE engine.
I0416 11:56:01.798665   977 net.cpp:133] Creating Layer inception_3a/1x1_bn
I0416 11:56:01.798667   977 net.cpp:453] inception_3a/1x1_bn <- inception_3a/1x1
I0416 11:56:01.798673   977 net.cpp:411] inception_3a/1x1_bn -> inception_3a/1x1_bn
I0416 11:56:01.798681   977 net.cpp:163] Setting up inception_3a/1x1_bn
I0416 11:56:01.798697   977 net.cpp:170] Top shape: 10 256 18 7 (322560)
I0416 11:56:01.798705   977 layer_factory.hpp:74] Creating layer inception_3a/relu_1x1
I0416 11:56:01.798709   977 net.cpp:133] Creating Layer inception_3a/relu_1x1
I0416 11:56:01.798712   977 net.cpp:453] inception_3a/relu_1x1 <- inception_3a/1x1_bn
I0416 11:56:01.798714   977 net.cpp:400] inception_3a/relu_1x1 -> inception_3a/1x1_bn (in-place)
I0416 11:56:01.798719   977 net.cpp:163] Setting up inception_3a/relu_1x1
I0416 11:56:01.798851   977 net.cpp:170] Top shape: 10 256 18 7 (322560)
I0416 11:56:01.798856   977 layer_factory.hpp:74] Creating layer inception_3a/3x3_reduce
I0416 11:56:01.798861   977 net.cpp:133] Creating Layer inception_3a/3x3_reduce
I0416 11:56:01.798864   977 net.cpp:453] inception_3a/3x3_reduce <- inception_2b/output_inception_2b/output_0_split_1
I0416 11:56:01.798869   977 net.cpp:411] inception_3a/3x3_reduce -> inception_3a/3x3_reduce
I0416 11:56:01.798878   977 net.cpp:163] Setting up inception_3a/3x3_reduce
I0416 11:56:01.909245   977 net.cpp:170] Top shape: 10 256 18 7 (322560)
I0416 11:56:01.909255   977 layer_factory.hpp:74] Creating layer inception_3a/3x3_reduce_bn
I0416 11:56:01.909258   977 layer_factory.cpp:191] Layer inception_3a/3x3_reduce_bn is using CAFFE engine.
I0416 11:56:01.909262   977 net.cpp:133] Creating Layer inception_3a/3x3_reduce_bn
I0416 11:56:01.909265   977 net.cpp:453] inception_3a/3x3_reduce_bn <- inception_3a/3x3_reduce
I0416 11:56:01.909272   977 net.cpp:411] inception_3a/3x3_reduce_bn -> inception_3a/3x3_reduce_bn
I0416 11:56:01.909278   977 net.cpp:163] Setting up inception_3a/3x3_reduce_bn
I0416 11:56:01.909296   977 net.cpp:170] Top shape: 10 256 18 7 (322560)
I0416 11:56:01.909304   977 layer_factory.hpp:74] Creating layer inception_3a/relu_3x3_reduce
I0416 11:56:01.909308   977 net.cpp:133] Creating Layer inception_3a/relu_3x3_reduce
I0416 11:56:01.909310   977 net.cpp:453] inception_3a/relu_3x3_reduce <- inception_3a/3x3_reduce_bn
I0416 11:56:01.909314   977 net.cpp:400] inception_3a/relu_3x3_reduce -> inception_3a/3x3_reduce_bn (in-place)
I0416 11:56:01.909319   977 net.cpp:163] Setting up inception_3a/relu_3x3_reduce
I0416 11:56:01.909531   977 net.cpp:170] Top shape: 10 256 18 7 (322560)
I0416 11:56:01.909538   977 layer_factory.hpp:74] Creating layer inception_3a/3x3
I0416 11:56:01.909543   977 net.cpp:133] Creating Layer inception_3a/3x3
I0416 11:56:01.909546   977 net.cpp:453] inception_3a/3x3 <- inception_3a/3x3_reduce_bn
I0416 11:56:01.909553   977 net.cpp:411] inception_3a/3x3 -> inception_3a/3x3
I0416 11:56:01.909560   977 net.cpp:163] Setting up inception_3a/3x3
I0416 11:56:01.958780   977 net.cpp:170] Top shape: 10 256 18 7 (322560)
I0416 11:56:01.958789   977 layer_factory.hpp:74] Creating layer inception_3a/3x3_bn
I0416 11:56:01.958792   977 layer_factory.cpp:191] Layer inception_3a/3x3_bn is using CAFFE engine.
I0416 11:56:01.958796   977 net.cpp:133] Creating Layer inception_3a/3x3_bn
I0416 11:56:01.958798   977 net.cpp:453] inception_3a/3x3_bn <- inception_3a/3x3
I0416 11:56:01.958803   977 net.cpp:411] inception_3a/3x3_bn -> inception_3a/3x3_bn
I0416 11:56:01.958811   977 net.cpp:163] Setting up inception_3a/3x3_bn
I0416 11:56:01.958825   977 net.cpp:170] Top shape: 10 256 18 7 (322560)
I0416 11:56:01.958834   977 layer_factory.hpp:74] Creating layer inception_3a/relu_3x3
I0416 11:56:01.958838   977 net.cpp:133] Creating Layer inception_3a/relu_3x3
I0416 11:56:01.958840   977 net.cpp:453] inception_3a/relu_3x3 <- inception_3a/3x3_bn
I0416 11:56:01.958844   977 net.cpp:400] inception_3a/relu_3x3 -> inception_3a/3x3_bn (in-place)
I0416 11:56:01.958849   977 net.cpp:163] Setting up inception_3a/relu_3x3
I0416 11:56:01.959064   977 net.cpp:170] Top shape: 10 256 18 7 (322560)
I0416 11:56:01.959071   977 layer_factory.hpp:74] Creating layer inception_3a/double_3x3_reduce
I0416 11:56:01.959077   977 net.cpp:133] Creating Layer inception_3a/double_3x3_reduce
I0416 11:56:01.959080   977 net.cpp:453] inception_3a/double_3x3_reduce <- inception_2b/output_inception_2b/output_0_split_2
I0416 11:56:01.959085   977 net.cpp:411] inception_3a/double_3x3_reduce -> inception_3a/double_3x3_reduce
I0416 11:56:01.959094   977 net.cpp:163] Setting up inception_3a/double_3x3_reduce
I0416 11:56:02.068859   977 net.cpp:170] Top shape: 10 256 18 7 (322560)
I0416 11:56:02.068869   977 layer_factory.hpp:74] Creating layer inception_3a/double_3x3_reduce_bn
I0416 11:56:02.068872   977 layer_factory.cpp:191] Layer inception_3a/double_3x3_reduce_bn is using CAFFE engine.
I0416 11:56:02.068876   977 net.cpp:133] Creating Layer inception_3a/double_3x3_reduce_bn
I0416 11:56:02.068879   977 net.cpp:453] inception_3a/double_3x3_reduce_bn <- inception_3a/double_3x3_reduce
I0416 11:56:02.068883   977 net.cpp:411] inception_3a/double_3x3_reduce_bn -> inception_3a/double_3x3_reduce_bn
I0416 11:56:02.068891   977 net.cpp:163] Setting up inception_3a/double_3x3_reduce_bn
I0416 11:56:02.068907   977 net.cpp:170] Top shape: 10 256 18 7 (322560)
I0416 11:56:02.068917   977 layer_factory.hpp:74] Creating layer inception_3a/relu_double_3x3_reduce
I0416 11:56:02.068922   977 net.cpp:133] Creating Layer inception_3a/relu_double_3x3_reduce
I0416 11:56:02.068923   977 net.cpp:453] inception_3a/relu_double_3x3_reduce <- inception_3a/double_3x3_reduce_bn
I0416 11:56:02.068927   977 net.cpp:400] inception_3a/relu_double_3x3_reduce -> inception_3a/double_3x3_reduce_bn (in-place)
I0416 11:56:02.068931   977 net.cpp:163] Setting up inception_3a/relu_double_3x3_reduce
I0416 11:56:02.069069   977 net.cpp:170] Top shape: 10 256 18 7 (322560)
I0416 11:56:02.069077   977 layer_factory.hpp:74] Creating layer inception_3a/double_3x3_1
I0416 11:56:02.069082   977 net.cpp:133] Creating Layer inception_3a/double_3x3_1
I0416 11:56:02.069084   977 net.cpp:453] inception_3a/double_3x3_1 <- inception_3a/double_3x3_reduce_bn
I0416 11:56:02.069089   977 net.cpp:411] inception_3a/double_3x3_1 -> inception_3a/double_3x3_1
I0416 11:56:02.069097   977 net.cpp:163] Setting up inception_3a/double_3x3_1
I0416 11:56:02.118383   977 net.cpp:170] Top shape: 10 256 18 7 (322560)
I0416 11:56:02.118394   977 layer_factory.hpp:74] Creating layer inception_3a/double_3x3_1_bn
I0416 11:56:02.118396   977 layer_factory.cpp:191] Layer inception_3a/double_3x3_1_bn is using CAFFE engine.
I0416 11:56:02.118401   977 net.cpp:133] Creating Layer inception_3a/double_3x3_1_bn
I0416 11:56:02.118403   977 net.cpp:453] inception_3a/double_3x3_1_bn <- inception_3a/double_3x3_1
I0416 11:56:02.118408   977 net.cpp:411] inception_3a/double_3x3_1_bn -> inception_3a/double_3x3_1_bn
I0416 11:56:02.118417   977 net.cpp:163] Setting up inception_3a/double_3x3_1_bn
I0416 11:56:02.118432   977 net.cpp:170] Top shape: 10 256 18 7 (322560)
I0416 11:56:02.118441   977 layer_factory.hpp:74] Creating layer inception_3a/relu_double_3x3_1
I0416 11:56:02.118445   977 net.cpp:133] Creating Layer inception_3a/relu_double_3x3_1
I0416 11:56:02.118448   977 net.cpp:453] inception_3a/relu_double_3x3_1 <- inception_3a/double_3x3_1_bn
I0416 11:56:02.118453   977 net.cpp:400] inception_3a/relu_double_3x3_1 -> inception_3a/double_3x3_1_bn (in-place)
I0416 11:56:02.118460   977 net.cpp:163] Setting up inception_3a/relu_double_3x3_1
I0416 11:56:02.118676   977 net.cpp:170] Top shape: 10 256 18 7 (322560)
I0416 11:56:02.118682   977 layer_factory.hpp:74] Creating layer inception_3a/double_3x3_2
I0416 11:56:02.118687   977 net.cpp:133] Creating Layer inception_3a/double_3x3_2
I0416 11:56:02.118691   977 net.cpp:453] inception_3a/double_3x3_2 <- inception_3a/double_3x3_1_bn
I0416 11:56:02.118697   977 net.cpp:411] inception_3a/double_3x3_2 -> inception_3a/double_3x3_2
I0416 11:56:02.118705   977 net.cpp:163] Setting up inception_3a/double_3x3_2
I0416 11:56:02.167871   977 net.cpp:170] Top shape: 10 256 18 7 (322560)
I0416 11:56:02.167881   977 layer_factory.hpp:74] Creating layer inception_3a/double_3x3_2_bn
I0416 11:56:02.167884   977 layer_factory.cpp:191] Layer inception_3a/double_3x3_2_bn is using CAFFE engine.
I0416 11:56:02.167888   977 net.cpp:133] Creating Layer inception_3a/double_3x3_2_bn
I0416 11:56:02.167891   977 net.cpp:453] inception_3a/double_3x3_2_bn <- inception_3a/double_3x3_2
I0416 11:56:02.167897   977 net.cpp:411] inception_3a/double_3x3_2_bn -> inception_3a/double_3x3_2_bn
I0416 11:56:02.167904   977 net.cpp:163] Setting up inception_3a/double_3x3_2_bn
I0416 11:56:02.167922   977 net.cpp:170] Top shape: 10 256 18 7 (322560)
I0416 11:56:02.167928   977 layer_factory.hpp:74] Creating layer inception_3a/relu_double_3x3_2
I0416 11:56:02.167932   977 net.cpp:133] Creating Layer inception_3a/relu_double_3x3_2
I0416 11:56:02.167934   977 net.cpp:453] inception_3a/relu_double_3x3_2 <- inception_3a/double_3x3_2_bn
I0416 11:56:02.167939   977 net.cpp:400] inception_3a/relu_double_3x3_2 -> inception_3a/double_3x3_2_bn (in-place)
I0416 11:56:02.167944   977 net.cpp:163] Setting up inception_3a/relu_double_3x3_2
I0416 11:56:02.168179   977 net.cpp:170] Top shape: 10 256 18 7 (322560)
I0416 11:56:02.168184   977 layer_factory.hpp:74] Creating layer inception_3a/pool
I0416 11:56:02.168187   977 layer_factory.cpp:64] CUDNN does not support padding or multiple tops. Using Caffe's own pooling layer.
I0416 11:56:02.168190   977 net.cpp:133] Creating Layer inception_3a/pool
I0416 11:56:02.168193   977 net.cpp:453] inception_3a/pool <- inception_2b/output_inception_2b/output_0_split_3
I0416 11:56:02.168197   977 net.cpp:411] inception_3a/pool -> inception_3a/pool
I0416 11:56:02.168203   977 net.cpp:163] Setting up inception_3a/pool
I0416 11:56:02.168210   977 net.cpp:170] Top shape: 10 768 18 7 (967680)
I0416 11:56:02.168213   977 layer_factory.hpp:74] Creating layer inception_3a/pool_proj
I0416 11:56:02.168220   977 net.cpp:133] Creating Layer inception_3a/pool_proj
I0416 11:56:02.168223   977 net.cpp:453] inception_3a/pool_proj <- inception_3a/pool
I0416 11:56:02.168231   977 net.cpp:411] inception_3a/pool_proj -> inception_3a/pool_proj
I0416 11:56:02.168236   977 net.cpp:163] Setting up inception_3a/pool_proj
I0416 11:56:02.278694   977 net.cpp:170] Top shape: 10 256 18 7 (322560)
I0416 11:56:02.278704   977 layer_factory.hpp:74] Creating layer inception_3a/pool_proj_bn
I0416 11:56:02.278707   977 layer_factory.cpp:191] Layer inception_3a/pool_proj_bn is using CAFFE engine.
I0416 11:56:02.278712   977 net.cpp:133] Creating Layer inception_3a/pool_proj_bn
I0416 11:56:02.278713   977 net.cpp:453] inception_3a/pool_proj_bn <- inception_3a/pool_proj
I0416 11:56:02.278718   977 net.cpp:411] inception_3a/pool_proj_bn -> inception_3a/pool_proj_bn
I0416 11:56:02.278725   977 net.cpp:163] Setting up inception_3a/pool_proj_bn
I0416 11:56:02.278741   977 net.cpp:170] Top shape: 10 256 18 7 (322560)
I0416 11:56:02.278750   977 layer_factory.hpp:74] Creating layer inception_3a/relu_pool_proj
I0416 11:56:02.278754   977 net.cpp:133] Creating Layer inception_3a/relu_pool_proj
I0416 11:56:02.278758   977 net.cpp:453] inception_3a/relu_pool_proj <- inception_3a/pool_proj_bn
I0416 11:56:02.278761   977 net.cpp:400] inception_3a/relu_pool_proj -> inception_3a/pool_proj_bn (in-place)
I0416 11:56:02.278766   977 net.cpp:163] Setting up inception_3a/relu_pool_proj
I0416 11:56:02.278900   977 net.cpp:170] Top shape: 10 256 18 7 (322560)
I0416 11:56:02.278906   977 layer_factory.hpp:74] Creating layer inception_3a/output
I0416 11:56:02.278910   977 net.cpp:133] Creating Layer inception_3a/output
I0416 11:56:02.278913   977 net.cpp:453] inception_3a/output <- inception_3a/1x1_bn
I0416 11:56:02.278915   977 net.cpp:453] inception_3a/output <- inception_3a/3x3_bn
I0416 11:56:02.278918   977 net.cpp:453] inception_3a/output <- inception_3a/double_3x3_2_bn
I0416 11:56:02.278923   977 net.cpp:453] inception_3a/output <- inception_3a/pool_proj_bn
I0416 11:56:02.278928   977 net.cpp:411] inception_3a/output -> inception_3a/output
I0416 11:56:02.278934   977 net.cpp:163] Setting up inception_3a/output
I0416 11:56:02.278940   977 net.cpp:170] Top shape: 10 1024 18 7 (1290240)
I0416 11:56:02.278944   977 layer_factory.hpp:74] Creating layer inception_3a/output_inception_3a/output_0_split
I0416 11:56:02.278949   977 net.cpp:133] Creating Layer inception_3a/output_inception_3a/output_0_split
I0416 11:56:02.278951   977 net.cpp:453] inception_3a/output_inception_3a/output_0_split <- inception_3a/output
I0416 11:56:02.278959   977 net.cpp:411] inception_3a/output_inception_3a/output_0_split -> inception_3a/output_inception_3a/output_0_split_0
I0416 11:56:02.278964   977 net.cpp:411] inception_3a/output_inception_3a/output_0_split -> inception_3a/output_inception_3a/output_0_split_1
I0416 11:56:02.278970   977 net.cpp:411] inception_3a/output_inception_3a/output_0_split -> inception_3a/output_inception_3a/output_0_split_2
I0416 11:56:02.278975   977 net.cpp:163] Setting up inception_3a/output_inception_3a/output_0_split
I0416 11:56:02.278980   977 net.cpp:170] Top shape: 10 1024 18 7 (1290240)
I0416 11:56:02.278985   977 net.cpp:170] Top shape: 10 1024 18 7 (1290240)
I0416 11:56:02.278987   977 net.cpp:170] Top shape: 10 1024 18 7 (1290240)
I0416 11:56:02.278990   977 layer_factory.hpp:74] Creating layer inception_3b/3x3_reduce
I0416 11:56:02.278998   977 net.cpp:133] Creating Layer inception_3b/3x3_reduce
I0416 11:56:02.279001   977 net.cpp:453] inception_3b/3x3_reduce <- inception_3a/output_inception_3a/output_0_split_0
I0416 11:56:02.279008   977 net.cpp:411] inception_3b/3x3_reduce -> inception_3b/3x3_reduce
I0416 11:56:02.279016   977 net.cpp:163] Setting up inception_3b/3x3_reduce
I0416 11:56:02.426558   977 net.cpp:170] Top shape: 10 256 18 7 (322560)
I0416 11:56:02.426568   977 layer_factory.hpp:74] Creating layer inception_3b/3x3_reduce_bn
I0416 11:56:02.426570   977 layer_factory.cpp:191] Layer inception_3b/3x3_reduce_bn is using CAFFE engine.
I0416 11:56:02.426574   977 net.cpp:133] Creating Layer inception_3b/3x3_reduce_bn
I0416 11:56:02.426578   977 net.cpp:453] inception_3b/3x3_reduce_bn <- inception_3b/3x3_reduce
I0416 11:56:02.426583   977 net.cpp:411] inception_3b/3x3_reduce_bn -> inception_3b/3x3_reduce_bn
I0416 11:56:02.426589   977 net.cpp:163] Setting up inception_3b/3x3_reduce_bn
I0416 11:56:02.426604   977 net.cpp:170] Top shape: 10 256 18 7 (322560)
I0416 11:56:02.426614   977 layer_factory.hpp:74] Creating layer inception_3b/relu_3x3_reduce
I0416 11:56:02.426617   977 net.cpp:133] Creating Layer inception_3b/relu_3x3_reduce
I0416 11:56:02.426620   977 net.cpp:453] inception_3b/relu_3x3_reduce <- inception_3b/3x3_reduce_bn
I0416 11:56:02.426625   977 net.cpp:400] inception_3b/relu_3x3_reduce -> inception_3b/3x3_reduce_bn (in-place)
I0416 11:56:02.426630   977 net.cpp:163] Setting up inception_3b/relu_3x3_reduce
I0416 11:56:02.426851   977 net.cpp:170] Top shape: 10 256 18 7 (322560)
I0416 11:56:02.426857   977 layer_factory.hpp:74] Creating layer inception_3b/3x3
I0416 11:56:02.426863   977 net.cpp:133] Creating Layer inception_3b/3x3
I0416 11:56:02.426867   977 net.cpp:453] inception_3b/3x3 <- inception_3b/3x3_reduce_bn
I0416 11:56:02.426873   977 net.cpp:411] inception_3b/3x3 -> inception_3b/3x3
I0416 11:56:02.426882   977 net.cpp:163] Setting up inception_3b/3x3
I0416 11:56:02.438428   977 net.cpp:170] Top shape: 10 256 9 4 (92160)
I0416 11:56:02.438437   977 layer_factory.hpp:74] Creating layer inception_3b/3x3_bn
I0416 11:56:02.438441   977 layer_factory.cpp:191] Layer inception_3b/3x3_bn is using CAFFE engine.
I0416 11:56:02.438444   977 net.cpp:133] Creating Layer inception_3b/3x3_bn
I0416 11:56:02.438446   977 net.cpp:453] inception_3b/3x3_bn <- inception_3b/3x3
I0416 11:56:02.438452   977 net.cpp:411] inception_3b/3x3_bn -> inception_3b/3x3_bn
I0416 11:56:02.438458   977 net.cpp:163] Setting up inception_3b/3x3_bn
I0416 11:56:02.438475   977 net.cpp:170] Top shape: 10 256 9 4 (92160)
I0416 11:56:02.438484   977 layer_factory.hpp:74] Creating layer inception_3b/relu_3x3
I0416 11:56:02.438488   977 net.cpp:133] Creating Layer inception_3b/relu_3x3
I0416 11:56:02.438489   977 net.cpp:453] inception_3b/relu_3x3 <- inception_3b/3x3_bn
I0416 11:56:02.438493   977 net.cpp:400] inception_3b/relu_3x3 -> inception_3b/3x3_bn (in-place)
I0416 11:56:02.438498   977 net.cpp:163] Setting up inception_3b/relu_3x3
I0416 11:56:02.438714   977 net.cpp:170] Top shape: 10 256 9 4 (92160)
I0416 11:56:02.438720   977 layer_factory.hpp:74] Creating layer inception_3b/double_3x3_reduce
I0416 11:56:02.438724   977 net.cpp:133] Creating Layer inception_3b/double_3x3_reduce
I0416 11:56:02.438729   977 net.cpp:453] inception_3b/double_3x3_reduce <- inception_3a/output_inception_3a/output_0_split_1
I0416 11:56:02.438733   977 net.cpp:411] inception_3b/double_3x3_reduce -> inception_3b/double_3x3_reduce
I0416 11:56:02.438741   977 net.cpp:163] Setting up inception_3b/double_3x3_reduce
I0416 11:56:02.586179   977 net.cpp:170] Top shape: 10 256 18 7 (322560)
I0416 11:56:02.586190   977 layer_factory.hpp:74] Creating layer inception_3b/double_3x3_reduce_bn
I0416 11:56:02.586192   977 layer_factory.cpp:191] Layer inception_3b/double_3x3_reduce_bn is using CAFFE engine.
I0416 11:56:02.586222   977 net.cpp:133] Creating Layer inception_3b/double_3x3_reduce_bn
I0416 11:56:02.586230   977 net.cpp:453] inception_3b/double_3x3_reduce_bn <- inception_3b/double_3x3_reduce
I0416 11:56:02.586233   977 net.cpp:411] inception_3b/double_3x3_reduce_bn -> inception_3b/double_3x3_reduce_bn
I0416 11:56:02.586238   977 net.cpp:163] Setting up inception_3b/double_3x3_reduce_bn
I0416 11:56:02.586248   977 net.cpp:170] Top shape: 10 256 18 7 (322560)
I0416 11:56:02.586253   977 layer_factory.hpp:74] Creating layer inception_3b/relu_double_3x3_reduce
I0416 11:56:02.586257   977 net.cpp:133] Creating Layer inception_3b/relu_double_3x3_reduce
I0416 11:56:02.586261   977 net.cpp:453] inception_3b/relu_double_3x3_reduce <- inception_3b/double_3x3_reduce_bn
I0416 11:56:02.586266   977 net.cpp:400] inception_3b/relu_double_3x3_reduce -> inception_3b/double_3x3_reduce_bn (in-place)
I0416 11:56:02.586271   977 net.cpp:163] Setting up inception_3b/relu_double_3x3_reduce
I0416 11:56:02.586407   977 net.cpp:170] Top shape: 10 256 18 7 (322560)
I0416 11:56:02.586412   977 layer_factory.hpp:74] Creating layer inception_3b/double_3x3_1
I0416 11:56:02.586418   977 net.cpp:133] Creating Layer inception_3b/double_3x3_1
I0416 11:56:02.586421   977 net.cpp:453] inception_3b/double_3x3_1 <- inception_3b/double_3x3_reduce_bn
I0416 11:56:02.586424   977 net.cpp:411] inception_3b/double_3x3_1 -> inception_3b/double_3x3_1
I0416 11:56:02.586429   977 net.cpp:163] Setting up inception_3b/double_3x3_1
I0416 11:56:02.635757   977 net.cpp:170] Top shape: 10 256 18 7 (322560)
I0416 11:56:02.635768   977 layer_factory.hpp:74] Creating layer inception_3b/double_3x3_1_bn
I0416 11:56:02.635771   977 layer_factory.cpp:191] Layer inception_3b/double_3x3_1_bn is using CAFFE engine.
I0416 11:56:02.635774   977 net.cpp:133] Creating Layer inception_3b/double_3x3_1_bn
I0416 11:56:02.635777   977 net.cpp:453] inception_3b/double_3x3_1_bn <- inception_3b/double_3x3_1
I0416 11:56:02.635782   977 net.cpp:411] inception_3b/double_3x3_1_bn -> inception_3b/double_3x3_1_bn
I0416 11:56:02.635785   977 net.cpp:163] Setting up inception_3b/double_3x3_1_bn
I0416 11:56:02.635797   977 net.cpp:170] Top shape: 10 256 18 7 (322560)
I0416 11:56:02.635807   977 layer_factory.hpp:74] Creating layer inception_3b/relu_double_3x3_1
I0416 11:56:02.635810   977 net.cpp:133] Creating Layer inception_3b/relu_double_3x3_1
I0416 11:56:02.635813   977 net.cpp:453] inception_3b/relu_double_3x3_1 <- inception_3b/double_3x3_1_bn
I0416 11:56:02.635819   977 net.cpp:400] inception_3b/relu_double_3x3_1 -> inception_3b/double_3x3_1_bn (in-place)
I0416 11:56:02.635824   977 net.cpp:163] Setting up inception_3b/relu_double_3x3_1
I0416 11:56:02.636044   977 net.cpp:170] Top shape: 10 256 18 7 (322560)
I0416 11:56:02.636049   977 layer_factory.hpp:74] Creating layer inception_3b/double_3x3_2
I0416 11:56:02.636055   977 net.cpp:133] Creating Layer inception_3b/double_3x3_2
I0416 11:56:02.636059   977 net.cpp:453] inception_3b/double_3x3_2 <- inception_3b/double_3x3_1_bn
I0416 11:56:02.636062   977 net.cpp:411] inception_3b/double_3x3_2 -> inception_3b/double_3x3_2
I0416 11:56:02.636066   977 net.cpp:163] Setting up inception_3b/double_3x3_2
I0416 11:56:02.646961   977 net.cpp:170] Top shape: 10 256 9 4 (92160)
I0416 11:56:02.646972   977 layer_factory.hpp:74] Creating layer inception_3b/double_3x3_2_bn
I0416 11:56:02.646975   977 layer_factory.cpp:191] Layer inception_3b/double_3x3_2_bn is using CAFFE engine.
I0416 11:56:02.646980   977 net.cpp:133] Creating Layer inception_3b/double_3x3_2_bn
I0416 11:56:02.646982   977 net.cpp:453] inception_3b/double_3x3_2_bn <- inception_3b/double_3x3_2
I0416 11:56:02.646986   977 net.cpp:411] inception_3b/double_3x3_2_bn -> inception_3b/double_3x3_2_bn
I0416 11:56:02.646991   977 net.cpp:163] Setting up inception_3b/double_3x3_2_bn
I0416 11:56:02.646999   977 net.cpp:170] Top shape: 10 256 9 4 (92160)
I0416 11:56:02.647003   977 layer_factory.hpp:74] Creating layer inception_3b/relu_double_3x3_2
I0416 11:56:02.647007   977 net.cpp:133] Creating Layer inception_3b/relu_double_3x3_2
I0416 11:56:02.647009   977 net.cpp:453] inception_3b/relu_double_3x3_2 <- inception_3b/double_3x3_2_bn
I0416 11:56:02.647012   977 net.cpp:400] inception_3b/relu_double_3x3_2 -> inception_3b/double_3x3_2_bn (in-place)
I0416 11:56:02.647014   977 net.cpp:163] Setting up inception_3b/relu_double_3x3_2
I0416 11:56:02.647238   977 net.cpp:170] Top shape: 10 256 9 4 (92160)
I0416 11:56:02.647244   977 layer_factory.hpp:74] Creating layer inception_3b/pool
I0416 11:56:02.647248   977 layer_factory.cpp:64] CUDNN does not support padding or multiple tops. Using Caffe's own pooling layer.
I0416 11:56:02.647251   977 net.cpp:133] Creating Layer inception_3b/pool
I0416 11:56:02.647254   977 net.cpp:453] inception_3b/pool <- inception_3a/output_inception_3a/output_0_split_2
I0416 11:56:02.647258   977 net.cpp:411] inception_3b/pool -> inception_3b/pool
I0416 11:56:02.647261   977 net.cpp:163] Setting up inception_3b/pool
I0416 11:56:02.647266   977 net.cpp:170] Top shape: 10 1024 9 4 (368640)
I0416 11:56:02.647269   977 layer_factory.hpp:74] Creating layer inception_3b/output
I0416 11:56:02.647271   977 net.cpp:133] Creating Layer inception_3b/output
I0416 11:56:02.647274   977 net.cpp:453] inception_3b/output <- inception_3b/3x3_bn
I0416 11:56:02.647275   977 net.cpp:453] inception_3b/output <- inception_3b/double_3x3_2_bn
I0416 11:56:02.647279   977 net.cpp:453] inception_3b/output <- inception_3b/pool
I0416 11:56:02.647280   977 net.cpp:411] inception_3b/output -> inception_3b/output
I0416 11:56:02.647284   977 net.cpp:163] Setting up inception_3b/output
I0416 11:56:02.647287   977 net.cpp:170] Top shape: 10 1536 9 4 (552960)
I0416 11:56:02.647290   977 layer_factory.hpp:74] Creating layer global_pool
I0416 11:56:02.647294   977 net.cpp:133] Creating Layer global_pool
I0416 11:56:02.647297   977 net.cpp:453] global_pool <- inception_3b/output
I0416 11:56:02.647302   977 net.cpp:411] global_pool -> global_pool
I0416 11:56:02.647310   977 net.cpp:163] Setting up global_pool
I0416 11:56:02.647441   977 net.cpp:170] Top shape: 10 1536 1 1 (15360)
I0416 11:56:02.647447   977 layer_factory.hpp:74] Creating layer gather_global_pool_to_fc7
I0416 11:56:02.647451   977 net.cpp:133] Creating Layer gather_global_pool_to_fc7
I0416 11:56:02.647454   977 net.cpp:453] gather_global_pool_to_fc7 <- global_pool
I0416 11:56:02.647456   977 net.cpp:411] gather_global_pool_to_fc7 -> gathered_global_pool
I0416 11:56:02.647459   977 net.cpp:163] Setting up gather_global_pool_to_fc7
I0416 11:56:02.647462   977 net.cpp:170] Top shape: 20 1536 1 1 (30720)
I0416 11:56:02.647464   977 layer_factory.hpp:74] Creating layer fc7
I0416 11:56:02.647469   977 net.cpp:133] Creating Layer fc7
I0416 11:56:02.647469   977 net.cpp:453] fc7 <- gathered_global_pool
I0416 11:56:02.647472   977 net.cpp:411] fc7 -> fc7
I0416 11:56:02.647476   977 net.cpp:163] Setting up fc7
I0416 11:56:02.649040   977 net.cpp:170] Top shape: 20 256 (5120)
I0416 11:56:02.649049   977 layer_factory.hpp:74] Creating layer fc7_bn
I0416 11:56:02.649050   977 layer_factory.cpp:191] Layer fc7_bn is using CAFFE engine.
I0416 11:56:02.649055   977 net.cpp:133] Creating Layer fc7_bn
I0416 11:56:02.649056   977 net.cpp:453] fc7_bn <- fc7
I0416 11:56:02.649060   977 net.cpp:411] fc7_bn -> fc7_bn
I0416 11:56:02.649065   977 net.cpp:163] Setting up fc7_bn
I0416 11:56:02.649072   977 net.cpp:170] Top shape: 20 256 (5120)
I0416 11:56:02.649076   977 layer_factory.hpp:74] Creating layer relu7
I0416 11:56:02.649085   977 net.cpp:133] Creating Layer relu7
I0416 11:56:02.649087   977 net.cpp:453] relu7 <- fc7_bn
I0416 11:56:02.649091   977 net.cpp:400] relu7 -> fc7_bn (in-place)
I0416 11:56:02.649096   977 net.cpp:163] Setting up relu7
I0416 11:56:02.649310   977 net.cpp:170] Top shape: 20 256 (5120)
I0416 11:56:02.649317   977 layer_factory.hpp:74] Creating layer drop7
I0416 11:56:02.649320   977 net.cpp:133] Creating Layer drop7
I0416 11:56:02.649322   977 net.cpp:453] drop7 <- fc7_bn
I0416 11:56:02.649325   977 net.cpp:400] drop7 -> fc7_bn (in-place)
I0416 11:56:02.649328   977 net.cpp:163] Setting up drop7
I0416 11:56:02.649332   977 net.cpp:170] Top shape: 20 256 (5120)
I0416 11:56:02.649333   977 layer_factory.hpp:74] Creating layer fc8_cuhk03
I0416 11:56:02.649336   977 net.cpp:133] Creating Layer fc8_cuhk03
I0416 11:56:02.649338   977 net.cpp:453] fc8_cuhk03 <- fc7_bn
I0416 11:56:02.649341   977 net.cpp:411] fc8_cuhk03 -> fc8_cuhk03
I0416 11:56:02.649345   977 net.cpp:163] Setting up fc8_cuhk03
I0416 11:56:02.651907   977 net.cpp:170] Top shape: 20 1467 (29340)
I0416 11:56:02.651914   977 layer_factory.hpp:74] Creating layer fc8_cuhk03_fc8_cuhk03_0_split
I0416 11:56:02.651918   977 net.cpp:133] Creating Layer fc8_cuhk03_fc8_cuhk03_0_split
I0416 11:56:02.651921   977 net.cpp:453] fc8_cuhk03_fc8_cuhk03_0_split <- fc8_cuhk03
I0416 11:56:02.651924   977 net.cpp:411] fc8_cuhk03_fc8_cuhk03_0_split -> fc8_cuhk03_fc8_cuhk03_0_split_0
I0416 11:56:02.651927   977 net.cpp:411] fc8_cuhk03_fc8_cuhk03_0_split -> fc8_cuhk03_fc8_cuhk03_0_split_1
I0416 11:56:02.651932   977 net.cpp:163] Setting up fc8_cuhk03_fc8_cuhk03_0_split
I0416 11:56:02.651933   977 net.cpp:170] Top shape: 20 1467 (29340)
I0416 11:56:02.651935   977 net.cpp:170] Top shape: 20 1467 (29340)
I0416 11:56:02.651937   977 layer_factory.hpp:74] Creating layer gather_label_data_1_split_to_loss
I0416 11:56:02.651940   977 net.cpp:133] Creating Layer gather_label_data_1_split_to_loss
I0416 11:56:02.651942   977 net.cpp:453] gather_label_data_1_split_to_loss <- label_data_1_split_0
I0416 11:56:02.651944   977 net.cpp:411] gather_label_data_1_split_to_loss -> gathered_label_data_1_split_0
I0416 11:56:02.651947   977 net.cpp:163] Setting up gather_label_data_1_split_to_loss
I0416 11:56:02.651950   977 net.cpp:170] Top shape: 20 (20)
I0416 11:56:02.651952   977 layer_factory.hpp:74] Creating layer loss
I0416 11:56:02.651955   977 net.cpp:133] Creating Layer loss
I0416 11:56:02.651959   977 net.cpp:453] loss <- fc8_cuhk03_fc8_cuhk03_0_split_0
I0416 11:56:02.651964   977 net.cpp:453] loss <- gathered_label_data_1_split_0
I0416 11:56:02.651968   977 net.cpp:411] loss -> loss
I0416 11:56:02.651973   977 net.cpp:163] Setting up loss
I0416 11:56:02.651978   977 layer_factory.hpp:74] Creating layer loss
I0416 11:56:02.652144   977 net.cpp:170] Top shape: (1)
I0416 11:56:02.652149   977 net.cpp:172]     with loss weight 1
I0416 11:56:02.652154   977 layer_factory.hpp:74] Creating layer gather_label_data_1_split_to_accuracy
I0416 11:56:02.652158   977 net.cpp:133] Creating Layer gather_label_data_1_split_to_accuracy
I0416 11:56:02.652159   977 net.cpp:453] gather_label_data_1_split_to_accuracy <- label_data_1_split_1
I0416 11:56:02.652163   977 net.cpp:411] gather_label_data_1_split_to_accuracy -> gathered_label_data_1_split_1
I0416 11:56:02.652166   977 net.cpp:163] Setting up gather_label_data_1_split_to_accuracy
I0416 11:56:02.652169   977 net.cpp:170] Top shape: 20 (20)
I0416 11:56:02.652170   977 layer_factory.hpp:74] Creating layer accuracy
I0416 11:56:02.652173   977 net.cpp:133] Creating Layer accuracy
I0416 11:56:02.652175   977 net.cpp:453] accuracy <- fc8_cuhk03_fc8_cuhk03_0_split_1
I0416 11:56:02.652178   977 net.cpp:453] accuracy <- gathered_label_data_1_split_1
I0416 11:56:02.652184   977 net.cpp:411] accuracy -> accuracy
I0416 11:56:02.652187   977 net.cpp:163] Setting up accuracy
…
