…
I0417 17:18:18.535344  3043 net.cpp:330] The NetState phase (0) differed from the phase (1) specified by a rule in layer accuracy
I0417 17:18:18.535955  3043 net.cpp:47] Initializing net from parameters: 
name: "3DPeS"
state {
  phase: TRAIN
}
richness: 1000
layer {
  name: "data"
  type: "Data"
  top: "data"
  top: "label"
  include {
    phase: TRAIN
  }
  transform_param {
    mirror: true
    mean_value: 102
    mean_value: 102
    mean_value: 101
    crop_height: 144
    crop_width: 56
  }
  data_param {
    source: "external/exp/db/3dpes/train_lmdb"
    batch_size: 50
    backend: LMDB
    shuffle_pool_size: 10
  }
}
layer {
  name: "conv1"
  type: "Convolution"
  bottom: "data"
  top: "conv1"
  param {
    lr_mult: 1
    decay_mult: 1
  }
  param {
    lr_mult: 2
    decay_mult: 0
  }
  convolution_param {
    num_output: 32
    pad: 1
    kernel_size: 3
    stride: 1
    weight_filler {
      type: "xavier"
    }
    bias_filler {
      type: "constant"
      value: 0.2
    }
  }
}
layer {
  name: "conv1_bn"
  type: "BN"
  bottom: "conv1"
  top: "conv1_bn"
  param {
    lr_mult: 1
    decay_mult: 0
  }
  param {
    lr_mult: 1
    decay_mult: 0
  }
  bn_param {
    slope_filler {
      type: "constant"
      value: 1
    }
    bias_filler {
      type: "constant"
      value: 0
    }
  }
}
layer {
  name: "relu1"
  type: "ReLU"
  bottom: "conv1_bn"
  top: "conv1_bn"
}
layer {
  name: "conv2"
  type: "Convolution"
  bottom: "conv1_bn"
  top: "conv2"
  param {
    lr_mult: 1
    decay_mult: 1
  }
  param {
    lr_mult: 2
    decay_mult: 0
  }
  convolution_param {
    num_output: 32
    pad: 1
    kernel_size: 3
    stride: 1
    weight_filler {
      type: "xavier"
    }
    bias_filler {
      type: "constant"
      value: 0.2
    }
  }
}
layer {
  name: "conv2_bn"
  type: "BN"
  bottom: "conv2"
  top: "conv2_bn"
  param {
    lr_mult: 1
    decay_mult: 0
  }
  param {
    lr_mult: 1
    decay_mult: 0
  }
  bn_param {
    slope_filler {
      type: "constant"
      value: 1
    }
    bias_filler {
      type: "constant"
      value: 0
    }
  }
}
layer {
  name: "relu2"
  type: "ReLU"
  bottom: "conv2_bn"
  top: "conv2_bn"
}
layer {
  name: "conv3"
  type: "Convolution"
  bottom: "conv2_bn"
  top: "conv3"
  param {
    lr_mult: 1
    decay_mult: 1
  }
  param {
    lr_mult: 2
    decay_mult: 0
  }
  convolution_param {
    num_output: 32
    pad: 1
    kernel_size: 3
    stride: 1
    weight_filler {
      type: "xavier"
    }
    bias_filler {
      type: "constant"
      value: 0.2
    }
  }
}
layer {
  name: "conv3_bn"
  type: "BN"
  bottom: "conv3"
  top: "conv3_bn"
  param {
    lr_mult: 1
    decay_mult: 0
  }
  param {
    lr_mult: 1
    decay_mult: 0
  }
  bn_param {
    slope_filler {
      type: "constant"
      value: 1
    }
    bias_filler {
      type: "constant"
      value: 0
    }
  }
}
layer {
  name: "relu3"
  type: "ReLU"
  bottom: "conv3_bn"
  top: "conv3_bn"
}
layer {
  name: "pool1"
  type: "Pooling"
  bottom: "conv3_bn"
  top: "pool1"
  pooling_param {
    pool: MAX
    kernel_size: 2
    stride: 2
  }
}
layer {
  name: "inception_1a/1x1"
  type: "Convolution"
  bottom: "pool1"
  top: "inception_1a/1x1"
  param {
    lr_mult: 1
    decay_mult: 1
  }
  param {
    lr_mult: 2
    decay_mult: 0
  }
  convolution_param {
    num_output: 64
    kernel_size: 1
    weight_filler {
      type: "xavier"
    }
    bias_filler {
      type: "constant"
      value: 0.2
    }
  }
}
layer {
  name: "inception_1a/1x1_bn"
  type: "BN"
  bottom: "inception_1a/1x1"
  top: "inception_1a/1x1_bn"
  param {
    lr_mult: 1
    decay_mult: 0
  }
  param {
    lr_mult: 1
    decay_mult: 0
  }
  bn_param {
    slope_filler {
      type: "constant"
      value: 1
    }
    bias_filler {
      type: "constant"
      value: 0
    }
  }
}
layer {
  name: "inception_1a/relu_1x1"
  type: "ReLU"
  bottom: "inception_1a/1x1_bn"
  top: "inception_1a/1x1_bn"
}
layer {
  name: "inception_1a/3x3_reduce"
  type: "Convolution"
  bottom: "pool1"
  top: "inception_1a/3x3_reduce"
  param {
    lr_mult: 1
    decay_mult: 1
  }
  param {
    lr_mult: 2
    decay_mult: 0
  }
  convolution_param {
    num_output: 64
    kernel_size: 1
    weight_filler {
      type: "xavier"
    }
    bias_filler {
      type: "constant"
      value: 0.2
    }
  }
}
layer {
  name: "inception_1a/3x3_reduce_bn"
  type: "BN"
  bottom: "inception_1a/3x3_reduce"
  top: "inception_1a/3x3_reduce_bn"
  param {
    lr_mult: 1
    decay_mult: 0
  }
  param {
    lr_mult: 1
    decay_mult: 0
  }
  bn_param {
    slope_filler {
      type: "constant"
      value: 1
    }
    bias_filler {
      type: "constant"
      value: 0
    }
  }
}
layer {
  name: "inception_1a/relu_3x3_reduce"
  type: "ReLU"
  bottom: "inception_1a/3x3_reduce_bn"
  top: "inception_1a/3x3_reduce_bn"
}
layer {
  name: "inception_1a/3x3"
  type: "Convolution"
  bottom: "inception_1a/3x3_reduce_bn"
  top: "inception_1a/3x3"
  param {
    lr_mult: 1
    decay_mult: 1
  }
  param {
    lr_mult: 2
    decay_mult: 0
  }
  convolution_param {
    num_output: 64
    pad: 1
    kernel_size: 3
    weight_filler {
      type: "xavier"
    }
    bias_filler {
      type: "constant"
      value: 0.2
    }
  }
}
layer {
  name: "inception_1a/3x3_bn"
  type: "BN"
  bottom: "inception_1a/3x3"
  top: "inception_1a/3x3_bn"
  param {
    lr_mult: 1
    decay_mult: 0
  }
  param {
    lr_mult: 1
    decay_mult: 0
  }
  bn_param {
    slope_filler {
      type: "constant"
      value: 1
    }
    bias_filler {
      type: "constant"
      value: 0
    }
  }
}
layer {
  name: "inception_1a/relu_3x3"
  type: "ReLU"
  bottom: "inception_1a/3x3_bn"
  top: "inception_1a/3x3_bn"
}
layer {
  name: "inception_1a/double_3x3_reduce"
  type: "Convolution"
  bottom: "pool1"
  top: "inception_1a/double_3x3_reduce"
  param {
    lr_mult: 1
    decay_mult: 1
  }
  param {
    lr_mult: 2
    decay_mult: 0
  }
  convolution_param {
    num_output: 64
    kernel_size: 1
    weight_filler {
      type: "xavier"
    }
    bias_filler {
      type: "constant"
      value: 0.2
    }
  }
}
layer {
  name: "inception_1a/double_3x3_reduce_bn"
  type: "BN"
  bottom: "inception_1a/double_3x3_reduce"
  top: "inception_1a/double_3x3_reduce_bn"
  param {
    lr_mult: 1
    decay_mult: 0
  }
  param {
    lr_mult: 1
    decay_mult: 0
  }
  bn_param {
    slope_filler {
      type: "constant"
      value: 1
    }
    bias_filler {
      type: "constant"
      value: 0
    }
  }
}
layer {
  name: "inception_1a/relu_double_3x3_reduce"
  type: "ReLU"
  bottom: "inception_1a/double_3x3_reduce_bn"
  top: "inception_1a/double_3x3_reduce_bn"
}
layer {
  name: "inception_1a/double_3x3_1"
  type: "Convolution"
  bottom: "inception_1a/double_3x3_reduce_bn"
  top: "inception_1a/double_3x3_1"
  param {
    lr_mult: 1
    decay_mult: 1
  }
  param {
    lr_mult: 2
    decay_mult: 0
  }
  convolution_param {
    num_output: 64
    pad: 1
    kernel_size: 3
    weight_filler {
      type: "xavier"
    }
    bias_filler {
      type: "constant"
      value: 0.2
    }
  }
}
layer {
  name: "inception_1a/double_3x3_1_bn"
  type: "BN"
  bottom: "inception_1a/double_3x3_1"
  top: "inception_1a/double_3x3_1_bn"
  param {
    lr_mult: 1
    decay_mult: 0
  }
  param {
    lr_mult: 1
    decay_mult: 0
  }
  bn_param {
    slope_filler {
      type: "constant"
      value: 1
    }
    bias_filler {
      type: "constant"
      value: 0
    }
  }
}
layer {
  name: "inception_1a/relu_double_3x3_1"
  type: "ReLU"
  bottom: "inception_1a/double_3x3_1_bn"
  top: "inception_1a/double_3x3_1_bn"
}
layer {
  name: "inception_1a/double_3x3_2"
  type: "Convolution"
  bottom: "inception_1a/double_3x3_1_bn"
  top: "inception_1a/double_3x3_2"
  param {
    lr_mult: 1
    decay_mult: 1
  }
  param {
    lr_mult: 2
    decay_mult: 0
  }
  convolution_param {
    num_output: 64
    pad: 1
    kernel_size: 3
    weight_filler {
      type: "xavier"
    }
    bias_filler {
      type: "constant"
      value: 0.2
    }
  }
}
layer {
  name: "inception_1a/double_3x3_2_bn"
  type: "BN"
  bottom: "inception_1a/double_3x3_2"
  top: "inception_1a/double_3x3_2_bn"
  param {
    lr_mult: 1
    decay_mult: 0
  }
  param {
    lr_mult: 1
    decay_mult: 0
  }
  bn_param {
    slope_filler {
      type: "constant"
      value: 1
    }
    bias_filler {
      type: "constant"
      value: 0
    }
  }
}
layer {
  name: "inception_1a/relu_double_3x3_2"
  type: "ReLU"
  bottom: "inception_1a/double_3x3_2_bn"
  top: "inception_1a/double_3x3_2_bn"
}
layer {
  name: "inception_1a/pool"
  type: "Pooling"
  bottom: "pool1"
  top: "inception_1a/pool"
  pooling_param {
    pool: AVE
    kernel_size: 3
    stride: 1
    pad: 1
  }
}
layer {
  name: "inception_1a/pool_proj"
  type: "Convolution"
  bottom: "inception_1a/pool"
  top: "inception_1a/pool_proj"
  param {
    lr_mult: 1
    decay_mult: 1
  }
  param {
    lr_mult: 2
    decay_mult: 0
  }
  convolution_param {
    num_output: 64
    kernel_size: 1
    weight_filler {
      type: "xavier"
    }
    bias_filler {
      type: "constant"
      value: 0.2
    }
  }
}
layer {
  name: "inception_1a/pool_proj_bn"
  type: "BN"
  bottom: "inception_1a/pool_proj"
  top: "inception_1a/pool_proj_bn"
  param {
    lr_mult: 1
    decay_mult: 0
  }
  param {
    lr_mult: 1
    decay_mult: 0
  }
  bn_param {
    slope_filler {
      type: "constant"
      value: 1
    }
    bias_filler {
      type: "constant"
      value: 0
    }
  }
}
layer {
  name: "inception_1a/relu_pool_proj"
  type: "ReLU"
  bottom: "inception_1a/pool_proj_bn"
  top: "inception_1a/pool_proj_bn"
}
layer {
  name: "inception_1a/output"
  type: "Concat"
  bottom: "inception_1a/1x1_bn"
  bottom: "inception_1a/3x3_bn"
  bottom: "inception_1a/double_3x3_2_bn"
  bottom: "inception_1a/pool_proj_bn"
  top: "inception_1a/output"
}
layer {
  name: "inception_1b/3x3_reduce"
  type: "Convolution"
  bottom: "inception_1a/output"
  top: "inception_1b/3x3_reduce"
  param {
    lr_mult: 1
    decay_mult: 1
  }
  param {
    lr_mult: 2
    decay_mult: 0
  }
  convolution_param {
    num_output: 64
    kernel_size: 1
    weight_filler {
      type: "xavier"
    }
    bias_filler {
      type: "constant"
      value: 0.2
    }
  }
}
layer {
  name: "inception_1b/3x3_reduce_bn"
  type: "BN"
  bottom: "inception_1b/3x3_reduce"
  top: "inception_1b/3x3_reduce_bn"
  param {
    lr_mult: 1
    decay_mult: 0
  }
  param {
    lr_mult: 1
    decay_mult: 0
  }
  bn_param {
    slope_filler {
      type: "constant"
      value: 1
    }
    bias_filler {
      type: "constant"
      value: 0
    }
  }
}
layer {
  name: "inception_1b/relu_3x3_reduce"
  type: "ReLU"
  bottom: "inception_1b/3x3_reduce_bn"
  top: "inception_1b/3x3_reduce_bn"
}
layer {
  name: "inception_1b/3x3"
  type: "Convolution"
  bottom: "inception_1b/3x3_reduce_bn"
  top: "inception_1b/3x3"
  param {
    lr_mult: 1
    decay_mult: 1
  }
  param {
    lr_mult: 2
    decay_mult: 0
  }
  convolution_param {
    num_output: 64
    pad: 1
    kernel_size: 3
    stride: 2
    weight_filler {
      type: "xavier"
    }
    bias_filler {
      type: "constant"
      value: 0.2
    }
  }
}
layer {
  name: "inception_1b/3x3_bn"
  type: "BN"
  bottom: "inception_1b/3x3"
  top: "inception_1b/3x3_bn"
  param {
    lr_mult: 1
    decay_mult: 0
  }
  param {
    lr_mult: 1
    decay_mult: 0
  }
  bn_param {
    slope_filler {
      type: "constant"
      value: 1
    }
    bias_filler {
      type: "constant"
      value: 0
    }
  }
}
layer {
  name: "inception_1b/relu_3x3"
  type: "ReLU"
  bottom: "inception_1b/3x3_bn"
  top: "inception_1b/3x3_bn"
}
layer {
  name: "inception_1b/double_3x3_reduce"
  type: "Convolution"
  bottom: "inception_1a/output"
  top: "inception_1b/double_3x3_reduce"
  param {
    lr_mult: 1
    decay_mult: 1
  }
  param {
    lr_mult: 2
    decay_mult: 0
  }
  convolution_param {
    num_output: 64
    kernel_size: 1
    weight_filler {
      type: "xavier"
    }
    bias_filler {
      type: "constant"
      value: 0.2
    }
  }
}
layer {
  name: "inception_1b/double_3x3_reduce_bn"
  type: "BN"
  bottom: "inception_1b/double_3x3_reduce"
  top: "inception_1b/double_3x3_reduce_bn"
  param {
    lr_mult: 1
    decay_mult: 0
  }
  param {
    lr_mult: 1
    decay_mult: 0
  }
  bn_param {
    slope_filler {
      type: "constant"
      value: 1
    }
    bias_filler {
      type: "constant"
      value: 0
    }
  }
}
layer {
  name: "inception_1b/relu_double_3x3_reduce"
  type: "ReLU"
  bottom: "inception_1b/double_3x3_reduce_bn"
  top: "inception_1b/double_3x3_reduce_bn"
}
layer {
  name: "inception_1b/double_3x3_1"
  type: "Convolution"
  bottom: "inception_1b/double_3x3_reduce_bn"
  top: "inception_1b/double_3x3_1"
  param {
    lr_mult: 1
    decay_mult: 1
  }
  param {
    lr_mult: 2
    decay_mult: 0
  }
  convolution_param {
    num_output: 64
    pad: 1
    kernel_size: 3
    weight_filler {
      type: "xavier"
    }
    bias_filler {
      type: "constant"
      value: 0.2
    }
  }
}
layer {
  name: "inception_1b/double_3x3_1_bn"
  type: "BN"
  bottom: "inception_1b/double_3x3_1"
  top: "inception_1b/double_3x3_1_bn"
  param {
    lr_mult: 1
    decay_mult: 0
  }
  param {
    lr_mult: 1
    decay_mult: 0
  }
  bn_param {
    slope_filler {
      type: "constant"
      value: 1
    }
    bias_filler {
      type: "constant"
      value: 0
    }
  }
}
layer {
  name: "inception_1b/relu_double_3x3_1"
  type: "ReLU"
  bottom: "inception_1b/double_3x3_1_bn"
  top: "inception_1b/double_3x3_1_bn"
}
layer {
  name: "inception_1b/double_3x3_2"
  type: "Convolution"
  bottom: "inception_1b/double_3x3_1_bn"
  top: "inception_1b/double_3x3_2"
  param {
    lr_mult: 1
    decay_mult: 1
  }
  param {
    lr_mult: 2
    decay_mult: 0
  }
  convolution_param {
    num_output: 64
    pad: 1
    kernel_size: 3
    stride: 2
    weight_filler {
      type: "xavier"
    }
    bias_filler {
      type: "constant"
      value: 0.2
    }
  }
}
layer {
  name: "inception_1b/double_3x3_2_bn"
  type: "BN"
  bottom: "inception_1b/double_3x3_2"
  top: "inception_1b/double_3x3_2_bn"
  param {
    lr_mult: 1
    decay_mult: 0
  }
  param {
    lr_mult: 1
    decay_mult: 0
  }
  bn_param {
    slope_filler {
      type: "constant"
      value: 1
    }
    bias_filler {
      type: "constant"
      value: 0
    }
  }
}
layer {
  name: "inception_1b/relu_double_3x3_2"
  type: "ReLU"
  bottom: "inception_1b/double_3x3_2_bn"
  top: "inception_1b/double_3x3_2_bn"
}
layer {
  name: "inception_1b/pool"
  type: "Pooling"
  bottom: "inception_1a/output"
  top: "inception_1b/pool"
  pooling_param {
    pool: MAX
    kernel_size: 3
    stride: 2
  }
}
layer {
  name: "inception_1b/output"
  type: "Concat"
  bottom: "inception_1b/3x3_bn"
  bottom: "inception_1b/double_3x3_2_bn"
  bottom: "inception_1b/pool"
  top: "inception_1b/output"
}
layer {
  name: "inception_2a/1x1"
  type: "Convolution"
  bottom: "inception_1b/output"
  top: "inception_2a/1x1"
  param {
    lr_mult: 1
    decay_mult: 1
  }
  param {
    lr_mult: 2
    decay_mult: 0
  }
  convolution_param {
    num_output: 128
    kernel_size: 1
    weight_filler {
      type: "xavier"
    }
    bias_filler {
      type: "constant"
      value: 0.2
    }
  }
}
layer {
  name: "inception_2a/1x1_bn"
  type: "BN"
  bottom: "inception_2a/1x1"
  top: "inception_2a/1x1_bn"
  param {
    lr_mult: 1
    decay_mult: 0
  }
  param {
    lr_mult: 1
    decay_mult: 0
  }
  bn_param {
    slope_filler {
      type: "constant"
      value: 1
    }
    bias_filler {
      type: "constant"
      value: 0
    }
  }
}
layer {
  name: "inception_2a/relu_1x1"
  type: "ReLU"
  bottom: "inception_2a/1x1_bn"
  top: "inception_2a/1x1_bn"
}
layer {
  name: "inception_2a/3x3_reduce"
  type: "Convolution"
  bottom: "inception_1b/output"
  top: "inception_2a/3x3_reduce"
  param {
    lr_mult: 1
    decay_mult: 1
  }
  param {
    lr_mult: 2
    decay_mult: 0
  }
  convolution_param {
    num_output: 128
    kernel_size: 1
    weight_filler {
      type: "xavier"
    }
    bias_filler {
      type: "constant"
      value: 0.2
    }
  }
}
layer {
  name: "inception_2a/3x3_reduce_bn"
  type: "BN"
  bottom: "inception_2a/3x3_reduce"
  top: "inception_2a/3x3_reduce_bn"
  param {
    lr_mult: 1
    decay_mult: 0
  }
  param {
    lr_mult: 1
    decay_mult: 0
  }
  bn_param {
    slope_filler {
      type: "constant"
      value: 1
    }
    bias_filler {
      type: "constant"
      value: 0
    }
  }
}
layer {
  name: "inception_2a/relu_3x3_reduce"
  type: "ReLU"
  bottom: "inception_2a/3x3_reduce_bn"
  top: "inception_2a/3x3_reduce_bn"
}
layer {
  name: "inception_2a/3x3"
  type: "Convolution"
  bottom: "inception_2a/3x3_reduce_bn"
  top: "inception_2a/3x3"
  param {
    lr_mult: 1
    decay_mult: 1
  }
  param {
    lr_mult: 2
    decay_mult: 0
  }
  convolution_param {
    num_output: 128
    pad: 1
    kernel_size: 3
    weight_filler {
      type: "xavier"
    }
    bias_filler {
      type: "constant"
      value: 0.2
    }
  }
}
layer {
  name: "inception_2a/3x3_bn"
  type: "BN"
  bottom: "inception_2a/3x3"
  top: "inception_2a/3x3_bn"
  param {
    lr_mult: 1
    decay_mult: 0
  }
  param {
    lr_mult: 1
    decay_mult: 0
  }
  bn_param {
    slope_filler {
      type: "constant"
      value: 1
    }
    bias_filler {
      type: "constant"
      value: 0
    }
  }
}
layer {
  name: "inception_2a/relu_3x3"
  type: "ReLU"
  bottom: "inception_2a/3x3_bn"
  top: "inception_2a/3x3_bn"
}
layer {
  name: "inception_2a/double_3x3_reduce"
  type: "Convolution"
  bottom: "inception_1b/output"
  top: "inception_2a/double_3x3_reduce"
  param {
    lr_mult: 1
    decay_mult: 1
  }
  param {
    lr_mult: 2
    decay_mult: 0
  }
  convolution_param {
    num_output: 128
    kernel_size: 1
    weight_filler {
      type: "xavier"
    }
    bias_filler {
      type: "constant"
      value: 0.2
    }
  }
}
layer {
  name: "inception_2a/double_3x3_reduce_bn"
  type: "BN"
  bottom: "inception_2a/double_3x3_reduce"
  top: "inception_2a/double_3x3_reduce_bn"
  param {
    lr_mult: 1
    decay_mult: 0
  }
  param {
    lr_mult: 1
    decay_mult: 0
  }
  bn_param {
    slope_filler {
      type: "constant"
      value: 1
    }
    bias_filler {
      type: "constant"
      value: 0
    }
  }
}
layer {
  name: "inception_2a/relu_double_3x3_reduce"
  type: "ReLU"
  bottom: "inception_2a/double_3x3_reduce_bn"
  top: "inception_2a/double_3x3_reduce_bn"
}
layer {
  name: "inception_2a/double_3x3_1"
  type: "Convolution"
  bottom: "inception_2a/double_3x3_reduce_bn"
  top: "inception_2a/double_3x3_1"
  param {
    lr_mult: 1
    decay_mult: 1
  }
  param {
    lr_mult: 2
    decay_mult: 0
  }
  convolution_param {
    num_output: 128
    pad: 1
    kernel_size: 3
    weight_filler {
      type: "xavier"
    }
    bias_filler {
      type: "constant"
      value: 0.2
    }
  }
}
layer {
  name: "inception_2a/double_3x3_1_bn"
  type: "BN"
  bottom: "inception_2a/double_3x3_1"
  top: "inception_2a/double_3x3_1_bn"
  param {
    lr_mult: 1
    decay_mult: 0
  }
  param {
    lr_mult: 1
    decay_mult: 0
  }
  bn_param {
    slope_filler {
      type: "constant"
      value: 1
    }
    bias_filler {
      type: "constant"
      value: 0
    }
  }
}
layer {
  name: "inception_2a/relu_double_3x3_1"
  type: "ReLU"
  bottom: "inception_2a/double_3x3_1_bn"
  top: "inception_2a/double_3x3_1_bn"
}
layer {
  name: "inception_2a/double_3x3_2"
  type: "Convolution"
  bottom: "inception_2a/double_3x3_1_bn"
  top: "inception_2a/double_3x3_2"
  param {
    lr_mult: 1
    decay_mult: 1
  }
  param {
    lr_mult: 2
    decay_mult: 0
  }
  convolution_param {
    num_output: 128
    pad: 1
    kernel_size: 3
    weight_filler {
      type: "xavier"
    }
    bias_filler {
      type: "constant"
      value: 0.2
    }
  }
}
layer {
  name: "inception_2a/double_3x3_2_bn"
  type: "BN"
  bottom: "inception_2a/double_3x3_2"
  top: "inception_2a/double_3x3_2_bn"
  param {
    lr_mult: 1
    decay_mult: 0
  }
  param {
    lr_mult: 1
    decay_mult: 0
  }
  bn_param {
    slope_filler {
      type: "constant"
      value: 1
    }
    bias_filler {
      type: "constant"
      value: 0
    }
  }
}
layer {
  name: "inception_2a/relu_double_3x3_2"
  type: "ReLU"
  bottom: "inception_2a/double_3x3_2_bn"
  top: "inception_2a/double_3x3_2_bn"
}
layer {
  name: "inception_2a/pool"
  type: "Pooling"
  bottom: "inception_1b/output"
  top: "inception_2a/pool"
  pooling_param {
    pool: AVE
    kernel_size: 3
    stride: 1
    pad: 1
  }
}
layer {
  name: "inception_2a/pool_proj"
  type: "Convolution"
  bottom: "inception_2a/pool"
  top: "inception_2a/pool_proj"
  param {
    lr_mult: 1
    decay_mult: 1
  }
  param {
    lr_mult: 2
    decay_mult: 0
  }
  convolution_param {
    num_output: 128
    kernel_size: 1
    weight_filler {
      type: "xavier"
    }
    bias_filler {
      type: "constant"
      value: 0.2
    }
  }
}
layer {
  name: "inception_2a/pool_proj_bn"
  type: "BN"
  bottom: "inception_2a/pool_proj"
  top: "inception_2a/pool_proj_bn"
  param {
    lr_mult: 1
    decay_mult: 0
  }
  param {
    lr_mult: 1
    decay_mult: 0
  }
  bn_param {
    slope_filler {
      type: "constant"
      value: 1
    }
    bias_filler {
      type: "constant"
      value: 0
    }
  }
}
layer {
  name: "inception_2a/relu_pool_proj"
  type: "ReLU"
  bottom: "inception_2a/pool_proj_bn"
  top: "inception_2a/pool_proj_bn"
}
layer {
  name: "inception_2a/output"
  type: "Concat"
  bottom: "inception_2a/1x1_bn"
  bottom: "inception_2a/3x3_bn"
  bottom: "inception_2a/double_3x3_2_bn"
  bottom: "inception_2a/pool_proj_bn"
  top: "inception_2a/output"
}
layer {
  name: "inception_2b/3x3_reduce"
  type: "Convolution"
  bottom: "inception_2a/output"
  top: "inception_2b/3x3_reduce"
  param {
    lr_mult: 1
    decay_mult: 1
  }
  param {
    lr_mult: 2
    decay_mult: 0
  }
  convolution_param {
    num_output: 128
    kernel_size: 1
    weight_filler {
      type: "xavier"
    }
    bias_filler {
      type: "constant"
      value: 0.2
    }
  }
}
layer {
  name: "inception_2b/3x3_reduce_bn"
  type: "BN"
  bottom: "inception_2b/3x3_reduce"
  top: "inception_2b/3x3_reduce_bn"
  param {
    lr_mult: 1
    decay_mult: 0
  }
  param {
    lr_mult: 1
    decay_mult: 0
  }
  bn_param {
    slope_filler {
      type: "constant"
      value: 1
    }
    bias_filler {
      type: "constant"
      value: 0
    }
  }
}
layer {
  name: "inception_2b/relu_3x3_reduce"
  type: "ReLU"
  bottom: "inception_2b/3x3_reduce_bn"
  top: "inception_2b/3x3_reduce_bn"
}
layer {
  name: "inception_2b/3x3"
  type: "Convolution"
  bottom: "inception_2b/3x3_reduce_bn"
  top: "inception_2b/3x3"
  param {
    lr_mult: 1
    decay_mult: 1
  }
  param {
    lr_mult: 2
    decay_mult: 0
  }
  convolution_param {
    num_output: 128
    pad: 1
    kernel_size: 3
    stride: 2
    weight_filler {
      type: "xavier"
    }
    bias_filler {
      type: "constant"
      value: 0.2
    }
  }
}
layer {
  name: "inception_2b/3x3_bn"
  type: "BN"
  bottom: "inception_2b/3x3"
  top: "inception_2b/3x3_bn"
  param {
    lr_mult: 1
    decay_mult: 0
  }
  param {
    lr_mult: 1
    decay_mult: 0
  }
  bn_param {
    slope_filler {
      type: "constant"
      value: 1
    }
    bias_filler {
      type: "constant"
      value: 0
    }
  }
}
layer {
  name: "inception_2b/relu_3x3"
  type: "ReLU"
  bottom: "inception_2b/3x3_bn"
  top: "inception_2b/3x3_bn"
}
layer {
  name: "inception_2b/double_3x3_reduce"
  type: "Convolution"
  bottom: "inception_2a/output"
  top: "inception_2b/double_3x3_reduce"
  param {
    lr_mult: 1
    decay_mult: 1
  }
  param {
    lr_mult: 2
    decay_mult: 0
  }
  convolution_param {
    num_output: 128
    kernel_size: 1
    weight_filler {
      type: "xavier"
    }
    bias_filler {
      type: "constant"
      value: 0.2
    }
  }
}
layer {
  name: "inception_2b/double_3x3_reduce_bn"
  type: "BN"
  bottom: "inception_2b/double_3x3_reduce"
  top: "inception_2b/double_3x3_reduce_bn"
  param {
    lr_mult: 1
    decay_mult: 0
  }
  param {
    lr_mult: 1
    decay_mult: 0
  }
  bn_param {
    slope_filler {
      type: "constant"
      value: 1
    }
    bias_filler {
      type: "constant"
      value: 0
    }
  }
}
layer {
  name: "inception_2b/relu_double_3x3_reduce"
  type: "ReLU"
  bottom: "inception_2b/double_3x3_reduce_bn"
  top: "inception_2b/double_3x3_reduce_bn"
}
layer {
  name: "inception_2b/double_3x3_1"
  type: "Convolution"
  bottom: "inception_2b/double_3x3_reduce_bn"
  top: "inception_2b/double_3x3_1"
  param {
    lr_mult: 1
    decay_mult: 1
  }
  param {
    lr_mult: 2
    decay_mult: 0
  }
  convolution_param {
    num_output: 128
    pad: 1
    kernel_size: 3
    weight_filler {
      type: "xavier"
    }
    bias_filler {
      type: "constant"
      value: 0.2
    }
  }
}
layer {
  name: "inception_2b/double_3x3_1_bn"
  type: "BN"
  bottom: "inception_2b/double_3x3_1"
  top: "inception_2b/double_3x3_1_bn"
  param {
    lr_mult: 1
    decay_mult: 0
  }
  param {
    lr_mult: 1
    decay_mult: 0
  }
  bn_param {
    slope_filler {
      type: "constant"
      value: 1
    }
    bias_filler {
      type: "constant"
      value: 0
    }
  }
}
layer {
  name: "inception_2b/relu_double_3x3_1"
  type: "ReLU"
  bottom: "inception_2b/double_3x3_1_bn"
  top: "inception_2b/double_3x3_1_bn"
}
layer {
  name: "inception_2b/double_3x3_2"
  type: "Convolution"
  bottom: "inception_2b/double_3x3_1_bn"
  top: "inception_2b/double_3x3_2"
  param {
    lr_mult: 1
    decay_mult: 1
  }
  param {
    lr_mult: 2
    decay_mult: 0
  }
  convolution_param {
    num_output: 128
    pad: 1
    kernel_size: 3
    stride: 2
    weight_filler {
      type: "xavier"
    }
    bias_filler {
      type: "constant"
      value: 0.2
    }
  }
}
layer {
  name: "inception_2b/double_3x3_2_bn"
  type: "BN"
  bottom: "inception_2b/double_3x3_2"
  top: "inception_2b/double_3x3_2_bn"
  param {
    lr_mult: 1
    decay_mult: 0
  }
  param {
    lr_mult: 1
    decay_mult: 0
  }
  bn_param {
    slope_filler {
      type: "constant"
      value: 1
    }
    bias_filler {
      type: "constant"
      value: 0
    }
  }
}
layer {
  name: "inception_2b/relu_double_3x3_2"
  type: "ReLU"
  bottom: "inception_2b/double_3x3_2_bn"
  top: "inception_2b/double_3x3_2_bn"
}
layer {
  name: "inception_2b/pool"
  type: "Pooling"
  bottom: "inception_2a/output"
  top: "inception_2b/pool"
  pooling_param {
    pool: MAX
    kernel_size: 3
    stride: 2
  }
}
layer {
  name: "inception_2b/output"
  type: "Concat"
  bottom: "inception_2b/3x3_bn"
  bottom: "inception_2b/double_3x3_2_bn"
  bottom: "inception_2b/pool"
  top: "inception_2b/output"
}
layer {
  name: "inception_3a/1x1"
  type: "Convolution"
  bottom: "inception_2b/output"
  top: "inception_3a/1x1"
  param {
    lr_mult: 1
    decay_mult: 1
  }
  param {
    lr_mult: 2
    decay_mult: 0
  }
  convolution_param {
    num_output: 256
    kernel_size: 1
    weight_filler {
      type: "xavier"
    }
    bias_filler {
      type: "constant"
      value: 0.2
    }
  }
}
layer {
  name: "inception_3a/1x1_bn"
  type: "BN"
  bottom: "inception_3a/1x1"
  top: "inception_3a/1x1_bn"
  param {
    lr_mult: 1
    decay_mult: 0
  }
  param {
    lr_mult: 1
    decay_mult: 0
  }
  bn_param {
    slope_filler {
      type: "constant"
      value: 1
    }
    bias_filler {
      type: "constant"
      value: 0
    }
  }
}
layer {
  name: "inception_3a/relu_1x1"
  type: "ReLU"
  bottom: "inception_3a/1x1_bn"
  top: "inception_3a/1x1_bn"
}
layer {
  name: "inception_3a/3x3_reduce"
  type: "Convolution"
  bottom: "inception_2b/output"
  top: "inception_3a/3x3_reduce"
  param {
    lr_mult: 1
    decay_mult: 1
  }
  param {
    lr_mult: 2
    decay_mult: 0
  }
  convolution_param {
    num_output: 256
    kernel_size: 1
    weight_filler {
      type: "xavier"
    }
    bias_filler {
      type: "constant"
      value: 0.2
    }
  }
}
layer {
  name: "inception_3a/3x3_reduce_bn"
  type: "BN"
  bottom: "inception_3a/3x3_reduce"
  top: "inception_3a/3x3_reduce_bn"
  param {
    lr_mult: 1
    decay_mult: 0
  }
  param {
    lr_mult: 1
    decay_mult: 0
  }
  bn_param {
    slope_filler {
      type: "constant"
      value: 1
    }
    bias_filler {
      type: "constant"
      value: 0
    }
  }
}
layer {
  name: "inception_3a/relu_3x3_reduce"
  type: "ReLU"
  bottom: "inception_3a/3x3_reduce_bn"
  top: "inception_3a/3x3_reduce_bn"
}
layer {
  name: "inception_3a/3x3"
  type: "Convolution"
  bottom: "inception_3a/3x3_reduce_bn"
  top: "inception_3a/3x3"
  param {
    lr_mult: 1
    decay_mult: 1
  }
  param {
    lr_mult: 2
    decay_mult: 0
  }
  convolution_param {
    num_output: 256
    pad: 1
    kernel_size: 3
    weight_filler {
      type: "xavier"
    }
    bias_filler {
      type: "constant"
      value: 0.2
    }
  }
}
layer {
  name: "inception_3a/3x3_bn"
  type: "BN"
  bottom: "inception_3a/3x3"
  top: "inception_3a/3x3_bn"
  param {
    lr_mult: 1
    decay_mult: 0
  }
  param {
    lr_mult: 1
    decay_mult: 0
  }
  bn_param {
    slope_filler {
      type: "constant"
      value: 1
    }
    bias_filler {
      type: "constant"
      value: 0
    }
  }
}
layer {
  name: "inception_3a/relu_3x3"
  type: "ReLU"
  bottom: "inception_3a/3x3_bn"
  top: "inception_3a/3x3_bn"
}
layer {
  name: "inception_3a/double_3x3_reduce"
  type: "Convolution"
  bottom: "inception_2b/output"
  top: "inception_3a/double_3x3_reduce"
  param {
    lr_mult: 1
    decay_mult: 1
  }
  param {
    lr_mult: 2
    decay_mult: 0
  }
  convolution_param {
    num_output: 256
    kernel_size: 1
    weight_filler {
      type: "xavier"
    }
    bias_filler {
      type: "constant"
      value: 0.2
    }
  }
}
layer {
  name: "inception_3a/double_3x3_reduce_bn"
  type: "BN"
  bottom: "inception_3a/double_3x3_reduce"
  top: "inception_3a/double_3x3_reduce_bn"
  param {
    lr_mult: 1
    decay_mult: 0
  }
  param {
    lr_mult: 1
    decay_mult: 0
  }
  bn_param {
    slope_filler {
      type: "constant"
      value: 1
    }
    bias_filler {
      type: "constant"
      v
I0417 17:18:18.537986  3043 layer_factory.hpp:74] Creating layer data
I0417 17:18:18.538012  3043 net.cpp:133] Creating Layer data
I0417 17:18:18.538017  3043 net.cpp:411] data -> data
I0417 17:18:18.538027  3043 net.cpp:411] data -> label
I0417 17:18:18.538034  3043 net.cpp:163] Setting up data
I0417 17:18:18.538341  3043 db_lmdb.cpp:22] Opened lmdb external/exp/db/3dpes/train_lmdb
I0417 17:18:18.538411  3043 data_layer.cpp:55] Skipping first 0 data points.
I0417 17:18:18.538431  3043 data_layer.cpp:100] output data size: 25,3,144,56
I0417 17:18:18.538496  3043 net.cpp:170] Top shape: 25 3 144 56 (604800)
I0417 17:18:18.538503  3043 net.cpp:170] Top shape: 25 (25)
I0417 17:18:18.538506  3043 layer_factory.hpp:74] Creating layer conv1
I0417 17:18:18.538514  3043 net.cpp:133] Creating Layer conv1
I0417 17:18:18.538517  3043 net.cpp:453] conv1 <- data
I0417 17:18:18.538525  3043 net.cpp:411] conv1 -> conv1
I0417 17:18:18.538532  3043 net.cpp:163] Setting up conv1
I0417 17:18:18.701989  3043 net.cpp:170] Top shape: 25 32 144 56 (6451200)
I0417 17:18:18.702024  3043 layer_factory.hpp:74] Creating layer conv1_bn
I0417 17:18:18.702028  3043 layer_factory.cpp:191] Layer conv1_bn is using CAFFE engine.
I0417 17:18:18.702038  3043 net.cpp:133] Creating Layer conv1_bn
I0417 17:18:18.702040  3043 net.cpp:453] conv1_bn <- conv1
I0417 17:18:18.702045  3043 net.cpp:411] conv1_bn -> conv1_bn
I0417 17:18:18.702051  3043 net.cpp:163] Setting up conv1_bn
I0417 17:18:18.702074  3043 net.cpp:170] Top shape: 25 32 144 56 (6451200)
I0417 17:18:18.702080  3043 layer_factory.hpp:74] Creating layer relu1
I0417 17:18:18.702083  3043 net.cpp:133] Creating Layer relu1
I0417 17:18:18.702085  3043 net.cpp:453] relu1 <- conv1_bn
I0417 17:18:18.702087  3043 net.cpp:400] relu1 -> conv1_bn (in-place)
I0417 17:18:18.702092  3043 net.cpp:163] Setting up relu1
I0417 17:18:18.702214  3043 net.cpp:170] Top shape: 25 32 144 56 (6451200)
I0417 17:18:18.702217  3043 layer_factory.hpp:74] Creating layer conv2
I0417 17:18:18.702224  3043 net.cpp:133] Creating Layer conv2
I0417 17:18:18.702225  3043 net.cpp:453] conv2 <- conv1_bn
I0417 17:18:18.702229  3043 net.cpp:411] conv2 -> conv2
I0417 17:18:18.702232  3043 net.cpp:163] Setting up conv2
I0417 17:18:18.865660  3043 net.cpp:170] Top shape: 25 32 144 56 (6451200)
I0417 17:18:18.865676  3043 layer_factory.hpp:74] Creating layer conv2_bn
I0417 17:18:18.865679  3043 layer_factory.cpp:191] Layer conv2_bn is using CAFFE engine.
I0417 17:18:18.865684  3043 net.cpp:133] Creating Layer conv2_bn
I0417 17:18:18.865687  3043 net.cpp:453] conv2_bn <- conv2
I0417 17:18:18.865691  3043 net.cpp:411] conv2_bn -> conv2_bn
I0417 17:18:18.865696  3043 net.cpp:163] Setting up conv2_bn
I0417 17:18:18.865717  3043 net.cpp:170] Top shape: 25 32 144 56 (6451200)
I0417 17:18:18.865725  3043 layer_factory.hpp:74] Creating layer relu2
I0417 17:18:18.865730  3043 net.cpp:133] Creating Layer relu2
I0417 17:18:18.865731  3043 net.cpp:453] relu2 <- conv2_bn
I0417 17:18:18.865736  3043 net.cpp:400] relu2 -> conv2_bn (in-place)
I0417 17:18:18.865739  3043 net.cpp:163] Setting up relu2
I0417 17:18:18.865922  3043 net.cpp:170] Top shape: 25 32 144 56 (6451200)
I0417 17:18:18.865928  3043 layer_factory.hpp:74] Creating layer conv3
I0417 17:18:18.865934  3043 net.cpp:133] Creating Layer conv3
I0417 17:18:18.865936  3043 net.cpp:453] conv3 <- conv2_bn
I0417 17:18:18.865939  3043 net.cpp:411] conv3 -> conv3
I0417 17:18:18.865943  3043 net.cpp:163] Setting up conv3
I0417 17:18:19.022397  3043 net.cpp:170] Top shape: 25 32 144 56 (6451200)
I0417 17:18:19.022408  3043 layer_factory.hpp:74] Creating layer conv3_bn
I0417 17:18:19.022410  3043 layer_factory.cpp:191] Layer conv3_bn is using CAFFE engine.
I0417 17:18:19.022414  3043 net.cpp:133] Creating Layer conv3_bn
I0417 17:18:19.022416  3043 net.cpp:453] conv3_bn <- conv3
I0417 17:18:19.022420  3043 net.cpp:411] conv3_bn -> conv3_bn
I0417 17:18:19.022424  3043 net.cpp:163] Setting up conv3_bn
I0417 17:18:19.022440  3043 net.cpp:170] Top shape: 25 32 144 56 (6451200)
I0417 17:18:19.022449  3043 layer_factory.hpp:74] Creating layer relu3
I0417 17:18:19.022451  3043 net.cpp:133] Creating Layer relu3
I0417 17:18:19.022454  3043 net.cpp:453] relu3 <- conv3_bn
I0417 17:18:19.022455  3043 net.cpp:400] relu3 -> conv3_bn (in-place)
I0417 17:18:19.022457  3043 net.cpp:163] Setting up relu3
I0417 17:18:19.022558  3043 net.cpp:170] Top shape: 25 32 144 56 (6451200)
I0417 17:18:19.022563  3043 layer_factory.hpp:74] Creating layer pool1
I0417 17:18:19.022568  3043 net.cpp:133] Creating Layer pool1
I0417 17:18:19.022570  3043 net.cpp:453] pool1 <- conv3_bn
I0417 17:18:19.022574  3043 net.cpp:411] pool1 -> pool1
I0417 17:18:19.022578  3043 net.cpp:163] Setting up pool1
I0417 17:18:19.022753  3043 net.cpp:170] Top shape: 25 32 72 28 (1612800)
I0417 17:18:19.022759  3043 layer_factory.hpp:74] Creating layer pool1_pool1_0_split
I0417 17:18:19.022763  3043 net.cpp:133] Creating Layer pool1_pool1_0_split
I0417 17:18:19.022765  3043 net.cpp:453] pool1_pool1_0_split <- pool1
I0417 17:18:19.022768  3043 net.cpp:411] pool1_pool1_0_split -> pool1_pool1_0_split_0
I0417 17:18:19.022773  3043 net.cpp:411] pool1_pool1_0_split -> pool1_pool1_0_split_1
I0417 17:18:19.022776  3043 net.cpp:411] pool1_pool1_0_split -> pool1_pool1_0_split_2
I0417 17:18:19.022779  3043 net.cpp:411] pool1_pool1_0_split -> pool1_pool1_0_split_3
I0417 17:18:19.022783  3043 net.cpp:163] Setting up pool1_pool1_0_split
I0417 17:18:19.022786  3043 net.cpp:170] Top shape: 25 32 72 28 (1612800)
I0417 17:18:19.022789  3043 net.cpp:170] Top shape: 25 32 72 28 (1612800)
I0417 17:18:19.022790  3043 net.cpp:170] Top shape: 25 32 72 28 (1612800)
I0417 17:18:19.022794  3043 net.cpp:170] Top shape: 25 32 72 28 (1612800)
I0417 17:18:19.022794  3043 layer_factory.hpp:74] Creating layer inception_1a/1x1
I0417 17:18:19.022799  3043 net.cpp:133] Creating Layer inception_1a/1x1
I0417 17:18:19.022800  3043 net.cpp:453] inception_1a/1x1 <- pool1_pool1_0_split_0
I0417 17:18:19.022804  3043 net.cpp:411] inception_1a/1x1 -> inception_1a/1x1
I0417 17:18:19.022807  3043 net.cpp:163] Setting up inception_1a/1x1
I0417 17:18:19.078119  3043 net.cpp:170] Top shape: 25 64 72 28 (3225600)
I0417 17:18:19.078130  3043 layer_factory.hpp:74] Creating layer inception_1a/1x1_bn
I0417 17:18:19.078131  3043 layer_factory.cpp:191] Layer inception_1a/1x1_bn is using CAFFE engine.
I0417 17:18:19.078135  3043 net.cpp:133] Creating Layer inception_1a/1x1_bn
I0417 17:18:19.078137  3043 net.cpp:453] inception_1a/1x1_bn <- inception_1a/1x1
I0417 17:18:19.078141  3043 net.cpp:411] inception_1a/1x1_bn -> inception_1a/1x1_bn
I0417 17:18:19.078145  3043 net.cpp:163] Setting up inception_1a/1x1_bn
I0417 17:18:19.078155  3043 net.cpp:170] Top shape: 25 64 72 28 (3225600)
I0417 17:18:19.078162  3043 layer_factory.hpp:74] Creating layer inception_1a/relu_1x1
I0417 17:18:19.078166  3043 net.cpp:133] Creating Layer inception_1a/relu_1x1
I0417 17:18:19.078167  3043 net.cpp:453] inception_1a/relu_1x1 <- inception_1a/1x1_bn
I0417 17:18:19.078169  3043 net.cpp:400] inception_1a/relu_1x1 -> inception_1a/1x1_bn (in-place)
I0417 17:18:19.078172  3043 net.cpp:163] Setting up inception_1a/relu_1x1
I0417 17:18:19.078346  3043 net.cpp:170] Top shape: 25 64 72 28 (3225600)
I0417 17:18:19.078352  3043 layer_factory.hpp:74] Creating layer inception_1a/3x3_reduce
I0417 17:18:19.078357  3043 net.cpp:133] Creating Layer inception_1a/3x3_reduce
I0417 17:18:19.078359  3043 net.cpp:453] inception_1a/3x3_reduce <- pool1_pool1_0_split_1
I0417 17:18:19.078366  3043 net.cpp:411] inception_1a/3x3_reduce -> inception_1a/3x3_reduce
I0417 17:18:19.078369  3043 net.cpp:163] Setting up inception_1a/3x3_reduce
I0417 17:18:19.132123  3043 net.cpp:170] Top shape: 25 64 72 28 (3225600)
I0417 17:18:19.132133  3043 layer_factory.hpp:74] Creating layer inception_1a/3x3_reduce_bn
I0417 17:18:19.132136  3043 layer_factory.cpp:191] Layer inception_1a/3x3_reduce_bn is using CAFFE engine.
I0417 17:18:19.132141  3043 net.cpp:133] Creating Layer inception_1a/3x3_reduce_bn
I0417 17:18:19.132143  3043 net.cpp:453] inception_1a/3x3_reduce_bn <- inception_1a/3x3_reduce
I0417 17:18:19.132148  3043 net.cpp:411] inception_1a/3x3_reduce_bn -> inception_1a/3x3_reduce_bn
I0417 17:18:19.132153  3043 net.cpp:163] Setting up inception_1a/3x3_reduce_bn
I0417 17:18:19.132164  3043 net.cpp:170] Top shape: 25 64 72 28 (3225600)
I0417 17:18:19.132169  3043 layer_factory.hpp:74] Creating layer inception_1a/relu_3x3_reduce
I0417 17:18:19.132172  3043 net.cpp:133] Creating Layer inception_1a/relu_3x3_reduce
I0417 17:18:19.132174  3043 net.cpp:453] inception_1a/relu_3x3_reduce <- inception_1a/3x3_reduce_bn
I0417 17:18:19.132176  3043 net.cpp:400] inception_1a/relu_3x3_reduce -> inception_1a/3x3_reduce_bn (in-place)
I0417 17:18:19.132179  3043 net.cpp:163] Setting up inception_1a/relu_3x3_reduce
I0417 17:18:19.132280  3043 net.cpp:170] Top shape: 25 64 72 28 (3225600)
I0417 17:18:19.132285  3043 layer_factory.hpp:74] Creating layer inception_1a/3x3
I0417 17:18:19.132289  3043 net.cpp:133] Creating Layer inception_1a/3x3
I0417 17:18:19.132292  3043 net.cpp:453] inception_1a/3x3 <- inception_1a/3x3_reduce_bn
I0417 17:18:19.132294  3043 net.cpp:411] inception_1a/3x3 -> inception_1a/3x3
I0417 17:18:19.132299  3043 net.cpp:163] Setting up inception_1a/3x3
I0417 17:18:19.246423  3043 net.cpp:170] Top shape: 25 64 72 28 (3225600)
I0417 17:18:19.246433  3043 layer_factory.hpp:74] Creating layer inception_1a/3x3_bn
I0417 17:18:19.246435  3043 layer_factory.cpp:191] Layer inception_1a/3x3_bn is using CAFFE engine.
I0417 17:18:19.246439  3043 net.cpp:133] Creating Layer inception_1a/3x3_bn
I0417 17:18:19.246441  3043 net.cpp:453] inception_1a/3x3_bn <- inception_1a/3x3
I0417 17:18:19.246445  3043 net.cpp:411] inception_1a/3x3_bn -> inception_1a/3x3_bn
I0417 17:18:19.246450  3043 net.cpp:163] Setting up inception_1a/3x3_bn
I0417 17:18:19.246460  3043 net.cpp:170] Top shape: 25 64 72 28 (3225600)
I0417 17:18:19.246469  3043 layer_factory.hpp:74] Creating layer inception_1a/relu_3x3
I0417 17:18:19.246472  3043 net.cpp:133] Creating Layer inception_1a/relu_3x3
I0417 17:18:19.246474  3043 net.cpp:453] inception_1a/relu_3x3 <- inception_1a/3x3_bn
I0417 17:18:19.246476  3043 net.cpp:400] inception_1a/relu_3x3 -> inception_1a/3x3_bn (in-place)
I0417 17:18:19.246479  3043 net.cpp:163] Setting up inception_1a/relu_3x3
I0417 17:18:19.246651  3043 net.cpp:170] Top shape: 25 64 72 28 (3225600)
I0417 17:18:19.246659  3043 layer_factory.hpp:74] Creating layer inception_1a/double_3x3_reduce
I0417 17:18:19.246664  3043 net.cpp:133] Creating Layer inception_1a/double_3x3_reduce
I0417 17:18:19.246665  3043 net.cpp:453] inception_1a/double_3x3_reduce <- pool1_pool1_0_split_2
I0417 17:18:19.246670  3043 net.cpp:411] inception_1a/double_3x3_reduce -> inception_1a/double_3x3_reduce
I0417 17:18:19.246673  3043 net.cpp:163] Setting up inception_1a/double_3x3_reduce
I0417 17:18:19.300859  3043 net.cpp:170] Top shape: 25 64 72 28 (3225600)
I0417 17:18:19.300869  3043 layer_factory.hpp:74] Creating layer inception_1a/double_3x3_reduce_bn
I0417 17:18:19.300873  3043 layer_factory.cpp:191] Layer inception_1a/double_3x3_reduce_bn is using CAFFE engine.
I0417 17:18:19.300876  3043 net.cpp:133] Creating Layer inception_1a/double_3x3_reduce_bn
I0417 17:18:19.300879  3043 net.cpp:453] inception_1a/double_3x3_reduce_bn <- inception_1a/double_3x3_reduce
I0417 17:18:19.300882  3043 net.cpp:411] inception_1a/double_3x3_reduce_bn -> inception_1a/double_3x3_reduce_bn
I0417 17:18:19.300886  3043 net.cpp:163] Setting up inception_1a/double_3x3_reduce_bn
I0417 17:18:19.300897  3043 net.cpp:170] Top shape: 25 64 72 28 (3225600)
I0417 17:18:19.300902  3043 layer_factory.hpp:74] Creating layer inception_1a/relu_double_3x3_reduce
I0417 17:18:19.300905  3043 net.cpp:133] Creating Layer inception_1a/relu_double_3x3_reduce
I0417 17:18:19.300907  3043 net.cpp:453] inception_1a/relu_double_3x3_reduce <- inception_1a/double_3x3_reduce_bn
I0417 17:18:19.300910  3043 net.cpp:400] inception_1a/relu_double_3x3_reduce -> inception_1a/double_3x3_reduce_bn (in-place)
I0417 17:18:19.300912  3043 net.cpp:163] Setting up inception_1a/relu_double_3x3_reduce
I0417 17:18:19.301090  3043 net.cpp:170] Top shape: 25 64 72 28 (3225600)
I0417 17:18:19.301096  3043 layer_factory.hpp:74] Creating layer inception_1a/double_3x3_1
I0417 17:18:19.301102  3043 net.cpp:133] Creating Layer inception_1a/double_3x3_1
I0417 17:18:19.301105  3043 net.cpp:453] inception_1a/double_3x3_1 <- inception_1a/double_3x3_reduce_bn
I0417 17:18:19.301108  3043 net.cpp:411] inception_1a/double_3x3_1 -> inception_1a/double_3x3_1
I0417 17:18:19.301112  3043 net.cpp:163] Setting up inception_1a/double_3x3_1
I0417 17:18:19.415215  3043 net.cpp:170] Top shape: 25 64 72 28 (3225600)
I0417 17:18:19.415225  3043 layer_factory.hpp:74] Creating layer inception_1a/double_3x3_1_bn
I0417 17:18:19.415228  3043 layer_factory.cpp:191] Layer inception_1a/double_3x3_1_bn is using CAFFE engine.
I0417 17:18:19.415232  3043 net.cpp:133] Creating Layer inception_1a/double_3x3_1_bn
I0417 17:18:19.415235  3043 net.cpp:453] inception_1a/double_3x3_1_bn <- inception_1a/double_3x3_1
I0417 17:18:19.415238  3043 net.cpp:411] inception_1a/double_3x3_1_bn -> inception_1a/double_3x3_1_bn
I0417 17:18:19.415242  3043 net.cpp:163] Setting up inception_1a/double_3x3_1_bn
I0417 17:18:19.415252  3043 net.cpp:170] Top shape: 25 64 72 28 (3225600)
I0417 17:18:19.415258  3043 layer_factory.hpp:74] Creating layer inception_1a/relu_double_3x3_1
I0417 17:18:19.415262  3043 net.cpp:133] Creating Layer inception_1a/relu_double_3x3_1
I0417 17:18:19.415264  3043 net.cpp:453] inception_1a/relu_double_3x3_1 <- inception_1a/double_3x3_1_bn
I0417 17:18:19.415266  3043 net.cpp:400] inception_1a/relu_double_3x3_1 -> inception_1a/double_3x3_1_bn (in-place)
I0417 17:18:19.415269  3043 net.cpp:163] Setting up inception_1a/relu_double_3x3_1
I0417 17:18:19.415374  3043 net.cpp:170] Top shape: 25 64 72 28 (3225600)
I0417 17:18:19.415379  3043 layer_factory.hpp:74] Creating layer inception_1a/double_3x3_2
I0417 17:18:19.415382  3043 net.cpp:133] Creating Layer inception_1a/double_3x3_2
I0417 17:18:19.415385  3043 net.cpp:453] inception_1a/double_3x3_2 <- inception_1a/double_3x3_1_bn
I0417 17:18:19.415387  3043 net.cpp:411] inception_1a/double_3x3_2 -> inception_1a/double_3x3_2
I0417 17:18:19.415391  3043 net.cpp:163] Setting up inception_1a/double_3x3_2
I0417 17:18:19.529589  3043 net.cpp:170] Top shape: 25 64 72 28 (3225600)
I0417 17:18:19.529599  3043 layer_factory.hpp:74] Creating layer inception_1a/double_3x3_2_bn
I0417 17:18:19.529603  3043 layer_factory.cpp:191] Layer inception_1a/double_3x3_2_bn is using CAFFE engine.
I0417 17:18:19.529608  3043 net.cpp:133] Creating Layer inception_1a/double_3x3_2_bn
I0417 17:18:19.529609  3043 net.cpp:453] inception_1a/double_3x3_2_bn <- inception_1a/double_3x3_2
I0417 17:18:19.529613  3043 net.cpp:411] inception_1a/double_3x3_2_bn -> inception_1a/double_3x3_2_bn
I0417 17:18:19.529618  3043 net.cpp:163] Setting up inception_1a/double_3x3_2_bn
I0417 17:18:19.529628  3043 net.cpp:170] Top shape: 25 64 72 28 (3225600)
I0417 17:18:19.529633  3043 layer_factory.hpp:74] Creating layer inception_1a/relu_double_3x3_2
I0417 17:18:19.529638  3043 net.cpp:133] Creating Layer inception_1a/relu_double_3x3_2
I0417 17:18:19.529639  3043 net.cpp:453] inception_1a/relu_double_3x3_2 <- inception_1a/double_3x3_2_bn
I0417 17:18:19.529641  3043 net.cpp:400] inception_1a/relu_double_3x3_2 -> inception_1a/double_3x3_2_bn (in-place)
I0417 17:18:19.529644  3043 net.cpp:163] Setting up inception_1a/relu_double_3x3_2
I0417 17:18:19.529824  3043 net.cpp:170] Top shape: 25 64 72 28 (3225600)
I0417 17:18:19.529829  3043 layer_factory.hpp:74] Creating layer inception_1a/pool
I0417 17:18:19.529831  3043 layer_factory.cpp:64] CUDNN does not support padding or multiple tops. Using Caffe's own pooling layer.
I0417 17:18:19.529834  3043 net.cpp:133] Creating Layer inception_1a/pool
I0417 17:18:19.529836  3043 net.cpp:453] inception_1a/pool <- pool1_pool1_0_split_3
I0417 17:18:19.529839  3043 net.cpp:411] inception_1a/pool -> inception_1a/pool
I0417 17:18:19.529844  3043 net.cpp:163] Setting up inception_1a/pool
I0417 17:18:19.529849  3043 net.cpp:170] Top shape: 25 32 72 28 (1612800)
I0417 17:18:19.529850  3043 layer_factory.hpp:74] Creating layer inception_1a/pool_proj
I0417 17:18:19.529855  3043 net.cpp:133] Creating Layer inception_1a/pool_proj
I0417 17:18:19.529857  3043 net.cpp:453] inception_1a/pool_proj <- inception_1a/pool
I0417 17:18:19.529860  3043 net.cpp:411] inception_1a/pool_proj -> inception_1a/pool_proj
I0417 17:18:19.529865  3043 net.cpp:163] Setting up inception_1a/pool_proj
I0417 17:18:19.583402  3043 net.cpp:170] Top shape: 25 64 72 28 (3225600)
I0417 17:18:19.583412  3043 layer_factory.hpp:74] Creating layer inception_1a/pool_proj_bn
I0417 17:18:19.583415  3043 layer_factory.cpp:191] Layer inception_1a/pool_proj_bn is using CAFFE engine.
I0417 17:18:19.583423  3043 net.cpp:133] Creating Layer inception_1a/pool_proj_bn
I0417 17:18:19.583425  3043 net.cpp:453] inception_1a/pool_proj_bn <- inception_1a/pool_proj
I0417 17:18:19.583430  3043 net.cpp:411] inception_1a/pool_proj_bn -> inception_1a/pool_proj_bn
I0417 17:18:19.583433  3043 net.cpp:163] Setting up inception_1a/pool_proj_bn
I0417 17:18:19.583446  3043 net.cpp:170] Top shape: 25 64 72 28 (3225600)
I0417 17:18:19.583451  3043 layer_factory.hpp:74] Creating layer inception_1a/relu_pool_proj
I0417 17:18:19.583453  3043 net.cpp:133] Creating Layer inception_1a/relu_pool_proj
I0417 17:18:19.583454  3043 net.cpp:453] inception_1a/relu_pool_proj <- inception_1a/pool_proj_bn
I0417 17:18:19.583457  3043 net.cpp:400] inception_1a/relu_pool_proj -> inception_1a/pool_proj_bn (in-place)
I0417 17:18:19.583461  3043 net.cpp:163] Setting up inception_1a/relu_pool_proj
I0417 17:18:19.583637  3043 net.cpp:170] Top shape: 25 64 72 28 (3225600)
I0417 17:18:19.583643  3043 layer_factory.hpp:74] Creating layer inception_1a/output
I0417 17:18:19.583647  3043 net.cpp:133] Creating Layer inception_1a/output
I0417 17:18:19.583648  3043 net.cpp:453] inception_1a/output <- inception_1a/1x1_bn
I0417 17:18:19.583652  3043 net.cpp:453] inception_1a/output <- inception_1a/3x3_bn
I0417 17:18:19.583653  3043 net.cpp:453] inception_1a/output <- inception_1a/double_3x3_2_bn
I0417 17:18:19.583655  3043 net.cpp:453] inception_1a/output <- inception_1a/pool_proj_bn
I0417 17:18:19.583658  3043 net.cpp:411] inception_1a/output -> inception_1a/output
I0417 17:18:19.583662  3043 net.cpp:163] Setting up inception_1a/output
I0417 17:18:19.583667  3043 net.cpp:170] Top shape: 25 256 72 28 (12902400)
I0417 17:18:19.583668  3043 layer_factory.hpp:74] Creating layer inception_1a/output_inception_1a/output_0_split
I0417 17:18:19.583672  3043 net.cpp:133] Creating Layer inception_1a/output_inception_1a/output_0_split
I0417 17:18:19.583673  3043 net.cpp:453] inception_1a/output_inception_1a/output_0_split <- inception_1a/output
I0417 17:18:19.583676  3043 net.cpp:411] inception_1a/output_inception_1a/output_0_split -> inception_1a/output_inception_1a/output_0_split_0
I0417 17:18:19.583680  3043 net.cpp:411] inception_1a/output_inception_1a/output_0_split -> inception_1a/output_inception_1a/output_0_split_1
I0417 17:18:19.583683  3043 net.cpp:411] inception_1a/output_inception_1a/output_0_split -> inception_1a/output_inception_1a/output_0_split_2
I0417 17:18:19.583686  3043 net.cpp:163] Setting up inception_1a/output_inception_1a/output_0_split
I0417 17:18:19.583689  3043 net.cpp:170] Top shape: 25 256 72 28 (12902400)
I0417 17:18:19.583691  3043 net.cpp:170] Top shape: 25 256 72 28 (12902400)
I0417 17:18:19.583693  3043 net.cpp:170] Top shape: 25 256 72 28 (12902400)
I0417 17:18:19.583695  3043 layer_factory.hpp:74] Creating layer inception_1b/3x3_reduce
I0417 17:18:19.583699  3043 net.cpp:133] Creating Layer inception_1b/3x3_reduce
I0417 17:18:19.583701  3043 net.cpp:453] inception_1b/3x3_reduce <- inception_1a/output_inception_1a/output_0_split_0
I0417 17:18:19.583704  3043 net.cpp:411] inception_1b/3x3_reduce -> inception_1b/3x3_reduce
I0417 17:18:19.583711  3043 net.cpp:163] Setting up inception_1b/3x3_reduce
I0417 17:18:19.881831  3043 net.cpp:170] Top shape: 25 64 72 28 (3225600)
I0417 17:18:19.881841  3043 layer_factory.hpp:74] Creating layer inception_1b/3x3_reduce_bn
I0417 17:18:19.881844  3043 layer_factory.cpp:191] Layer inception_1b/3x3_reduce_bn is using CAFFE engine.
I0417 17:18:19.881849  3043 net.cpp:133] Creating Layer inception_1b/3x3_reduce_bn
I0417 17:18:19.881850  3043 net.cpp:453] inception_1b/3x3_reduce_bn <- inception_1b/3x3_reduce
I0417 17:18:19.881855  3043 net.cpp:411] inception_1b/3x3_reduce_bn -> inception_1b/3x3_reduce_bn
I0417 17:18:19.881858  3043 net.cpp:163] Setting up inception_1b/3x3_reduce_bn
I0417 17:18:19.881868  3043 net.cpp:170] Top shape: 25 64 72 28 (3225600)
I0417 17:18:19.881878  3043 layer_factory.hpp:74] Creating layer inception_1b/relu_3x3_reduce
I0417 17:18:19.881882  3043 net.cpp:133] Creating Layer inception_1b/relu_3x3_reduce
I0417 17:18:19.881885  3043 net.cpp:453] inception_1b/relu_3x3_reduce <- inception_1b/3x3_reduce_bn
I0417 17:18:19.881887  3043 net.cpp:400] inception_1b/relu_3x3_reduce -> inception_1b/3x3_reduce_bn (in-place)
I0417 17:18:19.881891  3043 net.cpp:163] Setting up inception_1b/relu_3x3_reduce
I0417 17:18:19.881994  3043 net.cpp:170] Top shape: 25 64 72 28 (3225600)
I0417 17:18:19.881999  3043 layer_factory.hpp:74] Creating layer inception_1b/3x3
I0417 17:18:19.882002  3043 net.cpp:133] Creating Layer inception_1b/3x3
I0417 17:18:19.882004  3043 net.cpp:453] inception_1b/3x3 <- inception_1b/3x3_reduce_bn
I0417 17:18:19.882009  3043 net.cpp:411] inception_1b/3x3 -> inception_1b/3x3
I0417 17:18:19.882012  3043 net.cpp:163] Setting up inception_1b/3x3
I0417 17:18:19.902678  3043 net.cpp:170] Top shape: 25 64 36 14 (806400)
I0417 17:18:19.902686  3043 layer_factory.hpp:74] Creating layer inception_1b/3x3_bn
I0417 17:18:19.902689  3043 layer_factory.cpp:191] Layer inception_1b/3x3_bn is using CAFFE engine.
I0417 17:18:19.902693  3043 net.cpp:133] Creating Layer inception_1b/3x3_bn
I0417 17:18:19.902695  3043 net.cpp:453] inception_1b/3x3_bn <- inception_1b/3x3
I0417 17:18:19.902699  3043 net.cpp:411] inception_1b/3x3_bn -> inception_1b/3x3_bn
I0417 17:18:19.902704  3043 net.cpp:163] Setting up inception_1b/3x3_bn
I0417 17:18:19.902712  3043 net.cpp:170] Top shape: 25 64 36 14 (806400)
I0417 17:18:19.902717  3043 layer_factory.hpp:74] Creating layer inception_1b/relu_3x3
I0417 17:18:19.902720  3043 net.cpp:133] Creating Layer inception_1b/relu_3x3
I0417 17:18:19.902722  3043 net.cpp:453] inception_1b/relu_3x3 <- inception_1b/3x3_bn
I0417 17:18:19.902725  3043 net.cpp:400] inception_1b/relu_3x3 -> inception_1b/3x3_bn (in-place)
I0417 17:18:19.902729  3043 net.cpp:163] Setting up inception_1b/relu_3x3
I0417 17:18:19.902904  3043 net.cpp:170] Top shape: 25 64 36 14 (806400)
I0417 17:18:19.902911  3043 layer_factory.hpp:74] Creating layer inception_1b/double_3x3_reduce
I0417 17:18:19.902916  3043 net.cpp:133] Creating Layer inception_1b/double_3x3_reduce
I0417 17:18:19.902918  3043 net.cpp:453] inception_1b/double_3x3_reduce <- inception_1a/output_inception_1a/output_0_split_1
I0417 17:18:19.902922  3043 net.cpp:411] inception_1b/double_3x3_reduce -> inception_1b/double_3x3_reduce
I0417 17:18:19.902927  3043 net.cpp:163] Setting up inception_1b/double_3x3_reduce
I0417 17:18:20.205729  3043 net.cpp:170] Top shape: 25 64 72 28 (3225600)
I0417 17:18:20.205739  3043 layer_factory.hpp:74] Creating layer inception_1b/double_3x3_reduce_bn
I0417 17:18:20.205741  3043 layer_factory.cpp:191] Layer inception_1b/double_3x3_reduce_bn is using CAFFE engine.
I0417 17:18:20.205747  3043 net.cpp:133] Creating Layer inception_1b/double_3x3_reduce_bn
I0417 17:18:20.205749  3043 net.cpp:453] inception_1b/double_3x3_reduce_bn <- inception_1b/double_3x3_reduce
I0417 17:18:20.205754  3043 net.cpp:411] inception_1b/double_3x3_reduce_bn -> inception_1b/double_3x3_reduce_bn
I0417 17:18:20.205757  3043 net.cpp:163] Setting up inception_1b/double_3x3_reduce_bn
I0417 17:18:20.205768  3043 net.cpp:170] Top shape: 25 64 72 28 (3225600)
I0417 17:18:20.205773  3043 layer_factory.hpp:74] Creating layer inception_1b/relu_double_3x3_reduce
I0417 17:18:20.205777  3043 net.cpp:133] Creating Layer inception_1b/relu_double_3x3_reduce
I0417 17:18:20.205778  3043 net.cpp:453] inception_1b/relu_double_3x3_reduce <- inception_1b/double_3x3_reduce_bn
I0417 17:18:20.205781  3043 net.cpp:400] inception_1b/relu_double_3x3_reduce -> inception_1b/double_3x3_reduce_bn (in-place)
I0417 17:18:20.205783  3043 net.cpp:163] Setting up inception_1b/relu_double_3x3_reduce
I0417 17:18:20.205961  3043 net.cpp:170] Top shape: 25 64 72 28 (3225600)
I0417 17:18:20.205968  3043 layer_factory.hpp:74] Creating layer inception_1b/double_3x3_1
I0417 17:18:20.205973  3043 net.cpp:133] Creating Layer inception_1b/double_3x3_1
I0417 17:18:20.205974  3043 net.cpp:453] inception_1b/double_3x3_1 <- inception_1b/double_3x3_reduce_bn
I0417 17:18:20.205979  3043 net.cpp:411] inception_1b/double_3x3_1 -> inception_1b/double_3x3_1
I0417 17:18:20.205982  3043 net.cpp:163] Setting up inception_1b/double_3x3_1
I0417 17:18:20.325479  3043 net.cpp:170] Top shape: 25 64 72 28 (3225600)
I0417 17:18:20.325489  3043 layer_factory.hpp:74] Creating layer inception_1b/double_3x3_1_bn
I0417 17:18:20.325491  3043 layer_factory.cpp:191] Layer inception_1b/double_3x3_1_bn is using CAFFE engine.
I0417 17:18:20.325495  3043 net.cpp:133] Creating Layer inception_1b/double_3x3_1_bn
I0417 17:18:20.325498  3043 net.cpp:453] inception_1b/double_3x3_1_bn <- inception_1b/double_3x3_1
I0417 17:18:20.325502  3043 net.cpp:411] inception_1b/double_3x3_1_bn -> inception_1b/double_3x3_1_bn
I0417 17:18:20.325506  3043 net.cpp:163] Setting up inception_1b/double_3x3_1_bn
I0417 17:18:20.325517  3043 net.cpp:170] Top shape: 25 64 72 28 (3225600)
I0417 17:18:20.325522  3043 layer_factory.hpp:74] Creating layer inception_1b/relu_double_3x3_1
I0417 17:18:20.325525  3043 net.cpp:133] Creating Layer inception_1b/relu_double_3x3_1
I0417 17:18:20.325527  3043 net.cpp:453] inception_1b/relu_double_3x3_1 <- inception_1b/double_3x3_1_bn
I0417 17:18:20.325531  3043 net.cpp:400] inception_1b/relu_double_3x3_1 -> inception_1b/double_3x3_1_bn (in-place)
I0417 17:18:20.325534  3043 net.cpp:163] Setting up inception_1b/relu_double_3x3_1
I0417 17:18:20.325639  3043 net.cpp:170] Top shape: 25 64 72 28 (3225600)
I0417 17:18:20.325642  3043 layer_factory.hpp:74] Creating layer inception_1b/double_3x3_2
I0417 17:18:20.325647  3043 net.cpp:133] Creating Layer inception_1b/double_3x3_2
I0417 17:18:20.325649  3043 net.cpp:453] inception_1b/double_3x3_2 <- inception_1b/double_3x3_1_bn
I0417 17:18:20.325654  3043 net.cpp:411] inception_1b/double_3x3_2 -> inception_1b/double_3x3_2
I0417 17:18:20.325657  3043 net.cpp:163] Setting up inception_1b/double_3x3_2
I0417 17:18:20.347508  3043 net.cpp:170] Top shape: 25 64 36 14 (806400)
I0417 17:18:20.347517  3043 layer_factory.hpp:74] Creating layer inception_1b/double_3x3_2_bn
I0417 17:18:20.347520  3043 layer_factory.cpp:191] Layer inception_1b/double_3x3_2_bn is using CAFFE engine.
I0417 17:18:20.347524  3043 net.cpp:133] Creating Layer inception_1b/double_3x3_2_bn
I0417 17:18:20.347527  3043 net.cpp:453] inception_1b/double_3x3_2_bn <- inception_1b/double_3x3_2
I0417 17:18:20.347530  3043 net.cpp:411] inception_1b/double_3x3_2_bn -> inception_1b/double_3x3_2_bn
I0417 17:18:20.347535  3043 net.cpp:163] Setting up inception_1b/double_3x3_2_bn
I0417 17:18:20.347544  3043 net.cpp:170] Top shape: 25 64 36 14 (806400)
I0417 17:18:20.347549  3043 layer_factory.hpp:74] Creating layer inception_1b/relu_double_3x3_2
I0417 17:18:20.347553  3043 net.cpp:133] Creating Layer inception_1b/relu_double_3x3_2
I0417 17:18:20.347554  3043 net.cpp:453] inception_1b/relu_double_3x3_2 <- inception_1b/double_3x3_2_bn
I0417 17:18:20.347558  3043 net.cpp:400] inception_1b/relu_double_3x3_2 -> inception_1b/double_3x3_2_bn (in-place)
I0417 17:18:20.347560  3043 net.cpp:163] Setting up inception_1b/relu_double_3x3_2
I0417 17:18:20.347738  3043 net.cpp:170] Top shape: 25 64 36 14 (806400)
I0417 17:18:20.347744  3043 layer_factory.hpp:74] Creating layer inception_1b/pool
I0417 17:18:20.347749  3043 net.cpp:133] Creating Layer inception_1b/pool
I0417 17:18:20.347751  3043 net.cpp:453] inception_1b/pool <- inception_1a/output_inception_1a/output_0_split_2
I0417 17:18:20.347755  3043 net.cpp:411] inception_1b/pool -> inception_1b/pool
I0417 17:18:20.347759  3043 net.cpp:163] Setting up inception_1b/pool
I0417 17:18:20.347857  3043 net.cpp:170] Top shape: 25 256 36 14 (3225600)
I0417 17:18:20.347862  3043 layer_factory.hpp:74] Creating layer inception_1b/output
I0417 17:18:20.347865  3043 net.cpp:133] Creating Layer inception_1b/output
I0417 17:18:20.347867  3043 net.cpp:453] inception_1b/output <- inception_1b/3x3_bn
I0417 17:18:20.347869  3043 net.cpp:453] inception_1b/output <- inception_1b/double_3x3_2_bn
I0417 17:18:20.347872  3043 net.cpp:453] inception_1b/output <- inception_1b/pool
I0417 17:18:20.347875  3043 net.cpp:411] inception_1b/output -> inception_1b/output
I0417 17:18:20.347878  3043 net.cpp:163] Setting up inception_1b/output
I0417 17:18:20.347882  3043 net.cpp:170] Top shape: 25 384 36 14 (4838400)
I0417 17:18:20.347883  3043 layer_factory.hpp:74] Creating layer inception_1b/output_inception_1b/output_0_split
I0417 17:18:20.347887  3043 net.cpp:133] Creating Layer inception_1b/output_inception_1b/output_0_split
I0417 17:18:20.347888  3043 net.cpp:453] inception_1b/output_inception_1b/output_0_split <- inception_1b/output
I0417 17:18:20.347892  3043 net.cpp:411] inception_1b/output_inception_1b/output_0_split -> inception_1b/output_inception_1b/output_0_split_0
I0417 17:18:20.347897  3043 net.cpp:411] inception_1b/output_inception_1b/output_0_split -> inception_1b/output_inception_1b/output_0_split_1
I0417 17:18:20.347900  3043 net.cpp:411] inception_1b/output_inception_1b/output_0_split -> inception_1b/output_inception_1b/output_0_split_2
I0417 17:18:20.347904  3043 net.cpp:411] inception_1b/output_inception_1b/output_0_split -> inception_1b/output_inception_1b/output_0_split_3
I0417 17:18:20.347908  3043 net.cpp:163] Setting up inception_1b/output_inception_1b/output_0_split
I0417 17:18:20.347910  3043 net.cpp:170] Top shape: 25 384 36 14 (4838400)
I0417 17:18:20.347913  3043 net.cpp:170] Top shape: 25 384 36 14 (4838400)
I0417 17:18:20.347914  3043 net.cpp:170] Top shape: 25 384 36 14 (4838400)
I0417 17:18:20.347916  3043 net.cpp:170] Top shape: 25 384 36 14 (4838400)
I0417 17:18:20.347918  3043 layer_factory.hpp:74] Creating layer inception_2a/1x1
I0417 17:18:20.347923  3043 net.cpp:133] Creating Layer inception_2a/1x1
I0417 17:18:20.347924  3043 net.cpp:453] inception_2a/1x1 <- inception_1b/output_inception_1b/output_0_split_0
I0417 17:18:20.347929  3043 net.cpp:411] inception_2a/1x1 -> inception_2a/1x1
I0417 17:18:20.347931  3043 net.cpp:163] Setting up inception_2a/1x1
I0417 17:18:20.516424  3043 net.cpp:170] Top shape: 25 128 36 14 (1612800)
I0417 17:18:20.516434  3043 layer_factory.hpp:74] Creating layer inception_2a/1x1_bn
I0417 17:18:20.516438  3043 layer_factory.cpp:191] Layer inception_2a/1x1_bn is using CAFFE engine.
I0417 17:18:20.516441  3043 net.cpp:133] Creating Layer inception_2a/1x1_bn
I0417 17:18:20.516443  3043 net.cpp:453] inception_2a/1x1_bn <- inception_2a/1x1
I0417 17:18:20.516448  3043 net.cpp:411] inception_2a/1x1_bn -> inception_2a/1x1_bn
I0417 17:18:20.516453  3043 net.cpp:163] Setting up inception_2a/1x1_bn
I0417 17:18:20.516461  3043 net.cpp:170] Top shape: 25 128 36 14 (1612800)
I0417 17:18:20.516466  3043 layer_factory.hpp:74] Creating layer inception_2a/relu_1x1
I0417 17:18:20.516469  3043 net.cpp:133] Creating Layer inception_2a/relu_1x1
I0417 17:18:20.516471  3043 net.cpp:453] inception_2a/relu_1x1 <- inception_2a/1x1_bn
I0417 17:18:20.516475  3043 net.cpp:400] inception_2a/relu_1x1 -> inception_2a/1x1_bn (in-place)
I0417 17:18:20.516479  3043 net.cpp:163] Setting up inception_2a/relu_1x1
I0417 17:18:20.516584  3043 net.cpp:170] Top shape: 25 128 36 14 (1612800)
I0417 17:18:20.516588  3043 layer_factory.hpp:74] Creating layer inception_2a/3x3_reduce
I0417 17:18:20.516593  3043 net.cpp:133] Creating Layer inception_2a/3x3_reduce
I0417 17:18:20.516595  3043 net.cpp:453] inception_2a/3x3_reduce <- inception_1b/output_inception_1b/output_0_split_1
I0417 17:18:20.516599  3043 net.cpp:411] inception_2a/3x3_reduce -> inception_2a/3x3_reduce
I0417 17:18:20.516602  3043 net.cpp:163] Setting up inception_2a/3x3_reduce
I0417 17:18:20.687530  3043 net.cpp:170] Top shape: 25 128 36 14 (1612800)
I0417 17:18:20.687541  3043 layer_factory.hpp:74] Creating layer inception_2a/3x3_reduce_bn
I0417 17:18:20.687544  3043 layer_factory.cpp:191] Layer inception_2a/3x3_reduce_bn is using CAFFE engine.
I0417 17:18:20.687548  3043 net.cpp:133] Creating Layer inception_2a/3x3_reduce_bn
I0417 17:18:20.687551  3043 net.cpp:453] inception_2a/3x3_reduce_bn <- inception_2a/3x3_reduce
I0417 17:18:20.687554  3043 net.cpp:411] inception_2a/3x3_reduce_bn -> inception_2a/3x3_reduce_bn
I0417 17:18:20.687558  3043 net.cpp:163] Setting up inception_2a/3x3_reduce_bn
I0417 17:18:20.687568  3043 net.cpp:170] Top shape: 25 128 36 14 (1612800)
I0417 17:18:20.687573  3043 layer_factory.hpp:74] Creating layer inception_2a/relu_3x3_reduce
I0417 17:18:20.687577  3043 net.cpp:133] Creating Layer inception_2a/relu_3x3_reduce
I0417 17:18:20.687579  3043 net.cpp:453] inception_2a/relu_3x3_reduce <- inception_2a/3x3_reduce_bn
I0417 17:18:20.687582  3043 net.cpp:400] inception_2a/relu_3x3_reduce -> inception_2a/3x3_reduce_bn (in-place)
I0417 17:18:20.687584  3043 net.cpp:163] Setting up inception_2a/relu_3x3_reduce
I0417 17:18:20.687765  3043 net.cpp:170] Top shape: 25 128 36 14 (1612800)
I0417 17:18:20.687772  3043 layer_factory.hpp:74] Creating layer inception_2a/3x3
I0417 17:18:20.687777  3043 net.cpp:133] Creating Layer inception_2a/3x3
I0417 17:18:20.687778  3043 net.cpp:453] inception_2a/3x3 <- inception_2a/3x3_reduce_bn
I0417 17:18:20.687783  3043 net.cpp:411] inception_2a/3x3 -> inception_2a/3x3
I0417 17:18:20.687786  3043 net.cpp:163] Setting up inception_2a/3x3
I0417 17:18:20.769086  3043 net.cpp:170] Top shape: 25 128 36 14 (1612800)
I0417 17:18:20.769096  3043 layer_factory.hpp:74] Creating layer inception_2a/3x3_bn
I0417 17:18:20.769099  3043 layer_factory.cpp:191] Layer inception_2a/3x3_bn is using CAFFE engine.
I0417 17:18:20.769104  3043 net.cpp:133] Creating Layer inception_2a/3x3_bn
I0417 17:18:20.769105  3043 net.cpp:453] inception_2a/3x3_bn <- inception_2a/3x3
I0417 17:18:20.769109  3043 net.cpp:411] inception_2a/3x3_bn -> inception_2a/3x3_bn
I0417 17:18:20.769114  3043 net.cpp:163] Setting up inception_2a/3x3_bn
I0417 17:18:20.769124  3043 net.cpp:170] Top shape: 25 128 36 14 (1612800)
I0417 17:18:20.769129  3043 layer_factory.hpp:74] Creating layer inception_2a/relu_3x3
I0417 17:18:20.769131  3043 net.cpp:133] Creating Layer inception_2a/relu_3x3
I0417 17:18:20.769134  3043 net.cpp:453] inception_2a/relu_3x3 <- inception_2a/3x3_bn
I0417 17:18:20.769136  3043 net.cpp:400] inception_2a/relu_3x3 -> inception_2a/3x3_bn (in-place)
I0417 17:18:20.769139  3043 net.cpp:163] Setting up inception_2a/relu_3x3
I0417 17:18:20.769243  3043 net.cpp:170] Top shape: 25 128 36 14 (1612800)
I0417 17:18:20.769248  3043 layer_factory.hpp:74] Creating layer inception_2a/double_3x3_reduce
I0417 17:18:20.769253  3043 net.cpp:133] Creating Layer inception_2a/double_3x3_reduce
I0417 17:18:20.769254  3043 net.cpp:453] inception_2a/double_3x3_reduce <- inception_1b/output_inception_1b/output_0_split_2
I0417 17:18:20.769258  3043 net.cpp:411] inception_2a/double_3x3_reduce -> inception_2a/double_3x3_reduce
I0417 17:18:20.769263  3043 net.cpp:163] Setting up inception_2a/double_3x3_reduce
I0417 17:18:20.945246  3043 net.cpp:170] Top shape: 25 128 36 14 (1612800)
I0417 17:18:20.945257  3043 layer_factory.hpp:74] Creating layer inception_2a/double_3x3_reduce_bn
I0417 17:18:20.945260  3043 layer_factory.cpp:191] Layer inception_2a/double_3x3_reduce_bn is using CAFFE engine.
I0417 17:18:20.945274  3043 net.cpp:133] Creating Layer inception_2a/double_3x3_reduce_bn
I0417 17:18:20.945276  3043 net.cpp:453] inception_2a/double_3x3_reduce_bn <- inception_2a/double_3x3_reduce
I0417 17:18:20.945281  3043 net.cpp:411] inception_2a/double_3x3_reduce_bn -> inception_2a/double_3x3_reduce_bn
I0417 17:18:20.945286  3043 net.cpp:163] Setting up inception_2a/double_3x3_reduce_bn
I0417 17:18:20.945293  3043 net.cpp:170] Top shape: 25 128 36 14 (1612800)
I0417 17:18:20.945299  3043 layer_factory.hpp:74] Creating layer inception_2a/relu_double_3x3_reduce
I0417 17:18:20.945302  3043 net.cpp:133] Creating Layer inception_2a/relu_double_3x3_reduce
I0417 17:18:20.945303  3043 net.cpp:453] inception_2a/relu_double_3x3_reduce <- inception_2a/double_3x3_reduce_bn
I0417 17:18:20.945307  3043 net.cpp:400] inception_2a/relu_double_3x3_reduce -> inception_2a/double_3x3_reduce_bn (in-place)
I0417 17:18:20.945310  3043 net.cpp:163] Setting up inception_2a/relu_double_3x3_reduce
I0417 17:18:20.945422  3043 net.cpp:170] Top shape: 25 128 36 14 (1612800)
I0417 17:18:20.945428  3043 layer_factory.hpp:74] Creating layer inception_2a/double_3x3_1
I0417 17:18:20.945433  3043 net.cpp:133] Creating Layer inception_2a/double_3x3_1
I0417 17:18:20.945436  3043 net.cpp:453] inception_2a/double_3x3_1 <- inception_2a/double_3x3_reduce_bn
I0417 17:18:20.945439  3043 net.cpp:411] inception_2a/double_3x3_1 -> inception_2a/double_3x3_1
I0417 17:18:20.945443  3043 net.cpp:163] Setting up inception_2a/double_3x3_1
I0417 17:18:21.029067  3043 net.cpp:170] Top shape: 25 128 36 14 (1612800)
I0417 17:18:21.029077  3043 layer_factory.hpp:74] Creating layer inception_2a/double_3x3_1_bn
I0417 17:18:21.029079  3043 layer_factory.cpp:191] Layer inception_2a/double_3x3_1_bn is using CAFFE engine.
I0417 17:18:21.029083  3043 net.cpp:133] Creating Layer inception_2a/double_3x3_1_bn
I0417 17:18:21.029085  3043 net.cpp:453] inception_2a/double_3x3_1_bn <- inception_2a/double_3x3_1
I0417 17:18:21.029089  3043 net.cpp:411] inception_2a/double_3x3_1_bn -> inception_2a/double_3x3_1_bn
I0417 17:18:21.029094  3043 net.cpp:163] Setting up inception_2a/double_3x3_1_bn
I0417 17:18:21.029103  3043 net.cpp:170] Top shape: 25 128 36 14 (1612800)
I0417 17:18:21.029109  3043 layer_factory.hpp:74] Creating layer inception_2a/relu_double_3x3_1
I0417 17:18:21.029112  3043 net.cpp:133] Creating Layer inception_2a/relu_double_3x3_1
I0417 17:18:21.029114  3043 net.cpp:453] inception_2a/relu_double_3x3_1 <- inception_2a/double_3x3_1_bn
I0417 17:18:21.029117  3043 net.cpp:400] inception_2a/relu_double_3x3_1 -> inception_2a/double_3x3_1_bn (in-place)
I0417 17:18:21.029121  3043 net.cpp:163] Setting up inception_2a/relu_double_3x3_1
I0417 17:18:21.029300  3043 net.cpp:170] Top shape: 25 128 36 14 (1612800)
I0417 17:18:21.029306  3043 layer_factory.hpp:74] Creating layer inception_2a/double_3x3_2
I0417 17:18:21.029312  3043 net.cpp:133] Creating Layer inception_2a/double_3x3_2
I0417 17:18:21.029314  3043 net.cpp:453] inception_2a/double_3x3_2 <- inception_2a/double_3x3_1_bn
I0417 17:18:21.029317  3043 net.cpp:411] inception_2a/double_3x3_2 -> inception_2a/double_3x3_2
I0417 17:18:21.029322  3043 net.cpp:163] Setting up inception_2a/double_3x3_2
I0417 17:18:21.113194  3043 net.cpp:170] Top shape: 25 128 36 14 (1612800)
I0417 17:18:21.113205  3043 layer_factory.hpp:74] Creating layer inception_2a/double_3x3_2_bn
I0417 17:18:21.113209  3043 layer_factory.cpp:191] Layer inception_2a/double_3x3_2_bn is using CAFFE engine.
I0417 17:18:21.113212  3043 net.cpp:133] Creating Layer inception_2a/double_3x3_2_bn
I0417 17:18:21.113214  3043 net.cpp:453] inception_2a/double_3x3_2_bn <- inception_2a/double_3x3_2
I0417 17:18:21.113219  3043 net.cpp:411] inception_2a/double_3x3_2_bn -> inception_2a/double_3x3_2_bn
I0417 17:18:21.113222  3043 net.cpp:163] Setting up inception_2a/double_3x3_2_bn
I0417 17:18:21.113232  3043 net.cpp:170] Top shape: 25 128 36 14 (1612800)
I0417 17:18:21.113239  3043 layer_factory.hpp:74] Creating layer inception_2a/relu_double_3x3_2
I0417 17:18:21.113241  3043 net.cpp:133] Creating Layer inception_2a/relu_double_3x3_2
I0417 17:18:21.113242  3043 net.cpp:453] inception_2a/relu_double_3x3_2 <- inception_2a/double_3x3_2_bn
I0417 17:18:21.113245  3043 net.cpp:400] inception_2a/relu_double_3x3_2 -> inception_2a/double_3x3_2_bn (in-place)
I0417 17:18:21.113248  3043 net.cpp:163] Setting up inception_2a/relu_double_3x3_2
I0417 17:18:21.113353  3043 net.cpp:170] Top shape: 25 128 36 14 (1612800)
I0417 17:18:21.113358  3043 layer_factory.hpp:74] Creating layer inception_2a/pool
I0417 17:18:21.113360  3043 layer_factory.cpp:64] CUDNN does not support padding or multiple tops. Using Caffe's own pooling layer.
I0417 17:18:21.113364  3043 net.cpp:133] Creating Layer inception_2a/pool
I0417 17:18:21.113366  3043 net.cpp:453] inception_2a/pool <- inception_1b/output_inception_1b/output_0_split_3
I0417 17:18:21.113369  3043 net.cpp:411] inception_2a/pool -> inception_2a/pool
I0417 17:18:21.113373  3043 net.cpp:163] Setting up inception_2a/pool
I0417 17:18:21.113378  3043 net.cpp:170] Top shape: 25 384 36 14 (4838400)
I0417 17:18:21.113379  3043 layer_factory.hpp:74] Creating layer inception_2a/pool_proj
I0417 17:18:21.113384  3043 net.cpp:133] Creating Layer inception_2a/pool_proj
I0417 17:18:21.113386  3043 net.cpp:453] inception_2a/pool_proj <- inception_2a/pool
I0417 17:18:21.113389  3043 net.cpp:411] inception_2a/pool_proj -> inception_2a/pool_proj
I0417 17:18:21.113394  3043 net.cpp:163] Setting up inception_2a/pool_proj
I0417 17:18:21.290212  3043 net.cpp:170] Top shape: 25 128 36 14 (1612800)
I0417 17:18:21.290223  3043 layer_factory.hpp:74] Creating layer inception_2a/pool_proj_bn
I0417 17:18:21.290226  3043 layer_factory.cpp:191] Layer inception_2a/pool_proj_bn is using CAFFE engine.
I0417 17:18:21.290230  3043 net.cpp:133] Creating Layer inception_2a/pool_proj_bn
I0417 17:18:21.290232  3043 net.cpp:453] inception_2a/pool_proj_bn <- inception_2a/pool_proj
I0417 17:18:21.290236  3043 net.cpp:411] inception_2a/pool_proj_bn -> inception_2a/pool_proj_bn
I0417 17:18:21.290241  3043 net.cpp:163] Setting up inception_2a/pool_proj_bn
I0417 17:18:21.290251  3043 net.cpp:170] Top shape: 25 128 36 14 (1612800)
I0417 17:18:21.290264  3043 layer_factory.hpp:74] Creating layer inception_2a/relu_pool_proj
I0417 17:18:21.290267  3043 net.cpp:133] Creating Layer inception_2a/relu_pool_proj
I0417 17:18:21.290269  3043 net.cpp:453] inception_2a/relu_pool_proj <- inception_2a/pool_proj_bn
I0417 17:18:21.290272  3043 net.cpp:400] inception_2a/relu_pool_proj -> inception_2a/pool_proj_bn (in-place)
I0417 17:18:21.290276  3043 net.cpp:163] Setting up inception_2a/relu_pool_proj
I0417 17:18:21.290381  3043 net.cpp:170] Top shape: 25 128 36 14 (1612800)
I0417 17:18:21.290386  3043 layer_factory.hpp:74] Creating layer inception_2a/output
I0417 17:18:21.290390  3043 net.cpp:133] Creating Layer inception_2a/output
I0417 17:18:21.290392  3043 net.cpp:453] inception_2a/output <- inception_2a/1x1_bn
I0417 17:18:21.290395  3043 net.cpp:453] inception_2a/output <- inception_2a/3x3_bn
I0417 17:18:21.290397  3043 net.cpp:453] inception_2a/output <- inception_2a/double_3x3_2_bn
I0417 17:18:21.290400  3043 net.cpp:453] inception_2a/output <- inception_2a/pool_proj_bn
I0417 17:18:21.290402  3043 net.cpp:411] inception_2a/output -> inception_2a/output
I0417 17:18:21.290406  3043 net.cpp:163] Setting up inception_2a/output
I0417 17:18:21.290410  3043 net.cpp:170] Top shape: 25 512 36 14 (6451200)
I0417 17:18:21.290412  3043 layer_factory.hpp:74] Creating layer inception_2a/output_inception_2a/output_0_split
I0417 17:18:21.290416  3043 net.cpp:133] Creating Layer inception_2a/output_inception_2a/output_0_split
I0417 17:18:21.290417  3043 net.cpp:453] inception_2a/output_inception_2a/output_0_split <- inception_2a/output
I0417 17:18:21.290421  3043 net.cpp:411] inception_2a/output_inception_2a/output_0_split -> inception_2a/output_inception_2a/output_0_split_0
I0417 17:18:21.290432  3043 net.cpp:411] inception_2a/output_inception_2a/output_0_split -> inception_2a/output_inception_2a/output_0_split_1
I0417 17:18:21.290436  3043 net.cpp:411] inception_2a/output_inception_2a/output_0_split -> inception_2a/output_inception_2a/output_0_split_2
I0417 17:18:21.290439  3043 net.cpp:163] Setting up inception_2a/output_inception_2a/output_0_split
I0417 17:18:21.290443  3043 net.cpp:170] Top shape: 25 512 36 14 (6451200)
I0417 17:18:21.290446  3043 net.cpp:170] Top shape: 25 512 36 14 (6451200)
I0417 17:18:21.290447  3043 net.cpp:170] Top shape: 25 512 36 14 (6451200)
I0417 17:18:21.290448  3043 layer_factory.hpp:74] Creating layer inception_2b/3x3_reduce
I0417 17:18:21.290452  3043 net.cpp:133] Creating Layer inception_2b/3x3_reduce
I0417 17:18:21.290454  3043 net.cpp:453] inception_2b/3x3_reduce <- inception_2a/output_inception_2a/output_0_split_0
I0417 17:18:21.290457  3043 net.cpp:411] inception_2b/3x3_reduce -> inception_2b/3x3_reduce
I0417 17:18:21.290462  3043 net.cpp:163] Setting up inception_2b/3x3_reduce
I0417 17:18:21.521267  3043 net.cpp:170] Top shape: 25 128 36 14 (1612800)
I0417 17:18:21.521278  3043 layer_factory.hpp:74] Creating layer inception_2b/3x3_reduce_bn
I0417 17:18:21.521281  3043 layer_factory.cpp:191] Layer inception_2b/3x3_reduce_bn is using CAFFE engine.
I0417 17:18:21.521286  3043 net.cpp:133] Creating Layer inception_2b/3x3_reduce_bn
I0417 17:18:21.521288  3043 net.cpp:453] inception_2b/3x3_reduce_bn <- inception_2b/3x3_reduce
I0417 17:18:21.521292  3043 net.cpp:411] inception_2b/3x3_reduce_bn -> inception_2b/3x3_reduce_bn
I0417 17:18:21.521296  3043 net.cpp:163] Setting up inception_2b/3x3_reduce_bn
I0417 17:18:21.521306  3043 net.cpp:170] Top shape: 25 128 36 14 (1612800)
I0417 17:18:21.521311  3043 layer_factory.hpp:74] Creating layer inception_2b/relu_3x3_reduce
I0417 17:18:21.521316  3043 net.cpp:133] Creating Layer inception_2b/relu_3x3_reduce
I0417 17:18:21.521317  3043 net.cpp:453] inception_2b/relu_3x3_reduce <- inception_2b/3x3_reduce_bn
I0417 17:18:21.521319  3043 net.cpp:400] inception_2b/relu_3x3_reduce -> inception_2b/3x3_reduce_bn (in-place)
I0417 17:18:21.521322  3043 net.cpp:163] Setting up inception_2b/relu_3x3_reduce
I0417 17:18:21.521507  3043 net.cpp:170] Top shape: 25 128 36 14 (1612800)
I0417 17:18:21.521513  3043 layer_factory.hpp:74] Creating layer inception_2b/3x3
I0417 17:18:21.521518  3043 net.cpp:133] Creating Layer inception_2b/3x3
I0417 17:18:21.521520  3043 net.cpp:453] inception_2b/3x3 <- inception_2b/3x3_reduce_bn
I0417 17:18:21.521525  3043 net.cpp:411] inception_2b/3x3 -> inception_2b/3x3
I0417 17:18:21.521529  3043 net.cpp:163] Setting up inception_2b/3x3
I0417 17:18:21.536804  3043 net.cpp:170] Top shape: 25 128 18 7 (403200)
I0417 17:18:21.536814  3043 layer_factory.hpp:74] Creating layer inception_2b/3x3_bn
I0417 17:18:21.536818  3043 layer_factory.cpp:191] Layer inception_2b/3x3_bn is using CAFFE engine.
I0417 17:18:21.536821  3043 net.cpp:133] Creating Layer inception_2b/3x3_bn
I0417 17:18:21.536824  3043 net.cpp:453] inception_2b/3x3_bn <- inception_2b/3x3
I0417 17:18:21.536828  3043 net.cpp:411] inception_2b/3x3_bn -> inception_2b/3x3_bn
I0417 17:18:21.536833  3043 net.cpp:163] Setting up inception_2b/3x3_bn
I0417 17:18:21.536840  3043 net.cpp:170] Top shape: 25 128 18 7 (403200)
I0417 17:18:21.536846  3043 layer_factory.hpp:74] Creating layer inception_2b/relu_3x3
I0417 17:18:21.536849  3043 net.cpp:133] Creating Layer inception_2b/relu_3x3
I0417 17:18:21.536850  3043 net.cpp:453] inception_2b/relu_3x3 <- inception_2b/3x3_bn
I0417 17:18:21.536854  3043 net.cpp:400] inception_2b/relu_3x3 -> inception_2b/3x3_bn (in-place)
I0417 17:18:21.536856  3043 net.cpp:163] Setting up inception_2b/relu_3x3
I0417 17:18:21.536964  3043 net.cpp:170] Top shape: 25 128 18 7 (403200)
I0417 17:18:21.536969  3043 layer_factory.hpp:74] Creating layer inception_2b/double_3x3_reduce
I0417 17:18:21.536973  3043 net.cpp:133] Creating Layer inception_2b/double_3x3_reduce
I0417 17:18:21.536975  3043 net.cpp:453] inception_2b/double_3x3_reduce <- inception_2a/output_inception_2a/output_0_split_1
I0417 17:18:21.536979  3043 net.cpp:411] inception_2b/double_3x3_reduce -> inception_2b/double_3x3_reduce
I0417 17:18:21.536983  3043 net.cpp:163] Setting up inception_2b/double_3x3_reduce
I0417 17:18:21.767846  3043 net.cpp:170] Top shape: 25 128 36 14 (1612800)
I0417 17:18:21.767856  3043 layer_factory.hpp:74] Creating layer inception_2b/double_3x3_reduce_bn
I0417 17:18:21.767859  3043 layer_factory.cpp:191] Layer inception_2b/double_3x3_reduce_bn is using CAFFE engine.
I0417 17:18:21.767863  3043 net.cpp:133] Creating Layer inception_2b/double_3x3_reduce_bn
I0417 17:18:21.767865  3043 net.cpp:453] inception_2b/double_3x3_reduce_bn <- inception_2b/double_3x3_reduce
I0417 17:18:21.767869  3043 net.cpp:411] inception_2b/double_3x3_reduce_bn -> inception_2b/double_3x3_reduce_bn
I0417 17:18:21.767874  3043 net.cpp:163] Setting up inception_2b/double_3x3_reduce_bn
I0417 17:18:21.767884  3043 net.cpp:170] Top shape: 25 128 36 14 (1612800)
I0417 17:18:21.767889  3043 layer_factory.hpp:74] Creating layer inception_2b/relu_double_3x3_reduce
I0417 17:18:21.767892  3043 net.cpp:133] Creating Layer inception_2b/relu_double_3x3_reduce
I0417 17:18:21.767894  3043 net.cpp:453] inception_2b/relu_double_3x3_reduce <- inception_2b/double_3x3_reduce_bn
I0417 17:18:21.767897  3043 net.cpp:400] inception_2b/relu_double_3x3_reduce -> inception_2b/double_3x3_reduce_bn (in-place)
I0417 17:18:21.767900  3043 net.cpp:163] Setting up inception_2b/relu_double_3x3_reduce
I0417 17:18:21.768007  3043 net.cpp:170] Top shape: 25 128 36 14 (1612800)
I0417 17:18:21.768013  3043 layer_factory.hpp:74] Creating layer inception_2b/double_3x3_1
I0417 17:18:21.768018  3043 net.cpp:133] Creating Layer inception_2b/double_3x3_1
I0417 17:18:21.768019  3043 net.cpp:453] inception_2b/double_3x3_1 <- inception_2b/double_3x3_reduce_bn
I0417 17:18:21.768023  3043 net.cpp:411] inception_2b/double_3x3_1 -> inception_2b/double_3x3_1
I0417 17:18:21.768026  3043 net.cpp:163] Setting up inception_2b/double_3x3_1
I0417 17:18:21.852380  3043 net.cpp:170] Top shape: 25 128 36 14 (1612800)
I0417 17:18:21.852391  3043 layer_factory.hpp:74] Creating layer inception_2b/double_3x3_1_bn
I0417 17:18:21.852393  3043 layer_factory.cpp:191] Layer inception_2b/double_3x3_1_bn is using CAFFE engine.
I0417 17:18:21.852397  3043 net.cpp:133] Creating Layer inception_2b/double_3x3_1_bn
I0417 17:18:21.852401  3043 net.cpp:453] inception_2b/double_3x3_1_bn <- inception_2b/double_3x3_1
I0417 17:18:21.852404  3043 net.cpp:411] inception_2b/double_3x3_1_bn -> inception_2b/double_3x3_1_bn
I0417 17:18:21.852408  3043 net.cpp:163] Setting up inception_2b/double_3x3_1_bn
I0417 17:18:21.852418  3043 net.cpp:170] Top shape: 25 128 36 14 (1612800)
I0417 17:18:21.852423  3043 layer_factory.hpp:74] Creating layer inception_2b/relu_double_3x3_1
I0417 17:18:21.852427  3043 net.cpp:133] Creating Layer inception_2b/relu_double_3x3_1
I0417 17:18:21.852429  3043 net.cpp:453] inception_2b/relu_double_3x3_1 <- inception_2b/double_3x3_1_bn
I0417 17:18:21.852432  3043 net.cpp:400] inception_2b/relu_double_3x3_1 -> inception_2b/double_3x3_1_bn (in-place)
I0417 17:18:21.852434  3043 net.cpp:163] Setting up inception_2b/relu_double_3x3_1
I0417 17:18:21.852615  3043 net.cpp:170] Top shape: 25 128 36 14 (1612800)
I0417 17:18:21.852622  3043 layer_factory.hpp:74] Creating layer inception_2b/double_3x3_2
I0417 17:18:21.852627  3043 net.cpp:133] Creating Layer inception_2b/double_3x3_2
I0417 17:18:21.852629  3043 net.cpp:453] inception_2b/double_3x3_2 <- inception_2b/double_3x3_1_bn
I0417 17:18:21.852633  3043 net.cpp:411] inception_2b/double_3x3_2 -> inception_2b/double_3x3_2
I0417 17:18:21.852638  3043 net.cpp:163] Setting up inception_2b/double_3x3_2
I0417 17:18:21.867194  3043 net.cpp:170] Top shape: 25 128 18 7 (403200)
I0417 17:18:21.867204  3043 layer_factory.hpp:74] Creating layer inception_2b/double_3x3_2_bn
I0417 17:18:21.867208  3043 layer_factory.cpp:191] Layer inception_2b/double_3x3_2_bn is using CAFFE engine.
I0417 17:18:21.867211  3043 net.cpp:133] Creating Layer inception_2b/double_3x3_2_bn
I0417 17:18:21.867214  3043 net.cpp:453] inception_2b/double_3x3_2_bn <- inception_2b/double_3x3_2
I0417 17:18:21.867218  3043 net.cpp:411] inception_2b/double_3x3_2_bn -> inception_2b/double_3x3_2_bn
I0417 17:18:21.867223  3043 net.cpp:163] Setting up inception_2b/double_3x3_2_bn
I0417 17:18:21.867230  3043 net.cpp:170] Top shape: 25 128 18 7 (403200)
I0417 17:18:21.867235  3043 layer_factory.hpp:74] Creating layer inception_2b/relu_double_3x3_2
I0417 17:18:21.867238  3043 net.cpp:133] Creating Layer inception_2b/relu_double_3x3_2
I0417 17:18:21.867240  3043 net.cpp:453] inception_2b/relu_double_3x3_2 <- inception_2b/double_3x3_2_bn
I0417 17:18:21.867244  3043 net.cpp:400] inception_2b/relu_double_3x3_2 -> inception_2b/double_3x3_2_bn (in-place)
I0417 17:18:21.867246  3043 net.cpp:163] Setting up inception_2b/relu_double_3x3_2
I0417 17:18:21.867352  3043 net.cpp:170] Top shape: 25 128 18 7 (403200)
I0417 17:18:21.867357  3043 layer_factory.hpp:74] Creating layer inception_2b/pool
I0417 17:18:21.867362  3043 net.cpp:133] Creating Layer inception_2b/pool
I0417 17:18:21.867363  3043 net.cpp:453] inception_2b/pool <- inception_2a/output_inception_2a/output_0_split_2
I0417 17:18:21.867367  3043 net.cpp:411] inception_2b/pool -> inception_2b/pool
I0417 17:18:21.867370  3043 net.cpp:163] Setting up inception_2b/pool
I0417 17:18:21.867552  3043 net.cpp:170] Top shape: 25 512 18 7 (1612800)
I0417 17:18:21.867558  3043 layer_factory.hpp:74] Creating layer inception_2b/output
I0417 17:18:21.867563  3043 net.cpp:133] Creating Layer inception_2b/output
I0417 17:18:21.867564  3043 net.cpp:453] inception_2b/output <- inception_2b/3x3_bn
I0417 17:18:21.867568  3043 net.cpp:453] inception_2b/output <- inception_2b/double_3x3_2_bn
I0417 17:18:21.867569  3043 net.cpp:453] inception_2b/output <- inception_2b/pool
I0417 17:18:21.867573  3043 net.cpp:411] inception_2b/output -> inception_2b/output
I0417 17:18:21.867576  3043 net.cpp:163] Setting up inception_2b/output
I0417 17:18:21.867580  3043 net.cpp:170] Top shape: 25 768 18 7 (2419200)
I0417 17:18:21.867581  3043 layer_factory.hpp:74] Creating layer inception_2b/output_inception_2b/output_0_split
I0417 17:18:21.867585  3043 net.cpp:133] Creating Layer inception_2b/output_inception_2b/output_0_split
I0417 17:18:21.867586  3043 net.cpp:453] inception_2b/output_inception_2b/output_0_split <- inception_2b/output
I0417 17:18:21.867590  3043 net.cpp:411] inception_2b/output_inception_2b/output_0_split -> inception_2b/output_inception_2b/output_0_split_0
I0417 17:18:21.867595  3043 net.cpp:411] inception_2b/output_inception_2b/output_0_split -> inception_2b/output_inception_2b/output_0_split_1
I0417 17:18:21.867599  3043 net.cpp:411] inception_2b/output_inception_2b/output_0_split -> inception_2b/output_inception_2b/output_0_split_2
I0417 17:18:21.867602  3043 net.cpp:411] inception_2b/output_inception_2b/output_0_split -> inception_2b/output_inception_2b/output_0_split_3
I0417 17:18:21.867605  3043 net.cpp:163] Setting up inception_2b/output_inception_2b/output_0_split
I0417 17:18:21.867609  3043 net.cpp:170] Top shape: 25 768 18 7 (2419200)
I0417 17:18:21.867610  3043 net.cpp:170] Top shape: 25 768 18 7 (2419200)
I0417 17:18:21.867612  3043 net.cpp:170] Top shape: 25 768 18 7 (2419200)
I0417 17:18:21.867614  3043 net.cpp:170] Top shape: 25 768 18 7 (2419200)
I0417 17:18:21.867615  3043 layer_factory.hpp:74] Creating layer inception_3a/1x1
I0417 17:18:21.867620  3043 net.cpp:133] Creating Layer inception_3a/1x1
I0417 17:18:21.867621  3043 net.cpp:453] inception_3a/1x1 <- inception_2b/output_inception_2b/output_0_split_0
I0417 17:18:21.867625  3043 net.cpp:411] inception_3a/1x1 -> inception_3a/1x1
I0417 17:18:21.867630  3043 net.cpp:163] Setting up inception_3a/1x1
I0417 17:18:22.052793  3043 net.cpp:170] Top shape: 25 256 18 7 (806400)
I0417 17:18:22.052803  3043 layer_factory.hpp:74] Creating layer inception_3a/1x1_bn
I0417 17:18:22.052806  3043 layer_factory.cpp:191] Layer inception_3a/1x1_bn is using CAFFE engine.
I0417 17:18:22.052810  3043 net.cpp:133] Creating Layer inception_3a/1x1_bn
I0417 17:18:22.052812  3043 net.cpp:453] inception_3a/1x1_bn <- inception_3a/1x1
I0417 17:18:22.052816  3043 net.cpp:411] inception_3a/1x1_bn -> inception_3a/1x1_bn
I0417 17:18:22.052820  3043 net.cpp:163] Setting up inception_3a/1x1_bn
I0417 17:18:22.052830  3043 net.cpp:170] Top shape: 25 256 18 7 (806400)
I0417 17:18:22.052835  3043 layer_factory.hpp:74] Creating layer inception_3a/relu_1x1
I0417 17:18:22.052839  3043 net.cpp:133] Creating Layer inception_3a/relu_1x1
I0417 17:18:22.052841  3043 net.cpp:453] inception_3a/relu_1x1 <- inception_3a/1x1_bn
I0417 17:18:22.052845  3043 net.cpp:400] inception_3a/relu_1x1 -> inception_3a/1x1_bn (in-place)
I0417 17:18:22.052847  3043 net.cpp:163] Setting up inception_3a/relu_1x1
I0417 17:18:22.053031  3043 net.cpp:170] Top shape: 25 256 18 7 (806400)
I0417 17:18:22.053038  3043 layer_factory.hpp:74] Creating layer inception_3a/3x3_reduce
I0417 17:18:22.053043  3043 net.cpp:133] Creating Layer inception_3a/3x3_reduce
I0417 17:18:22.053045  3043 net.cpp:453] inception_3a/3x3_reduce <- inception_2b/output_inception_2b/output_0_split_1
I0417 17:18:22.053050  3043 net.cpp:411] inception_3a/3x3_reduce -> inception_3a/3x3_reduce
I0417 17:18:22.053053  3043 net.cpp:163] Setting up inception_3a/3x3_reduce
I0417 17:18:22.238036  3043 net.cpp:170] Top shape: 25 256 18 7 (806400)
I0417 17:18:22.238047  3043 layer_factory.hpp:74] Creating layer inception_3a/3x3_reduce_bn
I0417 17:18:22.238050  3043 layer_factory.cpp:191] Layer inception_3a/3x3_reduce_bn is using CAFFE engine.
I0417 17:18:22.238054  3043 net.cpp:133] Creating Layer inception_3a/3x3_reduce_bn
I0417 17:18:22.238056  3043 net.cpp:453] inception_3a/3x3_reduce_bn <- inception_3a/3x3_reduce
I0417 17:18:22.238061  3043 net.cpp:411] inception_3a/3x3_reduce_bn -> inception_3a/3x3_reduce_bn
I0417 17:18:22.238065  3043 net.cpp:163] Setting up inception_3a/3x3_reduce_bn
I0417 17:18:22.238075  3043 net.cpp:170] Top shape: 25 256 18 7 (806400)
I0417 17:18:22.238081  3043 layer_factory.hpp:74] Creating layer inception_3a/relu_3x3_reduce
I0417 17:18:22.238085  3043 net.cpp:133] Creating Layer inception_3a/relu_3x3_reduce
I0417 17:18:22.238086  3043 net.cpp:453] inception_3a/relu_3x3_reduce <- inception_3a/3x3_reduce_bn
I0417 17:18:22.238090  3043 net.cpp:400] inception_3a/relu_3x3_reduce -> inception_3a/3x3_reduce_bn (in-place)
I0417 17:18:22.238095  3043 net.cpp:163] Setting up inception_3a/relu_3x3_reduce
I0417 17:18:22.238205  3043 net.cpp:170] Top shape: 25 256 18 7 (806400)
I0417 17:18:22.238209  3043 layer_factory.hpp:74] Creating layer inception_3a/3x3
I0417 17:18:22.238214  3043 net.cpp:133] Creating Layer inception_3a/3x3
I0417 17:18:22.238215  3043 net.cpp:453] inception_3a/3x3 <- inception_3a/3x3_reduce_bn
I0417 17:18:22.238220  3043 net.cpp:411] inception_3a/3x3 -> inception_3a/3x3
I0417 17:18:22.238224  3043 net.cpp:163] Setting up inception_3a/3x3
I0417 17:18:22.328182  3043 net.cpp:170] Top shape: 25 256 18 7 (806400)
I0417 17:18:22.328192  3043 layer_factory.hpp:74] Creating layer inception_3a/3x3_bn
I0417 17:18:22.328196  3043 layer_factory.cpp:191] Layer inception_3a/3x3_bn is using CAFFE engine.
I0417 17:18:22.328200  3043 net.cpp:133] Creating Layer inception_3a/3x3_bn
I0417 17:18:22.328202  3043 net.cpp:453] inception_3a/3x3_bn <- inception_3a/3x3
I0417 17:18:22.328207  3043 net.cpp:411] inception_3a/3x3_bn -> inception_3a/3x3_bn
I0417 17:18:22.328210  3043 net.cpp:163] Setting up inception_3a/3x3_bn
I0417 17:18:22.328220  3043 net.cpp:170] Top shape: 25 256 18 7 (806400)
I0417 17:18:22.328225  3043 layer_factory.hpp:74] Creating layer inception_3a/relu_3x3
I0417 17:18:22.328229  3043 net.cpp:133] Creating Layer inception_3a/relu_3x3
I0417 17:18:22.328232  3043 net.cpp:453] inception_3a/relu_3x3 <- inception_3a/3x3_bn
I0417 17:18:22.328233  3043 net.cpp:400] inception_3a/relu_3x3 -> inception_3a/3x3_bn (in-place)
I0417 17:18:22.328236  3043 net.cpp:163] Setting up inception_3a/relu_3x3
I0417 17:18:22.328423  3043 net.cpp:170] Top shape: 25 256 18 7 (806400)
I0417 17:18:22.328428  3043 layer_factory.hpp:74] Creating layer inception_3a/double_3x3_reduce
I0417 17:18:22.328433  3043 net.cpp:133] Creating Layer inception_3a/double_3x3_reduce
I0417 17:18:22.328435  3043 net.cpp:453] inception_3a/double_3x3_reduce <- inception_2b/output_inception_2b/output_0_split_2
I0417 17:18:22.328440  3043 net.cpp:411] inception_3a/double_3x3_reduce -> inception_3a/double_3x3_reduce
I0417 17:18:22.328444  3043 net.cpp:163] Setting up inception_3a/double_3x3_reduce
I0417 17:18:22.513350  3043 net.cpp:170] Top shape: 25 256 18 7 (806400)
I0417 17:18:22.513363  3043 layer_factory.hpp:74] Creating layer inception_3a/double_3x3_reduce_bn
I0417 17:18:22.513366  3043 layer_factory.cpp:191] Layer inception_3a/double_3x3_reduce_bn is using CAFFE engine.
I0417 17:18:22.513371  3043 net.cpp:133] Creating Layer inception_3a/double_3x3_reduce_bn
I0417 17:18:22.513375  3043 net.cpp:453] inception_3a/double_3x3_reduce_bn <- inception_3a/double_3x3_reduce
I0417 17:18:22.513380  3043 net.cpp:411] inception_3a/double_3x3_reduce_bn -> inception_3a/double_3x3_reduce_bn
I0417 17:18:22.513386  3043 net.cpp:163] Setting up inception_3a/double_3x3_reduce_bn
I0417 17:18:22.513396  3043 net.cpp:170] Top shape: 25 256 18 7 (806400)
I0417 17:18:22.513402  3043 layer_factory.hpp:74] Creating layer inception_3a/relu_double_3x3_reduce
I0417 17:18:22.513406  3043 net.cpp:133] Creating Layer inception_3a/relu_double_3x3_reduce
I0417 17:18:22.513407  3043 net.cpp:453] inception_3a/relu_double_3x3_reduce <- inception_3a/double_3x3_reduce_bn
I0417 17:18:22.513411  3043 net.cpp:400] inception_3a/relu_double_3x3_reduce -> inception_3a/double_3x3_reduce_bn (in-place)
I0417 17:18:22.513414  3043 net.cpp:163] Setting up inception_3a/relu_double_3x3_reduce
I0417 17:18:22.513613  3043 net.cpp:170] Top shape: 25 256 18 7 (806400)
I0417 17:18:22.513619  3043 layer_factory.hpp:74] Creating layer inception_3a/double_3x3_1
I0417 17:18:22.513624  3043 net.cpp:133] Creating Layer inception_3a/double_3x3_1
I0417 17:18:22.513628  3043 net.cpp:453] inception_3a/double_3x3_1 <- inception_3a/double_3x3_reduce_bn
I0417 17:18:22.513631  3043 net.cpp:411] inception_3a/double_3x3_1 -> inception_3a/double_3x3_1
I0417 17:18:22.513635  3043 net.cpp:163] Setting up inception_3a/double_3x3_1
I0417 17:18:22.603869  3043 net.cpp:170] Top shape: 25 256 18 7 (806400)
I0417 17:18:22.603880  3043 layer_factory.hpp:74] Creating layer inception_3a/double_3x3_1_bn
I0417 17:18:22.603883  3043 layer_factory.cpp:191] Layer inception_3a/double_3x3_1_bn is using CAFFE engine.
I0417 17:18:22.603888  3043 net.cpp:133] Creating Layer inception_3a/double_3x3_1_bn
I0417 17:18:22.603890  3043 net.cpp:453] inception_3a/double_3x3_1_bn <- inception_3a/double_3x3_1
I0417 17:18:22.603894  3043 net.cpp:411] inception_3a/double_3x3_1_bn -> inception_3a/double_3x3_1_bn
I0417 17:18:22.603899  3043 net.cpp:163] Setting up inception_3a/double_3x3_1_bn
I0417 17:18:22.603909  3043 net.cpp:170] Top shape: 25 256 18 7 (806400)
I0417 17:18:22.603914  3043 layer_factory.hpp:74] Creating layer inception_3a/relu_double_3x3_1
I0417 17:18:22.603917  3043 net.cpp:133] Creating Layer inception_3a/relu_double_3x3_1
I0417 17:18:22.603919  3043 net.cpp:453] inception_3a/relu_double_3x3_1 <- inception_3a/double_3x3_1_bn
I0417 17:18:22.603921  3043 net.cpp:400] inception_3a/relu_double_3x3_1 -> inception_3a/double_3x3_1_bn (in-place)
I0417 17:18:22.603924  3043 net.cpp:163] Setting up inception_3a/relu_double_3x3_1
I0417 17:18:22.604033  3043 net.cpp:170] Top shape: 25 256 18 7 (806400)
I0417 17:18:22.604038  3043 layer_factory.hpp:74] Creating layer inception_3a/double_3x3_2
I0417 17:18:22.604043  3043 net.cpp:133] Creating Layer inception_3a/double_3x3_2
I0417 17:18:22.604044  3043 net.cpp:453] inception_3a/double_3x3_2 <- inception_3a/double_3x3_1_bn
I0417 17:18:22.604048  3043 net.cpp:411] inception_3a/double_3x3_2 -> inception_3a/double_3x3_2
I0417 17:18:22.604053  3043 net.cpp:163] Setting up inception_3a/double_3x3_2
I0417 17:18:22.694232  3043 net.cpp:170] Top shape: 25 256 18 7 (806400)
I0417 17:18:22.694243  3043 layer_factory.hpp:74] Creating layer inception_3a/double_3x3_2_bn
I0417 17:18:22.694245  3043 layer_factory.cpp:191] Layer inception_3a/double_3x3_2_bn is using CAFFE engine.
I0417 17:18:22.694249  3043 net.cpp:133] Creating Layer inception_3a/double_3x3_2_bn
I0417 17:18:22.694252  3043 net.cpp:453] inception_3a/double_3x3_2_bn <- inception_3a/double_3x3_2
I0417 17:18:22.694257  3043 net.cpp:411] inception_3a/double_3x3_2_bn -> inception_3a/double_3x3_2_bn
I0417 17:18:22.694262  3043 net.cpp:163] Setting up inception_3a/double_3x3_2_bn
I0417 17:18:22.694270  3043 net.cpp:170] Top shape: 25 256 18 7 (806400)
I0417 17:18:22.694275  3043 layer_factory.hpp:74] Creating layer inception_3a/relu_double_3x3_2
I0417 17:18:22.694278  3043 net.cpp:133] Creating Layer inception_3a/relu_double_3x3_2
I0417 17:18:22.694280  3043 net.cpp:453] inception_3a/relu_double_3x3_2 <- inception_3a/double_3x3_2_bn
I0417 17:18:22.694283  3043 net.cpp:400] inception_3a/relu_double_3x3_2 -> inception_3a/double_3x3_2_bn (in-place)
I0417 17:18:22.694286  3043 net.cpp:163] Setting up inception_3a/relu_double_3x3_2
I0417 17:18:22.694474  3043 net.cpp:170] Top shape: 25 256 18 7 (806400)
I0417 17:18:22.694481  3043 layer_factory.hpp:74] Creating layer inception_3a/pool
I0417 17:18:22.694483  3043 layer_factory.cpp:64] CUDNN does not support padding or multiple tops. Using Caffe's own pooling layer.
I0417 17:18:22.694488  3043 net.cpp:133] Creating Layer inception_3a/pool
I0417 17:18:22.694489  3043 net.cpp:453] inception_3a/pool <- inception_2b/output_inception_2b/output_0_split_3
I0417 17:18:22.694494  3043 net.cpp:411] inception_3a/pool -> inception_3a/pool
I0417 17:18:22.694496  3043 net.cpp:163] Setting up inception_3a/pool
I0417 17:18:22.694500  3043 net.cpp:170] Top shape: 25 768 18 7 (2419200)
I0417 17:18:22.694502  3043 layer_factory.hpp:74] Creating layer inception_3a/pool_proj
I0417 17:18:22.694507  3043 net.cpp:133] Creating Layer inception_3a/pool_proj
I0417 17:18:22.694509  3043 net.cpp:453] inception_3a/pool_proj <- inception_3a/pool
I0417 17:18:22.694512  3043 net.cpp:411] inception_3a/pool_proj -> inception_3a/pool_proj
I0417 17:18:22.694516  3043 net.cpp:163] Setting up inception_3a/pool_proj
I0417 17:18:22.879408  3043 net.cpp:170] Top shape: 25 256 18 7 (806400)
I0417 17:18:22.879420  3043 layer_factory.hpp:74] Creating layer inception_3a/pool_proj_bn
I0417 17:18:22.879421  3043 layer_factory.cpp:191] Layer inception_3a/pool_proj_bn is using CAFFE engine.
I0417 17:18:22.879426  3043 net.cpp:133] Creating Layer inception_3a/pool_proj_bn
I0417 17:18:22.879428  3043 net.cpp:453] inception_3a/pool_proj_bn <- inception_3a/pool_proj
I0417 17:18:22.879434  3043 net.cpp:411] inception_3a/pool_proj_bn -> inception_3a/pool_proj_bn
I0417 17:18:22.879441  3043 net.cpp:163] Setting up inception_3a/pool_proj_bn
I0417 17:18:22.879453  3043 net.cpp:170] Top shape: 25 256 18 7 (806400)
I0417 17:18:22.879461  3043 layer_factory.hpp:74] Creating layer inception_3a/relu_pool_proj
I0417 17:18:22.879465  3043 net.cpp:133] Creating Layer inception_3a/relu_pool_proj
I0417 17:18:22.879467  3043 net.cpp:453] inception_3a/relu_pool_proj <- inception_3a/pool_proj_bn
I0417 17:18:22.879469  3043 net.cpp:400] inception_3a/relu_pool_proj -> inception_3a/pool_proj_bn (in-place)
I0417 17:18:22.879472  3043 net.cpp:163] Setting up inception_3a/relu_pool_proj
I0417 17:18:22.879658  3043 net.cpp:170] Top shape: 25 256 18 7 (806400)
I0417 17:18:22.879664  3043 layer_factory.hpp:74] Creating layer inception_3a/output
I0417 17:18:22.879669  3043 net.cpp:133] Creating Layer inception_3a/output
I0417 17:18:22.879672  3043 net.cpp:453] inception_3a/output <- inception_3a/1x1_bn
I0417 17:18:22.879674  3043 net.cpp:453] inception_3a/output <- inception_3a/3x3_bn
I0417 17:18:22.879676  3043 net.cpp:453] inception_3a/output <- inception_3a/double_3x3_2_bn
I0417 17:18:22.879678  3043 net.cpp:453] inception_3a/output <- inception_3a/pool_proj_bn
I0417 17:18:22.879681  3043 net.cpp:411] inception_3a/output -> inception_3a/output
I0417 17:18:22.879684  3043 net.cpp:163] Setting up inception_3a/output
I0417 17:18:22.879688  3043 net.cpp:170] Top shape: 25 1024 18 7 (3225600)
I0417 17:18:22.879690  3043 layer_factory.hpp:74] Creating layer inception_3a/output_inception_3a/output_0_split
I0417 17:18:22.879693  3043 net.cpp:133] Creating Layer inception_3a/output_inception_3a/output_0_split
I0417 17:18:22.879695  3043 net.cpp:453] inception_3a/output_inception_3a/output_0_split <- inception_3a/output
I0417 17:18:22.879698  3043 net.cpp:411] inception_3a/output_inception_3a/output_0_split -> inception_3a/output_inception_3a/output_0_split_0
I0417 17:18:22.879703  3043 net.cpp:411] inception_3a/output_inception_3a/output_0_split -> inception_3a/output_inception_3a/output_0_split_1
I0417 17:18:22.879706  3043 net.cpp:411] inception_3a/output_inception_3a/output_0_split -> inception_3a/output_inception_3a/output_0_split_2
I0417 17:18:22.879709  3043 net.cpp:163] Setting up inception_3a/output_inception_3a/output_0_split
I0417 17:18:22.879712  3043 net.cpp:170] Top shape: 25 1024 18 7 (3225600)
I0417 17:18:22.879714  3043 net.cpp:170] Top shape: 25 1024 18 7 (3225600)
I0417 17:18:22.879716  3043 net.cpp:170] Top shape: 25 1024 18 7 (3225600)
I0417 17:18:22.879719  3043 layer_factory.hpp:74] Creating layer inception_3b/3x3_reduce
I0417 17:18:22.879722  3043 net.cpp:133] Creating Layer inception_3b/3x3_reduce
I0417 17:18:22.879724  3043 net.cpp:453] inception_3b/3x3_reduce <- inception_3a/output_inception_3a/output_0_split_0
I0417 17:18:22.879727  3043 net.cpp:411] inception_3b/3x3_reduce -> inception_3b/3x3_reduce
I0417 17:18:22.879731  3043 net.cpp:163] Setting up inception_3b/3x3_reduce
I0417 17:18:23.126073  3043 net.cpp:170] Top shape: 25 256 18 7 (806400)
I0417 17:18:23.126087  3043 layer_factory.hpp:74] Creating layer inception_3b/3x3_reduce_bn
I0417 17:18:23.126091  3043 layer_factory.cpp:191] Layer inception_3b/3x3_reduce_bn is using CAFFE engine.
I0417 17:18:23.126096  3043 net.cpp:133] Creating Layer inception_3b/3x3_reduce_bn
I0417 17:18:23.126099  3043 net.cpp:453] inception_3b/3x3_reduce_bn <- inception_3b/3x3_reduce
I0417 17:18:23.126104  3043 net.cpp:411] inception_3b/3x3_reduce_bn -> inception_3b/3x3_reduce_bn
I0417 17:18:23.126109  3043 net.cpp:163] Setting up inception_3b/3x3_reduce_bn
I0417 17:18:23.126121  3043 net.cpp:170] Top shape: 25 256 18 7 (806400)
I0417 17:18:23.126127  3043 layer_factory.hpp:74] Creating layer inception_3b/relu_3x3_reduce
I0417 17:18:23.126129  3043 net.cpp:133] Creating Layer inception_3b/relu_3x3_reduce
I0417 17:18:23.126132  3043 net.cpp:453] inception_3b/relu_3x3_reduce <- inception_3b/3x3_reduce_bn
I0417 17:18:23.126134  3043 net.cpp:400] inception_3b/relu_3x3_reduce -> inception_3b/3x3_reduce_bn (in-place)
I0417 17:18:23.126137  3043 net.cpp:163] Setting up inception_3b/relu_3x3_reduce
I0417 17:18:23.126261  3043 net.cpp:170] Top shape: 25 256 18 7 (806400)
I0417 17:18:23.126267  3043 layer_factory.hpp:74] Creating layer inception_3b/3x3
I0417 17:18:23.126272  3043 net.cpp:133] Creating Layer inception_3b/3x3
I0417 17:18:23.126274  3043 net.cpp:453] inception_3b/3x3 <- inception_3b/3x3_reduce_bn
I0417 17:18:23.126277  3043 net.cpp:411] inception_3b/3x3 -> inception_3b/3x3
I0417 17:18:23.126281  3043 net.cpp:163] Setting up inception_3b/3x3
I0417 17:18:23.147316  3043 net.cpp:170] Top shape: 25 256 9 4 (230400)
I0417 17:18:23.147327  3043 layer_factory.hpp:74] Creating layer inception_3b/3x3_bn
I0417 17:18:23.147330  3043 layer_factory.cpp:191] Layer inception_3b/3x3_bn is using CAFFE engine.
I0417 17:18:23.147335  3043 net.cpp:133] Creating Layer inception_3b/3x3_bn
I0417 17:18:23.147337  3043 net.cpp:453] inception_3b/3x3_bn <- inception_3b/3x3
I0417 17:18:23.147341  3043 net.cpp:411] inception_3b/3x3_bn -> inception_3b/3x3_bn
I0417 17:18:23.147346  3043 net.cpp:163] Setting up inception_3b/3x3_bn
I0417 17:18:23.147354  3043 net.cpp:170] Top shape: 25 256 9 4 (230400)
I0417 17:18:23.147359  3043 layer_factory.hpp:74] Creating layer inception_3b/relu_3x3
I0417 17:18:23.147362  3043 net.cpp:133] Creating Layer inception_3b/relu_3x3
I0417 17:18:23.147364  3043 net.cpp:453] inception_3b/relu_3x3 <- inception_3b/3x3_bn
I0417 17:18:23.147367  3043 net.cpp:400] inception_3b/relu_3x3 -> inception_3b/3x3_bn (in-place)
I0417 17:18:23.147372  3043 net.cpp:163] Setting up inception_3b/relu_3x3
I0417 17:18:23.147565  3043 net.cpp:170] Top shape: 25 256 9 4 (230400)
I0417 17:18:23.147572  3043 layer_factory.hpp:74] Creating layer inception_3b/double_3x3_reduce
I0417 17:18:23.147577  3043 net.cpp:133] Creating Layer inception_3b/double_3x3_reduce
I0417 17:18:23.147579  3043 net.cpp:453] inception_3b/double_3x3_reduce <- inception_3a/output_inception_3a/output_0_split_1
I0417 17:18:23.147583  3043 net.cpp:411] inception_3b/double_3x3_reduce -> inception_3b/double_3x3_reduce
I0417 17:18:23.147588  3043 net.cpp:163] Setting up inception_3b/double_3x3_reduce
I0417 17:18:23.394882  3043 net.cpp:170] Top shape: 25 256 18 7 (806400)
I0417 17:18:23.394896  3043 layer_factory.hpp:74] Creating layer inception_3b/double_3x3_reduce_bn
I0417 17:18:23.394899  3043 layer_factory.cpp:191] Layer inception_3b/double_3x3_reduce_bn is using CAFFE engine.
I0417 17:18:23.394903  3043 net.cpp:133] Creating Layer inception_3b/double_3x3_reduce_bn
I0417 17:18:23.394906  3043 net.cpp:453] inception_3b/double_3x3_reduce_bn <- inception_3b/double_3x3_reduce
I0417 17:18:23.394912  3043 net.cpp:411] inception_3b/double_3x3_reduce_bn -> inception_3b/double_3x3_reduce_bn
I0417 17:18:23.394917  3043 net.cpp:163] Setting up inception_3b/double_3x3_reduce_bn
I0417 17:18:23.394927  3043 net.cpp:170] Top shape: 25 256 18 7 (806400)
I0417 17:18:23.394932  3043 layer_factory.hpp:74] Creating layer inception_3b/relu_double_3x3_reduce
I0417 17:18:23.394960  3043 net.cpp:133] Creating Layer inception_3b/relu_double_3x3_reduce
I0417 17:18:23.394963  3043 net.cpp:453] inception_3b/relu_double_3x3_reduce <- inception_3b/double_3x3_reduce_bn
I0417 17:18:23.394965  3043 net.cpp:400] inception_3b/relu_double_3x3_reduce -> inception_3b/double_3x3_reduce_bn (in-place)
I0417 17:18:23.394968  3043 net.cpp:163] Setting up inception_3b/relu_double_3x3_reduce
I0417 17:18:23.395167  3043 net.cpp:170] Top shape: 25 256 18 7 (806400)
I0417 17:18:23.395174  3043 layer_factory.hpp:74] Creating layer inception_3b/double_3x3_1
I0417 17:18:23.395179  3043 net.cpp:133] Creating Layer inception_3b/double_3x3_1
I0417 17:18:23.395181  3043 net.cpp:453] inception_3b/double_3x3_1 <- inception_3b/double_3x3_reduce_bn
I0417 17:18:23.395184  3043 net.cpp:411] inception_3b/double_3x3_1 -> inception_3b/double_3x3_1
I0417 17:18:23.395189  3043 net.cpp:163] Setting up inception_3b/double_3x3_1
I0417 17:18:23.485088  3043 net.cpp:170] Top shape: 25 256 18 7 (806400)
I0417 17:18:23.485098  3043 layer_factory.hpp:74] Creating layer inception_3b/double_3x3_1_bn
I0417 17:18:23.485101  3043 layer_factory.cpp:191] Layer inception_3b/double_3x3_1_bn is using CAFFE engine.
I0417 17:18:23.485105  3043 net.cpp:133] Creating Layer inception_3b/double_3x3_1_bn
I0417 17:18:23.485107  3043 net.cpp:453] inception_3b/double_3x3_1_bn <- inception_3b/double_3x3_1
I0417 17:18:23.485111  3043 net.cpp:411] inception_3b/double_3x3_1_bn -> inception_3b/double_3x3_1_bn
I0417 17:18:23.485116  3043 net.cpp:163] Setting up inception_3b/double_3x3_1_bn
I0417 17:18:23.485126  3043 net.cpp:170] Top shape: 25 256 18 7 (806400)
I0417 17:18:23.485131  3043 layer_factory.hpp:74] Creating layer inception_3b/relu_double_3x3_1
I0417 17:18:23.485134  3043 net.cpp:133] Creating Layer inception_3b/relu_double_3x3_1
I0417 17:18:23.485136  3043 net.cpp:453] inception_3b/relu_double_3x3_1 <- inception_3b/double_3x3_1_bn
I0417 17:18:23.485138  3043 net.cpp:400] inception_3b/relu_double_3x3_1 -> inception_3b/double_3x3_1_bn (in-place)
I0417 17:18:23.485142  3043 net.cpp:163] Setting up inception_3b/relu_double_3x3_1
I0417 17:18:23.485252  3043 net.cpp:170] Top shape: 25 256 18 7 (806400)
I0417 17:18:23.485258  3043 layer_factory.hpp:74] Creating layer inception_3b/double_3x3_2
I0417 17:18:23.485263  3043 net.cpp:133] Creating Layer inception_3b/double_3x3_2
I0417 17:18:23.485265  3043 net.cpp:453] inception_3b/double_3x3_2 <- inception_3b/double_3x3_1_bn
I0417 17:18:23.485268  3043 net.cpp:411] inception_3b/double_3x3_2 -> inception_3b/double_3x3_2
I0417 17:18:23.485272  3043 net.cpp:163] Setting up inception_3b/double_3x3_2
I0417 17:18:23.505892  3043 net.cpp:170] Top shape: 25 256 9 4 (230400)
I0417 17:18:23.505903  3043 layer_factory.hpp:74] Creating layer inception_3b/double_3x3_2_bn
I0417 17:18:23.505905  3043 layer_factory.cpp:191] Layer inception_3b/double_3x3_2_bn is using CAFFE engine.
I0417 17:18:23.505910  3043 net.cpp:133] Creating Layer inception_3b/double_3x3_2_bn
I0417 17:18:23.505913  3043 net.cpp:453] inception_3b/double_3x3_2_bn <- inception_3b/double_3x3_2
I0417 17:18:23.505916  3043 net.cpp:411] inception_3b/double_3x3_2_bn -> inception_3b/double_3x3_2_bn
I0417 17:18:23.505920  3043 net.cpp:163] Setting up inception_3b/double_3x3_2_bn
I0417 17:18:23.505930  3043 net.cpp:170] Top shape: 25 256 9 4 (230400)
I0417 17:18:23.505934  3043 layer_factory.hpp:74] Creating layer inception_3b/relu_double_3x3_2
I0417 17:18:23.505939  3043 net.cpp:133] Creating Layer inception_3b/relu_double_3x3_2
I0417 17:18:23.505939  3043 net.cpp:453] inception_3b/relu_double_3x3_2 <- inception_3b/double_3x3_2_bn
I0417 17:18:23.505944  3043 net.cpp:400] inception_3b/relu_double_3x3_2 -> inception_3b/double_3x3_2_bn (in-place)
I0417 17:18:23.505946  3043 net.cpp:163] Setting up inception_3b/relu_double_3x3_2
I0417 17:18:23.506130  3043 net.cpp:170] Top shape: 25 256 9 4 (230400)
I0417 17:18:23.506136  3043 layer_factory.hpp:74] Creating layer inception_3b/pool
I0417 17:18:23.506139  3043 layer_factory.cpp:64] CUDNN does not support padding or multiple tops. Using Caffe's own pooling layer.
I0417 17:18:23.506142  3043 net.cpp:133] Creating Layer inception_3b/pool
I0417 17:18:23.506145  3043 net.cpp:453] inception_3b/pool <- inception_3a/output_inception_3a/output_0_split_2
I0417 17:18:23.506148  3043 net.cpp:411] inception_3b/pool -> inception_3b/pool
I0417 17:18:23.506152  3043 net.cpp:163] Setting up inception_3b/pool
I0417 17:18:23.506156  3043 net.cpp:170] Top shape: 25 1024 9 4 (921600)
I0417 17:18:23.506158  3043 layer_factory.hpp:74] Creating layer inception_3b/output
I0417 17:18:23.506161  3043 net.cpp:133] Creating Layer inception_3b/output
I0417 17:18:23.506163  3043 net.cpp:453] inception_3b/output <- inception_3b/3x3_bn
I0417 17:18:23.506165  3043 net.cpp:453] inception_3b/output <- inception_3b/double_3x3_2_bn
I0417 17:18:23.506167  3043 net.cpp:453] inception_3b/output <- inception_3b/pool
I0417 17:18:23.506171  3043 net.cpp:411] inception_3b/output -> inception_3b/output
I0417 17:18:23.506175  3043 net.cpp:163] Setting up inception_3b/output
I0417 17:18:23.506180  3043 net.cpp:170] Top shape: 25 1536 9 4 (1382400)
I0417 17:18:23.506181  3043 layer_factory.hpp:74] Creating layer global_pool
I0417 17:18:23.506183  3043 net.cpp:133] Creating Layer global_pool
I0417 17:18:23.506186  3043 net.cpp:453] global_pool <- inception_3b/output
I0417 17:18:23.506188  3043 net.cpp:411] global_pool -> global_pool
I0417 17:18:23.506191  3043 net.cpp:163] Setting up global_pool
I0417 17:18:23.506366  3043 net.cpp:170] Top shape: 25 1536 1 1 (38400)
I0417 17:18:23.506371  3043 layer_factory.hpp:74] Creating layer gather_global_pool_to_fc7
I0417 17:18:23.506374  3043 net.cpp:133] Creating Layer gather_global_pool_to_fc7
I0417 17:18:23.506376  3043 net.cpp:453] gather_global_pool_to_fc7 <- global_pool
I0417 17:18:23.506381  3043 net.cpp:411] gather_global_pool_to_fc7 -> gathered_global_pool
I0417 17:18:23.506383  3043 net.cpp:163] Setting up gather_global_pool_to_fc7
I0417 17:18:23.506386  3043 net.cpp:170] Top shape: 50 1536 1 1 (76800)
I0417 17:18:23.506388  3043 layer_factory.hpp:74] Creating layer fc7
I0417 17:18:23.506392  3043 net.cpp:133] Creating Layer fc7
I0417 17:18:23.506394  3043 net.cpp:453] fc7 <- gathered_global_pool
I0417 17:18:23.506397  3043 net.cpp:411] fc7 -> fc7
I0417 17:18:23.506399  3043 net.cpp:163] Setting up fc7
I0417 17:18:23.507937  3043 net.cpp:170] Top shape: 50 256 (12800)
I0417 17:18:23.507944  3043 layer_factory.hpp:74] Creating layer fc7_bn
I0417 17:18:23.507946  3043 layer_factory.cpp:191] Layer fc7_bn is using CAFFE engine.
I0417 17:18:23.507951  3043 net.cpp:133] Creating Layer fc7_bn
I0417 17:18:23.507952  3043 net.cpp:453] fc7_bn <- fc7
I0417 17:18:23.507956  3043 net.cpp:411] fc7_bn -> fc7_bn
I0417 17:18:23.507959  3043 net.cpp:163] Setting up fc7_bn
I0417 17:18:23.507967  3043 net.cpp:170] Top shape: 50 256 (12800)
I0417 17:18:23.507972  3043 layer_factory.hpp:74] Creating layer relu7
I0417 17:18:23.507975  3043 net.cpp:133] Creating Layer relu7
I0417 17:18:23.507977  3043 net.cpp:453] relu7 <- fc7_bn
I0417 17:18:23.507979  3043 net.cpp:400] relu7 -> fc7_bn (in-place)
I0417 17:18:23.507982  3043 net.cpp:163] Setting up relu7
I0417 17:18:23.508169  3043 net.cpp:170] Top shape: 50 256 (12800)
I0417 17:18:23.508175  3043 layer_factory.hpp:74] Creating layer drop7
I0417 17:18:23.508179  3043 net.cpp:133] Creating Layer drop7
I0417 17:18:23.508180  3043 net.cpp:453] drop7 <- fc7_bn
I0417 17:18:23.508183  3043 net.cpp:400] drop7 -> fc7_bn (in-place)
I0417 17:18:23.508186  3043 net.cpp:163] Setting up drop7
I0417 17:18:23.508191  3043 net.cpp:170] Top shape: 50 256 (12800)
I0417 17:18:23.508193  3043 layer_factory.hpp:74] Creating layer fc8_3dpes
I0417 17:18:23.508198  3043 net.cpp:133] Creating Layer fc8_3dpes
I0417 17:18:23.508199  3043 net.cpp:453] fc8_3dpes <- fc7_bn
I0417 17:18:23.508203  3043 net.cpp:411] fc8_3dpes -> fc8_3dpes
I0417 17:18:23.508208  3043 net.cpp:163] Setting up fc8_3dpes
I0417 17:18:23.508558  3043 net.cpp:170] Top shape: 50 193 (9650)
I0417 17:18:23.508563  3043 layer_factory.hpp:74] Creating layer gather_data_to_loss
I0417 17:18:23.508565  3043 net.cpp:133] Creating Layer gather_data_to_loss
I0417 17:18:23.508568  3043 net.cpp:453] gather_data_to_loss <- label
I0417 17:18:23.508571  3043 net.cpp:411] gather_data_to_loss -> gathered_label
I0417 17:18:23.508574  3043 net.cpp:163] Setting up gather_data_to_loss
I0417 17:18:23.508576  3043 net.cpp:170] Top shape: 50 (50)
I0417 17:18:23.508579  3043 layer_factory.hpp:74] Creating layer loss
I0417 17:18:23.508581  3043 net.cpp:133] Creating Layer loss
I0417 17:18:23.508582  3043 net.cpp:453] loss <- fc8_3dpes
I0417 17:18:23.508584  3043 net.cpp:453] loss <- gathered_label
I0417 17:18:23.508587  3043 net.cpp:411] loss -> loss
I0417 17:18:23.508591  3043 net.cpp:163] Setting up loss
I0417 17:18:23.508594  3043 layer_factory.hpp:74] Creating layer loss
…
I0417 17:18:23.514542  3043 net.cpp:330] The NetState phase (1) differed from the phase (0) specified by a rule in layer data
I0417 17:18:23.515166  3043 net.cpp:47] Initializing net from parameters: 
name: "3DPeS"
state {
  phase: TEST
}
richness: 1000
layer {
  name: "data"
  type: "Data"
  top: "data"
  top: "label"
  include {
    phase: TEST
  }
  transform_param {
    mirror: false
    mean_value: 102
    mean_value: 102
    mean_value: 101
    crop_height: 144
    crop_width: 56
  }
  data_param {
    source: "external/exp/db/3dpes/val_lmdb"
    batch_size: 20
    backend: LMDB
  }
}
layer {
  name: "conv1"
  type: "Convolution"
  bottom: "data"
  top: "conv1"
  param {
    lr_mult: 1
    decay_mult: 1
  }
  param {
    lr_mult: 2
    decay_mult: 0
  }
  convolution_param {
    num_output: 32
    pad: 1
    kernel_size: 3
    stride: 1
    weight_filler {
      type: "xavier"
    }
    bias_filler {
      type: "constant"
      value: 0.2
    }
  }
}
layer {
  name: "conv1_bn"
  type: "BN"
  bottom: "conv1"
  top: "conv1_bn"
  param {
    lr_mult: 1
    decay_mult: 0
  }
  param {
    lr_mult: 1
    decay_mult: 0
  }
  bn_param {
    slope_filler {
      type: "constant"
      value: 1
    }
    bias_filler {
      type: "constant"
      value: 0
    }
  }
}
layer {
  name: "relu1"
  type: "ReLU"
  bottom: "conv1_bn"
  top: "conv1_bn"
}
layer {
  name: "conv2"
  type: "Convolution"
  bottom: "conv1_bn"
  top: "conv2"
  param {
    lr_mult: 1
    decay_mult: 1
  }
  param {
    lr_mult: 2
    decay_mult: 0
  }
  convolution_param {
    num_output: 32
    pad: 1
    kernel_size: 3
    stride: 1
    weight_filler {
      type: "xavier"
    }
    bias_filler {
      type: "constant"
      value: 0.2
    }
  }
}
layer {
  name: "conv2_bn"
  type: "BN"
  bottom: "conv2"
  top: "conv2_bn"
  param {
    lr_mult: 1
    decay_mult: 0
  }
  param {
    lr_mult: 1
    decay_mult: 0
  }
  bn_param {
    slope_filler {
      type: "constant"
      value: 1
    }
    bias_filler {
      type: "constant"
      value: 0
    }
  }
}
layer {
  name: "relu2"
  type: "ReLU"
  bottom: "conv2_bn"
  top: "conv2_bn"
}
layer {
  name: "conv3"
  type: "Convolution"
  bottom: "conv2_bn"
  top: "conv3"
  param {
    lr_mult: 1
    decay_mult: 1
  }
  param {
    lr_mult: 2
    decay_mult: 0
  }
  convolution_param {
    num_output: 32
    pad: 1
    kernel_size: 3
    stride: 1
    weight_filler {
      type: "xavier"
    }
    bias_filler {
      type: "constant"
      value: 0.2
    }
  }
}
layer {
  name: "conv3_bn"
  type: "BN"
  bottom: "conv3"
  top: "conv3_bn"
  param {
    lr_mult: 1
    decay_mult: 0
  }
  param {
    lr_mult: 1
    decay_mult: 0
  }
  bn_param {
    slope_filler {
      type: "constant"
      value: 1
    }
    bias_filler {
      type: "constant"
      value: 0
    }
  }
}
layer {
  name: "relu3"
  type: "ReLU"
  bottom: "conv3_bn"
  top: "conv3_bn"
}
layer {
  name: "pool1"
  type: "Pooling"
  bottom: "conv3_bn"
  top: "pool1"
  pooling_param {
    pool: MAX
    kernel_size: 2
    stride: 2
  }
}
layer {
  name: "inception_1a/1x1"
  type: "Convolution"
  bottom: "pool1"
  top: "inception_1a/1x1"
  param {
    lr_mult: 1
    decay_mult: 1
  }
  param {
    lr_mult: 2
    decay_mult: 0
  }
  convolution_param {
    num_output: 64
    kernel_size: 1
    weight_filler {
      type: "xavier"
    }
    bias_filler {
      type: "constant"
      value: 0.2
    }
  }
}
layer {
  name: "inception_1a/1x1_bn"
  type: "BN"
  bottom: "inception_1a/1x1"
  top: "inception_1a/1x1_bn"
  param {
    lr_mult: 1
    decay_mult: 0
  }
  param {
    lr_mult: 1
    decay_mult: 0
  }
  bn_param {
    slope_filler {
      type: "constant"
      value: 1
    }
    bias_filler {
      type: "constant"
      value: 0
    }
  }
}
layer {
  name: "inception_1a/relu_1x1"
  type: "ReLU"
  bottom: "inception_1a/1x1_bn"
  top: "inception_1a/1x1_bn"
}
layer {
  name: "inception_1a/3x3_reduce"
  type: "Convolution"
  bottom: "pool1"
  top: "inception_1a/3x3_reduce"
  param {
    lr_mult: 1
    decay_mult: 1
  }
  param {
    lr_mult: 2
    decay_mult: 0
  }
  convolution_param {
    num_output: 64
    kernel_size: 1
    weight_filler {
      type: "xavier"
    }
    bias_filler {
      type: "constant"
      value: 0.2
    }
  }
}
layer {
  name: "inception_1a/3x3_reduce_bn"
  type: "BN"
  bottom: "inception_1a/3x3_reduce"
  top: "inception_1a/3x3_reduce_bn"
  param {
    lr_mult: 1
    decay_mult: 0
  }
  param {
    lr_mult: 1
    decay_mult: 0
  }
  bn_param {
    slope_filler {
      type: "constant"
      value: 1
    }
    bias_filler {
      type: "constant"
      value: 0
    }
  }
}
layer {
  name: "inception_1a/relu_3x3_reduce"
  type: "ReLU"
  bottom: "inception_1a/3x3_reduce_bn"
  top: "inception_1a/3x3_reduce_bn"
}
layer {
  name: "inception_1a/3x3"
  type: "Convolution"
  bottom: "inception_1a/3x3_reduce_bn"
  top: "inception_1a/3x3"
  param {
    lr_mult: 1
    decay_mult: 1
  }
  param {
    lr_mult: 2
    decay_mult: 0
  }
  convolution_param {
    num_output: 64
    pad: 1
    kernel_size: 3
    weight_filler {
      type: "xavier"
    }
    bias_filler {
      type: "constant"
      value: 0.2
    }
  }
}
layer {
  name: "inception_1a/3x3_bn"
  type: "BN"
  bottom: "inception_1a/3x3"
  top: "inception_1a/3x3_bn"
  param {
    lr_mult: 1
    decay_mult: 0
  }
  param {
    lr_mult: 1
    decay_mult: 0
  }
  bn_param {
    slope_filler {
      type: "constant"
      value: 1
    }
    bias_filler {
      type: "constant"
      value: 0
    }
  }
}
layer {
  name: "inception_1a/relu_3x3"
  type: "ReLU"
  bottom: "inception_1a/3x3_bn"
  top: "inception_1a/3x3_bn"
}
layer {
  name: "inception_1a/double_3x3_reduce"
  type: "Convolution"
  bottom: "pool1"
  top: "inception_1a/double_3x3_reduce"
  param {
    lr_mult: 1
    decay_mult: 1
  }
  param {
    lr_mult: 2
    decay_mult: 0
  }
  convolution_param {
    num_output: 64
    kernel_size: 1
    weight_filler {
      type: "xavier"
    }
    bias_filler {
      type: "constant"
      value: 0.2
    }
  }
}
layer {
  name: "inception_1a/double_3x3_reduce_bn"
  type: "BN"
  bottom: "inception_1a/double_3x3_reduce"
  top: "inception_1a/double_3x3_reduce_bn"
  param {
    lr_mult: 1
    decay_mult: 0
  }
  param {
    lr_mult: 1
    decay_mult: 0
  }
  bn_param {
    slope_filler {
      type: "constant"
      value: 1
    }
    bias_filler {
      type: "constant"
      value: 0
    }
  }
}
layer {
  name: "inception_1a/relu_double_3x3_reduce"
  type: "ReLU"
  bottom: "inception_1a/double_3x3_reduce_bn"
  top: "inception_1a/double_3x3_reduce_bn"
}
layer {
  name: "inception_1a/double_3x3_1"
  type: "Convolution"
  bottom: "inception_1a/double_3x3_reduce_bn"
  top: "inception_1a/double_3x3_1"
  param {
    lr_mult: 1
    decay_mult: 1
  }
  param {
    lr_mult: 2
    decay_mult: 0
  }
  convolution_param {
    num_output: 64
    pad: 1
    kernel_size: 3
    weight_filler {
      type: "xavier"
    }
    bias_filler {
      type: "constant"
      value: 0.2
    }
  }
}
layer {
  name: "inception_1a/double_3x3_1_bn"
  type: "BN"
  bottom: "inception_1a/double_3x3_1"
  top: "inception_1a/double_3x3_1_bn"
  param {
    lr_mult: 1
    decay_mult: 0
  }
  param {
    lr_mult: 1
    decay_mult: 0
  }
  bn_param {
    slope_filler {
      type: "constant"
      value: 1
    }
    bias_filler {
      type: "constant"
      value: 0
    }
  }
}
layer {
  name: "inception_1a/relu_double_3x3_1"
  type: "ReLU"
  bottom: "inception_1a/double_3x3_1_bn"
  top: "inception_1a/double_3x3_1_bn"
}
layer {
  name: "inception_1a/double_3x3_2"
  type: "Convolution"
  bottom: "inception_1a/double_3x3_1_bn"
  top: "inception_1a/double_3x3_2"
  param {
    lr_mult: 1
    decay_mult: 1
  }
  param {
    lr_mult: 2
    decay_mult: 0
  }
  convolution_param {
    num_output: 64
    pad: 1
    kernel_size: 3
    weight_filler {
      type: "xavier"
    }
    bias_filler {
      type: "constant"
      value: 0.2
    }
  }
}
layer {
  name: "inception_1a/double_3x3_2_bn"
  type: "BN"
  bottom: "inception_1a/double_3x3_2"
  top: "inception_1a/double_3x3_2_bn"
  param {
    lr_mult: 1
    decay_mult: 0
  }
  param {
    lr_mult: 1
    decay_mult: 0
  }
  bn_param {
    slope_filler {
      type: "constant"
      value: 1
    }
    bias_filler {
      type: "constant"
      value: 0
    }
  }
}
layer {
  name: "inception_1a/relu_double_3x3_2"
  type: "ReLU"
  bottom: "inception_1a/double_3x3_2_bn"
  top: "inception_1a/double_3x3_2_bn"
}
layer {
  name: "inception_1a/pool"
  type: "Pooling"
  bottom: "pool1"
  top: "inception_1a/pool"
  pooling_param {
    pool: AVE
    kernel_size: 3
    stride: 1
    pad: 1
  }
}
layer {
  name: "inception_1a/pool_proj"
  type: "Convolution"
  bottom: "inception_1a/pool"
  top: "inception_1a/pool_proj"
  param {
    lr_mult: 1
    decay_mult: 1
  }
  param {
    lr_mult: 2
    decay_mult: 0
  }
  convolution_param {
    num_output: 64
    kernel_size: 1
    weight_filler {
      type: "xavier"
    }
    bias_filler {
      type: "constant"
      value: 0.2
    }
  }
}
layer {
  name: "inception_1a/pool_proj_bn"
  type: "BN"
  bottom: "inception_1a/pool_proj"
  top: "inception_1a/pool_proj_bn"
  param {
    lr_mult: 1
    decay_mult: 0
  }
  param {
    lr_mult: 1
    decay_mult: 0
  }
  bn_param {
    slope_filler {
      type: "constant"
      value: 1
    }
    bias_filler {
      type: "constant"
      value: 0
    }
  }
}
layer {
  name: "inception_1a/relu_pool_proj"
  type: "ReLU"
  bottom: "inception_1a/pool_proj_bn"
  top: "inception_1a/pool_proj_bn"
}
layer {
  name: "inception_1a/output"
  type: "Concat"
  bottom: "inception_1a/1x1_bn"
  bottom: "inception_1a/3x3_bn"
  bottom: "inception_1a/double_3x3_2_bn"
  bottom: "inception_1a/pool_proj_bn"
  top: "inception_1a/output"
}
layer {
  name: "inception_1b/3x3_reduce"
  type: "Convolution"
  bottom: "inception_1a/output"
  top: "inception_1b/3x3_reduce"
  param {
    lr_mult: 1
    decay_mult: 1
  }
  param {
    lr_mult: 2
    decay_mult: 0
  }
  convolution_param {
    num_output: 64
    kernel_size: 1
    weight_filler {
      type: "xavier"
    }
    bias_filler {
      type: "constant"
      value: 0.2
    }
  }
}
layer {
  name: "inception_1b/3x3_reduce_bn"
  type: "BN"
  bottom: "inception_1b/3x3_reduce"
  top: "inception_1b/3x3_reduce_bn"
  param {
    lr_mult: 1
    decay_mult: 0
  }
  param {
    lr_mult: 1
    decay_mult: 0
  }
  bn_param {
    slope_filler {
      type: "constant"
      value: 1
    }
    bias_filler {
      type: "constant"
      value: 0
    }
  }
}
layer {
  name: "inception_1b/relu_3x3_reduce"
  type: "ReLU"
  bottom: "inception_1b/3x3_reduce_bn"
  top: "inception_1b/3x3_reduce_bn"
}
layer {
  name: "inception_1b/3x3"
  type: "Convolution"
  bottom: "inception_1b/3x3_reduce_bn"
  top: "inception_1b/3x3"
  param {
    lr_mult: 1
    decay_mult: 1
  }
  param {
    lr_mult: 2
    decay_mult: 0
  }
  convolution_param {
    num_output: 64
    pad: 1
    kernel_size: 3
    stride: 2
    weight_filler {
      type: "xavier"
    }
    bias_filler {
      type: "constant"
      value: 0.2
    }
  }
}
layer {
  name: "inception_1b/3x3_bn"
  type: "BN"
  bottom: "inception_1b/3x3"
  top: "inception_1b/3x3_bn"
  param {
    lr_mult: 1
    decay_mult: 0
  }
  param {
    lr_mult: 1
    decay_mult: 0
  }
  bn_param {
    slope_filler {
      type: "constant"
      value: 1
    }
    bias_filler {
      type: "constant"
      value: 0
    }
  }
}
layer {
  name: "inception_1b/relu_3x3"
  type: "ReLU"
  bottom: "inception_1b/3x3_bn"
  top: "inception_1b/3x3_bn"
}
layer {
  name: "inception_1b/double_3x3_reduce"
  type: "Convolution"
  bottom: "inception_1a/output"
  top: "inception_1b/double_3x3_reduce"
  param {
    lr_mult: 1
    decay_mult: 1
  }
  param {
    lr_mult: 2
    decay_mult: 0
  }
  convolution_param {
    num_output: 64
    kernel_size: 1
    weight_filler {
      type: "xavier"
    }
    bias_filler {
      type: "constant"
      value: 0.2
    }
  }
}
layer {
  name: "inception_1b/double_3x3_reduce_bn"
  type: "BN"
  bottom: "inception_1b/double_3x3_reduce"
  top: "inception_1b/double_3x3_reduce_bn"
  param {
    lr_mult: 1
    decay_mult: 0
  }
  param {
    lr_mult: 1
    decay_mult: 0
  }
  bn_param {
    slope_filler {
      type: "constant"
      value: 1
    }
    bias_filler {
      type: "constant"
      value: 0
    }
  }
}
layer {
  name: "inception_1b/relu_double_3x3_reduce"
  type: "ReLU"
  bottom: "inception_1b/double_3x3_reduce_bn"
  top: "inception_1b/double_3x3_reduce_bn"
}
layer {
  name: "inception_1b/double_3x3_1"
  type: "Convolution"
  bottom: "inception_1b/double_3x3_reduce_bn"
  top: "inception_1b/double_3x3_1"
  param {
    lr_mult: 1
    decay_mult: 1
  }
  param {
    lr_mult: 2
    decay_mult: 0
  }
  convolution_param {
    num_output: 64
    pad: 1
    kernel_size: 3
    weight_filler {
      type: "xavier"
    }
    bias_filler {
      type: "constant"
      value: 0.2
    }
  }
}
layer {
  name: "inception_1b/double_3x3_1_bn"
  type: "BN"
  bottom: "inception_1b/double_3x3_1"
  top: "inception_1b/double_3x3_1_bn"
  param {
    lr_mult: 1
    decay_mult: 0
  }
  param {
    lr_mult: 1
    decay_mult: 0
  }
  bn_param {
    slope_filler {
      type: "constant"
      value: 1
    }
    bias_filler {
      type: "constant"
      value: 0
    }
  }
}
layer {
  name: "inception_1b/relu_double_3x3_1"
  type: "ReLU"
  bottom: "inception_1b/double_3x3_1_bn"
  top: "inception_1b/double_3x3_1_bn"
}
layer {
  name: "inception_1b/double_3x3_2"
  type: "Convolution"
  bottom: "inception_1b/double_3x3_1_bn"
  top: "inception_1b/double_3x3_2"
  param {
    lr_mult: 1
    decay_mult: 1
  }
  param {
    lr_mult: 2
    decay_mult: 0
  }
  convolution_param {
    num_output: 64
    pad: 1
    kernel_size: 3
    stride: 2
    weight_filler {
      type: "xavier"
    }
    bias_filler {
      type: "constant"
      value: 0.2
    }
  }
}
layer {
  name: "inception_1b/double_3x3_2_bn"
  type: "BN"
  bottom: "inception_1b/double_3x3_2"
  top: "inception_1b/double_3x3_2_bn"
  param {
    lr_mult: 1
    decay_mult: 0
  }
  param {
    lr_mult: 1
    decay_mult: 0
  }
  bn_param {
    slope_filler {
      type: "constant"
      value: 1
    }
    bias_filler {
      type: "constant"
      value: 0
    }
  }
}
layer {
  name: "inception_1b/relu_double_3x3_2"
  type: "ReLU"
  bottom: "inception_1b/double_3x3_2_bn"
  top: "inception_1b/double_3x3_2_bn"
}
layer {
  name: "inception_1b/pool"
  type: "Pooling"
  bottom: "inception_1a/output"
  top: "inception_1b/pool"
  pooling_param {
    pool: MAX
    kernel_size: 3
    stride: 2
  }
}
layer {
  name: "inception_1b/output"
  type: "Concat"
  bottom: "inception_1b/3x3_bn"
  bottom: "inception_1b/double_3x3_2_bn"
  bottom: "inception_1b/pool"
  top: "inception_1b/output"
}
layer {
  name: "inception_2a/1x1"
  type: "Convolution"
  bottom: "inception_1b/output"
  top: "inception_2a/1x1"
  param {
    lr_mult: 1
    decay_mult: 1
  }
  param {
    lr_mult: 2
    decay_mult: 0
  }
  convolution_param {
    num_output: 128
    kernel_size: 1
    weight_filler {
      type: "xavier"
    }
    bias_filler {
      type: "constant"
      value: 0.2
    }
  }
}
layer {
  name: "inception_2a/1x1_bn"
  type: "BN"
  bottom: "inception_2a/1x1"
  top: "inception_2a/1x1_bn"
  param {
    lr_mult: 1
    decay_mult: 0
  }
  param {
    lr_mult: 1
    decay_mult: 0
  }
  bn_param {
    slope_filler {
      type: "constant"
      value: 1
    }
    bias_filler {
      type: "constant"
      value: 0
    }
  }
}
layer {
  name: "inception_2a/relu_1x1"
  type: "ReLU"
  bottom: "inception_2a/1x1_bn"
  top: "inception_2a/1x1_bn"
}
layer {
  name: "inception_2a/3x3_reduce"
  type: "Convolution"
  bottom: "inception_1b/output"
  top: "inception_2a/3x3_reduce"
  param {
    lr_mult: 1
    decay_mult: 1
  }
  param {
    lr_mult: 2
    decay_mult: 0
  }
  convolution_param {
    num_output: 128
    kernel_size: 1
    weight_filler {
      type: "xavier"
    }
    bias_filler {
      type: "constant"
      value: 0.2
    }
  }
}
layer {
  name: "inception_2a/3x3_reduce_bn"
  type: "BN"
  bottom: "inception_2a/3x3_reduce"
  top: "inception_2a/3x3_reduce_bn"
  param {
    lr_mult: 1
    decay_mult: 0
  }
  param {
    lr_mult: 1
    decay_mult: 0
  }
  bn_param {
    slope_filler {
      type: "constant"
      value: 1
    }
    bias_filler {
      type: "constant"
      value: 0
    }
  }
}
layer {
  name: "inception_2a/relu_3x3_reduce"
  type: "ReLU"
  bottom: "inception_2a/3x3_reduce_bn"
  top: "inception_2a/3x3_reduce_bn"
}
layer {
  name: "inception_2a/3x3"
  type: "Convolution"
  bottom: "inception_2a/3x3_reduce_bn"
  top: "inception_2a/3x3"
  param {
    lr_mult: 1
    decay_mult: 1
  }
  param {
    lr_mult: 2
    decay_mult: 0
  }
  convolution_param {
    num_output: 128
    pad: 1
    kernel_size: 3
    weight_filler {
      type: "xavier"
    }
    bias_filler {
      type: "constant"
      value: 0.2
    }
  }
}
layer {
  name: "inception_2a/3x3_bn"
  type: "BN"
  bottom: "inception_2a/3x3"
  top: "inception_2a/3x3_bn"
  param {
    lr_mult: 1
    decay_mult: 0
  }
  param {
    lr_mult: 1
    decay_mult: 0
  }
  bn_param {
    slope_filler {
      type: "constant"
      value: 1
    }
    bias_filler {
      type: "constant"
      value: 0
    }
  }
}
layer {
  name: "inception_2a/relu_3x3"
  type: "ReLU"
  bottom: "inception_2a/3x3_bn"
  top: "inception_2a/3x3_bn"
}
layer {
  name: "inception_2a/double_3x3_reduce"
  type: "Convolution"
  bottom: "inception_1b/output"
  top: "inception_2a/double_3x3_reduce"
  param {
    lr_mult: 1
    decay_mult: 1
  }
  param {
    lr_mult: 2
    decay_mult: 0
  }
  convolution_param {
    num_output: 128
    kernel_size: 1
    weight_filler {
      type: "xavier"
    }
    bias_filler {
      type: "constant"
      value: 0.2
    }
  }
}
layer {
  name: "inception_2a/double_3x3_reduce_bn"
  type: "BN"
  bottom: "inception_2a/double_3x3_reduce"
  top: "inception_2a/double_3x3_reduce_bn"
  param {
    lr_mult: 1
    decay_mult: 0
  }
  param {
    lr_mult: 1
    decay_mult: 0
  }
  bn_param {
    slope_filler {
      type: "constant"
      value: 1
    }
    bias_filler {
      type: "constant"
      value: 0
    }
  }
}
layer {
  name: "inception_2a/relu_double_3x3_reduce"
  type: "ReLU"
  bottom: "inception_2a/double_3x3_reduce_bn"
  top: "inception_2a/double_3x3_reduce_bn"
}
layer {
  name: "inception_2a/double_3x3_1"
  type: "Convolution"
  bottom: "inception_2a/double_3x3_reduce_bn"
  top: "inception_2a/double_3x3_1"
  param {
    lr_mult: 1
    decay_mult: 1
  }
  param {
    lr_mult: 2
    decay_mult: 0
  }
  convolution_param {
    num_output: 128
    pad: 1
    kernel_size: 3
    weight_filler {
      type: "xavier"
    }
    bias_filler {
      type: "constant"
      value: 0.2
    }
  }
}
layer {
  name: "inception_2a/double_3x3_1_bn"
  type: "BN"
  bottom: "inception_2a/double_3x3_1"
  top: "inception_2a/double_3x3_1_bn"
  param {
    lr_mult: 1
    decay_mult: 0
  }
  param {
    lr_mult: 1
    decay_mult: 0
  }
  bn_param {
    slope_filler {
      type: "constant"
      value: 1
    }
    bias_filler {
      type: "constant"
      value: 0
    }
  }
}
layer {
  name: "inception_2a/relu_double_3x3_1"
  type: "ReLU"
  bottom: "inception_2a/double_3x3_1_bn"
  top: "inception_2a/double_3x3_1_bn"
}
layer {
  name: "inception_2a/double_3x3_2"
  type: "Convolution"
  bottom: "inception_2a/double_3x3_1_bn"
  top: "inception_2a/double_3x3_2"
  param {
    lr_mult: 1
    decay_mult: 1
  }
  param {
    lr_mult: 2
    decay_mult: 0
  }
  convolution_param {
    num_output: 128
    pad: 1
    kernel_size: 3
    weight_filler {
      type: "xavier"
    }
    bias_filler {
      type: "constant"
      value: 0.2
    }
  }
}
layer {
  name: "inception_2a/double_3x3_2_bn"
  type: "BN"
  bottom: "inception_2a/double_3x3_2"
  top: "inception_2a/double_3x3_2_bn"
  param {
    lr_mult: 1
    decay_mult: 0
  }
  param {
    lr_mult: 1
    decay_mult: 0
  }
  bn_param {
    slope_filler {
      type: "constant"
      value: 1
    }
    bias_filler {
      type: "constant"
      value: 0
    }
  }
}
layer {
  name: "inception_2a/relu_double_3x3_2"
  type: "ReLU"
  bottom: "inception_2a/double_3x3_2_bn"
  top: "inception_2a/double_3x3_2_bn"
}
layer {
  name: "inception_2a/pool"
  type: "Pooling"
  bottom: "inception_1b/output"
  top: "inception_2a/pool"
  pooling_param {
    pool: AVE
    kernel_size: 3
    stride: 1
    pad: 1
  }
}
layer {
  name: "inception_2a/pool_proj"
  type: "Convolution"
  bottom: "inception_2a/pool"
  top: "inception_2a/pool_proj"
  param {
    lr_mult: 1
    decay_mult: 1
  }
  param {
    lr_mult: 2
    decay_mult: 0
  }
  convolution_param {
    num_output: 128
    kernel_size: 1
    weight_filler {
      type: "xavier"
    }
    bias_filler {
      type: "constant"
      value: 0.2
    }
  }
}
layer {
  name: "inception_2a/pool_proj_bn"
  type: "BN"
  bottom: "inception_2a/pool_proj"
  top: "inception_2a/pool_proj_bn"
  param {
    lr_mult: 1
    decay_mult: 0
  }
  param {
    lr_mult: 1
    decay_mult: 0
  }
  bn_param {
    slope_filler {
      type: "constant"
      value: 1
    }
    bias_filler {
      type: "constant"
      value: 0
    }
  }
}
layer {
  name: "inception_2a/relu_pool_proj"
  type: "ReLU"
  bottom: "inception_2a/pool_proj_bn"
  top: "inception_2a/pool_proj_bn"
}
layer {
  name: "inception_2a/output"
  type: "Concat"
  bottom: "inception_2a/1x1_bn"
  bottom: "inception_2a/3x3_bn"
  bottom: "inception_2a/double_3x3_2_bn"
  bottom: "inception_2a/pool_proj_bn"
  top: "inception_2a/output"
}
layer {
  name: "inception_2b/3x3_reduce"
  type: "Convolution"
  bottom: "inception_2a/output"
  top: "inception_2b/3x3_reduce"
  param {
    lr_mult: 1
    decay_mult: 1
  }
  param {
    lr_mult: 2
    decay_mult: 0
  }
  convolution_param {
    num_output: 128
    kernel_size: 1
    weight_filler {
      type: "xavier"
    }
    bias_filler {
      type: "constant"
      value: 0.2
    }
  }
}
layer {
  name: "inception_2b/3x3_reduce_bn"
  type: "BN"
  bottom: "inception_2b/3x3_reduce"
  top: "inception_2b/3x3_reduce_bn"
  param {
    lr_mult: 1
    decay_mult: 0
  }
  param {
    lr_mult: 1
    decay_mult: 0
  }
  bn_param {
    slope_filler {
      type: "constant"
      value: 1
    }
    bias_filler {
      type: "constant"
      value: 0
    }
  }
}
layer {
  name: "inception_2b/relu_3x3_reduce"
  type: "ReLU"
  bottom: "inception_2b/3x3_reduce_bn"
  top: "inception_2b/3x3_reduce_bn"
}
layer {
  name: "inception_2b/3x3"
  type: "Convolution"
  bottom: "inception_2b/3x3_reduce_bn"
  top: "inception_2b/3x3"
  param {
    lr_mult: 1
    decay_mult: 1
  }
  param {
    lr_mult: 2
    decay_mult: 0
  }
  convolution_param {
    num_output: 128
    pad: 1
    kernel_size: 3
    stride: 2
    weight_filler {
      type: "xavier"
    }
    bias_filler {
      type: "constant"
      value: 0.2
    }
  }
}
layer {
  name: "inception_2b/3x3_bn"
  type: "BN"
  bottom: "inception_2b/3x3"
  top: "inception_2b/3x3_bn"
  param {
    lr_mult: 1
    decay_mult: 0
  }
  param {
    lr_mult: 1
    decay_mult: 0
  }
  bn_param {
    slope_filler {
      type: "constant"
      value: 1
    }
    bias_filler {
      type: "constant"
      value: 0
    }
  }
}
layer {
  name: "inception_2b/relu_3x3"
  type: "ReLU"
  bottom: "inception_2b/3x3_bn"
  top: "inception_2b/3x3_bn"
}
layer {
  name: "inception_2b/double_3x3_reduce"
  type: "Convolution"
  bottom: "inception_2a/output"
  top: "inception_2b/double_3x3_reduce"
  param {
    lr_mult: 1
    decay_mult: 1
  }
  param {
    lr_mult: 2
    decay_mult: 0
  }
  convolution_param {
    num_output: 128
    kernel_size: 1
    weight_filler {
      type: "xavier"
    }
    bias_filler {
      type: "constant"
      value: 0.2
    }
  }
}
layer {
  name: "inception_2b/double_3x3_reduce_bn"
  type: "BN"
  bottom: "inception_2b/double_3x3_reduce"
  top: "inception_2b/double_3x3_reduce_bn"
  param {
    lr_mult: 1
    decay_mult: 0
  }
  param {
    lr_mult: 1
    decay_mult: 0
  }
  bn_param {
    slope_filler {
      type: "constant"
      value: 1
    }
    bias_filler {
      type: "constant"
      value: 0
    }
  }
}
layer {
  name: "inception_2b/relu_double_3x3_reduce"
  type: "ReLU"
  bottom: "inception_2b/double_3x3_reduce_bn"
  top: "inception_2b/double_3x3_reduce_bn"
}
layer {
  name: "inception_2b/double_3x3_1"
  type: "Convolution"
  bottom: "inception_2b/double_3x3_reduce_bn"
  top: "inception_2b/double_3x3_1"
  param {
    lr_mult: 1
    decay_mult: 1
  }
  param {
    lr_mult: 2
    decay_mult: 0
  }
  convolution_param {
    num_output: 128
    pad: 1
    kernel_size: 3
    weight_filler {
      type: "xavier"
    }
    bias_filler {
      type: "constant"
      value: 0.2
    }
  }
}
layer {
  name: "inception_2b/double_3x3_1_bn"
  type: "BN"
  bottom: "inception_2b/double_3x3_1"
  top: "inception_2b/double_3x3_1_bn"
  param {
    lr_mult: 1
    decay_mult: 0
  }
  param {
    lr_mult: 1
    decay_mult: 0
  }
  bn_param {
    slope_filler {
      type: "constant"
      value: 1
    }
    bias_filler {
      type: "constant"
      value: 0
    }
  }
}
layer {
  name: "inception_2b/relu_double_3x3_1"
  type: "ReLU"
  bottom: "inception_2b/double_3x3_1_bn"
  top: "inception_2b/double_3x3_1_bn"
}
layer {
  name: "inception_2b/double_3x3_2"
  type: "Convolution"
  bottom: "inception_2b/double_3x3_1_bn"
  top: "inception_2b/double_3x3_2"
  param {
    lr_mult: 1
    decay_mult: 1
  }
  param {
    lr_mult: 2
    decay_mult: 0
  }
  convolution_param {
    num_output: 128
    pad: 1
    kernel_size: 3
    stride: 2
    weight_filler {
      type: "xavier"
    }
    bias_filler {
      type: "constant"
      value: 0.2
    }
  }
}
layer {
  name: "inception_2b/double_3x3_2_bn"
  type: "BN"
  bottom: "inception_2b/double_3x3_2"
  top: "inception_2b/double_3x3_2_bn"
  param {
    lr_mult: 1
    decay_mult: 0
  }
  param {
    lr_mult: 1
    decay_mult: 0
  }
  bn_param {
    slope_filler {
      type: "constant"
      value: 1
    }
    bias_filler {
      type: "constant"
      value: 0
    }
  }
}
layer {
  name: "inception_2b/relu_double_3x3_2"
  type: "ReLU"
  bottom: "inception_2b/double_3x3_2_bn"
  top: "inception_2b/double_3x3_2_bn"
}
layer {
  name: "inception_2b/pool"
  type: "Pooling"
  bottom: "inception_2a/output"
  top: "inception_2b/pool"
  pooling_param {
    pool: MAX
    kernel_size: 3
    stride: 2
  }
}
layer {
  name: "inception_2b/output"
  type: "Concat"
  bottom: "inception_2b/3x3_bn"
  bottom: "inception_2b/double_3x3_2_bn"
  bottom: "inception_2b/pool"
  top: "inception_2b/output"
}
layer {
  name: "inception_3a/1x1"
  type: "Convolution"
  bottom: "inception_2b/output"
  top: "inception_3a/1x1"
  param {
    lr_mult: 1
    decay_mult: 1
  }
  param {
    lr_mult: 2
    decay_mult: 0
  }
  convolution_param {
    num_output: 256
    kernel_size: 1
    weight_filler {
      type: "xavier"
    }
    bias_filler {
      type: "constant"
      value: 0.2
    }
  }
}
layer {
  name: "inception_3a/1x1_bn"
  type: "BN"
  bottom: "inception_3a/1x1"
  top: "inception_3a/1x1_bn"
  param {
    lr_mult: 1
    decay_mult: 0
  }
  param {
    lr_mult: 1
    decay_mult: 0
  }
  bn_param {
    slope_filler {
      type: "constant"
      value: 1
    }
    bias_filler {
      type: "constant"
      value: 0
    }
  }
}
layer {
  name: "inception_3a/relu_1x1"
  type: "ReLU"
  bottom: "inception_3a/1x1_bn"
  top: "inception_3a/1x1_bn"
}
layer {
  name: "inception_3a/3x3_reduce"
  type: "Convolution"
  bottom: "inception_2b/output"
  top: "inception_3a/3x3_reduce"
  param {
    lr_mult: 1
    decay_mult: 1
  }
  param {
    lr_mult: 2
    decay_mult: 0
  }
  convolution_param {
    num_output: 256
    kernel_size: 1
    weight_filler {
      type: "xavier"
    }
    bias_filler {
      type: "constant"
      value: 0.2
    }
  }
}
layer {
  name: "inception_3a/3x3_reduce_bn"
  type: "BN"
  bottom: "inception_3a/3x3_reduce"
  top: "inception_3a/3x3_reduce_bn"
  param {
    lr_mult: 1
    decay_mult: 0
  }
  param {
    lr_mult: 1
    decay_mult: 0
  }
  bn_param {
    slope_filler {
      type: "constant"
      value: 1
    }
    bias_filler {
      type: "constant"
      value: 0
    }
  }
}
layer {
  name: "inception_3a/relu_3x3_reduce"
  type: "ReLU"
  bottom: "inception_3a/3x3_reduce_bn"
  top: "inception_3a/3x3_reduce_bn"
}
layer {
  name: "inception_3a/3x3"
  type: "Convolution"
  bottom: "inception_3a/3x3_reduce_bn"
  top: "inception_3a/3x3"
  param {
    lr_mult: 1
    decay_mult: 1
  }
  param {
    lr_mult: 2
    decay_mult: 0
  }
  convolution_param {
    num_output: 256
    pad: 1
    kernel_size: 3
    weight_filler {
      type: "xavier"
    }
    bias_filler {
      type: "constant"
      value: 0.2
    }
  }
}
layer {
  name: "inception_3a/3x3_bn"
  type: "BN"
  bottom: "inception_3a/3x3"
  top: "inception_3a/3x3_bn"
  param {
    lr_mult: 1
    decay_mult: 0
  }
  param {
    lr_mult: 1
    decay_mult: 0
  }
  bn_param {
    slope_filler {
      type: "constant"
      value: 1
    }
    bias_filler {
      type: "constant"
      value: 0
    }
  }
}
layer {
  name: "inception_3a/relu_3x3"
  type: "ReLU"
  bottom: "inception_3a/3x3_bn"
  top: "inception_3a/3x3_bn"
}
layer {
  name: "inception_3a/double_3x3_reduce"
  type: "Convolution"
  bottom: "inception_2b/output"
  top: "inception_3a/double_3x3_reduce"
  param {
    lr_mult: 1
    decay_mult: 1
  }
  param {
    lr_mult: 2
    decay_mult: 0
  }
  convolution_param {
    num_output: 256
    kernel_size: 1
    weight_filler {
      type: "xavier"
    }
    bias_filler {
      type: "constant"
      value: 0.2
    }
  }
}
layer {
  name: "inception_3a/double_3x3_reduce_bn"
  type: "BN"
  bottom: "inception_3a/double_3x3_reduce"
  top: "inception_3a/double_3x3_reduce_bn"
  param {
    lr_mult: 1
    decay_mult: 0
  }
  param {
    lr_mult: 1
    decay_mult: 0
  }
  bn_param {
    slope_filler {
      type: "constant"
      value: 1
    }
    bias_filler {
      type: "constant"
      value: 0
    }
  }
}
layer {
 
I0417 17:18:23.516002  3043 layer_factory.hpp:74] Creating layer data
I0417 17:18:23.516011  3043 net.cpp:133] Creating Layer data
I0417 17:18:23.516015  3043 net.cpp:411] data -> data
I0417 17:18:23.516018  3043 net.cpp:411] data -> label
I0417 17:18:23.516022  3043 net.cpp:163] Setting up data
I0417 17:18:23.516047  3043 db_lmdb.cpp:22] Opened lmdb external/exp/db/3dpes/val_lmdb
I0417 17:18:23.516062  3043 data_layer.cpp:55] Skipping first 0 data points.
I0417 17:18:23.516073  3043 data_layer.cpp:100] output data size: 10,3,144,56
I0417 17:18:23.516119  3043 net.cpp:170] Top shape: 10 3 144 56 (241920)
I0417 17:18:23.516124  3043 net.cpp:170] Top shape: 10 (10)
I0417 17:18:23.516127  3043 layer_factory.hpp:74] Creating layer label_data_1_split
I0417 17:18:23.516132  3043 net.cpp:133] Creating Layer label_data_1_split
I0417 17:18:23.516135  3043 net.cpp:453] label_data_1_split <- label
I0417 17:18:23.516139  3043 net.cpp:411] label_data_1_split -> label_data_1_split_0
I0417 17:18:23.516146  3043 net.cpp:411] label_data_1_split -> label_data_1_split_1
I0417 17:18:23.516150  3043 net.cpp:163] Setting up label_data_1_split
I0417 17:18:23.516155  3043 net.cpp:170] Top shape: 10 (10)
I0417 17:18:23.516160  3043 net.cpp:170] Top shape: 10 (10)
I0417 17:18:23.516162  3043 layer_factory.hpp:74] Creating layer conv1
I0417 17:18:23.516170  3043 net.cpp:133] Creating Layer conv1
I0417 17:18:23.516173  3043 net.cpp:453] conv1 <- data
I0417 17:18:23.516178  3043 net.cpp:411] conv1 -> conv1
I0417 17:18:23.516183  3043 net.cpp:163] Setting up conv1
I0417 17:18:23.549855  3043 net.cpp:170] Top shape: 10 32 144 56 (2580480)
I0417 17:18:23.549868  3043 layer_factory.hpp:74] Creating layer conv1_bn
I0417 17:18:23.549871  3043 layer_factory.cpp:191] Layer conv1_bn is using CAFFE engine.
I0417 17:18:23.549875  3043 net.cpp:133] Creating Layer conv1_bn
I0417 17:18:23.549877  3043 net.cpp:453] conv1_bn <- conv1
I0417 17:18:23.549880  3043 net.cpp:411] conv1_bn -> conv1_bn
I0417 17:18:23.549885  3043 net.cpp:163] Setting up conv1_bn
I0417 17:18:23.549901  3043 net.cpp:170] Top shape: 10 32 144 56 (2580480)
I0417 17:18:23.549907  3043 layer_factory.hpp:74] Creating layer relu1
I0417 17:18:23.549911  3043 net.cpp:133] Creating Layer relu1
I0417 17:18:23.549913  3043 net.cpp:453] relu1 <- conv1_bn
I0417 17:18:23.549916  3043 net.cpp:400] relu1 -> conv1_bn (in-place)
I0417 17:18:23.549918  3043 net.cpp:163] Setting up relu1
I0417 17:18:23.550120  3043 net.cpp:170] Top shape: 10 32 144 56 (2580480)
I0417 17:18:23.550127  3043 layer_factory.hpp:74] Creating layer conv2
I0417 17:18:23.550132  3043 net.cpp:133] Creating Layer conv2
I0417 17:18:23.550133  3043 net.cpp:453] conv2 <- conv1_bn
I0417 17:18:23.550138  3043 net.cpp:411] conv2 -> conv2
I0417 17:18:23.550143  3043 net.cpp:163] Setting up conv2
I0417 17:18:23.639089  3043 net.cpp:170] Top shape: 10 32 144 56 (2580480)
I0417 17:18:23.639099  3043 layer_factory.hpp:74] Creating layer conv2_bn
I0417 17:18:23.639102  3043 layer_factory.cpp:191] Layer conv2_bn is using CAFFE engine.
I0417 17:18:23.639106  3043 net.cpp:133] Creating Layer conv2_bn
I0417 17:18:23.639107  3043 net.cpp:453] conv2_bn <- conv2
I0417 17:18:23.639111  3043 net.cpp:411] conv2_bn -> conv2_bn
I0417 17:18:23.639117  3043 net.cpp:163] Setting up conv2_bn
I0417 17:18:23.639132  3043 net.cpp:170] Top shape: 10 32 144 56 (2580480)
I0417 17:18:23.639139  3043 layer_factory.hpp:74] Creating layer relu2
I0417 17:18:23.639142  3043 net.cpp:133] Creating Layer relu2
I0417 17:18:23.639144  3043 net.cpp:453] relu2 <- conv2_bn
I0417 17:18:23.639147  3043 net.cpp:400] relu2 -> conv2_bn (in-place)
I0417 17:18:23.639149  3043 net.cpp:163] Setting up relu2
I0417 17:18:23.639343  3043 net.cpp:170] Top shape: 10 32 144 56 (2580480)
I0417 17:18:23.639349  3043 layer_factory.hpp:74] Creating layer conv3
I0417 17:18:23.639354  3043 net.cpp:133] Creating Layer conv3
I0417 17:18:23.639356  3043 net.cpp:453] conv3 <- conv2_bn
I0417 17:18:23.639360  3043 net.cpp:411] conv3 -> conv3
I0417 17:18:23.639365  3043 net.cpp:163] Setting up conv3
I0417 17:18:23.728778  3043 net.cpp:170] Top shape: 10 32 144 56 (2580480)
I0417 17:18:23.728788  3043 layer_factory.hpp:74] Creating layer conv3_bn
I0417 17:18:23.728790  3043 layer_factory.cpp:191] Layer conv3_bn is using CAFFE engine.
I0417 17:18:23.728795  3043 net.cpp:133] Creating Layer conv3_bn
I0417 17:18:23.728796  3043 net.cpp:453] conv3_bn <- conv3
I0417 17:18:23.728801  3043 net.cpp:411] conv3_bn -> conv3_bn
I0417 17:18:23.728804  3043 net.cpp:163] Setting up conv3_bn
I0417 17:18:23.728822  3043 net.cpp:170] Top shape: 10 32 144 56 (2580480)
I0417 17:18:23.728831  3043 layer_factory.hpp:74] Creating layer relu3
I0417 17:18:23.728833  3043 net.cpp:133] Creating Layer relu3
I0417 17:18:23.728835  3043 net.cpp:453] relu3 <- conv3_bn
I0417 17:18:23.728838  3043 net.cpp:400] relu3 -> conv3_bn (in-place)
I0417 17:18:23.728842  3043 net.cpp:163] Setting up relu3
I0417 17:18:23.728955  3043 net.cpp:170] Top shape: 10 32 144 56 (2580480)
I0417 17:18:23.728958  3043 layer_factory.hpp:74] Creating layer pool1
I0417 17:18:23.728962  3043 net.cpp:133] Creating Layer pool1
I0417 17:18:23.728965  3043 net.cpp:453] pool1 <- conv3_bn
I0417 17:18:23.728967  3043 net.cpp:411] pool1 -> pool1
I0417 17:18:23.728971  3043 net.cpp:163] Setting up pool1
I0417 17:18:23.729156  3043 net.cpp:170] Top shape: 10 32 72 28 (645120)
I0417 17:18:23.729161  3043 layer_factory.hpp:74] Creating layer pool1_pool1_0_split
I0417 17:18:23.729166  3043 net.cpp:133] Creating Layer pool1_pool1_0_split
I0417 17:18:23.729167  3043 net.cpp:453] pool1_pool1_0_split <- pool1
I0417 17:18:23.729171  3043 net.cpp:411] pool1_pool1_0_split -> pool1_pool1_0_split_0
I0417 17:18:23.729176  3043 net.cpp:411] pool1_pool1_0_split -> pool1_pool1_0_split_1
I0417 17:18:23.729179  3043 net.cpp:411] pool1_pool1_0_split -> pool1_pool1_0_split_2
I0417 17:18:23.729182  3043 net.cpp:411] pool1_pool1_0_split -> pool1_pool1_0_split_3
…
I0417 17:18:24.908609  3043 layer_factory.hpp:74] Creating layer inception_2a/double_3x3_reduce
I0417 17:18:24.908623  3043 net.cpp:133] Creating Layer inception_2a/double_3x3_reduce
I0417 17:18:24.908625  3043 net.cpp:453] inception_2a/double_3x3_reduce <- inception_1b/output_inception_1b/output_0_split_2
I0417 17:18:24.908629  3043 net.cpp:411] inception_2a/double_3x3_reduce -> inception_2a/double_3x3_reduce
I0417 17:18:24.908633  3043 net.cpp:163] Setting up inception_2a/double_3x3_reduce
I0417 17:18:25.015862  3043 net.cpp:170] Top shape: 10 128 36 14 (645120)
I0417 17:18:25.015873  3043 layer_factory.hpp:74] Creating layer inception_2a/double_3x3_reduce_bn
I0417 17:18:25.015877  3043 layer_factory.cpp:191] Layer inception_2a/double_3x3_reduce_bn is using CAFFE engine.
I0417 17:18:25.015882  3043 net.cpp:133] Creating Layer inception_2a/double_3x3_reduce_bn
I0417 17:18:25.015883  3043 net.cpp:453] inception_2a/double_3x3_reduce_bn <- inception_2a/double_3x3_reduce
I0417 17:18:25.015887  3043 net.cpp:411] inception_2a/double_3x3_reduce_bn -> inception_2a/double_3x3_reduce_bn
I0417 17:18:25.015892  3043 net.cpp:163] Setting up inception_2a/double_3x3_reduce_bn
I0417 17:18:25.015902  3043 net.cpp:170] Top shape: 10 128 36 14 (645120)
I0417 17:18:25.015907  3043 layer_factory.hpp:74] Creating layer inception_2a/relu_double_3x3_reduce
I0417 17:18:25.015909  3043 net.cpp:133] Creating Layer inception_2a/relu_double_3x3_reduce
I0417 17:18:25.015911  3043 net.cpp:453] inception_2a/relu_double_3x3_reduce <- inception_2a/double_3x3_reduce_bn
I0417 17:18:25.015914  3043 net.cpp:400] inception_2a/relu_double_3x3_reduce -> inception_2a/double_3x3_reduce_bn (in-place)
I0417 17:18:25.015918  3043 net.cpp:163] Setting up inception_2a/relu_double_3x3_reduce
I0417 17:18:25.016111  3043 net.cpp:170] Top shape: 10 128 36 14 (645120)
I0417 17:18:25.016118  3043 layer_factory.hpp:74] Creating layer inception_2a/double_3x3_1
I0417 17:18:25.016124  3043 net.cpp:133] Creating Layer inception_2a/double_3x3_1
I0417 17:18:25.016125  3043 net.cpp:453] inception_2a/double_3x3_1 <- inception_2a/double_3x3_reduce_bn
I0417 17:18:25.016129  3043 net.cpp:411] inception_2a/double_3x3_1 -> inception_2a/double_3x3_1
I0417 17:18:25.016134  3043 net.cpp:163] Setting up inception_2a/double_3x3_1
I0417 17:18:25.065886  3043 net.cpp:170] Top shape: 10 128 36 14 (645120)
I0417 17:18:25.065896  3043 layer_factory.hpp:74] Creating layer inception_2a/double_3x3_1_bn
I0417 17:18:25.065899  3043 layer_factory.cpp:191] Layer inception_2a/double_3x3_1_bn is using CAFFE engine.
I0417 17:18:25.065903  3043 net.cpp:133] Creating Layer inception_2a/double_3x3_1_bn
I0417 17:18:25.065906  3043 net.cpp:453] inception_2a/double_3x3_1_bn <- inception_2a/double_3x3_1
I0417 17:18:25.065909  3043 net.cpp:411] inception_2a/double_3x3_1_bn -> inception_2a/double_3x3_1_bn
I0417 17:18:25.065914  3043 net.cpp:163] Setting up inception_2a/double_3x3_1_bn
I0417 17:18:25.065923  3043 net.cpp:170] Top shape: 10 128 36 14 (645120)
I0417 17:18:25.065929  3043 layer_factory.hpp:74] Creating layer inception_2a/relu_double_3x3_1
I0417 17:18:25.065932  3043 net.cpp:133] Creating Layer inception_2a/relu_double_3x3_1
I0417 17:18:25.065934  3043 net.cpp:453] inception_2a/relu_double_3x3_1 <- inception_2a/double_3x3_1_bn
I0417 17:18:25.065937  3043 net.cpp:400] inception_2a/relu_double_3x3_1 -> inception_2a/double_3x3_1_bn (in-place)
I0417 17:18:25.065939  3043 net.cpp:163] Setting up inception_2a/relu_double_3x3_1
I0417 17:18:25.066131  3043 net.cpp:170] Top shape: 10 128 36 14 (645120)
I0417 17:18:25.066138  3043 layer_factory.hpp:74] Creating layer inception_2a/double_3x3_2
I0417 17:18:25.066143  3043 net.cpp:133] Creating Layer inception_2a/double_3x3_2
I0417 17:18:25.066144  3043 net.cpp:453] inception_2a/double_3x3_2 <- inception_2a/double_3x3_1_bn
I0417 17:18:25.066148  3043 net.cpp:411] inception_2a/double_3x3_2 -> inception_2a/double_3x3_2
I0417 17:18:25.066153  3043 net.cpp:163] Setting up inception_2a/double_3x3_2
I0417 17:18:25.116029  3043 net.cpp:170] Top shape: 10 128 36 14 (645120)
I0417 17:18:25.116040  3043 layer_factory.hpp:74] Creating layer inception_2a/double_3x3_2_bn
I0417 17:18:25.116042  3043 layer_factory.cpp:191] Layer inception_2a/double_3x3_2_bn is using CAFFE engine.
I0417 17:18:25.116047  3043 net.cpp:133] Creating Layer inception_2a/double_3x3_2_bn
I0417 17:18:25.116050  3043 net.cpp:453] inception_2a/double_3x3_2_bn <- inception_2a/double_3x3_2
I0417 17:18:25.116053  3043 net.cpp:411] inception_2a/double_3x3_2_bn -> inception_2a/double_3x3_2_bn
I0417 17:18:25.116057  3043 net.cpp:163] Setting up inception_2a/double_3x3_2_bn
I0417 17:18:25.116067  3043 net.cpp:170] Top shape: 10 128 36 14 (645120)
I0417 17:18:25.116073  3043 layer_factory.hpp:74] Creating layer inception_2a/relu_double_3x3_2
I0417 17:18:25.116076  3043 net.cpp:133] Creating Layer inception_2a/relu_double_3x3_2
I0417 17:18:25.116078  3043 net.cpp:453] inception_2a/relu_double_3x3_2 <- inception_2a/double_3x3_2_bn
I0417 17:18:25.116081  3043 net.cpp:400] inception_2a/relu_double_3x3_2 -> inception_2a/double_3x3_2_bn (in-place)
I0417 17:18:25.116085  3043 net.cpp:163] Setting up inception_2a/relu_double_3x3_2
I0417 17:18:25.116199  3043 net.cpp:170] Top shape: 10 128 36 14 (645120)
I0417 17:18:25.116204  3043 layer_factory.hpp:74] Creating layer inception_2a/pool
I0417 17:18:25.116205  3043 layer_factory.cpp:64] CUDNN does not support padding or multiple tops. Using Caffe's own pooling layer.
I0417 17:18:25.116209  3043 net.cpp:133] Creating Layer inception_2a/pool
I0417 17:18:25.116211  3043 net.cpp:453] inception_2a/pool <- inception_1b/output_inception_1b/output_0_split_3
I0417 17:18:25.116214  3043 net.cpp:411] inception_2a/pool -> inception_2a/pool
I0417 17:18:25.116219  3043 net.cpp:163] Setting up inception_2a/pool
I0417 17:18:25.116221  3043 net.cpp:170] Top shape: 10 384 36 14 (1935360)
I0417 17:18:25.116224  3043 layer_factory.hpp:74] Creating layer inception_2a/pool_proj
I0417 17:18:25.116227  3043 net.cpp:133] Creating Layer inception_2a/pool_proj
I0417 17:18:25.116230  3043 net.cpp:453] inception_2a/pool_proj <- inception_2a/pool
I0417 17:18:25.116233  3043 net.cpp:411] inception_2a/pool_proj -> inception_2a/pool_proj
I0417 17:18:25.116236  3043 net.cpp:163] Setting up inception_2a/pool_proj
I0417 17:18:25.223609  3043 net.cpp:170] Top shape: 10 128 36 14 (645120)
I0417 17:18:25.223619  3043 layer_factory.hpp:74] Creating layer inception_2a/pool_proj_bn
I0417 17:18:25.223623  3043 layer_factory.cpp:191] Layer inception_2a/pool_proj_bn is using CAFFE engine.
I0417 17:18:25.223628  3043 net.cpp:133] Creating Layer inception_2a/pool_proj_bn
I0417 17:18:25.223631  3043 net.cpp:453] inception_2a/pool_proj_bn <- inception_2a/pool_proj
I0417 17:18:25.223637  3043 net.cpp:411] inception_2a/pool_proj_bn -> inception_2a/pool_proj_bn
I0417 17:18:25.223652  3043 net.cpp:163] Setting up inception_2a/pool_proj_bn
I0417 17:18:25.223666  3043 net.cpp:170] Top shape: 10 128 36 14 (645120)
I0417 17:18:25.223681  3043 layer_factory.hpp:74] Creating layer inception_2a/relu_pool_proj
I0417 17:18:25.223686  3043 net.cpp:133] Creating Layer inception_2a/relu_pool_proj
I0417 17:18:25.223688  3043 net.cpp:453] inception_2a/relu_pool_proj <- inception_2a/pool_proj_bn
I0417 17:18:25.223691  3043 net.cpp:400] inception_2a/relu_pool_proj -> inception_2a/pool_proj_bn (in-place)
I0417 17:18:25.223695  3043 net.cpp:163] Setting up inception_2a/relu_pool_proj
I0417 17:18:25.223891  3043 net.cpp:170] Top shape: 10 128 36 14 (645120)
I0417 17:18:25.223896  3043 layer_factory.hpp:74] Creating layer inception_2a/output
I0417 17:18:25.223901  3043 net.cpp:133] Creating Layer inception_2a/output
I0417 17:18:25.223903  3043 net.cpp:453] inception_2a/output <- inception_2a/1x1_bn
I0417 17:18:25.223906  3043 net.cpp:453] inception_2a/output <- inception_2a/3x3_bn
I0417 17:18:25.223908  3043 net.cpp:453] inception_2a/output <- inception_2a/double_3x3_2_bn
I0417 17:18:25.223911  3043 net.cpp:453] inception_2a/output <- inception_2a/pool_proj_bn
I0417 17:18:25.223914  3043 net.cpp:411] inception_2a/output -> inception_2a/output
I0417 17:18:25.223918  3043 net.cpp:163] Setting up inception_2a/output
I0417 17:18:25.223922  3043 net.cpp:170] Top shape: 10 512 36 14 (2580480)
I0417 17:18:25.223924  3043 layer_factory.hpp:74] Creating layer inception_2a/output_inception_2a/output_0_split
I0417 17:18:25.223928  3043 net.cpp:133] Creating Layer inception_2a/output_inception_2a/output_0_split
I0417 17:18:25.223929  3043 net.cpp:453] inception_2a/output_inception_2a/output_0_split <- inception_2a/output
I0417 17:18:25.223933  3043 net.cpp:411] inception_2a/output_inception_2a/output_0_split -> inception_2a/output_inception_2a/output_0_split_0
I0417 17:18:25.223937  3043 net.cpp:411] inception_2a/output_inception_2a/output_0_split -> inception_2a/output_inception_2a/output_0_split_1
I0417 17:18:25.223942  3043 net.cpp:411] inception_2a/output_inception_2a/output_0_split -> inception_2a/output_inception_2a/output_0_split_2
I0417 17:18:25.223947  3043 net.cpp:163] Setting up inception_2a/output_inception_2a/output_0_split
I0417 17:18:25.223951  3043 net.cpp:170] Top shape: 10 512 36 14 (2580480)
I0417 17:18:25.223954  3043 net.cpp:170] Top shape: 10 512 36 14 (2580480)
I0417 17:18:25.223956  3043 net.cpp:170] Top shape: 10 512 36 14 (2580480)
I0417 17:18:25.223958  3043 layer_factory.hpp:74] Creating layer inception_2b/3x3_reduce
I0417 17:18:25.223965  3043 net.cpp:133] Creating Layer inception_2b/3x3_reduce
I0417 17:18:25.223969  3043 net.cpp:453] inception_2b/3x3_reduce <- inception_2a/output_inception_2a/output_0_split_0
I0417 17:18:25.223974  3043 net.cpp:411] inception_2b/3x3_reduce -> inception_2b/3x3_reduce
I0417 17:18:25.223978  3043 net.cpp:163] Setting up inception_2b/3x3_reduce
I0417 17:18:25.365079  3043 net.cpp:170] Top shape: 10 128 36 14 (645120)
I0417 17:18:25.365089  3043 layer_factory.hpp:74] Creating layer inception_2b/3x3_reduce_bn
I0417 17:18:25.365092  3043 layer_factory.cpp:191] Layer inception_2b/3x3_reduce_bn is using CAFFE engine.
I0417 17:18:25.365097  3043 net.cpp:133] Creating Layer inception_2b/3x3_reduce_bn
I0417 17:18:25.365098  3043 net.cpp:453] inception_2b/3x3_reduce_bn <- inception_2b/3x3_reduce
I0417 17:18:25.365103  3043 net.cpp:411] inception_2b/3x3_reduce_bn -> inception_2b/3x3_reduce_bn
I0417 17:18:25.365108  3043 net.cpp:163] Setting up inception_2b/3x3_reduce_bn
I0417 17:18:25.365116  3043 net.cpp:170] Top shape: 10 128 36 14 (645120)
I0417 17:18:25.365121  3043 layer_factory.hpp:74] Creating layer inception_2b/relu_3x3_reduce
I0417 17:18:25.365124  3043 net.cpp:133] Creating Layer inception_2b/relu_3x3_reduce
I0417 17:18:25.365128  3043 net.cpp:453] inception_2b/relu_3x3_reduce <- inception_2b/3x3_reduce_bn
I0417 17:18:25.365130  3043 net.cpp:400] inception_2b/relu_3x3_reduce -> inception_2b/3x3_reduce_bn (in-place)
I0417 17:18:25.365133  3043 net.cpp:163] Setting up inception_2b/relu_3x3_reduce
I0417 17:18:25.365393  3043 net.cpp:170] Top shape: 10 128 36 14 (645120)
I0417 17:18:25.365399  3043 layer_factory.hpp:74] Creating layer inception_2b/3x3
I0417 17:18:25.365404  3043 net.cpp:133] Creating Layer inception_2b/3x3
I0417 17:18:25.365406  3043 net.cpp:453] inception_2b/3x3 <- inception_2b/3x3_reduce_bn
I0417 17:18:25.365411  3043 net.cpp:411] inception_2b/3x3 -> inception_2b/3x3
I0417 17:18:25.365414  3043 net.cpp:163] Setting up inception_2b/3x3
I0417 17:18:25.373580  3043 net.cpp:170] Top shape: 10 128 18 7 (161280)
I0417 17:18:25.373590  3043 layer_factory.hpp:74] Creating layer inception_2b/3x3_bn
I0417 17:18:25.373592  3043 layer_factory.cpp:191] Layer inception_2b/3x3_bn is using CAFFE engine.
I0417 17:18:25.373597  3043 net.cpp:133] Creating Layer inception_2b/3x3_bn
I0417 17:18:25.373600  3043 net.cpp:453] inception_2b/3x3_bn <- inception_2b/3x3
I0417 17:18:25.373603  3043 net.cpp:411] inception_2b/3x3_bn -> inception_2b/3x3_bn
I0417 17:18:25.373607  3043 net.cpp:163] Setting up inception_2b/3x3_bn
I0417 17:18:25.373616  3043 net.cpp:170] Top shape: 10 128 18 7 (161280)
I0417 17:18:25.373621  3043 layer_factory.hpp:74] Creating layer inception_2b/relu_3x3
I0417 17:18:25.373625  3043 net.cpp:133] Creating Layer inception_2b/relu_3x3
I0417 17:18:25.373626  3043 net.cpp:453] inception_2b/relu_3x3 <- inception_2b/3x3_bn
I0417 17:18:25.373630  3043 net.cpp:400] inception_2b/relu_3x3 -> inception_2b/3x3_bn (in-place)
I0417 17:18:25.373633  3043 net.cpp:163] Setting up inception_2b/relu_3x3
I0417 17:18:25.373746  3043 net.cpp:170] Top shape: 10 128 18 7 (161280)
I0417 17:18:25.373754  3043 layer_factory.hpp:74] Creating layer inception_2b/double_3x3_reduce
I0417 17:18:25.373760  3043 net.cpp:133] Creating Layer inception_2b/double_3x3_reduce
I0417 17:18:25.373764  3043 net.cpp:453] inception_2b/double_3x3_reduce <- inception_2a/output_inception_2a/output_0_split_1
I0417 17:18:25.373769  3043 net.cpp:411] inception_2b/double_3x3_reduce -> inception_2b/double_3x3_reduce
I0417 17:18:25.373772  3043 net.cpp:163] Setting up inception_2b/double_3x3_reduce
I0417 17:18:25.515288  3043 net.cpp:170] Top shape: 10 128 36 14 (645120)
I0417 17:18:25.515298  3043 layer_factory.hpp:74] Creating layer inception_2b/double_3x3_reduce_bn
I0417 17:18:25.515301  3043 layer_factory.cpp:191] Layer inception_2b/double_3x3_reduce_bn is using CAFFE engine.
I0417 17:18:25.515305  3043 net.cpp:133] Creating Layer inception_2b/double_3x3_reduce_bn
I0417 17:18:25.515308  3043 net.cpp:453] inception_2b/double_3x3_reduce_bn <- inception_2b/double_3x3_reduce
I0417 17:18:25.515312  3043 net.cpp:411] inception_2b/double_3x3_reduce_bn -> inception_2b/double_3x3_reduce_bn
I0417 17:18:25.515316  3043 net.cpp:163] Setting up inception_2b/double_3x3_reduce_bn
I0417 17:18:25.515326  3043 net.cpp:170] Top shape: 10 128 36 14 (645120)
I0417 17:18:25.515331  3043 layer_factory.hpp:74] Creating layer inception_2b/relu_double_3x3_reduce
I0417 17:18:25.515336  3043 net.cpp:133] Creating Layer inception_2b/relu_double_3x3_reduce
I0417 17:18:25.515337  3043 net.cpp:453] inception_2b/relu_double_3x3_reduce <- inception_2b/double_3x3_reduce_bn
I0417 17:18:25.515339  3043 net.cpp:400] inception_2b/relu_double_3x3_reduce -> inception_2b/double_3x3_reduce_bn (in-place)
I0417 17:18:25.515342  3043 net.cpp:163] Setting up inception_2b/relu_double_3x3_reduce
I0417 17:18:25.515542  3043 net.cpp:170] Top shape: 10 128 36 14 (645120)
I0417 17:18:25.515547  3043 layer_factory.hpp:74] Creating layer inception_2b/double_3x3_1
I0417 17:18:25.515553  3043 net.cpp:133] Creating Layer inception_2b/double_3x3_1
I0417 17:18:25.515555  3043 net.cpp:453] inception_2b/double_3x3_1 <- inception_2b/double_3x3_reduce_bn
I0417 17:18:25.515559  3043 net.cpp:411] inception_2b/double_3x3_1 -> inception_2b/double_3x3_1
I0417 17:18:25.515563  3043 net.cpp:163] Setting up inception_2b/double_3x3_1
I0417 17:18:25.566171  3043 net.cpp:170] Top shape: 10 128 36 14 (645120)
I0417 17:18:25.566186  3043 layer_factory.hpp:74] Creating layer inception_2b/double_3x3_1_bn
I0417 17:18:25.566190  3043 layer_factory.cpp:191] Layer inception_2b/double_3x3_1_bn is using CAFFE engine.
I0417 17:18:25.566195  3043 net.cpp:133] Creating Layer inception_2b/double_3x3_1_bn
I0417 17:18:25.566197  3043 net.cpp:453] inception_2b/double_3x3_1_bn <- inception_2b/double_3x3_1
I0417 17:18:25.566202  3043 net.cpp:411] inception_2b/double_3x3_1_bn -> inception_2b/double_3x3_1_bn
I0417 17:18:25.566208  3043 net.cpp:163] Setting up inception_2b/double_3x3_1_bn
I0417 17:18:25.566220  3043 net.cpp:170] Top shape: 10 128 36 14 (645120)
I0417 17:18:25.566225  3043 layer_factory.hpp:74] Creating layer inception_2b/relu_double_3x3_1
I0417 17:18:25.566228  3043 net.cpp:133] Creating Layer inception_2b/relu_double_3x3_1
I0417 17:18:25.566231  3043 net.cpp:453] inception_2b/relu_double_3x3_1 <- inception_2b/double_3x3_1_bn
I0417 17:18:25.566234  3043 net.cpp:400] inception_2b/relu_double_3x3_1 -> inception_2b/double_3x3_1_bn (in-place)
I0417 17:18:25.566238  3043 net.cpp:163] Setting up inception_2b/relu_double_3x3_1
I0417 17:18:25.566452  3043 net.cpp:170] Top shape: 10 128 36 14 (645120)
I0417 17:18:25.566459  3043 layer_factory.hpp:74] Creating layer inception_2b/double_3x3_2
I0417 17:18:25.566464  3043 net.cpp:133] Creating Layer inception_2b/double_3x3_2
I0417 17:18:25.566468  3043 net.cpp:453] inception_2b/double_3x3_2 <- inception_2b/double_3x3_1_bn
I0417 17:18:25.566471  3043 net.cpp:411] inception_2b/double_3x3_2 -> inception_2b/double_3x3_2
I0417 17:18:25.566475  3043 net.cpp:163] Setting up inception_2b/double_3x3_2
I0417 17:18:25.574533  3043 net.cpp:170] Top shape: 10 128 18 7 (161280)
I0417 17:18:25.574542  3043 layer_factory.hpp:74] Creating layer inception_2b/double_3x3_2_bn
I0417 17:18:25.574545  3043 layer_factory.cpp:191] Layer inception_2b/double_3x3_2_bn is using CAFFE engine.
I0417 17:18:25.574550  3043 net.cpp:133] Creating Layer inception_2b/double_3x3_2_bn
I0417 17:18:25.574553  3043 net.cpp:453] inception_2b/double_3x3_2_bn <- inception_2b/double_3x3_2
I0417 17:18:25.574556  3043 net.cpp:411] inception_2b/double_3x3_2_bn -> inception_2b/double_3x3_2_bn
I0417 17:18:25.574560  3043 net.cpp:163] Setting up inception_2b/double_3x3_2_bn
I0417 17:18:25.574569  3043 net.cpp:170] Top shape: 10 128 18 7 (161280)
I0417 17:18:25.574574  3043 layer_factory.hpp:74] Creating layer inception_2b/relu_double_3x3_2
I0417 17:18:25.574578  3043 net.cpp:133] Creating Layer inception_2b/relu_double_3x3_2
I0417 17:18:25.574579  3043 net.cpp:453] inception_2b/relu_double_3x3_2 <- inception_2b/double_3x3_2_bn
I0417 17:18:25.574582  3043 net.cpp:400] inception_2b/relu_double_3x3_2 -> inception_2b/double_3x3_2_bn (in-place)
I0417 17:18:25.574585  3043 net.cpp:163] Setting up inception_2b/relu_double_3x3_2
I0417 17:18:25.574702  3043 net.cpp:170] Top shape: 10 128 18 7 (161280)
I0417 17:18:25.574707  3043 layer_factory.hpp:74] Creating layer inception_2b/pool
I0417 17:18:25.574712  3043 net.cpp:133] Creating Layer inception_2b/pool
I0417 17:18:25.574713  3043 net.cpp:453] inception_2b/pool <- inception_2a/output_inception_2a/output_0_split_2
I0417 17:18:25.574717  3043 net.cpp:411] inception_2b/pool -> inception_2b/pool
I0417 17:18:25.574720  3043 net.cpp:163] Setting up inception_2b/pool
I0417 17:18:25.574918  3043 net.cpp:170] Top shape: 10 512 18 7 (645120)
I0417 17:18:25.574923  3043 layer_factory.hpp:74] Creating layer inception_2b/output
I0417 17:18:25.574928  3043 net.cpp:133] Creating Layer inception_2b/output
I0417 17:18:25.574929  3043 net.cpp:453] inception_2b/output <- inception_2b/3x3_bn
I0417 17:18:25.574933  3043 net.cpp:453] inception_2b/output <- inception_2b/double_3x3_2_bn
I0417 17:18:25.574934  3043 net.cpp:453] inception_2b/output <- inception_2b/pool
I0417 17:18:25.574939  3043 net.cpp:411] inception_2b/output -> inception_2b/output
I0417 17:18:25.574941  3043 net.cpp:163] Setting up inception_2b/output
I0417 17:18:25.574945  3043 net.cpp:170] Top shape: 10 768 18 7 (967680)
I0417 17:18:25.574947  3043 layer_factory.hpp:74] Creating layer inception_2b/output_inception_2b/output_0_split
I0417 17:18:25.574950  3043 net.cpp:133] Creating Layer inception_2b/output_inception_2b/output_0_split
I0417 17:18:25.574952  3043 net.cpp:453] inception_2b/output_inception_2b/output_0_split <- inception_2b/output
I0417 17:18:25.574956  3043 net.cpp:411] inception_2b/output_inception_2b/output_0_split -> inception_2b/output_inception_2b/output_0_split_0
I0417 17:18:25.574960  3043 net.cpp:411] inception_2b/output_inception_2b/output_0_split -> inception_2b/output_inception_2b/output_0_split_1
I0417 17:18:25.574965  3043 net.cpp:411] inception_2b/output_inception_2b/output_0_split -> inception_2b/output_inception_2b/output_0_split_2
I0417 17:18:25.574970  3043 net.cpp:411] inception_2b/output_inception_2b/output_0_split -> inception_2b/output_inception_2b/output_0_split_3
I0417 17:18:25.574976  3043 net.cpp:163] Setting up inception_2b/output_inception_2b/output_0_split
I0417 17:18:25.574981  3043 net.cpp:170] Top shape: 10 768 18 7 (967680)
I0417 17:18:25.574986  3043 net.cpp:170] Top shape: 10 768 18 7 (967680)
I0417 17:18:25.574990  3043 net.cpp:170] Top shape: 10 768 18 7 (967680)
I0417 17:18:25.574992  3043 net.cpp:170] Top shape: 10 768 18 7 (967680)
I0417 17:18:25.574995  3043 layer_factory.hpp:74] Creating layer inception_3a/1x1
I0417 17:18:25.575001  3043 net.cpp:133] Creating Layer inception_3a/1x1
I0417 17:18:25.575004  3043 net.cpp:453] inception_3a/1x1 <- inception_2b/output_inception_2b/output_0_split_0
I0417 17:18:25.575011  3043 net.cpp:411] inception_3a/1x1 -> inception_3a/1x1
I0417 17:18:25.575016  3043 net.cpp:163] Setting up inception_3a/1x1
I0417 17:18:25.706449  3043 net.cpp:170] Top shape: 10 256 18 7 (322560)
I0417 17:18:25.706459  3043 layer_factory.hpp:74] Creating layer inception_3a/1x1_bn
I0417 17:18:25.706462  3043 layer_factory.cpp:191] Layer inception_3a/1x1_bn is using CAFFE engine.
I0417 17:18:25.706466  3043 net.cpp:133] Creating Layer inception_3a/1x1_bn
I0417 17:18:25.706470  3043 net.cpp:453] inception_3a/1x1_bn <- inception_3a/1x1
I0417 17:18:25.706472  3043 net.cpp:411] inception_3a/1x1_bn -> inception_3a/1x1_bn
I0417 17:18:25.706477  3043 net.cpp:163] Setting up inception_3a/1x1_bn
I0417 17:18:25.706487  3043 net.cpp:170] Top shape: 10 256 18 7 (322560)
I0417 17:18:25.706492  3043 layer_factory.hpp:74] Creating layer inception_3a/relu_1x1
I0417 17:18:25.706496  3043 net.cpp:133] Creating Layer inception_3a/relu_1x1
I0417 17:18:25.706498  3043 net.cpp:453] inception_3a/relu_1x1 <- inception_3a/1x1_bn
I0417 17:18:25.706501  3043 net.cpp:400] inception_3a/relu_1x1 -> inception_3a/1x1_bn (in-place)
I0417 17:18:25.706504  3043 net.cpp:163] Setting up inception_3a/relu_1x1
I0417 17:18:25.706624  3043 net.cpp:170] Top shape: 10 256 18 7 (322560)
I0417 17:18:25.706629  3043 layer_factory.hpp:74] Creating layer inception_3a/3x3_reduce
I0417 17:18:25.706634  3043 net.cpp:133] Creating Layer inception_3a/3x3_reduce
I0417 17:18:25.706636  3043 net.cpp:453] inception_3a/3x3_reduce <- inception_2b/output_inception_2b/output_0_split_1
I0417 17:18:25.706640  3043 net.cpp:411] inception_3a/3x3_reduce -> inception_3a/3x3_reduce
I0417 17:18:25.706645  3043 net.cpp:163] Setting up inception_3a/3x3_reduce
I0417 17:18:25.837934  3043 net.cpp:170] Top shape: 10 256 18 7 (322560)
I0417 17:18:25.837945  3043 layer_factory.hpp:74] Creating layer inception_3a/3x3_reduce_bn
I0417 17:18:25.837949  3043 layer_factory.cpp:191] Layer inception_3a/3x3_reduce_bn is using CAFFE engine.
I0417 17:18:25.837954  3043 net.cpp:133] Creating Layer inception_3a/3x3_reduce_bn
I0417 17:18:25.837955  3043 net.cpp:453] inception_3a/3x3_reduce_bn <- inception_3a/3x3_reduce
I0417 17:18:25.837960  3043 net.cpp:411] inception_3a/3x3_reduce_bn -> inception_3a/3x3_reduce_bn
I0417 17:18:25.837965  3043 net.cpp:163] Setting up inception_3a/3x3_reduce_bn
I0417 17:18:25.837975  3043 net.cpp:170] Top shape: 10 256 18 7 (322560)
I0417 17:18:25.837980  3043 layer_factory.hpp:74] Creating layer inception_3a/relu_3x3_reduce
I0417 17:18:25.837982  3043 net.cpp:133] Creating Layer inception_3a/relu_3x3_reduce
I0417 17:18:25.837985  3043 net.cpp:453] inception_3a/relu_3x3_reduce <- inception_3a/3x3_reduce_bn
I0417 17:18:25.837987  3043 net.cpp:400] inception_3a/relu_3x3_reduce -> inception_3a/3x3_reduce_bn (in-place)
I0417 17:18:25.837991  3043 net.cpp:163] Setting up inception_3a/relu_3x3_reduce
I0417 17:18:25.838194  3043 net.cpp:170] Top shape: 10 256 18 7 (322560)
I0417 17:18:25.838201  3043 layer_factory.hpp:74] Creating layer inception_3a/3x3
I0417 17:18:25.838207  3043 net.cpp:133] Creating Layer inception_3a/3x3
I0417 17:18:25.838208  3043 net.cpp:453] inception_3a/3x3 <- inception_3a/3x3_reduce_bn
I0417 17:18:25.838212  3043 net.cpp:411] inception_3a/3x3 -> inception_3a/3x3
I0417 17:18:25.838217  3043 net.cpp:163] Setting up inception_3a/3x3
I0417 17:18:25.896458  3043 net.cpp:170] Top shape: 10 256 18 7 (322560)
I0417 17:18:25.896471  3043 layer_factory.hpp:74] Creating layer inception_3a/3x3_bn
I0417 17:18:25.896473  3043 layer_factory.cpp:191] Layer inception_3a/3x3_bn is using CAFFE engine.
I0417 17:18:25.896477  3043 net.cpp:133] Creating Layer inception_3a/3x3_bn
I0417 17:18:25.896481  3043 net.cpp:453] inception_3a/3x3_bn <- inception_3a/3x3
I0417 17:18:25.896484  3043 net.cpp:411] inception_3a/3x3_bn -> inception_3a/3x3_bn
I0417 17:18:25.896489  3043 net.cpp:163] Setting up inception_3a/3x3_bn
I0417 17:18:25.896499  3043 net.cpp:170] Top shape: 10 256 18 7 (322560)
I0417 17:18:25.896505  3043 layer_factory.hpp:74] Creating layer inception_3a/relu_3x3
I0417 17:18:25.896508  3043 net.cpp:133] Creating Layer inception_3a/relu_3x3
I0417 17:18:25.896510  3043 net.cpp:453] inception_3a/relu_3x3 <- inception_3a/3x3_bn
I0417 17:18:25.896513  3043 net.cpp:400] inception_3a/relu_3x3 -> inception_3a/3x3_bn (in-place)
I0417 17:18:25.896518  3043 net.cpp:163] Setting up inception_3a/relu_3x3
I0417 17:18:25.896728  3043 net.cpp:170] Top shape: 10 256 18 7 (322560)
I0417 17:18:25.896734  3043 layer_factory.hpp:74] Creating layer inception_3a/double_3x3_reduce
I0417 17:18:25.896740  3043 net.cpp:133] Creating Layer inception_3a/double_3x3_reduce
I0417 17:18:25.896742  3043 net.cpp:453] inception_3a/double_3x3_reduce <- inception_2b/output_inception_2b/output_0_split_2
I0417 17:18:25.896746  3043 net.cpp:411] inception_3a/double_3x3_reduce -> inception_3a/double_3x3_reduce
I0417 17:18:25.896751  3043 net.cpp:163] Setting up inception_3a/double_3x3_reduce
I0417 17:18:26.028275  3043 net.cpp:170] Top shape: 10 256 18 7 (322560)
I0417 17:18:26.028285  3043 layer_factory.hpp:74] Creating layer inception_3a/double_3x3_reduce_bn
I0417 17:18:26.028288  3043 layer_factory.cpp:191] Layer inception_3a/double_3x3_reduce_bn is using CAFFE engine.
I0417 17:18:26.028292  3043 net.cpp:133] Creating Layer inception_3a/double_3x3_reduce_bn
I0417 17:18:26.028295  3043 net.cpp:453] inception_3a/double_3x3_reduce_bn <- inception_3a/double_3x3_reduce
I0417 17:18:26.028300  3043 net.cpp:411] inception_3a/double_3x3_reduce_bn -> inception_3a/double_3x3_reduce_bn
I0417 17:18:26.028304  3043 net.cpp:163] Setting up inception_3a/double_3x3_reduce_bn
I0417 17:18:26.028313  3043 net.cpp:170] Top shape: 10 256 18 7 (322560)
I0417 17:18:26.028318  3043 layer_factory.hpp:74] Creating layer inception_3a/relu_double_3x3_reduce
I0417 17:18:26.028321  3043 net.cpp:133] Creating Layer inception_3a/relu_double_3x3_reduce
I0417 17:18:26.028323  3043 net.cpp:453] inception_3a/relu_double_3x3_reduce <- inception_3a/double_3x3_reduce_bn
I0417 17:18:26.028326  3043 net.cpp:400] inception_3a/relu_double_3x3_reduce -> inception_3a/double_3x3_reduce_bn (in-place)
I0417 17:18:26.028329  3043 net.cpp:163] Setting up inception_3a/relu_double_3x3_reduce
I0417 17:18:26.028450  3043 net.cpp:170] Top shape: 10 256 18 7 (322560)
I0417 17:18:26.028455  3043 layer_factory.hpp:74] Creating layer inception_3a/double_3x3_1
I0417 17:18:26.028460  3043 net.cpp:133] Creating Layer inception_3a/double_3x3_1
I0417 17:18:26.028461  3043 net.cpp:453] inception_3a/double_3x3_1 <- inception_3a/double_3x3_reduce_bn
I0417 17:18:26.028466  3043 net.cpp:411] inception_3a/double_3x3_1 -> inception_3a/double_3x3_1
I0417 17:18:26.028470  3043 net.cpp:163] Setting up inception_3a/double_3x3_1
I0417 17:18:26.087723  3043 net.cpp:170] Top shape: 10 256 18 7 (322560)
I0417 17:18:26.087733  3043 layer_factory.hpp:74] Creating layer inception_3a/double_3x3_1_bn
I0417 17:18:26.087736  3043 layer_factory.cpp:191] Layer inception_3a/double_3x3_1_bn is using CAFFE engine.
I0417 17:18:26.087740  3043 net.cpp:133] Creating Layer inception_3a/double_3x3_1_bn
I0417 17:18:26.087743  3043 net.cpp:453] inception_3a/double_3x3_1_bn <- inception_3a/double_3x3_1
I0417 17:18:26.087746  3043 net.cpp:411] inception_3a/double_3x3_1_bn -> inception_3a/double_3x3_1_bn
I0417 17:18:26.087751  3043 net.cpp:163] Setting up inception_3a/double_3x3_1_bn
I0417 17:18:26.087760  3043 net.cpp:170] Top shape: 10 256 18 7 (322560)
I0417 17:18:26.087765  3043 layer_factory.hpp:74] Creating layer inception_3a/relu_double_3x3_1
I0417 17:18:26.087769  3043 net.cpp:133] Creating Layer inception_3a/relu_double_3x3_1
I0417 17:18:26.087770  3043 net.cpp:453] inception_3a/relu_double_3x3_1 <- inception_3a/double_3x3_1_bn
I0417 17:18:26.087774  3043 net.cpp:400] inception_3a/relu_double_3x3_1 -> inception_3a/double_3x3_1_bn (in-place)
I0417 17:18:26.087776  3043 net.cpp:163] Setting up inception_3a/relu_double_3x3_1
I0417 17:18:26.087975  3043 net.cpp:170] Top shape: 10 256 18 7 (322560)
I0417 17:18:26.087980  3043 layer_factory.hpp:74] Creating layer inception_3a/double_3x3_2
I0417 17:18:26.087985  3043 net.cpp:133] Creating Layer inception_3a/double_3x3_2
I0417 17:18:26.087987  3043 net.cpp:453] inception_3a/double_3x3_2 <- inception_3a/double_3x3_1_bn
I0417 17:18:26.087991  3043 net.cpp:411] inception_3a/double_3x3_2 -> inception_3a/double_3x3_2
I0417 17:18:26.087996  3043 net.cpp:163] Setting up inception_3a/double_3x3_2
I0417 17:18:26.146234  3043 net.cpp:170] Top shape: 10 256 18 7 (322560)
I0417 17:18:26.146244  3043 layer_factory.hpp:74] Creating layer inception_3a/double_3x3_2_bn
I0417 17:18:26.146245  3043 layer_factory.cpp:191] Layer inception_3a/double_3x3_2_bn is using CAFFE engine.
I0417 17:18:26.146250  3043 net.cpp:133] Creating Layer inception_3a/double_3x3_2_bn
I0417 17:18:26.146252  3043 net.cpp:453] inception_3a/double_3x3_2_bn <- inception_3a/double_3x3_2
I0417 17:18:26.146256  3043 net.cpp:411] inception_3a/double_3x3_2_bn -> inception_3a/double_3x3_2_bn
I0417 17:18:26.146260  3043 net.cpp:163] Setting up inception_3a/double_3x3_2_bn
I0417 17:18:26.146270  3043 net.cpp:170] Top shape: 10 256 18 7 (322560)
I0417 17:18:26.146276  3043 layer_factory.hpp:74] Creating layer inception_3a/relu_double_3x3_2
I0417 17:18:26.146280  3043 net.cpp:133] Creating Layer inception_3a/relu_double_3x3_2
I0417 17:18:26.146281  3043 net.cpp:453] inception_3a/relu_double_3x3_2 <- inception_3a/double_3x3_2_bn
I0417 17:18:26.146284  3043 net.cpp:400] inception_3a/relu_double_3x3_2 -> inception_3a/double_3x3_2_bn (in-place)
I0417 17:18:26.146287  3043 net.cpp:163] Setting up inception_3a/relu_double_3x3_2
I0417 17:18:26.146500  3043 net.cpp:170] Top shape: 10 256 18 7 (322560)
I0417 17:18:26.146507  3043 layer_factory.hpp:74] Creating layer inception_3a/pool
I0417 17:18:26.146510  3043 layer_factory.cpp:64] CUDNN does not support padding or multiple tops. Using Caffe's own pooling layer.
I0417 17:18:26.146513  3043 net.cpp:133] Creating Layer inception_3a/pool
I0417 17:18:26.146515  3043 net.cpp:453] inception_3a/pool <- inception_2b/output_inception_2b/output_0_split_3
I0417 17:18:26.146519  3043 net.cpp:411] inception_3a/pool -> inception_3a/pool
I0417 17:18:26.146523  3043 net.cpp:163] Setting up inception_3a/pool
I0417 17:18:26.146528  3043 net.cpp:170] Top shape: 10 768 18 7 (967680)
I0417 17:18:26.146529  3043 layer_factory.hpp:74] Creating layer inception_3a/pool_proj
I0417 17:18:26.146534  3043 net.cpp:133] Creating Layer inception_3a/pool_proj
I0417 17:18:26.146538  3043 net.cpp:453] inception_3a/pool_proj <- inception_3a/pool
I0417 17:18:26.146540  3043 net.cpp:411] inception_3a/pool_proj -> inception_3a/pool_proj
I0417 17:18:26.146545  3043 net.cpp:163] Setting up inception_3a/pool_proj
I0417 17:18:26.279285  3043 net.cpp:170] Top shape: 10 256 18 7 (322560)
I0417 17:18:26.279296  3043 layer_factory.hpp:74] Creating layer inception_3a/pool_proj_bn
I0417 17:18:26.279299  3043 layer_factory.cpp:191] Layer inception_3a/pool_proj_bn is using CAFFE engine.
I0417 17:18:26.279304  3043 net.cpp:133] Creating Layer inception_3a/pool_proj_bn
I0417 17:18:26.279306  3043 net.cpp:453] inception_3a/pool_proj_bn <- inception_3a/pool_proj
I0417 17:18:26.279310  3043 net.cpp:411] inception_3a/pool_proj_bn -> inception_3a/pool_proj_bn
I0417 17:18:26.279315  3043 net.cpp:163] Setting up inception_3a/pool_proj_bn
I0417 17:18:26.279325  3043 net.cpp:170] Top shape: 10 256 18 7 (322560)
I0417 17:18:26.279330  3043 layer_factory.hpp:74] Creating layer inception_3a/relu_pool_proj
I0417 17:18:26.279333  3043 net.cpp:133] Creating Layer inception_3a/relu_pool_proj
I0417 17:18:26.279335  3043 net.cpp:453] inception_3a/relu_pool_proj <- inception_3a/pool_proj_bn
I0417 17:18:26.279373  3043 net.cpp:400] inception_3a/relu_pool_proj -> inception_3a/pool_proj_bn (in-place)
I0417 17:18:26.279378  3043 net.cpp:163] Setting up inception_3a/relu_pool_proj
I0417 17:18:26.279500  3043 net.cpp:170] Top shape: 10 256 18 7 (322560)
I0417 17:18:26.279505  3043 layer_factory.hpp:74] Creating layer inception_3a/output
I0417 17:18:26.279510  3043 net.cpp:133] Creating Layer inception_3a/output
I0417 17:18:26.279511  3043 net.cpp:453] inception_3a/output <- inception_3a/1x1_bn
I0417 17:18:26.279515  3043 net.cpp:453] inception_3a/output <- inception_3a/3x3_bn
I0417 17:18:26.279516  3043 net.cpp:453] inception_3a/output <- inception_3a/double_3x3_2_bn
I0417 17:18:26.279518  3043 net.cpp:453] inception_3a/output <- inception_3a/pool_proj_bn
I0417 17:18:26.279521  3043 net.cpp:411] inception_3a/output -> inception_3a/output
I0417 17:18:26.279525  3043 net.cpp:163] Setting up inception_3a/output
I0417 17:18:26.279530  3043 net.cpp:170] Top shape: 10 1024 18 7 (1290240)
I0417 17:18:26.279531  3043 layer_factory.hpp:74] Creating layer inception_3a/output_inception_3a/output_0_split
I0417 17:18:26.279534  3043 net.cpp:133] Creating Layer inception_3a/output_inception_3a/output_0_split
I0417 17:18:26.279536  3043 net.cpp:453] inception_3a/output_inception_3a/output_0_split <- inception_3a/output
I0417 17:18:26.279539  3043 net.cpp:411] inception_3a/output_inception_3a/output_0_split -> inception_3a/output_inception_3a/output_0_split_0
I0417 17:18:26.279543  3043 net.cpp:411] inception_3a/output_inception_3a/output_0_split -> inception_3a/output_inception_3a/output_0_split_1
I0417 17:18:26.279546  3043 net.cpp:411] inception_3a/output_inception_3a/output_0_split -> inception_3a/output_inception_3a/output_0_split_2
I0417 17:18:26.279549  3043 net.cpp:163] Setting up inception_3a/output_inception_3a/output_0_split
I0417 17:18:26.279552  3043 net.cpp:170] Top shape: 10 1024 18 7 (1290240)
I0417 17:18:26.279554  3043 net.cpp:170] Top shape: 10 1024 18 7 (1290240)
I0417 17:18:26.279556  3043 net.cpp:170] Top shape: 10 1024 18 7 (1290240)
I0417 17:18:26.279558  3043 layer_factory.hpp:74] Creating layer inception_3b/3x3_reduce
I0417 17:18:26.279562  3043 net.cpp:133] Creating Layer inception_3b/3x3_reduce
I0417 17:18:26.279566  3043 net.cpp:453] inception_3b/3x3_reduce <- inception_3a/output_inception_3a/output_0_split_0
I0417 17:18:26.279569  3043 net.cpp:411] inception_3b/3x3_reduce -> inception_3b/3x3_reduce
I0417 17:18:26.279573  3043 net.cpp:163] Setting up inception_3b/3x3_reduce
I0417 17:18:26.456017  3043 net.cpp:170] Top shape: 10 256 18 7 (322560)
I0417 17:18:26.456033  3043 layer_factory.hpp:74] Creating layer inception_3b/3x3_reduce_bn
I0417 17:18:26.456037  3043 layer_factory.cpp:191] Layer inception_3b/3x3_reduce_bn is using CAFFE engine.
I0417 17:18:26.456043  3043 net.cpp:133] Creating Layer inception_3b/3x3_reduce_bn
I0417 17:18:26.456045  3043 net.cpp:453] inception_3b/3x3_reduce_bn <- inception_3b/3x3_reduce
I0417 17:18:26.456049  3043 net.cpp:411] inception_3b/3x3_reduce_bn -> inception_3b/3x3_reduce_bn
I0417 17:18:26.456055  3043 net.cpp:163] Setting up inception_3b/3x3_reduce_bn
I0417 17:18:26.456066  3043 net.cpp:170] Top shape: 10 256 18 7 (322560)
I0417 17:18:26.456070  3043 layer_factory.hpp:74] Creating layer inception_3b/relu_3x3_reduce
I0417 17:18:26.456074  3043 net.cpp:133] Creating Layer inception_3b/relu_3x3_reduce
I0417 17:18:26.456075  3043 net.cpp:453] inception_3b/relu_3x3_reduce <- inception_3b/3x3_reduce_bn
I0417 17:18:26.456079  3043 net.cpp:400] inception_3b/relu_3x3_reduce -> inception_3b/3x3_reduce_bn (in-place)
I0417 17:18:26.456082  3043 net.cpp:163] Setting up inception_3b/relu_3x3_reduce
I0417 17:18:26.456324  3043 net.cpp:170] Top shape: 10 256 18 7 (322560)
I0417 17:18:26.456331  3043 layer_factory.hpp:74] Creating layer inception_3b/3x3
I0417 17:18:26.456336  3043 net.cpp:133] Creating Layer inception_3b/3x3
I0417 17:18:26.456339  3043 net.cpp:453] inception_3b/3x3 <- inception_3b/3x3_reduce_bn
I0417 17:18:26.456342  3043 net.cpp:411] inception_3b/3x3 -> inception_3b/3x3
I0417 17:18:26.456346  3043 net.cpp:163] Setting up inception_3b/3x3
I0417 17:18:26.468471  3043 net.cpp:170] Top shape: 10 256 9 4 (92160)
I0417 17:18:26.468479  3043 layer_factory.hpp:74] Creating layer inception_3b/3x3_bn
I0417 17:18:26.468482  3043 layer_factory.cpp:191] Layer inception_3b/3x3_bn is using CAFFE engine.
I0417 17:18:26.468487  3043 net.cpp:133] Creating Layer inception_3b/3x3_bn
I0417 17:18:26.468489  3043 net.cpp:453] inception_3b/3x3_bn <- inception_3b/3x3
I0417 17:18:26.468492  3043 net.cpp:411] inception_3b/3x3_bn -> inception_3b/3x3_bn
I0417 17:18:26.468497  3043 net.cpp:163] Setting up inception_3b/3x3_bn
I0417 17:18:26.468507  3043 net.cpp:170] Top shape: 10 256 9 4 (92160)
I0417 17:18:26.468511  3043 layer_factory.hpp:74] Creating layer inception_3b/relu_3x3
I0417 17:18:26.468514  3043 net.cpp:133] Creating Layer inception_3b/relu_3x3
I0417 17:18:26.468516  3043 net.cpp:453] inception_3b/relu_3x3 <- inception_3b/3x3_bn
I0417 17:18:26.468519  3043 net.cpp:400] inception_3b/relu_3x3 -> inception_3b/3x3_bn (in-place)
I0417 17:18:26.468523  3043 net.cpp:163] Setting up inception_3b/relu_3x3
I0417 17:18:26.468720  3043 net.cpp:170] Top shape: 10 256 9 4 (92160)
I0417 17:18:26.468726  3043 layer_factory.hpp:74] Creating layer inception_3b/double_3x3_reduce
I0417 17:18:26.468732  3043 net.cpp:133] Creating Layer inception_3b/double_3x3_reduce
I0417 17:18:26.468734  3043 net.cpp:453] inception_3b/double_3x3_reduce <- inception_3a/output_inception_3a/output_0_split_1
I0417 17:18:26.468739  3043 net.cpp:411] inception_3b/double_3x3_reduce -> inception_3b/double_3x3_reduce
I0417 17:18:26.468744  3043 net.cpp:163] Setting up inception_3b/double_3x3_reduce
I0417 17:18:26.644384  3043 net.cpp:170] Top shape: 10 256 18 7 (322560)
I0417 17:18:26.644394  3043 layer_factory.hpp:74] Creating layer inception_3b/double_3x3_reduce_bn
I0417 17:18:26.644397  3043 layer_factory.cpp:191] Layer inception_3b/double_3x3_reduce_bn is using CAFFE engine.
I0417 17:18:26.644423  3043 net.cpp:133] Creating Layer inception_3b/double_3x3_reduce_bn
I0417 17:18:26.644426  3043 net.cpp:453] inception_3b/double_3x3_reduce_bn <- inception_3b/double_3x3_reduce
I0417 17:18:26.644430  3043 net.cpp:411] inception_3b/double_3x3_reduce_bn -> inception_3b/double_3x3_reduce_bn
I0417 17:18:26.644434  3043 net.cpp:163] Setting up inception_3b/double_3x3_reduce_bn
I0417 17:18:26.644443  3043 net.cpp:170] Top shape: 10 256 18 7 (322560)
I0417 17:18:26.644448  3043 layer_factory.hpp:74] Creating layer inception_3b/relu_double_3x3_reduce
I0417 17:18:26.644450  3043 net.cpp:133] Creating Layer inception_3b/relu_double_3x3_reduce
I0417 17:18:26.644451  3043 net.cpp:453] inception_3b/relu_double_3x3_reduce <- inception_3b/double_3x3_reduce_bn
I0417 17:18:26.644455  3043 net.cpp:400] inception_3b/relu_double_3x3_reduce -> inception_3b/double_3x3_reduce_bn (in-place)
I0417 17:18:26.644459  3043 net.cpp:163] Setting up inception_3b/relu_double_3x3_reduce
I0417 17:18:26.644577  3043 net.cpp:170] Top shape: 10 256 18 7 (322560)
I0417 17:18:26.644582  3043 layer_factory.hpp:74] Creating layer inception_3b/double_3x3_1
I0417 17:18:26.644587  3043 net.cpp:133] Creating Layer inception_3b/double_3x3_1
I0417 17:18:26.644588  3043 net.cpp:453] inception_3b/double_3x3_1 <- inception_3b/double_3x3_reduce_bn
I0417 17:18:26.644593  3043 net.cpp:411] inception_3b/double_3x3_1 -> inception_3b/double_3x3_1
I0417 17:18:26.644596  3043 net.cpp:163] Setting up inception_3b/double_3x3_1
I0417 17:18:26.702551  3043 net.cpp:170] Top shape: 10 256 18 7 (322560)
I0417 17:18:26.702561  3043 layer_factory.hpp:74] Creating layer inception_3b/double_3x3_1_bn
I0417 17:18:26.702564  3043 layer_factory.cpp:191] Layer inception_3b/double_3x3_1_bn is using CAFFE engine.
I0417 17:18:26.702567  3043 net.cpp:133] Creating Layer inception_3b/double_3x3_1_bn
I0417 17:18:26.702570  3043 net.cpp:453] inception_3b/double_3x3_1_bn <- inception_3b/double_3x3_1
I0417 17:18:26.702574  3043 net.cpp:411] inception_3b/double_3x3_1_bn -> inception_3b/double_3x3_1_bn
I0417 17:18:26.702579  3043 net.cpp:163] Setting up inception_3b/double_3x3_1_bn
I0417 17:18:26.702589  3043 net.cpp:170] Top shape: 10 256 18 7 (322560)
I0417 17:18:26.702594  3043 layer_factory.hpp:74] Creating layer inception_3b/relu_double_3x3_1
I0417 17:18:26.702596  3043 net.cpp:133] Creating Layer inception_3b/relu_double_3x3_1
I0417 17:18:26.702599  3043 net.cpp:453] inception_3b/relu_double_3x3_1 <- inception_3b/double_3x3_1_bn
I0417 17:18:26.702602  3043 net.cpp:400] inception_3b/relu_double_3x3_1 -> inception_3b/double_3x3_1_bn (in-place)
I0417 17:18:26.702605  3043 net.cpp:163] Setting up inception_3b/relu_double_3x3_1
I0417 17:18:26.702803  3043 net.cpp:170] Top shape: 10 256 18 7 (322560)
I0417 17:18:26.702811  3043 layer_factory.hpp:74] Creating layer inception_3b/double_3x3_2
I0417 17:18:26.702816  3043 net.cpp:133] Creating Layer inception_3b/double_3x3_2
I0417 17:18:26.702817  3043 net.cpp:453] inception_3b/double_3x3_2 <- inception_3b/double_3x3_1_bn
I0417 17:18:26.702821  3043 net.cpp:411] inception_3b/double_3x3_2 -> inception_3b/double_3x3_2
I0417 17:18:26.702826  3043 net.cpp:163] Setting up inception_3b/double_3x3_2
I0417 17:18:26.714922  3043 net.cpp:170] Top shape: 10 256 9 4 (92160)
I0417 17:18:26.714932  3043 layer_factory.hpp:74] Creating layer inception_3b/double_3x3_2_bn
I0417 17:18:26.714936  3043 layer_factory.cpp:191] Layer inception_3b/double_3x3_2_bn is using CAFFE engine.
I0417 17:18:26.714941  3043 net.cpp:133] Creating Layer inception_3b/double_3x3_2_bn
I0417 17:18:26.714942  3043 net.cpp:453] inception_3b/double_3x3_2_bn <- inception_3b/double_3x3_2
I0417 17:18:26.714946  3043 net.cpp:411] inception_3b/double_3x3_2_bn -> inception_3b/double_3x3_2_bn
I0417 17:18:26.714951  3043 net.cpp:163] Setting up inception_3b/double_3x3_2_bn
I0417 17:18:26.714961  3043 net.cpp:170] Top shape: 10 256 9 4 (92160)
I0417 17:18:26.714965  3043 layer_factory.hpp:74] Creating layer inception_3b/relu_double_3x3_2
I0417 17:18:26.714968  3043 net.cpp:133] Creating Layer inception_3b/relu_double_3x3_2
I0417 17:18:26.714970  3043 net.cpp:453] inception_3b/relu_double_3x3_2 <- inception_3b/double_3x3_2_bn
I0417 17:18:26.714973  3043 net.cpp:400] inception_3b/relu_double_3x3_2 -> inception_3b/double_3x3_2_bn (in-place)
I0417 17:18:26.714977  3043 net.cpp:163] Setting up inception_3b/relu_double_3x3_2
I0417 17:18:26.715176  3043 net.cpp:170] Top shape: 10 256 9 4 (92160)
I0417 17:18:26.715183  3043 layer_factory.hpp:74] Creating layer inception_3b/pool
I0417 17:18:26.715185  3043 layer_factory.cpp:64] CUDNN does not support padding or multiple tops. Using Caffe's own pooling layer.
I0417 17:18:26.715188  3043 net.cpp:133] Creating Layer inception_3b/pool
I0417 17:18:26.715190  3043 net.cpp:453] inception_3b/pool <- inception_3a/output_inception_3a/output_0_split_2
I0417 17:18:26.715194  3043 net.cpp:411] inception_3b/pool -> inception_3b/pool
I0417 17:18:26.715198  3043 net.cpp:163] Setting up inception_3b/pool
I0417 17:18:26.715204  3043 net.cpp:170] Top shape: 10 1024 9 4 (368640)
I0417 17:18:26.715205  3043 layer_factory.hpp:74] Creating layer inception_3b/output
I0417 17:18:26.715209  3043 net.cpp:133] Creating Layer inception_3b/output
I0417 17:18:26.715211  3043 net.cpp:453] inception_3b/output <- inception_3b/3x3_bn
I0417 17:18:26.715214  3043 net.cpp:453] inception_3b/output <- inception_3b/double_3x3_2_bn
I0417 17:18:26.715215  3043 net.cpp:453] inception_3b/output <- inception_3b/pool
I0417 17:18:26.715219  3043 net.cpp:411] inception_3b/output -> inception_3b/output
I0417 17:18:26.715221  3043 net.cpp:163] Setting up inception_3b/output
I0417 17:18:26.715224  3043 net.cpp:170] Top shape: 10 1536 9 4 (552960)
I0417 17:18:26.715226  3043 layer_factory.hpp:74] Creating layer global_pool
I0417 17:18:26.715229  3043 net.cpp:133] Creating Layer global_pool
I0417 17:18:26.715231  3043 net.cpp:453] global_pool <- inception_3b/output
I0417 17:18:26.715234  3043 net.cpp:411] global_pool -> global_pool
I0417 17:18:26.715237  3043 net.cpp:163] Setting up global_pool
I0417 17:18:26.715348  3043 net.cpp:170] Top shape: 10 1536 1 1 (15360)
I0417 17:18:26.715353  3043 layer_factory.hpp:74] Creating layer gather_global_pool_to_fc7
I0417 17:18:26.715355  3043 net.cpp:133] Creating Layer gather_global_pool_to_fc7
I0417 17:18:26.715358  3043 net.cpp:453] gather_global_pool_to_fc7 <- global_pool
I0417 17:18:26.715360  3043 net.cpp:411] gather_global_pool_to_fc7 -> gathered_global_pool
I0417 17:18:26.715363  3043 net.cpp:163] Setting up gather_global_pool_to_fc7
I0417 17:18:26.715366  3043 net.cpp:170] Top shape: 20 1536 1 1 (30720)
I0417 17:18:26.715368  3043 layer_factory.hpp:74] Creating layer fc7
I0417 17:18:26.715373  3043 net.cpp:133] Creating Layer fc7
I0417 17:18:26.715374  3043 net.cpp:453] fc7 <- gathered_global_pool
I0417 17:18:26.715378  3043 net.cpp:411] fc7 -> fc7
I0417 17:18:26.715380  3043 net.cpp:163] Setting up fc7
I0417 17:18:26.716907  3043 net.cpp:170] Top shape: 20 256 (5120)
I0417 17:18:26.716912  3043 layer_factory.hpp:74] Creating layer fc7_bn
I0417 17:18:26.716914  3043 layer_factory.cpp:191] Layer fc7_bn is using CAFFE engine.
I0417 17:18:26.716918  3043 net.cpp:133] Creating Layer fc7_bn
I0417 17:18:26.716920  3043 net.cpp:453] fc7_bn <- fc7
I0417 17:18:26.716924  3043 net.cpp:411] fc7_bn -> fc7_bn
I0417 17:18:26.716928  3043 net.cpp:163] Setting up fc7_bn
I0417 17:18:26.716935  3043 net.cpp:170] Top shape: 20 256 (5120)
I0417 17:18:26.716940  3043 layer_factory.hpp:74] Creating layer relu7
I0417 17:18:26.716943  3043 net.cpp:133] Creating Layer relu7
I0417 17:18:26.716945  3043 net.cpp:453] relu7 <- fc7_bn
I0417 17:18:26.716948  3043 net.cpp:400] relu7 -> fc7_bn (in-place)
I0417 17:18:26.716950  3043 net.cpp:163] Setting up relu7
I0417 17:18:26.717145  3043 net.cpp:170] Top shape: 20 256 (5120)
I0417 17:18:26.717150  3043 layer_factory.hpp:74] Creating layer drop7
I0417 17:18:26.717154  3043 net.cpp:133] Creating Layer drop7
I0417 17:18:26.717156  3043 net.cpp:453] drop7 <- fc7_bn
I0417 17:18:26.717160  3043 net.cpp:400] drop7 -> fc7_bn (in-place)
I0417 17:18:26.717164  3043 net.cpp:163] Setting up drop7
I0417 17:18:26.717166  3043 net.cpp:170] Top shape: 20 256 (5120)
I0417 17:18:26.717169  3043 layer_factory.hpp:74] Creating layer fc8_3dpes
I0417 17:18:26.717171  3043 net.cpp:133] Creating Layer fc8_3dpes
I0417 17:18:26.717173  3043 net.cpp:453] fc8_3dpes <- fc7_bn
I0417 17:18:26.717176  3043 net.cpp:411] fc8_3dpes -> fc8_3dpes
I0417 17:18:26.717180  3043 net.cpp:163] Setting up fc8_3dpes
I0417 17:18:26.717531  3043 net.cpp:170] Top shape: 20 193 (3860)
I0417 17:18:26.717536  3043 layer_factory.hpp:74] Creating layer fc8_3dpes_fc8_3dpes_0_split
I0417 17:18:26.717540  3043 net.cpp:133] Creating Layer fc8_3dpes_fc8_3dpes_0_split
I0417 17:18:26.717542  3043 net.cpp:453] fc8_3dpes_fc8_3dpes_0_split <- fc8_3dpes
I0417 17:18:26.717545  3043 net.cpp:411] fc8_3dpes_fc8_3dpes_0_split -> fc8_3dpes_fc8_3dpes_0_split_0
I0417 17:18:26.717548  3043 net.cpp:411] fc8_3dpes_fc8_3dpes_0_split -> fc8_3dpes_fc8_3dpes_0_split_1
I0417 17:18:26.717552  3043 net.cpp:163] Setting up fc8_3dpes_fc8_3dpes_0_split
I0417 17:18:26.717555  3043 net.cpp:170] Top shape: 20 193 (3860)
I0417 17:18:26.717556  3043 net.cpp:170] Top shape: 20 193 (3860)
I0417 17:18:26.717558  3043 layer_factory.hpp:74] Creating layer gather_label_data_1_split_to_loss
I0417 17:18:26.717561  3043 net.cpp:133] Creating Layer gather_label_data_1_split_to_loss
I0417 17:18:26.717562  3043 net.cpp:453] gather_label_data_1_split_to_loss <- label_data_1_split_0
I0417 17:18:26.717566  3043 net.cpp:411] gather_label_data_1_split_to_loss -> gathered_label_data_1_split_0
I0417 17:18:26.717568  3043 net.cpp:163] Setting up gather_label_data_1_split_to_loss
I0417 17:18:26.717571  3043 net.cpp:170] Top shape: 20 (20)
I0417 17:18:26.717572  3043 layer_factory.hpp:74] Creating layer loss
I0417 17:18:26.717576  3043 net.cpp:133] Creating Layer loss
I0417 17:18:26.717577  3043 net.cpp:453] loss <- fc8_3dpes_fc8_3dpes_0_split_0
I0417 17:18:26.717579  3043 net.cpp:453] loss <- gathered_label_data_1_split_0
I0417 17:18:26.717582  3043 net.cpp:411] loss -> loss
I0417 17:18:26.717586  3043 net.cpp:163] Setting up loss
I0417 17:18:26.717587  3043 layer_factory.hpp:74] Creating layer loss
I0417 17:18:26.717708  3043 net.cpp:170] Top shape: (1)
I0417 17:18:26.717712  3043 net.cpp:172]     with loss weight 1
I0417 17:18:26.717720  3043 layer_factory.hpp:74] Creating layer gather_label_data_1_split_to_accuracy
I0417 17:18:26.717723  3043 net.cpp:133] Creating Layer gather_label_data_1_split_to_accuracy
I0417 17:18:26.717725  3043 net.cpp:453] gather_label_data_1_split_to_accuracy <- label_data_1_split_1
I0417 17:18:26.717730  3043 net.cpp:411] gather_label_data_1_split_to_accuracy -> gathered_label_data_1_split_1
I0417 17:18:26.717732  3043 net.cpp:163] Setting up gather_label_data_1_split_to_accuracy
I0417 17:18:26.717736  3043 net.cpp:170] Top shape: 20 (20)
I0417 17:18:26.717736  3043 layer_factory.hpp:74] Creating layer accuracy
I0417 17:18:26.717739  3043 net.cpp:133] Creating Layer accuracy
I0417 17:18:26.717741  3043 net.cpp:453] accuracy <- fc8_3dpes_fc8_3dpes_0_split_1
I0417 17:18:26.717744  3043 net.cpp:453] accuracy <- gathered_label_data_1_split_1
I0417 17:18:26.717746  3043 net.cpp:411] accuracy -> accuracy
I0417 17:18:26.717751  3043 net.cpp:163] Setting up accuracy
…
