…
I0417 17:50:02.962644 14761 net.cpp:330] The NetState phase (0) differed from the phase (1) specified by a rule in layer accuracy
I0417 17:50:02.963254 14761 net.cpp:47] Initializing net from parameters: 
name: "iLIDS"
state {
  phase: TRAIN
}
richness: 1000
layer {
  name: "data"
  type: "Data"
  top: "data"
  top: "label"
  include {
    phase: TRAIN
  }
  transform_param {
    mirror: true
    mean_value: 102
    mean_value: 102
    mean_value: 101
    crop_height: 144
    crop_width: 56
  }
  data_param {
    source: "external/exp/db/ilids/train_lmdb"
    batch_size: 50
    backend: LMDB
    shuffle_pool_size: 10
  }
}
layer {
  name: "conv1"
  type: "Convolution"
  bottom: "data"
  top: "conv1"
  param {
    lr_mult: 1
    decay_mult: 1
  }
  param {
    lr_mult: 2
    decay_mult: 0
  }
  convolution_param {
    num_output: 32
    pad: 1
    kernel_size: 3
    stride: 1
    weight_filler {
      type: "xavier"
    }
    bias_filler {
      type: "constant"
      value: 0.2
    }
  }
}
layer {
  name: "conv1_bn"
  type: "BN"
  bottom: "conv1"
  top: "conv1_bn"
  param {
    lr_mult: 1
    decay_mult: 0
  }
  param {
    lr_mult: 1
    decay_mult: 0
  }
  bn_param {
    slope_filler {
      type: "constant"
      value: 1
    }
    bias_filler {
      type: "constant"
      value: 0
    }
  }
}
layer {
  name: "relu1"
  type: "ReLU"
  bottom: "conv1_bn"
  top: "conv1_bn"
}
layer {
  name: "conv2"
  type: "Convolution"
  bottom: "conv1_bn"
  top: "conv2"
  param {
    lr_mult: 1
    decay_mult: 1
  }
  param {
    lr_mult: 2
    decay_mult: 0
  }
  convolution_param {
    num_output: 32
    pad: 1
    kernel_size: 3
    stride: 1
    weight_filler {
      type: "xavier"
    }
    bias_filler {
      type: "constant"
      value: 0.2
    }
  }
}
layer {
  name: "conv2_bn"
  type: "BN"
  bottom: "conv2"
  top: "conv2_bn"
  param {
    lr_mult: 1
    decay_mult: 0
  }
  param {
    lr_mult: 1
    decay_mult: 0
  }
  bn_param {
    slope_filler {
      type: "constant"
      value: 1
    }
    bias_filler {
      type: "constant"
      value: 0
    }
  }
}
layer {
  name: "relu2"
  type: "ReLU"
  bottom: "conv2_bn"
  top: "conv2_bn"
}
layer {
  name: "conv3"
  type: "Convolution"
  bottom: "conv2_bn"
  top: "conv3"
  param {
    lr_mult: 1
    decay_mult: 1
  }
  param {
    lr_mult: 2
    decay_mult: 0
  }
  convolution_param {
    num_output: 32
    pad: 1
    kernel_size: 3
    stride: 1
    weight_filler {
      type: "xavier"
    }
    bias_filler {
      type: "constant"
      value: 0.2
    }
  }
}
layer {
  name: "conv3_bn"
  type: "BN"
  bottom: "conv3"
  top: "conv3_bn"
  param {
    lr_mult: 1
    decay_mult: 0
  }
  param {
    lr_mult: 1
    decay_mult: 0
  }
  bn_param {
    slope_filler {
      type: "constant"
      value: 1
    }
    bias_filler {
      type: "constant"
      value: 0
    }
  }
}
layer {
  name: "relu3"
  type: "ReLU"
  bottom: "conv3_bn"
  top: "conv3_bn"
}
layer {
  name: "pool1"
  type: "Pooling"
  bottom: "conv3_bn"
  top: "pool1"
  pooling_param {
    pool: MAX
    kernel_size: 2
    stride: 2
  }
}
layer {
  name: "inception_1a/1x1"
  type: "Convolution"
  bottom: "pool1"
  top: "inception_1a/1x1"
  param {
    lr_mult: 1
    decay_mult: 1
  }
  param {
    lr_mult: 2
    decay_mult: 0
  }
  convolution_param {
    num_output: 64
    kernel_size: 1
    weight_filler {
      type: "xavier"
    }
    bias_filler {
      type: "constant"
      value: 0.2
    }
  }
}
layer {
  name: "inception_1a/1x1_bn"
  type: "BN"
  bottom: "inception_1a/1x1"
  top: "inception_1a/1x1_bn"
  param {
    lr_mult: 1
    decay_mult: 0
  }
  param {
    lr_mult: 1
    decay_mult: 0
  }
  bn_param {
    slope_filler {
      type: "constant"
      value: 1
    }
    bias_filler {
      type: "constant"
      value: 0
    }
  }
}
layer {
  name: "inception_1a/relu_1x1"
  type: "ReLU"
  bottom: "inception_1a/1x1_bn"
  top: "inception_1a/1x1_bn"
}
layer {
  name: "inception_1a/3x3_reduce"
  type: "Convolution"
  bottom: "pool1"
  top: "inception_1a/3x3_reduce"
  param {
    lr_mult: 1
    decay_mult: 1
  }
  param {
    lr_mult: 2
    decay_mult: 0
  }
  convolution_param {
    num_output: 64
    kernel_size: 1
    weight_filler {
      type: "xavier"
    }
    bias_filler {
      type: "constant"
      value: 0.2
    }
  }
}
layer {
  name: "inception_1a/3x3_reduce_bn"
  type: "BN"
  bottom: "inception_1a/3x3_reduce"
  top: "inception_1a/3x3_reduce_bn"
  param {
    lr_mult: 1
    decay_mult: 0
  }
  param {
    lr_mult: 1
    decay_mult: 0
  }
  bn_param {
    slope_filler {
      type: "constant"
      value: 1
    }
    bias_filler {
      type: "constant"
      value: 0
    }
  }
}
layer {
  name: "inception_1a/relu_3x3_reduce"
  type: "ReLU"
  bottom: "inception_1a/3x3_reduce_bn"
  top: "inception_1a/3x3_reduce_bn"
}
layer {
  name: "inception_1a/3x3"
  type: "Convolution"
  bottom: "inception_1a/3x3_reduce_bn"
  top: "inception_1a/3x3"
  param {
    lr_mult: 1
    decay_mult: 1
  }
  param {
    lr_mult: 2
    decay_mult: 0
  }
  convolution_param {
    num_output: 64
    pad: 1
    kernel_size: 3
    weight_filler {
      type: "xavier"
    }
    bias_filler {
      type: "constant"
      value: 0.2
    }
  }
}
layer {
  name: "inception_1a/3x3_bn"
  type: "BN"
  bottom: "inception_1a/3x3"
  top: "inception_1a/3x3_bn"
  param {
    lr_mult: 1
    decay_mult: 0
  }
  param {
    lr_mult: 1
    decay_mult: 0
  }
  bn_param {
    slope_filler {
      type: "constant"
      value: 1
    }
    bias_filler {
      type: "constant"
      value: 0
    }
  }
}
layer {
  name: "inception_1a/relu_3x3"
  type: "ReLU"
  bottom: "inception_1a/3x3_bn"
  top: "inception_1a/3x3_bn"
}
layer {
  name: "inception_1a/double_3x3_reduce"
  type: "Convolution"
  bottom: "pool1"
  top: "inception_1a/double_3x3_reduce"
  param {
    lr_mult: 1
    decay_mult: 1
  }
  param {
    lr_mult: 2
    decay_mult: 0
  }
  convolution_param {
    num_output: 64
    kernel_size: 1
    weight_filler {
      type: "xavier"
    }
    bias_filler {
      type: "constant"
      value: 0.2
    }
  }
}
layer {
  name: "inception_1a/double_3x3_reduce_bn"
  type: "BN"
  bottom: "inception_1a/double_3x3_reduce"
  top: "inception_1a/double_3x3_reduce_bn"
  param {
    lr_mult: 1
    decay_mult: 0
  }
  param {
    lr_mult: 1
    decay_mult: 0
  }
  bn_param {
    slope_filler {
      type: "constant"
      value: 1
    }
    bias_filler {
      type: "constant"
      value: 0
    }
  }
}
layer {
  name: "inception_1a/relu_double_3x3_reduce"
  type: "ReLU"
  bottom: "inception_1a/double_3x3_reduce_bn"
  top: "inception_1a/double_3x3_reduce_bn"
}
layer {
  name: "inception_1a/double_3x3_1"
  type: "Convolution"
  bottom: "inception_1a/double_3x3_reduce_bn"
  top: "inception_1a/double_3x3_1"
  param {
    lr_mult: 1
    decay_mult: 1
  }
  param {
    lr_mult: 2
    decay_mult: 0
  }
  convolution_param {
    num_output: 64
    pad: 1
    kernel_size: 3
    weight_filler {
      type: "xavier"
    }
    bias_filler {
      type: "constant"
      value: 0.2
    }
  }
}
layer {
  name: "inception_1a/double_3x3_1_bn"
  type: "BN"
  bottom: "inception_1a/double_3x3_1"
  top: "inception_1a/double_3x3_1_bn"
  param {
    lr_mult: 1
    decay_mult: 0
  }
  param {
    lr_mult: 1
    decay_mult: 0
  }
  bn_param {
    slope_filler {
      type: "constant"
      value: 1
    }
    bias_filler {
      type: "constant"
      value: 0
    }
  }
}
layer {
  name: "inception_1a/relu_double_3x3_1"
  type: "ReLU"
  bottom: "inception_1a/double_3x3_1_bn"
  top: "inception_1a/double_3x3_1_bn"
}
layer {
  name: "inception_1a/double_3x3_2"
  type: "Convolution"
  bottom: "inception_1a/double_3x3_1_bn"
  top: "inception_1a/double_3x3_2"
  param {
    lr_mult: 1
    decay_mult: 1
  }
  param {
    lr_mult: 2
    decay_mult: 0
  }
  convolution_param {
    num_output: 64
    pad: 1
    kernel_size: 3
    weight_filler {
      type: "xavier"
    }
    bias_filler {
      type: "constant"
      value: 0.2
    }
  }
}
layer {
  name: "inception_1a/double_3x3_2_bn"
  type: "BN"
  bottom: "inception_1a/double_3x3_2"
  top: "inception_1a/double_3x3_2_bn"
  param {
    lr_mult: 1
    decay_mult: 0
  }
  param {
    lr_mult: 1
    decay_mult: 0
  }
  bn_param {
    slope_filler {
      type: "constant"
      value: 1
    }
    bias_filler {
      type: "constant"
      value: 0
    }
  }
}
layer {
  name: "inception_1a/relu_double_3x3_2"
  type: "ReLU"
  bottom: "inception_1a/double_3x3_2_bn"
  top: "inception_1a/double_3x3_2_bn"
}
layer {
  name: "inception_1a/pool"
  type: "Pooling"
  bottom: "pool1"
  top: "inception_1a/pool"
  pooling_param {
    pool: AVE
    kernel_size: 3
    stride: 1
    pad: 1
  }
}
layer {
  name: "inception_1a/pool_proj"
  type: "Convolution"
  bottom: "inception_1a/pool"
  top: "inception_1a/pool_proj"
  param {
    lr_mult: 1
    decay_mult: 1
  }
  param {
    lr_mult: 2
    decay_mult: 0
  }
  convolution_param {
    num_output: 64
    kernel_size: 1
    weight_filler {
      type: "xavier"
    }
    bias_filler {
      type: "constant"
      value: 0.2
    }
  }
}
layer {
  name: "inception_1a/pool_proj_bn"
  type: "BN"
  bottom: "inception_1a/pool_proj"
  top: "inception_1a/pool_proj_bn"
  param {
    lr_mult: 1
    decay_mult: 0
  }
  param {
    lr_mult: 1
    decay_mult: 0
  }
  bn_param {
    slope_filler {
      type: "constant"
      value: 1
    }
    bias_filler {
      type: "constant"
      value: 0
    }
  }
}
layer {
  name: "inception_1a/relu_pool_proj"
  type: "ReLU"
  bottom: "inception_1a/pool_proj_bn"
  top: "inception_1a/pool_proj_bn"
}
layer {
  name: "inception_1a/output"
  type: "Concat"
  bottom: "inception_1a/1x1_bn"
  bottom: "inception_1a/3x3_bn"
  bottom: "inception_1a/double_3x3_2_bn"
  bottom: "inception_1a/pool_proj_bn"
  top: "inception_1a/output"
}
layer {
  name: "inception_1b/3x3_reduce"
  type: "Convolution"
  bottom: "inception_1a/output"
  top: "inception_1b/3x3_reduce"
  param {
    lr_mult: 1
    decay_mult: 1
  }
  param {
    lr_mult: 2
    decay_mult: 0
  }
  convolution_param {
    num_output: 64
    kernel_size: 1
    weight_filler {
      type: "xavier"
    }
    bias_filler {
      type: "constant"
      value: 0.2
    }
  }
}
layer {
  name: "inception_1b/3x3_reduce_bn"
  type: "BN"
  bottom: "inception_1b/3x3_reduce"
  top: "inception_1b/3x3_reduce_bn"
  param {
    lr_mult: 1
    decay_mult: 0
  }
  param {
    lr_mult: 1
    decay_mult: 0
  }
  bn_param {
    slope_filler {
      type: "constant"
      value: 1
    }
    bias_filler {
      type: "constant"
      value: 0
    }
  }
}
layer {
  name: "inception_1b/relu_3x3_reduce"
  type: "ReLU"
  bottom: "inception_1b/3x3_reduce_bn"
  top: "inception_1b/3x3_reduce_bn"
}
layer {
  name: "inception_1b/3x3"
  type: "Convolution"
  bottom: "inception_1b/3x3_reduce_bn"
  top: "inception_1b/3x3"
  param {
    lr_mult: 1
    decay_mult: 1
  }
  param {
    lr_mult: 2
    decay_mult: 0
  }
  convolution_param {
    num_output: 64
    pad: 1
    kernel_size: 3
    stride: 2
    weight_filler {
      type: "xavier"
    }
    bias_filler {
      type: "constant"
      value: 0.2
    }
  }
}
layer {
  name: "inception_1b/3x3_bn"
  type: "BN"
  bottom: "inception_1b/3x3"
  top: "inception_1b/3x3_bn"
  param {
    lr_mult: 1
    decay_mult: 0
  }
  param {
    lr_mult: 1
    decay_mult: 0
  }
  bn_param {
    slope_filler {
      type: "constant"
      value: 1
    }
    bias_filler {
      type: "constant"
      value: 0
    }
  }
}
layer {
  name: "inception_1b/relu_3x3"
  type: "ReLU"
  bottom: "inception_1b/3x3_bn"
  top: "inception_1b/3x3_bn"
}
layer {
  name: "inception_1b/double_3x3_reduce"
  type: "Convolution"
  bottom: "inception_1a/output"
  top: "inception_1b/double_3x3_reduce"
  param {
    lr_mult: 1
    decay_mult: 1
  }
  param {
    lr_mult: 2
    decay_mult: 0
  }
  convolution_param {
    num_output: 64
    kernel_size: 1
    weight_filler {
      type: "xavier"
    }
    bias_filler {
      type: "constant"
      value: 0.2
    }
  }
}
layer {
  name: "inception_1b/double_3x3_reduce_bn"
  type: "BN"
  bottom: "inception_1b/double_3x3_reduce"
  top: "inception_1b/double_3x3_reduce_bn"
  param {
    lr_mult: 1
    decay_mult: 0
  }
  param {
    lr_mult: 1
    decay_mult: 0
  }
  bn_param {
    slope_filler {
      type: "constant"
      value: 1
    }
    bias_filler {
      type: "constant"
      value: 0
    }
  }
}
layer {
  name: "inception_1b/relu_double_3x3_reduce"
  type: "ReLU"
  bottom: "inception_1b/double_3x3_reduce_bn"
  top: "inception_1b/double_3x3_reduce_bn"
}
layer {
  name: "inception_1b/double_3x3_1"
  type: "Convolution"
  bottom: "inception_1b/double_3x3_reduce_bn"
  top: "inception_1b/double_3x3_1"
  param {
    lr_mult: 1
    decay_mult: 1
  }
  param {
    lr_mult: 2
    decay_mult: 0
  }
  convolution_param {
    num_output: 64
    pad: 1
    kernel_size: 3
    weight_filler {
      type: "xavier"
    }
    bias_filler {
      type: "constant"
      value: 0.2
    }
  }
}
layer {
  name: "inception_1b/double_3x3_1_bn"
  type: "BN"
  bottom: "inception_1b/double_3x3_1"
  top: "inception_1b/double_3x3_1_bn"
  param {
    lr_mult: 1
    decay_mult: 0
  }
  param {
    lr_mult: 1
    decay_mult: 0
  }
  bn_param {
    slope_filler {
      type: "constant"
      value: 1
    }
    bias_filler {
      type: "constant"
      value: 0
    }
  }
}
layer {
  name: "inception_1b/relu_double_3x3_1"
  type: "ReLU"
  bottom: "inception_1b/double_3x3_1_bn"
  top: "inception_1b/double_3x3_1_bn"
}
layer {
  name: "inception_1b/double_3x3_2"
  type: "Convolution"
  bottom: "inception_1b/double_3x3_1_bn"
  top: "inception_1b/double_3x3_2"
  param {
    lr_mult: 1
    decay_mult: 1
  }
  param {
    lr_mult: 2
    decay_mult: 0
  }
  convolution_param {
    num_output: 64
    pad: 1
    kernel_size: 3
    stride: 2
    weight_filler {
      type: "xavier"
    }
    bias_filler {
      type: "constant"
      value: 0.2
    }
  }
}
layer {
  name: "inception_1b/double_3x3_2_bn"
  type: "BN"
  bottom: "inception_1b/double_3x3_2"
  top: "inception_1b/double_3x3_2_bn"
  param {
    lr_mult: 1
    decay_mult: 0
  }
  param {
    lr_mult: 1
    decay_mult: 0
  }
  bn_param {
    slope_filler {
      type: "constant"
      value: 1
    }
    bias_filler {
      type: "constant"
      value: 0
    }
  }
}
layer {
  name: "inception_1b/relu_double_3x3_2"
  type: "ReLU"
  bottom: "inception_1b/double_3x3_2_bn"
  top: "inception_1b/double_3x3_2_bn"
}
layer {
  name: "inception_1b/pool"
  type: "Pooling"
  bottom: "inception_1a/output"
  top: "inception_1b/pool"
  pooling_param {
    pool: MAX
    kernel_size: 3
    stride: 2
  }
}
layer {
  name: "inception_1b/output"
  type: "Concat"
  bottom: "inception_1b/3x3_bn"
  bottom: "inception_1b/double_3x3_2_bn"
  bottom: "inception_1b/pool"
  top: "inception_1b/output"
}
layer {
  name: "inception_2a/1x1"
  type: "Convolution"
  bottom: "inception_1b/output"
  top: "inception_2a/1x1"
  param {
    lr_mult: 1
    decay_mult: 1
  }
  param {
    lr_mult: 2
    decay_mult: 0
  }
  convolution_param {
    num_output: 128
    kernel_size: 1
    weight_filler {
      type: "xavier"
    }
    bias_filler {
      type: "constant"
      value: 0.2
    }
  }
}
layer {
  name: "inception_2a/1x1_bn"
  type: "BN"
  bottom: "inception_2a/1x1"
  top: "inception_2a/1x1_bn"
  param {
    lr_mult: 1
    decay_mult: 0
  }
  param {
    lr_mult: 1
    decay_mult: 0
  }
  bn_param {
    slope_filler {
      type: "constant"
      value: 1
    }
    bias_filler {
      type: "constant"
      value: 0
    }
  }
}
layer {
  name: "inception_2a/relu_1x1"
  type: "ReLU"
  bottom: "inception_2a/1x1_bn"
  top: "inception_2a/1x1_bn"
}
layer {
  name: "inception_2a/3x3_reduce"
  type: "Convolution"
  bottom: "inception_1b/output"
  top: "inception_2a/3x3_reduce"
  param {
    lr_mult: 1
    decay_mult: 1
  }
  param {
    lr_mult: 2
    decay_mult: 0
  }
  convolution_param {
    num_output: 128
    kernel_size: 1
    weight_filler {
      type: "xavier"
    }
    bias_filler {
      type: "constant"
      value: 0.2
    }
  }
}
layer {
  name: "inception_2a/3x3_reduce_bn"
  type: "BN"
  bottom: "inception_2a/3x3_reduce"
  top: "inception_2a/3x3_reduce_bn"
  param {
    lr_mult: 1
    decay_mult: 0
  }
  param {
    lr_mult: 1
    decay_mult: 0
  }
  bn_param {
    slope_filler {
      type: "constant"
      value: 1
    }
    bias_filler {
      type: "constant"
      value: 0
    }
  }
}
layer {
  name: "inception_2a/relu_3x3_reduce"
  type: "ReLU"
  bottom: "inception_2a/3x3_reduce_bn"
  top: "inception_2a/3x3_reduce_bn"
}
layer {
  name: "inception_2a/3x3"
  type: "Convolution"
  bottom: "inception_2a/3x3_reduce_bn"
  top: "inception_2a/3x3"
  param {
    lr_mult: 1
    decay_mult: 1
  }
  param {
    lr_mult: 2
    decay_mult: 0
  }
  convolution_param {
    num_output: 128
    pad: 1
    kernel_size: 3
    weight_filler {
      type: "xavier"
    }
    bias_filler {
      type: "constant"
      value: 0.2
    }
  }
}
layer {
  name: "inception_2a/3x3_bn"
  type: "BN"
  bottom: "inception_2a/3x3"
  top: "inception_2a/3x3_bn"
  param {
    lr_mult: 1
    decay_mult: 0
  }
  param {
    lr_mult: 1
    decay_mult: 0
  }
  bn_param {
    slope_filler {
      type: "constant"
      value: 1
    }
    bias_filler {
      type: "constant"
      value: 0
    }
  }
}
layer {
  name: "inception_2a/relu_3x3"
  type: "ReLU"
  bottom: "inception_2a/3x3_bn"
  top: "inception_2a/3x3_bn"
}
layer {
  name: "inception_2a/double_3x3_reduce"
  type: "Convolution"
  bottom: "inception_1b/output"
  top: "inception_2a/double_3x3_reduce"
  param {
    lr_mult: 1
    decay_mult: 1
  }
  param {
    lr_mult: 2
    decay_mult: 0
  }
  convolution_param {
    num_output: 128
    kernel_size: 1
    weight_filler {
      type: "xavier"
    }
    bias_filler {
      type: "constant"
      value: 0.2
    }
  }
}
layer {
  name: "inception_2a/double_3x3_reduce_bn"
  type: "BN"
  bottom: "inception_2a/double_3x3_reduce"
  top: "inception_2a/double_3x3_reduce_bn"
  param {
    lr_mult: 1
    decay_mult: 0
  }
  param {
    lr_mult: 1
    decay_mult: 0
  }
  bn_param {
    slope_filler {
      type: "constant"
      value: 1
    }
    bias_filler {
      type: "constant"
      value: 0
    }
  }
}
layer {
  name: "inception_2a/relu_double_3x3_reduce"
  type: "ReLU"
  bottom: "inception_2a/double_3x3_reduce_bn"
  top: "inception_2a/double_3x3_reduce_bn"
}
layer {
  name: "inception_2a/double_3x3_1"
  type: "Convolution"
  bottom: "inception_2a/double_3x3_reduce_bn"
  top: "inception_2a/double_3x3_1"
  param {
    lr_mult: 1
    decay_mult: 1
  }
  param {
    lr_mult: 2
    decay_mult: 0
  }
  convolution_param {
    num_output: 128
    pad: 1
    kernel_size: 3
    weight_filler {
      type: "xavier"
    }
    bias_filler {
      type: "constant"
      value: 0.2
    }
  }
}
layer {
  name: "inception_2a/double_3x3_1_bn"
  type: "BN"
  bottom: "inception_2a/double_3x3_1"
  top: "inception_2a/double_3x3_1_bn"
  param {
    lr_mult: 1
    decay_mult: 0
  }
  param {
    lr_mult: 1
    decay_mult: 0
  }
  bn_param {
    slope_filler {
      type: "constant"
      value: 1
    }
    bias_filler {
      type: "constant"
      value: 0
    }
  }
}
layer {
  name: "inception_2a/relu_double_3x3_1"
  type: "ReLU"
  bottom: "inception_2a/double_3x3_1_bn"
  top: "inception_2a/double_3x3_1_bn"
}
layer {
  name: "inception_2a/double_3x3_2"
  type: "Convolution"
  bottom: "inception_2a/double_3x3_1_bn"
  top: "inception_2a/double_3x3_2"
  param {
    lr_mult: 1
    decay_mult: 1
  }
  param {
    lr_mult: 2
    decay_mult: 0
  }
  convolution_param {
    num_output: 128
    pad: 1
    kernel_size: 3
    weight_filler {
      type: "xavier"
    }
    bias_filler {
      type: "constant"
      value: 0.2
    }
  }
}
layer {
  name: "inception_2a/double_3x3_2_bn"
  type: "BN"
  bottom: "inception_2a/double_3x3_2"
  top: "inception_2a/double_3x3_2_bn"
  param {
    lr_mult: 1
    decay_mult: 0
  }
  param {
    lr_mult: 1
    decay_mult: 0
  }
  bn_param {
    slope_filler {
      type: "constant"
      value: 1
    }
    bias_filler {
      type: "constant"
      value: 0
    }
  }
}
layer {
  name: "inception_2a/relu_double_3x3_2"
  type: "ReLU"
  bottom: "inception_2a/double_3x3_2_bn"
  top: "inception_2a/double_3x3_2_bn"
}
layer {
  name: "inception_2a/pool"
  type: "Pooling"
  bottom: "inception_1b/output"
  top: "inception_2a/pool"
  pooling_param {
    pool: AVE
    kernel_size: 3
    stride: 1
    pad: 1
  }
}
layer {
  name: "inception_2a/pool_proj"
  type: "Convolution"
  bottom: "inception_2a/pool"
  top: "inception_2a/pool_proj"
  param {
    lr_mult: 1
    decay_mult: 1
  }
  param {
    lr_mult: 2
    decay_mult: 0
  }
  convolution_param {
    num_output: 128
    kernel_size: 1
    weight_filler {
      type: "xavier"
    }
    bias_filler {
      type: "constant"
      value: 0.2
    }
  }
}
layer {
  name: "inception_2a/pool_proj_bn"
  type: "BN"
  bottom: "inception_2a/pool_proj"
  top: "inception_2a/pool_proj_bn"
  param {
    lr_mult: 1
    decay_mult: 0
  }
  param {
    lr_mult: 1
    decay_mult: 0
  }
  bn_param {
    slope_filler {
      type: "constant"
      value: 1
    }
    bias_filler {
      type: "constant"
      value: 0
    }
  }
}
layer {
  name: "inception_2a/relu_pool_proj"
  type: "ReLU"
  bottom: "inception_2a/pool_proj_bn"
  top: "inception_2a/pool_proj_bn"
}
layer {
  name: "inception_2a/output"
  type: "Concat"
  bottom: "inception_2a/1x1_bn"
  bottom: "inception_2a/3x3_bn"
  bottom: "inception_2a/double_3x3_2_bn"
  bottom: "inception_2a/pool_proj_bn"
  top: "inception_2a/output"
}
layer {
  name: "inception_2b/3x3_reduce"
  type: "Convolution"
  bottom: "inception_2a/output"
  top: "inception_2b/3x3_reduce"
  param {
    lr_mult: 1
    decay_mult: 1
  }
  param {
    lr_mult: 2
    decay_mult: 0
  }
  convolution_param {
    num_output: 128
    kernel_size: 1
    weight_filler {
      type: "xavier"
    }
    bias_filler {
      type: "constant"
      value: 0.2
    }
  }
}
layer {
  name: "inception_2b/3x3_reduce_bn"
  type: "BN"
  bottom: "inception_2b/3x3_reduce"
  top: "inception_2b/3x3_reduce_bn"
  param {
    lr_mult: 1
    decay_mult: 0
  }
  param {
    lr_mult: 1
    decay_mult: 0
  }
  bn_param {
    slope_filler {
      type: "constant"
      value: 1
    }
    bias_filler {
      type: "constant"
      value: 0
    }
  }
}
layer {
  name: "inception_2b/relu_3x3_reduce"
  type: "ReLU"
  bottom: "inception_2b/3x3_reduce_bn"
  top: "inception_2b/3x3_reduce_bn"
}
layer {
  name: "inception_2b/3x3"
  type: "Convolution"
  bottom: "inception_2b/3x3_reduce_bn"
  top: "inception_2b/3x3"
  param {
    lr_mult: 1
    decay_mult: 1
  }
  param {
    lr_mult: 2
    decay_mult: 0
  }
  convolution_param {
    num_output: 128
    pad: 1
    kernel_size: 3
    stride: 2
    weight_filler {
      type: "xavier"
    }
    bias_filler {
      type: "constant"
      value: 0.2
    }
  }
}
layer {
  name: "inception_2b/3x3_bn"
  type: "BN"
  bottom: "inception_2b/3x3"
  top: "inception_2b/3x3_bn"
  param {
    lr_mult: 1
    decay_mult: 0
  }
  param {
    lr_mult: 1
    decay_mult: 0
  }
  bn_param {
    slope_filler {
      type: "constant"
      value: 1
    }
    bias_filler {
      type: "constant"
      value: 0
    }
  }
}
layer {
  name: "inception_2b/relu_3x3"
  type: "ReLU"
  bottom: "inception_2b/3x3_bn"
  top: "inception_2b/3x3_bn"
}
layer {
  name: "inception_2b/double_3x3_reduce"
  type: "Convolution"
  bottom: "inception_2a/output"
  top: "inception_2b/double_3x3_reduce"
  param {
    lr_mult: 1
    decay_mult: 1
  }
  param {
    lr_mult: 2
    decay_mult: 0
  }
  convolution_param {
    num_output: 128
    kernel_size: 1
    weight_filler {
      type: "xavier"
    }
    bias_filler {
      type: "constant"
      value: 0.2
    }
  }
}
layer {
  name: "inception_2b/double_3x3_reduce_bn"
  type: "BN"
  bottom: "inception_2b/double_3x3_reduce"
  top: "inception_2b/double_3x3_reduce_bn"
  param {
    lr_mult: 1
    decay_mult: 0
  }
  param {
    lr_mult: 1
    decay_mult: 0
  }
  bn_param {
    slope_filler {
      type: "constant"
      value: 1
    }
    bias_filler {
      type: "constant"
      value: 0
    }
  }
}
layer {
  name: "inception_2b/relu_double_3x3_reduce"
  type: "ReLU"
  bottom: "inception_2b/double_3x3_reduce_bn"
  top: "inception_2b/double_3x3_reduce_bn"
}
layer {
  name: "inception_2b/double_3x3_1"
  type: "Convolution"
  bottom: "inception_2b/double_3x3_reduce_bn"
  top: "inception_2b/double_3x3_1"
  param {
    lr_mult: 1
    decay_mult: 1
  }
  param {
    lr_mult: 2
    decay_mult: 0
  }
  convolution_param {
    num_output: 128
    pad: 1
    kernel_size: 3
    weight_filler {
      type: "xavier"
    }
    bias_filler {
      type: "constant"
      value: 0.2
    }
  }
}
layer {
  name: "inception_2b/double_3x3_1_bn"
  type: "BN"
  bottom: "inception_2b/double_3x3_1"
  top: "inception_2b/double_3x3_1_bn"
  param {
    lr_mult: 1
    decay_mult: 0
  }
  param {
    lr_mult: 1
    decay_mult: 0
  }
  bn_param {
    slope_filler {
      type: "constant"
      value: 1
    }
    bias_filler {
      type: "constant"
      value: 0
    }
  }
}
layer {
  name: "inception_2b/relu_double_3x3_1"
  type: "ReLU"
  bottom: "inception_2b/double_3x3_1_bn"
  top: "inception_2b/double_3x3_1_bn"
}
layer {
  name: "inception_2b/double_3x3_2"
  type: "Convolution"
  bottom: "inception_2b/double_3x3_1_bn"
  top: "inception_2b/double_3x3_2"
  param {
    lr_mult: 1
    decay_mult: 1
  }
  param {
    lr_mult: 2
    decay_mult: 0
  }
  convolution_param {
    num_output: 128
    pad: 1
    kernel_size: 3
    stride: 2
    weight_filler {
      type: "xavier"
    }
    bias_filler {
      type: "constant"
      value: 0.2
    }
  }
}
layer {
  name: "inception_2b/double_3x3_2_bn"
  type: "BN"
  bottom: "inception_2b/double_3x3_2"
  top: "inception_2b/double_3x3_2_bn"
  param {
    lr_mult: 1
    decay_mult: 0
  }
  param {
    lr_mult: 1
    decay_mult: 0
  }
  bn_param {
    slope_filler {
      type: "constant"
      value: 1
    }
    bias_filler {
      type: "constant"
      value: 0
    }
  }
}
layer {
  name: "inception_2b/relu_double_3x3_2"
  type: "ReLU"
  bottom: "inception_2b/double_3x3_2_bn"
  top: "inception_2b/double_3x3_2_bn"
}
layer {
  name: "inception_2b/pool"
  type: "Pooling"
  bottom: "inception_2a/output"
  top: "inception_2b/pool"
  pooling_param {
    pool: MAX
    kernel_size: 3
    stride: 2
  }
}
layer {
  name: "inception_2b/output"
  type: "Concat"
  bottom: "inception_2b/3x3_bn"
  bottom: "inception_2b/double_3x3_2_bn"
  bottom: "inception_2b/pool"
  top: "inception_2b/output"
}
layer {
  name: "inception_3a/1x1"
  type: "Convolution"
  bottom: "inception_2b/output"
  top: "inception_3a/1x1"
  param {
    lr_mult: 1
    decay_mult: 1
  }
  param {
    lr_mult: 2
    decay_mult: 0
  }
  convolution_param {
    num_output: 256
    kernel_size: 1
    weight_filler {
      type: "xavier"
    }
    bias_filler {
      type: "constant"
      value: 0.2
    }
  }
}
layer {
  name: "inception_3a/1x1_bn"
  type: "BN"
  bottom: "inception_3a/1x1"
  top: "inception_3a/1x1_bn"
  param {
    lr_mult: 1
    decay_mult: 0
  }
  param {
    lr_mult: 1
    decay_mult: 0
  }
  bn_param {
    slope_filler {
      type: "constant"
      value: 1
    }
    bias_filler {
      type: "constant"
      value: 0
    }
  }
}
layer {
  name: "inception_3a/relu_1x1"
  type: "ReLU"
  bottom: "inception_3a/1x1_bn"
  top: "inception_3a/1x1_bn"
}
layer {
  name: "inception_3a/3x3_reduce"
  type: "Convolution"
  bottom: "inception_2b/output"
  top: "inception_3a/3x3_reduce"
  param {
    lr_mult: 1
    decay_mult: 1
  }
  param {
    lr_mult: 2
    decay_mult: 0
  }
  convolution_param {
    num_output: 256
    kernel_size: 1
    weight_filler {
      type: "xavier"
    }
    bias_filler {
      type: "constant"
      value: 0.2
    }
  }
}
layer {
  name: "inception_3a/3x3_reduce_bn"
  type: "BN"
  bottom: "inception_3a/3x3_reduce"
  top: "inception_3a/3x3_reduce_bn"
  param {
    lr_mult: 1
    decay_mult: 0
  }
  param {
    lr_mult: 1
    decay_mult: 0
  }
  bn_param {
    slope_filler {
      type: "constant"
      value: 1
    }
    bias_filler {
      type: "constant"
      value: 0
    }
  }
}
layer {
  name: "inception_3a/relu_3x3_reduce"
  type: "ReLU"
  bottom: "inception_3a/3x3_reduce_bn"
  top: "inception_3a/3x3_reduce_bn"
}
layer {
  name: "inception_3a/3x3"
  type: "Convolution"
  bottom: "inception_3a/3x3_reduce_bn"
  top: "inception_3a/3x3"
  param {
    lr_mult: 1
    decay_mult: 1
  }
  param {
    lr_mult: 2
    decay_mult: 0
  }
  convolution_param {
    num_output: 256
    pad: 1
    kernel_size: 3
    weight_filler {
      type: "xavier"
    }
    bias_filler {
      type: "constant"
      value: 0.2
    }
  }
}
layer {
  name: "inception_3a/3x3_bn"
  type: "BN"
  bottom: "inception_3a/3x3"
  top: "inception_3a/3x3_bn"
  param {
    lr_mult: 1
    decay_mult: 0
  }
  param {
    lr_mult: 1
    decay_mult: 0
  }
  bn_param {
    slope_filler {
      type: "constant"
      value: 1
    }
    bias_filler {
      type: "constant"
      value: 0
    }
  }
}
layer {
  name: "inception_3a/relu_3x3"
  type: "ReLU"
  bottom: "inception_3a/3x3_bn"
  top: "inception_3a/3x3_bn"
}
layer {
  name: "inception_3a/double_3x3_reduce"
  type: "Convolution"
  bottom: "inception_2b/output"
  top: "inception_3a/double_3x3_reduce"
  param {
    lr_mult: 1
    decay_mult: 1
  }
  param {
    lr_mult: 2
    decay_mult: 0
  }
  convolution_param {
    num_output: 256
    kernel_size: 1
    weight_filler {
      type: "xavier"
    }
    bias_filler {
      type: "constant"
      value: 0.2
    }
  }
}
layer {
  name: "inception_3a/double_3x3_reduce_bn"
  type: "BN"
  bottom: "inception_3a/double_3x3_reduce"
  top: "inception_3a/double_3x3_reduce_bn"
  param {
    lr_mult: 1
    decay_mult: 0
  }
  param {
    lr_mult: 1
    decay_mult: 0
  }
  bn_param {
    slope_filler {
      type: "constant"
      value: 1
    }
    bias_filler {
      type: "constant"
      v
I0417 17:50:02.965276 14761 layer_factory.hpp:74] Creating layer data
I0417 17:50:02.965306 14761 net.cpp:133] Creating Layer data
I0417 17:50:02.965311 14761 net.cpp:411] data -> data
I0417 17:50:02.965320 14761 net.cpp:411] data -> label
I0417 17:50:02.965327 14761 net.cpp:163] Setting up data
I0417 17:50:02.965634 14761 db_lmdb.cpp:22] Opened lmdb external/exp/db/ilids/train_lmdb
I0417 17:50:02.965704 14761 data_layer.cpp:55] Skipping first 0 data points.
I0417 17:50:02.965723 14761 data_layer.cpp:100] output data size: 25,3,144,56
I0417 17:50:02.965785 14761 net.cpp:170] Top shape: 25 3 144 56 (604800)
I0417 17:50:02.965791 14761 net.cpp:170] Top shape: 25 (25)
I0417 17:50:02.965795 14761 layer_factory.hpp:74] Creating layer conv1
I0417 17:50:02.965802 14761 net.cpp:133] Creating Layer conv1
I0417 17:50:02.965806 14761 net.cpp:453] conv1 <- data
I0417 17:50:02.965817 14761 net.cpp:411] conv1 -> conv1
I0417 17:50:02.965826 14761 net.cpp:163] Setting up conv1
I0417 17:50:03.128738 14761 net.cpp:170] Top shape: 25 32 144 56 (6451200)
I0417 17:50:03.128772 14761 layer_factory.hpp:74] Creating layer conv1_bn
I0417 17:50:03.128777 14761 layer_factory.cpp:191] Layer conv1_bn is using CAFFE engine.
I0417 17:50:03.128785 14761 net.cpp:133] Creating Layer conv1_bn
I0417 17:50:03.128788 14761 net.cpp:453] conv1_bn <- conv1
I0417 17:50:03.128793 14761 net.cpp:411] conv1_bn -> conv1_bn
I0417 17:50:03.128799 14761 net.cpp:163] Setting up conv1_bn
I0417 17:50:03.128821 14761 net.cpp:170] Top shape: 25 32 144 56 (6451200)
I0417 17:50:03.128829 14761 layer_factory.hpp:74] Creating layer relu1
I0417 17:50:03.128834 14761 net.cpp:133] Creating Layer relu1
I0417 17:50:03.128834 14761 net.cpp:453] relu1 <- conv1_bn
I0417 17:50:03.128837 14761 net.cpp:400] relu1 -> conv1_bn (in-place)
I0417 17:50:03.128844 14761 net.cpp:163] Setting up relu1
I0417 17:50:03.128960 14761 net.cpp:170] Top shape: 25 32 144 56 (6451200)
I0417 17:50:03.128965 14761 layer_factory.hpp:74] Creating layer conv2
I0417 17:50:03.128971 14761 net.cpp:133] Creating Layer conv2
I0417 17:50:03.128973 14761 net.cpp:453] conv2 <- conv1_bn
I0417 17:50:03.128976 14761 net.cpp:411] conv2 -> conv2
I0417 17:50:03.128980 14761 net.cpp:163] Setting up conv2
I0417 17:50:03.292448 14761 net.cpp:170] Top shape: 25 32 144 56 (6451200)
I0417 17:50:03.292464 14761 layer_factory.hpp:74] Creating layer conv2_bn
I0417 17:50:03.292466 14761 layer_factory.cpp:191] Layer conv2_bn is using CAFFE engine.
I0417 17:50:03.292471 14761 net.cpp:133] Creating Layer conv2_bn
I0417 17:50:03.292474 14761 net.cpp:453] conv2_bn <- conv2
I0417 17:50:03.292479 14761 net.cpp:411] conv2_bn -> conv2_bn
I0417 17:50:03.292484 14761 net.cpp:163] Setting up conv2_bn
I0417 17:50:03.292498 14761 net.cpp:170] Top shape: 25 32 144 56 (6451200)
I0417 17:50:03.292505 14761 layer_factory.hpp:74] Creating layer relu2
I0417 17:50:03.292507 14761 net.cpp:133] Creating Layer relu2
I0417 17:50:03.292510 14761 net.cpp:453] relu2 <- conv2_bn
I0417 17:50:03.292512 14761 net.cpp:400] relu2 -> conv2_bn (in-place)
I0417 17:50:03.292515 14761 net.cpp:163] Setting up relu2
I0417 17:50:03.292691 14761 net.cpp:170] Top shape: 25 32 144 56 (6451200)
I0417 17:50:03.292697 14761 layer_factory.hpp:74] Creating layer conv3
I0417 17:50:03.292702 14761 net.cpp:133] Creating Layer conv3
I0417 17:50:03.292704 14761 net.cpp:453] conv3 <- conv2_bn
I0417 17:50:03.292707 14761 net.cpp:411] conv3 -> conv3
I0417 17:50:03.292711 14761 net.cpp:163] Setting up conv3
I0417 17:50:03.448922 14761 net.cpp:170] Top shape: 25 32 144 56 (6451200)
I0417 17:50:03.448932 14761 layer_factory.hpp:74] Creating layer conv3_bn
I0417 17:50:03.448935 14761 layer_factory.cpp:191] Layer conv3_bn is using CAFFE engine.
I0417 17:50:03.448940 14761 net.cpp:133] Creating Layer conv3_bn
I0417 17:50:03.448942 14761 net.cpp:453] conv3_bn <- conv3
I0417 17:50:03.448945 14761 net.cpp:411] conv3_bn -> conv3_bn
I0417 17:50:03.448951 14761 net.cpp:163] Setting up conv3_bn
I0417 17:50:03.448966 14761 net.cpp:170] Top shape: 25 32 144 56 (6451200)
I0417 17:50:03.448973 14761 layer_factory.hpp:74] Creating layer relu3
I0417 17:50:03.448976 14761 net.cpp:133] Creating Layer relu3
I0417 17:50:03.448977 14761 net.cpp:453] relu3 <- conv3_bn
I0417 17:50:03.448982 14761 net.cpp:400] relu3 -> conv3_bn (in-place)
I0417 17:50:03.448984 14761 net.cpp:163] Setting up relu3
I0417 17:50:03.449081 14761 net.cpp:170] Top shape: 25 32 144 56 (6451200)
I0417 17:50:03.449086 14761 layer_factory.hpp:74] Creating layer pool1
I0417 17:50:03.449091 14761 net.cpp:133] Creating Layer pool1
I0417 17:50:03.449092 14761 net.cpp:453] pool1 <- conv3_bn
I0417 17:50:03.449096 14761 net.cpp:411] pool1 -> pool1
I0417 17:50:03.449100 14761 net.cpp:163] Setting up pool1
I0417 17:50:03.449276 14761 net.cpp:170] Top shape: 25 32 72 28 (1612800)
I0417 17:50:03.449282 14761 layer_factory.hpp:74] Creating layer pool1_pool1_0_split
I0417 17:50:03.449286 14761 net.cpp:133] Creating Layer pool1_pool1_0_split
I0417 17:50:03.449288 14761 net.cpp:453] pool1_pool1_0_split <- pool1
I0417 17:50:03.449292 14761 net.cpp:411] pool1_pool1_0_split -> pool1_pool1_0_split_0
I0417 17:50:03.449296 14761 net.cpp:411] pool1_pool1_0_split -> pool1_pool1_0_split_1
I0417 17:50:03.449300 14761 net.cpp:411] pool1_pool1_0_split -> pool1_pool1_0_split_2
I0417 17:50:03.449302 14761 net.cpp:411] pool1_pool1_0_split -> pool1_pool1_0_split_3
I0417 17:50:03.449306 14761 net.cpp:163] Setting up pool1_pool1_0_split
I0417 17:50:03.449308 14761 net.cpp:170] Top shape: 25 32 72 28 (1612800)
I0417 17:50:03.449311 14761 net.cpp:170] Top shape: 25 32 72 28 (1612800)
I0417 17:50:03.449313 14761 net.cpp:170] Top shape: 25 32 72 28 (1612800)
I0417 17:50:03.449316 14761 net.cpp:170] Top shape: 25 32 72 28 (1612800)
I0417 17:50:03.449316 14761 layer_factory.hpp:74] Creating layer inception_1a/1x1
I0417 17:50:03.449321 14761 net.cpp:133] Creating Layer inception_1a/1x1
I0417 17:50:03.449323 14761 net.cpp:453] inception_1a/1x1 <- pool1_pool1_0_split_0
I0417 17:50:03.449326 14761 net.cpp:411] inception_1a/1x1 -> inception_1a/1x1
I0417 17:50:03.449331 14761 net.cpp:163] Setting up inception_1a/1x1
I0417 17:50:03.503767 14761 net.cpp:170] Top shape: 25 64 72 28 (3225600)
I0417 17:50:03.503777 14761 layer_factory.hpp:74] Creating layer inception_1a/1x1_bn
I0417 17:50:03.503779 14761 layer_factory.cpp:191] Layer inception_1a/1x1_bn is using CAFFE engine.
I0417 17:50:03.503782 14761 net.cpp:133] Creating Layer inception_1a/1x1_bn
I0417 17:50:03.503785 14761 net.cpp:453] inception_1a/1x1_bn <- inception_1a/1x1
I0417 17:50:03.503788 14761 net.cpp:411] inception_1a/1x1_bn -> inception_1a/1x1_bn
I0417 17:50:03.503793 14761 net.cpp:163] Setting up inception_1a/1x1_bn
I0417 17:50:03.503804 14761 net.cpp:170] Top shape: 25 64 72 28 (3225600)
I0417 17:50:03.503809 14761 layer_factory.hpp:74] Creating layer inception_1a/relu_1x1
I0417 17:50:03.503814 14761 net.cpp:133] Creating Layer inception_1a/relu_1x1
I0417 17:50:03.503816 14761 net.cpp:453] inception_1a/relu_1x1 <- inception_1a/1x1_bn
I0417 17:50:03.503819 14761 net.cpp:400] inception_1a/relu_1x1 -> inception_1a/1x1_bn (in-place)
I0417 17:50:03.503823 14761 net.cpp:163] Setting up inception_1a/relu_1x1
I0417 17:50:03.504001 14761 net.cpp:170] Top shape: 25 64 72 28 (3225600)
I0417 17:50:03.504007 14761 layer_factory.hpp:74] Creating layer inception_1a/3x3_reduce
I0417 17:50:03.504012 14761 net.cpp:133] Creating Layer inception_1a/3x3_reduce
I0417 17:50:03.504014 14761 net.cpp:453] inception_1a/3x3_reduce <- pool1_pool1_0_split_1
I0417 17:50:03.504019 14761 net.cpp:411] inception_1a/3x3_reduce -> inception_1a/3x3_reduce
I0417 17:50:03.504022 14761 net.cpp:163] Setting up inception_1a/3x3_reduce
I0417 17:50:03.558264 14761 net.cpp:170] Top shape: 25 64 72 28 (3225600)
I0417 17:50:03.558274 14761 layer_factory.hpp:74] Creating layer inception_1a/3x3_reduce_bn
I0417 17:50:03.558277 14761 layer_factory.cpp:191] Layer inception_1a/3x3_reduce_bn is using CAFFE engine.
I0417 17:50:03.558284 14761 net.cpp:133] Creating Layer inception_1a/3x3_reduce_bn
I0417 17:50:03.558285 14761 net.cpp:453] inception_1a/3x3_reduce_bn <- inception_1a/3x3_reduce
I0417 17:50:03.558290 14761 net.cpp:411] inception_1a/3x3_reduce_bn -> inception_1a/3x3_reduce_bn
I0417 17:50:03.558295 14761 net.cpp:163] Setting up inception_1a/3x3_reduce_bn
I0417 17:50:03.558306 14761 net.cpp:170] Top shape: 25 64 72 28 (3225600)
I0417 17:50:03.558311 14761 layer_factory.hpp:74] Creating layer inception_1a/relu_3x3_reduce
I0417 17:50:03.558315 14761 net.cpp:133] Creating Layer inception_1a/relu_3x3_reduce
I0417 17:50:03.558317 14761 net.cpp:453] inception_1a/relu_3x3_reduce <- inception_1a/3x3_reduce_bn
I0417 17:50:03.558320 14761 net.cpp:400] inception_1a/relu_3x3_reduce -> inception_1a/3x3_reduce_bn (in-place)
I0417 17:50:03.558322 14761 net.cpp:163] Setting up inception_1a/relu_3x3_reduce
I0417 17:50:03.558421 14761 net.cpp:170] Top shape: 25 64 72 28 (3225600)
I0417 17:50:03.558426 14761 layer_factory.hpp:74] Creating layer inception_1a/3x3
I0417 17:50:03.558431 14761 net.cpp:133] Creating Layer inception_1a/3x3
I0417 17:50:03.558432 14761 net.cpp:453] inception_1a/3x3 <- inception_1a/3x3_reduce_bn
I0417 17:50:03.558437 14761 net.cpp:411] inception_1a/3x3 -> inception_1a/3x3
I0417 17:50:03.558440 14761 net.cpp:163] Setting up inception_1a/3x3
I0417 17:50:03.672960 14761 net.cpp:170] Top shape: 25 64 72 28 (3225600)
I0417 17:50:03.672968 14761 layer_factory.hpp:74] Creating layer inception_1a/3x3_bn
I0417 17:50:03.672971 14761 layer_factory.cpp:191] Layer inception_1a/3x3_bn is using CAFFE engine.
I0417 17:50:03.672976 14761 net.cpp:133] Creating Layer inception_1a/3x3_bn
I0417 17:50:03.672977 14761 net.cpp:453] inception_1a/3x3_bn <- inception_1a/3x3
I0417 17:50:03.672981 14761 net.cpp:411] inception_1a/3x3_bn -> inception_1a/3x3_bn
I0417 17:50:03.672986 14761 net.cpp:163] Setting up inception_1a/3x3_bn
I0417 17:50:03.672996 14761 net.cpp:170] Top shape: 25 64 72 28 (3225600)
I0417 17:50:03.673008 14761 layer_factory.hpp:74] Creating layer inception_1a/relu_3x3
I0417 17:50:03.673015 14761 net.cpp:133] Creating Layer inception_1a/relu_3x3
I0417 17:50:03.673018 14761 net.cpp:453] inception_1a/relu_3x3 <- inception_1a/3x3_bn
I0417 17:50:03.673022 14761 net.cpp:400] inception_1a/relu_3x3 -> inception_1a/3x3_bn (in-place)
I0417 17:50:03.673027 14761 net.cpp:163] Setting up inception_1a/relu_3x3
I0417 17:50:03.673208 14761 net.cpp:170] Top shape: 25 64 72 28 (3225600)
I0417 17:50:03.673215 14761 layer_factory.hpp:74] Creating layer inception_1a/double_3x3_reduce
I0417 17:50:03.673220 14761 net.cpp:133] Creating Layer inception_1a/double_3x3_reduce
I0417 17:50:03.673223 14761 net.cpp:453] inception_1a/double_3x3_reduce <- pool1_pool1_0_split_2
I0417 17:50:03.673226 14761 net.cpp:411] inception_1a/double_3x3_reduce -> inception_1a/double_3x3_reduce
I0417 17:50:03.673230 14761 net.cpp:163] Setting up inception_1a/double_3x3_reduce
I0417 17:50:03.727171 14761 net.cpp:170] Top shape: 25 64 72 28 (3225600)
I0417 17:50:03.727181 14761 layer_factory.hpp:74] Creating layer inception_1a/double_3x3_reduce_bn
I0417 17:50:03.727183 14761 layer_factory.cpp:191] Layer inception_1a/double_3x3_reduce_bn is using CAFFE engine.
I0417 17:50:03.727188 14761 net.cpp:133] Creating Layer inception_1a/double_3x3_reduce_bn
I0417 17:50:03.727190 14761 net.cpp:453] inception_1a/double_3x3_reduce_bn <- inception_1a/double_3x3_reduce
I0417 17:50:03.727193 14761 net.cpp:411] inception_1a/double_3x3_reduce_bn -> inception_1a/double_3x3_reduce_bn
I0417 17:50:03.727198 14761 net.cpp:163] Setting up inception_1a/double_3x3_reduce_bn
I0417 17:50:03.727208 14761 net.cpp:170] Top shape: 25 64 72 28 (3225600)
I0417 17:50:03.727213 14761 layer_factory.hpp:74] Creating layer inception_1a/relu_double_3x3_reduce
I0417 17:50:03.727217 14761 net.cpp:133] Creating Layer inception_1a/relu_double_3x3_reduce
I0417 17:50:03.727218 14761 net.cpp:453] inception_1a/relu_double_3x3_reduce <- inception_1a/double_3x3_reduce_bn
I0417 17:50:03.727221 14761 net.cpp:400] inception_1a/relu_double_3x3_reduce -> inception_1a/double_3x3_reduce_bn (in-place)
I0417 17:50:03.727224 14761 net.cpp:163] Setting up inception_1a/relu_double_3x3_reduce
I0417 17:50:03.727414 14761 net.cpp:170] Top shape: 25 64 72 28 (3225600)
I0417 17:50:03.727421 14761 layer_factory.hpp:74] Creating layer inception_1a/double_3x3_1
I0417 17:50:03.727427 14761 net.cpp:133] Creating Layer inception_1a/double_3x3_1
I0417 17:50:03.727428 14761 net.cpp:453] inception_1a/double_3x3_1 <- inception_1a/double_3x3_reduce_bn
I0417 17:50:03.727432 14761 net.cpp:411] inception_1a/double_3x3_1 -> inception_1a/double_3x3_1
I0417 17:50:03.727437 14761 net.cpp:163] Setting up inception_1a/double_3x3_1
I0417 17:50:03.841321 14761 net.cpp:170] Top shape: 25 64 72 28 (3225600)
I0417 17:50:03.841331 14761 layer_factory.hpp:74] Creating layer inception_1a/double_3x3_1_bn
I0417 17:50:03.841333 14761 layer_factory.cpp:191] Layer inception_1a/double_3x3_1_bn is using CAFFE engine.
I0417 17:50:03.841337 14761 net.cpp:133] Creating Layer inception_1a/double_3x3_1_bn
I0417 17:50:03.841341 14761 net.cpp:453] inception_1a/double_3x3_1_bn <- inception_1a/double_3x3_1
I0417 17:50:03.841344 14761 net.cpp:411] inception_1a/double_3x3_1_bn -> inception_1a/double_3x3_1_bn
I0417 17:50:03.841348 14761 net.cpp:163] Setting up inception_1a/double_3x3_1_bn
I0417 17:50:03.841359 14761 net.cpp:170] Top shape: 25 64 72 28 (3225600)
I0417 17:50:03.841366 14761 layer_factory.hpp:74] Creating layer inception_1a/relu_double_3x3_1
I0417 17:50:03.841369 14761 net.cpp:133] Creating Layer inception_1a/relu_double_3x3_1
I0417 17:50:03.841370 14761 net.cpp:453] inception_1a/relu_double_3x3_1 <- inception_1a/double_3x3_1_bn
I0417 17:50:03.841373 14761 net.cpp:400] inception_1a/relu_double_3x3_1 -> inception_1a/double_3x3_1_bn (in-place)
I0417 17:50:03.841377 14761 net.cpp:163] Setting up inception_1a/relu_double_3x3_1
I0417 17:50:03.841480 14761 net.cpp:170] Top shape: 25 64 72 28 (3225600)
I0417 17:50:03.841483 14761 layer_factory.hpp:74] Creating layer inception_1a/double_3x3_2
I0417 17:50:03.841487 14761 net.cpp:133] Creating Layer inception_1a/double_3x3_2
I0417 17:50:03.841490 14761 net.cpp:453] inception_1a/double_3x3_2 <- inception_1a/double_3x3_1_bn
I0417 17:50:03.841493 14761 net.cpp:411] inception_1a/double_3x3_2 -> inception_1a/double_3x3_2
I0417 17:50:03.841497 14761 net.cpp:163] Setting up inception_1a/double_3x3_2
I0417 17:50:03.955668 14761 net.cpp:170] Top shape: 25 64 72 28 (3225600)
I0417 17:50:03.955678 14761 layer_factory.hpp:74] Creating layer inception_1a/double_3x3_2_bn
I0417 17:50:03.955682 14761 layer_factory.cpp:191] Layer inception_1a/double_3x3_2_bn is using CAFFE engine.
I0417 17:50:03.955685 14761 net.cpp:133] Creating Layer inception_1a/double_3x3_2_bn
I0417 17:50:03.955687 14761 net.cpp:453] inception_1a/double_3x3_2_bn <- inception_1a/double_3x3_2
I0417 17:50:03.955692 14761 net.cpp:411] inception_1a/double_3x3_2_bn -> inception_1a/double_3x3_2_bn
I0417 17:50:03.955695 14761 net.cpp:163] Setting up inception_1a/double_3x3_2_bn
I0417 17:50:03.955705 14761 net.cpp:170] Top shape: 25 64 72 28 (3225600)
I0417 17:50:03.955711 14761 layer_factory.hpp:74] Creating layer inception_1a/relu_double_3x3_2
I0417 17:50:03.955715 14761 net.cpp:133] Creating Layer inception_1a/relu_double_3x3_2
I0417 17:50:03.955716 14761 net.cpp:453] inception_1a/relu_double_3x3_2 <- inception_1a/double_3x3_2_bn
I0417 17:50:03.955719 14761 net.cpp:400] inception_1a/relu_double_3x3_2 -> inception_1a/double_3x3_2_bn (in-place)
I0417 17:50:03.955721 14761 net.cpp:163] Setting up inception_1a/relu_double_3x3_2
I0417 17:50:03.955896 14761 net.cpp:170] Top shape: 25 64 72 28 (3225600)
I0417 17:50:03.955902 14761 layer_factory.hpp:74] Creating layer inception_1a/pool
I0417 17:50:03.955904 14761 layer_factory.cpp:64] CUDNN does not support padding or multiple tops. Using Caffe's own pooling layer.
I0417 17:50:03.955907 14761 net.cpp:133] Creating Layer inception_1a/pool
I0417 17:50:03.955909 14761 net.cpp:453] inception_1a/pool <- pool1_pool1_0_split_3
I0417 17:50:03.955914 14761 net.cpp:411] inception_1a/pool -> inception_1a/pool
I0417 17:50:03.955917 14761 net.cpp:163] Setting up inception_1a/pool
I0417 17:50:03.955920 14761 net.cpp:170] Top shape: 25 32 72 28 (1612800)
I0417 17:50:03.955922 14761 layer_factory.hpp:74] Creating layer inception_1a/pool_proj
I0417 17:50:03.955926 14761 net.cpp:133] Creating Layer inception_1a/pool_proj
I0417 17:50:03.955927 14761 net.cpp:453] inception_1a/pool_proj <- inception_1a/pool
I0417 17:50:03.955931 14761 net.cpp:411] inception_1a/pool_proj -> inception_1a/pool_proj
I0417 17:50:03.955935 14761 net.cpp:163] Setting up inception_1a/pool_proj
I0417 17:50:04.009652 14761 net.cpp:170] Top shape: 25 64 72 28 (3225600)
I0417 17:50:04.009662 14761 layer_factory.hpp:74] Creating layer inception_1a/pool_proj_bn
I0417 17:50:04.009665 14761 layer_factory.cpp:191] Layer inception_1a/pool_proj_bn is using CAFFE engine.
I0417 17:50:04.009671 14761 net.cpp:133] Creating Layer inception_1a/pool_proj_bn
I0417 17:50:04.009673 14761 net.cpp:453] inception_1a/pool_proj_bn <- inception_1a/pool_proj
I0417 17:50:04.009677 14761 net.cpp:411] inception_1a/pool_proj_bn -> inception_1a/pool_proj_bn
I0417 17:50:04.009681 14761 net.cpp:163] Setting up inception_1a/pool_proj_bn
I0417 17:50:04.009693 14761 net.cpp:170] Top shape: 25 64 72 28 (3225600)
I0417 17:50:04.009698 14761 layer_factory.hpp:74] Creating layer inception_1a/relu_pool_proj
I0417 17:50:04.009701 14761 net.cpp:133] Creating Layer inception_1a/relu_pool_proj
I0417 17:50:04.009702 14761 net.cpp:453] inception_1a/relu_pool_proj <- inception_1a/pool_proj_bn
I0417 17:50:04.009706 14761 net.cpp:400] inception_1a/relu_pool_proj -> inception_1a/pool_proj_bn (in-place)
I0417 17:50:04.009708 14761 net.cpp:163] Setting up inception_1a/relu_pool_proj
I0417 17:50:04.009887 14761 net.cpp:170] Top shape: 25 64 72 28 (3225600)
I0417 17:50:04.009894 14761 layer_factory.hpp:74] Creating layer inception_1a/output
I0417 17:50:04.009898 14761 net.cpp:133] Creating Layer inception_1a/output
I0417 17:50:04.009901 14761 net.cpp:453] inception_1a/output <- inception_1a/1x1_bn
I0417 17:50:04.009902 14761 net.cpp:453] inception_1a/output <- inception_1a/3x3_bn
I0417 17:50:04.009905 14761 net.cpp:453] inception_1a/output <- inception_1a/double_3x3_2_bn
I0417 17:50:04.009907 14761 net.cpp:453] inception_1a/output <- inception_1a/pool_proj_bn
I0417 17:50:04.009910 14761 net.cpp:411] inception_1a/output -> inception_1a/output
I0417 17:50:04.009914 14761 net.cpp:163] Setting up inception_1a/output
I0417 17:50:04.009918 14761 net.cpp:170] Top shape: 25 256 72 28 (12902400)
I0417 17:50:04.009919 14761 layer_factory.hpp:74] Creating layer inception_1a/output_inception_1a/output_0_split
I0417 17:50:04.009923 14761 net.cpp:133] Creating Layer inception_1a/output_inception_1a/output_0_split
I0417 17:50:04.009924 14761 net.cpp:453] inception_1a/output_inception_1a/output_0_split <- inception_1a/output
I0417 17:50:04.009927 14761 net.cpp:411] inception_1a/output_inception_1a/output_0_split -> inception_1a/output_inception_1a/output_0_split_0
I0417 17:50:04.009932 14761 net.cpp:411] inception_1a/output_inception_1a/output_0_split -> inception_1a/output_inception_1a/output_0_split_1
I0417 17:50:04.009934 14761 net.cpp:411] inception_1a/output_inception_1a/output_0_split -> inception_1a/output_inception_1a/output_0_split_2
I0417 17:50:04.009938 14761 net.cpp:163] Setting up inception_1a/output_inception_1a/output_0_split
I0417 17:50:04.009941 14761 net.cpp:170] Top shape: 25 256 72 28 (12902400)
I0417 17:50:04.009944 14761 net.cpp:170] Top shape: 25 256 72 28 (12902400)
I0417 17:50:04.009945 14761 net.cpp:170] Top shape: 25 256 72 28 (12902400)
I0417 17:50:04.009948 14761 layer_factory.hpp:74] Creating layer inception_1b/3x3_reduce
I0417 17:50:04.009951 14761 net.cpp:133] Creating Layer inception_1b/3x3_reduce
I0417 17:50:04.009953 14761 net.cpp:453] inception_1b/3x3_reduce <- inception_1a/output_inception_1a/output_0_split_0
I0417 17:50:04.009956 14761 net.cpp:411] inception_1b/3x3_reduce -> inception_1b/3x3_reduce
I0417 17:50:04.009966 14761 net.cpp:163] Setting up inception_1b/3x3_reduce
I0417 17:50:04.306010 14761 net.cpp:170] Top shape: 25 64 72 28 (3225600)
I0417 17:50:04.306020 14761 layer_factory.hpp:74] Creating layer inception_1b/3x3_reduce_bn
I0417 17:50:04.306022 14761 layer_factory.cpp:191] Layer inception_1b/3x3_reduce_bn is using CAFFE engine.
I0417 17:50:04.306026 14761 net.cpp:133] Creating Layer inception_1b/3x3_reduce_bn
I0417 17:50:04.306028 14761 net.cpp:453] inception_1b/3x3_reduce_bn <- inception_1b/3x3_reduce
I0417 17:50:04.306032 14761 net.cpp:411] inception_1b/3x3_reduce_bn -> inception_1b/3x3_reduce_bn
I0417 17:50:04.306037 14761 net.cpp:163] Setting up inception_1b/3x3_reduce_bn
I0417 17:50:04.306047 14761 net.cpp:170] Top shape: 25 64 72 28 (3225600)
I0417 17:50:04.306058 14761 layer_factory.hpp:74] Creating layer inception_1b/relu_3x3_reduce
I0417 17:50:04.306061 14761 net.cpp:133] Creating Layer inception_1b/relu_3x3_reduce
I0417 17:50:04.306063 14761 net.cpp:453] inception_1b/relu_3x3_reduce <- inception_1b/3x3_reduce_bn
I0417 17:50:04.306066 14761 net.cpp:400] inception_1b/relu_3x3_reduce -> inception_1b/3x3_reduce_bn (in-place)
I0417 17:50:04.306069 14761 net.cpp:163] Setting up inception_1b/relu_3x3_reduce
I0417 17:50:04.306171 14761 net.cpp:170] Top shape: 25 64 72 28 (3225600)
I0417 17:50:04.306176 14761 layer_factory.hpp:74] Creating layer inception_1b/3x3
I0417 17:50:04.306180 14761 net.cpp:133] Creating Layer inception_1b/3x3
I0417 17:50:04.306182 14761 net.cpp:453] inception_1b/3x3 <- inception_1b/3x3_reduce_bn
I0417 17:50:04.306186 14761 net.cpp:411] inception_1b/3x3 -> inception_1b/3x3
I0417 17:50:04.306190 14761 net.cpp:163] Setting up inception_1b/3x3
I0417 17:50:04.327585 14761 net.cpp:170] Top shape: 25 64 36 14 (806400)
I0417 17:50:04.327595 14761 layer_factory.hpp:74] Creating layer inception_1b/3x3_bn
I0417 17:50:04.327597 14761 layer_factory.cpp:191] Layer inception_1b/3x3_bn is using CAFFE engine.
I0417 17:50:04.327602 14761 net.cpp:133] Creating Layer inception_1b/3x3_bn
I0417 17:50:04.327605 14761 net.cpp:453] inception_1b/3x3_bn <- inception_1b/3x3
I0417 17:50:04.327607 14761 net.cpp:411] inception_1b/3x3_bn -> inception_1b/3x3_bn
I0417 17:50:04.327612 14761 net.cpp:163] Setting up inception_1b/3x3_bn
I0417 17:50:04.327622 14761 net.cpp:170] Top shape: 25 64 36 14 (806400)
I0417 17:50:04.327627 14761 layer_factory.hpp:74] Creating layer inception_1b/relu_3x3
I0417 17:50:04.327630 14761 net.cpp:133] Creating Layer inception_1b/relu_3x3
I0417 17:50:04.327631 14761 net.cpp:453] inception_1b/relu_3x3 <- inception_1b/3x3_bn
I0417 17:50:04.327635 14761 net.cpp:400] inception_1b/relu_3x3 -> inception_1b/3x3_bn (in-place)
I0417 17:50:04.327637 14761 net.cpp:163] Setting up inception_1b/relu_3x3
I0417 17:50:04.327813 14761 net.cpp:170] Top shape: 25 64 36 14 (806400)
I0417 17:50:04.327821 14761 layer_factory.hpp:74] Creating layer inception_1b/double_3x3_reduce
I0417 17:50:04.327826 14761 net.cpp:133] Creating Layer inception_1b/double_3x3_reduce
I0417 17:50:04.327827 14761 net.cpp:453] inception_1b/double_3x3_reduce <- inception_1a/output_inception_1a/output_0_split_1
I0417 17:50:04.327831 14761 net.cpp:411] inception_1b/double_3x3_reduce -> inception_1b/double_3x3_reduce
I0417 17:50:04.327836 14761 net.cpp:163] Setting up inception_1b/double_3x3_reduce
I0417 17:50:04.629237 14761 net.cpp:170] Top shape: 25 64 72 28 (3225600)
I0417 17:50:04.629247 14761 layer_factory.hpp:74] Creating layer inception_1b/double_3x3_reduce_bn
I0417 17:50:04.629250 14761 layer_factory.cpp:191] Layer inception_1b/double_3x3_reduce_bn is using CAFFE engine.
I0417 17:50:04.629253 14761 net.cpp:133] Creating Layer inception_1b/double_3x3_reduce_bn
I0417 17:50:04.629256 14761 net.cpp:453] inception_1b/double_3x3_reduce_bn <- inception_1b/double_3x3_reduce
I0417 17:50:04.629261 14761 net.cpp:411] inception_1b/double_3x3_reduce_bn -> inception_1b/double_3x3_reduce_bn
I0417 17:50:04.629264 14761 net.cpp:163] Setting up inception_1b/double_3x3_reduce_bn
I0417 17:50:04.629276 14761 net.cpp:170] Top shape: 25 64 72 28 (3225600)
I0417 17:50:04.629281 14761 layer_factory.hpp:74] Creating layer inception_1b/relu_double_3x3_reduce
I0417 17:50:04.629286 14761 net.cpp:133] Creating Layer inception_1b/relu_double_3x3_reduce
I0417 17:50:04.629287 14761 net.cpp:453] inception_1b/relu_double_3x3_reduce <- inception_1b/double_3x3_reduce_bn
I0417 17:50:04.629289 14761 net.cpp:400] inception_1b/relu_double_3x3_reduce -> inception_1b/double_3x3_reduce_bn (in-place)
I0417 17:50:04.629292 14761 net.cpp:163] Setting up inception_1b/relu_double_3x3_reduce
I0417 17:50:04.629468 14761 net.cpp:170] Top shape: 25 64 72 28 (3225600)
I0417 17:50:04.629474 14761 layer_factory.hpp:74] Creating layer inception_1b/double_3x3_1
I0417 17:50:04.629480 14761 net.cpp:133] Creating Layer inception_1b/double_3x3_1
I0417 17:50:04.629482 14761 net.cpp:453] inception_1b/double_3x3_1 <- inception_1b/double_3x3_reduce_bn
I0417 17:50:04.629487 14761 net.cpp:411] inception_1b/double_3x3_1 -> inception_1b/double_3x3_1
I0417 17:50:04.629489 14761 net.cpp:163] Setting up inception_1b/double_3x3_1
I0417 17:50:04.748126 14761 net.cpp:170] Top shape: 25 64 72 28 (3225600)
I0417 17:50:04.748136 14761 layer_factory.hpp:74] Creating layer inception_1b/double_3x3_1_bn
I0417 17:50:04.748138 14761 layer_factory.cpp:191] Layer inception_1b/double_3x3_1_bn is using CAFFE engine.
I0417 17:50:04.748142 14761 net.cpp:133] Creating Layer inception_1b/double_3x3_1_bn
I0417 17:50:04.748145 14761 net.cpp:453] inception_1b/double_3x3_1_bn <- inception_1b/double_3x3_1
I0417 17:50:04.748148 14761 net.cpp:411] inception_1b/double_3x3_1_bn -> inception_1b/double_3x3_1_bn
I0417 17:50:04.748153 14761 net.cpp:163] Setting up inception_1b/double_3x3_1_bn
I0417 17:50:04.748164 14761 net.cpp:170] Top shape: 25 64 72 28 (3225600)
I0417 17:50:04.748170 14761 layer_factory.hpp:74] Creating layer inception_1b/relu_double_3x3_1
I0417 17:50:04.748173 14761 net.cpp:133] Creating Layer inception_1b/relu_double_3x3_1
I0417 17:50:04.748175 14761 net.cpp:453] inception_1b/relu_double_3x3_1 <- inception_1b/double_3x3_1_bn
I0417 17:50:04.748178 14761 net.cpp:400] inception_1b/relu_double_3x3_1 -> inception_1b/double_3x3_1_bn (in-place)
I0417 17:50:04.748181 14761 net.cpp:163] Setting up inception_1b/relu_double_3x3_1
I0417 17:50:04.748281 14761 net.cpp:170] Top shape: 25 64 72 28 (3225600)
I0417 17:50:04.748286 14761 layer_factory.hpp:74] Creating layer inception_1b/double_3x3_2
I0417 17:50:04.748291 14761 net.cpp:133] Creating Layer inception_1b/double_3x3_2
I0417 17:50:04.748292 14761 net.cpp:453] inception_1b/double_3x3_2 <- inception_1b/double_3x3_1_bn
I0417 17:50:04.748296 14761 net.cpp:411] inception_1b/double_3x3_2 -> inception_1b/double_3x3_2
I0417 17:50:04.748299 14761 net.cpp:163] Setting up inception_1b/double_3x3_2
I0417 17:50:04.769897 14761 net.cpp:170] Top shape: 25 64 36 14 (806400)
I0417 17:50:04.769907 14761 layer_factory.hpp:74] Creating layer inception_1b/double_3x3_2_bn
I0417 17:50:04.769909 14761 layer_factory.cpp:191] Layer inception_1b/double_3x3_2_bn is using CAFFE engine.
I0417 17:50:04.769913 14761 net.cpp:133] Creating Layer inception_1b/double_3x3_2_bn
I0417 17:50:04.769917 14761 net.cpp:453] inception_1b/double_3x3_2_bn <- inception_1b/double_3x3_2
I0417 17:50:04.769920 14761 net.cpp:411] inception_1b/double_3x3_2_bn -> inception_1b/double_3x3_2_bn
I0417 17:50:04.769924 14761 net.cpp:163] Setting up inception_1b/double_3x3_2_bn
I0417 17:50:04.769933 14761 net.cpp:170] Top shape: 25 64 36 14 (806400)
I0417 17:50:04.769938 14761 layer_factory.hpp:74] Creating layer inception_1b/relu_double_3x3_2
I0417 17:50:04.769942 14761 net.cpp:133] Creating Layer inception_1b/relu_double_3x3_2
I0417 17:50:04.769943 14761 net.cpp:453] inception_1b/relu_double_3x3_2 <- inception_1b/double_3x3_2_bn
I0417 17:50:04.769947 14761 net.cpp:400] inception_1b/relu_double_3x3_2 -> inception_1b/double_3x3_2_bn (in-place)
I0417 17:50:04.769949 14761 net.cpp:163] Setting up inception_1b/relu_double_3x3_2
I0417 17:50:04.770128 14761 net.cpp:170] Top shape: 25 64 36 14 (806400)
I0417 17:50:04.770133 14761 layer_factory.hpp:74] Creating layer inception_1b/pool
I0417 17:50:04.770138 14761 net.cpp:133] Creating Layer inception_1b/pool
I0417 17:50:04.770139 14761 net.cpp:453] inception_1b/pool <- inception_1a/output_inception_1a/output_0_split_2
I0417 17:50:04.770143 14761 net.cpp:411] inception_1b/pool -> inception_1b/pool
I0417 17:50:04.770148 14761 net.cpp:163] Setting up inception_1b/pool
I0417 17:50:04.770244 14761 net.cpp:170] Top shape: 25 256 36 14 (3225600)
I0417 17:50:04.770248 14761 layer_factory.hpp:74] Creating layer inception_1b/output
I0417 17:50:04.770252 14761 net.cpp:133] Creating Layer inception_1b/output
I0417 17:50:04.770254 14761 net.cpp:453] inception_1b/output <- inception_1b/3x3_bn
I0417 17:50:04.770256 14761 net.cpp:453] inception_1b/output <- inception_1b/double_3x3_2_bn
I0417 17:50:04.770258 14761 net.cpp:453] inception_1b/output <- inception_1b/pool
I0417 17:50:04.770262 14761 net.cpp:411] inception_1b/output -> inception_1b/output
I0417 17:50:04.770265 14761 net.cpp:163] Setting up inception_1b/output
I0417 17:50:04.770268 14761 net.cpp:170] Top shape: 25 384 36 14 (4838400)
I0417 17:50:04.770270 14761 layer_factory.hpp:74] Creating layer inception_1b/output_inception_1b/output_0_split
I0417 17:50:04.770273 14761 net.cpp:133] Creating Layer inception_1b/output_inception_1b/output_0_split
I0417 17:50:04.770275 14761 net.cpp:453] inception_1b/output_inception_1b/output_0_split <- inception_1b/output
I0417 17:50:04.770278 14761 net.cpp:411] inception_1b/output_inception_1b/output_0_split -> inception_1b/output_inception_1b/output_0_split_0
I0417 17:50:04.770282 14761 net.cpp:411] inception_1b/output_inception_1b/output_0_split -> inception_1b/output_inception_1b/output_0_split_1
I0417 17:50:04.770285 14761 net.cpp:411] inception_1b/output_inception_1b/output_0_split -> inception_1b/output_inception_1b/output_0_split_2
I0417 17:50:04.770288 14761 net.cpp:411] inception_1b/output_inception_1b/output_0_split -> inception_1b/output_inception_1b/output_0_split_3
I0417 17:50:04.770292 14761 net.cpp:163] Setting up inception_1b/output_inception_1b/output_0_split
I0417 17:50:04.770294 14761 net.cpp:170] Top shape: 25 384 36 14 (4838400)
I0417 17:50:04.770297 14761 net.cpp:170] Top shape: 25 384 36 14 (4838400)
I0417 17:50:04.770298 14761 net.cpp:170] Top shape: 25 384 36 14 (4838400)
I0417 17:50:04.770300 14761 net.cpp:170] Top shape: 25 384 36 14 (4838400)
I0417 17:50:04.770303 14761 layer_factory.hpp:74] Creating layer inception_2a/1x1
I0417 17:50:04.770306 14761 net.cpp:133] Creating Layer inception_2a/1x1
I0417 17:50:04.770308 14761 net.cpp:453] inception_2a/1x1 <- inception_1b/output_inception_1b/output_0_split_0
I0417 17:50:04.770310 14761 net.cpp:411] inception_2a/1x1 -> inception_2a/1x1
I0417 17:50:04.770314 14761 net.cpp:163] Setting up inception_2a/1x1
I0417 17:50:04.938597 14761 net.cpp:170] Top shape: 25 128 36 14 (1612800)
I0417 17:50:04.938608 14761 layer_factory.hpp:74] Creating layer inception_2a/1x1_bn
I0417 17:50:04.938611 14761 layer_factory.cpp:191] Layer inception_2a/1x1_bn is using CAFFE engine.
I0417 17:50:04.938614 14761 net.cpp:133] Creating Layer inception_2a/1x1_bn
I0417 17:50:04.938617 14761 net.cpp:453] inception_2a/1x1_bn <- inception_2a/1x1
I0417 17:50:04.938621 14761 net.cpp:411] inception_2a/1x1_bn -> inception_2a/1x1_bn
I0417 17:50:04.938626 14761 net.cpp:163] Setting up inception_2a/1x1_bn
I0417 17:50:04.938634 14761 net.cpp:170] Top shape: 25 128 36 14 (1612800)
I0417 17:50:04.938642 14761 layer_factory.hpp:74] Creating layer inception_2a/relu_1x1
I0417 17:50:04.938644 14761 net.cpp:133] Creating Layer inception_2a/relu_1x1
I0417 17:50:04.938647 14761 net.cpp:453] inception_2a/relu_1x1 <- inception_2a/1x1_bn
I0417 17:50:04.938648 14761 net.cpp:400] inception_2a/relu_1x1 -> inception_2a/1x1_bn (in-place)
I0417 17:50:04.938652 14761 net.cpp:163] Setting up inception_2a/relu_1x1
I0417 17:50:04.938755 14761 net.cpp:170] Top shape: 25 128 36 14 (1612800)
I0417 17:50:04.938760 14761 layer_factory.hpp:74] Creating layer inception_2a/3x3_reduce
I0417 17:50:04.938765 14761 net.cpp:133] Creating Layer inception_2a/3x3_reduce
I0417 17:50:04.938766 14761 net.cpp:453] inception_2a/3x3_reduce <- inception_1b/output_inception_1b/output_0_split_1
I0417 17:50:04.938771 14761 net.cpp:411] inception_2a/3x3_reduce -> inception_2a/3x3_reduce
I0417 17:50:04.938773 14761 net.cpp:163] Setting up inception_2a/3x3_reduce
I0417 17:50:05.109570 14761 net.cpp:170] Top shape: 25 128 36 14 (1612800)
I0417 17:50:05.109580 14761 layer_factory.hpp:74] Creating layer inception_2a/3x3_reduce_bn
I0417 17:50:05.109583 14761 layer_factory.cpp:191] Layer inception_2a/3x3_reduce_bn is using CAFFE engine.
I0417 17:50:05.109587 14761 net.cpp:133] Creating Layer inception_2a/3x3_reduce_bn
I0417 17:50:05.109589 14761 net.cpp:453] inception_2a/3x3_reduce_bn <- inception_2a/3x3_reduce
I0417 17:50:05.109593 14761 net.cpp:411] inception_2a/3x3_reduce_bn -> inception_2a/3x3_reduce_bn
I0417 17:50:05.109597 14761 net.cpp:163] Setting up inception_2a/3x3_reduce_bn
I0417 17:50:05.109607 14761 net.cpp:170] Top shape: 25 128 36 14 (1612800)
I0417 17:50:05.109612 14761 layer_factory.hpp:74] Creating layer inception_2a/relu_3x3_reduce
I0417 17:50:05.109616 14761 net.cpp:133] Creating Layer inception_2a/relu_3x3_reduce
I0417 17:50:05.109617 14761 net.cpp:453] inception_2a/relu_3x3_reduce <- inception_2a/3x3_reduce_bn
I0417 17:50:05.109621 14761 net.cpp:400] inception_2a/relu_3x3_reduce -> inception_2a/3x3_reduce_bn (in-place)
I0417 17:50:05.109622 14761 net.cpp:163] Setting up inception_2a/relu_3x3_reduce
I0417 17:50:05.109800 14761 net.cpp:170] Top shape: 25 128 36 14 (1612800)
I0417 17:50:05.109807 14761 layer_factory.hpp:74] Creating layer inception_2a/3x3
I0417 17:50:05.109812 14761 net.cpp:133] Creating Layer inception_2a/3x3
I0417 17:50:05.109814 14761 net.cpp:453] inception_2a/3x3 <- inception_2a/3x3_reduce_bn
I0417 17:50:05.109818 14761 net.cpp:411] inception_2a/3x3 -> inception_2a/3x3
I0417 17:50:05.109822 14761 net.cpp:163] Setting up inception_2a/3x3
I0417 17:50:05.191879 14761 net.cpp:170] Top shape: 25 128 36 14 (1612800)
I0417 17:50:05.191889 14761 layer_factory.hpp:74] Creating layer inception_2a/3x3_bn
I0417 17:50:05.191891 14761 layer_factory.cpp:191] Layer inception_2a/3x3_bn is using CAFFE engine.
I0417 17:50:05.191895 14761 net.cpp:133] Creating Layer inception_2a/3x3_bn
I0417 17:50:05.191897 14761 net.cpp:453] inception_2a/3x3_bn <- inception_2a/3x3
I0417 17:50:05.191901 14761 net.cpp:411] inception_2a/3x3_bn -> inception_2a/3x3_bn
I0417 17:50:05.191905 14761 net.cpp:163] Setting up inception_2a/3x3_bn
I0417 17:50:05.191915 14761 net.cpp:170] Top shape: 25 128 36 14 (1612800)
I0417 17:50:05.191920 14761 layer_factory.hpp:74] Creating layer inception_2a/relu_3x3
I0417 17:50:05.191923 14761 net.cpp:133] Creating Layer inception_2a/relu_3x3
I0417 17:50:05.191926 14761 net.cpp:453] inception_2a/relu_3x3 <- inception_2a/3x3_bn
I0417 17:50:05.191928 14761 net.cpp:400] inception_2a/relu_3x3 -> inception_2a/3x3_bn (in-place)
I0417 17:50:05.191931 14761 net.cpp:163] Setting up inception_2a/relu_3x3
I0417 17:50:05.192036 14761 net.cpp:170] Top shape: 25 128 36 14 (1612800)
I0417 17:50:05.192041 14761 layer_factory.hpp:74] Creating layer inception_2a/double_3x3_reduce
I0417 17:50:05.192045 14761 net.cpp:133] Creating Layer inception_2a/double_3x3_reduce
I0417 17:50:05.192047 14761 net.cpp:453] inception_2a/double_3x3_reduce <- inception_1b/output_inception_1b/output_0_split_2
I0417 17:50:05.192051 14761 net.cpp:411] inception_2a/double_3x3_reduce -> inception_2a/double_3x3_reduce
I0417 17:50:05.192055 14761 net.cpp:163] Setting up inception_2a/double_3x3_reduce
I0417 17:50:05.367070 14761 net.cpp:170] Top shape: 25 128 36 14 (1612800)
I0417 17:50:05.367080 14761 layer_factory.hpp:74] Creating layer inception_2a/double_3x3_reduce_bn
I0417 17:50:05.367084 14761 layer_factory.cpp:191] Layer inception_2a/double_3x3_reduce_bn is using CAFFE engine.
I0417 17:50:05.367099 14761 net.cpp:133] Creating Layer inception_2a/double_3x3_reduce_bn
I0417 17:50:05.367101 14761 net.cpp:453] inception_2a/double_3x3_reduce_bn <- inception_2a/double_3x3_reduce
I0417 17:50:05.367105 14761 net.cpp:411] inception_2a/double_3x3_reduce_bn -> inception_2a/double_3x3_reduce_bn
I0417 17:50:05.367110 14761 net.cpp:163] Setting up inception_2a/double_3x3_reduce_bn
I0417 17:50:05.367118 14761 net.cpp:170] Top shape: 25 128 36 14 (1612800)
I0417 17:50:05.367125 14761 layer_factory.hpp:74] Creating layer inception_2a/relu_double_3x3_reduce
I0417 17:50:05.367128 14761 net.cpp:133] Creating Layer inception_2a/relu_double_3x3_reduce
I0417 17:50:05.367130 14761 net.cpp:453] inception_2a/relu_double_3x3_reduce <- inception_2a/double_3x3_reduce_bn
I0417 17:50:05.367132 14761 net.cpp:400] inception_2a/relu_double_3x3_reduce -> inception_2a/double_3x3_reduce_bn (in-place)
I0417 17:50:05.367136 14761 net.cpp:163] Setting up inception_2a/relu_double_3x3_reduce
I0417 17:50:05.367239 14761 net.cpp:170] Top shape: 25 128 36 14 (1612800)
I0417 17:50:05.367244 14761 layer_factory.hpp:74] Creating layer inception_2a/double_3x3_1
I0417 17:50:05.367249 14761 net.cpp:133] Creating Layer inception_2a/double_3x3_1
I0417 17:50:05.367251 14761 net.cpp:453] inception_2a/double_3x3_1 <- inception_2a/double_3x3_reduce_bn
I0417 17:50:05.367255 14761 net.cpp:411] inception_2a/double_3x3_1 -> inception_2a/double_3x3_1
I0417 17:50:05.367264 14761 net.cpp:163] Setting up inception_2a/double_3x3_1
I0417 17:50:05.451086 14761 net.cpp:170] Top shape: 25 128 36 14 (1612800)
I0417 17:50:05.451097 14761 layer_factory.hpp:74] Creating layer inception_2a/double_3x3_1_bn
I0417 17:50:05.451098 14761 layer_factory.cpp:191] Layer inception_2a/double_3x3_1_bn is using CAFFE engine.
I0417 17:50:05.451102 14761 net.cpp:133] Creating Layer inception_2a/double_3x3_1_bn
I0417 17:50:05.451105 14761 net.cpp:453] inception_2a/double_3x3_1_bn <- inception_2a/double_3x3_1
I0417 17:50:05.451109 14761 net.cpp:411] inception_2a/double_3x3_1_bn -> inception_2a/double_3x3_1_bn
I0417 17:50:05.451113 14761 net.cpp:163] Setting up inception_2a/double_3x3_1_bn
I0417 17:50:05.451123 14761 net.cpp:170] Top shape: 25 128 36 14 (1612800)
I0417 17:50:05.451128 14761 layer_factory.hpp:74] Creating layer inception_2a/relu_double_3x3_1
I0417 17:50:05.451131 14761 net.cpp:133] Creating Layer inception_2a/relu_double_3x3_1
I0417 17:50:05.451133 14761 net.cpp:453] inception_2a/relu_double_3x3_1 <- inception_2a/double_3x3_1_bn
I0417 17:50:05.451136 14761 net.cpp:400] inception_2a/relu_double_3x3_1 -> inception_2a/double_3x3_1_bn (in-place)
I0417 17:50:05.451139 14761 net.cpp:163] Setting up inception_2a/relu_double_3x3_1
I0417 17:50:05.451319 14761 net.cpp:170] Top shape: 25 128 36 14 (1612800)
I0417 17:50:05.451325 14761 layer_factory.hpp:74] Creating layer inception_2a/double_3x3_2
I0417 17:50:05.451330 14761 net.cpp:133] Creating Layer inception_2a/double_3x3_2
I0417 17:50:05.451333 14761 net.cpp:453] inception_2a/double_3x3_2 <- inception_2a/double_3x3_1_bn
I0417 17:50:05.451336 14761 net.cpp:411] inception_2a/double_3x3_2 -> inception_2a/double_3x3_2
I0417 17:50:05.451340 14761 net.cpp:163] Setting up inception_2a/double_3x3_2
I0417 17:50:05.535446 14761 net.cpp:170] Top shape: 25 128 36 14 (1612800)
I0417 17:50:05.535456 14761 layer_factory.hpp:74] Creating layer inception_2a/double_3x3_2_bn
I0417 17:50:05.535459 14761 layer_factory.cpp:191] Layer inception_2a/double_3x3_2_bn is using CAFFE engine.
I0417 17:50:05.535464 14761 net.cpp:133] Creating Layer inception_2a/double_3x3_2_bn
I0417 17:50:05.535465 14761 net.cpp:453] inception_2a/double_3x3_2_bn <- inception_2a/double_3x3_2
I0417 17:50:05.535470 14761 net.cpp:411] inception_2a/double_3x3_2_bn -> inception_2a/double_3x3_2_bn
I0417 17:50:05.535475 14761 net.cpp:163] Setting up inception_2a/double_3x3_2_bn
I0417 17:50:05.535483 14761 net.cpp:170] Top shape: 25 128 36 14 (1612800)
I0417 17:50:05.535488 14761 layer_factory.hpp:74] Creating layer inception_2a/relu_double_3x3_2
I0417 17:50:05.535492 14761 net.cpp:133] Creating Layer inception_2a/relu_double_3x3_2
I0417 17:50:05.535493 14761 net.cpp:453] inception_2a/relu_double_3x3_2 <- inception_2a/double_3x3_2_bn
I0417 17:50:05.535496 14761 net.cpp:400] inception_2a/relu_double_3x3_2 -> inception_2a/double_3x3_2_bn (in-place)
I0417 17:50:05.535500 14761 net.cpp:163] Setting up inception_2a/relu_double_3x3_2
I0417 17:50:05.535604 14761 net.cpp:170] Top shape: 25 128 36 14 (1612800)
I0417 17:50:05.535609 14761 layer_factory.hpp:74] Creating layer inception_2a/pool
I0417 17:50:05.535610 14761 layer_factory.cpp:64] CUDNN does not support padding or multiple tops. Using Caffe's own pooling layer.
I0417 17:50:05.535615 14761 net.cpp:133] Creating Layer inception_2a/pool
I0417 17:50:05.535617 14761 net.cpp:453] inception_2a/pool <- inception_1b/output_inception_1b/output_0_split_3
I0417 17:50:05.535620 14761 net.cpp:411] inception_2a/pool -> inception_2a/pool
I0417 17:50:05.535624 14761 net.cpp:163] Setting up inception_2a/pool
I0417 17:50:05.535627 14761 net.cpp:170] Top shape: 25 384 36 14 (4838400)
I0417 17:50:05.535629 14761 layer_factory.hpp:74] Creating layer inception_2a/pool_proj
I0417 17:50:05.535634 14761 net.cpp:133] Creating Layer inception_2a/pool_proj
I0417 17:50:05.535635 14761 net.cpp:453] inception_2a/pool_proj <- inception_2a/pool
I0417 17:50:05.535639 14761 net.cpp:411] inception_2a/pool_proj -> inception_2a/pool_proj
I0417 17:50:05.535642 14761 net.cpp:163] Setting up inception_2a/pool_proj
I0417 17:50:05.712983 14761 net.cpp:170] Top shape: 25 128 36 14 (1612800)
I0417 17:50:05.712999 14761 layer_factory.hpp:74] Creating layer inception_2a/pool_proj_bn
I0417 17:50:05.713003 14761 layer_factory.cpp:191] Layer inception_2a/pool_proj_bn is using CAFFE engine.
I0417 17:50:05.713009 14761 net.cpp:133] Creating Layer inception_2a/pool_proj_bn
I0417 17:50:05.713012 14761 net.cpp:453] inception_2a/pool_proj_bn <- inception_2a/pool_proj
I0417 17:50:05.713017 14761 net.cpp:411] inception_2a/pool_proj_bn -> inception_2a/pool_proj_bn
I0417 17:50:05.713023 14761 net.cpp:163] Setting up inception_2a/pool_proj_bn
I0417 17:50:05.713034 14761 net.cpp:170] Top shape: 25 128 36 14 (1612800)
I0417 17:50:05.713049 14761 layer_factory.hpp:74] Creating layer inception_2a/relu_pool_proj
I0417 17:50:05.713054 14761 net.cpp:133] Creating Layer inception_2a/relu_pool_proj
I0417 17:50:05.713055 14761 net.cpp:453] inception_2a/relu_pool_proj <- inception_2a/pool_proj_bn
I0417 17:50:05.713059 14761 net.cpp:400] inception_2a/relu_pool_proj -> inception_2a/pool_proj_bn (in-place)
I0417 17:50:05.713063 14761 net.cpp:163] Setting up inception_2a/relu_pool_proj
I0417 17:50:05.713183 14761 net.cpp:170] Top shape: 25 128 36 14 (1612800)
I0417 17:50:05.713188 14761 layer_factory.hpp:74] Creating layer inception_2a/output
I0417 17:50:05.713192 14761 net.cpp:133] Creating Layer inception_2a/output
I0417 17:50:05.713194 14761 net.cpp:453] inception_2a/output <- inception_2a/1x1_bn
I0417 17:50:05.713196 14761 net.cpp:453] inception_2a/output <- inception_2a/3x3_bn
I0417 17:50:05.713199 14761 net.cpp:453] inception_2a/output <- inception_2a/double_3x3_2_bn
I0417 17:50:05.713201 14761 net.cpp:453] inception_2a/output <- inception_2a/pool_proj_bn
I0417 17:50:05.713204 14761 net.cpp:411] inception_2a/output -> inception_2a/output
I0417 17:50:05.713208 14761 net.cpp:163] Setting up inception_2a/output
I0417 17:50:05.713212 14761 net.cpp:170] Top shape: 25 512 36 14 (6451200)
I0417 17:50:05.713213 14761 layer_factory.hpp:74] Creating layer inception_2a/output_inception_2a/output_0_split
I0417 17:50:05.713217 14761 net.cpp:133] Creating Layer inception_2a/output_inception_2a/output_0_split
I0417 17:50:05.713218 14761 net.cpp:453] inception_2a/output_inception_2a/output_0_split <- inception_2a/output
I0417 17:50:05.713222 14761 net.cpp:411] inception_2a/output_inception_2a/output_0_split -> inception_2a/output_inception_2a/output_0_split_0
I0417 17:50:05.713234 14761 net.cpp:411] inception_2a/output_inception_2a/output_0_split -> inception_2a/output_inception_2a/output_0_split_1
I0417 17:50:05.713239 14761 net.cpp:411] inception_2a/output_inception_2a/output_0_split -> inception_2a/output_inception_2a/output_0_split_2
I0417 17:50:05.713243 14761 net.cpp:163] Setting up inception_2a/output_inception_2a/output_0_split
I0417 17:50:05.713245 14761 net.cpp:170] Top shape: 25 512 36 14 (6451200)
I0417 17:50:05.713248 14761 net.cpp:170] Top shape: 25 512 36 14 (6451200)
I0417 17:50:05.713250 14761 net.cpp:170] Top shape: 25 512 36 14 (6451200)
I0417 17:50:05.713251 14761 layer_factory.hpp:74] Creating layer inception_2b/3x3_reduce
I0417 17:50:05.713255 14761 net.cpp:133] Creating Layer inception_2b/3x3_reduce
I0417 17:50:05.713258 14761 net.cpp:453] inception_2b/3x3_reduce <- inception_2a/output_inception_2a/output_0_split_0
I0417 17:50:05.713260 14761 net.cpp:411] inception_2b/3x3_reduce -> inception_2b/3x3_reduce
I0417 17:50:05.713265 14761 net.cpp:163] Setting up inception_2b/3x3_reduce
I0417 17:50:05.944121 14761 net.cpp:170] Top shape: 25 128 36 14 (1612800)
I0417 17:50:05.944131 14761 layer_factory.hpp:74] Creating layer inception_2b/3x3_reduce_bn
I0417 17:50:05.944134 14761 layer_factory.cpp:191] Layer inception_2b/3x3_reduce_bn is using CAFFE engine.
I0417 17:50:05.944139 14761 net.cpp:133] Creating Layer inception_2b/3x3_reduce_bn
I0417 17:50:05.944140 14761 net.cpp:453] inception_2b/3x3_reduce_bn <- inception_2b/3x3_reduce
I0417 17:50:05.944144 14761 net.cpp:411] inception_2b/3x3_reduce_bn -> inception_2b/3x3_reduce_bn
I0417 17:50:05.944149 14761 net.cpp:163] Setting up inception_2b/3x3_reduce_bn
I0417 17:50:05.944159 14761 net.cpp:170] Top shape: 25 128 36 14 (1612800)
I0417 17:50:05.944164 14761 layer_factory.hpp:74] Creating layer inception_2b/relu_3x3_reduce
I0417 17:50:05.944167 14761 net.cpp:133] Creating Layer inception_2b/relu_3x3_reduce
I0417 17:50:05.944169 14761 net.cpp:453] inception_2b/relu_3x3_reduce <- inception_2b/3x3_reduce_bn
I0417 17:50:05.944172 14761 net.cpp:400] inception_2b/relu_3x3_reduce -> inception_2b/3x3_reduce_bn (in-place)
I0417 17:50:05.944175 14761 net.cpp:163] Setting up inception_2b/relu_3x3_reduce
I0417 17:50:05.944360 14761 net.cpp:170] Top shape: 25 128 36 14 (1612800)
I0417 17:50:05.944367 14761 layer_factory.hpp:74] Creating layer inception_2b/3x3
I0417 17:50:05.944372 14761 net.cpp:133] Creating Layer inception_2b/3x3
I0417 17:50:05.944375 14761 net.cpp:453] inception_2b/3x3 <- inception_2b/3x3_reduce_bn
I0417 17:50:05.944381 14761 net.cpp:411] inception_2b/3x3 -> inception_2b/3x3
I0417 17:50:05.944386 14761 net.cpp:163] Setting up inception_2b/3x3
I0417 17:50:05.958847 14761 net.cpp:170] Top shape: 25 128 18 7 (403200)
I0417 17:50:05.958858 14761 layer_factory.hpp:74] Creating layer inception_2b/3x3_bn
I0417 17:50:05.958861 14761 layer_factory.cpp:191] Layer inception_2b/3x3_bn is using CAFFE engine.
I0417 17:50:05.958865 14761 net.cpp:133] Creating Layer inception_2b/3x3_bn
I0417 17:50:05.958868 14761 net.cpp:453] inception_2b/3x3_bn <- inception_2b/3x3
I0417 17:50:05.958871 14761 net.cpp:411] inception_2b/3x3_bn -> inception_2b/3x3_bn
I0417 17:50:05.958876 14761 net.cpp:163] Setting up inception_2b/3x3_bn
I0417 17:50:05.958884 14761 net.cpp:170] Top shape: 25 128 18 7 (403200)
I0417 17:50:05.958889 14761 layer_factory.hpp:74] Creating layer inception_2b/relu_3x3
I0417 17:50:05.958891 14761 net.cpp:133] Creating Layer inception_2b/relu_3x3
I0417 17:50:05.958894 14761 net.cpp:453] inception_2b/relu_3x3 <- inception_2b/3x3_bn
I0417 17:50:05.958896 14761 net.cpp:400] inception_2b/relu_3x3 -> inception_2b/3x3_bn (in-place)
I0417 17:50:05.958899 14761 net.cpp:163] Setting up inception_2b/relu_3x3
I0417 17:50:05.959007 14761 net.cpp:170] Top shape: 25 128 18 7 (403200)
I0417 17:50:05.959012 14761 layer_factory.hpp:74] Creating layer inception_2b/double_3x3_reduce
I0417 17:50:05.959017 14761 net.cpp:133] Creating Layer inception_2b/double_3x3_reduce
I0417 17:50:05.959019 14761 net.cpp:453] inception_2b/double_3x3_reduce <- inception_2a/output_inception_2a/output_0_split_1
I0417 17:50:05.959022 14761 net.cpp:411] inception_2b/double_3x3_reduce -> inception_2b/double_3x3_reduce
I0417 17:50:05.959027 14761 net.cpp:163] Setting up inception_2b/double_3x3_reduce
I0417 17:50:06.189991 14761 net.cpp:170] Top shape: 25 128 36 14 (1612800)
I0417 17:50:06.190001 14761 layer_factory.hpp:74] Creating layer inception_2b/double_3x3_reduce_bn
I0417 17:50:06.190004 14761 layer_factory.cpp:191] Layer inception_2b/double_3x3_reduce_bn is using CAFFE engine.
I0417 17:50:06.190008 14761 net.cpp:133] Creating Layer inception_2b/double_3x3_reduce_bn
I0417 17:50:06.190011 14761 net.cpp:453] inception_2b/double_3x3_reduce_bn <- inception_2b/double_3x3_reduce
I0417 17:50:06.190014 14761 net.cpp:411] inception_2b/double_3x3_reduce_bn -> inception_2b/double_3x3_reduce_bn
I0417 17:50:06.190019 14761 net.cpp:163] Setting up inception_2b/double_3x3_reduce_bn
I0417 17:50:06.190028 14761 net.cpp:170] Top shape: 25 128 36 14 (1612800)
I0417 17:50:06.190034 14761 layer_factory.hpp:74] Creating layer inception_2b/relu_double_3x3_reduce
I0417 17:50:06.190037 14761 net.cpp:133] Creating Layer inception_2b/relu_double_3x3_reduce
I0417 17:50:06.190039 14761 net.cpp:453] inception_2b/relu_double_3x3_reduce <- inception_2b/double_3x3_reduce_bn
I0417 17:50:06.190042 14761 net.cpp:400] inception_2b/relu_double_3x3_reduce -> inception_2b/double_3x3_reduce_bn (in-place)
I0417 17:50:06.190045 14761 net.cpp:163] Setting up inception_2b/relu_double_3x3_reduce
I0417 17:50:06.190151 14761 net.cpp:170] Top shape: 25 128 36 14 (1612800)
I0417 17:50:06.190156 14761 layer_factory.hpp:74] Creating layer inception_2b/double_3x3_1
I0417 17:50:06.190160 14761 net.cpp:133] Creating Layer inception_2b/double_3x3_1
I0417 17:50:06.190162 14761 net.cpp:453] inception_2b/double_3x3_1 <- inception_2b/double_3x3_reduce_bn
I0417 17:50:06.190167 14761 net.cpp:411] inception_2b/double_3x3_1 -> inception_2b/double_3x3_1
I0417 17:50:06.190171 14761 net.cpp:163] Setting up inception_2b/double_3x3_1
I0417 17:50:06.273733 14761 net.cpp:170] Top shape: 25 128 36 14 (1612800)
I0417 17:50:06.273744 14761 layer_factory.hpp:74] Creating layer inception_2b/double_3x3_1_bn
I0417 17:50:06.273747 14761 layer_factory.cpp:191] Layer inception_2b/double_3x3_1_bn is using CAFFE engine.
I0417 17:50:06.273751 14761 net.cpp:133] Creating Layer inception_2b/double_3x3_1_bn
I0417 17:50:06.273753 14761 net.cpp:453] inception_2b/double_3x3_1_bn <- inception_2b/double_3x3_1
I0417 17:50:06.273757 14761 net.cpp:411] inception_2b/double_3x3_1_bn -> inception_2b/double_3x3_1_bn
I0417 17:50:06.273762 14761 net.cpp:163] Setting up inception_2b/double_3x3_1_bn
I0417 17:50:06.273772 14761 net.cpp:170] Top shape: 25 128 36 14 (1612800)
I0417 17:50:06.273777 14761 layer_factory.hpp:74] Creating layer inception_2b/relu_double_3x3_1
I0417 17:50:06.273780 14761 net.cpp:133] Creating Layer inception_2b/relu_double_3x3_1
I0417 17:50:06.273782 14761 net.cpp:453] inception_2b/relu_double_3x3_1 <- inception_2b/double_3x3_1_bn
I0417 17:50:06.273784 14761 net.cpp:400] inception_2b/relu_double_3x3_1 -> inception_2b/double_3x3_1_bn (in-place)
I0417 17:50:06.273787 14761 net.cpp:163] Setting up inception_2b/relu_double_3x3_1
I0417 17:50:06.273977 14761 net.cpp:170] Top shape: 25 128 36 14 (1612800)
I0417 17:50:06.273983 14761 layer_factory.hpp:74] Creating layer inception_2b/double_3x3_2
I0417 17:50:06.273988 14761 net.cpp:133] Creating Layer inception_2b/double_3x3_2
I0417 17:50:06.273989 14761 net.cpp:453] inception_2b/double_3x3_2 <- inception_2b/double_3x3_1_bn
I0417 17:50:06.273993 14761 net.cpp:411] inception_2b/double_3x3_2 -> inception_2b/double_3x3_2
I0417 17:50:06.273998 14761 net.cpp:163] Setting up inception_2b/double_3x3_2
I0417 17:50:06.288331 14761 net.cpp:170] Top shape: 25 128 18 7 (403200)
I0417 17:50:06.288341 14761 layer_factory.hpp:74] Creating layer inception_2b/double_3x3_2_bn
I0417 17:50:06.288343 14761 layer_factory.cpp:191] Layer inception_2b/double_3x3_2_bn is using CAFFE engine.
I0417 17:50:06.288347 14761 net.cpp:133] Creating Layer inception_2b/double_3x3_2_bn
I0417 17:50:06.288349 14761 net.cpp:453] inception_2b/double_3x3_2_bn <- inception_2b/double_3x3_2
I0417 17:50:06.288353 14761 net.cpp:411] inception_2b/double_3x3_2_bn -> inception_2b/double_3x3_2_bn
I0417 17:50:06.288358 14761 net.cpp:163] Setting up inception_2b/double_3x3_2_bn
I0417 17:50:06.288367 14761 net.cpp:170] Top shape: 25 128 18 7 (403200)
I0417 17:50:06.288372 14761 layer_factory.hpp:74] Creating layer inception_2b/relu_double_3x3_2
I0417 17:50:06.288375 14761 net.cpp:133] Creating Layer inception_2b/relu_double_3x3_2
I0417 17:50:06.288377 14761 net.cpp:453] inception_2b/relu_double_3x3_2 <- inception_2b/double_3x3_2_bn
I0417 17:50:06.288379 14761 net.cpp:400] inception_2b/relu_double_3x3_2 -> inception_2b/double_3x3_2_bn (in-place)
I0417 17:50:06.288383 14761 net.cpp:163] Setting up inception_2b/relu_double_3x3_2
I0417 17:50:06.288491 14761 net.cpp:170] Top shape: 25 128 18 7 (403200)
I0417 17:50:06.288496 14761 layer_factory.hpp:74] Creating layer inception_2b/pool
I0417 17:50:06.288501 14761 net.cpp:133] Creating Layer inception_2b/pool
I0417 17:50:06.288503 14761 net.cpp:453] inception_2b/pool <- inception_2a/output_inception_2a/output_0_split_2
I0417 17:50:06.288506 14761 net.cpp:411] inception_2b/pool -> inception_2b/pool
I0417 17:50:06.288511 14761 net.cpp:163] Setting up inception_2b/pool
I0417 17:50:06.288688 14761 net.cpp:170] Top shape: 25 512 18 7 (1612800)
I0417 17:50:06.288694 14761 layer_factory.hpp:74] Creating layer inception_2b/output
I0417 17:50:06.288698 14761 net.cpp:133] Creating Layer inception_2b/output
I0417 17:50:06.288700 14761 net.cpp:453] inception_2b/output <- inception_2b/3x3_bn
I0417 17:50:06.288703 14761 net.cpp:453] inception_2b/output <- inception_2b/double_3x3_2_bn
I0417 17:50:06.288705 14761 net.cpp:453] inception_2b/output <- inception_2b/pool
I0417 17:50:06.288710 14761 net.cpp:411] inception_2b/output -> inception_2b/output
I0417 17:50:06.288714 14761 net.cpp:163] Setting up inception_2b/output
I0417 17:50:06.288717 14761 net.cpp:170] Top shape: 25 768 18 7 (2419200)
I0417 17:50:06.288718 14761 layer_factory.hpp:74] Creating layer inception_2b/output_inception_2b/output_0_split
I0417 17:50:06.288722 14761 net.cpp:133] Creating Layer inception_2b/output_inception_2b/output_0_split
I0417 17:50:06.288724 14761 net.cpp:453] inception_2b/output_inception_2b/output_0_split <- inception_2b/output
I0417 17:50:06.288727 14761 net.cpp:411] inception_2b/output_inception_2b/output_0_split -> inception_2b/output_inception_2b/output_0_split_0
I0417 17:50:06.288730 14761 net.cpp:411] inception_2b/output_inception_2b/output_0_split -> inception_2b/output_inception_2b/output_0_split_1
I0417 17:50:06.288734 14761 net.cpp:411] inception_2b/output_inception_2b/output_0_split -> inception_2b/output_inception_2b/output_0_split_2
I0417 17:50:06.288738 14761 net.cpp:411] inception_2b/output_inception_2b/output_0_split -> inception_2b/output_inception_2b/output_0_split_3
I0417 17:50:06.288740 14761 net.cpp:163] Setting up inception_2b/output_inception_2b/output_0_split
I0417 17:50:06.288743 14761 net.cpp:170] Top shape: 25 768 18 7 (2419200)
I0417 17:50:06.288745 14761 net.cpp:170] Top shape: 25 768 18 7 (2419200)
I0417 17:50:06.288748 14761 net.cpp:170] Top shape: 25 768 18 7 (2419200)
I0417 17:50:06.288749 14761 net.cpp:170] Top shape: 25 768 18 7 (2419200)
I0417 17:50:06.288751 14761 layer_factory.hpp:74] Creating layer inception_3a/1x1
I0417 17:50:06.288755 14761 net.cpp:133] Creating Layer inception_3a/1x1
I0417 17:50:06.288758 14761 net.cpp:453] inception_3a/1x1 <- inception_2b/output_inception_2b/output_0_split_0
I0417 17:50:06.288761 14761 net.cpp:411] inception_3a/1x1 -> inception_3a/1x1
I0417 17:50:06.288765 14761 net.cpp:163] Setting up inception_3a/1x1
I0417 17:50:06.473227 14761 net.cpp:170] Top shape: 25 256 18 7 (806400)
I0417 17:50:06.473237 14761 layer_factory.hpp:74] Creating layer inception_3a/1x1_bn
I0417 17:50:06.473239 14761 layer_factory.cpp:191] Layer inception_3a/1x1_bn is using CAFFE engine.
I0417 17:50:06.473243 14761 net.cpp:133] Creating Layer inception_3a/1x1_bn
I0417 17:50:06.473245 14761 net.cpp:453] inception_3a/1x1_bn <- inception_3a/1x1
I0417 17:50:06.473249 14761 net.cpp:411] inception_3a/1x1_bn -> inception_3a/1x1_bn
I0417 17:50:06.473254 14761 net.cpp:163] Setting up inception_3a/1x1_bn
I0417 17:50:06.473264 14761 net.cpp:170] Top shape: 25 256 18 7 (806400)
I0417 17:50:06.473269 14761 layer_factory.hpp:74] Creating layer inception_3a/relu_1x1
I0417 17:50:06.473273 14761 net.cpp:133] Creating Layer inception_3a/relu_1x1
I0417 17:50:06.473274 14761 net.cpp:453] inception_3a/relu_1x1 <- inception_3a/1x1_bn
I0417 17:50:06.473276 14761 net.cpp:400] inception_3a/relu_1x1 -> inception_3a/1x1_bn (in-place)
I0417 17:50:06.473279 14761 net.cpp:163] Setting up inception_3a/relu_1x1
I0417 17:50:06.473461 14761 net.cpp:170] Top shape: 25 256 18 7 (806400)
I0417 17:50:06.473467 14761 layer_factory.hpp:74] Creating layer inception_3a/3x3_reduce
I0417 17:50:06.473471 14761 net.cpp:133] Creating Layer inception_3a/3x3_reduce
I0417 17:50:06.473474 14761 net.cpp:453] inception_3a/3x3_reduce <- inception_2b/output_inception_2b/output_0_split_1
I0417 17:50:06.473477 14761 net.cpp:411] inception_3a/3x3_reduce -> inception_3a/3x3_reduce
I0417 17:50:06.473481 14761 net.cpp:163] Setting up inception_3a/3x3_reduce
I0417 17:50:06.657930 14761 net.cpp:170] Top shape: 25 256 18 7 (806400)
I0417 17:50:06.657943 14761 layer_factory.hpp:74] Creating layer inception_3a/3x3_reduce_bn
I0417 17:50:06.657945 14761 layer_factory.cpp:191] Layer inception_3a/3x3_reduce_bn is using CAFFE engine.
I0417 17:50:06.657949 14761 net.cpp:133] Creating Layer inception_3a/3x3_reduce_bn
I0417 17:50:06.657953 14761 net.cpp:453] inception_3a/3x3_reduce_bn <- inception_3a/3x3_reduce
I0417 17:50:06.657955 14761 net.cpp:411] inception_3a/3x3_reduce_bn -> inception_3a/3x3_reduce_bn
I0417 17:50:06.657961 14761 net.cpp:163] Setting up inception_3a/3x3_reduce_bn
I0417 17:50:06.657971 14761 net.cpp:170] Top shape: 25 256 18 7 (806400)
I0417 17:50:06.657976 14761 layer_factory.hpp:74] Creating layer inception_3a/relu_3x3_reduce
I0417 17:50:06.657980 14761 net.cpp:133] Creating Layer inception_3a/relu_3x3_reduce
I0417 17:50:06.657982 14761 net.cpp:453] inception_3a/relu_3x3_reduce <- inception_3a/3x3_reduce_bn
I0417 17:50:06.657984 14761 net.cpp:400] inception_3a/relu_3x3_reduce -> inception_3a/3x3_reduce_bn (in-place)
I0417 17:50:06.657987 14761 net.cpp:163] Setting up inception_3a/relu_3x3_reduce
I0417 17:50:06.658097 14761 net.cpp:170] Top shape: 25 256 18 7 (806400)
I0417 17:50:06.658102 14761 layer_factory.hpp:74] Creating layer inception_3a/3x3
I0417 17:50:06.658108 14761 net.cpp:133] Creating Layer inception_3a/3x3
I0417 17:50:06.658109 14761 net.cpp:453] inception_3a/3x3 <- inception_3a/3x3_reduce_bn
I0417 17:50:06.658113 14761 net.cpp:411] inception_3a/3x3 -> inception_3a/3x3
I0417 17:50:06.658118 14761 net.cpp:163] Setting up inception_3a/3x3
I0417 17:50:06.748261 14761 net.cpp:170] Top shape: 25 256 18 7 (806400)
I0417 17:50:06.748271 14761 layer_factory.hpp:74] Creating layer inception_3a/3x3_bn
I0417 17:50:06.748275 14761 layer_factory.cpp:191] Layer inception_3a/3x3_bn is using CAFFE engine.
I0417 17:50:06.748278 14761 net.cpp:133] Creating Layer inception_3a/3x3_bn
I0417 17:50:06.748281 14761 net.cpp:453] inception_3a/3x3_bn <- inception_3a/3x3
I0417 17:50:06.748284 14761 net.cpp:411] inception_3a/3x3_bn -> inception_3a/3x3_bn
I0417 17:50:06.748289 14761 net.cpp:163] Setting up inception_3a/3x3_bn
I0417 17:50:06.748298 14761 net.cpp:170] Top shape: 25 256 18 7 (806400)
I0417 17:50:06.748304 14761 layer_factory.hpp:74] Creating layer inception_3a/relu_3x3
I0417 17:50:06.748307 14761 net.cpp:133] Creating Layer inception_3a/relu_3x3
I0417 17:50:06.748309 14761 net.cpp:453] inception_3a/relu_3x3 <- inception_3a/3x3_bn
I0417 17:50:06.748312 14761 net.cpp:400] inception_3a/relu_3x3 -> inception_3a/3x3_bn (in-place)
I0417 17:50:06.748316 14761 net.cpp:163] Setting up inception_3a/relu_3x3
I0417 17:50:06.748500 14761 net.cpp:170] Top shape: 25 256 18 7 (806400)
I0417 17:50:06.748507 14761 layer_factory.hpp:74] Creating layer inception_3a/double_3x3_reduce
I0417 17:50:06.748512 14761 net.cpp:133] Creating Layer inception_3a/double_3x3_reduce
I0417 17:50:06.748514 14761 net.cpp:453] inception_3a/double_3x3_reduce <- inception_2b/output_inception_2b/output_0_split_2
I0417 17:50:06.748518 14761 net.cpp:411] inception_3a/double_3x3_reduce -> inception_3a/double_3x3_reduce
I0417 17:50:06.748522 14761 net.cpp:163] Setting up inception_3a/double_3x3_reduce
I0417 17:50:06.933866 14761 net.cpp:170] Top shape: 25 256 18 7 (806400)
I0417 17:50:06.933879 14761 layer_factory.hpp:74] Creating layer inception_3a/double_3x3_reduce_bn
I0417 17:50:06.933882 14761 layer_factory.cpp:191] Layer inception_3a/double_3x3_reduce_bn is using CAFFE engine.
I0417 17:50:06.933887 14761 net.cpp:133] Creating Layer inception_3a/double_3x3_reduce_bn
I0417 17:50:06.933890 14761 net.cpp:453] inception_3a/double_3x3_reduce_bn <- inception_3a/double_3x3_reduce
I0417 17:50:06.933894 14761 net.cpp:411] inception_3a/double_3x3_reduce_bn -> inception_3a/double_3x3_reduce_bn
I0417 17:50:06.933899 14761 net.cpp:163] Setting up inception_3a/double_3x3_reduce_bn
I0417 17:50:06.933910 14761 net.cpp:170] Top shape: 25 256 18 7 (806400)
I0417 17:50:06.933915 14761 layer_factory.hpp:74] Creating layer inception_3a/relu_double_3x3_reduce
I0417 17:50:06.933919 14761 net.cpp:133] Creating Layer inception_3a/relu_double_3x3_reduce
I0417 17:50:06.933920 14761 net.cpp:453] inception_3a/relu_double_3x3_reduce <- inception_3a/double_3x3_reduce_bn
I0417 17:50:06.933928 14761 net.cpp:400] inception_3a/relu_double_3x3_reduce -> inception_3a/double_3x3_reduce_bn (in-place)
I0417 17:50:06.933933 14761 net.cpp:163] Setting up inception_3a/relu_double_3x3_reduce
I0417 17:50:06.934120 14761 net.cpp:170] Top shape: 25 256 18 7 (806400)
I0417 17:50:06.934126 14761 layer_factory.hpp:74] Creating layer inception_3a/double_3x3_1
I0417 17:50:06.934133 14761 net.cpp:133] Creating Layer inception_3a/double_3x3_1
I0417 17:50:06.934134 14761 net.cpp:453] inception_3a/double_3x3_1 <- inception_3a/double_3x3_reduce_bn
I0417 17:50:06.934137 14761 net.cpp:411] inception_3a/double_3x3_1 -> inception_3a/double_3x3_1
I0417 17:50:06.934142 14761 net.cpp:163] Setting up inception_3a/double_3x3_1
I0417 17:50:07.024484 14761 net.cpp:170] Top shape: 25 256 18 7 (806400)
I0417 17:50:07.024495 14761 layer_factory.hpp:74] Creating layer inception_3a/double_3x3_1_bn
I0417 17:50:07.024498 14761 layer_factory.cpp:191] Layer inception_3a/double_3x3_1_bn is using CAFFE engine.
I0417 17:50:07.024502 14761 net.cpp:133] Creating Layer inception_3a/double_3x3_1_bn
I0417 17:50:07.024505 14761 net.cpp:453] inception_3a/double_3x3_1_bn <- inception_3a/double_3x3_1
I0417 17:50:07.024509 14761 net.cpp:411] inception_3a/double_3x3_1_bn -> inception_3a/double_3x3_1_bn
I0417 17:50:07.024513 14761 net.cpp:163] Setting up inception_3a/double_3x3_1_bn
I0417 17:50:07.024523 14761 net.cpp:170] Top shape: 25 256 18 7 (806400)
I0417 17:50:07.024528 14761 layer_factory.hpp:74] Creating layer inception_3a/relu_double_3x3_1
I0417 17:50:07.024533 14761 net.cpp:133] Creating Layer inception_3a/relu_double_3x3_1
I0417 17:50:07.024534 14761 net.cpp:453] inception_3a/relu_double_3x3_1 <- inception_3a/double_3x3_1_bn
I0417 17:50:07.024536 14761 net.cpp:400] inception_3a/relu_double_3x3_1 -> inception_3a/double_3x3_1_bn (in-place)
I0417 17:50:07.024539 14761 net.cpp:163] Setting up inception_3a/relu_double_3x3_1
I0417 17:50:07.024648 14761 net.cpp:170] Top shape: 25 256 18 7 (806400)
I0417 17:50:07.024653 14761 layer_factory.hpp:74] Creating layer inception_3a/double_3x3_2
I0417 17:50:07.024658 14761 net.cpp:133] Creating Layer inception_3a/double_3x3_2
I0417 17:50:07.024660 14761 net.cpp:453] inception_3a/double_3x3_2 <- inception_3a/double_3x3_1_bn
I0417 17:50:07.024663 14761 net.cpp:411] inception_3a/double_3x3_2 -> inception_3a/double_3x3_2
I0417 17:50:07.024667 14761 net.cpp:163] Setting up inception_3a/double_3x3_2
I0417 17:50:07.114830 14761 net.cpp:170] Top shape: 25 256 18 7 (806400)
I0417 17:50:07.114840 14761 layer_factory.hpp:74] Creating layer inception_3a/double_3x3_2_bn
I0417 17:50:07.114842 14761 layer_factory.cpp:191] Layer inception_3a/double_3x3_2_bn is using CAFFE engine.
I0417 17:50:07.114846 14761 net.cpp:133] Creating Layer inception_3a/double_3x3_2_bn
I0417 17:50:07.114848 14761 net.cpp:453] inception_3a/double_3x3_2_bn <- inception_3a/double_3x3_2
I0417 17:50:07.114852 14761 net.cpp:411] inception_3a/double_3x3_2_bn -> inception_3a/double_3x3_2_bn
I0417 17:50:07.114857 14761 net.cpp:163] Setting up inception_3a/double_3x3_2_bn
I0417 17:50:07.114867 14761 net.cpp:170] Top shape: 25 256 18 7 (806400)
I0417 17:50:07.114872 14761 layer_factory.hpp:74] Creating layer inception_3a/relu_double_3x3_2
I0417 17:50:07.114876 14761 net.cpp:133] Creating Layer inception_3a/relu_double_3x3_2
I0417 17:50:07.114877 14761 net.cpp:453] inception_3a/relu_double_3x3_2 <- inception_3a/double_3x3_2_bn
I0417 17:50:07.114881 14761 net.cpp:400] inception_3a/relu_double_3x3_2 -> inception_3a/double_3x3_2_bn (in-place)
I0417 17:50:07.114883 14761 net.cpp:163] Setting up inception_3a/relu_double_3x3_2
I0417 17:50:07.115068 14761 net.cpp:170] Top shape: 25 256 18 7 (806400)
I0417 17:50:07.115075 14761 layer_factory.hpp:74] Creating layer inception_3a/pool
I0417 17:50:07.115077 14761 layer_factory.cpp:64] CUDNN does not support padding or multiple tops. Using Caffe's own pooling layer.
I0417 17:50:07.115082 14761 net.cpp:133] Creating Layer inception_3a/pool
I0417 17:50:07.115083 14761 net.cpp:453] inception_3a/pool <- inception_2b/output_inception_2b/output_0_split_3
I0417 17:50:07.115087 14761 net.cpp:411] inception_3a/pool -> inception_3a/pool
I0417 17:50:07.115090 14761 net.cpp:163] Setting up inception_3a/pool
I0417 17:50:07.115094 14761 net.cpp:170] Top shape: 25 768 18 7 (2419200)
I0417 17:50:07.115097 14761 layer_factory.hpp:74] Creating layer inception_3a/pool_proj
I0417 17:50:07.115100 14761 net.cpp:133] Creating Layer inception_3a/pool_proj
I0417 17:50:07.115103 14761 net.cpp:453] inception_3a/pool_proj <- inception_3a/pool
I0417 17:50:07.115106 14761 net.cpp:411] inception_3a/pool_proj -> inception_3a/pool_proj
I0417 17:50:07.115109 14761 net.cpp:163] Setting up inception_3a/pool_proj
I0417 17:50:07.300032 14761 net.cpp:170] Top shape: 25 256 18 7 (806400)
I0417 17:50:07.300042 14761 layer_factory.hpp:74] Creating layer inception_3a/pool_proj_bn
I0417 17:50:07.300045 14761 layer_factory.cpp:191] Layer inception_3a/pool_proj_bn is using CAFFE engine.
I0417 17:50:07.300050 14761 net.cpp:133] Creating Layer inception_3a/pool_proj_bn
I0417 17:50:07.300052 14761 net.cpp:453] inception_3a/pool_proj_bn <- inception_3a/pool_proj
I0417 17:50:07.300056 14761 net.cpp:411] inception_3a/pool_proj_bn -> inception_3a/pool_proj_bn
I0417 17:50:07.300060 14761 net.cpp:163] Setting up inception_3a/pool_proj_bn
I0417 17:50:07.300071 14761 net.cpp:170] Top shape: 25 256 18 7 (806400)
I0417 17:50:07.300076 14761 layer_factory.hpp:74] Creating layer inception_3a/relu_pool_proj
I0417 17:50:07.300079 14761 net.cpp:133] Creating Layer inception_3a/relu_pool_proj
I0417 17:50:07.300081 14761 net.cpp:453] inception_3a/relu_pool_proj <- inception_3a/pool_proj_bn
I0417 17:50:07.300083 14761 net.cpp:400] inception_3a/relu_pool_proj -> inception_3a/pool_proj_bn (in-place)
I0417 17:50:07.300086 14761 net.cpp:163] Setting up inception_3a/relu_pool_proj
I0417 17:50:07.300267 14761 net.cpp:170] Top shape: 25 256 18 7 (806400)
I0417 17:50:07.300273 14761 layer_factory.hpp:74] Creating layer inception_3a/output
I0417 17:50:07.300277 14761 net.cpp:133] Creating Layer inception_3a/output
I0417 17:50:07.300281 14761 net.cpp:453] inception_3a/output <- inception_3a/1x1_bn
I0417 17:50:07.300282 14761 net.cpp:453] inception_3a/output <- inception_3a/3x3_bn
I0417 17:50:07.300285 14761 net.cpp:453] inception_3a/output <- inception_3a/double_3x3_2_bn
I0417 17:50:07.300287 14761 net.cpp:453] inception_3a/output <- inception_3a/pool_proj_bn
I0417 17:50:07.300290 14761 net.cpp:411] inception_3a/output -> inception_3a/output
I0417 17:50:07.300293 14761 net.cpp:163] Setting up inception_3a/output
I0417 17:50:07.300298 14761 net.cpp:170] Top shape: 25 1024 18 7 (3225600)
I0417 17:50:07.300299 14761 layer_factory.hpp:74] Creating layer inception_3a/output_inception_3a/output_0_split
I0417 17:50:07.300303 14761 net.cpp:133] Creating Layer inception_3a/output_inception_3a/output_0_split
I0417 17:50:07.300304 14761 net.cpp:453] inception_3a/output_inception_3a/output_0_split <- inception_3a/output
I0417 17:50:07.300307 14761 net.cpp:411] inception_3a/output_inception_3a/output_0_split -> inception_3a/output_inception_3a/output_0_split_0
I0417 17:50:07.300310 14761 net.cpp:411] inception_3a/output_inception_3a/output_0_split -> inception_3a/output_inception_3a/output_0_split_1
I0417 17:50:07.300315 14761 net.cpp:411] inception_3a/output_inception_3a/output_0_split -> inception_3a/output_inception_3a/output_0_split_2
I0417 17:50:07.300318 14761 net.cpp:163] Setting up inception_3a/output_inception_3a/output_0_split
I0417 17:50:07.300320 14761 net.cpp:170] Top shape: 25 1024 18 7 (3225600)
I0417 17:50:07.300323 14761 net.cpp:170] Top shape: 25 1024 18 7 (3225600)
I0417 17:50:07.300325 14761 net.cpp:170] Top shape: 25 1024 18 7 (3225600)
I0417 17:50:07.300326 14761 layer_factory.hpp:74] Creating layer inception_3b/3x3_reduce
I0417 17:50:07.300331 14761 net.cpp:133] Creating Layer inception_3b/3x3_reduce
I0417 17:50:07.300333 14761 net.cpp:453] inception_3b/3x3_reduce <- inception_3a/output_inception_3a/output_0_split_0
I0417 17:50:07.300336 14761 net.cpp:411] inception_3b/3x3_reduce -> inception_3b/3x3_reduce
I0417 17:50:07.300339 14761 net.cpp:163] Setting up inception_3b/3x3_reduce
I0417 17:50:07.547297 14761 net.cpp:170] Top shape: 25 256 18 7 (806400)
I0417 17:50:07.547309 14761 layer_factory.hpp:74] Creating layer inception_3b/3x3_reduce_bn
I0417 17:50:07.547313 14761 layer_factory.cpp:191] Layer inception_3b/3x3_reduce_bn is using CAFFE engine.
I0417 17:50:07.547317 14761 net.cpp:133] Creating Layer inception_3b/3x3_reduce_bn
I0417 17:50:07.547320 14761 net.cpp:453] inception_3b/3x3_reduce_bn <- inception_3b/3x3_reduce
I0417 17:50:07.547324 14761 net.cpp:411] inception_3b/3x3_reduce_bn -> inception_3b/3x3_reduce_bn
I0417 17:50:07.547330 14761 net.cpp:163] Setting up inception_3b/3x3_reduce_bn
I0417 17:50:07.547340 14761 net.cpp:170] Top shape: 25 256 18 7 (806400)
I0417 17:50:07.547344 14761 layer_factory.hpp:74] Creating layer inception_3b/relu_3x3_reduce
I0417 17:50:07.547348 14761 net.cpp:133] Creating Layer inception_3b/relu_3x3_reduce
I0417 17:50:07.547349 14761 net.cpp:453] inception_3b/relu_3x3_reduce <- inception_3b/3x3_reduce_bn
I0417 17:50:07.547353 14761 net.cpp:400] inception_3b/relu_3x3_reduce -> inception_3b/3x3_reduce_bn (in-place)
I0417 17:50:07.547356 14761 net.cpp:163] Setting up inception_3b/relu_3x3_reduce
I0417 17:50:07.547471 14761 net.cpp:170] Top shape: 25 256 18 7 (806400)
I0417 17:50:07.547475 14761 layer_factory.hpp:74] Creating layer inception_3b/3x3
I0417 17:50:07.547480 14761 net.cpp:133] Creating Layer inception_3b/3x3
I0417 17:50:07.547482 14761 net.cpp:453] inception_3b/3x3 <- inception_3b/3x3_reduce_bn
I0417 17:50:07.547487 14761 net.cpp:411] inception_3b/3x3 -> inception_3b/3x3
I0417 17:50:07.547490 14761 net.cpp:163] Setting up inception_3b/3x3
I0417 17:50:07.568325 14761 net.cpp:170] Top shape: 25 256 9 4 (230400)
I0417 17:50:07.568336 14761 layer_factory.hpp:74] Creating layer inception_3b/3x3_bn
I0417 17:50:07.568337 14761 layer_factory.cpp:191] Layer inception_3b/3x3_bn is using CAFFE engine.
I0417 17:50:07.568342 14761 net.cpp:133] Creating Layer inception_3b/3x3_bn
I0417 17:50:07.568344 14761 net.cpp:453] inception_3b/3x3_bn <- inception_3b/3x3
I0417 17:50:07.568347 14761 net.cpp:411] inception_3b/3x3_bn -> inception_3b/3x3_bn
I0417 17:50:07.568352 14761 net.cpp:163] Setting up inception_3b/3x3_bn
I0417 17:50:07.568361 14761 net.cpp:170] Top shape: 25 256 9 4 (230400)
I0417 17:50:07.568367 14761 layer_factory.hpp:74] Creating layer inception_3b/relu_3x3
I0417 17:50:07.568370 14761 net.cpp:133] Creating Layer inception_3b/relu_3x3
I0417 17:50:07.568372 14761 net.cpp:453] inception_3b/relu_3x3 <- inception_3b/3x3_bn
I0417 17:50:07.568375 14761 net.cpp:400] inception_3b/relu_3x3 -> inception_3b/3x3_bn (in-place)
I0417 17:50:07.568378 14761 net.cpp:163] Setting up inception_3b/relu_3x3
I0417 17:50:07.568562 14761 net.cpp:170] Top shape: 25 256 9 4 (230400)
I0417 17:50:07.568569 14761 layer_factory.hpp:74] Creating layer inception_3b/double_3x3_reduce
I0417 17:50:07.568574 14761 net.cpp:133] Creating Layer inception_3b/double_3x3_reduce
I0417 17:50:07.568577 14761 net.cpp:453] inception_3b/double_3x3_reduce <- inception_3a/output_inception_3a/output_0_split_1
I0417 17:50:07.568580 14761 net.cpp:411] inception_3b/double_3x3_reduce -> inception_3b/double_3x3_reduce
I0417 17:50:07.568585 14761 net.cpp:163] Setting up inception_3b/double_3x3_reduce
I0417 17:50:07.815789 14761 net.cpp:170] Top shape: 25 256 18 7 (806400)
I0417 17:50:07.815800 14761 layer_factory.hpp:74] Creating layer inception_3b/double_3x3_reduce_bn
I0417 17:50:07.815804 14761 layer_factory.cpp:191] Layer inception_3b/double_3x3_reduce_bn is using CAFFE engine.
I0417 17:50:07.815807 14761 net.cpp:133] Creating Layer inception_3b/double_3x3_reduce_bn
I0417 17:50:07.815810 14761 net.cpp:453] inception_3b/double_3x3_reduce_bn <- inception_3b/double_3x3_reduce
I0417 17:50:07.815814 14761 net.cpp:411] inception_3b/double_3x3_reduce_bn -> inception_3b/double_3x3_reduce_bn
I0417 17:50:07.815819 14761 net.cpp:163] Setting up inception_3b/double_3x3_reduce_bn
I0417 17:50:07.815829 14761 net.cpp:170] Top shape: 25 256 18 7 (806400)
I0417 17:50:07.815834 14761 layer_factory.hpp:74] Creating layer inception_3b/relu_double_3x3_reduce
I0417 17:50:07.815860 14761 net.cpp:133] Creating Layer inception_3b/relu_double_3x3_reduce
I0417 17:50:07.815861 14761 net.cpp:453] inception_3b/relu_double_3x3_reduce <- inception_3b/double_3x3_reduce_bn
I0417 17:50:07.815865 14761 net.cpp:400] inception_3b/relu_double_3x3_reduce -> inception_3b/double_3x3_reduce_bn (in-place)
I0417 17:50:07.815867 14761 net.cpp:163] Setting up inception_3b/relu_double_3x3_reduce
I0417 17:50:07.816053 14761 net.cpp:170] Top shape: 25 256 18 7 (806400)
I0417 17:50:07.816059 14761 layer_factory.hpp:74] Creating layer inception_3b/double_3x3_1
I0417 17:50:07.816064 14761 net.cpp:133] Creating Layer inception_3b/double_3x3_1
I0417 17:50:07.816066 14761 net.cpp:453] inception_3b/double_3x3_1 <- inception_3b/double_3x3_reduce_bn
I0417 17:50:07.816071 14761 net.cpp:411] inception_3b/double_3x3_1 -> inception_3b/double_3x3_1
I0417 17:50:07.816074 14761 net.cpp:163] Setting up inception_3b/double_3x3_1
I0417 17:50:07.905875 14761 net.cpp:170] Top shape: 25 256 18 7 (806400)
I0417 17:50:07.905885 14761 layer_factory.hpp:74] Creating layer inception_3b/double_3x3_1_bn
I0417 17:50:07.905889 14761 layer_factory.cpp:191] Layer inception_3b/double_3x3_1_bn is using CAFFE engine.
I0417 17:50:07.905892 14761 net.cpp:133] Creating Layer inception_3b/double_3x3_1_bn
I0417 17:50:07.905894 14761 net.cpp:453] inception_3b/double_3x3_1_bn <- inception_3b/double_3x3_1
I0417 17:50:07.905899 14761 net.cpp:411] inception_3b/double_3x3_1_bn -> inception_3b/double_3x3_1_bn
I0417 17:50:07.905903 14761 net.cpp:163] Setting up inception_3b/double_3x3_1_bn
I0417 17:50:07.905913 14761 net.cpp:170] Top shape: 25 256 18 7 (806400)
I0417 17:50:07.905918 14761 layer_factory.hpp:74] Creating layer inception_3b/relu_double_3x3_1
I0417 17:50:07.905922 14761 net.cpp:133] Creating Layer inception_3b/relu_double_3x3_1
I0417 17:50:07.905923 14761 net.cpp:453] inception_3b/relu_double_3x3_1 <- inception_3b/double_3x3_1_bn
I0417 17:50:07.905926 14761 net.cpp:400] inception_3b/relu_double_3x3_1 -> inception_3b/double_3x3_1_bn (in-place)
I0417 17:50:07.905930 14761 net.cpp:163] Setting up inception_3b/relu_double_3x3_1
I0417 17:50:07.906038 14761 net.cpp:170] Top shape: 25 256 18 7 (806400)
I0417 17:50:07.906044 14761 layer_factory.hpp:74] Creating layer inception_3b/double_3x3_2
I0417 17:50:07.906049 14761 net.cpp:133] Creating Layer inception_3b/double_3x3_2
I0417 17:50:07.906050 14761 net.cpp:453] inception_3b/double_3x3_2 <- inception_3b/double_3x3_1_bn
I0417 17:50:07.906054 14761 net.cpp:411] inception_3b/double_3x3_2 -> inception_3b/double_3x3_2
I0417 17:50:07.906057 14761 net.cpp:163] Setting up inception_3b/double_3x3_2
I0417 17:50:07.926666 14761 net.cpp:170] Top shape: 25 256 9 4 (230400)
I0417 17:50:07.926676 14761 layer_factory.hpp:74] Creating layer inception_3b/double_3x3_2_bn
I0417 17:50:07.926678 14761 layer_factory.cpp:191] Layer inception_3b/double_3x3_2_bn is using CAFFE engine.
I0417 17:50:07.926682 14761 net.cpp:133] Creating Layer inception_3b/double_3x3_2_bn
I0417 17:50:07.926684 14761 net.cpp:453] inception_3b/double_3x3_2_bn <- inception_3b/double_3x3_2
I0417 17:50:07.926688 14761 net.cpp:411] inception_3b/double_3x3_2_bn -> inception_3b/double_3x3_2_bn
I0417 17:50:07.926693 14761 net.cpp:163] Setting up inception_3b/double_3x3_2_bn
I0417 17:50:07.926702 14761 net.cpp:170] Top shape: 25 256 9 4 (230400)
I0417 17:50:07.926707 14761 layer_factory.hpp:74] Creating layer inception_3b/relu_double_3x3_2
I0417 17:50:07.926710 14761 net.cpp:133] Creating Layer inception_3b/relu_double_3x3_2
I0417 17:50:07.926712 14761 net.cpp:453] inception_3b/relu_double_3x3_2 <- inception_3b/double_3x3_2_bn
I0417 17:50:07.926715 14761 net.cpp:400] inception_3b/relu_double_3x3_2 -> inception_3b/double_3x3_2_bn (in-place)
I0417 17:50:07.926717 14761 net.cpp:163] Setting up inception_3b/relu_double_3x3_2
I0417 17:50:07.926903 14761 net.cpp:170] Top shape: 25 256 9 4 (230400)
I0417 17:50:07.926909 14761 layer_factory.hpp:74] Creating layer inception_3b/pool
I0417 17:50:07.926913 14761 layer_factory.cpp:64] CUDNN does not support padding or multiple tops. Using Caffe's own pooling layer.
I0417 17:50:07.926915 14761 net.cpp:133] Creating Layer inception_3b/pool
I0417 17:50:07.926918 14761 net.cpp:453] inception_3b/pool <- inception_3a/output_inception_3a/output_0_split_2
I0417 17:50:07.926921 14761 net.cpp:411] inception_3b/pool -> inception_3b/pool
I0417 17:50:07.926925 14761 net.cpp:163] Setting up inception_3b/pool
I0417 17:50:07.926929 14761 net.cpp:170] Top shape: 25 1024 9 4 (921600)
I0417 17:50:07.926931 14761 layer_factory.hpp:74] Creating layer inception_3b/output
I0417 17:50:07.926934 14761 net.cpp:133] Creating Layer inception_3b/output
I0417 17:50:07.926936 14761 net.cpp:453] inception_3b/output <- inception_3b/3x3_bn
I0417 17:50:07.926939 14761 net.cpp:453] inception_3b/output <- inception_3b/double_3x3_2_bn
I0417 17:50:07.926940 14761 net.cpp:453] inception_3b/output <- inception_3b/pool
I0417 17:50:07.926944 14761 net.cpp:411] inception_3b/output -> inception_3b/output
I0417 17:50:07.926946 14761 net.cpp:163] Setting up inception_3b/output
I0417 17:50:07.926949 14761 net.cpp:170] Top shape: 25 1536 9 4 (1382400)
I0417 17:50:07.926951 14761 layer_factory.hpp:74] Creating layer global_pool
I0417 17:50:07.926954 14761 net.cpp:133] Creating Layer global_pool
I0417 17:50:07.926956 14761 net.cpp:453] global_pool <- inception_3b/output
I0417 17:50:07.926959 14761 net.cpp:411] global_pool -> global_pool
I0417 17:50:07.926962 14761 net.cpp:163] Setting up global_pool
I0417 17:50:07.927135 14761 net.cpp:170] Top shape: 25 1536 1 1 (38400)
I0417 17:50:07.927141 14761 layer_factory.hpp:74] Creating layer gather_global_pool_to_fc7
I0417 17:50:07.927146 14761 net.cpp:133] Creating Layer gather_global_pool_to_fc7
I0417 17:50:07.927148 14761 net.cpp:453] gather_global_pool_to_fc7 <- global_pool
I0417 17:50:07.927151 14761 net.cpp:411] gather_global_pool_to_fc7 -> gathered_global_pool
I0417 17:50:07.927155 14761 net.cpp:163] Setting up gather_global_pool_to_fc7
I0417 17:50:07.927157 14761 net.cpp:170] Top shape: 50 1536 1 1 (76800)
I0417 17:50:07.927160 14761 layer_factory.hpp:74] Creating layer fc7
I0417 17:50:07.927163 14761 net.cpp:133] Creating Layer fc7
I0417 17:50:07.927165 14761 net.cpp:453] fc7 <- gathered_global_pool
I0417 17:50:07.927167 14761 net.cpp:411] fc7 -> fc7
I0417 17:50:07.927170 14761 net.cpp:163] Setting up fc7
I0417 17:50:07.928709 14761 net.cpp:170] Top shape: 50 256 (12800)
I0417 17:50:07.928716 14761 layer_factory.hpp:74] Creating layer fc7_bn
I0417 17:50:07.928719 14761 layer_factory.cpp:191] Layer fc7_bn is using CAFFE engine.
I0417 17:50:07.928722 14761 net.cpp:133] Creating Layer fc7_bn
I0417 17:50:07.928725 14761 net.cpp:453] fc7_bn <- fc7
I0417 17:50:07.928727 14761 net.cpp:411] fc7_bn -> fc7_bn
I0417 17:50:07.928731 14761 net.cpp:163] Setting up fc7_bn
I0417 17:50:07.928740 14761 net.cpp:170] Top shape: 50 256 (12800)
I0417 17:50:07.928743 14761 layer_factory.hpp:74] Creating layer relu7
I0417 17:50:07.928746 14761 net.cpp:133] Creating Layer relu7
I0417 17:50:07.928747 14761 net.cpp:453] relu7 <- fc7_bn
I0417 17:50:07.928750 14761 net.cpp:400] relu7 -> fc7_bn (in-place)
I0417 17:50:07.928752 14761 net.cpp:163] Setting up relu7
I0417 17:50:07.928939 14761 net.cpp:170] Top shape: 50 256 (12800)
I0417 17:50:07.928946 14761 layer_factory.hpp:74] Creating layer drop7
I0417 17:50:07.928948 14761 net.cpp:133] Creating Layer drop7
I0417 17:50:07.928951 14761 net.cpp:453] drop7 <- fc7_bn
I0417 17:50:07.928954 14761 net.cpp:400] drop7 -> fc7_bn (in-place)
I0417 17:50:07.928957 14761 net.cpp:163] Setting up drop7
I0417 17:50:07.928962 14761 net.cpp:170] Top shape: 50 256 (12800)
I0417 17:50:07.928964 14761 layer_factory.hpp:74] Creating layer fc8_ilids
I0417 17:50:07.928967 14761 net.cpp:133] Creating Layer fc8_ilids
I0417 17:50:07.928969 14761 net.cpp:453] fc8_ilids <- fc7_bn
I0417 17:50:07.928973 14761 net.cpp:411] fc8_ilids -> fc8_ilids
I0417 17:50:07.928977 14761 net.cpp:163] Setting up fc8_ilids
I0417 17:50:07.929201 14761 net.cpp:170] Top shape: 50 119 (5950)
I0417 17:50:07.929206 14761 layer_factory.hpp:74] Creating layer gather_data_to_loss
I0417 17:50:07.929209 14761 net.cpp:133] Creating Layer gather_data_to_loss
I0417 17:50:07.929211 14761 net.cpp:453] gather_data_to_loss <- label
I0417 17:50:07.929214 14761 net.cpp:411] gather_data_to_loss -> gathered_label
I0417 17:50:07.929217 14761 net.cpp:163] Setting up gather_data_to_loss
I0417 17:50:07.929220 14761 net.cpp:170] Top shape: 50 (50)
I0417 17:50:07.929222 14761 layer_factory.hpp:74] Creating layer loss
I0417 17:50:07.929224 14761 net.cpp:133] Creating Layer loss
I0417 17:50:07.929226 14761 net.cpp:453] loss <- fc8_ilids
I0417 17:50:07.929229 14761 net.cpp:453] loss <- gathered_label
I0417 17:50:07.929231 14761 net.cpp:411] loss -> loss
I0417 17:50:07.929234 14761 net.cpp:163] Setting up loss
I0417 17:50:07.929237 14761 layer_factory.hpp:74] Creating layer loss
…
I0417 17:50:07.935191 14761 net.cpp:330] The NetState phase (1) differed from the phase (0) specified by a rule in layer data
I0417 17:50:07.935894 14761 net.cpp:47] Initializing net from parameters: 
name: "iLIDS"
state {
  phase: TEST
}
richness: 1000
layer {
  name: "data"
  type: "Data"
  top: "data"
  top: "label"
  include {
    phase: TEST
  }
  transform_param {
    mirror: false
    mean_value: 102
    mean_value: 102
    mean_value: 101
    crop_height: 144
    crop_width: 56
  }
  data_param {
    source: "external/exp/db/ilids/val_lmdb"
    batch_size: 20
    backend: LMDB
  }
}
layer {
  name: "conv1"
  type: "Convolution"
  bottom: "data"
  top: "conv1"
  param {
    lr_mult: 1
    decay_mult: 1
  }
  param {
    lr_mult: 2
    decay_mult: 0
  }
  convolution_param {
    num_output: 32
    pad: 1
    kernel_size: 3
    stride: 1
    weight_filler {
      type: "xavier"
    }
    bias_filler {
      type: "constant"
      value: 0.2
    }
  }
}
layer {
  name: "conv1_bn"
  type: "BN"
  bottom: "conv1"
  top: "conv1_bn"
  param {
    lr_mult: 1
    decay_mult: 0
  }
  param {
    lr_mult: 1
    decay_mult: 0
  }
  bn_param {
    slope_filler {
      type: "constant"
      value: 1
    }
    bias_filler {
      type: "constant"
      value: 0
    }
  }
}
layer {
  name: "relu1"
  type: "ReLU"
  bottom: "conv1_bn"
  top: "conv1_bn"
}
layer {
  name: "conv2"
  type: "Convolution"
  bottom: "conv1_bn"
  top: "conv2"
  param {
    lr_mult: 1
    decay_mult: 1
  }
  param {
    lr_mult: 2
    decay_mult: 0
  }
  convolution_param {
    num_output: 32
    pad: 1
    kernel_size: 3
    stride: 1
    weight_filler {
      type: "xavier"
    }
    bias_filler {
      type: "constant"
      value: 0.2
    }
  }
}
layer {
  name: "conv2_bn"
  type: "BN"
  bottom: "conv2"
  top: "conv2_bn"
  param {
    lr_mult: 1
    decay_mult: 0
  }
  param {
    lr_mult: 1
    decay_mult: 0
  }
  bn_param {
    slope_filler {
      type: "constant"
      value: 1
    }
    bias_filler {
      type: "constant"
      value: 0
    }
  }
}
layer {
  name: "relu2"
  type: "ReLU"
  bottom: "conv2_bn"
  top: "conv2_bn"
}
layer {
  name: "conv3"
  type: "Convolution"
  bottom: "conv2_bn"
  top: "conv3"
  param {
    lr_mult: 1
    decay_mult: 1
  }
  param {
    lr_mult: 2
    decay_mult: 0
  }
  convolution_param {
    num_output: 32
    pad: 1
    kernel_size: 3
    stride: 1
    weight_filler {
      type: "xavier"
    }
    bias_filler {
      type: "constant"
      value: 0.2
    }
  }
}
layer {
  name: "conv3_bn"
  type: "BN"
  bottom: "conv3"
  top: "conv3_bn"
  param {
    lr_mult: 1
    decay_mult: 0
  }
  param {
    lr_mult: 1
    decay_mult: 0
  }
  bn_param {
    slope_filler {
      type: "constant"
      value: 1
    }
    bias_filler {
      type: "constant"
      value: 0
    }
  }
}
layer {
  name: "relu3"
  type: "ReLU"
  bottom: "conv3_bn"
  top: "conv3_bn"
}
layer {
  name: "pool1"
  type: "Pooling"
  bottom: "conv3_bn"
  top: "pool1"
  pooling_param {
    pool: MAX
    kernel_size: 2
    stride: 2
  }
}
layer {
  name: "inception_1a/1x1"
  type: "Convolution"
  bottom: "pool1"
  top: "inception_1a/1x1"
  param {
    lr_mult: 1
    decay_mult: 1
  }
  param {
    lr_mult: 2
    decay_mult: 0
  }
  convolution_param {
    num_output: 64
    kernel_size: 1
    weight_filler {
      type: "xavier"
    }
    bias_filler {
      type: "constant"
      value: 0.2
    }
  }
}
layer {
  name: "inception_1a/1x1_bn"
  type: "BN"
  bottom: "inception_1a/1x1"
  top: "inception_1a/1x1_bn"
  param {
    lr_mult: 1
    decay_mult: 0
  }
  param {
    lr_mult: 1
    decay_mult: 0
  }
  bn_param {
    slope_filler {
      type: "constant"
      value: 1
    }
    bias_filler {
      type: "constant"
      value: 0
    }
  }
}
layer {
  name: "inception_1a/relu_1x1"
  type: "ReLU"
  bottom: "inception_1a/1x1_bn"
  top: "inception_1a/1x1_bn"
}
layer {
  name: "inception_1a/3x3_reduce"
  type: "Convolution"
  bottom: "pool1"
  top: "inception_1a/3x3_reduce"
  param {
    lr_mult: 1
    decay_mult: 1
  }
  param {
    lr_mult: 2
    decay_mult: 0
  }
  convolution_param {
    num_output: 64
    kernel_size: 1
    weight_filler {
      type: "xavier"
    }
    bias_filler {
      type: "constant"
      value: 0.2
    }
  }
}
layer {
  name: "inception_1a/3x3_reduce_bn"
  type: "BN"
  bottom: "inception_1a/3x3_reduce"
  top: "inception_1a/3x3_reduce_bn"
  param {
    lr_mult: 1
    decay_mult: 0
  }
  param {
    lr_mult: 1
    decay_mult: 0
  }
  bn_param {
    slope_filler {
      type: "constant"
      value: 1
    }
    bias_filler {
      type: "constant"
      value: 0
    }
  }
}
layer {
  name: "inception_1a/relu_3x3_reduce"
  type: "ReLU"
  bottom: "inception_1a/3x3_reduce_bn"
  top: "inception_1a/3x3_reduce_bn"
}
layer {
  name: "inception_1a/3x3"
  type: "Convolution"
  bottom: "inception_1a/3x3_reduce_bn"
  top: "inception_1a/3x3"
  param {
    lr_mult: 1
    decay_mult: 1
  }
  param {
    lr_mult: 2
    decay_mult: 0
  }
  convolution_param {
    num_output: 64
    pad: 1
    kernel_size: 3
    weight_filler {
      type: "xavier"
    }
    bias_filler {
      type: "constant"
      value: 0.2
    }
  }
}
layer {
  name: "inception_1a/3x3_bn"
  type: "BN"
  bottom: "inception_1a/3x3"
  top: "inception_1a/3x3_bn"
  param {
    lr_mult: 1
    decay_mult: 0
  }
  param {
    lr_mult: 1
    decay_mult: 0
  }
  bn_param {
    slope_filler {
      type: "constant"
      value: 1
    }
    bias_filler {
      type: "constant"
      value: 0
    }
  }
}
layer {
  name: "inception_1a/relu_3x3"
  type: "ReLU"
  bottom: "inception_1a/3x3_bn"
  top: "inception_1a/3x3_bn"
}
layer {
  name: "inception_1a/double_3x3_reduce"
  type: "Convolution"
  bottom: "pool1"
  top: "inception_1a/double_3x3_reduce"
  param {
    lr_mult: 1
    decay_mult: 1
  }
  param {
    lr_mult: 2
    decay_mult: 0
  }
  convolution_param {
    num_output: 64
    kernel_size: 1
    weight_filler {
      type: "xavier"
    }
    bias_filler {
      type: "constant"
      value: 0.2
    }
  }
}
layer {
  name: "inception_1a/double_3x3_reduce_bn"
  type: "BN"
  bottom: "inception_1a/double_3x3_reduce"
  top: "inception_1a/double_3x3_reduce_bn"
  param {
    lr_mult: 1
    decay_mult: 0
  }
  param {
    lr_mult: 1
    decay_mult: 0
  }
  bn_param {
    slope_filler {
      type: "constant"
      value: 1
    }
    bias_filler {
      type: "constant"
      value: 0
    }
  }
}
layer {
  name: "inception_1a/relu_double_3x3_reduce"
  type: "ReLU"
  bottom: "inception_1a/double_3x3_reduce_bn"
  top: "inception_1a/double_3x3_reduce_bn"
}
layer {
  name: "inception_1a/double_3x3_1"
  type: "Convolution"
  bottom: "inception_1a/double_3x3_reduce_bn"
  top: "inception_1a/double_3x3_1"
  param {
    lr_mult: 1
    decay_mult: 1
  }
  param {
    lr_mult: 2
    decay_mult: 0
  }
  convolution_param {
    num_output: 64
    pad: 1
    kernel_size: 3
    weight_filler {
      type: "xavier"
    }
    bias_filler {
      type: "constant"
      value: 0.2
    }
  }
}
layer {
  name: "inception_1a/double_3x3_1_bn"
  type: "BN"
  bottom: "inception_1a/double_3x3_1"
  top: "inception_1a/double_3x3_1_bn"
  param {
    lr_mult: 1
    decay_mult: 0
  }
  param {
    lr_mult: 1
    decay_mult: 0
  }
  bn_param {
    slope_filler {
      type: "constant"
      value: 1
    }
    bias_filler {
      type: "constant"
      value: 0
    }
  }
}
layer {
  name: "inception_1a/relu_double_3x3_1"
  type: "ReLU"
  bottom: "inception_1a/double_3x3_1_bn"
  top: "inception_1a/double_3x3_1_bn"
}
layer {
  name: "inception_1a/double_3x3_2"
  type: "Convolution"
  bottom: "inception_1a/double_3x3_1_bn"
  top: "inception_1a/double_3x3_2"
  param {
    lr_mult: 1
    decay_mult: 1
  }
  param {
    lr_mult: 2
    decay_mult: 0
  }
  convolution_param {
    num_output: 64
    pad: 1
    kernel_size: 3
    weight_filler {
      type: "xavier"
    }
    bias_filler {
      type: "constant"
      value: 0.2
    }
  }
}
layer {
  name: "inception_1a/double_3x3_2_bn"
  type: "BN"
  bottom: "inception_1a/double_3x3_2"
  top: "inception_1a/double_3x3_2_bn"
  param {
    lr_mult: 1
    decay_mult: 0
  }
  param {
    lr_mult: 1
    decay_mult: 0
  }
  bn_param {
    slope_filler {
      type: "constant"
      value: 1
    }
    bias_filler {
      type: "constant"
      value: 0
    }
  }
}
layer {
  name: "inception_1a/relu_double_3x3_2"
  type: "ReLU"
  bottom: "inception_1a/double_3x3_2_bn"
  top: "inception_1a/double_3x3_2_bn"
}
layer {
  name: "inception_1a/pool"
  type: "Pooling"
  bottom: "pool1"
  top: "inception_1a/pool"
  pooling_param {
    pool: AVE
    kernel_size: 3
    stride: 1
    pad: 1
  }
}
layer {
  name: "inception_1a/pool_proj"
  type: "Convolution"
  bottom: "inception_1a/pool"
  top: "inception_1a/pool_proj"
  param {
    lr_mult: 1
    decay_mult: 1
  }
  param {
    lr_mult: 2
    decay_mult: 0
  }
  convolution_param {
    num_output: 64
    kernel_size: 1
    weight_filler {
      type: "xavier"
    }
    bias_filler {
      type: "constant"
      value: 0.2
    }
  }
}
layer {
  name: "inception_1a/pool_proj_bn"
  type: "BN"
  bottom: "inception_1a/pool_proj"
  top: "inception_1a/pool_proj_bn"
  param {
    lr_mult: 1
    decay_mult: 0
  }
  param {
    lr_mult: 1
    decay_mult: 0
  }
  bn_param {
    slope_filler {
      type: "constant"
      value: 1
    }
    bias_filler {
      type: "constant"
      value: 0
    }
  }
}
layer {
  name: "inception_1a/relu_pool_proj"
  type: "ReLU"
  bottom: "inception_1a/pool_proj_bn"
  top: "inception_1a/pool_proj_bn"
}
layer {
  name: "inception_1a/output"
  type: "Concat"
  bottom: "inception_1a/1x1_bn"
  bottom: "inception_1a/3x3_bn"
  bottom: "inception_1a/double_3x3_2_bn"
  bottom: "inception_1a/pool_proj_bn"
  top: "inception_1a/output"
}
layer {
  name: "inception_1b/3x3_reduce"
  type: "Convolution"
  bottom: "inception_1a/output"
  top: "inception_1b/3x3_reduce"
  param {
    lr_mult: 1
    decay_mult: 1
  }
  param {
    lr_mult: 2
    decay_mult: 0
  }
  convolution_param {
    num_output: 64
    kernel_size: 1
    weight_filler {
      type: "xavier"
    }
    bias_filler {
      type: "constant"
      value: 0.2
    }
  }
}
layer {
  name: "inception_1b/3x3_reduce_bn"
  type: "BN"
  bottom: "inception_1b/3x3_reduce"
  top: "inception_1b/3x3_reduce_bn"
  param {
    lr_mult: 1
    decay_mult: 0
  }
  param {
    lr_mult: 1
    decay_mult: 0
  }
  bn_param {
    slope_filler {
      type: "constant"
      value: 1
    }
    bias_filler {
      type: "constant"
      value: 0
    }
  }
}
layer {
  name: "inception_1b/relu_3x3_reduce"
  type: "ReLU"
  bottom: "inception_1b/3x3_reduce_bn"
  top: "inception_1b/3x3_reduce_bn"
}
layer {
  name: "inception_1b/3x3"
  type: "Convolution"
  bottom: "inception_1b/3x3_reduce_bn"
  top: "inception_1b/3x3"
  param {
    lr_mult: 1
    decay_mult: 1
  }
  param {
    lr_mult: 2
    decay_mult: 0
  }
  convolution_param {
    num_output: 64
    pad: 1
    kernel_size: 3
    stride: 2
    weight_filler {
      type: "xavier"
    }
    bias_filler {
      type: "constant"
      value: 0.2
    }
  }
}
layer {
  name: "inception_1b/3x3_bn"
  type: "BN"
  bottom: "inception_1b/3x3"
  top: "inception_1b/3x3_bn"
  param {
    lr_mult: 1
    decay_mult: 0
  }
  param {
    lr_mult: 1
    decay_mult: 0
  }
  bn_param {
    slope_filler {
      type: "constant"
      value: 1
    }
    bias_filler {
      type: "constant"
      value: 0
    }
  }
}
layer {
  name: "inception_1b/relu_3x3"
  type: "ReLU"
  bottom: "inception_1b/3x3_bn"
  top: "inception_1b/3x3_bn"
}
layer {
  name: "inception_1b/double_3x3_reduce"
  type: "Convolution"
  bottom: "inception_1a/output"
  top: "inception_1b/double_3x3_reduce"
  param {
    lr_mult: 1
    decay_mult: 1
  }
  param {
    lr_mult: 2
    decay_mult: 0
  }
  convolution_param {
    num_output: 64
    kernel_size: 1
    weight_filler {
      type: "xavier"
    }
    bias_filler {
      type: "constant"
      value: 0.2
    }
  }
}
layer {
  name: "inception_1b/double_3x3_reduce_bn"
  type: "BN"
  bottom: "inception_1b/double_3x3_reduce"
  top: "inception_1b/double_3x3_reduce_bn"
  param {
    lr_mult: 1
    decay_mult: 0
  }
  param {
    lr_mult: 1
    decay_mult: 0
  }
  bn_param {
    slope_filler {
      type: "constant"
      value: 1
    }
    bias_filler {
      type: "constant"
      value: 0
    }
  }
}
layer {
  name: "inception_1b/relu_double_3x3_reduce"
  type: "ReLU"
  bottom: "inception_1b/double_3x3_reduce_bn"
  top: "inception_1b/double_3x3_reduce_bn"
}
layer {
  name: "inception_1b/double_3x3_1"
  type: "Convolution"
  bottom: "inception_1b/double_3x3_reduce_bn"
  top: "inception_1b/double_3x3_1"
  param {
    lr_mult: 1
    decay_mult: 1
  }
  param {
    lr_mult: 2
    decay_mult: 0
  }
  convolution_param {
    num_output: 64
    pad: 1
    kernel_size: 3
    weight_filler {
      type: "xavier"
    }
    bias_filler {
      type: "constant"
      value: 0.2
    }
  }
}
layer {
  name: "inception_1b/double_3x3_1_bn"
  type: "BN"
  bottom: "inception_1b/double_3x3_1"
  top: "inception_1b/double_3x3_1_bn"
  param {
    lr_mult: 1
    decay_mult: 0
  }
  param {
    lr_mult: 1
    decay_mult: 0
  }
  bn_param {
    slope_filler {
      type: "constant"
      value: 1
    }
    bias_filler {
      type: "constant"
      value: 0
    }
  }
}
layer {
  name: "inception_1b/relu_double_3x3_1"
  type: "ReLU"
  bottom: "inception_1b/double_3x3_1_bn"
  top: "inception_1b/double_3x3_1_bn"
}
layer {
  name: "inception_1b/double_3x3_2"
  type: "Convolution"
  bottom: "inception_1b/double_3x3_1_bn"
  top: "inception_1b/double_3x3_2"
  param {
    lr_mult: 1
    decay_mult: 1
  }
  param {
    lr_mult: 2
    decay_mult: 0
  }
  convolution_param {
    num_output: 64
    pad: 1
    kernel_size: 3
    stride: 2
    weight_filler {
      type: "xavier"
    }
    bias_filler {
      type: "constant"
      value: 0.2
    }
  }
}
layer {
  name: "inception_1b/double_3x3_2_bn"
  type: "BN"
  bottom: "inception_1b/double_3x3_2"
  top: "inception_1b/double_3x3_2_bn"
  param {
    lr_mult: 1
    decay_mult: 0
  }
  param {
    lr_mult: 1
    decay_mult: 0
  }
  bn_param {
    slope_filler {
      type: "constant"
      value: 1
    }
    bias_filler {
      type: "constant"
      value: 0
    }
  }
}
layer {
  name: "inception_1b/relu_double_3x3_2"
  type: "ReLU"
  bottom: "inception_1b/double_3x3_2_bn"
  top: "inception_1b/double_3x3_2_bn"
}
layer {
  name: "inception_1b/pool"
  type: "Pooling"
  bottom: "inception_1a/output"
  top: "inception_1b/pool"
  pooling_param {
    pool: MAX
    kernel_size: 3
    stride: 2
  }
}
layer {
  name: "inception_1b/output"
  type: "Concat"
  bottom: "inception_1b/3x3_bn"
  bottom: "inception_1b/double_3x3_2_bn"
  bottom: "inception_1b/pool"
  top: "inception_1b/output"
}
layer {
  name: "inception_2a/1x1"
  type: "Convolution"
  bottom: "inception_1b/output"
  top: "inception_2a/1x1"
  param {
    lr_mult: 1
    decay_mult: 1
  }
  param {
    lr_mult: 2
    decay_mult: 0
  }
  convolution_param {
    num_output: 128
    kernel_size: 1
    weight_filler {
      type: "xavier"
    }
    bias_filler {
      type: "constant"
      value: 0.2
    }
  }
}
layer {
  name: "inception_2a/1x1_bn"
  type: "BN"
  bottom: "inception_2a/1x1"
  top: "inception_2a/1x1_bn"
  param {
    lr_mult: 1
    decay_mult: 0
  }
  param {
    lr_mult: 1
    decay_mult: 0
  }
  bn_param {
    slope_filler {
      type: "constant"
      value: 1
    }
    bias_filler {
      type: "constant"
      value: 0
    }
  }
}
layer {
  name: "inception_2a/relu_1x1"
  type: "ReLU"
  bottom: "inception_2a/1x1_bn"
  top: "inception_2a/1x1_bn"
}
layer {
  name: "inception_2a/3x3_reduce"
  type: "Convolution"
  bottom: "inception_1b/output"
  top: "inception_2a/3x3_reduce"
  param {
    lr_mult: 1
    decay_mult: 1
  }
  param {
    lr_mult: 2
    decay_mult: 0
  }
  convolution_param {
    num_output: 128
    kernel_size: 1
    weight_filler {
      type: "xavier"
    }
    bias_filler {
      type: "constant"
      value: 0.2
    }
  }
}
layer {
  name: "inception_2a/3x3_reduce_bn"
  type: "BN"
  bottom: "inception_2a/3x3_reduce"
  top: "inception_2a/3x3_reduce_bn"
  param {
    lr_mult: 1
    decay_mult: 0
  }
  param {
    lr_mult: 1
    decay_mult: 0
  }
  bn_param {
    slope_filler {
      type: "constant"
      value: 1
    }
    bias_filler {
      type: "constant"
      value: 0
    }
  }
}
layer {
  name: "inception_2a/relu_3x3_reduce"
  type: "ReLU"
  bottom: "inception_2a/3x3_reduce_bn"
  top: "inception_2a/3x3_reduce_bn"
}
layer {
  name: "inception_2a/3x3"
  type: "Convolution"
  bottom: "inception_2a/3x3_reduce_bn"
  top: "inception_2a/3x3"
  param {
    lr_mult: 1
    decay_mult: 1
  }
  param {
    lr_mult: 2
    decay_mult: 0
  }
  convolution_param {
    num_output: 128
    pad: 1
    kernel_size: 3
    weight_filler {
      type: "xavier"
    }
    bias_filler {
      type: "constant"
      value: 0.2
    }
  }
}
layer {
  name: "inception_2a/3x3_bn"
  type: "BN"
  bottom: "inception_2a/3x3"
  top: "inception_2a/3x3_bn"
  param {
    lr_mult: 1
    decay_mult: 0
  }
  param {
    lr_mult: 1
    decay_mult: 0
  }
  bn_param {
    slope_filler {
      type: "constant"
      value: 1
    }
    bias_filler {
      type: "constant"
      value: 0
    }
  }
}
layer {
  name: "inception_2a/relu_3x3"
  type: "ReLU"
  bottom: "inception_2a/3x3_bn"
  top: "inception_2a/3x3_bn"
}
layer {
  name: "inception_2a/double_3x3_reduce"
  type: "Convolution"
  bottom: "inception_1b/output"
  top: "inception_2a/double_3x3_reduce"
  param {
    lr_mult: 1
    decay_mult: 1
  }
  param {
    lr_mult: 2
    decay_mult: 0
  }
  convolution_param {
    num_output: 128
    kernel_size: 1
    weight_filler {
      type: "xavier"
    }
    bias_filler {
      type: "constant"
      value: 0.2
    }
  }
}
layer {
  name: "inception_2a/double_3x3_reduce_bn"
  type: "BN"
  bottom: "inception_2a/double_3x3_reduce"
  top: "inception_2a/double_3x3_reduce_bn"
  param {
    lr_mult: 1
    decay_mult: 0
  }
  param {
    lr_mult: 1
    decay_mult: 0
  }
  bn_param {
    slope_filler {
      type: "constant"
      value: 1
    }
    bias_filler {
      type: "constant"
      value: 0
    }
  }
}
layer {
  name: "inception_2a/relu_double_3x3_reduce"
  type: "ReLU"
  bottom: "inception_2a/double_3x3_reduce_bn"
  top: "inception_2a/double_3x3_reduce_bn"
}
layer {
  name: "inception_2a/double_3x3_1"
  type: "Convolution"
  bottom: "inception_2a/double_3x3_reduce_bn"
  top: "inception_2a/double_3x3_1"
  param {
    lr_mult: 1
    decay_mult: 1
  }
  param {
    lr_mult: 2
    decay_mult: 0
  }
  convolution_param {
    num_output: 128
    pad: 1
    kernel_size: 3
    weight_filler {
      type: "xavier"
    }
    bias_filler {
      type: "constant"
      value: 0.2
    }
  }
}
layer {
  name: "inception_2a/double_3x3_1_bn"
  type: "BN"
  bottom: "inception_2a/double_3x3_1"
  top: "inception_2a/double_3x3_1_bn"
  param {
    lr_mult: 1
    decay_mult: 0
  }
  param {
    lr_mult: 1
    decay_mult: 0
  }
  bn_param {
    slope_filler {
      type: "constant"
      value: 1
    }
    bias_filler {
      type: "constant"
      value: 0
    }
  }
}
layer {
  name: "inception_2a/relu_double_3x3_1"
  type: "ReLU"
  bottom: "inception_2a/double_3x3_1_bn"
  top: "inception_2a/double_3x3_1_bn"
}
layer {
  name: "inception_2a/double_3x3_2"
  type: "Convolution"
  bottom: "inception_2a/double_3x3_1_bn"
  top: "inception_2a/double_3x3_2"
  param {
    lr_mult: 1
    decay_mult: 1
  }
  param {
    lr_mult: 2
    decay_mult: 0
  }
  convolution_param {
    num_output: 128
    pad: 1
    kernel_size: 3
    weight_filler {
      type: "xavier"
    }
    bias_filler {
      type: "constant"
      value: 0.2
    }
  }
}
layer {
  name: "inception_2a/double_3x3_2_bn"
  type: "BN"
  bottom: "inception_2a/double_3x3_2"
  top: "inception_2a/double_3x3_2_bn"
  param {
    lr_mult: 1
    decay_mult: 0
  }
  param {
    lr_mult: 1
    decay_mult: 0
  }
  bn_param {
    slope_filler {
      type: "constant"
      value: 1
    }
    bias_filler {
      type: "constant"
      value: 0
    }
  }
}
layer {
  name: "inception_2a/relu_double_3x3_2"
  type: "ReLU"
  bottom: "inception_2a/double_3x3_2_bn"
  top: "inception_2a/double_3x3_2_bn"
}
layer {
  name: "inception_2a/pool"
  type: "Pooling"
  bottom: "inception_1b/output"
  top: "inception_2a/pool"
  pooling_param {
    pool: AVE
    kernel_size: 3
    stride: 1
    pad: 1
  }
}
layer {
  name: "inception_2a/pool_proj"
  type: "Convolution"
  bottom: "inception_2a/pool"
  top: "inception_2a/pool_proj"
  param {
    lr_mult: 1
    decay_mult: 1
  }
  param {
    lr_mult: 2
    decay_mult: 0
  }
  convolution_param {
    num_output: 128
    kernel_size: 1
    weight_filler {
      type: "xavier"
    }
    bias_filler {
      type: "constant"
      value: 0.2
    }
  }
}
layer {
  name: "inception_2a/pool_proj_bn"
  type: "BN"
  bottom: "inception_2a/pool_proj"
  top: "inception_2a/pool_proj_bn"
  param {
    lr_mult: 1
    decay_mult: 0
  }
  param {
    lr_mult: 1
    decay_mult: 0
  }
  bn_param {
    slope_filler {
      type: "constant"
      value: 1
    }
    bias_filler {
      type: "constant"
      value: 0
    }
  }
}
layer {
  name: "inception_2a/relu_pool_proj"
  type: "ReLU"
  bottom: "inception_2a/pool_proj_bn"
  top: "inception_2a/pool_proj_bn"
}
layer {
  name: "inception_2a/output"
  type: "Concat"
  bottom: "inception_2a/1x1_bn"
  bottom: "inception_2a/3x3_bn"
  bottom: "inception_2a/double_3x3_2_bn"
  bottom: "inception_2a/pool_proj_bn"
  top: "inception_2a/output"
}
layer {
  name: "inception_2b/3x3_reduce"
  type: "Convolution"
  bottom: "inception_2a/output"
  top: "inception_2b/3x3_reduce"
  param {
    lr_mult: 1
    decay_mult: 1
  }
  param {
    lr_mult: 2
    decay_mult: 0
  }
  convolution_param {
    num_output: 128
    kernel_size: 1
    weight_filler {
      type: "xavier"
    }
    bias_filler {
      type: "constant"
      value: 0.2
    }
  }
}
layer {
  name: "inception_2b/3x3_reduce_bn"
  type: "BN"
  bottom: "inception_2b/3x3_reduce"
  top: "inception_2b/3x3_reduce_bn"
  param {
    lr_mult: 1
    decay_mult: 0
  }
  param {
    lr_mult: 1
    decay_mult: 0
  }
  bn_param {
    slope_filler {
      type: "constant"
      value: 1
    }
    bias_filler {
      type: "constant"
      value: 0
    }
  }
}
layer {
  name: "inception_2b/relu_3x3_reduce"
  type: "ReLU"
  bottom: "inception_2b/3x3_reduce_bn"
  top: "inception_2b/3x3_reduce_bn"
}
layer {
  name: "inception_2b/3x3"
  type: "Convolution"
  bottom: "inception_2b/3x3_reduce_bn"
  top: "inception_2b/3x3"
  param {
    lr_mult: 1
    decay_mult: 1
  }
  param {
    lr_mult: 2
    decay_mult: 0
  }
  convolution_param {
    num_output: 128
    pad: 1
    kernel_size: 3
    stride: 2
    weight_filler {
      type: "xavier"
    }
    bias_filler {
      type: "constant"
      value: 0.2
    }
  }
}
layer {
  name: "inception_2b/3x3_bn"
  type: "BN"
  bottom: "inception_2b/3x3"
  top: "inception_2b/3x3_bn"
  param {
    lr_mult: 1
    decay_mult: 0
  }
  param {
    lr_mult: 1
    decay_mult: 0
  }
  bn_param {
    slope_filler {
      type: "constant"
      value: 1
    }
    bias_filler {
      type: "constant"
      value: 0
    }
  }
}
layer {
  name: "inception_2b/relu_3x3"
  type: "ReLU"
  bottom: "inception_2b/3x3_bn"
  top: "inception_2b/3x3_bn"
}
layer {
  name: "inception_2b/double_3x3_reduce"
  type: "Convolution"
  bottom: "inception_2a/output"
  top: "inception_2b/double_3x3_reduce"
  param {
    lr_mult: 1
    decay_mult: 1
  }
  param {
    lr_mult: 2
    decay_mult: 0
  }
  convolution_param {
    num_output: 128
    kernel_size: 1
    weight_filler {
      type: "xavier"
    }
    bias_filler {
      type: "constant"
      value: 0.2
    }
  }
}
layer {
  name: "inception_2b/double_3x3_reduce_bn"
  type: "BN"
  bottom: "inception_2b/double_3x3_reduce"
  top: "inception_2b/double_3x3_reduce_bn"
  param {
    lr_mult: 1
    decay_mult: 0
  }
  param {
    lr_mult: 1
    decay_mult: 0
  }
  bn_param {
    slope_filler {
      type: "constant"
      value: 1
    }
    bias_filler {
      type: "constant"
      value: 0
    }
  }
}
layer {
  name: "inception_2b/relu_double_3x3_reduce"
  type: "ReLU"
  bottom: "inception_2b/double_3x3_reduce_bn"
  top: "inception_2b/double_3x3_reduce_bn"
}
layer {
  name: "inception_2b/double_3x3_1"
  type: "Convolution"
  bottom: "inception_2b/double_3x3_reduce_bn"
  top: "inception_2b/double_3x3_1"
  param {
    lr_mult: 1
    decay_mult: 1
  }
  param {
    lr_mult: 2
    decay_mult: 0
  }
  convolution_param {
    num_output: 128
    pad: 1
    kernel_size: 3
    weight_filler {
      type: "xavier"
    }
    bias_filler {
      type: "constant"
      value: 0.2
    }
  }
}
layer {
  name: "inception_2b/double_3x3_1_bn"
  type: "BN"
  bottom: "inception_2b/double_3x3_1"
  top: "inception_2b/double_3x3_1_bn"
  param {
    lr_mult: 1
    decay_mult: 0
  }
  param {
    lr_mult: 1
    decay_mult: 0
  }
  bn_param {
    slope_filler {
      type: "constant"
      value: 1
    }
    bias_filler {
      type: "constant"
      value: 0
    }
  }
}
layer {
  name: "inception_2b/relu_double_3x3_1"
  type: "ReLU"
  bottom: "inception_2b/double_3x3_1_bn"
  top: "inception_2b/double_3x3_1_bn"
}
layer {
  name: "inception_2b/double_3x3_2"
  type: "Convolution"
  bottom: "inception_2b/double_3x3_1_bn"
  top: "inception_2b/double_3x3_2"
  param {
    lr_mult: 1
    decay_mult: 1
  }
  param {
    lr_mult: 2
    decay_mult: 0
  }
  convolution_param {
    num_output: 128
    pad: 1
    kernel_size: 3
    stride: 2
    weight_filler {
      type: "xavier"
    }
    bias_filler {
      type: "constant"
      value: 0.2
    }
  }
}
layer {
  name: "inception_2b/double_3x3_2_bn"
  type: "BN"
  bottom: "inception_2b/double_3x3_2"
  top: "inception_2b/double_3x3_2_bn"
  param {
    lr_mult: 1
    decay_mult: 0
  }
  param {
    lr_mult: 1
    decay_mult: 0
  }
  bn_param {
    slope_filler {
      type: "constant"
      value: 1
    }
    bias_filler {
      type: "constant"
      value: 0
    }
  }
}
layer {
  name: "inception_2b/relu_double_3x3_2"
  type: "ReLU"
  bottom: "inception_2b/double_3x3_2_bn"
  top: "inception_2b/double_3x3_2_bn"
}
layer {
  name: "inception_2b/pool"
  type: "Pooling"
  bottom: "inception_2a/output"
  top: "inception_2b/pool"
  pooling_param {
    pool: MAX
    kernel_size: 3
    stride: 2
  }
}
layer {
  name: "inception_2b/output"
  type: "Concat"
  bottom: "inception_2b/3x3_bn"
  bottom: "inception_2b/double_3x3_2_bn"
  bottom: "inception_2b/pool"
  top: "inception_2b/output"
}
layer {
  name: "inception_3a/1x1"
  type: "Convolution"
  bottom: "inception_2b/output"
  top: "inception_3a/1x1"
  param {
    lr_mult: 1
    decay_mult: 1
  }
  param {
    lr_mult: 2
    decay_mult: 0
  }
  convolution_param {
    num_output: 256
    kernel_size: 1
    weight_filler {
      type: "xavier"
    }
    bias_filler {
      type: "constant"
      value: 0.2
    }
  }
}
layer {
  name: "inception_3a/1x1_bn"
  type: "BN"
  bottom: "inception_3a/1x1"
  top: "inception_3a/1x1_bn"
  param {
    lr_mult: 1
    decay_mult: 0
  }
  param {
    lr_mult: 1
    decay_mult: 0
  }
  bn_param {
    slope_filler {
      type: "constant"
      value: 1
    }
    bias_filler {
      type: "constant"
      value: 0
    }
  }
}
layer {
  name: "inception_3a/relu_1x1"
  type: "ReLU"
  bottom: "inception_3a/1x1_bn"
  top: "inception_3a/1x1_bn"
}
layer {
  name: "inception_3a/3x3_reduce"
  type: "Convolution"
  bottom: "inception_2b/output"
  top: "inception_3a/3x3_reduce"
  param {
    lr_mult: 1
    decay_mult: 1
  }
  param {
    lr_mult: 2
    decay_mult: 0
  }
  convolution_param {
    num_output: 256
    kernel_size: 1
    weight_filler {
      type: "xavier"
    }
    bias_filler {
      type: "constant"
      value: 0.2
    }
  }
}
layer {
  name: "inception_3a/3x3_reduce_bn"
  type: "BN"
  bottom: "inception_3a/3x3_reduce"
  top: "inception_3a/3x3_reduce_bn"
  param {
    lr_mult: 1
    decay_mult: 0
  }
  param {
    lr_mult: 1
    decay_mult: 0
  }
  bn_param {
    slope_filler {
      type: "constant"
      value: 1
    }
    bias_filler {
      type: "constant"
      value: 0
    }
  }
}
layer {
  name: "inception_3a/relu_3x3_reduce"
  type: "ReLU"
  bottom: "inception_3a/3x3_reduce_bn"
  top: "inception_3a/3x3_reduce_bn"
}
layer {
  name: "inception_3a/3x3"
  type: "Convolution"
  bottom: "inception_3a/3x3_reduce_bn"
  top: "inception_3a/3x3"
  param {
    lr_mult: 1
    decay_mult: 1
  }
  param {
    lr_mult: 2
    decay_mult: 0
  }
  convolution_param {
    num_output: 256
    pad: 1
    kernel_size: 3
    weight_filler {
      type: "xavier"
    }
    bias_filler {
      type: "constant"
      value: 0.2
    }
  }
}
layer {
  name: "inception_3a/3x3_bn"
  type: "BN"
  bottom: "inception_3a/3x3"
  top: "inception_3a/3x3_bn"
  param {
    lr_mult: 1
    decay_mult: 0
  }
  param {
    lr_mult: 1
    decay_mult: 0
  }
  bn_param {
    slope_filler {
      type: "constant"
      value: 1
    }
    bias_filler {
      type: "constant"
      value: 0
    }
  }
}
layer {
  name: "inception_3a/relu_3x3"
  type: "ReLU"
  bottom: "inception_3a/3x3_bn"
  top: "inception_3a/3x3_bn"
}
layer {
  name: "inception_3a/double_3x3_reduce"
  type: "Convolution"
  bottom: "inception_2b/output"
  top: "inception_3a/double_3x3_reduce"
  param {
    lr_mult: 1
    decay_mult: 1
  }
  param {
    lr_mult: 2
    decay_mult: 0
  }
  convolution_param {
    num_output: 256
    kernel_size: 1
    weight_filler {
      type: "xavier"
    }
    bias_filler {
      type: "constant"
      value: 0.2
    }
  }
}
layer {
  name: "inception_3a/double_3x3_reduce_bn"
  type: "BN"
  bottom: "inception_3a/double_3x3_reduce"
  top: "inception_3a/double_3x3_reduce_bn"
  param {
    lr_mult: 1
    decay_mult: 0
  }
  param {
    lr_mult: 1
    decay_mult: 0
  }
  bn_param {
    slope_filler {
      type: "constant"
      value: 1
    }
    bias_filler {
      type: "constant"
      value: 0
    }
  }
}
layer {
 
I0417 17:50:07.936733 14761 layer_factory.hpp:74] Creating layer data
I0417 17:50:07.936743 14761 net.cpp:133] Creating Layer data
I0417 17:50:07.936745 14761 net.cpp:411] data -> data
I0417 17:50:07.936750 14761 net.cpp:411] data -> label
I0417 17:50:07.936753 14761 net.cpp:163] Setting up data
I0417 17:50:07.936780 14761 db_lmdb.cpp:22] Opened lmdb external/exp/db/ilids/val_lmdb
I0417 17:50:07.936794 14761 data_layer.cpp:55] Skipping first 0 data points.
I0417 17:50:07.936805 14761 data_layer.cpp:100] output data size: 10,3,144,56
I0417 17:50:07.936851 14761 net.cpp:170] Top shape: 10 3 144 56 (241920)
I0417 17:50:07.936857 14761 net.cpp:170] Top shape: 10 (10)
I0417 17:50:07.936861 14761 layer_factory.hpp:74] Creating layer label_data_1_split
I0417 17:50:07.936866 14761 net.cpp:133] Creating Layer label_data_1_split
I0417 17:50:07.936869 14761 net.cpp:453] label_data_1_split <- label
I0417 17:50:07.936873 14761 net.cpp:411] label_data_1_split -> label_data_1_split_0
I0417 17:50:07.936879 14761 net.cpp:411] label_data_1_split -> label_data_1_split_1
I0417 17:50:07.936884 14761 net.cpp:163] Setting up label_data_1_split
I0417 17:50:07.936889 14761 net.cpp:170] Top shape: 10 (10)
I0417 17:50:07.936892 14761 net.cpp:170] Top shape: 10 (10)
I0417 17:50:07.936894 14761 layer_factory.hpp:74] Creating layer conv1
I0417 17:50:07.936902 14761 net.cpp:133] Creating Layer conv1
I0417 17:50:07.936913 14761 net.cpp:453] conv1 <- data
I0417 17:50:07.936918 14761 net.cpp:411] conv1 -> conv1
I0417 17:50:07.936923 14761 net.cpp:163] Setting up conv1
I0417 17:50:07.970628 14761 net.cpp:170] Top shape: 10 32 144 56 (2580480)
I0417 17:50:07.970639 14761 layer_factory.hpp:74] Creating layer conv1_bn
I0417 17:50:07.970643 14761 layer_factory.cpp:191] Layer conv1_bn is using CAFFE engine.
I0417 17:50:07.970646 14761 net.cpp:133] Creating Layer conv1_bn
I0417 17:50:07.970649 14761 net.cpp:453] conv1_bn <- conv1
I0417 17:50:07.970652 14761 net.cpp:411] conv1_bn -> conv1_bn
I0417 17:50:07.970656 14761 net.cpp:163] Setting up conv1_bn
I0417 17:50:07.970672 14761 net.cpp:170] Top shape: 10 32 144 56 (2580480)
I0417 17:50:07.970679 14761 layer_factory.hpp:74] Creating layer relu1
I0417 17:50:07.970684 14761 net.cpp:133] Creating Layer relu1
I0417 17:50:07.970685 14761 net.cpp:453] relu1 <- conv1_bn
I0417 17:50:07.970687 14761 net.cpp:400] relu1 -> conv1_bn (in-place)
I0417 17:50:07.970690 14761 net.cpp:163] Setting up relu1
I0417 17:50:07.970888 14761 net.cpp:170] Top shape: 10 32 144 56 (2580480)
I0417 17:50:07.970895 14761 layer_factory.hpp:74] Creating layer conv2
I0417 17:50:07.970899 14761 net.cpp:133] Creating Layer conv2
I0417 17:50:07.970902 14761 net.cpp:453] conv2 <- conv1_bn
I0417 17:50:07.970906 14761 net.cpp:411] conv2 -> conv2
I0417 17:50:07.970909 14761 net.cpp:163] Setting up conv2
I0417 17:50:08.060259 14761 net.cpp:170] Top shape: 10 32 144 56 (2580480)
I0417 17:50:08.060271 14761 layer_factory.hpp:74] Creating layer conv2_bn
I0417 17:50:08.060272 14761 layer_factory.cpp:191] Layer conv2_bn is using CAFFE engine.
I0417 17:50:08.060276 14761 net.cpp:133] Creating Layer conv2_bn
I0417 17:50:08.060278 14761 net.cpp:453] conv2_bn <- conv2
I0417 17:50:08.060282 14761 net.cpp:411] conv2_bn -> conv2_bn
I0417 17:50:08.060286 14761 net.cpp:163] Setting up conv2_bn
I0417 17:50:08.060302 14761 net.cpp:170] Top shape: 10 32 144 56 (2580480)
I0417 17:50:08.060309 14761 layer_factory.hpp:74] Creating layer relu2
I0417 17:50:08.060312 14761 net.cpp:133] Creating Layer relu2
I0417 17:50:08.060314 14761 net.cpp:453] relu2 <- conv2_bn
I0417 17:50:08.060317 14761 net.cpp:400] relu2 -> conv2_bn (in-place)
I0417 17:50:08.060319 14761 net.cpp:163] Setting up relu2
I0417 17:50:08.060513 14761 net.cpp:170] Top shape: 10 32 144 56 (2580480)
I0417 17:50:08.060518 14761 layer_factory.hpp:74] Creating layer conv3
I0417 17:50:08.060524 14761 net.cpp:133] Creating Layer conv3
I0417 17:50:08.060526 14761 net.cpp:453] conv3 <- conv2_bn
I0417 17:50:08.060530 14761 net.cpp:411] conv3 -> conv3
I0417 17:50:08.060535 14761 net.cpp:163] Setting up conv3
I0417 17:50:08.149894 14761 net.cpp:170] Top shape: 10 32 144 56 (2580480)
I0417 17:50:08.149904 14761 layer_factory.hpp:74] Creating layer conv3_bn
I0417 17:50:08.149907 14761 layer_factory.cpp:191] Layer conv3_bn is using CAFFE engine.
I0417 17:50:08.149911 14761 net.cpp:133] Creating Layer conv3_bn
I0417 17:50:08.149914 14761 net.cpp:453] conv3_bn <- conv3
I0417 17:50:08.149916 14761 net.cpp:411] conv3_bn -> conv3_bn
I0417 17:50:08.149921 14761 net.cpp:163] Setting up conv3_bn
I0417 17:50:08.149940 14761 net.cpp:170] Top shape: 10 32 144 56 (2580480)
I0417 17:50:08.149947 14761 layer_factory.hpp:74] Creating layer relu3
I0417 17:50:08.149950 14761 net.cpp:133] Creating Layer relu3
I0417 17:50:08.149952 14761 net.cpp:453] relu3 <- conv3_bn
I0417 17:50:08.149955 14761 net.cpp:400] relu3 -> conv3_bn (in-place)
I0417 17:50:08.149957 14761 net.cpp:163] Setting up relu3
I0417 17:50:08.150068 14761 net.cpp:170] Top shape: 10 32 144 56 (2580480)
I0417 17:50:08.150074 14761 layer_factory.hpp:74] Creating layer pool1
I0417 17:50:08.150077 14761 net.cpp:133] Creating Layer pool1
I0417 17:50:08.150079 14761 net.cpp:453] pool1 <- conv3_bn
I0417 17:50:08.150082 14761 net.cpp:411] pool1 -> pool1
I0417 17:50:08.150085 14761 net.cpp:163] Setting up pool1
I0417 17:50:08.150265 14761 net.cpp:170] Top shape: 10 32 72 28 (645120)
I0417 17:50:08.150271 14761 layer_factory.hpp:74] Creating layer pool1_pool1_0_split
I0417 17:50:08.150275 14761 net.cpp:133] Creating Layer pool1_pool1_0_split
I0417 17:50:08.150277 14761 net.cpp:453] pool1_pool1_0_split <- pool1
I0417 17:50:08.150280 14761 net.cpp:411] pool1_pool1_0_split -> pool1_pool1_0_split_0
I0417 17:50:08.150285 14761 net.cpp:411] pool1_pool1_0_split -> pool1_pool1_0_split_1
I0417 17:50:08.150287 14761 net.cpp:411] pool1_pool1_0_split -> pool1_pool1_0_split_2
I0417 17:50:08.150291 14761 net.cpp:411] pool1_pool1_0_split -> pool1_pool1_0_split_3
…
I0417 17:50:09.325841 14761 layer_factory.hpp:74] Creating layer inception_2a/double_3x3_reduce
I0417 17:50:09.325853 14761 net.cpp:133] Creating Layer inception_2a/double_3x3_reduce
I0417 17:50:09.325855 14761 net.cpp:453] inception_2a/double_3x3_reduce <- inception_1b/output_inception_1b/output_0_split_2
I0417 17:50:09.325860 14761 net.cpp:411] inception_2a/double_3x3_reduce -> inception_2a/double_3x3_reduce
I0417 17:50:09.325863 14761 net.cpp:163] Setting up inception_2a/double_3x3_reduce
I0417 17:50:09.433238 14761 net.cpp:170] Top shape: 10 128 36 14 (645120)
I0417 17:50:09.433248 14761 layer_factory.hpp:74] Creating layer inception_2a/double_3x3_reduce_bn
I0417 17:50:09.433250 14761 layer_factory.cpp:191] Layer inception_2a/double_3x3_reduce_bn is using CAFFE engine.
I0417 17:50:09.433255 14761 net.cpp:133] Creating Layer inception_2a/double_3x3_reduce_bn
I0417 17:50:09.433257 14761 net.cpp:453] inception_2a/double_3x3_reduce_bn <- inception_2a/double_3x3_reduce
I0417 17:50:09.433261 14761 net.cpp:411] inception_2a/double_3x3_reduce_bn -> inception_2a/double_3x3_reduce_bn
I0417 17:50:09.433266 14761 net.cpp:163] Setting up inception_2a/double_3x3_reduce_bn
I0417 17:50:09.433276 14761 net.cpp:170] Top shape: 10 128 36 14 (645120)
I0417 17:50:09.433282 14761 layer_factory.hpp:74] Creating layer inception_2a/relu_double_3x3_reduce
I0417 17:50:09.433285 14761 net.cpp:133] Creating Layer inception_2a/relu_double_3x3_reduce
I0417 17:50:09.433287 14761 net.cpp:453] inception_2a/relu_double_3x3_reduce <- inception_2a/double_3x3_reduce_bn
I0417 17:50:09.433290 14761 net.cpp:400] inception_2a/relu_double_3x3_reduce -> inception_2a/double_3x3_reduce_bn (in-place)
I0417 17:50:09.433293 14761 net.cpp:163] Setting up inception_2a/relu_double_3x3_reduce
I0417 17:50:09.433487 14761 net.cpp:170] Top shape: 10 128 36 14 (645120)
I0417 17:50:09.433493 14761 layer_factory.hpp:74] Creating layer inception_2a/double_3x3_1
I0417 17:50:09.433498 14761 net.cpp:133] Creating Layer inception_2a/double_3x3_1
I0417 17:50:09.433501 14761 net.cpp:453] inception_2a/double_3x3_1 <- inception_2a/double_3x3_reduce_bn
I0417 17:50:09.433504 14761 net.cpp:411] inception_2a/double_3x3_1 -> inception_2a/double_3x3_1
I0417 17:50:09.433508 14761 net.cpp:163] Setting up inception_2a/double_3x3_1
I0417 17:50:09.483541 14761 net.cpp:170] Top shape: 10 128 36 14 (645120)
I0417 17:50:09.483551 14761 layer_factory.hpp:74] Creating layer inception_2a/double_3x3_1_bn
I0417 17:50:09.483553 14761 layer_factory.cpp:191] Layer inception_2a/double_3x3_1_bn is using CAFFE engine.
I0417 17:50:09.483557 14761 net.cpp:133] Creating Layer inception_2a/double_3x3_1_bn
I0417 17:50:09.483561 14761 net.cpp:453] inception_2a/double_3x3_1_bn <- inception_2a/double_3x3_1
I0417 17:50:09.483564 14761 net.cpp:411] inception_2a/double_3x3_1_bn -> inception_2a/double_3x3_1_bn
I0417 17:50:09.483569 14761 net.cpp:163] Setting up inception_2a/double_3x3_1_bn
I0417 17:50:09.483578 14761 net.cpp:170] Top shape: 10 128 36 14 (645120)
I0417 17:50:09.483583 14761 layer_factory.hpp:74] Creating layer inception_2a/relu_double_3x3_1
I0417 17:50:09.483587 14761 net.cpp:133] Creating Layer inception_2a/relu_double_3x3_1
I0417 17:50:09.483589 14761 net.cpp:453] inception_2a/relu_double_3x3_1 <- inception_2a/double_3x3_1_bn
I0417 17:50:09.483592 14761 net.cpp:400] inception_2a/relu_double_3x3_1 -> inception_2a/double_3x3_1_bn (in-place)
I0417 17:50:09.483595 14761 net.cpp:163] Setting up inception_2a/relu_double_3x3_1
I0417 17:50:09.483784 14761 net.cpp:170] Top shape: 10 128 36 14 (645120)
I0417 17:50:09.483791 14761 layer_factory.hpp:74] Creating layer inception_2a/double_3x3_2
I0417 17:50:09.483796 14761 net.cpp:133] Creating Layer inception_2a/double_3x3_2
I0417 17:50:09.483798 14761 net.cpp:453] inception_2a/double_3x3_2 <- inception_2a/double_3x3_1_bn
I0417 17:50:09.483803 14761 net.cpp:411] inception_2a/double_3x3_2 -> inception_2a/double_3x3_2
I0417 17:50:09.483806 14761 net.cpp:163] Setting up inception_2a/double_3x3_2
I0417 17:50:09.533573 14761 net.cpp:170] Top shape: 10 128 36 14 (645120)
I0417 17:50:09.533583 14761 layer_factory.hpp:74] Creating layer inception_2a/double_3x3_2_bn
I0417 17:50:09.533586 14761 layer_factory.cpp:191] Layer inception_2a/double_3x3_2_bn is using CAFFE engine.
I0417 17:50:09.533589 14761 net.cpp:133] Creating Layer inception_2a/double_3x3_2_bn
I0417 17:50:09.533592 14761 net.cpp:453] inception_2a/double_3x3_2_bn <- inception_2a/double_3x3_2
I0417 17:50:09.533596 14761 net.cpp:411] inception_2a/double_3x3_2_bn -> inception_2a/double_3x3_2_bn
I0417 17:50:09.533601 14761 net.cpp:163] Setting up inception_2a/double_3x3_2_bn
I0417 17:50:09.533610 14761 net.cpp:170] Top shape: 10 128 36 14 (645120)
I0417 17:50:09.533615 14761 layer_factory.hpp:74] Creating layer inception_2a/relu_double_3x3_2
I0417 17:50:09.533618 14761 net.cpp:133] Creating Layer inception_2a/relu_double_3x3_2
I0417 17:50:09.533620 14761 net.cpp:453] inception_2a/relu_double_3x3_2 <- inception_2a/double_3x3_2_bn
I0417 17:50:09.533623 14761 net.cpp:400] inception_2a/relu_double_3x3_2 -> inception_2a/double_3x3_2_bn (in-place)
I0417 17:50:09.533625 14761 net.cpp:163] Setting up inception_2a/relu_double_3x3_2
I0417 17:50:09.533741 14761 net.cpp:170] Top shape: 10 128 36 14 (645120)
I0417 17:50:09.533746 14761 layer_factory.hpp:74] Creating layer inception_2a/pool
I0417 17:50:09.533748 14761 layer_factory.cpp:64] CUDNN does not support padding or multiple tops. Using Caffe's own pooling layer.
I0417 17:50:09.533751 14761 net.cpp:133] Creating Layer inception_2a/pool
I0417 17:50:09.533753 14761 net.cpp:453] inception_2a/pool <- inception_1b/output_inception_1b/output_0_split_3
I0417 17:50:09.533757 14761 net.cpp:411] inception_2a/pool -> inception_2a/pool
I0417 17:50:09.533761 14761 net.cpp:163] Setting up inception_2a/pool
I0417 17:50:09.533764 14761 net.cpp:170] Top shape: 10 384 36 14 (1935360)
I0417 17:50:09.533766 14761 layer_factory.hpp:74] Creating layer inception_2a/pool_proj
I0417 17:50:09.533771 14761 net.cpp:133] Creating Layer inception_2a/pool_proj
I0417 17:50:09.533772 14761 net.cpp:453] inception_2a/pool_proj <- inception_2a/pool
I0417 17:50:09.533776 14761 net.cpp:411] inception_2a/pool_proj -> inception_2a/pool_proj
I0417 17:50:09.533778 14761 net.cpp:163] Setting up inception_2a/pool_proj
I0417 17:50:09.641099 14761 net.cpp:170] Top shape: 10 128 36 14 (645120)
I0417 17:50:09.641109 14761 layer_factory.hpp:74] Creating layer inception_2a/pool_proj_bn
I0417 17:50:09.641113 14761 layer_factory.cpp:191] Layer inception_2a/pool_proj_bn is using CAFFE engine.
I0417 17:50:09.641116 14761 net.cpp:133] Creating Layer inception_2a/pool_proj_bn
I0417 17:50:09.641119 14761 net.cpp:453] inception_2a/pool_proj_bn <- inception_2a/pool_proj
I0417 17:50:09.641122 14761 net.cpp:411] inception_2a/pool_proj_bn -> inception_2a/pool_proj_bn
I0417 17:50:09.641136 14761 net.cpp:163] Setting up inception_2a/pool_proj_bn
I0417 17:50:09.641146 14761 net.cpp:170] Top shape: 10 128 36 14 (645120)
I0417 17:50:09.641160 14761 layer_factory.hpp:74] Creating layer inception_2a/relu_pool_proj
I0417 17:50:09.641163 14761 net.cpp:133] Creating Layer inception_2a/relu_pool_proj
I0417 17:50:09.641165 14761 net.cpp:453] inception_2a/relu_pool_proj <- inception_2a/pool_proj_bn
I0417 17:50:09.641168 14761 net.cpp:400] inception_2a/relu_pool_proj -> inception_2a/pool_proj_bn (in-place)
I0417 17:50:09.641171 14761 net.cpp:163] Setting up inception_2a/relu_pool_proj
I0417 17:50:09.641366 14761 net.cpp:170] Top shape: 10 128 36 14 (645120)
I0417 17:50:09.641371 14761 layer_factory.hpp:74] Creating layer inception_2a/output
I0417 17:50:09.641376 14761 net.cpp:133] Creating Layer inception_2a/output
I0417 17:50:09.641378 14761 net.cpp:453] inception_2a/output <- inception_2a/1x1_bn
I0417 17:50:09.641381 14761 net.cpp:453] inception_2a/output <- inception_2a/3x3_bn
I0417 17:50:09.641383 14761 net.cpp:453] inception_2a/output <- inception_2a/double_3x3_2_bn
I0417 17:50:09.641386 14761 net.cpp:453] inception_2a/output <- inception_2a/pool_proj_bn
I0417 17:50:09.641388 14761 net.cpp:411] inception_2a/output -> inception_2a/output
I0417 17:50:09.641392 14761 net.cpp:163] Setting up inception_2a/output
I0417 17:50:09.641396 14761 net.cpp:170] Top shape: 10 512 36 14 (2580480)
I0417 17:50:09.641398 14761 layer_factory.hpp:74] Creating layer inception_2a/output_inception_2a/output_0_split
I0417 17:50:09.641402 14761 net.cpp:133] Creating Layer inception_2a/output_inception_2a/output_0_split
I0417 17:50:09.641403 14761 net.cpp:453] inception_2a/output_inception_2a/output_0_split <- inception_2a/output
I0417 17:50:09.641405 14761 net.cpp:411] inception_2a/output_inception_2a/output_0_split -> inception_2a/output_inception_2a/output_0_split_0
I0417 17:50:09.641408 14761 net.cpp:411] inception_2a/output_inception_2a/output_0_split -> inception_2a/output_inception_2a/output_0_split_1
I0417 17:50:09.641412 14761 net.cpp:411] inception_2a/output_inception_2a/output_0_split -> inception_2a/output_inception_2a/output_0_split_2
I0417 17:50:09.641415 14761 net.cpp:163] Setting up inception_2a/output_inception_2a/output_0_split
I0417 17:50:09.641418 14761 net.cpp:170] Top shape: 10 512 36 14 (2580480)
I0417 17:50:09.641420 14761 net.cpp:170] Top shape: 10 512 36 14 (2580480)
I0417 17:50:09.641422 14761 net.cpp:170] Top shape: 10 512 36 14 (2580480)
I0417 17:50:09.641424 14761 layer_factory.hpp:74] Creating layer inception_2b/3x3_reduce
I0417 17:50:09.641429 14761 net.cpp:133] Creating Layer inception_2b/3x3_reduce
I0417 17:50:09.641430 14761 net.cpp:453] inception_2b/3x3_reduce <- inception_2a/output_inception_2a/output_0_split_0
I0417 17:50:09.641434 14761 net.cpp:411] inception_2b/3x3_reduce -> inception_2b/3x3_reduce
I0417 17:50:09.641438 14761 net.cpp:163] Setting up inception_2b/3x3_reduce
I0417 17:50:09.782165 14761 net.cpp:170] Top shape: 10 128 36 14 (645120)
I0417 17:50:09.782176 14761 layer_factory.hpp:74] Creating layer inception_2b/3x3_reduce_bn
I0417 17:50:09.782178 14761 layer_factory.cpp:191] Layer inception_2b/3x3_reduce_bn is using CAFFE engine.
I0417 17:50:09.782182 14761 net.cpp:133] Creating Layer inception_2b/3x3_reduce_bn
I0417 17:50:09.782184 14761 net.cpp:453] inception_2b/3x3_reduce_bn <- inception_2b/3x3_reduce
I0417 17:50:09.782188 14761 net.cpp:411] inception_2b/3x3_reduce_bn -> inception_2b/3x3_reduce_bn
I0417 17:50:09.782193 14761 net.cpp:163] Setting up inception_2b/3x3_reduce_bn
I0417 17:50:09.782202 14761 net.cpp:170] Top shape: 10 128 36 14 (645120)
I0417 17:50:09.782207 14761 layer_factory.hpp:74] Creating layer inception_2b/relu_3x3_reduce
I0417 17:50:09.782210 14761 net.cpp:133] Creating Layer inception_2b/relu_3x3_reduce
I0417 17:50:09.782212 14761 net.cpp:453] inception_2b/relu_3x3_reduce <- inception_2b/3x3_reduce_bn
I0417 17:50:09.782215 14761 net.cpp:400] inception_2b/relu_3x3_reduce -> inception_2b/3x3_reduce_bn (in-place)
I0417 17:50:09.782218 14761 net.cpp:163] Setting up inception_2b/relu_3x3_reduce
I0417 17:50:09.782485 14761 net.cpp:170] Top shape: 10 128 36 14 (645120)
I0417 17:50:09.782491 14761 layer_factory.hpp:74] Creating layer inception_2b/3x3
I0417 17:50:09.782496 14761 net.cpp:133] Creating Layer inception_2b/3x3
I0417 17:50:09.782498 14761 net.cpp:453] inception_2b/3x3 <- inception_2b/3x3_reduce_bn
I0417 17:50:09.782501 14761 net.cpp:411] inception_2b/3x3 -> inception_2b/3x3
I0417 17:50:09.782506 14761 net.cpp:163] Setting up inception_2b/3x3
I0417 17:50:09.790962 14761 net.cpp:170] Top shape: 10 128 18 7 (161280)
I0417 17:50:09.790972 14761 layer_factory.hpp:74] Creating layer inception_2b/3x3_bn
I0417 17:50:09.790976 14761 layer_factory.cpp:191] Layer inception_2b/3x3_bn is using CAFFE engine.
I0417 17:50:09.790979 14761 net.cpp:133] Creating Layer inception_2b/3x3_bn
I0417 17:50:09.790982 14761 net.cpp:453] inception_2b/3x3_bn <- inception_2b/3x3
I0417 17:50:09.790987 14761 net.cpp:411] inception_2b/3x3_bn -> inception_2b/3x3_bn
I0417 17:50:09.790990 14761 net.cpp:163] Setting up inception_2b/3x3_bn
I0417 17:50:09.791002 14761 net.cpp:170] Top shape: 10 128 18 7 (161280)
I0417 17:50:09.791007 14761 layer_factory.hpp:74] Creating layer inception_2b/relu_3x3
I0417 17:50:09.791010 14761 net.cpp:133] Creating Layer inception_2b/relu_3x3
I0417 17:50:09.791013 14761 net.cpp:453] inception_2b/relu_3x3 <- inception_2b/3x3_bn
I0417 17:50:09.791014 14761 net.cpp:400] inception_2b/relu_3x3 -> inception_2b/3x3_bn (in-place)
I0417 17:50:09.791018 14761 net.cpp:163] Setting up inception_2b/relu_3x3
I0417 17:50:09.791131 14761 net.cpp:170] Top shape: 10 128 18 7 (161280)
I0417 17:50:09.791136 14761 layer_factory.hpp:74] Creating layer inception_2b/double_3x3_reduce
I0417 17:50:09.791141 14761 net.cpp:133] Creating Layer inception_2b/double_3x3_reduce
I0417 17:50:09.791142 14761 net.cpp:453] inception_2b/double_3x3_reduce <- inception_2a/output_inception_2a/output_0_split_1
I0417 17:50:09.791146 14761 net.cpp:411] inception_2b/double_3x3_reduce -> inception_2b/double_3x3_reduce
I0417 17:50:09.791151 14761 net.cpp:163] Setting up inception_2b/double_3x3_reduce
I0417 17:50:09.932200 14761 net.cpp:170] Top shape: 10 128 36 14 (645120)
I0417 17:50:09.932211 14761 layer_factory.hpp:74] Creating layer inception_2b/double_3x3_reduce_bn
I0417 17:50:09.932214 14761 layer_factory.cpp:191] Layer inception_2b/double_3x3_reduce_bn is using CAFFE engine.
I0417 17:50:09.932219 14761 net.cpp:133] Creating Layer inception_2b/double_3x3_reduce_bn
I0417 17:50:09.932221 14761 net.cpp:453] inception_2b/double_3x3_reduce_bn <- inception_2b/double_3x3_reduce
I0417 17:50:09.932225 14761 net.cpp:411] inception_2b/double_3x3_reduce_bn -> inception_2b/double_3x3_reduce_bn
I0417 17:50:09.932229 14761 net.cpp:163] Setting up inception_2b/double_3x3_reduce_bn
I0417 17:50:09.932238 14761 net.cpp:170] Top shape: 10 128 36 14 (645120)
I0417 17:50:09.932245 14761 layer_factory.hpp:74] Creating layer inception_2b/relu_double_3x3_reduce
I0417 17:50:09.932247 14761 net.cpp:133] Creating Layer inception_2b/relu_double_3x3_reduce
I0417 17:50:09.932250 14761 net.cpp:453] inception_2b/relu_double_3x3_reduce <- inception_2b/double_3x3_reduce_bn
I0417 17:50:09.932251 14761 net.cpp:400] inception_2b/relu_double_3x3_reduce -> inception_2b/double_3x3_reduce_bn (in-place)
I0417 17:50:09.932255 14761 net.cpp:163] Setting up inception_2b/relu_double_3x3_reduce
I0417 17:50:09.932459 14761 net.cpp:170] Top shape: 10 128 36 14 (645120)
I0417 17:50:09.932466 14761 layer_factory.hpp:74] Creating layer inception_2b/double_3x3_1
I0417 17:50:09.932472 14761 net.cpp:133] Creating Layer inception_2b/double_3x3_1
I0417 17:50:09.932474 14761 net.cpp:453] inception_2b/double_3x3_1 <- inception_2b/double_3x3_reduce_bn
I0417 17:50:09.932477 14761 net.cpp:411] inception_2b/double_3x3_1 -> inception_2b/double_3x3_1
I0417 17:50:09.932482 14761 net.cpp:163] Setting up inception_2b/double_3x3_1
I0417 17:50:09.982625 14761 net.cpp:170] Top shape: 10 128 36 14 (645120)
I0417 17:50:09.982635 14761 layer_factory.hpp:74] Creating layer inception_2b/double_3x3_1_bn
I0417 17:50:09.982637 14761 layer_factory.cpp:191] Layer inception_2b/double_3x3_1_bn is using CAFFE engine.
I0417 17:50:09.982641 14761 net.cpp:133] Creating Layer inception_2b/double_3x3_1_bn
I0417 17:50:09.982645 14761 net.cpp:453] inception_2b/double_3x3_1_bn <- inception_2b/double_3x3_1
I0417 17:50:09.982648 14761 net.cpp:411] inception_2b/double_3x3_1_bn -> inception_2b/double_3x3_1_bn
I0417 17:50:09.982652 14761 net.cpp:163] Setting up inception_2b/double_3x3_1_bn
I0417 17:50:09.982662 14761 net.cpp:170] Top shape: 10 128 36 14 (645120)
I0417 17:50:09.982668 14761 layer_factory.hpp:74] Creating layer inception_2b/relu_double_3x3_1
I0417 17:50:09.982671 14761 net.cpp:133] Creating Layer inception_2b/relu_double_3x3_1
I0417 17:50:09.982673 14761 net.cpp:453] inception_2b/relu_double_3x3_1 <- inception_2b/double_3x3_1_bn
I0417 17:50:09.982676 14761 net.cpp:400] inception_2b/relu_double_3x3_1 -> inception_2b/double_3x3_1_bn (in-place)
I0417 17:50:09.982679 14761 net.cpp:163] Setting up inception_2b/relu_double_3x3_1
I0417 17:50:09.982877 14761 net.cpp:170] Top shape: 10 128 36 14 (645120)
I0417 17:50:09.982883 14761 layer_factory.hpp:74] Creating layer inception_2b/double_3x3_2
I0417 17:50:09.982888 14761 net.cpp:133] Creating Layer inception_2b/double_3x3_2
I0417 17:50:09.982890 14761 net.cpp:453] inception_2b/double_3x3_2 <- inception_2b/double_3x3_1_bn
I0417 17:50:09.982893 14761 net.cpp:411] inception_2b/double_3x3_2 -> inception_2b/double_3x3_2
I0417 17:50:09.982898 14761 net.cpp:163] Setting up inception_2b/double_3x3_2
I0417 17:50:09.990950 14761 net.cpp:170] Top shape: 10 128 18 7 (161280)
I0417 17:50:09.990960 14761 layer_factory.hpp:74] Creating layer inception_2b/double_3x3_2_bn
I0417 17:50:09.990963 14761 layer_factory.cpp:191] Layer inception_2b/double_3x3_2_bn is using CAFFE engine.
I0417 17:50:09.990967 14761 net.cpp:133] Creating Layer inception_2b/double_3x3_2_bn
I0417 17:50:09.990969 14761 net.cpp:453] inception_2b/double_3x3_2_bn <- inception_2b/double_3x3_2
I0417 17:50:09.990973 14761 net.cpp:411] inception_2b/double_3x3_2_bn -> inception_2b/double_3x3_2_bn
I0417 17:50:09.990978 14761 net.cpp:163] Setting up inception_2b/double_3x3_2_bn
I0417 17:50:09.990986 14761 net.cpp:170] Top shape: 10 128 18 7 (161280)
I0417 17:50:09.990993 14761 layer_factory.hpp:74] Creating layer inception_2b/relu_double_3x3_2
I0417 17:50:09.990995 14761 net.cpp:133] Creating Layer inception_2b/relu_double_3x3_2
I0417 17:50:09.990998 14761 net.cpp:453] inception_2b/relu_double_3x3_2 <- inception_2b/double_3x3_2_bn
I0417 17:50:09.991000 14761 net.cpp:400] inception_2b/relu_double_3x3_2 -> inception_2b/double_3x3_2_bn (in-place)
I0417 17:50:09.991003 14761 net.cpp:163] Setting up inception_2b/relu_double_3x3_2
I0417 17:50:09.991122 14761 net.cpp:170] Top shape: 10 128 18 7 (161280)
I0417 17:50:09.991127 14761 layer_factory.hpp:74] Creating layer inception_2b/pool
I0417 17:50:09.991130 14761 net.cpp:133] Creating Layer inception_2b/pool
I0417 17:50:09.991132 14761 net.cpp:453] inception_2b/pool <- inception_2a/output_inception_2a/output_0_split_2
I0417 17:50:09.991137 14761 net.cpp:411] inception_2b/pool -> inception_2b/pool
I0417 17:50:09.991139 14761 net.cpp:163] Setting up inception_2b/pool
I0417 17:50:09.991329 14761 net.cpp:170] Top shape: 10 512 18 7 (645120)
I0417 17:50:09.991335 14761 layer_factory.hpp:74] Creating layer inception_2b/output
I0417 17:50:09.991340 14761 net.cpp:133] Creating Layer inception_2b/output
I0417 17:50:09.991343 14761 net.cpp:453] inception_2b/output <- inception_2b/3x3_bn
I0417 17:50:09.991345 14761 net.cpp:453] inception_2b/output <- inception_2b/double_3x3_2_bn
I0417 17:50:09.991348 14761 net.cpp:453] inception_2b/output <- inception_2b/pool
I0417 17:50:09.991350 14761 net.cpp:411] inception_2b/output -> inception_2b/output
I0417 17:50:09.991354 14761 net.cpp:163] Setting up inception_2b/output
I0417 17:50:09.991358 14761 net.cpp:170] Top shape: 10 768 18 7 (967680)
I0417 17:50:09.991359 14761 layer_factory.hpp:74] Creating layer inception_2b/output_inception_2b/output_0_split
I0417 17:50:09.991363 14761 net.cpp:133] Creating Layer inception_2b/output_inception_2b/output_0_split
I0417 17:50:09.991364 14761 net.cpp:453] inception_2b/output_inception_2b/output_0_split <- inception_2b/output
I0417 17:50:09.991367 14761 net.cpp:411] inception_2b/output_inception_2b/output_0_split -> inception_2b/output_inception_2b/output_0_split_0
I0417 17:50:09.991371 14761 net.cpp:411] inception_2b/output_inception_2b/output_0_split -> inception_2b/output_inception_2b/output_0_split_1
I0417 17:50:09.991375 14761 net.cpp:411] inception_2b/output_inception_2b/output_0_split -> inception_2b/output_inception_2b/output_0_split_2
I0417 17:50:09.991379 14761 net.cpp:411] inception_2b/output_inception_2b/output_0_split -> inception_2b/output_inception_2b/output_0_split_3
I0417 17:50:09.991381 14761 net.cpp:163] Setting up inception_2b/output_inception_2b/output_0_split
I0417 17:50:09.991384 14761 net.cpp:170] Top shape: 10 768 18 7 (967680)
I0417 17:50:09.991386 14761 net.cpp:170] Top shape: 10 768 18 7 (967680)
I0417 17:50:09.991389 14761 net.cpp:170] Top shape: 10 768 18 7 (967680)
I0417 17:50:09.991390 14761 net.cpp:170] Top shape: 10 768 18 7 (967680)
I0417 17:50:09.991391 14761 layer_factory.hpp:74] Creating layer inception_3a/1x1
I0417 17:50:09.991396 14761 net.cpp:133] Creating Layer inception_3a/1x1
I0417 17:50:09.991397 14761 net.cpp:453] inception_3a/1x1 <- inception_2b/output_inception_2b/output_0_split_0
I0417 17:50:09.991402 14761 net.cpp:411] inception_3a/1x1 -> inception_3a/1x1
I0417 17:50:09.991405 14761 net.cpp:163] Setting up inception_3a/1x1
I0417 17:50:10.123088 14761 net.cpp:170] Top shape: 10 256 18 7 (322560)
I0417 17:50:10.123100 14761 layer_factory.hpp:74] Creating layer inception_3a/1x1_bn
I0417 17:50:10.123103 14761 layer_factory.cpp:191] Layer inception_3a/1x1_bn is using CAFFE engine.
I0417 17:50:10.123107 14761 net.cpp:133] Creating Layer inception_3a/1x1_bn
I0417 17:50:10.123109 14761 net.cpp:453] inception_3a/1x1_bn <- inception_3a/1x1
I0417 17:50:10.123114 14761 net.cpp:411] inception_3a/1x1_bn -> inception_3a/1x1_bn
I0417 17:50:10.123118 14761 net.cpp:163] Setting up inception_3a/1x1_bn
I0417 17:50:10.123128 14761 net.cpp:170] Top shape: 10 256 18 7 (322560)
I0417 17:50:10.123133 14761 layer_factory.hpp:74] Creating layer inception_3a/relu_1x1
I0417 17:50:10.123136 14761 net.cpp:133] Creating Layer inception_3a/relu_1x1
I0417 17:50:10.123138 14761 net.cpp:453] inception_3a/relu_1x1 <- inception_3a/1x1_bn
I0417 17:50:10.123141 14761 net.cpp:400] inception_3a/relu_1x1 -> inception_3a/1x1_bn (in-place)
I0417 17:50:10.123144 14761 net.cpp:163] Setting up inception_3a/relu_1x1
I0417 17:50:10.123262 14761 net.cpp:170] Top shape: 10 256 18 7 (322560)
I0417 17:50:10.123267 14761 layer_factory.hpp:74] Creating layer inception_3a/3x3_reduce
I0417 17:50:10.123272 14761 net.cpp:133] Creating Layer inception_3a/3x3_reduce
I0417 17:50:10.123275 14761 net.cpp:453] inception_3a/3x3_reduce <- inception_2b/output_inception_2b/output_0_split_1
I0417 17:50:10.123278 14761 net.cpp:411] inception_3a/3x3_reduce -> inception_3a/3x3_reduce
I0417 17:50:10.123282 14761 net.cpp:163] Setting up inception_3a/3x3_reduce
I0417 17:50:10.254647 14761 net.cpp:170] Top shape: 10 256 18 7 (322560)
I0417 17:50:10.254657 14761 layer_factory.hpp:74] Creating layer inception_3a/3x3_reduce_bn
I0417 17:50:10.254660 14761 layer_factory.cpp:191] Layer inception_3a/3x3_reduce_bn is using CAFFE engine.
I0417 17:50:10.254664 14761 net.cpp:133] Creating Layer inception_3a/3x3_reduce_bn
I0417 17:50:10.254667 14761 net.cpp:453] inception_3a/3x3_reduce_bn <- inception_3a/3x3_reduce
I0417 17:50:10.254672 14761 net.cpp:411] inception_3a/3x3_reduce_bn -> inception_3a/3x3_reduce_bn
I0417 17:50:10.254675 14761 net.cpp:163] Setting up inception_3a/3x3_reduce_bn
I0417 17:50:10.254685 14761 net.cpp:170] Top shape: 10 256 18 7 (322560)
I0417 17:50:10.254690 14761 layer_factory.hpp:74] Creating layer inception_3a/relu_3x3_reduce
I0417 17:50:10.254694 14761 net.cpp:133] Creating Layer inception_3a/relu_3x3_reduce
I0417 17:50:10.254696 14761 net.cpp:453] inception_3a/relu_3x3_reduce <- inception_3a/3x3_reduce_bn
I0417 17:50:10.254698 14761 net.cpp:400] inception_3a/relu_3x3_reduce -> inception_3a/3x3_reduce_bn (in-place)
I0417 17:50:10.254701 14761 net.cpp:163] Setting up inception_3a/relu_3x3_reduce
I0417 17:50:10.254904 14761 net.cpp:170] Top shape: 10 256 18 7 (322560)
I0417 17:50:10.254909 14761 layer_factory.hpp:74] Creating layer inception_3a/3x3
I0417 17:50:10.254914 14761 net.cpp:133] Creating Layer inception_3a/3x3
I0417 17:50:10.254916 14761 net.cpp:453] inception_3a/3x3 <- inception_3a/3x3_reduce_bn
I0417 17:50:10.254920 14761 net.cpp:411] inception_3a/3x3 -> inception_3a/3x3
I0417 17:50:10.254925 14761 net.cpp:163] Setting up inception_3a/3x3
I0417 17:50:10.313596 14761 net.cpp:170] Top shape: 10 256 18 7 (322560)
I0417 17:50:10.313607 14761 layer_factory.hpp:74] Creating layer inception_3a/3x3_bn
I0417 17:50:10.313609 14761 layer_factory.cpp:191] Layer inception_3a/3x3_bn is using CAFFE engine.
I0417 17:50:10.313614 14761 net.cpp:133] Creating Layer inception_3a/3x3_bn
I0417 17:50:10.313616 14761 net.cpp:453] inception_3a/3x3_bn <- inception_3a/3x3
I0417 17:50:10.313621 14761 net.cpp:411] inception_3a/3x3_bn -> inception_3a/3x3_bn
I0417 17:50:10.313626 14761 net.cpp:163] Setting up inception_3a/3x3_bn
I0417 17:50:10.313635 14761 net.cpp:170] Top shape: 10 256 18 7 (322560)
I0417 17:50:10.313640 14761 layer_factory.hpp:74] Creating layer inception_3a/relu_3x3
I0417 17:50:10.313644 14761 net.cpp:133] Creating Layer inception_3a/relu_3x3
I0417 17:50:10.313645 14761 net.cpp:453] inception_3a/relu_3x3 <- inception_3a/3x3_bn
I0417 17:50:10.313648 14761 net.cpp:400] inception_3a/relu_3x3 -> inception_3a/3x3_bn (in-place)
I0417 17:50:10.313652 14761 net.cpp:163] Setting up inception_3a/relu_3x3
I0417 17:50:10.313856 14761 net.cpp:170] Top shape: 10 256 18 7 (322560)
I0417 17:50:10.313863 14761 layer_factory.hpp:74] Creating layer inception_3a/double_3x3_reduce
I0417 17:50:10.313868 14761 net.cpp:133] Creating Layer inception_3a/double_3x3_reduce
I0417 17:50:10.313871 14761 net.cpp:453] inception_3a/double_3x3_reduce <- inception_2b/output_inception_2b/output_0_split_2
I0417 17:50:10.313875 14761 net.cpp:411] inception_3a/double_3x3_reduce -> inception_3a/double_3x3_reduce
I0417 17:50:10.313879 14761 net.cpp:163] Setting up inception_3a/double_3x3_reduce
I0417 17:50:10.444839 14761 net.cpp:170] Top shape: 10 256 18 7 (322560)
I0417 17:50:10.444849 14761 layer_factory.hpp:74] Creating layer inception_3a/double_3x3_reduce_bn
I0417 17:50:10.444852 14761 layer_factory.cpp:191] Layer inception_3a/double_3x3_reduce_bn is using CAFFE engine.
I0417 17:50:10.444856 14761 net.cpp:133] Creating Layer inception_3a/double_3x3_reduce_bn
I0417 17:50:10.444859 14761 net.cpp:453] inception_3a/double_3x3_reduce_bn <- inception_3a/double_3x3_reduce
I0417 17:50:10.444864 14761 net.cpp:411] inception_3a/double_3x3_reduce_bn -> inception_3a/double_3x3_reduce_bn
I0417 17:50:10.444867 14761 net.cpp:163] Setting up inception_3a/double_3x3_reduce_bn
I0417 17:50:10.444877 14761 net.cpp:170] Top shape: 10 256 18 7 (322560)
I0417 17:50:10.444882 14761 layer_factory.hpp:74] Creating layer inception_3a/relu_double_3x3_reduce
I0417 17:50:10.444885 14761 net.cpp:133] Creating Layer inception_3a/relu_double_3x3_reduce
I0417 17:50:10.444887 14761 net.cpp:453] inception_3a/relu_double_3x3_reduce <- inception_3a/double_3x3_reduce_bn
I0417 17:50:10.444890 14761 net.cpp:400] inception_3a/relu_double_3x3_reduce -> inception_3a/double_3x3_reduce_bn (in-place)
I0417 17:50:10.444893 14761 net.cpp:163] Setting up inception_3a/relu_double_3x3_reduce
I0417 17:50:10.445011 14761 net.cpp:170] Top shape: 10 256 18 7 (322560)
I0417 17:50:10.445018 14761 layer_factory.hpp:74] Creating layer inception_3a/double_3x3_1
I0417 17:50:10.445022 14761 net.cpp:133] Creating Layer inception_3a/double_3x3_1
I0417 17:50:10.445024 14761 net.cpp:453] inception_3a/double_3x3_1 <- inception_3a/double_3x3_reduce_bn
I0417 17:50:10.445029 14761 net.cpp:411] inception_3a/double_3x3_1 -> inception_3a/double_3x3_1
I0417 17:50:10.445031 14761 net.cpp:163] Setting up inception_3a/double_3x3_1
I0417 17:50:10.503356 14761 net.cpp:170] Top shape: 10 256 18 7 (322560)
I0417 17:50:10.503367 14761 layer_factory.hpp:74] Creating layer inception_3a/double_3x3_1_bn
I0417 17:50:10.503370 14761 layer_factory.cpp:191] Layer inception_3a/double_3x3_1_bn is using CAFFE engine.
I0417 17:50:10.503373 14761 net.cpp:133] Creating Layer inception_3a/double_3x3_1_bn
I0417 17:50:10.503376 14761 net.cpp:453] inception_3a/double_3x3_1_bn <- inception_3a/double_3x3_1
I0417 17:50:10.503381 14761 net.cpp:411] inception_3a/double_3x3_1_bn -> inception_3a/double_3x3_1_bn
I0417 17:50:10.503384 14761 net.cpp:163] Setting up inception_3a/double_3x3_1_bn
I0417 17:50:10.503394 14761 net.cpp:170] Top shape: 10 256 18 7 (322560)
I0417 17:50:10.503401 14761 layer_factory.hpp:74] Creating layer inception_3a/relu_double_3x3_1
I0417 17:50:10.503404 14761 net.cpp:133] Creating Layer inception_3a/relu_double_3x3_1
I0417 17:50:10.503407 14761 net.cpp:453] inception_3a/relu_double_3x3_1 <- inception_3a/double_3x3_1_bn
I0417 17:50:10.503408 14761 net.cpp:400] inception_3a/relu_double_3x3_1 -> inception_3a/double_3x3_1_bn (in-place)
I0417 17:50:10.503412 14761 net.cpp:163] Setting up inception_3a/relu_double_3x3_1
I0417 17:50:10.503607 14761 net.cpp:170] Top shape: 10 256 18 7 (322560)
I0417 17:50:10.503613 14761 layer_factory.hpp:74] Creating layer inception_3a/double_3x3_2
I0417 17:50:10.503618 14761 net.cpp:133] Creating Layer inception_3a/double_3x3_2
I0417 17:50:10.503620 14761 net.cpp:453] inception_3a/double_3x3_2 <- inception_3a/double_3x3_1_bn
I0417 17:50:10.503625 14761 net.cpp:411] inception_3a/double_3x3_2 -> inception_3a/double_3x3_2
I0417 17:50:10.503629 14761 net.cpp:163] Setting up inception_3a/double_3x3_2
I0417 17:50:10.562367 14761 net.cpp:170] Top shape: 10 256 18 7 (322560)
I0417 17:50:10.562377 14761 layer_factory.hpp:74] Creating layer inception_3a/double_3x3_2_bn
I0417 17:50:10.562379 14761 layer_factory.cpp:191] Layer inception_3a/double_3x3_2_bn is using CAFFE engine.
I0417 17:50:10.562383 14761 net.cpp:133] Creating Layer inception_3a/double_3x3_2_bn
I0417 17:50:10.562386 14761 net.cpp:453] inception_3a/double_3x3_2_bn <- inception_3a/double_3x3_2
I0417 17:50:10.562391 14761 net.cpp:411] inception_3a/double_3x3_2_bn -> inception_3a/double_3x3_2_bn
I0417 17:50:10.562396 14761 net.cpp:163] Setting up inception_3a/double_3x3_2_bn
I0417 17:50:10.562405 14761 net.cpp:170] Top shape: 10 256 18 7 (322560)
I0417 17:50:10.562410 14761 layer_factory.hpp:74] Creating layer inception_3a/relu_double_3x3_2
I0417 17:50:10.562413 14761 net.cpp:133] Creating Layer inception_3a/relu_double_3x3_2
I0417 17:50:10.562415 14761 net.cpp:453] inception_3a/relu_double_3x3_2 <- inception_3a/double_3x3_2_bn
I0417 17:50:10.562418 14761 net.cpp:400] inception_3a/relu_double_3x3_2 -> inception_3a/double_3x3_2_bn (in-place)
I0417 17:50:10.562422 14761 net.cpp:163] Setting up inception_3a/relu_double_3x3_2
I0417 17:50:10.562634 14761 net.cpp:170] Top shape: 10 256 18 7 (322560)
I0417 17:50:10.562640 14761 layer_factory.hpp:74] Creating layer inception_3a/pool
I0417 17:50:10.562644 14761 layer_factory.cpp:64] CUDNN does not support padding or multiple tops. Using Caffe's own pooling layer.
I0417 17:50:10.562646 14761 net.cpp:133] Creating Layer inception_3a/pool
I0417 17:50:10.562649 14761 net.cpp:453] inception_3a/pool <- inception_2b/output_inception_2b/output_0_split_3
I0417 17:50:10.562651 14761 net.cpp:411] inception_3a/pool -> inception_3a/pool
I0417 17:50:10.562656 14761 net.cpp:163] Setting up inception_3a/pool
I0417 17:50:10.562659 14761 net.cpp:170] Top shape: 10 768 18 7 (967680)
I0417 17:50:10.562661 14761 layer_factory.hpp:74] Creating layer inception_3a/pool_proj
I0417 17:50:10.562665 14761 net.cpp:133] Creating Layer inception_3a/pool_proj
I0417 17:50:10.562667 14761 net.cpp:453] inception_3a/pool_proj <- inception_3a/pool
I0417 17:50:10.562670 14761 net.cpp:411] inception_3a/pool_proj -> inception_3a/pool_proj
I0417 17:50:10.562674 14761 net.cpp:163] Setting up inception_3a/pool_proj
I0417 17:50:10.695055 14761 net.cpp:170] Top shape: 10 256 18 7 (322560)
I0417 17:50:10.695065 14761 layer_factory.hpp:74] Creating layer inception_3a/pool_proj_bn
I0417 17:50:10.695066 14761 layer_factory.cpp:191] Layer inception_3a/pool_proj_bn is using CAFFE engine.
I0417 17:50:10.695071 14761 net.cpp:133] Creating Layer inception_3a/pool_proj_bn
I0417 17:50:10.695073 14761 net.cpp:453] inception_3a/pool_proj_bn <- inception_3a/pool_proj
I0417 17:50:10.695077 14761 net.cpp:411] inception_3a/pool_proj_bn -> inception_3a/pool_proj_bn
I0417 17:50:10.695081 14761 net.cpp:163] Setting up inception_3a/pool_proj_bn
I0417 17:50:10.695091 14761 net.cpp:170] Top shape: 10 256 18 7 (322560)
I0417 17:50:10.695096 14761 layer_factory.hpp:74] Creating layer inception_3a/relu_pool_proj
I0417 17:50:10.695099 14761 net.cpp:133] Creating Layer inception_3a/relu_pool_proj
I0417 17:50:10.695101 14761 net.cpp:453] inception_3a/relu_pool_proj <- inception_3a/pool_proj_bn
I0417 17:50:10.695103 14761 net.cpp:400] inception_3a/relu_pool_proj -> inception_3a/pool_proj_bn (in-place)
I0417 17:50:10.695106 14761 net.cpp:163] Setting up inception_3a/relu_pool_proj
I0417 17:50:10.695225 14761 net.cpp:170] Top shape: 10 256 18 7 (322560)
I0417 17:50:10.695230 14761 layer_factory.hpp:74] Creating layer inception_3a/output
I0417 17:50:10.695235 14761 net.cpp:133] Creating Layer inception_3a/output
I0417 17:50:10.695237 14761 net.cpp:453] inception_3a/output <- inception_3a/1x1_bn
I0417 17:50:10.695240 14761 net.cpp:453] inception_3a/output <- inception_3a/3x3_bn
I0417 17:50:10.695242 14761 net.cpp:453] inception_3a/output <- inception_3a/double_3x3_2_bn
I0417 17:50:10.695243 14761 net.cpp:453] inception_3a/output <- inception_3a/pool_proj_bn
I0417 17:50:10.695246 14761 net.cpp:411] inception_3a/output -> inception_3a/output
I0417 17:50:10.695250 14761 net.cpp:163] Setting up inception_3a/output
I0417 17:50:10.695253 14761 net.cpp:170] Top shape: 10 1024 18 7 (1290240)
I0417 17:50:10.695255 14761 layer_factory.hpp:74] Creating layer inception_3a/output_inception_3a/output_0_split
I0417 17:50:10.695258 14761 net.cpp:133] Creating Layer inception_3a/output_inception_3a/output_0_split
I0417 17:50:10.695261 14761 net.cpp:453] inception_3a/output_inception_3a/output_0_split <- inception_3a/output
I0417 17:50:10.695263 14761 net.cpp:411] inception_3a/output_inception_3a/output_0_split -> inception_3a/output_inception_3a/output_0_split_0
I0417 17:50:10.695266 14761 net.cpp:411] inception_3a/output_inception_3a/output_0_split -> inception_3a/output_inception_3a/output_0_split_1
I0417 17:50:10.695271 14761 net.cpp:411] inception_3a/output_inception_3a/output_0_split -> inception_3a/output_inception_3a/output_0_split_2
I0417 17:50:10.695273 14761 net.cpp:163] Setting up inception_3a/output_inception_3a/output_0_split
I0417 17:50:10.695276 14761 net.cpp:170] Top shape: 10 1024 18 7 (1290240)
I0417 17:50:10.695278 14761 net.cpp:170] Top shape: 10 1024 18 7 (1290240)
I0417 17:50:10.695281 14761 net.cpp:170] Top shape: 10 1024 18 7 (1290240)
I0417 17:50:10.695282 14761 layer_factory.hpp:74] Creating layer inception_3b/3x3_reduce
I0417 17:50:10.695286 14761 net.cpp:133] Creating Layer inception_3b/3x3_reduce
I0417 17:50:10.695287 14761 net.cpp:453] inception_3b/3x3_reduce <- inception_3a/output_inception_3a/output_0_split_0
I0417 17:50:10.695291 14761 net.cpp:411] inception_3b/3x3_reduce -> inception_3b/3x3_reduce
I0417 17:50:10.695294 14761 net.cpp:163] Setting up inception_3b/3x3_reduce
I0417 17:50:10.871366 14761 net.cpp:170] Top shape: 10 256 18 7 (322560)
I0417 17:50:10.871378 14761 layer_factory.hpp:74] Creating layer inception_3b/3x3_reduce_bn
I0417 17:50:10.871381 14761 layer_factory.cpp:191] Layer inception_3b/3x3_reduce_bn is using CAFFE engine.
I0417 17:50:10.871387 14761 net.cpp:133] Creating Layer inception_3b/3x3_reduce_bn
I0417 17:50:10.871388 14761 net.cpp:453] inception_3b/3x3_reduce_bn <- inception_3b/3x3_reduce
I0417 17:50:10.871392 14761 net.cpp:411] inception_3b/3x3_reduce_bn -> inception_3b/3x3_reduce_bn
I0417 17:50:10.871397 14761 net.cpp:163] Setting up inception_3b/3x3_reduce_bn
I0417 17:50:10.871407 14761 net.cpp:170] Top shape: 10 256 18 7 (322560)
I0417 17:50:10.871412 14761 layer_factory.hpp:74] Creating layer inception_3b/relu_3x3_reduce
I0417 17:50:10.871417 14761 net.cpp:133] Creating Layer inception_3b/relu_3x3_reduce
I0417 17:50:10.871418 14761 net.cpp:453] inception_3b/relu_3x3_reduce <- inception_3b/3x3_reduce_bn
I0417 17:50:10.871422 14761 net.cpp:400] inception_3b/relu_3x3_reduce -> inception_3b/3x3_reduce_bn (in-place)
I0417 17:50:10.871424 14761 net.cpp:163] Setting up inception_3b/relu_3x3_reduce
I0417 17:50:10.871634 14761 net.cpp:170] Top shape: 10 256 18 7 (322560)
I0417 17:50:10.871639 14761 layer_factory.hpp:74] Creating layer inception_3b/3x3
I0417 17:50:10.871644 14761 net.cpp:133] Creating Layer inception_3b/3x3
I0417 17:50:10.871646 14761 net.cpp:453] inception_3b/3x3 <- inception_3b/3x3_reduce_bn
I0417 17:50:10.871650 14761 net.cpp:411] inception_3b/3x3 -> inception_3b/3x3
I0417 17:50:10.871654 14761 net.cpp:163] Setting up inception_3b/3x3
I0417 17:50:10.883692 14761 net.cpp:170] Top shape: 10 256 9 4 (92160)
I0417 17:50:10.883702 14761 layer_factory.hpp:74] Creating layer inception_3b/3x3_bn
I0417 17:50:10.883705 14761 layer_factory.cpp:191] Layer inception_3b/3x3_bn is using CAFFE engine.
I0417 17:50:10.883709 14761 net.cpp:133] Creating Layer inception_3b/3x3_bn
I0417 17:50:10.883711 14761 net.cpp:453] inception_3b/3x3_bn <- inception_3b/3x3
I0417 17:50:10.883715 14761 net.cpp:411] inception_3b/3x3_bn -> inception_3b/3x3_bn
I0417 17:50:10.883719 14761 net.cpp:163] Setting up inception_3b/3x3_bn
I0417 17:50:10.883728 14761 net.cpp:170] Top shape: 10 256 9 4 (92160)
I0417 17:50:10.883733 14761 layer_factory.hpp:74] Creating layer inception_3b/relu_3x3
I0417 17:50:10.883736 14761 net.cpp:133] Creating Layer inception_3b/relu_3x3
I0417 17:50:10.883738 14761 net.cpp:453] inception_3b/relu_3x3 <- inception_3b/3x3_bn
I0417 17:50:10.883741 14761 net.cpp:400] inception_3b/relu_3x3 -> inception_3b/3x3_bn (in-place)
I0417 17:50:10.883745 14761 net.cpp:163] Setting up inception_3b/relu_3x3
I0417 17:50:10.883956 14761 net.cpp:170] Top shape: 10 256 9 4 (92160)
I0417 17:50:10.883962 14761 layer_factory.hpp:74] Creating layer inception_3b/double_3x3_reduce
I0417 17:50:10.883968 14761 net.cpp:133] Creating Layer inception_3b/double_3x3_reduce
I0417 17:50:10.883970 14761 net.cpp:453] inception_3b/double_3x3_reduce <- inception_3a/output_inception_3a/output_0_split_1
I0417 17:50:10.883975 14761 net.cpp:411] inception_3b/double_3x3_reduce -> inception_3b/double_3x3_reduce
I0417 17:50:10.883978 14761 net.cpp:163] Setting up inception_3b/double_3x3_reduce
I0417 17:50:11.059823 14761 net.cpp:170] Top shape: 10 256 18 7 (322560)
I0417 17:50:11.059833 14761 layer_factory.hpp:74] Creating layer inception_3b/double_3x3_reduce_bn
I0417 17:50:11.059835 14761 layer_factory.cpp:191] Layer inception_3b/double_3x3_reduce_bn is using CAFFE engine.
I0417 17:50:11.059864 14761 net.cpp:133] Creating Layer inception_3b/double_3x3_reduce_bn
I0417 17:50:11.059867 14761 net.cpp:453] inception_3b/double_3x3_reduce_bn <- inception_3b/double_3x3_reduce
I0417 17:50:11.059871 14761 net.cpp:411] inception_3b/double_3x3_reduce_bn -> inception_3b/double_3x3_reduce_bn
I0417 17:50:11.059875 14761 net.cpp:163] Setting up inception_3b/double_3x3_reduce_bn
I0417 17:50:11.059883 14761 net.cpp:170] Top shape: 10 256 18 7 (322560)
I0417 17:50:11.059890 14761 layer_factory.hpp:74] Creating layer inception_3b/relu_double_3x3_reduce
I0417 17:50:11.059892 14761 net.cpp:133] Creating Layer inception_3b/relu_double_3x3_reduce
I0417 17:50:11.059895 14761 net.cpp:453] inception_3b/relu_double_3x3_reduce <- inception_3b/double_3x3_reduce_bn
I0417 17:50:11.059896 14761 net.cpp:400] inception_3b/relu_double_3x3_reduce -> inception_3b/double_3x3_reduce_bn (in-place)
I0417 17:50:11.059900 14761 net.cpp:163] Setting up inception_3b/relu_double_3x3_reduce
I0417 17:50:11.060019 14761 net.cpp:170] Top shape: 10 256 18 7 (322560)
I0417 17:50:11.060024 14761 layer_factory.hpp:74] Creating layer inception_3b/double_3x3_1
I0417 17:50:11.060029 14761 net.cpp:133] Creating Layer inception_3b/double_3x3_1
I0417 17:50:11.060030 14761 net.cpp:453] inception_3b/double_3x3_1 <- inception_3b/double_3x3_reduce_bn
I0417 17:50:11.060034 14761 net.cpp:411] inception_3b/double_3x3_1 -> inception_3b/double_3x3_1
I0417 17:50:11.060039 14761 net.cpp:163] Setting up inception_3b/double_3x3_1
I0417 17:50:11.118098 14761 net.cpp:170] Top shape: 10 256 18 7 (322560)
I0417 17:50:11.118108 14761 layer_factory.hpp:74] Creating layer inception_3b/double_3x3_1_bn
I0417 17:50:11.118110 14761 layer_factory.cpp:191] Layer inception_3b/double_3x3_1_bn is using CAFFE engine.
I0417 17:50:11.118114 14761 net.cpp:133] Creating Layer inception_3b/double_3x3_1_bn
I0417 17:50:11.118116 14761 net.cpp:453] inception_3b/double_3x3_1_bn <- inception_3b/double_3x3_1
I0417 17:50:11.118120 14761 net.cpp:411] inception_3b/double_3x3_1_bn -> inception_3b/double_3x3_1_bn
I0417 17:50:11.118125 14761 net.cpp:163] Setting up inception_3b/double_3x3_1_bn
I0417 17:50:11.118134 14761 net.cpp:170] Top shape: 10 256 18 7 (322560)
I0417 17:50:11.118140 14761 layer_factory.hpp:74] Creating layer inception_3b/relu_double_3x3_1
I0417 17:50:11.118144 14761 net.cpp:133] Creating Layer inception_3b/relu_double_3x3_1
I0417 17:50:11.118145 14761 net.cpp:453] inception_3b/relu_double_3x3_1 <- inception_3b/double_3x3_1_bn
I0417 17:50:11.118149 14761 net.cpp:400] inception_3b/relu_double_3x3_1 -> inception_3b/double_3x3_1_bn (in-place)
I0417 17:50:11.118151 14761 net.cpp:163] Setting up inception_3b/relu_double_3x3_1
I0417 17:50:11.118350 14761 net.cpp:170] Top shape: 10 256 18 7 (322560)
I0417 17:50:11.118356 14761 layer_factory.hpp:74] Creating layer inception_3b/double_3x3_2
I0417 17:50:11.118361 14761 net.cpp:133] Creating Layer inception_3b/double_3x3_2
I0417 17:50:11.118363 14761 net.cpp:453] inception_3b/double_3x3_2 <- inception_3b/double_3x3_1_bn
I0417 17:50:11.118367 14761 net.cpp:411] inception_3b/double_3x3_2 -> inception_3b/double_3x3_2
I0417 17:50:11.118371 14761 net.cpp:163] Setting up inception_3b/double_3x3_2
I0417 17:50:11.130448 14761 net.cpp:170] Top shape: 10 256 9 4 (92160)
I0417 17:50:11.130458 14761 layer_factory.hpp:74] Creating layer inception_3b/double_3x3_2_bn
I0417 17:50:11.130461 14761 layer_factory.cpp:191] Layer inception_3b/double_3x3_2_bn is using CAFFE engine.
I0417 17:50:11.130465 14761 net.cpp:133] Creating Layer inception_3b/double_3x3_2_bn
I0417 17:50:11.130467 14761 net.cpp:453] inception_3b/double_3x3_2_bn <- inception_3b/double_3x3_2
I0417 17:50:11.130471 14761 net.cpp:411] inception_3b/double_3x3_2_bn -> inception_3b/double_3x3_2_bn
I0417 17:50:11.130476 14761 net.cpp:163] Setting up inception_3b/double_3x3_2_bn
I0417 17:50:11.130486 14761 net.cpp:170] Top shape: 10 256 9 4 (92160)
I0417 17:50:11.130491 14761 layer_factory.hpp:74] Creating layer inception_3b/relu_double_3x3_2
I0417 17:50:11.130494 14761 net.cpp:133] Creating Layer inception_3b/relu_double_3x3_2
I0417 17:50:11.130496 14761 net.cpp:453] inception_3b/relu_double_3x3_2 <- inception_3b/double_3x3_2_bn
I0417 17:50:11.130498 14761 net.cpp:400] inception_3b/relu_double_3x3_2 -> inception_3b/double_3x3_2_bn (in-place)
I0417 17:50:11.130501 14761 net.cpp:163] Setting up inception_3b/relu_double_3x3_2
I0417 17:50:11.130707 14761 net.cpp:170] Top shape: 10 256 9 4 (92160)
I0417 17:50:11.130712 14761 layer_factory.hpp:74] Creating layer inception_3b/pool
I0417 17:50:11.130715 14761 layer_factory.cpp:64] CUDNN does not support padding or multiple tops. Using Caffe's own pooling layer.
I0417 17:50:11.130718 14761 net.cpp:133] Creating Layer inception_3b/pool
I0417 17:50:11.130720 14761 net.cpp:453] inception_3b/pool <- inception_3a/output_inception_3a/output_0_split_2
I0417 17:50:11.130725 14761 net.cpp:411] inception_3b/pool -> inception_3b/pool
I0417 17:50:11.130729 14761 net.cpp:163] Setting up inception_3b/pool
I0417 17:50:11.130733 14761 net.cpp:170] Top shape: 10 1024 9 4 (368640)
I0417 17:50:11.130735 14761 layer_factory.hpp:74] Creating layer inception_3b/output
I0417 17:50:11.130738 14761 net.cpp:133] Creating Layer inception_3b/output
I0417 17:50:11.130739 14761 net.cpp:453] inception_3b/output <- inception_3b/3x3_bn
I0417 17:50:11.130743 14761 net.cpp:453] inception_3b/output <- inception_3b/double_3x3_2_bn
I0417 17:50:11.130744 14761 net.cpp:453] inception_3b/output <- inception_3b/pool
I0417 17:50:11.130748 14761 net.cpp:411] inception_3b/output -> inception_3b/output
I0417 17:50:11.130750 14761 net.cpp:163] Setting up inception_3b/output
I0417 17:50:11.130753 14761 net.cpp:170] Top shape: 10 1536 9 4 (552960)
I0417 17:50:11.130755 14761 layer_factory.hpp:74] Creating layer global_pool
I0417 17:50:11.130759 14761 net.cpp:133] Creating Layer global_pool
I0417 17:50:11.130759 14761 net.cpp:453] global_pool <- inception_3b/output
I0417 17:50:11.130762 14761 net.cpp:411] global_pool -> global_pool
I0417 17:50:11.130766 14761 net.cpp:163] Setting up global_pool
I0417 17:50:11.130875 14761 net.cpp:170] Top shape: 10 1536 1 1 (15360)
I0417 17:50:11.130879 14761 layer_factory.hpp:74] Creating layer gather_global_pool_to_fc7
I0417 17:50:11.130882 14761 net.cpp:133] Creating Layer gather_global_pool_to_fc7
I0417 17:50:11.130884 14761 net.cpp:453] gather_global_pool_to_fc7 <- global_pool
I0417 17:50:11.130888 14761 net.cpp:411] gather_global_pool_to_fc7 -> gathered_global_pool
I0417 17:50:11.130892 14761 net.cpp:163] Setting up gather_global_pool_to_fc7
I0417 17:50:11.130894 14761 net.cpp:170] Top shape: 20 1536 1 1 (30720)
I0417 17:50:11.130895 14761 layer_factory.hpp:74] Creating layer fc7
I0417 17:50:11.130899 14761 net.cpp:133] Creating Layer fc7
I0417 17:50:11.130902 14761 net.cpp:453] fc7 <- gathered_global_pool
I0417 17:50:11.130904 14761 net.cpp:411] fc7 -> fc7
I0417 17:50:11.130908 14761 net.cpp:163] Setting up fc7
I0417 17:50:11.132438 14761 net.cpp:170] Top shape: 20 256 (5120)
I0417 17:50:11.132444 14761 layer_factory.hpp:74] Creating layer fc7_bn
I0417 17:50:11.132447 14761 layer_factory.cpp:191] Layer fc7_bn is using CAFFE engine.
I0417 17:50:11.132450 14761 net.cpp:133] Creating Layer fc7_bn
I0417 17:50:11.132452 14761 net.cpp:453] fc7_bn <- fc7
I0417 17:50:11.132455 14761 net.cpp:411] fc7_bn -> fc7_bn
I0417 17:50:11.132458 14761 net.cpp:163] Setting up fc7_bn
I0417 17:50:11.132467 14761 net.cpp:170] Top shape: 20 256 (5120)
I0417 17:50:11.132472 14761 layer_factory.hpp:74] Creating layer relu7
I0417 17:50:11.132473 14761 net.cpp:133] Creating Layer relu7
I0417 17:50:11.132475 14761 net.cpp:453] relu7 <- fc7_bn
I0417 17:50:11.132477 14761 net.cpp:400] relu7 -> fc7_bn (in-place)
I0417 17:50:11.132479 14761 net.cpp:163] Setting up relu7
I0417 17:50:11.132673 14761 net.cpp:170] Top shape: 20 256 (5120)
I0417 17:50:11.132678 14761 layer_factory.hpp:74] Creating layer drop7
I0417 17:50:11.132683 14761 net.cpp:133] Creating Layer drop7
I0417 17:50:11.132684 14761 net.cpp:453] drop7 <- fc7_bn
I0417 17:50:11.132686 14761 net.cpp:400] drop7 -> fc7_bn (in-place)
I0417 17:50:11.132689 14761 net.cpp:163] Setting up drop7
I0417 17:50:11.132694 14761 net.cpp:170] Top shape: 20 256 (5120)
I0417 17:50:11.132694 14761 layer_factory.hpp:74] Creating layer fc8_ilids
I0417 17:50:11.132699 14761 net.cpp:133] Creating Layer fc8_ilids
I0417 17:50:11.132700 14761 net.cpp:453] fc8_ilids <- fc7_bn
I0417 17:50:11.132704 14761 net.cpp:411] fc8_ilids -> fc8_ilids
I0417 17:50:11.132707 14761 net.cpp:163] Setting up fc8_ilids
I0417 17:50:11.132925 14761 net.cpp:170] Top shape: 20 119 (2380)
I0417 17:50:11.132930 14761 layer_factory.hpp:74] Creating layer fc8_ilids_fc8_ilids_0_split
I0417 17:50:11.132932 14761 net.cpp:133] Creating Layer fc8_ilids_fc8_ilids_0_split
I0417 17:50:11.132935 14761 net.cpp:453] fc8_ilids_fc8_ilids_0_split <- fc8_ilids
I0417 17:50:11.132937 14761 net.cpp:411] fc8_ilids_fc8_ilids_0_split -> fc8_ilids_fc8_ilids_0_split_0
I0417 17:50:11.132941 14761 net.cpp:411] fc8_ilids_fc8_ilids_0_split -> fc8_ilids_fc8_ilids_0_split_1
I0417 17:50:11.132943 14761 net.cpp:163] Setting up fc8_ilids_fc8_ilids_0_split
I0417 17:50:11.132946 14761 net.cpp:170] Top shape: 20 119 (2380)
I0417 17:50:11.132948 14761 net.cpp:170] Top shape: 20 119 (2380)
I0417 17:50:11.132949 14761 layer_factory.hpp:74] Creating layer gather_label_data_1_split_to_loss
I0417 17:50:11.132952 14761 net.cpp:133] Creating Layer gather_label_data_1_split_to_loss
I0417 17:50:11.132954 14761 net.cpp:453] gather_label_data_1_split_to_loss <- label_data_1_split_0
I0417 17:50:11.132957 14761 net.cpp:411] gather_label_data_1_split_to_loss -> gathered_label_data_1_split_0
I0417 17:50:11.132961 14761 net.cpp:163] Setting up gather_label_data_1_split_to_loss
I0417 17:50:11.132962 14761 net.cpp:170] Top shape: 20 (20)
I0417 17:50:11.132964 14761 layer_factory.hpp:74] Creating layer loss
I0417 17:50:11.132966 14761 net.cpp:133] Creating Layer loss
I0417 17:50:11.132968 14761 net.cpp:453] loss <- fc8_ilids_fc8_ilids_0_split_0
I0417 17:50:11.132971 14761 net.cpp:453] loss <- gathered_label_data_1_split_0
I0417 17:50:11.132974 14761 net.cpp:411] loss -> loss
I0417 17:50:11.132977 14761 net.cpp:163] Setting up loss
I0417 17:50:11.132979 14761 layer_factory.hpp:74] Creating layer loss
I0417 17:50:11.133096 14761 net.cpp:170] Top shape: (1)
I0417 17:50:11.133101 14761 net.cpp:172]     with loss weight 1
I0417 17:50:11.133106 14761 layer_factory.hpp:74] Creating layer gather_label_data_1_split_to_accuracy
I0417 17:50:11.133110 14761 net.cpp:133] Creating Layer gather_label_data_1_split_to_accuracy
I0417 17:50:11.133111 14761 net.cpp:453] gather_label_data_1_split_to_accuracy <- label_data_1_split_1
I0417 17:50:11.133114 14761 net.cpp:411] gather_label_data_1_split_to_accuracy -> gathered_label_data_1_split_1
I0417 17:50:11.133118 14761 net.cpp:163] Setting up gather_label_data_1_split_to_accuracy
I0417 17:50:11.133121 14761 net.cpp:170] Top shape: 20 (20)
I0417 17:50:11.133122 14761 layer_factory.hpp:74] Creating layer accuracy
I0417 17:50:11.133126 14761 net.cpp:133] Creating Layer accuracy
I0417 17:50:11.133126 14761 net.cpp:453] accuracy <- fc8_ilids_fc8_ilids_0_split_1
I0417 17:50:11.133128 14761 net.cpp:453] accuracy <- gathered_label_data_1_split_1
I0417 17:50:11.133132 14761 net.cpp:411] accuracy -> accuracy
I0417 17:50:11.133136 14761 net.cpp:163] Setting up accuracy
…
