…
I0417 18:21:47.243887 26635 net.cpp:330] The NetState phase (0) differed from the phase (1) specified by a rule in layer accuracy
I0417 18:21:47.244577 26635 net.cpp:47] Initializing net from parameters: 
name: "JSTL"
state {
  phase: TRAIN
}
richness: 1000
layer {
  name: "data"
  type: "Data"
  top: "data"
  top: "label"
  include {
    phase: TRAIN
  }
  transform_param {
    mirror: true
    mean_value: 102
    mean_value: 102
    mean_value: 101
    crop_height: 144
    crop_width: 56
  }
  data_param {
    source: "external/exp/db/jstl/train_lmdb"
    batch_size: 50
    backend: LMDB
    shuffle_pool_size: 10
  }
}
layer {
  name: "conv1"
  type: "Convolution"
  bottom: "data"
  top: "conv1"
  param {
    lr_mult: 1
    decay_mult: 1
  }
  param {
    lr_mult: 2
    decay_mult: 0
  }
  convolution_param {
    num_output: 32
    pad: 1
    kernel_size: 3
    stride: 1
    weight_filler {
      type: "xavier"
    }
    bias_filler {
      type: "constant"
      value: 0.2
    }
  }
}
layer {
  name: "conv1_bn"
  type: "BN"
  bottom: "conv1"
  top: "conv1_bn"
  param {
    lr_mult: 1
    decay_mult: 0
  }
  param {
    lr_mult: 1
    decay_mult: 0
  }
  bn_param {
    slope_filler {
      type: "constant"
      value: 1
    }
    bias_filler {
      type: "constant"
      value: 0
    }
  }
}
layer {
  name: "relu1"
  type: "ReLU"
  bottom: "conv1_bn"
  top: "conv1_bn"
}
layer {
  name: "conv2"
  type: "Convolution"
  bottom: "conv1_bn"
  top: "conv2"
  param {
    lr_mult: 1
    decay_mult: 1
  }
  param {
    lr_mult: 2
    decay_mult: 0
  }
  convolution_param {
    num_output: 32
    pad: 1
    kernel_size: 3
    stride: 1
    weight_filler {
      type: "xavier"
    }
    bias_filler {
      type: "constant"
      value: 0.2
    }
  }
}
layer {
  name: "conv2_bn"
  type: "BN"
  bottom: "conv2"
  top: "conv2_bn"
  param {
    lr_mult: 1
    decay_mult: 0
  }
  param {
    lr_mult: 1
    decay_mult: 0
  }
  bn_param {
    slope_filler {
      type: "constant"
      value: 1
    }
    bias_filler {
      type: "constant"
      value: 0
    }
  }
}
layer {
  name: "relu2"
  type: "ReLU"
  bottom: "conv2_bn"
  top: "conv2_bn"
}
layer {
  name: "conv3"
  type: "Convolution"
  bottom: "conv2_bn"
  top: "conv3"
  param {
    lr_mult: 1
    decay_mult: 1
  }
  param {
    lr_mult: 2
    decay_mult: 0
  }
  convolution_param {
    num_output: 32
    pad: 1
    kernel_size: 3
    stride: 1
    weight_filler {
      type: "xavier"
    }
    bias_filler {
      type: "constant"
      value: 0.2
    }
  }
}
layer {
  name: "conv3_bn"
  type: "BN"
  bottom: "conv3"
  top: "conv3_bn"
  param {
    lr_mult: 1
    decay_mult: 0
  }
  param {
    lr_mult: 1
    decay_mult: 0
  }
  bn_param {
    slope_filler {
      type: "constant"
      value: 1
    }
    bias_filler {
      type: "constant"
      value: 0
    }
  }
}
layer {
  name: "relu3"
  type: "ReLU"
  bottom: "conv3_bn"
  top: "conv3_bn"
}
layer {
  name: "pool1"
  type: "Pooling"
  bottom: "conv3_bn"
  top: "pool1"
  pooling_param {
    pool: MAX
    kernel_size: 2
    stride: 2
  }
}
layer {
  name: "inception_1a/1x1"
  type: "Convolution"
  bottom: "pool1"
  top: "inception_1a/1x1"
  param {
    lr_mult: 1
    decay_mult: 1
  }
  param {
    lr_mult: 2
    decay_mult: 0
  }
  convolution_param {
    num_output: 64
    kernel_size: 1
    weight_filler {
      type: "xavier"
    }
    bias_filler {
      type: "constant"
      value: 0.2
    }
  }
}
layer {
  name: "inception_1a/1x1_bn"
  type: "BN"
  bottom: "inception_1a/1x1"
  top: "inception_1a/1x1_bn"
  param {
    lr_mult: 1
    decay_mult: 0
  }
  param {
    lr_mult: 1
    decay_mult: 0
  }
  bn_param {
    slope_filler {
      type: "constant"
      value: 1
    }
    bias_filler {
      type: "constant"
      value: 0
    }
  }
}
layer {
  name: "inception_1a/relu_1x1"
  type: "ReLU"
  bottom: "inception_1a/1x1_bn"
  top: "inception_1a/1x1_bn"
}
layer {
  name: "inception_1a/3x3_reduce"
  type: "Convolution"
  bottom: "pool1"
  top: "inception_1a/3x3_reduce"
  param {
    lr_mult: 1
    decay_mult: 1
  }
  param {
    lr_mult: 2
    decay_mult: 0
  }
  convolution_param {
    num_output: 64
    kernel_size: 1
    weight_filler {
      type: "xavier"
    }
    bias_filler {
      type: "constant"
      value: 0.2
    }
  }
}
layer {
  name: "inception_1a/3x3_reduce_bn"
  type: "BN"
  bottom: "inception_1a/3x3_reduce"
  top: "inception_1a/3x3_reduce_bn"
  param {
    lr_mult: 1
    decay_mult: 0
  }
  param {
    lr_mult: 1
    decay_mult: 0
  }
  bn_param {
    slope_filler {
      type: "constant"
      value: 1
    }
    bias_filler {
      type: "constant"
      value: 0
    }
  }
}
layer {
  name: "inception_1a/relu_3x3_reduce"
  type: "ReLU"
  bottom: "inception_1a/3x3_reduce_bn"
  top: "inception_1a/3x3_reduce_bn"
}
layer {
  name: "inception_1a/3x3"
  type: "Convolution"
  bottom: "inception_1a/3x3_reduce_bn"
  top: "inception_1a/3x3"
  param {
    lr_mult: 1
    decay_mult: 1
  }
  param {
    lr_mult: 2
    decay_mult: 0
  }
  convolution_param {
    num_output: 64
    pad: 1
    kernel_size: 3
    weight_filler {
      type: "xavier"
    }
    bias_filler {
      type: "constant"
      value: 0.2
    }
  }
}
layer {
  name: "inception_1a/3x3_bn"
  type: "BN"
  bottom: "inception_1a/3x3"
  top: "inception_1a/3x3_bn"
  param {
    lr_mult: 1
    decay_mult: 0
  }
  param {
    lr_mult: 1
    decay_mult: 0
  }
  bn_param {
    slope_filler {
      type: "constant"
      value: 1
    }
    bias_filler {
      type: "constant"
      value: 0
    }
  }
}
layer {
  name: "inception_1a/relu_3x3"
  type: "ReLU"
  bottom: "inception_1a/3x3_bn"
  top: "inception_1a/3x3_bn"
}
layer {
  name: "inception_1a/double_3x3_reduce"
  type: "Convolution"
  bottom: "pool1"
  top: "inception_1a/double_3x3_reduce"
  param {
    lr_mult: 1
    decay_mult: 1
  }
  param {
    lr_mult: 2
    decay_mult: 0
  }
  convolution_param {
    num_output: 64
    kernel_size: 1
    weight_filler {
      type: "xavier"
    }
    bias_filler {
      type: "constant"
      value: 0.2
    }
  }
}
layer {
  name: "inception_1a/double_3x3_reduce_bn"
  type: "BN"
  bottom: "inception_1a/double_3x3_reduce"
  top: "inception_1a/double_3x3_reduce_bn"
  param {
    lr_mult: 1
    decay_mult: 0
  }
  param {
    lr_mult: 1
    decay_mult: 0
  }
  bn_param {
    slope_filler {
      type: "constant"
      value: 1
    }
    bias_filler {
      type: "constant"
      value: 0
    }
  }
}
layer {
  name: "inception_1a/relu_double_3x3_reduce"
  type: "ReLU"
  bottom: "inception_1a/double_3x3_reduce_bn"
  top: "inception_1a/double_3x3_reduce_bn"
}
layer {
  name: "inception_1a/double_3x3_1"
  type: "Convolution"
  bottom: "inception_1a/double_3x3_reduce_bn"
  top: "inception_1a/double_3x3_1"
  param {
    lr_mult: 1
    decay_mult: 1
  }
  param {
    lr_mult: 2
    decay_mult: 0
  }
  convolution_param {
    num_output: 64
    pad: 1
    kernel_size: 3
    weight_filler {
      type: "xavier"
    }
    bias_filler {
      type: "constant"
      value: 0.2
    }
  }
}
layer {
  name: "inception_1a/double_3x3_1_bn"
  type: "BN"
  bottom: "inception_1a/double_3x3_1"
  top: "inception_1a/double_3x3_1_bn"
  param {
    lr_mult: 1
    decay_mult: 0
  }
  param {
    lr_mult: 1
    decay_mult: 0
  }
  bn_param {
    slope_filler {
      type: "constant"
      value: 1
    }
    bias_filler {
      type: "constant"
      value: 0
    }
  }
}
layer {
  name: "inception_1a/relu_double_3x3_1"
  type: "ReLU"
  bottom: "inception_1a/double_3x3_1_bn"
  top: "inception_1a/double_3x3_1_bn"
}
layer {
  name: "inception_1a/double_3x3_2"
  type: "Convolution"
  bottom: "inception_1a/double_3x3_1_bn"
  top: "inception_1a/double_3x3_2"
  param {
    lr_mult: 1
    decay_mult: 1
  }
  param {
    lr_mult: 2
    decay_mult: 0
  }
  convolution_param {
    num_output: 64
    pad: 1
    kernel_size: 3
    weight_filler {
      type: "xavier"
    }
    bias_filler {
      type: "constant"
      value: 0.2
    }
  }
}
layer {
  name: "inception_1a/double_3x3_2_bn"
  type: "BN"
  bottom: "inception_1a/double_3x3_2"
  top: "inception_1a/double_3x3_2_bn"
  param {
    lr_mult: 1
    decay_mult: 0
  }
  param {
    lr_mult: 1
    decay_mult: 0
  }
  bn_param {
    slope_filler {
      type: "constant"
      value: 1
    }
    bias_filler {
      type: "constant"
      value: 0
    }
  }
}
layer {
  name: "inception_1a/relu_double_3x3_2"
  type: "ReLU"
  bottom: "inception_1a/double_3x3_2_bn"
  top: "inception_1a/double_3x3_2_bn"
}
layer {
  name: "inception_1a/pool"
  type: "Pooling"
  bottom: "pool1"
  top: "inception_1a/pool"
  pooling_param {
    pool: AVE
    kernel_size: 3
    stride: 1
    pad: 1
  }
}
layer {
  name: "inception_1a/pool_proj"
  type: "Convolution"
  bottom: "inception_1a/pool"
  top: "inception_1a/pool_proj"
  param {
    lr_mult: 1
    decay_mult: 1
  }
  param {
    lr_mult: 2
    decay_mult: 0
  }
  convolution_param {
    num_output: 64
    kernel_size: 1
    weight_filler {
      type: "xavier"
    }
    bias_filler {
      type: "constant"
      value: 0.2
    }
  }
}
layer {
  name: "inception_1a/pool_proj_bn"
  type: "BN"
  bottom: "inception_1a/pool_proj"
  top: "inception_1a/pool_proj_bn"
  param {
    lr_mult: 1
    decay_mult: 0
  }
  param {
    lr_mult: 1
    decay_mult: 0
  }
  bn_param {
    slope_filler {
      type: "constant"
      value: 1
    }
    bias_filler {
      type: "constant"
      value: 0
    }
  }
}
layer {
  name: "inception_1a/relu_pool_proj"
  type: "ReLU"
  bottom: "inception_1a/pool_proj_bn"
  top: "inception_1a/pool_proj_bn"
}
layer {
  name: "inception_1a/output"
  type: "Concat"
  bottom: "inception_1a/1x1_bn"
  bottom: "inception_1a/3x3_bn"
  bottom: "inception_1a/double_3x3_2_bn"
  bottom: "inception_1a/pool_proj_bn"
  top: "inception_1a/output"
}
layer {
  name: "inception_1b/3x3_reduce"
  type: "Convolution"
  bottom: "inception_1a/output"
  top: "inception_1b/3x3_reduce"
  param {
    lr_mult: 1
    decay_mult: 1
  }
  param {
    lr_mult: 2
    decay_mult: 0
  }
  convolution_param {
    num_output: 64
    kernel_size: 1
    weight_filler {
      type: "xavier"
    }
    bias_filler {
      type: "constant"
      value: 0.2
    }
  }
}
layer {
  name: "inception_1b/3x3_reduce_bn"
  type: "BN"
  bottom: "inception_1b/3x3_reduce"
  top: "inception_1b/3x3_reduce_bn"
  param {
    lr_mult: 1
    decay_mult: 0
  }
  param {
    lr_mult: 1
    decay_mult: 0
  }
  bn_param {
    slope_filler {
      type: "constant"
      value: 1
    }
    bias_filler {
      type: "constant"
      value: 0
    }
  }
}
layer {
  name: "inception_1b/relu_3x3_reduce"
  type: "ReLU"
  bottom: "inception_1b/3x3_reduce_bn"
  top: "inception_1b/3x3_reduce_bn"
}
layer {
  name: "inception_1b/3x3"
  type: "Convolution"
  bottom: "inception_1b/3x3_reduce_bn"
  top: "inception_1b/3x3"
  param {
    lr_mult: 1
    decay_mult: 1
  }
  param {
    lr_mult: 2
    decay_mult: 0
  }
  convolution_param {
    num_output: 64
    pad: 1
    kernel_size: 3
    stride: 2
    weight_filler {
      type: "xavier"
    }
    bias_filler {
      type: "constant"
      value: 0.2
    }
  }
}
layer {
  name: "inception_1b/3x3_bn"
  type: "BN"
  bottom: "inception_1b/3x3"
  top: "inception_1b/3x3_bn"
  param {
    lr_mult: 1
    decay_mult: 0
  }
  param {
    lr_mult: 1
    decay_mult: 0
  }
  bn_param {
    slope_filler {
      type: "constant"
      value: 1
    }
    bias_filler {
      type: "constant"
      value: 0
    }
  }
}
layer {
  name: "inception_1b/relu_3x3"
  type: "ReLU"
  bottom: "inception_1b/3x3_bn"
  top: "inception_1b/3x3_bn"
}
layer {
  name: "inception_1b/double_3x3_reduce"
  type: "Convolution"
  bottom: "inception_1a/output"
  top: "inception_1b/double_3x3_reduce"
  param {
    lr_mult: 1
    decay_mult: 1
  }
  param {
    lr_mult: 2
    decay_mult: 0
  }
  convolution_param {
    num_output: 64
    kernel_size: 1
    weight_filler {
      type: "xavier"
    }
    bias_filler {
      type: "constant"
      value: 0.2
    }
  }
}
layer {
  name: "inception_1b/double_3x3_reduce_bn"
  type: "BN"
  bottom: "inception_1b/double_3x3_reduce"
  top: "inception_1b/double_3x3_reduce_bn"
  param {
    lr_mult: 1
    decay_mult: 0
  }
  param {
    lr_mult: 1
    decay_mult: 0
  }
  bn_param {
    slope_filler {
      type: "constant"
      value: 1
    }
    bias_filler {
      type: "constant"
      value: 0
    }
  }
}
layer {
  name: "inception_1b/relu_double_3x3_reduce"
  type: "ReLU"
  bottom: "inception_1b/double_3x3_reduce_bn"
  top: "inception_1b/double_3x3_reduce_bn"
}
layer {
  name: "inception_1b/double_3x3_1"
  type: "Convolution"
  bottom: "inception_1b/double_3x3_reduce_bn"
  top: "inception_1b/double_3x3_1"
  param {
    lr_mult: 1
    decay_mult: 1
  }
  param {
    lr_mult: 2
    decay_mult: 0
  }
  convolution_param {
    num_output: 64
    pad: 1
    kernel_size: 3
    weight_filler {
      type: "xavier"
    }
    bias_filler {
      type: "constant"
      value: 0.2
    }
  }
}
layer {
  name: "inception_1b/double_3x3_1_bn"
  type: "BN"
  bottom: "inception_1b/double_3x3_1"
  top: "inception_1b/double_3x3_1_bn"
  param {
    lr_mult: 1
    decay_mult: 0
  }
  param {
    lr_mult: 1
    decay_mult: 0
  }
  bn_param {
    slope_filler {
      type: "constant"
      value: 1
    }
    bias_filler {
      type: "constant"
      value: 0
    }
  }
}
layer {
  name: "inception_1b/relu_double_3x3_1"
  type: "ReLU"
  bottom: "inception_1b/double_3x3_1_bn"
  top: "inception_1b/double_3x3_1_bn"
}
layer {
  name: "inception_1b/double_3x3_2"
  type: "Convolution"
  bottom: "inception_1b/double_3x3_1_bn"
  top: "inception_1b/double_3x3_2"
  param {
    lr_mult: 1
    decay_mult: 1
  }
  param {
    lr_mult: 2
    decay_mult: 0
  }
  convolution_param {
    num_output: 64
    pad: 1
    kernel_size: 3
    stride: 2
    weight_filler {
      type: "xavier"
    }
    bias_filler {
      type: "constant"
      value: 0.2
    }
  }
}
layer {
  name: "inception_1b/double_3x3_2_bn"
  type: "BN"
  bottom: "inception_1b/double_3x3_2"
  top: "inception_1b/double_3x3_2_bn"
  param {
    lr_mult: 1
    decay_mult: 0
  }
  param {
    lr_mult: 1
    decay_mult: 0
  }
  bn_param {
    slope_filler {
      type: "constant"
      value: 1
    }
    bias_filler {
      type: "constant"
      value: 0
    }
  }
}
layer {
  name: "inception_1b/relu_double_3x3_2"
  type: "ReLU"
  bottom: "inception_1b/double_3x3_2_bn"
  top: "inception_1b/double_3x3_2_bn"
}
layer {
  name: "inception_1b/pool"
  type: "Pooling"
  bottom: "inception_1a/output"
  top: "inception_1b/pool"
  pooling_param {
    pool: MAX
    kernel_size: 3
    stride: 2
  }
}
layer {
  name: "inception_1b/output"
  type: "Concat"
  bottom: "inception_1b/3x3_bn"
  bottom: "inception_1b/double_3x3_2_bn"
  bottom: "inception_1b/pool"
  top: "inception_1b/output"
}
layer {
  name: "inception_2a/1x1"
  type: "Convolution"
  bottom: "inception_1b/output"
  top: "inception_2a/1x1"
  param {
    lr_mult: 1
    decay_mult: 1
  }
  param {
    lr_mult: 2
    decay_mult: 0
  }
  convolution_param {
    num_output: 128
    kernel_size: 1
    weight_filler {
      type: "xavier"
    }
    bias_filler {
      type: "constant"
      value: 0.2
    }
  }
}
layer {
  name: "inception_2a/1x1_bn"
  type: "BN"
  bottom: "inception_2a/1x1"
  top: "inception_2a/1x1_bn"
  param {
    lr_mult: 1
    decay_mult: 0
  }
  param {
    lr_mult: 1
    decay_mult: 0
  }
  bn_param {
    slope_filler {
      type: "constant"
      value: 1
    }
    bias_filler {
      type: "constant"
      value: 0
    }
  }
}
layer {
  name: "inception_2a/relu_1x1"
  type: "ReLU"
  bottom: "inception_2a/1x1_bn"
  top: "inception_2a/1x1_bn"
}
layer {
  name: "inception_2a/3x3_reduce"
  type: "Convolution"
  bottom: "inception_1b/output"
  top: "inception_2a/3x3_reduce"
  param {
    lr_mult: 1
    decay_mult: 1
  }
  param {
    lr_mult: 2
    decay_mult: 0
  }
  convolution_param {
    num_output: 128
    kernel_size: 1
    weight_filler {
      type: "xavier"
    }
    bias_filler {
      type: "constant"
      value: 0.2
    }
  }
}
layer {
  name: "inception_2a/3x3_reduce_bn"
  type: "BN"
  bottom: "inception_2a/3x3_reduce"
  top: "inception_2a/3x3_reduce_bn"
  param {
    lr_mult: 1
    decay_mult: 0
  }
  param {
    lr_mult: 1
    decay_mult: 0
  }
  bn_param {
    slope_filler {
      type: "constant"
      value: 1
    }
    bias_filler {
      type: "constant"
      value: 0
    }
  }
}
layer {
  name: "inception_2a/relu_3x3_reduce"
  type: "ReLU"
  bottom: "inception_2a/3x3_reduce_bn"
  top: "inception_2a/3x3_reduce_bn"
}
layer {
  name: "inception_2a/3x3"
  type: "Convolution"
  bottom: "inception_2a/3x3_reduce_bn"
  top: "inception_2a/3x3"
  param {
    lr_mult: 1
    decay_mult: 1
  }
  param {
    lr_mult: 2
    decay_mult: 0
  }
  convolution_param {
    num_output: 128
    pad: 1
    kernel_size: 3
    weight_filler {
      type: "xavier"
    }
    bias_filler {
      type: "constant"
      value: 0.2
    }
  }
}
layer {
  name: "inception_2a/3x3_bn"
  type: "BN"
  bottom: "inception_2a/3x3"
  top: "inception_2a/3x3_bn"
  param {
    lr_mult: 1
    decay_mult: 0
  }
  param {
    lr_mult: 1
    decay_mult: 0
  }
  bn_param {
    slope_filler {
      type: "constant"
      value: 1
    }
    bias_filler {
      type: "constant"
      value: 0
    }
  }
}
layer {
  name: "inception_2a/relu_3x3"
  type: "ReLU"
  bottom: "inception_2a/3x3_bn"
  top: "inception_2a/3x3_bn"
}
layer {
  name: "inception_2a/double_3x3_reduce"
  type: "Convolution"
  bottom: "inception_1b/output"
  top: "inception_2a/double_3x3_reduce"
  param {
    lr_mult: 1
    decay_mult: 1
  }
  param {
    lr_mult: 2
    decay_mult: 0
  }
  convolution_param {
    num_output: 128
    kernel_size: 1
    weight_filler {
      type: "xavier"
    }
    bias_filler {
      type: "constant"
      value: 0.2
    }
  }
}
layer {
  name: "inception_2a/double_3x3_reduce_bn"
  type: "BN"
  bottom: "inception_2a/double_3x3_reduce"
  top: "inception_2a/double_3x3_reduce_bn"
  param {
    lr_mult: 1
    decay_mult: 0
  }
  param {
    lr_mult: 1
    decay_mult: 0
  }
  bn_param {
    slope_filler {
      type: "constant"
      value: 1
    }
    bias_filler {
      type: "constant"
      value: 0
    }
  }
}
layer {
  name: "inception_2a/relu_double_3x3_reduce"
  type: "ReLU"
  bottom: "inception_2a/double_3x3_reduce_bn"
  top: "inception_2a/double_3x3_reduce_bn"
}
layer {
  name: "inception_2a/double_3x3_1"
  type: "Convolution"
  bottom: "inception_2a/double_3x3_reduce_bn"
  top: "inception_2a/double_3x3_1"
  param {
    lr_mult: 1
    decay_mult: 1
  }
  param {
    lr_mult: 2
    decay_mult: 0
  }
  convolution_param {
    num_output: 128
    pad: 1
    kernel_size: 3
    weight_filler {
      type: "xavier"
    }
    bias_filler {
      type: "constant"
      value: 0.2
    }
  }
}
layer {
  name: "inception_2a/double_3x3_1_bn"
  type: "BN"
  bottom: "inception_2a/double_3x3_1"
  top: "inception_2a/double_3x3_1_bn"
  param {
    lr_mult: 1
    decay_mult: 0
  }
  param {
    lr_mult: 1
    decay_mult: 0
  }
  bn_param {
    slope_filler {
      type: "constant"
      value: 1
    }
    bias_filler {
      type: "constant"
      value: 0
    }
  }
}
layer {
  name: "inception_2a/relu_double_3x3_1"
  type: "ReLU"
  bottom: "inception_2a/double_3x3_1_bn"
  top: "inception_2a/double_3x3_1_bn"
}
layer {
  name: "inception_2a/double_3x3_2"
  type: "Convolution"
  bottom: "inception_2a/double_3x3_1_bn"
  top: "inception_2a/double_3x3_2"
  param {
    lr_mult: 1
    decay_mult: 1
  }
  param {
    lr_mult: 2
    decay_mult: 0
  }
  convolution_param {
    num_output: 128
    pad: 1
    kernel_size: 3
    weight_filler {
      type: "xavier"
    }
    bias_filler {
      type: "constant"
      value: 0.2
    }
  }
}
layer {
  name: "inception_2a/double_3x3_2_bn"
  type: "BN"
  bottom: "inception_2a/double_3x3_2"
  top: "inception_2a/double_3x3_2_bn"
  param {
    lr_mult: 1
    decay_mult: 0
  }
  param {
    lr_mult: 1
    decay_mult: 0
  }
  bn_param {
    slope_filler {
      type: "constant"
      value: 1
    }
    bias_filler {
      type: "constant"
      value: 0
    }
  }
}
layer {
  name: "inception_2a/relu_double_3x3_2"
  type: "ReLU"
  bottom: "inception_2a/double_3x3_2_bn"
  top: "inception_2a/double_3x3_2_bn"
}
layer {
  name: "inception_2a/pool"
  type: "Pooling"
  bottom: "inception_1b/output"
  top: "inception_2a/pool"
  pooling_param {
    pool: AVE
    kernel_size: 3
    stride: 1
    pad: 1
  }
}
layer {
  name: "inception_2a/pool_proj"
  type: "Convolution"
  bottom: "inception_2a/pool"
  top: "inception_2a/pool_proj"
  param {
    lr_mult: 1
    decay_mult: 1
  }
  param {
    lr_mult: 2
    decay_mult: 0
  }
  convolution_param {
    num_output: 128
    kernel_size: 1
    weight_filler {
      type: "xavier"
    }
    bias_filler {
      type: "constant"
      value: 0.2
    }
  }
}
layer {
  name: "inception_2a/pool_proj_bn"
  type: "BN"
  bottom: "inception_2a/pool_proj"
  top: "inception_2a/pool_proj_bn"
  param {
    lr_mult: 1
    decay_mult: 0
  }
  param {
    lr_mult: 1
    decay_mult: 0
  }
  bn_param {
    slope_filler {
      type: "constant"
      value: 1
    }
    bias_filler {
      type: "constant"
      value: 0
    }
  }
}
layer {
  name: "inception_2a/relu_pool_proj"
  type: "ReLU"
  bottom: "inception_2a/pool_proj_bn"
  top: "inception_2a/pool_proj_bn"
}
layer {
  name: "inception_2a/output"
  type: "Concat"
  bottom: "inception_2a/1x1_bn"
  bottom: "inception_2a/3x3_bn"
  bottom: "inception_2a/double_3x3_2_bn"
  bottom: "inception_2a/pool_proj_bn"
  top: "inception_2a/output"
}
layer {
  name: "inception_2b/3x3_reduce"
  type: "Convolution"
  bottom: "inception_2a/output"
  top: "inception_2b/3x3_reduce"
  param {
    lr_mult: 1
    decay_mult: 1
  }
  param {
    lr_mult: 2
    decay_mult: 0
  }
  convolution_param {
    num_output: 128
    kernel_size: 1
    weight_filler {
      type: "xavier"
    }
    bias_filler {
      type: "constant"
      value: 0.2
    }
  }
}
layer {
  name: "inception_2b/3x3_reduce_bn"
  type: "BN"
  bottom: "inception_2b/3x3_reduce"
  top: "inception_2b/3x3_reduce_bn"
  param {
    lr_mult: 1
    decay_mult: 0
  }
  param {
    lr_mult: 1
    decay_mult: 0
  }
  bn_param {
    slope_filler {
      type: "constant"
      value: 1
    }
    bias_filler {
      type: "constant"
      value: 0
    }
  }
}
layer {
  name: "inception_2b/relu_3x3_reduce"
  type: "ReLU"
  bottom: "inception_2b/3x3_reduce_bn"
  top: "inception_2b/3x3_reduce_bn"
}
layer {
  name: "inception_2b/3x3"
  type: "Convolution"
  bottom: "inception_2b/3x3_reduce_bn"
  top: "inception_2b/3x3"
  param {
    lr_mult: 1
    decay_mult: 1
  }
  param {
    lr_mult: 2
    decay_mult: 0
  }
  convolution_param {
    num_output: 128
    pad: 1
    kernel_size: 3
    stride: 2
    weight_filler {
      type: "xavier"
    }
    bias_filler {
      type: "constant"
      value: 0.2
    }
  }
}
layer {
  name: "inception_2b/3x3_bn"
  type: "BN"
  bottom: "inception_2b/3x3"
  top: "inception_2b/3x3_bn"
  param {
    lr_mult: 1
    decay_mult: 0
  }
  param {
    lr_mult: 1
    decay_mult: 0
  }
  bn_param {
    slope_filler {
      type: "constant"
      value: 1
    }
    bias_filler {
      type: "constant"
      value: 0
    }
  }
}
layer {
  name: "inception_2b/relu_3x3"
  type: "ReLU"
  bottom: "inception_2b/3x3_bn"
  top: "inception_2b/3x3_bn"
}
layer {
  name: "inception_2b/double_3x3_reduce"
  type: "Convolution"
  bottom: "inception_2a/output"
  top: "inception_2b/double_3x3_reduce"
  param {
    lr_mult: 1
    decay_mult: 1
  }
  param {
    lr_mult: 2
    decay_mult: 0
  }
  convolution_param {
    num_output: 128
    kernel_size: 1
    weight_filler {
      type: "xavier"
    }
    bias_filler {
      type: "constant"
      value: 0.2
    }
  }
}
layer {
  name: "inception_2b/double_3x3_reduce_bn"
  type: "BN"
  bottom: "inception_2b/double_3x3_reduce"
  top: "inception_2b/double_3x3_reduce_bn"
  param {
    lr_mult: 1
    decay_mult: 0
  }
  param {
    lr_mult: 1
    decay_mult: 0
  }
  bn_param {
    slope_filler {
      type: "constant"
      value: 1
    }
    bias_filler {
      type: "constant"
      value: 0
    }
  }
}
layer {
  name: "inception_2b/relu_double_3x3_reduce"
  type: "ReLU"
  bottom: "inception_2b/double_3x3_reduce_bn"
  top: "inception_2b/double_3x3_reduce_bn"
}
layer {
  name: "inception_2b/double_3x3_1"
  type: "Convolution"
  bottom: "inception_2b/double_3x3_reduce_bn"
  top: "inception_2b/double_3x3_1"
  param {
    lr_mult: 1
    decay_mult: 1
  }
  param {
    lr_mult: 2
    decay_mult: 0
  }
  convolution_param {
    num_output: 128
    pad: 1
    kernel_size: 3
    weight_filler {
      type: "xavier"
    }
    bias_filler {
      type: "constant"
      value: 0.2
    }
  }
}
layer {
  name: "inception_2b/double_3x3_1_bn"
  type: "BN"
  bottom: "inception_2b/double_3x3_1"
  top: "inception_2b/double_3x3_1_bn"
  param {
    lr_mult: 1
    decay_mult: 0
  }
  param {
    lr_mult: 1
    decay_mult: 0
  }
  bn_param {
    slope_filler {
      type: "constant"
      value: 1
    }
    bias_filler {
      type: "constant"
      value: 0
    }
  }
}
layer {
  name: "inception_2b/relu_double_3x3_1"
  type: "ReLU"
  bottom: "inception_2b/double_3x3_1_bn"
  top: "inception_2b/double_3x3_1_bn"
}
layer {
  name: "inception_2b/double_3x3_2"
  type: "Convolution"
  bottom: "inception_2b/double_3x3_1_bn"
  top: "inception_2b/double_3x3_2"
  param {
    lr_mult: 1
    decay_mult: 1
  }
  param {
    lr_mult: 2
    decay_mult: 0
  }
  convolution_param {
    num_output: 128
    pad: 1
    kernel_size: 3
    stride: 2
    weight_filler {
      type: "xavier"
    }
    bias_filler {
      type: "constant"
      value: 0.2
    }
  }
}
layer {
  name: "inception_2b/double_3x3_2_bn"
  type: "BN"
  bottom: "inception_2b/double_3x3_2"
  top: "inception_2b/double_3x3_2_bn"
  param {
    lr_mult: 1
    decay_mult: 0
  }
  param {
    lr_mult: 1
    decay_mult: 0
  }
  bn_param {
    slope_filler {
      type: "constant"
      value: 1
    }
    bias_filler {
      type: "constant"
      value: 0
    }
  }
}
layer {
  name: "inception_2b/relu_double_3x3_2"
  type: "ReLU"
  bottom: "inception_2b/double_3x3_2_bn"
  top: "inception_2b/double_3x3_2_bn"
}
layer {
  name: "inception_2b/pool"
  type: "Pooling"
  bottom: "inception_2a/output"
  top: "inception_2b/pool"
  pooling_param {
    pool: MAX
    kernel_size: 3
    stride: 2
  }
}
layer {
  name: "inception_2b/output"
  type: "Concat"
  bottom: "inception_2b/3x3_bn"
  bottom: "inception_2b/double_3x3_2_bn"
  bottom: "inception_2b/pool"
  top: "inception_2b/output"
}
layer {
  name: "inception_3a/1x1"
  type: "Convolution"
  bottom: "inception_2b/output"
  top: "inception_3a/1x1"
  param {
    lr_mult: 1
    decay_mult: 1
  }
  param {
    lr_mult: 2
    decay_mult: 0
  }
  convolution_param {
    num_output: 256
    kernel_size: 1
    weight_filler {
      type: "xavier"
    }
    bias_filler {
      type: "constant"
      value: 0.2
    }
  }
}
layer {
  name: "inception_3a/1x1_bn"
  type: "BN"
  bottom: "inception_3a/1x1"
  top: "inception_3a/1x1_bn"
  param {
    lr_mult: 1
    decay_mult: 0
  }
  param {
    lr_mult: 1
    decay_mult: 0
  }
  bn_param {
    slope_filler {
      type: "constant"
      value: 1
    }
    bias_filler {
      type: "constant"
      value: 0
    }
  }
}
layer {
  name: "inception_3a/relu_1x1"
  type: "ReLU"
  bottom: "inception_3a/1x1_bn"
  top: "inception_3a/1x1_bn"
}
layer {
  name: "inception_3a/3x3_reduce"
  type: "Convolution"
  bottom: "inception_2b/output"
  top: "inception_3a/3x3_reduce"
  param {
    lr_mult: 1
    decay_mult: 1
  }
  param {
    lr_mult: 2
    decay_mult: 0
  }
  convolution_param {
    num_output: 256
    kernel_size: 1
    weight_filler {
      type: "xavier"
    }
    bias_filler {
      type: "constant"
      value: 0.2
    }
  }
}
layer {
  name: "inception_3a/3x3_reduce_bn"
  type: "BN"
  bottom: "inception_3a/3x3_reduce"
  top: "inception_3a/3x3_reduce_bn"
  param {
    lr_mult: 1
    decay_mult: 0
  }
  param {
    lr_mult: 1
    decay_mult: 0
  }
  bn_param {
    slope_filler {
      type: "constant"
      value: 1
    }
    bias_filler {
      type: "constant"
      value: 0
    }
  }
}
layer {
  name: "inception_3a/relu_3x3_reduce"
  type: "ReLU"
  bottom: "inception_3a/3x3_reduce_bn"
  top: "inception_3a/3x3_reduce_bn"
}
layer {
  name: "inception_3a/3x3"
  type: "Convolution"
  bottom: "inception_3a/3x3_reduce_bn"
  top: "inception_3a/3x3"
  param {
    lr_mult: 1
    decay_mult: 1
  }
  param {
    lr_mult: 2
    decay_mult: 0
  }
  convolution_param {
    num_output: 256
    pad: 1
    kernel_size: 3
    weight_filler {
      type: "xavier"
    }
    bias_filler {
      type: "constant"
      value: 0.2
    }
  }
}
layer {
  name: "inception_3a/3x3_bn"
  type: "BN"
  bottom: "inception_3a/3x3"
  top: "inception_3a/3x3_bn"
  param {
    lr_mult: 1
    decay_mult: 0
  }
  param {
    lr_mult: 1
    decay_mult: 0
  }
  bn_param {
    slope_filler {
      type: "constant"
      value: 1
    }
    bias_filler {
      type: "constant"
      value: 0
    }
  }
}
layer {
  name: "inception_3a/relu_3x3"
  type: "ReLU"
  bottom: "inception_3a/3x3_bn"
  top: "inception_3a/3x3_bn"
}
layer {
  name: "inception_3a/double_3x3_reduce"
  type: "Convolution"
  bottom: "inception_2b/output"
  top: "inception_3a/double_3x3_reduce"
  param {
    lr_mult: 1
    decay_mult: 1
  }
  param {
    lr_mult: 2
    decay_mult: 0
  }
  convolution_param {
    num_output: 256
    kernel_size: 1
    weight_filler {
      type: "xavier"
    }
    bias_filler {
      type: "constant"
      value: 0.2
    }
  }
}
layer {
  name: "inception_3a/double_3x3_reduce_bn"
  type: "BN"
  bottom: "inception_3a/double_3x3_reduce"
  top: "inception_3a/double_3x3_reduce_bn"
  param {
    lr_mult: 1
    decay_mult: 0
  }
  param {
    lr_mult: 1
    decay_mult: 0
  }
  bn_param {
    slope_filler {
      type: "constant"
      value: 1
    }
    bias_filler {
      type: "constant"
      val
I0417 18:21:47.245532 26635 layer_factory.hpp:74] Creating layer data
I0417 18:21:47.245545 26635 net.cpp:133] Creating Layer data
I0417 18:21:47.245549 26635 net.cpp:411] data -> data
I0417 18:21:47.245559 26635 net.cpp:411] data -> label
I0417 18:21:47.245565 26635 net.cpp:163] Setting up data
I0417 18:21:47.246847 26635 db_lmdb.cpp:22] Opened lmdb external/exp/db/jstl/train_lmdb
I0417 18:21:47.246956 26635 data_layer.cpp:55] Skipping first 0 data points.
I0417 18:21:47.246989 26635 data_layer.cpp:100] output data size: 25,3,144,56
I0417 18:21:47.247071 26635 net.cpp:170] Top shape: 25 3 144 56 (604800)
I0417 18:21:47.247081 26635 net.cpp:170] Top shape: 25 (25)
I0417 18:21:47.247086 26635 layer_factory.hpp:74] Creating layer conv1
I0417 18:21:47.247098 26635 net.cpp:133] Creating Layer conv1
I0417 18:21:47.247102 26635 net.cpp:453] conv1 <- data
I0417 18:21:47.247112 26635 net.cpp:411] conv1 -> conv1
I0417 18:21:47.247122 26635 net.cpp:163] Setting up conv1
I0417 18:21:47.411088 26635 net.cpp:170] Top shape: 25 32 144 56 (6451200)
I0417 18:21:47.411121 26635 layer_factory.hpp:74] Creating layer conv1_bn
I0417 18:21:47.411125 26635 layer_factory.cpp:191] Layer conv1_bn is using CAFFE engine.
I0417 18:21:47.411134 26635 net.cpp:133] Creating Layer conv1_bn
I0417 18:21:47.411136 26635 net.cpp:453] conv1_bn <- conv1
I0417 18:21:47.411141 26635 net.cpp:411] conv1_bn -> conv1_bn
I0417 18:21:47.411147 26635 net.cpp:163] Setting up conv1_bn
I0417 18:21:47.411169 26635 net.cpp:170] Top shape: 25 32 144 56 (6451200)
I0417 18:21:47.411175 26635 layer_factory.hpp:74] Creating layer relu1
I0417 18:21:47.411178 26635 net.cpp:133] Creating Layer relu1
I0417 18:21:47.411180 26635 net.cpp:453] relu1 <- conv1_bn
I0417 18:21:47.411182 26635 net.cpp:400] relu1 -> conv1_bn (in-place)
I0417 18:21:47.411187 26635 net.cpp:163] Setting up relu1
I0417 18:21:47.411305 26635 net.cpp:170] Top shape: 25 32 144 56 (6451200)
I0417 18:21:47.411309 26635 layer_factory.hpp:74] Creating layer conv2
I0417 18:21:47.411315 26635 net.cpp:133] Creating Layer conv2
I0417 18:21:47.411317 26635 net.cpp:453] conv2 <- conv1_bn
I0417 18:21:47.411320 26635 net.cpp:411] conv2 -> conv2
I0417 18:21:47.411324 26635 net.cpp:163] Setting up conv2
I0417 18:21:47.574859 26635 net.cpp:170] Top shape: 25 32 144 56 (6451200)
I0417 18:21:47.574877 26635 layer_factory.hpp:74] Creating layer conv2_bn
I0417 18:21:47.574879 26635 layer_factory.cpp:191] Layer conv2_bn is using CAFFE engine.
I0417 18:21:47.574885 26635 net.cpp:133] Creating Layer conv2_bn
I0417 18:21:47.574887 26635 net.cpp:453] conv2_bn <- conv2
I0417 18:21:47.574892 26635 net.cpp:411] conv2_bn -> conv2_bn
I0417 18:21:47.574898 26635 net.cpp:163] Setting up conv2_bn
I0417 18:21:47.574914 26635 net.cpp:170] Top shape: 25 32 144 56 (6451200)
I0417 18:21:47.574923 26635 layer_factory.hpp:74] Creating layer relu2
I0417 18:21:47.574928 26635 net.cpp:133] Creating Layer relu2
I0417 18:21:47.574929 26635 net.cpp:453] relu2 <- conv2_bn
I0417 18:21:47.574931 26635 net.cpp:400] relu2 -> conv2_bn (in-place)
I0417 18:21:47.574934 26635 net.cpp:163] Setting up relu2
I0417 18:21:47.575127 26635 net.cpp:170] Top shape: 25 32 144 56 (6451200)
I0417 18:21:47.575134 26635 layer_factory.hpp:74] Creating layer conv3
I0417 18:21:47.575139 26635 net.cpp:133] Creating Layer conv3
I0417 18:21:47.575140 26635 net.cpp:453] conv3 <- conv2_bn
I0417 18:21:47.575144 26635 net.cpp:411] conv3 -> conv3
I0417 18:21:47.575147 26635 net.cpp:163] Setting up conv3
I0417 18:21:47.731452 26635 net.cpp:170] Top shape: 25 32 144 56 (6451200)
I0417 18:21:47.731462 26635 layer_factory.hpp:74] Creating layer conv3_bn
I0417 18:21:47.731465 26635 layer_factory.cpp:191] Layer conv3_bn is using CAFFE engine.
I0417 18:21:47.731470 26635 net.cpp:133] Creating Layer conv3_bn
I0417 18:21:47.731472 26635 net.cpp:453] conv3_bn <- conv3
I0417 18:21:47.731477 26635 net.cpp:411] conv3_bn -> conv3_bn
I0417 18:21:47.731480 26635 net.cpp:163] Setting up conv3_bn
I0417 18:21:47.731498 26635 net.cpp:170] Top shape: 25 32 144 56 (6451200)
I0417 18:21:47.731504 26635 layer_factory.hpp:74] Creating layer relu3
I0417 18:21:47.731508 26635 net.cpp:133] Creating Layer relu3
I0417 18:21:47.731509 26635 net.cpp:453] relu3 <- conv3_bn
I0417 18:21:47.731513 26635 net.cpp:400] relu3 -> conv3_bn (in-place)
I0417 18:21:47.731514 26635 net.cpp:163] Setting up relu3
I0417 18:21:47.731614 26635 net.cpp:170] Top shape: 25 32 144 56 (6451200)
I0417 18:21:47.731619 26635 layer_factory.hpp:74] Creating layer pool1
I0417 18:21:47.731624 26635 net.cpp:133] Creating Layer pool1
I0417 18:21:47.731626 26635 net.cpp:453] pool1 <- conv3_bn
I0417 18:21:47.731629 26635 net.cpp:411] pool1 -> pool1
I0417 18:21:47.731633 26635 net.cpp:163] Setting up pool1
I0417 18:21:47.731812 26635 net.cpp:170] Top shape: 25 32 72 28 (1612800)
I0417 18:21:47.731817 26635 layer_factory.hpp:74] Creating layer pool1_pool1_0_split
I0417 18:21:47.731820 26635 net.cpp:133] Creating Layer pool1_pool1_0_split
I0417 18:21:47.731822 26635 net.cpp:453] pool1_pool1_0_split <- pool1
I0417 18:21:47.731827 26635 net.cpp:411] pool1_pool1_0_split -> pool1_pool1_0_split_0
I0417 18:21:47.731830 26635 net.cpp:411] pool1_pool1_0_split -> pool1_pool1_0_split_1
I0417 18:21:47.731833 26635 net.cpp:411] pool1_pool1_0_split -> pool1_pool1_0_split_2
I0417 18:21:47.731837 26635 net.cpp:411] pool1_pool1_0_split -> pool1_pool1_0_split_3
I0417 18:21:47.731839 26635 net.cpp:163] Setting up pool1_pool1_0_split
I0417 18:21:47.731843 26635 net.cpp:170] Top shape: 25 32 72 28 (1612800)
I0417 18:21:47.731845 26635 net.cpp:170] Top shape: 25 32 72 28 (1612800)
I0417 18:21:47.731848 26635 net.cpp:170] Top shape: 25 32 72 28 (1612800)
I0417 18:21:47.731849 26635 net.cpp:170] Top shape: 25 32 72 28 (1612800)
I0417 18:21:47.731850 26635 layer_factory.hpp:74] Creating layer inception_1a/1x1
I0417 18:21:47.731855 26635 net.cpp:133] Creating Layer inception_1a/1x1
I0417 18:21:47.731858 26635 net.cpp:453] inception_1a/1x1 <- pool1_pool1_0_split_0
I0417 18:21:47.731860 26635 net.cpp:411] inception_1a/1x1 -> inception_1a/1x1
I0417 18:21:47.731863 26635 net.cpp:163] Setting up inception_1a/1x1
I0417 18:21:47.787336 26635 net.cpp:170] Top shape: 25 64 72 28 (3225600)
I0417 18:21:47.787346 26635 layer_factory.hpp:74] Creating layer inception_1a/1x1_bn
I0417 18:21:47.787348 26635 layer_factory.cpp:191] Layer inception_1a/1x1_bn is using CAFFE engine.
I0417 18:21:47.787353 26635 net.cpp:133] Creating Layer inception_1a/1x1_bn
I0417 18:21:47.787354 26635 net.cpp:453] inception_1a/1x1_bn <- inception_1a/1x1
I0417 18:21:47.787358 26635 net.cpp:411] inception_1a/1x1_bn -> inception_1a/1x1_bn
I0417 18:21:47.787363 26635 net.cpp:163] Setting up inception_1a/1x1_bn
I0417 18:21:47.787374 26635 net.cpp:170] Top shape: 25 64 72 28 (3225600)
I0417 18:21:47.787379 26635 layer_factory.hpp:74] Creating layer inception_1a/relu_1x1
I0417 18:21:47.787382 26635 net.cpp:133] Creating Layer inception_1a/relu_1x1
I0417 18:21:47.787384 26635 net.cpp:453] inception_1a/relu_1x1 <- inception_1a/1x1_bn
I0417 18:21:47.787386 26635 net.cpp:400] inception_1a/relu_1x1 -> inception_1a/1x1_bn (in-place)
I0417 18:21:47.787389 26635 net.cpp:163] Setting up inception_1a/relu_1x1
I0417 18:21:47.787564 26635 net.cpp:170] Top shape: 25 64 72 28 (3225600)
I0417 18:21:47.787569 26635 layer_factory.hpp:74] Creating layer inception_1a/3x3_reduce
I0417 18:21:47.787575 26635 net.cpp:133] Creating Layer inception_1a/3x3_reduce
I0417 18:21:47.787575 26635 net.cpp:453] inception_1a/3x3_reduce <- pool1_pool1_0_split_1
I0417 18:21:47.787580 26635 net.cpp:411] inception_1a/3x3_reduce -> inception_1a/3x3_reduce
I0417 18:21:47.787585 26635 net.cpp:163] Setting up inception_1a/3x3_reduce
I0417 18:21:47.841339 26635 net.cpp:170] Top shape: 25 64 72 28 (3225600)
I0417 18:21:47.841349 26635 layer_factory.hpp:74] Creating layer inception_1a/3x3_reduce_bn
I0417 18:21:47.841352 26635 layer_factory.cpp:191] Layer inception_1a/3x3_reduce_bn is using CAFFE engine.
I0417 18:21:47.841357 26635 net.cpp:133] Creating Layer inception_1a/3x3_reduce_bn
I0417 18:21:47.841359 26635 net.cpp:453] inception_1a/3x3_reduce_bn <- inception_1a/3x3_reduce
I0417 18:21:47.841363 26635 net.cpp:411] inception_1a/3x3_reduce_bn -> inception_1a/3x3_reduce_bn
I0417 18:21:47.841368 26635 net.cpp:163] Setting up inception_1a/3x3_reduce_bn
I0417 18:21:47.841380 26635 net.cpp:170] Top shape: 25 64 72 28 (3225600)
I0417 18:21:47.841384 26635 layer_factory.hpp:74] Creating layer inception_1a/relu_3x3_reduce
I0417 18:21:47.841388 26635 net.cpp:133] Creating Layer inception_1a/relu_3x3_reduce
I0417 18:21:47.841389 26635 net.cpp:453] inception_1a/relu_3x3_reduce <- inception_1a/3x3_reduce_bn
I0417 18:21:47.841392 26635 net.cpp:400] inception_1a/relu_3x3_reduce -> inception_1a/3x3_reduce_bn (in-place)
I0417 18:21:47.841394 26635 net.cpp:163] Setting up inception_1a/relu_3x3_reduce
I0417 18:21:47.841495 26635 net.cpp:170] Top shape: 25 64 72 28 (3225600)
I0417 18:21:47.841500 26635 layer_factory.hpp:74] Creating layer inception_1a/3x3
I0417 18:21:47.841506 26635 net.cpp:133] Creating Layer inception_1a/3x3
I0417 18:21:47.841506 26635 net.cpp:453] inception_1a/3x3 <- inception_1a/3x3_reduce_bn
I0417 18:21:47.841511 26635 net.cpp:411] inception_1a/3x3 -> inception_1a/3x3
I0417 18:21:47.841514 26635 net.cpp:163] Setting up inception_1a/3x3
I0417 18:21:47.956169 26635 net.cpp:170] Top shape: 25 64 72 28 (3225600)
I0417 18:21:47.956178 26635 layer_factory.hpp:74] Creating layer inception_1a/3x3_bn
I0417 18:21:47.956182 26635 layer_factory.cpp:191] Layer inception_1a/3x3_bn is using CAFFE engine.
I0417 18:21:47.956185 26635 net.cpp:133] Creating Layer inception_1a/3x3_bn
I0417 18:21:47.956187 26635 net.cpp:453] inception_1a/3x3_bn <- inception_1a/3x3
I0417 18:21:47.956192 26635 net.cpp:411] inception_1a/3x3_bn -> inception_1a/3x3_bn
I0417 18:21:47.956197 26635 net.cpp:163] Setting up inception_1a/3x3_bn
I0417 18:21:47.956207 26635 net.cpp:170] Top shape: 25 64 72 28 (3225600)
I0417 18:21:47.956215 26635 layer_factory.hpp:74] Creating layer inception_1a/relu_3x3
I0417 18:21:47.956218 26635 net.cpp:133] Creating Layer inception_1a/relu_3x3
I0417 18:21:47.956220 26635 net.cpp:453] inception_1a/relu_3x3 <- inception_1a/3x3_bn
I0417 18:21:47.956223 26635 net.cpp:400] inception_1a/relu_3x3 -> inception_1a/3x3_bn (in-place)
I0417 18:21:47.956225 26635 net.cpp:163] Setting up inception_1a/relu_3x3
I0417 18:21:47.956398 26635 net.cpp:170] Top shape: 25 64 72 28 (3225600)
I0417 18:21:47.956403 26635 layer_factory.hpp:74] Creating layer inception_1a/double_3x3_reduce
I0417 18:21:47.956408 26635 net.cpp:133] Creating Layer inception_1a/double_3x3_reduce
I0417 18:21:47.956410 26635 net.cpp:453] inception_1a/double_3x3_reduce <- pool1_pool1_0_split_2
I0417 18:21:47.956414 26635 net.cpp:411] inception_1a/double_3x3_reduce -> inception_1a/double_3x3_reduce
I0417 18:21:47.956418 26635 net.cpp:163] Setting up inception_1a/double_3x3_reduce
I0417 18:21:48.009907 26635 net.cpp:170] Top shape: 25 64 72 28 (3225600)
I0417 18:21:48.009917 26635 layer_factory.hpp:74] Creating layer inception_1a/double_3x3_reduce_bn
I0417 18:21:48.009919 26635 layer_factory.cpp:191] Layer inception_1a/double_3x3_reduce_bn is using CAFFE engine.
I0417 18:21:48.009923 26635 net.cpp:133] Creating Layer inception_1a/double_3x3_reduce_bn
I0417 18:21:48.009925 26635 net.cpp:453] inception_1a/double_3x3_reduce_bn <- inception_1a/double_3x3_reduce
I0417 18:21:48.009928 26635 net.cpp:411] inception_1a/double_3x3_reduce_bn -> inception_1a/double_3x3_reduce_bn
I0417 18:21:48.009933 26635 net.cpp:163] Setting up inception_1a/double_3x3_reduce_bn
I0417 18:21:48.009943 26635 net.cpp:170] Top shape: 25 64 72 28 (3225600)
I0417 18:21:48.009949 26635 layer_factory.hpp:74] Creating layer inception_1a/relu_double_3x3_reduce
I0417 18:21:48.009953 26635 net.cpp:133] Creating Layer inception_1a/relu_double_3x3_reduce
I0417 18:21:48.009954 26635 net.cpp:453] inception_1a/relu_double_3x3_reduce <- inception_1a/double_3x3_reduce_bn
I0417 18:21:48.009956 26635 net.cpp:400] inception_1a/relu_double_3x3_reduce -> inception_1a/double_3x3_reduce_bn (in-place)
I0417 18:21:48.009959 26635 net.cpp:163] Setting up inception_1a/relu_double_3x3_reduce
I0417 18:21:48.010136 26635 net.cpp:170] Top shape: 25 64 72 28 (3225600)
I0417 18:21:48.010143 26635 layer_factory.hpp:74] Creating layer inception_1a/double_3x3_1
I0417 18:21:48.010148 26635 net.cpp:133] Creating Layer inception_1a/double_3x3_1
I0417 18:21:48.010149 26635 net.cpp:453] inception_1a/double_3x3_1 <- inception_1a/double_3x3_reduce_bn
I0417 18:21:48.010154 26635 net.cpp:411] inception_1a/double_3x3_1 -> inception_1a/double_3x3_1
I0417 18:21:48.010156 26635 net.cpp:163] Setting up inception_1a/double_3x3_1
I0417 18:21:48.124078 26635 net.cpp:170] Top shape: 25 64 72 28 (3225600)
I0417 18:21:48.124089 26635 layer_factory.hpp:74] Creating layer inception_1a/double_3x3_1_bn
I0417 18:21:48.124090 26635 layer_factory.cpp:191] Layer inception_1a/double_3x3_1_bn is using CAFFE engine.
I0417 18:21:48.124094 26635 net.cpp:133] Creating Layer inception_1a/double_3x3_1_bn
I0417 18:21:48.124097 26635 net.cpp:453] inception_1a/double_3x3_1_bn <- inception_1a/double_3x3_1
I0417 18:21:48.124100 26635 net.cpp:411] inception_1a/double_3x3_1_bn -> inception_1a/double_3x3_1_bn
I0417 18:21:48.124105 26635 net.cpp:163] Setting up inception_1a/double_3x3_1_bn
I0417 18:21:48.124114 26635 net.cpp:170] Top shape: 25 64 72 28 (3225600)
I0417 18:21:48.124120 26635 layer_factory.hpp:74] Creating layer inception_1a/relu_double_3x3_1
I0417 18:21:48.124124 26635 net.cpp:133] Creating Layer inception_1a/relu_double_3x3_1
I0417 18:21:48.124125 26635 net.cpp:453] inception_1a/relu_double_3x3_1 <- inception_1a/double_3x3_1_bn
I0417 18:21:48.124127 26635 net.cpp:400] inception_1a/relu_double_3x3_1 -> inception_1a/double_3x3_1_bn (in-place)
I0417 18:21:48.124130 26635 net.cpp:163] Setting up inception_1a/relu_double_3x3_1
I0417 18:21:48.124233 26635 net.cpp:170] Top shape: 25 64 72 28 (3225600)
I0417 18:21:48.124238 26635 layer_factory.hpp:74] Creating layer inception_1a/double_3x3_2
I0417 18:21:48.124243 26635 net.cpp:133] Creating Layer inception_1a/double_3x3_2
I0417 18:21:48.124244 26635 net.cpp:453] inception_1a/double_3x3_2 <- inception_1a/double_3x3_1_bn
I0417 18:21:48.124248 26635 net.cpp:411] inception_1a/double_3x3_2 -> inception_1a/double_3x3_2
I0417 18:21:48.124250 26635 net.cpp:163] Setting up inception_1a/double_3x3_2
I0417 18:21:48.238502 26635 net.cpp:170] Top shape: 25 64 72 28 (3225600)
I0417 18:21:48.238512 26635 layer_factory.hpp:74] Creating layer inception_1a/double_3x3_2_bn
I0417 18:21:48.238513 26635 layer_factory.cpp:191] Layer inception_1a/double_3x3_2_bn is using CAFFE engine.
I0417 18:21:48.238518 26635 net.cpp:133] Creating Layer inception_1a/double_3x3_2_bn
I0417 18:21:48.238520 26635 net.cpp:453] inception_1a/double_3x3_2_bn <- inception_1a/double_3x3_2
I0417 18:21:48.238524 26635 net.cpp:411] inception_1a/double_3x3_2_bn -> inception_1a/double_3x3_2_bn
I0417 18:21:48.238528 26635 net.cpp:163] Setting up inception_1a/double_3x3_2_bn
I0417 18:21:48.238540 26635 net.cpp:170] Top shape: 25 64 72 28 (3225600)
I0417 18:21:48.238544 26635 layer_factory.hpp:74] Creating layer inception_1a/relu_double_3x3_2
I0417 18:21:48.238548 26635 net.cpp:133] Creating Layer inception_1a/relu_double_3x3_2
I0417 18:21:48.238549 26635 net.cpp:453] inception_1a/relu_double_3x3_2 <- inception_1a/double_3x3_2_bn
I0417 18:21:48.238553 26635 net.cpp:400] inception_1a/relu_double_3x3_2 -> inception_1a/double_3x3_2_bn (in-place)
I0417 18:21:48.238554 26635 net.cpp:163] Setting up inception_1a/relu_double_3x3_2
I0417 18:21:48.238734 26635 net.cpp:170] Top shape: 25 64 72 28 (3225600)
I0417 18:21:48.238739 26635 layer_factory.hpp:74] Creating layer inception_1a/pool
I0417 18:21:48.238742 26635 layer_factory.cpp:64] CUDNN does not support padding or multiple tops. Using Caffe's own pooling layer.
I0417 18:21:48.238745 26635 net.cpp:133] Creating Layer inception_1a/pool
I0417 18:21:48.238746 26635 net.cpp:453] inception_1a/pool <- pool1_pool1_0_split_3
I0417 18:21:48.238749 26635 net.cpp:411] inception_1a/pool -> inception_1a/pool
I0417 18:21:48.238754 26635 net.cpp:163] Setting up inception_1a/pool
I0417 18:21:48.238757 26635 net.cpp:170] Top shape: 25 32 72 28 (1612800)
I0417 18:21:48.238759 26635 layer_factory.hpp:74] Creating layer inception_1a/pool_proj
I0417 18:21:48.238764 26635 net.cpp:133] Creating Layer inception_1a/pool_proj
I0417 18:21:48.238765 26635 net.cpp:453] inception_1a/pool_proj <- inception_1a/pool
I0417 18:21:48.238768 26635 net.cpp:411] inception_1a/pool_proj -> inception_1a/pool_proj
I0417 18:21:48.238771 26635 net.cpp:163] Setting up inception_1a/pool_proj
I0417 18:21:48.292336 26635 net.cpp:170] Top shape: 25 64 72 28 (3225600)
I0417 18:21:48.292346 26635 layer_factory.hpp:74] Creating layer inception_1a/pool_proj_bn
I0417 18:21:48.292348 26635 layer_factory.cpp:191] Layer inception_1a/pool_proj_bn is using CAFFE engine.
I0417 18:21:48.292356 26635 net.cpp:133] Creating Layer inception_1a/pool_proj_bn
I0417 18:21:48.292359 26635 net.cpp:453] inception_1a/pool_proj_bn <- inception_1a/pool_proj
I0417 18:21:48.292363 26635 net.cpp:411] inception_1a/pool_proj_bn -> inception_1a/pool_proj_bn
I0417 18:21:48.292367 26635 net.cpp:163] Setting up inception_1a/pool_proj_bn
I0417 18:21:48.292377 26635 net.cpp:170] Top shape: 25 64 72 28 (3225600)
I0417 18:21:48.292382 26635 layer_factory.hpp:74] Creating layer inception_1a/relu_pool_proj
I0417 18:21:48.292385 26635 net.cpp:133] Creating Layer inception_1a/relu_pool_proj
I0417 18:21:48.292387 26635 net.cpp:453] inception_1a/relu_pool_proj <- inception_1a/pool_proj_bn
I0417 18:21:48.292389 26635 net.cpp:400] inception_1a/relu_pool_proj -> inception_1a/pool_proj_bn (in-place)
I0417 18:21:48.292393 26635 net.cpp:163] Setting up inception_1a/relu_pool_proj
I0417 18:21:48.292563 26635 net.cpp:170] Top shape: 25 64 72 28 (3225600)
I0417 18:21:48.292569 26635 layer_factory.hpp:74] Creating layer inception_1a/output
I0417 18:21:48.292573 26635 net.cpp:133] Creating Layer inception_1a/output
I0417 18:21:48.292575 26635 net.cpp:453] inception_1a/output <- inception_1a/1x1_bn
I0417 18:21:48.292577 26635 net.cpp:453] inception_1a/output <- inception_1a/3x3_bn
I0417 18:21:48.292579 26635 net.cpp:453] inception_1a/output <- inception_1a/double_3x3_2_bn
I0417 18:21:48.292582 26635 net.cpp:453] inception_1a/output <- inception_1a/pool_proj_bn
I0417 18:21:48.292585 26635 net.cpp:411] inception_1a/output -> inception_1a/output
I0417 18:21:48.292588 26635 net.cpp:163] Setting up inception_1a/output
I0417 18:21:48.292593 26635 net.cpp:170] Top shape: 25 256 72 28 (12902400)
I0417 18:21:48.292594 26635 layer_factory.hpp:74] Creating layer inception_1a/output_inception_1a/output_0_split
I0417 18:21:48.292598 26635 net.cpp:133] Creating Layer inception_1a/output_inception_1a/output_0_split
I0417 18:21:48.292598 26635 net.cpp:453] inception_1a/output_inception_1a/output_0_split <- inception_1a/output
I0417 18:21:48.292603 26635 net.cpp:411] inception_1a/output_inception_1a/output_0_split -> inception_1a/output_inception_1a/output_0_split_0
I0417 18:21:48.292605 26635 net.cpp:411] inception_1a/output_inception_1a/output_0_split -> inception_1a/output_inception_1a/output_0_split_1
I0417 18:21:48.292608 26635 net.cpp:411] inception_1a/output_inception_1a/output_0_split -> inception_1a/output_inception_1a/output_0_split_2
I0417 18:21:48.292611 26635 net.cpp:163] Setting up inception_1a/output_inception_1a/output_0_split
I0417 18:21:48.292614 26635 net.cpp:170] Top shape: 25 256 72 28 (12902400)
I0417 18:21:48.292616 26635 net.cpp:170] Top shape: 25 256 72 28 (12902400)
I0417 18:21:48.292618 26635 net.cpp:170] Top shape: 25 256 72 28 (12902400)
I0417 18:21:48.292619 26635 layer_factory.hpp:74] Creating layer inception_1b/3x3_reduce
I0417 18:21:48.292623 26635 net.cpp:133] Creating Layer inception_1b/3x3_reduce
I0417 18:21:48.292625 26635 net.cpp:453] inception_1b/3x3_reduce <- inception_1a/output_inception_1a/output_0_split_0
I0417 18:21:48.292629 26635 net.cpp:411] inception_1b/3x3_reduce -> inception_1b/3x3_reduce
I0417 18:21:48.292635 26635 net.cpp:163] Setting up inception_1b/3x3_reduce
I0417 18:21:48.591596 26635 net.cpp:170] Top shape: 25 64 72 28 (3225600)
I0417 18:21:48.591606 26635 layer_factory.hpp:74] Creating layer inception_1b/3x3_reduce_bn
I0417 18:21:48.591609 26635 layer_factory.cpp:191] Layer inception_1b/3x3_reduce_bn is using CAFFE engine.
I0417 18:21:48.591614 26635 net.cpp:133] Creating Layer inception_1b/3x3_reduce_bn
I0417 18:21:48.591615 26635 net.cpp:453] inception_1b/3x3_reduce_bn <- inception_1b/3x3_reduce
I0417 18:21:48.591619 26635 net.cpp:411] inception_1b/3x3_reduce_bn -> inception_1b/3x3_reduce_bn
I0417 18:21:48.591624 26635 net.cpp:163] Setting up inception_1b/3x3_reduce_bn
I0417 18:21:48.591634 26635 net.cpp:170] Top shape: 25 64 72 28 (3225600)
I0417 18:21:48.591644 26635 layer_factory.hpp:74] Creating layer inception_1b/relu_3x3_reduce
I0417 18:21:48.591646 26635 net.cpp:133] Creating Layer inception_1b/relu_3x3_reduce
I0417 18:21:48.591648 26635 net.cpp:453] inception_1b/relu_3x3_reduce <- inception_1b/3x3_reduce_bn
I0417 18:21:48.591652 26635 net.cpp:400] inception_1b/relu_3x3_reduce -> inception_1b/3x3_reduce_bn (in-place)
I0417 18:21:48.591655 26635 net.cpp:163] Setting up inception_1b/relu_3x3_reduce
I0417 18:21:48.591758 26635 net.cpp:170] Top shape: 25 64 72 28 (3225600)
I0417 18:21:48.591763 26635 layer_factory.hpp:74] Creating layer inception_1b/3x3
I0417 18:21:48.591768 26635 net.cpp:133] Creating Layer inception_1b/3x3
I0417 18:21:48.591768 26635 net.cpp:453] inception_1b/3x3 <- inception_1b/3x3_reduce_bn
I0417 18:21:48.591773 26635 net.cpp:411] inception_1b/3x3 -> inception_1b/3x3
I0417 18:21:48.591776 26635 net.cpp:163] Setting up inception_1b/3x3
I0417 18:21:48.613157 26635 net.cpp:170] Top shape: 25 64 36 14 (806400)
I0417 18:21:48.613167 26635 layer_factory.hpp:74] Creating layer inception_1b/3x3_bn
I0417 18:21:48.613169 26635 layer_factory.cpp:191] Layer inception_1b/3x3_bn is using CAFFE engine.
I0417 18:21:48.613173 26635 net.cpp:133] Creating Layer inception_1b/3x3_bn
I0417 18:21:48.613175 26635 net.cpp:453] inception_1b/3x3_bn <- inception_1b/3x3
I0417 18:21:48.613179 26635 net.cpp:411] inception_1b/3x3_bn -> inception_1b/3x3_bn
I0417 18:21:48.613183 26635 net.cpp:163] Setting up inception_1b/3x3_bn
I0417 18:21:48.613193 26635 net.cpp:170] Top shape: 25 64 36 14 (806400)
I0417 18:21:48.613198 26635 layer_factory.hpp:74] Creating layer inception_1b/relu_3x3
I0417 18:21:48.613200 26635 net.cpp:133] Creating Layer inception_1b/relu_3x3
I0417 18:21:48.613203 26635 net.cpp:453] inception_1b/relu_3x3 <- inception_1b/3x3_bn
I0417 18:21:48.613205 26635 net.cpp:400] inception_1b/relu_3x3 -> inception_1b/3x3_bn (in-place)
I0417 18:21:48.613207 26635 net.cpp:163] Setting up inception_1b/relu_3x3
I0417 18:21:48.613381 26635 net.cpp:170] Top shape: 25 64 36 14 (806400)
I0417 18:21:48.613389 26635 layer_factory.hpp:74] Creating layer inception_1b/double_3x3_reduce
I0417 18:21:48.613394 26635 net.cpp:133] Creating Layer inception_1b/double_3x3_reduce
I0417 18:21:48.613396 26635 net.cpp:453] inception_1b/double_3x3_reduce <- inception_1a/output_inception_1a/output_0_split_1
I0417 18:21:48.613399 26635 net.cpp:411] inception_1b/double_3x3_reduce -> inception_1b/double_3x3_reduce
I0417 18:21:48.613404 26635 net.cpp:163] Setting up inception_1b/double_3x3_reduce
I0417 18:21:48.919888 26635 net.cpp:170] Top shape: 25 64 72 28 (3225600)
I0417 18:21:48.919896 26635 layer_factory.hpp:74] Creating layer inception_1b/double_3x3_reduce_bn
I0417 18:21:48.919899 26635 layer_factory.cpp:191] Layer inception_1b/double_3x3_reduce_bn is using CAFFE engine.
I0417 18:21:48.919904 26635 net.cpp:133] Creating Layer inception_1b/double_3x3_reduce_bn
I0417 18:21:48.919906 26635 net.cpp:453] inception_1b/double_3x3_reduce_bn <- inception_1b/double_3x3_reduce
I0417 18:21:48.919910 26635 net.cpp:411] inception_1b/double_3x3_reduce_bn -> inception_1b/double_3x3_reduce_bn
I0417 18:21:48.919914 26635 net.cpp:163] Setting up inception_1b/double_3x3_reduce_bn
I0417 18:21:48.919925 26635 net.cpp:170] Top shape: 25 64 72 28 (3225600)
I0417 18:21:48.919930 26635 layer_factory.hpp:74] Creating layer inception_1b/relu_double_3x3_reduce
I0417 18:21:48.919934 26635 net.cpp:133] Creating Layer inception_1b/relu_double_3x3_reduce
I0417 18:21:48.919935 26635 net.cpp:453] inception_1b/relu_double_3x3_reduce <- inception_1b/double_3x3_reduce_bn
I0417 18:21:48.919937 26635 net.cpp:400] inception_1b/relu_double_3x3_reduce -> inception_1b/double_3x3_reduce_bn (in-place)
I0417 18:21:48.919940 26635 net.cpp:163] Setting up inception_1b/relu_double_3x3_reduce
I0417 18:21:48.920117 26635 net.cpp:170] Top shape: 25 64 72 28 (3225600)
I0417 18:21:48.920123 26635 layer_factory.hpp:74] Creating layer inception_1b/double_3x3_1
I0417 18:21:48.920128 26635 net.cpp:133] Creating Layer inception_1b/double_3x3_1
I0417 18:21:48.920130 26635 net.cpp:453] inception_1b/double_3x3_1 <- inception_1b/double_3x3_reduce_bn
I0417 18:21:48.920133 26635 net.cpp:411] inception_1b/double_3x3_1 -> inception_1b/double_3x3_1
I0417 18:21:48.920137 26635 net.cpp:163] Setting up inception_1b/double_3x3_1
I0417 18:21:49.041095 26635 net.cpp:170] Top shape: 25 64 72 28 (3225600)
I0417 18:21:49.041105 26635 layer_factory.hpp:74] Creating layer inception_1b/double_3x3_1_bn
I0417 18:21:49.041108 26635 layer_factory.cpp:191] Layer inception_1b/double_3x3_1_bn is using CAFFE engine.
I0417 18:21:49.041112 26635 net.cpp:133] Creating Layer inception_1b/double_3x3_1_bn
I0417 18:21:49.041115 26635 net.cpp:453] inception_1b/double_3x3_1_bn <- inception_1b/double_3x3_1
I0417 18:21:49.041118 26635 net.cpp:411] inception_1b/double_3x3_1_bn -> inception_1b/double_3x3_1_bn
I0417 18:21:49.041122 26635 net.cpp:163] Setting up inception_1b/double_3x3_1_bn
I0417 18:21:49.041133 26635 net.cpp:170] Top shape: 25 64 72 28 (3225600)
I0417 18:21:49.041138 26635 layer_factory.hpp:74] Creating layer inception_1b/relu_double_3x3_1
I0417 18:21:49.041141 26635 net.cpp:133] Creating Layer inception_1b/relu_double_3x3_1
I0417 18:21:49.041143 26635 net.cpp:453] inception_1b/relu_double_3x3_1 <- inception_1b/double_3x3_1_bn
I0417 18:21:49.041147 26635 net.cpp:400] inception_1b/relu_double_3x3_1 -> inception_1b/double_3x3_1_bn (in-place)
I0417 18:21:49.041152 26635 net.cpp:163] Setting up inception_1b/relu_double_3x3_1
I0417 18:21:49.041270 26635 net.cpp:170] Top shape: 25 64 72 28 (3225600)
I0417 18:21:49.041275 26635 layer_factory.hpp:74] Creating layer inception_1b/double_3x3_2
I0417 18:21:49.041280 26635 net.cpp:133] Creating Layer inception_1b/double_3x3_2
I0417 18:21:49.041282 26635 net.cpp:453] inception_1b/double_3x3_2 <- inception_1b/double_3x3_1_bn
I0417 18:21:49.041286 26635 net.cpp:411] inception_1b/double_3x3_2 -> inception_1b/double_3x3_2
I0417 18:21:49.041290 26635 net.cpp:163] Setting up inception_1b/double_3x3_2
I0417 18:21:49.063882 26635 net.cpp:170] Top shape: 25 64 36 14 (806400)
I0417 18:21:49.063892 26635 layer_factory.hpp:74] Creating layer inception_1b/double_3x3_2_bn
I0417 18:21:49.063895 26635 layer_factory.cpp:191] Layer inception_1b/double_3x3_2_bn is using CAFFE engine.
I0417 18:21:49.063899 26635 net.cpp:133] Creating Layer inception_1b/double_3x3_2_bn
I0417 18:21:49.063901 26635 net.cpp:453] inception_1b/double_3x3_2_bn <- inception_1b/double_3x3_2
I0417 18:21:49.063905 26635 net.cpp:411] inception_1b/double_3x3_2_bn -> inception_1b/double_3x3_2_bn
I0417 18:21:49.063910 26635 net.cpp:163] Setting up inception_1b/double_3x3_2_bn
I0417 18:21:49.063920 26635 net.cpp:170] Top shape: 25 64 36 14 (806400)
I0417 18:21:49.063925 26635 layer_factory.hpp:74] Creating layer inception_1b/relu_double_3x3_2
I0417 18:21:49.063928 26635 net.cpp:133] Creating Layer inception_1b/relu_double_3x3_2
I0417 18:21:49.063930 26635 net.cpp:453] inception_1b/relu_double_3x3_2 <- inception_1b/double_3x3_2_bn
I0417 18:21:49.063932 26635 net.cpp:400] inception_1b/relu_double_3x3_2 -> inception_1b/double_3x3_2_bn (in-place)
I0417 18:21:49.063935 26635 net.cpp:163] Setting up inception_1b/relu_double_3x3_2
I0417 18:21:49.064110 26635 net.cpp:170] Top shape: 25 64 36 14 (806400)
I0417 18:21:49.064118 26635 layer_factory.hpp:74] Creating layer inception_1b/pool
I0417 18:21:49.064122 26635 net.cpp:133] Creating Layer inception_1b/pool
I0417 18:21:49.064124 26635 net.cpp:453] inception_1b/pool <- inception_1a/output_inception_1a/output_0_split_2
I0417 18:21:49.064128 26635 net.cpp:411] inception_1b/pool -> inception_1b/pool
I0417 18:21:49.064131 26635 net.cpp:163] Setting up inception_1b/pool
I0417 18:21:49.064229 26635 net.cpp:170] Top shape: 25 256 36 14 (3225600)
I0417 18:21:49.064234 26635 layer_factory.hpp:74] Creating layer inception_1b/output
I0417 18:21:49.064237 26635 net.cpp:133] Creating Layer inception_1b/output
I0417 18:21:49.064239 26635 net.cpp:453] inception_1b/output <- inception_1b/3x3_bn
I0417 18:21:49.064241 26635 net.cpp:453] inception_1b/output <- inception_1b/double_3x3_2_bn
I0417 18:21:49.064244 26635 net.cpp:453] inception_1b/output <- inception_1b/pool
I0417 18:21:49.064246 26635 net.cpp:411] inception_1b/output -> inception_1b/output
I0417 18:21:49.064250 26635 net.cpp:163] Setting up inception_1b/output
I0417 18:21:49.064254 26635 net.cpp:170] Top shape: 25 384 36 14 (4838400)
I0417 18:21:49.064254 26635 layer_factory.hpp:74] Creating layer inception_1b/output_inception_1b/output_0_split
I0417 18:21:49.064259 26635 net.cpp:133] Creating Layer inception_1b/output_inception_1b/output_0_split
I0417 18:21:49.064260 26635 net.cpp:453] inception_1b/output_inception_1b/output_0_split <- inception_1b/output
I0417 18:21:49.064262 26635 net.cpp:411] inception_1b/output_inception_1b/output_0_split -> inception_1b/output_inception_1b/output_0_split_0
I0417 18:21:49.064265 26635 net.cpp:411] inception_1b/output_inception_1b/output_0_split -> inception_1b/output_inception_1b/output_0_split_1
I0417 18:21:49.064270 26635 net.cpp:411] inception_1b/output_inception_1b/output_0_split -> inception_1b/output_inception_1b/output_0_split_2
I0417 18:21:49.064272 26635 net.cpp:411] inception_1b/output_inception_1b/output_0_split -> inception_1b/output_inception_1b/output_0_split_3
I0417 18:21:49.064275 26635 net.cpp:163] Setting up inception_1b/output_inception_1b/output_0_split
I0417 18:21:49.064278 26635 net.cpp:170] Top shape: 25 384 36 14 (4838400)
I0417 18:21:49.064280 26635 net.cpp:170] Top shape: 25 384 36 14 (4838400)
I0417 18:21:49.064282 26635 net.cpp:170] Top shape: 25 384 36 14 (4838400)
I0417 18:21:49.064285 26635 net.cpp:170] Top shape: 25 384 36 14 (4838400)
I0417 18:21:49.064285 26635 layer_factory.hpp:74] Creating layer inception_2a/1x1
I0417 18:21:49.064290 26635 net.cpp:133] Creating Layer inception_2a/1x1
I0417 18:21:49.064291 26635 net.cpp:453] inception_2a/1x1 <- inception_1b/output_inception_1b/output_0_split_0
I0417 18:21:49.064294 26635 net.cpp:411] inception_2a/1x1 -> inception_2a/1x1
I0417 18:21:49.064298 26635 net.cpp:163] Setting up inception_2a/1x1
I0417 18:21:49.238745 26635 net.cpp:170] Top shape: 25 128 36 14 (1612800)
I0417 18:21:49.238755 26635 layer_factory.hpp:74] Creating layer inception_2a/1x1_bn
I0417 18:21:49.238759 26635 layer_factory.cpp:191] Layer inception_2a/1x1_bn is using CAFFE engine.
I0417 18:21:49.238762 26635 net.cpp:133] Creating Layer inception_2a/1x1_bn
I0417 18:21:49.238765 26635 net.cpp:453] inception_2a/1x1_bn <- inception_2a/1x1
I0417 18:21:49.238768 26635 net.cpp:411] inception_2a/1x1_bn -> inception_2a/1x1_bn
I0417 18:21:49.238772 26635 net.cpp:163] Setting up inception_2a/1x1_bn
I0417 18:21:49.238781 26635 net.cpp:170] Top shape: 25 128 36 14 (1612800)
I0417 18:21:49.238787 26635 layer_factory.hpp:74] Creating layer inception_2a/relu_1x1
I0417 18:21:49.238790 26635 net.cpp:133] Creating Layer inception_2a/relu_1x1
I0417 18:21:49.238791 26635 net.cpp:453] inception_2a/relu_1x1 <- inception_2a/1x1_bn
I0417 18:21:49.238795 26635 net.cpp:400] inception_2a/relu_1x1 -> inception_2a/1x1_bn (in-place)
I0417 18:21:49.238797 26635 net.cpp:163] Setting up inception_2a/relu_1x1
I0417 18:21:49.238900 26635 net.cpp:170] Top shape: 25 128 36 14 (1612800)
I0417 18:21:49.238905 26635 layer_factory.hpp:74] Creating layer inception_2a/3x3_reduce
I0417 18:21:49.238909 26635 net.cpp:133] Creating Layer inception_2a/3x3_reduce
I0417 18:21:49.238911 26635 net.cpp:453] inception_2a/3x3_reduce <- inception_1b/output_inception_1b/output_0_split_1
I0417 18:21:49.238915 26635 net.cpp:411] inception_2a/3x3_reduce -> inception_2a/3x3_reduce
I0417 18:21:49.238919 26635 net.cpp:163] Setting up inception_2a/3x3_reduce
I0417 18:21:49.416085 26635 net.cpp:170] Top shape: 25 128 36 14 (1612800)
I0417 18:21:49.416095 26635 layer_factory.hpp:74] Creating layer inception_2a/3x3_reduce_bn
I0417 18:21:49.416098 26635 layer_factory.cpp:191] Layer inception_2a/3x3_reduce_bn is using CAFFE engine.
I0417 18:21:49.416102 26635 net.cpp:133] Creating Layer inception_2a/3x3_reduce_bn
I0417 18:21:49.416105 26635 net.cpp:453] inception_2a/3x3_reduce_bn <- inception_2a/3x3_reduce
I0417 18:21:49.416108 26635 net.cpp:411] inception_2a/3x3_reduce_bn -> inception_2a/3x3_reduce_bn
I0417 18:21:49.416112 26635 net.cpp:163] Setting up inception_2a/3x3_reduce_bn
I0417 18:21:49.416121 26635 net.cpp:170] Top shape: 25 128 36 14 (1612800)
I0417 18:21:49.416126 26635 layer_factory.hpp:74] Creating layer inception_2a/relu_3x3_reduce
I0417 18:21:49.416129 26635 net.cpp:133] Creating Layer inception_2a/relu_3x3_reduce
I0417 18:21:49.416131 26635 net.cpp:453] inception_2a/relu_3x3_reduce <- inception_2a/3x3_reduce_bn
I0417 18:21:49.416134 26635 net.cpp:400] inception_2a/relu_3x3_reduce -> inception_2a/3x3_reduce_bn (in-place)
I0417 18:21:49.416137 26635 net.cpp:163] Setting up inception_2a/relu_3x3_reduce
I0417 18:21:49.416316 26635 net.cpp:170] Top shape: 25 128 36 14 (1612800)
I0417 18:21:49.416321 26635 layer_factory.hpp:74] Creating layer inception_2a/3x3
I0417 18:21:49.416326 26635 net.cpp:133] Creating Layer inception_2a/3x3
I0417 18:21:49.416327 26635 net.cpp:453] inception_2a/3x3 <- inception_2a/3x3_reduce_bn
I0417 18:21:49.416332 26635 net.cpp:411] inception_2a/3x3 -> inception_2a/3x3
I0417 18:21:49.416335 26635 net.cpp:163] Setting up inception_2a/3x3
I0417 18:21:49.499918 26635 net.cpp:170] Top shape: 25 128 36 14 (1612800)
I0417 18:21:49.499928 26635 layer_factory.hpp:74] Creating layer inception_2a/3x3_bn
I0417 18:21:49.499932 26635 layer_factory.cpp:191] Layer inception_2a/3x3_bn is using CAFFE engine.
I0417 18:21:49.499935 26635 net.cpp:133] Creating Layer inception_2a/3x3_bn
I0417 18:21:49.499938 26635 net.cpp:453] inception_2a/3x3_bn <- inception_2a/3x3
I0417 18:21:49.499940 26635 net.cpp:411] inception_2a/3x3_bn -> inception_2a/3x3_bn
I0417 18:21:49.499945 26635 net.cpp:163] Setting up inception_2a/3x3_bn
I0417 18:21:49.499954 26635 net.cpp:170] Top shape: 25 128 36 14 (1612800)
I0417 18:21:49.499959 26635 layer_factory.hpp:74] Creating layer inception_2a/relu_3x3
I0417 18:21:49.499963 26635 net.cpp:133] Creating Layer inception_2a/relu_3x3
I0417 18:21:49.499965 26635 net.cpp:453] inception_2a/relu_3x3 <- inception_2a/3x3_bn
I0417 18:21:49.499968 26635 net.cpp:400] inception_2a/relu_3x3 -> inception_2a/3x3_bn (in-place)
I0417 18:21:49.499969 26635 net.cpp:163] Setting up inception_2a/relu_3x3
I0417 18:21:49.500077 26635 net.cpp:170] Top shape: 25 128 36 14 (1612800)
I0417 18:21:49.500080 26635 layer_factory.hpp:74] Creating layer inception_2a/double_3x3_reduce
I0417 18:21:49.500085 26635 net.cpp:133] Creating Layer inception_2a/double_3x3_reduce
I0417 18:21:49.500087 26635 net.cpp:453] inception_2a/double_3x3_reduce <- inception_1b/output_inception_1b/output_0_split_2
I0417 18:21:49.500090 26635 net.cpp:411] inception_2a/double_3x3_reduce -> inception_2a/double_3x3_reduce
I0417 18:21:49.500094 26635 net.cpp:163] Setting up inception_2a/double_3x3_reduce
I0417 18:21:49.677080 26635 net.cpp:170] Top shape: 25 128 36 14 (1612800)
I0417 18:21:49.677090 26635 layer_factory.hpp:74] Creating layer inception_2a/double_3x3_reduce_bn
I0417 18:21:49.677093 26635 layer_factory.cpp:191] Layer inception_2a/double_3x3_reduce_bn is using CAFFE engine.
I0417 18:21:49.677106 26635 net.cpp:133] Creating Layer inception_2a/double_3x3_reduce_bn
I0417 18:21:49.677109 26635 net.cpp:453] inception_2a/double_3x3_reduce_bn <- inception_2a/double_3x3_reduce
I0417 18:21:49.677112 26635 net.cpp:411] inception_2a/double_3x3_reduce_bn -> inception_2a/double_3x3_reduce_bn
I0417 18:21:49.677116 26635 net.cpp:163] Setting up inception_2a/double_3x3_reduce_bn
I0417 18:21:49.677125 26635 net.cpp:170] Top shape: 25 128 36 14 (1612800)
I0417 18:21:49.677130 26635 layer_factory.hpp:74] Creating layer inception_2a/relu_double_3x3_reduce
I0417 18:21:49.677134 26635 net.cpp:133] Creating Layer inception_2a/relu_double_3x3_reduce
I0417 18:21:49.677135 26635 net.cpp:453] inception_2a/relu_double_3x3_reduce <- inception_2a/double_3x3_reduce_bn
I0417 18:21:49.677139 26635 net.cpp:400] inception_2a/relu_double_3x3_reduce -> inception_2a/double_3x3_reduce_bn (in-place)
I0417 18:21:49.677141 26635 net.cpp:163] Setting up inception_2a/relu_double_3x3_reduce
I0417 18:21:49.677247 26635 net.cpp:170] Top shape: 25 128 36 14 (1612800)
I0417 18:21:49.677250 26635 layer_factory.hpp:74] Creating layer inception_2a/double_3x3_1
I0417 18:21:49.677255 26635 net.cpp:133] Creating Layer inception_2a/double_3x3_1
I0417 18:21:49.677258 26635 net.cpp:453] inception_2a/double_3x3_1 <- inception_2a/double_3x3_reduce_bn
I0417 18:21:49.677261 26635 net.cpp:411] inception_2a/double_3x3_1 -> inception_2a/double_3x3_1
I0417 18:21:49.677264 26635 net.cpp:163] Setting up inception_2a/double_3x3_1
I0417 18:21:49.761495 26635 net.cpp:170] Top shape: 25 128 36 14 (1612800)
I0417 18:21:49.761504 26635 layer_factory.hpp:74] Creating layer inception_2a/double_3x3_1_bn
I0417 18:21:49.761507 26635 layer_factory.cpp:191] Layer inception_2a/double_3x3_1_bn is using CAFFE engine.
I0417 18:21:49.761512 26635 net.cpp:133] Creating Layer inception_2a/double_3x3_1_bn
I0417 18:21:49.761513 26635 net.cpp:453] inception_2a/double_3x3_1_bn <- inception_2a/double_3x3_1
I0417 18:21:49.761518 26635 net.cpp:411] inception_2a/double_3x3_1_bn -> inception_2a/double_3x3_1_bn
I0417 18:21:49.761521 26635 net.cpp:163] Setting up inception_2a/double_3x3_1_bn
I0417 18:21:49.761531 26635 net.cpp:170] Top shape: 25 128 36 14 (1612800)
I0417 18:21:49.761536 26635 layer_factory.hpp:74] Creating layer inception_2a/relu_double_3x3_1
I0417 18:21:49.761539 26635 net.cpp:133] Creating Layer inception_2a/relu_double_3x3_1
I0417 18:21:49.761540 26635 net.cpp:453] inception_2a/relu_double_3x3_1 <- inception_2a/double_3x3_1_bn
I0417 18:21:49.761543 26635 net.cpp:400] inception_2a/relu_double_3x3_1 -> inception_2a/double_3x3_1_bn (in-place)
I0417 18:21:49.761546 26635 net.cpp:163] Setting up inception_2a/relu_double_3x3_1
I0417 18:21:49.761726 26635 net.cpp:170] Top shape: 25 128 36 14 (1612800)
I0417 18:21:49.761732 26635 layer_factory.hpp:74] Creating layer inception_2a/double_3x3_2
I0417 18:21:49.761737 26635 net.cpp:133] Creating Layer inception_2a/double_3x3_2
I0417 18:21:49.761740 26635 net.cpp:453] inception_2a/double_3x3_2 <- inception_2a/double_3x3_1_bn
I0417 18:21:49.761744 26635 net.cpp:411] inception_2a/double_3x3_2 -> inception_2a/double_3x3_2
I0417 18:21:49.761747 26635 net.cpp:163] Setting up inception_2a/double_3x3_2
I0417 18:21:49.845655 26635 net.cpp:170] Top shape: 25 128 36 14 (1612800)
I0417 18:21:49.845665 26635 layer_factory.hpp:74] Creating layer inception_2a/double_3x3_2_bn
I0417 18:21:49.845669 26635 layer_factory.cpp:191] Layer inception_2a/double_3x3_2_bn is using CAFFE engine.
I0417 18:21:49.845671 26635 net.cpp:133] Creating Layer inception_2a/double_3x3_2_bn
I0417 18:21:49.845674 26635 net.cpp:453] inception_2a/double_3x3_2_bn <- inception_2a/double_3x3_2
I0417 18:21:49.845677 26635 net.cpp:411] inception_2a/double_3x3_2_bn -> inception_2a/double_3x3_2_bn
I0417 18:21:49.845682 26635 net.cpp:163] Setting up inception_2a/double_3x3_2_bn
I0417 18:21:49.845691 26635 net.cpp:170] Top shape: 25 128 36 14 (1612800)
I0417 18:21:49.845696 26635 layer_factory.hpp:74] Creating layer inception_2a/relu_double_3x3_2
I0417 18:21:49.845700 26635 net.cpp:133] Creating Layer inception_2a/relu_double_3x3_2
I0417 18:21:49.845701 26635 net.cpp:453] inception_2a/relu_double_3x3_2 <- inception_2a/double_3x3_2_bn
I0417 18:21:49.845705 26635 net.cpp:400] inception_2a/relu_double_3x3_2 -> inception_2a/double_3x3_2_bn (in-place)
I0417 18:21:49.845706 26635 net.cpp:163] Setting up inception_2a/relu_double_3x3_2
I0417 18:21:49.845811 26635 net.cpp:170] Top shape: 25 128 36 14 (1612800)
I0417 18:21:49.845815 26635 layer_factory.hpp:74] Creating layer inception_2a/pool
I0417 18:21:49.845818 26635 layer_factory.cpp:64] CUDNN does not support padding or multiple tops. Using Caffe's own pooling layer.
I0417 18:21:49.845821 26635 net.cpp:133] Creating Layer inception_2a/pool
I0417 18:21:49.845824 26635 net.cpp:453] inception_2a/pool <- inception_1b/output_inception_1b/output_0_split_3
I0417 18:21:49.845827 26635 net.cpp:411] inception_2a/pool -> inception_2a/pool
I0417 18:21:49.845830 26635 net.cpp:163] Setting up inception_2a/pool
I0417 18:21:49.845835 26635 net.cpp:170] Top shape: 25 384 36 14 (4838400)
I0417 18:21:49.845837 26635 layer_factory.hpp:74] Creating layer inception_2a/pool_proj
I0417 18:21:49.845840 26635 net.cpp:133] Creating Layer inception_2a/pool_proj
I0417 18:21:49.845842 26635 net.cpp:453] inception_2a/pool_proj <- inception_2a/pool
I0417 18:21:49.845845 26635 net.cpp:411] inception_2a/pool_proj -> inception_2a/pool_proj
I0417 18:21:49.845850 26635 net.cpp:163] Setting up inception_2a/pool_proj
I0417 18:21:50.023607 26635 net.cpp:170] Top shape: 25 128 36 14 (1612800)
I0417 18:21:50.023617 26635 layer_factory.hpp:74] Creating layer inception_2a/pool_proj_bn
I0417 18:21:50.023619 26635 layer_factory.cpp:191] Layer inception_2a/pool_proj_bn is using CAFFE engine.
I0417 18:21:50.023623 26635 net.cpp:133] Creating Layer inception_2a/pool_proj_bn
I0417 18:21:50.023627 26635 net.cpp:453] inception_2a/pool_proj_bn <- inception_2a/pool_proj
I0417 18:21:50.023629 26635 net.cpp:411] inception_2a/pool_proj_bn -> inception_2a/pool_proj_bn
I0417 18:21:50.023634 26635 net.cpp:163] Setting up inception_2a/pool_proj_bn
I0417 18:21:50.023643 26635 net.cpp:170] Top shape: 25 128 36 14 (1612800)
I0417 18:21:50.023658 26635 layer_factory.hpp:74] Creating layer inception_2a/relu_pool_proj
I0417 18:21:50.023660 26635 net.cpp:133] Creating Layer inception_2a/relu_pool_proj
I0417 18:21:50.023663 26635 net.cpp:453] inception_2a/relu_pool_proj <- inception_2a/pool_proj_bn
I0417 18:21:50.023665 26635 net.cpp:400] inception_2a/relu_pool_proj -> inception_2a/pool_proj_bn (in-place)
I0417 18:21:50.023669 26635 net.cpp:163] Setting up inception_2a/relu_pool_proj
I0417 18:21:50.023782 26635 net.cpp:170] Top shape: 25 128 36 14 (1612800)
I0417 18:21:50.023787 26635 layer_factory.hpp:74] Creating layer inception_2a/output
I0417 18:21:50.023790 26635 net.cpp:133] Creating Layer inception_2a/output
I0417 18:21:50.023792 26635 net.cpp:453] inception_2a/output <- inception_2a/1x1_bn
I0417 18:21:50.023794 26635 net.cpp:453] inception_2a/output <- inception_2a/3x3_bn
I0417 18:21:50.023797 26635 net.cpp:453] inception_2a/output <- inception_2a/double_3x3_2_bn
I0417 18:21:50.023798 26635 net.cpp:453] inception_2a/output <- inception_2a/pool_proj_bn
I0417 18:21:50.023802 26635 net.cpp:411] inception_2a/output -> inception_2a/output
I0417 18:21:50.023805 26635 net.cpp:163] Setting up inception_2a/output
I0417 18:21:50.023808 26635 net.cpp:170] Top shape: 25 512 36 14 (6451200)
I0417 18:21:50.023810 26635 layer_factory.hpp:74] Creating layer inception_2a/output_inception_2a/output_0_split
I0417 18:21:50.023813 26635 net.cpp:133] Creating Layer inception_2a/output_inception_2a/output_0_split
I0417 18:21:50.023815 26635 net.cpp:453] inception_2a/output_inception_2a/output_0_split <- inception_2a/output
I0417 18:21:50.023818 26635 net.cpp:411] inception_2a/output_inception_2a/output_0_split -> inception_2a/output_inception_2a/output_0_split_0
I0417 18:21:50.023830 26635 net.cpp:411] inception_2a/output_inception_2a/output_0_split -> inception_2a/output_inception_2a/output_0_split_1
I0417 18:21:50.023834 26635 net.cpp:411] inception_2a/output_inception_2a/output_0_split -> inception_2a/output_inception_2a/output_0_split_2
I0417 18:21:50.023838 26635 net.cpp:163] Setting up inception_2a/output_inception_2a/output_0_split
I0417 18:21:50.023840 26635 net.cpp:170] Top shape: 25 512 36 14 (6451200)
I0417 18:21:50.023843 26635 net.cpp:170] Top shape: 25 512 36 14 (6451200)
I0417 18:21:50.023844 26635 net.cpp:170] Top shape: 25 512 36 14 (6451200)
I0417 18:21:50.023846 26635 layer_factory.hpp:74] Creating layer inception_2b/3x3_reduce
I0417 18:21:50.023849 26635 net.cpp:133] Creating Layer inception_2b/3x3_reduce
I0417 18:21:50.023851 26635 net.cpp:453] inception_2b/3x3_reduce <- inception_2a/output_inception_2a/output_0_split_0
I0417 18:21:50.023854 26635 net.cpp:411] inception_2b/3x3_reduce -> inception_2b/3x3_reduce
I0417 18:21:50.023859 26635 net.cpp:163] Setting up inception_2b/3x3_reduce
I0417 18:21:50.254837 26635 net.cpp:170] Top shape: 25 128 36 14 (1612800)
I0417 18:21:50.254848 26635 layer_factory.hpp:74] Creating layer inception_2b/3x3_reduce_bn
I0417 18:21:50.254851 26635 layer_factory.cpp:191] Layer inception_2b/3x3_reduce_bn is using CAFFE engine.
I0417 18:21:50.254855 26635 net.cpp:133] Creating Layer inception_2b/3x3_reduce_bn
I0417 18:21:50.254858 26635 net.cpp:453] inception_2b/3x3_reduce_bn <- inception_2b/3x3_reduce
I0417 18:21:50.254861 26635 net.cpp:411] inception_2b/3x3_reduce_bn -> inception_2b/3x3_reduce_bn
I0417 18:21:50.254865 26635 net.cpp:163] Setting up inception_2b/3x3_reduce_bn
I0417 18:21:50.254875 26635 net.cpp:170] Top shape: 25 128 36 14 (1612800)
I0417 18:21:50.254880 26635 layer_factory.hpp:74] Creating layer inception_2b/relu_3x3_reduce
I0417 18:21:50.254884 26635 net.cpp:133] Creating Layer inception_2b/relu_3x3_reduce
I0417 18:21:50.254885 26635 net.cpp:453] inception_2b/relu_3x3_reduce <- inception_2b/3x3_reduce_bn
I0417 18:21:50.254887 26635 net.cpp:400] inception_2b/relu_3x3_reduce -> inception_2b/3x3_reduce_bn (in-place)
I0417 18:21:50.254890 26635 net.cpp:163] Setting up inception_2b/relu_3x3_reduce
I0417 18:21:50.255074 26635 net.cpp:170] Top shape: 25 128 36 14 (1612800)
I0417 18:21:50.255079 26635 layer_factory.hpp:74] Creating layer inception_2b/3x3
I0417 18:21:50.255084 26635 net.cpp:133] Creating Layer inception_2b/3x3
I0417 18:21:50.255086 26635 net.cpp:453] inception_2b/3x3 <- inception_2b/3x3_reduce_bn
I0417 18:21:50.255090 26635 net.cpp:411] inception_2b/3x3 -> inception_2b/3x3
I0417 18:21:50.255095 26635 net.cpp:163] Setting up inception_2b/3x3
I0417 18:21:50.269443 26635 net.cpp:170] Top shape: 25 128 18 7 (403200)
I0417 18:21:50.269454 26635 layer_factory.hpp:74] Creating layer inception_2b/3x3_bn
I0417 18:21:50.269455 26635 layer_factory.cpp:191] Layer inception_2b/3x3_bn is using CAFFE engine.
I0417 18:21:50.269459 26635 net.cpp:133] Creating Layer inception_2b/3x3_bn
I0417 18:21:50.269461 26635 net.cpp:453] inception_2b/3x3_bn <- inception_2b/3x3
I0417 18:21:50.269465 26635 net.cpp:411] inception_2b/3x3_bn -> inception_2b/3x3_bn
I0417 18:21:50.269470 26635 net.cpp:163] Setting up inception_2b/3x3_bn
I0417 18:21:50.269479 26635 net.cpp:170] Top shape: 25 128 18 7 (403200)
I0417 18:21:50.269484 26635 layer_factory.hpp:74] Creating layer inception_2b/relu_3x3
I0417 18:21:50.269487 26635 net.cpp:133] Creating Layer inception_2b/relu_3x3
I0417 18:21:50.269490 26635 net.cpp:453] inception_2b/relu_3x3 <- inception_2b/3x3_bn
I0417 18:21:50.269493 26635 net.cpp:400] inception_2b/relu_3x3 -> inception_2b/3x3_bn (in-place)
I0417 18:21:50.269495 26635 net.cpp:163] Setting up inception_2b/relu_3x3
I0417 18:21:50.269601 26635 net.cpp:170] Top shape: 25 128 18 7 (403200)
I0417 18:21:50.269605 26635 layer_factory.hpp:74] Creating layer inception_2b/double_3x3_reduce
I0417 18:21:50.269610 26635 net.cpp:133] Creating Layer inception_2b/double_3x3_reduce
I0417 18:21:50.269611 26635 net.cpp:453] inception_2b/double_3x3_reduce <- inception_2a/output_inception_2a/output_0_split_1
I0417 18:21:50.269615 26635 net.cpp:411] inception_2b/double_3x3_reduce -> inception_2b/double_3x3_reduce
I0417 18:21:50.269619 26635 net.cpp:163] Setting up inception_2b/double_3x3_reduce
I0417 18:21:50.501646 26635 net.cpp:170] Top shape: 25 128 36 14 (1612800)
I0417 18:21:50.501657 26635 layer_factory.hpp:74] Creating layer inception_2b/double_3x3_reduce_bn
I0417 18:21:50.501658 26635 layer_factory.cpp:191] Layer inception_2b/double_3x3_reduce_bn is using CAFFE engine.
I0417 18:21:50.501663 26635 net.cpp:133] Creating Layer inception_2b/double_3x3_reduce_bn
I0417 18:21:50.501665 26635 net.cpp:453] inception_2b/double_3x3_reduce_bn <- inception_2b/double_3x3_reduce
I0417 18:21:50.501669 26635 net.cpp:411] inception_2b/double_3x3_reduce_bn -> inception_2b/double_3x3_reduce_bn
I0417 18:21:50.501673 26635 net.cpp:163] Setting up inception_2b/double_3x3_reduce_bn
I0417 18:21:50.501683 26635 net.cpp:170] Top shape: 25 128 36 14 (1612800)
I0417 18:21:50.501688 26635 layer_factory.hpp:74] Creating layer inception_2b/relu_double_3x3_reduce
I0417 18:21:50.501690 26635 net.cpp:133] Creating Layer inception_2b/relu_double_3x3_reduce
I0417 18:21:50.501693 26635 net.cpp:453] inception_2b/relu_double_3x3_reduce <- inception_2b/double_3x3_reduce_bn
I0417 18:21:50.501695 26635 net.cpp:400] inception_2b/relu_double_3x3_reduce -> inception_2b/double_3x3_reduce_bn (in-place)
I0417 18:21:50.501698 26635 net.cpp:163] Setting up inception_2b/relu_double_3x3_reduce
I0417 18:21:50.501806 26635 net.cpp:170] Top shape: 25 128 36 14 (1612800)
I0417 18:21:50.501809 26635 layer_factory.hpp:74] Creating layer inception_2b/double_3x3_1
I0417 18:21:50.501814 26635 net.cpp:133] Creating Layer inception_2b/double_3x3_1
I0417 18:21:50.501816 26635 net.cpp:453] inception_2b/double_3x3_1 <- inception_2b/double_3x3_reduce_bn
I0417 18:21:50.501821 26635 net.cpp:411] inception_2b/double_3x3_1 -> inception_2b/double_3x3_1
I0417 18:21:50.501823 26635 net.cpp:163] Setting up inception_2b/double_3x3_1
I0417 18:21:50.586318 26635 net.cpp:170] Top shape: 25 128 36 14 (1612800)
I0417 18:21:50.586328 26635 layer_factory.hpp:74] Creating layer inception_2b/double_3x3_1_bn
I0417 18:21:50.586329 26635 layer_factory.cpp:191] Layer inception_2b/double_3x3_1_bn is using CAFFE engine.
I0417 18:21:50.586334 26635 net.cpp:133] Creating Layer inception_2b/double_3x3_1_bn
I0417 18:21:50.586336 26635 net.cpp:453] inception_2b/double_3x3_1_bn <- inception_2b/double_3x3_1
I0417 18:21:50.586340 26635 net.cpp:411] inception_2b/double_3x3_1_bn -> inception_2b/double_3x3_1_bn
I0417 18:21:50.586344 26635 net.cpp:163] Setting up inception_2b/double_3x3_1_bn
I0417 18:21:50.586354 26635 net.cpp:170] Top shape: 25 128 36 14 (1612800)
I0417 18:21:50.586359 26635 layer_factory.hpp:74] Creating layer inception_2b/relu_double_3x3_1
I0417 18:21:50.586362 26635 net.cpp:133] Creating Layer inception_2b/relu_double_3x3_1
I0417 18:21:50.586364 26635 net.cpp:453] inception_2b/relu_double_3x3_1 <- inception_2b/double_3x3_1_bn
I0417 18:21:50.586366 26635 net.cpp:400] inception_2b/relu_double_3x3_1 -> inception_2b/double_3x3_1_bn (in-place)
I0417 18:21:50.586369 26635 net.cpp:163] Setting up inception_2b/relu_double_3x3_1
I0417 18:21:50.586550 26635 net.cpp:170] Top shape: 25 128 36 14 (1612800)
I0417 18:21:50.586556 26635 layer_factory.hpp:74] Creating layer inception_2b/double_3x3_2
I0417 18:21:50.586561 26635 net.cpp:133] Creating Layer inception_2b/double_3x3_2
I0417 18:21:50.586563 26635 net.cpp:453] inception_2b/double_3x3_2 <- inception_2b/double_3x3_1_bn
I0417 18:21:50.586567 26635 net.cpp:411] inception_2b/double_3x3_2 -> inception_2b/double_3x3_2
I0417 18:21:50.586571 26635 net.cpp:163] Setting up inception_2b/double_3x3_2
I0417 18:21:50.600958 26635 net.cpp:170] Top shape: 25 128 18 7 (403200)
I0417 18:21:50.600968 26635 layer_factory.hpp:74] Creating layer inception_2b/double_3x3_2_bn
I0417 18:21:50.600971 26635 layer_factory.cpp:191] Layer inception_2b/double_3x3_2_bn is using CAFFE engine.
I0417 18:21:50.600975 26635 net.cpp:133] Creating Layer inception_2b/double_3x3_2_bn
I0417 18:21:50.600977 26635 net.cpp:453] inception_2b/double_3x3_2_bn <- inception_2b/double_3x3_2
I0417 18:21:50.600981 26635 net.cpp:411] inception_2b/double_3x3_2_bn -> inception_2b/double_3x3_2_bn
I0417 18:21:50.600986 26635 net.cpp:163] Setting up inception_2b/double_3x3_2_bn
I0417 18:21:50.600994 26635 net.cpp:170] Top shape: 25 128 18 7 (403200)
I0417 18:21:50.600998 26635 layer_factory.hpp:74] Creating layer inception_2b/relu_double_3x3_2
I0417 18:21:50.601001 26635 net.cpp:133] Creating Layer inception_2b/relu_double_3x3_2
I0417 18:21:50.601003 26635 net.cpp:453] inception_2b/relu_double_3x3_2 <- inception_2b/double_3x3_2_bn
I0417 18:21:50.601006 26635 net.cpp:400] inception_2b/relu_double_3x3_2 -> inception_2b/double_3x3_2_bn (in-place)
I0417 18:21:50.601009 26635 net.cpp:163] Setting up inception_2b/relu_double_3x3_2
I0417 18:21:50.601114 26635 net.cpp:170] Top shape: 25 128 18 7 (403200)
I0417 18:21:50.601119 26635 layer_factory.hpp:74] Creating layer inception_2b/pool
I0417 18:21:50.601124 26635 net.cpp:133] Creating Layer inception_2b/pool
I0417 18:21:50.601125 26635 net.cpp:453] inception_2b/pool <- inception_2a/output_inception_2a/output_0_split_2
I0417 18:21:50.601128 26635 net.cpp:411] inception_2b/pool -> inception_2b/pool
I0417 18:21:50.601131 26635 net.cpp:163] Setting up inception_2b/pool
I0417 18:21:50.601307 26635 net.cpp:170] Top shape: 25 512 18 7 (1612800)
I0417 18:21:50.601313 26635 layer_factory.hpp:74] Creating layer inception_2b/output
I0417 18:21:50.601316 26635 net.cpp:133] Creating Layer inception_2b/output
I0417 18:21:50.601318 26635 net.cpp:453] inception_2b/output <- inception_2b/3x3_bn
I0417 18:21:50.601321 26635 net.cpp:453] inception_2b/output <- inception_2b/double_3x3_2_bn
I0417 18:21:50.601323 26635 net.cpp:453] inception_2b/output <- inception_2b/pool
I0417 18:21:50.601326 26635 net.cpp:411] inception_2b/output -> inception_2b/output
I0417 18:21:50.601330 26635 net.cpp:163] Setting up inception_2b/output
I0417 18:21:50.601333 26635 net.cpp:170] Top shape: 25 768 18 7 (2419200)
I0417 18:21:50.601336 26635 layer_factory.hpp:74] Creating layer inception_2b/output_inception_2b/output_0_split
I0417 18:21:50.601338 26635 net.cpp:133] Creating Layer inception_2b/output_inception_2b/output_0_split
I0417 18:21:50.601341 26635 net.cpp:453] inception_2b/output_inception_2b/output_0_split <- inception_2b/output
I0417 18:21:50.601343 26635 net.cpp:411] inception_2b/output_inception_2b/output_0_split -> inception_2b/output_inception_2b/output_0_split_0
I0417 18:21:50.601346 26635 net.cpp:411] inception_2b/output_inception_2b/output_0_split -> inception_2b/output_inception_2b/output_0_split_1
I0417 18:21:50.601351 26635 net.cpp:411] inception_2b/output_inception_2b/output_0_split -> inception_2b/output_inception_2b/output_0_split_2
I0417 18:21:50.601353 26635 net.cpp:411] inception_2b/output_inception_2b/output_0_split -> inception_2b/output_inception_2b/output_0_split_3
I0417 18:21:50.601356 26635 net.cpp:163] Setting up inception_2b/output_inception_2b/output_0_split
I0417 18:21:50.601359 26635 net.cpp:170] Top shape: 25 768 18 7 (2419200)
I0417 18:21:50.601361 26635 net.cpp:170] Top shape: 25 768 18 7 (2419200)
I0417 18:21:50.601363 26635 net.cpp:170] Top shape: 25 768 18 7 (2419200)
I0417 18:21:50.601366 26635 net.cpp:170] Top shape: 25 768 18 7 (2419200)
I0417 18:21:50.601366 26635 layer_factory.hpp:74] Creating layer inception_3a/1x1
I0417 18:21:50.601371 26635 net.cpp:133] Creating Layer inception_3a/1x1
I0417 18:21:50.601372 26635 net.cpp:453] inception_3a/1x1 <- inception_2b/output_inception_2b/output_0_split_0
I0417 18:21:50.601375 26635 net.cpp:411] inception_3a/1x1 -> inception_3a/1x1
I0417 18:21:50.601379 26635 net.cpp:163] Setting up inception_3a/1x1
I0417 18:21:50.787051 26635 net.cpp:170] Top shape: 25 256 18 7 (806400)
I0417 18:21:50.787061 26635 layer_factory.hpp:74] Creating layer inception_3a/1x1_bn
I0417 18:21:50.787065 26635 layer_factory.cpp:191] Layer inception_3a/1x1_bn is using CAFFE engine.
I0417 18:21:50.787072 26635 net.cpp:133] Creating Layer inception_3a/1x1_bn
I0417 18:21:50.787075 26635 net.cpp:453] inception_3a/1x1_bn <- inception_3a/1x1
I0417 18:21:50.787078 26635 net.cpp:411] inception_3a/1x1_bn -> inception_3a/1x1_bn
I0417 18:21:50.787083 26635 net.cpp:163] Setting up inception_3a/1x1_bn
I0417 18:21:50.787092 26635 net.cpp:170] Top shape: 25 256 18 7 (806400)
I0417 18:21:50.787098 26635 layer_factory.hpp:74] Creating layer inception_3a/relu_1x1
I0417 18:21:50.787101 26635 net.cpp:133] Creating Layer inception_3a/relu_1x1
I0417 18:21:50.787103 26635 net.cpp:453] inception_3a/relu_1x1 <- inception_3a/1x1_bn
I0417 18:21:50.787106 26635 net.cpp:400] inception_3a/relu_1x1 -> inception_3a/1x1_bn (in-place)
I0417 18:21:50.787108 26635 net.cpp:163] Setting up inception_3a/relu_1x1
I0417 18:21:50.787289 26635 net.cpp:170] Top shape: 25 256 18 7 (806400)
I0417 18:21:50.787295 26635 layer_factory.hpp:74] Creating layer inception_3a/3x3_reduce
I0417 18:21:50.787300 26635 net.cpp:133] Creating Layer inception_3a/3x3_reduce
I0417 18:21:50.787302 26635 net.cpp:453] inception_3a/3x3_reduce <- inception_2b/output_inception_2b/output_0_split_1
I0417 18:21:50.787307 26635 net.cpp:411] inception_3a/3x3_reduce -> inception_3a/3x3_reduce
I0417 18:21:50.787312 26635 net.cpp:163] Setting up inception_3a/3x3_reduce
I0417 18:21:50.972363 26635 net.cpp:170] Top shape: 25 256 18 7 (806400)
I0417 18:21:50.972375 26635 layer_factory.hpp:74] Creating layer inception_3a/3x3_reduce_bn
I0417 18:21:50.972378 26635 layer_factory.cpp:191] Layer inception_3a/3x3_reduce_bn is using CAFFE engine.
I0417 18:21:50.972383 26635 net.cpp:133] Creating Layer inception_3a/3x3_reduce_bn
I0417 18:21:50.972384 26635 net.cpp:453] inception_3a/3x3_reduce_bn <- inception_3a/3x3_reduce
I0417 18:21:50.972389 26635 net.cpp:411] inception_3a/3x3_reduce_bn -> inception_3a/3x3_reduce_bn
I0417 18:21:50.972393 26635 net.cpp:163] Setting up inception_3a/3x3_reduce_bn
I0417 18:21:50.972404 26635 net.cpp:170] Top shape: 25 256 18 7 (806400)
I0417 18:21:50.972409 26635 layer_factory.hpp:74] Creating layer inception_3a/relu_3x3_reduce
I0417 18:21:50.972412 26635 net.cpp:133] Creating Layer inception_3a/relu_3x3_reduce
I0417 18:21:50.972414 26635 net.cpp:453] inception_3a/relu_3x3_reduce <- inception_3a/3x3_reduce_bn
I0417 18:21:50.972416 26635 net.cpp:400] inception_3a/relu_3x3_reduce -> inception_3a/3x3_reduce_bn (in-place)
I0417 18:21:50.972419 26635 net.cpp:163] Setting up inception_3a/relu_3x3_reduce
I0417 18:21:50.972532 26635 net.cpp:170] Top shape: 25 256 18 7 (806400)
I0417 18:21:50.972537 26635 layer_factory.hpp:74] Creating layer inception_3a/3x3
I0417 18:21:50.972542 26635 net.cpp:133] Creating Layer inception_3a/3x3
I0417 18:21:50.972543 26635 net.cpp:453] inception_3a/3x3 <- inception_3a/3x3_reduce_bn
I0417 18:21:50.972548 26635 net.cpp:411] inception_3a/3x3 -> inception_3a/3x3
I0417 18:21:50.972551 26635 net.cpp:163] Setting up inception_3a/3x3
I0417 18:21:51.063222 26635 net.cpp:170] Top shape: 25 256 18 7 (806400)
I0417 18:21:51.063232 26635 layer_factory.hpp:74] Creating layer inception_3a/3x3_bn
I0417 18:21:51.063235 26635 layer_factory.cpp:191] Layer inception_3a/3x3_bn is using CAFFE engine.
I0417 18:21:51.063240 26635 net.cpp:133] Creating Layer inception_3a/3x3_bn
I0417 18:21:51.063241 26635 net.cpp:453] inception_3a/3x3_bn <- inception_3a/3x3
I0417 18:21:51.063246 26635 net.cpp:411] inception_3a/3x3_bn -> inception_3a/3x3_bn
I0417 18:21:51.063251 26635 net.cpp:163] Setting up inception_3a/3x3_bn
I0417 18:21:51.063259 26635 net.cpp:170] Top shape: 25 256 18 7 (806400)
I0417 18:21:51.063264 26635 layer_factory.hpp:74] Creating layer inception_3a/relu_3x3
I0417 18:21:51.063268 26635 net.cpp:133] Creating Layer inception_3a/relu_3x3
I0417 18:21:51.063271 26635 net.cpp:453] inception_3a/relu_3x3 <- inception_3a/3x3_bn
I0417 18:21:51.063272 26635 net.cpp:400] inception_3a/relu_3x3 -> inception_3a/3x3_bn (in-place)
I0417 18:21:51.063276 26635 net.cpp:163] Setting up inception_3a/relu_3x3
I0417 18:21:51.063459 26635 net.cpp:170] Top shape: 25 256 18 7 (806400)
I0417 18:21:51.063465 26635 layer_factory.hpp:74] Creating layer inception_3a/double_3x3_reduce
I0417 18:21:51.063470 26635 net.cpp:133] Creating Layer inception_3a/double_3x3_reduce
I0417 18:21:51.063472 26635 net.cpp:453] inception_3a/double_3x3_reduce <- inception_2b/output_inception_2b/output_0_split_2
I0417 18:21:51.063477 26635 net.cpp:411] inception_3a/double_3x3_reduce -> inception_3a/double_3x3_reduce
I0417 18:21:51.063482 26635 net.cpp:163] Setting up inception_3a/double_3x3_reduce
I0417 18:21:51.248826 26635 net.cpp:170] Top shape: 25 256 18 7 (806400)
I0417 18:21:51.248842 26635 layer_factory.hpp:74] Creating layer inception_3a/double_3x3_reduce_bn
I0417 18:21:51.248844 26635 layer_factory.cpp:191] Layer inception_3a/double_3x3_reduce_bn is using CAFFE engine.
I0417 18:21:51.248850 26635 net.cpp:133] Creating Layer inception_3a/double_3x3_reduce_bn
I0417 18:21:51.248853 26635 net.cpp:453] inception_3a/double_3x3_reduce_bn <- inception_3a/double_3x3_reduce
I0417 18:21:51.248857 26635 net.cpp:411] inception_3a/double_3x3_reduce_bn -> inception_3a/double_3x3_reduce_bn
I0417 18:21:51.248863 26635 net.cpp:163] Setting up inception_3a/double_3x3_reduce_bn
I0417 18:21:51.248874 26635 net.cpp:170] Top shape: 25 256 18 7 (806400)
I0417 18:21:51.248878 26635 layer_factory.hpp:74] Creating layer inception_3a/relu_double_3x3_reduce
I0417 18:21:51.248883 26635 net.cpp:133] Creating Layer inception_3a/relu_double_3x3_reduce
I0417 18:21:51.248883 26635 net.cpp:453] inception_3a/relu_double_3x3_reduce <- inception_3a/double_3x3_reduce_bn
I0417 18:21:51.248888 26635 net.cpp:400] inception_3a/relu_double_3x3_reduce -> inception_3a/double_3x3_reduce_bn (in-place)
I0417 18:21:51.248890 26635 net.cpp:163] Setting up inception_3a/relu_double_3x3_reduce
I0417 18:21:51.249094 26635 net.cpp:170] Top shape: 25 256 18 7 (806400)
I0417 18:21:51.249099 26635 layer_factory.hpp:74] Creating layer inception_3a/double_3x3_1
I0417 18:21:51.249104 26635 net.cpp:133] Creating Layer inception_3a/double_3x3_1
I0417 18:21:51.249106 26635 net.cpp:453] inception_3a/double_3x3_1 <- inception_3a/double_3x3_reduce_bn
I0417 18:21:51.249109 26635 net.cpp:411] inception_3a/double_3x3_1 -> inception_3a/double_3x3_1
I0417 18:21:51.249115 26635 net.cpp:163] Setting up inception_3a/double_3x3_1
I0417 18:21:51.340695 26635 net.cpp:170] Top shape: 25 256 18 7 (806400)
I0417 18:21:51.340705 26635 layer_factory.hpp:74] Creating layer inception_3a/double_3x3_1_bn
I0417 18:21:51.340708 26635 layer_factory.cpp:191] Layer inception_3a/double_3x3_1_bn is using CAFFE engine.
I0417 18:21:51.340711 26635 net.cpp:133] Creating Layer inception_3a/double_3x3_1_bn
I0417 18:21:51.340714 26635 net.cpp:453] inception_3a/double_3x3_1_bn <- inception_3a/double_3x3_1
I0417 18:21:51.340718 26635 net.cpp:411] inception_3a/double_3x3_1_bn -> inception_3a/double_3x3_1_bn
I0417 18:21:51.340723 26635 net.cpp:163] Setting up inception_3a/double_3x3_1_bn
I0417 18:21:51.340731 26635 net.cpp:170] Top shape: 25 256 18 7 (806400)
I0417 18:21:51.340736 26635 layer_factory.hpp:74] Creating layer inception_3a/relu_double_3x3_1
I0417 18:21:51.340741 26635 net.cpp:133] Creating Layer inception_3a/relu_double_3x3_1
I0417 18:21:51.340744 26635 net.cpp:453] inception_3a/relu_double_3x3_1 <- inception_3a/double_3x3_1_bn
I0417 18:21:51.340746 26635 net.cpp:400] inception_3a/relu_double_3x3_1 -> inception_3a/double_3x3_1_bn (in-place)
I0417 18:21:51.340749 26635 net.cpp:163] Setting up inception_3a/relu_double_3x3_1
I0417 18:21:51.340858 26635 net.cpp:170] Top shape: 25 256 18 7 (806400)
I0417 18:21:51.340862 26635 layer_factory.hpp:74] Creating layer inception_3a/double_3x3_2
I0417 18:21:51.340867 26635 net.cpp:133] Creating Layer inception_3a/double_3x3_2
I0417 18:21:51.340868 26635 net.cpp:453] inception_3a/double_3x3_2 <- inception_3a/double_3x3_1_bn
I0417 18:21:51.340873 26635 net.cpp:411] inception_3a/double_3x3_2 -> inception_3a/double_3x3_2
I0417 18:21:51.340876 26635 net.cpp:163] Setting up inception_3a/double_3x3_2
I0417 18:21:51.431113 26635 net.cpp:170] Top shape: 25 256 18 7 (806400)
I0417 18:21:51.431123 26635 layer_factory.hpp:74] Creating layer inception_3a/double_3x3_2_bn
I0417 18:21:51.431125 26635 layer_factory.cpp:191] Layer inception_3a/double_3x3_2_bn is using CAFFE engine.
I0417 18:21:51.431130 26635 net.cpp:133] Creating Layer inception_3a/double_3x3_2_bn
I0417 18:21:51.431133 26635 net.cpp:453] inception_3a/double_3x3_2_bn <- inception_3a/double_3x3_2
I0417 18:21:51.431136 26635 net.cpp:411] inception_3a/double_3x3_2_bn -> inception_3a/double_3x3_2_bn
I0417 18:21:51.431140 26635 net.cpp:163] Setting up inception_3a/double_3x3_2_bn
I0417 18:21:51.431150 26635 net.cpp:170] Top shape: 25 256 18 7 (806400)
I0417 18:21:51.431155 26635 layer_factory.hpp:74] Creating layer inception_3a/relu_double_3x3_2
I0417 18:21:51.431159 26635 net.cpp:133] Creating Layer inception_3a/relu_double_3x3_2
I0417 18:21:51.431161 26635 net.cpp:453] inception_3a/relu_double_3x3_2 <- inception_3a/double_3x3_2_bn
I0417 18:21:51.431164 26635 net.cpp:400] inception_3a/relu_double_3x3_2 -> inception_3a/double_3x3_2_bn (in-place)
I0417 18:21:51.431166 26635 net.cpp:163] Setting up inception_3a/relu_double_3x3_2
I0417 18:21:51.431351 26635 net.cpp:170] Top shape: 25 256 18 7 (806400)
I0417 18:21:51.431357 26635 layer_factory.hpp:74] Creating layer inception_3a/pool
I0417 18:21:51.431360 26635 layer_factory.cpp:64] CUDNN does not support padding or multiple tops. Using Caffe's own pooling layer.
I0417 18:21:51.431365 26635 net.cpp:133] Creating Layer inception_3a/pool
I0417 18:21:51.431366 26635 net.cpp:453] inception_3a/pool <- inception_2b/output_inception_2b/output_0_split_3
I0417 18:21:51.431370 26635 net.cpp:411] inception_3a/pool -> inception_3a/pool
I0417 18:21:51.431373 26635 net.cpp:163] Setting up inception_3a/pool
I0417 18:21:51.431377 26635 net.cpp:170] Top shape: 25 768 18 7 (2419200)
I0417 18:21:51.431380 26635 layer_factory.hpp:74] Creating layer inception_3a/pool_proj
I0417 18:21:51.431383 26635 net.cpp:133] Creating Layer inception_3a/pool_proj
I0417 18:21:51.431386 26635 net.cpp:453] inception_3a/pool_proj <- inception_3a/pool
I0417 18:21:51.431390 26635 net.cpp:411] inception_3a/pool_proj -> inception_3a/pool_proj
I0417 18:21:51.431393 26635 net.cpp:163] Setting up inception_3a/pool_proj
I0417 18:21:51.615784 26635 net.cpp:170] Top shape: 25 256 18 7 (806400)
I0417 18:21:51.615797 26635 layer_factory.hpp:74] Creating layer inception_3a/pool_proj_bn
I0417 18:21:51.615799 26635 layer_factory.cpp:191] Layer inception_3a/pool_proj_bn is using CAFFE engine.
I0417 18:21:51.615804 26635 net.cpp:133] Creating Layer inception_3a/pool_proj_bn
I0417 18:21:51.615806 26635 net.cpp:453] inception_3a/pool_proj_bn <- inception_3a/pool_proj
I0417 18:21:51.615811 26635 net.cpp:411] inception_3a/pool_proj_bn -> inception_3a/pool_proj_bn
I0417 18:21:51.615816 26635 net.cpp:163] Setting up inception_3a/pool_proj_bn
I0417 18:21:51.615826 26635 net.cpp:170] Top shape: 25 256 18 7 (806400)
I0417 18:21:51.615831 26635 layer_factory.hpp:74] Creating layer inception_3a/relu_pool_proj
I0417 18:21:51.615835 26635 net.cpp:133] Creating Layer inception_3a/relu_pool_proj
I0417 18:21:51.615838 26635 net.cpp:453] inception_3a/relu_pool_proj <- inception_3a/pool_proj_bn
I0417 18:21:51.615839 26635 net.cpp:400] inception_3a/relu_pool_proj -> inception_3a/pool_proj_bn (in-place)
I0417 18:21:51.615842 26635 net.cpp:163] Setting up inception_3a/relu_pool_proj
I0417 18:21:51.616039 26635 net.cpp:170] Top shape: 25 256 18 7 (806400)
I0417 18:21:51.616044 26635 layer_factory.hpp:74] Creating layer inception_3a/output
I0417 18:21:51.616049 26635 net.cpp:133] Creating Layer inception_3a/output
I0417 18:21:51.616050 26635 net.cpp:453] inception_3a/output <- inception_3a/1x1_bn
I0417 18:21:51.616053 26635 net.cpp:453] inception_3a/output <- inception_3a/3x3_bn
I0417 18:21:51.616055 26635 net.cpp:453] inception_3a/output <- inception_3a/double_3x3_2_bn
I0417 18:21:51.616057 26635 net.cpp:453] inception_3a/output <- inception_3a/pool_proj_bn
I0417 18:21:51.616060 26635 net.cpp:411] inception_3a/output -> inception_3a/output
I0417 18:21:51.616065 26635 net.cpp:163] Setting up inception_3a/output
I0417 18:21:51.616068 26635 net.cpp:170] Top shape: 25 1024 18 7 (3225600)
I0417 18:21:51.616070 26635 layer_factory.hpp:74] Creating layer inception_3a/output_inception_3a/output_0_split
I0417 18:21:51.616073 26635 net.cpp:133] Creating Layer inception_3a/output_inception_3a/output_0_split
I0417 18:21:51.616075 26635 net.cpp:453] inception_3a/output_inception_3a/output_0_split <- inception_3a/output
I0417 18:21:51.616078 26635 net.cpp:411] inception_3a/output_inception_3a/output_0_split -> inception_3a/output_inception_3a/output_0_split_0
I0417 18:21:51.616081 26635 net.cpp:411] inception_3a/output_inception_3a/output_0_split -> inception_3a/output_inception_3a/output_0_split_1
I0417 18:21:51.616087 26635 net.cpp:411] inception_3a/output_inception_3a/output_0_split -> inception_3a/output_inception_3a/output_0_split_2
I0417 18:21:51.616091 26635 net.cpp:163] Setting up inception_3a/output_inception_3a/output_0_split
I0417 18:21:51.616093 26635 net.cpp:170] Top shape: 25 1024 18 7 (3225600)
I0417 18:21:51.616096 26635 net.cpp:170] Top shape: 25 1024 18 7 (3225600)
I0417 18:21:51.616097 26635 net.cpp:170] Top shape: 25 1024 18 7 (3225600)
I0417 18:21:51.616099 26635 layer_factory.hpp:74] Creating layer inception_3b/3x3_reduce
I0417 18:21:51.616103 26635 net.cpp:133] Creating Layer inception_3b/3x3_reduce
I0417 18:21:51.616106 26635 net.cpp:453] inception_3b/3x3_reduce <- inception_3a/output_inception_3a/output_0_split_0
I0417 18:21:51.616108 26635 net.cpp:411] inception_3b/3x3_reduce -> inception_3b/3x3_reduce
I0417 18:21:51.616111 26635 net.cpp:163] Setting up inception_3b/3x3_reduce
I0417 18:21:51.863046 26635 net.cpp:170] Top shape: 25 256 18 7 (806400)
I0417 18:21:51.863057 26635 layer_factory.hpp:74] Creating layer inception_3b/3x3_reduce_bn
I0417 18:21:51.863060 26635 layer_factory.cpp:191] Layer inception_3b/3x3_reduce_bn is using CAFFE engine.
I0417 18:21:51.863065 26635 net.cpp:133] Creating Layer inception_3b/3x3_reduce_bn
I0417 18:21:51.863067 26635 net.cpp:453] inception_3b/3x3_reduce_bn <- inception_3b/3x3_reduce
I0417 18:21:51.863071 26635 net.cpp:411] inception_3b/3x3_reduce_bn -> inception_3b/3x3_reduce_bn
I0417 18:21:51.863075 26635 net.cpp:163] Setting up inception_3b/3x3_reduce_bn
I0417 18:21:51.863085 26635 net.cpp:170] Top shape: 25 256 18 7 (806400)
I0417 18:21:51.863090 26635 layer_factory.hpp:74] Creating layer inception_3b/relu_3x3_reduce
I0417 18:21:51.863093 26635 net.cpp:133] Creating Layer inception_3b/relu_3x3_reduce
I0417 18:21:51.863095 26635 net.cpp:453] inception_3b/relu_3x3_reduce <- inception_3b/3x3_reduce_bn
I0417 18:21:51.863097 26635 net.cpp:400] inception_3b/relu_3x3_reduce -> inception_3b/3x3_reduce_bn (in-place)
I0417 18:21:51.863101 26635 net.cpp:163] Setting up inception_3b/relu_3x3_reduce
I0417 18:21:51.863214 26635 net.cpp:170] Top shape: 25 256 18 7 (806400)
I0417 18:21:51.863219 26635 layer_factory.hpp:74] Creating layer inception_3b/3x3
I0417 18:21:51.863222 26635 net.cpp:133] Creating Layer inception_3b/3x3
I0417 18:21:51.863224 26635 net.cpp:453] inception_3b/3x3 <- inception_3b/3x3_reduce_bn
I0417 18:21:51.863227 26635 net.cpp:411] inception_3b/3x3 -> inception_3b/3x3
I0417 18:21:51.863231 26635 net.cpp:163] Setting up inception_3b/3x3
I0417 18:21:51.883971 26635 net.cpp:170] Top shape: 25 256 9 4 (230400)
I0417 18:21:51.883981 26635 layer_factory.hpp:74] Creating layer inception_3b/3x3_bn
I0417 18:21:51.883985 26635 layer_factory.cpp:191] Layer inception_3b/3x3_bn is using CAFFE engine.
I0417 18:21:51.883988 26635 net.cpp:133] Creating Layer inception_3b/3x3_bn
I0417 18:21:51.883991 26635 net.cpp:453] inception_3b/3x3_bn <- inception_3b/3x3
I0417 18:21:51.883994 26635 net.cpp:411] inception_3b/3x3_bn -> inception_3b/3x3_bn
I0417 18:21:51.883998 26635 net.cpp:163] Setting up inception_3b/3x3_bn
I0417 18:21:51.884007 26635 net.cpp:170] Top shape: 25 256 9 4 (230400)
I0417 18:21:51.884012 26635 layer_factory.hpp:74] Creating layer inception_3b/relu_3x3
I0417 18:21:51.884016 26635 net.cpp:133] Creating Layer inception_3b/relu_3x3
I0417 18:21:51.884017 26635 net.cpp:453] inception_3b/relu_3x3 <- inception_3b/3x3_bn
I0417 18:21:51.884021 26635 net.cpp:400] inception_3b/relu_3x3 -> inception_3b/3x3_bn (in-place)
I0417 18:21:51.884023 26635 net.cpp:163] Setting up inception_3b/relu_3x3
I0417 18:21:51.884207 26635 net.cpp:170] Top shape: 25 256 9 4 (230400)
I0417 18:21:51.884213 26635 layer_factory.hpp:74] Creating layer inception_3b/double_3x3_reduce
I0417 18:21:51.884218 26635 net.cpp:133] Creating Layer inception_3b/double_3x3_reduce
I0417 18:21:51.884220 26635 net.cpp:453] inception_3b/double_3x3_reduce <- inception_3a/output_inception_3a/output_0_split_1
I0417 18:21:51.884223 26635 net.cpp:411] inception_3b/double_3x3_reduce -> inception_3b/double_3x3_reduce
I0417 18:21:51.884228 26635 net.cpp:163] Setting up inception_3b/double_3x3_reduce
I0417 18:21:52.130939 26635 net.cpp:170] Top shape: 25 256 18 7 (806400)
I0417 18:21:52.130949 26635 layer_factory.hpp:74] Creating layer inception_3b/double_3x3_reduce_bn
I0417 18:21:52.130952 26635 layer_factory.cpp:191] Layer inception_3b/double_3x3_reduce_bn is using CAFFE engine.
I0417 18:21:52.130956 26635 net.cpp:133] Creating Layer inception_3b/double_3x3_reduce_bn
I0417 18:21:52.130959 26635 net.cpp:453] inception_3b/double_3x3_reduce_bn <- inception_3b/double_3x3_reduce
I0417 18:21:52.130962 26635 net.cpp:411] inception_3b/double_3x3_reduce_bn -> inception_3b/double_3x3_reduce_bn
I0417 18:21:52.130967 26635 net.cpp:163] Setting up inception_3b/double_3x3_reduce_bn
I0417 18:21:52.130976 26635 net.cpp:170] Top shape: 25 256 18 7 (806400)
I0417 18:21:52.130981 26635 layer_factory.hpp:74] Creating layer inception_3b/relu_double_3x3_reduce
I0417 18:21:52.131006 26635 net.cpp:133] Creating Layer inception_3b/relu_double_3x3_reduce
I0417 18:21:52.131008 26635 net.cpp:453] inception_3b/relu_double_3x3_reduce <- inception_3b/double_3x3_reduce_bn
I0417 18:21:52.131011 26635 net.cpp:400] inception_3b/relu_double_3x3_reduce -> inception_3b/double_3x3_reduce_bn (in-place)
I0417 18:21:52.131013 26635 net.cpp:163] Setting up inception_3b/relu_double_3x3_reduce
I0417 18:21:52.131197 26635 net.cpp:170] Top shape: 25 256 18 7 (806400)
I0417 18:21:52.131203 26635 layer_factory.hpp:74] Creating layer inception_3b/double_3x3_1
I0417 18:21:52.131208 26635 net.cpp:133] Creating Layer inception_3b/double_3x3_1
I0417 18:21:52.131211 26635 net.cpp:453] inception_3b/double_3x3_1 <- inception_3b/double_3x3_reduce_bn
I0417 18:21:52.131213 26635 net.cpp:411] inception_3b/double_3x3_1 -> inception_3b/double_3x3_1
I0417 18:21:52.131217 26635 net.cpp:163] Setting up inception_3b/double_3x3_1
I0417 18:21:52.221235 26635 net.cpp:170] Top shape: 25 256 18 7 (806400)
I0417 18:21:52.221245 26635 layer_factory.hpp:74] Creating layer inception_3b/double_3x3_1_bn
I0417 18:21:52.221247 26635 layer_factory.cpp:191] Layer inception_3b/double_3x3_1_bn is using CAFFE engine.
I0417 18:21:52.221251 26635 net.cpp:133] Creating Layer inception_3b/double_3x3_1_bn
I0417 18:21:52.221253 26635 net.cpp:453] inception_3b/double_3x3_1_bn <- inception_3b/double_3x3_1
I0417 18:21:52.221257 26635 net.cpp:411] inception_3b/double_3x3_1_bn -> inception_3b/double_3x3_1_bn
I0417 18:21:52.221261 26635 net.cpp:163] Setting up inception_3b/double_3x3_1_bn
I0417 18:21:52.221271 26635 net.cpp:170] Top shape: 25 256 18 7 (806400)
I0417 18:21:52.221276 26635 layer_factory.hpp:74] Creating layer inception_3b/relu_double_3x3_1
I0417 18:21:52.221279 26635 net.cpp:133] Creating Layer inception_3b/relu_double_3x3_1
I0417 18:21:52.221282 26635 net.cpp:453] inception_3b/relu_double_3x3_1 <- inception_3b/double_3x3_1_bn
I0417 18:21:52.221283 26635 net.cpp:400] inception_3b/relu_double_3x3_1 -> inception_3b/double_3x3_1_bn (in-place)
I0417 18:21:52.221287 26635 net.cpp:163] Setting up inception_3b/relu_double_3x3_1
I0417 18:21:52.221395 26635 net.cpp:170] Top shape: 25 256 18 7 (806400)
I0417 18:21:52.221400 26635 layer_factory.hpp:74] Creating layer inception_3b/double_3x3_2
I0417 18:21:52.221405 26635 net.cpp:133] Creating Layer inception_3b/double_3x3_2
I0417 18:21:52.221406 26635 net.cpp:453] inception_3b/double_3x3_2 <- inception_3b/double_3x3_1_bn
I0417 18:21:52.221411 26635 net.cpp:411] inception_3b/double_3x3_2 -> inception_3b/double_3x3_2
I0417 18:21:52.221415 26635 net.cpp:163] Setting up inception_3b/double_3x3_2
I0417 18:21:52.241895 26635 net.cpp:170] Top shape: 25 256 9 4 (230400)
I0417 18:21:52.241906 26635 layer_factory.hpp:74] Creating layer inception_3b/double_3x3_2_bn
I0417 18:21:52.241909 26635 layer_factory.cpp:191] Layer inception_3b/double_3x3_2_bn is using CAFFE engine.
I0417 18:21:52.241914 26635 net.cpp:133] Creating Layer inception_3b/double_3x3_2_bn
I0417 18:21:52.241915 26635 net.cpp:453] inception_3b/double_3x3_2_bn <- inception_3b/double_3x3_2
I0417 18:21:52.241919 26635 net.cpp:411] inception_3b/double_3x3_2_bn -> inception_3b/double_3x3_2_bn
I0417 18:21:52.241924 26635 net.cpp:163] Setting up inception_3b/double_3x3_2_bn
I0417 18:21:52.241932 26635 net.cpp:170] Top shape: 25 256 9 4 (230400)
I0417 18:21:52.241936 26635 layer_factory.hpp:74] Creating layer inception_3b/relu_double_3x3_2
I0417 18:21:52.241940 26635 net.cpp:133] Creating Layer inception_3b/relu_double_3x3_2
I0417 18:21:52.241941 26635 net.cpp:453] inception_3b/relu_double_3x3_2 <- inception_3b/double_3x3_2_bn
I0417 18:21:52.241945 26635 net.cpp:400] inception_3b/relu_double_3x3_2 -> inception_3b/double_3x3_2_bn (in-place)
I0417 18:21:52.241947 26635 net.cpp:163] Setting up inception_3b/relu_double_3x3_2
I0417 18:21:52.242132 26635 net.cpp:170] Top shape: 25 256 9 4 (230400)
I0417 18:21:52.242137 26635 layer_factory.hpp:74] Creating layer inception_3b/pool
I0417 18:21:52.242141 26635 layer_factory.cpp:64] CUDNN does not support padding or multiple tops. Using Caffe's own pooling layer.
I0417 18:21:52.242143 26635 net.cpp:133] Creating Layer inception_3b/pool
I0417 18:21:52.242146 26635 net.cpp:453] inception_3b/pool <- inception_3a/output_inception_3a/output_0_split_2
I0417 18:21:52.242149 26635 net.cpp:411] inception_3b/pool -> inception_3b/pool
I0417 18:21:52.242153 26635 net.cpp:163] Setting up inception_3b/pool
I0417 18:21:52.242157 26635 net.cpp:170] Top shape: 25 1024 9 4 (921600)
I0417 18:21:52.242159 26635 layer_factory.hpp:74] Creating layer inception_3b/output
I0417 18:21:52.242162 26635 net.cpp:133] Creating Layer inception_3b/output
I0417 18:21:52.242164 26635 net.cpp:453] inception_3b/output <- inception_3b/3x3_bn
I0417 18:21:52.242166 26635 net.cpp:453] inception_3b/output <- inception_3b/double_3x3_2_bn
I0417 18:21:52.242168 26635 net.cpp:453] inception_3b/output <- inception_3b/pool
I0417 18:21:52.242172 26635 net.cpp:411] inception_3b/output -> inception_3b/output
I0417 18:21:52.242174 26635 net.cpp:163] Setting up inception_3b/output
I0417 18:21:52.242177 26635 net.cpp:170] Top shape: 25 1536 9 4 (1382400)
I0417 18:21:52.242179 26635 layer_factory.hpp:74] Creating layer global_pool
I0417 18:21:52.242182 26635 net.cpp:133] Creating Layer global_pool
I0417 18:21:52.242183 26635 net.cpp:453] global_pool <- inception_3b/output
I0417 18:21:52.242187 26635 net.cpp:411] global_pool -> global_pool
I0417 18:21:52.242189 26635 net.cpp:163] Setting up global_pool
I0417 18:21:52.242364 26635 net.cpp:170] Top shape: 25 1536 1 1 (38400)
I0417 18:21:52.242369 26635 layer_factory.hpp:74] Creating layer gather_global_pool_to_fc7
I0417 18:21:52.242373 26635 net.cpp:133] Creating Layer gather_global_pool_to_fc7
I0417 18:21:52.242375 26635 net.cpp:453] gather_global_pool_to_fc7 <- global_pool
I0417 18:21:52.242378 26635 net.cpp:411] gather_global_pool_to_fc7 -> gathered_global_pool
I0417 18:21:52.242382 26635 net.cpp:163] Setting up gather_global_pool_to_fc7
I0417 18:21:52.242384 26635 net.cpp:170] Top shape: 50 1536 1 1 (76800)
I0417 18:21:52.242386 26635 layer_factory.hpp:74] Creating layer fc7
I0417 18:21:52.242390 26635 net.cpp:133] Creating Layer fc7
I0417 18:21:52.242393 26635 net.cpp:453] fc7 <- gathered_global_pool
I0417 18:21:52.242394 26635 net.cpp:411] fc7 -> fc7
I0417 18:21:52.242398 26635 net.cpp:163] Setting up fc7
I0417 18:21:52.243932 26635 net.cpp:170] Top shape: 50 256 (12800)
I0417 18:21:52.243938 26635 layer_factory.hpp:74] Creating layer fc7_bn
I0417 18:21:52.243940 26635 layer_factory.cpp:191] Layer fc7_bn is using CAFFE engine.
I0417 18:21:52.243944 26635 net.cpp:133] Creating Layer fc7_bn
I0417 18:21:52.243947 26635 net.cpp:453] fc7_bn <- fc7
I0417 18:21:52.243949 26635 net.cpp:411] fc7_bn -> fc7_bn
I0417 18:21:52.243952 26635 net.cpp:163] Setting up fc7_bn
I0417 18:21:52.243962 26635 net.cpp:170] Top shape: 50 256 (12800)
I0417 18:21:52.243964 26635 layer_factory.hpp:74] Creating layer relu7
I0417 18:21:52.243968 26635 net.cpp:133] Creating Layer relu7
I0417 18:21:52.243968 26635 net.cpp:453] relu7 <- fc7_bn
I0417 18:21:52.243971 26635 net.cpp:400] relu7 -> fc7_bn (in-place)
I0417 18:21:52.243973 26635 net.cpp:163] Setting up relu7
I0417 18:21:52.244160 26635 net.cpp:170] Top shape: 50 256 (12800)
I0417 18:21:52.244165 26635 layer_factory.hpp:74] Creating layer drop7
I0417 18:21:52.244169 26635 net.cpp:133] Creating Layer drop7
I0417 18:21:52.244171 26635 net.cpp:453] drop7 <- fc7_bn
I0417 18:21:52.244174 26635 net.cpp:400] drop7 -> fc7_bn (in-place)
I0417 18:21:52.244177 26635 net.cpp:163] Setting up drop7
I0417 18:21:52.244181 26635 net.cpp:170] Top shape: 50 256 (12800)
I0417 18:21:52.244184 26635 layer_factory.hpp:74] Creating layer fc8_jstl
I0417 18:21:52.244186 26635 net.cpp:133] Creating Layer fc8_jstl
I0417 18:21:52.244189 26635 net.cpp:453] fc8_jstl <- fc7_bn
I0417 18:21:52.244191 26635 net.cpp:411] fc8_jstl -> fc8_jstl
I0417 18:21:52.244194 26635 net.cpp:163] Setting up fc8_jstl
I0417 18:21:52.248760 26635 net.cpp:170] Top shape: 50 2629 (131450)
I0417 18:21:52.248765 26635 layer_factory.hpp:74] Creating layer gather_data_to_loss
I0417 18:21:52.248769 26635 net.cpp:133] Creating Layer gather_data_to_loss
I0417 18:21:52.248770 26635 net.cpp:453] gather_data_to_loss <- label
I0417 18:21:52.248774 26635 net.cpp:411] gather_data_to_loss -> gathered_label
I0417 18:21:52.248777 26635 net.cpp:163] Setting up gather_data_to_loss
I0417 18:21:52.248780 26635 net.cpp:170] Top shape: 50 (50)
I0417 18:21:52.248781 26635 layer_factory.hpp:74] Creating layer loss
I0417 18:21:52.248785 26635 net.cpp:133] Creating Layer loss
I0417 18:21:52.248785 26635 net.cpp:453] loss <- fc8_jstl
I0417 18:21:52.248788 26635 net.cpp:453] loss <- gathered_label
I0417 18:21:52.248790 26635 net.cpp:411] loss -> loss
I0417 18:21:52.248793 26635 net.cpp:163] Setting up loss
I0417 18:21:52.248796 26635 layer_factory.hpp:74] Creating layer loss
…
I0417 18:21:52.255111 26635 net.cpp:330] The NetState phase (1) differed from the phase (0) specified by a rule in layer data
I0417 18:21:52.255728 26635 net.cpp:47] Initializing net from parameters: 
name: "JSTL"
state {
  phase: TEST
}
richness: 1000
layer {
  name: "data"
  type: "Data"
  top: "data"
  top: "label"
  include {
    phase: TEST
  }
  transform_param {
    mirror: false
    mean_value: 102
    mean_value: 102
    mean_value: 101
    crop_height: 144
    crop_width: 56
  }
  data_param {
    source: "external/exp/db/jstl/val_lmdb"
    batch_size: 20
    backend: LMDB
  }
}
layer {
  name: "conv1"
  type: "Convolution"
  bottom: "data"
  top: "conv1"
  param {
    lr_mult: 1
    decay_mult: 1
  }
  param {
    lr_mult: 2
    decay_mult: 0
  }
  convolution_param {
    num_output: 32
    pad: 1
    kernel_size: 3
    stride: 1
    weight_filler {
      type: "xavier"
    }
    bias_filler {
      type: "constant"
      value: 0.2
    }
  }
}
layer {
  name: "conv1_bn"
  type: "BN"
  bottom: "conv1"
  top: "conv1_bn"
  param {
    lr_mult: 1
    decay_mult: 0
  }
  param {
    lr_mult: 1
    decay_mult: 0
  }
  bn_param {
    slope_filler {
      type: "constant"
      value: 1
    }
    bias_filler {
      type: "constant"
      value: 0
    }
  }
}
layer {
  name: "relu1"
  type: "ReLU"
  bottom: "conv1_bn"
  top: "conv1_bn"
}
layer {
  name: "conv2"
  type: "Convolution"
  bottom: "conv1_bn"
  top: "conv2"
  param {
    lr_mult: 1
    decay_mult: 1
  }
  param {
    lr_mult: 2
    decay_mult: 0
  }
  convolution_param {
    num_output: 32
    pad: 1
    kernel_size: 3
    stride: 1
    weight_filler {
      type: "xavier"
    }
    bias_filler {
      type: "constant"
      value: 0.2
    }
  }
}
layer {
  name: "conv2_bn"
  type: "BN"
  bottom: "conv2"
  top: "conv2_bn"
  param {
    lr_mult: 1
    decay_mult: 0
  }
  param {
    lr_mult: 1
    decay_mult: 0
  }
  bn_param {
    slope_filler {
      type: "constant"
      value: 1
    }
    bias_filler {
      type: "constant"
      value: 0
    }
  }
}
layer {
  name: "relu2"
  type: "ReLU"
  bottom: "conv2_bn"
  top: "conv2_bn"
}
layer {
  name: "conv3"
  type: "Convolution"
  bottom: "conv2_bn"
  top: "conv3"
  param {
    lr_mult: 1
    decay_mult: 1
  }
  param {
    lr_mult: 2
    decay_mult: 0
  }
  convolution_param {
    num_output: 32
    pad: 1
    kernel_size: 3
    stride: 1
    weight_filler {
      type: "xavier"
    }
    bias_filler {
      type: "constant"
      value: 0.2
    }
  }
}
layer {
  name: "conv3_bn"
  type: "BN"
  bottom: "conv3"
  top: "conv3_bn"
  param {
    lr_mult: 1
    decay_mult: 0
  }
  param {
    lr_mult: 1
    decay_mult: 0
  }
  bn_param {
    slope_filler {
      type: "constant"
      value: 1
    }
    bias_filler {
      type: "constant"
      value: 0
    }
  }
}
layer {
  name: "relu3"
  type: "ReLU"
  bottom: "conv3_bn"
  top: "conv3_bn"
}
layer {
  name: "pool1"
  type: "Pooling"
  bottom: "conv3_bn"
  top: "pool1"
  pooling_param {
    pool: MAX
    kernel_size: 2
    stride: 2
  }
}
layer {
  name: "inception_1a/1x1"
  type: "Convolution"
  bottom: "pool1"
  top: "inception_1a/1x1"
  param {
    lr_mult: 1
    decay_mult: 1
  }
  param {
    lr_mult: 2
    decay_mult: 0
  }
  convolution_param {
    num_output: 64
    kernel_size: 1
    weight_filler {
      type: "xavier"
    }
    bias_filler {
      type: "constant"
      value: 0.2
    }
  }
}
layer {
  name: "inception_1a/1x1_bn"
  type: "BN"
  bottom: "inception_1a/1x1"
  top: "inception_1a/1x1_bn"
  param {
    lr_mult: 1
    decay_mult: 0
  }
  param {
    lr_mult: 1
    decay_mult: 0
  }
  bn_param {
    slope_filler {
      type: "constant"
      value: 1
    }
    bias_filler {
      type: "constant"
      value: 0
    }
  }
}
layer {
  name: "inception_1a/relu_1x1"
  type: "ReLU"
  bottom: "inception_1a/1x1_bn"
  top: "inception_1a/1x1_bn"
}
layer {
  name: "inception_1a/3x3_reduce"
  type: "Convolution"
  bottom: "pool1"
  top: "inception_1a/3x3_reduce"
  param {
    lr_mult: 1
    decay_mult: 1
  }
  param {
    lr_mult: 2
    decay_mult: 0
  }
  convolution_param {
    num_output: 64
    kernel_size: 1
    weight_filler {
      type: "xavier"
    }
    bias_filler {
      type: "constant"
      value: 0.2
    }
  }
}
layer {
  name: "inception_1a/3x3_reduce_bn"
  type: "BN"
  bottom: "inception_1a/3x3_reduce"
  top: "inception_1a/3x3_reduce_bn"
  param {
    lr_mult: 1
    decay_mult: 0
  }
  param {
    lr_mult: 1
    decay_mult: 0
  }
  bn_param {
    slope_filler {
      type: "constant"
      value: 1
    }
    bias_filler {
      type: "constant"
      value: 0
    }
  }
}
layer {
  name: "inception_1a/relu_3x3_reduce"
  type: "ReLU"
  bottom: "inception_1a/3x3_reduce_bn"
  top: "inception_1a/3x3_reduce_bn"
}
layer {
  name: "inception_1a/3x3"
  type: "Convolution"
  bottom: "inception_1a/3x3_reduce_bn"
  top: "inception_1a/3x3"
  param {
    lr_mult: 1
    decay_mult: 1
  }
  param {
    lr_mult: 2
    decay_mult: 0
  }
  convolution_param {
    num_output: 64
    pad: 1
    kernel_size: 3
    weight_filler {
      type: "xavier"
    }
    bias_filler {
      type: "constant"
      value: 0.2
    }
  }
}
layer {
  name: "inception_1a/3x3_bn"
  type: "BN"
  bottom: "inception_1a/3x3"
  top: "inception_1a/3x3_bn"
  param {
    lr_mult: 1
    decay_mult: 0
  }
  param {
    lr_mult: 1
    decay_mult: 0
  }
  bn_param {
    slope_filler {
      type: "constant"
      value: 1
    }
    bias_filler {
      type: "constant"
      value: 0
    }
  }
}
layer {
  name: "inception_1a/relu_3x3"
  type: "ReLU"
  bottom: "inception_1a/3x3_bn"
  top: "inception_1a/3x3_bn"
}
layer {
  name: "inception_1a/double_3x3_reduce"
  type: "Convolution"
  bottom: "pool1"
  top: "inception_1a/double_3x3_reduce"
  param {
    lr_mult: 1
    decay_mult: 1
  }
  param {
    lr_mult: 2
    decay_mult: 0
  }
  convolution_param {
    num_output: 64
    kernel_size: 1
    weight_filler {
      type: "xavier"
    }
    bias_filler {
      type: "constant"
      value: 0.2
    }
  }
}
layer {
  name: "inception_1a/double_3x3_reduce_bn"
  type: "BN"
  bottom: "inception_1a/double_3x3_reduce"
  top: "inception_1a/double_3x3_reduce_bn"
  param {
    lr_mult: 1
    decay_mult: 0
  }
  param {
    lr_mult: 1
    decay_mult: 0
  }
  bn_param {
    slope_filler {
      type: "constant"
      value: 1
    }
    bias_filler {
      type: "constant"
      value: 0
    }
  }
}
layer {
  name: "inception_1a/relu_double_3x3_reduce"
  type: "ReLU"
  bottom: "inception_1a/double_3x3_reduce_bn"
  top: "inception_1a/double_3x3_reduce_bn"
}
layer {
  name: "inception_1a/double_3x3_1"
  type: "Convolution"
  bottom: "inception_1a/double_3x3_reduce_bn"
  top: "inception_1a/double_3x3_1"
  param {
    lr_mult: 1
    decay_mult: 1
  }
  param {
    lr_mult: 2
    decay_mult: 0
  }
  convolution_param {
    num_output: 64
    pad: 1
    kernel_size: 3
    weight_filler {
      type: "xavier"
    }
    bias_filler {
      type: "constant"
      value: 0.2
    }
  }
}
layer {
  name: "inception_1a/double_3x3_1_bn"
  type: "BN"
  bottom: "inception_1a/double_3x3_1"
  top: "inception_1a/double_3x3_1_bn"
  param {
    lr_mult: 1
    decay_mult: 0
  }
  param {
    lr_mult: 1
    decay_mult: 0
  }
  bn_param {
    slope_filler {
      type: "constant"
      value: 1
    }
    bias_filler {
      type: "constant"
      value: 0
    }
  }
}
layer {
  name: "inception_1a/relu_double_3x3_1"
  type: "ReLU"
  bottom: "inception_1a/double_3x3_1_bn"
  top: "inception_1a/double_3x3_1_bn"
}
layer {
  name: "inception_1a/double_3x3_2"
  type: "Convolution"
  bottom: "inception_1a/double_3x3_1_bn"
  top: "inception_1a/double_3x3_2"
  param {
    lr_mult: 1
    decay_mult: 1
  }
  param {
    lr_mult: 2
    decay_mult: 0
  }
  convolution_param {
    num_output: 64
    pad: 1
    kernel_size: 3
    weight_filler {
      type: "xavier"
    }
    bias_filler {
      type: "constant"
      value: 0.2
    }
  }
}
layer {
  name: "inception_1a/double_3x3_2_bn"
  type: "BN"
  bottom: "inception_1a/double_3x3_2"
  top: "inception_1a/double_3x3_2_bn"
  param {
    lr_mult: 1
    decay_mult: 0
  }
  param {
    lr_mult: 1
    decay_mult: 0
  }
  bn_param {
    slope_filler {
      type: "constant"
      value: 1
    }
    bias_filler {
      type: "constant"
      value: 0
    }
  }
}
layer {
  name: "inception_1a/relu_double_3x3_2"
  type: "ReLU"
  bottom: "inception_1a/double_3x3_2_bn"
  top: "inception_1a/double_3x3_2_bn"
}
layer {
  name: "inception_1a/pool"
  type: "Pooling"
  bottom: "pool1"
  top: "inception_1a/pool"
  pooling_param {
    pool: AVE
    kernel_size: 3
    stride: 1
    pad: 1
  }
}
layer {
  name: "inception_1a/pool_proj"
  type: "Convolution"
  bottom: "inception_1a/pool"
  top: "inception_1a/pool_proj"
  param {
    lr_mult: 1
    decay_mult: 1
  }
  param {
    lr_mult: 2
    decay_mult: 0
  }
  convolution_param {
    num_output: 64
    kernel_size: 1
    weight_filler {
      type: "xavier"
    }
    bias_filler {
      type: "constant"
      value: 0.2
    }
  }
}
layer {
  name: "inception_1a/pool_proj_bn"
  type: "BN"
  bottom: "inception_1a/pool_proj"
  top: "inception_1a/pool_proj_bn"
  param {
    lr_mult: 1
    decay_mult: 0
  }
  param {
    lr_mult: 1
    decay_mult: 0
  }
  bn_param {
    slope_filler {
      type: "constant"
      value: 1
    }
    bias_filler {
      type: "constant"
      value: 0
    }
  }
}
layer {
  name: "inception_1a/relu_pool_proj"
  type: "ReLU"
  bottom: "inception_1a/pool_proj_bn"
  top: "inception_1a/pool_proj_bn"
}
layer {
  name: "inception_1a/output"
  type: "Concat"
  bottom: "inception_1a/1x1_bn"
  bottom: "inception_1a/3x3_bn"
  bottom: "inception_1a/double_3x3_2_bn"
  bottom: "inception_1a/pool_proj_bn"
  top: "inception_1a/output"
}
layer {
  name: "inception_1b/3x3_reduce"
  type: "Convolution"
  bottom: "inception_1a/output"
  top: "inception_1b/3x3_reduce"
  param {
    lr_mult: 1
    decay_mult: 1
  }
  param {
    lr_mult: 2
    decay_mult: 0
  }
  convolution_param {
    num_output: 64
    kernel_size: 1
    weight_filler {
      type: "xavier"
    }
    bias_filler {
      type: "constant"
      value: 0.2
    }
  }
}
layer {
  name: "inception_1b/3x3_reduce_bn"
  type: "BN"
  bottom: "inception_1b/3x3_reduce"
  top: "inception_1b/3x3_reduce_bn"
  param {
    lr_mult: 1
    decay_mult: 0
  }
  param {
    lr_mult: 1
    decay_mult: 0
  }
  bn_param {
    slope_filler {
      type: "constant"
      value: 1
    }
    bias_filler {
      type: "constant"
      value: 0
    }
  }
}
layer {
  name: "inception_1b/relu_3x3_reduce"
  type: "ReLU"
  bottom: "inception_1b/3x3_reduce_bn"
  top: "inception_1b/3x3_reduce_bn"
}
layer {
  name: "inception_1b/3x3"
  type: "Convolution"
  bottom: "inception_1b/3x3_reduce_bn"
  top: "inception_1b/3x3"
  param {
    lr_mult: 1
    decay_mult: 1
  }
  param {
    lr_mult: 2
    decay_mult: 0
  }
  convolution_param {
    num_output: 64
    pad: 1
    kernel_size: 3
    stride: 2
    weight_filler {
      type: "xavier"
    }
    bias_filler {
      type: "constant"
      value: 0.2
    }
  }
}
layer {
  name: "inception_1b/3x3_bn"
  type: "BN"
  bottom: "inception_1b/3x3"
  top: "inception_1b/3x3_bn"
  param {
    lr_mult: 1
    decay_mult: 0
  }
  param {
    lr_mult: 1
    decay_mult: 0
  }
  bn_param {
    slope_filler {
      type: "constant"
      value: 1
    }
    bias_filler {
      type: "constant"
      value: 0
    }
  }
}
layer {
  name: "inception_1b/relu_3x3"
  type: "ReLU"
  bottom: "inception_1b/3x3_bn"
  top: "inception_1b/3x3_bn"
}
layer {
  name: "inception_1b/double_3x3_reduce"
  type: "Convolution"
  bottom: "inception_1a/output"
  top: "inception_1b/double_3x3_reduce"
  param {
    lr_mult: 1
    decay_mult: 1
  }
  param {
    lr_mult: 2
    decay_mult: 0
  }
  convolution_param {
    num_output: 64
    kernel_size: 1
    weight_filler {
      type: "xavier"
    }
    bias_filler {
      type: "constant"
      value: 0.2
    }
  }
}
layer {
  name: "inception_1b/double_3x3_reduce_bn"
  type: "BN"
  bottom: "inception_1b/double_3x3_reduce"
  top: "inception_1b/double_3x3_reduce_bn"
  param {
    lr_mult: 1
    decay_mult: 0
  }
  param {
    lr_mult: 1
    decay_mult: 0
  }
  bn_param {
    slope_filler {
      type: "constant"
      value: 1
    }
    bias_filler {
      type: "constant"
      value: 0
    }
  }
}
layer {
  name: "inception_1b/relu_double_3x3_reduce"
  type: "ReLU"
  bottom: "inception_1b/double_3x3_reduce_bn"
  top: "inception_1b/double_3x3_reduce_bn"
}
layer {
  name: "inception_1b/double_3x3_1"
  type: "Convolution"
  bottom: "inception_1b/double_3x3_reduce_bn"
  top: "inception_1b/double_3x3_1"
  param {
    lr_mult: 1
    decay_mult: 1
  }
  param {
    lr_mult: 2
    decay_mult: 0
  }
  convolution_param {
    num_output: 64
    pad: 1
    kernel_size: 3
    weight_filler {
      type: "xavier"
    }
    bias_filler {
      type: "constant"
      value: 0.2
    }
  }
}
layer {
  name: "inception_1b/double_3x3_1_bn"
  type: "BN"
  bottom: "inception_1b/double_3x3_1"
  top: "inception_1b/double_3x3_1_bn"
  param {
    lr_mult: 1
    decay_mult: 0
  }
  param {
    lr_mult: 1
    decay_mult: 0
  }
  bn_param {
    slope_filler {
      type: "constant"
      value: 1
    }
    bias_filler {
      type: "constant"
      value: 0
    }
  }
}
layer {
  name: "inception_1b/relu_double_3x3_1"
  type: "ReLU"
  bottom: "inception_1b/double_3x3_1_bn"
  top: "inception_1b/double_3x3_1_bn"
}
layer {
  name: "inception_1b/double_3x3_2"
  type: "Convolution"
  bottom: "inception_1b/double_3x3_1_bn"
  top: "inception_1b/double_3x3_2"
  param {
    lr_mult: 1
    decay_mult: 1
  }
  param {
    lr_mult: 2
    decay_mult: 0
  }
  convolution_param {
    num_output: 64
    pad: 1
    kernel_size: 3
    stride: 2
    weight_filler {
      type: "xavier"
    }
    bias_filler {
      type: "constant"
      value: 0.2
    }
  }
}
layer {
  name: "inception_1b/double_3x3_2_bn"
  type: "BN"
  bottom: "inception_1b/double_3x3_2"
  top: "inception_1b/double_3x3_2_bn"
  param {
    lr_mult: 1
    decay_mult: 0
  }
  param {
    lr_mult: 1
    decay_mult: 0
  }
  bn_param {
    slope_filler {
      type: "constant"
      value: 1
    }
    bias_filler {
      type: "constant"
      value: 0
    }
  }
}
layer {
  name: "inception_1b/relu_double_3x3_2"
  type: "ReLU"
  bottom: "inception_1b/double_3x3_2_bn"
  top: "inception_1b/double_3x3_2_bn"
}
layer {
  name: "inception_1b/pool"
  type: "Pooling"
  bottom: "inception_1a/output"
  top: "inception_1b/pool"
  pooling_param {
    pool: MAX
    kernel_size: 3
    stride: 2
  }
}
layer {
  name: "inception_1b/output"
  type: "Concat"
  bottom: "inception_1b/3x3_bn"
  bottom: "inception_1b/double_3x3_2_bn"
  bottom: "inception_1b/pool"
  top: "inception_1b/output"
}
layer {
  name: "inception_2a/1x1"
  type: "Convolution"
  bottom: "inception_1b/output"
  top: "inception_2a/1x1"
  param {
    lr_mult: 1
    decay_mult: 1
  }
  param {
    lr_mult: 2
    decay_mult: 0
  }
  convolution_param {
    num_output: 128
    kernel_size: 1
    weight_filler {
      type: "xavier"
    }
    bias_filler {
      type: "constant"
      value: 0.2
    }
  }
}
layer {
  name: "inception_2a/1x1_bn"
  type: "BN"
  bottom: "inception_2a/1x1"
  top: "inception_2a/1x1_bn"
  param {
    lr_mult: 1
    decay_mult: 0
  }
  param {
    lr_mult: 1
    decay_mult: 0
  }
  bn_param {
    slope_filler {
      type: "constant"
      value: 1
    }
    bias_filler {
      type: "constant"
      value: 0
    }
  }
}
layer {
  name: "inception_2a/relu_1x1"
  type: "ReLU"
  bottom: "inception_2a/1x1_bn"
  top: "inception_2a/1x1_bn"
}
layer {
  name: "inception_2a/3x3_reduce"
  type: "Convolution"
  bottom: "inception_1b/output"
  top: "inception_2a/3x3_reduce"
  param {
    lr_mult: 1
    decay_mult: 1
  }
  param {
    lr_mult: 2
    decay_mult: 0
  }
  convolution_param {
    num_output: 128
    kernel_size: 1
    weight_filler {
      type: "xavier"
    }
    bias_filler {
      type: "constant"
      value: 0.2
    }
  }
}
layer {
  name: "inception_2a/3x3_reduce_bn"
  type: "BN"
  bottom: "inception_2a/3x3_reduce"
  top: "inception_2a/3x3_reduce_bn"
  param {
    lr_mult: 1
    decay_mult: 0
  }
  param {
    lr_mult: 1
    decay_mult: 0
  }
  bn_param {
    slope_filler {
      type: "constant"
      value: 1
    }
    bias_filler {
      type: "constant"
      value: 0
    }
  }
}
layer {
  name: "inception_2a/relu_3x3_reduce"
  type: "ReLU"
  bottom: "inception_2a/3x3_reduce_bn"
  top: "inception_2a/3x3_reduce_bn"
}
layer {
  name: "inception_2a/3x3"
  type: "Convolution"
  bottom: "inception_2a/3x3_reduce_bn"
  top: "inception_2a/3x3"
  param {
    lr_mult: 1
    decay_mult: 1
  }
  param {
    lr_mult: 2
    decay_mult: 0
  }
  convolution_param {
    num_output: 128
    pad: 1
    kernel_size: 3
    weight_filler {
      type: "xavier"
    }
    bias_filler {
      type: "constant"
      value: 0.2
    }
  }
}
layer {
  name: "inception_2a/3x3_bn"
  type: "BN"
  bottom: "inception_2a/3x3"
  top: "inception_2a/3x3_bn"
  param {
    lr_mult: 1
    decay_mult: 0
  }
  param {
    lr_mult: 1
    decay_mult: 0
  }
  bn_param {
    slope_filler {
      type: "constant"
      value: 1
    }
    bias_filler {
      type: "constant"
      value: 0
    }
  }
}
layer {
  name: "inception_2a/relu_3x3"
  type: "ReLU"
  bottom: "inception_2a/3x3_bn"
  top: "inception_2a/3x3_bn"
}
layer {
  name: "inception_2a/double_3x3_reduce"
  type: "Convolution"
  bottom: "inception_1b/output"
  top: "inception_2a/double_3x3_reduce"
  param {
    lr_mult: 1
    decay_mult: 1
  }
  param {
    lr_mult: 2
    decay_mult: 0
  }
  convolution_param {
    num_output: 128
    kernel_size: 1
    weight_filler {
      type: "xavier"
    }
    bias_filler {
      type: "constant"
      value: 0.2
    }
  }
}
layer {
  name: "inception_2a/double_3x3_reduce_bn"
  type: "BN"
  bottom: "inception_2a/double_3x3_reduce"
  top: "inception_2a/double_3x3_reduce_bn"
  param {
    lr_mult: 1
    decay_mult: 0
  }
  param {
    lr_mult: 1
    decay_mult: 0
  }
  bn_param {
    slope_filler {
      type: "constant"
      value: 1
    }
    bias_filler {
      type: "constant"
      value: 0
    }
  }
}
layer {
  name: "inception_2a/relu_double_3x3_reduce"
  type: "ReLU"
  bottom: "inception_2a/double_3x3_reduce_bn"
  top: "inception_2a/double_3x3_reduce_bn"
}
layer {
  name: "inception_2a/double_3x3_1"
  type: "Convolution"
  bottom: "inception_2a/double_3x3_reduce_bn"
  top: "inception_2a/double_3x3_1"
  param {
    lr_mult: 1
    decay_mult: 1
  }
  param {
    lr_mult: 2
    decay_mult: 0
  }
  convolution_param {
    num_output: 128
    pad: 1
    kernel_size: 3
    weight_filler {
      type: "xavier"
    }
    bias_filler {
      type: "constant"
      value: 0.2
    }
  }
}
layer {
  name: "inception_2a/double_3x3_1_bn"
  type: "BN"
  bottom: "inception_2a/double_3x3_1"
  top: "inception_2a/double_3x3_1_bn"
  param {
    lr_mult: 1
    decay_mult: 0
  }
  param {
    lr_mult: 1
    decay_mult: 0
  }
  bn_param {
    slope_filler {
      type: "constant"
      value: 1
    }
    bias_filler {
      type: "constant"
      value: 0
    }
  }
}
layer {
  name: "inception_2a/relu_double_3x3_1"
  type: "ReLU"
  bottom: "inception_2a/double_3x3_1_bn"
  top: "inception_2a/double_3x3_1_bn"
}
layer {
  name: "inception_2a/double_3x3_2"
  type: "Convolution"
  bottom: "inception_2a/double_3x3_1_bn"
  top: "inception_2a/double_3x3_2"
  param {
    lr_mult: 1
    decay_mult: 1
  }
  param {
    lr_mult: 2
    decay_mult: 0
  }
  convolution_param {
    num_output: 128
    pad: 1
    kernel_size: 3
    weight_filler {
      type: "xavier"
    }
    bias_filler {
      type: "constant"
      value: 0.2
    }
  }
}
layer {
  name: "inception_2a/double_3x3_2_bn"
  type: "BN"
  bottom: "inception_2a/double_3x3_2"
  top: "inception_2a/double_3x3_2_bn"
  param {
    lr_mult: 1
    decay_mult: 0
  }
  param {
    lr_mult: 1
    decay_mult: 0
  }
  bn_param {
    slope_filler {
      type: "constant"
      value: 1
    }
    bias_filler {
      type: "constant"
      value: 0
    }
  }
}
layer {
  name: "inception_2a/relu_double_3x3_2"
  type: "ReLU"
  bottom: "inception_2a/double_3x3_2_bn"
  top: "inception_2a/double_3x3_2_bn"
}
layer {
  name: "inception_2a/pool"
  type: "Pooling"
  bottom: "inception_1b/output"
  top: "inception_2a/pool"
  pooling_param {
    pool: AVE
    kernel_size: 3
    stride: 1
    pad: 1
  }
}
layer {
  name: "inception_2a/pool_proj"
  type: "Convolution"
  bottom: "inception_2a/pool"
  top: "inception_2a/pool_proj"
  param {
    lr_mult: 1
    decay_mult: 1
  }
  param {
    lr_mult: 2
    decay_mult: 0
  }
  convolution_param {
    num_output: 128
    kernel_size: 1
    weight_filler {
      type: "xavier"
    }
    bias_filler {
      type: "constant"
      value: 0.2
    }
  }
}
layer {
  name: "inception_2a/pool_proj_bn"
  type: "BN"
  bottom: "inception_2a/pool_proj"
  top: "inception_2a/pool_proj_bn"
  param {
    lr_mult: 1
    decay_mult: 0
  }
  param {
    lr_mult: 1
    decay_mult: 0
  }
  bn_param {
    slope_filler {
      type: "constant"
      value: 1
    }
    bias_filler {
      type: "constant"
      value: 0
    }
  }
}
layer {
  name: "inception_2a/relu_pool_proj"
  type: "ReLU"
  bottom: "inception_2a/pool_proj_bn"
  top: "inception_2a/pool_proj_bn"
}
layer {
  name: "inception_2a/output"
  type: "Concat"
  bottom: "inception_2a/1x1_bn"
  bottom: "inception_2a/3x3_bn"
  bottom: "inception_2a/double_3x3_2_bn"
  bottom: "inception_2a/pool_proj_bn"
  top: "inception_2a/output"
}
layer {
  name: "inception_2b/3x3_reduce"
  type: "Convolution"
  bottom: "inception_2a/output"
  top: "inception_2b/3x3_reduce"
  param {
    lr_mult: 1
    decay_mult: 1
  }
  param {
    lr_mult: 2
    decay_mult: 0
  }
  convolution_param {
    num_output: 128
    kernel_size: 1
    weight_filler {
      type: "xavier"
    }
    bias_filler {
      type: "constant"
      value: 0.2
    }
  }
}
layer {
  name: "inception_2b/3x3_reduce_bn"
  type: "BN"
  bottom: "inception_2b/3x3_reduce"
  top: "inception_2b/3x3_reduce_bn"
  param {
    lr_mult: 1
    decay_mult: 0
  }
  param {
    lr_mult: 1
    decay_mult: 0
  }
  bn_param {
    slope_filler {
      type: "constant"
      value: 1
    }
    bias_filler {
      type: "constant"
      value: 0
    }
  }
}
layer {
  name: "inception_2b/relu_3x3_reduce"
  type: "ReLU"
  bottom: "inception_2b/3x3_reduce_bn"
  top: "inception_2b/3x3_reduce_bn"
}
layer {
  name: "inception_2b/3x3"
  type: "Convolution"
  bottom: "inception_2b/3x3_reduce_bn"
  top: "inception_2b/3x3"
  param {
    lr_mult: 1
    decay_mult: 1
  }
  param {
    lr_mult: 2
    decay_mult: 0
  }
  convolution_param {
    num_output: 128
    pad: 1
    kernel_size: 3
    stride: 2
    weight_filler {
      type: "xavier"
    }
    bias_filler {
      type: "constant"
      value: 0.2
    }
  }
}
layer {
  name: "inception_2b/3x3_bn"
  type: "BN"
  bottom: "inception_2b/3x3"
  top: "inception_2b/3x3_bn"
  param {
    lr_mult: 1
    decay_mult: 0
  }
  param {
    lr_mult: 1
    decay_mult: 0
  }
  bn_param {
    slope_filler {
      type: "constant"
      value: 1
    }
    bias_filler {
      type: "constant"
      value: 0
    }
  }
}
layer {
  name: "inception_2b/relu_3x3"
  type: "ReLU"
  bottom: "inception_2b/3x3_bn"
  top: "inception_2b/3x3_bn"
}
layer {
  name: "inception_2b/double_3x3_reduce"
  type: "Convolution"
  bottom: "inception_2a/output"
  top: "inception_2b/double_3x3_reduce"
  param {
    lr_mult: 1
    decay_mult: 1
  }
  param {
    lr_mult: 2
    decay_mult: 0
  }
  convolution_param {
    num_output: 128
    kernel_size: 1
    weight_filler {
      type: "xavier"
    }
    bias_filler {
      type: "constant"
      value: 0.2
    }
  }
}
layer {
  name: "inception_2b/double_3x3_reduce_bn"
  type: "BN"
  bottom: "inception_2b/double_3x3_reduce"
  top: "inception_2b/double_3x3_reduce_bn"
  param {
    lr_mult: 1
    decay_mult: 0
  }
  param {
    lr_mult: 1
    decay_mult: 0
  }
  bn_param {
    slope_filler {
      type: "constant"
      value: 1
    }
    bias_filler {
      type: "constant"
      value: 0
    }
  }
}
layer {
  name: "inception_2b/relu_double_3x3_reduce"
  type: "ReLU"
  bottom: "inception_2b/double_3x3_reduce_bn"
  top: "inception_2b/double_3x3_reduce_bn"
}
layer {
  name: "inception_2b/double_3x3_1"
  type: "Convolution"
  bottom: "inception_2b/double_3x3_reduce_bn"
  top: "inception_2b/double_3x3_1"
  param {
    lr_mult: 1
    decay_mult: 1
  }
  param {
    lr_mult: 2
    decay_mult: 0
  }
  convolution_param {
    num_output: 128
    pad: 1
    kernel_size: 3
    weight_filler {
      type: "xavier"
    }
    bias_filler {
      type: "constant"
      value: 0.2
    }
  }
}
layer {
  name: "inception_2b/double_3x3_1_bn"
  type: "BN"
  bottom: "inception_2b/double_3x3_1"
  top: "inception_2b/double_3x3_1_bn"
  param {
    lr_mult: 1
    decay_mult: 0
  }
  param {
    lr_mult: 1
    decay_mult: 0
  }
  bn_param {
    slope_filler {
      type: "constant"
      value: 1
    }
    bias_filler {
      type: "constant"
      value: 0
    }
  }
}
layer {
  name: "inception_2b/relu_double_3x3_1"
  type: "ReLU"
  bottom: "inception_2b/double_3x3_1_bn"
  top: "inception_2b/double_3x3_1_bn"
}
layer {
  name: "inception_2b/double_3x3_2"
  type: "Convolution"
  bottom: "inception_2b/double_3x3_1_bn"
  top: "inception_2b/double_3x3_2"
  param {
    lr_mult: 1
    decay_mult: 1
  }
  param {
    lr_mult: 2
    decay_mult: 0
  }
  convolution_param {
    num_output: 128
    pad: 1
    kernel_size: 3
    stride: 2
    weight_filler {
      type: "xavier"
    }
    bias_filler {
      type: "constant"
      value: 0.2
    }
  }
}
layer {
  name: "inception_2b/double_3x3_2_bn"
  type: "BN"
  bottom: "inception_2b/double_3x3_2"
  top: "inception_2b/double_3x3_2_bn"
  param {
    lr_mult: 1
    decay_mult: 0
  }
  param {
    lr_mult: 1
    decay_mult: 0
  }
  bn_param {
    slope_filler {
      type: "constant"
      value: 1
    }
    bias_filler {
      type: "constant"
      value: 0
    }
  }
}
layer {
  name: "inception_2b/relu_double_3x3_2"
  type: "ReLU"
  bottom: "inception_2b/double_3x3_2_bn"
  top: "inception_2b/double_3x3_2_bn"
}
layer {
  name: "inception_2b/pool"
  type: "Pooling"
  bottom: "inception_2a/output"
  top: "inception_2b/pool"
  pooling_param {
    pool: MAX
    kernel_size: 3
    stride: 2
  }
}
layer {
  name: "inception_2b/output"
  type: "Concat"
  bottom: "inception_2b/3x3_bn"
  bottom: "inception_2b/double_3x3_2_bn"
  bottom: "inception_2b/pool"
  top: "inception_2b/output"
}
layer {
  name: "inception_3a/1x1"
  type: "Convolution"
  bottom: "inception_2b/output"
  top: "inception_3a/1x1"
  param {
    lr_mult: 1
    decay_mult: 1
  }
  param {
    lr_mult: 2
    decay_mult: 0
  }
  convolution_param {
    num_output: 256
    kernel_size: 1
    weight_filler {
      type: "xavier"
    }
    bias_filler {
      type: "constant"
      value: 0.2
    }
  }
}
layer {
  name: "inception_3a/1x1_bn"
  type: "BN"
  bottom: "inception_3a/1x1"
  top: "inception_3a/1x1_bn"
  param {
    lr_mult: 1
    decay_mult: 0
  }
  param {
    lr_mult: 1
    decay_mult: 0
  }
  bn_param {
    slope_filler {
      type: "constant"
      value: 1
    }
    bias_filler {
      type: "constant"
      value: 0
    }
  }
}
layer {
  name: "inception_3a/relu_1x1"
  type: "ReLU"
  bottom: "inception_3a/1x1_bn"
  top: "inception_3a/1x1_bn"
}
layer {
  name: "inception_3a/3x3_reduce"
  type: "Convolution"
  bottom: "inception_2b/output"
  top: "inception_3a/3x3_reduce"
  param {
    lr_mult: 1
    decay_mult: 1
  }
  param {
    lr_mult: 2
    decay_mult: 0
  }
  convolution_param {
    num_output: 256
    kernel_size: 1
    weight_filler {
      type: "xavier"
    }
    bias_filler {
      type: "constant"
      value: 0.2
    }
  }
}
layer {
  name: "inception_3a/3x3_reduce_bn"
  type: "BN"
  bottom: "inception_3a/3x3_reduce"
  top: "inception_3a/3x3_reduce_bn"
  param {
    lr_mult: 1
    decay_mult: 0
  }
  param {
    lr_mult: 1
    decay_mult: 0
  }
  bn_param {
    slope_filler {
      type: "constant"
      value: 1
    }
    bias_filler {
      type: "constant"
      value: 0
    }
  }
}
layer {
  name: "inception_3a/relu_3x3_reduce"
  type: "ReLU"
  bottom: "inception_3a/3x3_reduce_bn"
  top: "inception_3a/3x3_reduce_bn"
}
layer {
  name: "inception_3a/3x3"
  type: "Convolution"
  bottom: "inception_3a/3x3_reduce_bn"
  top: "inception_3a/3x3"
  param {
    lr_mult: 1
    decay_mult: 1
  }
  param {
    lr_mult: 2
    decay_mult: 0
  }
  convolution_param {
    num_output: 256
    pad: 1
    kernel_size: 3
    weight_filler {
      type: "xavier"
    }
    bias_filler {
      type: "constant"
      value: 0.2
    }
  }
}
layer {
  name: "inception_3a/3x3_bn"
  type: "BN"
  bottom: "inception_3a/3x3"
  top: "inception_3a/3x3_bn"
  param {
    lr_mult: 1
    decay_mult: 0
  }
  param {
    lr_mult: 1
    decay_mult: 0
  }
  bn_param {
    slope_filler {
      type: "constant"
      value: 1
    }
    bias_filler {
      type: "constant"
      value: 0
    }
  }
}
layer {
  name: "inception_3a/relu_3x3"
  type: "ReLU"
  bottom: "inception_3a/3x3_bn"
  top: "inception_3a/3x3_bn"
}
layer {
  name: "inception_3a/double_3x3_reduce"
  type: "Convolution"
  bottom: "inception_2b/output"
  top: "inception_3a/double_3x3_reduce"
  param {
    lr_mult: 1
    decay_mult: 1
  }
  param {
    lr_mult: 2
    decay_mult: 0
  }
  convolution_param {
    num_output: 256
    kernel_size: 1
    weight_filler {
      type: "xavier"
    }
    bias_filler {
      type: "constant"
      value: 0.2
    }
  }
}
layer {
  name: "inception_3a/double_3x3_reduce_bn"
  type: "BN"
  bottom: "inception_3a/double_3x3_reduce"
  top: "inception_3a/double_3x3_reduce_bn"
  param {
    lr_mult: 1
    decay_mult: 0
  }
  param {
    lr_mult: 1
    decay_mult: 0
  }
  bn_param {
    slope_filler {
      type: "constant"
      value: 1
    }
    bias_filler {
      type: "constant"
      value: 0
    }
  }
}
layer {
  n
I0417 18:21:52.256546 26635 layer_factory.hpp:74] Creating layer data
I0417 18:21:52.256554 26635 net.cpp:133] Creating Layer data
I0417 18:21:52.256557 26635 net.cpp:411] data -> data
I0417 18:21:52.256562 26635 net.cpp:411] data -> label
I0417 18:21:52.256566 26635 net.cpp:163] Setting up data
I0417 18:21:52.256604 26635 db_lmdb.cpp:22] Opened lmdb external/exp/db/jstl/val_lmdb
I0417 18:21:52.256619 26635 data_layer.cpp:55] Skipping first 0 data points.
I0417 18:21:52.256630 26635 data_layer.cpp:100] output data size: 10,3,144,56
I0417 18:21:52.256664 26635 net.cpp:170] Top shape: 10 3 144 56 (241920)
I0417 18:21:52.256669 26635 net.cpp:170] Top shape: 10 (10)
I0417 18:21:52.256672 26635 layer_factory.hpp:74] Creating layer label_data_1_split
I0417 18:21:52.256678 26635 net.cpp:133] Creating Layer label_data_1_split
I0417 18:21:52.256680 26635 net.cpp:453] label_data_1_split <- label
I0417 18:21:52.256685 26635 net.cpp:411] label_data_1_split -> label_data_1_split_0
I0417 18:21:52.256691 26635 net.cpp:411] label_data_1_split -> label_data_1_split_1
I0417 18:21:52.256695 26635 net.cpp:163] Setting up label_data_1_split
I0417 18:21:52.256701 26635 net.cpp:170] Top shape: 10 (10)
I0417 18:21:52.256706 26635 net.cpp:170] Top shape: 10 (10)
I0417 18:21:52.256710 26635 layer_factory.hpp:74] Creating layer conv1
I0417 18:21:52.256716 26635 net.cpp:133] Creating Layer conv1
I0417 18:21:52.256721 26635 net.cpp:453] conv1 <- data
I0417 18:21:52.256726 26635 net.cpp:411] conv1 -> conv1
I0417 18:21:52.256731 26635 net.cpp:163] Setting up conv1
I0417 18:21:52.290299 26635 net.cpp:170] Top shape: 10 32 144 56 (2580480)
I0417 18:21:52.290313 26635 layer_factory.hpp:74] Creating layer conv1_bn
I0417 18:21:52.290316 26635 layer_factory.cpp:191] Layer conv1_bn is using CAFFE engine.
I0417 18:21:52.290321 26635 net.cpp:133] Creating Layer conv1_bn
I0417 18:21:52.290323 26635 net.cpp:453] conv1_bn <- conv1
I0417 18:21:52.290326 26635 net.cpp:411] conv1_bn -> conv1_bn
I0417 18:21:52.290330 26635 net.cpp:163] Setting up conv1_bn
I0417 18:21:52.290345 26635 net.cpp:170] Top shape: 10 32 144 56 (2580480)
I0417 18:21:52.290351 26635 layer_factory.hpp:74] Creating layer relu1
I0417 18:21:52.290355 26635 net.cpp:133] Creating Layer relu1
I0417 18:21:52.290356 26635 net.cpp:453] relu1 <- conv1_bn
I0417 18:21:52.290359 26635 net.cpp:400] relu1 -> conv1_bn (in-place)
I0417 18:21:52.290361 26635 net.cpp:163] Setting up relu1
I0417 18:21:52.290556 26635 net.cpp:170] Top shape: 10 32 144 56 (2580480)
I0417 18:21:52.290562 26635 layer_factory.hpp:74] Creating layer conv2
I0417 18:21:52.290566 26635 net.cpp:133] Creating Layer conv2
I0417 18:21:52.290568 26635 net.cpp:453] conv2 <- conv1_bn
I0417 18:21:52.290572 26635 net.cpp:411] conv2 -> conv2
I0417 18:21:52.290575 26635 net.cpp:163] Setting up conv2
I0417 18:21:52.379794 26635 net.cpp:170] Top shape: 10 32 144 56 (2580480)
I0417 18:21:52.379803 26635 layer_factory.hpp:74] Creating layer conv2_bn
I0417 18:21:52.379806 26635 layer_factory.cpp:191] Layer conv2_bn is using CAFFE engine.
I0417 18:21:52.379811 26635 net.cpp:133] Creating Layer conv2_bn
I0417 18:21:52.379812 26635 net.cpp:453] conv2_bn <- conv2
I0417 18:21:52.379815 26635 net.cpp:411] conv2_bn -> conv2_bn
I0417 18:21:52.379819 26635 net.cpp:163] Setting up conv2_bn
I0417 18:21:52.379835 26635 net.cpp:170] Top shape: 10 32 144 56 (2580480)
I0417 18:21:52.379842 26635 layer_factory.hpp:74] Creating layer relu2
I0417 18:21:52.379845 26635 net.cpp:133] Creating Layer relu2
I0417 18:21:52.379847 26635 net.cpp:453] relu2 <- conv2_bn
I0417 18:21:52.379850 26635 net.cpp:400] relu2 -> conv2_bn (in-place)
I0417 18:21:52.379853 26635 net.cpp:163] Setting up relu2
I0417 18:21:52.380040 26635 net.cpp:170] Top shape: 10 32 144 56 (2580480)
I0417 18:21:52.380046 26635 layer_factory.hpp:74] Creating layer conv3
I0417 18:21:52.380053 26635 net.cpp:133] Creating Layer conv3
I0417 18:21:52.380054 26635 net.cpp:453] conv3 <- conv2_bn
I0417 18:21:52.380059 26635 net.cpp:411] conv3 -> conv3
I0417 18:21:52.380062 26635 net.cpp:163] Setting up conv3
I0417 18:21:52.469295 26635 net.cpp:170] Top shape: 10 32 144 56 (2580480)
I0417 18:21:52.469305 26635 layer_factory.hpp:74] Creating layer conv3_bn
I0417 18:21:52.469308 26635 layer_factory.cpp:191] Layer conv3_bn is using CAFFE engine.
I0417 18:21:52.469311 26635 net.cpp:133] Creating Layer conv3_bn
I0417 18:21:52.469313 26635 net.cpp:453] conv3_bn <- conv3
I0417 18:21:52.469317 26635 net.cpp:411] conv3_bn -> conv3_bn
I0417 18:21:52.469321 26635 net.cpp:163] Setting up conv3_bn
I0417 18:21:52.469339 26635 net.cpp:170] Top shape: 10 32 144 56 (2580480)
I0417 18:21:52.469347 26635 layer_factory.hpp:74] Creating layer relu3
I0417 18:21:52.469350 26635 net.cpp:133] Creating Layer relu3
I0417 18:21:52.469352 26635 net.cpp:453] relu3 <- conv3_bn
I0417 18:21:52.469354 26635 net.cpp:400] relu3 -> conv3_bn (in-place)
I0417 18:21:52.469357 26635 net.cpp:163] Setting up relu3
I0417 18:21:52.469475 26635 net.cpp:170] Top shape: 10 32 144 56 (2580480)
I0417 18:21:52.469480 26635 layer_factory.hpp:74] Creating layer pool1
I0417 18:21:52.469483 26635 net.cpp:133] Creating Layer pool1
I0417 18:21:52.469485 26635 net.cpp:453] pool1 <- conv3_bn
I0417 18:21:52.469488 26635 net.cpp:411] pool1 -> pool1
I0417 18:21:52.469491 26635 net.cpp:163] Setting up pool1
I0417 18:21:52.469679 26635 net.cpp:170] Top shape: 10 32 72 28 (645120)
I0417 18:21:52.469684 26635 layer_factory.hpp:74] Creating layer pool1_pool1_0_split
I0417 18:21:52.469688 26635 net.cpp:133] Creating Layer pool1_pool1_0_split
I0417 18:21:52.469691 26635 net.cpp:453] pool1_pool1_0_split <- pool1
I0417 18:21:52.469694 26635 net.cpp:411] pool1_pool1_0_split -> pool1_pool1_0_split_0
I0417 18:21:52.469698 26635 net.cpp:411] pool1_pool1_0_split -> pool1_pool1_0_split_1
I0417 18:21:52.469702 26635 net.cpp:411] pool1_pool1_0_split -> pool1_pool1_0_split_2
I0417 18:21:52.469704 26635 net.cpp:411] pool1_pool1_0_split -> pool1_pool1_0_split_3
…
I0417 18:21:53.648228 26635 net.cpp:170] Top shape: 10 128 36 14 (645120)
I0417 18:21:53.648232 26635 layer_factory.hpp:74] Creating layer inception_2a/double_3x3_reduce
I0417 18:21:53.648244 26635 net.cpp:133] Creating Layer inception_2a/double_3x3_reduce
I0417 18:21:53.648247 26635 net.cpp:453] inception_2a/double_3x3_reduce <- inception_1b/output_inception_1b/output_0_split_2
I0417 18:21:53.648250 26635 net.cpp:411] inception_2a/double_3x3_reduce -> inception_2a/double_3x3_reduce
I0417 18:21:53.648253 26635 net.cpp:163] Setting up inception_2a/double_3x3_reduce
I0417 18:21:53.755753 26635 net.cpp:170] Top shape: 10 128 36 14 (645120)
I0417 18:21:53.755764 26635 layer_factory.hpp:74] Creating layer inception_2a/double_3x3_reduce_bn
I0417 18:21:53.755766 26635 layer_factory.cpp:191] Layer inception_2a/double_3x3_reduce_bn is using CAFFE engine.
I0417 18:21:53.755770 26635 net.cpp:133] Creating Layer inception_2a/double_3x3_reduce_bn
I0417 18:21:53.755772 26635 net.cpp:453] inception_2a/double_3x3_reduce_bn <- inception_2a/double_3x3_reduce
I0417 18:21:53.755776 26635 net.cpp:411] inception_2a/double_3x3_reduce_bn -> inception_2a/double_3x3_reduce_bn
I0417 18:21:53.755780 26635 net.cpp:163] Setting up inception_2a/double_3x3_reduce_bn
I0417 18:21:53.755789 26635 net.cpp:170] Top shape: 10 128 36 14 (645120)
I0417 18:21:53.755795 26635 layer_factory.hpp:74] Creating layer inception_2a/relu_double_3x3_reduce
I0417 18:21:53.755797 26635 net.cpp:133] Creating Layer inception_2a/relu_double_3x3_reduce
I0417 18:21:53.755800 26635 net.cpp:453] inception_2a/relu_double_3x3_reduce <- inception_2a/double_3x3_reduce_bn
I0417 18:21:53.755802 26635 net.cpp:400] inception_2a/relu_double_3x3_reduce -> inception_2a/double_3x3_reduce_bn (in-place)
I0417 18:21:53.755805 26635 net.cpp:163] Setting up inception_2a/relu_double_3x3_reduce
I0417 18:21:53.755998 26635 net.cpp:170] Top shape: 10 128 36 14 (645120)
I0417 18:21:53.756005 26635 layer_factory.hpp:74] Creating layer inception_2a/double_3x3_1
I0417 18:21:53.756008 26635 net.cpp:133] Creating Layer inception_2a/double_3x3_1
I0417 18:21:53.756011 26635 net.cpp:453] inception_2a/double_3x3_1 <- inception_2a/double_3x3_reduce_bn
I0417 18:21:53.756014 26635 net.cpp:411] inception_2a/double_3x3_1 -> inception_2a/double_3x3_1
I0417 18:21:53.756018 26635 net.cpp:163] Setting up inception_2a/double_3x3_1
I0417 18:21:53.805964 26635 net.cpp:170] Top shape: 10 128 36 14 (645120)
I0417 18:21:53.805974 26635 layer_factory.hpp:74] Creating layer inception_2a/double_3x3_1_bn
I0417 18:21:53.805976 26635 layer_factory.cpp:191] Layer inception_2a/double_3x3_1_bn is using CAFFE engine.
I0417 18:21:53.805980 26635 net.cpp:133] Creating Layer inception_2a/double_3x3_1_bn
I0417 18:21:53.805982 26635 net.cpp:453] inception_2a/double_3x3_1_bn <- inception_2a/double_3x3_1
I0417 18:21:53.805986 26635 net.cpp:411] inception_2a/double_3x3_1_bn -> inception_2a/double_3x3_1_bn
I0417 18:21:53.805990 26635 net.cpp:163] Setting up inception_2a/double_3x3_1_bn
I0417 18:21:53.806001 26635 net.cpp:170] Top shape: 10 128 36 14 (645120)
I0417 18:21:53.806006 26635 layer_factory.hpp:74] Creating layer inception_2a/relu_double_3x3_1
I0417 18:21:53.806010 26635 net.cpp:133] Creating Layer inception_2a/relu_double_3x3_1
I0417 18:21:53.806011 26635 net.cpp:453] inception_2a/relu_double_3x3_1 <- inception_2a/double_3x3_1_bn
I0417 18:21:53.806015 26635 net.cpp:400] inception_2a/relu_double_3x3_1 -> inception_2a/double_3x3_1_bn (in-place)
I0417 18:21:53.806016 26635 net.cpp:163] Setting up inception_2a/relu_double_3x3_1
I0417 18:21:53.806205 26635 net.cpp:170] Top shape: 10 128 36 14 (645120)
I0417 18:21:53.806211 26635 layer_factory.hpp:74] Creating layer inception_2a/double_3x3_2
I0417 18:21:53.806216 26635 net.cpp:133] Creating Layer inception_2a/double_3x3_2
I0417 18:21:53.806218 26635 net.cpp:453] inception_2a/double_3x3_2 <- inception_2a/double_3x3_1_bn
I0417 18:21:53.806222 26635 net.cpp:411] inception_2a/double_3x3_2 -> inception_2a/double_3x3_2
I0417 18:21:53.806226 26635 net.cpp:163] Setting up inception_2a/double_3x3_2
I0417 18:21:53.856124 26635 net.cpp:170] Top shape: 10 128 36 14 (645120)
I0417 18:21:53.856133 26635 layer_factory.hpp:74] Creating layer inception_2a/double_3x3_2_bn
I0417 18:21:53.856137 26635 layer_factory.cpp:191] Layer inception_2a/double_3x3_2_bn is using CAFFE engine.
I0417 18:21:53.856140 26635 net.cpp:133] Creating Layer inception_2a/double_3x3_2_bn
I0417 18:21:53.856142 26635 net.cpp:453] inception_2a/double_3x3_2_bn <- inception_2a/double_3x3_2
I0417 18:21:53.856147 26635 net.cpp:411] inception_2a/double_3x3_2_bn -> inception_2a/double_3x3_2_bn
I0417 18:21:53.856150 26635 net.cpp:163] Setting up inception_2a/double_3x3_2_bn
I0417 18:21:53.856159 26635 net.cpp:170] Top shape: 10 128 36 14 (645120)
I0417 18:21:53.856164 26635 layer_factory.hpp:74] Creating layer inception_2a/relu_double_3x3_2
I0417 18:21:53.856168 26635 net.cpp:133] Creating Layer inception_2a/relu_double_3x3_2
I0417 18:21:53.856170 26635 net.cpp:453] inception_2a/relu_double_3x3_2 <- inception_2a/double_3x3_2_bn
I0417 18:21:53.856173 26635 net.cpp:400] inception_2a/relu_double_3x3_2 -> inception_2a/double_3x3_2_bn (in-place)
I0417 18:21:53.856175 26635 net.cpp:163] Setting up inception_2a/relu_double_3x3_2
I0417 18:21:53.856292 26635 net.cpp:170] Top shape: 10 128 36 14 (645120)
I0417 18:21:53.856297 26635 layer_factory.hpp:74] Creating layer inception_2a/pool
I0417 18:21:53.856299 26635 layer_factory.cpp:64] CUDNN does not support padding or multiple tops. Using Caffe's own pooling layer.
I0417 18:21:53.856302 26635 net.cpp:133] Creating Layer inception_2a/pool
I0417 18:21:53.856304 26635 net.cpp:453] inception_2a/pool <- inception_1b/output_inception_1b/output_0_split_3
I0417 18:21:53.856307 26635 net.cpp:411] inception_2a/pool -> inception_2a/pool
I0417 18:21:53.856310 26635 net.cpp:163] Setting up inception_2a/pool
I0417 18:21:53.856314 26635 net.cpp:170] Top shape: 10 384 36 14 (1935360)
I0417 18:21:53.856317 26635 layer_factory.hpp:74] Creating layer inception_2a/pool_proj
I0417 18:21:53.856320 26635 net.cpp:133] Creating Layer inception_2a/pool_proj
I0417 18:21:53.856323 26635 net.cpp:453] inception_2a/pool_proj <- inception_2a/pool
I0417 18:21:53.856324 26635 net.cpp:411] inception_2a/pool_proj -> inception_2a/pool_proj
I0417 18:21:53.856328 26635 net.cpp:163] Setting up inception_2a/pool_proj
I0417 18:21:53.963662 26635 net.cpp:170] Top shape: 10 128 36 14 (645120)
I0417 18:21:53.963671 26635 layer_factory.hpp:74] Creating layer inception_2a/pool_proj_bn
I0417 18:21:53.963675 26635 layer_factory.cpp:191] Layer inception_2a/pool_proj_bn is using CAFFE engine.
I0417 18:21:53.963680 26635 net.cpp:133] Creating Layer inception_2a/pool_proj_bn
I0417 18:21:53.963681 26635 net.cpp:453] inception_2a/pool_proj_bn <- inception_2a/pool_proj
I0417 18:21:53.963685 26635 net.cpp:411] inception_2a/pool_proj_bn -> inception_2a/pool_proj_bn
I0417 18:21:53.963697 26635 net.cpp:163] Setting up inception_2a/pool_proj_bn
I0417 18:21:53.963707 26635 net.cpp:170] Top shape: 10 128 36 14 (645120)
I0417 18:21:53.963721 26635 layer_factory.hpp:74] Creating layer inception_2a/relu_pool_proj
I0417 18:21:53.963723 26635 net.cpp:133] Creating Layer inception_2a/relu_pool_proj
I0417 18:21:53.963726 26635 net.cpp:453] inception_2a/relu_pool_proj <- inception_2a/pool_proj_bn
I0417 18:21:53.963728 26635 net.cpp:400] inception_2a/relu_pool_proj -> inception_2a/pool_proj_bn (in-place)
I0417 18:21:53.963732 26635 net.cpp:163] Setting up inception_2a/relu_pool_proj
I0417 18:21:53.963984 26635 net.cpp:170] Top shape: 10 128 36 14 (645120)
I0417 18:21:53.963991 26635 layer_factory.hpp:74] Creating layer inception_2a/output
I0417 18:21:53.963996 26635 net.cpp:133] Creating Layer inception_2a/output
I0417 18:21:53.963999 26635 net.cpp:453] inception_2a/output <- inception_2a/1x1_bn
I0417 18:21:53.964001 26635 net.cpp:453] inception_2a/output <- inception_2a/3x3_bn
I0417 18:21:53.964004 26635 net.cpp:453] inception_2a/output <- inception_2a/double_3x3_2_bn
I0417 18:21:53.964006 26635 net.cpp:453] inception_2a/output <- inception_2a/pool_proj_bn
I0417 18:21:53.964009 26635 net.cpp:411] inception_2a/output -> inception_2a/output
I0417 18:21:53.964012 26635 net.cpp:163] Setting up inception_2a/output
I0417 18:21:53.964016 26635 net.cpp:170] Top shape: 10 512 36 14 (2580480)
I0417 18:21:53.964018 26635 layer_factory.hpp:74] Creating layer inception_2a/output_inception_2a/output_0_split
I0417 18:21:53.964021 26635 net.cpp:133] Creating Layer inception_2a/output_inception_2a/output_0_split
I0417 18:21:53.964022 26635 net.cpp:453] inception_2a/output_inception_2a/output_0_split <- inception_2a/output
I0417 18:21:53.964026 26635 net.cpp:411] inception_2a/output_inception_2a/output_0_split -> inception_2a/output_inception_2a/output_0_split_0
I0417 18:21:53.964030 26635 net.cpp:411] inception_2a/output_inception_2a/output_0_split -> inception_2a/output_inception_2a/output_0_split_1
I0417 18:21:53.964033 26635 net.cpp:411] inception_2a/output_inception_2a/output_0_split -> inception_2a/output_inception_2a/output_0_split_2
I0417 18:21:53.964035 26635 net.cpp:163] Setting up inception_2a/output_inception_2a/output_0_split
I0417 18:21:53.964040 26635 net.cpp:170] Top shape: 10 512 36 14 (2580480)
I0417 18:21:53.964041 26635 net.cpp:170] Top shape: 10 512 36 14 (2580480)
I0417 18:21:53.964043 26635 net.cpp:170] Top shape: 10 512 36 14 (2580480)
I0417 18:21:53.964045 26635 layer_factory.hpp:74] Creating layer inception_2b/3x3_reduce
I0417 18:21:53.964049 26635 net.cpp:133] Creating Layer inception_2b/3x3_reduce
I0417 18:21:53.964052 26635 net.cpp:453] inception_2b/3x3_reduce <- inception_2a/output_inception_2a/output_0_split_0
I0417 18:21:53.964056 26635 net.cpp:411] inception_2b/3x3_reduce -> inception_2b/3x3_reduce
I0417 18:21:53.964059 26635 net.cpp:163] Setting up inception_2b/3x3_reduce
I0417 18:21:54.105988 26635 net.cpp:170] Top shape: 10 128 36 14 (645120)
I0417 18:21:54.105998 26635 layer_factory.hpp:74] Creating layer inception_2b/3x3_reduce_bn
I0417 18:21:54.106000 26635 layer_factory.cpp:191] Layer inception_2b/3x3_reduce_bn is using CAFFE engine.
I0417 18:21:54.106004 26635 net.cpp:133] Creating Layer inception_2b/3x3_reduce_bn
I0417 18:21:54.106006 26635 net.cpp:453] inception_2b/3x3_reduce_bn <- inception_2b/3x3_reduce
I0417 18:21:54.106010 26635 net.cpp:411] inception_2b/3x3_reduce_bn -> inception_2b/3x3_reduce_bn
I0417 18:21:54.106014 26635 net.cpp:163] Setting up inception_2b/3x3_reduce_bn
I0417 18:21:54.106024 26635 net.cpp:170] Top shape: 10 128 36 14 (645120)
I0417 18:21:54.106029 26635 layer_factory.hpp:74] Creating layer inception_2b/relu_3x3_reduce
I0417 18:21:54.106032 26635 net.cpp:133] Creating Layer inception_2b/relu_3x3_reduce
I0417 18:21:54.106034 26635 net.cpp:453] inception_2b/relu_3x3_reduce <- inception_2b/3x3_reduce_bn
I0417 18:21:54.106037 26635 net.cpp:400] inception_2b/relu_3x3_reduce -> inception_2b/3x3_reduce_bn (in-place)
I0417 18:21:54.106042 26635 net.cpp:163] Setting up inception_2b/relu_3x3_reduce
I0417 18:21:54.106308 26635 net.cpp:170] Top shape: 10 128 36 14 (645120)
I0417 18:21:54.106314 26635 layer_factory.hpp:74] Creating layer inception_2b/3x3
I0417 18:21:54.106319 26635 net.cpp:133] Creating Layer inception_2b/3x3
I0417 18:21:54.106322 26635 net.cpp:453] inception_2b/3x3 <- inception_2b/3x3_reduce_bn
I0417 18:21:54.106325 26635 net.cpp:411] inception_2b/3x3 -> inception_2b/3x3
I0417 18:21:54.106329 26635 net.cpp:163] Setting up inception_2b/3x3
I0417 18:21:54.114598 26635 net.cpp:170] Top shape: 10 128 18 7 (161280)
I0417 18:21:54.114608 26635 layer_factory.hpp:74] Creating layer inception_2b/3x3_bn
I0417 18:21:54.114610 26635 layer_factory.cpp:191] Layer inception_2b/3x3_bn is using CAFFE engine.
I0417 18:21:54.114614 26635 net.cpp:133] Creating Layer inception_2b/3x3_bn
I0417 18:21:54.114616 26635 net.cpp:453] inception_2b/3x3_bn <- inception_2b/3x3
I0417 18:21:54.114620 26635 net.cpp:411] inception_2b/3x3_bn -> inception_2b/3x3_bn
I0417 18:21:54.114624 26635 net.cpp:163] Setting up inception_2b/3x3_bn
I0417 18:21:54.114632 26635 net.cpp:170] Top shape: 10 128 18 7 (161280)
I0417 18:21:54.114639 26635 layer_factory.hpp:74] Creating layer inception_2b/relu_3x3
I0417 18:21:54.114640 26635 net.cpp:133] Creating Layer inception_2b/relu_3x3
I0417 18:21:54.114642 26635 net.cpp:453] inception_2b/relu_3x3 <- inception_2b/3x3_bn
I0417 18:21:54.114645 26635 net.cpp:400] inception_2b/relu_3x3 -> inception_2b/3x3_bn (in-place)
I0417 18:21:54.114647 26635 net.cpp:163] Setting up inception_2b/relu_3x3
I0417 18:21:54.114763 26635 net.cpp:170] Top shape: 10 128 18 7 (161280)
I0417 18:21:54.114768 26635 layer_factory.hpp:74] Creating layer inception_2b/double_3x3_reduce
I0417 18:21:54.114773 26635 net.cpp:133] Creating Layer inception_2b/double_3x3_reduce
I0417 18:21:54.114774 26635 net.cpp:453] inception_2b/double_3x3_reduce <- inception_2a/output_inception_2a/output_0_split_1
I0417 18:21:54.114778 26635 net.cpp:411] inception_2b/double_3x3_reduce -> inception_2b/double_3x3_reduce
I0417 18:21:54.114783 26635 net.cpp:163] Setting up inception_2b/double_3x3_reduce
I0417 18:21:54.256296 26635 net.cpp:170] Top shape: 10 128 36 14 (645120)
I0417 18:21:54.256306 26635 layer_factory.hpp:74] Creating layer inception_2b/double_3x3_reduce_bn
I0417 18:21:54.256309 26635 layer_factory.cpp:191] Layer inception_2b/double_3x3_reduce_bn is using CAFFE engine.
I0417 18:21:54.256314 26635 net.cpp:133] Creating Layer inception_2b/double_3x3_reduce_bn
I0417 18:21:54.256315 26635 net.cpp:453] inception_2b/double_3x3_reduce_bn <- inception_2b/double_3x3_reduce
I0417 18:21:54.256319 26635 net.cpp:411] inception_2b/double_3x3_reduce_bn -> inception_2b/double_3x3_reduce_bn
I0417 18:21:54.256324 26635 net.cpp:163] Setting up inception_2b/double_3x3_reduce_bn
I0417 18:21:54.256335 26635 net.cpp:170] Top shape: 10 128 36 14 (645120)
I0417 18:21:54.256340 26635 layer_factory.hpp:74] Creating layer inception_2b/relu_double_3x3_reduce
I0417 18:21:54.256342 26635 net.cpp:133] Creating Layer inception_2b/relu_double_3x3_reduce
I0417 18:21:54.256343 26635 net.cpp:453] inception_2b/relu_double_3x3_reduce <- inception_2b/double_3x3_reduce_bn
I0417 18:21:54.256346 26635 net.cpp:400] inception_2b/relu_double_3x3_reduce -> inception_2b/double_3x3_reduce_bn (in-place)
I0417 18:21:54.256350 26635 net.cpp:163] Setting up inception_2b/relu_double_3x3_reduce
I0417 18:21:54.256543 26635 net.cpp:170] Top shape: 10 128 36 14 (645120)
I0417 18:21:54.256549 26635 layer_factory.hpp:74] Creating layer inception_2b/double_3x3_1
I0417 18:21:54.256556 26635 net.cpp:133] Creating Layer inception_2b/double_3x3_1
I0417 18:21:54.256557 26635 net.cpp:453] inception_2b/double_3x3_1 <- inception_2b/double_3x3_reduce_bn
I0417 18:21:54.256561 26635 net.cpp:411] inception_2b/double_3x3_1 -> inception_2b/double_3x3_1
I0417 18:21:54.256564 26635 net.cpp:163] Setting up inception_2b/double_3x3_1
I0417 18:21:54.307276 26635 net.cpp:170] Top shape: 10 128 36 14 (645120)
I0417 18:21:54.307286 26635 layer_factory.hpp:74] Creating layer inception_2b/double_3x3_1_bn
I0417 18:21:54.307288 26635 layer_factory.cpp:191] Layer inception_2b/double_3x3_1_bn is using CAFFE engine.
I0417 18:21:54.307292 26635 net.cpp:133] Creating Layer inception_2b/double_3x3_1_bn
I0417 18:21:54.307296 26635 net.cpp:453] inception_2b/double_3x3_1_bn <- inception_2b/double_3x3_1
I0417 18:21:54.307298 26635 net.cpp:411] inception_2b/double_3x3_1_bn -> inception_2b/double_3x3_1_bn
I0417 18:21:54.307302 26635 net.cpp:163] Setting up inception_2b/double_3x3_1_bn
I0417 18:21:54.307312 26635 net.cpp:170] Top shape: 10 128 36 14 (645120)
I0417 18:21:54.307318 26635 layer_factory.hpp:74] Creating layer inception_2b/relu_double_3x3_1
I0417 18:21:54.307320 26635 net.cpp:133] Creating Layer inception_2b/relu_double_3x3_1
I0417 18:21:54.307322 26635 net.cpp:453] inception_2b/relu_double_3x3_1 <- inception_2b/double_3x3_1_bn
I0417 18:21:54.307325 26635 net.cpp:400] inception_2b/relu_double_3x3_1 -> inception_2b/double_3x3_1_bn (in-place)
I0417 18:21:54.307328 26635 net.cpp:163] Setting up inception_2b/relu_double_3x3_1
I0417 18:21:54.307521 26635 net.cpp:170] Top shape: 10 128 36 14 (645120)
I0417 18:21:54.307526 26635 layer_factory.hpp:74] Creating layer inception_2b/double_3x3_2
I0417 18:21:54.307531 26635 net.cpp:133] Creating Layer inception_2b/double_3x3_2
I0417 18:21:54.307534 26635 net.cpp:453] inception_2b/double_3x3_2 <- inception_2b/double_3x3_1_bn
I0417 18:21:54.307538 26635 net.cpp:411] inception_2b/double_3x3_2 -> inception_2b/double_3x3_2
I0417 18:21:54.307541 26635 net.cpp:163] Setting up inception_2b/double_3x3_2
I0417 18:21:54.315544 26635 net.cpp:170] Top shape: 10 128 18 7 (161280)
I0417 18:21:54.315554 26635 layer_factory.hpp:74] Creating layer inception_2b/double_3x3_2_bn
I0417 18:21:54.315557 26635 layer_factory.cpp:191] Layer inception_2b/double_3x3_2_bn is using CAFFE engine.
I0417 18:21:54.315560 26635 net.cpp:133] Creating Layer inception_2b/double_3x3_2_bn
I0417 18:21:54.315562 26635 net.cpp:453] inception_2b/double_3x3_2_bn <- inception_2b/double_3x3_2
I0417 18:21:54.315567 26635 net.cpp:411] inception_2b/double_3x3_2_bn -> inception_2b/double_3x3_2_bn
I0417 18:21:54.315572 26635 net.cpp:163] Setting up inception_2b/double_3x3_2_bn
I0417 18:21:54.315579 26635 net.cpp:170] Top shape: 10 128 18 7 (161280)
I0417 18:21:54.315584 26635 layer_factory.hpp:74] Creating layer inception_2b/relu_double_3x3_2
I0417 18:21:54.315587 26635 net.cpp:133] Creating Layer inception_2b/relu_double_3x3_2
I0417 18:21:54.315589 26635 net.cpp:453] inception_2b/relu_double_3x3_2 <- inception_2b/double_3x3_2_bn
I0417 18:21:54.315593 26635 net.cpp:400] inception_2b/relu_double_3x3_2 -> inception_2b/double_3x3_2_bn (in-place)
I0417 18:21:54.315594 26635 net.cpp:163] Setting up inception_2b/relu_double_3x3_2
I0417 18:21:54.315711 26635 net.cpp:170] Top shape: 10 128 18 7 (161280)
I0417 18:21:54.315714 26635 layer_factory.hpp:74] Creating layer inception_2b/pool
I0417 18:21:54.315718 26635 net.cpp:133] Creating Layer inception_2b/pool
I0417 18:21:54.315721 26635 net.cpp:453] inception_2b/pool <- inception_2a/output_inception_2a/output_0_split_2
I0417 18:21:54.315723 26635 net.cpp:411] inception_2b/pool -> inception_2b/pool
I0417 18:21:54.315727 26635 net.cpp:163] Setting up inception_2b/pool
I0417 18:21:54.315917 26635 net.cpp:170] Top shape: 10 512 18 7 (645120)
I0417 18:21:54.315922 26635 layer_factory.hpp:74] Creating layer inception_2b/output
I0417 18:21:54.315927 26635 net.cpp:133] Creating Layer inception_2b/output
I0417 18:21:54.315928 26635 net.cpp:453] inception_2b/output <- inception_2b/3x3_bn
I0417 18:21:54.315932 26635 net.cpp:453] inception_2b/output <- inception_2b/double_3x3_2_bn
I0417 18:21:54.315933 26635 net.cpp:453] inception_2b/output <- inception_2b/pool
I0417 18:21:54.315937 26635 net.cpp:411] inception_2b/output -> inception_2b/output
I0417 18:21:54.315940 26635 net.cpp:163] Setting up inception_2b/output
I0417 18:21:54.315943 26635 net.cpp:170] Top shape: 10 768 18 7 (967680)
I0417 18:21:54.315945 26635 layer_factory.hpp:74] Creating layer inception_2b/output_inception_2b/output_0_split
I0417 18:21:54.315948 26635 net.cpp:133] Creating Layer inception_2b/output_inception_2b/output_0_split
I0417 18:21:54.315949 26635 net.cpp:453] inception_2b/output_inception_2b/output_0_split <- inception_2b/output
I0417 18:21:54.315953 26635 net.cpp:411] inception_2b/output_inception_2b/output_0_split -> inception_2b/output_inception_2b/output_0_split_0
I0417 18:21:54.315956 26635 net.cpp:411] inception_2b/output_inception_2b/output_0_split -> inception_2b/output_inception_2b/output_0_split_1
I0417 18:21:54.315959 26635 net.cpp:411] inception_2b/output_inception_2b/output_0_split -> inception_2b/output_inception_2b/output_0_split_2
I0417 18:21:54.315963 26635 net.cpp:411] inception_2b/output_inception_2b/output_0_split -> inception_2b/output_inception_2b/output_0_split_3
I0417 18:21:54.315965 26635 net.cpp:163] Setting up inception_2b/output_inception_2b/output_0_split
I0417 18:21:54.315968 26635 net.cpp:170] Top shape: 10 768 18 7 (967680)
I0417 18:21:54.315970 26635 net.cpp:170] Top shape: 10 768 18 7 (967680)
I0417 18:21:54.315973 26635 net.cpp:170] Top shape: 10 768 18 7 (967680)
I0417 18:21:54.315974 26635 net.cpp:170] Top shape: 10 768 18 7 (967680)
I0417 18:21:54.315976 26635 layer_factory.hpp:74] Creating layer inception_3a/1x1
I0417 18:21:54.315980 26635 net.cpp:133] Creating Layer inception_3a/1x1
I0417 18:21:54.315982 26635 net.cpp:453] inception_3a/1x1 <- inception_2b/output_inception_2b/output_0_split_0
I0417 18:21:54.315985 26635 net.cpp:411] inception_3a/1x1 -> inception_3a/1x1
I0417 18:21:54.315989 26635 net.cpp:163] Setting up inception_3a/1x1
I0417 18:21:54.447443 26635 net.cpp:170] Top shape: 10 256 18 7 (322560)
I0417 18:21:54.447453 26635 layer_factory.hpp:74] Creating layer inception_3a/1x1_bn
I0417 18:21:54.447455 26635 layer_factory.cpp:191] Layer inception_3a/1x1_bn is using CAFFE engine.
I0417 18:21:54.447459 26635 net.cpp:133] Creating Layer inception_3a/1x1_bn
I0417 18:21:54.447461 26635 net.cpp:453] inception_3a/1x1_bn <- inception_3a/1x1
I0417 18:21:54.447465 26635 net.cpp:411] inception_3a/1x1_bn -> inception_3a/1x1_bn
I0417 18:21:54.447469 26635 net.cpp:163] Setting up inception_3a/1x1_bn
I0417 18:21:54.447479 26635 net.cpp:170] Top shape: 10 256 18 7 (322560)
I0417 18:21:54.447484 26635 layer_factory.hpp:74] Creating layer inception_3a/relu_1x1
I0417 18:21:54.447487 26635 net.cpp:133] Creating Layer inception_3a/relu_1x1
I0417 18:21:54.447489 26635 net.cpp:453] inception_3a/relu_1x1 <- inception_3a/1x1_bn
I0417 18:21:54.447491 26635 net.cpp:400] inception_3a/relu_1x1 -> inception_3a/1x1_bn (in-place)
I0417 18:21:54.447494 26635 net.cpp:163] Setting up inception_3a/relu_1x1
I0417 18:21:54.447612 26635 net.cpp:170] Top shape: 10 256 18 7 (322560)
I0417 18:21:54.447615 26635 layer_factory.hpp:74] Creating layer inception_3a/3x3_reduce
I0417 18:21:54.447620 26635 net.cpp:133] Creating Layer inception_3a/3x3_reduce
I0417 18:21:54.447623 26635 net.cpp:453] inception_3a/3x3_reduce <- inception_2b/output_inception_2b/output_0_split_1
I0417 18:21:54.447626 26635 net.cpp:411] inception_3a/3x3_reduce -> inception_3a/3x3_reduce
I0417 18:21:54.447630 26635 net.cpp:163] Setting up inception_3a/3x3_reduce
I0417 18:21:54.578245 26635 net.cpp:170] Top shape: 10 256 18 7 (322560)
I0417 18:21:54.578255 26635 layer_factory.hpp:74] Creating layer inception_3a/3x3_reduce_bn
I0417 18:21:54.578258 26635 layer_factory.cpp:191] Layer inception_3a/3x3_reduce_bn is using CAFFE engine.
I0417 18:21:54.578263 26635 net.cpp:133] Creating Layer inception_3a/3x3_reduce_bn
I0417 18:21:54.578264 26635 net.cpp:453] inception_3a/3x3_reduce_bn <- inception_3a/3x3_reduce
I0417 18:21:54.578269 26635 net.cpp:411] inception_3a/3x3_reduce_bn -> inception_3a/3x3_reduce_bn
I0417 18:21:54.578274 26635 net.cpp:163] Setting up inception_3a/3x3_reduce_bn
I0417 18:21:54.578284 26635 net.cpp:170] Top shape: 10 256 18 7 (322560)
I0417 18:21:54.578287 26635 layer_factory.hpp:74] Creating layer inception_3a/relu_3x3_reduce
I0417 18:21:54.578291 26635 net.cpp:133] Creating Layer inception_3a/relu_3x3_reduce
I0417 18:21:54.578294 26635 net.cpp:453] inception_3a/relu_3x3_reduce <- inception_3a/3x3_reduce_bn
I0417 18:21:54.578295 26635 net.cpp:400] inception_3a/relu_3x3_reduce -> inception_3a/3x3_reduce_bn (in-place)
I0417 18:21:54.578299 26635 net.cpp:163] Setting up inception_3a/relu_3x3_reduce
I0417 18:21:54.578495 26635 net.cpp:170] Top shape: 10 256 18 7 (322560)
I0417 18:21:54.578501 26635 layer_factory.hpp:74] Creating layer inception_3a/3x3
I0417 18:21:54.578507 26635 net.cpp:133] Creating Layer inception_3a/3x3
I0417 18:21:54.578510 26635 net.cpp:453] inception_3a/3x3 <- inception_3a/3x3_reduce_bn
I0417 18:21:54.578513 26635 net.cpp:411] inception_3a/3x3 -> inception_3a/3x3
I0417 18:21:54.578517 26635 net.cpp:163] Setting up inception_3a/3x3
I0417 18:21:54.637372 26635 net.cpp:170] Top shape: 10 256 18 7 (322560)
I0417 18:21:54.637382 26635 layer_factory.hpp:74] Creating layer inception_3a/3x3_bn
I0417 18:21:54.637387 26635 layer_factory.cpp:191] Layer inception_3a/3x3_bn is using CAFFE engine.
I0417 18:21:54.637390 26635 net.cpp:133] Creating Layer inception_3a/3x3_bn
I0417 18:21:54.637392 26635 net.cpp:453] inception_3a/3x3_bn <- inception_3a/3x3
I0417 18:21:54.637397 26635 net.cpp:411] inception_3a/3x3_bn -> inception_3a/3x3_bn
I0417 18:21:54.637401 26635 net.cpp:163] Setting up inception_3a/3x3_bn
I0417 18:21:54.637413 26635 net.cpp:170] Top shape: 10 256 18 7 (322560)
I0417 18:21:54.637418 26635 layer_factory.hpp:74] Creating layer inception_3a/relu_3x3
I0417 18:21:54.637420 26635 net.cpp:133] Creating Layer inception_3a/relu_3x3
I0417 18:21:54.637423 26635 net.cpp:453] inception_3a/relu_3x3 <- inception_3a/3x3_bn
I0417 18:21:54.637425 26635 net.cpp:400] inception_3a/relu_3x3 -> inception_3a/3x3_bn (in-place)
I0417 18:21:54.637428 26635 net.cpp:163] Setting up inception_3a/relu_3x3
I0417 18:21:54.637634 26635 net.cpp:170] Top shape: 10 256 18 7 (322560)
I0417 18:21:54.637641 26635 layer_factory.hpp:74] Creating layer inception_3a/double_3x3_reduce
I0417 18:21:54.637646 26635 net.cpp:133] Creating Layer inception_3a/double_3x3_reduce
I0417 18:21:54.637648 26635 net.cpp:453] inception_3a/double_3x3_reduce <- inception_2b/output_inception_2b/output_0_split_2
I0417 18:21:54.637652 26635 net.cpp:411] inception_3a/double_3x3_reduce -> inception_3a/double_3x3_reduce
I0417 18:21:54.637657 26635 net.cpp:163] Setting up inception_3a/double_3x3_reduce
I0417 18:21:54.768497 26635 net.cpp:170] Top shape: 10 256 18 7 (322560)
I0417 18:21:54.768507 26635 layer_factory.hpp:74] Creating layer inception_3a/double_3x3_reduce_bn
I0417 18:21:54.768510 26635 layer_factory.cpp:191] Layer inception_3a/double_3x3_reduce_bn is using CAFFE engine.
I0417 18:21:54.768514 26635 net.cpp:133] Creating Layer inception_3a/double_3x3_reduce_bn
I0417 18:21:54.768517 26635 net.cpp:453] inception_3a/double_3x3_reduce_bn <- inception_3a/double_3x3_reduce
I0417 18:21:54.768520 26635 net.cpp:411] inception_3a/double_3x3_reduce_bn -> inception_3a/double_3x3_reduce_bn
I0417 18:21:54.768524 26635 net.cpp:163] Setting up inception_3a/double_3x3_reduce_bn
I0417 18:21:54.768535 26635 net.cpp:170] Top shape: 10 256 18 7 (322560)
I0417 18:21:54.768540 26635 layer_factory.hpp:74] Creating layer inception_3a/relu_double_3x3_reduce
I0417 18:21:54.768543 26635 net.cpp:133] Creating Layer inception_3a/relu_double_3x3_reduce
I0417 18:21:54.768544 26635 net.cpp:453] inception_3a/relu_double_3x3_reduce <- inception_3a/double_3x3_reduce_bn
I0417 18:21:54.768548 26635 net.cpp:400] inception_3a/relu_double_3x3_reduce -> inception_3a/double_3x3_reduce_bn (in-place)
I0417 18:21:54.768549 26635 net.cpp:163] Setting up inception_3a/relu_double_3x3_reduce
I0417 18:21:54.768668 26635 net.cpp:170] Top shape: 10 256 18 7 (322560)
I0417 18:21:54.768673 26635 layer_factory.hpp:74] Creating layer inception_3a/double_3x3_1
I0417 18:21:54.768678 26635 net.cpp:133] Creating Layer inception_3a/double_3x3_1
I0417 18:21:54.768681 26635 net.cpp:453] inception_3a/double_3x3_1 <- inception_3a/double_3x3_reduce_bn
I0417 18:21:54.768683 26635 net.cpp:411] inception_3a/double_3x3_1 -> inception_3a/double_3x3_1
I0417 18:21:54.768687 26635 net.cpp:163] Setting up inception_3a/double_3x3_1
I0417 18:21:54.826895 26635 net.cpp:170] Top shape: 10 256 18 7 (322560)
I0417 18:21:54.826905 26635 layer_factory.hpp:74] Creating layer inception_3a/double_3x3_1_bn
I0417 18:21:54.826907 26635 layer_factory.cpp:191] Layer inception_3a/double_3x3_1_bn is using CAFFE engine.
I0417 18:21:54.826911 26635 net.cpp:133] Creating Layer inception_3a/double_3x3_1_bn
I0417 18:21:54.826915 26635 net.cpp:453] inception_3a/double_3x3_1_bn <- inception_3a/double_3x3_1
I0417 18:21:54.826918 26635 net.cpp:411] inception_3a/double_3x3_1_bn -> inception_3a/double_3x3_1_bn
I0417 18:21:54.826922 26635 net.cpp:163] Setting up inception_3a/double_3x3_1_bn
I0417 18:21:54.826932 26635 net.cpp:170] Top shape: 10 256 18 7 (322560)
I0417 18:21:54.826937 26635 layer_factory.hpp:74] Creating layer inception_3a/relu_double_3x3_1
I0417 18:21:54.826941 26635 net.cpp:133] Creating Layer inception_3a/relu_double_3x3_1
I0417 18:21:54.826942 26635 net.cpp:453] inception_3a/relu_double_3x3_1 <- inception_3a/double_3x3_1_bn
I0417 18:21:54.826946 26635 net.cpp:400] inception_3a/relu_double_3x3_1 -> inception_3a/double_3x3_1_bn (in-place)
I0417 18:21:54.826948 26635 net.cpp:163] Setting up inception_3a/relu_double_3x3_1
I0417 18:21:54.827147 26635 net.cpp:170] Top shape: 10 256 18 7 (322560)
I0417 18:21:54.827153 26635 layer_factory.hpp:74] Creating layer inception_3a/double_3x3_2
I0417 18:21:54.827158 26635 net.cpp:133] Creating Layer inception_3a/double_3x3_2
I0417 18:21:54.827160 26635 net.cpp:453] inception_3a/double_3x3_2 <- inception_3a/double_3x3_1_bn
I0417 18:21:54.827164 26635 net.cpp:411] inception_3a/double_3x3_2 -> inception_3a/double_3x3_2
I0417 18:21:54.827168 26635 net.cpp:163] Setting up inception_3a/double_3x3_2
I0417 18:21:54.885241 26635 net.cpp:170] Top shape: 10 256 18 7 (322560)
I0417 18:21:54.885251 26635 layer_factory.hpp:74] Creating layer inception_3a/double_3x3_2_bn
I0417 18:21:54.885252 26635 layer_factory.cpp:191] Layer inception_3a/double_3x3_2_bn is using CAFFE engine.
I0417 18:21:54.885257 26635 net.cpp:133] Creating Layer inception_3a/double_3x3_2_bn
I0417 18:21:54.885259 26635 net.cpp:453] inception_3a/double_3x3_2_bn <- inception_3a/double_3x3_2
I0417 18:21:54.885263 26635 net.cpp:411] inception_3a/double_3x3_2_bn -> inception_3a/double_3x3_2_bn
I0417 18:21:54.885267 26635 net.cpp:163] Setting up inception_3a/double_3x3_2_bn
I0417 18:21:54.885278 26635 net.cpp:170] Top shape: 10 256 18 7 (322560)
I0417 18:21:54.885283 26635 layer_factory.hpp:74] Creating layer inception_3a/relu_double_3x3_2
I0417 18:21:54.885287 26635 net.cpp:133] Creating Layer inception_3a/relu_double_3x3_2
I0417 18:21:54.885288 26635 net.cpp:453] inception_3a/relu_double_3x3_2 <- inception_3a/double_3x3_2_bn
I0417 18:21:54.885291 26635 net.cpp:400] inception_3a/relu_double_3x3_2 -> inception_3a/double_3x3_2_bn (in-place)
I0417 18:21:54.885293 26635 net.cpp:163] Setting up inception_3a/relu_double_3x3_2
I0417 18:21:54.885505 26635 net.cpp:170] Top shape: 10 256 18 7 (322560)
I0417 18:21:54.885511 26635 layer_factory.hpp:74] Creating layer inception_3a/pool
I0417 18:21:54.885514 26635 layer_factory.cpp:64] CUDNN does not support padding or multiple tops. Using Caffe's own pooling layer.
I0417 18:21:54.885517 26635 net.cpp:133] Creating Layer inception_3a/pool
I0417 18:21:54.885519 26635 net.cpp:453] inception_3a/pool <- inception_2b/output_inception_2b/output_0_split_3
I0417 18:21:54.885524 26635 net.cpp:411] inception_3a/pool -> inception_3a/pool
I0417 18:21:54.885527 26635 net.cpp:163] Setting up inception_3a/pool
I0417 18:21:54.885531 26635 net.cpp:170] Top shape: 10 768 18 7 (967680)
I0417 18:21:54.885534 26635 layer_factory.hpp:74] Creating layer inception_3a/pool_proj
I0417 18:21:54.885537 26635 net.cpp:133] Creating Layer inception_3a/pool_proj
I0417 18:21:54.885538 26635 net.cpp:453] inception_3a/pool_proj <- inception_3a/pool
I0417 18:21:54.885542 26635 net.cpp:411] inception_3a/pool_proj -> inception_3a/pool_proj
I0417 18:21:54.885545 26635 net.cpp:163] Setting up inception_3a/pool_proj
I0417 18:21:55.018118 26635 net.cpp:170] Top shape: 10 256 18 7 (322560)
I0417 18:21:55.018128 26635 layer_factory.hpp:74] Creating layer inception_3a/pool_proj_bn
I0417 18:21:55.018131 26635 layer_factory.cpp:191] Layer inception_3a/pool_proj_bn is using CAFFE engine.
I0417 18:21:55.018136 26635 net.cpp:133] Creating Layer inception_3a/pool_proj_bn
I0417 18:21:55.018137 26635 net.cpp:453] inception_3a/pool_proj_bn <- inception_3a/pool_proj
I0417 18:21:55.018141 26635 net.cpp:411] inception_3a/pool_proj_bn -> inception_3a/pool_proj_bn
I0417 18:21:55.018146 26635 net.cpp:163] Setting up inception_3a/pool_proj_bn
I0417 18:21:55.018156 26635 net.cpp:170] Top shape: 10 256 18 7 (322560)
I0417 18:21:55.018160 26635 layer_factory.hpp:74] Creating layer inception_3a/relu_pool_proj
I0417 18:21:55.018163 26635 net.cpp:133] Creating Layer inception_3a/relu_pool_proj
I0417 18:21:55.018165 26635 net.cpp:453] inception_3a/relu_pool_proj <- inception_3a/pool_proj_bn
I0417 18:21:55.018167 26635 net.cpp:400] inception_3a/relu_pool_proj -> inception_3a/pool_proj_bn (in-place)
I0417 18:21:55.018170 26635 net.cpp:163] Setting up inception_3a/relu_pool_proj
I0417 18:21:55.018288 26635 net.cpp:170] Top shape: 10 256 18 7 (322560)
I0417 18:21:55.018292 26635 layer_factory.hpp:74] Creating layer inception_3a/output
I0417 18:21:55.018296 26635 net.cpp:133] Creating Layer inception_3a/output
I0417 18:21:55.018298 26635 net.cpp:453] inception_3a/output <- inception_3a/1x1_bn
I0417 18:21:55.018301 26635 net.cpp:453] inception_3a/output <- inception_3a/3x3_bn
I0417 18:21:55.018302 26635 net.cpp:453] inception_3a/output <- inception_3a/double_3x3_2_bn
I0417 18:21:55.018306 26635 net.cpp:453] inception_3a/output <- inception_3a/pool_proj_bn
I0417 18:21:55.018308 26635 net.cpp:411] inception_3a/output -> inception_3a/output
I0417 18:21:55.018311 26635 net.cpp:163] Setting up inception_3a/output
I0417 18:21:55.018316 26635 net.cpp:170] Top shape: 10 1024 18 7 (1290240)
I0417 18:21:55.018317 26635 layer_factory.hpp:74] Creating layer inception_3a/output_inception_3a/output_0_split
I0417 18:21:55.018321 26635 net.cpp:133] Creating Layer inception_3a/output_inception_3a/output_0_split
I0417 18:21:55.018321 26635 net.cpp:453] inception_3a/output_inception_3a/output_0_split <- inception_3a/output
I0417 18:21:55.018324 26635 net.cpp:411] inception_3a/output_inception_3a/output_0_split -> inception_3a/output_inception_3a/output_0_split_0
I0417 18:21:55.018328 26635 net.cpp:411] inception_3a/output_inception_3a/output_0_split -> inception_3a/output_inception_3a/output_0_split_1
I0417 18:21:55.018332 26635 net.cpp:411] inception_3a/output_inception_3a/output_0_split -> inception_3a/output_inception_3a/output_0_split_2
I0417 18:21:55.018334 26635 net.cpp:163] Setting up inception_3a/output_inception_3a/output_0_split
I0417 18:21:55.018337 26635 net.cpp:170] Top shape: 10 1024 18 7 (1290240)
I0417 18:21:55.018339 26635 net.cpp:170] Top shape: 10 1024 18 7 (1290240)
I0417 18:21:55.018342 26635 net.cpp:170] Top shape: 10 1024 18 7 (1290240)
I0417 18:21:55.018342 26635 layer_factory.hpp:74] Creating layer inception_3b/3x3_reduce
I0417 18:21:55.018347 26635 net.cpp:133] Creating Layer inception_3b/3x3_reduce
I0417 18:21:55.018349 26635 net.cpp:453] inception_3b/3x3_reduce <- inception_3a/output_inception_3a/output_0_split_0
I0417 18:21:55.018353 26635 net.cpp:411] inception_3b/3x3_reduce -> inception_3b/3x3_reduce
I0417 18:21:55.018357 26635 net.cpp:163] Setting up inception_3b/3x3_reduce
I0417 18:21:55.194166 26635 net.cpp:170] Top shape: 10 256 18 7 (322560)
I0417 18:21:55.194177 26635 layer_factory.hpp:74] Creating layer inception_3b/3x3_reduce_bn
I0417 18:21:55.194180 26635 layer_factory.cpp:191] Layer inception_3b/3x3_reduce_bn is using CAFFE engine.
I0417 18:21:55.194185 26635 net.cpp:133] Creating Layer inception_3b/3x3_reduce_bn
I0417 18:21:55.194186 26635 net.cpp:453] inception_3b/3x3_reduce_bn <- inception_3b/3x3_reduce
I0417 18:21:55.194190 26635 net.cpp:411] inception_3b/3x3_reduce_bn -> inception_3b/3x3_reduce_bn
I0417 18:21:55.194195 26635 net.cpp:163] Setting up inception_3b/3x3_reduce_bn
I0417 18:21:55.194205 26635 net.cpp:170] Top shape: 10 256 18 7 (322560)
I0417 18:21:55.194211 26635 layer_factory.hpp:74] Creating layer inception_3b/relu_3x3_reduce
I0417 18:21:55.194213 26635 net.cpp:133] Creating Layer inception_3b/relu_3x3_reduce
I0417 18:21:55.194216 26635 net.cpp:453] inception_3b/relu_3x3_reduce <- inception_3b/3x3_reduce_bn
I0417 18:21:55.194218 26635 net.cpp:400] inception_3b/relu_3x3_reduce -> inception_3b/3x3_reduce_bn (in-place)
I0417 18:21:55.194221 26635 net.cpp:163] Setting up inception_3b/relu_3x3_reduce
I0417 18:21:55.194422 26635 net.cpp:170] Top shape: 10 256 18 7 (322560)
I0417 18:21:55.194428 26635 layer_factory.hpp:74] Creating layer inception_3b/3x3
I0417 18:21:55.194433 26635 net.cpp:133] Creating Layer inception_3b/3x3
I0417 18:21:55.194435 26635 net.cpp:453] inception_3b/3x3 <- inception_3b/3x3_reduce_bn
I0417 18:21:55.194439 26635 net.cpp:411] inception_3b/3x3 -> inception_3b/3x3
I0417 18:21:55.194443 26635 net.cpp:163] Setting up inception_3b/3x3
I0417 18:21:55.206543 26635 net.cpp:170] Top shape: 10 256 9 4 (92160)
I0417 18:21:55.206553 26635 layer_factory.hpp:74] Creating layer inception_3b/3x3_bn
I0417 18:21:55.206555 26635 layer_factory.cpp:191] Layer inception_3b/3x3_bn is using CAFFE engine.
I0417 18:21:55.206559 26635 net.cpp:133] Creating Layer inception_3b/3x3_bn
I0417 18:21:55.206562 26635 net.cpp:453] inception_3b/3x3_bn <- inception_3b/3x3
I0417 18:21:55.206565 26635 net.cpp:411] inception_3b/3x3_bn -> inception_3b/3x3_bn
I0417 18:21:55.206570 26635 net.cpp:163] Setting up inception_3b/3x3_bn
I0417 18:21:55.206580 26635 net.cpp:170] Top shape: 10 256 9 4 (92160)
I0417 18:21:55.206584 26635 layer_factory.hpp:74] Creating layer inception_3b/relu_3x3
I0417 18:21:55.206588 26635 net.cpp:133] Creating Layer inception_3b/relu_3x3
I0417 18:21:55.206589 26635 net.cpp:453] inception_3b/relu_3x3 <- inception_3b/3x3_bn
I0417 18:21:55.206593 26635 net.cpp:400] inception_3b/relu_3x3 -> inception_3b/3x3_bn (in-place)
I0417 18:21:55.206595 26635 net.cpp:163] Setting up inception_3b/relu_3x3
I0417 18:21:55.206794 26635 net.cpp:170] Top shape: 10 256 9 4 (92160)
I0417 18:21:55.206800 26635 layer_factory.hpp:74] Creating layer inception_3b/double_3x3_reduce
I0417 18:21:55.206805 26635 net.cpp:133] Creating Layer inception_3b/double_3x3_reduce
I0417 18:21:55.206807 26635 net.cpp:453] inception_3b/double_3x3_reduce <- inception_3a/output_inception_3a/output_0_split_1
I0417 18:21:55.206810 26635 net.cpp:411] inception_3b/double_3x3_reduce -> inception_3b/double_3x3_reduce
I0417 18:21:55.206815 26635 net.cpp:163] Setting up inception_3b/double_3x3_reduce
I0417 18:21:55.383146 26635 net.cpp:170] Top shape: 10 256 18 7 (322560)
I0417 18:21:55.383155 26635 layer_factory.hpp:74] Creating layer inception_3b/double_3x3_reduce_bn
I0417 18:21:55.383157 26635 layer_factory.cpp:191] Layer inception_3b/double_3x3_reduce_bn is using CAFFE engine.
I0417 18:21:55.383183 26635 net.cpp:133] Creating Layer inception_3b/double_3x3_reduce_bn
I0417 18:21:55.383185 26635 net.cpp:453] inception_3b/double_3x3_reduce_bn <- inception_3b/double_3x3_reduce
I0417 18:21:55.383189 26635 net.cpp:411] inception_3b/double_3x3_reduce_bn -> inception_3b/double_3x3_reduce_bn
I0417 18:21:55.383193 26635 net.cpp:163] Setting up inception_3b/double_3x3_reduce_bn
I0417 18:21:55.383201 26635 net.cpp:170] Top shape: 10 256 18 7 (322560)
I0417 18:21:55.383205 26635 layer_factory.hpp:74] Creating layer inception_3b/relu_double_3x3_reduce
I0417 18:21:55.383208 26635 net.cpp:133] Creating Layer inception_3b/relu_double_3x3_reduce
I0417 18:21:55.383210 26635 net.cpp:453] inception_3b/relu_double_3x3_reduce <- inception_3b/double_3x3_reduce_bn
I0417 18:21:55.383213 26635 net.cpp:400] inception_3b/relu_double_3x3_reduce -> inception_3b/double_3x3_reduce_bn (in-place)
I0417 18:21:55.383215 26635 net.cpp:163] Setting up inception_3b/relu_double_3x3_reduce
I0417 18:21:55.383333 26635 net.cpp:170] Top shape: 10 256 18 7 (322560)
I0417 18:21:55.383337 26635 layer_factory.hpp:74] Creating layer inception_3b/double_3x3_1
I0417 18:21:55.383343 26635 net.cpp:133] Creating Layer inception_3b/double_3x3_1
I0417 18:21:55.383344 26635 net.cpp:453] inception_3b/double_3x3_1 <- inception_3b/double_3x3_reduce_bn
I0417 18:21:55.383348 26635 net.cpp:411] inception_3b/double_3x3_1 -> inception_3b/double_3x3_1
I0417 18:21:55.383352 26635 net.cpp:163] Setting up inception_3b/double_3x3_1
I0417 18:21:55.441171 26635 net.cpp:170] Top shape: 10 256 18 7 (322560)
I0417 18:21:55.441180 26635 layer_factory.hpp:74] Creating layer inception_3b/double_3x3_1_bn
I0417 18:21:55.441184 26635 layer_factory.cpp:191] Layer inception_3b/double_3x3_1_bn is using CAFFE engine.
I0417 18:21:55.441187 26635 net.cpp:133] Creating Layer inception_3b/double_3x3_1_bn
I0417 18:21:55.441190 26635 net.cpp:453] inception_3b/double_3x3_1_bn <- inception_3b/double_3x3_1
I0417 18:21:55.441193 26635 net.cpp:411] inception_3b/double_3x3_1_bn -> inception_3b/double_3x3_1_bn
I0417 18:21:55.441197 26635 net.cpp:163] Setting up inception_3b/double_3x3_1_bn
I0417 18:21:55.441207 26635 net.cpp:170] Top shape: 10 256 18 7 (322560)
I0417 18:21:55.441212 26635 layer_factory.hpp:74] Creating layer inception_3b/relu_double_3x3_1
I0417 18:21:55.441215 26635 net.cpp:133] Creating Layer inception_3b/relu_double_3x3_1
I0417 18:21:55.441216 26635 net.cpp:453] inception_3b/relu_double_3x3_1 <- inception_3b/double_3x3_1_bn
I0417 18:21:55.441220 26635 net.cpp:400] inception_3b/relu_double_3x3_1 -> inception_3b/double_3x3_1_bn (in-place)
I0417 18:21:55.441222 26635 net.cpp:163] Setting up inception_3b/relu_double_3x3_1
I0417 18:21:55.441421 26635 net.cpp:170] Top shape: 10 256 18 7 (322560)
I0417 18:21:55.441426 26635 layer_factory.hpp:74] Creating layer inception_3b/double_3x3_2
I0417 18:21:55.441432 26635 net.cpp:133] Creating Layer inception_3b/double_3x3_2
I0417 18:21:55.441434 26635 net.cpp:453] inception_3b/double_3x3_2 <- inception_3b/double_3x3_1_bn
I0417 18:21:55.441438 26635 net.cpp:411] inception_3b/double_3x3_2 -> inception_3b/double_3x3_2
I0417 18:21:55.441442 26635 net.cpp:163] Setting up inception_3b/double_3x3_2
I0417 18:21:55.453515 26635 net.cpp:170] Top shape: 10 256 9 4 (92160)
I0417 18:21:55.453524 26635 layer_factory.hpp:74] Creating layer inception_3b/double_3x3_2_bn
I0417 18:21:55.453527 26635 layer_factory.cpp:191] Layer inception_3b/double_3x3_2_bn is using CAFFE engine.
I0417 18:21:55.453531 26635 net.cpp:133] Creating Layer inception_3b/double_3x3_2_bn
I0417 18:21:55.453533 26635 net.cpp:453] inception_3b/double_3x3_2_bn <- inception_3b/double_3x3_2
I0417 18:21:55.453537 26635 net.cpp:411] inception_3b/double_3x3_2_bn -> inception_3b/double_3x3_2_bn
I0417 18:21:55.453541 26635 net.cpp:163] Setting up inception_3b/double_3x3_2_bn
I0417 18:21:55.453550 26635 net.cpp:170] Top shape: 10 256 9 4 (92160)
I0417 18:21:55.453555 26635 layer_factory.hpp:74] Creating layer inception_3b/relu_double_3x3_2
I0417 18:21:55.453559 26635 net.cpp:133] Creating Layer inception_3b/relu_double_3x3_2
I0417 18:21:55.453560 26635 net.cpp:453] inception_3b/relu_double_3x3_2 <- inception_3b/double_3x3_2_bn
I0417 18:21:55.453563 26635 net.cpp:400] inception_3b/relu_double_3x3_2 -> inception_3b/double_3x3_2_bn (in-place)
I0417 18:21:55.453565 26635 net.cpp:163] Setting up inception_3b/relu_double_3x3_2
I0417 18:21:55.453773 26635 net.cpp:170] Top shape: 10 256 9 4 (92160)
I0417 18:21:55.453780 26635 layer_factory.hpp:74] Creating layer inception_3b/pool
I0417 18:21:55.453783 26635 layer_factory.cpp:64] CUDNN does not support padding or multiple tops. Using Caffe's own pooling layer.
I0417 18:21:55.453786 26635 net.cpp:133] Creating Layer inception_3b/pool
I0417 18:21:55.453788 26635 net.cpp:453] inception_3b/pool <- inception_3a/output_inception_3a/output_0_split_2
I0417 18:21:55.453791 26635 net.cpp:411] inception_3b/pool -> inception_3b/pool
I0417 18:21:55.453795 26635 net.cpp:163] Setting up inception_3b/pool
I0417 18:21:55.453800 26635 net.cpp:170] Top shape: 10 1024 9 4 (368640)
I0417 18:21:55.453802 26635 layer_factory.hpp:74] Creating layer inception_3b/output
I0417 18:21:55.453805 26635 net.cpp:133] Creating Layer inception_3b/output
I0417 18:21:55.453807 26635 net.cpp:453] inception_3b/output <- inception_3b/3x3_bn
I0417 18:21:55.453809 26635 net.cpp:453] inception_3b/output <- inception_3b/double_3x3_2_bn
I0417 18:21:55.453811 26635 net.cpp:453] inception_3b/output <- inception_3b/pool
I0417 18:21:55.453815 26635 net.cpp:411] inception_3b/output -> inception_3b/output
I0417 18:21:55.453817 26635 net.cpp:163] Setting up inception_3b/output
I0417 18:21:55.453821 26635 net.cpp:170] Top shape: 10 1536 9 4 (552960)
I0417 18:21:55.453824 26635 layer_factory.hpp:74] Creating layer global_pool
I0417 18:21:55.453825 26635 net.cpp:133] Creating Layer global_pool
I0417 18:21:55.453827 26635 net.cpp:453] global_pool <- inception_3b/output
I0417 18:21:55.453830 26635 net.cpp:411] global_pool -> global_pool
I0417 18:21:55.453832 26635 net.cpp:163] Setting up global_pool
I0417 18:21:55.453943 26635 net.cpp:170] Top shape: 10 1536 1 1 (15360)
I0417 18:21:55.453948 26635 layer_factory.hpp:74] Creating layer gather_global_pool_to_fc7
I0417 18:21:55.453950 26635 net.cpp:133] Creating Layer gather_global_pool_to_fc7
I0417 18:21:55.453953 26635 net.cpp:453] gather_global_pool_to_fc7 <- global_pool
I0417 18:21:55.453955 26635 net.cpp:411] gather_global_pool_to_fc7 -> gathered_global_pool
I0417 18:21:55.453958 26635 net.cpp:163] Setting up gather_global_pool_to_fc7
I0417 18:21:55.453961 26635 net.cpp:170] Top shape: 20 1536 1 1 (30720)
I0417 18:21:55.453963 26635 layer_factory.hpp:74] Creating layer fc7
I0417 18:21:55.453968 26635 net.cpp:133] Creating Layer fc7
I0417 18:21:55.453969 26635 net.cpp:453] fc7 <- gathered_global_pool
I0417 18:21:55.453971 26635 net.cpp:411] fc7 -> fc7
I0417 18:21:55.453974 26635 net.cpp:163] Setting up fc7
I0417 18:21:55.455505 26635 net.cpp:170] Top shape: 20 256 (5120)
I0417 18:21:55.455512 26635 layer_factory.hpp:74] Creating layer fc7_bn
I0417 18:21:55.455513 26635 layer_factory.cpp:191] Layer fc7_bn is using CAFFE engine.
I0417 18:21:55.455516 26635 net.cpp:133] Creating Layer fc7_bn
I0417 18:21:55.455518 26635 net.cpp:453] fc7_bn <- fc7
I0417 18:21:55.455521 26635 net.cpp:411] fc7_bn -> fc7_bn
I0417 18:21:55.455524 26635 net.cpp:163] Setting up fc7_bn
I0417 18:21:55.455533 26635 net.cpp:170] Top shape: 20 256 (5120)
I0417 18:21:55.455536 26635 layer_factory.hpp:74] Creating layer relu7
I0417 18:21:55.455539 26635 net.cpp:133] Creating Layer relu7
I0417 18:21:55.455540 26635 net.cpp:453] relu7 <- fc7_bn
I0417 18:21:55.455543 26635 net.cpp:400] relu7 -> fc7_bn (in-place)
I0417 18:21:55.455545 26635 net.cpp:163] Setting up relu7
I0417 18:21:55.455739 26635 net.cpp:170] Top shape: 20 256 (5120)
I0417 18:21:55.455744 26635 layer_factory.hpp:74] Creating layer drop7
I0417 18:21:55.455749 26635 net.cpp:133] Creating Layer drop7
I0417 18:21:55.455750 26635 net.cpp:453] drop7 <- fc7_bn
I0417 18:21:55.455754 26635 net.cpp:400] drop7 -> fc7_bn (in-place)
I0417 18:21:55.455756 26635 net.cpp:163] Setting up drop7
I0417 18:21:55.455760 26635 net.cpp:170] Top shape: 20 256 (5120)
I0417 18:21:55.455761 26635 layer_factory.hpp:74] Creating layer fc8_jstl
I0417 18:21:55.455765 26635 net.cpp:133] Creating Layer fc8_jstl
I0417 18:21:55.455766 26635 net.cpp:453] fc8_jstl <- fc7_bn
I0417 18:21:55.455770 26635 net.cpp:411] fc8_jstl -> fc8_jstl
I0417 18:21:55.455772 26635 net.cpp:163] Setting up fc8_jstl
I0417 18:21:55.460132 26635 net.cpp:170] Top shape: 20 2629 (52580)
I0417 18:21:55.460139 26635 layer_factory.hpp:74] Creating layer fc8_jstl_fc8_jstl_0_split
I0417 18:21:55.460141 26635 net.cpp:133] Creating Layer fc8_jstl_fc8_jstl_0_split
I0417 18:21:55.460144 26635 net.cpp:453] fc8_jstl_fc8_jstl_0_split <- fc8_jstl
I0417 18:21:55.460146 26635 net.cpp:411] fc8_jstl_fc8_jstl_0_split -> fc8_jstl_fc8_jstl_0_split_0
I0417 18:21:55.460150 26635 net.cpp:411] fc8_jstl_fc8_jstl_0_split -> fc8_jstl_fc8_jstl_0_split_1
I0417 18:21:55.460152 26635 net.cpp:163] Setting up fc8_jstl_fc8_jstl_0_split
I0417 18:21:55.460155 26635 net.cpp:170] Top shape: 20 2629 (52580)
I0417 18:21:55.460156 26635 net.cpp:170] Top shape: 20 2629 (52580)
I0417 18:21:55.460158 26635 layer_factory.hpp:74] Creating layer gather_label_data_1_split_to_loss
I0417 18:21:55.460160 26635 net.cpp:133] Creating Layer gather_label_data_1_split_to_loss
I0417 18:21:55.460162 26635 net.cpp:453] gather_label_data_1_split_to_loss <- label_data_1_split_0
I0417 18:21:55.460165 26635 net.cpp:411] gather_label_data_1_split_to_loss -> gathered_label_data_1_split_0
I0417 18:21:55.460167 26635 net.cpp:163] Setting up gather_label_data_1_split_to_loss
I0417 18:21:55.460170 26635 net.cpp:170] Top shape: 20 (20)
I0417 18:21:55.460171 26635 layer_factory.hpp:74] Creating layer loss
I0417 18:21:55.460173 26635 net.cpp:133] Creating Layer loss
I0417 18:21:55.460175 26635 net.cpp:453] loss <- fc8_jstl_fc8_jstl_0_split_0
I0417 18:21:55.460177 26635 net.cpp:453] loss <- gathered_label_data_1_split_0
I0417 18:21:55.460180 26635 net.cpp:411] loss -> loss
I0417 18:21:55.460182 26635 net.cpp:163] Setting up loss
I0417 18:21:55.460186 26635 layer_factory.hpp:74] Creating layer loss
I0417 18:21:55.460348 26635 net.cpp:170] Top shape: (1)
I0417 18:21:55.460352 26635 net.cpp:172]     with loss weight 1
I0417 18:21:55.460360 26635 layer_factory.hpp:74] Creating layer gather_label_data_1_split_to_accuracy
I0417 18:21:55.460362 26635 net.cpp:133] Creating Layer gather_label_data_1_split_to_accuracy
I0417 18:21:55.460364 26635 net.cpp:453] gather_label_data_1_split_to_accuracy <- label_data_1_split_1
I0417 18:21:55.460368 26635 net.cpp:411] gather_label_data_1_split_to_accuracy -> gathered_label_data_1_split_1
I0417 18:21:55.460371 26635 net.cpp:163] Setting up gather_label_data_1_split_to_accuracy
I0417 18:21:55.460373 26635 net.cpp:170] Top shape: 20 (20)
I0417 18:21:55.460376 26635 layer_factory.hpp:74] Creating layer accuracy
I0417 18:21:55.460379 26635 net.cpp:133] Creating Layer accuracy
I0417 18:21:55.460381 26635 net.cpp:453] accuracy <- fc8_jstl_fc8_jstl_0_split_1
I0417 18:21:55.460382 26635 net.cpp:453] accuracy <- gathered_label_data_1_split_1
I0417 18:21:55.460386 26635 net.cpp:411] accuracy -> accuracy
I0417 18:21:55.460388 26635 net.cpp:163] Setting up accuracy
…
